{"backend": "tensorflow", "keras_version": "2.0.6", "class_name": "Model", "config": {"layers": [{"inbound_nodes": [], "name": "input_1", "class_name": "InputLayer", "config": {"name": "input_1", "dtype": "float32", "batch_input_shape": [null, 1152, 832, 1], "sparse": false}}, {"inbound_nodes": [[["input_1", 0, 0, {}]]], "name": "conv2d_1", "class_name": "Conv2D", "config": {"activity_regularizer": null, "dilation_rate": [1, 1], "activation": "relu", "bias_initializer": {"class_name": "Zeros", "config": {}}, "filters": 16, "strides": [2, 2], "padding": "valid", "kernel_size": [3, 3], "use_bias": true, "trainable": true, "kernel_constraint": null, "data_format": "channels_last", "bias_constraint": null, "bias_regularizer": null, "name": "conv2d_1", "kernel_initializer": {"class_name": "VarianceScaling", "config": {"seed": null, "scale": 1.0, "mode": "fan_avg", "distribution": "uniform"}}, "kernel_regularizer": null}}, {"inbound_nodes": [[["conv2d_1", 0, 0, {}]]], "name": "batch_normalization_1", "class_name": "BatchNormalization", "config": {"gamma_initializer": {"class_name": "Ones", "config": {}}, "moving_mean_initializer": {"class_name": "Zeros", "config": {}}, "beta_constraint": null, "beta_initializer": {"class_name": "Zeros", "config": {}}, "scale": true, "momentum": 0.99, "center": true, "epsilon": 0.001, "trainable": true, "axis": 3, "gamma_regularizer": null, "gamma_constraint": null, "name": "batch_normalization_1", "beta_regularizer": null, "moving_variance_initializer": {"class_name": "Ones", "config": {}}}}, {"inbound_nodes": [[["batch_normalization_1", 0, 0, {}]]], "name": "conv2d_2", "class_name": "Conv2D", "config": {"activity_regularizer": null, "dilation_rate": [1, 1], "activation": "relu", "bias_initializer": {"class_name": "Zeros", "config": {}}, "filters": 16, "strides": [1, 1], "padding": "valid", "kernel_size": [3, 3], "use_bias": true, "trainable": true, "kernel_constraint": null, "data_format": "channels_last", "bias_constraint": null, "bias_regularizer": null, "name": "conv2d_2", "kernel_initializer": {"class_name": "VarianceScaling", "config": {"seed": null, "scale": 1.0, "mode": "fan_avg", "distribution": "uniform"}}, "kernel_regularizer": null}}, {"inbound_nodes": [[["conv2d_2", 0, 0, {}]]], "name": "batch_normalization_2", "class_name": "BatchNormalization", "config": {"gamma_initializer": {"class_name": "Ones", "config": {}}, "moving_mean_initializer": {"class_name": "Zeros", "config": {}}, "beta_constraint": null, "beta_initializer": {"class_name": "Zeros", "config": {}}, "scale": true, "momentum": 0.99, "center": true, "epsilon": 0.001, "trainable": true, "axis": 3, "gamma_regularizer": null, "gamma_constraint": null, "name": "batch_normalization_2", "beta_regularizer": null, "moving_variance_initializer": {"class_name": "Ones", "config": {}}}}, {"inbound_nodes": [[["batch_normalization_2", 0, 0, {}]]], "name": "conv2d_3", "class_name": "Conv2D", "config": {"activity_regularizer": null, "dilation_rate": [1, 1], "activation": "relu", "bias_initializer": {"class_name": "Zeros", "config": {}}, "filters": 32, "strides": [1, 1], "padding": "same", "kernel_size": [3, 3], "use_bias": true, "trainable": true, "kernel_constraint": null, "data_format": "channels_last", "bias_constraint": null, "bias_regularizer": null, "name": "conv2d_3", "kernel_initializer": {"class_name": "VarianceScaling", "config": {"seed": null, "scale": 1.0, "mode": "fan_avg", "distribution": "uniform"}}, "kernel_regularizer": null}}, {"inbound_nodes": [[["conv2d_3", 0, 0, {}]]], "name": "batch_normalization_3", "class_name": "BatchNormalization", "config": {"gamma_initializer": {"class_name": "Ones", "config": {}}, "moving_mean_initializer": {"class_name": "Zeros", "config": {}}, "beta_constraint": null, "beta_initializer": {"class_name": "Zeros", "config": {}}, "scale": true, "momentum": 0.99, "center": true, "epsilon": 0.001, "trainable": true, "axis": 3, "gamma_regularizer": null, "gamma_constraint": null, "name": "batch_normalization_3", "beta_regularizer": null, "moving_variance_initializer": {"class_name": "Ones", "config": {}}}}, {"inbound_nodes": [[["batch_normalization_3", 0, 0, {}]]], "name": "max_pooling2d_1", "class_name": "MaxPooling2D", "config": {"trainable": true, "data_format": "channels_last", "pool_size": [3, 3], "name": "max_pooling2d_1", "strides": [2, 2], "padding": "valid"}}, {"inbound_nodes": [[["max_pooling2d_1", 0, 0, {}]]], "name": "conv2d_4", "class_name": "Conv2D", "config": {"activity_regularizer": null, "dilation_rate": [1, 1], "activation": "relu", "bias_initializer": {"class_name": "Zeros", "config": {}}, "filters": 40, "strides": [1, 1], "padding": "valid", "kernel_size": [1, 1], "use_bias": true, "trainable": true, "kernel_constraint": null, "data_format": "channels_last", "bias_constraint": null, "bias_regularizer": null, "name": "conv2d_4", "kernel_initializer": {"class_name": "VarianceScaling", "config": {"seed": null, "scale": 1.0, "mode": "fan_avg", "distribution": "uniform"}}, "kernel_regularizer": null}}, {"inbound_nodes": [[["conv2d_4", 0, 0, {}]]], "name": "batch_normalization_4", "class_name": "BatchNormalization", "config": {"gamma_initializer": {"class_name": "Ones", "config": {}}, "moving_mean_initializer": {"class_name": "Zeros", "config": {}}, "beta_constraint": null, "beta_initializer": {"class_name": "Zeros", "config": {}}, "scale": true, "momentum": 0.99, "center": true, "epsilon": 0.001, "trainable": true, "axis": 3, "gamma_regularizer": null, "gamma_constraint": null, "name": "batch_normalization_4", "beta_regularizer": null, "moving_variance_initializer": {"class_name": "Ones", "config": {}}}}, {"inbound_nodes": [[["batch_normalization_4", 0, 0, {}]]], "name": "conv2d_5", "class_name": "Conv2D", "config": {"activity_regularizer": null, "dilation_rate": [1, 1], "activation": "relu", "bias_initializer": {"class_name": "Zeros", "config": {}}, "filters": 96, "strides": [1, 1], "padding": "valid", "kernel_size": [3, 3], "use_bias": true, "trainable": true, "kernel_constraint": null, "data_format": "channels_last", "bias_constraint": null, "bias_regularizer": null, "name": "conv2d_5", "kernel_initializer": {"class_name": "VarianceScaling", "config": {"seed": null, "scale": 1.0, "mode": "fan_avg", "distribution": "uniform"}}, "kernel_regularizer": null}}, {"inbound_nodes": [[["conv2d_5", 0, 0, {}]]], "name": "batch_normalization_5", "class_name": "BatchNormalization", "config": {"gamma_initializer": {"class_name": "Ones", "config": {}}, "moving_mean_initializer": {"class_name": "Zeros", "config": {}}, "beta_constraint": null, "beta_initializer": {"class_name": "Zeros", "config": {}}, "scale": true, "momentum": 0.99, "center": true, "epsilon": 0.001, "trainable": true, "axis": 3, "gamma_regularizer": null, "gamma_constraint": null, "name": "batch_normalization_5", "beta_regularizer": null, "moving_variance_initializer": {"class_name": "Ones", "config": {}}}}, {"inbound_nodes": [[["batch_normalization_5", 0, 0, {}]]], "name": "max_pooling2d_2", "class_name": "MaxPooling2D", "config": {"trainable": true, "data_format": "channels_last", "pool_size": [3, 3], "name": "max_pooling2d_2", "strides": [2, 2], "padding": "valid"}}, {"inbound_nodes": [[["max_pooling2d_2", 0, 0, {}]]], "name": "conv2d_9", "class_name": "Conv2D", "config": {"activity_regularizer": null, "dilation_rate": [1, 1], "activation": "relu", "bias_initializer": {"class_name": "Zeros", "config": {}}, "filters": 32, "strides": [1, 1], "padding": "same", "kernel_size": [1, 1], "use_bias": true, "trainable": true, "kernel_constraint": null, "data_format": "channels_last", "bias_constraint": null, "bias_regularizer": null, "name": "conv2d_9", "kernel_initializer": {"class_name": "VarianceScaling", "config": {"seed": null, "scale": 1.0, "mode": "fan_avg", "distribution": "uniform"}}, "kernel_regularizer": null}}, {"inbound_nodes": [[["conv2d_9", 0, 0, {}]]], "name": "batch_normalization_9", "class_name": "BatchNormalization", "config": {"gamma_initializer": {"class_name": "Ones", "config": {}}, "moving_mean_initializer": {"class_name": "Zeros", "config": {}}, "beta_constraint": null, "beta_initializer": {"class_name": "Zeros", "config": {}}, "scale": true, "momentum": 0.99, "center": true, "epsilon": 0.001, "trainable": true, "axis": 3, "gamma_regularizer": null, "gamma_constraint": null, "name": "batch_normalization_9", "beta_regularizer": null, "moving_variance_initializer": {"class_name": "Ones", "config": {}}}}, {"inbound_nodes": [[["max_pooling2d_2", 0, 0, {}]]], "name": "conv2d_7", "class_name": "Conv2D", "config": {"activity_regularizer": null, "dilation_rate": [1, 1], "activation": "relu", "bias_initializer": {"class_name": "Zeros", "config": {}}, "filters": 24, "strides": [1, 1], "padding": "same", "kernel_size": [1, 1], "use_bias": true, "trainable": true, "kernel_constraint": null, "data_format": "channels_last", "bias_constraint": null, "bias_regularizer": null, "name": "conv2d_7", "kernel_initializer": {"class_name": "VarianceScaling", "config": {"seed": null, "scale": 1.0, "mode": "fan_avg", "distribution": "uniform"}}, "kernel_regularizer": null}}, {"inbound_nodes": [[["batch_normalization_9", 0, 0, {}]]], "name": "conv2d_10", "class_name": "Conv2D", "config": {"activity_regularizer": null, "dilation_rate": [1, 1], "activation": "relu", "bias_initializer": {"class_name": "Zeros", "config": {}}, "filters": 48, "strides": [1, 1], "padding": "same", "kernel_size": [3, 3], "use_bias": true, "trainable": true, "kernel_constraint": null, "data_format": "channels_last", "bias_constraint": null, "bias_regularizer": null, "name": "conv2d_10", "kernel_initializer": {"class_name": "VarianceScaling", "config": {"seed": null, "scale": 1.0, "mode": "fan_avg", "distribution": "uniform"}}, "kernel_regularizer": null}}, {"inbound_nodes": [[["conv2d_7", 0, 0, {}]]], "name": "batch_normalization_7", "class_name": "BatchNormalization", "config": {"gamma_initializer": {"class_name": "Ones", "config": {}}, "moving_mean_initializer": {"class_name": "Zeros", "config": {}}, "beta_constraint": null, "beta_initializer": {"class_name": "Zeros", "config": {}}, "scale": true, "momentum": 0.99, "center": true, "epsilon": 0.001, "trainable": true, "axis": 3, "gamma_regularizer": null, "gamma_constraint": null, "name": "batch_normalization_7", "beta_regularizer": null, "moving_variance_initializer": {"class_name": "Ones", "config": {}}}}, {"inbound_nodes": [[["conv2d_10", 0, 0, {}]]], "name": "batch_normalization_10", "class_name": "BatchNormalization", "config": {"gamma_initializer": {"class_name": "Ones", "config": {}}, "moving_mean_initializer": {"class_name": "Zeros", "config": {}}, "beta_constraint": null, "beta_initializer": {"class_name": "Zeros", "config": {}}, "scale": true, "momentum": 0.99, "center": true, "epsilon": 0.001, "trainable": true, "axis": 3, "gamma_regularizer": null, "gamma_constraint": null, "name": "batch_normalization_10", "beta_regularizer": null, "moving_variance_initializer": {"class_name": "Ones", "config": {}}}}, {"inbound_nodes": [[["max_pooling2d_2", 0, 0, {}]]], "name": "average_pooling2d_1", "class_name": "AveragePooling2D", "config": {"trainable": true, "data_format": "channels_last", "pool_size": [3, 3], "name": "average_pooling2d_1", "strides": [1, 1], "padding": "same"}}, {"inbound_nodes": [[["max_pooling2d_2", 0, 0, {}]]], "name": "conv2d_6", "class_name": "Conv2D", "config": {"activity_regularizer": null, "dilation_rate": [1, 1], "activation": "relu", "bias_initializer": {"class_name": "Zeros", "config": {}}, "filters": 32, "strides": [1, 1], "padding": "same", "kernel_size": [1, 1], "use_bias": true, "trainable": true, "kernel_constraint": null, "data_format": "channels_last", "bias_constraint": null, "bias_regularizer": null, "name": "conv2d_6", "kernel_initializer": {"class_name": "VarianceScaling", "config": {"seed": null, "scale": 1.0, "mode": "fan_avg", "distribution": "uniform"}}, "kernel_regularizer": null}}, {"inbound_nodes": [[["batch_normalization_7", 0, 0, {}]]], "name": "conv2d_8", "class_name": "Conv2D", "config": {"activity_regularizer": null, "dilation_rate": [1, 1], "activation": "relu", "bias_initializer": {"class_name": "Zeros", "config": {}}, "filters": 32, "strides": [1, 1], "padding": "same", "kernel_size": [5, 5], "use_bias": true, "trainable": true, "kernel_constraint": null, "data_format": "channels_last", "bias_constraint": null, "bias_regularizer": null, "name": "conv2d_8", "kernel_initializer": {"class_name": "VarianceScaling", "config": {"seed": null, "scale": 1.0, "mode": "fan_avg", "distribution": "uniform"}}, "kernel_regularizer": null}}, {"inbound_nodes": [[["batch_normalization_10", 0, 0, {}]]], "name": "conv2d_11", "class_name": "Conv2D", "config": {"activity_regularizer": null, "dilation_rate": [1, 1], "activation": "relu", "bias_initializer": {"class_name": "Zeros", "config": {}}, "filters": 48, "strides": [1, 1], "padding": "same", "kernel_size": [3, 3], "use_bias": true, "trainable": true, "kernel_constraint": null, "data_format": "channels_last", "bias_constraint": null, "bias_regularizer": null, "name": "conv2d_11", "kernel_initializer": {"class_name": "VarianceScaling", "config": {"seed": null, "scale": 1.0, "mode": "fan_avg", "distribution": "uniform"}}, "kernel_regularizer": null}}, {"inbound_nodes": [[["average_pooling2d_1", 0, 0, {}]]], "name": "conv2d_12", "class_name": "Conv2D", "config": {"activity_regularizer": null, "dilation_rate": [1, 1], "activation": "relu", "bias_initializer": {"class_name": "Zeros", "config": {}}, "filters": 16, "strides": [1, 1], "padding": "same", "kernel_size": [1, 1], "use_bias": true, "trainable": true, "kernel_constraint": null, "data_format": "channels_last", "bias_constraint": null, "bias_regularizer": null, "name": "conv2d_12", "kernel_initializer": {"class_name": "VarianceScaling", "config": {"seed": null, "scale": 1.0, "mode": "fan_avg", "distribution": "uniform"}}, "kernel_regularizer": null}}, {"inbound_nodes": [[["conv2d_6", 0, 0, {}]]], "name": "batch_normalization_6", "class_name": "BatchNormalization", "config": {"gamma_initializer": {"class_name": "Ones", "config": {}}, "moving_mean_initializer": {"class_name": "Zeros", "config": {}}, "beta_constraint": null, "beta_initializer": {"class_name": "Zeros", "config": {}}, "scale": true, "momentum": 0.99, "center": true, "epsilon": 0.001, "trainable": true, "axis": 3, "gamma_regularizer": null, "gamma_constraint": null, "name": "batch_normalization_6", "beta_regularizer": null, "moving_variance_initializer": {"class_name": "Ones", "config": {}}}}, {"inbound_nodes": [[["conv2d_8", 0, 0, {}]]], "name": "batch_normalization_8", "class_name": "BatchNormalization", "config": {"gamma_initializer": {"class_name": "Ones", "config": {}}, "moving_mean_initializer": {"class_name": "Zeros", "config": {}}, "beta_constraint": null, "beta_initializer": {"class_name": "Zeros", "config": {}}, "scale": true, "momentum": 0.99, "center": true, "epsilon": 0.001, "trainable": true, "axis": 3, "gamma_regularizer": null, "gamma_constraint": null, "name": "batch_normalization_8", "beta_regularizer": null, "moving_variance_initializer": {"class_name": "Ones", "config": {}}}}, {"inbound_nodes": [[["conv2d_11", 0, 0, {}]]], "name": "batch_normalization_11", "class_name": "BatchNormalization", "config": {"gamma_initializer": {"class_name": "Ones", "config": {}}, "moving_mean_initializer": {"class_name": "Zeros", "config": {}}, "beta_constraint": null, "beta_initializer": {"class_name": "Zeros", "config": {}}, "scale": true, "momentum": 0.99, "center": true, "epsilon": 0.001, "trainable": true, "axis": 3, "gamma_regularizer": null, "gamma_constraint": null, "name": "batch_normalization_11", "beta_regularizer": null, "moving_variance_initializer": {"class_name": "Ones", "config": {}}}}, {"inbound_nodes": [[["conv2d_12", 0, 0, {}]]], "name": "batch_normalization_12", "class_name": "BatchNormalization", "config": {"gamma_initializer": {"class_name": "Ones", "config": {}}, "moving_mean_initializer": {"class_name": "Zeros", "config": {}}, "beta_constraint": null, "beta_initializer": {"class_name": "Zeros", "config": {}}, "scale": true, "momentum": 0.99, "center": true, "epsilon": 0.001, "trainable": true, "axis": 3, "gamma_regularizer": null, "gamma_constraint": null, "name": "batch_normalization_12", "beta_regularizer": null, "moving_variance_initializer": {"class_name": "Ones", "config": {}}}}, {"inbound_nodes": [[["batch_normalization_6", 0, 0, {}], ["batch_normalization_8", 0, 0, {}], ["batch_normalization_11", 0, 0, {}], ["batch_normalization_12", 0, 0, {}]]], "name": "mixed0", "class_name": "Concatenate", "config": {"name": "mixed0", "trainable": true, "axis": -1}}, {"inbound_nodes": [[["mixed0", 0, 0, {}]]], "name": "conv2d_16", "class_name": "Conv2D", "config": {"activity_regularizer": null, "dilation_rate": [1, 1], "activation": "relu", "bias_initializer": {"class_name": "Zeros", "config": {}}, "filters": 32, "strides": [1, 1], "padding": "same", "kernel_size": [1, 1], "use_bias": true, "trainable": true, "kernel_constraint": null, "data_format": "channels_last", "bias_constraint": null, "bias_regularizer": null, "name": "conv2d_16", "kernel_initializer": {"class_name": "VarianceScaling", "config": {"seed": null, "scale": 1.0, "mode": "fan_avg", "distribution": "uniform"}}, "kernel_regularizer": null}}, {"inbound_nodes": [[["conv2d_16", 0, 0, {}]]], "name": "batch_normalization_16", "class_name": "BatchNormalization", "config": {"gamma_initializer": {"class_name": "Ones", "config": {}}, "moving_mean_initializer": {"class_name": "Zeros", "config": {}}, "beta_constraint": null, "beta_initializer": {"class_name": "Zeros", "config": {}}, "scale": true, "momentum": 0.99, "center": true, "epsilon": 0.001, "trainable": true, "axis": 3, "gamma_regularizer": null, "gamma_constraint": null, "name": "batch_normalization_16", "beta_regularizer": null, "moving_variance_initializer": {"class_name": "Ones", "config": {}}}}, {"inbound_nodes": [[["mixed0", 0, 0, {}]]], "name": "conv2d_14", "class_name": "Conv2D", "config": {"activity_regularizer": null, "dilation_rate": [1, 1], "activation": "relu", "bias_initializer": {"class_name": "Zeros", "config": {}}, "filters": 24, "strides": [1, 1], "padding": "same", "kernel_size": [1, 1], "use_bias": true, "trainable": true, "kernel_constraint": null, "data_format": "channels_last", "bias_constraint": null, "bias_regularizer": null, "name": "conv2d_14", "kernel_initializer": {"class_name": "VarianceScaling", "config": {"seed": null, "scale": 1.0, "mode": "fan_avg", "distribution": "uniform"}}, "kernel_regularizer": null}}, {"inbound_nodes": [[["batch_normalization_16", 0, 0, {}]]], "name": "conv2d_17", "class_name": "Conv2D", "config": {"activity_regularizer": null, "dilation_rate": [1, 1], "activation": "relu", "bias_initializer": {"class_name": "Zeros", "config": {}}, "filters": 48, "strides": [1, 1], "padding": "same", "kernel_size": [3, 3], "use_bias": true, "trainable": true, "kernel_constraint": null, "data_format": "channels_last", "bias_constraint": null, "bias_regularizer": null, "name": "conv2d_17", "kernel_initializer": {"class_name": "VarianceScaling", "config": {"seed": null, "scale": 1.0, "mode": "fan_avg", "distribution": "uniform"}}, "kernel_regularizer": null}}, {"inbound_nodes": [[["conv2d_14", 0, 0, {}]]], "name": "batch_normalization_14", "class_name": "BatchNormalization", "config": {"gamma_initializer": {"class_name": "Ones", "config": {}}, "moving_mean_initializer": {"class_name": "Zeros", "config": {}}, "beta_constraint": null, "beta_initializer": {"class_name": "Zeros", "config": {}}, "scale": true, "momentum": 0.99, "center": true, "epsilon": 0.001, "trainable": true, "axis": 3, "gamma_regularizer": null, "gamma_constraint": null, "name": "batch_normalization_14", "beta_regularizer": null, "moving_variance_initializer": {"class_name": "Ones", "config": {}}}}, {"inbound_nodes": [[["conv2d_17", 0, 0, {}]]], "name": "batch_normalization_17", "class_name": "BatchNormalization", "config": {"gamma_initializer": {"class_name": "Ones", "config": {}}, "moving_mean_initializer": {"class_name": "Zeros", "config": {}}, "beta_constraint": null, "beta_initializer": {"class_name": "Zeros", "config": {}}, "scale": true, "momentum": 0.99, "center": true, "epsilon": 0.001, "trainable": true, "axis": 3, "gamma_regularizer": null, "gamma_constraint": null, "name": "batch_normalization_17", "beta_regularizer": null, "moving_variance_initializer": {"class_name": "Ones", "config": {}}}}, {"inbound_nodes": [[["mixed0", 0, 0, {}]]], "name": "average_pooling2d_2", "class_name": "AveragePooling2D", "config": {"trainable": true, "data_format": "channels_last", "pool_size": [3, 3], "name": "average_pooling2d_2", "strides": [1, 1], "padding": "same"}}, {"inbound_nodes": [[["mixed0", 0, 0, {}]]], "name": "conv2d_13", "class_name": "Conv2D", "config": {"activity_regularizer": null, "dilation_rate": [1, 1], "activation": "relu", "bias_initializer": {"class_name": "Zeros", "config": {}}, "filters": 32, "strides": [1, 1], "padding": "same", "kernel_size": [1, 1], "use_bias": true, "trainable": true, "kernel_constraint": null, "data_format": "channels_last", "bias_constraint": null, "bias_regularizer": null, "name": "conv2d_13", "kernel_initializer": {"class_name": "VarianceScaling", "config": {"seed": null, "scale": 1.0, "mode": "fan_avg", "distribution": "uniform"}}, "kernel_regularizer": null}}, {"inbound_nodes": [[["batch_normalization_14", 0, 0, {}]]], "name": "conv2d_15", "class_name": "Conv2D", "config": {"activity_regularizer": null, "dilation_rate": [1, 1], "activation": "relu", "bias_initializer": {"class_name": "Zeros", "config": {}}, "filters": 32, "strides": [1, 1], "padding": "same", "kernel_size": [5, 5], "use_bias": true, "trainable": true, "kernel_constraint": null, "data_format": "channels_last", "bias_constraint": null, "bias_regularizer": null, "name": "conv2d_15", "kernel_initializer": {"class_name": "VarianceScaling", "config": {"seed": null, "scale": 1.0, "mode": "fan_avg", "distribution": "uniform"}}, "kernel_regularizer": null}}, {"inbound_nodes": [[["batch_normalization_17", 0, 0, {}]]], "name": "conv2d_18", "class_name": "Conv2D", "config": {"activity_regularizer": null, "dilation_rate": [1, 1], "activation": "relu", "bias_initializer": {"class_name": "Zeros", "config": {}}, "filters": 48, "strides": [1, 1], "padding": "same", "kernel_size": [3, 3], "use_bias": true, "trainable": true, "kernel_constraint": null, "data_format": "channels_last", "bias_constraint": null, "bias_regularizer": null, "name": "conv2d_18", "kernel_initializer": {"class_name": "VarianceScaling", "config": {"seed": null, "scale": 1.0, "mode": "fan_avg", "distribution": "uniform"}}, "kernel_regularizer": null}}, {"inbound_nodes": [[["average_pooling2d_2", 0, 0, {}]]], "name": "conv2d_19", "class_name": "Conv2D", "config": {"activity_regularizer": null, "dilation_rate": [1, 1], "activation": "relu", "bias_initializer": {"class_name": "Zeros", "config": {}}, "filters": 16, "strides": [1, 1], "padding": "same", "kernel_size": [1, 1], "use_bias": true, "trainable": true, "kernel_constraint": null, "data_format": "channels_last", "bias_constraint": null, "bias_regularizer": null, "name": "conv2d_19", "kernel_initializer": {"class_name": "VarianceScaling", "config": {"seed": null, "scale": 1.0, "mode": "fan_avg", "distribution": "uniform"}}, "kernel_regularizer": null}}, {"inbound_nodes": [[["conv2d_13", 0, 0, {}]]], "name": "batch_normalization_13", "class_name": "BatchNormalization", "config": {"gamma_initializer": {"class_name": "Ones", "config": {}}, "moving_mean_initializer": {"class_name": "Zeros", "config": {}}, "beta_constraint": null, "beta_initializer": {"class_name": "Zeros", "config": {}}, "scale": true, "momentum": 0.99, "center": true, "epsilon": 0.001, "trainable": true, "axis": 3, "gamma_regularizer": null, "gamma_constraint": null, "name": "batch_normalization_13", "beta_regularizer": null, "moving_variance_initializer": {"class_name": "Ones", "config": {}}}}, {"inbound_nodes": [[["conv2d_15", 0, 0, {}]]], "name": "batch_normalization_15", "class_name": "BatchNormalization", "config": {"gamma_initializer": {"class_name": "Ones", "config": {}}, "moving_mean_initializer": {"class_name": "Zeros", "config": {}}, "beta_constraint": null, "beta_initializer": {"class_name": "Zeros", "config": {}}, "scale": true, "momentum": 0.99, "center": true, "epsilon": 0.001, "trainable": true, "axis": 3, "gamma_regularizer": null, "gamma_constraint": null, "name": "batch_normalization_15", "beta_regularizer": null, "moving_variance_initializer": {"class_name": "Ones", "config": {}}}}, {"inbound_nodes": [[["conv2d_18", 0, 0, {}]]], "name": "batch_normalization_18", "class_name": "BatchNormalization", "config": {"gamma_initializer": {"class_name": "Ones", "config": {}}, "moving_mean_initializer": {"class_name": "Zeros", "config": {}}, "beta_constraint": null, "beta_initializer": {"class_name": "Zeros", "config": {}}, "scale": true, "momentum": 0.99, "center": true, "epsilon": 0.001, "trainable": true, "axis": 3, "gamma_regularizer": null, "gamma_constraint": null, "name": "batch_normalization_18", "beta_regularizer": null, "moving_variance_initializer": {"class_name": "Ones", "config": {}}}}, {"inbound_nodes": [[["conv2d_19", 0, 0, {}]]], "name": "batch_normalization_19", "class_name": "BatchNormalization", "config": {"gamma_initializer": {"class_name": "Ones", "config": {}}, "moving_mean_initializer": {"class_name": "Zeros", "config": {}}, "beta_constraint": null, "beta_initializer": {"class_name": "Zeros", "config": {}}, "scale": true, "momentum": 0.99, "center": true, "epsilon": 0.001, "trainable": true, "axis": 3, "gamma_regularizer": null, "gamma_constraint": null, "name": "batch_normalization_19", "beta_regularizer": null, "moving_variance_initializer": {"class_name": "Ones", "config": {}}}}, {"inbound_nodes": [[["batch_normalization_13", 0, 0, {}], ["batch_normalization_15", 0, 0, {}], ["batch_normalization_18", 0, 0, {}], ["batch_normalization_19", 0, 0, {}]]], "name": "mixed1", "class_name": "Concatenate", "config": {"name": "mixed1", "trainable": true, "axis": -1}}, {"inbound_nodes": [[["mixed1", 0, 0, {}]]], "name": "conv2d_23", "class_name": "Conv2D", "config": {"activity_regularizer": null, "dilation_rate": [1, 1], "activation": "relu", "bias_initializer": {"class_name": "Zeros", "config": {}}, "filters": 32, "strides": [1, 1], "padding": "same", "kernel_size": [1, 1], "use_bias": true, "trainable": true, "kernel_constraint": null, "data_format": "channels_last", "bias_constraint": null, "bias_regularizer": null, "name": "conv2d_23", "kernel_initializer": {"class_name": "VarianceScaling", "config": {"seed": null, "scale": 1.0, "mode": "fan_avg", "distribution": "uniform"}}, "kernel_regularizer": null}}, {"inbound_nodes": [[["conv2d_23", 0, 0, {}]]], "name": "batch_normalization_23", "class_name": "BatchNormalization", "config": {"gamma_initializer": {"class_name": "Ones", "config": {}}, "moving_mean_initializer": {"class_name": "Zeros", "config": {}}, "beta_constraint": null, "beta_initializer": {"class_name": "Zeros", "config": {}}, "scale": true, "momentum": 0.99, "center": true, "epsilon": 0.001, "trainable": true, "axis": 3, "gamma_regularizer": null, "gamma_constraint": null, "name": "batch_normalization_23", "beta_regularizer": null, "moving_variance_initializer": {"class_name": "Ones", "config": {}}}}, {"inbound_nodes": [[["mixed1", 0, 0, {}]]], "name": "conv2d_21", "class_name": "Conv2D", "config": {"activity_regularizer": null, "dilation_rate": [1, 1], "activation": "relu", "bias_initializer": {"class_name": "Zeros", "config": {}}, "filters": 24, "strides": [1, 1], "padding": "same", "kernel_size": [1, 1], "use_bias": true, "trainable": true, "kernel_constraint": null, "data_format": "channels_last", "bias_constraint": null, "bias_regularizer": null, "name": "conv2d_21", "kernel_initializer": {"class_name": "VarianceScaling", "config": {"seed": null, "scale": 1.0, "mode": "fan_avg", "distribution": "uniform"}}, "kernel_regularizer": null}}, {"inbound_nodes": [[["batch_normalization_23", 0, 0, {}]]], "name": "conv2d_24", "class_name": "Conv2D", "config": {"activity_regularizer": null, "dilation_rate": [1, 1], "activation": "relu", "bias_initializer": {"class_name": "Zeros", "config": {}}, "filters": 48, "strides": [1, 1], "padding": "same", "kernel_size": [3, 3], "use_bias": true, "trainable": true, "kernel_constraint": null, "data_format": "channels_last", "bias_constraint": null, "bias_regularizer": null, "name": "conv2d_24", "kernel_initializer": {"class_name": "VarianceScaling", "config": {"seed": null, "scale": 1.0, "mode": "fan_avg", "distribution": "uniform"}}, "kernel_regularizer": null}}, {"inbound_nodes": [[["conv2d_21", 0, 0, {}]]], "name": "batch_normalization_21", "class_name": "BatchNormalization", "config": {"gamma_initializer": {"class_name": "Ones", "config": {}}, "moving_mean_initializer": {"class_name": "Zeros", "config": {}}, "beta_constraint": null, "beta_initializer": {"class_name": "Zeros", "config": {}}, "scale": true, "momentum": 0.99, "center": true, "epsilon": 0.001, "trainable": true, "axis": 3, "gamma_regularizer": null, "gamma_constraint": null, "name": "batch_normalization_21", "beta_regularizer": null, "moving_variance_initializer": {"class_name": "Ones", "config": {}}}}, {"inbound_nodes": [[["conv2d_24", 0, 0, {}]]], "name": "batch_normalization_24", "class_name": "BatchNormalization", "config": {"gamma_initializer": {"class_name": "Ones", "config": {}}, "moving_mean_initializer": {"class_name": "Zeros", "config": {}}, "beta_constraint": null, "beta_initializer": {"class_name": "Zeros", "config": {}}, "scale": true, "momentum": 0.99, "center": true, "epsilon": 0.001, "trainable": true, "axis": 3, "gamma_regularizer": null, "gamma_constraint": null, "name": "batch_normalization_24", "beta_regularizer": null, "moving_variance_initializer": {"class_name": "Ones", "config": {}}}}, {"inbound_nodes": [[["mixed1", 0, 0, {}]]], "name": "average_pooling2d_3", "class_name": "AveragePooling2D", "config": {"trainable": true, "data_format": "channels_last", "pool_size": [3, 3], "name": "average_pooling2d_3", "strides": [1, 1], "padding": "same"}}, {"inbound_nodes": [[["mixed1", 0, 0, {}]]], "name": "conv2d_20", "class_name": "Conv2D", "config": {"activity_regularizer": null, "dilation_rate": [1, 1], "activation": "relu", "bias_initializer": {"class_name": "Zeros", "config": {}}, "filters": 32, "strides": [1, 1], "padding": "same", "kernel_size": [1, 1], "use_bias": true, "trainable": true, "kernel_constraint": null, "data_format": "channels_last", "bias_constraint": null, "bias_regularizer": null, "name": "conv2d_20", "kernel_initializer": {"class_name": "VarianceScaling", "config": {"seed": null, "scale": 1.0, "mode": "fan_avg", "distribution": "uniform"}}, "kernel_regularizer": null}}, {"inbound_nodes": [[["batch_normalization_21", 0, 0, {}]]], "name": "conv2d_22", "class_name": "Conv2D", "config": {"activity_regularizer": null, "dilation_rate": [1, 1], "activation": "relu", "bias_initializer": {"class_name": "Zeros", "config": {}}, "filters": 32, "strides": [1, 1], "padding": "same", "kernel_size": [5, 5], "use_bias": true, "trainable": true, "kernel_constraint": null, "data_format": "channels_last", "bias_constraint": null, "bias_regularizer": null, "name": "conv2d_22", "kernel_initializer": {"class_name": "VarianceScaling", "config": {"seed": null, "scale": 1.0, "mode": "fan_avg", "distribution": "uniform"}}, "kernel_regularizer": null}}, {"inbound_nodes": [[["batch_normalization_24", 0, 0, {}]]], "name": "conv2d_25", "class_name": "Conv2D", "config": {"activity_regularizer": null, "dilation_rate": [1, 1], "activation": "relu", "bias_initializer": {"class_name": "Zeros", "config": {}}, "filters": 48, "strides": [1, 1], "padding": "same", "kernel_size": [3, 3], "use_bias": true, "trainable": true, "kernel_constraint": null, "data_format": "channels_last", "bias_constraint": null, "bias_regularizer": null, "name": "conv2d_25", "kernel_initializer": {"class_name": "VarianceScaling", "config": {"seed": null, "scale": 1.0, "mode": "fan_avg", "distribution": "uniform"}}, "kernel_regularizer": null}}, {"inbound_nodes": [[["average_pooling2d_3", 0, 0, {}]]], "name": "conv2d_26", "class_name": "Conv2D", "config": {"activity_regularizer": null, "dilation_rate": [1, 1], "activation": "relu", "bias_initializer": {"class_name": "Zeros", "config": {}}, "filters": 16, "strides": [1, 1], "padding": "same", "kernel_size": [1, 1], "use_bias": true, "trainable": true, "kernel_constraint": null, "data_format": "channels_last", "bias_constraint": null, "bias_regularizer": null, "name": "conv2d_26", "kernel_initializer": {"class_name": "VarianceScaling", "config": {"seed": null, "scale": 1.0, "mode": "fan_avg", "distribution": "uniform"}}, "kernel_regularizer": null}}, {"inbound_nodes": [[["conv2d_20", 0, 0, {}]]], "name": "batch_normalization_20", "class_name": "BatchNormalization", "config": {"gamma_initializer": {"class_name": "Ones", "config": {}}, "moving_mean_initializer": {"class_name": "Zeros", "config": {}}, "beta_constraint": null, "beta_initializer": {"class_name": "Zeros", "config": {}}, "scale": true, "momentum": 0.99, "center": true, "epsilon": 0.001, "trainable": true, "axis": 3, "gamma_regularizer": null, "gamma_constraint": null, "name": "batch_normalization_20", "beta_regularizer": null, "moving_variance_initializer": {"class_name": "Ones", "config": {}}}}, {"inbound_nodes": [[["conv2d_22", 0, 0, {}]]], "name": "batch_normalization_22", "class_name": "BatchNormalization", "config": {"gamma_initializer": {"class_name": "Ones", "config": {}}, "moving_mean_initializer": {"class_name": "Zeros", "config": {}}, "beta_constraint": null, "beta_initializer": {"class_name": "Zeros", "config": {}}, "scale": true, "momentum": 0.99, "center": true, "epsilon": 0.001, "trainable": true, "axis": 3, "gamma_regularizer": null, "gamma_constraint": null, "name": "batch_normalization_22", "beta_regularizer": null, "moving_variance_initializer": {"class_name": "Ones", "config": {}}}}, {"inbound_nodes": [[["conv2d_25", 0, 0, {}]]], "name": "batch_normalization_25", "class_name": "BatchNormalization", "config": {"gamma_initializer": {"class_name": "Ones", "config": {}}, "moving_mean_initializer": {"class_name": "Zeros", "config": {}}, "beta_constraint": null, "beta_initializer": {"class_name": "Zeros", "config": {}}, "scale": true, "momentum": 0.99, "center": true, "epsilon": 0.001, "trainable": true, "axis": 3, "gamma_regularizer": null, "gamma_constraint": null, "name": "batch_normalization_25", "beta_regularizer": null, "moving_variance_initializer": {"class_name": "Ones", "config": {}}}}, {"inbound_nodes": [[["conv2d_26", 0, 0, {}]]], "name": "batch_normalization_26", "class_name": "BatchNormalization", "config": {"gamma_initializer": {"class_name": "Ones", "config": {}}, "moving_mean_initializer": {"class_name": "Zeros", "config": {}}, "beta_constraint": null, "beta_initializer": {"class_name": "Zeros", "config": {}}, "scale": true, "momentum": 0.99, "center": true, "epsilon": 0.001, "trainable": true, "axis": 3, "gamma_regularizer": null, "gamma_constraint": null, "name": "batch_normalization_26", "beta_regularizer": null, "moving_variance_initializer": {"class_name": "Ones", "config": {}}}}, {"inbound_nodes": [[["batch_normalization_20", 0, 0, {}], ["batch_normalization_22", 0, 0, {}], ["batch_normalization_25", 0, 0, {}], ["batch_normalization_26", 0, 0, {}]]], "name": "mixed2", "class_name": "Concatenate", "config": {"name": "mixed2", "trainable": true, "axis": -1}}, {"inbound_nodes": [[["mixed2", 0, 0, {}]]], "name": "conv2d_28", "class_name": "Conv2D", "config": {"activity_regularizer": null, "dilation_rate": [1, 1], "activation": "relu", "bias_initializer": {"class_name": "Zeros", "config": {}}, "filters": 32, "strides": [1, 1], "padding": "same", "kernel_size": [1, 1], "use_bias": true, "trainable": true, "kernel_constraint": null, "data_format": "channels_last", "bias_constraint": null, "bias_regularizer": null, "name": "conv2d_28", "kernel_initializer": {"class_name": "VarianceScaling", "config": {"seed": null, "scale": 1.0, "mode": "fan_avg", "distribution": "uniform"}}, "kernel_regularizer": null}}, {"inbound_nodes": [[["conv2d_28", 0, 0, {}]]], "name": "batch_normalization_28", "class_name": "BatchNormalization", "config": {"gamma_initializer": {"class_name": "Ones", "config": {}}, "moving_mean_initializer": {"class_name": "Zeros", "config": {}}, "beta_constraint": null, "beta_initializer": {"class_name": "Zeros", "config": {}}, "scale": true, "momentum": 0.99, "center": true, "epsilon": 0.001, "trainable": true, "axis": 3, "gamma_regularizer": null, "gamma_constraint": null, "name": "batch_normalization_28", "beta_regularizer": null, "moving_variance_initializer": {"class_name": "Ones", "config": {}}}}, {"inbound_nodes": [[["batch_normalization_28", 0, 0, {}]]], "name": "conv2d_29", "class_name": "Conv2D", "config": {"activity_regularizer": null, "dilation_rate": [1, 1], "activation": "relu", "bias_initializer": {"class_name": "Zeros", "config": {}}, "filters": 48, "strides": [1, 1], "padding": "same", "kernel_size": [3, 3], "use_bias": true, "trainable": true, "kernel_constraint": null, "data_format": "channels_last", "bias_constraint": null, "bias_regularizer": null, "name": "conv2d_29", "kernel_initializer": {"class_name": "VarianceScaling", "config": {"seed": null, "scale": 1.0, "mode": "fan_avg", "distribution": "uniform"}}, "kernel_regularizer": null}}, {"inbound_nodes": [[["conv2d_29", 0, 0, {}]]], "name": "batch_normalization_29", "class_name": "BatchNormalization", "config": {"gamma_initializer": {"class_name": "Ones", "config": {}}, "moving_mean_initializer": {"class_name": "Zeros", "config": {}}, "beta_constraint": null, "beta_initializer": {"class_name": "Zeros", "config": {}}, "scale": true, "momentum": 0.99, "center": true, "epsilon": 0.001, "trainable": true, "axis": 3, "gamma_regularizer": null, "gamma_constraint": null, "name": "batch_normalization_29", "beta_regularizer": null, "moving_variance_initializer": {"class_name": "Ones", "config": {}}}}, {"inbound_nodes": [[["mixed2", 0, 0, {}]]], "name": "conv2d_27", "class_name": "Conv2D", "config": {"activity_regularizer": null, "dilation_rate": [1, 1], "activation": "relu", "bias_initializer": {"class_name": "Zeros", "config": {}}, "filters": 192, "strides": [2, 2], "padding": "valid", "kernel_size": [3, 3], "use_bias": true, "trainable": true, "kernel_constraint": null, "data_format": "channels_last", "bias_constraint": null, "bias_regularizer": null, "name": "conv2d_27", "kernel_initializer": {"class_name": "VarianceScaling", "config": {"seed": null, "scale": 1.0, "mode": "fan_avg", "distribution": "uniform"}}, "kernel_regularizer": null}}, {"inbound_nodes": [[["batch_normalization_29", 0, 0, {}]]], "name": "conv2d_30", "class_name": "Conv2D", "config": {"activity_regularizer": null, "dilation_rate": [1, 1], "activation": "relu", "bias_initializer": {"class_name": "Zeros", "config": {}}, "filters": 48, "strides": [2, 2], "padding": "valid", "kernel_size": [3, 3], "use_bias": true, "trainable": true, "kernel_constraint": null, "data_format": "channels_last", "bias_constraint": null, "bias_regularizer": null, "name": "conv2d_30", "kernel_initializer": {"class_name": "VarianceScaling", "config": {"seed": null, "scale": 1.0, "mode": "fan_avg", "distribution": "uniform"}}, "kernel_regularizer": null}}, {"inbound_nodes": [[["conv2d_27", 0, 0, {}]]], "name": "batch_normalization_27", "class_name": "BatchNormalization", "config": {"gamma_initializer": {"class_name": "Ones", "config": {}}, "moving_mean_initializer": {"class_name": "Zeros", "config": {}}, "beta_constraint": null, "beta_initializer": {"class_name": "Zeros", "config": {}}, "scale": true, "momentum": 0.99, "center": true, "epsilon": 0.001, "trainable": true, "axis": 3, "gamma_regularizer": null, "gamma_constraint": null, "name": "batch_normalization_27", "beta_regularizer": null, "moving_variance_initializer": {"class_name": "Ones", "config": {}}}}, {"inbound_nodes": [[["conv2d_30", 0, 0, {}]]], "name": "batch_normalization_30", "class_name": "BatchNormalization", "config": {"gamma_initializer": {"class_name": "Ones", "config": {}}, "moving_mean_initializer": {"class_name": "Zeros", "config": {}}, "beta_constraint": null, "beta_initializer": {"class_name": "Zeros", "config": {}}, "scale": true, "momentum": 0.99, "center": true, "epsilon": 0.001, "trainable": true, "axis": 3, "gamma_regularizer": null, "gamma_constraint": null, "name": "batch_normalization_30", "beta_regularizer": null, "moving_variance_initializer": {"class_name": "Ones", "config": {}}}}, {"inbound_nodes": [[["mixed2", 0, 0, {}]]], "name": "max_pooling2d_3", "class_name": "MaxPooling2D", "config": {"trainable": true, "data_format": "channels_last", "pool_size": [3, 3], "name": "max_pooling2d_3", "strides": [2, 2], "padding": "valid"}}, {"inbound_nodes": [[["batch_normalization_27", 0, 0, {}], ["batch_normalization_30", 0, 0, {}], ["max_pooling2d_3", 0, 0, {}]]], "name": "mixed3", "class_name": "Concatenate", "config": {"name": "mixed3", "trainable": true, "axis": -1}}, {"inbound_nodes": [[["mixed3", 0, 0, {}]]], "name": "conv2d_35", "class_name": "Conv2D", "config": {"activity_regularizer": null, "dilation_rate": [1, 1], "activation": "relu", "bias_initializer": {"class_name": "Zeros", "config": {}}, "filters": 64, "strides": [1, 1], "padding": "same", "kernel_size": [1, 1], "use_bias": true, "trainable": true, "kernel_constraint": null, "data_format": "channels_last", "bias_constraint": null, "bias_regularizer": null, "name": "conv2d_35", "kernel_initializer": {"class_name": "VarianceScaling", "config": {"seed": null, "scale": 1.0, "mode": "fan_avg", "distribution": "uniform"}}, "kernel_regularizer": null}}, {"inbound_nodes": [[["conv2d_35", 0, 0, {}]]], "name": "batch_normalization_35", "class_name": "BatchNormalization", "config": {"gamma_initializer": {"class_name": "Ones", "config": {}}, "moving_mean_initializer": {"class_name": "Zeros", "config": {}}, "beta_constraint": null, "beta_initializer": {"class_name": "Zeros", "config": {}}, "scale": true, "momentum": 0.99, "center": true, "epsilon": 0.001, "trainable": true, "axis": 3, "gamma_regularizer": null, "gamma_constraint": null, "name": "batch_normalization_35", "beta_regularizer": null, "moving_variance_initializer": {"class_name": "Ones", "config": {}}}}, {"inbound_nodes": [[["batch_normalization_35", 0, 0, {}]]], "name": "conv2d_36", "class_name": "Conv2D", "config": {"activity_regularizer": null, "dilation_rate": [1, 1], "activation": "relu", "bias_initializer": {"class_name": "Zeros", "config": {}}, "filters": 64, "strides": [1, 1], "padding": "same", "kernel_size": [7, 1], "use_bias": true, "trainable": true, "kernel_constraint": null, "data_format": "channels_last", "bias_constraint": null, "bias_regularizer": null, "name": "conv2d_36", "kernel_initializer": {"class_name": "VarianceScaling", "config": {"seed": null, "scale": 1.0, "mode": "fan_avg", "distribution": "uniform"}}, "kernel_regularizer": null}}, {"inbound_nodes": [[["conv2d_36", 0, 0, {}]]], "name": "batch_normalization_36", "class_name": "BatchNormalization", "config": {"gamma_initializer": {"class_name": "Ones", "config": {}}, "moving_mean_initializer": {"class_name": "Zeros", "config": {}}, "beta_constraint": null, "beta_initializer": {"class_name": "Zeros", "config": {}}, "scale": true, "momentum": 0.99, "center": true, "epsilon": 0.001, "trainable": true, "axis": 3, "gamma_regularizer": null, "gamma_constraint": null, "name": "batch_normalization_36", "beta_regularizer": null, "moving_variance_initializer": {"class_name": "Ones", "config": {}}}}, {"inbound_nodes": [[["mixed3", 0, 0, {}]]], "name": "conv2d_32", "class_name": "Conv2D", "config": {"activity_regularizer": null, "dilation_rate": [1, 1], "activation": "relu", "bias_initializer": {"class_name": "Zeros", "config": {}}, "filters": 64, "strides": [1, 1], "padding": "same", "kernel_size": [1, 1], "use_bias": true, "trainable": true, "kernel_constraint": null, "data_format": "channels_last", "bias_constraint": null, "bias_regularizer": null, "name": "conv2d_32", "kernel_initializer": {"class_name": "VarianceScaling", "config": {"seed": null, "scale": 1.0, "mode": "fan_avg", "distribution": "uniform"}}, "kernel_regularizer": null}}, {"inbound_nodes": [[["batch_normalization_36", 0, 0, {}]]], "name": "conv2d_37", "class_name": "Conv2D", "config": {"activity_regularizer": null, "dilation_rate": [1, 1], "activation": "relu", "bias_initializer": {"class_name": "Zeros", "config": {}}, "filters": 64, "strides": [1, 1], "padding": "same", "kernel_size": [1, 7], "use_bias": true, "trainable": true, "kernel_constraint": null, "data_format": "channels_last", "bias_constraint": null, "bias_regularizer": null, "name": "conv2d_37", "kernel_initializer": {"class_name": "VarianceScaling", "config": {"seed": null, "scale": 1.0, "mode": "fan_avg", "distribution": "uniform"}}, "kernel_regularizer": null}}, {"inbound_nodes": [[["conv2d_32", 0, 0, {}]]], "name": "batch_normalization_32", "class_name": "BatchNormalization", "config": {"gamma_initializer": {"class_name": "Ones", "config": {}}, "moving_mean_initializer": {"class_name": "Zeros", "config": {}}, "beta_constraint": null, "beta_initializer": {"class_name": "Zeros", "config": {}}, "scale": true, "momentum": 0.99, "center": true, "epsilon": 0.001, "trainable": true, "axis": 3, "gamma_regularizer": null, "gamma_constraint": null, "name": "batch_normalization_32", "beta_regularizer": null, "moving_variance_initializer": {"class_name": "Ones", "config": {}}}}, {"inbound_nodes": [[["conv2d_37", 0, 0, {}]]], "name": "batch_normalization_37", "class_name": "BatchNormalization", "config": {"gamma_initializer": {"class_name": "Ones", "config": {}}, "moving_mean_initializer": {"class_name": "Zeros", "config": {}}, "beta_constraint": null, "beta_initializer": {"class_name": "Zeros", "config": {}}, "scale": true, "momentum": 0.99, "center": true, "epsilon": 0.001, "trainable": true, "axis": 3, "gamma_regularizer": null, "gamma_constraint": null, "name": "batch_normalization_37", "beta_regularizer": null, "moving_variance_initializer": {"class_name": "Ones", "config": {}}}}, {"inbound_nodes": [[["batch_normalization_32", 0, 0, {}]]], "name": "conv2d_33", "class_name": "Conv2D", "config": {"activity_regularizer": null, "dilation_rate": [1, 1], "activation": "relu", "bias_initializer": {"class_name": "Zeros", "config": {}}, "filters": 64, "strides": [1, 1], "padding": "same", "kernel_size": [1, 7], "use_bias": true, "trainable": true, "kernel_constraint": null, "data_format": "channels_last", "bias_constraint": null, "bias_regularizer": null, "name": "conv2d_33", "kernel_initializer": {"class_name": "VarianceScaling", "config": {"seed": null, "scale": 1.0, "mode": "fan_avg", "distribution": "uniform"}}, "kernel_regularizer": null}}, {"inbound_nodes": [[["batch_normalization_37", 0, 0, {}]]], "name": "conv2d_38", "class_name": "Conv2D", "config": {"activity_regularizer": null, "dilation_rate": [1, 1], "activation": "relu", "bias_initializer": {"class_name": "Zeros", "config": {}}, "filters": 64, "strides": [1, 1], "padding": "same", "kernel_size": [7, 1], "use_bias": true, "trainable": true, "kernel_constraint": null, "data_format": "channels_last", "bias_constraint": null, "bias_regularizer": null, "name": "conv2d_38", "kernel_initializer": {"class_name": "VarianceScaling", "config": {"seed": null, "scale": 1.0, "mode": "fan_avg", "distribution": "uniform"}}, "kernel_regularizer": null}}, {"inbound_nodes": [[["conv2d_33", 0, 0, {}]]], "name": "batch_normalization_33", "class_name": "BatchNormalization", "config": {"gamma_initializer": {"class_name": "Ones", "config": {}}, "moving_mean_initializer": {"class_name": "Zeros", "config": {}}, "beta_constraint": null, "beta_initializer": {"class_name": "Zeros", "config": {}}, "scale": true, "momentum": 0.99, "center": true, "epsilon": 0.001, "trainable": true, "axis": 3, "gamma_regularizer": null, "gamma_constraint": null, "name": "batch_normalization_33", "beta_regularizer": null, "moving_variance_initializer": {"class_name": "Ones", "config": {}}}}, {"inbound_nodes": [[["conv2d_38", 0, 0, {}]]], "name": "batch_normalization_38", "class_name": "BatchNormalization", "config": {"gamma_initializer": {"class_name": "Ones", "config": {}}, "moving_mean_initializer": {"class_name": "Zeros", "config": {}}, "beta_constraint": null, "beta_initializer": {"class_name": "Zeros", "config": {}}, "scale": true, "momentum": 0.99, "center": true, "epsilon": 0.001, "trainable": true, "axis": 3, "gamma_regularizer": null, "gamma_constraint": null, "name": "batch_normalization_38", "beta_regularizer": null, "moving_variance_initializer": {"class_name": "Ones", "config": {}}}}, {"inbound_nodes": [[["mixed3", 0, 0, {}]]], "name": "average_pooling2d_4", "class_name": "AveragePooling2D", "config": {"trainable": true, "data_format": "channels_last", "pool_size": [3, 3], "name": "average_pooling2d_4", "strides": [1, 1], "padding": "same"}}, {"inbound_nodes": [[["mixed3", 0, 0, {}]]], "name": "conv2d_31", "class_name": "Conv2D", "config": {"activity_regularizer": null, "dilation_rate": [1, 1], "activation": "relu", "bias_initializer": {"class_name": "Zeros", "config": {}}, "filters": 96, "strides": [1, 1], "padding": "same", "kernel_size": [1, 1], "use_bias": true, "trainable": true, "kernel_constraint": null, "data_format": "channels_last", "bias_constraint": null, "bias_regularizer": null, "name": "conv2d_31", "kernel_initializer": {"class_name": "VarianceScaling", "config": {"seed": null, "scale": 1.0, "mode": "fan_avg", "distribution": "uniform"}}, "kernel_regularizer": null}}, {"inbound_nodes": [[["batch_normalization_33", 0, 0, {}]]], "name": "conv2d_34", "class_name": "Conv2D", "config": {"activity_regularizer": null, "dilation_rate": [1, 1], "activation": "relu", "bias_initializer": {"class_name": "Zeros", "config": {}}, "filters": 96, "strides": [1, 1], "padding": "same", "kernel_size": [7, 1], "use_bias": true, "trainable": true, "kernel_constraint": null, "data_format": "channels_last", "bias_constraint": null, "bias_regularizer": null, "name": "conv2d_34", "kernel_initializer": {"class_name": "VarianceScaling", "config": {"seed": null, "scale": 1.0, "mode": "fan_avg", "distribution": "uniform"}}, "kernel_regularizer": null}}, {"inbound_nodes": [[["batch_normalization_38", 0, 0, {}]]], "name": "conv2d_39", "class_name": "Conv2D", "config": {"activity_regularizer": null, "dilation_rate": [1, 1], "activation": "relu", "bias_initializer": {"class_name": "Zeros", "config": {}}, "filters": 96, "strides": [1, 1], "padding": "same", "kernel_size": [1, 7], "use_bias": true, "trainable": true, "kernel_constraint": null, "data_format": "channels_last", "bias_constraint": null, "bias_regularizer": null, "name": "conv2d_39", "kernel_initializer": {"class_name": "VarianceScaling", "config": {"seed": null, "scale": 1.0, "mode": "fan_avg", "distribution": "uniform"}}, "kernel_regularizer": null}}, {"inbound_nodes": [[["average_pooling2d_4", 0, 0, {}]]], "name": "conv2d_40", "class_name": "Conv2D", "config": {"activity_regularizer": null, "dilation_rate": [1, 1], "activation": "relu", "bias_initializer": {"class_name": "Zeros", "config": {}}, "filters": 96, "strides": [1, 1], "padding": "same", "kernel_size": [1, 1], "use_bias": true, "trainable": true, "kernel_constraint": null, "data_format": "channels_last", "bias_constraint": null, "bias_regularizer": null, "name": "conv2d_40", "kernel_initializer": {"class_name": "VarianceScaling", "config": {"seed": null, "scale": 1.0, "mode": "fan_avg", "distribution": "uniform"}}, "kernel_regularizer": null}}, {"inbound_nodes": [[["conv2d_31", 0, 0, {}]]], "name": "batch_normalization_31", "class_name": "BatchNormalization", "config": {"gamma_initializer": {"class_name": "Ones", "config": {}}, "moving_mean_initializer": {"class_name": "Zeros", "config": {}}, "beta_constraint": null, "beta_initializer": {"class_name": "Zeros", "config": {}}, "scale": true, "momentum": 0.99, "center": true, "epsilon": 0.001, "trainable": true, "axis": 3, "gamma_regularizer": null, "gamma_constraint": null, "name": "batch_normalization_31", "beta_regularizer": null, "moving_variance_initializer": {"class_name": "Ones", "config": {}}}}, {"inbound_nodes": [[["conv2d_34", 0, 0, {}]]], "name": "batch_normalization_34", "class_name": "BatchNormalization", "config": {"gamma_initializer": {"class_name": "Ones", "config": {}}, "moving_mean_initializer": {"class_name": "Zeros", "config": {}}, "beta_constraint": null, "beta_initializer": {"class_name": "Zeros", "config": {}}, "scale": true, "momentum": 0.99, "center": true, "epsilon": 0.001, "trainable": true, "axis": 3, "gamma_regularizer": null, "gamma_constraint": null, "name": "batch_normalization_34", "beta_regularizer": null, "moving_variance_initializer": {"class_name": "Ones", "config": {}}}}, {"inbound_nodes": [[["conv2d_39", 0, 0, {}]]], "name": "batch_normalization_39", "class_name": "BatchNormalization", "config": {"gamma_initializer": {"class_name": "Ones", "config": {}}, "moving_mean_initializer": {"class_name": "Zeros", "config": {}}, "beta_constraint": null, "beta_initializer": {"class_name": "Zeros", "config": {}}, "scale": true, "momentum": 0.99, "center": true, "epsilon": 0.001, "trainable": true, "axis": 3, "gamma_regularizer": null, "gamma_constraint": null, "name": "batch_normalization_39", "beta_regularizer": null, "moving_variance_initializer": {"class_name": "Ones", "config": {}}}}, {"inbound_nodes": [[["conv2d_40", 0, 0, {}]]], "name": "batch_normalization_40", "class_name": "BatchNormalization", "config": {"gamma_initializer": {"class_name": "Ones", "config": {}}, "moving_mean_initializer": {"class_name": "Zeros", "config": {}}, "beta_constraint": null, "beta_initializer": {"class_name": "Zeros", "config": {}}, "scale": true, "momentum": 0.99, "center": true, "epsilon": 0.001, "trainable": true, "axis": 3, "gamma_regularizer": null, "gamma_constraint": null, "name": "batch_normalization_40", "beta_regularizer": null, "moving_variance_initializer": {"class_name": "Ones", "config": {}}}}, {"inbound_nodes": [[["batch_normalization_31", 0, 0, {}], ["batch_normalization_34", 0, 0, {}], ["batch_normalization_39", 0, 0, {}], ["batch_normalization_40", 0, 0, {}]]], "name": "mixed4", "class_name": "Concatenate", "config": {"name": "mixed4", "trainable": true, "axis": -1}}, {"inbound_nodes": [[["mixed4", 0, 0, {}]]], "name": "conv2d_45", "class_name": "Conv2D", "config": {"activity_regularizer": null, "dilation_rate": [1, 1], "activation": "relu", "bias_initializer": {"class_name": "Zeros", "config": {}}, "filters": 80, "strides": [1, 1], "padding": "same", "kernel_size": [1, 1], "use_bias": true, "trainable": true, "kernel_constraint": null, "data_format": "channels_last", "bias_constraint": null, "bias_regularizer": null, "name": "conv2d_45", "kernel_initializer": {"class_name": "VarianceScaling", "config": {"seed": null, "scale": 1.0, "mode": "fan_avg", "distribution": "uniform"}}, "kernel_regularizer": null}}, {"inbound_nodes": [[["conv2d_45", 0, 0, {}]]], "name": "batch_normalization_45", "class_name": "BatchNormalization", "config": {"gamma_initializer": {"class_name": "Ones", "config": {}}, "moving_mean_initializer": {"class_name": "Zeros", "config": {}}, "beta_constraint": null, "beta_initializer": {"class_name": "Zeros", "config": {}}, "scale": true, "momentum": 0.99, "center": true, "epsilon": 0.001, "trainable": true, "axis": 3, "gamma_regularizer": null, "gamma_constraint": null, "name": "batch_normalization_45", "beta_regularizer": null, "moving_variance_initializer": {"class_name": "Ones", "config": {}}}}, {"inbound_nodes": [[["batch_normalization_45", 0, 0, {}]]], "name": "conv2d_46", "class_name": "Conv2D", "config": {"activity_regularizer": null, "dilation_rate": [1, 1], "activation": "relu", "bias_initializer": {"class_name": "Zeros", "config": {}}, "filters": 80, "strides": [1, 1], "padding": "same", "kernel_size": [7, 1], "use_bias": true, "trainable": true, "kernel_constraint": null, "data_format": "channels_last", "bias_constraint": null, "bias_regularizer": null, "name": "conv2d_46", "kernel_initializer": {"class_name": "VarianceScaling", "config": {"seed": null, "scale": 1.0, "mode": "fan_avg", "distribution": "uniform"}}, "kernel_regularizer": null}}, {"inbound_nodes": [[["conv2d_46", 0, 0, {}]]], "name": "batch_normalization_46", "class_name": "BatchNormalization", "config": {"gamma_initializer": {"class_name": "Ones", "config": {}}, "moving_mean_initializer": {"class_name": "Zeros", "config": {}}, "beta_constraint": null, "beta_initializer": {"class_name": "Zeros", "config": {}}, "scale": true, "momentum": 0.99, "center": true, "epsilon": 0.001, "trainable": true, "axis": 3, "gamma_regularizer": null, "gamma_constraint": null, "name": "batch_normalization_46", "beta_regularizer": null, "moving_variance_initializer": {"class_name": "Ones", "config": {}}}}, {"inbound_nodes": [[["mixed4", 0, 0, {}]]], "name": "conv2d_42", "class_name": "Conv2D", "config": {"activity_regularizer": null, "dilation_rate": [1, 1], "activation": "relu", "bias_initializer": {"class_name": "Zeros", "config": {}}, "filters": 80, "strides": [1, 1], "padding": "same", "kernel_size": [1, 1], "use_bias": true, "trainable": true, "kernel_constraint": null, "data_format": "channels_last", "bias_constraint": null, "bias_regularizer": null, "name": "conv2d_42", "kernel_initializer": {"class_name": "VarianceScaling", "config": {"seed": null, "scale": 1.0, "mode": "fan_avg", "distribution": "uniform"}}, "kernel_regularizer": null}}, {"inbound_nodes": [[["batch_normalization_46", 0, 0, {}]]], "name": "conv2d_47", "class_name": "Conv2D", "config": {"activity_regularizer": null, "dilation_rate": [1, 1], "activation": "relu", "bias_initializer": {"class_name": "Zeros", "config": {}}, "filters": 80, "strides": [1, 1], "padding": "same", "kernel_size": [1, 7], "use_bias": true, "trainable": true, "kernel_constraint": null, "data_format": "channels_last", "bias_constraint": null, "bias_regularizer": null, "name": "conv2d_47", "kernel_initializer": {"class_name": "VarianceScaling", "config": {"seed": null, "scale": 1.0, "mode": "fan_avg", "distribution": "uniform"}}, "kernel_regularizer": null}}, {"inbound_nodes": [[["conv2d_42", 0, 0, {}]]], "name": "batch_normalization_42", "class_name": "BatchNormalization", "config": {"gamma_initializer": {"class_name": "Ones", "config": {}}, "moving_mean_initializer": {"class_name": "Zeros", "config": {}}, "beta_constraint": null, "beta_initializer": {"class_name": "Zeros", "config": {}}, "scale": true, "momentum": 0.99, "center": true, "epsilon": 0.001, "trainable": true, "axis": 3, "gamma_regularizer": null, "gamma_constraint": null, "name": "batch_normalization_42", "beta_regularizer": null, "moving_variance_initializer": {"class_name": "Ones", "config": {}}}}, {"inbound_nodes": [[["conv2d_47", 0, 0, {}]]], "name": "batch_normalization_47", "class_name": "BatchNormalization", "config": {"gamma_initializer": {"class_name": "Ones", "config": {}}, "moving_mean_initializer": {"class_name": "Zeros", "config": {}}, "beta_constraint": null, "beta_initializer": {"class_name": "Zeros", "config": {}}, "scale": true, "momentum": 0.99, "center": true, "epsilon": 0.001, "trainable": true, "axis": 3, "gamma_regularizer": null, "gamma_constraint": null, "name": "batch_normalization_47", "beta_regularizer": null, "moving_variance_initializer": {"class_name": "Ones", "config": {}}}}, {"inbound_nodes": [[["batch_normalization_42", 0, 0, {}]]], "name": "conv2d_43", "class_name": "Conv2D", "config": {"activity_regularizer": null, "dilation_rate": [1, 1], "activation": "relu", "bias_initializer": {"class_name": "Zeros", "config": {}}, "filters": 80, "strides": [1, 1], "padding": "same", "kernel_size": [1, 7], "use_bias": true, "trainable": true, "kernel_constraint": null, "data_format": "channels_last", "bias_constraint": null, "bias_regularizer": null, "name": "conv2d_43", "kernel_initializer": {"class_name": "VarianceScaling", "config": {"seed": null, "scale": 1.0, "mode": "fan_avg", "distribution": "uniform"}}, "kernel_regularizer": null}}, {"inbound_nodes": [[["batch_normalization_47", 0, 0, {}]]], "name": "conv2d_48", "class_name": "Conv2D", "config": {"activity_regularizer": null, "dilation_rate": [1, 1], "activation": "relu", "bias_initializer": {"class_name": "Zeros", "config": {}}, "filters": 80, "strides": [1, 1], "padding": "same", "kernel_size": [7, 1], "use_bias": true, "trainable": true, "kernel_constraint": null, "data_format": "channels_last", "bias_constraint": null, "bias_regularizer": null, "name": "conv2d_48", "kernel_initializer": {"class_name": "VarianceScaling", "config": {"seed": null, "scale": 1.0, "mode": "fan_avg", "distribution": "uniform"}}, "kernel_regularizer": null}}, {"inbound_nodes": [[["conv2d_43", 0, 0, {}]]], "name": "batch_normalization_43", "class_name": "BatchNormalization", "config": {"gamma_initializer": {"class_name": "Ones", "config": {}}, "moving_mean_initializer": {"class_name": "Zeros", "config": {}}, "beta_constraint": null, "beta_initializer": {"class_name": "Zeros", "config": {}}, "scale": true, "momentum": 0.99, "center": true, "epsilon": 0.001, "trainable": true, "axis": 3, "gamma_regularizer": null, "gamma_constraint": null, "name": "batch_normalization_43", "beta_regularizer": null, "moving_variance_initializer": {"class_name": "Ones", "config": {}}}}, {"inbound_nodes": [[["conv2d_48", 0, 0, {}]]], "name": "batch_normalization_48", "class_name": "BatchNormalization", "config": {"gamma_initializer": {"class_name": "Ones", "config": {}}, "moving_mean_initializer": {"class_name": "Zeros", "config": {}}, "beta_constraint": null, "beta_initializer": {"class_name": "Zeros", "config": {}}, "scale": true, "momentum": 0.99, "center": true, "epsilon": 0.001, "trainable": true, "axis": 3, "gamma_regularizer": null, "gamma_constraint": null, "name": "batch_normalization_48", "beta_regularizer": null, "moving_variance_initializer": {"class_name": "Ones", "config": {}}}}, {"inbound_nodes": [[["mixed4", 0, 0, {}]]], "name": "average_pooling2d_5", "class_name": "AveragePooling2D", "config": {"trainable": true, "data_format": "channels_last", "pool_size": [3, 3], "name": "average_pooling2d_5", "strides": [1, 1], "padding": "same"}}, {"inbound_nodes": [[["mixed4", 0, 0, {}]]], "name": "conv2d_41", "class_name": "Conv2D", "config": {"activity_regularizer": null, "dilation_rate": [1, 1], "activation": "relu", "bias_initializer": {"class_name": "Zeros", "config": {}}, "filters": 96, "strides": [1, 1], "padding": "same", "kernel_size": [1, 1], "use_bias": true, "trainable": true, "kernel_constraint": null, "data_format": "channels_last", "bias_constraint": null, "bias_regularizer": null, "name": "conv2d_41", "kernel_initializer": {"class_name": "VarianceScaling", "config": {"seed": null, "scale": 1.0, "mode": "fan_avg", "distribution": "uniform"}}, "kernel_regularizer": null}}, {"inbound_nodes": [[["batch_normalization_43", 0, 0, {}]]], "name": "conv2d_44", "class_name": "Conv2D", "config": {"activity_regularizer": null, "dilation_rate": [1, 1], "activation": "relu", "bias_initializer": {"class_name": "Zeros", "config": {}}, "filters": 96, "strides": [1, 1], "padding": "same", "kernel_size": [7, 1], "use_bias": true, "trainable": true, "kernel_constraint": null, "data_format": "channels_last", "bias_constraint": null, "bias_regularizer": null, "name": "conv2d_44", "kernel_initializer": {"class_name": "VarianceScaling", "config": {"seed": null, "scale": 1.0, "mode": "fan_avg", "distribution": "uniform"}}, "kernel_regularizer": null}}, {"inbound_nodes": [[["batch_normalization_48", 0, 0, {}]]], "name": "conv2d_49", "class_name": "Conv2D", "config": {"activity_regularizer": null, "dilation_rate": [1, 1], "activation": "relu", "bias_initializer": {"class_name": "Zeros", "config": {}}, "filters": 96, "strides": [1, 1], "padding": "same", "kernel_size": [1, 7], "use_bias": true, "trainable": true, "kernel_constraint": null, "data_format": "channels_last", "bias_constraint": null, "bias_regularizer": null, "name": "conv2d_49", "kernel_initializer": {"class_name": "VarianceScaling", "config": {"seed": null, "scale": 1.0, "mode": "fan_avg", "distribution": "uniform"}}, "kernel_regularizer": null}}, {"inbound_nodes": [[["average_pooling2d_5", 0, 0, {}]]], "name": "conv2d_50", "class_name": "Conv2D", "config": {"activity_regularizer": null, "dilation_rate": [1, 1], "activation": "relu", "bias_initializer": {"class_name": "Zeros", "config": {}}, "filters": 96, "strides": [1, 1], "padding": "same", "kernel_size": [1, 1], "use_bias": true, "trainable": true, "kernel_constraint": null, "data_format": "channels_last", "bias_constraint": null, "bias_regularizer": null, "name": "conv2d_50", "kernel_initializer": {"class_name": "VarianceScaling", "config": {"seed": null, "scale": 1.0, "mode": "fan_avg", "distribution": "uniform"}}, "kernel_regularizer": null}}, {"inbound_nodes": [[["conv2d_41", 0, 0, {}]]], "name": "batch_normalization_41", "class_name": "BatchNormalization", "config": {"gamma_initializer": {"class_name": "Ones", "config": {}}, "moving_mean_initializer": {"class_name": "Zeros", "config": {}}, "beta_constraint": null, "beta_initializer": {"class_name": "Zeros", "config": {}}, "scale": true, "momentum": 0.99, "center": true, "epsilon": 0.001, "trainable": true, "axis": 3, "gamma_regularizer": null, "gamma_constraint": null, "name": "batch_normalization_41", "beta_regularizer": null, "moving_variance_initializer": {"class_name": "Ones", "config": {}}}}, {"inbound_nodes": [[["conv2d_44", 0, 0, {}]]], "name": "batch_normalization_44", "class_name": "BatchNormalization", "config": {"gamma_initializer": {"class_name": "Ones", "config": {}}, "moving_mean_initializer": {"class_name": "Zeros", "config": {}}, "beta_constraint": null, "beta_initializer": {"class_name": "Zeros", "config": {}}, "scale": true, "momentum": 0.99, "center": true, "epsilon": 0.001, "trainable": true, "axis": 3, "gamma_regularizer": null, "gamma_constraint": null, "name": "batch_normalization_44", "beta_regularizer": null, "moving_variance_initializer": {"class_name": "Ones", "config": {}}}}, {"inbound_nodes": [[["conv2d_49", 0, 0, {}]]], "name": "batch_normalization_49", "class_name": "BatchNormalization", "config": {"gamma_initializer": {"class_name": "Ones", "config": {}}, "moving_mean_initializer": {"class_name": "Zeros", "config": {}}, "beta_constraint": null, "beta_initializer": {"class_name": "Zeros", "config": {}}, "scale": true, "momentum": 0.99, "center": true, "epsilon": 0.001, "trainable": true, "axis": 3, "gamma_regularizer": null, "gamma_constraint": null, "name": "batch_normalization_49", "beta_regularizer": null, "moving_variance_initializer": {"class_name": "Ones", "config": {}}}}, {"inbound_nodes": [[["conv2d_50", 0, 0, {}]]], "name": "batch_normalization_50", "class_name": "BatchNormalization", "config": {"gamma_initializer": {"class_name": "Ones", "config": {}}, "moving_mean_initializer": {"class_name": "Zeros", "config": {}}, "beta_constraint": null, "beta_initializer": {"class_name": "Zeros", "config": {}}, "scale": true, "momentum": 0.99, "center": true, "epsilon": 0.001, "trainable": true, "axis": 3, "gamma_regularizer": null, "gamma_constraint": null, "name": "batch_normalization_50", "beta_regularizer": null, "moving_variance_initializer": {"class_name": "Ones", "config": {}}}}, {"inbound_nodes": [[["batch_normalization_41", 0, 0, {}], ["batch_normalization_44", 0, 0, {}], ["batch_normalization_49", 0, 0, {}], ["batch_normalization_50", 0, 0, {}]]], "name": "mixed5", "class_name": "Concatenate", "config": {"name": "mixed5", "trainable": true, "axis": -1}}, {"inbound_nodes": [[["mixed5", 0, 0, {}]]], "name": "conv2d_55", "class_name": "Conv2D", "config": {"activity_regularizer": null, "dilation_rate": [1, 1], "activation": "relu", "bias_initializer": {"class_name": "Zeros", "config": {}}, "filters": 80, "strides": [1, 1], "padding": "same", "kernel_size": [1, 1], "use_bias": true, "trainable": true, "kernel_constraint": null, "data_format": "channels_last", "bias_constraint": null, "bias_regularizer": null, "name": "conv2d_55", "kernel_initializer": {"class_name": "VarianceScaling", "config": {"seed": null, "scale": 1.0, "mode": "fan_avg", "distribution": "uniform"}}, "kernel_regularizer": null}}, {"inbound_nodes": [[["conv2d_55", 0, 0, {}]]], "name": "batch_normalization_55", "class_name": "BatchNormalization", "config": {"gamma_initializer": {"class_name": "Ones", "config": {}}, "moving_mean_initializer": {"class_name": "Zeros", "config": {}}, "beta_constraint": null, "beta_initializer": {"class_name": "Zeros", "config": {}}, "scale": true, "momentum": 0.99, "center": true, "epsilon": 0.001, "trainable": true, "axis": 3, "gamma_regularizer": null, "gamma_constraint": null, "name": "batch_normalization_55", "beta_regularizer": null, "moving_variance_initializer": {"class_name": "Ones", "config": {}}}}, {"inbound_nodes": [[["batch_normalization_55", 0, 0, {}]]], "name": "conv2d_56", "class_name": "Conv2D", "config": {"activity_regularizer": null, "dilation_rate": [1, 1], "activation": "relu", "bias_initializer": {"class_name": "Zeros", "config": {}}, "filters": 80, "strides": [1, 1], "padding": "same", "kernel_size": [7, 1], "use_bias": true, "trainable": true, "kernel_constraint": null, "data_format": "channels_last", "bias_constraint": null, "bias_regularizer": null, "name": "conv2d_56", "kernel_initializer": {"class_name": "VarianceScaling", "config": {"seed": null, "scale": 1.0, "mode": "fan_avg", "distribution": "uniform"}}, "kernel_regularizer": null}}, {"inbound_nodes": [[["conv2d_56", 0, 0, {}]]], "name": "batch_normalization_56", "class_name": "BatchNormalization", "config": {"gamma_initializer": {"class_name": "Ones", "config": {}}, "moving_mean_initializer": {"class_name": "Zeros", "config": {}}, "beta_constraint": null, "beta_initializer": {"class_name": "Zeros", "config": {}}, "scale": true, "momentum": 0.99, "center": true, "epsilon": 0.001, "trainable": true, "axis": 3, "gamma_regularizer": null, "gamma_constraint": null, "name": "batch_normalization_56", "beta_regularizer": null, "moving_variance_initializer": {"class_name": "Ones", "config": {}}}}, {"inbound_nodes": [[["mixed5", 0, 0, {}]]], "name": "conv2d_52", "class_name": "Conv2D", "config": {"activity_regularizer": null, "dilation_rate": [1, 1], "activation": "relu", "bias_initializer": {"class_name": "Zeros", "config": {}}, "filters": 80, "strides": [1, 1], "padding": "same", "kernel_size": [1, 1], "use_bias": true, "trainable": true, "kernel_constraint": null, "data_format": "channels_last", "bias_constraint": null, "bias_regularizer": null, "name": "conv2d_52", "kernel_initializer": {"class_name": "VarianceScaling", "config": {"seed": null, "scale": 1.0, "mode": "fan_avg", "distribution": "uniform"}}, "kernel_regularizer": null}}, {"inbound_nodes": [[["batch_normalization_56", 0, 0, {}]]], "name": "conv2d_57", "class_name": "Conv2D", "config": {"activity_regularizer": null, "dilation_rate": [1, 1], "activation": "relu", "bias_initializer": {"class_name": "Zeros", "config": {}}, "filters": 80, "strides": [1, 1], "padding": "same", "kernel_size": [1, 7], "use_bias": true, "trainable": true, "kernel_constraint": null, "data_format": "channels_last", "bias_constraint": null, "bias_regularizer": null, "name": "conv2d_57", "kernel_initializer": {"class_name": "VarianceScaling", "config": {"seed": null, "scale": 1.0, "mode": "fan_avg", "distribution": "uniform"}}, "kernel_regularizer": null}}, {"inbound_nodes": [[["conv2d_52", 0, 0, {}]]], "name": "batch_normalization_52", "class_name": "BatchNormalization", "config": {"gamma_initializer": {"class_name": "Ones", "config": {}}, "moving_mean_initializer": {"class_name": "Zeros", "config": {}}, "beta_constraint": null, "beta_initializer": {"class_name": "Zeros", "config": {}}, "scale": true, "momentum": 0.99, "center": true, "epsilon": 0.001, "trainable": true, "axis": 3, "gamma_regularizer": null, "gamma_constraint": null, "name": "batch_normalization_52", "beta_regularizer": null, "moving_variance_initializer": {"class_name": "Ones", "config": {}}}}, {"inbound_nodes": [[["conv2d_57", 0, 0, {}]]], "name": "batch_normalization_57", "class_name": "BatchNormalization", "config": {"gamma_initializer": {"class_name": "Ones", "config": {}}, "moving_mean_initializer": {"class_name": "Zeros", "config": {}}, "beta_constraint": null, "beta_initializer": {"class_name": "Zeros", "config": {}}, "scale": true, "momentum": 0.99, "center": true, "epsilon": 0.001, "trainable": true, "axis": 3, "gamma_regularizer": null, "gamma_constraint": null, "name": "batch_normalization_57", "beta_regularizer": null, "moving_variance_initializer": {"class_name": "Ones", "config": {}}}}, {"inbound_nodes": [[["batch_normalization_52", 0, 0, {}]]], "name": "conv2d_53", "class_name": "Conv2D", "config": {"activity_regularizer": null, "dilation_rate": [1, 1], "activation": "relu", "bias_initializer": {"class_name": "Zeros", "config": {}}, "filters": 80, "strides": [1, 1], "padding": "same", "kernel_size": [1, 7], "use_bias": true, "trainable": true, "kernel_constraint": null, "data_format": "channels_last", "bias_constraint": null, "bias_regularizer": null, "name": "conv2d_53", "kernel_initializer": {"class_name": "VarianceScaling", "config": {"seed": null, "scale": 1.0, "mode": "fan_avg", "distribution": "uniform"}}, "kernel_regularizer": null}}, {"inbound_nodes": [[["batch_normalization_57", 0, 0, {}]]], "name": "conv2d_58", "class_name": "Conv2D", "config": {"activity_regularizer": null, "dilation_rate": [1, 1], "activation": "relu", "bias_initializer": {"class_name": "Zeros", "config": {}}, "filters": 80, "strides": [1, 1], "padding": "same", "kernel_size": [7, 1], "use_bias": true, "trainable": true, "kernel_constraint": null, "data_format": "channels_last", "bias_constraint": null, "bias_regularizer": null, "name": "conv2d_58", "kernel_initializer": {"class_name": "VarianceScaling", "config": {"seed": null, "scale": 1.0, "mode": "fan_avg", "distribution": "uniform"}}, "kernel_regularizer": null}}, {"inbound_nodes": [[["conv2d_53", 0, 0, {}]]], "name": "batch_normalization_53", "class_name": "BatchNormalization", "config": {"gamma_initializer": {"class_name": "Ones", "config": {}}, "moving_mean_initializer": {"class_name": "Zeros", "config": {}}, "beta_constraint": null, "beta_initializer": {"class_name": "Zeros", "config": {}}, "scale": true, "momentum": 0.99, "center": true, "epsilon": 0.001, "trainable": true, "axis": 3, "gamma_regularizer": null, "gamma_constraint": null, "name": "batch_normalization_53", "beta_regularizer": null, "moving_variance_initializer": {"class_name": "Ones", "config": {}}}}, {"inbound_nodes": [[["conv2d_58", 0, 0, {}]]], "name": "batch_normalization_58", "class_name": "BatchNormalization", "config": {"gamma_initializer": {"class_name": "Ones", "config": {}}, "moving_mean_initializer": {"class_name": "Zeros", "config": {}}, "beta_constraint": null, "beta_initializer": {"class_name": "Zeros", "config": {}}, "scale": true, "momentum": 0.99, "center": true, "epsilon": 0.001, "trainable": true, "axis": 3, "gamma_regularizer": null, "gamma_constraint": null, "name": "batch_normalization_58", "beta_regularizer": null, "moving_variance_initializer": {"class_name": "Ones", "config": {}}}}, {"inbound_nodes": [[["mixed5", 0, 0, {}]]], "name": "average_pooling2d_6", "class_name": "AveragePooling2D", "config": {"trainable": true, "data_format": "channels_last", "pool_size": [3, 3], "name": "average_pooling2d_6", "strides": [1, 1], "padding": "same"}}, {"inbound_nodes": [[["mixed5", 0, 0, {}]]], "name": "conv2d_51", "class_name": "Conv2D", "config": {"activity_regularizer": null, "dilation_rate": [1, 1], "activation": "relu", "bias_initializer": {"class_name": "Zeros", "config": {}}, "filters": 96, "strides": [1, 1], "padding": "same", "kernel_size": [1, 1], "use_bias": true, "trainable": true, "kernel_constraint": null, "data_format": "channels_last", "bias_constraint": null, "bias_regularizer": null, "name": "conv2d_51", "kernel_initializer": {"class_name": "VarianceScaling", "config": {"seed": null, "scale": 1.0, "mode": "fan_avg", "distribution": "uniform"}}, "kernel_regularizer": null}}, {"inbound_nodes": [[["batch_normalization_53", 0, 0, {}]]], "name": "conv2d_54", "class_name": "Conv2D", "config": {"activity_regularizer": null, "dilation_rate": [1, 1], "activation": "relu", "bias_initializer": {"class_name": "Zeros", "config": {}}, "filters": 96, "strides": [1, 1], "padding": "same", "kernel_size": [7, 1], "use_bias": true, "trainable": true, "kernel_constraint": null, "data_format": "channels_last", "bias_constraint": null, "bias_regularizer": null, "name": "conv2d_54", "kernel_initializer": {"class_name": "VarianceScaling", "config": {"seed": null, "scale": 1.0, "mode": "fan_avg", "distribution": "uniform"}}, "kernel_regularizer": null}}, {"inbound_nodes": [[["batch_normalization_58", 0, 0, {}]]], "name": "conv2d_59", "class_name": "Conv2D", "config": {"activity_regularizer": null, "dilation_rate": [1, 1], "activation": "relu", "bias_initializer": {"class_name": "Zeros", "config": {}}, "filters": 96, "strides": [1, 1], "padding": "same", "kernel_size": [1, 7], "use_bias": true, "trainable": true, "kernel_constraint": null, "data_format": "channels_last", "bias_constraint": null, "bias_regularizer": null, "name": "conv2d_59", "kernel_initializer": {"class_name": "VarianceScaling", "config": {"seed": null, "scale": 1.0, "mode": "fan_avg", "distribution": "uniform"}}, "kernel_regularizer": null}}, {"inbound_nodes": [[["average_pooling2d_6", 0, 0, {}]]], "name": "conv2d_60", "class_name": "Conv2D", "config": {"activity_regularizer": null, "dilation_rate": [1, 1], "activation": "relu", "bias_initializer": {"class_name": "Zeros", "config": {}}, "filters": 96, "strides": [1, 1], "padding": "same", "kernel_size": [1, 1], "use_bias": true, "trainable": true, "kernel_constraint": null, "data_format": "channels_last", "bias_constraint": null, "bias_regularizer": null, "name": "conv2d_60", "kernel_initializer": {"class_name": "VarianceScaling", "config": {"seed": null, "scale": 1.0, "mode": "fan_avg", "distribution": "uniform"}}, "kernel_regularizer": null}}, {"inbound_nodes": [[["conv2d_51", 0, 0, {}]]], "name": "batch_normalization_51", "class_name": "BatchNormalization", "config": {"gamma_initializer": {"class_name": "Ones", "config": {}}, "moving_mean_initializer": {"class_name": "Zeros", "config": {}}, "beta_constraint": null, "beta_initializer": {"class_name": "Zeros", "config": {}}, "scale": true, "momentum": 0.99, "center": true, "epsilon": 0.001, "trainable": true, "axis": 3, "gamma_regularizer": null, "gamma_constraint": null, "name": "batch_normalization_51", "beta_regularizer": null, "moving_variance_initializer": {"class_name": "Ones", "config": {}}}}, {"inbound_nodes": [[["conv2d_54", 0, 0, {}]]], "name": "batch_normalization_54", "class_name": "BatchNormalization", "config": {"gamma_initializer": {"class_name": "Ones", "config": {}}, "moving_mean_initializer": {"class_name": "Zeros", "config": {}}, "beta_constraint": null, "beta_initializer": {"class_name": "Zeros", "config": {}}, "scale": true, "momentum": 0.99, "center": true, "epsilon": 0.001, "trainable": true, "axis": 3, "gamma_regularizer": null, "gamma_constraint": null, "name": "batch_normalization_54", "beta_regularizer": null, "moving_variance_initializer": {"class_name": "Ones", "config": {}}}}, {"inbound_nodes": [[["conv2d_59", 0, 0, {}]]], "name": "batch_normalization_59", "class_name": "BatchNormalization", "config": {"gamma_initializer": {"class_name": "Ones", "config": {}}, "moving_mean_initializer": {"class_name": "Zeros", "config": {}}, "beta_constraint": null, "beta_initializer": {"class_name": "Zeros", "config": {}}, "scale": true, "momentum": 0.99, "center": true, "epsilon": 0.001, "trainable": true, "axis": 3, "gamma_regularizer": null, "gamma_constraint": null, "name": "batch_normalization_59", "beta_regularizer": null, "moving_variance_initializer": {"class_name": "Ones", "config": {}}}}, {"inbound_nodes": [[["conv2d_60", 0, 0, {}]]], "name": "batch_normalization_60", "class_name": "BatchNormalization", "config": {"gamma_initializer": {"class_name": "Ones", "config": {}}, "moving_mean_initializer": {"class_name": "Zeros", "config": {}}, "beta_constraint": null, "beta_initializer": {"class_name": "Zeros", "config": {}}, "scale": true, "momentum": 0.99, "center": true, "epsilon": 0.001, "trainable": true, "axis": 3, "gamma_regularizer": null, "gamma_constraint": null, "name": "batch_normalization_60", "beta_regularizer": null, "moving_variance_initializer": {"class_name": "Ones", "config": {}}}}, {"inbound_nodes": [[["batch_normalization_51", 0, 0, {}], ["batch_normalization_54", 0, 0, {}], ["batch_normalization_59", 0, 0, {}], ["batch_normalization_60", 0, 0, {}]]], "name": "mixed6", "class_name": "Concatenate", "config": {"name": "mixed6", "trainable": true, "axis": -1}}, {"inbound_nodes": [[["mixed6", 0, 0, {}]]], "name": "conv2d_65", "class_name": "Conv2D", "config": {"activity_regularizer": null, "dilation_rate": [1, 1], "activation": "relu", "bias_initializer": {"class_name": "Zeros", "config": {}}, "filters": 80, "strides": [1, 1], "padding": "same", "kernel_size": [1, 1], "use_bias": true, "trainable": true, "kernel_constraint": null, "data_format": "channels_last", "bias_constraint": null, "bias_regularizer": null, "name": "conv2d_65", "kernel_initializer": {"class_name": "VarianceScaling", "config": {"seed": null, "scale": 1.0, "mode": "fan_avg", "distribution": "uniform"}}, "kernel_regularizer": null}}, {"inbound_nodes": [[["conv2d_65", 0, 0, {}]]], "name": "batch_normalization_65", "class_name": "BatchNormalization", "config": {"gamma_initializer": {"class_name": "Ones", "config": {}}, "moving_mean_initializer": {"class_name": "Zeros", "config": {}}, "beta_constraint": null, "beta_initializer": {"class_name": "Zeros", "config": {}}, "scale": true, "momentum": 0.99, "center": true, "epsilon": 0.001, "trainable": true, "axis": 3, "gamma_regularizer": null, "gamma_constraint": null, "name": "batch_normalization_65", "beta_regularizer": null, "moving_variance_initializer": {"class_name": "Ones", "config": {}}}}, {"inbound_nodes": [[["batch_normalization_65", 0, 0, {}]]], "name": "conv2d_66", "class_name": "Conv2D", "config": {"activity_regularizer": null, "dilation_rate": [1, 1], "activation": "relu", "bias_initializer": {"class_name": "Zeros", "config": {}}, "filters": 96, "strides": [1, 1], "padding": "same", "kernel_size": [7, 1], "use_bias": true, "trainable": true, "kernel_constraint": null, "data_format": "channels_last", "bias_constraint": null, "bias_regularizer": null, "name": "conv2d_66", "kernel_initializer": {"class_name": "VarianceScaling", "config": {"seed": null, "scale": 1.0, "mode": "fan_avg", "distribution": "uniform"}}, "kernel_regularizer": null}}, {"inbound_nodes": [[["conv2d_66", 0, 0, {}]]], "name": "batch_normalization_66", "class_name": "BatchNormalization", "config": {"gamma_initializer": {"class_name": "Ones", "config": {}}, "moving_mean_initializer": {"class_name": "Zeros", "config": {}}, "beta_constraint": null, "beta_initializer": {"class_name": "Zeros", "config": {}}, "scale": true, "momentum": 0.99, "center": true, "epsilon": 0.001, "trainable": true, "axis": 3, "gamma_regularizer": null, "gamma_constraint": null, "name": "batch_normalization_66", "beta_regularizer": null, "moving_variance_initializer": {"class_name": "Ones", "config": {}}}}, {"inbound_nodes": [[["mixed6", 0, 0, {}]]], "name": "conv2d_62", "class_name": "Conv2D", "config": {"activity_regularizer": null, "dilation_rate": [1, 1], "activation": "relu", "bias_initializer": {"class_name": "Zeros", "config": {}}, "filters": 96, "strides": [1, 1], "padding": "same", "kernel_size": [1, 1], "use_bias": true, "trainable": true, "kernel_constraint": null, "data_format": "channels_last", "bias_constraint": null, "bias_regularizer": null, "name": "conv2d_62", "kernel_initializer": {"class_name": "VarianceScaling", "config": {"seed": null, "scale": 1.0, "mode": "fan_avg", "distribution": "uniform"}}, "kernel_regularizer": null}}, {"inbound_nodes": [[["batch_normalization_66", 0, 0, {}]]], "name": "conv2d_67", "class_name": "Conv2D", "config": {"activity_regularizer": null, "dilation_rate": [1, 1], "activation": "relu", "bias_initializer": {"class_name": "Zeros", "config": {}}, "filters": 96, "strides": [1, 1], "padding": "same", "kernel_size": [1, 7], "use_bias": true, "trainable": true, "kernel_constraint": null, "data_format": "channels_last", "bias_constraint": null, "bias_regularizer": null, "name": "conv2d_67", "kernel_initializer": {"class_name": "VarianceScaling", "config": {"seed": null, "scale": 1.0, "mode": "fan_avg", "distribution": "uniform"}}, "kernel_regularizer": null}}, {"inbound_nodes": [[["conv2d_62", 0, 0, {}]]], "name": "batch_normalization_62", "class_name": "BatchNormalization", "config": {"gamma_initializer": {"class_name": "Ones", "config": {}}, "moving_mean_initializer": {"class_name": "Zeros", "config": {}}, "beta_constraint": null, "beta_initializer": {"class_name": "Zeros", "config": {}}, "scale": true, "momentum": 0.99, "center": true, "epsilon": 0.001, "trainable": true, "axis": 3, "gamma_regularizer": null, "gamma_constraint": null, "name": "batch_normalization_62", "beta_regularizer": null, "moving_variance_initializer": {"class_name": "Ones", "config": {}}}}, {"inbound_nodes": [[["conv2d_67", 0, 0, {}]]], "name": "batch_normalization_67", "class_name": "BatchNormalization", "config": {"gamma_initializer": {"class_name": "Ones", "config": {}}, "moving_mean_initializer": {"class_name": "Zeros", "config": {}}, "beta_constraint": null, "beta_initializer": {"class_name": "Zeros", "config": {}}, "scale": true, "momentum": 0.99, "center": true, "epsilon": 0.001, "trainable": true, "axis": 3, "gamma_regularizer": null, "gamma_constraint": null, "name": "batch_normalization_67", "beta_regularizer": null, "moving_variance_initializer": {"class_name": "Ones", "config": {}}}}, {"inbound_nodes": [[["batch_normalization_62", 0, 0, {}]]], "name": "conv2d_63", "class_name": "Conv2D", "config": {"activity_regularizer": null, "dilation_rate": [1, 1], "activation": "relu", "bias_initializer": {"class_name": "Zeros", "config": {}}, "filters": 96, "strides": [1, 1], "padding": "same", "kernel_size": [1, 7], "use_bias": true, "trainable": true, "kernel_constraint": null, "data_format": "channels_last", "bias_constraint": null, "bias_regularizer": null, "name": "conv2d_63", "kernel_initializer": {"class_name": "VarianceScaling", "config": {"seed": null, "scale": 1.0, "mode": "fan_avg", "distribution": "uniform"}}, "kernel_regularizer": null}}, {"inbound_nodes": [[["batch_normalization_67", 0, 0, {}]]], "name": "conv2d_68", "class_name": "Conv2D", "config": {"activity_regularizer": null, "dilation_rate": [1, 1], "activation": "relu", "bias_initializer": {"class_name": "Zeros", "config": {}}, "filters": 96, "strides": [1, 1], "padding": "same", "kernel_size": [7, 1], "use_bias": true, "trainable": true, "kernel_constraint": null, "data_format": "channels_last", "bias_constraint": null, "bias_regularizer": null, "name": "conv2d_68", "kernel_initializer": {"class_name": "VarianceScaling", "config": {"seed": null, "scale": 1.0, "mode": "fan_avg", "distribution": "uniform"}}, "kernel_regularizer": null}}, {"inbound_nodes": [[["conv2d_63", 0, 0, {}]]], "name": "batch_normalization_63", "class_name": "BatchNormalization", "config": {"gamma_initializer": {"class_name": "Ones", "config": {}}, "moving_mean_initializer": {"class_name": "Zeros", "config": {}}, "beta_constraint": null, "beta_initializer": {"class_name": "Zeros", "config": {}}, "scale": true, "momentum": 0.99, "center": true, "epsilon": 0.001, "trainable": true, "axis": 3, "gamma_regularizer": null, "gamma_constraint": null, "name": "batch_normalization_63", "beta_regularizer": null, "moving_variance_initializer": {"class_name": "Ones", "config": {}}}}, {"inbound_nodes": [[["conv2d_68", 0, 0, {}]]], "name": "batch_normalization_68", "class_name": "BatchNormalization", "config": {"gamma_initializer": {"class_name": "Ones", "config": {}}, "moving_mean_initializer": {"class_name": "Zeros", "config": {}}, "beta_constraint": null, "beta_initializer": {"class_name": "Zeros", "config": {}}, "scale": true, "momentum": 0.99, "center": true, "epsilon": 0.001, "trainable": true, "axis": 3, "gamma_regularizer": null, "gamma_constraint": null, "name": "batch_normalization_68", "beta_regularizer": null, "moving_variance_initializer": {"class_name": "Ones", "config": {}}}}, {"inbound_nodes": [[["mixed6", 0, 0, {}]]], "name": "average_pooling2d_7", "class_name": "AveragePooling2D", "config": {"trainable": true, "data_format": "channels_last", "pool_size": [3, 3], "name": "average_pooling2d_7", "strides": [1, 1], "padding": "same"}}, {"inbound_nodes": [[["mixed6", 0, 0, {}]]], "name": "conv2d_61", "class_name": "Conv2D", "config": {"activity_regularizer": null, "dilation_rate": [1, 1], "activation": "relu", "bias_initializer": {"class_name": "Zeros", "config": {}}, "filters": 96, "strides": [1, 1], "padding": "same", "kernel_size": [1, 1], "use_bias": true, "trainable": true, "kernel_constraint": null, "data_format": "channels_last", "bias_constraint": null, "bias_regularizer": null, "name": "conv2d_61", "kernel_initializer": {"class_name": "VarianceScaling", "config": {"seed": null, "scale": 1.0, "mode": "fan_avg", "distribution": "uniform"}}, "kernel_regularizer": null}}, {"inbound_nodes": [[["batch_normalization_63", 0, 0, {}]]], "name": "conv2d_64", "class_name": "Conv2D", "config": {"activity_regularizer": null, "dilation_rate": [1, 1], "activation": "relu", "bias_initializer": {"class_name": "Zeros", "config": {}}, "filters": 96, "strides": [1, 1], "padding": "same", "kernel_size": [7, 1], "use_bias": true, "trainable": true, "kernel_constraint": null, "data_format": "channels_last", "bias_constraint": null, "bias_regularizer": null, "name": "conv2d_64", "kernel_initializer": {"class_name": "VarianceScaling", "config": {"seed": null, "scale": 1.0, "mode": "fan_avg", "distribution": "uniform"}}, "kernel_regularizer": null}}, {"inbound_nodes": [[["batch_normalization_68", 0, 0, {}]]], "name": "conv2d_69", "class_name": "Conv2D", "config": {"activity_regularizer": null, "dilation_rate": [1, 1], "activation": "relu", "bias_initializer": {"class_name": "Zeros", "config": {}}, "filters": 96, "strides": [1, 1], "padding": "same", "kernel_size": [1, 7], "use_bias": true, "trainable": true, "kernel_constraint": null, "data_format": "channels_last", "bias_constraint": null, "bias_regularizer": null, "name": "conv2d_69", "kernel_initializer": {"class_name": "VarianceScaling", "config": {"seed": null, "scale": 1.0, "mode": "fan_avg", "distribution": "uniform"}}, "kernel_regularizer": null}}, {"inbound_nodes": [[["average_pooling2d_7", 0, 0, {}]]], "name": "conv2d_70", "class_name": "Conv2D", "config": {"activity_regularizer": null, "dilation_rate": [1, 1], "activation": "relu", "bias_initializer": {"class_name": "Zeros", "config": {}}, "filters": 96, "strides": [1, 1], "padding": "same", "kernel_size": [1, 1], "use_bias": true, "trainable": true, "kernel_constraint": null, "data_format": "channels_last", "bias_constraint": null, "bias_regularizer": null, "name": "conv2d_70", "kernel_initializer": {"class_name": "VarianceScaling", "config": {"seed": null, "scale": 1.0, "mode": "fan_avg", "distribution": "uniform"}}, "kernel_regularizer": null}}, {"inbound_nodes": [[["conv2d_61", 0, 0, {}]]], "name": "batch_normalization_61", "class_name": "BatchNormalization", "config": {"gamma_initializer": {"class_name": "Ones", "config": {}}, "moving_mean_initializer": {"class_name": "Zeros", "config": {}}, "beta_constraint": null, "beta_initializer": {"class_name": "Zeros", "config": {}}, "scale": true, "momentum": 0.99, "center": true, "epsilon": 0.001, "trainable": true, "axis": 3, "gamma_regularizer": null, "gamma_constraint": null, "name": "batch_normalization_61", "beta_regularizer": null, "moving_variance_initializer": {"class_name": "Ones", "config": {}}}}, {"inbound_nodes": [[["conv2d_64", 0, 0, {}]]], "name": "batch_normalization_64", "class_name": "BatchNormalization", "config": {"gamma_initializer": {"class_name": "Ones", "config": {}}, "moving_mean_initializer": {"class_name": "Zeros", "config": {}}, "beta_constraint": null, "beta_initializer": {"class_name": "Zeros", "config": {}}, "scale": true, "momentum": 0.99, "center": true, "epsilon": 0.001, "trainable": true, "axis": 3, "gamma_regularizer": null, "gamma_constraint": null, "name": "batch_normalization_64", "beta_regularizer": null, "moving_variance_initializer": {"class_name": "Ones", "config": {}}}}, {"inbound_nodes": [[["conv2d_69", 0, 0, {}]]], "name": "batch_normalization_69", "class_name": "BatchNormalization", "config": {"gamma_initializer": {"class_name": "Ones", "config": {}}, "moving_mean_initializer": {"class_name": "Zeros", "config": {}}, "beta_constraint": null, "beta_initializer": {"class_name": "Zeros", "config": {}}, "scale": true, "momentum": 0.99, "center": true, "epsilon": 0.001, "trainable": true, "axis": 3, "gamma_regularizer": null, "gamma_constraint": null, "name": "batch_normalization_69", "beta_regularizer": null, "moving_variance_initializer": {"class_name": "Ones", "config": {}}}}, {"inbound_nodes": [[["conv2d_70", 0, 0, {}]]], "name": "batch_normalization_70", "class_name": "BatchNormalization", "config": {"gamma_initializer": {"class_name": "Ones", "config": {}}, "moving_mean_initializer": {"class_name": "Zeros", "config": {}}, "beta_constraint": null, "beta_initializer": {"class_name": "Zeros", "config": {}}, "scale": true, "momentum": 0.99, "center": true, "epsilon": 0.001, "trainable": true, "axis": 3, "gamma_regularizer": null, "gamma_constraint": null, "name": "batch_normalization_70", "beta_regularizer": null, "moving_variance_initializer": {"class_name": "Ones", "config": {}}}}, {"inbound_nodes": [[["batch_normalization_61", 0, 0, {}], ["batch_normalization_64", 0, 0, {}], ["batch_normalization_69", 0, 0, {}], ["batch_normalization_70", 0, 0, {}]]], "name": "mixed7", "class_name": "Concatenate", "config": {"name": "mixed7", "trainable": true, "axis": -1}}, {"inbound_nodes": [[["mixed7", 0, 0, {}]]], "name": "conv2d_73", "class_name": "Conv2D", "config": {"activity_regularizer": null, "dilation_rate": [1, 1], "activation": "relu", "bias_initializer": {"class_name": "Zeros", "config": {}}, "filters": 96, "strides": [1, 1], "padding": "same", "kernel_size": [1, 1], "use_bias": true, "trainable": true, "kernel_constraint": null, "data_format": "channels_last", "bias_constraint": null, "bias_regularizer": null, "name": "conv2d_73", "kernel_initializer": {"class_name": "VarianceScaling", "config": {"seed": null, "scale": 1.0, "mode": "fan_avg", "distribution": "uniform"}}, "kernel_regularizer": null}}, {"inbound_nodes": [[["conv2d_73", 0, 0, {}]]], "name": "batch_normalization_73", "class_name": "BatchNormalization", "config": {"gamma_initializer": {"class_name": "Ones", "config": {}}, "moving_mean_initializer": {"class_name": "Zeros", "config": {}}, "beta_constraint": null, "beta_initializer": {"class_name": "Zeros", "config": {}}, "scale": true, "momentum": 0.99, "center": true, "epsilon": 0.001, "trainable": true, "axis": 3, "gamma_regularizer": null, "gamma_constraint": null, "name": "batch_normalization_73", "beta_regularizer": null, "moving_variance_initializer": {"class_name": "Ones", "config": {}}}}, {"inbound_nodes": [[["batch_normalization_73", 0, 0, {}]]], "name": "conv2d_74", "class_name": "Conv2D", "config": {"activity_regularizer": null, "dilation_rate": [1, 1], "activation": "relu", "bias_initializer": {"class_name": "Zeros", "config": {}}, "filters": 96, "strides": [1, 1], "padding": "same", "kernel_size": [1, 7], "use_bias": true, "trainable": true, "kernel_constraint": null, "data_format": "channels_last", "bias_constraint": null, "bias_regularizer": null, "name": "conv2d_74", "kernel_initializer": {"class_name": "VarianceScaling", "config": {"seed": null, "scale": 1.0, "mode": "fan_avg", "distribution": "uniform"}}, "kernel_regularizer": null}}, {"inbound_nodes": [[["conv2d_74", 0, 0, {}]]], "name": "batch_normalization_74", "class_name": "BatchNormalization", "config": {"gamma_initializer": {"class_name": "Ones", "config": {}}, "moving_mean_initializer": {"class_name": "Zeros", "config": {}}, "beta_constraint": null, "beta_initializer": {"class_name": "Zeros", "config": {}}, "scale": true, "momentum": 0.99, "center": true, "epsilon": 0.001, "trainable": true, "axis": 3, "gamma_regularizer": null, "gamma_constraint": null, "name": "batch_normalization_74", "beta_regularizer": null, "moving_variance_initializer": {"class_name": "Ones", "config": {}}}}, {"inbound_nodes": [[["mixed7", 0, 0, {}]]], "name": "conv2d_71", "class_name": "Conv2D", "config": {"activity_regularizer": null, "dilation_rate": [1, 1], "activation": "relu", "bias_initializer": {"class_name": "Zeros", "config": {}}, "filters": 96, "strides": [1, 1], "padding": "same", "kernel_size": [1, 1], "use_bias": true, "trainable": true, "kernel_constraint": null, "data_format": "channels_last", "bias_constraint": null, "bias_regularizer": null, "name": "conv2d_71", "kernel_initializer": {"class_name": "VarianceScaling", "config": {"seed": null, "scale": 1.0, "mode": "fan_avg", "distribution": "uniform"}}, "kernel_regularizer": null}}, {"inbound_nodes": [[["batch_normalization_74", 0, 0, {}]]], "name": "conv2d_75", "class_name": "Conv2D", "config": {"activity_regularizer": null, "dilation_rate": [1, 1], "activation": "relu", "bias_initializer": {"class_name": "Zeros", "config": {}}, "filters": 96, "strides": [1, 1], "padding": "same", "kernel_size": [7, 1], "use_bias": true, "trainable": true, "kernel_constraint": null, "data_format": "channels_last", "bias_constraint": null, "bias_regularizer": null, "name": "conv2d_75", "kernel_initializer": {"class_name": "VarianceScaling", "config": {"seed": null, "scale": 1.0, "mode": "fan_avg", "distribution": "uniform"}}, "kernel_regularizer": null}}, {"inbound_nodes": [[["conv2d_71", 0, 0, {}]]], "name": "batch_normalization_71", "class_name": "BatchNormalization", "config": {"gamma_initializer": {"class_name": "Ones", "config": {}}, "moving_mean_initializer": {"class_name": "Zeros", "config": {}}, "beta_constraint": null, "beta_initializer": {"class_name": "Zeros", "config": {}}, "scale": true, "momentum": 0.99, "center": true, "epsilon": 0.001, "trainable": true, "axis": 3, "gamma_regularizer": null, "gamma_constraint": null, "name": "batch_normalization_71", "beta_regularizer": null, "moving_variance_initializer": {"class_name": "Ones", "config": {}}}}, {"inbound_nodes": [[["conv2d_75", 0, 0, {}]]], "name": "batch_normalization_75", "class_name": "BatchNormalization", "config": {"gamma_initializer": {"class_name": "Ones", "config": {}}, "moving_mean_initializer": {"class_name": "Zeros", "config": {}}, "beta_constraint": null, "beta_initializer": {"class_name": "Zeros", "config": {}}, "scale": true, "momentum": 0.99, "center": true, "epsilon": 0.001, "trainable": true, "axis": 3, "gamma_regularizer": null, "gamma_constraint": null, "name": "batch_normalization_75", "beta_regularizer": null, "moving_variance_initializer": {"class_name": "Ones", "config": {}}}}, {"inbound_nodes": [[["batch_normalization_71", 0, 0, {}]]], "name": "conv2d_72", "class_name": "Conv2D", "config": {"activity_regularizer": null, "dilation_rate": [1, 1], "activation": "relu", "bias_initializer": {"class_name": "Zeros", "config": {}}, "filters": 160, "strides": [2, 2], "padding": "valid", "kernel_size": [3, 3], "use_bias": true, "trainable": true, "kernel_constraint": null, "data_format": "channels_last", "bias_constraint": null, "bias_regularizer": null, "name": "conv2d_72", "kernel_initializer": {"class_name": "VarianceScaling", "config": {"seed": null, "scale": 1.0, "mode": "fan_avg", "distribution": "uniform"}}, "kernel_regularizer": null}}, {"inbound_nodes": [[["batch_normalization_75", 0, 0, {}]]], "name": "conv2d_76", "class_name": "Conv2D", "config": {"activity_regularizer": null, "dilation_rate": [1, 1], "activation": "relu", "bias_initializer": {"class_name": "Zeros", "config": {}}, "filters": 96, "strides": [2, 2], "padding": "valid", "kernel_size": [3, 3], "use_bias": true, "trainable": true, "kernel_constraint": null, "data_format": "channels_last", "bias_constraint": null, "bias_regularizer": null, "name": "conv2d_76", "kernel_initializer": {"class_name": "VarianceScaling", "config": {"seed": null, "scale": 1.0, "mode": "fan_avg", "distribution": "uniform"}}, "kernel_regularizer": null}}, {"inbound_nodes": [[["conv2d_72", 0, 0, {}]]], "name": "batch_normalization_72", "class_name": "BatchNormalization", "config": {"gamma_initializer": {"class_name": "Ones", "config": {}}, "moving_mean_initializer": {"class_name": "Zeros", "config": {}}, "beta_constraint": null, "beta_initializer": {"class_name": "Zeros", "config": {}}, "scale": true, "momentum": 0.99, "center": true, "epsilon": 0.001, "trainable": true, "axis": 3, "gamma_regularizer": null, "gamma_constraint": null, "name": "batch_normalization_72", "beta_regularizer": null, "moving_variance_initializer": {"class_name": "Ones", "config": {}}}}, {"inbound_nodes": [[["conv2d_76", 0, 0, {}]]], "name": "batch_normalization_76", "class_name": "BatchNormalization", "config": {"gamma_initializer": {"class_name": "Ones", "config": {}}, "moving_mean_initializer": {"class_name": "Zeros", "config": {}}, "beta_constraint": null, "beta_initializer": {"class_name": "Zeros", "config": {}}, "scale": true, "momentum": 0.99, "center": true, "epsilon": 0.001, "trainable": true, "axis": 3, "gamma_regularizer": null, "gamma_constraint": null, "name": "batch_normalization_76", "beta_regularizer": null, "moving_variance_initializer": {"class_name": "Ones", "config": {}}}}, {"inbound_nodes": [[["mixed7", 0, 0, {}]]], "name": "average_pooling2d_8", "class_name": "AveragePooling2D", "config": {"trainable": true, "data_format": "channels_last", "pool_size": [3, 3], "name": "average_pooling2d_8", "strides": [2, 2], "padding": "valid"}}, {"inbound_nodes": [[["batch_normalization_72", 0, 0, {}], ["batch_normalization_76", 0, 0, {}], ["average_pooling2d_8", 0, 0, {}]]], "name": "mixed8", "class_name": "Concatenate", "config": {"name": "mixed8", "trainable": true, "axis": -1}}, {"inbound_nodes": [[["mixed8", 0, 0, {}]]], "name": "conv2d_81", "class_name": "Conv2D", "config": {"activity_regularizer": null, "dilation_rate": [1, 1], "activation": "relu", "bias_initializer": {"class_name": "Zeros", "config": {}}, "filters": 224, "strides": [1, 1], "padding": "same", "kernel_size": [1, 1], "use_bias": true, "trainable": true, "kernel_constraint": null, "data_format": "channels_last", "bias_constraint": null, "bias_regularizer": null, "name": "conv2d_81", "kernel_initializer": {"class_name": "VarianceScaling", "config": {"seed": null, "scale": 1.0, "mode": "fan_avg", "distribution": "uniform"}}, "kernel_regularizer": null}}, {"inbound_nodes": [[["conv2d_81", 0, 0, {}]]], "name": "batch_normalization_81", "class_name": "BatchNormalization", "config": {"gamma_initializer": {"class_name": "Ones", "config": {}}, "moving_mean_initializer": {"class_name": "Zeros", "config": {}}, "beta_constraint": null, "beta_initializer": {"class_name": "Zeros", "config": {}}, "scale": true, "momentum": 0.99, "center": true, "epsilon": 0.001, "trainable": true, "axis": 3, "gamma_regularizer": null, "gamma_constraint": null, "name": "batch_normalization_81", "beta_regularizer": null, "moving_variance_initializer": {"class_name": "Ones", "config": {}}}}, {"inbound_nodes": [[["mixed8", 0, 0, {}]]], "name": "conv2d_78", "class_name": "Conv2D", "config": {"activity_regularizer": null, "dilation_rate": [1, 1], "activation": "relu", "bias_initializer": {"class_name": "Zeros", "config": {}}, "filters": 192, "strides": [1, 1], "padding": "same", "kernel_size": [1, 1], "use_bias": true, "trainable": true, "kernel_constraint": null, "data_format": "channels_last", "bias_constraint": null, "bias_regularizer": null, "name": "conv2d_78", "kernel_initializer": {"class_name": "VarianceScaling", "config": {"seed": null, "scale": 1.0, "mode": "fan_avg", "distribution": "uniform"}}, "kernel_regularizer": null}}, {"inbound_nodes": [[["batch_normalization_81", 0, 0, {}]]], "name": "conv2d_82", "class_name": "Conv2D", "config": {"activity_regularizer": null, "dilation_rate": [1, 1], "activation": "relu", "bias_initializer": {"class_name": "Zeros", "config": {}}, "filters": 192, "strides": [1, 1], "padding": "same", "kernel_size": [3, 3], "use_bias": true, "trainable": true, "kernel_constraint": null, "data_format": "channels_last", "bias_constraint": null, "bias_regularizer": null, "name": "conv2d_82", "kernel_initializer": {"class_name": "VarianceScaling", "config": {"seed": null, "scale": 1.0, "mode": "fan_avg", "distribution": "uniform"}}, "kernel_regularizer": null}}, {"inbound_nodes": [[["conv2d_78", 0, 0, {}]]], "name": "batch_normalization_78", "class_name": "BatchNormalization", "config": {"gamma_initializer": {"class_name": "Ones", "config": {}}, "moving_mean_initializer": {"class_name": "Zeros", "config": {}}, "beta_constraint": null, "beta_initializer": {"class_name": "Zeros", "config": {}}, "scale": true, "momentum": 0.99, "center": true, "epsilon": 0.001, "trainable": true, "axis": 3, "gamma_regularizer": null, "gamma_constraint": null, "name": "batch_normalization_78", "beta_regularizer": null, "moving_variance_initializer": {"class_name": "Ones", "config": {}}}}, {"inbound_nodes": [[["conv2d_82", 0, 0, {}]]], "name": "batch_normalization_82", "class_name": "BatchNormalization", "config": {"gamma_initializer": {"class_name": "Ones", "config": {}}, "moving_mean_initializer": {"class_name": "Zeros", "config": {}}, "beta_constraint": null, "beta_initializer": {"class_name": "Zeros", "config": {}}, "scale": true, "momentum": 0.99, "center": true, "epsilon": 0.001, "trainable": true, "axis": 3, "gamma_regularizer": null, "gamma_constraint": null, "name": "batch_normalization_82", "beta_regularizer": null, "moving_variance_initializer": {"class_name": "Ones", "config": {}}}}, {"inbound_nodes": [[["batch_normalization_78", 0, 0, {}]]], "name": "conv2d_79", "class_name": "Conv2D", "config": {"activity_regularizer": null, "dilation_rate": [1, 1], "activation": "relu", "bias_initializer": {"class_name": "Zeros", "config": {}}, "filters": 192, "strides": [1, 1], "padding": "same", "kernel_size": [1, 3], "use_bias": true, "trainable": true, "kernel_constraint": null, "data_format": "channels_last", "bias_constraint": null, "bias_regularizer": null, "name": "conv2d_79", "kernel_initializer": {"class_name": "VarianceScaling", "config": {"seed": null, "scale": 1.0, "mode": "fan_avg", "distribution": "uniform"}}, "kernel_regularizer": null}}, {"inbound_nodes": [[["batch_normalization_78", 0, 0, {}]]], "name": "conv2d_80", "class_name": "Conv2D", "config": {"activity_regularizer": null, "dilation_rate": [1, 1], "activation": "relu", "bias_initializer": {"class_name": "Zeros", "config": {}}, "filters": 192, "strides": [1, 1], "padding": "same", "kernel_size": [3, 1], "use_bias": true, "trainable": true, "kernel_constraint": null, "data_format": "channels_last", "bias_constraint": null, "bias_regularizer": null, "name": "conv2d_80", "kernel_initializer": {"class_name": "VarianceScaling", "config": {"seed": null, "scale": 1.0, "mode": "fan_avg", "distribution": "uniform"}}, "kernel_regularizer": null}}, {"inbound_nodes": [[["batch_normalization_82", 0, 0, {}]]], "name": "conv2d_83", "class_name": "Conv2D", "config": {"activity_regularizer": null, "dilation_rate": [1, 1], "activation": "relu", "bias_initializer": {"class_name": "Zeros", "config": {}}, "filters": 192, "strides": [1, 1], "padding": "same", "kernel_size": [1, 3], "use_bias": true, "trainable": true, "kernel_constraint": null, "data_format": "channels_last", "bias_constraint": null, "bias_regularizer": null, "name": "conv2d_83", "kernel_initializer": {"class_name": "VarianceScaling", "config": {"seed": null, "scale": 1.0, "mode": "fan_avg", "distribution": "uniform"}}, "kernel_regularizer": null}}, {"inbound_nodes": [[["batch_normalization_82", 0, 0, {}]]], "name": "conv2d_84", "class_name": "Conv2D", "config": {"activity_regularizer": null, "dilation_rate": [1, 1], "activation": "relu", "bias_initializer": {"class_name": "Zeros", "config": {}}, "filters": 192, "strides": [1, 1], "padding": "same", "kernel_size": [3, 1], "use_bias": true, "trainable": true, "kernel_constraint": null, "data_format": "channels_last", "bias_constraint": null, "bias_regularizer": null, "name": "conv2d_84", "kernel_initializer": {"class_name": "VarianceScaling", "config": {"seed": null, "scale": 1.0, "mode": "fan_avg", "distribution": "uniform"}}, "kernel_regularizer": null}}, {"inbound_nodes": [[["mixed8", 0, 0, {}]]], "name": "average_pooling2d_9", "class_name": "AveragePooling2D", "config": {"trainable": true, "data_format": "channels_last", "pool_size": [3, 3], "name": "average_pooling2d_9", "strides": [1, 1], "padding": "same"}}, {"inbound_nodes": [[["mixed8", 0, 0, {}]]], "name": "conv2d_77", "class_name": "Conv2D", "config": {"activity_regularizer": null, "dilation_rate": [1, 1], "activation": "relu", "bias_initializer": {"class_name": "Zeros", "config": {}}, "filters": 160, "strides": [1, 1], "padding": "same", "kernel_size": [1, 1], "use_bias": true, "trainable": true, "kernel_constraint": null, "data_format": "channels_last", "bias_constraint": null, "bias_regularizer": null, "name": "conv2d_77", "kernel_initializer": {"class_name": "VarianceScaling", "config": {"seed": null, "scale": 1.0, "mode": "fan_avg", "distribution": "uniform"}}, "kernel_regularizer": null}}, {"inbound_nodes": [[["conv2d_79", 0, 0, {}]]], "name": "batch_normalization_79", "class_name": "BatchNormalization", "config": {"gamma_initializer": {"class_name": "Ones", "config": {}}, "moving_mean_initializer": {"class_name": "Zeros", "config": {}}, "beta_constraint": null, "beta_initializer": {"class_name": "Zeros", "config": {}}, "scale": true, "momentum": 0.99, "center": true, "epsilon": 0.001, "trainable": true, "axis": 3, "gamma_regularizer": null, "gamma_constraint": null, "name": "batch_normalization_79", "beta_regularizer": null, "moving_variance_initializer": {"class_name": "Ones", "config": {}}}}, {"inbound_nodes": [[["conv2d_80", 0, 0, {}]]], "name": "batch_normalization_80", "class_name": "BatchNormalization", "config": {"gamma_initializer": {"class_name": "Ones", "config": {}}, "moving_mean_initializer": {"class_name": "Zeros", "config": {}}, "beta_constraint": null, "beta_initializer": {"class_name": "Zeros", "config": {}}, "scale": true, "momentum": 0.99, "center": true, "epsilon": 0.001, "trainable": true, "axis": 3, "gamma_regularizer": null, "gamma_constraint": null, "name": "batch_normalization_80", "beta_regularizer": null, "moving_variance_initializer": {"class_name": "Ones", "config": {}}}}, {"inbound_nodes": [[["conv2d_83", 0, 0, {}]]], "name": "batch_normalization_83", "class_name": "BatchNormalization", "config": {"gamma_initializer": {"class_name": "Ones", "config": {}}, "moving_mean_initializer": {"class_name": "Zeros", "config": {}}, "beta_constraint": null, "beta_initializer": {"class_name": "Zeros", "config": {}}, "scale": true, "momentum": 0.99, "center": true, "epsilon": 0.001, "trainable": true, "axis": 3, "gamma_regularizer": null, "gamma_constraint": null, "name": "batch_normalization_83", "beta_regularizer": null, "moving_variance_initializer": {"class_name": "Ones", "config": {}}}}, {"inbound_nodes": [[["conv2d_84", 0, 0, {}]]], "name": "batch_normalization_84", "class_name": "BatchNormalization", "config": {"gamma_initializer": {"class_name": "Ones", "config": {}}, "moving_mean_initializer": {"class_name": "Zeros", "config": {}}, "beta_constraint": null, "beta_initializer": {"class_name": "Zeros", "config": {}}, "scale": true, "momentum": 0.99, "center": true, "epsilon": 0.001, "trainable": true, "axis": 3, "gamma_regularizer": null, "gamma_constraint": null, "name": "batch_normalization_84", "beta_regularizer": null, "moving_variance_initializer": {"class_name": "Ones", "config": {}}}}, {"inbound_nodes": [[["average_pooling2d_9", 0, 0, {}]]], "name": "conv2d_85", "class_name": "Conv2D", "config": {"activity_regularizer": null, "dilation_rate": [1, 1], "activation": "relu", "bias_initializer": {"class_name": "Zeros", "config": {}}, "filters": 96, "strides": [1, 1], "padding": "same", "kernel_size": [1, 1], "use_bias": true, "trainable": true, "kernel_constraint": null, "data_format": "channels_last", "bias_constraint": null, "bias_regularizer": null, "name": "conv2d_85", "kernel_initializer": {"class_name": "VarianceScaling", "config": {"seed": null, "scale": 1.0, "mode": "fan_avg", "distribution": "uniform"}}, "kernel_regularizer": null}}, {"inbound_nodes": [[["conv2d_77", 0, 0, {}]]], "name": "batch_normalization_77", "class_name": "BatchNormalization", "config": {"gamma_initializer": {"class_name": "Ones", "config": {}}, "moving_mean_initializer": {"class_name": "Zeros", "config": {}}, "beta_constraint": null, "beta_initializer": {"class_name": "Zeros", "config": {}}, "scale": true, "momentum": 0.99, "center": true, "epsilon": 0.001, "trainable": true, "axis": 3, "gamma_regularizer": null, "gamma_constraint": null, "name": "batch_normalization_77", "beta_regularizer": null, "moving_variance_initializer": {"class_name": "Ones", "config": {}}}}, {"inbound_nodes": [[["batch_normalization_79", 0, 0, {}], ["batch_normalization_80", 0, 0, {}]]], "name": "mixed9_0", "class_name": "Concatenate", "config": {"name": "mixed9_0", "trainable": true, "axis": -1}}, {"inbound_nodes": [[["batch_normalization_83", 0, 0, {}], ["batch_normalization_84", 0, 0, {}]]], "name": "concatenate_1", "class_name": "Concatenate", "config": {"name": "concatenate_1", "trainable": true, "axis": -1}}, {"inbound_nodes": [[["conv2d_85", 0, 0, {}]]], "name": "batch_normalization_85", "class_name": "BatchNormalization", "config": {"gamma_initializer": {"class_name": "Ones", "config": {}}, "moving_mean_initializer": {"class_name": "Zeros", "config": {}}, "beta_constraint": null, "beta_initializer": {"class_name": "Zeros", "config": {}}, "scale": true, "momentum": 0.99, "center": true, "epsilon": 0.001, "trainable": true, "axis": 3, "gamma_regularizer": null, "gamma_constraint": null, "name": "batch_normalization_85", "beta_regularizer": null, "moving_variance_initializer": {"class_name": "Ones", "config": {}}}}, {"inbound_nodes": [[["batch_normalization_77", 0, 0, {}], ["mixed9_0", 0, 0, {}], ["concatenate_1", 0, 0, {}], ["batch_normalization_85", 0, 0, {}]]], "name": "mixed9", "class_name": "Concatenate", "config": {"name": "mixed9", "trainable": true, "axis": -1}}, {"inbound_nodes": [[["mixed9", 0, 0, {}]]], "name": "conv2d_90", "class_name": "Conv2D", "config": {"activity_regularizer": null, "dilation_rate": [1, 1], "activation": "relu", "bias_initializer": {"class_name": "Zeros", "config": {}}, "filters": 224, "strides": [1, 1], "padding": "same", "kernel_size": [1, 1], "use_bias": true, "trainable": true, "kernel_constraint": null, "data_format": "channels_last", "bias_constraint": null, "bias_regularizer": null, "name": "conv2d_90", "kernel_initializer": {"class_name": "VarianceScaling", "config": {"seed": null, "scale": 1.0, "mode": "fan_avg", "distribution": "uniform"}}, "kernel_regularizer": null}}, {"inbound_nodes": [[["conv2d_90", 0, 0, {}]]], "name": "batch_normalization_90", "class_name": "BatchNormalization", "config": {"gamma_initializer": {"class_name": "Ones", "config": {}}, "moving_mean_initializer": {"class_name": "Zeros", "config": {}}, "beta_constraint": null, "beta_initializer": {"class_name": "Zeros", "config": {}}, "scale": true, "momentum": 0.99, "center": true, "epsilon": 0.001, "trainable": true, "axis": 3, "gamma_regularizer": null, "gamma_constraint": null, "name": "batch_normalization_90", "beta_regularizer": null, "moving_variance_initializer": {"class_name": "Ones", "config": {}}}}, {"inbound_nodes": [[["mixed9", 0, 0, {}]]], "name": "conv2d_87", "class_name": "Conv2D", "config": {"activity_regularizer": null, "dilation_rate": [1, 1], "activation": "relu", "bias_initializer": {"class_name": "Zeros", "config": {}}, "filters": 192, "strides": [1, 1], "padding": "same", "kernel_size": [1, 1], "use_bias": true, "trainable": true, "kernel_constraint": null, "data_format": "channels_last", "bias_constraint": null, "bias_regularizer": null, "name": "conv2d_87", "kernel_initializer": {"class_name": "VarianceScaling", "config": {"seed": null, "scale": 1.0, "mode": "fan_avg", "distribution": "uniform"}}, "kernel_regularizer": null}}, {"inbound_nodes": [[["batch_normalization_90", 0, 0, {}]]], "name": "conv2d_91", "class_name": "Conv2D", "config": {"activity_regularizer": null, "dilation_rate": [1, 1], "activation": "relu", "bias_initializer": {"class_name": "Zeros", "config": {}}, "filters": 192, "strides": [1, 1], "padding": "same", "kernel_size": [3, 3], "use_bias": true, "trainable": true, "kernel_constraint": null, "data_format": "channels_last", "bias_constraint": null, "bias_regularizer": null, "name": "conv2d_91", "kernel_initializer": {"class_name": "VarianceScaling", "config": {"seed": null, "scale": 1.0, "mode": "fan_avg", "distribution": "uniform"}}, "kernel_regularizer": null}}, {"inbound_nodes": [[["conv2d_87", 0, 0, {}]]], "name": "batch_normalization_87", "class_name": "BatchNormalization", "config": {"gamma_initializer": {"class_name": "Ones", "config": {}}, "moving_mean_initializer": {"class_name": "Zeros", "config": {}}, "beta_constraint": null, "beta_initializer": {"class_name": "Zeros", "config": {}}, "scale": true, "momentum": 0.99, "center": true, "epsilon": 0.001, "trainable": true, "axis": 3, "gamma_regularizer": null, "gamma_constraint": null, "name": "batch_normalization_87", "beta_regularizer": null, "moving_variance_initializer": {"class_name": "Ones", "config": {}}}}, {"inbound_nodes": [[["conv2d_91", 0, 0, {}]]], "name": "batch_normalization_91", "class_name": "BatchNormalization", "config": {"gamma_initializer": {"class_name": "Ones", "config": {}}, "moving_mean_initializer": {"class_name": "Zeros", "config": {}}, "beta_constraint": null, "beta_initializer": {"class_name": "Zeros", "config": {}}, "scale": true, "momentum": 0.99, "center": true, "epsilon": 0.001, "trainable": true, "axis": 3, "gamma_regularizer": null, "gamma_constraint": null, "name": "batch_normalization_91", "beta_regularizer": null, "moving_variance_initializer": {"class_name": "Ones", "config": {}}}}, {"inbound_nodes": [[["batch_normalization_87", 0, 0, {}]]], "name": "conv2d_88", "class_name": "Conv2D", "config": {"activity_regularizer": null, "dilation_rate": [1, 1], "activation": "relu", "bias_initializer": {"class_name": "Zeros", "config": {}}, "filters": 192, "strides": [1, 1], "padding": "same", "kernel_size": [1, 3], "use_bias": true, "trainable": true, "kernel_constraint": null, "data_format": "channels_last", "bias_constraint": null, "bias_regularizer": null, "name": "conv2d_88", "kernel_initializer": {"class_name": "VarianceScaling", "config": {"seed": null, "scale": 1.0, "mode": "fan_avg", "distribution": "uniform"}}, "kernel_regularizer": null}}, {"inbound_nodes": [[["batch_normalization_87", 0, 0, {}]]], "name": "conv2d_89", "class_name": "Conv2D", "config": {"activity_regularizer": null, "dilation_rate": [1, 1], "activation": "relu", "bias_initializer": {"class_name": "Zeros", "config": {}}, "filters": 192, "strides": [1, 1], "padding": "same", "kernel_size": [3, 1], "use_bias": true, "trainable": true, "kernel_constraint": null, "data_format": "channels_last", "bias_constraint": null, "bias_regularizer": null, "name": "conv2d_89", "kernel_initializer": {"class_name": "VarianceScaling", "config": {"seed": null, "scale": 1.0, "mode": "fan_avg", "distribution": "uniform"}}, "kernel_regularizer": null}}, {"inbound_nodes": [[["batch_normalization_91", 0, 0, {}]]], "name": "conv2d_92", "class_name": "Conv2D", "config": {"activity_regularizer": null, "dilation_rate": [1, 1], "activation": "relu", "bias_initializer": {"class_name": "Zeros", "config": {}}, "filters": 192, "strides": [1, 1], "padding": "same", "kernel_size": [1, 3], "use_bias": true, "trainable": true, "kernel_constraint": null, "data_format": "channels_last", "bias_constraint": null, "bias_regularizer": null, "name": "conv2d_92", "kernel_initializer": {"class_name": "VarianceScaling", "config": {"seed": null, "scale": 1.0, "mode": "fan_avg", "distribution": "uniform"}}, "kernel_regularizer": null}}, {"inbound_nodes": [[["batch_normalization_91", 0, 0, {}]]], "name": "conv2d_93", "class_name": "Conv2D", "config": {"activity_regularizer": null, "dilation_rate": [1, 1], "activation": "relu", "bias_initializer": {"class_name": "Zeros", "config": {}}, "filters": 192, "strides": [1, 1], "padding": "same", "kernel_size": [3, 1], "use_bias": true, "trainable": true, "kernel_constraint": null, "data_format": "channels_last", "bias_constraint": null, "bias_regularizer": null, "name": "conv2d_93", "kernel_initializer": {"class_name": "VarianceScaling", "config": {"seed": null, "scale": 1.0, "mode": "fan_avg", "distribution": "uniform"}}, "kernel_regularizer": null}}, {"inbound_nodes": [[["mixed9", 0, 0, {}]]], "name": "average_pooling2d_10", "class_name": "AveragePooling2D", "config": {"trainable": true, "data_format": "channels_last", "pool_size": [3, 3], "name": "average_pooling2d_10", "strides": [1, 1], "padding": "same"}}, {"inbound_nodes": [[["mixed9", 0, 0, {}]]], "name": "conv2d_86", "class_name": "Conv2D", "config": {"activity_regularizer": null, "dilation_rate": [1, 1], "activation": "relu", "bias_initializer": {"class_name": "Zeros", "config": {}}, "filters": 160, "strides": [1, 1], "padding": "same", "kernel_size": [1, 1], "use_bias": true, "trainable": true, "kernel_constraint": null, "data_format": "channels_last", "bias_constraint": null, "bias_regularizer": null, "name": "conv2d_86", "kernel_initializer": {"class_name": "VarianceScaling", "config": {"seed": null, "scale": 1.0, "mode": "fan_avg", "distribution": "uniform"}}, "kernel_regularizer": null}}, {"inbound_nodes": [[["conv2d_88", 0, 0, {}]]], "name": "batch_normalization_88", "class_name": "BatchNormalization", "config": {"gamma_initializer": {"class_name": "Ones", "config": {}}, "moving_mean_initializer": {"class_name": "Zeros", "config": {}}, "beta_constraint": null, "beta_initializer": {"class_name": "Zeros", "config": {}}, "scale": true, "momentum": 0.99, "center": true, "epsilon": 0.001, "trainable": true, "axis": 3, "gamma_regularizer": null, "gamma_constraint": null, "name": "batch_normalization_88", "beta_regularizer": null, "moving_variance_initializer": {"class_name": "Ones", "config": {}}}}, {"inbound_nodes": [[["conv2d_89", 0, 0, {}]]], "name": "batch_normalization_89", "class_name": "BatchNormalization", "config": {"gamma_initializer": {"class_name": "Ones", "config": {}}, "moving_mean_initializer": {"class_name": "Zeros", "config": {}}, "beta_constraint": null, "beta_initializer": {"class_name": "Zeros", "config": {}}, "scale": true, "momentum": 0.99, "center": true, "epsilon": 0.001, "trainable": true, "axis": 3, "gamma_regularizer": null, "gamma_constraint": null, "name": "batch_normalization_89", "beta_regularizer": null, "moving_variance_initializer": {"class_name": "Ones", "config": {}}}}, {"inbound_nodes": [[["conv2d_92", 0, 0, {}]]], "name": "batch_normalization_92", "class_name": "BatchNormalization", "config": {"gamma_initializer": {"class_name": "Ones", "config": {}}, "moving_mean_initializer": {"class_name": "Zeros", "config": {}}, "beta_constraint": null, "beta_initializer": {"class_name": "Zeros", "config": {}}, "scale": true, "momentum": 0.99, "center": true, "epsilon": 0.001, "trainable": true, "axis": 3, "gamma_regularizer": null, "gamma_constraint": null, "name": "batch_normalization_92", "beta_regularizer": null, "moving_variance_initializer": {"class_name": "Ones", "config": {}}}}, {"inbound_nodes": [[["conv2d_93", 0, 0, {}]]], "name": "batch_normalization_93", "class_name": "BatchNormalization", "config": {"gamma_initializer": {"class_name": "Ones", "config": {}}, "moving_mean_initializer": {"class_name": "Zeros", "config": {}}, "beta_constraint": null, "beta_initializer": {"class_name": "Zeros", "config": {}}, "scale": true, "momentum": 0.99, "center": true, "epsilon": 0.001, "trainable": true, "axis": 3, "gamma_regularizer": null, "gamma_constraint": null, "name": "batch_normalization_93", "beta_regularizer": null, "moving_variance_initializer": {"class_name": "Ones", "config": {}}}}, {"inbound_nodes": [[["average_pooling2d_10", 0, 0, {}]]], "name": "conv2d_94", "class_name": "Conv2D", "config": {"activity_regularizer": null, "dilation_rate": [1, 1], "activation": "relu", "bias_initializer": {"class_name": "Zeros", "config": {}}, "filters": 96, "strides": [1, 1], "padding": "same", "kernel_size": [1, 1], "use_bias": true, "trainable": true, "kernel_constraint": null, "data_format": "channels_last", "bias_constraint": null, "bias_regularizer": null, "name": "conv2d_94", "kernel_initializer": {"class_name": "VarianceScaling", "config": {"seed": null, "scale": 1.0, "mode": "fan_avg", "distribution": "uniform"}}, "kernel_regularizer": null}}, {"inbound_nodes": [[["conv2d_86", 0, 0, {}]]], "name": "batch_normalization_86", "class_name": "BatchNormalization", "config": {"gamma_initializer": {"class_name": "Ones", "config": {}}, "moving_mean_initializer": {"class_name": "Zeros", "config": {}}, "beta_constraint": null, "beta_initializer": {"class_name": "Zeros", "config": {}}, "scale": true, "momentum": 0.99, "center": true, "epsilon": 0.001, "trainable": true, "axis": 3, "gamma_regularizer": null, "gamma_constraint": null, "name": "batch_normalization_86", "beta_regularizer": null, "moving_variance_initializer": {"class_name": "Ones", "config": {}}}}, {"inbound_nodes": [[["batch_normalization_88", 0, 0, {}], ["batch_normalization_89", 0, 0, {}]]], "name": "mixed9_1", "class_name": "Concatenate", "config": {"name": "mixed9_1", "trainable": true, "axis": -1}}, {"inbound_nodes": [[["batch_normalization_92", 0, 0, {}], ["batch_normalization_93", 0, 0, {}]]], "name": "concatenate_2", "class_name": "Concatenate", "config": {"name": "concatenate_2", "trainable": true, "axis": -1}}, {"inbound_nodes": [[["conv2d_94", 0, 0, {}]]], "name": "batch_normalization_94", "class_name": "BatchNormalization", "config": {"gamma_initializer": {"class_name": "Ones", "config": {}}, "moving_mean_initializer": {"class_name": "Zeros", "config": {}}, "beta_constraint": null, "beta_initializer": {"class_name": "Zeros", "config": {}}, "scale": true, "momentum": 0.99, "center": true, "epsilon": 0.001, "trainable": true, "axis": 3, "gamma_regularizer": null, "gamma_constraint": null, "name": "batch_normalization_94", "beta_regularizer": null, "moving_variance_initializer": {"class_name": "Ones", "config": {}}}}, {"inbound_nodes": [[["batch_normalization_86", 0, 0, {}], ["mixed9_1", 0, 0, {}], ["concatenate_2", 0, 0, {}], ["batch_normalization_94", 0, 0, {}]]], "name": "mixed10", "class_name": "Concatenate", "config": {"name": "mixed10", "trainable": true, "axis": -1}}, {"inbound_nodes": [[["mixed10", 0, 0, {}]]], "name": "end_max_pool", "class_name": "MaxPooling2D", "config": {"trainable": true, "data_format": "channels_last", "pool_size": [2, 2], "name": "end_max_pool", "strides": [2, 2], "padding": "valid"}}, {"inbound_nodes": [[["end_max_pool", 0, 0, {}]]], "name": "flatten", "class_name": "Flatten", "config": {"name": "flatten", "trainable": true}}, {"inbound_nodes": [[["flatten", 0, 0, {}]]], "name": "output_layer", "class_name": "Dense", "config": {"activity_regularizer": null, "activation": "sigmoid", "bias_initializer": {"class_name": "Zeros", "config": {}}, "units": 1, "use_bias": true, "trainable": true, "kernel_constraint": null, "bias_constraint": null, "bias_regularizer": null, "name": "output_layer", "kernel_initializer": {"class_name": "VarianceScaling", "config": {"seed": null, "scale": 1.0, "mode": "fan_avg", "distribution": "uniform"}}, "kernel_regularizer": null}}], "name": "model_1", "input_layers": [["input_1", 0, 0]], "output_layers": [["output_layer", 0, 0]]}}