{"class_name": "Model", "backend": "tensorflow", "keras_version": "2.0.6", "config": {"output_layers": [["output_layer", 0, 0]], "name": "model_1", "layers": [{"class_name": "InputLayer", "inbound_nodes": [], "name": "input_1", "config": {"batch_input_shape": [null, 1152, 832, 1], "dtype": "float32", "name": "input_1", "sparse": false}}, {"class_name": "Conv2D", "inbound_nodes": [[["input_1", 0, 0, {}]]], "name": "conv2d_1", "config": {"kernel_initializer": {"class_name": "VarianceScaling", "config": {"mode": "fan_avg", "seed": null, "scale": 1.0, "distribution": "uniform"}}, "activity_regularizer": null, "use_bias": true, "activation": "relu", "bias_initializer": {"class_name": "Zeros", "config": {}}, "data_format": "channels_last", "bias_constraint": null, "strides": [2, 2], "kernel_constraint": null, "name": "conv2d_1", "trainable": true, "filters": 16, "dilation_rate": [1, 1], "kernel_size": [3, 3], "kernel_regularizer": null, "padding": "valid", "bias_regularizer": null}}, {"class_name": "BatchNormalization", "inbound_nodes": [[["conv2d_1", 0, 0, {}]]], "name": "batch_normalization_1", "config": {"gamma_regularizer": null, "gamma_initializer": {"class_name": "Ones", "config": {}}, "gamma_constraint": null, "name": "batch_normalization_1", "axis": 3, "moving_mean_initializer": {"class_name": "Zeros", "config": {}}, "scale": true, "beta_regularizer": null, "beta_constraint": null, "epsilon": 0.001, "beta_initializer": {"class_name": "Zeros", "config": {}}, "trainable": true, "momentum": 0.99, "moving_variance_initializer": {"class_name": "Ones", "config": {}}, "center": true}}, {"class_name": "Conv2D", "inbound_nodes": [[["batch_normalization_1", 0, 0, {}]]], "name": "conv2d_2", "config": {"kernel_initializer": {"class_name": "VarianceScaling", "config": {"mode": "fan_avg", "seed": null, "scale": 1.0, "distribution": "uniform"}}, "activity_regularizer": null, "use_bias": true, "activation": "relu", "bias_initializer": {"class_name": "Zeros", "config": {}}, "data_format": "channels_last", "bias_constraint": null, "strides": [1, 1], "kernel_constraint": null, "name": "conv2d_2", "trainable": true, "filters": 16, "dilation_rate": [1, 1], "kernel_size": [3, 3], "kernel_regularizer": null, "padding": "valid", "bias_regularizer": null}}, {"class_name": "BatchNormalization", "inbound_nodes": [[["conv2d_2", 0, 0, {}]]], "name": "batch_normalization_2", "config": {"gamma_regularizer": null, "gamma_initializer": {"class_name": "Ones", "config": {}}, "gamma_constraint": null, "name": "batch_normalization_2", "axis": 3, "moving_mean_initializer": {"class_name": "Zeros", "config": {}}, "scale": true, "beta_regularizer": null, "beta_constraint": null, "epsilon": 0.001, "beta_initializer": {"class_name": "Zeros", "config": {}}, "trainable": true, "momentum": 0.99, "moving_variance_initializer": {"class_name": "Ones", "config": {}}, "center": true}}, {"class_name": "Conv2D", "inbound_nodes": [[["batch_normalization_2", 0, 0, {}]]], "name": "conv2d_3", "config": {"kernel_initializer": {"class_name": "VarianceScaling", "config": {"mode": "fan_avg", "seed": null, "scale": 1.0, "distribution": "uniform"}}, "activity_regularizer": null, "use_bias": true, "activation": "relu", "bias_initializer": {"class_name": "Zeros", "config": {}}, "data_format": "channels_last", "bias_constraint": null, "strides": [1, 1], "kernel_constraint": null, "name": "conv2d_3", "trainable": true, "filters": 32, "dilation_rate": [1, 1], "kernel_size": [3, 3], "kernel_regularizer": null, "padding": "same", "bias_regularizer": null}}, {"class_name": "BatchNormalization", "inbound_nodes": [[["conv2d_3", 0, 0, {}]]], "name": "batch_normalization_3", "config": {"gamma_regularizer": null, "gamma_initializer": {"class_name": "Ones", "config": {}}, "gamma_constraint": null, "name": "batch_normalization_3", "axis": 3, "moving_mean_initializer": {"class_name": "Zeros", "config": {}}, "scale": true, "beta_regularizer": null, "beta_constraint": null, "epsilon": 0.001, "beta_initializer": {"class_name": "Zeros", "config": {}}, "trainable": true, "momentum": 0.99, "moving_variance_initializer": {"class_name": "Ones", "config": {}}, "center": true}}, {"class_name": "MaxPooling2D", "inbound_nodes": [[["batch_normalization_3", 0, 0, {}]]], "name": "max_pooling2d_1", "config": {"name": "max_pooling2d_1", "trainable": true, "data_format": "channels_last", "padding": "valid", "strides": [2, 2], "pool_size": [3, 3]}}, {"class_name": "Conv2D", "inbound_nodes": [[["max_pooling2d_1", 0, 0, {}]]], "name": "conv2d_4", "config": {"kernel_initializer": {"class_name": "VarianceScaling", "config": {"mode": "fan_avg", "seed": null, "scale": 1.0, "distribution": "uniform"}}, "activity_regularizer": null, "use_bias": true, "activation": "relu", "bias_initializer": {"class_name": "Zeros", "config": {}}, "data_format": "channels_last", "bias_constraint": null, "strides": [1, 1], "kernel_constraint": null, "name": "conv2d_4", "trainable": true, "filters": 40, "dilation_rate": [1, 1], "kernel_size": [1, 1], "kernel_regularizer": null, "padding": "valid", "bias_regularizer": null}}, {"class_name": "BatchNormalization", "inbound_nodes": [[["conv2d_4", 0, 0, {}]]], "name": "batch_normalization_4", "config": {"gamma_regularizer": null, "gamma_initializer": {"class_name": "Ones", "config": {}}, "gamma_constraint": null, "name": "batch_normalization_4", "axis": 3, "moving_mean_initializer": {"class_name": "Zeros", "config": {}}, "scale": true, "beta_regularizer": null, "beta_constraint": null, "epsilon": 0.001, "beta_initializer": {"class_name": "Zeros", "config": {}}, "trainable": true, "momentum": 0.99, "moving_variance_initializer": {"class_name": "Ones", "config": {}}, "center": true}}, {"class_name": "Conv2D", "inbound_nodes": [[["batch_normalization_4", 0, 0, {}]]], "name": "conv2d_5", "config": {"kernel_initializer": {"class_name": "VarianceScaling", "config": {"mode": "fan_avg", "seed": null, "scale": 1.0, "distribution": "uniform"}}, "activity_regularizer": null, "use_bias": true, "activation": "relu", "bias_initializer": {"class_name": "Zeros", "config": {}}, "data_format": "channels_last", "bias_constraint": null, "strides": [1, 1], "kernel_constraint": null, "name": "conv2d_5", "trainable": true, "filters": 96, "dilation_rate": [1, 1], "kernel_size": [3, 3], "kernel_regularizer": null, "padding": "valid", "bias_regularizer": null}}, {"class_name": "BatchNormalization", "inbound_nodes": [[["conv2d_5", 0, 0, {}]]], "name": "batch_normalization_5", "config": {"gamma_regularizer": null, "gamma_initializer": {"class_name": "Ones", "config": {}}, "gamma_constraint": null, "name": "batch_normalization_5", "axis": 3, "moving_mean_initializer": {"class_name": "Zeros", "config": {}}, "scale": true, "beta_regularizer": null, "beta_constraint": null, "epsilon": 0.001, "beta_initializer": {"class_name": "Zeros", "config": {}}, "trainable": true, "momentum": 0.99, "moving_variance_initializer": {"class_name": "Ones", "config": {}}, "center": true}}, {"class_name": "MaxPooling2D", "inbound_nodes": [[["batch_normalization_5", 0, 0, {}]]], "name": "max_pooling2d_2", "config": {"name": "max_pooling2d_2", "trainable": true, "data_format": "channels_last", "padding": "valid", "strides": [2, 2], "pool_size": [3, 3]}}, {"class_name": "Conv2D", "inbound_nodes": [[["max_pooling2d_2", 0, 0, {}]]], "name": "conv2d_9", "config": {"kernel_initializer": {"class_name": "VarianceScaling", "config": {"mode": "fan_avg", "seed": null, "scale": 1.0, "distribution": "uniform"}}, "activity_regularizer": null, "use_bias": true, "activation": "relu", "bias_initializer": {"class_name": "Zeros", "config": {}}, "data_format": "channels_last", "bias_constraint": null, "strides": [1, 1], "kernel_constraint": null, "name": "conv2d_9", "trainable": true, "filters": 32, "dilation_rate": [1, 1], "kernel_size": [1, 1], "kernel_regularizer": null, "padding": "same", "bias_regularizer": null}}, {"class_name": "BatchNormalization", "inbound_nodes": [[["conv2d_9", 0, 0, {}]]], "name": "batch_normalization_9", "config": {"gamma_regularizer": null, "gamma_initializer": {"class_name": "Ones", "config": {}}, "gamma_constraint": null, "name": "batch_normalization_9", "axis": 3, "moving_mean_initializer": {"class_name": "Zeros", "config": {}}, "scale": true, "beta_regularizer": null, "beta_constraint": null, "epsilon": 0.001, "beta_initializer": {"class_name": "Zeros", "config": {}}, "trainable": true, "momentum": 0.99, "moving_variance_initializer": {"class_name": "Ones", "config": {}}, "center": true}}, {"class_name": "Conv2D", "inbound_nodes": [[["max_pooling2d_2", 0, 0, {}]]], "name": "conv2d_7", "config": {"kernel_initializer": {"class_name": "VarianceScaling", "config": {"mode": "fan_avg", "seed": null, "scale": 1.0, "distribution": "uniform"}}, "activity_regularizer": null, "use_bias": true, "activation": "relu", "bias_initializer": {"class_name": "Zeros", "config": {}}, "data_format": "channels_last", "bias_constraint": null, "strides": [1, 1], "kernel_constraint": null, "name": "conv2d_7", "trainable": true, "filters": 24, "dilation_rate": [1, 1], "kernel_size": [1, 1], "kernel_regularizer": null, "padding": "same", "bias_regularizer": null}}, {"class_name": "Conv2D", "inbound_nodes": [[["batch_normalization_9", 0, 0, {}]]], "name": "conv2d_10", "config": {"kernel_initializer": {"class_name": "VarianceScaling", "config": {"mode": "fan_avg", "seed": null, "scale": 1.0, "distribution": "uniform"}}, "activity_regularizer": null, "use_bias": true, "activation": "relu", "bias_initializer": {"class_name": "Zeros", "config": {}}, "data_format": "channels_last", "bias_constraint": null, "strides": [1, 1], "kernel_constraint": null, "name": "conv2d_10", "trainable": true, "filters": 48, "dilation_rate": [1, 1], "kernel_size": [3, 3], "kernel_regularizer": null, "padding": "same", "bias_regularizer": null}}, {"class_name": "BatchNormalization", "inbound_nodes": [[["conv2d_7", 0, 0, {}]]], "name": "batch_normalization_7", "config": {"gamma_regularizer": null, "gamma_initializer": {"class_name": "Ones", "config": {}}, "gamma_constraint": null, "name": "batch_normalization_7", "axis": 3, "moving_mean_initializer": {"class_name": "Zeros", "config": {}}, "scale": true, "beta_regularizer": null, "beta_constraint": null, "epsilon": 0.001, "beta_initializer": {"class_name": "Zeros", "config": {}}, "trainable": true, "momentum": 0.99, "moving_variance_initializer": {"class_name": "Ones", "config": {}}, "center": true}}, {"class_name": "BatchNormalization", "inbound_nodes": [[["conv2d_10", 0, 0, {}]]], "name": "batch_normalization_10", "config": {"gamma_regularizer": null, "gamma_initializer": {"class_name": "Ones", "config": {}}, "gamma_constraint": null, "name": "batch_normalization_10", "axis": 3, "moving_mean_initializer": {"class_name": "Zeros", "config": {}}, "scale": true, "beta_regularizer": null, "beta_constraint": null, "epsilon": 0.001, "beta_initializer": {"class_name": "Zeros", "config": {}}, "trainable": true, "momentum": 0.99, "moving_variance_initializer": {"class_name": "Ones", "config": {}}, "center": true}}, {"class_name": "AveragePooling2D", "inbound_nodes": [[["max_pooling2d_2", 0, 0, {}]]], "name": "average_pooling2d_1", "config": {"name": "average_pooling2d_1", "trainable": true, "data_format": "channels_last", "padding": "same", "strides": [1, 1], "pool_size": [3, 3]}}, {"class_name": "Conv2D", "inbound_nodes": [[["max_pooling2d_2", 0, 0, {}]]], "name": "conv2d_6", "config": {"kernel_initializer": {"class_name": "VarianceScaling", "config": {"mode": "fan_avg", "seed": null, "scale": 1.0, "distribution": "uniform"}}, "activity_regularizer": null, "use_bias": true, "activation": "relu", "bias_initializer": {"class_name": "Zeros", "config": {}}, "data_format": "channels_last", "bias_constraint": null, "strides": [1, 1], "kernel_constraint": null, "name": "conv2d_6", "trainable": true, "filters": 32, "dilation_rate": [1, 1], "kernel_size": [1, 1], "kernel_regularizer": null, "padding": "same", "bias_regularizer": null}}, {"class_name": "Conv2D", "inbound_nodes": [[["batch_normalization_7", 0, 0, {}]]], "name": "conv2d_8", "config": {"kernel_initializer": {"class_name": "VarianceScaling", "config": {"mode": "fan_avg", "seed": null, "scale": 1.0, "distribution": "uniform"}}, "activity_regularizer": null, "use_bias": true, "activation": "relu", "bias_initializer": {"class_name": "Zeros", "config": {}}, "data_format": "channels_last", "bias_constraint": null, "strides": [1, 1], "kernel_constraint": null, "name": "conv2d_8", "trainable": true, "filters": 32, "dilation_rate": [1, 1], "kernel_size": [5, 5], "kernel_regularizer": null, "padding": "same", "bias_regularizer": null}}, {"class_name": "Conv2D", "inbound_nodes": [[["batch_normalization_10", 0, 0, {}]]], "name": "conv2d_11", "config": {"kernel_initializer": {"class_name": "VarianceScaling", "config": {"mode": "fan_avg", "seed": null, "scale": 1.0, "distribution": "uniform"}}, "activity_regularizer": null, "use_bias": true, "activation": "relu", "bias_initializer": {"class_name": "Zeros", "config": {}}, "data_format": "channels_last", "bias_constraint": null, "strides": [1, 1], "kernel_constraint": null, "name": "conv2d_11", "trainable": true, "filters": 48, "dilation_rate": [1, 1], "kernel_size": [3, 3], "kernel_regularizer": null, "padding": "same", "bias_regularizer": null}}, {"class_name": "Conv2D", "inbound_nodes": [[["average_pooling2d_1", 0, 0, {}]]], "name": "conv2d_12", "config": {"kernel_initializer": {"class_name": "VarianceScaling", "config": {"mode": "fan_avg", "seed": null, "scale": 1.0, "distribution": "uniform"}}, "activity_regularizer": null, "use_bias": true, "activation": "relu", "bias_initializer": {"class_name": "Zeros", "config": {}}, "data_format": "channels_last", "bias_constraint": null, "strides": [1, 1], "kernel_constraint": null, "name": "conv2d_12", "trainable": true, "filters": 16, "dilation_rate": [1, 1], "kernel_size": [1, 1], "kernel_regularizer": null, "padding": "same", "bias_regularizer": null}}, {"class_name": "BatchNormalization", "inbound_nodes": [[["conv2d_6", 0, 0, {}]]], "name": "batch_normalization_6", "config": {"gamma_regularizer": null, "gamma_initializer": {"class_name": "Ones", "config": {}}, "gamma_constraint": null, "name": "batch_normalization_6", "axis": 3, "moving_mean_initializer": {"class_name": "Zeros", "config": {}}, "scale": true, "beta_regularizer": null, "beta_constraint": null, "epsilon": 0.001, "beta_initializer": {"class_name": "Zeros", "config": {}}, "trainable": true, "momentum": 0.99, "moving_variance_initializer": {"class_name": "Ones", "config": {}}, "center": true}}, {"class_name": "BatchNormalization", "inbound_nodes": [[["conv2d_8", 0, 0, {}]]], "name": "batch_normalization_8", "config": {"gamma_regularizer": null, "gamma_initializer": {"class_name": "Ones", "config": {}}, "gamma_constraint": null, "name": "batch_normalization_8", "axis": 3, "moving_mean_initializer": {"class_name": "Zeros", "config": {}}, "scale": true, "beta_regularizer": null, "beta_constraint": null, "epsilon": 0.001, "beta_initializer": {"class_name": "Zeros", "config": {}}, "trainable": true, "momentum": 0.99, "moving_variance_initializer": {"class_name": "Ones", "config": {}}, "center": true}}, {"class_name": "BatchNormalization", "inbound_nodes": [[["conv2d_11", 0, 0, {}]]], "name": "batch_normalization_11", "config": {"gamma_regularizer": null, "gamma_initializer": {"class_name": "Ones", "config": {}}, "gamma_constraint": null, "name": "batch_normalization_11", "axis": 3, "moving_mean_initializer": {"class_name": "Zeros", "config": {}}, "scale": true, "beta_regularizer": null, "beta_constraint": null, "epsilon": 0.001, "beta_initializer": {"class_name": "Zeros", "config": {}}, "trainable": true, "momentum": 0.99, "moving_variance_initializer": {"class_name": "Ones", "config": {}}, "center": true}}, {"class_name": "BatchNormalization", "inbound_nodes": [[["conv2d_12", 0, 0, {}]]], "name": "batch_normalization_12", "config": {"gamma_regularizer": null, "gamma_initializer": {"class_name": "Ones", "config": {}}, "gamma_constraint": null, "name": "batch_normalization_12", "axis": 3, "moving_mean_initializer": {"class_name": "Zeros", "config": {}}, "scale": true, "beta_regularizer": null, "beta_constraint": null, "epsilon": 0.001, "beta_initializer": {"class_name": "Zeros", "config": {}}, "trainable": true, "momentum": 0.99, "moving_variance_initializer": {"class_name": "Ones", "config": {}}, "center": true}}, {"class_name": "Concatenate", "inbound_nodes": [[["batch_normalization_6", 0, 0, {}], ["batch_normalization_8", 0, 0, {}], ["batch_normalization_11", 0, 0, {}], ["batch_normalization_12", 0, 0, {}]]], "name": "mixed0", "config": {"axis": -1, "name": "mixed0", "trainable": true}}, {"class_name": "Conv2D", "inbound_nodes": [[["mixed0", 0, 0, {}]]], "name": "conv2d_16", "config": {"kernel_initializer": {"class_name": "VarianceScaling", "config": {"mode": "fan_avg", "seed": null, "scale": 1.0, "distribution": "uniform"}}, "activity_regularizer": null, "use_bias": true, "activation": "relu", "bias_initializer": {"class_name": "Zeros", "config": {}}, "data_format": "channels_last", "bias_constraint": null, "strides": [1, 1], "kernel_constraint": null, "name": "conv2d_16", "trainable": true, "filters": 32, "dilation_rate": [1, 1], "kernel_size": [1, 1], "kernel_regularizer": null, "padding": "same", "bias_regularizer": null}}, {"class_name": "BatchNormalization", "inbound_nodes": [[["conv2d_16", 0, 0, {}]]], "name": "batch_normalization_16", "config": {"gamma_regularizer": null, "gamma_initializer": {"class_name": "Ones", "config": {}}, "gamma_constraint": null, "name": "batch_normalization_16", "axis": 3, "moving_mean_initializer": {"class_name": "Zeros", "config": {}}, "scale": true, "beta_regularizer": null, "beta_constraint": null, "epsilon": 0.001, "beta_initializer": {"class_name": "Zeros", "config": {}}, "trainable": true, "momentum": 0.99, "moving_variance_initializer": {"class_name": "Ones", "config": {}}, "center": true}}, {"class_name": "Conv2D", "inbound_nodes": [[["mixed0", 0, 0, {}]]], "name": "conv2d_14", "config": {"kernel_initializer": {"class_name": "VarianceScaling", "config": {"mode": "fan_avg", "seed": null, "scale": 1.0, "distribution": "uniform"}}, "activity_regularizer": null, "use_bias": true, "activation": "relu", "bias_initializer": {"class_name": "Zeros", "config": {}}, "data_format": "channels_last", "bias_constraint": null, "strides": [1, 1], "kernel_constraint": null, "name": "conv2d_14", "trainable": true, "filters": 24, "dilation_rate": [1, 1], "kernel_size": [1, 1], "kernel_regularizer": null, "padding": "same", "bias_regularizer": null}}, {"class_name": "Conv2D", "inbound_nodes": [[["batch_normalization_16", 0, 0, {}]]], "name": "conv2d_17", "config": {"kernel_initializer": {"class_name": "VarianceScaling", "config": {"mode": "fan_avg", "seed": null, "scale": 1.0, "distribution": "uniform"}}, "activity_regularizer": null, "use_bias": true, "activation": "relu", "bias_initializer": {"class_name": "Zeros", "config": {}}, "data_format": "channels_last", "bias_constraint": null, "strides": [1, 1], "kernel_constraint": null, "name": "conv2d_17", "trainable": true, "filters": 48, "dilation_rate": [1, 1], "kernel_size": [3, 3], "kernel_regularizer": null, "padding": "same", "bias_regularizer": null}}, {"class_name": "BatchNormalization", "inbound_nodes": [[["conv2d_14", 0, 0, {}]]], "name": "batch_normalization_14", "config": {"gamma_regularizer": null, "gamma_initializer": {"class_name": "Ones", "config": {}}, "gamma_constraint": null, "name": "batch_normalization_14", "axis": 3, "moving_mean_initializer": {"class_name": "Zeros", "config": {}}, "scale": true, "beta_regularizer": null, "beta_constraint": null, "epsilon": 0.001, "beta_initializer": {"class_name": "Zeros", "config": {}}, "trainable": true, "momentum": 0.99, "moving_variance_initializer": {"class_name": "Ones", "config": {}}, "center": true}}, {"class_name": "BatchNormalization", "inbound_nodes": [[["conv2d_17", 0, 0, {}]]], "name": "batch_normalization_17", "config": {"gamma_regularizer": null, "gamma_initializer": {"class_name": "Ones", "config": {}}, "gamma_constraint": null, "name": "batch_normalization_17", "axis": 3, "moving_mean_initializer": {"class_name": "Zeros", "config": {}}, "scale": true, "beta_regularizer": null, "beta_constraint": null, "epsilon": 0.001, "beta_initializer": {"class_name": "Zeros", "config": {}}, "trainable": true, "momentum": 0.99, "moving_variance_initializer": {"class_name": "Ones", "config": {}}, "center": true}}, {"class_name": "AveragePooling2D", "inbound_nodes": [[["mixed0", 0, 0, {}]]], "name": "average_pooling2d_2", "config": {"name": "average_pooling2d_2", "trainable": true, "data_format": "channels_last", "padding": "same", "strides": [1, 1], "pool_size": [3, 3]}}, {"class_name": "Conv2D", "inbound_nodes": [[["mixed0", 0, 0, {}]]], "name": "conv2d_13", "config": {"kernel_initializer": {"class_name": "VarianceScaling", "config": {"mode": "fan_avg", "seed": null, "scale": 1.0, "distribution": "uniform"}}, "activity_regularizer": null, "use_bias": true, "activation": "relu", "bias_initializer": {"class_name": "Zeros", "config": {}}, "data_format": "channels_last", "bias_constraint": null, "strides": [1, 1], "kernel_constraint": null, "name": "conv2d_13", "trainable": true, "filters": 32, "dilation_rate": [1, 1], "kernel_size": [1, 1], "kernel_regularizer": null, "padding": "same", "bias_regularizer": null}}, {"class_name": "Conv2D", "inbound_nodes": [[["batch_normalization_14", 0, 0, {}]]], "name": "conv2d_15", "config": {"kernel_initializer": {"class_name": "VarianceScaling", "config": {"mode": "fan_avg", "seed": null, "scale": 1.0, "distribution": "uniform"}}, "activity_regularizer": null, "use_bias": true, "activation": "relu", "bias_initializer": {"class_name": "Zeros", "config": {}}, "data_format": "channels_last", "bias_constraint": null, "strides": [1, 1], "kernel_constraint": null, "name": "conv2d_15", "trainable": true, "filters": 32, "dilation_rate": [1, 1], "kernel_size": [5, 5], "kernel_regularizer": null, "padding": "same", "bias_regularizer": null}}, {"class_name": "Conv2D", "inbound_nodes": [[["batch_normalization_17", 0, 0, {}]]], "name": "conv2d_18", "config": {"kernel_initializer": {"class_name": "VarianceScaling", "config": {"mode": "fan_avg", "seed": null, "scale": 1.0, "distribution": "uniform"}}, "activity_regularizer": null, "use_bias": true, "activation": "relu", "bias_initializer": {"class_name": "Zeros", "config": {}}, "data_format": "channels_last", "bias_constraint": null, "strides": [1, 1], "kernel_constraint": null, "name": "conv2d_18", "trainable": true, "filters": 48, "dilation_rate": [1, 1], "kernel_size": [3, 3], "kernel_regularizer": null, "padding": "same", "bias_regularizer": null}}, {"class_name": "Conv2D", "inbound_nodes": [[["average_pooling2d_2", 0, 0, {}]]], "name": "conv2d_19", "config": {"kernel_initializer": {"class_name": "VarianceScaling", "config": {"mode": "fan_avg", "seed": null, "scale": 1.0, "distribution": "uniform"}}, "activity_regularizer": null, "use_bias": true, "activation": "relu", "bias_initializer": {"class_name": "Zeros", "config": {}}, "data_format": "channels_last", "bias_constraint": null, "strides": [1, 1], "kernel_constraint": null, "name": "conv2d_19", "trainable": true, "filters": 16, "dilation_rate": [1, 1], "kernel_size": [1, 1], "kernel_regularizer": null, "padding": "same", "bias_regularizer": null}}, {"class_name": "BatchNormalization", "inbound_nodes": [[["conv2d_13", 0, 0, {}]]], "name": "batch_normalization_13", "config": {"gamma_regularizer": null, "gamma_initializer": {"class_name": "Ones", "config": {}}, "gamma_constraint": null, "name": "batch_normalization_13", "axis": 3, "moving_mean_initializer": {"class_name": "Zeros", "config": {}}, "scale": true, "beta_regularizer": null, "beta_constraint": null, "epsilon": 0.001, "beta_initializer": {"class_name": "Zeros", "config": {}}, "trainable": true, "momentum": 0.99, "moving_variance_initializer": {"class_name": "Ones", "config": {}}, "center": true}}, {"class_name": "BatchNormalization", "inbound_nodes": [[["conv2d_15", 0, 0, {}]]], "name": "batch_normalization_15", "config": {"gamma_regularizer": null, "gamma_initializer": {"class_name": "Ones", "config": {}}, "gamma_constraint": null, "name": "batch_normalization_15", "axis": 3, "moving_mean_initializer": {"class_name": "Zeros", "config": {}}, "scale": true, "beta_regularizer": null, "beta_constraint": null, "epsilon": 0.001, "beta_initializer": {"class_name": "Zeros", "config": {}}, "trainable": true, "momentum": 0.99, "moving_variance_initializer": {"class_name": "Ones", "config": {}}, "center": true}}, {"class_name": "BatchNormalization", "inbound_nodes": [[["conv2d_18", 0, 0, {}]]], "name": "batch_normalization_18", "config": {"gamma_regularizer": null, "gamma_initializer": {"class_name": "Ones", "config": {}}, "gamma_constraint": null, "name": "batch_normalization_18", "axis": 3, "moving_mean_initializer": {"class_name": "Zeros", "config": {}}, "scale": true, "beta_regularizer": null, "beta_constraint": null, "epsilon": 0.001, "beta_initializer": {"class_name": "Zeros", "config": {}}, "trainable": true, "momentum": 0.99, "moving_variance_initializer": {"class_name": "Ones", "config": {}}, "center": true}}, {"class_name": "BatchNormalization", "inbound_nodes": [[["conv2d_19", 0, 0, {}]]], "name": "batch_normalization_19", "config": {"gamma_regularizer": null, "gamma_initializer": {"class_name": "Ones", "config": {}}, "gamma_constraint": null, "name": "batch_normalization_19", "axis": 3, "moving_mean_initializer": {"class_name": "Zeros", "config": {}}, "scale": true, "beta_regularizer": null, "beta_constraint": null, "epsilon": 0.001, "beta_initializer": {"class_name": "Zeros", "config": {}}, "trainable": true, "momentum": 0.99, "moving_variance_initializer": {"class_name": "Ones", "config": {}}, "center": true}}, {"class_name": "Concatenate", "inbound_nodes": [[["batch_normalization_13", 0, 0, {}], ["batch_normalization_15", 0, 0, {}], ["batch_normalization_18", 0, 0, {}], ["batch_normalization_19", 0, 0, {}]]], "name": "mixed1", "config": {"axis": -1, "name": "mixed1", "trainable": true}}, {"class_name": "Conv2D", "inbound_nodes": [[["mixed1", 0, 0, {}]]], "name": "conv2d_23", "config": {"kernel_initializer": {"class_name": "VarianceScaling", "config": {"mode": "fan_avg", "seed": null, "scale": 1.0, "distribution": "uniform"}}, "activity_regularizer": null, "use_bias": true, "activation": "relu", "bias_initializer": {"class_name": "Zeros", "config": {}}, "data_format": "channels_last", "bias_constraint": null, "strides": [1, 1], "kernel_constraint": null, "name": "conv2d_23", "trainable": true, "filters": 32, "dilation_rate": [1, 1], "kernel_size": [1, 1], "kernel_regularizer": null, "padding": "same", "bias_regularizer": null}}, {"class_name": "BatchNormalization", "inbound_nodes": [[["conv2d_23", 0, 0, {}]]], "name": "batch_normalization_23", "config": {"gamma_regularizer": null, "gamma_initializer": {"class_name": "Ones", "config": {}}, "gamma_constraint": null, "name": "batch_normalization_23", "axis": 3, "moving_mean_initializer": {"class_name": "Zeros", "config": {}}, "scale": true, "beta_regularizer": null, "beta_constraint": null, "epsilon": 0.001, "beta_initializer": {"class_name": "Zeros", "config": {}}, "trainable": true, "momentum": 0.99, "moving_variance_initializer": {"class_name": "Ones", "config": {}}, "center": true}}, {"class_name": "Conv2D", "inbound_nodes": [[["mixed1", 0, 0, {}]]], "name": "conv2d_21", "config": {"kernel_initializer": {"class_name": "VarianceScaling", "config": {"mode": "fan_avg", "seed": null, "scale": 1.0, "distribution": "uniform"}}, "activity_regularizer": null, "use_bias": true, "activation": "relu", "bias_initializer": {"class_name": "Zeros", "config": {}}, "data_format": "channels_last", "bias_constraint": null, "strides": [1, 1], "kernel_constraint": null, "name": "conv2d_21", "trainable": true, "filters": 24, "dilation_rate": [1, 1], "kernel_size": [1, 1], "kernel_regularizer": null, "padding": "same", "bias_regularizer": null}}, {"class_name": "Conv2D", "inbound_nodes": [[["batch_normalization_23", 0, 0, {}]]], "name": "conv2d_24", "config": {"kernel_initializer": {"class_name": "VarianceScaling", "config": {"mode": "fan_avg", "seed": null, "scale": 1.0, "distribution": "uniform"}}, "activity_regularizer": null, "use_bias": true, "activation": "relu", "bias_initializer": {"class_name": "Zeros", "config": {}}, "data_format": "channels_last", "bias_constraint": null, "strides": [1, 1], "kernel_constraint": null, "name": "conv2d_24", "trainable": true, "filters": 48, "dilation_rate": [1, 1], "kernel_size": [3, 3], "kernel_regularizer": null, "padding": "same", "bias_regularizer": null}}, {"class_name": "BatchNormalization", "inbound_nodes": [[["conv2d_21", 0, 0, {}]]], "name": "batch_normalization_21", "config": {"gamma_regularizer": null, "gamma_initializer": {"class_name": "Ones", "config": {}}, "gamma_constraint": null, "name": "batch_normalization_21", "axis": 3, "moving_mean_initializer": {"class_name": "Zeros", "config": {}}, "scale": true, "beta_regularizer": null, "beta_constraint": null, "epsilon": 0.001, "beta_initializer": {"class_name": "Zeros", "config": {}}, "trainable": true, "momentum": 0.99, "moving_variance_initializer": {"class_name": "Ones", "config": {}}, "center": true}}, {"class_name": "BatchNormalization", "inbound_nodes": [[["conv2d_24", 0, 0, {}]]], "name": "batch_normalization_24", "config": {"gamma_regularizer": null, "gamma_initializer": {"class_name": "Ones", "config": {}}, "gamma_constraint": null, "name": "batch_normalization_24", "axis": 3, "moving_mean_initializer": {"class_name": "Zeros", "config": {}}, "scale": true, "beta_regularizer": null, "beta_constraint": null, "epsilon": 0.001, "beta_initializer": {"class_name": "Zeros", "config": {}}, "trainable": true, "momentum": 0.99, "moving_variance_initializer": {"class_name": "Ones", "config": {}}, "center": true}}, {"class_name": "AveragePooling2D", "inbound_nodes": [[["mixed1", 0, 0, {}]]], "name": "average_pooling2d_3", "config": {"name": "average_pooling2d_3", "trainable": true, "data_format": "channels_last", "padding": "same", "strides": [1, 1], "pool_size": [3, 3]}}, {"class_name": "Conv2D", "inbound_nodes": [[["mixed1", 0, 0, {}]]], "name": "conv2d_20", "config": {"kernel_initializer": {"class_name": "VarianceScaling", "config": {"mode": "fan_avg", "seed": null, "scale": 1.0, "distribution": "uniform"}}, "activity_regularizer": null, "use_bias": true, "activation": "relu", "bias_initializer": {"class_name": "Zeros", "config": {}}, "data_format": "channels_last", "bias_constraint": null, "strides": [1, 1], "kernel_constraint": null, "name": "conv2d_20", "trainable": true, "filters": 32, "dilation_rate": [1, 1], "kernel_size": [1, 1], "kernel_regularizer": null, "padding": "same", "bias_regularizer": null}}, {"class_name": "Conv2D", "inbound_nodes": [[["batch_normalization_21", 0, 0, {}]]], "name": "conv2d_22", "config": {"kernel_initializer": {"class_name": "VarianceScaling", "config": {"mode": "fan_avg", "seed": null, "scale": 1.0, "distribution": "uniform"}}, "activity_regularizer": null, "use_bias": true, "activation": "relu", "bias_initializer": {"class_name": "Zeros", "config": {}}, "data_format": "channels_last", "bias_constraint": null, "strides": [1, 1], "kernel_constraint": null, "name": "conv2d_22", "trainable": true, "filters": 32, "dilation_rate": [1, 1], "kernel_size": [5, 5], "kernel_regularizer": null, "padding": "same", "bias_regularizer": null}}, {"class_name": "Conv2D", "inbound_nodes": [[["batch_normalization_24", 0, 0, {}]]], "name": "conv2d_25", "config": {"kernel_initializer": {"class_name": "VarianceScaling", "config": {"mode": "fan_avg", "seed": null, "scale": 1.0, "distribution": "uniform"}}, "activity_regularizer": null, "use_bias": true, "activation": "relu", "bias_initializer": {"class_name": "Zeros", "config": {}}, "data_format": "channels_last", "bias_constraint": null, "strides": [1, 1], "kernel_constraint": null, "name": "conv2d_25", "trainable": true, "filters": 48, "dilation_rate": [1, 1], "kernel_size": [3, 3], "kernel_regularizer": null, "padding": "same", "bias_regularizer": null}}, {"class_name": "Conv2D", "inbound_nodes": [[["average_pooling2d_3", 0, 0, {}]]], "name": "conv2d_26", "config": {"kernel_initializer": {"class_name": "VarianceScaling", "config": {"mode": "fan_avg", "seed": null, "scale": 1.0, "distribution": "uniform"}}, "activity_regularizer": null, "use_bias": true, "activation": "relu", "bias_initializer": {"class_name": "Zeros", "config": {}}, "data_format": "channels_last", "bias_constraint": null, "strides": [1, 1], "kernel_constraint": null, "name": "conv2d_26", "trainable": true, "filters": 16, "dilation_rate": [1, 1], "kernel_size": [1, 1], "kernel_regularizer": null, "padding": "same", "bias_regularizer": null}}, {"class_name": "BatchNormalization", "inbound_nodes": [[["conv2d_20", 0, 0, {}]]], "name": "batch_normalization_20", "config": {"gamma_regularizer": null, "gamma_initializer": {"class_name": "Ones", "config": {}}, "gamma_constraint": null, "name": "batch_normalization_20", "axis": 3, "moving_mean_initializer": {"class_name": "Zeros", "config": {}}, "scale": true, "beta_regularizer": null, "beta_constraint": null, "epsilon": 0.001, "beta_initializer": {"class_name": "Zeros", "config": {}}, "trainable": true, "momentum": 0.99, "moving_variance_initializer": {"class_name": "Ones", "config": {}}, "center": true}}, {"class_name": "BatchNormalization", "inbound_nodes": [[["conv2d_22", 0, 0, {}]]], "name": "batch_normalization_22", "config": {"gamma_regularizer": null, "gamma_initializer": {"class_name": "Ones", "config": {}}, "gamma_constraint": null, "name": "batch_normalization_22", "axis": 3, "moving_mean_initializer": {"class_name": "Zeros", "config": {}}, "scale": true, "beta_regularizer": null, "beta_constraint": null, "epsilon": 0.001, "beta_initializer": {"class_name": "Zeros", "config": {}}, "trainable": true, "momentum": 0.99, "moving_variance_initializer": {"class_name": "Ones", "config": {}}, "center": true}}, {"class_name": "BatchNormalization", "inbound_nodes": [[["conv2d_25", 0, 0, {}]]], "name": "batch_normalization_25", "config": {"gamma_regularizer": null, "gamma_initializer": {"class_name": "Ones", "config": {}}, "gamma_constraint": null, "name": "batch_normalization_25", "axis": 3, "moving_mean_initializer": {"class_name": "Zeros", "config": {}}, "scale": true, "beta_regularizer": null, "beta_constraint": null, "epsilon": 0.001, "beta_initializer": {"class_name": "Zeros", "config": {}}, "trainable": true, "momentum": 0.99, "moving_variance_initializer": {"class_name": "Ones", "config": {}}, "center": true}}, {"class_name": "BatchNormalization", "inbound_nodes": [[["conv2d_26", 0, 0, {}]]], "name": "batch_normalization_26", "config": {"gamma_regularizer": null, "gamma_initializer": {"class_name": "Ones", "config": {}}, "gamma_constraint": null, "name": "batch_normalization_26", "axis": 3, "moving_mean_initializer": {"class_name": "Zeros", "config": {}}, "scale": true, "beta_regularizer": null, "beta_constraint": null, "epsilon": 0.001, "beta_initializer": {"class_name": "Zeros", "config": {}}, "trainable": true, "momentum": 0.99, "moving_variance_initializer": {"class_name": "Ones", "config": {}}, "center": true}}, {"class_name": "Concatenate", "inbound_nodes": [[["batch_normalization_20", 0, 0, {}], ["batch_normalization_22", 0, 0, {}], ["batch_normalization_25", 0, 0, {}], ["batch_normalization_26", 0, 0, {}]]], "name": "mixed2", "config": {"axis": -1, "name": "mixed2", "trainable": true}}, {"class_name": "Conv2D", "inbound_nodes": [[["mixed2", 0, 0, {}]]], "name": "conv2d_28", "config": {"kernel_initializer": {"class_name": "VarianceScaling", "config": {"mode": "fan_avg", "seed": null, "scale": 1.0, "distribution": "uniform"}}, "activity_regularizer": null, "use_bias": true, "activation": "relu", "bias_initializer": {"class_name": "Zeros", "config": {}}, "data_format": "channels_last", "bias_constraint": null, "strides": [1, 1], "kernel_constraint": null, "name": "conv2d_28", "trainable": true, "filters": 32, "dilation_rate": [1, 1], "kernel_size": [1, 1], "kernel_regularizer": null, "padding": "same", "bias_regularizer": null}}, {"class_name": "BatchNormalization", "inbound_nodes": [[["conv2d_28", 0, 0, {}]]], "name": "batch_normalization_28", "config": {"gamma_regularizer": null, "gamma_initializer": {"class_name": "Ones", "config": {}}, "gamma_constraint": null, "name": "batch_normalization_28", "axis": 3, "moving_mean_initializer": {"class_name": "Zeros", "config": {}}, "scale": true, "beta_regularizer": null, "beta_constraint": null, "epsilon": 0.001, "beta_initializer": {"class_name": "Zeros", "config": {}}, "trainable": true, "momentum": 0.99, "moving_variance_initializer": {"class_name": "Ones", "config": {}}, "center": true}}, {"class_name": "Conv2D", "inbound_nodes": [[["batch_normalization_28", 0, 0, {}]]], "name": "conv2d_29", "config": {"kernel_initializer": {"class_name": "VarianceScaling", "config": {"mode": "fan_avg", "seed": null, "scale": 1.0, "distribution": "uniform"}}, "activity_regularizer": null, "use_bias": true, "activation": "relu", "bias_initializer": {"class_name": "Zeros", "config": {}}, "data_format": "channels_last", "bias_constraint": null, "strides": [1, 1], "kernel_constraint": null, "name": "conv2d_29", "trainable": true, "filters": 48, "dilation_rate": [1, 1], "kernel_size": [3, 3], "kernel_regularizer": null, "padding": "same", "bias_regularizer": null}}, {"class_name": "BatchNormalization", "inbound_nodes": [[["conv2d_29", 0, 0, {}]]], "name": "batch_normalization_29", "config": {"gamma_regularizer": null, "gamma_initializer": {"class_name": "Ones", "config": {}}, "gamma_constraint": null, "name": "batch_normalization_29", "axis": 3, "moving_mean_initializer": {"class_name": "Zeros", "config": {}}, "scale": true, "beta_regularizer": null, "beta_constraint": null, "epsilon": 0.001, "beta_initializer": {"class_name": "Zeros", "config": {}}, "trainable": true, "momentum": 0.99, "moving_variance_initializer": {"class_name": "Ones", "config": {}}, "center": true}}, {"class_name": "Conv2D", "inbound_nodes": [[["mixed2", 0, 0, {}]]], "name": "conv2d_27", "config": {"kernel_initializer": {"class_name": "VarianceScaling", "config": {"mode": "fan_avg", "seed": null, "scale": 1.0, "distribution": "uniform"}}, "activity_regularizer": null, "use_bias": true, "activation": "relu", "bias_initializer": {"class_name": "Zeros", "config": {}}, "data_format": "channels_last", "bias_constraint": null, "strides": [2, 2], "kernel_constraint": null, "name": "conv2d_27", "trainable": true, "filters": 192, "dilation_rate": [1, 1], "kernel_size": [3, 3], "kernel_regularizer": null, "padding": "valid", "bias_regularizer": null}}, {"class_name": "Conv2D", "inbound_nodes": [[["batch_normalization_29", 0, 0, {}]]], "name": "conv2d_30", "config": {"kernel_initializer": {"class_name": "VarianceScaling", "config": {"mode": "fan_avg", "seed": null, "scale": 1.0, "distribution": "uniform"}}, "activity_regularizer": null, "use_bias": true, "activation": "relu", "bias_initializer": {"class_name": "Zeros", "config": {}}, "data_format": "channels_last", "bias_constraint": null, "strides": [2, 2], "kernel_constraint": null, "name": "conv2d_30", "trainable": true, "filters": 48, "dilation_rate": [1, 1], "kernel_size": [3, 3], "kernel_regularizer": null, "padding": "valid", "bias_regularizer": null}}, {"class_name": "BatchNormalization", "inbound_nodes": [[["conv2d_27", 0, 0, {}]]], "name": "batch_normalization_27", "config": {"gamma_regularizer": null, "gamma_initializer": {"class_name": "Ones", "config": {}}, "gamma_constraint": null, "name": "batch_normalization_27", "axis": 3, "moving_mean_initializer": {"class_name": "Zeros", "config": {}}, "scale": true, "beta_regularizer": null, "beta_constraint": null, "epsilon": 0.001, "beta_initializer": {"class_name": "Zeros", "config": {}}, "trainable": true, "momentum": 0.99, "moving_variance_initializer": {"class_name": "Ones", "config": {}}, "center": true}}, {"class_name": "BatchNormalization", "inbound_nodes": [[["conv2d_30", 0, 0, {}]]], "name": "batch_normalization_30", "config": {"gamma_regularizer": null, "gamma_initializer": {"class_name": "Ones", "config": {}}, "gamma_constraint": null, "name": "batch_normalization_30", "axis": 3, "moving_mean_initializer": {"class_name": "Zeros", "config": {}}, "scale": true, "beta_regularizer": null, "beta_constraint": null, "epsilon": 0.001, "beta_initializer": {"class_name": "Zeros", "config": {}}, "trainable": true, "momentum": 0.99, "moving_variance_initializer": {"class_name": "Ones", "config": {}}, "center": true}}, {"class_name": "MaxPooling2D", "inbound_nodes": [[["mixed2", 0, 0, {}]]], "name": "max_pooling2d_3", "config": {"name": "max_pooling2d_3", "trainable": true, "data_format": "channels_last", "padding": "valid", "strides": [2, 2], "pool_size": [3, 3]}}, {"class_name": "Concatenate", "inbound_nodes": [[["batch_normalization_27", 0, 0, {}], ["batch_normalization_30", 0, 0, {}], ["max_pooling2d_3", 0, 0, {}]]], "name": "mixed3", "config": {"axis": -1, "name": "mixed3", "trainable": true}}, {"class_name": "Conv2D", "inbound_nodes": [[["mixed3", 0, 0, {}]]], "name": "conv2d_35", "config": {"kernel_initializer": {"class_name": "VarianceScaling", "config": {"mode": "fan_avg", "seed": null, "scale": 1.0, "distribution": "uniform"}}, "activity_regularizer": null, "use_bias": true, "activation": "relu", "bias_initializer": {"class_name": "Zeros", "config": {}}, "data_format": "channels_last", "bias_constraint": null, "strides": [1, 1], "kernel_constraint": null, "name": "conv2d_35", "trainable": true, "filters": 64, "dilation_rate": [1, 1], "kernel_size": [1, 1], "kernel_regularizer": null, "padding": "same", "bias_regularizer": null}}, {"class_name": "BatchNormalization", "inbound_nodes": [[["conv2d_35", 0, 0, {}]]], "name": "batch_normalization_35", "config": {"gamma_regularizer": null, "gamma_initializer": {"class_name": "Ones", "config": {}}, "gamma_constraint": null, "name": "batch_normalization_35", "axis": 3, "moving_mean_initializer": {"class_name": "Zeros", "config": {}}, "scale": true, "beta_regularizer": null, "beta_constraint": null, "epsilon": 0.001, "beta_initializer": {"class_name": "Zeros", "config": {}}, "trainable": true, "momentum": 0.99, "moving_variance_initializer": {"class_name": "Ones", "config": {}}, "center": true}}, {"class_name": "Conv2D", "inbound_nodes": [[["batch_normalization_35", 0, 0, {}]]], "name": "conv2d_36", "config": {"kernel_initializer": {"class_name": "VarianceScaling", "config": {"mode": "fan_avg", "seed": null, "scale": 1.0, "distribution": "uniform"}}, "activity_regularizer": null, "use_bias": true, "activation": "relu", "bias_initializer": {"class_name": "Zeros", "config": {}}, "data_format": "channels_last", "bias_constraint": null, "strides": [1, 1], "kernel_constraint": null, "name": "conv2d_36", "trainable": true, "filters": 64, "dilation_rate": [1, 1], "kernel_size": [7, 1], "kernel_regularizer": null, "padding": "same", "bias_regularizer": null}}, {"class_name": "BatchNormalization", "inbound_nodes": [[["conv2d_36", 0, 0, {}]]], "name": "batch_normalization_36", "config": {"gamma_regularizer": null, "gamma_initializer": {"class_name": "Ones", "config": {}}, "gamma_constraint": null, "name": "batch_normalization_36", "axis": 3, "moving_mean_initializer": {"class_name": "Zeros", "config": {}}, "scale": true, "beta_regularizer": null, "beta_constraint": null, "epsilon": 0.001, "beta_initializer": {"class_name": "Zeros", "config": {}}, "trainable": true, "momentum": 0.99, "moving_variance_initializer": {"class_name": "Ones", "config": {}}, "center": true}}, {"class_name": "Conv2D", "inbound_nodes": [[["mixed3", 0, 0, {}]]], "name": "conv2d_32", "config": {"kernel_initializer": {"class_name": "VarianceScaling", "config": {"mode": "fan_avg", "seed": null, "scale": 1.0, "distribution": "uniform"}}, "activity_regularizer": null, "use_bias": true, "activation": "relu", "bias_initializer": {"class_name": "Zeros", "config": {}}, "data_format": "channels_last", "bias_constraint": null, "strides": [1, 1], "kernel_constraint": null, "name": "conv2d_32", "trainable": true, "filters": 64, "dilation_rate": [1, 1], "kernel_size": [1, 1], "kernel_regularizer": null, "padding": "same", "bias_regularizer": null}}, {"class_name": "Conv2D", "inbound_nodes": [[["batch_normalization_36", 0, 0, {}]]], "name": "conv2d_37", "config": {"kernel_initializer": {"class_name": "VarianceScaling", "config": {"mode": "fan_avg", "seed": null, "scale": 1.0, "distribution": "uniform"}}, "activity_regularizer": null, "use_bias": true, "activation": "relu", "bias_initializer": {"class_name": "Zeros", "config": {}}, "data_format": "channels_last", "bias_constraint": null, "strides": [1, 1], "kernel_constraint": null, "name": "conv2d_37", "trainable": true, "filters": 64, "dilation_rate": [1, 1], "kernel_size": [1, 7], "kernel_regularizer": null, "padding": "same", "bias_regularizer": null}}, {"class_name": "BatchNormalization", "inbound_nodes": [[["conv2d_32", 0, 0, {}]]], "name": "batch_normalization_32", "config": {"gamma_regularizer": null, "gamma_initializer": {"class_name": "Ones", "config": {}}, "gamma_constraint": null, "name": "batch_normalization_32", "axis": 3, "moving_mean_initializer": {"class_name": "Zeros", "config": {}}, "scale": true, "beta_regularizer": null, "beta_constraint": null, "epsilon": 0.001, "beta_initializer": {"class_name": "Zeros", "config": {}}, "trainable": true, "momentum": 0.99, "moving_variance_initializer": {"class_name": "Ones", "config": {}}, "center": true}}, {"class_name": "BatchNormalization", "inbound_nodes": [[["conv2d_37", 0, 0, {}]]], "name": "batch_normalization_37", "config": {"gamma_regularizer": null, "gamma_initializer": {"class_name": "Ones", "config": {}}, "gamma_constraint": null, "name": "batch_normalization_37", "axis": 3, "moving_mean_initializer": {"class_name": "Zeros", "config": {}}, "scale": true, "beta_regularizer": null, "beta_constraint": null, "epsilon": 0.001, "beta_initializer": {"class_name": "Zeros", "config": {}}, "trainable": true, "momentum": 0.99, "moving_variance_initializer": {"class_name": "Ones", "config": {}}, "center": true}}, {"class_name": "Conv2D", "inbound_nodes": [[["batch_normalization_32", 0, 0, {}]]], "name": "conv2d_33", "config": {"kernel_initializer": {"class_name": "VarianceScaling", "config": {"mode": "fan_avg", "seed": null, "scale": 1.0, "distribution": "uniform"}}, "activity_regularizer": null, "use_bias": true, "activation": "relu", "bias_initializer": {"class_name": "Zeros", "config": {}}, "data_format": "channels_last", "bias_constraint": null, "strides": [1, 1], "kernel_constraint": null, "name": "conv2d_33", "trainable": true, "filters": 64, "dilation_rate": [1, 1], "kernel_size": [1, 7], "kernel_regularizer": null, "padding": "same", "bias_regularizer": null}}, {"class_name": "Conv2D", "inbound_nodes": [[["batch_normalization_37", 0, 0, {}]]], "name": "conv2d_38", "config": {"kernel_initializer": {"class_name": "VarianceScaling", "config": {"mode": "fan_avg", "seed": null, "scale": 1.0, "distribution": "uniform"}}, "activity_regularizer": null, "use_bias": true, "activation": "relu", "bias_initializer": {"class_name": "Zeros", "config": {}}, "data_format": "channels_last", "bias_constraint": null, "strides": [1, 1], "kernel_constraint": null, "name": "conv2d_38", "trainable": true, "filters": 64, "dilation_rate": [1, 1], "kernel_size": [7, 1], "kernel_regularizer": null, "padding": "same", "bias_regularizer": null}}, {"class_name": "BatchNormalization", "inbound_nodes": [[["conv2d_33", 0, 0, {}]]], "name": "batch_normalization_33", "config": {"gamma_regularizer": null, "gamma_initializer": {"class_name": "Ones", "config": {}}, "gamma_constraint": null, "name": "batch_normalization_33", "axis": 3, "moving_mean_initializer": {"class_name": "Zeros", "config": {}}, "scale": true, "beta_regularizer": null, "beta_constraint": null, "epsilon": 0.001, "beta_initializer": {"class_name": "Zeros", "config": {}}, "trainable": true, "momentum": 0.99, "moving_variance_initializer": {"class_name": "Ones", "config": {}}, "center": true}}, {"class_name": "BatchNormalization", "inbound_nodes": [[["conv2d_38", 0, 0, {}]]], "name": "batch_normalization_38", "config": {"gamma_regularizer": null, "gamma_initializer": {"class_name": "Ones", "config": {}}, "gamma_constraint": null, "name": "batch_normalization_38", "axis": 3, "moving_mean_initializer": {"class_name": "Zeros", "config": {}}, "scale": true, "beta_regularizer": null, "beta_constraint": null, "epsilon": 0.001, "beta_initializer": {"class_name": "Zeros", "config": {}}, "trainable": true, "momentum": 0.99, "moving_variance_initializer": {"class_name": "Ones", "config": {}}, "center": true}}, {"class_name": "AveragePooling2D", "inbound_nodes": [[["mixed3", 0, 0, {}]]], "name": "average_pooling2d_4", "config": {"name": "average_pooling2d_4", "trainable": true, "data_format": "channels_last", "padding": "same", "strides": [1, 1], "pool_size": [3, 3]}}, {"class_name": "Conv2D", "inbound_nodes": [[["mixed3", 0, 0, {}]]], "name": "conv2d_31", "config": {"kernel_initializer": {"class_name": "VarianceScaling", "config": {"mode": "fan_avg", "seed": null, "scale": 1.0, "distribution": "uniform"}}, "activity_regularizer": null, "use_bias": true, "activation": "relu", "bias_initializer": {"class_name": "Zeros", "config": {}}, "data_format": "channels_last", "bias_constraint": null, "strides": [1, 1], "kernel_constraint": null, "name": "conv2d_31", "trainable": true, "filters": 96, "dilation_rate": [1, 1], "kernel_size": [1, 1], "kernel_regularizer": null, "padding": "same", "bias_regularizer": null}}, {"class_name": "Conv2D", "inbound_nodes": [[["batch_normalization_33", 0, 0, {}]]], "name": "conv2d_34", "config": {"kernel_initializer": {"class_name": "VarianceScaling", "config": {"mode": "fan_avg", "seed": null, "scale": 1.0, "distribution": "uniform"}}, "activity_regularizer": null, "use_bias": true, "activation": "relu", "bias_initializer": {"class_name": "Zeros", "config": {}}, "data_format": "channels_last", "bias_constraint": null, "strides": [1, 1], "kernel_constraint": null, "name": "conv2d_34", "trainable": true, "filters": 96, "dilation_rate": [1, 1], "kernel_size": [7, 1], "kernel_regularizer": null, "padding": "same", "bias_regularizer": null}}, {"class_name": "Conv2D", "inbound_nodes": [[["batch_normalization_38", 0, 0, {}]]], "name": "conv2d_39", "config": {"kernel_initializer": {"class_name": "VarianceScaling", "config": {"mode": "fan_avg", "seed": null, "scale": 1.0, "distribution": "uniform"}}, "activity_regularizer": null, "use_bias": true, "activation": "relu", "bias_initializer": {"class_name": "Zeros", "config": {}}, "data_format": "channels_last", "bias_constraint": null, "strides": [1, 1], "kernel_constraint": null, "name": "conv2d_39", "trainable": true, "filters": 96, "dilation_rate": [1, 1], "kernel_size": [1, 7], "kernel_regularizer": null, "padding": "same", "bias_regularizer": null}}, {"class_name": "Conv2D", "inbound_nodes": [[["average_pooling2d_4", 0, 0, {}]]], "name": "conv2d_40", "config": {"kernel_initializer": {"class_name": "VarianceScaling", "config": {"mode": "fan_avg", "seed": null, "scale": 1.0, "distribution": "uniform"}}, "activity_regularizer": null, "use_bias": true, "activation": "relu", "bias_initializer": {"class_name": "Zeros", "config": {}}, "data_format": "channels_last", "bias_constraint": null, "strides": [1, 1], "kernel_constraint": null, "name": "conv2d_40", "trainable": true, "filters": 96, "dilation_rate": [1, 1], "kernel_size": [1, 1], "kernel_regularizer": null, "padding": "same", "bias_regularizer": null}}, {"class_name": "BatchNormalization", "inbound_nodes": [[["conv2d_31", 0, 0, {}]]], "name": "batch_normalization_31", "config": {"gamma_regularizer": null, "gamma_initializer": {"class_name": "Ones", "config": {}}, "gamma_constraint": null, "name": "batch_normalization_31", "axis": 3, "moving_mean_initializer": {"class_name": "Zeros", "config": {}}, "scale": true, "beta_regularizer": null, "beta_constraint": null, "epsilon": 0.001, "beta_initializer": {"class_name": "Zeros", "config": {}}, "trainable": true, "momentum": 0.99, "moving_variance_initializer": {"class_name": "Ones", "config": {}}, "center": true}}, {"class_name": "BatchNormalization", "inbound_nodes": [[["conv2d_34", 0, 0, {}]]], "name": "batch_normalization_34", "config": {"gamma_regularizer": null, "gamma_initializer": {"class_name": "Ones", "config": {}}, "gamma_constraint": null, "name": "batch_normalization_34", "axis": 3, "moving_mean_initializer": {"class_name": "Zeros", "config": {}}, "scale": true, "beta_regularizer": null, "beta_constraint": null, "epsilon": 0.001, "beta_initializer": {"class_name": "Zeros", "config": {}}, "trainable": true, "momentum": 0.99, "moving_variance_initializer": {"class_name": "Ones", "config": {}}, "center": true}}, {"class_name": "BatchNormalization", "inbound_nodes": [[["conv2d_39", 0, 0, {}]]], "name": "batch_normalization_39", "config": {"gamma_regularizer": null, "gamma_initializer": {"class_name": "Ones", "config": {}}, "gamma_constraint": null, "name": "batch_normalization_39", "axis": 3, "moving_mean_initializer": {"class_name": "Zeros", "config": {}}, "scale": true, "beta_regularizer": null, "beta_constraint": null, "epsilon": 0.001, "beta_initializer": {"class_name": "Zeros", "config": {}}, "trainable": true, "momentum": 0.99, "moving_variance_initializer": {"class_name": "Ones", "config": {}}, "center": true}}, {"class_name": "BatchNormalization", "inbound_nodes": [[["conv2d_40", 0, 0, {}]]], "name": "batch_normalization_40", "config": {"gamma_regularizer": null, "gamma_initializer": {"class_name": "Ones", "config": {}}, "gamma_constraint": null, "name": "batch_normalization_40", "axis": 3, "moving_mean_initializer": {"class_name": "Zeros", "config": {}}, "scale": true, "beta_regularizer": null, "beta_constraint": null, "epsilon": 0.001, "beta_initializer": {"class_name": "Zeros", "config": {}}, "trainable": true, "momentum": 0.99, "moving_variance_initializer": {"class_name": "Ones", "config": {}}, "center": true}}, {"class_name": "Concatenate", "inbound_nodes": [[["batch_normalization_31", 0, 0, {}], ["batch_normalization_34", 0, 0, {}], ["batch_normalization_39", 0, 0, {}], ["batch_normalization_40", 0, 0, {}]]], "name": "mixed4", "config": {"axis": -1, "name": "mixed4", "trainable": true}}, {"class_name": "Conv2D", "inbound_nodes": [[["mixed4", 0, 0, {}]]], "name": "conv2d_45", "config": {"kernel_initializer": {"class_name": "VarianceScaling", "config": {"mode": "fan_avg", "seed": null, "scale": 1.0, "distribution": "uniform"}}, "activity_regularizer": null, "use_bias": true, "activation": "relu", "bias_initializer": {"class_name": "Zeros", "config": {}}, "data_format": "channels_last", "bias_constraint": null, "strides": [1, 1], "kernel_constraint": null, "name": "conv2d_45", "trainable": true, "filters": 80, "dilation_rate": [1, 1], "kernel_size": [1, 1], "kernel_regularizer": null, "padding": "same", "bias_regularizer": null}}, {"class_name": "BatchNormalization", "inbound_nodes": [[["conv2d_45", 0, 0, {}]]], "name": "batch_normalization_45", "config": {"gamma_regularizer": null, "gamma_initializer": {"class_name": "Ones", "config": {}}, "gamma_constraint": null, "name": "batch_normalization_45", "axis": 3, "moving_mean_initializer": {"class_name": "Zeros", "config": {}}, "scale": true, "beta_regularizer": null, "beta_constraint": null, "epsilon": 0.001, "beta_initializer": {"class_name": "Zeros", "config": {}}, "trainable": true, "momentum": 0.99, "moving_variance_initializer": {"class_name": "Ones", "config": {}}, "center": true}}, {"class_name": "Conv2D", "inbound_nodes": [[["batch_normalization_45", 0, 0, {}]]], "name": "conv2d_46", "config": {"kernel_initializer": {"class_name": "VarianceScaling", "config": {"mode": "fan_avg", "seed": null, "scale": 1.0, "distribution": "uniform"}}, "activity_regularizer": null, "use_bias": true, "activation": "relu", "bias_initializer": {"class_name": "Zeros", "config": {}}, "data_format": "channels_last", "bias_constraint": null, "strides": [1, 1], "kernel_constraint": null, "name": "conv2d_46", "trainable": true, "filters": 80, "dilation_rate": [1, 1], "kernel_size": [7, 1], "kernel_regularizer": null, "padding": "same", "bias_regularizer": null}}, {"class_name": "BatchNormalization", "inbound_nodes": [[["conv2d_46", 0, 0, {}]]], "name": "batch_normalization_46", "config": {"gamma_regularizer": null, "gamma_initializer": {"class_name": "Ones", "config": {}}, "gamma_constraint": null, "name": "batch_normalization_46", "axis": 3, "moving_mean_initializer": {"class_name": "Zeros", "config": {}}, "scale": true, "beta_regularizer": null, "beta_constraint": null, "epsilon": 0.001, "beta_initializer": {"class_name": "Zeros", "config": {}}, "trainable": true, "momentum": 0.99, "moving_variance_initializer": {"class_name": "Ones", "config": {}}, "center": true}}, {"class_name": "Conv2D", "inbound_nodes": [[["mixed4", 0, 0, {}]]], "name": "conv2d_42", "config": {"kernel_initializer": {"class_name": "VarianceScaling", "config": {"mode": "fan_avg", "seed": null, "scale": 1.0, "distribution": "uniform"}}, "activity_regularizer": null, "use_bias": true, "activation": "relu", "bias_initializer": {"class_name": "Zeros", "config": {}}, "data_format": "channels_last", "bias_constraint": null, "strides": [1, 1], "kernel_constraint": null, "name": "conv2d_42", "trainable": true, "filters": 80, "dilation_rate": [1, 1], "kernel_size": [1, 1], "kernel_regularizer": null, "padding": "same", "bias_regularizer": null}}, {"class_name": "Conv2D", "inbound_nodes": [[["batch_normalization_46", 0, 0, {}]]], "name": "conv2d_47", "config": {"kernel_initializer": {"class_name": "VarianceScaling", "config": {"mode": "fan_avg", "seed": null, "scale": 1.0, "distribution": "uniform"}}, "activity_regularizer": null, "use_bias": true, "activation": "relu", "bias_initializer": {"class_name": "Zeros", "config": {}}, "data_format": "channels_last", "bias_constraint": null, "strides": [1, 1], "kernel_constraint": null, "name": "conv2d_47", "trainable": true, "filters": 80, "dilation_rate": [1, 1], "kernel_size": [1, 7], "kernel_regularizer": null, "padding": "same", "bias_regularizer": null}}, {"class_name": "BatchNormalization", "inbound_nodes": [[["conv2d_42", 0, 0, {}]]], "name": "batch_normalization_42", "config": {"gamma_regularizer": null, "gamma_initializer": {"class_name": "Ones", "config": {}}, "gamma_constraint": null, "name": "batch_normalization_42", "axis": 3, "moving_mean_initializer": {"class_name": "Zeros", "config": {}}, "scale": true, "beta_regularizer": null, "beta_constraint": null, "epsilon": 0.001, "beta_initializer": {"class_name": "Zeros", "config": {}}, "trainable": true, "momentum": 0.99, "moving_variance_initializer": {"class_name": "Ones", "config": {}}, "center": true}}, {"class_name": "BatchNormalization", "inbound_nodes": [[["conv2d_47", 0, 0, {}]]], "name": "batch_normalization_47", "config": {"gamma_regularizer": null, "gamma_initializer": {"class_name": "Ones", "config": {}}, "gamma_constraint": null, "name": "batch_normalization_47", "axis": 3, "moving_mean_initializer": {"class_name": "Zeros", "config": {}}, "scale": true, "beta_regularizer": null, "beta_constraint": null, "epsilon": 0.001, "beta_initializer": {"class_name": "Zeros", "config": {}}, "trainable": true, "momentum": 0.99, "moving_variance_initializer": {"class_name": "Ones", "config": {}}, "center": true}}, {"class_name": "Conv2D", "inbound_nodes": [[["batch_normalization_42", 0, 0, {}]]], "name": "conv2d_43", "config": {"kernel_initializer": {"class_name": "VarianceScaling", "config": {"mode": "fan_avg", "seed": null, "scale": 1.0, "distribution": "uniform"}}, "activity_regularizer": null, "use_bias": true, "activation": "relu", "bias_initializer": {"class_name": "Zeros", "config": {}}, "data_format": "channels_last", "bias_constraint": null, "strides": [1, 1], "kernel_constraint": null, "name": "conv2d_43", "trainable": true, "filters": 80, "dilation_rate": [1, 1], "kernel_size": [1, 7], "kernel_regularizer": null, "padding": "same", "bias_regularizer": null}}, {"class_name": "Conv2D", "inbound_nodes": [[["batch_normalization_47", 0, 0, {}]]], "name": "conv2d_48", "config": {"kernel_initializer": {"class_name": "VarianceScaling", "config": {"mode": "fan_avg", "seed": null, "scale": 1.0, "distribution": "uniform"}}, "activity_regularizer": null, "use_bias": true, "activation": "relu", "bias_initializer": {"class_name": "Zeros", "config": {}}, "data_format": "channels_last", "bias_constraint": null, "strides": [1, 1], "kernel_constraint": null, "name": "conv2d_48", "trainable": true, "filters": 80, "dilation_rate": [1, 1], "kernel_size": [7, 1], "kernel_regularizer": null, "padding": "same", "bias_regularizer": null}}, {"class_name": "BatchNormalization", "inbound_nodes": [[["conv2d_43", 0, 0, {}]]], "name": "batch_normalization_43", "config": {"gamma_regularizer": null, "gamma_initializer": {"class_name": "Ones", "config": {}}, "gamma_constraint": null, "name": "batch_normalization_43", "axis": 3, "moving_mean_initializer": {"class_name": "Zeros", "config": {}}, "scale": true, "beta_regularizer": null, "beta_constraint": null, "epsilon": 0.001, "beta_initializer": {"class_name": "Zeros", "config": {}}, "trainable": true, "momentum": 0.99, "moving_variance_initializer": {"class_name": "Ones", "config": {}}, "center": true}}, {"class_name": "BatchNormalization", "inbound_nodes": [[["conv2d_48", 0, 0, {}]]], "name": "batch_normalization_48", "config": {"gamma_regularizer": null, "gamma_initializer": {"class_name": "Ones", "config": {}}, "gamma_constraint": null, "name": "batch_normalization_48", "axis": 3, "moving_mean_initializer": {"class_name": "Zeros", "config": {}}, "scale": true, "beta_regularizer": null, "beta_constraint": null, "epsilon": 0.001, "beta_initializer": {"class_name": "Zeros", "config": {}}, "trainable": true, "momentum": 0.99, "moving_variance_initializer": {"class_name": "Ones", "config": {}}, "center": true}}, {"class_name": "AveragePooling2D", "inbound_nodes": [[["mixed4", 0, 0, {}]]], "name": "average_pooling2d_5", "config": {"name": "average_pooling2d_5", "trainable": true, "data_format": "channels_last", "padding": "same", "strides": [1, 1], "pool_size": [3, 3]}}, {"class_name": "Conv2D", "inbound_nodes": [[["mixed4", 0, 0, {}]]], "name": "conv2d_41", "config": {"kernel_initializer": {"class_name": "VarianceScaling", "config": {"mode": "fan_avg", "seed": null, "scale": 1.0, "distribution": "uniform"}}, "activity_regularizer": null, "use_bias": true, "activation": "relu", "bias_initializer": {"class_name": "Zeros", "config": {}}, "data_format": "channels_last", "bias_constraint": null, "strides": [1, 1], "kernel_constraint": null, "name": "conv2d_41", "trainable": true, "filters": 96, "dilation_rate": [1, 1], "kernel_size": [1, 1], "kernel_regularizer": null, "padding": "same", "bias_regularizer": null}}, {"class_name": "Conv2D", "inbound_nodes": [[["batch_normalization_43", 0, 0, {}]]], "name": "conv2d_44", "config": {"kernel_initializer": {"class_name": "VarianceScaling", "config": {"mode": "fan_avg", "seed": null, "scale": 1.0, "distribution": "uniform"}}, "activity_regularizer": null, "use_bias": true, "activation": "relu", "bias_initializer": {"class_name": "Zeros", "config": {}}, "data_format": "channels_last", "bias_constraint": null, "strides": [1, 1], "kernel_constraint": null, "name": "conv2d_44", "trainable": true, "filters": 96, "dilation_rate": [1, 1], "kernel_size": [7, 1], "kernel_regularizer": null, "padding": "same", "bias_regularizer": null}}, {"class_name": "Conv2D", "inbound_nodes": [[["batch_normalization_48", 0, 0, {}]]], "name": "conv2d_49", "config": {"kernel_initializer": {"class_name": "VarianceScaling", "config": {"mode": "fan_avg", "seed": null, "scale": 1.0, "distribution": "uniform"}}, "activity_regularizer": null, "use_bias": true, "activation": "relu", "bias_initializer": {"class_name": "Zeros", "config": {}}, "data_format": "channels_last", "bias_constraint": null, "strides": [1, 1], "kernel_constraint": null, "name": "conv2d_49", "trainable": true, "filters": 96, "dilation_rate": [1, 1], "kernel_size": [1, 7], "kernel_regularizer": null, "padding": "same", "bias_regularizer": null}}, {"class_name": "Conv2D", "inbound_nodes": [[["average_pooling2d_5", 0, 0, {}]]], "name": "conv2d_50", "config": {"kernel_initializer": {"class_name": "VarianceScaling", "config": {"mode": "fan_avg", "seed": null, "scale": 1.0, "distribution": "uniform"}}, "activity_regularizer": null, "use_bias": true, "activation": "relu", "bias_initializer": {"class_name": "Zeros", "config": {}}, "data_format": "channels_last", "bias_constraint": null, "strides": [1, 1], "kernel_constraint": null, "name": "conv2d_50", "trainable": true, "filters": 96, "dilation_rate": [1, 1], "kernel_size": [1, 1], "kernel_regularizer": null, "padding": "same", "bias_regularizer": null}}, {"class_name": "BatchNormalization", "inbound_nodes": [[["conv2d_41", 0, 0, {}]]], "name": "batch_normalization_41", "config": {"gamma_regularizer": null, "gamma_initializer": {"class_name": "Ones", "config": {}}, "gamma_constraint": null, "name": "batch_normalization_41", "axis": 3, "moving_mean_initializer": {"class_name": "Zeros", "config": {}}, "scale": true, "beta_regularizer": null, "beta_constraint": null, "epsilon": 0.001, "beta_initializer": {"class_name": "Zeros", "config": {}}, "trainable": true, "momentum": 0.99, "moving_variance_initializer": {"class_name": "Ones", "config": {}}, "center": true}}, {"class_name": "BatchNormalization", "inbound_nodes": [[["conv2d_44", 0, 0, {}]]], "name": "batch_normalization_44", "config": {"gamma_regularizer": null, "gamma_initializer": {"class_name": "Ones", "config": {}}, "gamma_constraint": null, "name": "batch_normalization_44", "axis": 3, "moving_mean_initializer": {"class_name": "Zeros", "config": {}}, "scale": true, "beta_regularizer": null, "beta_constraint": null, "epsilon": 0.001, "beta_initializer": {"class_name": "Zeros", "config": {}}, "trainable": true, "momentum": 0.99, "moving_variance_initializer": {"class_name": "Ones", "config": {}}, "center": true}}, {"class_name": "BatchNormalization", "inbound_nodes": [[["conv2d_49", 0, 0, {}]]], "name": "batch_normalization_49", "config": {"gamma_regularizer": null, "gamma_initializer": {"class_name": "Ones", "config": {}}, "gamma_constraint": null, "name": "batch_normalization_49", "axis": 3, "moving_mean_initializer": {"class_name": "Zeros", "config": {}}, "scale": true, "beta_regularizer": null, "beta_constraint": null, "epsilon": 0.001, "beta_initializer": {"class_name": "Zeros", "config": {}}, "trainable": true, "momentum": 0.99, "moving_variance_initializer": {"class_name": "Ones", "config": {}}, "center": true}}, {"class_name": "BatchNormalization", "inbound_nodes": [[["conv2d_50", 0, 0, {}]]], "name": "batch_normalization_50", "config": {"gamma_regularizer": null, "gamma_initializer": {"class_name": "Ones", "config": {}}, "gamma_constraint": null, "name": "batch_normalization_50", "axis": 3, "moving_mean_initializer": {"class_name": "Zeros", "config": {}}, "scale": true, "beta_regularizer": null, "beta_constraint": null, "epsilon": 0.001, "beta_initializer": {"class_name": "Zeros", "config": {}}, "trainable": true, "momentum": 0.99, "moving_variance_initializer": {"class_name": "Ones", "config": {}}, "center": true}}, {"class_name": "Concatenate", "inbound_nodes": [[["batch_normalization_41", 0, 0, {}], ["batch_normalization_44", 0, 0, {}], ["batch_normalization_49", 0, 0, {}], ["batch_normalization_50", 0, 0, {}]]], "name": "mixed5", "config": {"axis": -1, "name": "mixed5", "trainable": true}}, {"class_name": "Conv2D", "inbound_nodes": [[["mixed5", 0, 0, {}]]], "name": "conv2d_55", "config": {"kernel_initializer": {"class_name": "VarianceScaling", "config": {"mode": "fan_avg", "seed": null, "scale": 1.0, "distribution": "uniform"}}, "activity_regularizer": null, "use_bias": true, "activation": "relu", "bias_initializer": {"class_name": "Zeros", "config": {}}, "data_format": "channels_last", "bias_constraint": null, "strides": [1, 1], "kernel_constraint": null, "name": "conv2d_55", "trainable": true, "filters": 80, "dilation_rate": [1, 1], "kernel_size": [1, 1], "kernel_regularizer": null, "padding": "same", "bias_regularizer": null}}, {"class_name": "BatchNormalization", "inbound_nodes": [[["conv2d_55", 0, 0, {}]]], "name": "batch_normalization_55", "config": {"gamma_regularizer": null, "gamma_initializer": {"class_name": "Ones", "config": {}}, "gamma_constraint": null, "name": "batch_normalization_55", "axis": 3, "moving_mean_initializer": {"class_name": "Zeros", "config": {}}, "scale": true, "beta_regularizer": null, "beta_constraint": null, "epsilon": 0.001, "beta_initializer": {"class_name": "Zeros", "config": {}}, "trainable": true, "momentum": 0.99, "moving_variance_initializer": {"class_name": "Ones", "config": {}}, "center": true}}, {"class_name": "Conv2D", "inbound_nodes": [[["batch_normalization_55", 0, 0, {}]]], "name": "conv2d_56", "config": {"kernel_initializer": {"class_name": "VarianceScaling", "config": {"mode": "fan_avg", "seed": null, "scale": 1.0, "distribution": "uniform"}}, "activity_regularizer": null, "use_bias": true, "activation": "relu", "bias_initializer": {"class_name": "Zeros", "config": {}}, "data_format": "channels_last", "bias_constraint": null, "strides": [1, 1], "kernel_constraint": null, "name": "conv2d_56", "trainable": true, "filters": 80, "dilation_rate": [1, 1], "kernel_size": [7, 1], "kernel_regularizer": null, "padding": "same", "bias_regularizer": null}}, {"class_name": "BatchNormalization", "inbound_nodes": [[["conv2d_56", 0, 0, {}]]], "name": "batch_normalization_56", "config": {"gamma_regularizer": null, "gamma_initializer": {"class_name": "Ones", "config": {}}, "gamma_constraint": null, "name": "batch_normalization_56", "axis": 3, "moving_mean_initializer": {"class_name": "Zeros", "config": {}}, "scale": true, "beta_regularizer": null, "beta_constraint": null, "epsilon": 0.001, "beta_initializer": {"class_name": "Zeros", "config": {}}, "trainable": true, "momentum": 0.99, "moving_variance_initializer": {"class_name": "Ones", "config": {}}, "center": true}}, {"class_name": "Conv2D", "inbound_nodes": [[["mixed5", 0, 0, {}]]], "name": "conv2d_52", "config": {"kernel_initializer": {"class_name": "VarianceScaling", "config": {"mode": "fan_avg", "seed": null, "scale": 1.0, "distribution": "uniform"}}, "activity_regularizer": null, "use_bias": true, "activation": "relu", "bias_initializer": {"class_name": "Zeros", "config": {}}, "data_format": "channels_last", "bias_constraint": null, "strides": [1, 1], "kernel_constraint": null, "name": "conv2d_52", "trainable": true, "filters": 80, "dilation_rate": [1, 1], "kernel_size": [1, 1], "kernel_regularizer": null, "padding": "same", "bias_regularizer": null}}, {"class_name": "Conv2D", "inbound_nodes": [[["batch_normalization_56", 0, 0, {}]]], "name": "conv2d_57", "config": {"kernel_initializer": {"class_name": "VarianceScaling", "config": {"mode": "fan_avg", "seed": null, "scale": 1.0, "distribution": "uniform"}}, "activity_regularizer": null, "use_bias": true, "activation": "relu", "bias_initializer": {"class_name": "Zeros", "config": {}}, "data_format": "channels_last", "bias_constraint": null, "strides": [1, 1], "kernel_constraint": null, "name": "conv2d_57", "trainable": true, "filters": 80, "dilation_rate": [1, 1], "kernel_size": [1, 7], "kernel_regularizer": null, "padding": "same", "bias_regularizer": null}}, {"class_name": "BatchNormalization", "inbound_nodes": [[["conv2d_52", 0, 0, {}]]], "name": "batch_normalization_52", "config": {"gamma_regularizer": null, "gamma_initializer": {"class_name": "Ones", "config": {}}, "gamma_constraint": null, "name": "batch_normalization_52", "axis": 3, "moving_mean_initializer": {"class_name": "Zeros", "config": {}}, "scale": true, "beta_regularizer": null, "beta_constraint": null, "epsilon": 0.001, "beta_initializer": {"class_name": "Zeros", "config": {}}, "trainable": true, "momentum": 0.99, "moving_variance_initializer": {"class_name": "Ones", "config": {}}, "center": true}}, {"class_name": "BatchNormalization", "inbound_nodes": [[["conv2d_57", 0, 0, {}]]], "name": "batch_normalization_57", "config": {"gamma_regularizer": null, "gamma_initializer": {"class_name": "Ones", "config": {}}, "gamma_constraint": null, "name": "batch_normalization_57", "axis": 3, "moving_mean_initializer": {"class_name": "Zeros", "config": {}}, "scale": true, "beta_regularizer": null, "beta_constraint": null, "epsilon": 0.001, "beta_initializer": {"class_name": "Zeros", "config": {}}, "trainable": true, "momentum": 0.99, "moving_variance_initializer": {"class_name": "Ones", "config": {}}, "center": true}}, {"class_name": "Conv2D", "inbound_nodes": [[["batch_normalization_52", 0, 0, {}]]], "name": "conv2d_53", "config": {"kernel_initializer": {"class_name": "VarianceScaling", "config": {"mode": "fan_avg", "seed": null, "scale": 1.0, "distribution": "uniform"}}, "activity_regularizer": null, "use_bias": true, "activation": "relu", "bias_initializer": {"class_name": "Zeros", "config": {}}, "data_format": "channels_last", "bias_constraint": null, "strides": [1, 1], "kernel_constraint": null, "name": "conv2d_53", "trainable": true, "filters": 80, "dilation_rate": [1, 1], "kernel_size": [1, 7], "kernel_regularizer": null, "padding": "same", "bias_regularizer": null}}, {"class_name": "Conv2D", "inbound_nodes": [[["batch_normalization_57", 0, 0, {}]]], "name": "conv2d_58", "config": {"kernel_initializer": {"class_name": "VarianceScaling", "config": {"mode": "fan_avg", "seed": null, "scale": 1.0, "distribution": "uniform"}}, "activity_regularizer": null, "use_bias": true, "activation": "relu", "bias_initializer": {"class_name": "Zeros", "config": {}}, "data_format": "channels_last", "bias_constraint": null, "strides": [1, 1], "kernel_constraint": null, "name": "conv2d_58", "trainable": true, "filters": 80, "dilation_rate": [1, 1], "kernel_size": [7, 1], "kernel_regularizer": null, "padding": "same", "bias_regularizer": null}}, {"class_name": "BatchNormalization", "inbound_nodes": [[["conv2d_53", 0, 0, {}]]], "name": "batch_normalization_53", "config": {"gamma_regularizer": null, "gamma_initializer": {"class_name": "Ones", "config": {}}, "gamma_constraint": null, "name": "batch_normalization_53", "axis": 3, "moving_mean_initializer": {"class_name": "Zeros", "config": {}}, "scale": true, "beta_regularizer": null, "beta_constraint": null, "epsilon": 0.001, "beta_initializer": {"class_name": "Zeros", "config": {}}, "trainable": true, "momentum": 0.99, "moving_variance_initializer": {"class_name": "Ones", "config": {}}, "center": true}}, {"class_name": "BatchNormalization", "inbound_nodes": [[["conv2d_58", 0, 0, {}]]], "name": "batch_normalization_58", "config": {"gamma_regularizer": null, "gamma_initializer": {"class_name": "Ones", "config": {}}, "gamma_constraint": null, "name": "batch_normalization_58", "axis": 3, "moving_mean_initializer": {"class_name": "Zeros", "config": {}}, "scale": true, "beta_regularizer": null, "beta_constraint": null, "epsilon": 0.001, "beta_initializer": {"class_name": "Zeros", "config": {}}, "trainable": true, "momentum": 0.99, "moving_variance_initializer": {"class_name": "Ones", "config": {}}, "center": true}}, {"class_name": "AveragePooling2D", "inbound_nodes": [[["mixed5", 0, 0, {}]]], "name": "average_pooling2d_6", "config": {"name": "average_pooling2d_6", "trainable": true, "data_format": "channels_last", "padding": "same", "strides": [1, 1], "pool_size": [3, 3]}}, {"class_name": "Conv2D", "inbound_nodes": [[["mixed5", 0, 0, {}]]], "name": "conv2d_51", "config": {"kernel_initializer": {"class_name": "VarianceScaling", "config": {"mode": "fan_avg", "seed": null, "scale": 1.0, "distribution": "uniform"}}, "activity_regularizer": null, "use_bias": true, "activation": "relu", "bias_initializer": {"class_name": "Zeros", "config": {}}, "data_format": "channels_last", "bias_constraint": null, "strides": [1, 1], "kernel_constraint": null, "name": "conv2d_51", "trainable": true, "filters": 96, "dilation_rate": [1, 1], "kernel_size": [1, 1], "kernel_regularizer": null, "padding": "same", "bias_regularizer": null}}, {"class_name": "Conv2D", "inbound_nodes": [[["batch_normalization_53", 0, 0, {}]]], "name": "conv2d_54", "config": {"kernel_initializer": {"class_name": "VarianceScaling", "config": {"mode": "fan_avg", "seed": null, "scale": 1.0, "distribution": "uniform"}}, "activity_regularizer": null, "use_bias": true, "activation": "relu", "bias_initializer": {"class_name": "Zeros", "config": {}}, "data_format": "channels_last", "bias_constraint": null, "strides": [1, 1], "kernel_constraint": null, "name": "conv2d_54", "trainable": true, "filters": 96, "dilation_rate": [1, 1], "kernel_size": [7, 1], "kernel_regularizer": null, "padding": "same", "bias_regularizer": null}}, {"class_name": "Conv2D", "inbound_nodes": [[["batch_normalization_58", 0, 0, {}]]], "name": "conv2d_59", "config": {"kernel_initializer": {"class_name": "VarianceScaling", "config": {"mode": "fan_avg", "seed": null, "scale": 1.0, "distribution": "uniform"}}, "activity_regularizer": null, "use_bias": true, "activation": "relu", "bias_initializer": {"class_name": "Zeros", "config": {}}, "data_format": "channels_last", "bias_constraint": null, "strides": [1, 1], "kernel_constraint": null, "name": "conv2d_59", "trainable": true, "filters": 96, "dilation_rate": [1, 1], "kernel_size": [1, 7], "kernel_regularizer": null, "padding": "same", "bias_regularizer": null}}, {"class_name": "Conv2D", "inbound_nodes": [[["average_pooling2d_6", 0, 0, {}]]], "name": "conv2d_60", "config": {"kernel_initializer": {"class_name": "VarianceScaling", "config": {"mode": "fan_avg", "seed": null, "scale": 1.0, "distribution": "uniform"}}, "activity_regularizer": null, "use_bias": true, "activation": "relu", "bias_initializer": {"class_name": "Zeros", "config": {}}, "data_format": "channels_last", "bias_constraint": null, "strides": [1, 1], "kernel_constraint": null, "name": "conv2d_60", "trainable": true, "filters": 96, "dilation_rate": [1, 1], "kernel_size": [1, 1], "kernel_regularizer": null, "padding": "same", "bias_regularizer": null}}, {"class_name": "BatchNormalization", "inbound_nodes": [[["conv2d_51", 0, 0, {}]]], "name": "batch_normalization_51", "config": {"gamma_regularizer": null, "gamma_initializer": {"class_name": "Ones", "config": {}}, "gamma_constraint": null, "name": "batch_normalization_51", "axis": 3, "moving_mean_initializer": {"class_name": "Zeros", "config": {}}, "scale": true, "beta_regularizer": null, "beta_constraint": null, "epsilon": 0.001, "beta_initializer": {"class_name": "Zeros", "config": {}}, "trainable": true, "momentum": 0.99, "moving_variance_initializer": {"class_name": "Ones", "config": {}}, "center": true}}, {"class_name": "BatchNormalization", "inbound_nodes": [[["conv2d_54", 0, 0, {}]]], "name": "batch_normalization_54", "config": {"gamma_regularizer": null, "gamma_initializer": {"class_name": "Ones", "config": {}}, "gamma_constraint": null, "name": "batch_normalization_54", "axis": 3, "moving_mean_initializer": {"class_name": "Zeros", "config": {}}, "scale": true, "beta_regularizer": null, "beta_constraint": null, "epsilon": 0.001, "beta_initializer": {"class_name": "Zeros", "config": {}}, "trainable": true, "momentum": 0.99, "moving_variance_initializer": {"class_name": "Ones", "config": {}}, "center": true}}, {"class_name": "BatchNormalization", "inbound_nodes": [[["conv2d_59", 0, 0, {}]]], "name": "batch_normalization_59", "config": {"gamma_regularizer": null, "gamma_initializer": {"class_name": "Ones", "config": {}}, "gamma_constraint": null, "name": "batch_normalization_59", "axis": 3, "moving_mean_initializer": {"class_name": "Zeros", "config": {}}, "scale": true, "beta_regularizer": null, "beta_constraint": null, "epsilon": 0.001, "beta_initializer": {"class_name": "Zeros", "config": {}}, "trainable": true, "momentum": 0.99, "moving_variance_initializer": {"class_name": "Ones", "config": {}}, "center": true}}, {"class_name": "BatchNormalization", "inbound_nodes": [[["conv2d_60", 0, 0, {}]]], "name": "batch_normalization_60", "config": {"gamma_regularizer": null, "gamma_initializer": {"class_name": "Ones", "config": {}}, "gamma_constraint": null, "name": "batch_normalization_60", "axis": 3, "moving_mean_initializer": {"class_name": "Zeros", "config": {}}, "scale": true, "beta_regularizer": null, "beta_constraint": null, "epsilon": 0.001, "beta_initializer": {"class_name": "Zeros", "config": {}}, "trainable": true, "momentum": 0.99, "moving_variance_initializer": {"class_name": "Ones", "config": {}}, "center": true}}, {"class_name": "Concatenate", "inbound_nodes": [[["batch_normalization_51", 0, 0, {}], ["batch_normalization_54", 0, 0, {}], ["batch_normalization_59", 0, 0, {}], ["batch_normalization_60", 0, 0, {}]]], "name": "mixed6", "config": {"axis": -1, "name": "mixed6", "trainable": true}}, {"class_name": "Conv2D", "inbound_nodes": [[["mixed6", 0, 0, {}]]], "name": "conv2d_65", "config": {"kernel_initializer": {"class_name": "VarianceScaling", "config": {"mode": "fan_avg", "seed": null, "scale": 1.0, "distribution": "uniform"}}, "activity_regularizer": null, "use_bias": true, "activation": "relu", "bias_initializer": {"class_name": "Zeros", "config": {}}, "data_format": "channels_last", "bias_constraint": null, "strides": [1, 1], "kernel_constraint": null, "name": "conv2d_65", "trainable": true, "filters": 80, "dilation_rate": [1, 1], "kernel_size": [1, 1], "kernel_regularizer": null, "padding": "same", "bias_regularizer": null}}, {"class_name": "BatchNormalization", "inbound_nodes": [[["conv2d_65", 0, 0, {}]]], "name": "batch_normalization_65", "config": {"gamma_regularizer": null, "gamma_initializer": {"class_name": "Ones", "config": {}}, "gamma_constraint": null, "name": "batch_normalization_65", "axis": 3, "moving_mean_initializer": {"class_name": "Zeros", "config": {}}, "scale": true, "beta_regularizer": null, "beta_constraint": null, "epsilon": 0.001, "beta_initializer": {"class_name": "Zeros", "config": {}}, "trainable": true, "momentum": 0.99, "moving_variance_initializer": {"class_name": "Ones", "config": {}}, "center": true}}, {"class_name": "Conv2D", "inbound_nodes": [[["batch_normalization_65", 0, 0, {}]]], "name": "conv2d_66", "config": {"kernel_initializer": {"class_name": "VarianceScaling", "config": {"mode": "fan_avg", "seed": null, "scale": 1.0, "distribution": "uniform"}}, "activity_regularizer": null, "use_bias": true, "activation": "relu", "bias_initializer": {"class_name": "Zeros", "config": {}}, "data_format": "channels_last", "bias_constraint": null, "strides": [1, 1], "kernel_constraint": null, "name": "conv2d_66", "trainable": true, "filters": 96, "dilation_rate": [1, 1], "kernel_size": [7, 1], "kernel_regularizer": null, "padding": "same", "bias_regularizer": null}}, {"class_name": "BatchNormalization", "inbound_nodes": [[["conv2d_66", 0, 0, {}]]], "name": "batch_normalization_66", "config": {"gamma_regularizer": null, "gamma_initializer": {"class_name": "Ones", "config": {}}, "gamma_constraint": null, "name": "batch_normalization_66", "axis": 3, "moving_mean_initializer": {"class_name": "Zeros", "config": {}}, "scale": true, "beta_regularizer": null, "beta_constraint": null, "epsilon": 0.001, "beta_initializer": {"class_name": "Zeros", "config": {}}, "trainable": true, "momentum": 0.99, "moving_variance_initializer": {"class_name": "Ones", "config": {}}, "center": true}}, {"class_name": "Conv2D", "inbound_nodes": [[["mixed6", 0, 0, {}]]], "name": "conv2d_62", "config": {"kernel_initializer": {"class_name": "VarianceScaling", "config": {"mode": "fan_avg", "seed": null, "scale": 1.0, "distribution": "uniform"}}, "activity_regularizer": null, "use_bias": true, "activation": "relu", "bias_initializer": {"class_name": "Zeros", "config": {}}, "data_format": "channels_last", "bias_constraint": null, "strides": [1, 1], "kernel_constraint": null, "name": "conv2d_62", "trainable": true, "filters": 96, "dilation_rate": [1, 1], "kernel_size": [1, 1], "kernel_regularizer": null, "padding": "same", "bias_regularizer": null}}, {"class_name": "Conv2D", "inbound_nodes": [[["batch_normalization_66", 0, 0, {}]]], "name": "conv2d_67", "config": {"kernel_initializer": {"class_name": "VarianceScaling", "config": {"mode": "fan_avg", "seed": null, "scale": 1.0, "distribution": "uniform"}}, "activity_regularizer": null, "use_bias": true, "activation": "relu", "bias_initializer": {"class_name": "Zeros", "config": {}}, "data_format": "channels_last", "bias_constraint": null, "strides": [1, 1], "kernel_constraint": null, "name": "conv2d_67", "trainable": true, "filters": 96, "dilation_rate": [1, 1], "kernel_size": [1, 7], "kernel_regularizer": null, "padding": "same", "bias_regularizer": null}}, {"class_name": "BatchNormalization", "inbound_nodes": [[["conv2d_62", 0, 0, {}]]], "name": "batch_normalization_62", "config": {"gamma_regularizer": null, "gamma_initializer": {"class_name": "Ones", "config": {}}, "gamma_constraint": null, "name": "batch_normalization_62", "axis": 3, "moving_mean_initializer": {"class_name": "Zeros", "config": {}}, "scale": true, "beta_regularizer": null, "beta_constraint": null, "epsilon": 0.001, "beta_initializer": {"class_name": "Zeros", "config": {}}, "trainable": true, "momentum": 0.99, "moving_variance_initializer": {"class_name": "Ones", "config": {}}, "center": true}}, {"class_name": "BatchNormalization", "inbound_nodes": [[["conv2d_67", 0, 0, {}]]], "name": "batch_normalization_67", "config": {"gamma_regularizer": null, "gamma_initializer": {"class_name": "Ones", "config": {}}, "gamma_constraint": null, "name": "batch_normalization_67", "axis": 3, "moving_mean_initializer": {"class_name": "Zeros", "config": {}}, "scale": true, "beta_regularizer": null, "beta_constraint": null, "epsilon": 0.001, "beta_initializer": {"class_name": "Zeros", "config": {}}, "trainable": true, "momentum": 0.99, "moving_variance_initializer": {"class_name": "Ones", "config": {}}, "center": true}}, {"class_name": "Conv2D", "inbound_nodes": [[["batch_normalization_62", 0, 0, {}]]], "name": "conv2d_63", "config": {"kernel_initializer": {"class_name": "VarianceScaling", "config": {"mode": "fan_avg", "seed": null, "scale": 1.0, "distribution": "uniform"}}, "activity_regularizer": null, "use_bias": true, "activation": "relu", "bias_initializer": {"class_name": "Zeros", "config": {}}, "data_format": "channels_last", "bias_constraint": null, "strides": [1, 1], "kernel_constraint": null, "name": "conv2d_63", "trainable": true, "filters": 96, "dilation_rate": [1, 1], "kernel_size": [1, 7], "kernel_regularizer": null, "padding": "same", "bias_regularizer": null}}, {"class_name": "Conv2D", "inbound_nodes": [[["batch_normalization_67", 0, 0, {}]]], "name": "conv2d_68", "config": {"kernel_initializer": {"class_name": "VarianceScaling", "config": {"mode": "fan_avg", "seed": null, "scale": 1.0, "distribution": "uniform"}}, "activity_regularizer": null, "use_bias": true, "activation": "relu", "bias_initializer": {"class_name": "Zeros", "config": {}}, "data_format": "channels_last", "bias_constraint": null, "strides": [1, 1], "kernel_constraint": null, "name": "conv2d_68", "trainable": true, "filters": 96, "dilation_rate": [1, 1], "kernel_size": [7, 1], "kernel_regularizer": null, "padding": "same", "bias_regularizer": null}}, {"class_name": "BatchNormalization", "inbound_nodes": [[["conv2d_63", 0, 0, {}]]], "name": "batch_normalization_63", "config": {"gamma_regularizer": null, "gamma_initializer": {"class_name": "Ones", "config": {}}, "gamma_constraint": null, "name": "batch_normalization_63", "axis": 3, "moving_mean_initializer": {"class_name": "Zeros", "config": {}}, "scale": true, "beta_regularizer": null, "beta_constraint": null, "epsilon": 0.001, "beta_initializer": {"class_name": "Zeros", "config": {}}, "trainable": true, "momentum": 0.99, "moving_variance_initializer": {"class_name": "Ones", "config": {}}, "center": true}}, {"class_name": "BatchNormalization", "inbound_nodes": [[["conv2d_68", 0, 0, {}]]], "name": "batch_normalization_68", "config": {"gamma_regularizer": null, "gamma_initializer": {"class_name": "Ones", "config": {}}, "gamma_constraint": null, "name": "batch_normalization_68", "axis": 3, "moving_mean_initializer": {"class_name": "Zeros", "config": {}}, "scale": true, "beta_regularizer": null, "beta_constraint": null, "epsilon": 0.001, "beta_initializer": {"class_name": "Zeros", "config": {}}, "trainable": true, "momentum": 0.99, "moving_variance_initializer": {"class_name": "Ones", "config": {}}, "center": true}}, {"class_name": "AveragePooling2D", "inbound_nodes": [[["mixed6", 0, 0, {}]]], "name": "average_pooling2d_7", "config": {"name": "average_pooling2d_7", "trainable": true, "data_format": "channels_last", "padding": "same", "strides": [1, 1], "pool_size": [3, 3]}}, {"class_name": "Conv2D", "inbound_nodes": [[["mixed6", 0, 0, {}]]], "name": "conv2d_61", "config": {"kernel_initializer": {"class_name": "VarianceScaling", "config": {"mode": "fan_avg", "seed": null, "scale": 1.0, "distribution": "uniform"}}, "activity_regularizer": null, "use_bias": true, "activation": "relu", "bias_initializer": {"class_name": "Zeros", "config": {}}, "data_format": "channels_last", "bias_constraint": null, "strides": [1, 1], "kernel_constraint": null, "name": "conv2d_61", "trainable": true, "filters": 96, "dilation_rate": [1, 1], "kernel_size": [1, 1], "kernel_regularizer": null, "padding": "same", "bias_regularizer": null}}, {"class_name": "Conv2D", "inbound_nodes": [[["batch_normalization_63", 0, 0, {}]]], "name": "conv2d_64", "config": {"kernel_initializer": {"class_name": "VarianceScaling", "config": {"mode": "fan_avg", "seed": null, "scale": 1.0, "distribution": "uniform"}}, "activity_regularizer": null, "use_bias": true, "activation": "relu", "bias_initializer": {"class_name": "Zeros", "config": {}}, "data_format": "channels_last", "bias_constraint": null, "strides": [1, 1], "kernel_constraint": null, "name": "conv2d_64", "trainable": true, "filters": 96, "dilation_rate": [1, 1], "kernel_size": [7, 1], "kernel_regularizer": null, "padding": "same", "bias_regularizer": null}}, {"class_name": "Conv2D", "inbound_nodes": [[["batch_normalization_68", 0, 0, {}]]], "name": "conv2d_69", "config": {"kernel_initializer": {"class_name": "VarianceScaling", "config": {"mode": "fan_avg", "seed": null, "scale": 1.0, "distribution": "uniform"}}, "activity_regularizer": null, "use_bias": true, "activation": "relu", "bias_initializer": {"class_name": "Zeros", "config": {}}, "data_format": "channels_last", "bias_constraint": null, "strides": [1, 1], "kernel_constraint": null, "name": "conv2d_69", "trainable": true, "filters": 96, "dilation_rate": [1, 1], "kernel_size": [1, 7], "kernel_regularizer": null, "padding": "same", "bias_regularizer": null}}, {"class_name": "Conv2D", "inbound_nodes": [[["average_pooling2d_7", 0, 0, {}]]], "name": "conv2d_70", "config": {"kernel_initializer": {"class_name": "VarianceScaling", "config": {"mode": "fan_avg", "seed": null, "scale": 1.0, "distribution": "uniform"}}, "activity_regularizer": null, "use_bias": true, "activation": "relu", "bias_initializer": {"class_name": "Zeros", "config": {}}, "data_format": "channels_last", "bias_constraint": null, "strides": [1, 1], "kernel_constraint": null, "name": "conv2d_70", "trainable": true, "filters": 96, "dilation_rate": [1, 1], "kernel_size": [1, 1], "kernel_regularizer": null, "padding": "same", "bias_regularizer": null}}, {"class_name": "BatchNormalization", "inbound_nodes": [[["conv2d_61", 0, 0, {}]]], "name": "batch_normalization_61", "config": {"gamma_regularizer": null, "gamma_initializer": {"class_name": "Ones", "config": {}}, "gamma_constraint": null, "name": "batch_normalization_61", "axis": 3, "moving_mean_initializer": {"class_name": "Zeros", "config": {}}, "scale": true, "beta_regularizer": null, "beta_constraint": null, "epsilon": 0.001, "beta_initializer": {"class_name": "Zeros", "config": {}}, "trainable": true, "momentum": 0.99, "moving_variance_initializer": {"class_name": "Ones", "config": {}}, "center": true}}, {"class_name": "BatchNormalization", "inbound_nodes": [[["conv2d_64", 0, 0, {}]]], "name": "batch_normalization_64", "config": {"gamma_regularizer": null, "gamma_initializer": {"class_name": "Ones", "config": {}}, "gamma_constraint": null, "name": "batch_normalization_64", "axis": 3, "moving_mean_initializer": {"class_name": "Zeros", "config": {}}, "scale": true, "beta_regularizer": null, "beta_constraint": null, "epsilon": 0.001, "beta_initializer": {"class_name": "Zeros", "config": {}}, "trainable": true, "momentum": 0.99, "moving_variance_initializer": {"class_name": "Ones", "config": {}}, "center": true}}, {"class_name": "BatchNormalization", "inbound_nodes": [[["conv2d_69", 0, 0, {}]]], "name": "batch_normalization_69", "config": {"gamma_regularizer": null, "gamma_initializer": {"class_name": "Ones", "config": {}}, "gamma_constraint": null, "name": "batch_normalization_69", "axis": 3, "moving_mean_initializer": {"class_name": "Zeros", "config": {}}, "scale": true, "beta_regularizer": null, "beta_constraint": null, "epsilon": 0.001, "beta_initializer": {"class_name": "Zeros", "config": {}}, "trainable": true, "momentum": 0.99, "moving_variance_initializer": {"class_name": "Ones", "config": {}}, "center": true}}, {"class_name": "BatchNormalization", "inbound_nodes": [[["conv2d_70", 0, 0, {}]]], "name": "batch_normalization_70", "config": {"gamma_regularizer": null, "gamma_initializer": {"class_name": "Ones", "config": {}}, "gamma_constraint": null, "name": "batch_normalization_70", "axis": 3, "moving_mean_initializer": {"class_name": "Zeros", "config": {}}, "scale": true, "beta_regularizer": null, "beta_constraint": null, "epsilon": 0.001, "beta_initializer": {"class_name": "Zeros", "config": {}}, "trainable": true, "momentum": 0.99, "moving_variance_initializer": {"class_name": "Ones", "config": {}}, "center": true}}, {"class_name": "Concatenate", "inbound_nodes": [[["batch_normalization_61", 0, 0, {}], ["batch_normalization_64", 0, 0, {}], ["batch_normalization_69", 0, 0, {}], ["batch_normalization_70", 0, 0, {}]]], "name": "mixed7", "config": {"axis": -1, "name": "mixed7", "trainable": true}}, {"class_name": "Conv2D", "inbound_nodes": [[["mixed7", 0, 0, {}]]], "name": "conv2d_73", "config": {"kernel_initializer": {"class_name": "VarianceScaling", "config": {"mode": "fan_avg", "seed": null, "scale": 1.0, "distribution": "uniform"}}, "activity_regularizer": null, "use_bias": true, "activation": "relu", "bias_initializer": {"class_name": "Zeros", "config": {}}, "data_format": "channels_last", "bias_constraint": null, "strides": [1, 1], "kernel_constraint": null, "name": "conv2d_73", "trainable": true, "filters": 96, "dilation_rate": [1, 1], "kernel_size": [1, 1], "kernel_regularizer": null, "padding": "same", "bias_regularizer": null}}, {"class_name": "BatchNormalization", "inbound_nodes": [[["conv2d_73", 0, 0, {}]]], "name": "batch_normalization_73", "config": {"gamma_regularizer": null, "gamma_initializer": {"class_name": "Ones", "config": {}}, "gamma_constraint": null, "name": "batch_normalization_73", "axis": 3, "moving_mean_initializer": {"class_name": "Zeros", "config": {}}, "scale": true, "beta_regularizer": null, "beta_constraint": null, "epsilon": 0.001, "beta_initializer": {"class_name": "Zeros", "config": {}}, "trainable": true, "momentum": 0.99, "moving_variance_initializer": {"class_name": "Ones", "config": {}}, "center": true}}, {"class_name": "Conv2D", "inbound_nodes": [[["batch_normalization_73", 0, 0, {}]]], "name": "conv2d_74", "config": {"kernel_initializer": {"class_name": "VarianceScaling", "config": {"mode": "fan_avg", "seed": null, "scale": 1.0, "distribution": "uniform"}}, "activity_regularizer": null, "use_bias": true, "activation": "relu", "bias_initializer": {"class_name": "Zeros", "config": {}}, "data_format": "channels_last", "bias_constraint": null, "strides": [1, 1], "kernel_constraint": null, "name": "conv2d_74", "trainable": true, "filters": 96, "dilation_rate": [1, 1], "kernel_size": [1, 7], "kernel_regularizer": null, "padding": "same", "bias_regularizer": null}}, {"class_name": "BatchNormalization", "inbound_nodes": [[["conv2d_74", 0, 0, {}]]], "name": "batch_normalization_74", "config": {"gamma_regularizer": null, "gamma_initializer": {"class_name": "Ones", "config": {}}, "gamma_constraint": null, "name": "batch_normalization_74", "axis": 3, "moving_mean_initializer": {"class_name": "Zeros", "config": {}}, "scale": true, "beta_regularizer": null, "beta_constraint": null, "epsilon": 0.001, "beta_initializer": {"class_name": "Zeros", "config": {}}, "trainable": true, "momentum": 0.99, "moving_variance_initializer": {"class_name": "Ones", "config": {}}, "center": true}}, {"class_name": "Conv2D", "inbound_nodes": [[["mixed7", 0, 0, {}]]], "name": "conv2d_71", "config": {"kernel_initializer": {"class_name": "VarianceScaling", "config": {"mode": "fan_avg", "seed": null, "scale": 1.0, "distribution": "uniform"}}, "activity_regularizer": null, "use_bias": true, "activation": "relu", "bias_initializer": {"class_name": "Zeros", "config": {}}, "data_format": "channels_last", "bias_constraint": null, "strides": [1, 1], "kernel_constraint": null, "name": "conv2d_71", "trainable": true, "filters": 96, "dilation_rate": [1, 1], "kernel_size": [1, 1], "kernel_regularizer": null, "padding": "same", "bias_regularizer": null}}, {"class_name": "Conv2D", "inbound_nodes": [[["batch_normalization_74", 0, 0, {}]]], "name": "conv2d_75", "config": {"kernel_initializer": {"class_name": "VarianceScaling", "config": {"mode": "fan_avg", "seed": null, "scale": 1.0, "distribution": "uniform"}}, "activity_regularizer": null, "use_bias": true, "activation": "relu", "bias_initializer": {"class_name": "Zeros", "config": {}}, "data_format": "channels_last", "bias_constraint": null, "strides": [1, 1], "kernel_constraint": null, "name": "conv2d_75", "trainable": true, "filters": 96, "dilation_rate": [1, 1], "kernel_size": [7, 1], "kernel_regularizer": null, "padding": "same", "bias_regularizer": null}}, {"class_name": "BatchNormalization", "inbound_nodes": [[["conv2d_71", 0, 0, {}]]], "name": "batch_normalization_71", "config": {"gamma_regularizer": null, "gamma_initializer": {"class_name": "Ones", "config": {}}, "gamma_constraint": null, "name": "batch_normalization_71", "axis": 3, "moving_mean_initializer": {"class_name": "Zeros", "config": {}}, "scale": true, "beta_regularizer": null, "beta_constraint": null, "epsilon": 0.001, "beta_initializer": {"class_name": "Zeros", "config": {}}, "trainable": true, "momentum": 0.99, "moving_variance_initializer": {"class_name": "Ones", "config": {}}, "center": true}}, {"class_name": "BatchNormalization", "inbound_nodes": [[["conv2d_75", 0, 0, {}]]], "name": "batch_normalization_75", "config": {"gamma_regularizer": null, "gamma_initializer": {"class_name": "Ones", "config": {}}, "gamma_constraint": null, "name": "batch_normalization_75", "axis": 3, "moving_mean_initializer": {"class_name": "Zeros", "config": {}}, "scale": true, "beta_regularizer": null, "beta_constraint": null, "epsilon": 0.001, "beta_initializer": {"class_name": "Zeros", "config": {}}, "trainable": true, "momentum": 0.99, "moving_variance_initializer": {"class_name": "Ones", "config": {}}, "center": true}}, {"class_name": "Conv2D", "inbound_nodes": [[["batch_normalization_71", 0, 0, {}]]], "name": "conv2d_72", "config": {"kernel_initializer": {"class_name": "VarianceScaling", "config": {"mode": "fan_avg", "seed": null, "scale": 1.0, "distribution": "uniform"}}, "activity_regularizer": null, "use_bias": true, "activation": "relu", "bias_initializer": {"class_name": "Zeros", "config": {}}, "data_format": "channels_last", "bias_constraint": null, "strides": [2, 2], "kernel_constraint": null, "name": "conv2d_72", "trainable": true, "filters": 160, "dilation_rate": [1, 1], "kernel_size": [3, 3], "kernel_regularizer": null, "padding": "valid", "bias_regularizer": null}}, {"class_name": "Conv2D", "inbound_nodes": [[["batch_normalization_75", 0, 0, {}]]], "name": "conv2d_76", "config": {"kernel_initializer": {"class_name": "VarianceScaling", "config": {"mode": "fan_avg", "seed": null, "scale": 1.0, "distribution": "uniform"}}, "activity_regularizer": null, "use_bias": true, "activation": "relu", "bias_initializer": {"class_name": "Zeros", "config": {}}, "data_format": "channels_last", "bias_constraint": null, "strides": [2, 2], "kernel_constraint": null, "name": "conv2d_76", "trainable": true, "filters": 96, "dilation_rate": [1, 1], "kernel_size": [3, 3], "kernel_regularizer": null, "padding": "valid", "bias_regularizer": null}}, {"class_name": "BatchNormalization", "inbound_nodes": [[["conv2d_72", 0, 0, {}]]], "name": "batch_normalization_72", "config": {"gamma_regularizer": null, "gamma_initializer": {"class_name": "Ones", "config": {}}, "gamma_constraint": null, "name": "batch_normalization_72", "axis": 3, "moving_mean_initializer": {"class_name": "Zeros", "config": {}}, "scale": true, "beta_regularizer": null, "beta_constraint": null, "epsilon": 0.001, "beta_initializer": {"class_name": "Zeros", "config": {}}, "trainable": true, "momentum": 0.99, "moving_variance_initializer": {"class_name": "Ones", "config": {}}, "center": true}}, {"class_name": "BatchNormalization", "inbound_nodes": [[["conv2d_76", 0, 0, {}]]], "name": "batch_normalization_76", "config": {"gamma_regularizer": null, "gamma_initializer": {"class_name": "Ones", "config": {}}, "gamma_constraint": null, "name": "batch_normalization_76", "axis": 3, "moving_mean_initializer": {"class_name": "Zeros", "config": {}}, "scale": true, "beta_regularizer": null, "beta_constraint": null, "epsilon": 0.001, "beta_initializer": {"class_name": "Zeros", "config": {}}, "trainable": true, "momentum": 0.99, "moving_variance_initializer": {"class_name": "Ones", "config": {}}, "center": true}}, {"class_name": "AveragePooling2D", "inbound_nodes": [[["mixed7", 0, 0, {}]]], "name": "average_pooling2d_8", "config": {"name": "average_pooling2d_8", "trainable": true, "data_format": "channels_last", "padding": "valid", "strides": [2, 2], "pool_size": [3, 3]}}, {"class_name": "Concatenate", "inbound_nodes": [[["batch_normalization_72", 0, 0, {}], ["batch_normalization_76", 0, 0, {}], ["average_pooling2d_8", 0, 0, {}]]], "name": "mixed8", "config": {"axis": -1, "name": "mixed8", "trainable": true}}, {"class_name": "Conv2D", "inbound_nodes": [[["mixed8", 0, 0, {}]]], "name": "conv2d_81", "config": {"kernel_initializer": {"class_name": "VarianceScaling", "config": {"mode": "fan_avg", "seed": null, "scale": 1.0, "distribution": "uniform"}}, "activity_regularizer": null, "use_bias": true, "activation": "relu", "bias_initializer": {"class_name": "Zeros", "config": {}}, "data_format": "channels_last", "bias_constraint": null, "strides": [1, 1], "kernel_constraint": null, "name": "conv2d_81", "trainable": true, "filters": 224, "dilation_rate": [1, 1], "kernel_size": [1, 1], "kernel_regularizer": null, "padding": "same", "bias_regularizer": null}}, {"class_name": "BatchNormalization", "inbound_nodes": [[["conv2d_81", 0, 0, {}]]], "name": "batch_normalization_81", "config": {"gamma_regularizer": null, "gamma_initializer": {"class_name": "Ones", "config": {}}, "gamma_constraint": null, "name": "batch_normalization_81", "axis": 3, "moving_mean_initializer": {"class_name": "Zeros", "config": {}}, "scale": true, "beta_regularizer": null, "beta_constraint": null, "epsilon": 0.001, "beta_initializer": {"class_name": "Zeros", "config": {}}, "trainable": true, "momentum": 0.99, "moving_variance_initializer": {"class_name": "Ones", "config": {}}, "center": true}}, {"class_name": "Conv2D", "inbound_nodes": [[["mixed8", 0, 0, {}]]], "name": "conv2d_78", "config": {"kernel_initializer": {"class_name": "VarianceScaling", "config": {"mode": "fan_avg", "seed": null, "scale": 1.0, "distribution": "uniform"}}, "activity_regularizer": null, "use_bias": true, "activation": "relu", "bias_initializer": {"class_name": "Zeros", "config": {}}, "data_format": "channels_last", "bias_constraint": null, "strides": [1, 1], "kernel_constraint": null, "name": "conv2d_78", "trainable": true, "filters": 192, "dilation_rate": [1, 1], "kernel_size": [1, 1], "kernel_regularizer": null, "padding": "same", "bias_regularizer": null}}, {"class_name": "Conv2D", "inbound_nodes": [[["batch_normalization_81", 0, 0, {}]]], "name": "conv2d_82", "config": {"kernel_initializer": {"class_name": "VarianceScaling", "config": {"mode": "fan_avg", "seed": null, "scale": 1.0, "distribution": "uniform"}}, "activity_regularizer": null, "use_bias": true, "activation": "relu", "bias_initializer": {"class_name": "Zeros", "config": {}}, "data_format": "channels_last", "bias_constraint": null, "strides": [1, 1], "kernel_constraint": null, "name": "conv2d_82", "trainable": true, "filters": 192, "dilation_rate": [1, 1], "kernel_size": [3, 3], "kernel_regularizer": null, "padding": "same", "bias_regularizer": null}}, {"class_name": "BatchNormalization", "inbound_nodes": [[["conv2d_78", 0, 0, {}]]], "name": "batch_normalization_78", "config": {"gamma_regularizer": null, "gamma_initializer": {"class_name": "Ones", "config": {}}, "gamma_constraint": null, "name": "batch_normalization_78", "axis": 3, "moving_mean_initializer": {"class_name": "Zeros", "config": {}}, "scale": true, "beta_regularizer": null, "beta_constraint": null, "epsilon": 0.001, "beta_initializer": {"class_name": "Zeros", "config": {}}, "trainable": true, "momentum": 0.99, "moving_variance_initializer": {"class_name": "Ones", "config": {}}, "center": true}}, {"class_name": "BatchNormalization", "inbound_nodes": [[["conv2d_82", 0, 0, {}]]], "name": "batch_normalization_82", "config": {"gamma_regularizer": null, "gamma_initializer": {"class_name": "Ones", "config": {}}, "gamma_constraint": null, "name": "batch_normalization_82", "axis": 3, "moving_mean_initializer": {"class_name": "Zeros", "config": {}}, "scale": true, "beta_regularizer": null, "beta_constraint": null, "epsilon": 0.001, "beta_initializer": {"class_name": "Zeros", "config": {}}, "trainable": true, "momentum": 0.99, "moving_variance_initializer": {"class_name": "Ones", "config": {}}, "center": true}}, {"class_name": "Conv2D", "inbound_nodes": [[["batch_normalization_78", 0, 0, {}]]], "name": "conv2d_79", "config": {"kernel_initializer": {"class_name": "VarianceScaling", "config": {"mode": "fan_avg", "seed": null, "scale": 1.0, "distribution": "uniform"}}, "activity_regularizer": null, "use_bias": true, "activation": "relu", "bias_initializer": {"class_name": "Zeros", "config": {}}, "data_format": "channels_last", "bias_constraint": null, "strides": [1, 1], "kernel_constraint": null, "name": "conv2d_79", "trainable": true, "filters": 192, "dilation_rate": [1, 1], "kernel_size": [1, 3], "kernel_regularizer": null, "padding": "same", "bias_regularizer": null}}, {"class_name": "Conv2D", "inbound_nodes": [[["batch_normalization_78", 0, 0, {}]]], "name": "conv2d_80", "config": {"kernel_initializer": {"class_name": "VarianceScaling", "config": {"mode": "fan_avg", "seed": null, "scale": 1.0, "distribution": "uniform"}}, "activity_regularizer": null, "use_bias": true, "activation": "relu", "bias_initializer": {"class_name": "Zeros", "config": {}}, "data_format": "channels_last", "bias_constraint": null, "strides": [1, 1], "kernel_constraint": null, "name": "conv2d_80", "trainable": true, "filters": 192, "dilation_rate": [1, 1], "kernel_size": [3, 1], "kernel_regularizer": null, "padding": "same", "bias_regularizer": null}}, {"class_name": "Conv2D", "inbound_nodes": [[["batch_normalization_82", 0, 0, {}]]], "name": "conv2d_83", "config": {"kernel_initializer": {"class_name": "VarianceScaling", "config": {"mode": "fan_avg", "seed": null, "scale": 1.0, "distribution": "uniform"}}, "activity_regularizer": null, "use_bias": true, "activation": "relu", "bias_initializer": {"class_name": "Zeros", "config": {}}, "data_format": "channels_last", "bias_constraint": null, "strides": [1, 1], "kernel_constraint": null, "name": "conv2d_83", "trainable": true, "filters": 192, "dilation_rate": [1, 1], "kernel_size": [1, 3], "kernel_regularizer": null, "padding": "same", "bias_regularizer": null}}, {"class_name": "Conv2D", "inbound_nodes": [[["batch_normalization_82", 0, 0, {}]]], "name": "conv2d_84", "config": {"kernel_initializer": {"class_name": "VarianceScaling", "config": {"mode": "fan_avg", "seed": null, "scale": 1.0, "distribution": "uniform"}}, "activity_regularizer": null, "use_bias": true, "activation": "relu", "bias_initializer": {"class_name": "Zeros", "config": {}}, "data_format": "channels_last", "bias_constraint": null, "strides": [1, 1], "kernel_constraint": null, "name": "conv2d_84", "trainable": true, "filters": 192, "dilation_rate": [1, 1], "kernel_size": [3, 1], "kernel_regularizer": null, "padding": "same", "bias_regularizer": null}}, {"class_name": "AveragePooling2D", "inbound_nodes": [[["mixed8", 0, 0, {}]]], "name": "average_pooling2d_9", "config": {"name": "average_pooling2d_9", "trainable": true, "data_format": "channels_last", "padding": "same", "strides": [1, 1], "pool_size": [3, 3]}}, {"class_name": "Conv2D", "inbound_nodes": [[["mixed8", 0, 0, {}]]], "name": "conv2d_77", "config": {"kernel_initializer": {"class_name": "VarianceScaling", "config": {"mode": "fan_avg", "seed": null, "scale": 1.0, "distribution": "uniform"}}, "activity_regularizer": null, "use_bias": true, "activation": "relu", "bias_initializer": {"class_name": "Zeros", "config": {}}, "data_format": "channels_last", "bias_constraint": null, "strides": [1, 1], "kernel_constraint": null, "name": "conv2d_77", "trainable": true, "filters": 160, "dilation_rate": [1, 1], "kernel_size": [1, 1], "kernel_regularizer": null, "padding": "same", "bias_regularizer": null}}, {"class_name": "BatchNormalization", "inbound_nodes": [[["conv2d_79", 0, 0, {}]]], "name": "batch_normalization_79", "config": {"gamma_regularizer": null, "gamma_initializer": {"class_name": "Ones", "config": {}}, "gamma_constraint": null, "name": "batch_normalization_79", "axis": 3, "moving_mean_initializer": {"class_name": "Zeros", "config": {}}, "scale": true, "beta_regularizer": null, "beta_constraint": null, "epsilon": 0.001, "beta_initializer": {"class_name": "Zeros", "config": {}}, "trainable": true, "momentum": 0.99, "moving_variance_initializer": {"class_name": "Ones", "config": {}}, "center": true}}, {"class_name": "BatchNormalization", "inbound_nodes": [[["conv2d_80", 0, 0, {}]]], "name": "batch_normalization_80", "config": {"gamma_regularizer": null, "gamma_initializer": {"class_name": "Ones", "config": {}}, "gamma_constraint": null, "name": "batch_normalization_80", "axis": 3, "moving_mean_initializer": {"class_name": "Zeros", "config": {}}, "scale": true, "beta_regularizer": null, "beta_constraint": null, "epsilon": 0.001, "beta_initializer": {"class_name": "Zeros", "config": {}}, "trainable": true, "momentum": 0.99, "moving_variance_initializer": {"class_name": "Ones", "config": {}}, "center": true}}, {"class_name": "BatchNormalization", "inbound_nodes": [[["conv2d_83", 0, 0, {}]]], "name": "batch_normalization_83", "config": {"gamma_regularizer": null, "gamma_initializer": {"class_name": "Ones", "config": {}}, "gamma_constraint": null, "name": "batch_normalization_83", "axis": 3, "moving_mean_initializer": {"class_name": "Zeros", "config": {}}, "scale": true, "beta_regularizer": null, "beta_constraint": null, "epsilon": 0.001, "beta_initializer": {"class_name": "Zeros", "config": {}}, "trainable": true, "momentum": 0.99, "moving_variance_initializer": {"class_name": "Ones", "config": {}}, "center": true}}, {"class_name": "BatchNormalization", "inbound_nodes": [[["conv2d_84", 0, 0, {}]]], "name": "batch_normalization_84", "config": {"gamma_regularizer": null, "gamma_initializer": {"class_name": "Ones", "config": {}}, "gamma_constraint": null, "name": "batch_normalization_84", "axis": 3, "moving_mean_initializer": {"class_name": "Zeros", "config": {}}, "scale": true, "beta_regularizer": null, "beta_constraint": null, "epsilon": 0.001, "beta_initializer": {"class_name": "Zeros", "config": {}}, "trainable": true, "momentum": 0.99, "moving_variance_initializer": {"class_name": "Ones", "config": {}}, "center": true}}, {"class_name": "Conv2D", "inbound_nodes": [[["average_pooling2d_9", 0, 0, {}]]], "name": "conv2d_85", "config": {"kernel_initializer": {"class_name": "VarianceScaling", "config": {"mode": "fan_avg", "seed": null, "scale": 1.0, "distribution": "uniform"}}, "activity_regularizer": null, "use_bias": true, "activation": "relu", "bias_initializer": {"class_name": "Zeros", "config": {}}, "data_format": "channels_last", "bias_constraint": null, "strides": [1, 1], "kernel_constraint": null, "name": "conv2d_85", "trainable": true, "filters": 96, "dilation_rate": [1, 1], "kernel_size": [1, 1], "kernel_regularizer": null, "padding": "same", "bias_regularizer": null}}, {"class_name": "BatchNormalization", "inbound_nodes": [[["conv2d_77", 0, 0, {}]]], "name": "batch_normalization_77", "config": {"gamma_regularizer": null, "gamma_initializer": {"class_name": "Ones", "config": {}}, "gamma_constraint": null, "name": "batch_normalization_77", "axis": 3, "moving_mean_initializer": {"class_name": "Zeros", "config": {}}, "scale": true, "beta_regularizer": null, "beta_constraint": null, "epsilon": 0.001, "beta_initializer": {"class_name": "Zeros", "config": {}}, "trainable": true, "momentum": 0.99, "moving_variance_initializer": {"class_name": "Ones", "config": {}}, "center": true}}, {"class_name": "Concatenate", "inbound_nodes": [[["batch_normalization_79", 0, 0, {}], ["batch_normalization_80", 0, 0, {}]]], "name": "mixed9_0", "config": {"axis": -1, "name": "mixed9_0", "trainable": true}}, {"class_name": "Concatenate", "inbound_nodes": [[["batch_normalization_83", 0, 0, {}], ["batch_normalization_84", 0, 0, {}]]], "name": "concatenate_1", "config": {"axis": -1, "name": "concatenate_1", "trainable": true}}, {"class_name": "BatchNormalization", "inbound_nodes": [[["conv2d_85", 0, 0, {}]]], "name": "batch_normalization_85", "config": {"gamma_regularizer": null, "gamma_initializer": {"class_name": "Ones", "config": {}}, "gamma_constraint": null, "name": "batch_normalization_85", "axis": 3, "moving_mean_initializer": {"class_name": "Zeros", "config": {}}, "scale": true, "beta_regularizer": null, "beta_constraint": null, "epsilon": 0.001, "beta_initializer": {"class_name": "Zeros", "config": {}}, "trainable": true, "momentum": 0.99, "moving_variance_initializer": {"class_name": "Ones", "config": {}}, "center": true}}, {"class_name": "Concatenate", "inbound_nodes": [[["batch_normalization_77", 0, 0, {}], ["mixed9_0", 0, 0, {}], ["concatenate_1", 0, 0, {}], ["batch_normalization_85", 0, 0, {}]]], "name": "mixed9", "config": {"axis": -1, "name": "mixed9", "trainable": true}}, {"class_name": "Conv2D", "inbound_nodes": [[["mixed9", 0, 0, {}]]], "name": "conv2d_90", "config": {"kernel_initializer": {"class_name": "VarianceScaling", "config": {"mode": "fan_avg", "seed": null, "scale": 1.0, "distribution": "uniform"}}, "activity_regularizer": null, "use_bias": true, "activation": "relu", "bias_initializer": {"class_name": "Zeros", "config": {}}, "data_format": "channels_last", "bias_constraint": null, "strides": [1, 1], "kernel_constraint": null, "name": "conv2d_90", "trainable": true, "filters": 224, "dilation_rate": [1, 1], "kernel_size": [1, 1], "kernel_regularizer": null, "padding": "same", "bias_regularizer": null}}, {"class_name": "BatchNormalization", "inbound_nodes": [[["conv2d_90", 0, 0, {}]]], "name": "batch_normalization_90", "config": {"gamma_regularizer": null, "gamma_initializer": {"class_name": "Ones", "config": {}}, "gamma_constraint": null, "name": "batch_normalization_90", "axis": 3, "moving_mean_initializer": {"class_name": "Zeros", "config": {}}, "scale": true, "beta_regularizer": null, "beta_constraint": null, "epsilon": 0.001, "beta_initializer": {"class_name": "Zeros", "config": {}}, "trainable": true, "momentum": 0.99, "moving_variance_initializer": {"class_name": "Ones", "config": {}}, "center": true}}, {"class_name": "Conv2D", "inbound_nodes": [[["mixed9", 0, 0, {}]]], "name": "conv2d_87", "config": {"kernel_initializer": {"class_name": "VarianceScaling", "config": {"mode": "fan_avg", "seed": null, "scale": 1.0, "distribution": "uniform"}}, "activity_regularizer": null, "use_bias": true, "activation": "relu", "bias_initializer": {"class_name": "Zeros", "config": {}}, "data_format": "channels_last", "bias_constraint": null, "strides": [1, 1], "kernel_constraint": null, "name": "conv2d_87", "trainable": true, "filters": 192, "dilation_rate": [1, 1], "kernel_size": [1, 1], "kernel_regularizer": null, "padding": "same", "bias_regularizer": null}}, {"class_name": "Conv2D", "inbound_nodes": [[["batch_normalization_90", 0, 0, {}]]], "name": "conv2d_91", "config": {"kernel_initializer": {"class_name": "VarianceScaling", "config": {"mode": "fan_avg", "seed": null, "scale": 1.0, "distribution": "uniform"}}, "activity_regularizer": null, "use_bias": true, "activation": "relu", "bias_initializer": {"class_name": "Zeros", "config": {}}, "data_format": "channels_last", "bias_constraint": null, "strides": [1, 1], "kernel_constraint": null, "name": "conv2d_91", "trainable": true, "filters": 192, "dilation_rate": [1, 1], "kernel_size": [3, 3], "kernel_regularizer": null, "padding": "same", "bias_regularizer": null}}, {"class_name": "BatchNormalization", "inbound_nodes": [[["conv2d_87", 0, 0, {}]]], "name": "batch_normalization_87", "config": {"gamma_regularizer": null, "gamma_initializer": {"class_name": "Ones", "config": {}}, "gamma_constraint": null, "name": "batch_normalization_87", "axis": 3, "moving_mean_initializer": {"class_name": "Zeros", "config": {}}, "scale": true, "beta_regularizer": null, "beta_constraint": null, "epsilon": 0.001, "beta_initializer": {"class_name": "Zeros", "config": {}}, "trainable": true, "momentum": 0.99, "moving_variance_initializer": {"class_name": "Ones", "config": {}}, "center": true}}, {"class_name": "BatchNormalization", "inbound_nodes": [[["conv2d_91", 0, 0, {}]]], "name": "batch_normalization_91", "config": {"gamma_regularizer": null, "gamma_initializer": {"class_name": "Ones", "config": {}}, "gamma_constraint": null, "name": "batch_normalization_91", "axis": 3, "moving_mean_initializer": {"class_name": "Zeros", "config": {}}, "scale": true, "beta_regularizer": null, "beta_constraint": null, "epsilon": 0.001, "beta_initializer": {"class_name": "Zeros", "config": {}}, "trainable": true, "momentum": 0.99, "moving_variance_initializer": {"class_name": "Ones", "config": {}}, "center": true}}, {"class_name": "Conv2D", "inbound_nodes": [[["batch_normalization_87", 0, 0, {}]]], "name": "conv2d_88", "config": {"kernel_initializer": {"class_name": "VarianceScaling", "config": {"mode": "fan_avg", "seed": null, "scale": 1.0, "distribution": "uniform"}}, "activity_regularizer": null, "use_bias": true, "activation": "relu", "bias_initializer": {"class_name": "Zeros", "config": {}}, "data_format": "channels_last", "bias_constraint": null, "strides": [1, 1], "kernel_constraint": null, "name": "conv2d_88", "trainable": true, "filters": 192, "dilation_rate": [1, 1], "kernel_size": [1, 3], "kernel_regularizer": null, "padding": "same", "bias_regularizer": null}}, {"class_name": "Conv2D", "inbound_nodes": [[["batch_normalization_87", 0, 0, {}]]], "name": "conv2d_89", "config": {"kernel_initializer": {"class_name": "VarianceScaling", "config": {"mode": "fan_avg", "seed": null, "scale": 1.0, "distribution": "uniform"}}, "activity_regularizer": null, "use_bias": true, "activation": "relu", "bias_initializer": {"class_name": "Zeros", "config": {}}, "data_format": "channels_last", "bias_constraint": null, "strides": [1, 1], "kernel_constraint": null, "name": "conv2d_89", "trainable": true, "filters": 192, "dilation_rate": [1, 1], "kernel_size": [3, 1], "kernel_regularizer": null, "padding": "same", "bias_regularizer": null}}, {"class_name": "Conv2D", "inbound_nodes": [[["batch_normalization_91", 0, 0, {}]]], "name": "conv2d_92", "config": {"kernel_initializer": {"class_name": "VarianceScaling", "config": {"mode": "fan_avg", "seed": null, "scale": 1.0, "distribution": "uniform"}}, "activity_regularizer": null, "use_bias": true, "activation": "relu", "bias_initializer": {"class_name": "Zeros", "config": {}}, "data_format": "channels_last", "bias_constraint": null, "strides": [1, 1], "kernel_constraint": null, "name": "conv2d_92", "trainable": true, "filters": 192, "dilation_rate": [1, 1], "kernel_size": [1, 3], "kernel_regularizer": null, "padding": "same", "bias_regularizer": null}}, {"class_name": "Conv2D", "inbound_nodes": [[["batch_normalization_91", 0, 0, {}]]], "name": "conv2d_93", "config": {"kernel_initializer": {"class_name": "VarianceScaling", "config": {"mode": "fan_avg", "seed": null, "scale": 1.0, "distribution": "uniform"}}, "activity_regularizer": null, "use_bias": true, "activation": "relu", "bias_initializer": {"class_name": "Zeros", "config": {}}, "data_format": "channels_last", "bias_constraint": null, "strides": [1, 1], "kernel_constraint": null, "name": "conv2d_93", "trainable": true, "filters": 192, "dilation_rate": [1, 1], "kernel_size": [3, 1], "kernel_regularizer": null, "padding": "same", "bias_regularizer": null}}, {"class_name": "AveragePooling2D", "inbound_nodes": [[["mixed9", 0, 0, {}]]], "name": "average_pooling2d_10", "config": {"name": "average_pooling2d_10", "trainable": true, "data_format": "channels_last", "padding": "same", "strides": [1, 1], "pool_size": [3, 3]}}, {"class_name": "Conv2D", "inbound_nodes": [[["mixed9", 0, 0, {}]]], "name": "conv2d_86", "config": {"kernel_initializer": {"class_name": "VarianceScaling", "config": {"mode": "fan_avg", "seed": null, "scale": 1.0, "distribution": "uniform"}}, "activity_regularizer": null, "use_bias": true, "activation": "relu", "bias_initializer": {"class_name": "Zeros", "config": {}}, "data_format": "channels_last", "bias_constraint": null, "strides": [1, 1], "kernel_constraint": null, "name": "conv2d_86", "trainable": true, "filters": 160, "dilation_rate": [1, 1], "kernel_size": [1, 1], "kernel_regularizer": null, "padding": "same", "bias_regularizer": null}}, {"class_name": "BatchNormalization", "inbound_nodes": [[["conv2d_88", 0, 0, {}]]], "name": "batch_normalization_88", "config": {"gamma_regularizer": null, "gamma_initializer": {"class_name": "Ones", "config": {}}, "gamma_constraint": null, "name": "batch_normalization_88", "axis": 3, "moving_mean_initializer": {"class_name": "Zeros", "config": {}}, "scale": true, "beta_regularizer": null, "beta_constraint": null, "epsilon": 0.001, "beta_initializer": {"class_name": "Zeros", "config": {}}, "trainable": true, "momentum": 0.99, "moving_variance_initializer": {"class_name": "Ones", "config": {}}, "center": true}}, {"class_name": "BatchNormalization", "inbound_nodes": [[["conv2d_89", 0, 0, {}]]], "name": "batch_normalization_89", "config": {"gamma_regularizer": null, "gamma_initializer": {"class_name": "Ones", "config": {}}, "gamma_constraint": null, "name": "batch_normalization_89", "axis": 3, "moving_mean_initializer": {"class_name": "Zeros", "config": {}}, "scale": true, "beta_regularizer": null, "beta_constraint": null, "epsilon": 0.001, "beta_initializer": {"class_name": "Zeros", "config": {}}, "trainable": true, "momentum": 0.99, "moving_variance_initializer": {"class_name": "Ones", "config": {}}, "center": true}}, {"class_name": "BatchNormalization", "inbound_nodes": [[["conv2d_92", 0, 0, {}]]], "name": "batch_normalization_92", "config": {"gamma_regularizer": null, "gamma_initializer": {"class_name": "Ones", "config": {}}, "gamma_constraint": null, "name": "batch_normalization_92", "axis": 3, "moving_mean_initializer": {"class_name": "Zeros", "config": {}}, "scale": true, "beta_regularizer": null, "beta_constraint": null, "epsilon": 0.001, "beta_initializer": {"class_name": "Zeros", "config": {}}, "trainable": true, "momentum": 0.99, "moving_variance_initializer": {"class_name": "Ones", "config": {}}, "center": true}}, {"class_name": "BatchNormalization", "inbound_nodes": [[["conv2d_93", 0, 0, {}]]], "name": "batch_normalization_93", "config": {"gamma_regularizer": null, "gamma_initializer": {"class_name": "Ones", "config": {}}, "gamma_constraint": null, "name": "batch_normalization_93", "axis": 3, "moving_mean_initializer": {"class_name": "Zeros", "config": {}}, "scale": true, "beta_regularizer": null, "beta_constraint": null, "epsilon": 0.001, "beta_initializer": {"class_name": "Zeros", "config": {}}, "trainable": true, "momentum": 0.99, "moving_variance_initializer": {"class_name": "Ones", "config": {}}, "center": true}}, {"class_name": "Conv2D", "inbound_nodes": [[["average_pooling2d_10", 0, 0, {}]]], "name": "conv2d_94", "config": {"kernel_initializer": {"class_name": "VarianceScaling", "config": {"mode": "fan_avg", "seed": null, "scale": 1.0, "distribution": "uniform"}}, "activity_regularizer": null, "use_bias": true, "activation": "relu", "bias_initializer": {"class_name": "Zeros", "config": {}}, "data_format": "channels_last", "bias_constraint": null, "strides": [1, 1], "kernel_constraint": null, "name": "conv2d_94", "trainable": true, "filters": 96, "dilation_rate": [1, 1], "kernel_size": [1, 1], "kernel_regularizer": null, "padding": "same", "bias_regularizer": null}}, {"class_name": "BatchNormalization", "inbound_nodes": [[["conv2d_86", 0, 0, {}]]], "name": "batch_normalization_86", "config": {"gamma_regularizer": null, "gamma_initializer": {"class_name": "Ones", "config": {}}, "gamma_constraint": null, "name": "batch_normalization_86", "axis": 3, "moving_mean_initializer": {"class_name": "Zeros", "config": {}}, "scale": true, "beta_regularizer": null, "beta_constraint": null, "epsilon": 0.001, "beta_initializer": {"class_name": "Zeros", "config": {}}, "trainable": true, "momentum": 0.99, "moving_variance_initializer": {"class_name": "Ones", "config": {}}, "center": true}}, {"class_name": "Concatenate", "inbound_nodes": [[["batch_normalization_88", 0, 0, {}], ["batch_normalization_89", 0, 0, {}]]], "name": "mixed9_1", "config": {"axis": -1, "name": "mixed9_1", "trainable": true}}, {"class_name": "Concatenate", "inbound_nodes": [[["batch_normalization_92", 0, 0, {}], ["batch_normalization_93", 0, 0, {}]]], "name": "concatenate_2", "config": {"axis": -1, "name": "concatenate_2", "trainable": true}}, {"class_name": "BatchNormalization", "inbound_nodes": [[["conv2d_94", 0, 0, {}]]], "name": "batch_normalization_94", "config": {"gamma_regularizer": null, "gamma_initializer": {"class_name": "Ones", "config": {}}, "gamma_constraint": null, "name": "batch_normalization_94", "axis": 3, "moving_mean_initializer": {"class_name": "Zeros", "config": {}}, "scale": true, "beta_regularizer": null, "beta_constraint": null, "epsilon": 0.001, "beta_initializer": {"class_name": "Zeros", "config": {}}, "trainable": true, "momentum": 0.99, "moving_variance_initializer": {"class_name": "Ones", "config": {}}, "center": true}}, {"class_name": "Concatenate", "inbound_nodes": [[["batch_normalization_86", 0, 0, {}], ["mixed9_1", 0, 0, {}], ["concatenate_2", 0, 0, {}], ["batch_normalization_94", 0, 0, {}]]], "name": "mixed10", "config": {"axis": -1, "name": "mixed10", "trainable": true}}, {"class_name": "MaxPooling2D", "inbound_nodes": [[["mixed10", 0, 0, {}]]], "name": "end_max_pool", "config": {"name": "end_max_pool", "trainable": true, "data_format": "channels_last", "padding": "valid", "strides": [2, 2], "pool_size": [2, 2]}}, {"class_name": "Flatten", "inbound_nodes": [[["end_max_pool", 0, 0, {}]]], "name": "flatten", "config": {"name": "flatten", "trainable": true}}, {"class_name": "Dense", "inbound_nodes": [[["flatten", 0, 0, {}]]], "name": "output_layer", "config": {"kernel_initializer": {"class_name": "VarianceScaling", "config": {"mode": "fan_avg", "seed": null, "scale": 1.0, "distribution": "uniform"}}, "activity_regularizer": null, "use_bias": true, "units": 1, "activation": "sigmoid", "kernel_constraint": null, "bias_constraint": null, "name": "output_layer", "trainable": true, "kernel_regularizer": null, "bias_initializer": {"class_name": "Zeros", "config": {}}, "bias_regularizer": null}}], "input_layers": [["input_1", 0, 0]]}}