{"backend": "tensorflow", "keras_version": "2.0.6", "class_name": "Model", "config": {"name": "model_1", "output_layers": [["output_layer", 0, 0]], "layers": [{"name": "input_1", "config": {"batch_input_shape": [null, 1152, 832, 1], "sparse": false, "dtype": "float32", "name": "input_1"}, "class_name": "InputLayer", "inbound_nodes": []}, {"name": "conv2d_1", "config": {"bias_regularizer": null, "filters": 16, "dilation_rate": [1, 1], "activation": "relu", "name": "conv2d_1", "trainable": true, "kernel_constraint": null, "bias_constraint": null, "strides": [2, 2], "use_bias": true, "bias_initializer": {"class_name": "Zeros", "config": {}}, "data_format": "channels_last", "activity_regularizer": null, "padding": "valid", "kernel_initializer": {"class_name": "VarianceScaling", "config": {"mode": "fan_avg", "seed": null, "scale": 1.0, "distribution": "uniform"}}, "kernel_regularizer": null, "kernel_size": [3, 3]}, "class_name": "Conv2D", "inbound_nodes": [[["input_1", 0, 0, {}]]]}, {"name": "batch_normalization_1", "config": {"gamma_initializer": {"class_name": "Ones", "config": {}}, "beta_regularizer": null, "moving_mean_initializer": {"class_name": "Zeros", "config": {}}, "momentum": 0.99, "trainable": true, "beta_initializer": {"class_name": "Zeros", "config": {}}, "beta_constraint": null, "gamma_constraint": null, "moving_variance_initializer": {"class_name": "Ones", "config": {}}, "center": true, "name": "batch_normalization_1", "scale": true, "axis": 3, "gamma_regularizer": null, "epsilon": 0.001}, "class_name": "BatchNormalization", "inbound_nodes": [[["conv2d_1", 0, 0, {}]]]}, {"name": "conv2d_2", "config": {"bias_regularizer": null, "filters": 16, "dilation_rate": [1, 1], "activation": "relu", "name": "conv2d_2", "trainable": true, "kernel_constraint": null, "bias_constraint": null, "strides": [1, 1], "use_bias": true, "bias_initializer": {"class_name": "Zeros", "config": {}}, "data_format": "channels_last", "activity_regularizer": null, "padding": "valid", "kernel_initializer": {"class_name": "VarianceScaling", "config": {"mode": "fan_avg", "seed": null, "scale": 1.0, "distribution": "uniform"}}, "kernel_regularizer": null, "kernel_size": [3, 3]}, "class_name": "Conv2D", "inbound_nodes": [[["batch_normalization_1", 0, 0, {}]]]}, {"name": "batch_normalization_2", "config": {"gamma_initializer": {"class_name": "Ones", "config": {}}, "beta_regularizer": null, "moving_mean_initializer": {"class_name": "Zeros", "config": {}}, "momentum": 0.99, "trainable": true, "beta_initializer": {"class_name": "Zeros", "config": {}}, "beta_constraint": null, "gamma_constraint": null, "moving_variance_initializer": {"class_name": "Ones", "config": {}}, "center": true, "name": "batch_normalization_2", "scale": true, "axis": 3, "gamma_regularizer": null, "epsilon": 0.001}, "class_name": "BatchNormalization", "inbound_nodes": [[["conv2d_2", 0, 0, {}]]]}, {"name": "conv2d_3", "config": {"bias_regularizer": null, "filters": 32, "dilation_rate": [1, 1], "activation": "relu", "name": "conv2d_3", "trainable": true, "kernel_constraint": null, "bias_constraint": null, "strides": [1, 1], "use_bias": true, "bias_initializer": {"class_name": "Zeros", "config": {}}, "data_format": "channels_last", "activity_regularizer": null, "padding": "same", "kernel_initializer": {"class_name": "VarianceScaling", "config": {"mode": "fan_avg", "seed": null, "scale": 1.0, "distribution": "uniform"}}, "kernel_regularizer": null, "kernel_size": [3, 3]}, "class_name": "Conv2D", "inbound_nodes": [[["batch_normalization_2", 0, 0, {}]]]}, {"name": "batch_normalization_3", "config": {"gamma_initializer": {"class_name": "Ones", "config": {}}, "beta_regularizer": null, "moving_mean_initializer": {"class_name": "Zeros", "config": {}}, "momentum": 0.99, "trainable": true, "beta_initializer": {"class_name": "Zeros", "config": {}}, "beta_constraint": null, "gamma_constraint": null, "moving_variance_initializer": {"class_name": "Ones", "config": {}}, "center": true, "name": "batch_normalization_3", "scale": true, "axis": 3, "gamma_regularizer": null, "epsilon": 0.001}, "class_name": "BatchNormalization", "inbound_nodes": [[["conv2d_3", 0, 0, {}]]]}, {"name": "max_pooling2d_1", "config": {"name": "max_pooling2d_1", "padding": "valid", "strides": [2, 2], "trainable": true, "pool_size": [3, 3], "data_format": "channels_last"}, "class_name": "MaxPooling2D", "inbound_nodes": [[["batch_normalization_3", 0, 0, {}]]]}, {"name": "conv2d_4", "config": {"bias_regularizer": null, "filters": 40, "dilation_rate": [1, 1], "activation": "relu", "name": "conv2d_4", "trainable": true, "kernel_constraint": null, "bias_constraint": null, "strides": [1, 1], "use_bias": true, "bias_initializer": {"class_name": "Zeros", "config": {}}, "data_format": "channels_last", "activity_regularizer": null, "padding": "valid", "kernel_initializer": {"class_name": "VarianceScaling", "config": {"mode": "fan_avg", "seed": null, "scale": 1.0, "distribution": "uniform"}}, "kernel_regularizer": null, "kernel_size": [1, 1]}, "class_name": "Conv2D", "inbound_nodes": [[["max_pooling2d_1", 0, 0, {}]]]}, {"name": "batch_normalization_4", "config": {"gamma_initializer": {"class_name": "Ones", "config": {}}, "beta_regularizer": null, "moving_mean_initializer": {"class_name": "Zeros", "config": {}}, "momentum": 0.99, "trainable": true, "beta_initializer": {"class_name": "Zeros", "config": {}}, "beta_constraint": null, "gamma_constraint": null, "moving_variance_initializer": {"class_name": "Ones", "config": {}}, "center": true, "name": "batch_normalization_4", "scale": true, "axis": 3, "gamma_regularizer": null, "epsilon": 0.001}, "class_name": "BatchNormalization", "inbound_nodes": [[["conv2d_4", 0, 0, {}]]]}, {"name": "conv2d_5", "config": {"bias_regularizer": null, "filters": 96, "dilation_rate": [1, 1], "activation": "relu", "name": "conv2d_5", "trainable": true, "kernel_constraint": null, "bias_constraint": null, "strides": [1, 1], "use_bias": true, "bias_initializer": {"class_name": "Zeros", "config": {}}, "data_format": "channels_last", "activity_regularizer": null, "padding": "valid", "kernel_initializer": {"class_name": "VarianceScaling", "config": {"mode": "fan_avg", "seed": null, "scale": 1.0, "distribution": "uniform"}}, "kernel_regularizer": null, "kernel_size": [3, 3]}, "class_name": "Conv2D", "inbound_nodes": [[["batch_normalization_4", 0, 0, {}]]]}, {"name": "batch_normalization_5", "config": {"gamma_initializer": {"class_name": "Ones", "config": {}}, "beta_regularizer": null, "moving_mean_initializer": {"class_name": "Zeros", "config": {}}, "momentum": 0.99, "trainable": true, "beta_initializer": {"class_name": "Zeros", "config": {}}, "beta_constraint": null, "gamma_constraint": null, "moving_variance_initializer": {"class_name": "Ones", "config": {}}, "center": true, "name": "batch_normalization_5", "scale": true, "axis": 3, "gamma_regularizer": null, "epsilon": 0.001}, "class_name": "BatchNormalization", "inbound_nodes": [[["conv2d_5", 0, 0, {}]]]}, {"name": "max_pooling2d_2", "config": {"name": "max_pooling2d_2", "padding": "valid", "strides": [2, 2], "trainable": true, "pool_size": [3, 3], "data_format": "channels_last"}, "class_name": "MaxPooling2D", "inbound_nodes": [[["batch_normalization_5", 0, 0, {}]]]}, {"name": "conv2d_9", "config": {"bias_regularizer": null, "filters": 32, "dilation_rate": [1, 1], "activation": "relu", "name": "conv2d_9", "trainable": true, "kernel_constraint": null, "bias_constraint": null, "strides": [1, 1], "use_bias": true, "bias_initializer": {"class_name": "Zeros", "config": {}}, "data_format": "channels_last", "activity_regularizer": null, "padding": "same", "kernel_initializer": {"class_name": "VarianceScaling", "config": {"mode": "fan_avg", "seed": null, "scale": 1.0, "distribution": "uniform"}}, "kernel_regularizer": null, "kernel_size": [1, 1]}, "class_name": "Conv2D", "inbound_nodes": [[["max_pooling2d_2", 0, 0, {}]]]}, {"name": "batch_normalization_9", "config": {"gamma_initializer": {"class_name": "Ones", "config": {}}, "beta_regularizer": null, "moving_mean_initializer": {"class_name": "Zeros", "config": {}}, "momentum": 0.99, "trainable": true, "beta_initializer": {"class_name": "Zeros", "config": {}}, "beta_constraint": null, "gamma_constraint": null, "moving_variance_initializer": {"class_name": "Ones", "config": {}}, "center": true, "name": "batch_normalization_9", "scale": true, "axis": 3, "gamma_regularizer": null, "epsilon": 0.001}, "class_name": "BatchNormalization", "inbound_nodes": [[["conv2d_9", 0, 0, {}]]]}, {"name": "conv2d_7", "config": {"bias_regularizer": null, "filters": 24, "dilation_rate": [1, 1], "activation": "relu", "name": "conv2d_7", "trainable": true, "kernel_constraint": null, "bias_constraint": null, "strides": [1, 1], "use_bias": true, "bias_initializer": {"class_name": "Zeros", "config": {}}, "data_format": "channels_last", "activity_regularizer": null, "padding": "same", "kernel_initializer": {"class_name": "VarianceScaling", "config": {"mode": "fan_avg", "seed": null, "scale": 1.0, "distribution": "uniform"}}, "kernel_regularizer": null, "kernel_size": [1, 1]}, "class_name": "Conv2D", "inbound_nodes": [[["max_pooling2d_2", 0, 0, {}]]]}, {"name": "conv2d_10", "config": {"bias_regularizer": null, "filters": 48, "dilation_rate": [1, 1], "activation": "relu", "name": "conv2d_10", "trainable": true, "kernel_constraint": null, "bias_constraint": null, "strides": [1, 1], "use_bias": true, "bias_initializer": {"class_name": "Zeros", "config": {}}, "data_format": "channels_last", "activity_regularizer": null, "padding": "same", "kernel_initializer": {"class_name": "VarianceScaling", "config": {"mode": "fan_avg", "seed": null, "scale": 1.0, "distribution": "uniform"}}, "kernel_regularizer": null, "kernel_size": [3, 3]}, "class_name": "Conv2D", "inbound_nodes": [[["batch_normalization_9", 0, 0, {}]]]}, {"name": "batch_normalization_7", "config": {"gamma_initializer": {"class_name": "Ones", "config": {}}, "beta_regularizer": null, "moving_mean_initializer": {"class_name": "Zeros", "config": {}}, "momentum": 0.99, "trainable": true, "beta_initializer": {"class_name": "Zeros", "config": {}}, "beta_constraint": null, "gamma_constraint": null, "moving_variance_initializer": {"class_name": "Ones", "config": {}}, "center": true, "name": "batch_normalization_7", "scale": true, "axis": 3, "gamma_regularizer": null, "epsilon": 0.001}, "class_name": "BatchNormalization", "inbound_nodes": [[["conv2d_7", 0, 0, {}]]]}, {"name": "batch_normalization_10", "config": {"gamma_initializer": {"class_name": "Ones", "config": {}}, "beta_regularizer": null, "moving_mean_initializer": {"class_name": "Zeros", "config": {}}, "momentum": 0.99, "trainable": true, "beta_initializer": {"class_name": "Zeros", "config": {}}, "beta_constraint": null, "gamma_constraint": null, "moving_variance_initializer": {"class_name": "Ones", "config": {}}, "center": true, "name": "batch_normalization_10", "scale": true, "axis": 3, "gamma_regularizer": null, "epsilon": 0.001}, "class_name": "BatchNormalization", "inbound_nodes": [[["conv2d_10", 0, 0, {}]]]}, {"name": "average_pooling2d_1", "config": {"name": "average_pooling2d_1", "padding": "same", "strides": [1, 1], "trainable": true, "pool_size": [3, 3], "data_format": "channels_last"}, "class_name": "AveragePooling2D", "inbound_nodes": [[["max_pooling2d_2", 0, 0, {}]]]}, {"name": "conv2d_6", "config": {"bias_regularizer": null, "filters": 32, "dilation_rate": [1, 1], "activation": "relu", "name": "conv2d_6", "trainable": true, "kernel_constraint": null, "bias_constraint": null, "strides": [1, 1], "use_bias": true, "bias_initializer": {"class_name": "Zeros", "config": {}}, "data_format": "channels_last", "activity_regularizer": null, "padding": "same", "kernel_initializer": {"class_name": "VarianceScaling", "config": {"mode": "fan_avg", "seed": null, "scale": 1.0, "distribution": "uniform"}}, "kernel_regularizer": null, "kernel_size": [1, 1]}, "class_name": "Conv2D", "inbound_nodes": [[["max_pooling2d_2", 0, 0, {}]]]}, {"name": "conv2d_8", "config": {"bias_regularizer": null, "filters": 32, "dilation_rate": [1, 1], "activation": "relu", "name": "conv2d_8", "trainable": true, "kernel_constraint": null, "bias_constraint": null, "strides": [1, 1], "use_bias": true, "bias_initializer": {"class_name": "Zeros", "config": {}}, "data_format": "channels_last", "activity_regularizer": null, "padding": "same", "kernel_initializer": {"class_name": "VarianceScaling", "config": {"mode": "fan_avg", "seed": null, "scale": 1.0, "distribution": "uniform"}}, "kernel_regularizer": null, "kernel_size": [5, 5]}, "class_name": "Conv2D", "inbound_nodes": [[["batch_normalization_7", 0, 0, {}]]]}, {"name": "conv2d_11", "config": {"bias_regularizer": null, "filters": 48, "dilation_rate": [1, 1], "activation": "relu", "name": "conv2d_11", "trainable": true, "kernel_constraint": null, "bias_constraint": null, "strides": [1, 1], "use_bias": true, "bias_initializer": {"class_name": "Zeros", "config": {}}, "data_format": "channels_last", "activity_regularizer": null, "padding": "same", "kernel_initializer": {"class_name": "VarianceScaling", "config": {"mode": "fan_avg", "seed": null, "scale": 1.0, "distribution": "uniform"}}, "kernel_regularizer": null, "kernel_size": [3, 3]}, "class_name": "Conv2D", "inbound_nodes": [[["batch_normalization_10", 0, 0, {}]]]}, {"name": "conv2d_12", "config": {"bias_regularizer": null, "filters": 16, "dilation_rate": [1, 1], "activation": "relu", "name": "conv2d_12", "trainable": true, "kernel_constraint": null, "bias_constraint": null, "strides": [1, 1], "use_bias": true, "bias_initializer": {"class_name": "Zeros", "config": {}}, "data_format": "channels_last", "activity_regularizer": null, "padding": "same", "kernel_initializer": {"class_name": "VarianceScaling", "config": {"mode": "fan_avg", "seed": null, "scale": 1.0, "distribution": "uniform"}}, "kernel_regularizer": null, "kernel_size": [1, 1]}, "class_name": "Conv2D", "inbound_nodes": [[["average_pooling2d_1", 0, 0, {}]]]}, {"name": "batch_normalization_6", "config": {"gamma_initializer": {"class_name": "Ones", "config": {}}, "beta_regularizer": null, "moving_mean_initializer": {"class_name": "Zeros", "config": {}}, "momentum": 0.99, "trainable": true, "beta_initializer": {"class_name": "Zeros", "config": {}}, "beta_constraint": null, "gamma_constraint": null, "moving_variance_initializer": {"class_name": "Ones", "config": {}}, "center": true, "name": "batch_normalization_6", "scale": true, "axis": 3, "gamma_regularizer": null, "epsilon": 0.001}, "class_name": "BatchNormalization", "inbound_nodes": [[["conv2d_6", 0, 0, {}]]]}, {"name": "batch_normalization_8", "config": {"gamma_initializer": {"class_name": "Ones", "config": {}}, "beta_regularizer": null, "moving_mean_initializer": {"class_name": "Zeros", "config": {}}, "momentum": 0.99, "trainable": true, "beta_initializer": {"class_name": "Zeros", "config": {}}, "beta_constraint": null, "gamma_constraint": null, "moving_variance_initializer": {"class_name": "Ones", "config": {}}, "center": true, "name": "batch_normalization_8", "scale": true, "axis": 3, "gamma_regularizer": null, "epsilon": 0.001}, "class_name": "BatchNormalization", "inbound_nodes": [[["conv2d_8", 0, 0, {}]]]}, {"name": "batch_normalization_11", "config": {"gamma_initializer": {"class_name": "Ones", "config": {}}, "beta_regularizer": null, "moving_mean_initializer": {"class_name": "Zeros", "config": {}}, "momentum": 0.99, "trainable": true, "beta_initializer": {"class_name": "Zeros", "config": {}}, "beta_constraint": null, "gamma_constraint": null, "moving_variance_initializer": {"class_name": "Ones", "config": {}}, "center": true, "name": "batch_normalization_11", "scale": true, "axis": 3, "gamma_regularizer": null, "epsilon": 0.001}, "class_name": "BatchNormalization", "inbound_nodes": [[["conv2d_11", 0, 0, {}]]]}, {"name": "batch_normalization_12", "config": {"gamma_initializer": {"class_name": "Ones", "config": {}}, "beta_regularizer": null, "moving_mean_initializer": {"class_name": "Zeros", "config": {}}, "momentum": 0.99, "trainable": true, "beta_initializer": {"class_name": "Zeros", "config": {}}, "beta_constraint": null, "gamma_constraint": null, "moving_variance_initializer": {"class_name": "Ones", "config": {}}, "center": true, "name": "batch_normalization_12", "scale": true, "axis": 3, "gamma_regularizer": null, "epsilon": 0.001}, "class_name": "BatchNormalization", "inbound_nodes": [[["conv2d_12", 0, 0, {}]]]}, {"name": "mixed0", "config": {"trainable": true, "name": "mixed0", "axis": -1}, "class_name": "Concatenate", "inbound_nodes": [[["batch_normalization_6", 0, 0, {}], ["batch_normalization_8", 0, 0, {}], ["batch_normalization_11", 0, 0, {}], ["batch_normalization_12", 0, 0, {}]]]}, {"name": "conv2d_16", "config": {"bias_regularizer": null, "filters": 32, "dilation_rate": [1, 1], "activation": "relu", "name": "conv2d_16", "trainable": true, "kernel_constraint": null, "bias_constraint": null, "strides": [1, 1], "use_bias": true, "bias_initializer": {"class_name": "Zeros", "config": {}}, "data_format": "channels_last", "activity_regularizer": null, "padding": "same", "kernel_initializer": {"class_name": "VarianceScaling", "config": {"mode": "fan_avg", "seed": null, "scale": 1.0, "distribution": "uniform"}}, "kernel_regularizer": null, "kernel_size": [1, 1]}, "class_name": "Conv2D", "inbound_nodes": [[["mixed0", 0, 0, {}]]]}, {"name": "batch_normalization_16", "config": {"gamma_initializer": {"class_name": "Ones", "config": {}}, "beta_regularizer": null, "moving_mean_initializer": {"class_name": "Zeros", "config": {}}, "momentum": 0.99, "trainable": true, "beta_initializer": {"class_name": "Zeros", "config": {}}, "beta_constraint": null, "gamma_constraint": null, "moving_variance_initializer": {"class_name": "Ones", "config": {}}, "center": true, "name": "batch_normalization_16", "scale": true, "axis": 3, "gamma_regularizer": null, "epsilon": 0.001}, "class_name": "BatchNormalization", "inbound_nodes": [[["conv2d_16", 0, 0, {}]]]}, {"name": "conv2d_14", "config": {"bias_regularizer": null, "filters": 24, "dilation_rate": [1, 1], "activation": "relu", "name": "conv2d_14", "trainable": true, "kernel_constraint": null, "bias_constraint": null, "strides": [1, 1], "use_bias": true, "bias_initializer": {"class_name": "Zeros", "config": {}}, "data_format": "channels_last", "activity_regularizer": null, "padding": "same", "kernel_initializer": {"class_name": "VarianceScaling", "config": {"mode": "fan_avg", "seed": null, "scale": 1.0, "distribution": "uniform"}}, "kernel_regularizer": null, "kernel_size": [1, 1]}, "class_name": "Conv2D", "inbound_nodes": [[["mixed0", 0, 0, {}]]]}, {"name": "conv2d_17", "config": {"bias_regularizer": null, "filters": 48, "dilation_rate": [1, 1], "activation": "relu", "name": "conv2d_17", "trainable": true, "kernel_constraint": null, "bias_constraint": null, "strides": [1, 1], "use_bias": true, "bias_initializer": {"class_name": "Zeros", "config": {}}, "data_format": "channels_last", "activity_regularizer": null, "padding": "same", "kernel_initializer": {"class_name": "VarianceScaling", "config": {"mode": "fan_avg", "seed": null, "scale": 1.0, "distribution": "uniform"}}, "kernel_regularizer": null, "kernel_size": [3, 3]}, "class_name": "Conv2D", "inbound_nodes": [[["batch_normalization_16", 0, 0, {}]]]}, {"name": "batch_normalization_14", "config": {"gamma_initializer": {"class_name": "Ones", "config": {}}, "beta_regularizer": null, "moving_mean_initializer": {"class_name": "Zeros", "config": {}}, "momentum": 0.99, "trainable": true, "beta_initializer": {"class_name": "Zeros", "config": {}}, "beta_constraint": null, "gamma_constraint": null, "moving_variance_initializer": {"class_name": "Ones", "config": {}}, "center": true, "name": "batch_normalization_14", "scale": true, "axis": 3, "gamma_regularizer": null, "epsilon": 0.001}, "class_name": "BatchNormalization", "inbound_nodes": [[["conv2d_14", 0, 0, {}]]]}, {"name": "batch_normalization_17", "config": {"gamma_initializer": {"class_name": "Ones", "config": {}}, "beta_regularizer": null, "moving_mean_initializer": {"class_name": "Zeros", "config": {}}, "momentum": 0.99, "trainable": true, "beta_initializer": {"class_name": "Zeros", "config": {}}, "beta_constraint": null, "gamma_constraint": null, "moving_variance_initializer": {"class_name": "Ones", "config": {}}, "center": true, "name": "batch_normalization_17", "scale": true, "axis": 3, "gamma_regularizer": null, "epsilon": 0.001}, "class_name": "BatchNormalization", "inbound_nodes": [[["conv2d_17", 0, 0, {}]]]}, {"name": "average_pooling2d_2", "config": {"name": "average_pooling2d_2", "padding": "same", "strides": [1, 1], "trainable": true, "pool_size": [3, 3], "data_format": "channels_last"}, "class_name": "AveragePooling2D", "inbound_nodes": [[["mixed0", 0, 0, {}]]]}, {"name": "conv2d_13", "config": {"bias_regularizer": null, "filters": 32, "dilation_rate": [1, 1], "activation": "relu", "name": "conv2d_13", "trainable": true, "kernel_constraint": null, "bias_constraint": null, "strides": [1, 1], "use_bias": true, "bias_initializer": {"class_name": "Zeros", "config": {}}, "data_format": "channels_last", "activity_regularizer": null, "padding": "same", "kernel_initializer": {"class_name": "VarianceScaling", "config": {"mode": "fan_avg", "seed": null, "scale": 1.0, "distribution": "uniform"}}, "kernel_regularizer": null, "kernel_size": [1, 1]}, "class_name": "Conv2D", "inbound_nodes": [[["mixed0", 0, 0, {}]]]}, {"name": "conv2d_15", "config": {"bias_regularizer": null, "filters": 32, "dilation_rate": [1, 1], "activation": "relu", "name": "conv2d_15", "trainable": true, "kernel_constraint": null, "bias_constraint": null, "strides": [1, 1], "use_bias": true, "bias_initializer": {"class_name": "Zeros", "config": {}}, "data_format": "channels_last", "activity_regularizer": null, "padding": "same", "kernel_initializer": {"class_name": "VarianceScaling", "config": {"mode": "fan_avg", "seed": null, "scale": 1.0, "distribution": "uniform"}}, "kernel_regularizer": null, "kernel_size": [5, 5]}, "class_name": "Conv2D", "inbound_nodes": [[["batch_normalization_14", 0, 0, {}]]]}, {"name": "conv2d_18", "config": {"bias_regularizer": null, "filters": 48, "dilation_rate": [1, 1], "activation": "relu", "name": "conv2d_18", "trainable": true, "kernel_constraint": null, "bias_constraint": null, "strides": [1, 1], "use_bias": true, "bias_initializer": {"class_name": "Zeros", "config": {}}, "data_format": "channels_last", "activity_regularizer": null, "padding": "same", "kernel_initializer": {"class_name": "VarianceScaling", "config": {"mode": "fan_avg", "seed": null, "scale": 1.0, "distribution": "uniform"}}, "kernel_regularizer": null, "kernel_size": [3, 3]}, "class_name": "Conv2D", "inbound_nodes": [[["batch_normalization_17", 0, 0, {}]]]}, {"name": "conv2d_19", "config": {"bias_regularizer": null, "filters": 16, "dilation_rate": [1, 1], "activation": "relu", "name": "conv2d_19", "trainable": true, "kernel_constraint": null, "bias_constraint": null, "strides": [1, 1], "use_bias": true, "bias_initializer": {"class_name": "Zeros", "config": {}}, "data_format": "channels_last", "activity_regularizer": null, "padding": "same", "kernel_initializer": {"class_name": "VarianceScaling", "config": {"mode": "fan_avg", "seed": null, "scale": 1.0, "distribution": "uniform"}}, "kernel_regularizer": null, "kernel_size": [1, 1]}, "class_name": "Conv2D", "inbound_nodes": [[["average_pooling2d_2", 0, 0, {}]]]}, {"name": "batch_normalization_13", "config": {"gamma_initializer": {"class_name": "Ones", "config": {}}, "beta_regularizer": null, "moving_mean_initializer": {"class_name": "Zeros", "config": {}}, "momentum": 0.99, "trainable": true, "beta_initializer": {"class_name": "Zeros", "config": {}}, "beta_constraint": null, "gamma_constraint": null, "moving_variance_initializer": {"class_name": "Ones", "config": {}}, "center": true, "name": "batch_normalization_13", "scale": true, "axis": 3, "gamma_regularizer": null, "epsilon": 0.001}, "class_name": "BatchNormalization", "inbound_nodes": [[["conv2d_13", 0, 0, {}]]]}, {"name": "batch_normalization_15", "config": {"gamma_initializer": {"class_name": "Ones", "config": {}}, "beta_regularizer": null, "moving_mean_initializer": {"class_name": "Zeros", "config": {}}, "momentum": 0.99, "trainable": true, "beta_initializer": {"class_name": "Zeros", "config": {}}, "beta_constraint": null, "gamma_constraint": null, "moving_variance_initializer": {"class_name": "Ones", "config": {}}, "center": true, "name": "batch_normalization_15", "scale": true, "axis": 3, "gamma_regularizer": null, "epsilon": 0.001}, "class_name": "BatchNormalization", "inbound_nodes": [[["conv2d_15", 0, 0, {}]]]}, {"name": "batch_normalization_18", "config": {"gamma_initializer": {"class_name": "Ones", "config": {}}, "beta_regularizer": null, "moving_mean_initializer": {"class_name": "Zeros", "config": {}}, "momentum": 0.99, "trainable": true, "beta_initializer": {"class_name": "Zeros", "config": {}}, "beta_constraint": null, "gamma_constraint": null, "moving_variance_initializer": {"class_name": "Ones", "config": {}}, "center": true, "name": "batch_normalization_18", "scale": true, "axis": 3, "gamma_regularizer": null, "epsilon": 0.001}, "class_name": "BatchNormalization", "inbound_nodes": [[["conv2d_18", 0, 0, {}]]]}, {"name": "batch_normalization_19", "config": {"gamma_initializer": {"class_name": "Ones", "config": {}}, "beta_regularizer": null, "moving_mean_initializer": {"class_name": "Zeros", "config": {}}, "momentum": 0.99, "trainable": true, "beta_initializer": {"class_name": "Zeros", "config": {}}, "beta_constraint": null, "gamma_constraint": null, "moving_variance_initializer": {"class_name": "Ones", "config": {}}, "center": true, "name": "batch_normalization_19", "scale": true, "axis": 3, "gamma_regularizer": null, "epsilon": 0.001}, "class_name": "BatchNormalization", "inbound_nodes": [[["conv2d_19", 0, 0, {}]]]}, {"name": "mixed1", "config": {"trainable": true, "name": "mixed1", "axis": -1}, "class_name": "Concatenate", "inbound_nodes": [[["batch_normalization_13", 0, 0, {}], ["batch_normalization_15", 0, 0, {}], ["batch_normalization_18", 0, 0, {}], ["batch_normalization_19", 0, 0, {}]]]}, {"name": "conv2d_23", "config": {"bias_regularizer": null, "filters": 32, "dilation_rate": [1, 1], "activation": "relu", "name": "conv2d_23", "trainable": true, "kernel_constraint": null, "bias_constraint": null, "strides": [1, 1], "use_bias": true, "bias_initializer": {"class_name": "Zeros", "config": {}}, "data_format": "channels_last", "activity_regularizer": null, "padding": "same", "kernel_initializer": {"class_name": "VarianceScaling", "config": {"mode": "fan_avg", "seed": null, "scale": 1.0, "distribution": "uniform"}}, "kernel_regularizer": null, "kernel_size": [1, 1]}, "class_name": "Conv2D", "inbound_nodes": [[["mixed1", 0, 0, {}]]]}, {"name": "batch_normalization_23", "config": {"gamma_initializer": {"class_name": "Ones", "config": {}}, "beta_regularizer": null, "moving_mean_initializer": {"class_name": "Zeros", "config": {}}, "momentum": 0.99, "trainable": true, "beta_initializer": {"class_name": "Zeros", "config": {}}, "beta_constraint": null, "gamma_constraint": null, "moving_variance_initializer": {"class_name": "Ones", "config": {}}, "center": true, "name": "batch_normalization_23", "scale": true, "axis": 3, "gamma_regularizer": null, "epsilon": 0.001}, "class_name": "BatchNormalization", "inbound_nodes": [[["conv2d_23", 0, 0, {}]]]}, {"name": "conv2d_21", "config": {"bias_regularizer": null, "filters": 24, "dilation_rate": [1, 1], "activation": "relu", "name": "conv2d_21", "trainable": true, "kernel_constraint": null, "bias_constraint": null, "strides": [1, 1], "use_bias": true, "bias_initializer": {"class_name": "Zeros", "config": {}}, "data_format": "channels_last", "activity_regularizer": null, "padding": "same", "kernel_initializer": {"class_name": "VarianceScaling", "config": {"mode": "fan_avg", "seed": null, "scale": 1.0, "distribution": "uniform"}}, "kernel_regularizer": null, "kernel_size": [1, 1]}, "class_name": "Conv2D", "inbound_nodes": [[["mixed1", 0, 0, {}]]]}, {"name": "conv2d_24", "config": {"bias_regularizer": null, "filters": 48, "dilation_rate": [1, 1], "activation": "relu", "name": "conv2d_24", "trainable": true, "kernel_constraint": null, "bias_constraint": null, "strides": [1, 1], "use_bias": true, "bias_initializer": {"class_name": "Zeros", "config": {}}, "data_format": "channels_last", "activity_regularizer": null, "padding": "same", "kernel_initializer": {"class_name": "VarianceScaling", "config": {"mode": "fan_avg", "seed": null, "scale": 1.0, "distribution": "uniform"}}, "kernel_regularizer": null, "kernel_size": [3, 3]}, "class_name": "Conv2D", "inbound_nodes": [[["batch_normalization_23", 0, 0, {}]]]}, {"name": "batch_normalization_21", "config": {"gamma_initializer": {"class_name": "Ones", "config": {}}, "beta_regularizer": null, "moving_mean_initializer": {"class_name": "Zeros", "config": {}}, "momentum": 0.99, "trainable": true, "beta_initializer": {"class_name": "Zeros", "config": {}}, "beta_constraint": null, "gamma_constraint": null, "moving_variance_initializer": {"class_name": "Ones", "config": {}}, "center": true, "name": "batch_normalization_21", "scale": true, "axis": 3, "gamma_regularizer": null, "epsilon": 0.001}, "class_name": "BatchNormalization", "inbound_nodes": [[["conv2d_21", 0, 0, {}]]]}, {"name": "batch_normalization_24", "config": {"gamma_initializer": {"class_name": "Ones", "config": {}}, "beta_regularizer": null, "moving_mean_initializer": {"class_name": "Zeros", "config": {}}, "momentum": 0.99, "trainable": true, "beta_initializer": {"class_name": "Zeros", "config": {}}, "beta_constraint": null, "gamma_constraint": null, "moving_variance_initializer": {"class_name": "Ones", "config": {}}, "center": true, "name": "batch_normalization_24", "scale": true, "axis": 3, "gamma_regularizer": null, "epsilon": 0.001}, "class_name": "BatchNormalization", "inbound_nodes": [[["conv2d_24", 0, 0, {}]]]}, {"name": "average_pooling2d_3", "config": {"name": "average_pooling2d_3", "padding": "same", "strides": [1, 1], "trainable": true, "pool_size": [3, 3], "data_format": "channels_last"}, "class_name": "AveragePooling2D", "inbound_nodes": [[["mixed1", 0, 0, {}]]]}, {"name": "conv2d_20", "config": {"bias_regularizer": null, "filters": 32, "dilation_rate": [1, 1], "activation": "relu", "name": "conv2d_20", "trainable": true, "kernel_constraint": null, "bias_constraint": null, "strides": [1, 1], "use_bias": true, "bias_initializer": {"class_name": "Zeros", "config": {}}, "data_format": "channels_last", "activity_regularizer": null, "padding": "same", "kernel_initializer": {"class_name": "VarianceScaling", "config": {"mode": "fan_avg", "seed": null, "scale": 1.0, "distribution": "uniform"}}, "kernel_regularizer": null, "kernel_size": [1, 1]}, "class_name": "Conv2D", "inbound_nodes": [[["mixed1", 0, 0, {}]]]}, {"name": "conv2d_22", "config": {"bias_regularizer": null, "filters": 32, "dilation_rate": [1, 1], "activation": "relu", "name": "conv2d_22", "trainable": true, "kernel_constraint": null, "bias_constraint": null, "strides": [1, 1], "use_bias": true, "bias_initializer": {"class_name": "Zeros", "config": {}}, "data_format": "channels_last", "activity_regularizer": null, "padding": "same", "kernel_initializer": {"class_name": "VarianceScaling", "config": {"mode": "fan_avg", "seed": null, "scale": 1.0, "distribution": "uniform"}}, "kernel_regularizer": null, "kernel_size": [5, 5]}, "class_name": "Conv2D", "inbound_nodes": [[["batch_normalization_21", 0, 0, {}]]]}, {"name": "conv2d_25", "config": {"bias_regularizer": null, "filters": 48, "dilation_rate": [1, 1], "activation": "relu", "name": "conv2d_25", "trainable": true, "kernel_constraint": null, "bias_constraint": null, "strides": [1, 1], "use_bias": true, "bias_initializer": {"class_name": "Zeros", "config": {}}, "data_format": "channels_last", "activity_regularizer": null, "padding": "same", "kernel_initializer": {"class_name": "VarianceScaling", "config": {"mode": "fan_avg", "seed": null, "scale": 1.0, "distribution": "uniform"}}, "kernel_regularizer": null, "kernel_size": [3, 3]}, "class_name": "Conv2D", "inbound_nodes": [[["batch_normalization_24", 0, 0, {}]]]}, {"name": "conv2d_26", "config": {"bias_regularizer": null, "filters": 16, "dilation_rate": [1, 1], "activation": "relu", "name": "conv2d_26", "trainable": true, "kernel_constraint": null, "bias_constraint": null, "strides": [1, 1], "use_bias": true, "bias_initializer": {"class_name": "Zeros", "config": {}}, "data_format": "channels_last", "activity_regularizer": null, "padding": "same", "kernel_initializer": {"class_name": "VarianceScaling", "config": {"mode": "fan_avg", "seed": null, "scale": 1.0, "distribution": "uniform"}}, "kernel_regularizer": null, "kernel_size": [1, 1]}, "class_name": "Conv2D", "inbound_nodes": [[["average_pooling2d_3", 0, 0, {}]]]}, {"name": "batch_normalization_20", "config": {"gamma_initializer": {"class_name": "Ones", "config": {}}, "beta_regularizer": null, "moving_mean_initializer": {"class_name": "Zeros", "config": {}}, "momentum": 0.99, "trainable": true, "beta_initializer": {"class_name": "Zeros", "config": {}}, "beta_constraint": null, "gamma_constraint": null, "moving_variance_initializer": {"class_name": "Ones", "config": {}}, "center": true, "name": "batch_normalization_20", "scale": true, "axis": 3, "gamma_regularizer": null, "epsilon": 0.001}, "class_name": "BatchNormalization", "inbound_nodes": [[["conv2d_20", 0, 0, {}]]]}, {"name": "batch_normalization_22", "config": {"gamma_initializer": {"class_name": "Ones", "config": {}}, "beta_regularizer": null, "moving_mean_initializer": {"class_name": "Zeros", "config": {}}, "momentum": 0.99, "trainable": true, "beta_initializer": {"class_name": "Zeros", "config": {}}, "beta_constraint": null, "gamma_constraint": null, "moving_variance_initializer": {"class_name": "Ones", "config": {}}, "center": true, "name": "batch_normalization_22", "scale": true, "axis": 3, "gamma_regularizer": null, "epsilon": 0.001}, "class_name": "BatchNormalization", "inbound_nodes": [[["conv2d_22", 0, 0, {}]]]}, {"name": "batch_normalization_25", "config": {"gamma_initializer": {"class_name": "Ones", "config": {}}, "beta_regularizer": null, "moving_mean_initializer": {"class_name": "Zeros", "config": {}}, "momentum": 0.99, "trainable": true, "beta_initializer": {"class_name": "Zeros", "config": {}}, "beta_constraint": null, "gamma_constraint": null, "moving_variance_initializer": {"class_name": "Ones", "config": {}}, "center": true, "name": "batch_normalization_25", "scale": true, "axis": 3, "gamma_regularizer": null, "epsilon": 0.001}, "class_name": "BatchNormalization", "inbound_nodes": [[["conv2d_25", 0, 0, {}]]]}, {"name": "batch_normalization_26", "config": {"gamma_initializer": {"class_name": "Ones", "config": {}}, "beta_regularizer": null, "moving_mean_initializer": {"class_name": "Zeros", "config": {}}, "momentum": 0.99, "trainable": true, "beta_initializer": {"class_name": "Zeros", "config": {}}, "beta_constraint": null, "gamma_constraint": null, "moving_variance_initializer": {"class_name": "Ones", "config": {}}, "center": true, "name": "batch_normalization_26", "scale": true, "axis": 3, "gamma_regularizer": null, "epsilon": 0.001}, "class_name": "BatchNormalization", "inbound_nodes": [[["conv2d_26", 0, 0, {}]]]}, {"name": "mixed2", "config": {"trainable": true, "name": "mixed2", "axis": -1}, "class_name": "Concatenate", "inbound_nodes": [[["batch_normalization_20", 0, 0, {}], ["batch_normalization_22", 0, 0, {}], ["batch_normalization_25", 0, 0, {}], ["batch_normalization_26", 0, 0, {}]]]}, {"name": "conv2d_28", "config": {"bias_regularizer": null, "filters": 32, "dilation_rate": [1, 1], "activation": "relu", "name": "conv2d_28", "trainable": true, "kernel_constraint": null, "bias_constraint": null, "strides": [1, 1], "use_bias": true, "bias_initializer": {"class_name": "Zeros", "config": {}}, "data_format": "channels_last", "activity_regularizer": null, "padding": "same", "kernel_initializer": {"class_name": "VarianceScaling", "config": {"mode": "fan_avg", "seed": null, "scale": 1.0, "distribution": "uniform"}}, "kernel_regularizer": null, "kernel_size": [1, 1]}, "class_name": "Conv2D", "inbound_nodes": [[["mixed2", 0, 0, {}]]]}, {"name": "batch_normalization_28", "config": {"gamma_initializer": {"class_name": "Ones", "config": {}}, "beta_regularizer": null, "moving_mean_initializer": {"class_name": "Zeros", "config": {}}, "momentum": 0.99, "trainable": true, "beta_initializer": {"class_name": "Zeros", "config": {}}, "beta_constraint": null, "gamma_constraint": null, "moving_variance_initializer": {"class_name": "Ones", "config": {}}, "center": true, "name": "batch_normalization_28", "scale": true, "axis": 3, "gamma_regularizer": null, "epsilon": 0.001}, "class_name": "BatchNormalization", "inbound_nodes": [[["conv2d_28", 0, 0, {}]]]}, {"name": "conv2d_29", "config": {"bias_regularizer": null, "filters": 48, "dilation_rate": [1, 1], "activation": "relu", "name": "conv2d_29", "trainable": true, "kernel_constraint": null, "bias_constraint": null, "strides": [1, 1], "use_bias": true, "bias_initializer": {"class_name": "Zeros", "config": {}}, "data_format": "channels_last", "activity_regularizer": null, "padding": "same", "kernel_initializer": {"class_name": "VarianceScaling", "config": {"mode": "fan_avg", "seed": null, "scale": 1.0, "distribution": "uniform"}}, "kernel_regularizer": null, "kernel_size": [3, 3]}, "class_name": "Conv2D", "inbound_nodes": [[["batch_normalization_28", 0, 0, {}]]]}, {"name": "batch_normalization_29", "config": {"gamma_initializer": {"class_name": "Ones", "config": {}}, "beta_regularizer": null, "moving_mean_initializer": {"class_name": "Zeros", "config": {}}, "momentum": 0.99, "trainable": true, "beta_initializer": {"class_name": "Zeros", "config": {}}, "beta_constraint": null, "gamma_constraint": null, "moving_variance_initializer": {"class_name": "Ones", "config": {}}, "center": true, "name": "batch_normalization_29", "scale": true, "axis": 3, "gamma_regularizer": null, "epsilon": 0.001}, "class_name": "BatchNormalization", "inbound_nodes": [[["conv2d_29", 0, 0, {}]]]}, {"name": "conv2d_27", "config": {"bias_regularizer": null, "filters": 192, "dilation_rate": [1, 1], "activation": "relu", "name": "conv2d_27", "trainable": true, "kernel_constraint": null, "bias_constraint": null, "strides": [2, 2], "use_bias": true, "bias_initializer": {"class_name": "Zeros", "config": {}}, "data_format": "channels_last", "activity_regularizer": null, "padding": "valid", "kernel_initializer": {"class_name": "VarianceScaling", "config": {"mode": "fan_avg", "seed": null, "scale": 1.0, "distribution": "uniform"}}, "kernel_regularizer": null, "kernel_size": [3, 3]}, "class_name": "Conv2D", "inbound_nodes": [[["mixed2", 0, 0, {}]]]}, {"name": "conv2d_30", "config": {"bias_regularizer": null, "filters": 48, "dilation_rate": [1, 1], "activation": "relu", "name": "conv2d_30", "trainable": true, "kernel_constraint": null, "bias_constraint": null, "strides": [2, 2], "use_bias": true, "bias_initializer": {"class_name": "Zeros", "config": {}}, "data_format": "channels_last", "activity_regularizer": null, "padding": "valid", "kernel_initializer": {"class_name": "VarianceScaling", "config": {"mode": "fan_avg", "seed": null, "scale": 1.0, "distribution": "uniform"}}, "kernel_regularizer": null, "kernel_size": [3, 3]}, "class_name": "Conv2D", "inbound_nodes": [[["batch_normalization_29", 0, 0, {}]]]}, {"name": "batch_normalization_27", "config": {"gamma_initializer": {"class_name": "Ones", "config": {}}, "beta_regularizer": null, "moving_mean_initializer": {"class_name": "Zeros", "config": {}}, "momentum": 0.99, "trainable": true, "beta_initializer": {"class_name": "Zeros", "config": {}}, "beta_constraint": null, "gamma_constraint": null, "moving_variance_initializer": {"class_name": "Ones", "config": {}}, "center": true, "name": "batch_normalization_27", "scale": true, "axis": 3, "gamma_regularizer": null, "epsilon": 0.001}, "class_name": "BatchNormalization", "inbound_nodes": [[["conv2d_27", 0, 0, {}]]]}, {"name": "batch_normalization_30", "config": {"gamma_initializer": {"class_name": "Ones", "config": {}}, "beta_regularizer": null, "moving_mean_initializer": {"class_name": "Zeros", "config": {}}, "momentum": 0.99, "trainable": true, "beta_initializer": {"class_name": "Zeros", "config": {}}, "beta_constraint": null, "gamma_constraint": null, "moving_variance_initializer": {"class_name": "Ones", "config": {}}, "center": true, "name": "batch_normalization_30", "scale": true, "axis": 3, "gamma_regularizer": null, "epsilon": 0.001}, "class_name": "BatchNormalization", "inbound_nodes": [[["conv2d_30", 0, 0, {}]]]}, {"name": "max_pooling2d_3", "config": {"name": "max_pooling2d_3", "padding": "valid", "strides": [2, 2], "trainable": true, "pool_size": [3, 3], "data_format": "channels_last"}, "class_name": "MaxPooling2D", "inbound_nodes": [[["mixed2", 0, 0, {}]]]}, {"name": "mixed3", "config": {"trainable": true, "name": "mixed3", "axis": -1}, "class_name": "Concatenate", "inbound_nodes": [[["batch_normalization_27", 0, 0, {}], ["batch_normalization_30", 0, 0, {}], ["max_pooling2d_3", 0, 0, {}]]]}, {"name": "conv2d_35", "config": {"bias_regularizer": null, "filters": 64, "dilation_rate": [1, 1], "activation": "relu", "name": "conv2d_35", "trainable": true, "kernel_constraint": null, "bias_constraint": null, "strides": [1, 1], "use_bias": true, "bias_initializer": {"class_name": "Zeros", "config": {}}, "data_format": "channels_last", "activity_regularizer": null, "padding": "same", "kernel_initializer": {"class_name": "VarianceScaling", "config": {"mode": "fan_avg", "seed": null, "scale": 1.0, "distribution": "uniform"}}, "kernel_regularizer": null, "kernel_size": [1, 1]}, "class_name": "Conv2D", "inbound_nodes": [[["mixed3", 0, 0, {}]]]}, {"name": "batch_normalization_35", "config": {"gamma_initializer": {"class_name": "Ones", "config": {}}, "beta_regularizer": null, "moving_mean_initializer": {"class_name": "Zeros", "config": {}}, "momentum": 0.99, "trainable": true, "beta_initializer": {"class_name": "Zeros", "config": {}}, "beta_constraint": null, "gamma_constraint": null, "moving_variance_initializer": {"class_name": "Ones", "config": {}}, "center": true, "name": "batch_normalization_35", "scale": true, "axis": 3, "gamma_regularizer": null, "epsilon": 0.001}, "class_name": "BatchNormalization", "inbound_nodes": [[["conv2d_35", 0, 0, {}]]]}, {"name": "conv2d_36", "config": {"bias_regularizer": null, "filters": 64, "dilation_rate": [1, 1], "activation": "relu", "name": "conv2d_36", "trainable": true, "kernel_constraint": null, "bias_constraint": null, "strides": [1, 1], "use_bias": true, "bias_initializer": {"class_name": "Zeros", "config": {}}, "data_format": "channels_last", "activity_regularizer": null, "padding": "same", "kernel_initializer": {"class_name": "VarianceScaling", "config": {"mode": "fan_avg", "seed": null, "scale": 1.0, "distribution": "uniform"}}, "kernel_regularizer": null, "kernel_size": [7, 1]}, "class_name": "Conv2D", "inbound_nodes": [[["batch_normalization_35", 0, 0, {}]]]}, {"name": "batch_normalization_36", "config": {"gamma_initializer": {"class_name": "Ones", "config": {}}, "beta_regularizer": null, "moving_mean_initializer": {"class_name": "Zeros", "config": {}}, "momentum": 0.99, "trainable": true, "beta_initializer": {"class_name": "Zeros", "config": {}}, "beta_constraint": null, "gamma_constraint": null, "moving_variance_initializer": {"class_name": "Ones", "config": {}}, "center": true, "name": "batch_normalization_36", "scale": true, "axis": 3, "gamma_regularizer": null, "epsilon": 0.001}, "class_name": "BatchNormalization", "inbound_nodes": [[["conv2d_36", 0, 0, {}]]]}, {"name": "conv2d_32", "config": {"bias_regularizer": null, "filters": 64, "dilation_rate": [1, 1], "activation": "relu", "name": "conv2d_32", "trainable": true, "kernel_constraint": null, "bias_constraint": null, "strides": [1, 1], "use_bias": true, "bias_initializer": {"class_name": "Zeros", "config": {}}, "data_format": "channels_last", "activity_regularizer": null, "padding": "same", "kernel_initializer": {"class_name": "VarianceScaling", "config": {"mode": "fan_avg", "seed": null, "scale": 1.0, "distribution": "uniform"}}, "kernel_regularizer": null, "kernel_size": [1, 1]}, "class_name": "Conv2D", "inbound_nodes": [[["mixed3", 0, 0, {}]]]}, {"name": "conv2d_37", "config": {"bias_regularizer": null, "filters": 64, "dilation_rate": [1, 1], "activation": "relu", "name": "conv2d_37", "trainable": true, "kernel_constraint": null, "bias_constraint": null, "strides": [1, 1], "use_bias": true, "bias_initializer": {"class_name": "Zeros", "config": {}}, "data_format": "channels_last", "activity_regularizer": null, "padding": "same", "kernel_initializer": {"class_name": "VarianceScaling", "config": {"mode": "fan_avg", "seed": null, "scale": 1.0, "distribution": "uniform"}}, "kernel_regularizer": null, "kernel_size": [1, 7]}, "class_name": "Conv2D", "inbound_nodes": [[["batch_normalization_36", 0, 0, {}]]]}, {"name": "batch_normalization_32", "config": {"gamma_initializer": {"class_name": "Ones", "config": {}}, "beta_regularizer": null, "moving_mean_initializer": {"class_name": "Zeros", "config": {}}, "momentum": 0.99, "trainable": true, "beta_initializer": {"class_name": "Zeros", "config": {}}, "beta_constraint": null, "gamma_constraint": null, "moving_variance_initializer": {"class_name": "Ones", "config": {}}, "center": true, "name": "batch_normalization_32", "scale": true, "axis": 3, "gamma_regularizer": null, "epsilon": 0.001}, "class_name": "BatchNormalization", "inbound_nodes": [[["conv2d_32", 0, 0, {}]]]}, {"name": "batch_normalization_37", "config": {"gamma_initializer": {"class_name": "Ones", "config": {}}, "beta_regularizer": null, "moving_mean_initializer": {"class_name": "Zeros", "config": {}}, "momentum": 0.99, "trainable": true, "beta_initializer": {"class_name": "Zeros", "config": {}}, "beta_constraint": null, "gamma_constraint": null, "moving_variance_initializer": {"class_name": "Ones", "config": {}}, "center": true, "name": "batch_normalization_37", "scale": true, "axis": 3, "gamma_regularizer": null, "epsilon": 0.001}, "class_name": "BatchNormalization", "inbound_nodes": [[["conv2d_37", 0, 0, {}]]]}, {"name": "conv2d_33", "config": {"bias_regularizer": null, "filters": 64, "dilation_rate": [1, 1], "activation": "relu", "name": "conv2d_33", "trainable": true, "kernel_constraint": null, "bias_constraint": null, "strides": [1, 1], "use_bias": true, "bias_initializer": {"class_name": "Zeros", "config": {}}, "data_format": "channels_last", "activity_regularizer": null, "padding": "same", "kernel_initializer": {"class_name": "VarianceScaling", "config": {"mode": "fan_avg", "seed": null, "scale": 1.0, "distribution": "uniform"}}, "kernel_regularizer": null, "kernel_size": [1, 7]}, "class_name": "Conv2D", "inbound_nodes": [[["batch_normalization_32", 0, 0, {}]]]}, {"name": "conv2d_38", "config": {"bias_regularizer": null, "filters": 64, "dilation_rate": [1, 1], "activation": "relu", "name": "conv2d_38", "trainable": true, "kernel_constraint": null, "bias_constraint": null, "strides": [1, 1], "use_bias": true, "bias_initializer": {"class_name": "Zeros", "config": {}}, "data_format": "channels_last", "activity_regularizer": null, "padding": "same", "kernel_initializer": {"class_name": "VarianceScaling", "config": {"mode": "fan_avg", "seed": null, "scale": 1.0, "distribution": "uniform"}}, "kernel_regularizer": null, "kernel_size": [7, 1]}, "class_name": "Conv2D", "inbound_nodes": [[["batch_normalization_37", 0, 0, {}]]]}, {"name": "batch_normalization_33", "config": {"gamma_initializer": {"class_name": "Ones", "config": {}}, "beta_regularizer": null, "moving_mean_initializer": {"class_name": "Zeros", "config": {}}, "momentum": 0.99, "trainable": true, "beta_initializer": {"class_name": "Zeros", "config": {}}, "beta_constraint": null, "gamma_constraint": null, "moving_variance_initializer": {"class_name": "Ones", "config": {}}, "center": true, "name": "batch_normalization_33", "scale": true, "axis": 3, "gamma_regularizer": null, "epsilon": 0.001}, "class_name": "BatchNormalization", "inbound_nodes": [[["conv2d_33", 0, 0, {}]]]}, {"name": "batch_normalization_38", "config": {"gamma_initializer": {"class_name": "Ones", "config": {}}, "beta_regularizer": null, "moving_mean_initializer": {"class_name": "Zeros", "config": {}}, "momentum": 0.99, "trainable": true, "beta_initializer": {"class_name": "Zeros", "config": {}}, "beta_constraint": null, "gamma_constraint": null, "moving_variance_initializer": {"class_name": "Ones", "config": {}}, "center": true, "name": "batch_normalization_38", "scale": true, "axis": 3, "gamma_regularizer": null, "epsilon": 0.001}, "class_name": "BatchNormalization", "inbound_nodes": [[["conv2d_38", 0, 0, {}]]]}, {"name": "average_pooling2d_4", "config": {"name": "average_pooling2d_4", "padding": "same", "strides": [1, 1], "trainable": true, "pool_size": [3, 3], "data_format": "channels_last"}, "class_name": "AveragePooling2D", "inbound_nodes": [[["mixed3", 0, 0, {}]]]}, {"name": "conv2d_31", "config": {"bias_regularizer": null, "filters": 96, "dilation_rate": [1, 1], "activation": "relu", "name": "conv2d_31", "trainable": true, "kernel_constraint": null, "bias_constraint": null, "strides": [1, 1], "use_bias": true, "bias_initializer": {"class_name": "Zeros", "config": {}}, "data_format": "channels_last", "activity_regularizer": null, "padding": "same", "kernel_initializer": {"class_name": "VarianceScaling", "config": {"mode": "fan_avg", "seed": null, "scale": 1.0, "distribution": "uniform"}}, "kernel_regularizer": null, "kernel_size": [1, 1]}, "class_name": "Conv2D", "inbound_nodes": [[["mixed3", 0, 0, {}]]]}, {"name": "conv2d_34", "config": {"bias_regularizer": null, "filters": 96, "dilation_rate": [1, 1], "activation": "relu", "name": "conv2d_34", "trainable": true, "kernel_constraint": null, "bias_constraint": null, "strides": [1, 1], "use_bias": true, "bias_initializer": {"class_name": "Zeros", "config": {}}, "data_format": "channels_last", "activity_regularizer": null, "padding": "same", "kernel_initializer": {"class_name": "VarianceScaling", "config": {"mode": "fan_avg", "seed": null, "scale": 1.0, "distribution": "uniform"}}, "kernel_regularizer": null, "kernel_size": [7, 1]}, "class_name": "Conv2D", "inbound_nodes": [[["batch_normalization_33", 0, 0, {}]]]}, {"name": "conv2d_39", "config": {"bias_regularizer": null, "filters": 96, "dilation_rate": [1, 1], "activation": "relu", "name": "conv2d_39", "trainable": true, "kernel_constraint": null, "bias_constraint": null, "strides": [1, 1], "use_bias": true, "bias_initializer": {"class_name": "Zeros", "config": {}}, "data_format": "channels_last", "activity_regularizer": null, "padding": "same", "kernel_initializer": {"class_name": "VarianceScaling", "config": {"mode": "fan_avg", "seed": null, "scale": 1.0, "distribution": "uniform"}}, "kernel_regularizer": null, "kernel_size": [1, 7]}, "class_name": "Conv2D", "inbound_nodes": [[["batch_normalization_38", 0, 0, {}]]]}, {"name": "conv2d_40", "config": {"bias_regularizer": null, "filters": 96, "dilation_rate": [1, 1], "activation": "relu", "name": "conv2d_40", "trainable": true, "kernel_constraint": null, "bias_constraint": null, "strides": [1, 1], "use_bias": true, "bias_initializer": {"class_name": "Zeros", "config": {}}, "data_format": "channels_last", "activity_regularizer": null, "padding": "same", "kernel_initializer": {"class_name": "VarianceScaling", "config": {"mode": "fan_avg", "seed": null, "scale": 1.0, "distribution": "uniform"}}, "kernel_regularizer": null, "kernel_size": [1, 1]}, "class_name": "Conv2D", "inbound_nodes": [[["average_pooling2d_4", 0, 0, {}]]]}, {"name": "batch_normalization_31", "config": {"gamma_initializer": {"class_name": "Ones", "config": {}}, "beta_regularizer": null, "moving_mean_initializer": {"class_name": "Zeros", "config": {}}, "momentum": 0.99, "trainable": true, "beta_initializer": {"class_name": "Zeros", "config": {}}, "beta_constraint": null, "gamma_constraint": null, "moving_variance_initializer": {"class_name": "Ones", "config": {}}, "center": true, "name": "batch_normalization_31", "scale": true, "axis": 3, "gamma_regularizer": null, "epsilon": 0.001}, "class_name": "BatchNormalization", "inbound_nodes": [[["conv2d_31", 0, 0, {}]]]}, {"name": "batch_normalization_34", "config": {"gamma_initializer": {"class_name": "Ones", "config": {}}, "beta_regularizer": null, "moving_mean_initializer": {"class_name": "Zeros", "config": {}}, "momentum": 0.99, "trainable": true, "beta_initializer": {"class_name": "Zeros", "config": {}}, "beta_constraint": null, "gamma_constraint": null, "moving_variance_initializer": {"class_name": "Ones", "config": {}}, "center": true, "name": "batch_normalization_34", "scale": true, "axis": 3, "gamma_regularizer": null, "epsilon": 0.001}, "class_name": "BatchNormalization", "inbound_nodes": [[["conv2d_34", 0, 0, {}]]]}, {"name": "batch_normalization_39", "config": {"gamma_initializer": {"class_name": "Ones", "config": {}}, "beta_regularizer": null, "moving_mean_initializer": {"class_name": "Zeros", "config": {}}, "momentum": 0.99, "trainable": true, "beta_initializer": {"class_name": "Zeros", "config": {}}, "beta_constraint": null, "gamma_constraint": null, "moving_variance_initializer": {"class_name": "Ones", "config": {}}, "center": true, "name": "batch_normalization_39", "scale": true, "axis": 3, "gamma_regularizer": null, "epsilon": 0.001}, "class_name": "BatchNormalization", "inbound_nodes": [[["conv2d_39", 0, 0, {}]]]}, {"name": "batch_normalization_40", "config": {"gamma_initializer": {"class_name": "Ones", "config": {}}, "beta_regularizer": null, "moving_mean_initializer": {"class_name": "Zeros", "config": {}}, "momentum": 0.99, "trainable": true, "beta_initializer": {"class_name": "Zeros", "config": {}}, "beta_constraint": null, "gamma_constraint": null, "moving_variance_initializer": {"class_name": "Ones", "config": {}}, "center": true, "name": "batch_normalization_40", "scale": true, "axis": 3, "gamma_regularizer": null, "epsilon": 0.001}, "class_name": "BatchNormalization", "inbound_nodes": [[["conv2d_40", 0, 0, {}]]]}, {"name": "mixed4", "config": {"trainable": true, "name": "mixed4", "axis": -1}, "class_name": "Concatenate", "inbound_nodes": [[["batch_normalization_31", 0, 0, {}], ["batch_normalization_34", 0, 0, {}], ["batch_normalization_39", 0, 0, {}], ["batch_normalization_40", 0, 0, {}]]]}, {"name": "conv2d_45", "config": {"bias_regularizer": null, "filters": 80, "dilation_rate": [1, 1], "activation": "relu", "name": "conv2d_45", "trainable": true, "kernel_constraint": null, "bias_constraint": null, "strides": [1, 1], "use_bias": true, "bias_initializer": {"class_name": "Zeros", "config": {}}, "data_format": "channels_last", "activity_regularizer": null, "padding": "same", "kernel_initializer": {"class_name": "VarianceScaling", "config": {"mode": "fan_avg", "seed": null, "scale": 1.0, "distribution": "uniform"}}, "kernel_regularizer": null, "kernel_size": [1, 1]}, "class_name": "Conv2D", "inbound_nodes": [[["mixed4", 0, 0, {}]]]}, {"name": "batch_normalization_45", "config": {"gamma_initializer": {"class_name": "Ones", "config": {}}, "beta_regularizer": null, "moving_mean_initializer": {"class_name": "Zeros", "config": {}}, "momentum": 0.99, "trainable": true, "beta_initializer": {"class_name": "Zeros", "config": {}}, "beta_constraint": null, "gamma_constraint": null, "moving_variance_initializer": {"class_name": "Ones", "config": {}}, "center": true, "name": "batch_normalization_45", "scale": true, "axis": 3, "gamma_regularizer": null, "epsilon": 0.001}, "class_name": "BatchNormalization", "inbound_nodes": [[["conv2d_45", 0, 0, {}]]]}, {"name": "conv2d_46", "config": {"bias_regularizer": null, "filters": 80, "dilation_rate": [1, 1], "activation": "relu", "name": "conv2d_46", "trainable": true, "kernel_constraint": null, "bias_constraint": null, "strides": [1, 1], "use_bias": true, "bias_initializer": {"class_name": "Zeros", "config": {}}, "data_format": "channels_last", "activity_regularizer": null, "padding": "same", "kernel_initializer": {"class_name": "VarianceScaling", "config": {"mode": "fan_avg", "seed": null, "scale": 1.0, "distribution": "uniform"}}, "kernel_regularizer": null, "kernel_size": [7, 1]}, "class_name": "Conv2D", "inbound_nodes": [[["batch_normalization_45", 0, 0, {}]]]}, {"name": "batch_normalization_46", "config": {"gamma_initializer": {"class_name": "Ones", "config": {}}, "beta_regularizer": null, "moving_mean_initializer": {"class_name": "Zeros", "config": {}}, "momentum": 0.99, "trainable": true, "beta_initializer": {"class_name": "Zeros", "config": {}}, "beta_constraint": null, "gamma_constraint": null, "moving_variance_initializer": {"class_name": "Ones", "config": {}}, "center": true, "name": "batch_normalization_46", "scale": true, "axis": 3, "gamma_regularizer": null, "epsilon": 0.001}, "class_name": "BatchNormalization", "inbound_nodes": [[["conv2d_46", 0, 0, {}]]]}, {"name": "conv2d_42", "config": {"bias_regularizer": null, "filters": 80, "dilation_rate": [1, 1], "activation": "relu", "name": "conv2d_42", "trainable": true, "kernel_constraint": null, "bias_constraint": null, "strides": [1, 1], "use_bias": true, "bias_initializer": {"class_name": "Zeros", "config": {}}, "data_format": "channels_last", "activity_regularizer": null, "padding": "same", "kernel_initializer": {"class_name": "VarianceScaling", "config": {"mode": "fan_avg", "seed": null, "scale": 1.0, "distribution": "uniform"}}, "kernel_regularizer": null, "kernel_size": [1, 1]}, "class_name": "Conv2D", "inbound_nodes": [[["mixed4", 0, 0, {}]]]}, {"name": "conv2d_47", "config": {"bias_regularizer": null, "filters": 80, "dilation_rate": [1, 1], "activation": "relu", "name": "conv2d_47", "trainable": true, "kernel_constraint": null, "bias_constraint": null, "strides": [1, 1], "use_bias": true, "bias_initializer": {"class_name": "Zeros", "config": {}}, "data_format": "channels_last", "activity_regularizer": null, "padding": "same", "kernel_initializer": {"class_name": "VarianceScaling", "config": {"mode": "fan_avg", "seed": null, "scale": 1.0, "distribution": "uniform"}}, "kernel_regularizer": null, "kernel_size": [1, 7]}, "class_name": "Conv2D", "inbound_nodes": [[["batch_normalization_46", 0, 0, {}]]]}, {"name": "batch_normalization_42", "config": {"gamma_initializer": {"class_name": "Ones", "config": {}}, "beta_regularizer": null, "moving_mean_initializer": {"class_name": "Zeros", "config": {}}, "momentum": 0.99, "trainable": true, "beta_initializer": {"class_name": "Zeros", "config": {}}, "beta_constraint": null, "gamma_constraint": null, "moving_variance_initializer": {"class_name": "Ones", "config": {}}, "center": true, "name": "batch_normalization_42", "scale": true, "axis": 3, "gamma_regularizer": null, "epsilon": 0.001}, "class_name": "BatchNormalization", "inbound_nodes": [[["conv2d_42", 0, 0, {}]]]}, {"name": "batch_normalization_47", "config": {"gamma_initializer": {"class_name": "Ones", "config": {}}, "beta_regularizer": null, "moving_mean_initializer": {"class_name": "Zeros", "config": {}}, "momentum": 0.99, "trainable": true, "beta_initializer": {"class_name": "Zeros", "config": {}}, "beta_constraint": null, "gamma_constraint": null, "moving_variance_initializer": {"class_name": "Ones", "config": {}}, "center": true, "name": "batch_normalization_47", "scale": true, "axis": 3, "gamma_regularizer": null, "epsilon": 0.001}, "class_name": "BatchNormalization", "inbound_nodes": [[["conv2d_47", 0, 0, {}]]]}, {"name": "conv2d_43", "config": {"bias_regularizer": null, "filters": 80, "dilation_rate": [1, 1], "activation": "relu", "name": "conv2d_43", "trainable": true, "kernel_constraint": null, "bias_constraint": null, "strides": [1, 1], "use_bias": true, "bias_initializer": {"class_name": "Zeros", "config": {}}, "data_format": "channels_last", "activity_regularizer": null, "padding": "same", "kernel_initializer": {"class_name": "VarianceScaling", "config": {"mode": "fan_avg", "seed": null, "scale": 1.0, "distribution": "uniform"}}, "kernel_regularizer": null, "kernel_size": [1, 7]}, "class_name": "Conv2D", "inbound_nodes": [[["batch_normalization_42", 0, 0, {}]]]}, {"name": "conv2d_48", "config": {"bias_regularizer": null, "filters": 80, "dilation_rate": [1, 1], "activation": "relu", "name": "conv2d_48", "trainable": true, "kernel_constraint": null, "bias_constraint": null, "strides": [1, 1], "use_bias": true, "bias_initializer": {"class_name": "Zeros", "config": {}}, "data_format": "channels_last", "activity_regularizer": null, "padding": "same", "kernel_initializer": {"class_name": "VarianceScaling", "config": {"mode": "fan_avg", "seed": null, "scale": 1.0, "distribution": "uniform"}}, "kernel_regularizer": null, "kernel_size": [7, 1]}, "class_name": "Conv2D", "inbound_nodes": [[["batch_normalization_47", 0, 0, {}]]]}, {"name": "batch_normalization_43", "config": {"gamma_initializer": {"class_name": "Ones", "config": {}}, "beta_regularizer": null, "moving_mean_initializer": {"class_name": "Zeros", "config": {}}, "momentum": 0.99, "trainable": true, "beta_initializer": {"class_name": "Zeros", "config": {}}, "beta_constraint": null, "gamma_constraint": null, "moving_variance_initializer": {"class_name": "Ones", "config": {}}, "center": true, "name": "batch_normalization_43", "scale": true, "axis": 3, "gamma_regularizer": null, "epsilon": 0.001}, "class_name": "BatchNormalization", "inbound_nodes": [[["conv2d_43", 0, 0, {}]]]}, {"name": "batch_normalization_48", "config": {"gamma_initializer": {"class_name": "Ones", "config": {}}, "beta_regularizer": null, "moving_mean_initializer": {"class_name": "Zeros", "config": {}}, "momentum": 0.99, "trainable": true, "beta_initializer": {"class_name": "Zeros", "config": {}}, "beta_constraint": null, "gamma_constraint": null, "moving_variance_initializer": {"class_name": "Ones", "config": {}}, "center": true, "name": "batch_normalization_48", "scale": true, "axis": 3, "gamma_regularizer": null, "epsilon": 0.001}, "class_name": "BatchNormalization", "inbound_nodes": [[["conv2d_48", 0, 0, {}]]]}, {"name": "average_pooling2d_5", "config": {"name": "average_pooling2d_5", "padding": "same", "strides": [1, 1], "trainable": true, "pool_size": [3, 3], "data_format": "channels_last"}, "class_name": "AveragePooling2D", "inbound_nodes": [[["mixed4", 0, 0, {}]]]}, {"name": "conv2d_41", "config": {"bias_regularizer": null, "filters": 96, "dilation_rate": [1, 1], "activation": "relu", "name": "conv2d_41", "trainable": true, "kernel_constraint": null, "bias_constraint": null, "strides": [1, 1], "use_bias": true, "bias_initializer": {"class_name": "Zeros", "config": {}}, "data_format": "channels_last", "activity_regularizer": null, "padding": "same", "kernel_initializer": {"class_name": "VarianceScaling", "config": {"mode": "fan_avg", "seed": null, "scale": 1.0, "distribution": "uniform"}}, "kernel_regularizer": null, "kernel_size": [1, 1]}, "class_name": "Conv2D", "inbound_nodes": [[["mixed4", 0, 0, {}]]]}, {"name": "conv2d_44", "config": {"bias_regularizer": null, "filters": 96, "dilation_rate": [1, 1], "activation": "relu", "name": "conv2d_44", "trainable": true, "kernel_constraint": null, "bias_constraint": null, "strides": [1, 1], "use_bias": true, "bias_initializer": {"class_name": "Zeros", "config": {}}, "data_format": "channels_last", "activity_regularizer": null, "padding": "same", "kernel_initializer": {"class_name": "VarianceScaling", "config": {"mode": "fan_avg", "seed": null, "scale": 1.0, "distribution": "uniform"}}, "kernel_regularizer": null, "kernel_size": [7, 1]}, "class_name": "Conv2D", "inbound_nodes": [[["batch_normalization_43", 0, 0, {}]]]}, {"name": "conv2d_49", "config": {"bias_regularizer": null, "filters": 96, "dilation_rate": [1, 1], "activation": "relu", "name": "conv2d_49", "trainable": true, "kernel_constraint": null, "bias_constraint": null, "strides": [1, 1], "use_bias": true, "bias_initializer": {"class_name": "Zeros", "config": {}}, "data_format": "channels_last", "activity_regularizer": null, "padding": "same", "kernel_initializer": {"class_name": "VarianceScaling", "config": {"mode": "fan_avg", "seed": null, "scale": 1.0, "distribution": "uniform"}}, "kernel_regularizer": null, "kernel_size": [1, 7]}, "class_name": "Conv2D", "inbound_nodes": [[["batch_normalization_48", 0, 0, {}]]]}, {"name": "conv2d_50", "config": {"bias_regularizer": null, "filters": 96, "dilation_rate": [1, 1], "activation": "relu", "name": "conv2d_50", "trainable": true, "kernel_constraint": null, "bias_constraint": null, "strides": [1, 1], "use_bias": true, "bias_initializer": {"class_name": "Zeros", "config": {}}, "data_format": "channels_last", "activity_regularizer": null, "padding": "same", "kernel_initializer": {"class_name": "VarianceScaling", "config": {"mode": "fan_avg", "seed": null, "scale": 1.0, "distribution": "uniform"}}, "kernel_regularizer": null, "kernel_size": [1, 1]}, "class_name": "Conv2D", "inbound_nodes": [[["average_pooling2d_5", 0, 0, {}]]]}, {"name": "batch_normalization_41", "config": {"gamma_initializer": {"class_name": "Ones", "config": {}}, "beta_regularizer": null, "moving_mean_initializer": {"class_name": "Zeros", "config": {}}, "momentum": 0.99, "trainable": true, "beta_initializer": {"class_name": "Zeros", "config": {}}, "beta_constraint": null, "gamma_constraint": null, "moving_variance_initializer": {"class_name": "Ones", "config": {}}, "center": true, "name": "batch_normalization_41", "scale": true, "axis": 3, "gamma_regularizer": null, "epsilon": 0.001}, "class_name": "BatchNormalization", "inbound_nodes": [[["conv2d_41", 0, 0, {}]]]}, {"name": "batch_normalization_44", "config": {"gamma_initializer": {"class_name": "Ones", "config": {}}, "beta_regularizer": null, "moving_mean_initializer": {"class_name": "Zeros", "config": {}}, "momentum": 0.99, "trainable": true, "beta_initializer": {"class_name": "Zeros", "config": {}}, "beta_constraint": null, "gamma_constraint": null, "moving_variance_initializer": {"class_name": "Ones", "config": {}}, "center": true, "name": "batch_normalization_44", "scale": true, "axis": 3, "gamma_regularizer": null, "epsilon": 0.001}, "class_name": "BatchNormalization", "inbound_nodes": [[["conv2d_44", 0, 0, {}]]]}, {"name": "batch_normalization_49", "config": {"gamma_initializer": {"class_name": "Ones", "config": {}}, "beta_regularizer": null, "moving_mean_initializer": {"class_name": "Zeros", "config": {}}, "momentum": 0.99, "trainable": true, "beta_initializer": {"class_name": "Zeros", "config": {}}, "beta_constraint": null, "gamma_constraint": null, "moving_variance_initializer": {"class_name": "Ones", "config": {}}, "center": true, "name": "batch_normalization_49", "scale": true, "axis": 3, "gamma_regularizer": null, "epsilon": 0.001}, "class_name": "BatchNormalization", "inbound_nodes": [[["conv2d_49", 0, 0, {}]]]}, {"name": "batch_normalization_50", "config": {"gamma_initializer": {"class_name": "Ones", "config": {}}, "beta_regularizer": null, "moving_mean_initializer": {"class_name": "Zeros", "config": {}}, "momentum": 0.99, "trainable": true, "beta_initializer": {"class_name": "Zeros", "config": {}}, "beta_constraint": null, "gamma_constraint": null, "moving_variance_initializer": {"class_name": "Ones", "config": {}}, "center": true, "name": "batch_normalization_50", "scale": true, "axis": 3, "gamma_regularizer": null, "epsilon": 0.001}, "class_name": "BatchNormalization", "inbound_nodes": [[["conv2d_50", 0, 0, {}]]]}, {"name": "mixed5", "config": {"trainable": true, "name": "mixed5", "axis": -1}, "class_name": "Concatenate", "inbound_nodes": [[["batch_normalization_41", 0, 0, {}], ["batch_normalization_44", 0, 0, {}], ["batch_normalization_49", 0, 0, {}], ["batch_normalization_50", 0, 0, {}]]]}, {"name": "conv2d_55", "config": {"bias_regularizer": null, "filters": 80, "dilation_rate": [1, 1], "activation": "relu", "name": "conv2d_55", "trainable": true, "kernel_constraint": null, "bias_constraint": null, "strides": [1, 1], "use_bias": true, "bias_initializer": {"class_name": "Zeros", "config": {}}, "data_format": "channels_last", "activity_regularizer": null, "padding": "same", "kernel_initializer": {"class_name": "VarianceScaling", "config": {"mode": "fan_avg", "seed": null, "scale": 1.0, "distribution": "uniform"}}, "kernel_regularizer": null, "kernel_size": [1, 1]}, "class_name": "Conv2D", "inbound_nodes": [[["mixed5", 0, 0, {}]]]}, {"name": "batch_normalization_55", "config": {"gamma_initializer": {"class_name": "Ones", "config": {}}, "beta_regularizer": null, "moving_mean_initializer": {"class_name": "Zeros", "config": {}}, "momentum": 0.99, "trainable": true, "beta_initializer": {"class_name": "Zeros", "config": {}}, "beta_constraint": null, "gamma_constraint": null, "moving_variance_initializer": {"class_name": "Ones", "config": {}}, "center": true, "name": "batch_normalization_55", "scale": true, "axis": 3, "gamma_regularizer": null, "epsilon": 0.001}, "class_name": "BatchNormalization", "inbound_nodes": [[["conv2d_55", 0, 0, {}]]]}, {"name": "conv2d_56", "config": {"bias_regularizer": null, "filters": 80, "dilation_rate": [1, 1], "activation": "relu", "name": "conv2d_56", "trainable": true, "kernel_constraint": null, "bias_constraint": null, "strides": [1, 1], "use_bias": true, "bias_initializer": {"class_name": "Zeros", "config": {}}, "data_format": "channels_last", "activity_regularizer": null, "padding": "same", "kernel_initializer": {"class_name": "VarianceScaling", "config": {"mode": "fan_avg", "seed": null, "scale": 1.0, "distribution": "uniform"}}, "kernel_regularizer": null, "kernel_size": [7, 1]}, "class_name": "Conv2D", "inbound_nodes": [[["batch_normalization_55", 0, 0, {}]]]}, {"name": "batch_normalization_56", "config": {"gamma_initializer": {"class_name": "Ones", "config": {}}, "beta_regularizer": null, "moving_mean_initializer": {"class_name": "Zeros", "config": {}}, "momentum": 0.99, "trainable": true, "beta_initializer": {"class_name": "Zeros", "config": {}}, "beta_constraint": null, "gamma_constraint": null, "moving_variance_initializer": {"class_name": "Ones", "config": {}}, "center": true, "name": "batch_normalization_56", "scale": true, "axis": 3, "gamma_regularizer": null, "epsilon": 0.001}, "class_name": "BatchNormalization", "inbound_nodes": [[["conv2d_56", 0, 0, {}]]]}, {"name": "conv2d_52", "config": {"bias_regularizer": null, "filters": 80, "dilation_rate": [1, 1], "activation": "relu", "name": "conv2d_52", "trainable": true, "kernel_constraint": null, "bias_constraint": null, "strides": [1, 1], "use_bias": true, "bias_initializer": {"class_name": "Zeros", "config": {}}, "data_format": "channels_last", "activity_regularizer": null, "padding": "same", "kernel_initializer": {"class_name": "VarianceScaling", "config": {"mode": "fan_avg", "seed": null, "scale": 1.0, "distribution": "uniform"}}, "kernel_regularizer": null, "kernel_size": [1, 1]}, "class_name": "Conv2D", "inbound_nodes": [[["mixed5", 0, 0, {}]]]}, {"name": "conv2d_57", "config": {"bias_regularizer": null, "filters": 80, "dilation_rate": [1, 1], "activation": "relu", "name": "conv2d_57", "trainable": true, "kernel_constraint": null, "bias_constraint": null, "strides": [1, 1], "use_bias": true, "bias_initializer": {"class_name": "Zeros", "config": {}}, "data_format": "channels_last", "activity_regularizer": null, "padding": "same", "kernel_initializer": {"class_name": "VarianceScaling", "config": {"mode": "fan_avg", "seed": null, "scale": 1.0, "distribution": "uniform"}}, "kernel_regularizer": null, "kernel_size": [1, 7]}, "class_name": "Conv2D", "inbound_nodes": [[["batch_normalization_56", 0, 0, {}]]]}, {"name": "batch_normalization_52", "config": {"gamma_initializer": {"class_name": "Ones", "config": {}}, "beta_regularizer": null, "moving_mean_initializer": {"class_name": "Zeros", "config": {}}, "momentum": 0.99, "trainable": true, "beta_initializer": {"class_name": "Zeros", "config": {}}, "beta_constraint": null, "gamma_constraint": null, "moving_variance_initializer": {"class_name": "Ones", "config": {}}, "center": true, "name": "batch_normalization_52", "scale": true, "axis": 3, "gamma_regularizer": null, "epsilon": 0.001}, "class_name": "BatchNormalization", "inbound_nodes": [[["conv2d_52", 0, 0, {}]]]}, {"name": "batch_normalization_57", "config": {"gamma_initializer": {"class_name": "Ones", "config": {}}, "beta_regularizer": null, "moving_mean_initializer": {"class_name": "Zeros", "config": {}}, "momentum": 0.99, "trainable": true, "beta_initializer": {"class_name": "Zeros", "config": {}}, "beta_constraint": null, "gamma_constraint": null, "moving_variance_initializer": {"class_name": "Ones", "config": {}}, "center": true, "name": "batch_normalization_57", "scale": true, "axis": 3, "gamma_regularizer": null, "epsilon": 0.001}, "class_name": "BatchNormalization", "inbound_nodes": [[["conv2d_57", 0, 0, {}]]]}, {"name": "conv2d_53", "config": {"bias_regularizer": null, "filters": 80, "dilation_rate": [1, 1], "activation": "relu", "name": "conv2d_53", "trainable": true, "kernel_constraint": null, "bias_constraint": null, "strides": [1, 1], "use_bias": true, "bias_initializer": {"class_name": "Zeros", "config": {}}, "data_format": "channels_last", "activity_regularizer": null, "padding": "same", "kernel_initializer": {"class_name": "VarianceScaling", "config": {"mode": "fan_avg", "seed": null, "scale": 1.0, "distribution": "uniform"}}, "kernel_regularizer": null, "kernel_size": [1, 7]}, "class_name": "Conv2D", "inbound_nodes": [[["batch_normalization_52", 0, 0, {}]]]}, {"name": "conv2d_58", "config": {"bias_regularizer": null, "filters": 80, "dilation_rate": [1, 1], "activation": "relu", "name": "conv2d_58", "trainable": true, "kernel_constraint": null, "bias_constraint": null, "strides": [1, 1], "use_bias": true, "bias_initializer": {"class_name": "Zeros", "config": {}}, "data_format": "channels_last", "activity_regularizer": null, "padding": "same", "kernel_initializer": {"class_name": "VarianceScaling", "config": {"mode": "fan_avg", "seed": null, "scale": 1.0, "distribution": "uniform"}}, "kernel_regularizer": null, "kernel_size": [7, 1]}, "class_name": "Conv2D", "inbound_nodes": [[["batch_normalization_57", 0, 0, {}]]]}, {"name": "batch_normalization_53", "config": {"gamma_initializer": {"class_name": "Ones", "config": {}}, "beta_regularizer": null, "moving_mean_initializer": {"class_name": "Zeros", "config": {}}, "momentum": 0.99, "trainable": true, "beta_initializer": {"class_name": "Zeros", "config": {}}, "beta_constraint": null, "gamma_constraint": null, "moving_variance_initializer": {"class_name": "Ones", "config": {}}, "center": true, "name": "batch_normalization_53", "scale": true, "axis": 3, "gamma_regularizer": null, "epsilon": 0.001}, "class_name": "BatchNormalization", "inbound_nodes": [[["conv2d_53", 0, 0, {}]]]}, {"name": "batch_normalization_58", "config": {"gamma_initializer": {"class_name": "Ones", "config": {}}, "beta_regularizer": null, "moving_mean_initializer": {"class_name": "Zeros", "config": {}}, "momentum": 0.99, "trainable": true, "beta_initializer": {"class_name": "Zeros", "config": {}}, "beta_constraint": null, "gamma_constraint": null, "moving_variance_initializer": {"class_name": "Ones", "config": {}}, "center": true, "name": "batch_normalization_58", "scale": true, "axis": 3, "gamma_regularizer": null, "epsilon": 0.001}, "class_name": "BatchNormalization", "inbound_nodes": [[["conv2d_58", 0, 0, {}]]]}, {"name": "average_pooling2d_6", "config": {"name": "average_pooling2d_6", "padding": "same", "strides": [1, 1], "trainable": true, "pool_size": [3, 3], "data_format": "channels_last"}, "class_name": "AveragePooling2D", "inbound_nodes": [[["mixed5", 0, 0, {}]]]}, {"name": "conv2d_51", "config": {"bias_regularizer": null, "filters": 96, "dilation_rate": [1, 1], "activation": "relu", "name": "conv2d_51", "trainable": true, "kernel_constraint": null, "bias_constraint": null, "strides": [1, 1], "use_bias": true, "bias_initializer": {"class_name": "Zeros", "config": {}}, "data_format": "channels_last", "activity_regularizer": null, "padding": "same", "kernel_initializer": {"class_name": "VarianceScaling", "config": {"mode": "fan_avg", "seed": null, "scale": 1.0, "distribution": "uniform"}}, "kernel_regularizer": null, "kernel_size": [1, 1]}, "class_name": "Conv2D", "inbound_nodes": [[["mixed5", 0, 0, {}]]]}, {"name": "conv2d_54", "config": {"bias_regularizer": null, "filters": 96, "dilation_rate": [1, 1], "activation": "relu", "name": "conv2d_54", "trainable": true, "kernel_constraint": null, "bias_constraint": null, "strides": [1, 1], "use_bias": true, "bias_initializer": {"class_name": "Zeros", "config": {}}, "data_format": "channels_last", "activity_regularizer": null, "padding": "same", "kernel_initializer": {"class_name": "VarianceScaling", "config": {"mode": "fan_avg", "seed": null, "scale": 1.0, "distribution": "uniform"}}, "kernel_regularizer": null, "kernel_size": [7, 1]}, "class_name": "Conv2D", "inbound_nodes": [[["batch_normalization_53", 0, 0, {}]]]}, {"name": "conv2d_59", "config": {"bias_regularizer": null, "filters": 96, "dilation_rate": [1, 1], "activation": "relu", "name": "conv2d_59", "trainable": true, "kernel_constraint": null, "bias_constraint": null, "strides": [1, 1], "use_bias": true, "bias_initializer": {"class_name": "Zeros", "config": {}}, "data_format": "channels_last", "activity_regularizer": null, "padding": "same", "kernel_initializer": {"class_name": "VarianceScaling", "config": {"mode": "fan_avg", "seed": null, "scale": 1.0, "distribution": "uniform"}}, "kernel_regularizer": null, "kernel_size": [1, 7]}, "class_name": "Conv2D", "inbound_nodes": [[["batch_normalization_58", 0, 0, {}]]]}, {"name": "conv2d_60", "config": {"bias_regularizer": null, "filters": 96, "dilation_rate": [1, 1], "activation": "relu", "name": "conv2d_60", "trainable": true, "kernel_constraint": null, "bias_constraint": null, "strides": [1, 1], "use_bias": true, "bias_initializer": {"class_name": "Zeros", "config": {}}, "data_format": "channels_last", "activity_regularizer": null, "padding": "same", "kernel_initializer": {"class_name": "VarianceScaling", "config": {"mode": "fan_avg", "seed": null, "scale": 1.0, "distribution": "uniform"}}, "kernel_regularizer": null, "kernel_size": [1, 1]}, "class_name": "Conv2D", "inbound_nodes": [[["average_pooling2d_6", 0, 0, {}]]]}, {"name": "batch_normalization_51", "config": {"gamma_initializer": {"class_name": "Ones", "config": {}}, "beta_regularizer": null, "moving_mean_initializer": {"class_name": "Zeros", "config": {}}, "momentum": 0.99, "trainable": true, "beta_initializer": {"class_name": "Zeros", "config": {}}, "beta_constraint": null, "gamma_constraint": null, "moving_variance_initializer": {"class_name": "Ones", "config": {}}, "center": true, "name": "batch_normalization_51", "scale": true, "axis": 3, "gamma_regularizer": null, "epsilon": 0.001}, "class_name": "BatchNormalization", "inbound_nodes": [[["conv2d_51", 0, 0, {}]]]}, {"name": "batch_normalization_54", "config": {"gamma_initializer": {"class_name": "Ones", "config": {}}, "beta_regularizer": null, "moving_mean_initializer": {"class_name": "Zeros", "config": {}}, "momentum": 0.99, "trainable": true, "beta_initializer": {"class_name": "Zeros", "config": {}}, "beta_constraint": null, "gamma_constraint": null, "moving_variance_initializer": {"class_name": "Ones", "config": {}}, "center": true, "name": "batch_normalization_54", "scale": true, "axis": 3, "gamma_regularizer": null, "epsilon": 0.001}, "class_name": "BatchNormalization", "inbound_nodes": [[["conv2d_54", 0, 0, {}]]]}, {"name": "batch_normalization_59", "config": {"gamma_initializer": {"class_name": "Ones", "config": {}}, "beta_regularizer": null, "moving_mean_initializer": {"class_name": "Zeros", "config": {}}, "momentum": 0.99, "trainable": true, "beta_initializer": {"class_name": "Zeros", "config": {}}, "beta_constraint": null, "gamma_constraint": null, "moving_variance_initializer": {"class_name": "Ones", "config": {}}, "center": true, "name": "batch_normalization_59", "scale": true, "axis": 3, "gamma_regularizer": null, "epsilon": 0.001}, "class_name": "BatchNormalization", "inbound_nodes": [[["conv2d_59", 0, 0, {}]]]}, {"name": "batch_normalization_60", "config": {"gamma_initializer": {"class_name": "Ones", "config": {}}, "beta_regularizer": null, "moving_mean_initializer": {"class_name": "Zeros", "config": {}}, "momentum": 0.99, "trainable": true, "beta_initializer": {"class_name": "Zeros", "config": {}}, "beta_constraint": null, "gamma_constraint": null, "moving_variance_initializer": {"class_name": "Ones", "config": {}}, "center": true, "name": "batch_normalization_60", "scale": true, "axis": 3, "gamma_regularizer": null, "epsilon": 0.001}, "class_name": "BatchNormalization", "inbound_nodes": [[["conv2d_60", 0, 0, {}]]]}, {"name": "mixed6", "config": {"trainable": true, "name": "mixed6", "axis": -1}, "class_name": "Concatenate", "inbound_nodes": [[["batch_normalization_51", 0, 0, {}], ["batch_normalization_54", 0, 0, {}], ["batch_normalization_59", 0, 0, {}], ["batch_normalization_60", 0, 0, {}]]]}, {"name": "conv2d_65", "config": {"bias_regularizer": null, "filters": 80, "dilation_rate": [1, 1], "activation": "relu", "name": "conv2d_65", "trainable": true, "kernel_constraint": null, "bias_constraint": null, "strides": [1, 1], "use_bias": true, "bias_initializer": {"class_name": "Zeros", "config": {}}, "data_format": "channels_last", "activity_regularizer": null, "padding": "same", "kernel_initializer": {"class_name": "VarianceScaling", "config": {"mode": "fan_avg", "seed": null, "scale": 1.0, "distribution": "uniform"}}, "kernel_regularizer": null, "kernel_size": [1, 1]}, "class_name": "Conv2D", "inbound_nodes": [[["mixed6", 0, 0, {}]]]}, {"name": "batch_normalization_65", "config": {"gamma_initializer": {"class_name": "Ones", "config": {}}, "beta_regularizer": null, "moving_mean_initializer": {"class_name": "Zeros", "config": {}}, "momentum": 0.99, "trainable": true, "beta_initializer": {"class_name": "Zeros", "config": {}}, "beta_constraint": null, "gamma_constraint": null, "moving_variance_initializer": {"class_name": "Ones", "config": {}}, "center": true, "name": "batch_normalization_65", "scale": true, "axis": 3, "gamma_regularizer": null, "epsilon": 0.001}, "class_name": "BatchNormalization", "inbound_nodes": [[["conv2d_65", 0, 0, {}]]]}, {"name": "conv2d_66", "config": {"bias_regularizer": null, "filters": 96, "dilation_rate": [1, 1], "activation": "relu", "name": "conv2d_66", "trainable": true, "kernel_constraint": null, "bias_constraint": null, "strides": [1, 1], "use_bias": true, "bias_initializer": {"class_name": "Zeros", "config": {}}, "data_format": "channels_last", "activity_regularizer": null, "padding": "same", "kernel_initializer": {"class_name": "VarianceScaling", "config": {"mode": "fan_avg", "seed": null, "scale": 1.0, "distribution": "uniform"}}, "kernel_regularizer": null, "kernel_size": [7, 1]}, "class_name": "Conv2D", "inbound_nodes": [[["batch_normalization_65", 0, 0, {}]]]}, {"name": "batch_normalization_66", "config": {"gamma_initializer": {"class_name": "Ones", "config": {}}, "beta_regularizer": null, "moving_mean_initializer": {"class_name": "Zeros", "config": {}}, "momentum": 0.99, "trainable": true, "beta_initializer": {"class_name": "Zeros", "config": {}}, "beta_constraint": null, "gamma_constraint": null, "moving_variance_initializer": {"class_name": "Ones", "config": {}}, "center": true, "name": "batch_normalization_66", "scale": true, "axis": 3, "gamma_regularizer": null, "epsilon": 0.001}, "class_name": "BatchNormalization", "inbound_nodes": [[["conv2d_66", 0, 0, {}]]]}, {"name": "conv2d_62", "config": {"bias_regularizer": null, "filters": 96, "dilation_rate": [1, 1], "activation": "relu", "name": "conv2d_62", "trainable": true, "kernel_constraint": null, "bias_constraint": null, "strides": [1, 1], "use_bias": true, "bias_initializer": {"class_name": "Zeros", "config": {}}, "data_format": "channels_last", "activity_regularizer": null, "padding": "same", "kernel_initializer": {"class_name": "VarianceScaling", "config": {"mode": "fan_avg", "seed": null, "scale": 1.0, "distribution": "uniform"}}, "kernel_regularizer": null, "kernel_size": [1, 1]}, "class_name": "Conv2D", "inbound_nodes": [[["mixed6", 0, 0, {}]]]}, {"name": "conv2d_67", "config": {"bias_regularizer": null, "filters": 96, "dilation_rate": [1, 1], "activation": "relu", "name": "conv2d_67", "trainable": true, "kernel_constraint": null, "bias_constraint": null, "strides": [1, 1], "use_bias": true, "bias_initializer": {"class_name": "Zeros", "config": {}}, "data_format": "channels_last", "activity_regularizer": null, "padding": "same", "kernel_initializer": {"class_name": "VarianceScaling", "config": {"mode": "fan_avg", "seed": null, "scale": 1.0, "distribution": "uniform"}}, "kernel_regularizer": null, "kernel_size": [1, 7]}, "class_name": "Conv2D", "inbound_nodes": [[["batch_normalization_66", 0, 0, {}]]]}, {"name": "batch_normalization_62", "config": {"gamma_initializer": {"class_name": "Ones", "config": {}}, "beta_regularizer": null, "moving_mean_initializer": {"class_name": "Zeros", "config": {}}, "momentum": 0.99, "trainable": true, "beta_initializer": {"class_name": "Zeros", "config": {}}, "beta_constraint": null, "gamma_constraint": null, "moving_variance_initializer": {"class_name": "Ones", "config": {}}, "center": true, "name": "batch_normalization_62", "scale": true, "axis": 3, "gamma_regularizer": null, "epsilon": 0.001}, "class_name": "BatchNormalization", "inbound_nodes": [[["conv2d_62", 0, 0, {}]]]}, {"name": "batch_normalization_67", "config": {"gamma_initializer": {"class_name": "Ones", "config": {}}, "beta_regularizer": null, "moving_mean_initializer": {"class_name": "Zeros", "config": {}}, "momentum": 0.99, "trainable": true, "beta_initializer": {"class_name": "Zeros", "config": {}}, "beta_constraint": null, "gamma_constraint": null, "moving_variance_initializer": {"class_name": "Ones", "config": {}}, "center": true, "name": "batch_normalization_67", "scale": true, "axis": 3, "gamma_regularizer": null, "epsilon": 0.001}, "class_name": "BatchNormalization", "inbound_nodes": [[["conv2d_67", 0, 0, {}]]]}, {"name": "conv2d_63", "config": {"bias_regularizer": null, "filters": 96, "dilation_rate": [1, 1], "activation": "relu", "name": "conv2d_63", "trainable": true, "kernel_constraint": null, "bias_constraint": null, "strides": [1, 1], "use_bias": true, "bias_initializer": {"class_name": "Zeros", "config": {}}, "data_format": "channels_last", "activity_regularizer": null, "padding": "same", "kernel_initializer": {"class_name": "VarianceScaling", "config": {"mode": "fan_avg", "seed": null, "scale": 1.0, "distribution": "uniform"}}, "kernel_regularizer": null, "kernel_size": [1, 7]}, "class_name": "Conv2D", "inbound_nodes": [[["batch_normalization_62", 0, 0, {}]]]}, {"name": "conv2d_68", "config": {"bias_regularizer": null, "filters": 96, "dilation_rate": [1, 1], "activation": "relu", "name": "conv2d_68", "trainable": true, "kernel_constraint": null, "bias_constraint": null, "strides": [1, 1], "use_bias": true, "bias_initializer": {"class_name": "Zeros", "config": {}}, "data_format": "channels_last", "activity_regularizer": null, "padding": "same", "kernel_initializer": {"class_name": "VarianceScaling", "config": {"mode": "fan_avg", "seed": null, "scale": 1.0, "distribution": "uniform"}}, "kernel_regularizer": null, "kernel_size": [7, 1]}, "class_name": "Conv2D", "inbound_nodes": [[["batch_normalization_67", 0, 0, {}]]]}, {"name": "batch_normalization_63", "config": {"gamma_initializer": {"class_name": "Ones", "config": {}}, "beta_regularizer": null, "moving_mean_initializer": {"class_name": "Zeros", "config": {}}, "momentum": 0.99, "trainable": true, "beta_initializer": {"class_name": "Zeros", "config": {}}, "beta_constraint": null, "gamma_constraint": null, "moving_variance_initializer": {"class_name": "Ones", "config": {}}, "center": true, "name": "batch_normalization_63", "scale": true, "axis": 3, "gamma_regularizer": null, "epsilon": 0.001}, "class_name": "BatchNormalization", "inbound_nodes": [[["conv2d_63", 0, 0, {}]]]}, {"name": "batch_normalization_68", "config": {"gamma_initializer": {"class_name": "Ones", "config": {}}, "beta_regularizer": null, "moving_mean_initializer": {"class_name": "Zeros", "config": {}}, "momentum": 0.99, "trainable": true, "beta_initializer": {"class_name": "Zeros", "config": {}}, "beta_constraint": null, "gamma_constraint": null, "moving_variance_initializer": {"class_name": "Ones", "config": {}}, "center": true, "name": "batch_normalization_68", "scale": true, "axis": 3, "gamma_regularizer": null, "epsilon": 0.001}, "class_name": "BatchNormalization", "inbound_nodes": [[["conv2d_68", 0, 0, {}]]]}, {"name": "average_pooling2d_7", "config": {"name": "average_pooling2d_7", "padding": "same", "strides": [1, 1], "trainable": true, "pool_size": [3, 3], "data_format": "channels_last"}, "class_name": "AveragePooling2D", "inbound_nodes": [[["mixed6", 0, 0, {}]]]}, {"name": "conv2d_61", "config": {"bias_regularizer": null, "filters": 96, "dilation_rate": [1, 1], "activation": "relu", "name": "conv2d_61", "trainable": true, "kernel_constraint": null, "bias_constraint": null, "strides": [1, 1], "use_bias": true, "bias_initializer": {"class_name": "Zeros", "config": {}}, "data_format": "channels_last", "activity_regularizer": null, "padding": "same", "kernel_initializer": {"class_name": "VarianceScaling", "config": {"mode": "fan_avg", "seed": null, "scale": 1.0, "distribution": "uniform"}}, "kernel_regularizer": null, "kernel_size": [1, 1]}, "class_name": "Conv2D", "inbound_nodes": [[["mixed6", 0, 0, {}]]]}, {"name": "conv2d_64", "config": {"bias_regularizer": null, "filters": 96, "dilation_rate": [1, 1], "activation": "relu", "name": "conv2d_64", "trainable": true, "kernel_constraint": null, "bias_constraint": null, "strides": [1, 1], "use_bias": true, "bias_initializer": {"class_name": "Zeros", "config": {}}, "data_format": "channels_last", "activity_regularizer": null, "padding": "same", "kernel_initializer": {"class_name": "VarianceScaling", "config": {"mode": "fan_avg", "seed": null, "scale": 1.0, "distribution": "uniform"}}, "kernel_regularizer": null, "kernel_size": [7, 1]}, "class_name": "Conv2D", "inbound_nodes": [[["batch_normalization_63", 0, 0, {}]]]}, {"name": "conv2d_69", "config": {"bias_regularizer": null, "filters": 96, "dilation_rate": [1, 1], "activation": "relu", "name": "conv2d_69", "trainable": true, "kernel_constraint": null, "bias_constraint": null, "strides": [1, 1], "use_bias": true, "bias_initializer": {"class_name": "Zeros", "config": {}}, "data_format": "channels_last", "activity_regularizer": null, "padding": "same", "kernel_initializer": {"class_name": "VarianceScaling", "config": {"mode": "fan_avg", "seed": null, "scale": 1.0, "distribution": "uniform"}}, "kernel_regularizer": null, "kernel_size": [1, 7]}, "class_name": "Conv2D", "inbound_nodes": [[["batch_normalization_68", 0, 0, {}]]]}, {"name": "conv2d_70", "config": {"bias_regularizer": null, "filters": 96, "dilation_rate": [1, 1], "activation": "relu", "name": "conv2d_70", "trainable": true, "kernel_constraint": null, "bias_constraint": null, "strides": [1, 1], "use_bias": true, "bias_initializer": {"class_name": "Zeros", "config": {}}, "data_format": "channels_last", "activity_regularizer": null, "padding": "same", "kernel_initializer": {"class_name": "VarianceScaling", "config": {"mode": "fan_avg", "seed": null, "scale": 1.0, "distribution": "uniform"}}, "kernel_regularizer": null, "kernel_size": [1, 1]}, "class_name": "Conv2D", "inbound_nodes": [[["average_pooling2d_7", 0, 0, {}]]]}, {"name": "batch_normalization_61", "config": {"gamma_initializer": {"class_name": "Ones", "config": {}}, "beta_regularizer": null, "moving_mean_initializer": {"class_name": "Zeros", "config": {}}, "momentum": 0.99, "trainable": true, "beta_initializer": {"class_name": "Zeros", "config": {}}, "beta_constraint": null, "gamma_constraint": null, "moving_variance_initializer": {"class_name": "Ones", "config": {}}, "center": true, "name": "batch_normalization_61", "scale": true, "axis": 3, "gamma_regularizer": null, "epsilon": 0.001}, "class_name": "BatchNormalization", "inbound_nodes": [[["conv2d_61", 0, 0, {}]]]}, {"name": "batch_normalization_64", "config": {"gamma_initializer": {"class_name": "Ones", "config": {}}, "beta_regularizer": null, "moving_mean_initializer": {"class_name": "Zeros", "config": {}}, "momentum": 0.99, "trainable": true, "beta_initializer": {"class_name": "Zeros", "config": {}}, "beta_constraint": null, "gamma_constraint": null, "moving_variance_initializer": {"class_name": "Ones", "config": {}}, "center": true, "name": "batch_normalization_64", "scale": true, "axis": 3, "gamma_regularizer": null, "epsilon": 0.001}, "class_name": "BatchNormalization", "inbound_nodes": [[["conv2d_64", 0, 0, {}]]]}, {"name": "batch_normalization_69", "config": {"gamma_initializer": {"class_name": "Ones", "config": {}}, "beta_regularizer": null, "moving_mean_initializer": {"class_name": "Zeros", "config": {}}, "momentum": 0.99, "trainable": true, "beta_initializer": {"class_name": "Zeros", "config": {}}, "beta_constraint": null, "gamma_constraint": null, "moving_variance_initializer": {"class_name": "Ones", "config": {}}, "center": true, "name": "batch_normalization_69", "scale": true, "axis": 3, "gamma_regularizer": null, "epsilon": 0.001}, "class_name": "BatchNormalization", "inbound_nodes": [[["conv2d_69", 0, 0, {}]]]}, {"name": "batch_normalization_70", "config": {"gamma_initializer": {"class_name": "Ones", "config": {}}, "beta_regularizer": null, "moving_mean_initializer": {"class_name": "Zeros", "config": {}}, "momentum": 0.99, "trainable": true, "beta_initializer": {"class_name": "Zeros", "config": {}}, "beta_constraint": null, "gamma_constraint": null, "moving_variance_initializer": {"class_name": "Ones", "config": {}}, "center": true, "name": "batch_normalization_70", "scale": true, "axis": 3, "gamma_regularizer": null, "epsilon": 0.001}, "class_name": "BatchNormalization", "inbound_nodes": [[["conv2d_70", 0, 0, {}]]]}, {"name": "mixed7", "config": {"trainable": true, "name": "mixed7", "axis": -1}, "class_name": "Concatenate", "inbound_nodes": [[["batch_normalization_61", 0, 0, {}], ["batch_normalization_64", 0, 0, {}], ["batch_normalization_69", 0, 0, {}], ["batch_normalization_70", 0, 0, {}]]]}, {"name": "conv2d_73", "config": {"bias_regularizer": null, "filters": 96, "dilation_rate": [1, 1], "activation": "relu", "name": "conv2d_73", "trainable": true, "kernel_constraint": null, "bias_constraint": null, "strides": [1, 1], "use_bias": true, "bias_initializer": {"class_name": "Zeros", "config": {}}, "data_format": "channels_last", "activity_regularizer": null, "padding": "same", "kernel_initializer": {"class_name": "VarianceScaling", "config": {"mode": "fan_avg", "seed": null, "scale": 1.0, "distribution": "uniform"}}, "kernel_regularizer": null, "kernel_size": [1, 1]}, "class_name": "Conv2D", "inbound_nodes": [[["mixed7", 0, 0, {}]]]}, {"name": "batch_normalization_73", "config": {"gamma_initializer": {"class_name": "Ones", "config": {}}, "beta_regularizer": null, "moving_mean_initializer": {"class_name": "Zeros", "config": {}}, "momentum": 0.99, "trainable": true, "beta_initializer": {"class_name": "Zeros", "config": {}}, "beta_constraint": null, "gamma_constraint": null, "moving_variance_initializer": {"class_name": "Ones", "config": {}}, "center": true, "name": "batch_normalization_73", "scale": true, "axis": 3, "gamma_regularizer": null, "epsilon": 0.001}, "class_name": "BatchNormalization", "inbound_nodes": [[["conv2d_73", 0, 0, {}]]]}, {"name": "conv2d_74", "config": {"bias_regularizer": null, "filters": 96, "dilation_rate": [1, 1], "activation": "relu", "name": "conv2d_74", "trainable": true, "kernel_constraint": null, "bias_constraint": null, "strides": [1, 1], "use_bias": true, "bias_initializer": {"class_name": "Zeros", "config": {}}, "data_format": "channels_last", "activity_regularizer": null, "padding": "same", "kernel_initializer": {"class_name": "VarianceScaling", "config": {"mode": "fan_avg", "seed": null, "scale": 1.0, "distribution": "uniform"}}, "kernel_regularizer": null, "kernel_size": [1, 7]}, "class_name": "Conv2D", "inbound_nodes": [[["batch_normalization_73", 0, 0, {}]]]}, {"name": "batch_normalization_74", "config": {"gamma_initializer": {"class_name": "Ones", "config": {}}, "beta_regularizer": null, "moving_mean_initializer": {"class_name": "Zeros", "config": {}}, "momentum": 0.99, "trainable": true, "beta_initializer": {"class_name": "Zeros", "config": {}}, "beta_constraint": null, "gamma_constraint": null, "moving_variance_initializer": {"class_name": "Ones", "config": {}}, "center": true, "name": "batch_normalization_74", "scale": true, "axis": 3, "gamma_regularizer": null, "epsilon": 0.001}, "class_name": "BatchNormalization", "inbound_nodes": [[["conv2d_74", 0, 0, {}]]]}, {"name": "conv2d_71", "config": {"bias_regularizer": null, "filters": 96, "dilation_rate": [1, 1], "activation": "relu", "name": "conv2d_71", "trainable": true, "kernel_constraint": null, "bias_constraint": null, "strides": [1, 1], "use_bias": true, "bias_initializer": {"class_name": "Zeros", "config": {}}, "data_format": "channels_last", "activity_regularizer": null, "padding": "same", "kernel_initializer": {"class_name": "VarianceScaling", "config": {"mode": "fan_avg", "seed": null, "scale": 1.0, "distribution": "uniform"}}, "kernel_regularizer": null, "kernel_size": [1, 1]}, "class_name": "Conv2D", "inbound_nodes": [[["mixed7", 0, 0, {}]]]}, {"name": "conv2d_75", "config": {"bias_regularizer": null, "filters": 96, "dilation_rate": [1, 1], "activation": "relu", "name": "conv2d_75", "trainable": true, "kernel_constraint": null, "bias_constraint": null, "strides": [1, 1], "use_bias": true, "bias_initializer": {"class_name": "Zeros", "config": {}}, "data_format": "channels_last", "activity_regularizer": null, "padding": "same", "kernel_initializer": {"class_name": "VarianceScaling", "config": {"mode": "fan_avg", "seed": null, "scale": 1.0, "distribution": "uniform"}}, "kernel_regularizer": null, "kernel_size": [7, 1]}, "class_name": "Conv2D", "inbound_nodes": [[["batch_normalization_74", 0, 0, {}]]]}, {"name": "batch_normalization_71", "config": {"gamma_initializer": {"class_name": "Ones", "config": {}}, "beta_regularizer": null, "moving_mean_initializer": {"class_name": "Zeros", "config": {}}, "momentum": 0.99, "trainable": true, "beta_initializer": {"class_name": "Zeros", "config": {}}, "beta_constraint": null, "gamma_constraint": null, "moving_variance_initializer": {"class_name": "Ones", "config": {}}, "center": true, "name": "batch_normalization_71", "scale": true, "axis": 3, "gamma_regularizer": null, "epsilon": 0.001}, "class_name": "BatchNormalization", "inbound_nodes": [[["conv2d_71", 0, 0, {}]]]}, {"name": "batch_normalization_75", "config": {"gamma_initializer": {"class_name": "Ones", "config": {}}, "beta_regularizer": null, "moving_mean_initializer": {"class_name": "Zeros", "config": {}}, "momentum": 0.99, "trainable": true, "beta_initializer": {"class_name": "Zeros", "config": {}}, "beta_constraint": null, "gamma_constraint": null, "moving_variance_initializer": {"class_name": "Ones", "config": {}}, "center": true, "name": "batch_normalization_75", "scale": true, "axis": 3, "gamma_regularizer": null, "epsilon": 0.001}, "class_name": "BatchNormalization", "inbound_nodes": [[["conv2d_75", 0, 0, {}]]]}, {"name": "conv2d_72", "config": {"bias_regularizer": null, "filters": 160, "dilation_rate": [1, 1], "activation": "relu", "name": "conv2d_72", "trainable": true, "kernel_constraint": null, "bias_constraint": null, "strides": [2, 2], "use_bias": true, "bias_initializer": {"class_name": "Zeros", "config": {}}, "data_format": "channels_last", "activity_regularizer": null, "padding": "valid", "kernel_initializer": {"class_name": "VarianceScaling", "config": {"mode": "fan_avg", "seed": null, "scale": 1.0, "distribution": "uniform"}}, "kernel_regularizer": null, "kernel_size": [3, 3]}, "class_name": "Conv2D", "inbound_nodes": [[["batch_normalization_71", 0, 0, {}]]]}, {"name": "conv2d_76", "config": {"bias_regularizer": null, "filters": 96, "dilation_rate": [1, 1], "activation": "relu", "name": "conv2d_76", "trainable": true, "kernel_constraint": null, "bias_constraint": null, "strides": [2, 2], "use_bias": true, "bias_initializer": {"class_name": "Zeros", "config": {}}, "data_format": "channels_last", "activity_regularizer": null, "padding": "valid", "kernel_initializer": {"class_name": "VarianceScaling", "config": {"mode": "fan_avg", "seed": null, "scale": 1.0, "distribution": "uniform"}}, "kernel_regularizer": null, "kernel_size": [3, 3]}, "class_name": "Conv2D", "inbound_nodes": [[["batch_normalization_75", 0, 0, {}]]]}, {"name": "batch_normalization_72", "config": {"gamma_initializer": {"class_name": "Ones", "config": {}}, "beta_regularizer": null, "moving_mean_initializer": {"class_name": "Zeros", "config": {}}, "momentum": 0.99, "trainable": true, "beta_initializer": {"class_name": "Zeros", "config": {}}, "beta_constraint": null, "gamma_constraint": null, "moving_variance_initializer": {"class_name": "Ones", "config": {}}, "center": true, "name": "batch_normalization_72", "scale": true, "axis": 3, "gamma_regularizer": null, "epsilon": 0.001}, "class_name": "BatchNormalization", "inbound_nodes": [[["conv2d_72", 0, 0, {}]]]}, {"name": "batch_normalization_76", "config": {"gamma_initializer": {"class_name": "Ones", "config": {}}, "beta_regularizer": null, "moving_mean_initializer": {"class_name": "Zeros", "config": {}}, "momentum": 0.99, "trainable": true, "beta_initializer": {"class_name": "Zeros", "config": {}}, "beta_constraint": null, "gamma_constraint": null, "moving_variance_initializer": {"class_name": "Ones", "config": {}}, "center": true, "name": "batch_normalization_76", "scale": true, "axis": 3, "gamma_regularizer": null, "epsilon": 0.001}, "class_name": "BatchNormalization", "inbound_nodes": [[["conv2d_76", 0, 0, {}]]]}, {"name": "average_pooling2d_8", "config": {"name": "average_pooling2d_8", "padding": "valid", "strides": [2, 2], "trainable": true, "pool_size": [3, 3], "data_format": "channels_last"}, "class_name": "AveragePooling2D", "inbound_nodes": [[["mixed7", 0, 0, {}]]]}, {"name": "mixed8", "config": {"trainable": true, "name": "mixed8", "axis": -1}, "class_name": "Concatenate", "inbound_nodes": [[["batch_normalization_72", 0, 0, {}], ["batch_normalization_76", 0, 0, {}], ["average_pooling2d_8", 0, 0, {}]]]}, {"name": "conv2d_81", "config": {"bias_regularizer": null, "filters": 224, "dilation_rate": [1, 1], "activation": "relu", "name": "conv2d_81", "trainable": true, "kernel_constraint": null, "bias_constraint": null, "strides": [1, 1], "use_bias": true, "bias_initializer": {"class_name": "Zeros", "config": {}}, "data_format": "channels_last", "activity_regularizer": null, "padding": "same", "kernel_initializer": {"class_name": "VarianceScaling", "config": {"mode": "fan_avg", "seed": null, "scale": 1.0, "distribution": "uniform"}}, "kernel_regularizer": null, "kernel_size": [1, 1]}, "class_name": "Conv2D", "inbound_nodes": [[["mixed8", 0, 0, {}]]]}, {"name": "batch_normalization_81", "config": {"gamma_initializer": {"class_name": "Ones", "config": {}}, "beta_regularizer": null, "moving_mean_initializer": {"class_name": "Zeros", "config": {}}, "momentum": 0.99, "trainable": true, "beta_initializer": {"class_name": "Zeros", "config": {}}, "beta_constraint": null, "gamma_constraint": null, "moving_variance_initializer": {"class_name": "Ones", "config": {}}, "center": true, "name": "batch_normalization_81", "scale": true, "axis": 3, "gamma_regularizer": null, "epsilon": 0.001}, "class_name": "BatchNormalization", "inbound_nodes": [[["conv2d_81", 0, 0, {}]]]}, {"name": "conv2d_78", "config": {"bias_regularizer": null, "filters": 192, "dilation_rate": [1, 1], "activation": "relu", "name": "conv2d_78", "trainable": true, "kernel_constraint": null, "bias_constraint": null, "strides": [1, 1], "use_bias": true, "bias_initializer": {"class_name": "Zeros", "config": {}}, "data_format": "channels_last", "activity_regularizer": null, "padding": "same", "kernel_initializer": {"class_name": "VarianceScaling", "config": {"mode": "fan_avg", "seed": null, "scale": 1.0, "distribution": "uniform"}}, "kernel_regularizer": null, "kernel_size": [1, 1]}, "class_name": "Conv2D", "inbound_nodes": [[["mixed8", 0, 0, {}]]]}, {"name": "conv2d_82", "config": {"bias_regularizer": null, "filters": 192, "dilation_rate": [1, 1], "activation": "relu", "name": "conv2d_82", "trainable": true, "kernel_constraint": null, "bias_constraint": null, "strides": [1, 1], "use_bias": true, "bias_initializer": {"class_name": "Zeros", "config": {}}, "data_format": "channels_last", "activity_regularizer": null, "padding": "same", "kernel_initializer": {"class_name": "VarianceScaling", "config": {"mode": "fan_avg", "seed": null, "scale": 1.0, "distribution": "uniform"}}, "kernel_regularizer": null, "kernel_size": [3, 3]}, "class_name": "Conv2D", "inbound_nodes": [[["batch_normalization_81", 0, 0, {}]]]}, {"name": "batch_normalization_78", "config": {"gamma_initializer": {"class_name": "Ones", "config": {}}, "beta_regularizer": null, "moving_mean_initializer": {"class_name": "Zeros", "config": {}}, "momentum": 0.99, "trainable": true, "beta_initializer": {"class_name": "Zeros", "config": {}}, "beta_constraint": null, "gamma_constraint": null, "moving_variance_initializer": {"class_name": "Ones", "config": {}}, "center": true, "name": "batch_normalization_78", "scale": true, "axis": 3, "gamma_regularizer": null, "epsilon": 0.001}, "class_name": "BatchNormalization", "inbound_nodes": [[["conv2d_78", 0, 0, {}]]]}, {"name": "batch_normalization_82", "config": {"gamma_initializer": {"class_name": "Ones", "config": {}}, "beta_regularizer": null, "moving_mean_initializer": {"class_name": "Zeros", "config": {}}, "momentum": 0.99, "trainable": true, "beta_initializer": {"class_name": "Zeros", "config": {}}, "beta_constraint": null, "gamma_constraint": null, "moving_variance_initializer": {"class_name": "Ones", "config": {}}, "center": true, "name": "batch_normalization_82", "scale": true, "axis": 3, "gamma_regularizer": null, "epsilon": 0.001}, "class_name": "BatchNormalization", "inbound_nodes": [[["conv2d_82", 0, 0, {}]]]}, {"name": "conv2d_79", "config": {"bias_regularizer": null, "filters": 192, "dilation_rate": [1, 1], "activation": "relu", "name": "conv2d_79", "trainable": true, "kernel_constraint": null, "bias_constraint": null, "strides": [1, 1], "use_bias": true, "bias_initializer": {"class_name": "Zeros", "config": {}}, "data_format": "channels_last", "activity_regularizer": null, "padding": "same", "kernel_initializer": {"class_name": "VarianceScaling", "config": {"mode": "fan_avg", "seed": null, "scale": 1.0, "distribution": "uniform"}}, "kernel_regularizer": null, "kernel_size": [1, 3]}, "class_name": "Conv2D", "inbound_nodes": [[["batch_normalization_78", 0, 0, {}]]]}, {"name": "conv2d_80", "config": {"bias_regularizer": null, "filters": 192, "dilation_rate": [1, 1], "activation": "relu", "name": "conv2d_80", "trainable": true, "kernel_constraint": null, "bias_constraint": null, "strides": [1, 1], "use_bias": true, "bias_initializer": {"class_name": "Zeros", "config": {}}, "data_format": "channels_last", "activity_regularizer": null, "padding": "same", "kernel_initializer": {"class_name": "VarianceScaling", "config": {"mode": "fan_avg", "seed": null, "scale": 1.0, "distribution": "uniform"}}, "kernel_regularizer": null, "kernel_size": [3, 1]}, "class_name": "Conv2D", "inbound_nodes": [[["batch_normalization_78", 0, 0, {}]]]}, {"name": "conv2d_83", "config": {"bias_regularizer": null, "filters": 192, "dilation_rate": [1, 1], "activation": "relu", "name": "conv2d_83", "trainable": true, "kernel_constraint": null, "bias_constraint": null, "strides": [1, 1], "use_bias": true, "bias_initializer": {"class_name": "Zeros", "config": {}}, "data_format": "channels_last", "activity_regularizer": null, "padding": "same", "kernel_initializer": {"class_name": "VarianceScaling", "config": {"mode": "fan_avg", "seed": null, "scale": 1.0, "distribution": "uniform"}}, "kernel_regularizer": null, "kernel_size": [1, 3]}, "class_name": "Conv2D", "inbound_nodes": [[["batch_normalization_82", 0, 0, {}]]]}, {"name": "conv2d_84", "config": {"bias_regularizer": null, "filters": 192, "dilation_rate": [1, 1], "activation": "relu", "name": "conv2d_84", "trainable": true, "kernel_constraint": null, "bias_constraint": null, "strides": [1, 1], "use_bias": true, "bias_initializer": {"class_name": "Zeros", "config": {}}, "data_format": "channels_last", "activity_regularizer": null, "padding": "same", "kernel_initializer": {"class_name": "VarianceScaling", "config": {"mode": "fan_avg", "seed": null, "scale": 1.0, "distribution": "uniform"}}, "kernel_regularizer": null, "kernel_size": [3, 1]}, "class_name": "Conv2D", "inbound_nodes": [[["batch_normalization_82", 0, 0, {}]]]}, {"name": "average_pooling2d_9", "config": {"name": "average_pooling2d_9", "padding": "same", "strides": [1, 1], "trainable": true, "pool_size": [3, 3], "data_format": "channels_last"}, "class_name": "AveragePooling2D", "inbound_nodes": [[["mixed8", 0, 0, {}]]]}, {"name": "conv2d_77", "config": {"bias_regularizer": null, "filters": 160, "dilation_rate": [1, 1], "activation": "relu", "name": "conv2d_77", "trainable": true, "kernel_constraint": null, "bias_constraint": null, "strides": [1, 1], "use_bias": true, "bias_initializer": {"class_name": "Zeros", "config": {}}, "data_format": "channels_last", "activity_regularizer": null, "padding": "same", "kernel_initializer": {"class_name": "VarianceScaling", "config": {"mode": "fan_avg", "seed": null, "scale": 1.0, "distribution": "uniform"}}, "kernel_regularizer": null, "kernel_size": [1, 1]}, "class_name": "Conv2D", "inbound_nodes": [[["mixed8", 0, 0, {}]]]}, {"name": "batch_normalization_79", "config": {"gamma_initializer": {"class_name": "Ones", "config": {}}, "beta_regularizer": null, "moving_mean_initializer": {"class_name": "Zeros", "config": {}}, "momentum": 0.99, "trainable": true, "beta_initializer": {"class_name": "Zeros", "config": {}}, "beta_constraint": null, "gamma_constraint": null, "moving_variance_initializer": {"class_name": "Ones", "config": {}}, "center": true, "name": "batch_normalization_79", "scale": true, "axis": 3, "gamma_regularizer": null, "epsilon": 0.001}, "class_name": "BatchNormalization", "inbound_nodes": [[["conv2d_79", 0, 0, {}]]]}, {"name": "batch_normalization_80", "config": {"gamma_initializer": {"class_name": "Ones", "config": {}}, "beta_regularizer": null, "moving_mean_initializer": {"class_name": "Zeros", "config": {}}, "momentum": 0.99, "trainable": true, "beta_initializer": {"class_name": "Zeros", "config": {}}, "beta_constraint": null, "gamma_constraint": null, "moving_variance_initializer": {"class_name": "Ones", "config": {}}, "center": true, "name": "batch_normalization_80", "scale": true, "axis": 3, "gamma_regularizer": null, "epsilon": 0.001}, "class_name": "BatchNormalization", "inbound_nodes": [[["conv2d_80", 0, 0, {}]]]}, {"name": "batch_normalization_83", "config": {"gamma_initializer": {"class_name": "Ones", "config": {}}, "beta_regularizer": null, "moving_mean_initializer": {"class_name": "Zeros", "config": {}}, "momentum": 0.99, "trainable": true, "beta_initializer": {"class_name": "Zeros", "config": {}}, "beta_constraint": null, "gamma_constraint": null, "moving_variance_initializer": {"class_name": "Ones", "config": {}}, "center": true, "name": "batch_normalization_83", "scale": true, "axis": 3, "gamma_regularizer": null, "epsilon": 0.001}, "class_name": "BatchNormalization", "inbound_nodes": [[["conv2d_83", 0, 0, {}]]]}, {"name": "batch_normalization_84", "config": {"gamma_initializer": {"class_name": "Ones", "config": {}}, "beta_regularizer": null, "moving_mean_initializer": {"class_name": "Zeros", "config": {}}, "momentum": 0.99, "trainable": true, "beta_initializer": {"class_name": "Zeros", "config": {}}, "beta_constraint": null, "gamma_constraint": null, "moving_variance_initializer": {"class_name": "Ones", "config": {}}, "center": true, "name": "batch_normalization_84", "scale": true, "axis": 3, "gamma_regularizer": null, "epsilon": 0.001}, "class_name": "BatchNormalization", "inbound_nodes": [[["conv2d_84", 0, 0, {}]]]}, {"name": "conv2d_85", "config": {"bias_regularizer": null, "filters": 96, "dilation_rate": [1, 1], "activation": "relu", "name": "conv2d_85", "trainable": true, "kernel_constraint": null, "bias_constraint": null, "strides": [1, 1], "use_bias": true, "bias_initializer": {"class_name": "Zeros", "config": {}}, "data_format": "channels_last", "activity_regularizer": null, "padding": "same", "kernel_initializer": {"class_name": "VarianceScaling", "config": {"mode": "fan_avg", "seed": null, "scale": 1.0, "distribution": "uniform"}}, "kernel_regularizer": null, "kernel_size": [1, 1]}, "class_name": "Conv2D", "inbound_nodes": [[["average_pooling2d_9", 0, 0, {}]]]}, {"name": "batch_normalization_77", "config": {"gamma_initializer": {"class_name": "Ones", "config": {}}, "beta_regularizer": null, "moving_mean_initializer": {"class_name": "Zeros", "config": {}}, "momentum": 0.99, "trainable": true, "beta_initializer": {"class_name": "Zeros", "config": {}}, "beta_constraint": null, "gamma_constraint": null, "moving_variance_initializer": {"class_name": "Ones", "config": {}}, "center": true, "name": "batch_normalization_77", "scale": true, "axis": 3, "gamma_regularizer": null, "epsilon": 0.001}, "class_name": "BatchNormalization", "inbound_nodes": [[["conv2d_77", 0, 0, {}]]]}, {"name": "mixed9_0", "config": {"trainable": true, "name": "mixed9_0", "axis": -1}, "class_name": "Concatenate", "inbound_nodes": [[["batch_normalization_79", 0, 0, {}], ["batch_normalization_80", 0, 0, {}]]]}, {"name": "concatenate_1", "config": {"trainable": true, "name": "concatenate_1", "axis": -1}, "class_name": "Concatenate", "inbound_nodes": [[["batch_normalization_83", 0, 0, {}], ["batch_normalization_84", 0, 0, {}]]]}, {"name": "batch_normalization_85", "config": {"gamma_initializer": {"class_name": "Ones", "config": {}}, "beta_regularizer": null, "moving_mean_initializer": {"class_name": "Zeros", "config": {}}, "momentum": 0.99, "trainable": true, "beta_initializer": {"class_name": "Zeros", "config": {}}, "beta_constraint": null, "gamma_constraint": null, "moving_variance_initializer": {"class_name": "Ones", "config": {}}, "center": true, "name": "batch_normalization_85", "scale": true, "axis": 3, "gamma_regularizer": null, "epsilon": 0.001}, "class_name": "BatchNormalization", "inbound_nodes": [[["conv2d_85", 0, 0, {}]]]}, {"name": "mixed9", "config": {"trainable": true, "name": "mixed9", "axis": -1}, "class_name": "Concatenate", "inbound_nodes": [[["batch_normalization_77", 0, 0, {}], ["mixed9_0", 0, 0, {}], ["concatenate_1", 0, 0, {}], ["batch_normalization_85", 0, 0, {}]]]}, {"name": "conv2d_90", "config": {"bias_regularizer": null, "filters": 224, "dilation_rate": [1, 1], "activation": "relu", "name": "conv2d_90", "trainable": true, "kernel_constraint": null, "bias_constraint": null, "strides": [1, 1], "use_bias": true, "bias_initializer": {"class_name": "Zeros", "config": {}}, "data_format": "channels_last", "activity_regularizer": null, "padding": "same", "kernel_initializer": {"class_name": "VarianceScaling", "config": {"mode": "fan_avg", "seed": null, "scale": 1.0, "distribution": "uniform"}}, "kernel_regularizer": null, "kernel_size": [1, 1]}, "class_name": "Conv2D", "inbound_nodes": [[["mixed9", 0, 0, {}]]]}, {"name": "batch_normalization_90", "config": {"gamma_initializer": {"class_name": "Ones", "config": {}}, "beta_regularizer": null, "moving_mean_initializer": {"class_name": "Zeros", "config": {}}, "momentum": 0.99, "trainable": true, "beta_initializer": {"class_name": "Zeros", "config": {}}, "beta_constraint": null, "gamma_constraint": null, "moving_variance_initializer": {"class_name": "Ones", "config": {}}, "center": true, "name": "batch_normalization_90", "scale": true, "axis": 3, "gamma_regularizer": null, "epsilon": 0.001}, "class_name": "BatchNormalization", "inbound_nodes": [[["conv2d_90", 0, 0, {}]]]}, {"name": "conv2d_87", "config": {"bias_regularizer": null, "filters": 192, "dilation_rate": [1, 1], "activation": "relu", "name": "conv2d_87", "trainable": true, "kernel_constraint": null, "bias_constraint": null, "strides": [1, 1], "use_bias": true, "bias_initializer": {"class_name": "Zeros", "config": {}}, "data_format": "channels_last", "activity_regularizer": null, "padding": "same", "kernel_initializer": {"class_name": "VarianceScaling", "config": {"mode": "fan_avg", "seed": null, "scale": 1.0, "distribution": "uniform"}}, "kernel_regularizer": null, "kernel_size": [1, 1]}, "class_name": "Conv2D", "inbound_nodes": [[["mixed9", 0, 0, {}]]]}, {"name": "conv2d_91", "config": {"bias_regularizer": null, "filters": 192, "dilation_rate": [1, 1], "activation": "relu", "name": "conv2d_91", "trainable": true, "kernel_constraint": null, "bias_constraint": null, "strides": [1, 1], "use_bias": true, "bias_initializer": {"class_name": "Zeros", "config": {}}, "data_format": "channels_last", "activity_regularizer": null, "padding": "same", "kernel_initializer": {"class_name": "VarianceScaling", "config": {"mode": "fan_avg", "seed": null, "scale": 1.0, "distribution": "uniform"}}, "kernel_regularizer": null, "kernel_size": [3, 3]}, "class_name": "Conv2D", "inbound_nodes": [[["batch_normalization_90", 0, 0, {}]]]}, {"name": "batch_normalization_87", "config": {"gamma_initializer": {"class_name": "Ones", "config": {}}, "beta_regularizer": null, "moving_mean_initializer": {"class_name": "Zeros", "config": {}}, "momentum": 0.99, "trainable": true, "beta_initializer": {"class_name": "Zeros", "config": {}}, "beta_constraint": null, "gamma_constraint": null, "moving_variance_initializer": {"class_name": "Ones", "config": {}}, "center": true, "name": "batch_normalization_87", "scale": true, "axis": 3, "gamma_regularizer": null, "epsilon": 0.001}, "class_name": "BatchNormalization", "inbound_nodes": [[["conv2d_87", 0, 0, {}]]]}, {"name": "batch_normalization_91", "config": {"gamma_initializer": {"class_name": "Ones", "config": {}}, "beta_regularizer": null, "moving_mean_initializer": {"class_name": "Zeros", "config": {}}, "momentum": 0.99, "trainable": true, "beta_initializer": {"class_name": "Zeros", "config": {}}, "beta_constraint": null, "gamma_constraint": null, "moving_variance_initializer": {"class_name": "Ones", "config": {}}, "center": true, "name": "batch_normalization_91", "scale": true, "axis": 3, "gamma_regularizer": null, "epsilon": 0.001}, "class_name": "BatchNormalization", "inbound_nodes": [[["conv2d_91", 0, 0, {}]]]}, {"name": "conv2d_88", "config": {"bias_regularizer": null, "filters": 192, "dilation_rate": [1, 1], "activation": "relu", "name": "conv2d_88", "trainable": true, "kernel_constraint": null, "bias_constraint": null, "strides": [1, 1], "use_bias": true, "bias_initializer": {"class_name": "Zeros", "config": {}}, "data_format": "channels_last", "activity_regularizer": null, "padding": "same", "kernel_initializer": {"class_name": "VarianceScaling", "config": {"mode": "fan_avg", "seed": null, "scale": 1.0, "distribution": "uniform"}}, "kernel_regularizer": null, "kernel_size": [1, 3]}, "class_name": "Conv2D", "inbound_nodes": [[["batch_normalization_87", 0, 0, {}]]]}, {"name": "conv2d_89", "config": {"bias_regularizer": null, "filters": 192, "dilation_rate": [1, 1], "activation": "relu", "name": "conv2d_89", "trainable": true, "kernel_constraint": null, "bias_constraint": null, "strides": [1, 1], "use_bias": true, "bias_initializer": {"class_name": "Zeros", "config": {}}, "data_format": "channels_last", "activity_regularizer": null, "padding": "same", "kernel_initializer": {"class_name": "VarianceScaling", "config": {"mode": "fan_avg", "seed": null, "scale": 1.0, "distribution": "uniform"}}, "kernel_regularizer": null, "kernel_size": [3, 1]}, "class_name": "Conv2D", "inbound_nodes": [[["batch_normalization_87", 0, 0, {}]]]}, {"name": "conv2d_92", "config": {"bias_regularizer": null, "filters": 192, "dilation_rate": [1, 1], "activation": "relu", "name": "conv2d_92", "trainable": true, "kernel_constraint": null, "bias_constraint": null, "strides": [1, 1], "use_bias": true, "bias_initializer": {"class_name": "Zeros", "config": {}}, "data_format": "channels_last", "activity_regularizer": null, "padding": "same", "kernel_initializer": {"class_name": "VarianceScaling", "config": {"mode": "fan_avg", "seed": null, "scale": 1.0, "distribution": "uniform"}}, "kernel_regularizer": null, "kernel_size": [1, 3]}, "class_name": "Conv2D", "inbound_nodes": [[["batch_normalization_91", 0, 0, {}]]]}, {"name": "conv2d_93", "config": {"bias_regularizer": null, "filters": 192, "dilation_rate": [1, 1], "activation": "relu", "name": "conv2d_93", "trainable": true, "kernel_constraint": null, "bias_constraint": null, "strides": [1, 1], "use_bias": true, "bias_initializer": {"class_name": "Zeros", "config": {}}, "data_format": "channels_last", "activity_regularizer": null, "padding": "same", "kernel_initializer": {"class_name": "VarianceScaling", "config": {"mode": "fan_avg", "seed": null, "scale": 1.0, "distribution": "uniform"}}, "kernel_regularizer": null, "kernel_size": [3, 1]}, "class_name": "Conv2D", "inbound_nodes": [[["batch_normalization_91", 0, 0, {}]]]}, {"name": "average_pooling2d_10", "config": {"name": "average_pooling2d_10", "padding": "same", "strides": [1, 1], "trainable": true, "pool_size": [3, 3], "data_format": "channels_last"}, "class_name": "AveragePooling2D", "inbound_nodes": [[["mixed9", 0, 0, {}]]]}, {"name": "conv2d_86", "config": {"bias_regularizer": null, "filters": 160, "dilation_rate": [1, 1], "activation": "relu", "name": "conv2d_86", "trainable": true, "kernel_constraint": null, "bias_constraint": null, "strides": [1, 1], "use_bias": true, "bias_initializer": {"class_name": "Zeros", "config": {}}, "data_format": "channels_last", "activity_regularizer": null, "padding": "same", "kernel_initializer": {"class_name": "VarianceScaling", "config": {"mode": "fan_avg", "seed": null, "scale": 1.0, "distribution": "uniform"}}, "kernel_regularizer": null, "kernel_size": [1, 1]}, "class_name": "Conv2D", "inbound_nodes": [[["mixed9", 0, 0, {}]]]}, {"name": "batch_normalization_88", "config": {"gamma_initializer": {"class_name": "Ones", "config": {}}, "beta_regularizer": null, "moving_mean_initializer": {"class_name": "Zeros", "config": {}}, "momentum": 0.99, "trainable": true, "beta_initializer": {"class_name": "Zeros", "config": {}}, "beta_constraint": null, "gamma_constraint": null, "moving_variance_initializer": {"class_name": "Ones", "config": {}}, "center": true, "name": "batch_normalization_88", "scale": true, "axis": 3, "gamma_regularizer": null, "epsilon": 0.001}, "class_name": "BatchNormalization", "inbound_nodes": [[["conv2d_88", 0, 0, {}]]]}, {"name": "batch_normalization_89", "config": {"gamma_initializer": {"class_name": "Ones", "config": {}}, "beta_regularizer": null, "moving_mean_initializer": {"class_name": "Zeros", "config": {}}, "momentum": 0.99, "trainable": true, "beta_initializer": {"class_name": "Zeros", "config": {}}, "beta_constraint": null, "gamma_constraint": null, "moving_variance_initializer": {"class_name": "Ones", "config": {}}, "center": true, "name": "batch_normalization_89", "scale": true, "axis": 3, "gamma_regularizer": null, "epsilon": 0.001}, "class_name": "BatchNormalization", "inbound_nodes": [[["conv2d_89", 0, 0, {}]]]}, {"name": "batch_normalization_92", "config": {"gamma_initializer": {"class_name": "Ones", "config": {}}, "beta_regularizer": null, "moving_mean_initializer": {"class_name": "Zeros", "config": {}}, "momentum": 0.99, "trainable": true, "beta_initializer": {"class_name": "Zeros", "config": {}}, "beta_constraint": null, "gamma_constraint": null, "moving_variance_initializer": {"class_name": "Ones", "config": {}}, "center": true, "name": "batch_normalization_92", "scale": true, "axis": 3, "gamma_regularizer": null, "epsilon": 0.001}, "class_name": "BatchNormalization", "inbound_nodes": [[["conv2d_92", 0, 0, {}]]]}, {"name": "batch_normalization_93", "config": {"gamma_initializer": {"class_name": "Ones", "config": {}}, "beta_regularizer": null, "moving_mean_initializer": {"class_name": "Zeros", "config": {}}, "momentum": 0.99, "trainable": true, "beta_initializer": {"class_name": "Zeros", "config": {}}, "beta_constraint": null, "gamma_constraint": null, "moving_variance_initializer": {"class_name": "Ones", "config": {}}, "center": true, "name": "batch_normalization_93", "scale": true, "axis": 3, "gamma_regularizer": null, "epsilon": 0.001}, "class_name": "BatchNormalization", "inbound_nodes": [[["conv2d_93", 0, 0, {}]]]}, {"name": "conv2d_94", "config": {"bias_regularizer": null, "filters": 96, "dilation_rate": [1, 1], "activation": "relu", "name": "conv2d_94", "trainable": true, "kernel_constraint": null, "bias_constraint": null, "strides": [1, 1], "use_bias": true, "bias_initializer": {"class_name": "Zeros", "config": {}}, "data_format": "channels_last", "activity_regularizer": null, "padding": "same", "kernel_initializer": {"class_name": "VarianceScaling", "config": {"mode": "fan_avg", "seed": null, "scale": 1.0, "distribution": "uniform"}}, "kernel_regularizer": null, "kernel_size": [1, 1]}, "class_name": "Conv2D", "inbound_nodes": [[["average_pooling2d_10", 0, 0, {}]]]}, {"name": "batch_normalization_86", "config": {"gamma_initializer": {"class_name": "Ones", "config": {}}, "beta_regularizer": null, "moving_mean_initializer": {"class_name": "Zeros", "config": {}}, "momentum": 0.99, "trainable": true, "beta_initializer": {"class_name": "Zeros", "config": {}}, "beta_constraint": null, "gamma_constraint": null, "moving_variance_initializer": {"class_name": "Ones", "config": {}}, "center": true, "name": "batch_normalization_86", "scale": true, "axis": 3, "gamma_regularizer": null, "epsilon": 0.001}, "class_name": "BatchNormalization", "inbound_nodes": [[["conv2d_86", 0, 0, {}]]]}, {"name": "mixed9_1", "config": {"trainable": true, "name": "mixed9_1", "axis": -1}, "class_name": "Concatenate", "inbound_nodes": [[["batch_normalization_88", 0, 0, {}], ["batch_normalization_89", 0, 0, {}]]]}, {"name": "concatenate_2", "config": {"trainable": true, "name": "concatenate_2", "axis": -1}, "class_name": "Concatenate", "inbound_nodes": [[["batch_normalization_92", 0, 0, {}], ["batch_normalization_93", 0, 0, {}]]]}, {"name": "batch_normalization_94", "config": {"gamma_initializer": {"class_name": "Ones", "config": {}}, "beta_regularizer": null, "moving_mean_initializer": {"class_name": "Zeros", "config": {}}, "momentum": 0.99, "trainable": true, "beta_initializer": {"class_name": "Zeros", "config": {}}, "beta_constraint": null, "gamma_constraint": null, "moving_variance_initializer": {"class_name": "Ones", "config": {}}, "center": true, "name": "batch_normalization_94", "scale": true, "axis": 3, "gamma_regularizer": null, "epsilon": 0.001}, "class_name": "BatchNormalization", "inbound_nodes": [[["conv2d_94", 0, 0, {}]]]}, {"name": "mixed10", "config": {"trainable": true, "name": "mixed10", "axis": -1}, "class_name": "Concatenate", "inbound_nodes": [[["batch_normalization_86", 0, 0, {}], ["mixed9_1", 0, 0, {}], ["concatenate_2", 0, 0, {}], ["batch_normalization_94", 0, 0, {}]]]}, {"name": "end_max_pool", "config": {"name": "end_max_pool", "padding": "valid", "strides": [2, 2], "trainable": true, "pool_size": [2, 2], "data_format": "channels_last"}, "class_name": "MaxPooling2D", "inbound_nodes": [[["mixed10", 0, 0, {}]]]}, {"name": "flatten", "config": {"trainable": true, "name": "flatten"}, "class_name": "Flatten", "inbound_nodes": [[["end_max_pool", 0, 0, {}]]]}, {"name": "output_layer", "config": {"bias_regularizer": null, "trainable": true, "units": 1, "name": "output_layer", "use_bias": true, "bias_initializer": {"class_name": "Zeros", "config": {}}, "bias_constraint": null, "activity_regularizer": null, "activation": "sigmoid", "kernel_constraint": null, "kernel_regularizer": null, "kernel_initializer": {"class_name": "VarianceScaling", "config": {"mode": "fan_avg", "seed": null, "scale": 1.0, "distribution": "uniform"}}}, "class_name": "Dense", "inbound_nodes": [[["flatten", 0, 0, {}]]]}], "input_layers": [["input_1", 0, 0]]}}