{"config": {"name": "model_1", "output_layers": [["output_layer", 0, 0]], "input_layers": [["input_1", 0, 0]], "layers": [{"name": "input_1", "class_name": "InputLayer", "inbound_nodes": [], "config": {"dtype": "float32", "name": "input_1", "sparse": false, "batch_input_shape": [null, 1152, 832, 1]}}, {"name": "conv2d_1", "class_name": "Conv2D", "inbound_nodes": [[["input_1", 0, 0, {}]]], "config": {"name": "conv2d_1", "activation": "relu", "bias_initializer": {"config": {}, "class_name": "Zeros"}, "strides": [2, 2], "kernel_initializer": {"config": {"scale": 1.0, "distribution": "uniform", "seed": null, "mode": "fan_avg"}, "class_name": "VarianceScaling"}, "kernel_regularizer": null, "bias_constraint": null, "dilation_rate": [1, 1], "kernel_constraint": null, "kernel_size": [3, 3], "bias_regularizer": null, "padding": "valid", "trainable": true, "activity_regularizer": null, "filters": 16, "use_bias": true, "data_format": "channels_last"}}, {"name": "batch_normalization_1", "class_name": "BatchNormalization", "inbound_nodes": [[["conv2d_1", 0, 0, {}]]], "config": {"name": "batch_normalization_1", "beta_regularizer": null, "moving_mean_initializer": {"config": {}, "class_name": "Zeros"}, "scale": true, "beta_initializer": {"config": {}, "class_name": "Zeros"}, "center": true, "gamma_regularizer": null, "gamma_constraint": null, "momentum": 0.99, "gamma_initializer": {"config": {}, "class_name": "Ones"}, "epsilon": 0.001, "axis": 3, "moving_variance_initializer": {"config": {}, "class_name": "Ones"}, "beta_constraint": null, "trainable": true}}, {"name": "conv2d_2", "class_name": "Conv2D", "inbound_nodes": [[["batch_normalization_1", 0, 0, {}]]], "config": {"name": "conv2d_2", "activation": "relu", "bias_initializer": {"config": {}, "class_name": "Zeros"}, "strides": [1, 1], "kernel_initializer": {"config": {"scale": 1.0, "distribution": "uniform", "seed": null, "mode": "fan_avg"}, "class_name": "VarianceScaling"}, "kernel_regularizer": null, "bias_constraint": null, "dilation_rate": [1, 1], "kernel_constraint": null, "kernel_size": [3, 3], "bias_regularizer": null, "padding": "valid", "trainable": true, "activity_regularizer": null, "filters": 16, "use_bias": true, "data_format": "channels_last"}}, {"name": "batch_normalization_2", "class_name": "BatchNormalization", "inbound_nodes": [[["conv2d_2", 0, 0, {}]]], "config": {"name": "batch_normalization_2", "beta_regularizer": null, "moving_mean_initializer": {"config": {}, "class_name": "Zeros"}, "scale": true, "beta_initializer": {"config": {}, "class_name": "Zeros"}, "center": true, "gamma_regularizer": null, "gamma_constraint": null, "momentum": 0.99, "gamma_initializer": {"config": {}, "class_name": "Ones"}, "epsilon": 0.001, "axis": 3, "moving_variance_initializer": {"config": {}, "class_name": "Ones"}, "beta_constraint": null, "trainable": true}}, {"name": "conv2d_3", "class_name": "Conv2D", "inbound_nodes": [[["batch_normalization_2", 0, 0, {}]]], "config": {"name": "conv2d_3", "activation": "relu", "bias_initializer": {"config": {}, "class_name": "Zeros"}, "strides": [1, 1], "kernel_initializer": {"config": {"scale": 1.0, "distribution": "uniform", "seed": null, "mode": "fan_avg"}, "class_name": "VarianceScaling"}, "kernel_regularizer": null, "bias_constraint": null, "dilation_rate": [1, 1], "kernel_constraint": null, "kernel_size": [3, 3], "bias_regularizer": null, "padding": "same", "trainable": true, "activity_regularizer": null, "filters": 32, "use_bias": true, "data_format": "channels_last"}}, {"name": "batch_normalization_3", "class_name": "BatchNormalization", "inbound_nodes": [[["conv2d_3", 0, 0, {}]]], "config": {"name": "batch_normalization_3", "beta_regularizer": null, "moving_mean_initializer": {"config": {}, "class_name": "Zeros"}, "scale": true, "beta_initializer": {"config": {}, "class_name": "Zeros"}, "center": true, "gamma_regularizer": null, "gamma_constraint": null, "momentum": 0.99, "gamma_initializer": {"config": {}, "class_name": "Ones"}, "epsilon": 0.001, "axis": 3, "moving_variance_initializer": {"config": {}, "class_name": "Ones"}, "beta_constraint": null, "trainable": true}}, {"name": "max_pooling2d_1", "class_name": "MaxPooling2D", "inbound_nodes": [[["batch_normalization_3", 0, 0, {}]]], "config": {"name": "max_pooling2d_1", "pool_size": [3, 3], "data_format": "channels_last", "padding": "valid", "trainable": true, "strides": [2, 2]}}, {"name": "conv2d_4", "class_name": "Conv2D", "inbound_nodes": [[["max_pooling2d_1", 0, 0, {}]]], "config": {"name": "conv2d_4", "activation": "relu", "bias_initializer": {"config": {}, "class_name": "Zeros"}, "strides": [1, 1], "kernel_initializer": {"config": {"scale": 1.0, "distribution": "uniform", "seed": null, "mode": "fan_avg"}, "class_name": "VarianceScaling"}, "kernel_regularizer": null, "bias_constraint": null, "dilation_rate": [1, 1], "kernel_constraint": null, "kernel_size": [1, 1], "bias_regularizer": null, "padding": "valid", "trainable": true, "activity_regularizer": null, "filters": 40, "use_bias": true, "data_format": "channels_last"}}, {"name": "batch_normalization_4", "class_name": "BatchNormalization", "inbound_nodes": [[["conv2d_4", 0, 0, {}]]], "config": {"name": "batch_normalization_4", "beta_regularizer": null, "moving_mean_initializer": {"config": {}, "class_name": "Zeros"}, "scale": true, "beta_initializer": {"config": {}, "class_name": "Zeros"}, "center": true, "gamma_regularizer": null, "gamma_constraint": null, "momentum": 0.99, "gamma_initializer": {"config": {}, "class_name": "Ones"}, "epsilon": 0.001, "axis": 3, "moving_variance_initializer": {"config": {}, "class_name": "Ones"}, "beta_constraint": null, "trainable": true}}, {"name": "conv2d_5", "class_name": "Conv2D", "inbound_nodes": [[["batch_normalization_4", 0, 0, {}]]], "config": {"name": "conv2d_5", "activation": "relu", "bias_initializer": {"config": {}, "class_name": "Zeros"}, "strides": [1, 1], "kernel_initializer": {"config": {"scale": 1.0, "distribution": "uniform", "seed": null, "mode": "fan_avg"}, "class_name": "VarianceScaling"}, "kernel_regularizer": null, "bias_constraint": null, "dilation_rate": [1, 1], "kernel_constraint": null, "kernel_size": [3, 3], "bias_regularizer": null, "padding": "valid", "trainable": true, "activity_regularizer": null, "filters": 96, "use_bias": true, "data_format": "channels_last"}}, {"name": "batch_normalization_5", "class_name": "BatchNormalization", "inbound_nodes": [[["conv2d_5", 0, 0, {}]]], "config": {"name": "batch_normalization_5", "beta_regularizer": null, "moving_mean_initializer": {"config": {}, "class_name": "Zeros"}, "scale": true, "beta_initializer": {"config": {}, "class_name": "Zeros"}, "center": true, "gamma_regularizer": null, "gamma_constraint": null, "momentum": 0.99, "gamma_initializer": {"config": {}, "class_name": "Ones"}, "epsilon": 0.001, "axis": 3, "moving_variance_initializer": {"config": {}, "class_name": "Ones"}, "beta_constraint": null, "trainable": true}}, {"name": "max_pooling2d_2", "class_name": "MaxPooling2D", "inbound_nodes": [[["batch_normalization_5", 0, 0, {}]]], "config": {"name": "max_pooling2d_2", "pool_size": [3, 3], "data_format": "channels_last", "padding": "valid", "trainable": true, "strides": [2, 2]}}, {"name": "conv2d_9", "class_name": "Conv2D", "inbound_nodes": [[["max_pooling2d_2", 0, 0, {}]]], "config": {"name": "conv2d_9", "activation": "relu", "bias_initializer": {"config": {}, "class_name": "Zeros"}, "strides": [1, 1], "kernel_initializer": {"config": {"scale": 1.0, "distribution": "uniform", "seed": null, "mode": "fan_avg"}, "class_name": "VarianceScaling"}, "kernel_regularizer": null, "bias_constraint": null, "dilation_rate": [1, 1], "kernel_constraint": null, "kernel_size": [1, 1], "bias_regularizer": null, "padding": "same", "trainable": true, "activity_regularizer": null, "filters": 32, "use_bias": true, "data_format": "channels_last"}}, {"name": "batch_normalization_9", "class_name": "BatchNormalization", "inbound_nodes": [[["conv2d_9", 0, 0, {}]]], "config": {"name": "batch_normalization_9", "beta_regularizer": null, "moving_mean_initializer": {"config": {}, "class_name": "Zeros"}, "scale": true, "beta_initializer": {"config": {}, "class_name": "Zeros"}, "center": true, "gamma_regularizer": null, "gamma_constraint": null, "momentum": 0.99, "gamma_initializer": {"config": {}, "class_name": "Ones"}, "epsilon": 0.001, "axis": 3, "moving_variance_initializer": {"config": {}, "class_name": "Ones"}, "beta_constraint": null, "trainable": true}}, {"name": "conv2d_7", "class_name": "Conv2D", "inbound_nodes": [[["max_pooling2d_2", 0, 0, {}]]], "config": {"name": "conv2d_7", "activation": "relu", "bias_initializer": {"config": {}, "class_name": "Zeros"}, "strides": [1, 1], "kernel_initializer": {"config": {"scale": 1.0, "distribution": "uniform", "seed": null, "mode": "fan_avg"}, "class_name": "VarianceScaling"}, "kernel_regularizer": null, "bias_constraint": null, "dilation_rate": [1, 1], "kernel_constraint": null, "kernel_size": [1, 1], "bias_regularizer": null, "padding": "same", "trainable": true, "activity_regularizer": null, "filters": 24, "use_bias": true, "data_format": "channels_last"}}, {"name": "conv2d_10", "class_name": "Conv2D", "inbound_nodes": [[["batch_normalization_9", 0, 0, {}]]], "config": {"name": "conv2d_10", "activation": "relu", "bias_initializer": {"config": {}, "class_name": "Zeros"}, "strides": [1, 1], "kernel_initializer": {"config": {"scale": 1.0, "distribution": "uniform", "seed": null, "mode": "fan_avg"}, "class_name": "VarianceScaling"}, "kernel_regularizer": null, "bias_constraint": null, "dilation_rate": [1, 1], "kernel_constraint": null, "kernel_size": [3, 3], "bias_regularizer": null, "padding": "same", "trainable": true, "activity_regularizer": null, "filters": 48, "use_bias": true, "data_format": "channels_last"}}, {"name": "batch_normalization_7", "class_name": "BatchNormalization", "inbound_nodes": [[["conv2d_7", 0, 0, {}]]], "config": {"name": "batch_normalization_7", "beta_regularizer": null, "moving_mean_initializer": {"config": {}, "class_name": "Zeros"}, "scale": true, "beta_initializer": {"config": {}, "class_name": "Zeros"}, "center": true, "gamma_regularizer": null, "gamma_constraint": null, "momentum": 0.99, "gamma_initializer": {"config": {}, "class_name": "Ones"}, "epsilon": 0.001, "axis": 3, "moving_variance_initializer": {"config": {}, "class_name": "Ones"}, "beta_constraint": null, "trainable": true}}, {"name": "batch_normalization_10", "class_name": "BatchNormalization", "inbound_nodes": [[["conv2d_10", 0, 0, {}]]], "config": {"name": "batch_normalization_10", "beta_regularizer": null, "moving_mean_initializer": {"config": {}, "class_name": "Zeros"}, "scale": true, "beta_initializer": {"config": {}, "class_name": "Zeros"}, "center": true, "gamma_regularizer": null, "gamma_constraint": null, "momentum": 0.99, "gamma_initializer": {"config": {}, "class_name": "Ones"}, "epsilon": 0.001, "axis": 3, "moving_variance_initializer": {"config": {}, "class_name": "Ones"}, "beta_constraint": null, "trainable": true}}, {"name": "average_pooling2d_1", "class_name": "AveragePooling2D", "inbound_nodes": [[["max_pooling2d_2", 0, 0, {}]]], "config": {"name": "average_pooling2d_1", "pool_size": [3, 3], "data_format": "channels_last", "padding": "same", "trainable": true, "strides": [1, 1]}}, {"name": "conv2d_6", "class_name": "Conv2D", "inbound_nodes": [[["max_pooling2d_2", 0, 0, {}]]], "config": {"name": "conv2d_6", "activation": "relu", "bias_initializer": {"config": {}, "class_name": "Zeros"}, "strides": [1, 1], "kernel_initializer": {"config": {"scale": 1.0, "distribution": "uniform", "seed": null, "mode": "fan_avg"}, "class_name": "VarianceScaling"}, "kernel_regularizer": null, "bias_constraint": null, "dilation_rate": [1, 1], "kernel_constraint": null, "kernel_size": [1, 1], "bias_regularizer": null, "padding": "same", "trainable": true, "activity_regularizer": null, "filters": 32, "use_bias": true, "data_format": "channels_last"}}, {"name": "conv2d_8", "class_name": "Conv2D", "inbound_nodes": [[["batch_normalization_7", 0, 0, {}]]], "config": {"name": "conv2d_8", "activation": "relu", "bias_initializer": {"config": {}, "class_name": "Zeros"}, "strides": [1, 1], "kernel_initializer": {"config": {"scale": 1.0, "distribution": "uniform", "seed": null, "mode": "fan_avg"}, "class_name": "VarianceScaling"}, "kernel_regularizer": null, "bias_constraint": null, "dilation_rate": [1, 1], "kernel_constraint": null, "kernel_size": [5, 5], "bias_regularizer": null, "padding": "same", "trainable": true, "activity_regularizer": null, "filters": 32, "use_bias": true, "data_format": "channels_last"}}, {"name": "conv2d_11", "class_name": "Conv2D", "inbound_nodes": [[["batch_normalization_10", 0, 0, {}]]], "config": {"name": "conv2d_11", "activation": "relu", "bias_initializer": {"config": {}, "class_name": "Zeros"}, "strides": [1, 1], "kernel_initializer": {"config": {"scale": 1.0, "distribution": "uniform", "seed": null, "mode": "fan_avg"}, "class_name": "VarianceScaling"}, "kernel_regularizer": null, "bias_constraint": null, "dilation_rate": [1, 1], "kernel_constraint": null, "kernel_size": [3, 3], "bias_regularizer": null, "padding": "same", "trainable": true, "activity_regularizer": null, "filters": 48, "use_bias": true, "data_format": "channels_last"}}, {"name": "conv2d_12", "class_name": "Conv2D", "inbound_nodes": [[["average_pooling2d_1", 0, 0, {}]]], "config": {"name": "conv2d_12", "activation": "relu", "bias_initializer": {"config": {}, "class_name": "Zeros"}, "strides": [1, 1], "kernel_initializer": {"config": {"scale": 1.0, "distribution": "uniform", "seed": null, "mode": "fan_avg"}, "class_name": "VarianceScaling"}, "kernel_regularizer": null, "bias_constraint": null, "dilation_rate": [1, 1], "kernel_constraint": null, "kernel_size": [1, 1], "bias_regularizer": null, "padding": "same", "trainable": true, "activity_regularizer": null, "filters": 16, "use_bias": true, "data_format": "channels_last"}}, {"name": "batch_normalization_6", "class_name": "BatchNormalization", "inbound_nodes": [[["conv2d_6", 0, 0, {}]]], "config": {"name": "batch_normalization_6", "beta_regularizer": null, "moving_mean_initializer": {"config": {}, "class_name": "Zeros"}, "scale": true, "beta_initializer": {"config": {}, "class_name": "Zeros"}, "center": true, "gamma_regularizer": null, "gamma_constraint": null, "momentum": 0.99, "gamma_initializer": {"config": {}, "class_name": "Ones"}, "epsilon": 0.001, "axis": 3, "moving_variance_initializer": {"config": {}, "class_name": "Ones"}, "beta_constraint": null, "trainable": true}}, {"name": "batch_normalization_8", "class_name": "BatchNormalization", "inbound_nodes": [[["conv2d_8", 0, 0, {}]]], "config": {"name": "batch_normalization_8", "beta_regularizer": null, "moving_mean_initializer": {"config": {}, "class_name": "Zeros"}, "scale": true, "beta_initializer": {"config": {}, "class_name": "Zeros"}, "center": true, "gamma_regularizer": null, "gamma_constraint": null, "momentum": 0.99, "gamma_initializer": {"config": {}, "class_name": "Ones"}, "epsilon": 0.001, "axis": 3, "moving_variance_initializer": {"config": {}, "class_name": "Ones"}, "beta_constraint": null, "trainable": true}}, {"name": "batch_normalization_11", "class_name": "BatchNormalization", "inbound_nodes": [[["conv2d_11", 0, 0, {}]]], "config": {"name": "batch_normalization_11", "beta_regularizer": null, "moving_mean_initializer": {"config": {}, "class_name": "Zeros"}, "scale": true, "beta_initializer": {"config": {}, "class_name": "Zeros"}, "center": true, "gamma_regularizer": null, "gamma_constraint": null, "momentum": 0.99, "gamma_initializer": {"config": {}, "class_name": "Ones"}, "epsilon": 0.001, "axis": 3, "moving_variance_initializer": {"config": {}, "class_name": "Ones"}, "beta_constraint": null, "trainable": true}}, {"name": "batch_normalization_12", "class_name": "BatchNormalization", "inbound_nodes": [[["conv2d_12", 0, 0, {}]]], "config": {"name": "batch_normalization_12", "beta_regularizer": null, "moving_mean_initializer": {"config": {}, "class_name": "Zeros"}, "scale": true, "beta_initializer": {"config": {}, "class_name": "Zeros"}, "center": true, "gamma_regularizer": null, "gamma_constraint": null, "momentum": 0.99, "gamma_initializer": {"config": {}, "class_name": "Ones"}, "epsilon": 0.001, "axis": 3, "moving_variance_initializer": {"config": {}, "class_name": "Ones"}, "beta_constraint": null, "trainable": true}}, {"name": "mixed0", "class_name": "Concatenate", "inbound_nodes": [[["batch_normalization_6", 0, 0, {}], ["batch_normalization_8", 0, 0, {}], ["batch_normalization_11", 0, 0, {}], ["batch_normalization_12", 0, 0, {}]]], "config": {"name": "mixed0", "axis": -1, "trainable": true}}, {"name": "conv2d_16", "class_name": "Conv2D", "inbound_nodes": [[["mixed0", 0, 0, {}]]], "config": {"name": "conv2d_16", "activation": "relu", "bias_initializer": {"config": {}, "class_name": "Zeros"}, "strides": [1, 1], "kernel_initializer": {"config": {"scale": 1.0, "distribution": "uniform", "seed": null, "mode": "fan_avg"}, "class_name": "VarianceScaling"}, "kernel_regularizer": null, "bias_constraint": null, "dilation_rate": [1, 1], "kernel_constraint": null, "kernel_size": [1, 1], "bias_regularizer": null, "padding": "same", "trainable": true, "activity_regularizer": null, "filters": 32, "use_bias": true, "data_format": "channels_last"}}, {"name": "batch_normalization_16", "class_name": "BatchNormalization", "inbound_nodes": [[["conv2d_16", 0, 0, {}]]], "config": {"name": "batch_normalization_16", "beta_regularizer": null, "moving_mean_initializer": {"config": {}, "class_name": "Zeros"}, "scale": true, "beta_initializer": {"config": {}, "class_name": "Zeros"}, "center": true, "gamma_regularizer": null, "gamma_constraint": null, "momentum": 0.99, "gamma_initializer": {"config": {}, "class_name": "Ones"}, "epsilon": 0.001, "axis": 3, "moving_variance_initializer": {"config": {}, "class_name": "Ones"}, "beta_constraint": null, "trainable": true}}, {"name": "conv2d_14", "class_name": "Conv2D", "inbound_nodes": [[["mixed0", 0, 0, {}]]], "config": {"name": "conv2d_14", "activation": "relu", "bias_initializer": {"config": {}, "class_name": "Zeros"}, "strides": [1, 1], "kernel_initializer": {"config": {"scale": 1.0, "distribution": "uniform", "seed": null, "mode": "fan_avg"}, "class_name": "VarianceScaling"}, "kernel_regularizer": null, "bias_constraint": null, "dilation_rate": [1, 1], "kernel_constraint": null, "kernel_size": [1, 1], "bias_regularizer": null, "padding": "same", "trainable": true, "activity_regularizer": null, "filters": 24, "use_bias": true, "data_format": "channels_last"}}, {"name": "conv2d_17", "class_name": "Conv2D", "inbound_nodes": [[["batch_normalization_16", 0, 0, {}]]], "config": {"name": "conv2d_17", "activation": "relu", "bias_initializer": {"config": {}, "class_name": "Zeros"}, "strides": [1, 1], "kernel_initializer": {"config": {"scale": 1.0, "distribution": "uniform", "seed": null, "mode": "fan_avg"}, "class_name": "VarianceScaling"}, "kernel_regularizer": null, "bias_constraint": null, "dilation_rate": [1, 1], "kernel_constraint": null, "kernel_size": [3, 3], "bias_regularizer": null, "padding": "same", "trainable": true, "activity_regularizer": null, "filters": 48, "use_bias": true, "data_format": "channels_last"}}, {"name": "batch_normalization_14", "class_name": "BatchNormalization", "inbound_nodes": [[["conv2d_14", 0, 0, {}]]], "config": {"name": "batch_normalization_14", "beta_regularizer": null, "moving_mean_initializer": {"config": {}, "class_name": "Zeros"}, "scale": true, "beta_initializer": {"config": {}, "class_name": "Zeros"}, "center": true, "gamma_regularizer": null, "gamma_constraint": null, "momentum": 0.99, "gamma_initializer": {"config": {}, "class_name": "Ones"}, "epsilon": 0.001, "axis": 3, "moving_variance_initializer": {"config": {}, "class_name": "Ones"}, "beta_constraint": null, "trainable": true}}, {"name": "batch_normalization_17", "class_name": "BatchNormalization", "inbound_nodes": [[["conv2d_17", 0, 0, {}]]], "config": {"name": "batch_normalization_17", "beta_regularizer": null, "moving_mean_initializer": {"config": {}, "class_name": "Zeros"}, "scale": true, "beta_initializer": {"config": {}, "class_name": "Zeros"}, "center": true, "gamma_regularizer": null, "gamma_constraint": null, "momentum": 0.99, "gamma_initializer": {"config": {}, "class_name": "Ones"}, "epsilon": 0.001, "axis": 3, "moving_variance_initializer": {"config": {}, "class_name": "Ones"}, "beta_constraint": null, "trainable": true}}, {"name": "average_pooling2d_2", "class_name": "AveragePooling2D", "inbound_nodes": [[["mixed0", 0, 0, {}]]], "config": {"name": "average_pooling2d_2", "pool_size": [3, 3], "data_format": "channels_last", "padding": "same", "trainable": true, "strides": [1, 1]}}, {"name": "conv2d_13", "class_name": "Conv2D", "inbound_nodes": [[["mixed0", 0, 0, {}]]], "config": {"name": "conv2d_13", "activation": "relu", "bias_initializer": {"config": {}, "class_name": "Zeros"}, "strides": [1, 1], "kernel_initializer": {"config": {"scale": 1.0, "distribution": "uniform", "seed": null, "mode": "fan_avg"}, "class_name": "VarianceScaling"}, "kernel_regularizer": null, "bias_constraint": null, "dilation_rate": [1, 1], "kernel_constraint": null, "kernel_size": [1, 1], "bias_regularizer": null, "padding": "same", "trainable": true, "activity_regularizer": null, "filters": 32, "use_bias": true, "data_format": "channels_last"}}, {"name": "conv2d_15", "class_name": "Conv2D", "inbound_nodes": [[["batch_normalization_14", 0, 0, {}]]], "config": {"name": "conv2d_15", "activation": "relu", "bias_initializer": {"config": {}, "class_name": "Zeros"}, "strides": [1, 1], "kernel_initializer": {"config": {"scale": 1.0, "distribution": "uniform", "seed": null, "mode": "fan_avg"}, "class_name": "VarianceScaling"}, "kernel_regularizer": null, "bias_constraint": null, "dilation_rate": [1, 1], "kernel_constraint": null, "kernel_size": [5, 5], "bias_regularizer": null, "padding": "same", "trainable": true, "activity_regularizer": null, "filters": 32, "use_bias": true, "data_format": "channels_last"}}, {"name": "conv2d_18", "class_name": "Conv2D", "inbound_nodes": [[["batch_normalization_17", 0, 0, {}]]], "config": {"name": "conv2d_18", "activation": "relu", "bias_initializer": {"config": {}, "class_name": "Zeros"}, "strides": [1, 1], "kernel_initializer": {"config": {"scale": 1.0, "distribution": "uniform", "seed": null, "mode": "fan_avg"}, "class_name": "VarianceScaling"}, "kernel_regularizer": null, "bias_constraint": null, "dilation_rate": [1, 1], "kernel_constraint": null, "kernel_size": [3, 3], "bias_regularizer": null, "padding": "same", "trainable": true, "activity_regularizer": null, "filters": 48, "use_bias": true, "data_format": "channels_last"}}, {"name": "conv2d_19", "class_name": "Conv2D", "inbound_nodes": [[["average_pooling2d_2", 0, 0, {}]]], "config": {"name": "conv2d_19", "activation": "relu", "bias_initializer": {"config": {}, "class_name": "Zeros"}, "strides": [1, 1], "kernel_initializer": {"config": {"scale": 1.0, "distribution": "uniform", "seed": null, "mode": "fan_avg"}, "class_name": "VarianceScaling"}, "kernel_regularizer": null, "bias_constraint": null, "dilation_rate": [1, 1], "kernel_constraint": null, "kernel_size": [1, 1], "bias_regularizer": null, "padding": "same", "trainable": true, "activity_regularizer": null, "filters": 16, "use_bias": true, "data_format": "channels_last"}}, {"name": "batch_normalization_13", "class_name": "BatchNormalization", "inbound_nodes": [[["conv2d_13", 0, 0, {}]]], "config": {"name": "batch_normalization_13", "beta_regularizer": null, "moving_mean_initializer": {"config": {}, "class_name": "Zeros"}, "scale": true, "beta_initializer": {"config": {}, "class_name": "Zeros"}, "center": true, "gamma_regularizer": null, "gamma_constraint": null, "momentum": 0.99, "gamma_initializer": {"config": {}, "class_name": "Ones"}, "epsilon": 0.001, "axis": 3, "moving_variance_initializer": {"config": {}, "class_name": "Ones"}, "beta_constraint": null, "trainable": true}}, {"name": "batch_normalization_15", "class_name": "BatchNormalization", "inbound_nodes": [[["conv2d_15", 0, 0, {}]]], "config": {"name": "batch_normalization_15", "beta_regularizer": null, "moving_mean_initializer": {"config": {}, "class_name": "Zeros"}, "scale": true, "beta_initializer": {"config": {}, "class_name": "Zeros"}, "center": true, "gamma_regularizer": null, "gamma_constraint": null, "momentum": 0.99, "gamma_initializer": {"config": {}, "class_name": "Ones"}, "epsilon": 0.001, "axis": 3, "moving_variance_initializer": {"config": {}, "class_name": "Ones"}, "beta_constraint": null, "trainable": true}}, {"name": "batch_normalization_18", "class_name": "BatchNormalization", "inbound_nodes": [[["conv2d_18", 0, 0, {}]]], "config": {"name": "batch_normalization_18", "beta_regularizer": null, "moving_mean_initializer": {"config": {}, "class_name": "Zeros"}, "scale": true, "beta_initializer": {"config": {}, "class_name": "Zeros"}, "center": true, "gamma_regularizer": null, "gamma_constraint": null, "momentum": 0.99, "gamma_initializer": {"config": {}, "class_name": "Ones"}, "epsilon": 0.001, "axis": 3, "moving_variance_initializer": {"config": {}, "class_name": "Ones"}, "beta_constraint": null, "trainable": true}}, {"name": "batch_normalization_19", "class_name": "BatchNormalization", "inbound_nodes": [[["conv2d_19", 0, 0, {}]]], "config": {"name": "batch_normalization_19", "beta_regularizer": null, "moving_mean_initializer": {"config": {}, "class_name": "Zeros"}, "scale": true, "beta_initializer": {"config": {}, "class_name": "Zeros"}, "center": true, "gamma_regularizer": null, "gamma_constraint": null, "momentum": 0.99, "gamma_initializer": {"config": {}, "class_name": "Ones"}, "epsilon": 0.001, "axis": 3, "moving_variance_initializer": {"config": {}, "class_name": "Ones"}, "beta_constraint": null, "trainable": true}}, {"name": "mixed1", "class_name": "Concatenate", "inbound_nodes": [[["batch_normalization_13", 0, 0, {}], ["batch_normalization_15", 0, 0, {}], ["batch_normalization_18", 0, 0, {}], ["batch_normalization_19", 0, 0, {}]]], "config": {"name": "mixed1", "axis": -1, "trainable": true}}, {"name": "conv2d_23", "class_name": "Conv2D", "inbound_nodes": [[["mixed1", 0, 0, {}]]], "config": {"name": "conv2d_23", "activation": "relu", "bias_initializer": {"config": {}, "class_name": "Zeros"}, "strides": [1, 1], "kernel_initializer": {"config": {"scale": 1.0, "distribution": "uniform", "seed": null, "mode": "fan_avg"}, "class_name": "VarianceScaling"}, "kernel_regularizer": null, "bias_constraint": null, "dilation_rate": [1, 1], "kernel_constraint": null, "kernel_size": [1, 1], "bias_regularizer": null, "padding": "same", "trainable": true, "activity_regularizer": null, "filters": 32, "use_bias": true, "data_format": "channels_last"}}, {"name": "batch_normalization_23", "class_name": "BatchNormalization", "inbound_nodes": [[["conv2d_23", 0, 0, {}]]], "config": {"name": "batch_normalization_23", "beta_regularizer": null, "moving_mean_initializer": {"config": {}, "class_name": "Zeros"}, "scale": true, "beta_initializer": {"config": {}, "class_name": "Zeros"}, "center": true, "gamma_regularizer": null, "gamma_constraint": null, "momentum": 0.99, "gamma_initializer": {"config": {}, "class_name": "Ones"}, "epsilon": 0.001, "axis": 3, "moving_variance_initializer": {"config": {}, "class_name": "Ones"}, "beta_constraint": null, "trainable": true}}, {"name": "conv2d_21", "class_name": "Conv2D", "inbound_nodes": [[["mixed1", 0, 0, {}]]], "config": {"name": "conv2d_21", "activation": "relu", "bias_initializer": {"config": {}, "class_name": "Zeros"}, "strides": [1, 1], "kernel_initializer": {"config": {"scale": 1.0, "distribution": "uniform", "seed": null, "mode": "fan_avg"}, "class_name": "VarianceScaling"}, "kernel_regularizer": null, "bias_constraint": null, "dilation_rate": [1, 1], "kernel_constraint": null, "kernel_size": [1, 1], "bias_regularizer": null, "padding": "same", "trainable": true, "activity_regularizer": null, "filters": 24, "use_bias": true, "data_format": "channels_last"}}, {"name": "conv2d_24", "class_name": "Conv2D", "inbound_nodes": [[["batch_normalization_23", 0, 0, {}]]], "config": {"name": "conv2d_24", "activation": "relu", "bias_initializer": {"config": {}, "class_name": "Zeros"}, "strides": [1, 1], "kernel_initializer": {"config": {"scale": 1.0, "distribution": "uniform", "seed": null, "mode": "fan_avg"}, "class_name": "VarianceScaling"}, "kernel_regularizer": null, "bias_constraint": null, "dilation_rate": [1, 1], "kernel_constraint": null, "kernel_size": [3, 3], "bias_regularizer": null, "padding": "same", "trainable": true, "activity_regularizer": null, "filters": 48, "use_bias": true, "data_format": "channels_last"}}, {"name": "batch_normalization_21", "class_name": "BatchNormalization", "inbound_nodes": [[["conv2d_21", 0, 0, {}]]], "config": {"name": "batch_normalization_21", "beta_regularizer": null, "moving_mean_initializer": {"config": {}, "class_name": "Zeros"}, "scale": true, "beta_initializer": {"config": {}, "class_name": "Zeros"}, "center": true, "gamma_regularizer": null, "gamma_constraint": null, "momentum": 0.99, "gamma_initializer": {"config": {}, "class_name": "Ones"}, "epsilon": 0.001, "axis": 3, "moving_variance_initializer": {"config": {}, "class_name": "Ones"}, "beta_constraint": null, "trainable": true}}, {"name": "batch_normalization_24", "class_name": "BatchNormalization", "inbound_nodes": [[["conv2d_24", 0, 0, {}]]], "config": {"name": "batch_normalization_24", "beta_regularizer": null, "moving_mean_initializer": {"config": {}, "class_name": "Zeros"}, "scale": true, "beta_initializer": {"config": {}, "class_name": "Zeros"}, "center": true, "gamma_regularizer": null, "gamma_constraint": null, "momentum": 0.99, "gamma_initializer": {"config": {}, "class_name": "Ones"}, "epsilon": 0.001, "axis": 3, "moving_variance_initializer": {"config": {}, "class_name": "Ones"}, "beta_constraint": null, "trainable": true}}, {"name": "average_pooling2d_3", "class_name": "AveragePooling2D", "inbound_nodes": [[["mixed1", 0, 0, {}]]], "config": {"name": "average_pooling2d_3", "pool_size": [3, 3], "data_format": "channels_last", "padding": "same", "trainable": true, "strides": [1, 1]}}, {"name": "conv2d_20", "class_name": "Conv2D", "inbound_nodes": [[["mixed1", 0, 0, {}]]], "config": {"name": "conv2d_20", "activation": "relu", "bias_initializer": {"config": {}, "class_name": "Zeros"}, "strides": [1, 1], "kernel_initializer": {"config": {"scale": 1.0, "distribution": "uniform", "seed": null, "mode": "fan_avg"}, "class_name": "VarianceScaling"}, "kernel_regularizer": null, "bias_constraint": null, "dilation_rate": [1, 1], "kernel_constraint": null, "kernel_size": [1, 1], "bias_regularizer": null, "padding": "same", "trainable": true, "activity_regularizer": null, "filters": 32, "use_bias": true, "data_format": "channels_last"}}, {"name": "conv2d_22", "class_name": "Conv2D", "inbound_nodes": [[["batch_normalization_21", 0, 0, {}]]], "config": {"name": "conv2d_22", "activation": "relu", "bias_initializer": {"config": {}, "class_name": "Zeros"}, "strides": [1, 1], "kernel_initializer": {"config": {"scale": 1.0, "distribution": "uniform", "seed": null, "mode": "fan_avg"}, "class_name": "VarianceScaling"}, "kernel_regularizer": null, "bias_constraint": null, "dilation_rate": [1, 1], "kernel_constraint": null, "kernel_size": [5, 5], "bias_regularizer": null, "padding": "same", "trainable": true, "activity_regularizer": null, "filters": 32, "use_bias": true, "data_format": "channels_last"}}, {"name": "conv2d_25", "class_name": "Conv2D", "inbound_nodes": [[["batch_normalization_24", 0, 0, {}]]], "config": {"name": "conv2d_25", "activation": "relu", "bias_initializer": {"config": {}, "class_name": "Zeros"}, "strides": [1, 1], "kernel_initializer": {"config": {"scale": 1.0, "distribution": "uniform", "seed": null, "mode": "fan_avg"}, "class_name": "VarianceScaling"}, "kernel_regularizer": null, "bias_constraint": null, "dilation_rate": [1, 1], "kernel_constraint": null, "kernel_size": [3, 3], "bias_regularizer": null, "padding": "same", "trainable": true, "activity_regularizer": null, "filters": 48, "use_bias": true, "data_format": "channels_last"}}, {"name": "conv2d_26", "class_name": "Conv2D", "inbound_nodes": [[["average_pooling2d_3", 0, 0, {}]]], "config": {"name": "conv2d_26", "activation": "relu", "bias_initializer": {"config": {}, "class_name": "Zeros"}, "strides": [1, 1], "kernel_initializer": {"config": {"scale": 1.0, "distribution": "uniform", "seed": null, "mode": "fan_avg"}, "class_name": "VarianceScaling"}, "kernel_regularizer": null, "bias_constraint": null, "dilation_rate": [1, 1], "kernel_constraint": null, "kernel_size": [1, 1], "bias_regularizer": null, "padding": "same", "trainable": true, "activity_regularizer": null, "filters": 16, "use_bias": true, "data_format": "channels_last"}}, {"name": "batch_normalization_20", "class_name": "BatchNormalization", "inbound_nodes": [[["conv2d_20", 0, 0, {}]]], "config": {"name": "batch_normalization_20", "beta_regularizer": null, "moving_mean_initializer": {"config": {}, "class_name": "Zeros"}, "scale": true, "beta_initializer": {"config": {}, "class_name": "Zeros"}, "center": true, "gamma_regularizer": null, "gamma_constraint": null, "momentum": 0.99, "gamma_initializer": {"config": {}, "class_name": "Ones"}, "epsilon": 0.001, "axis": 3, "moving_variance_initializer": {"config": {}, "class_name": "Ones"}, "beta_constraint": null, "trainable": true}}, {"name": "batch_normalization_22", "class_name": "BatchNormalization", "inbound_nodes": [[["conv2d_22", 0, 0, {}]]], "config": {"name": "batch_normalization_22", "beta_regularizer": null, "moving_mean_initializer": {"config": {}, "class_name": "Zeros"}, "scale": true, "beta_initializer": {"config": {}, "class_name": "Zeros"}, "center": true, "gamma_regularizer": null, "gamma_constraint": null, "momentum": 0.99, "gamma_initializer": {"config": {}, "class_name": "Ones"}, "epsilon": 0.001, "axis": 3, "moving_variance_initializer": {"config": {}, "class_name": "Ones"}, "beta_constraint": null, "trainable": true}}, {"name": "batch_normalization_25", "class_name": "BatchNormalization", "inbound_nodes": [[["conv2d_25", 0, 0, {}]]], "config": {"name": "batch_normalization_25", "beta_regularizer": null, "moving_mean_initializer": {"config": {}, "class_name": "Zeros"}, "scale": true, "beta_initializer": {"config": {}, "class_name": "Zeros"}, "center": true, "gamma_regularizer": null, "gamma_constraint": null, "momentum": 0.99, "gamma_initializer": {"config": {}, "class_name": "Ones"}, "epsilon": 0.001, "axis": 3, "moving_variance_initializer": {"config": {}, "class_name": "Ones"}, "beta_constraint": null, "trainable": true}}, {"name": "batch_normalization_26", "class_name": "BatchNormalization", "inbound_nodes": [[["conv2d_26", 0, 0, {}]]], "config": {"name": "batch_normalization_26", "beta_regularizer": null, "moving_mean_initializer": {"config": {}, "class_name": "Zeros"}, "scale": true, "beta_initializer": {"config": {}, "class_name": "Zeros"}, "center": true, "gamma_regularizer": null, "gamma_constraint": null, "momentum": 0.99, "gamma_initializer": {"config": {}, "class_name": "Ones"}, "epsilon": 0.001, "axis": 3, "moving_variance_initializer": {"config": {}, "class_name": "Ones"}, "beta_constraint": null, "trainable": true}}, {"name": "mixed2", "class_name": "Concatenate", "inbound_nodes": [[["batch_normalization_20", 0, 0, {}], ["batch_normalization_22", 0, 0, {}], ["batch_normalization_25", 0, 0, {}], ["batch_normalization_26", 0, 0, {}]]], "config": {"name": "mixed2", "axis": -1, "trainable": true}}, {"name": "conv2d_28", "class_name": "Conv2D", "inbound_nodes": [[["mixed2", 0, 0, {}]]], "config": {"name": "conv2d_28", "activation": "relu", "bias_initializer": {"config": {}, "class_name": "Zeros"}, "strides": [1, 1], "kernel_initializer": {"config": {"scale": 1.0, "distribution": "uniform", "seed": null, "mode": "fan_avg"}, "class_name": "VarianceScaling"}, "kernel_regularizer": null, "bias_constraint": null, "dilation_rate": [1, 1], "kernel_constraint": null, "kernel_size": [1, 1], "bias_regularizer": null, "padding": "same", "trainable": true, "activity_regularizer": null, "filters": 32, "use_bias": true, "data_format": "channels_last"}}, {"name": "batch_normalization_28", "class_name": "BatchNormalization", "inbound_nodes": [[["conv2d_28", 0, 0, {}]]], "config": {"name": "batch_normalization_28", "beta_regularizer": null, "moving_mean_initializer": {"config": {}, "class_name": "Zeros"}, "scale": true, "beta_initializer": {"config": {}, "class_name": "Zeros"}, "center": true, "gamma_regularizer": null, "gamma_constraint": null, "momentum": 0.99, "gamma_initializer": {"config": {}, "class_name": "Ones"}, "epsilon": 0.001, "axis": 3, "moving_variance_initializer": {"config": {}, "class_name": "Ones"}, "beta_constraint": null, "trainable": true}}, {"name": "conv2d_29", "class_name": "Conv2D", "inbound_nodes": [[["batch_normalization_28", 0, 0, {}]]], "config": {"name": "conv2d_29", "activation": "relu", "bias_initializer": {"config": {}, "class_name": "Zeros"}, "strides": [1, 1], "kernel_initializer": {"config": {"scale": 1.0, "distribution": "uniform", "seed": null, "mode": "fan_avg"}, "class_name": "VarianceScaling"}, "kernel_regularizer": null, "bias_constraint": null, "dilation_rate": [1, 1], "kernel_constraint": null, "kernel_size": [3, 3], "bias_regularizer": null, "padding": "same", "trainable": true, "activity_regularizer": null, "filters": 48, "use_bias": true, "data_format": "channels_last"}}, {"name": "batch_normalization_29", "class_name": "BatchNormalization", "inbound_nodes": [[["conv2d_29", 0, 0, {}]]], "config": {"name": "batch_normalization_29", "beta_regularizer": null, "moving_mean_initializer": {"config": {}, "class_name": "Zeros"}, "scale": true, "beta_initializer": {"config": {}, "class_name": "Zeros"}, "center": true, "gamma_regularizer": null, "gamma_constraint": null, "momentum": 0.99, "gamma_initializer": {"config": {}, "class_name": "Ones"}, "epsilon": 0.001, "axis": 3, "moving_variance_initializer": {"config": {}, "class_name": "Ones"}, "beta_constraint": null, "trainable": true}}, {"name": "conv2d_27", "class_name": "Conv2D", "inbound_nodes": [[["mixed2", 0, 0, {}]]], "config": {"name": "conv2d_27", "activation": "relu", "bias_initializer": {"config": {}, "class_name": "Zeros"}, "strides": [2, 2], "kernel_initializer": {"config": {"scale": 1.0, "distribution": "uniform", "seed": null, "mode": "fan_avg"}, "class_name": "VarianceScaling"}, "kernel_regularizer": null, "bias_constraint": null, "dilation_rate": [1, 1], "kernel_constraint": null, "kernel_size": [3, 3], "bias_regularizer": null, "padding": "valid", "trainable": true, "activity_regularizer": null, "filters": 192, "use_bias": true, "data_format": "channels_last"}}, {"name": "conv2d_30", "class_name": "Conv2D", "inbound_nodes": [[["batch_normalization_29", 0, 0, {}]]], "config": {"name": "conv2d_30", "activation": "relu", "bias_initializer": {"config": {}, "class_name": "Zeros"}, "strides": [2, 2], "kernel_initializer": {"config": {"scale": 1.0, "distribution": "uniform", "seed": null, "mode": "fan_avg"}, "class_name": "VarianceScaling"}, "kernel_regularizer": null, "bias_constraint": null, "dilation_rate": [1, 1], "kernel_constraint": null, "kernel_size": [3, 3], "bias_regularizer": null, "padding": "valid", "trainable": true, "activity_regularizer": null, "filters": 48, "use_bias": true, "data_format": "channels_last"}}, {"name": "batch_normalization_27", "class_name": "BatchNormalization", "inbound_nodes": [[["conv2d_27", 0, 0, {}]]], "config": {"name": "batch_normalization_27", "beta_regularizer": null, "moving_mean_initializer": {"config": {}, "class_name": "Zeros"}, "scale": true, "beta_initializer": {"config": {}, "class_name": "Zeros"}, "center": true, "gamma_regularizer": null, "gamma_constraint": null, "momentum": 0.99, "gamma_initializer": {"config": {}, "class_name": "Ones"}, "epsilon": 0.001, "axis": 3, "moving_variance_initializer": {"config": {}, "class_name": "Ones"}, "beta_constraint": null, "trainable": true}}, {"name": "batch_normalization_30", "class_name": "BatchNormalization", "inbound_nodes": [[["conv2d_30", 0, 0, {}]]], "config": {"name": "batch_normalization_30", "beta_regularizer": null, "moving_mean_initializer": {"config": {}, "class_name": "Zeros"}, "scale": true, "beta_initializer": {"config": {}, "class_name": "Zeros"}, "center": true, "gamma_regularizer": null, "gamma_constraint": null, "momentum": 0.99, "gamma_initializer": {"config": {}, "class_name": "Ones"}, "epsilon": 0.001, "axis": 3, "moving_variance_initializer": {"config": {}, "class_name": "Ones"}, "beta_constraint": null, "trainable": true}}, {"name": "max_pooling2d_3", "class_name": "MaxPooling2D", "inbound_nodes": [[["mixed2", 0, 0, {}]]], "config": {"name": "max_pooling2d_3", "pool_size": [3, 3], "data_format": "channels_last", "padding": "valid", "trainable": true, "strides": [2, 2]}}, {"name": "mixed3", "class_name": "Concatenate", "inbound_nodes": [[["batch_normalization_27", 0, 0, {}], ["batch_normalization_30", 0, 0, {}], ["max_pooling2d_3", 0, 0, {}]]], "config": {"name": "mixed3", "axis": -1, "trainable": true}}, {"name": "conv2d_35", "class_name": "Conv2D", "inbound_nodes": [[["mixed3", 0, 0, {}]]], "config": {"name": "conv2d_35", "activation": "relu", "bias_initializer": {"config": {}, "class_name": "Zeros"}, "strides": [1, 1], "kernel_initializer": {"config": {"scale": 1.0, "distribution": "uniform", "seed": null, "mode": "fan_avg"}, "class_name": "VarianceScaling"}, "kernel_regularizer": null, "bias_constraint": null, "dilation_rate": [1, 1], "kernel_constraint": null, "kernel_size": [1, 1], "bias_regularizer": null, "padding": "same", "trainable": true, "activity_regularizer": null, "filters": 64, "use_bias": true, "data_format": "channels_last"}}, {"name": "batch_normalization_35", "class_name": "BatchNormalization", "inbound_nodes": [[["conv2d_35", 0, 0, {}]]], "config": {"name": "batch_normalization_35", "beta_regularizer": null, "moving_mean_initializer": {"config": {}, "class_name": "Zeros"}, "scale": true, "beta_initializer": {"config": {}, "class_name": "Zeros"}, "center": true, "gamma_regularizer": null, "gamma_constraint": null, "momentum": 0.99, "gamma_initializer": {"config": {}, "class_name": "Ones"}, "epsilon": 0.001, "axis": 3, "moving_variance_initializer": {"config": {}, "class_name": "Ones"}, "beta_constraint": null, "trainable": true}}, {"name": "conv2d_36", "class_name": "Conv2D", "inbound_nodes": [[["batch_normalization_35", 0, 0, {}]]], "config": {"name": "conv2d_36", "activation": "relu", "bias_initializer": {"config": {}, "class_name": "Zeros"}, "strides": [1, 1], "kernel_initializer": {"config": {"scale": 1.0, "distribution": "uniform", "seed": null, "mode": "fan_avg"}, "class_name": "VarianceScaling"}, "kernel_regularizer": null, "bias_constraint": null, "dilation_rate": [1, 1], "kernel_constraint": null, "kernel_size": [7, 1], "bias_regularizer": null, "padding": "same", "trainable": true, "activity_regularizer": null, "filters": 64, "use_bias": true, "data_format": "channels_last"}}, {"name": "batch_normalization_36", "class_name": "BatchNormalization", "inbound_nodes": [[["conv2d_36", 0, 0, {}]]], "config": {"name": "batch_normalization_36", "beta_regularizer": null, "moving_mean_initializer": {"config": {}, "class_name": "Zeros"}, "scale": true, "beta_initializer": {"config": {}, "class_name": "Zeros"}, "center": true, "gamma_regularizer": null, "gamma_constraint": null, "momentum": 0.99, "gamma_initializer": {"config": {}, "class_name": "Ones"}, "epsilon": 0.001, "axis": 3, "moving_variance_initializer": {"config": {}, "class_name": "Ones"}, "beta_constraint": null, "trainable": true}}, {"name": "conv2d_32", "class_name": "Conv2D", "inbound_nodes": [[["mixed3", 0, 0, {}]]], "config": {"name": "conv2d_32", "activation": "relu", "bias_initializer": {"config": {}, "class_name": "Zeros"}, "strides": [1, 1], "kernel_initializer": {"config": {"scale": 1.0, "distribution": "uniform", "seed": null, "mode": "fan_avg"}, "class_name": "VarianceScaling"}, "kernel_regularizer": null, "bias_constraint": null, "dilation_rate": [1, 1], "kernel_constraint": null, "kernel_size": [1, 1], "bias_regularizer": null, "padding": "same", "trainable": true, "activity_regularizer": null, "filters": 64, "use_bias": true, "data_format": "channels_last"}}, {"name": "conv2d_37", "class_name": "Conv2D", "inbound_nodes": [[["batch_normalization_36", 0, 0, {}]]], "config": {"name": "conv2d_37", "activation": "relu", "bias_initializer": {"config": {}, "class_name": "Zeros"}, "strides": [1, 1], "kernel_initializer": {"config": {"scale": 1.0, "distribution": "uniform", "seed": null, "mode": "fan_avg"}, "class_name": "VarianceScaling"}, "kernel_regularizer": null, "bias_constraint": null, "dilation_rate": [1, 1], "kernel_constraint": null, "kernel_size": [1, 7], "bias_regularizer": null, "padding": "same", "trainable": true, "activity_regularizer": null, "filters": 64, "use_bias": true, "data_format": "channels_last"}}, {"name": "batch_normalization_32", "class_name": "BatchNormalization", "inbound_nodes": [[["conv2d_32", 0, 0, {}]]], "config": {"name": "batch_normalization_32", "beta_regularizer": null, "moving_mean_initializer": {"config": {}, "class_name": "Zeros"}, "scale": true, "beta_initializer": {"config": {}, "class_name": "Zeros"}, "center": true, "gamma_regularizer": null, "gamma_constraint": null, "momentum": 0.99, "gamma_initializer": {"config": {}, "class_name": "Ones"}, "epsilon": 0.001, "axis": 3, "moving_variance_initializer": {"config": {}, "class_name": "Ones"}, "beta_constraint": null, "trainable": true}}, {"name": "batch_normalization_37", "class_name": "BatchNormalization", "inbound_nodes": [[["conv2d_37", 0, 0, {}]]], "config": {"name": "batch_normalization_37", "beta_regularizer": null, "moving_mean_initializer": {"config": {}, "class_name": "Zeros"}, "scale": true, "beta_initializer": {"config": {}, "class_name": "Zeros"}, "center": true, "gamma_regularizer": null, "gamma_constraint": null, "momentum": 0.99, "gamma_initializer": {"config": {}, "class_name": "Ones"}, "epsilon": 0.001, "axis": 3, "moving_variance_initializer": {"config": {}, "class_name": "Ones"}, "beta_constraint": null, "trainable": true}}, {"name": "conv2d_33", "class_name": "Conv2D", "inbound_nodes": [[["batch_normalization_32", 0, 0, {}]]], "config": {"name": "conv2d_33", "activation": "relu", "bias_initializer": {"config": {}, "class_name": "Zeros"}, "strides": [1, 1], "kernel_initializer": {"config": {"scale": 1.0, "distribution": "uniform", "seed": null, "mode": "fan_avg"}, "class_name": "VarianceScaling"}, "kernel_regularizer": null, "bias_constraint": null, "dilation_rate": [1, 1], "kernel_constraint": null, "kernel_size": [1, 7], "bias_regularizer": null, "padding": "same", "trainable": true, "activity_regularizer": null, "filters": 64, "use_bias": true, "data_format": "channels_last"}}, {"name": "conv2d_38", "class_name": "Conv2D", "inbound_nodes": [[["batch_normalization_37", 0, 0, {}]]], "config": {"name": "conv2d_38", "activation": "relu", "bias_initializer": {"config": {}, "class_name": "Zeros"}, "strides": [1, 1], "kernel_initializer": {"config": {"scale": 1.0, "distribution": "uniform", "seed": null, "mode": "fan_avg"}, "class_name": "VarianceScaling"}, "kernel_regularizer": null, "bias_constraint": null, "dilation_rate": [1, 1], "kernel_constraint": null, "kernel_size": [7, 1], "bias_regularizer": null, "padding": "same", "trainable": true, "activity_regularizer": null, "filters": 64, "use_bias": true, "data_format": "channels_last"}}, {"name": "batch_normalization_33", "class_name": "BatchNormalization", "inbound_nodes": [[["conv2d_33", 0, 0, {}]]], "config": {"name": "batch_normalization_33", "beta_regularizer": null, "moving_mean_initializer": {"config": {}, "class_name": "Zeros"}, "scale": true, "beta_initializer": {"config": {}, "class_name": "Zeros"}, "center": true, "gamma_regularizer": null, "gamma_constraint": null, "momentum": 0.99, "gamma_initializer": {"config": {}, "class_name": "Ones"}, "epsilon": 0.001, "axis": 3, "moving_variance_initializer": {"config": {}, "class_name": "Ones"}, "beta_constraint": null, "trainable": true}}, {"name": "batch_normalization_38", "class_name": "BatchNormalization", "inbound_nodes": [[["conv2d_38", 0, 0, {}]]], "config": {"name": "batch_normalization_38", "beta_regularizer": null, "moving_mean_initializer": {"config": {}, "class_name": "Zeros"}, "scale": true, "beta_initializer": {"config": {}, "class_name": "Zeros"}, "center": true, "gamma_regularizer": null, "gamma_constraint": null, "momentum": 0.99, "gamma_initializer": {"config": {}, "class_name": "Ones"}, "epsilon": 0.001, "axis": 3, "moving_variance_initializer": {"config": {}, "class_name": "Ones"}, "beta_constraint": null, "trainable": true}}, {"name": "average_pooling2d_4", "class_name": "AveragePooling2D", "inbound_nodes": [[["mixed3", 0, 0, {}]]], "config": {"name": "average_pooling2d_4", "pool_size": [3, 3], "data_format": "channels_last", "padding": "same", "trainable": true, "strides": [1, 1]}}, {"name": "conv2d_31", "class_name": "Conv2D", "inbound_nodes": [[["mixed3", 0, 0, {}]]], "config": {"name": "conv2d_31", "activation": "relu", "bias_initializer": {"config": {}, "class_name": "Zeros"}, "strides": [1, 1], "kernel_initializer": {"config": {"scale": 1.0, "distribution": "uniform", "seed": null, "mode": "fan_avg"}, "class_name": "VarianceScaling"}, "kernel_regularizer": null, "bias_constraint": null, "dilation_rate": [1, 1], "kernel_constraint": null, "kernel_size": [1, 1], "bias_regularizer": null, "padding": "same", "trainable": true, "activity_regularizer": null, "filters": 96, "use_bias": true, "data_format": "channels_last"}}, {"name": "conv2d_34", "class_name": "Conv2D", "inbound_nodes": [[["batch_normalization_33", 0, 0, {}]]], "config": {"name": "conv2d_34", "activation": "relu", "bias_initializer": {"config": {}, "class_name": "Zeros"}, "strides": [1, 1], "kernel_initializer": {"config": {"scale": 1.0, "distribution": "uniform", "seed": null, "mode": "fan_avg"}, "class_name": "VarianceScaling"}, "kernel_regularizer": null, "bias_constraint": null, "dilation_rate": [1, 1], "kernel_constraint": null, "kernel_size": [7, 1], "bias_regularizer": null, "padding": "same", "trainable": true, "activity_regularizer": null, "filters": 96, "use_bias": true, "data_format": "channels_last"}}, {"name": "conv2d_39", "class_name": "Conv2D", "inbound_nodes": [[["batch_normalization_38", 0, 0, {}]]], "config": {"name": "conv2d_39", "activation": "relu", "bias_initializer": {"config": {}, "class_name": "Zeros"}, "strides": [1, 1], "kernel_initializer": {"config": {"scale": 1.0, "distribution": "uniform", "seed": null, "mode": "fan_avg"}, "class_name": "VarianceScaling"}, "kernel_regularizer": null, "bias_constraint": null, "dilation_rate": [1, 1], "kernel_constraint": null, "kernel_size": [1, 7], "bias_regularizer": null, "padding": "same", "trainable": true, "activity_regularizer": null, "filters": 96, "use_bias": true, "data_format": "channels_last"}}, {"name": "conv2d_40", "class_name": "Conv2D", "inbound_nodes": [[["average_pooling2d_4", 0, 0, {}]]], "config": {"name": "conv2d_40", "activation": "relu", "bias_initializer": {"config": {}, "class_name": "Zeros"}, "strides": [1, 1], "kernel_initializer": {"config": {"scale": 1.0, "distribution": "uniform", "seed": null, "mode": "fan_avg"}, "class_name": "VarianceScaling"}, "kernel_regularizer": null, "bias_constraint": null, "dilation_rate": [1, 1], "kernel_constraint": null, "kernel_size": [1, 1], "bias_regularizer": null, "padding": "same", "trainable": true, "activity_regularizer": null, "filters": 96, "use_bias": true, "data_format": "channels_last"}}, {"name": "batch_normalization_31", "class_name": "BatchNormalization", "inbound_nodes": [[["conv2d_31", 0, 0, {}]]], "config": {"name": "batch_normalization_31", "beta_regularizer": null, "moving_mean_initializer": {"config": {}, "class_name": "Zeros"}, "scale": true, "beta_initializer": {"config": {}, "class_name": "Zeros"}, "center": true, "gamma_regularizer": null, "gamma_constraint": null, "momentum": 0.99, "gamma_initializer": {"config": {}, "class_name": "Ones"}, "epsilon": 0.001, "axis": 3, "moving_variance_initializer": {"config": {}, "class_name": "Ones"}, "beta_constraint": null, "trainable": true}}, {"name": "batch_normalization_34", "class_name": "BatchNormalization", "inbound_nodes": [[["conv2d_34", 0, 0, {}]]], "config": {"name": "batch_normalization_34", "beta_regularizer": null, "moving_mean_initializer": {"config": {}, "class_name": "Zeros"}, "scale": true, "beta_initializer": {"config": {}, "class_name": "Zeros"}, "center": true, "gamma_regularizer": null, "gamma_constraint": null, "momentum": 0.99, "gamma_initializer": {"config": {}, "class_name": "Ones"}, "epsilon": 0.001, "axis": 3, "moving_variance_initializer": {"config": {}, "class_name": "Ones"}, "beta_constraint": null, "trainable": true}}, {"name": "batch_normalization_39", "class_name": "BatchNormalization", "inbound_nodes": [[["conv2d_39", 0, 0, {}]]], "config": {"name": "batch_normalization_39", "beta_regularizer": null, "moving_mean_initializer": {"config": {}, "class_name": "Zeros"}, "scale": true, "beta_initializer": {"config": {}, "class_name": "Zeros"}, "center": true, "gamma_regularizer": null, "gamma_constraint": null, "momentum": 0.99, "gamma_initializer": {"config": {}, "class_name": "Ones"}, "epsilon": 0.001, "axis": 3, "moving_variance_initializer": {"config": {}, "class_name": "Ones"}, "beta_constraint": null, "trainable": true}}, {"name": "batch_normalization_40", "class_name": "BatchNormalization", "inbound_nodes": [[["conv2d_40", 0, 0, {}]]], "config": {"name": "batch_normalization_40", "beta_regularizer": null, "moving_mean_initializer": {"config": {}, "class_name": "Zeros"}, "scale": true, "beta_initializer": {"config": {}, "class_name": "Zeros"}, "center": true, "gamma_regularizer": null, "gamma_constraint": null, "momentum": 0.99, "gamma_initializer": {"config": {}, "class_name": "Ones"}, "epsilon": 0.001, "axis": 3, "moving_variance_initializer": {"config": {}, "class_name": "Ones"}, "beta_constraint": null, "trainable": true}}, {"name": "mixed4", "class_name": "Concatenate", "inbound_nodes": [[["batch_normalization_31", 0, 0, {}], ["batch_normalization_34", 0, 0, {}], ["batch_normalization_39", 0, 0, {}], ["batch_normalization_40", 0, 0, {}]]], "config": {"name": "mixed4", "axis": -1, "trainable": true}}, {"name": "conv2d_45", "class_name": "Conv2D", "inbound_nodes": [[["mixed4", 0, 0, {}]]], "config": {"name": "conv2d_45", "activation": "relu", "bias_initializer": {"config": {}, "class_name": "Zeros"}, "strides": [1, 1], "kernel_initializer": {"config": {"scale": 1.0, "distribution": "uniform", "seed": null, "mode": "fan_avg"}, "class_name": "VarianceScaling"}, "kernel_regularizer": null, "bias_constraint": null, "dilation_rate": [1, 1], "kernel_constraint": null, "kernel_size": [1, 1], "bias_regularizer": null, "padding": "same", "trainable": true, "activity_regularizer": null, "filters": 80, "use_bias": true, "data_format": "channels_last"}}, {"name": "batch_normalization_45", "class_name": "BatchNormalization", "inbound_nodes": [[["conv2d_45", 0, 0, {}]]], "config": {"name": "batch_normalization_45", "beta_regularizer": null, "moving_mean_initializer": {"config": {}, "class_name": "Zeros"}, "scale": true, "beta_initializer": {"config": {}, "class_name": "Zeros"}, "center": true, "gamma_regularizer": null, "gamma_constraint": null, "momentum": 0.99, "gamma_initializer": {"config": {}, "class_name": "Ones"}, "epsilon": 0.001, "axis": 3, "moving_variance_initializer": {"config": {}, "class_name": "Ones"}, "beta_constraint": null, "trainable": true}}, {"name": "conv2d_46", "class_name": "Conv2D", "inbound_nodes": [[["batch_normalization_45", 0, 0, {}]]], "config": {"name": "conv2d_46", "activation": "relu", "bias_initializer": {"config": {}, "class_name": "Zeros"}, "strides": [1, 1], "kernel_initializer": {"config": {"scale": 1.0, "distribution": "uniform", "seed": null, "mode": "fan_avg"}, "class_name": "VarianceScaling"}, "kernel_regularizer": null, "bias_constraint": null, "dilation_rate": [1, 1], "kernel_constraint": null, "kernel_size": [7, 1], "bias_regularizer": null, "padding": "same", "trainable": true, "activity_regularizer": null, "filters": 80, "use_bias": true, "data_format": "channels_last"}}, {"name": "batch_normalization_46", "class_name": "BatchNormalization", "inbound_nodes": [[["conv2d_46", 0, 0, {}]]], "config": {"name": "batch_normalization_46", "beta_regularizer": null, "moving_mean_initializer": {"config": {}, "class_name": "Zeros"}, "scale": true, "beta_initializer": {"config": {}, "class_name": "Zeros"}, "center": true, "gamma_regularizer": null, "gamma_constraint": null, "momentum": 0.99, "gamma_initializer": {"config": {}, "class_name": "Ones"}, "epsilon": 0.001, "axis": 3, "moving_variance_initializer": {"config": {}, "class_name": "Ones"}, "beta_constraint": null, "trainable": true}}, {"name": "conv2d_42", "class_name": "Conv2D", "inbound_nodes": [[["mixed4", 0, 0, {}]]], "config": {"name": "conv2d_42", "activation": "relu", "bias_initializer": {"config": {}, "class_name": "Zeros"}, "strides": [1, 1], "kernel_initializer": {"config": {"scale": 1.0, "distribution": "uniform", "seed": null, "mode": "fan_avg"}, "class_name": "VarianceScaling"}, "kernel_regularizer": null, "bias_constraint": null, "dilation_rate": [1, 1], "kernel_constraint": null, "kernel_size": [1, 1], "bias_regularizer": null, "padding": "same", "trainable": true, "activity_regularizer": null, "filters": 80, "use_bias": true, "data_format": "channels_last"}}, {"name": "conv2d_47", "class_name": "Conv2D", "inbound_nodes": [[["batch_normalization_46", 0, 0, {}]]], "config": {"name": "conv2d_47", "activation": "relu", "bias_initializer": {"config": {}, "class_name": "Zeros"}, "strides": [1, 1], "kernel_initializer": {"config": {"scale": 1.0, "distribution": "uniform", "seed": null, "mode": "fan_avg"}, "class_name": "VarianceScaling"}, "kernel_regularizer": null, "bias_constraint": null, "dilation_rate": [1, 1], "kernel_constraint": null, "kernel_size": [1, 7], "bias_regularizer": null, "padding": "same", "trainable": true, "activity_regularizer": null, "filters": 80, "use_bias": true, "data_format": "channels_last"}}, {"name": "batch_normalization_42", "class_name": "BatchNormalization", "inbound_nodes": [[["conv2d_42", 0, 0, {}]]], "config": {"name": "batch_normalization_42", "beta_regularizer": null, "moving_mean_initializer": {"config": {}, "class_name": "Zeros"}, "scale": true, "beta_initializer": {"config": {}, "class_name": "Zeros"}, "center": true, "gamma_regularizer": null, "gamma_constraint": null, "momentum": 0.99, "gamma_initializer": {"config": {}, "class_name": "Ones"}, "epsilon": 0.001, "axis": 3, "moving_variance_initializer": {"config": {}, "class_name": "Ones"}, "beta_constraint": null, "trainable": true}}, {"name": "batch_normalization_47", "class_name": "BatchNormalization", "inbound_nodes": [[["conv2d_47", 0, 0, {}]]], "config": {"name": "batch_normalization_47", "beta_regularizer": null, "moving_mean_initializer": {"config": {}, "class_name": "Zeros"}, "scale": true, "beta_initializer": {"config": {}, "class_name": "Zeros"}, "center": true, "gamma_regularizer": null, "gamma_constraint": null, "momentum": 0.99, "gamma_initializer": {"config": {}, "class_name": "Ones"}, "epsilon": 0.001, "axis": 3, "moving_variance_initializer": {"config": {}, "class_name": "Ones"}, "beta_constraint": null, "trainable": true}}, {"name": "conv2d_43", "class_name": "Conv2D", "inbound_nodes": [[["batch_normalization_42", 0, 0, {}]]], "config": {"name": "conv2d_43", "activation": "relu", "bias_initializer": {"config": {}, "class_name": "Zeros"}, "strides": [1, 1], "kernel_initializer": {"config": {"scale": 1.0, "distribution": "uniform", "seed": null, "mode": "fan_avg"}, "class_name": "VarianceScaling"}, "kernel_regularizer": null, "bias_constraint": null, "dilation_rate": [1, 1], "kernel_constraint": null, "kernel_size": [1, 7], "bias_regularizer": null, "padding": "same", "trainable": true, "activity_regularizer": null, "filters": 80, "use_bias": true, "data_format": "channels_last"}}, {"name": "conv2d_48", "class_name": "Conv2D", "inbound_nodes": [[["batch_normalization_47", 0, 0, {}]]], "config": {"name": "conv2d_48", "activation": "relu", "bias_initializer": {"config": {}, "class_name": "Zeros"}, "strides": [1, 1], "kernel_initializer": {"config": {"scale": 1.0, "distribution": "uniform", "seed": null, "mode": "fan_avg"}, "class_name": "VarianceScaling"}, "kernel_regularizer": null, "bias_constraint": null, "dilation_rate": [1, 1], "kernel_constraint": null, "kernel_size": [7, 1], "bias_regularizer": null, "padding": "same", "trainable": true, "activity_regularizer": null, "filters": 80, "use_bias": true, "data_format": "channels_last"}}, {"name": "batch_normalization_43", "class_name": "BatchNormalization", "inbound_nodes": [[["conv2d_43", 0, 0, {}]]], "config": {"name": "batch_normalization_43", "beta_regularizer": null, "moving_mean_initializer": {"config": {}, "class_name": "Zeros"}, "scale": true, "beta_initializer": {"config": {}, "class_name": "Zeros"}, "center": true, "gamma_regularizer": null, "gamma_constraint": null, "momentum": 0.99, "gamma_initializer": {"config": {}, "class_name": "Ones"}, "epsilon": 0.001, "axis": 3, "moving_variance_initializer": {"config": {}, "class_name": "Ones"}, "beta_constraint": null, "trainable": true}}, {"name": "batch_normalization_48", "class_name": "BatchNormalization", "inbound_nodes": [[["conv2d_48", 0, 0, {}]]], "config": {"name": "batch_normalization_48", "beta_regularizer": null, "moving_mean_initializer": {"config": {}, "class_name": "Zeros"}, "scale": true, "beta_initializer": {"config": {}, "class_name": "Zeros"}, "center": true, "gamma_regularizer": null, "gamma_constraint": null, "momentum": 0.99, "gamma_initializer": {"config": {}, "class_name": "Ones"}, "epsilon": 0.001, "axis": 3, "moving_variance_initializer": {"config": {}, "class_name": "Ones"}, "beta_constraint": null, "trainable": true}}, {"name": "average_pooling2d_5", "class_name": "AveragePooling2D", "inbound_nodes": [[["mixed4", 0, 0, {}]]], "config": {"name": "average_pooling2d_5", "pool_size": [3, 3], "data_format": "channels_last", "padding": "same", "trainable": true, "strides": [1, 1]}}, {"name": "conv2d_41", "class_name": "Conv2D", "inbound_nodes": [[["mixed4", 0, 0, {}]]], "config": {"name": "conv2d_41", "activation": "relu", "bias_initializer": {"config": {}, "class_name": "Zeros"}, "strides": [1, 1], "kernel_initializer": {"config": {"scale": 1.0, "distribution": "uniform", "seed": null, "mode": "fan_avg"}, "class_name": "VarianceScaling"}, "kernel_regularizer": null, "bias_constraint": null, "dilation_rate": [1, 1], "kernel_constraint": null, "kernel_size": [1, 1], "bias_regularizer": null, "padding": "same", "trainable": true, "activity_regularizer": null, "filters": 96, "use_bias": true, "data_format": "channels_last"}}, {"name": "conv2d_44", "class_name": "Conv2D", "inbound_nodes": [[["batch_normalization_43", 0, 0, {}]]], "config": {"name": "conv2d_44", "activation": "relu", "bias_initializer": {"config": {}, "class_name": "Zeros"}, "strides": [1, 1], "kernel_initializer": {"config": {"scale": 1.0, "distribution": "uniform", "seed": null, "mode": "fan_avg"}, "class_name": "VarianceScaling"}, "kernel_regularizer": null, "bias_constraint": null, "dilation_rate": [1, 1], "kernel_constraint": null, "kernel_size": [7, 1], "bias_regularizer": null, "padding": "same", "trainable": true, "activity_regularizer": null, "filters": 96, "use_bias": true, "data_format": "channels_last"}}, {"name": "conv2d_49", "class_name": "Conv2D", "inbound_nodes": [[["batch_normalization_48", 0, 0, {}]]], "config": {"name": "conv2d_49", "activation": "relu", "bias_initializer": {"config": {}, "class_name": "Zeros"}, "strides": [1, 1], "kernel_initializer": {"config": {"scale": 1.0, "distribution": "uniform", "seed": null, "mode": "fan_avg"}, "class_name": "VarianceScaling"}, "kernel_regularizer": null, "bias_constraint": null, "dilation_rate": [1, 1], "kernel_constraint": null, "kernel_size": [1, 7], "bias_regularizer": null, "padding": "same", "trainable": true, "activity_regularizer": null, "filters": 96, "use_bias": true, "data_format": "channels_last"}}, {"name": "conv2d_50", "class_name": "Conv2D", "inbound_nodes": [[["average_pooling2d_5", 0, 0, {}]]], "config": {"name": "conv2d_50", "activation": "relu", "bias_initializer": {"config": {}, "class_name": "Zeros"}, "strides": [1, 1], "kernel_initializer": {"config": {"scale": 1.0, "distribution": "uniform", "seed": null, "mode": "fan_avg"}, "class_name": "VarianceScaling"}, "kernel_regularizer": null, "bias_constraint": null, "dilation_rate": [1, 1], "kernel_constraint": null, "kernel_size": [1, 1], "bias_regularizer": null, "padding": "same", "trainable": true, "activity_regularizer": null, "filters": 96, "use_bias": true, "data_format": "channels_last"}}, {"name": "batch_normalization_41", "class_name": "BatchNormalization", "inbound_nodes": [[["conv2d_41", 0, 0, {}]]], "config": {"name": "batch_normalization_41", "beta_regularizer": null, "moving_mean_initializer": {"config": {}, "class_name": "Zeros"}, "scale": true, "beta_initializer": {"config": {}, "class_name": "Zeros"}, "center": true, "gamma_regularizer": null, "gamma_constraint": null, "momentum": 0.99, "gamma_initializer": {"config": {}, "class_name": "Ones"}, "epsilon": 0.001, "axis": 3, "moving_variance_initializer": {"config": {}, "class_name": "Ones"}, "beta_constraint": null, "trainable": true}}, {"name": "batch_normalization_44", "class_name": "BatchNormalization", "inbound_nodes": [[["conv2d_44", 0, 0, {}]]], "config": {"name": "batch_normalization_44", "beta_regularizer": null, "moving_mean_initializer": {"config": {}, "class_name": "Zeros"}, "scale": true, "beta_initializer": {"config": {}, "class_name": "Zeros"}, "center": true, "gamma_regularizer": null, "gamma_constraint": null, "momentum": 0.99, "gamma_initializer": {"config": {}, "class_name": "Ones"}, "epsilon": 0.001, "axis": 3, "moving_variance_initializer": {"config": {}, "class_name": "Ones"}, "beta_constraint": null, "trainable": true}}, {"name": "batch_normalization_49", "class_name": "BatchNormalization", "inbound_nodes": [[["conv2d_49", 0, 0, {}]]], "config": {"name": "batch_normalization_49", "beta_regularizer": null, "moving_mean_initializer": {"config": {}, "class_name": "Zeros"}, "scale": true, "beta_initializer": {"config": {}, "class_name": "Zeros"}, "center": true, "gamma_regularizer": null, "gamma_constraint": null, "momentum": 0.99, "gamma_initializer": {"config": {}, "class_name": "Ones"}, "epsilon": 0.001, "axis": 3, "moving_variance_initializer": {"config": {}, "class_name": "Ones"}, "beta_constraint": null, "trainable": true}}, {"name": "batch_normalization_50", "class_name": "BatchNormalization", "inbound_nodes": [[["conv2d_50", 0, 0, {}]]], "config": {"name": "batch_normalization_50", "beta_regularizer": null, "moving_mean_initializer": {"config": {}, "class_name": "Zeros"}, "scale": true, "beta_initializer": {"config": {}, "class_name": "Zeros"}, "center": true, "gamma_regularizer": null, "gamma_constraint": null, "momentum": 0.99, "gamma_initializer": {"config": {}, "class_name": "Ones"}, "epsilon": 0.001, "axis": 3, "moving_variance_initializer": {"config": {}, "class_name": "Ones"}, "beta_constraint": null, "trainable": true}}, {"name": "mixed5", "class_name": "Concatenate", "inbound_nodes": [[["batch_normalization_41", 0, 0, {}], ["batch_normalization_44", 0, 0, {}], ["batch_normalization_49", 0, 0, {}], ["batch_normalization_50", 0, 0, {}]]], "config": {"name": "mixed5", "axis": -1, "trainable": true}}, {"name": "conv2d_55", "class_name": "Conv2D", "inbound_nodes": [[["mixed5", 0, 0, {}]]], "config": {"name": "conv2d_55", "activation": "relu", "bias_initializer": {"config": {}, "class_name": "Zeros"}, "strides": [1, 1], "kernel_initializer": {"config": {"scale": 1.0, "distribution": "uniform", "seed": null, "mode": "fan_avg"}, "class_name": "VarianceScaling"}, "kernel_regularizer": null, "bias_constraint": null, "dilation_rate": [1, 1], "kernel_constraint": null, "kernel_size": [1, 1], "bias_regularizer": null, "padding": "same", "trainable": true, "activity_regularizer": null, "filters": 80, "use_bias": true, "data_format": "channels_last"}}, {"name": "batch_normalization_55", "class_name": "BatchNormalization", "inbound_nodes": [[["conv2d_55", 0, 0, {}]]], "config": {"name": "batch_normalization_55", "beta_regularizer": null, "moving_mean_initializer": {"config": {}, "class_name": "Zeros"}, "scale": true, "beta_initializer": {"config": {}, "class_name": "Zeros"}, "center": true, "gamma_regularizer": null, "gamma_constraint": null, "momentum": 0.99, "gamma_initializer": {"config": {}, "class_name": "Ones"}, "epsilon": 0.001, "axis": 3, "moving_variance_initializer": {"config": {}, "class_name": "Ones"}, "beta_constraint": null, "trainable": true}}, {"name": "conv2d_56", "class_name": "Conv2D", "inbound_nodes": [[["batch_normalization_55", 0, 0, {}]]], "config": {"name": "conv2d_56", "activation": "relu", "bias_initializer": {"config": {}, "class_name": "Zeros"}, "strides": [1, 1], "kernel_initializer": {"config": {"scale": 1.0, "distribution": "uniform", "seed": null, "mode": "fan_avg"}, "class_name": "VarianceScaling"}, "kernel_regularizer": null, "bias_constraint": null, "dilation_rate": [1, 1], "kernel_constraint": null, "kernel_size": [7, 1], "bias_regularizer": null, "padding": "same", "trainable": true, "activity_regularizer": null, "filters": 80, "use_bias": true, "data_format": "channels_last"}}, {"name": "batch_normalization_56", "class_name": "BatchNormalization", "inbound_nodes": [[["conv2d_56", 0, 0, {}]]], "config": {"name": "batch_normalization_56", "beta_regularizer": null, "moving_mean_initializer": {"config": {}, "class_name": "Zeros"}, "scale": true, "beta_initializer": {"config": {}, "class_name": "Zeros"}, "center": true, "gamma_regularizer": null, "gamma_constraint": null, "momentum": 0.99, "gamma_initializer": {"config": {}, "class_name": "Ones"}, "epsilon": 0.001, "axis": 3, "moving_variance_initializer": {"config": {}, "class_name": "Ones"}, "beta_constraint": null, "trainable": true}}, {"name": "conv2d_52", "class_name": "Conv2D", "inbound_nodes": [[["mixed5", 0, 0, {}]]], "config": {"name": "conv2d_52", "activation": "relu", "bias_initializer": {"config": {}, "class_name": "Zeros"}, "strides": [1, 1], "kernel_initializer": {"config": {"scale": 1.0, "distribution": "uniform", "seed": null, "mode": "fan_avg"}, "class_name": "VarianceScaling"}, "kernel_regularizer": null, "bias_constraint": null, "dilation_rate": [1, 1], "kernel_constraint": null, "kernel_size": [1, 1], "bias_regularizer": null, "padding": "same", "trainable": true, "activity_regularizer": null, "filters": 80, "use_bias": true, "data_format": "channels_last"}}, {"name": "conv2d_57", "class_name": "Conv2D", "inbound_nodes": [[["batch_normalization_56", 0, 0, {}]]], "config": {"name": "conv2d_57", "activation": "relu", "bias_initializer": {"config": {}, "class_name": "Zeros"}, "strides": [1, 1], "kernel_initializer": {"config": {"scale": 1.0, "distribution": "uniform", "seed": null, "mode": "fan_avg"}, "class_name": "VarianceScaling"}, "kernel_regularizer": null, "bias_constraint": null, "dilation_rate": [1, 1], "kernel_constraint": null, "kernel_size": [1, 7], "bias_regularizer": null, "padding": "same", "trainable": true, "activity_regularizer": null, "filters": 80, "use_bias": true, "data_format": "channels_last"}}, {"name": "batch_normalization_52", "class_name": "BatchNormalization", "inbound_nodes": [[["conv2d_52", 0, 0, {}]]], "config": {"name": "batch_normalization_52", "beta_regularizer": null, "moving_mean_initializer": {"config": {}, "class_name": "Zeros"}, "scale": true, "beta_initializer": {"config": {}, "class_name": "Zeros"}, "center": true, "gamma_regularizer": null, "gamma_constraint": null, "momentum": 0.99, "gamma_initializer": {"config": {}, "class_name": "Ones"}, "epsilon": 0.001, "axis": 3, "moving_variance_initializer": {"config": {}, "class_name": "Ones"}, "beta_constraint": null, "trainable": true}}, {"name": "batch_normalization_57", "class_name": "BatchNormalization", "inbound_nodes": [[["conv2d_57", 0, 0, {}]]], "config": {"name": "batch_normalization_57", "beta_regularizer": null, "moving_mean_initializer": {"config": {}, "class_name": "Zeros"}, "scale": true, "beta_initializer": {"config": {}, "class_name": "Zeros"}, "center": true, "gamma_regularizer": null, "gamma_constraint": null, "momentum": 0.99, "gamma_initializer": {"config": {}, "class_name": "Ones"}, "epsilon": 0.001, "axis": 3, "moving_variance_initializer": {"config": {}, "class_name": "Ones"}, "beta_constraint": null, "trainable": true}}, {"name": "conv2d_53", "class_name": "Conv2D", "inbound_nodes": [[["batch_normalization_52", 0, 0, {}]]], "config": {"name": "conv2d_53", "activation": "relu", "bias_initializer": {"config": {}, "class_name": "Zeros"}, "strides": [1, 1], "kernel_initializer": {"config": {"scale": 1.0, "distribution": "uniform", "seed": null, "mode": "fan_avg"}, "class_name": "VarianceScaling"}, "kernel_regularizer": null, "bias_constraint": null, "dilation_rate": [1, 1], "kernel_constraint": null, "kernel_size": [1, 7], "bias_regularizer": null, "padding": "same", "trainable": true, "activity_regularizer": null, "filters": 80, "use_bias": true, "data_format": "channels_last"}}, {"name": "conv2d_58", "class_name": "Conv2D", "inbound_nodes": [[["batch_normalization_57", 0, 0, {}]]], "config": {"name": "conv2d_58", "activation": "relu", "bias_initializer": {"config": {}, "class_name": "Zeros"}, "strides": [1, 1], "kernel_initializer": {"config": {"scale": 1.0, "distribution": "uniform", "seed": null, "mode": "fan_avg"}, "class_name": "VarianceScaling"}, "kernel_regularizer": null, "bias_constraint": null, "dilation_rate": [1, 1], "kernel_constraint": null, "kernel_size": [7, 1], "bias_regularizer": null, "padding": "same", "trainable": true, "activity_regularizer": null, "filters": 80, "use_bias": true, "data_format": "channels_last"}}, {"name": "batch_normalization_53", "class_name": "BatchNormalization", "inbound_nodes": [[["conv2d_53", 0, 0, {}]]], "config": {"name": "batch_normalization_53", "beta_regularizer": null, "moving_mean_initializer": {"config": {}, "class_name": "Zeros"}, "scale": true, "beta_initializer": {"config": {}, "class_name": "Zeros"}, "center": true, "gamma_regularizer": null, "gamma_constraint": null, "momentum": 0.99, "gamma_initializer": {"config": {}, "class_name": "Ones"}, "epsilon": 0.001, "axis": 3, "moving_variance_initializer": {"config": {}, "class_name": "Ones"}, "beta_constraint": null, "trainable": true}}, {"name": "batch_normalization_58", "class_name": "BatchNormalization", "inbound_nodes": [[["conv2d_58", 0, 0, {}]]], "config": {"name": "batch_normalization_58", "beta_regularizer": null, "moving_mean_initializer": {"config": {}, "class_name": "Zeros"}, "scale": true, "beta_initializer": {"config": {}, "class_name": "Zeros"}, "center": true, "gamma_regularizer": null, "gamma_constraint": null, "momentum": 0.99, "gamma_initializer": {"config": {}, "class_name": "Ones"}, "epsilon": 0.001, "axis": 3, "moving_variance_initializer": {"config": {}, "class_name": "Ones"}, "beta_constraint": null, "trainable": true}}, {"name": "average_pooling2d_6", "class_name": "AveragePooling2D", "inbound_nodes": [[["mixed5", 0, 0, {}]]], "config": {"name": "average_pooling2d_6", "pool_size": [3, 3], "data_format": "channels_last", "padding": "same", "trainable": true, "strides": [1, 1]}}, {"name": "conv2d_51", "class_name": "Conv2D", "inbound_nodes": [[["mixed5", 0, 0, {}]]], "config": {"name": "conv2d_51", "activation": "relu", "bias_initializer": {"config": {}, "class_name": "Zeros"}, "strides": [1, 1], "kernel_initializer": {"config": {"scale": 1.0, "distribution": "uniform", "seed": null, "mode": "fan_avg"}, "class_name": "VarianceScaling"}, "kernel_regularizer": null, "bias_constraint": null, "dilation_rate": [1, 1], "kernel_constraint": null, "kernel_size": [1, 1], "bias_regularizer": null, "padding": "same", "trainable": true, "activity_regularizer": null, "filters": 96, "use_bias": true, "data_format": "channels_last"}}, {"name": "conv2d_54", "class_name": "Conv2D", "inbound_nodes": [[["batch_normalization_53", 0, 0, {}]]], "config": {"name": "conv2d_54", "activation": "relu", "bias_initializer": {"config": {}, "class_name": "Zeros"}, "strides": [1, 1], "kernel_initializer": {"config": {"scale": 1.0, "distribution": "uniform", "seed": null, "mode": "fan_avg"}, "class_name": "VarianceScaling"}, "kernel_regularizer": null, "bias_constraint": null, "dilation_rate": [1, 1], "kernel_constraint": null, "kernel_size": [7, 1], "bias_regularizer": null, "padding": "same", "trainable": true, "activity_regularizer": null, "filters": 96, "use_bias": true, "data_format": "channels_last"}}, {"name": "conv2d_59", "class_name": "Conv2D", "inbound_nodes": [[["batch_normalization_58", 0, 0, {}]]], "config": {"name": "conv2d_59", "activation": "relu", "bias_initializer": {"config": {}, "class_name": "Zeros"}, "strides": [1, 1], "kernel_initializer": {"config": {"scale": 1.0, "distribution": "uniform", "seed": null, "mode": "fan_avg"}, "class_name": "VarianceScaling"}, "kernel_regularizer": null, "bias_constraint": null, "dilation_rate": [1, 1], "kernel_constraint": null, "kernel_size": [1, 7], "bias_regularizer": null, "padding": "same", "trainable": true, "activity_regularizer": null, "filters": 96, "use_bias": true, "data_format": "channels_last"}}, {"name": "conv2d_60", "class_name": "Conv2D", "inbound_nodes": [[["average_pooling2d_6", 0, 0, {}]]], "config": {"name": "conv2d_60", "activation": "relu", "bias_initializer": {"config": {}, "class_name": "Zeros"}, "strides": [1, 1], "kernel_initializer": {"config": {"scale": 1.0, "distribution": "uniform", "seed": null, "mode": "fan_avg"}, "class_name": "VarianceScaling"}, "kernel_regularizer": null, "bias_constraint": null, "dilation_rate": [1, 1], "kernel_constraint": null, "kernel_size": [1, 1], "bias_regularizer": null, "padding": "same", "trainable": true, "activity_regularizer": null, "filters": 96, "use_bias": true, "data_format": "channels_last"}}, {"name": "batch_normalization_51", "class_name": "BatchNormalization", "inbound_nodes": [[["conv2d_51", 0, 0, {}]]], "config": {"name": "batch_normalization_51", "beta_regularizer": null, "moving_mean_initializer": {"config": {}, "class_name": "Zeros"}, "scale": true, "beta_initializer": {"config": {}, "class_name": "Zeros"}, "center": true, "gamma_regularizer": null, "gamma_constraint": null, "momentum": 0.99, "gamma_initializer": {"config": {}, "class_name": "Ones"}, "epsilon": 0.001, "axis": 3, "moving_variance_initializer": {"config": {}, "class_name": "Ones"}, "beta_constraint": null, "trainable": true}}, {"name": "batch_normalization_54", "class_name": "BatchNormalization", "inbound_nodes": [[["conv2d_54", 0, 0, {}]]], "config": {"name": "batch_normalization_54", "beta_regularizer": null, "moving_mean_initializer": {"config": {}, "class_name": "Zeros"}, "scale": true, "beta_initializer": {"config": {}, "class_name": "Zeros"}, "center": true, "gamma_regularizer": null, "gamma_constraint": null, "momentum": 0.99, "gamma_initializer": {"config": {}, "class_name": "Ones"}, "epsilon": 0.001, "axis": 3, "moving_variance_initializer": {"config": {}, "class_name": "Ones"}, "beta_constraint": null, "trainable": true}}, {"name": "batch_normalization_59", "class_name": "BatchNormalization", "inbound_nodes": [[["conv2d_59", 0, 0, {}]]], "config": {"name": "batch_normalization_59", "beta_regularizer": null, "moving_mean_initializer": {"config": {}, "class_name": "Zeros"}, "scale": true, "beta_initializer": {"config": {}, "class_name": "Zeros"}, "center": true, "gamma_regularizer": null, "gamma_constraint": null, "momentum": 0.99, "gamma_initializer": {"config": {}, "class_name": "Ones"}, "epsilon": 0.001, "axis": 3, "moving_variance_initializer": {"config": {}, "class_name": "Ones"}, "beta_constraint": null, "trainable": true}}, {"name": "batch_normalization_60", "class_name": "BatchNormalization", "inbound_nodes": [[["conv2d_60", 0, 0, {}]]], "config": {"name": "batch_normalization_60", "beta_regularizer": null, "moving_mean_initializer": {"config": {}, "class_name": "Zeros"}, "scale": true, "beta_initializer": {"config": {}, "class_name": "Zeros"}, "center": true, "gamma_regularizer": null, "gamma_constraint": null, "momentum": 0.99, "gamma_initializer": {"config": {}, "class_name": "Ones"}, "epsilon": 0.001, "axis": 3, "moving_variance_initializer": {"config": {}, "class_name": "Ones"}, "beta_constraint": null, "trainable": true}}, {"name": "mixed6", "class_name": "Concatenate", "inbound_nodes": [[["batch_normalization_51", 0, 0, {}], ["batch_normalization_54", 0, 0, {}], ["batch_normalization_59", 0, 0, {}], ["batch_normalization_60", 0, 0, {}]]], "config": {"name": "mixed6", "axis": -1, "trainable": true}}, {"name": "conv2d_65", "class_name": "Conv2D", "inbound_nodes": [[["mixed6", 0, 0, {}]]], "config": {"name": "conv2d_65", "activation": "relu", "bias_initializer": {"config": {}, "class_name": "Zeros"}, "strides": [1, 1], "kernel_initializer": {"config": {"scale": 1.0, "distribution": "uniform", "seed": null, "mode": "fan_avg"}, "class_name": "VarianceScaling"}, "kernel_regularizer": null, "bias_constraint": null, "dilation_rate": [1, 1], "kernel_constraint": null, "kernel_size": [1, 1], "bias_regularizer": null, "padding": "same", "trainable": true, "activity_regularizer": null, "filters": 80, "use_bias": true, "data_format": "channels_last"}}, {"name": "batch_normalization_65", "class_name": "BatchNormalization", "inbound_nodes": [[["conv2d_65", 0, 0, {}]]], "config": {"name": "batch_normalization_65", "beta_regularizer": null, "moving_mean_initializer": {"config": {}, "class_name": "Zeros"}, "scale": true, "beta_initializer": {"config": {}, "class_name": "Zeros"}, "center": true, "gamma_regularizer": null, "gamma_constraint": null, "momentum": 0.99, "gamma_initializer": {"config": {}, "class_name": "Ones"}, "epsilon": 0.001, "axis": 3, "moving_variance_initializer": {"config": {}, "class_name": "Ones"}, "beta_constraint": null, "trainable": true}}, {"name": "conv2d_66", "class_name": "Conv2D", "inbound_nodes": [[["batch_normalization_65", 0, 0, {}]]], "config": {"name": "conv2d_66", "activation": "relu", "bias_initializer": {"config": {}, "class_name": "Zeros"}, "strides": [1, 1], "kernel_initializer": {"config": {"scale": 1.0, "distribution": "uniform", "seed": null, "mode": "fan_avg"}, "class_name": "VarianceScaling"}, "kernel_regularizer": null, "bias_constraint": null, "dilation_rate": [1, 1], "kernel_constraint": null, "kernel_size": [7, 1], "bias_regularizer": null, "padding": "same", "trainable": true, "activity_regularizer": null, "filters": 96, "use_bias": true, "data_format": "channels_last"}}, {"name": "batch_normalization_66", "class_name": "BatchNormalization", "inbound_nodes": [[["conv2d_66", 0, 0, {}]]], "config": {"name": "batch_normalization_66", "beta_regularizer": null, "moving_mean_initializer": {"config": {}, "class_name": "Zeros"}, "scale": true, "beta_initializer": {"config": {}, "class_name": "Zeros"}, "center": true, "gamma_regularizer": null, "gamma_constraint": null, "momentum": 0.99, "gamma_initializer": {"config": {}, "class_name": "Ones"}, "epsilon": 0.001, "axis": 3, "moving_variance_initializer": {"config": {}, "class_name": "Ones"}, "beta_constraint": null, "trainable": true}}, {"name": "conv2d_62", "class_name": "Conv2D", "inbound_nodes": [[["mixed6", 0, 0, {}]]], "config": {"name": "conv2d_62", "activation": "relu", "bias_initializer": {"config": {}, "class_name": "Zeros"}, "strides": [1, 1], "kernel_initializer": {"config": {"scale": 1.0, "distribution": "uniform", "seed": null, "mode": "fan_avg"}, "class_name": "VarianceScaling"}, "kernel_regularizer": null, "bias_constraint": null, "dilation_rate": [1, 1], "kernel_constraint": null, "kernel_size": [1, 1], "bias_regularizer": null, "padding": "same", "trainable": true, "activity_regularizer": null, "filters": 96, "use_bias": true, "data_format": "channels_last"}}, {"name": "conv2d_67", "class_name": "Conv2D", "inbound_nodes": [[["batch_normalization_66", 0, 0, {}]]], "config": {"name": "conv2d_67", "activation": "relu", "bias_initializer": {"config": {}, "class_name": "Zeros"}, "strides": [1, 1], "kernel_initializer": {"config": {"scale": 1.0, "distribution": "uniform", "seed": null, "mode": "fan_avg"}, "class_name": "VarianceScaling"}, "kernel_regularizer": null, "bias_constraint": null, "dilation_rate": [1, 1], "kernel_constraint": null, "kernel_size": [1, 7], "bias_regularizer": null, "padding": "same", "trainable": true, "activity_regularizer": null, "filters": 96, "use_bias": true, "data_format": "channels_last"}}, {"name": "batch_normalization_62", "class_name": "BatchNormalization", "inbound_nodes": [[["conv2d_62", 0, 0, {}]]], "config": {"name": "batch_normalization_62", "beta_regularizer": null, "moving_mean_initializer": {"config": {}, "class_name": "Zeros"}, "scale": true, "beta_initializer": {"config": {}, "class_name": "Zeros"}, "center": true, "gamma_regularizer": null, "gamma_constraint": null, "momentum": 0.99, "gamma_initializer": {"config": {}, "class_name": "Ones"}, "epsilon": 0.001, "axis": 3, "moving_variance_initializer": {"config": {}, "class_name": "Ones"}, "beta_constraint": null, "trainable": true}}, {"name": "batch_normalization_67", "class_name": "BatchNormalization", "inbound_nodes": [[["conv2d_67", 0, 0, {}]]], "config": {"name": "batch_normalization_67", "beta_regularizer": null, "moving_mean_initializer": {"config": {}, "class_name": "Zeros"}, "scale": true, "beta_initializer": {"config": {}, "class_name": "Zeros"}, "center": true, "gamma_regularizer": null, "gamma_constraint": null, "momentum": 0.99, "gamma_initializer": {"config": {}, "class_name": "Ones"}, "epsilon": 0.001, "axis": 3, "moving_variance_initializer": {"config": {}, "class_name": "Ones"}, "beta_constraint": null, "trainable": true}}, {"name": "conv2d_63", "class_name": "Conv2D", "inbound_nodes": [[["batch_normalization_62", 0, 0, {}]]], "config": {"name": "conv2d_63", "activation": "relu", "bias_initializer": {"config": {}, "class_name": "Zeros"}, "strides": [1, 1], "kernel_initializer": {"config": {"scale": 1.0, "distribution": "uniform", "seed": null, "mode": "fan_avg"}, "class_name": "VarianceScaling"}, "kernel_regularizer": null, "bias_constraint": null, "dilation_rate": [1, 1], "kernel_constraint": null, "kernel_size": [1, 7], "bias_regularizer": null, "padding": "same", "trainable": true, "activity_regularizer": null, "filters": 96, "use_bias": true, "data_format": "channels_last"}}, {"name": "conv2d_68", "class_name": "Conv2D", "inbound_nodes": [[["batch_normalization_67", 0, 0, {}]]], "config": {"name": "conv2d_68", "activation": "relu", "bias_initializer": {"config": {}, "class_name": "Zeros"}, "strides": [1, 1], "kernel_initializer": {"config": {"scale": 1.0, "distribution": "uniform", "seed": null, "mode": "fan_avg"}, "class_name": "VarianceScaling"}, "kernel_regularizer": null, "bias_constraint": null, "dilation_rate": [1, 1], "kernel_constraint": null, "kernel_size": [7, 1], "bias_regularizer": null, "padding": "same", "trainable": true, "activity_regularizer": null, "filters": 96, "use_bias": true, "data_format": "channels_last"}}, {"name": "batch_normalization_63", "class_name": "BatchNormalization", "inbound_nodes": [[["conv2d_63", 0, 0, {}]]], "config": {"name": "batch_normalization_63", "beta_regularizer": null, "moving_mean_initializer": {"config": {}, "class_name": "Zeros"}, "scale": true, "beta_initializer": {"config": {}, "class_name": "Zeros"}, "center": true, "gamma_regularizer": null, "gamma_constraint": null, "momentum": 0.99, "gamma_initializer": {"config": {}, "class_name": "Ones"}, "epsilon": 0.001, "axis": 3, "moving_variance_initializer": {"config": {}, "class_name": "Ones"}, "beta_constraint": null, "trainable": true}}, {"name": "batch_normalization_68", "class_name": "BatchNormalization", "inbound_nodes": [[["conv2d_68", 0, 0, {}]]], "config": {"name": "batch_normalization_68", "beta_regularizer": null, "moving_mean_initializer": {"config": {}, "class_name": "Zeros"}, "scale": true, "beta_initializer": {"config": {}, "class_name": "Zeros"}, "center": true, "gamma_regularizer": null, "gamma_constraint": null, "momentum": 0.99, "gamma_initializer": {"config": {}, "class_name": "Ones"}, "epsilon": 0.001, "axis": 3, "moving_variance_initializer": {"config": {}, "class_name": "Ones"}, "beta_constraint": null, "trainable": true}}, {"name": "average_pooling2d_7", "class_name": "AveragePooling2D", "inbound_nodes": [[["mixed6", 0, 0, {}]]], "config": {"name": "average_pooling2d_7", "pool_size": [3, 3], "data_format": "channels_last", "padding": "same", "trainable": true, "strides": [1, 1]}}, {"name": "conv2d_61", "class_name": "Conv2D", "inbound_nodes": [[["mixed6", 0, 0, {}]]], "config": {"name": "conv2d_61", "activation": "relu", "bias_initializer": {"config": {}, "class_name": "Zeros"}, "strides": [1, 1], "kernel_initializer": {"config": {"scale": 1.0, "distribution": "uniform", "seed": null, "mode": "fan_avg"}, "class_name": "VarianceScaling"}, "kernel_regularizer": null, "bias_constraint": null, "dilation_rate": [1, 1], "kernel_constraint": null, "kernel_size": [1, 1], "bias_regularizer": null, "padding": "same", "trainable": true, "activity_regularizer": null, "filters": 96, "use_bias": true, "data_format": "channels_last"}}, {"name": "conv2d_64", "class_name": "Conv2D", "inbound_nodes": [[["batch_normalization_63", 0, 0, {}]]], "config": {"name": "conv2d_64", "activation": "relu", "bias_initializer": {"config": {}, "class_name": "Zeros"}, "strides": [1, 1], "kernel_initializer": {"config": {"scale": 1.0, "distribution": "uniform", "seed": null, "mode": "fan_avg"}, "class_name": "VarianceScaling"}, "kernel_regularizer": null, "bias_constraint": null, "dilation_rate": [1, 1], "kernel_constraint": null, "kernel_size": [7, 1], "bias_regularizer": null, "padding": "same", "trainable": true, "activity_regularizer": null, "filters": 96, "use_bias": true, "data_format": "channels_last"}}, {"name": "conv2d_69", "class_name": "Conv2D", "inbound_nodes": [[["batch_normalization_68", 0, 0, {}]]], "config": {"name": "conv2d_69", "activation": "relu", "bias_initializer": {"config": {}, "class_name": "Zeros"}, "strides": [1, 1], "kernel_initializer": {"config": {"scale": 1.0, "distribution": "uniform", "seed": null, "mode": "fan_avg"}, "class_name": "VarianceScaling"}, "kernel_regularizer": null, "bias_constraint": null, "dilation_rate": [1, 1], "kernel_constraint": null, "kernel_size": [1, 7], "bias_regularizer": null, "padding": "same", "trainable": true, "activity_regularizer": null, "filters": 96, "use_bias": true, "data_format": "channels_last"}}, {"name": "conv2d_70", "class_name": "Conv2D", "inbound_nodes": [[["average_pooling2d_7", 0, 0, {}]]], "config": {"name": "conv2d_70", "activation": "relu", "bias_initializer": {"config": {}, "class_name": "Zeros"}, "strides": [1, 1], "kernel_initializer": {"config": {"scale": 1.0, "distribution": "uniform", "seed": null, "mode": "fan_avg"}, "class_name": "VarianceScaling"}, "kernel_regularizer": null, "bias_constraint": null, "dilation_rate": [1, 1], "kernel_constraint": null, "kernel_size": [1, 1], "bias_regularizer": null, "padding": "same", "trainable": true, "activity_regularizer": null, "filters": 96, "use_bias": true, "data_format": "channels_last"}}, {"name": "batch_normalization_61", "class_name": "BatchNormalization", "inbound_nodes": [[["conv2d_61", 0, 0, {}]]], "config": {"name": "batch_normalization_61", "beta_regularizer": null, "moving_mean_initializer": {"config": {}, "class_name": "Zeros"}, "scale": true, "beta_initializer": {"config": {}, "class_name": "Zeros"}, "center": true, "gamma_regularizer": null, "gamma_constraint": null, "momentum": 0.99, "gamma_initializer": {"config": {}, "class_name": "Ones"}, "epsilon": 0.001, "axis": 3, "moving_variance_initializer": {"config": {}, "class_name": "Ones"}, "beta_constraint": null, "trainable": true}}, {"name": "batch_normalization_64", "class_name": "BatchNormalization", "inbound_nodes": [[["conv2d_64", 0, 0, {}]]], "config": {"name": "batch_normalization_64", "beta_regularizer": null, "moving_mean_initializer": {"config": {}, "class_name": "Zeros"}, "scale": true, "beta_initializer": {"config": {}, "class_name": "Zeros"}, "center": true, "gamma_regularizer": null, "gamma_constraint": null, "momentum": 0.99, "gamma_initializer": {"config": {}, "class_name": "Ones"}, "epsilon": 0.001, "axis": 3, "moving_variance_initializer": {"config": {}, "class_name": "Ones"}, "beta_constraint": null, "trainable": true}}, {"name": "batch_normalization_69", "class_name": "BatchNormalization", "inbound_nodes": [[["conv2d_69", 0, 0, {}]]], "config": {"name": "batch_normalization_69", "beta_regularizer": null, "moving_mean_initializer": {"config": {}, "class_name": "Zeros"}, "scale": true, "beta_initializer": {"config": {}, "class_name": "Zeros"}, "center": true, "gamma_regularizer": null, "gamma_constraint": null, "momentum": 0.99, "gamma_initializer": {"config": {}, "class_name": "Ones"}, "epsilon": 0.001, "axis": 3, "moving_variance_initializer": {"config": {}, "class_name": "Ones"}, "beta_constraint": null, "trainable": true}}, {"name": "batch_normalization_70", "class_name": "BatchNormalization", "inbound_nodes": [[["conv2d_70", 0, 0, {}]]], "config": {"name": "batch_normalization_70", "beta_regularizer": null, "moving_mean_initializer": {"config": {}, "class_name": "Zeros"}, "scale": true, "beta_initializer": {"config": {}, "class_name": "Zeros"}, "center": true, "gamma_regularizer": null, "gamma_constraint": null, "momentum": 0.99, "gamma_initializer": {"config": {}, "class_name": "Ones"}, "epsilon": 0.001, "axis": 3, "moving_variance_initializer": {"config": {}, "class_name": "Ones"}, "beta_constraint": null, "trainable": true}}, {"name": "mixed7", "class_name": "Concatenate", "inbound_nodes": [[["batch_normalization_61", 0, 0, {}], ["batch_normalization_64", 0, 0, {}], ["batch_normalization_69", 0, 0, {}], ["batch_normalization_70", 0, 0, {}]]], "config": {"name": "mixed7", "axis": -1, "trainable": true}}, {"name": "conv2d_73", "class_name": "Conv2D", "inbound_nodes": [[["mixed7", 0, 0, {}]]], "config": {"name": "conv2d_73", "activation": "relu", "bias_initializer": {"config": {}, "class_name": "Zeros"}, "strides": [1, 1], "kernel_initializer": {"config": {"scale": 1.0, "distribution": "uniform", "seed": null, "mode": "fan_avg"}, "class_name": "VarianceScaling"}, "kernel_regularizer": null, "bias_constraint": null, "dilation_rate": [1, 1], "kernel_constraint": null, "kernel_size": [1, 1], "bias_regularizer": null, "padding": "same", "trainable": true, "activity_regularizer": null, "filters": 96, "use_bias": true, "data_format": "channels_last"}}, {"name": "batch_normalization_73", "class_name": "BatchNormalization", "inbound_nodes": [[["conv2d_73", 0, 0, {}]]], "config": {"name": "batch_normalization_73", "beta_regularizer": null, "moving_mean_initializer": {"config": {}, "class_name": "Zeros"}, "scale": true, "beta_initializer": {"config": {}, "class_name": "Zeros"}, "center": true, "gamma_regularizer": null, "gamma_constraint": null, "momentum": 0.99, "gamma_initializer": {"config": {}, "class_name": "Ones"}, "epsilon": 0.001, "axis": 3, "moving_variance_initializer": {"config": {}, "class_name": "Ones"}, "beta_constraint": null, "trainable": true}}, {"name": "conv2d_74", "class_name": "Conv2D", "inbound_nodes": [[["batch_normalization_73", 0, 0, {}]]], "config": {"name": "conv2d_74", "activation": "relu", "bias_initializer": {"config": {}, "class_name": "Zeros"}, "strides": [1, 1], "kernel_initializer": {"config": {"scale": 1.0, "distribution": "uniform", "seed": null, "mode": "fan_avg"}, "class_name": "VarianceScaling"}, "kernel_regularizer": null, "bias_constraint": null, "dilation_rate": [1, 1], "kernel_constraint": null, "kernel_size": [1, 7], "bias_regularizer": null, "padding": "same", "trainable": true, "activity_regularizer": null, "filters": 96, "use_bias": true, "data_format": "channels_last"}}, {"name": "batch_normalization_74", "class_name": "BatchNormalization", "inbound_nodes": [[["conv2d_74", 0, 0, {}]]], "config": {"name": "batch_normalization_74", "beta_regularizer": null, "moving_mean_initializer": {"config": {}, "class_name": "Zeros"}, "scale": true, "beta_initializer": {"config": {}, "class_name": "Zeros"}, "center": true, "gamma_regularizer": null, "gamma_constraint": null, "momentum": 0.99, "gamma_initializer": {"config": {}, "class_name": "Ones"}, "epsilon": 0.001, "axis": 3, "moving_variance_initializer": {"config": {}, "class_name": "Ones"}, "beta_constraint": null, "trainable": true}}, {"name": "conv2d_71", "class_name": "Conv2D", "inbound_nodes": [[["mixed7", 0, 0, {}]]], "config": {"name": "conv2d_71", "activation": "relu", "bias_initializer": {"config": {}, "class_name": "Zeros"}, "strides": [1, 1], "kernel_initializer": {"config": {"scale": 1.0, "distribution": "uniform", "seed": null, "mode": "fan_avg"}, "class_name": "VarianceScaling"}, "kernel_regularizer": null, "bias_constraint": null, "dilation_rate": [1, 1], "kernel_constraint": null, "kernel_size": [1, 1], "bias_regularizer": null, "padding": "same", "trainable": true, "activity_regularizer": null, "filters": 96, "use_bias": true, "data_format": "channels_last"}}, {"name": "conv2d_75", "class_name": "Conv2D", "inbound_nodes": [[["batch_normalization_74", 0, 0, {}]]], "config": {"name": "conv2d_75", "activation": "relu", "bias_initializer": {"config": {}, "class_name": "Zeros"}, "strides": [1, 1], "kernel_initializer": {"config": {"scale": 1.0, "distribution": "uniform", "seed": null, "mode": "fan_avg"}, "class_name": "VarianceScaling"}, "kernel_regularizer": null, "bias_constraint": null, "dilation_rate": [1, 1], "kernel_constraint": null, "kernel_size": [7, 1], "bias_regularizer": null, "padding": "same", "trainable": true, "activity_regularizer": null, "filters": 96, "use_bias": true, "data_format": "channels_last"}}, {"name": "batch_normalization_71", "class_name": "BatchNormalization", "inbound_nodes": [[["conv2d_71", 0, 0, {}]]], "config": {"name": "batch_normalization_71", "beta_regularizer": null, "moving_mean_initializer": {"config": {}, "class_name": "Zeros"}, "scale": true, "beta_initializer": {"config": {}, "class_name": "Zeros"}, "center": true, "gamma_regularizer": null, "gamma_constraint": null, "momentum": 0.99, "gamma_initializer": {"config": {}, "class_name": "Ones"}, "epsilon": 0.001, "axis": 3, "moving_variance_initializer": {"config": {}, "class_name": "Ones"}, "beta_constraint": null, "trainable": true}}, {"name": "batch_normalization_75", "class_name": "BatchNormalization", "inbound_nodes": [[["conv2d_75", 0, 0, {}]]], "config": {"name": "batch_normalization_75", "beta_regularizer": null, "moving_mean_initializer": {"config": {}, "class_name": "Zeros"}, "scale": true, "beta_initializer": {"config": {}, "class_name": "Zeros"}, "center": true, "gamma_regularizer": null, "gamma_constraint": null, "momentum": 0.99, "gamma_initializer": {"config": {}, "class_name": "Ones"}, "epsilon": 0.001, "axis": 3, "moving_variance_initializer": {"config": {}, "class_name": "Ones"}, "beta_constraint": null, "trainable": true}}, {"name": "conv2d_72", "class_name": "Conv2D", "inbound_nodes": [[["batch_normalization_71", 0, 0, {}]]], "config": {"name": "conv2d_72", "activation": "relu", "bias_initializer": {"config": {}, "class_name": "Zeros"}, "strides": [2, 2], "kernel_initializer": {"config": {"scale": 1.0, "distribution": "uniform", "seed": null, "mode": "fan_avg"}, "class_name": "VarianceScaling"}, "kernel_regularizer": null, "bias_constraint": null, "dilation_rate": [1, 1], "kernel_constraint": null, "kernel_size": [3, 3], "bias_regularizer": null, "padding": "valid", "trainable": true, "activity_regularizer": null, "filters": 160, "use_bias": true, "data_format": "channels_last"}}, {"name": "conv2d_76", "class_name": "Conv2D", "inbound_nodes": [[["batch_normalization_75", 0, 0, {}]]], "config": {"name": "conv2d_76", "activation": "relu", "bias_initializer": {"config": {}, "class_name": "Zeros"}, "strides": [2, 2], "kernel_initializer": {"config": {"scale": 1.0, "distribution": "uniform", "seed": null, "mode": "fan_avg"}, "class_name": "VarianceScaling"}, "kernel_regularizer": null, "bias_constraint": null, "dilation_rate": [1, 1], "kernel_constraint": null, "kernel_size": [3, 3], "bias_regularizer": null, "padding": "valid", "trainable": true, "activity_regularizer": null, "filters": 96, "use_bias": true, "data_format": "channels_last"}}, {"name": "batch_normalization_72", "class_name": "BatchNormalization", "inbound_nodes": [[["conv2d_72", 0, 0, {}]]], "config": {"name": "batch_normalization_72", "beta_regularizer": null, "moving_mean_initializer": {"config": {}, "class_name": "Zeros"}, "scale": true, "beta_initializer": {"config": {}, "class_name": "Zeros"}, "center": true, "gamma_regularizer": null, "gamma_constraint": null, "momentum": 0.99, "gamma_initializer": {"config": {}, "class_name": "Ones"}, "epsilon": 0.001, "axis": 3, "moving_variance_initializer": {"config": {}, "class_name": "Ones"}, "beta_constraint": null, "trainable": true}}, {"name": "batch_normalization_76", "class_name": "BatchNormalization", "inbound_nodes": [[["conv2d_76", 0, 0, {}]]], "config": {"name": "batch_normalization_76", "beta_regularizer": null, "moving_mean_initializer": {"config": {}, "class_name": "Zeros"}, "scale": true, "beta_initializer": {"config": {}, "class_name": "Zeros"}, "center": true, "gamma_regularizer": null, "gamma_constraint": null, "momentum": 0.99, "gamma_initializer": {"config": {}, "class_name": "Ones"}, "epsilon": 0.001, "axis": 3, "moving_variance_initializer": {"config": {}, "class_name": "Ones"}, "beta_constraint": null, "trainable": true}}, {"name": "average_pooling2d_8", "class_name": "AveragePooling2D", "inbound_nodes": [[["mixed7", 0, 0, {}]]], "config": {"name": "average_pooling2d_8", "pool_size": [3, 3], "data_format": "channels_last", "padding": "valid", "trainable": true, "strides": [2, 2]}}, {"name": "mixed8", "class_name": "Concatenate", "inbound_nodes": [[["batch_normalization_72", 0, 0, {}], ["batch_normalization_76", 0, 0, {}], ["average_pooling2d_8", 0, 0, {}]]], "config": {"name": "mixed8", "axis": -1, "trainable": true}}, {"name": "conv2d_81", "class_name": "Conv2D", "inbound_nodes": [[["mixed8", 0, 0, {}]]], "config": {"name": "conv2d_81", "activation": "relu", "bias_initializer": {"config": {}, "class_name": "Zeros"}, "strides": [1, 1], "kernel_initializer": {"config": {"scale": 1.0, "distribution": "uniform", "seed": null, "mode": "fan_avg"}, "class_name": "VarianceScaling"}, "kernel_regularizer": null, "bias_constraint": null, "dilation_rate": [1, 1], "kernel_constraint": null, "kernel_size": [1, 1], "bias_regularizer": null, "padding": "same", "trainable": true, "activity_regularizer": null, "filters": 224, "use_bias": true, "data_format": "channels_last"}}, {"name": "batch_normalization_81", "class_name": "BatchNormalization", "inbound_nodes": [[["conv2d_81", 0, 0, {}]]], "config": {"name": "batch_normalization_81", "beta_regularizer": null, "moving_mean_initializer": {"config": {}, "class_name": "Zeros"}, "scale": true, "beta_initializer": {"config": {}, "class_name": "Zeros"}, "center": true, "gamma_regularizer": null, "gamma_constraint": null, "momentum": 0.99, "gamma_initializer": {"config": {}, "class_name": "Ones"}, "epsilon": 0.001, "axis": 3, "moving_variance_initializer": {"config": {}, "class_name": "Ones"}, "beta_constraint": null, "trainable": true}}, {"name": "conv2d_78", "class_name": "Conv2D", "inbound_nodes": [[["mixed8", 0, 0, {}]]], "config": {"name": "conv2d_78", "activation": "relu", "bias_initializer": {"config": {}, "class_name": "Zeros"}, "strides": [1, 1], "kernel_initializer": {"config": {"scale": 1.0, "distribution": "uniform", "seed": null, "mode": "fan_avg"}, "class_name": "VarianceScaling"}, "kernel_regularizer": null, "bias_constraint": null, "dilation_rate": [1, 1], "kernel_constraint": null, "kernel_size": [1, 1], "bias_regularizer": null, "padding": "same", "trainable": true, "activity_regularizer": null, "filters": 192, "use_bias": true, "data_format": "channels_last"}}, {"name": "conv2d_82", "class_name": "Conv2D", "inbound_nodes": [[["batch_normalization_81", 0, 0, {}]]], "config": {"name": "conv2d_82", "activation": "relu", "bias_initializer": {"config": {}, "class_name": "Zeros"}, "strides": [1, 1], "kernel_initializer": {"config": {"scale": 1.0, "distribution": "uniform", "seed": null, "mode": "fan_avg"}, "class_name": "VarianceScaling"}, "kernel_regularizer": null, "bias_constraint": null, "dilation_rate": [1, 1], "kernel_constraint": null, "kernel_size": [3, 3], "bias_regularizer": null, "padding": "same", "trainable": true, "activity_regularizer": null, "filters": 192, "use_bias": true, "data_format": "channels_last"}}, {"name": "batch_normalization_78", "class_name": "BatchNormalization", "inbound_nodes": [[["conv2d_78", 0, 0, {}]]], "config": {"name": "batch_normalization_78", "beta_regularizer": null, "moving_mean_initializer": {"config": {}, "class_name": "Zeros"}, "scale": true, "beta_initializer": {"config": {}, "class_name": "Zeros"}, "center": true, "gamma_regularizer": null, "gamma_constraint": null, "momentum": 0.99, "gamma_initializer": {"config": {}, "class_name": "Ones"}, "epsilon": 0.001, "axis": 3, "moving_variance_initializer": {"config": {}, "class_name": "Ones"}, "beta_constraint": null, "trainable": true}}, {"name": "batch_normalization_82", "class_name": "BatchNormalization", "inbound_nodes": [[["conv2d_82", 0, 0, {}]]], "config": {"name": "batch_normalization_82", "beta_regularizer": null, "moving_mean_initializer": {"config": {}, "class_name": "Zeros"}, "scale": true, "beta_initializer": {"config": {}, "class_name": "Zeros"}, "center": true, "gamma_regularizer": null, "gamma_constraint": null, "momentum": 0.99, "gamma_initializer": {"config": {}, "class_name": "Ones"}, "epsilon": 0.001, "axis": 3, "moving_variance_initializer": {"config": {}, "class_name": "Ones"}, "beta_constraint": null, "trainable": true}}, {"name": "conv2d_79", "class_name": "Conv2D", "inbound_nodes": [[["batch_normalization_78", 0, 0, {}]]], "config": {"name": "conv2d_79", "activation": "relu", "bias_initializer": {"config": {}, "class_name": "Zeros"}, "strides": [1, 1], "kernel_initializer": {"config": {"scale": 1.0, "distribution": "uniform", "seed": null, "mode": "fan_avg"}, "class_name": "VarianceScaling"}, "kernel_regularizer": null, "bias_constraint": null, "dilation_rate": [1, 1], "kernel_constraint": null, "kernel_size": [1, 3], "bias_regularizer": null, "padding": "same", "trainable": true, "activity_regularizer": null, "filters": 192, "use_bias": true, "data_format": "channels_last"}}, {"name": "conv2d_80", "class_name": "Conv2D", "inbound_nodes": [[["batch_normalization_78", 0, 0, {}]]], "config": {"name": "conv2d_80", "activation": "relu", "bias_initializer": {"config": {}, "class_name": "Zeros"}, "strides": [1, 1], "kernel_initializer": {"config": {"scale": 1.0, "distribution": "uniform", "seed": null, "mode": "fan_avg"}, "class_name": "VarianceScaling"}, "kernel_regularizer": null, "bias_constraint": null, "dilation_rate": [1, 1], "kernel_constraint": null, "kernel_size": [3, 1], "bias_regularizer": null, "padding": "same", "trainable": true, "activity_regularizer": null, "filters": 192, "use_bias": true, "data_format": "channels_last"}}, {"name": "conv2d_83", "class_name": "Conv2D", "inbound_nodes": [[["batch_normalization_82", 0, 0, {}]]], "config": {"name": "conv2d_83", "activation": "relu", "bias_initializer": {"config": {}, "class_name": "Zeros"}, "strides": [1, 1], "kernel_initializer": {"config": {"scale": 1.0, "distribution": "uniform", "seed": null, "mode": "fan_avg"}, "class_name": "VarianceScaling"}, "kernel_regularizer": null, "bias_constraint": null, "dilation_rate": [1, 1], "kernel_constraint": null, "kernel_size": [1, 3], "bias_regularizer": null, "padding": "same", "trainable": true, "activity_regularizer": null, "filters": 192, "use_bias": true, "data_format": "channels_last"}}, {"name": "conv2d_84", "class_name": "Conv2D", "inbound_nodes": [[["batch_normalization_82", 0, 0, {}]]], "config": {"name": "conv2d_84", "activation": "relu", "bias_initializer": {"config": {}, "class_name": "Zeros"}, "strides": [1, 1], "kernel_initializer": {"config": {"scale": 1.0, "distribution": "uniform", "seed": null, "mode": "fan_avg"}, "class_name": "VarianceScaling"}, "kernel_regularizer": null, "bias_constraint": null, "dilation_rate": [1, 1], "kernel_constraint": null, "kernel_size": [3, 1], "bias_regularizer": null, "padding": "same", "trainable": true, "activity_regularizer": null, "filters": 192, "use_bias": true, "data_format": "channels_last"}}, {"name": "average_pooling2d_9", "class_name": "AveragePooling2D", "inbound_nodes": [[["mixed8", 0, 0, {}]]], "config": {"name": "average_pooling2d_9", "pool_size": [3, 3], "data_format": "channels_last", "padding": "same", "trainable": true, "strides": [1, 1]}}, {"name": "conv2d_77", "class_name": "Conv2D", "inbound_nodes": [[["mixed8", 0, 0, {}]]], "config": {"name": "conv2d_77", "activation": "relu", "bias_initializer": {"config": {}, "class_name": "Zeros"}, "strides": [1, 1], "kernel_initializer": {"config": {"scale": 1.0, "distribution": "uniform", "seed": null, "mode": "fan_avg"}, "class_name": "VarianceScaling"}, "kernel_regularizer": null, "bias_constraint": null, "dilation_rate": [1, 1], "kernel_constraint": null, "kernel_size": [1, 1], "bias_regularizer": null, "padding": "same", "trainable": true, "activity_regularizer": null, "filters": 160, "use_bias": true, "data_format": "channels_last"}}, {"name": "batch_normalization_79", "class_name": "BatchNormalization", "inbound_nodes": [[["conv2d_79", 0, 0, {}]]], "config": {"name": "batch_normalization_79", "beta_regularizer": null, "moving_mean_initializer": {"config": {}, "class_name": "Zeros"}, "scale": true, "beta_initializer": {"config": {}, "class_name": "Zeros"}, "center": true, "gamma_regularizer": null, "gamma_constraint": null, "momentum": 0.99, "gamma_initializer": {"config": {}, "class_name": "Ones"}, "epsilon": 0.001, "axis": 3, "moving_variance_initializer": {"config": {}, "class_name": "Ones"}, "beta_constraint": null, "trainable": true}}, {"name": "batch_normalization_80", "class_name": "BatchNormalization", "inbound_nodes": [[["conv2d_80", 0, 0, {}]]], "config": {"name": "batch_normalization_80", "beta_regularizer": null, "moving_mean_initializer": {"config": {}, "class_name": "Zeros"}, "scale": true, "beta_initializer": {"config": {}, "class_name": "Zeros"}, "center": true, "gamma_regularizer": null, "gamma_constraint": null, "momentum": 0.99, "gamma_initializer": {"config": {}, "class_name": "Ones"}, "epsilon": 0.001, "axis": 3, "moving_variance_initializer": {"config": {}, "class_name": "Ones"}, "beta_constraint": null, "trainable": true}}, {"name": "batch_normalization_83", "class_name": "BatchNormalization", "inbound_nodes": [[["conv2d_83", 0, 0, {}]]], "config": {"name": "batch_normalization_83", "beta_regularizer": null, "moving_mean_initializer": {"config": {}, "class_name": "Zeros"}, "scale": true, "beta_initializer": {"config": {}, "class_name": "Zeros"}, "center": true, "gamma_regularizer": null, "gamma_constraint": null, "momentum": 0.99, "gamma_initializer": {"config": {}, "class_name": "Ones"}, "epsilon": 0.001, "axis": 3, "moving_variance_initializer": {"config": {}, "class_name": "Ones"}, "beta_constraint": null, "trainable": true}}, {"name": "batch_normalization_84", "class_name": "BatchNormalization", "inbound_nodes": [[["conv2d_84", 0, 0, {}]]], "config": {"name": "batch_normalization_84", "beta_regularizer": null, "moving_mean_initializer": {"config": {}, "class_name": "Zeros"}, "scale": true, "beta_initializer": {"config": {}, "class_name": "Zeros"}, "center": true, "gamma_regularizer": null, "gamma_constraint": null, "momentum": 0.99, "gamma_initializer": {"config": {}, "class_name": "Ones"}, "epsilon": 0.001, "axis": 3, "moving_variance_initializer": {"config": {}, "class_name": "Ones"}, "beta_constraint": null, "trainable": true}}, {"name": "conv2d_85", "class_name": "Conv2D", "inbound_nodes": [[["average_pooling2d_9", 0, 0, {}]]], "config": {"name": "conv2d_85", "activation": "relu", "bias_initializer": {"config": {}, "class_name": "Zeros"}, "strides": [1, 1], "kernel_initializer": {"config": {"scale": 1.0, "distribution": "uniform", "seed": null, "mode": "fan_avg"}, "class_name": "VarianceScaling"}, "kernel_regularizer": null, "bias_constraint": null, "dilation_rate": [1, 1], "kernel_constraint": null, "kernel_size": [1, 1], "bias_regularizer": null, "padding": "same", "trainable": true, "activity_regularizer": null, "filters": 96, "use_bias": true, "data_format": "channels_last"}}, {"name": "batch_normalization_77", "class_name": "BatchNormalization", "inbound_nodes": [[["conv2d_77", 0, 0, {}]]], "config": {"name": "batch_normalization_77", "beta_regularizer": null, "moving_mean_initializer": {"config": {}, "class_name": "Zeros"}, "scale": true, "beta_initializer": {"config": {}, "class_name": "Zeros"}, "center": true, "gamma_regularizer": null, "gamma_constraint": null, "momentum": 0.99, "gamma_initializer": {"config": {}, "class_name": "Ones"}, "epsilon": 0.001, "axis": 3, "moving_variance_initializer": {"config": {}, "class_name": "Ones"}, "beta_constraint": null, "trainable": true}}, {"name": "mixed9_0", "class_name": "Concatenate", "inbound_nodes": [[["batch_normalization_79", 0, 0, {}], ["batch_normalization_80", 0, 0, {}]]], "config": {"name": "mixed9_0", "axis": -1, "trainable": true}}, {"name": "concatenate_1", "class_name": "Concatenate", "inbound_nodes": [[["batch_normalization_83", 0, 0, {}], ["batch_normalization_84", 0, 0, {}]]], "config": {"name": "concatenate_1", "axis": -1, "trainable": true}}, {"name": "batch_normalization_85", "class_name": "BatchNormalization", "inbound_nodes": [[["conv2d_85", 0, 0, {}]]], "config": {"name": "batch_normalization_85", "beta_regularizer": null, "moving_mean_initializer": {"config": {}, "class_name": "Zeros"}, "scale": true, "beta_initializer": {"config": {}, "class_name": "Zeros"}, "center": true, "gamma_regularizer": null, "gamma_constraint": null, "momentum": 0.99, "gamma_initializer": {"config": {}, "class_name": "Ones"}, "epsilon": 0.001, "axis": 3, "moving_variance_initializer": {"config": {}, "class_name": "Ones"}, "beta_constraint": null, "trainable": true}}, {"name": "mixed9", "class_name": "Concatenate", "inbound_nodes": [[["batch_normalization_77", 0, 0, {}], ["mixed9_0", 0, 0, {}], ["concatenate_1", 0, 0, {}], ["batch_normalization_85", 0, 0, {}]]], "config": {"name": "mixed9", "axis": -1, "trainable": true}}, {"name": "conv2d_90", "class_name": "Conv2D", "inbound_nodes": [[["mixed9", 0, 0, {}]]], "config": {"name": "conv2d_90", "activation": "relu", "bias_initializer": {"config": {}, "class_name": "Zeros"}, "strides": [1, 1], "kernel_initializer": {"config": {"scale": 1.0, "distribution": "uniform", "seed": null, "mode": "fan_avg"}, "class_name": "VarianceScaling"}, "kernel_regularizer": null, "bias_constraint": null, "dilation_rate": [1, 1], "kernel_constraint": null, "kernel_size": [1, 1], "bias_regularizer": null, "padding": "same", "trainable": true, "activity_regularizer": null, "filters": 224, "use_bias": true, "data_format": "channels_last"}}, {"name": "batch_normalization_90", "class_name": "BatchNormalization", "inbound_nodes": [[["conv2d_90", 0, 0, {}]]], "config": {"name": "batch_normalization_90", "beta_regularizer": null, "moving_mean_initializer": {"config": {}, "class_name": "Zeros"}, "scale": true, "beta_initializer": {"config": {}, "class_name": "Zeros"}, "center": true, "gamma_regularizer": null, "gamma_constraint": null, "momentum": 0.99, "gamma_initializer": {"config": {}, "class_name": "Ones"}, "epsilon": 0.001, "axis": 3, "moving_variance_initializer": {"config": {}, "class_name": "Ones"}, "beta_constraint": null, "trainable": true}}, {"name": "conv2d_87", "class_name": "Conv2D", "inbound_nodes": [[["mixed9", 0, 0, {}]]], "config": {"name": "conv2d_87", "activation": "relu", "bias_initializer": {"config": {}, "class_name": "Zeros"}, "strides": [1, 1], "kernel_initializer": {"config": {"scale": 1.0, "distribution": "uniform", "seed": null, "mode": "fan_avg"}, "class_name": "VarianceScaling"}, "kernel_regularizer": null, "bias_constraint": null, "dilation_rate": [1, 1], "kernel_constraint": null, "kernel_size": [1, 1], "bias_regularizer": null, "padding": "same", "trainable": true, "activity_regularizer": null, "filters": 192, "use_bias": true, "data_format": "channels_last"}}, {"name": "conv2d_91", "class_name": "Conv2D", "inbound_nodes": [[["batch_normalization_90", 0, 0, {}]]], "config": {"name": "conv2d_91", "activation": "relu", "bias_initializer": {"config": {}, "class_name": "Zeros"}, "strides": [1, 1], "kernel_initializer": {"config": {"scale": 1.0, "distribution": "uniform", "seed": null, "mode": "fan_avg"}, "class_name": "VarianceScaling"}, "kernel_regularizer": null, "bias_constraint": null, "dilation_rate": [1, 1], "kernel_constraint": null, "kernel_size": [3, 3], "bias_regularizer": null, "padding": "same", "trainable": true, "activity_regularizer": null, "filters": 192, "use_bias": true, "data_format": "channels_last"}}, {"name": "batch_normalization_87", "class_name": "BatchNormalization", "inbound_nodes": [[["conv2d_87", 0, 0, {}]]], "config": {"name": "batch_normalization_87", "beta_regularizer": null, "moving_mean_initializer": {"config": {}, "class_name": "Zeros"}, "scale": true, "beta_initializer": {"config": {}, "class_name": "Zeros"}, "center": true, "gamma_regularizer": null, "gamma_constraint": null, "momentum": 0.99, "gamma_initializer": {"config": {}, "class_name": "Ones"}, "epsilon": 0.001, "axis": 3, "moving_variance_initializer": {"config": {}, "class_name": "Ones"}, "beta_constraint": null, "trainable": true}}, {"name": "batch_normalization_91", "class_name": "BatchNormalization", "inbound_nodes": [[["conv2d_91", 0, 0, {}]]], "config": {"name": "batch_normalization_91", "beta_regularizer": null, "moving_mean_initializer": {"config": {}, "class_name": "Zeros"}, "scale": true, "beta_initializer": {"config": {}, "class_name": "Zeros"}, "center": true, "gamma_regularizer": null, "gamma_constraint": null, "momentum": 0.99, "gamma_initializer": {"config": {}, "class_name": "Ones"}, "epsilon": 0.001, "axis": 3, "moving_variance_initializer": {"config": {}, "class_name": "Ones"}, "beta_constraint": null, "trainable": true}}, {"name": "conv2d_88", "class_name": "Conv2D", "inbound_nodes": [[["batch_normalization_87", 0, 0, {}]]], "config": {"name": "conv2d_88", "activation": "relu", "bias_initializer": {"config": {}, "class_name": "Zeros"}, "strides": [1, 1], "kernel_initializer": {"config": {"scale": 1.0, "distribution": "uniform", "seed": null, "mode": "fan_avg"}, "class_name": "VarianceScaling"}, "kernel_regularizer": null, "bias_constraint": null, "dilation_rate": [1, 1], "kernel_constraint": null, "kernel_size": [1, 3], "bias_regularizer": null, "padding": "same", "trainable": true, "activity_regularizer": null, "filters": 192, "use_bias": true, "data_format": "channels_last"}}, {"name": "conv2d_89", "class_name": "Conv2D", "inbound_nodes": [[["batch_normalization_87", 0, 0, {}]]], "config": {"name": "conv2d_89", "activation": "relu", "bias_initializer": {"config": {}, "class_name": "Zeros"}, "strides": [1, 1], "kernel_initializer": {"config": {"scale": 1.0, "distribution": "uniform", "seed": null, "mode": "fan_avg"}, "class_name": "VarianceScaling"}, "kernel_regularizer": null, "bias_constraint": null, "dilation_rate": [1, 1], "kernel_constraint": null, "kernel_size": [3, 1], "bias_regularizer": null, "padding": "same", "trainable": true, "activity_regularizer": null, "filters": 192, "use_bias": true, "data_format": "channels_last"}}, {"name": "conv2d_92", "class_name": "Conv2D", "inbound_nodes": [[["batch_normalization_91", 0, 0, {}]]], "config": {"name": "conv2d_92", "activation": "relu", "bias_initializer": {"config": {}, "class_name": "Zeros"}, "strides": [1, 1], "kernel_initializer": {"config": {"scale": 1.0, "distribution": "uniform", "seed": null, "mode": "fan_avg"}, "class_name": "VarianceScaling"}, "kernel_regularizer": null, "bias_constraint": null, "dilation_rate": [1, 1], "kernel_constraint": null, "kernel_size": [1, 3], "bias_regularizer": null, "padding": "same", "trainable": true, "activity_regularizer": null, "filters": 192, "use_bias": true, "data_format": "channels_last"}}, {"name": "conv2d_93", "class_name": "Conv2D", "inbound_nodes": [[["batch_normalization_91", 0, 0, {}]]], "config": {"name": "conv2d_93", "activation": "relu", "bias_initializer": {"config": {}, "class_name": "Zeros"}, "strides": [1, 1], "kernel_initializer": {"config": {"scale": 1.0, "distribution": "uniform", "seed": null, "mode": "fan_avg"}, "class_name": "VarianceScaling"}, "kernel_regularizer": null, "bias_constraint": null, "dilation_rate": [1, 1], "kernel_constraint": null, "kernel_size": [3, 1], "bias_regularizer": null, "padding": "same", "trainable": true, "activity_regularizer": null, "filters": 192, "use_bias": true, "data_format": "channels_last"}}, {"name": "average_pooling2d_10", "class_name": "AveragePooling2D", "inbound_nodes": [[["mixed9", 0, 0, {}]]], "config": {"name": "average_pooling2d_10", "pool_size": [3, 3], "data_format": "channels_last", "padding": "same", "trainable": true, "strides": [1, 1]}}, {"name": "conv2d_86", "class_name": "Conv2D", "inbound_nodes": [[["mixed9", 0, 0, {}]]], "config": {"name": "conv2d_86", "activation": "relu", "bias_initializer": {"config": {}, "class_name": "Zeros"}, "strides": [1, 1], "kernel_initializer": {"config": {"scale": 1.0, "distribution": "uniform", "seed": null, "mode": "fan_avg"}, "class_name": "VarianceScaling"}, "kernel_regularizer": null, "bias_constraint": null, "dilation_rate": [1, 1], "kernel_constraint": null, "kernel_size": [1, 1], "bias_regularizer": null, "padding": "same", "trainable": true, "activity_regularizer": null, "filters": 160, "use_bias": true, "data_format": "channels_last"}}, {"name": "batch_normalization_88", "class_name": "BatchNormalization", "inbound_nodes": [[["conv2d_88", 0, 0, {}]]], "config": {"name": "batch_normalization_88", "beta_regularizer": null, "moving_mean_initializer": {"config": {}, "class_name": "Zeros"}, "scale": true, "beta_initializer": {"config": {}, "class_name": "Zeros"}, "center": true, "gamma_regularizer": null, "gamma_constraint": null, "momentum": 0.99, "gamma_initializer": {"config": {}, "class_name": "Ones"}, "epsilon": 0.001, "axis": 3, "moving_variance_initializer": {"config": {}, "class_name": "Ones"}, "beta_constraint": null, "trainable": true}}, {"name": "batch_normalization_89", "class_name": "BatchNormalization", "inbound_nodes": [[["conv2d_89", 0, 0, {}]]], "config": {"name": "batch_normalization_89", "beta_regularizer": null, "moving_mean_initializer": {"config": {}, "class_name": "Zeros"}, "scale": true, "beta_initializer": {"config": {}, "class_name": "Zeros"}, "center": true, "gamma_regularizer": null, "gamma_constraint": null, "momentum": 0.99, "gamma_initializer": {"config": {}, "class_name": "Ones"}, "epsilon": 0.001, "axis": 3, "moving_variance_initializer": {"config": {}, "class_name": "Ones"}, "beta_constraint": null, "trainable": true}}, {"name": "batch_normalization_92", "class_name": "BatchNormalization", "inbound_nodes": [[["conv2d_92", 0, 0, {}]]], "config": {"name": "batch_normalization_92", "beta_regularizer": null, "moving_mean_initializer": {"config": {}, "class_name": "Zeros"}, "scale": true, "beta_initializer": {"config": {}, "class_name": "Zeros"}, "center": true, "gamma_regularizer": null, "gamma_constraint": null, "momentum": 0.99, "gamma_initializer": {"config": {}, "class_name": "Ones"}, "epsilon": 0.001, "axis": 3, "moving_variance_initializer": {"config": {}, "class_name": "Ones"}, "beta_constraint": null, "trainable": true}}, {"name": "batch_normalization_93", "class_name": "BatchNormalization", "inbound_nodes": [[["conv2d_93", 0, 0, {}]]], "config": {"name": "batch_normalization_93", "beta_regularizer": null, "moving_mean_initializer": {"config": {}, "class_name": "Zeros"}, "scale": true, "beta_initializer": {"config": {}, "class_name": "Zeros"}, "center": true, "gamma_regularizer": null, "gamma_constraint": null, "momentum": 0.99, "gamma_initializer": {"config": {}, "class_name": "Ones"}, "epsilon": 0.001, "axis": 3, "moving_variance_initializer": {"config": {}, "class_name": "Ones"}, "beta_constraint": null, "trainable": true}}, {"name": "conv2d_94", "class_name": "Conv2D", "inbound_nodes": [[["average_pooling2d_10", 0, 0, {}]]], "config": {"name": "conv2d_94", "activation": "relu", "bias_initializer": {"config": {}, "class_name": "Zeros"}, "strides": [1, 1], "kernel_initializer": {"config": {"scale": 1.0, "distribution": "uniform", "seed": null, "mode": "fan_avg"}, "class_name": "VarianceScaling"}, "kernel_regularizer": null, "bias_constraint": null, "dilation_rate": [1, 1], "kernel_constraint": null, "kernel_size": [1, 1], "bias_regularizer": null, "padding": "same", "trainable": true, "activity_regularizer": null, "filters": 96, "use_bias": true, "data_format": "channels_last"}}, {"name": "batch_normalization_86", "class_name": "BatchNormalization", "inbound_nodes": [[["conv2d_86", 0, 0, {}]]], "config": {"name": "batch_normalization_86", "beta_regularizer": null, "moving_mean_initializer": {"config": {}, "class_name": "Zeros"}, "scale": true, "beta_initializer": {"config": {}, "class_name": "Zeros"}, "center": true, "gamma_regularizer": null, "gamma_constraint": null, "momentum": 0.99, "gamma_initializer": {"config": {}, "class_name": "Ones"}, "epsilon": 0.001, "axis": 3, "moving_variance_initializer": {"config": {}, "class_name": "Ones"}, "beta_constraint": null, "trainable": true}}, {"name": "mixed9_1", "class_name": "Concatenate", "inbound_nodes": [[["batch_normalization_88", 0, 0, {}], ["batch_normalization_89", 0, 0, {}]]], "config": {"name": "mixed9_1", "axis": -1, "trainable": true}}, {"name": "concatenate_2", "class_name": "Concatenate", "inbound_nodes": [[["batch_normalization_92", 0, 0, {}], ["batch_normalization_93", 0, 0, {}]]], "config": {"name": "concatenate_2", "axis": -1, "trainable": true}}, {"name": "batch_normalization_94", "class_name": "BatchNormalization", "inbound_nodes": [[["conv2d_94", 0, 0, {}]]], "config": {"name": "batch_normalization_94", "beta_regularizer": null, "moving_mean_initializer": {"config": {}, "class_name": "Zeros"}, "scale": true, "beta_initializer": {"config": {}, "class_name": "Zeros"}, "center": true, "gamma_regularizer": null, "gamma_constraint": null, "momentum": 0.99, "gamma_initializer": {"config": {}, "class_name": "Ones"}, "epsilon": 0.001, "axis": 3, "moving_variance_initializer": {"config": {}, "class_name": "Ones"}, "beta_constraint": null, "trainable": true}}, {"name": "mixed10", "class_name": "Concatenate", "inbound_nodes": [[["batch_normalization_86", 0, 0, {}], ["mixed9_1", 0, 0, {}], ["concatenate_2", 0, 0, {}], ["batch_normalization_94", 0, 0, {}]]], "config": {"name": "mixed10", "axis": -1, "trainable": true}}, {"name": "end_max_pool", "class_name": "MaxPooling2D", "inbound_nodes": [[["mixed10", 0, 0, {}]]], "config": {"name": "end_max_pool", "pool_size": [2, 2], "data_format": "channels_last", "padding": "valid", "trainable": true, "strides": [2, 2]}}, {"name": "flatten", "class_name": "Flatten", "inbound_nodes": [[["end_max_pool", 0, 0, {}]]], "config": {"name": "flatten", "trainable": true}}, {"name": "output_layer", "class_name": "Dense", "inbound_nodes": [[["flatten", 0, 0, {}]]], "config": {"name": "output_layer", "activation": "sigmoid", "bias_initializer": {"config": {}, "class_name": "Zeros"}, "bias_regularizer": null, "kernel_constraint": null, "bias_constraint": null, "kernel_initializer": {"config": {"scale": 1.0, "distribution": "uniform", "seed": null, "mode": "fan_avg"}, "class_name": "VarianceScaling"}, "units": 1, "use_bias": true, "kernel_regularizer": null, "activity_regularizer": null, "trainable": true}}]}, "class_name": "Model", "backend": "tensorflow", "keras_version": "2.0.6"}