{"keras_version": "2.0.6", "backend": "tensorflow", "config": {"output_layers": [["output_layer", 0, 0]], "name": "model_1", "layers": [{"name": "input_1", "config": {"batch_input_shape": [null, 1152, 832, 1], "dtype": "float32", "sparse": false, "name": "input_1"}, "inbound_nodes": [], "class_name": "InputLayer"}, {"name": "conv2d_1", "config": {"strides": [2, 2], "bias_constraint": null, "data_format": "channels_last", "use_bias": true, "kernel_size": [3, 3], "bias_initializer": {"config": {}, "class_name": "Zeros"}, "kernel_regularizer": null, "name": "conv2d_1", "filters": 16, "activation": "relu", "trainable": true, "bias_regularizer": null, "padding": "valid", "kernel_constraint": null, "activity_regularizer": null, "kernel_initializer": {"config": {"mode": "fan_avg", "scale": 1.0, "distribution": "uniform", "seed": null}, "class_name": "VarianceScaling"}, "dilation_rate": [1, 1]}, "inbound_nodes": [[["input_1", 0, 0, {}]]], "class_name": "Conv2D"}, {"name": "batch_normalization_1", "config": {"beta_initializer": {"config": {}, "class_name": "Zeros"}, "moving_variance_initializer": {"config": {}, "class_name": "Ones"}, "gamma_initializer": {"config": {}, "class_name": "Ones"}, "axis": 3, "moving_mean_initializer": {"config": {}, "class_name": "Zeros"}, "beta_constraint": null, "center": true, "trainable": true, "momentum": 0.99, "beta_regularizer": null, "gamma_constraint": null, "scale": true, "name": "batch_normalization_1", "epsilon": 0.001, "gamma_regularizer": null}, "inbound_nodes": [[["conv2d_1", 0, 0, {}]]], "class_name": "BatchNormalization"}, {"name": "conv2d_2", "config": {"strides": [1, 1], "bias_constraint": null, "data_format": "channels_last", "use_bias": true, "kernel_size": [3, 3], "bias_initializer": {"config": {}, "class_name": "Zeros"}, "kernel_regularizer": null, "name": "conv2d_2", "filters": 16, "activation": "relu", "trainable": true, "bias_regularizer": null, "padding": "valid", "kernel_constraint": null, "activity_regularizer": null, "kernel_initializer": {"config": {"mode": "fan_avg", "scale": 1.0, "distribution": "uniform", "seed": null}, "class_name": "VarianceScaling"}, "dilation_rate": [1, 1]}, "inbound_nodes": [[["batch_normalization_1", 0, 0, {}]]], "class_name": "Conv2D"}, {"name": "batch_normalization_2", "config": {"beta_initializer": {"config": {}, "class_name": "Zeros"}, "moving_variance_initializer": {"config": {}, "class_name": "Ones"}, "gamma_initializer": {"config": {}, "class_name": "Ones"}, "axis": 3, "moving_mean_initializer": {"config": {}, "class_name": "Zeros"}, "beta_constraint": null, "center": true, "trainable": true, "momentum": 0.99, "beta_regularizer": null, "gamma_constraint": null, "scale": true, "name": "batch_normalization_2", "epsilon": 0.001, "gamma_regularizer": null}, "inbound_nodes": [[["conv2d_2", 0, 0, {}]]], "class_name": "BatchNormalization"}, {"name": "conv2d_3", "config": {"strides": [1, 1], "bias_constraint": null, "data_format": "channels_last", "use_bias": true, "kernel_size": [3, 3], "bias_initializer": {"config": {}, "class_name": "Zeros"}, "kernel_regularizer": null, "name": "conv2d_3", "filters": 32, "activation": "relu", "trainable": true, "bias_regularizer": null, "padding": "same", "kernel_constraint": null, "activity_regularizer": null, "kernel_initializer": {"config": {"mode": "fan_avg", "scale": 1.0, "distribution": "uniform", "seed": null}, "class_name": "VarianceScaling"}, "dilation_rate": [1, 1]}, "inbound_nodes": [[["batch_normalization_2", 0, 0, {}]]], "class_name": "Conv2D"}, {"name": "batch_normalization_3", "config": {"beta_initializer": {"config": {}, "class_name": "Zeros"}, "moving_variance_initializer": {"config": {}, "class_name": "Ones"}, "gamma_initializer": {"config": {}, "class_name": "Ones"}, "axis": 3, "moving_mean_initializer": {"config": {}, "class_name": "Zeros"}, "beta_constraint": null, "center": true, "trainable": true, "momentum": 0.99, "beta_regularizer": null, "gamma_constraint": null, "scale": true, "name": "batch_normalization_3", "epsilon": 0.001, "gamma_regularizer": null}, "inbound_nodes": [[["conv2d_3", 0, 0, {}]]], "class_name": "BatchNormalization"}, {"name": "max_pooling2d_1", "config": {"strides": [2, 2], "trainable": true, "data_format": "channels_last", "padding": "valid", "name": "max_pooling2d_1", "pool_size": [3, 3]}, "inbound_nodes": [[["batch_normalization_3", 0, 0, {}]]], "class_name": "MaxPooling2D"}, {"name": "conv2d_4", "config": {"strides": [1, 1], "bias_constraint": null, "data_format": "channels_last", "use_bias": true, "kernel_size": [1, 1], "bias_initializer": {"config": {}, "class_name": "Zeros"}, "kernel_regularizer": null, "name": "conv2d_4", "filters": 40, "activation": "relu", "trainable": true, "bias_regularizer": null, "padding": "valid", "kernel_constraint": null, "activity_regularizer": null, "kernel_initializer": {"config": {"mode": "fan_avg", "scale": 1.0, "distribution": "uniform", "seed": null}, "class_name": "VarianceScaling"}, "dilation_rate": [1, 1]}, "inbound_nodes": [[["max_pooling2d_1", 0, 0, {}]]], "class_name": "Conv2D"}, {"name": "batch_normalization_4", "config": {"beta_initializer": {"config": {}, "class_name": "Zeros"}, "moving_variance_initializer": {"config": {}, "class_name": "Ones"}, "gamma_initializer": {"config": {}, "class_name": "Ones"}, "axis": 3, "moving_mean_initializer": {"config": {}, "class_name": "Zeros"}, "beta_constraint": null, "center": true, "trainable": true, "momentum": 0.99, "beta_regularizer": null, "gamma_constraint": null, "scale": true, "name": "batch_normalization_4", "epsilon": 0.001, "gamma_regularizer": null}, "inbound_nodes": [[["conv2d_4", 0, 0, {}]]], "class_name": "BatchNormalization"}, {"name": "conv2d_5", "config": {"strides": [1, 1], "bias_constraint": null, "data_format": "channels_last", "use_bias": true, "kernel_size": [3, 3], "bias_initializer": {"config": {}, "class_name": "Zeros"}, "kernel_regularizer": null, "name": "conv2d_5", "filters": 96, "activation": "relu", "trainable": true, "bias_regularizer": null, "padding": "valid", "kernel_constraint": null, "activity_regularizer": null, "kernel_initializer": {"config": {"mode": "fan_avg", "scale": 1.0, "distribution": "uniform", "seed": null}, "class_name": "VarianceScaling"}, "dilation_rate": [1, 1]}, "inbound_nodes": [[["batch_normalization_4", 0, 0, {}]]], "class_name": "Conv2D"}, {"name": "batch_normalization_5", "config": {"beta_initializer": {"config": {}, "class_name": "Zeros"}, "moving_variance_initializer": {"config": {}, "class_name": "Ones"}, "gamma_initializer": {"config": {}, "class_name": "Ones"}, "axis": 3, "moving_mean_initializer": {"config": {}, "class_name": "Zeros"}, "beta_constraint": null, "center": true, "trainable": true, "momentum": 0.99, "beta_regularizer": null, "gamma_constraint": null, "scale": true, "name": "batch_normalization_5", "epsilon": 0.001, "gamma_regularizer": null}, "inbound_nodes": [[["conv2d_5", 0, 0, {}]]], "class_name": "BatchNormalization"}, {"name": "max_pooling2d_2", "config": {"strides": [2, 2], "trainable": true, "data_format": "channels_last", "padding": "valid", "name": "max_pooling2d_2", "pool_size": [3, 3]}, "inbound_nodes": [[["batch_normalization_5", 0, 0, {}]]], "class_name": "MaxPooling2D"}, {"name": "conv2d_9", "config": {"strides": [1, 1], "bias_constraint": null, "data_format": "channels_last", "use_bias": true, "kernel_size": [1, 1], "bias_initializer": {"config": {}, "class_name": "Zeros"}, "kernel_regularizer": null, "name": "conv2d_9", "filters": 32, "activation": "relu", "trainable": true, "bias_regularizer": null, "padding": "same", "kernel_constraint": null, "activity_regularizer": null, "kernel_initializer": {"config": {"mode": "fan_avg", "scale": 1.0, "distribution": "uniform", "seed": null}, "class_name": "VarianceScaling"}, "dilation_rate": [1, 1]}, "inbound_nodes": [[["max_pooling2d_2", 0, 0, {}]]], "class_name": "Conv2D"}, {"name": "batch_normalization_9", "config": {"beta_initializer": {"config": {}, "class_name": "Zeros"}, "moving_variance_initializer": {"config": {}, "class_name": "Ones"}, "gamma_initializer": {"config": {}, "class_name": "Ones"}, "axis": 3, "moving_mean_initializer": {"config": {}, "class_name": "Zeros"}, "beta_constraint": null, "center": true, "trainable": true, "momentum": 0.99, "beta_regularizer": null, "gamma_constraint": null, "scale": true, "name": "batch_normalization_9", "epsilon": 0.001, "gamma_regularizer": null}, "inbound_nodes": [[["conv2d_9", 0, 0, {}]]], "class_name": "BatchNormalization"}, {"name": "conv2d_7", "config": {"strides": [1, 1], "bias_constraint": null, "data_format": "channels_last", "use_bias": true, "kernel_size": [1, 1], "bias_initializer": {"config": {}, "class_name": "Zeros"}, "kernel_regularizer": null, "name": "conv2d_7", "filters": 24, "activation": "relu", "trainable": true, "bias_regularizer": null, "padding": "same", "kernel_constraint": null, "activity_regularizer": null, "kernel_initializer": {"config": {"mode": "fan_avg", "scale": 1.0, "distribution": "uniform", "seed": null}, "class_name": "VarianceScaling"}, "dilation_rate": [1, 1]}, "inbound_nodes": [[["max_pooling2d_2", 0, 0, {}]]], "class_name": "Conv2D"}, {"name": "conv2d_10", "config": {"strides": [1, 1], "bias_constraint": null, "data_format": "channels_last", "use_bias": true, "kernel_size": [3, 3], "bias_initializer": {"config": {}, "class_name": "Zeros"}, "kernel_regularizer": null, "name": "conv2d_10", "filters": 48, "activation": "relu", "trainable": true, "bias_regularizer": null, "padding": "same", "kernel_constraint": null, "activity_regularizer": null, "kernel_initializer": {"config": {"mode": "fan_avg", "scale": 1.0, "distribution": "uniform", "seed": null}, "class_name": "VarianceScaling"}, "dilation_rate": [1, 1]}, "inbound_nodes": [[["batch_normalization_9", 0, 0, {}]]], "class_name": "Conv2D"}, {"name": "batch_normalization_7", "config": {"beta_initializer": {"config": {}, "class_name": "Zeros"}, "moving_variance_initializer": {"config": {}, "class_name": "Ones"}, "gamma_initializer": {"config": {}, "class_name": "Ones"}, "axis": 3, "moving_mean_initializer": {"config": {}, "class_name": "Zeros"}, "beta_constraint": null, "center": true, "trainable": true, "momentum": 0.99, "beta_regularizer": null, "gamma_constraint": null, "scale": true, "name": "batch_normalization_7", "epsilon": 0.001, "gamma_regularizer": null}, "inbound_nodes": [[["conv2d_7", 0, 0, {}]]], "class_name": "BatchNormalization"}, {"name": "batch_normalization_10", "config": {"beta_initializer": {"config": {}, "class_name": "Zeros"}, "moving_variance_initializer": {"config": {}, "class_name": "Ones"}, "gamma_initializer": {"config": {}, "class_name": "Ones"}, "axis": 3, "moving_mean_initializer": {"config": {}, "class_name": "Zeros"}, "beta_constraint": null, "center": true, "trainable": true, "momentum": 0.99, "beta_regularizer": null, "gamma_constraint": null, "scale": true, "name": "batch_normalization_10", "epsilon": 0.001, "gamma_regularizer": null}, "inbound_nodes": [[["conv2d_10", 0, 0, {}]]], "class_name": "BatchNormalization"}, {"name": "average_pooling2d_1", "config": {"strides": [1, 1], "trainable": true, "data_format": "channels_last", "padding": "same", "name": "average_pooling2d_1", "pool_size": [3, 3]}, "inbound_nodes": [[["max_pooling2d_2", 0, 0, {}]]], "class_name": "AveragePooling2D"}, {"name": "conv2d_6", "config": {"strides": [1, 1], "bias_constraint": null, "data_format": "channels_last", "use_bias": true, "kernel_size": [1, 1], "bias_initializer": {"config": {}, "class_name": "Zeros"}, "kernel_regularizer": null, "name": "conv2d_6", "filters": 32, "activation": "relu", "trainable": true, "bias_regularizer": null, "padding": "same", "kernel_constraint": null, "activity_regularizer": null, "kernel_initializer": {"config": {"mode": "fan_avg", "scale": 1.0, "distribution": "uniform", "seed": null}, "class_name": "VarianceScaling"}, "dilation_rate": [1, 1]}, "inbound_nodes": [[["max_pooling2d_2", 0, 0, {}]]], "class_name": "Conv2D"}, {"name": "conv2d_8", "config": {"strides": [1, 1], "bias_constraint": null, "data_format": "channels_last", "use_bias": true, "kernel_size": [5, 5], "bias_initializer": {"config": {}, "class_name": "Zeros"}, "kernel_regularizer": null, "name": "conv2d_8", "filters": 32, "activation": "relu", "trainable": true, "bias_regularizer": null, "padding": "same", "kernel_constraint": null, "activity_regularizer": null, "kernel_initializer": {"config": {"mode": "fan_avg", "scale": 1.0, "distribution": "uniform", "seed": null}, "class_name": "VarianceScaling"}, "dilation_rate": [1, 1]}, "inbound_nodes": [[["batch_normalization_7", 0, 0, {}]]], "class_name": "Conv2D"}, {"name": "conv2d_11", "config": {"strides": [1, 1], "bias_constraint": null, "data_format": "channels_last", "use_bias": true, "kernel_size": [3, 3], "bias_initializer": {"config": {}, "class_name": "Zeros"}, "kernel_regularizer": null, "name": "conv2d_11", "filters": 48, "activation": "relu", "trainable": true, "bias_regularizer": null, "padding": "same", "kernel_constraint": null, "activity_regularizer": null, "kernel_initializer": {"config": {"mode": "fan_avg", "scale": 1.0, "distribution": "uniform", "seed": null}, "class_name": "VarianceScaling"}, "dilation_rate": [1, 1]}, "inbound_nodes": [[["batch_normalization_10", 0, 0, {}]]], "class_name": "Conv2D"}, {"name": "conv2d_12", "config": {"strides": [1, 1], "bias_constraint": null, "data_format": "channels_last", "use_bias": true, "kernel_size": [1, 1], "bias_initializer": {"config": {}, "class_name": "Zeros"}, "kernel_regularizer": null, "name": "conv2d_12", "filters": 16, "activation": "relu", "trainable": true, "bias_regularizer": null, "padding": "same", "kernel_constraint": null, "activity_regularizer": null, "kernel_initializer": {"config": {"mode": "fan_avg", "scale": 1.0, "distribution": "uniform", "seed": null}, "class_name": "VarianceScaling"}, "dilation_rate": [1, 1]}, "inbound_nodes": [[["average_pooling2d_1", 0, 0, {}]]], "class_name": "Conv2D"}, {"name": "batch_normalization_6", "config": {"beta_initializer": {"config": {}, "class_name": "Zeros"}, "moving_variance_initializer": {"config": {}, "class_name": "Ones"}, "gamma_initializer": {"config": {}, "class_name": "Ones"}, "axis": 3, "moving_mean_initializer": {"config": {}, "class_name": "Zeros"}, "beta_constraint": null, "center": true, "trainable": true, "momentum": 0.99, "beta_regularizer": null, "gamma_constraint": null, "scale": true, "name": "batch_normalization_6", "epsilon": 0.001, "gamma_regularizer": null}, "inbound_nodes": [[["conv2d_6", 0, 0, {}]]], "class_name": "BatchNormalization"}, {"name": "batch_normalization_8", "config": {"beta_initializer": {"config": {}, "class_name": "Zeros"}, "moving_variance_initializer": {"config": {}, "class_name": "Ones"}, "gamma_initializer": {"config": {}, "class_name": "Ones"}, "axis": 3, "moving_mean_initializer": {"config": {}, "class_name": "Zeros"}, "beta_constraint": null, "center": true, "trainable": true, "momentum": 0.99, "beta_regularizer": null, "gamma_constraint": null, "scale": true, "name": "batch_normalization_8", "epsilon": 0.001, "gamma_regularizer": null}, "inbound_nodes": [[["conv2d_8", 0, 0, {}]]], "class_name": "BatchNormalization"}, {"name": "batch_normalization_11", "config": {"beta_initializer": {"config": {}, "class_name": "Zeros"}, "moving_variance_initializer": {"config": {}, "class_name": "Ones"}, "gamma_initializer": {"config": {}, "class_name": "Ones"}, "axis": 3, "moving_mean_initializer": {"config": {}, "class_name": "Zeros"}, "beta_constraint": null, "center": true, "trainable": true, "momentum": 0.99, "beta_regularizer": null, "gamma_constraint": null, "scale": true, "name": "batch_normalization_11", "epsilon": 0.001, "gamma_regularizer": null}, "inbound_nodes": [[["conv2d_11", 0, 0, {}]]], "class_name": "BatchNormalization"}, {"name": "batch_normalization_12", "config": {"beta_initializer": {"config": {}, "class_name": "Zeros"}, "moving_variance_initializer": {"config": {}, "class_name": "Ones"}, "gamma_initializer": {"config": {}, "class_name": "Ones"}, "axis": 3, "moving_mean_initializer": {"config": {}, "class_name": "Zeros"}, "beta_constraint": null, "center": true, "trainable": true, "momentum": 0.99, "beta_regularizer": null, "gamma_constraint": null, "scale": true, "name": "batch_normalization_12", "epsilon": 0.001, "gamma_regularizer": null}, "inbound_nodes": [[["conv2d_12", 0, 0, {}]]], "class_name": "BatchNormalization"}, {"name": "mixed0", "config": {"name": "mixed0", "axis": -1, "trainable": true}, "inbound_nodes": [[["batch_normalization_6", 0, 0, {}], ["batch_normalization_8", 0, 0, {}], ["batch_normalization_11", 0, 0, {}], ["batch_normalization_12", 0, 0, {}]]], "class_name": "Concatenate"}, {"name": "conv2d_16", "config": {"strides": [1, 1], "bias_constraint": null, "data_format": "channels_last", "use_bias": true, "kernel_size": [1, 1], "bias_initializer": {"config": {}, "class_name": "Zeros"}, "kernel_regularizer": null, "name": "conv2d_16", "filters": 32, "activation": "relu", "trainable": true, "bias_regularizer": null, "padding": "same", "kernel_constraint": null, "activity_regularizer": null, "kernel_initializer": {"config": {"mode": "fan_avg", "scale": 1.0, "distribution": "uniform", "seed": null}, "class_name": "VarianceScaling"}, "dilation_rate": [1, 1]}, "inbound_nodes": [[["mixed0", 0, 0, {}]]], "class_name": "Conv2D"}, {"name": "batch_normalization_16", "config": {"beta_initializer": {"config": {}, "class_name": "Zeros"}, "moving_variance_initializer": {"config": {}, "class_name": "Ones"}, "gamma_initializer": {"config": {}, "class_name": "Ones"}, "axis": 3, "moving_mean_initializer": {"config": {}, "class_name": "Zeros"}, "beta_constraint": null, "center": true, "trainable": true, "momentum": 0.99, "beta_regularizer": null, "gamma_constraint": null, "scale": true, "name": "batch_normalization_16", "epsilon": 0.001, "gamma_regularizer": null}, "inbound_nodes": [[["conv2d_16", 0, 0, {}]]], "class_name": "BatchNormalization"}, {"name": "conv2d_14", "config": {"strides": [1, 1], "bias_constraint": null, "data_format": "channels_last", "use_bias": true, "kernel_size": [1, 1], "bias_initializer": {"config": {}, "class_name": "Zeros"}, "kernel_regularizer": null, "name": "conv2d_14", "filters": 24, "activation": "relu", "trainable": true, "bias_regularizer": null, "padding": "same", "kernel_constraint": null, "activity_regularizer": null, "kernel_initializer": {"config": {"mode": "fan_avg", "scale": 1.0, "distribution": "uniform", "seed": null}, "class_name": "VarianceScaling"}, "dilation_rate": [1, 1]}, "inbound_nodes": [[["mixed0", 0, 0, {}]]], "class_name": "Conv2D"}, {"name": "conv2d_17", "config": {"strides": [1, 1], "bias_constraint": null, "data_format": "channels_last", "use_bias": true, "kernel_size": [3, 3], "bias_initializer": {"config": {}, "class_name": "Zeros"}, "kernel_regularizer": null, "name": "conv2d_17", "filters": 48, "activation": "relu", "trainable": true, "bias_regularizer": null, "padding": "same", "kernel_constraint": null, "activity_regularizer": null, "kernel_initializer": {"config": {"mode": "fan_avg", "scale": 1.0, "distribution": "uniform", "seed": null}, "class_name": "VarianceScaling"}, "dilation_rate": [1, 1]}, "inbound_nodes": [[["batch_normalization_16", 0, 0, {}]]], "class_name": "Conv2D"}, {"name": "batch_normalization_14", "config": {"beta_initializer": {"config": {}, "class_name": "Zeros"}, "moving_variance_initializer": {"config": {}, "class_name": "Ones"}, "gamma_initializer": {"config": {}, "class_name": "Ones"}, "axis": 3, "moving_mean_initializer": {"config": {}, "class_name": "Zeros"}, "beta_constraint": null, "center": true, "trainable": true, "momentum": 0.99, "beta_regularizer": null, "gamma_constraint": null, "scale": true, "name": "batch_normalization_14", "epsilon": 0.001, "gamma_regularizer": null}, "inbound_nodes": [[["conv2d_14", 0, 0, {}]]], "class_name": "BatchNormalization"}, {"name": "batch_normalization_17", "config": {"beta_initializer": {"config": {}, "class_name": "Zeros"}, "moving_variance_initializer": {"config": {}, "class_name": "Ones"}, "gamma_initializer": {"config": {}, "class_name": "Ones"}, "axis": 3, "moving_mean_initializer": {"config": {}, "class_name": "Zeros"}, "beta_constraint": null, "center": true, "trainable": true, "momentum": 0.99, "beta_regularizer": null, "gamma_constraint": null, "scale": true, "name": "batch_normalization_17", "epsilon": 0.001, "gamma_regularizer": null}, "inbound_nodes": [[["conv2d_17", 0, 0, {}]]], "class_name": "BatchNormalization"}, {"name": "average_pooling2d_2", "config": {"strides": [1, 1], "trainable": true, "data_format": "channels_last", "padding": "same", "name": "average_pooling2d_2", "pool_size": [3, 3]}, "inbound_nodes": [[["mixed0", 0, 0, {}]]], "class_name": "AveragePooling2D"}, {"name": "conv2d_13", "config": {"strides": [1, 1], "bias_constraint": null, "data_format": "channels_last", "use_bias": true, "kernel_size": [1, 1], "bias_initializer": {"config": {}, "class_name": "Zeros"}, "kernel_regularizer": null, "name": "conv2d_13", "filters": 32, "activation": "relu", "trainable": true, "bias_regularizer": null, "padding": "same", "kernel_constraint": null, "activity_regularizer": null, "kernel_initializer": {"config": {"mode": "fan_avg", "scale": 1.0, "distribution": "uniform", "seed": null}, "class_name": "VarianceScaling"}, "dilation_rate": [1, 1]}, "inbound_nodes": [[["mixed0", 0, 0, {}]]], "class_name": "Conv2D"}, {"name": "conv2d_15", "config": {"strides": [1, 1], "bias_constraint": null, "data_format": "channels_last", "use_bias": true, "kernel_size": [5, 5], "bias_initializer": {"config": {}, "class_name": "Zeros"}, "kernel_regularizer": null, "name": "conv2d_15", "filters": 32, "activation": "relu", "trainable": true, "bias_regularizer": null, "padding": "same", "kernel_constraint": null, "activity_regularizer": null, "kernel_initializer": {"config": {"mode": "fan_avg", "scale": 1.0, "distribution": "uniform", "seed": null}, "class_name": "VarianceScaling"}, "dilation_rate": [1, 1]}, "inbound_nodes": [[["batch_normalization_14", 0, 0, {}]]], "class_name": "Conv2D"}, {"name": "conv2d_18", "config": {"strides": [1, 1], "bias_constraint": null, "data_format": "channels_last", "use_bias": true, "kernel_size": [3, 3], "bias_initializer": {"config": {}, "class_name": "Zeros"}, "kernel_regularizer": null, "name": "conv2d_18", "filters": 48, "activation": "relu", "trainable": true, "bias_regularizer": null, "padding": "same", "kernel_constraint": null, "activity_regularizer": null, "kernel_initializer": {"config": {"mode": "fan_avg", "scale": 1.0, "distribution": "uniform", "seed": null}, "class_name": "VarianceScaling"}, "dilation_rate": [1, 1]}, "inbound_nodes": [[["batch_normalization_17", 0, 0, {}]]], "class_name": "Conv2D"}, {"name": "conv2d_19", "config": {"strides": [1, 1], "bias_constraint": null, "data_format": "channels_last", "use_bias": true, "kernel_size": [1, 1], "bias_initializer": {"config": {}, "class_name": "Zeros"}, "kernel_regularizer": null, "name": "conv2d_19", "filters": 16, "activation": "relu", "trainable": true, "bias_regularizer": null, "padding": "same", "kernel_constraint": null, "activity_regularizer": null, "kernel_initializer": {"config": {"mode": "fan_avg", "scale": 1.0, "distribution": "uniform", "seed": null}, "class_name": "VarianceScaling"}, "dilation_rate": [1, 1]}, "inbound_nodes": [[["average_pooling2d_2", 0, 0, {}]]], "class_name": "Conv2D"}, {"name": "batch_normalization_13", "config": {"beta_initializer": {"config": {}, "class_name": "Zeros"}, "moving_variance_initializer": {"config": {}, "class_name": "Ones"}, "gamma_initializer": {"config": {}, "class_name": "Ones"}, "axis": 3, "moving_mean_initializer": {"config": {}, "class_name": "Zeros"}, "beta_constraint": null, "center": true, "trainable": true, "momentum": 0.99, "beta_regularizer": null, "gamma_constraint": null, "scale": true, "name": "batch_normalization_13", "epsilon": 0.001, "gamma_regularizer": null}, "inbound_nodes": [[["conv2d_13", 0, 0, {}]]], "class_name": "BatchNormalization"}, {"name": "batch_normalization_15", "config": {"beta_initializer": {"config": {}, "class_name": "Zeros"}, "moving_variance_initializer": {"config": {}, "class_name": "Ones"}, "gamma_initializer": {"config": {}, "class_name": "Ones"}, "axis": 3, "moving_mean_initializer": {"config": {}, "class_name": "Zeros"}, "beta_constraint": null, "center": true, "trainable": true, "momentum": 0.99, "beta_regularizer": null, "gamma_constraint": null, "scale": true, "name": "batch_normalization_15", "epsilon": 0.001, "gamma_regularizer": null}, "inbound_nodes": [[["conv2d_15", 0, 0, {}]]], "class_name": "BatchNormalization"}, {"name": "batch_normalization_18", "config": {"beta_initializer": {"config": {}, "class_name": "Zeros"}, "moving_variance_initializer": {"config": {}, "class_name": "Ones"}, "gamma_initializer": {"config": {}, "class_name": "Ones"}, "axis": 3, "moving_mean_initializer": {"config": {}, "class_name": "Zeros"}, "beta_constraint": null, "center": true, "trainable": true, "momentum": 0.99, "beta_regularizer": null, "gamma_constraint": null, "scale": true, "name": "batch_normalization_18", "epsilon": 0.001, "gamma_regularizer": null}, "inbound_nodes": [[["conv2d_18", 0, 0, {}]]], "class_name": "BatchNormalization"}, {"name": "batch_normalization_19", "config": {"beta_initializer": {"config": {}, "class_name": "Zeros"}, "moving_variance_initializer": {"config": {}, "class_name": "Ones"}, "gamma_initializer": {"config": {}, "class_name": "Ones"}, "axis": 3, "moving_mean_initializer": {"config": {}, "class_name": "Zeros"}, "beta_constraint": null, "center": true, "trainable": true, "momentum": 0.99, "beta_regularizer": null, "gamma_constraint": null, "scale": true, "name": "batch_normalization_19", "epsilon": 0.001, "gamma_regularizer": null}, "inbound_nodes": [[["conv2d_19", 0, 0, {}]]], "class_name": "BatchNormalization"}, {"name": "mixed1", "config": {"name": "mixed1", "axis": -1, "trainable": true}, "inbound_nodes": [[["batch_normalization_13", 0, 0, {}], ["batch_normalization_15", 0, 0, {}], ["batch_normalization_18", 0, 0, {}], ["batch_normalization_19", 0, 0, {}]]], "class_name": "Concatenate"}, {"name": "conv2d_23", "config": {"strides": [1, 1], "bias_constraint": null, "data_format": "channels_last", "use_bias": true, "kernel_size": [1, 1], "bias_initializer": {"config": {}, "class_name": "Zeros"}, "kernel_regularizer": null, "name": "conv2d_23", "filters": 32, "activation": "relu", "trainable": true, "bias_regularizer": null, "padding": "same", "kernel_constraint": null, "activity_regularizer": null, "kernel_initializer": {"config": {"mode": "fan_avg", "scale": 1.0, "distribution": "uniform", "seed": null}, "class_name": "VarianceScaling"}, "dilation_rate": [1, 1]}, "inbound_nodes": [[["mixed1", 0, 0, {}]]], "class_name": "Conv2D"}, {"name": "batch_normalization_23", "config": {"beta_initializer": {"config": {}, "class_name": "Zeros"}, "moving_variance_initializer": {"config": {}, "class_name": "Ones"}, "gamma_initializer": {"config": {}, "class_name": "Ones"}, "axis": 3, "moving_mean_initializer": {"config": {}, "class_name": "Zeros"}, "beta_constraint": null, "center": true, "trainable": true, "momentum": 0.99, "beta_regularizer": null, "gamma_constraint": null, "scale": true, "name": "batch_normalization_23", "epsilon": 0.001, "gamma_regularizer": null}, "inbound_nodes": [[["conv2d_23", 0, 0, {}]]], "class_name": "BatchNormalization"}, {"name": "conv2d_21", "config": {"strides": [1, 1], "bias_constraint": null, "data_format": "channels_last", "use_bias": true, "kernel_size": [1, 1], "bias_initializer": {"config": {}, "class_name": "Zeros"}, "kernel_regularizer": null, "name": "conv2d_21", "filters": 24, "activation": "relu", "trainable": true, "bias_regularizer": null, "padding": "same", "kernel_constraint": null, "activity_regularizer": null, "kernel_initializer": {"config": {"mode": "fan_avg", "scale": 1.0, "distribution": "uniform", "seed": null}, "class_name": "VarianceScaling"}, "dilation_rate": [1, 1]}, "inbound_nodes": [[["mixed1", 0, 0, {}]]], "class_name": "Conv2D"}, {"name": "conv2d_24", "config": {"strides": [1, 1], "bias_constraint": null, "data_format": "channels_last", "use_bias": true, "kernel_size": [3, 3], "bias_initializer": {"config": {}, "class_name": "Zeros"}, "kernel_regularizer": null, "name": "conv2d_24", "filters": 48, "activation": "relu", "trainable": true, "bias_regularizer": null, "padding": "same", "kernel_constraint": null, "activity_regularizer": null, "kernel_initializer": {"config": {"mode": "fan_avg", "scale": 1.0, "distribution": "uniform", "seed": null}, "class_name": "VarianceScaling"}, "dilation_rate": [1, 1]}, "inbound_nodes": [[["batch_normalization_23", 0, 0, {}]]], "class_name": "Conv2D"}, {"name": "batch_normalization_21", "config": {"beta_initializer": {"config": {}, "class_name": "Zeros"}, "moving_variance_initializer": {"config": {}, "class_name": "Ones"}, "gamma_initializer": {"config": {}, "class_name": "Ones"}, "axis": 3, "moving_mean_initializer": {"config": {}, "class_name": "Zeros"}, "beta_constraint": null, "center": true, "trainable": true, "momentum": 0.99, "beta_regularizer": null, "gamma_constraint": null, "scale": true, "name": "batch_normalization_21", "epsilon": 0.001, "gamma_regularizer": null}, "inbound_nodes": [[["conv2d_21", 0, 0, {}]]], "class_name": "BatchNormalization"}, {"name": "batch_normalization_24", "config": {"beta_initializer": {"config": {}, "class_name": "Zeros"}, "moving_variance_initializer": {"config": {}, "class_name": "Ones"}, "gamma_initializer": {"config": {}, "class_name": "Ones"}, "axis": 3, "moving_mean_initializer": {"config": {}, "class_name": "Zeros"}, "beta_constraint": null, "center": true, "trainable": true, "momentum": 0.99, "beta_regularizer": null, "gamma_constraint": null, "scale": true, "name": "batch_normalization_24", "epsilon": 0.001, "gamma_regularizer": null}, "inbound_nodes": [[["conv2d_24", 0, 0, {}]]], "class_name": "BatchNormalization"}, {"name": "average_pooling2d_3", "config": {"strides": [1, 1], "trainable": true, "data_format": "channels_last", "padding": "same", "name": "average_pooling2d_3", "pool_size": [3, 3]}, "inbound_nodes": [[["mixed1", 0, 0, {}]]], "class_name": "AveragePooling2D"}, {"name": "conv2d_20", "config": {"strides": [1, 1], "bias_constraint": null, "data_format": "channels_last", "use_bias": true, "kernel_size": [1, 1], "bias_initializer": {"config": {}, "class_name": "Zeros"}, "kernel_regularizer": null, "name": "conv2d_20", "filters": 32, "activation": "relu", "trainable": true, "bias_regularizer": null, "padding": "same", "kernel_constraint": null, "activity_regularizer": null, "kernel_initializer": {"config": {"mode": "fan_avg", "scale": 1.0, "distribution": "uniform", "seed": null}, "class_name": "VarianceScaling"}, "dilation_rate": [1, 1]}, "inbound_nodes": [[["mixed1", 0, 0, {}]]], "class_name": "Conv2D"}, {"name": "conv2d_22", "config": {"strides": [1, 1], "bias_constraint": null, "data_format": "channels_last", "use_bias": true, "kernel_size": [5, 5], "bias_initializer": {"config": {}, "class_name": "Zeros"}, "kernel_regularizer": null, "name": "conv2d_22", "filters": 32, "activation": "relu", "trainable": true, "bias_regularizer": null, "padding": "same", "kernel_constraint": null, "activity_regularizer": null, "kernel_initializer": {"config": {"mode": "fan_avg", "scale": 1.0, "distribution": "uniform", "seed": null}, "class_name": "VarianceScaling"}, "dilation_rate": [1, 1]}, "inbound_nodes": [[["batch_normalization_21", 0, 0, {}]]], "class_name": "Conv2D"}, {"name": "conv2d_25", "config": {"strides": [1, 1], "bias_constraint": null, "data_format": "channels_last", "use_bias": true, "kernel_size": [3, 3], "bias_initializer": {"config": {}, "class_name": "Zeros"}, "kernel_regularizer": null, "name": "conv2d_25", "filters": 48, "activation": "relu", "trainable": true, "bias_regularizer": null, "padding": "same", "kernel_constraint": null, "activity_regularizer": null, "kernel_initializer": {"config": {"mode": "fan_avg", "scale": 1.0, "distribution": "uniform", "seed": null}, "class_name": "VarianceScaling"}, "dilation_rate": [1, 1]}, "inbound_nodes": [[["batch_normalization_24", 0, 0, {}]]], "class_name": "Conv2D"}, {"name": "conv2d_26", "config": {"strides": [1, 1], "bias_constraint": null, "data_format": "channels_last", "use_bias": true, "kernel_size": [1, 1], "bias_initializer": {"config": {}, "class_name": "Zeros"}, "kernel_regularizer": null, "name": "conv2d_26", "filters": 16, "activation": "relu", "trainable": true, "bias_regularizer": null, "padding": "same", "kernel_constraint": null, "activity_regularizer": null, "kernel_initializer": {"config": {"mode": "fan_avg", "scale": 1.0, "distribution": "uniform", "seed": null}, "class_name": "VarianceScaling"}, "dilation_rate": [1, 1]}, "inbound_nodes": [[["average_pooling2d_3", 0, 0, {}]]], "class_name": "Conv2D"}, {"name": "batch_normalization_20", "config": {"beta_initializer": {"config": {}, "class_name": "Zeros"}, "moving_variance_initializer": {"config": {}, "class_name": "Ones"}, "gamma_initializer": {"config": {}, "class_name": "Ones"}, "axis": 3, "moving_mean_initializer": {"config": {}, "class_name": "Zeros"}, "beta_constraint": null, "center": true, "trainable": true, "momentum": 0.99, "beta_regularizer": null, "gamma_constraint": null, "scale": true, "name": "batch_normalization_20", "epsilon": 0.001, "gamma_regularizer": null}, "inbound_nodes": [[["conv2d_20", 0, 0, {}]]], "class_name": "BatchNormalization"}, {"name": "batch_normalization_22", "config": {"beta_initializer": {"config": {}, "class_name": "Zeros"}, "moving_variance_initializer": {"config": {}, "class_name": "Ones"}, "gamma_initializer": {"config": {}, "class_name": "Ones"}, "axis": 3, "moving_mean_initializer": {"config": {}, "class_name": "Zeros"}, "beta_constraint": null, "center": true, "trainable": true, "momentum": 0.99, "beta_regularizer": null, "gamma_constraint": null, "scale": true, "name": "batch_normalization_22", "epsilon": 0.001, "gamma_regularizer": null}, "inbound_nodes": [[["conv2d_22", 0, 0, {}]]], "class_name": "BatchNormalization"}, {"name": "batch_normalization_25", "config": {"beta_initializer": {"config": {}, "class_name": "Zeros"}, "moving_variance_initializer": {"config": {}, "class_name": "Ones"}, "gamma_initializer": {"config": {}, "class_name": "Ones"}, "axis": 3, "moving_mean_initializer": {"config": {}, "class_name": "Zeros"}, "beta_constraint": null, "center": true, "trainable": true, "momentum": 0.99, "beta_regularizer": null, "gamma_constraint": null, "scale": true, "name": "batch_normalization_25", "epsilon": 0.001, "gamma_regularizer": null}, "inbound_nodes": [[["conv2d_25", 0, 0, {}]]], "class_name": "BatchNormalization"}, {"name": "batch_normalization_26", "config": {"beta_initializer": {"config": {}, "class_name": "Zeros"}, "moving_variance_initializer": {"config": {}, "class_name": "Ones"}, "gamma_initializer": {"config": {}, "class_name": "Ones"}, "axis": 3, "moving_mean_initializer": {"config": {}, "class_name": "Zeros"}, "beta_constraint": null, "center": true, "trainable": true, "momentum": 0.99, "beta_regularizer": null, "gamma_constraint": null, "scale": true, "name": "batch_normalization_26", "epsilon": 0.001, "gamma_regularizer": null}, "inbound_nodes": [[["conv2d_26", 0, 0, {}]]], "class_name": "BatchNormalization"}, {"name": "mixed2", "config": {"name": "mixed2", "axis": -1, "trainable": true}, "inbound_nodes": [[["batch_normalization_20", 0, 0, {}], ["batch_normalization_22", 0, 0, {}], ["batch_normalization_25", 0, 0, {}], ["batch_normalization_26", 0, 0, {}]]], "class_name": "Concatenate"}, {"name": "conv2d_28", "config": {"strides": [1, 1], "bias_constraint": null, "data_format": "channels_last", "use_bias": true, "kernel_size": [1, 1], "bias_initializer": {"config": {}, "class_name": "Zeros"}, "kernel_regularizer": null, "name": "conv2d_28", "filters": 32, "activation": "relu", "trainable": true, "bias_regularizer": null, "padding": "same", "kernel_constraint": null, "activity_regularizer": null, "kernel_initializer": {"config": {"mode": "fan_avg", "scale": 1.0, "distribution": "uniform", "seed": null}, "class_name": "VarianceScaling"}, "dilation_rate": [1, 1]}, "inbound_nodes": [[["mixed2", 0, 0, {}]]], "class_name": "Conv2D"}, {"name": "batch_normalization_28", "config": {"beta_initializer": {"config": {}, "class_name": "Zeros"}, "moving_variance_initializer": {"config": {}, "class_name": "Ones"}, "gamma_initializer": {"config": {}, "class_name": "Ones"}, "axis": 3, "moving_mean_initializer": {"config": {}, "class_name": "Zeros"}, "beta_constraint": null, "center": true, "trainable": true, "momentum": 0.99, "beta_regularizer": null, "gamma_constraint": null, "scale": true, "name": "batch_normalization_28", "epsilon": 0.001, "gamma_regularizer": null}, "inbound_nodes": [[["conv2d_28", 0, 0, {}]]], "class_name": "BatchNormalization"}, {"name": "conv2d_29", "config": {"strides": [1, 1], "bias_constraint": null, "data_format": "channels_last", "use_bias": true, "kernel_size": [3, 3], "bias_initializer": {"config": {}, "class_name": "Zeros"}, "kernel_regularizer": null, "name": "conv2d_29", "filters": 48, "activation": "relu", "trainable": true, "bias_regularizer": null, "padding": "same", "kernel_constraint": null, "activity_regularizer": null, "kernel_initializer": {"config": {"mode": "fan_avg", "scale": 1.0, "distribution": "uniform", "seed": null}, "class_name": "VarianceScaling"}, "dilation_rate": [1, 1]}, "inbound_nodes": [[["batch_normalization_28", 0, 0, {}]]], "class_name": "Conv2D"}, {"name": "batch_normalization_29", "config": {"beta_initializer": {"config": {}, "class_name": "Zeros"}, "moving_variance_initializer": {"config": {}, "class_name": "Ones"}, "gamma_initializer": {"config": {}, "class_name": "Ones"}, "axis": 3, "moving_mean_initializer": {"config": {}, "class_name": "Zeros"}, "beta_constraint": null, "center": true, "trainable": true, "momentum": 0.99, "beta_regularizer": null, "gamma_constraint": null, "scale": true, "name": "batch_normalization_29", "epsilon": 0.001, "gamma_regularizer": null}, "inbound_nodes": [[["conv2d_29", 0, 0, {}]]], "class_name": "BatchNormalization"}, {"name": "conv2d_27", "config": {"strides": [2, 2], "bias_constraint": null, "data_format": "channels_last", "use_bias": true, "kernel_size": [3, 3], "bias_initializer": {"config": {}, "class_name": "Zeros"}, "kernel_regularizer": null, "name": "conv2d_27", "filters": 192, "activation": "relu", "trainable": true, "bias_regularizer": null, "padding": "valid", "kernel_constraint": null, "activity_regularizer": null, "kernel_initializer": {"config": {"mode": "fan_avg", "scale": 1.0, "distribution": "uniform", "seed": null}, "class_name": "VarianceScaling"}, "dilation_rate": [1, 1]}, "inbound_nodes": [[["mixed2", 0, 0, {}]]], "class_name": "Conv2D"}, {"name": "conv2d_30", "config": {"strides": [2, 2], "bias_constraint": null, "data_format": "channels_last", "use_bias": true, "kernel_size": [3, 3], "bias_initializer": {"config": {}, "class_name": "Zeros"}, "kernel_regularizer": null, "name": "conv2d_30", "filters": 48, "activation": "relu", "trainable": true, "bias_regularizer": null, "padding": "valid", "kernel_constraint": null, "activity_regularizer": null, "kernel_initializer": {"config": {"mode": "fan_avg", "scale": 1.0, "distribution": "uniform", "seed": null}, "class_name": "VarianceScaling"}, "dilation_rate": [1, 1]}, "inbound_nodes": [[["batch_normalization_29", 0, 0, {}]]], "class_name": "Conv2D"}, {"name": "batch_normalization_27", "config": {"beta_initializer": {"config": {}, "class_name": "Zeros"}, "moving_variance_initializer": {"config": {}, "class_name": "Ones"}, "gamma_initializer": {"config": {}, "class_name": "Ones"}, "axis": 3, "moving_mean_initializer": {"config": {}, "class_name": "Zeros"}, "beta_constraint": null, "center": true, "trainable": true, "momentum": 0.99, "beta_regularizer": null, "gamma_constraint": null, "scale": true, "name": "batch_normalization_27", "epsilon": 0.001, "gamma_regularizer": null}, "inbound_nodes": [[["conv2d_27", 0, 0, {}]]], "class_name": "BatchNormalization"}, {"name": "batch_normalization_30", "config": {"beta_initializer": {"config": {}, "class_name": "Zeros"}, "moving_variance_initializer": {"config": {}, "class_name": "Ones"}, "gamma_initializer": {"config": {}, "class_name": "Ones"}, "axis": 3, "moving_mean_initializer": {"config": {}, "class_name": "Zeros"}, "beta_constraint": null, "center": true, "trainable": true, "momentum": 0.99, "beta_regularizer": null, "gamma_constraint": null, "scale": true, "name": "batch_normalization_30", "epsilon": 0.001, "gamma_regularizer": null}, "inbound_nodes": [[["conv2d_30", 0, 0, {}]]], "class_name": "BatchNormalization"}, {"name": "max_pooling2d_3", "config": {"strides": [2, 2], "trainable": true, "data_format": "channels_last", "padding": "valid", "name": "max_pooling2d_3", "pool_size": [3, 3]}, "inbound_nodes": [[["mixed2", 0, 0, {}]]], "class_name": "MaxPooling2D"}, {"name": "mixed3", "config": {"name": "mixed3", "axis": -1, "trainable": true}, "inbound_nodes": [[["batch_normalization_27", 0, 0, {}], ["batch_normalization_30", 0, 0, {}], ["max_pooling2d_3", 0, 0, {}]]], "class_name": "Concatenate"}, {"name": "conv2d_35", "config": {"strides": [1, 1], "bias_constraint": null, "data_format": "channels_last", "use_bias": true, "kernel_size": [1, 1], "bias_initializer": {"config": {}, "class_name": "Zeros"}, "kernel_regularizer": null, "name": "conv2d_35", "filters": 64, "activation": "relu", "trainable": true, "bias_regularizer": null, "padding": "same", "kernel_constraint": null, "activity_regularizer": null, "kernel_initializer": {"config": {"mode": "fan_avg", "scale": 1.0, "distribution": "uniform", "seed": null}, "class_name": "VarianceScaling"}, "dilation_rate": [1, 1]}, "inbound_nodes": [[["mixed3", 0, 0, {}]]], "class_name": "Conv2D"}, {"name": "batch_normalization_35", "config": {"beta_initializer": {"config": {}, "class_name": "Zeros"}, "moving_variance_initializer": {"config": {}, "class_name": "Ones"}, "gamma_initializer": {"config": {}, "class_name": "Ones"}, "axis": 3, "moving_mean_initializer": {"config": {}, "class_name": "Zeros"}, "beta_constraint": null, "center": true, "trainable": true, "momentum": 0.99, "beta_regularizer": null, "gamma_constraint": null, "scale": true, "name": "batch_normalization_35", "epsilon": 0.001, "gamma_regularizer": null}, "inbound_nodes": [[["conv2d_35", 0, 0, {}]]], "class_name": "BatchNormalization"}, {"name": "conv2d_36", "config": {"strides": [1, 1], "bias_constraint": null, "data_format": "channels_last", "use_bias": true, "kernel_size": [7, 1], "bias_initializer": {"config": {}, "class_name": "Zeros"}, "kernel_regularizer": null, "name": "conv2d_36", "filters": 64, "activation": "relu", "trainable": true, "bias_regularizer": null, "padding": "same", "kernel_constraint": null, "activity_regularizer": null, "kernel_initializer": {"config": {"mode": "fan_avg", "scale": 1.0, "distribution": "uniform", "seed": null}, "class_name": "VarianceScaling"}, "dilation_rate": [1, 1]}, "inbound_nodes": [[["batch_normalization_35", 0, 0, {}]]], "class_name": "Conv2D"}, {"name": "batch_normalization_36", "config": {"beta_initializer": {"config": {}, "class_name": "Zeros"}, "moving_variance_initializer": {"config": {}, "class_name": "Ones"}, "gamma_initializer": {"config": {}, "class_name": "Ones"}, "axis": 3, "moving_mean_initializer": {"config": {}, "class_name": "Zeros"}, "beta_constraint": null, "center": true, "trainable": true, "momentum": 0.99, "beta_regularizer": null, "gamma_constraint": null, "scale": true, "name": "batch_normalization_36", "epsilon": 0.001, "gamma_regularizer": null}, "inbound_nodes": [[["conv2d_36", 0, 0, {}]]], "class_name": "BatchNormalization"}, {"name": "conv2d_32", "config": {"strides": [1, 1], "bias_constraint": null, "data_format": "channels_last", "use_bias": true, "kernel_size": [1, 1], "bias_initializer": {"config": {}, "class_name": "Zeros"}, "kernel_regularizer": null, "name": "conv2d_32", "filters": 64, "activation": "relu", "trainable": true, "bias_regularizer": null, "padding": "same", "kernel_constraint": null, "activity_regularizer": null, "kernel_initializer": {"config": {"mode": "fan_avg", "scale": 1.0, "distribution": "uniform", "seed": null}, "class_name": "VarianceScaling"}, "dilation_rate": [1, 1]}, "inbound_nodes": [[["mixed3", 0, 0, {}]]], "class_name": "Conv2D"}, {"name": "conv2d_37", "config": {"strides": [1, 1], "bias_constraint": null, "data_format": "channels_last", "use_bias": true, "kernel_size": [1, 7], "bias_initializer": {"config": {}, "class_name": "Zeros"}, "kernel_regularizer": null, "name": "conv2d_37", "filters": 64, "activation": "relu", "trainable": true, "bias_regularizer": null, "padding": "same", "kernel_constraint": null, "activity_regularizer": null, "kernel_initializer": {"config": {"mode": "fan_avg", "scale": 1.0, "distribution": "uniform", "seed": null}, "class_name": "VarianceScaling"}, "dilation_rate": [1, 1]}, "inbound_nodes": [[["batch_normalization_36", 0, 0, {}]]], "class_name": "Conv2D"}, {"name": "batch_normalization_32", "config": {"beta_initializer": {"config": {}, "class_name": "Zeros"}, "moving_variance_initializer": {"config": {}, "class_name": "Ones"}, "gamma_initializer": {"config": {}, "class_name": "Ones"}, "axis": 3, "moving_mean_initializer": {"config": {}, "class_name": "Zeros"}, "beta_constraint": null, "center": true, "trainable": true, "momentum": 0.99, "beta_regularizer": null, "gamma_constraint": null, "scale": true, "name": "batch_normalization_32", "epsilon": 0.001, "gamma_regularizer": null}, "inbound_nodes": [[["conv2d_32", 0, 0, {}]]], "class_name": "BatchNormalization"}, {"name": "batch_normalization_37", "config": {"beta_initializer": {"config": {}, "class_name": "Zeros"}, "moving_variance_initializer": {"config": {}, "class_name": "Ones"}, "gamma_initializer": {"config": {}, "class_name": "Ones"}, "axis": 3, "moving_mean_initializer": {"config": {}, "class_name": "Zeros"}, "beta_constraint": null, "center": true, "trainable": true, "momentum": 0.99, "beta_regularizer": null, "gamma_constraint": null, "scale": true, "name": "batch_normalization_37", "epsilon": 0.001, "gamma_regularizer": null}, "inbound_nodes": [[["conv2d_37", 0, 0, {}]]], "class_name": "BatchNormalization"}, {"name": "conv2d_33", "config": {"strides": [1, 1], "bias_constraint": null, "data_format": "channels_last", "use_bias": true, "kernel_size": [1, 7], "bias_initializer": {"config": {}, "class_name": "Zeros"}, "kernel_regularizer": null, "name": "conv2d_33", "filters": 64, "activation": "relu", "trainable": true, "bias_regularizer": null, "padding": "same", "kernel_constraint": null, "activity_regularizer": null, "kernel_initializer": {"config": {"mode": "fan_avg", "scale": 1.0, "distribution": "uniform", "seed": null}, "class_name": "VarianceScaling"}, "dilation_rate": [1, 1]}, "inbound_nodes": [[["batch_normalization_32", 0, 0, {}]]], "class_name": "Conv2D"}, {"name": "conv2d_38", "config": {"strides": [1, 1], "bias_constraint": null, "data_format": "channels_last", "use_bias": true, "kernel_size": [7, 1], "bias_initializer": {"config": {}, "class_name": "Zeros"}, "kernel_regularizer": null, "name": "conv2d_38", "filters": 64, "activation": "relu", "trainable": true, "bias_regularizer": null, "padding": "same", "kernel_constraint": null, "activity_regularizer": null, "kernel_initializer": {"config": {"mode": "fan_avg", "scale": 1.0, "distribution": "uniform", "seed": null}, "class_name": "VarianceScaling"}, "dilation_rate": [1, 1]}, "inbound_nodes": [[["batch_normalization_37", 0, 0, {}]]], "class_name": "Conv2D"}, {"name": "batch_normalization_33", "config": {"beta_initializer": {"config": {}, "class_name": "Zeros"}, "moving_variance_initializer": {"config": {}, "class_name": "Ones"}, "gamma_initializer": {"config": {}, "class_name": "Ones"}, "axis": 3, "moving_mean_initializer": {"config": {}, "class_name": "Zeros"}, "beta_constraint": null, "center": true, "trainable": true, "momentum": 0.99, "beta_regularizer": null, "gamma_constraint": null, "scale": true, "name": "batch_normalization_33", "epsilon": 0.001, "gamma_regularizer": null}, "inbound_nodes": [[["conv2d_33", 0, 0, {}]]], "class_name": "BatchNormalization"}, {"name": "batch_normalization_38", "config": {"beta_initializer": {"config": {}, "class_name": "Zeros"}, "moving_variance_initializer": {"config": {}, "class_name": "Ones"}, "gamma_initializer": {"config": {}, "class_name": "Ones"}, "axis": 3, "moving_mean_initializer": {"config": {}, "class_name": "Zeros"}, "beta_constraint": null, "center": true, "trainable": true, "momentum": 0.99, "beta_regularizer": null, "gamma_constraint": null, "scale": true, "name": "batch_normalization_38", "epsilon": 0.001, "gamma_regularizer": null}, "inbound_nodes": [[["conv2d_38", 0, 0, {}]]], "class_name": "BatchNormalization"}, {"name": "average_pooling2d_4", "config": {"strides": [1, 1], "trainable": true, "data_format": "channels_last", "padding": "same", "name": "average_pooling2d_4", "pool_size": [3, 3]}, "inbound_nodes": [[["mixed3", 0, 0, {}]]], "class_name": "AveragePooling2D"}, {"name": "conv2d_31", "config": {"strides": [1, 1], "bias_constraint": null, "data_format": "channels_last", "use_bias": true, "kernel_size": [1, 1], "bias_initializer": {"config": {}, "class_name": "Zeros"}, "kernel_regularizer": null, "name": "conv2d_31", "filters": 96, "activation": "relu", "trainable": true, "bias_regularizer": null, "padding": "same", "kernel_constraint": null, "activity_regularizer": null, "kernel_initializer": {"config": {"mode": "fan_avg", "scale": 1.0, "distribution": "uniform", "seed": null}, "class_name": "VarianceScaling"}, "dilation_rate": [1, 1]}, "inbound_nodes": [[["mixed3", 0, 0, {}]]], "class_name": "Conv2D"}, {"name": "conv2d_34", "config": {"strides": [1, 1], "bias_constraint": null, "data_format": "channels_last", "use_bias": true, "kernel_size": [7, 1], "bias_initializer": {"config": {}, "class_name": "Zeros"}, "kernel_regularizer": null, "name": "conv2d_34", "filters": 96, "activation": "relu", "trainable": true, "bias_regularizer": null, "padding": "same", "kernel_constraint": null, "activity_regularizer": null, "kernel_initializer": {"config": {"mode": "fan_avg", "scale": 1.0, "distribution": "uniform", "seed": null}, "class_name": "VarianceScaling"}, "dilation_rate": [1, 1]}, "inbound_nodes": [[["batch_normalization_33", 0, 0, {}]]], "class_name": "Conv2D"}, {"name": "conv2d_39", "config": {"strides": [1, 1], "bias_constraint": null, "data_format": "channels_last", "use_bias": true, "kernel_size": [1, 7], "bias_initializer": {"config": {}, "class_name": "Zeros"}, "kernel_regularizer": null, "name": "conv2d_39", "filters": 96, "activation": "relu", "trainable": true, "bias_regularizer": null, "padding": "same", "kernel_constraint": null, "activity_regularizer": null, "kernel_initializer": {"config": {"mode": "fan_avg", "scale": 1.0, "distribution": "uniform", "seed": null}, "class_name": "VarianceScaling"}, "dilation_rate": [1, 1]}, "inbound_nodes": [[["batch_normalization_38", 0, 0, {}]]], "class_name": "Conv2D"}, {"name": "conv2d_40", "config": {"strides": [1, 1], "bias_constraint": null, "data_format": "channels_last", "use_bias": true, "kernel_size": [1, 1], "bias_initializer": {"config": {}, "class_name": "Zeros"}, "kernel_regularizer": null, "name": "conv2d_40", "filters": 96, "activation": "relu", "trainable": true, "bias_regularizer": null, "padding": "same", "kernel_constraint": null, "activity_regularizer": null, "kernel_initializer": {"config": {"mode": "fan_avg", "scale": 1.0, "distribution": "uniform", "seed": null}, "class_name": "VarianceScaling"}, "dilation_rate": [1, 1]}, "inbound_nodes": [[["average_pooling2d_4", 0, 0, {}]]], "class_name": "Conv2D"}, {"name": "batch_normalization_31", "config": {"beta_initializer": {"config": {}, "class_name": "Zeros"}, "moving_variance_initializer": {"config": {}, "class_name": "Ones"}, "gamma_initializer": {"config": {}, "class_name": "Ones"}, "axis": 3, "moving_mean_initializer": {"config": {}, "class_name": "Zeros"}, "beta_constraint": null, "center": true, "trainable": true, "momentum": 0.99, "beta_regularizer": null, "gamma_constraint": null, "scale": true, "name": "batch_normalization_31", "epsilon": 0.001, "gamma_regularizer": null}, "inbound_nodes": [[["conv2d_31", 0, 0, {}]]], "class_name": "BatchNormalization"}, {"name": "batch_normalization_34", "config": {"beta_initializer": {"config": {}, "class_name": "Zeros"}, "moving_variance_initializer": {"config": {}, "class_name": "Ones"}, "gamma_initializer": {"config": {}, "class_name": "Ones"}, "axis": 3, "moving_mean_initializer": {"config": {}, "class_name": "Zeros"}, "beta_constraint": null, "center": true, "trainable": true, "momentum": 0.99, "beta_regularizer": null, "gamma_constraint": null, "scale": true, "name": "batch_normalization_34", "epsilon": 0.001, "gamma_regularizer": null}, "inbound_nodes": [[["conv2d_34", 0, 0, {}]]], "class_name": "BatchNormalization"}, {"name": "batch_normalization_39", "config": {"beta_initializer": {"config": {}, "class_name": "Zeros"}, "moving_variance_initializer": {"config": {}, "class_name": "Ones"}, "gamma_initializer": {"config": {}, "class_name": "Ones"}, "axis": 3, "moving_mean_initializer": {"config": {}, "class_name": "Zeros"}, "beta_constraint": null, "center": true, "trainable": true, "momentum": 0.99, "beta_regularizer": null, "gamma_constraint": null, "scale": true, "name": "batch_normalization_39", "epsilon": 0.001, "gamma_regularizer": null}, "inbound_nodes": [[["conv2d_39", 0, 0, {}]]], "class_name": "BatchNormalization"}, {"name": "batch_normalization_40", "config": {"beta_initializer": {"config": {}, "class_name": "Zeros"}, "moving_variance_initializer": {"config": {}, "class_name": "Ones"}, "gamma_initializer": {"config": {}, "class_name": "Ones"}, "axis": 3, "moving_mean_initializer": {"config": {}, "class_name": "Zeros"}, "beta_constraint": null, "center": true, "trainable": true, "momentum": 0.99, "beta_regularizer": null, "gamma_constraint": null, "scale": true, "name": "batch_normalization_40", "epsilon": 0.001, "gamma_regularizer": null}, "inbound_nodes": [[["conv2d_40", 0, 0, {}]]], "class_name": "BatchNormalization"}, {"name": "mixed4", "config": {"name": "mixed4", "axis": -1, "trainable": true}, "inbound_nodes": [[["batch_normalization_31", 0, 0, {}], ["batch_normalization_34", 0, 0, {}], ["batch_normalization_39", 0, 0, {}], ["batch_normalization_40", 0, 0, {}]]], "class_name": "Concatenate"}, {"name": "conv2d_45", "config": {"strides": [1, 1], "bias_constraint": null, "data_format": "channels_last", "use_bias": true, "kernel_size": [1, 1], "bias_initializer": {"config": {}, "class_name": "Zeros"}, "kernel_regularizer": null, "name": "conv2d_45", "filters": 80, "activation": "relu", "trainable": true, "bias_regularizer": null, "padding": "same", "kernel_constraint": null, "activity_regularizer": null, "kernel_initializer": {"config": {"mode": "fan_avg", "scale": 1.0, "distribution": "uniform", "seed": null}, "class_name": "VarianceScaling"}, "dilation_rate": [1, 1]}, "inbound_nodes": [[["mixed4", 0, 0, {}]]], "class_name": "Conv2D"}, {"name": "batch_normalization_45", "config": {"beta_initializer": {"config": {}, "class_name": "Zeros"}, "moving_variance_initializer": {"config": {}, "class_name": "Ones"}, "gamma_initializer": {"config": {}, "class_name": "Ones"}, "axis": 3, "moving_mean_initializer": {"config": {}, "class_name": "Zeros"}, "beta_constraint": null, "center": true, "trainable": true, "momentum": 0.99, "beta_regularizer": null, "gamma_constraint": null, "scale": true, "name": "batch_normalization_45", "epsilon": 0.001, "gamma_regularizer": null}, "inbound_nodes": [[["conv2d_45", 0, 0, {}]]], "class_name": "BatchNormalization"}, {"name": "conv2d_46", "config": {"strides": [1, 1], "bias_constraint": null, "data_format": "channels_last", "use_bias": true, "kernel_size": [7, 1], "bias_initializer": {"config": {}, "class_name": "Zeros"}, "kernel_regularizer": null, "name": "conv2d_46", "filters": 80, "activation": "relu", "trainable": true, "bias_regularizer": null, "padding": "same", "kernel_constraint": null, "activity_regularizer": null, "kernel_initializer": {"config": {"mode": "fan_avg", "scale": 1.0, "distribution": "uniform", "seed": null}, "class_name": "VarianceScaling"}, "dilation_rate": [1, 1]}, "inbound_nodes": [[["batch_normalization_45", 0, 0, {}]]], "class_name": "Conv2D"}, {"name": "batch_normalization_46", "config": {"beta_initializer": {"config": {}, "class_name": "Zeros"}, "moving_variance_initializer": {"config": {}, "class_name": "Ones"}, "gamma_initializer": {"config": {}, "class_name": "Ones"}, "axis": 3, "moving_mean_initializer": {"config": {}, "class_name": "Zeros"}, "beta_constraint": null, "center": true, "trainable": true, "momentum": 0.99, "beta_regularizer": null, "gamma_constraint": null, "scale": true, "name": "batch_normalization_46", "epsilon": 0.001, "gamma_regularizer": null}, "inbound_nodes": [[["conv2d_46", 0, 0, {}]]], "class_name": "BatchNormalization"}, {"name": "conv2d_42", "config": {"strides": [1, 1], "bias_constraint": null, "data_format": "channels_last", "use_bias": true, "kernel_size": [1, 1], "bias_initializer": {"config": {}, "class_name": "Zeros"}, "kernel_regularizer": null, "name": "conv2d_42", "filters": 80, "activation": "relu", "trainable": true, "bias_regularizer": null, "padding": "same", "kernel_constraint": null, "activity_regularizer": null, "kernel_initializer": {"config": {"mode": "fan_avg", "scale": 1.0, "distribution": "uniform", "seed": null}, "class_name": "VarianceScaling"}, "dilation_rate": [1, 1]}, "inbound_nodes": [[["mixed4", 0, 0, {}]]], "class_name": "Conv2D"}, {"name": "conv2d_47", "config": {"strides": [1, 1], "bias_constraint": null, "data_format": "channels_last", "use_bias": true, "kernel_size": [1, 7], "bias_initializer": {"config": {}, "class_name": "Zeros"}, "kernel_regularizer": null, "name": "conv2d_47", "filters": 80, "activation": "relu", "trainable": true, "bias_regularizer": null, "padding": "same", "kernel_constraint": null, "activity_regularizer": null, "kernel_initializer": {"config": {"mode": "fan_avg", "scale": 1.0, "distribution": "uniform", "seed": null}, "class_name": "VarianceScaling"}, "dilation_rate": [1, 1]}, "inbound_nodes": [[["batch_normalization_46", 0, 0, {}]]], "class_name": "Conv2D"}, {"name": "batch_normalization_42", "config": {"beta_initializer": {"config": {}, "class_name": "Zeros"}, "moving_variance_initializer": {"config": {}, "class_name": "Ones"}, "gamma_initializer": {"config": {}, "class_name": "Ones"}, "axis": 3, "moving_mean_initializer": {"config": {}, "class_name": "Zeros"}, "beta_constraint": null, "center": true, "trainable": true, "momentum": 0.99, "beta_regularizer": null, "gamma_constraint": null, "scale": true, "name": "batch_normalization_42", "epsilon": 0.001, "gamma_regularizer": null}, "inbound_nodes": [[["conv2d_42", 0, 0, {}]]], "class_name": "BatchNormalization"}, {"name": "batch_normalization_47", "config": {"beta_initializer": {"config": {}, "class_name": "Zeros"}, "moving_variance_initializer": {"config": {}, "class_name": "Ones"}, "gamma_initializer": {"config": {}, "class_name": "Ones"}, "axis": 3, "moving_mean_initializer": {"config": {}, "class_name": "Zeros"}, "beta_constraint": null, "center": true, "trainable": true, "momentum": 0.99, "beta_regularizer": null, "gamma_constraint": null, "scale": true, "name": "batch_normalization_47", "epsilon": 0.001, "gamma_regularizer": null}, "inbound_nodes": [[["conv2d_47", 0, 0, {}]]], "class_name": "BatchNormalization"}, {"name": "conv2d_43", "config": {"strides": [1, 1], "bias_constraint": null, "data_format": "channels_last", "use_bias": true, "kernel_size": [1, 7], "bias_initializer": {"config": {}, "class_name": "Zeros"}, "kernel_regularizer": null, "name": "conv2d_43", "filters": 80, "activation": "relu", "trainable": true, "bias_regularizer": null, "padding": "same", "kernel_constraint": null, "activity_regularizer": null, "kernel_initializer": {"config": {"mode": "fan_avg", "scale": 1.0, "distribution": "uniform", "seed": null}, "class_name": "VarianceScaling"}, "dilation_rate": [1, 1]}, "inbound_nodes": [[["batch_normalization_42", 0, 0, {}]]], "class_name": "Conv2D"}, {"name": "conv2d_48", "config": {"strides": [1, 1], "bias_constraint": null, "data_format": "channels_last", "use_bias": true, "kernel_size": [7, 1], "bias_initializer": {"config": {}, "class_name": "Zeros"}, "kernel_regularizer": null, "name": "conv2d_48", "filters": 80, "activation": "relu", "trainable": true, "bias_regularizer": null, "padding": "same", "kernel_constraint": null, "activity_regularizer": null, "kernel_initializer": {"config": {"mode": "fan_avg", "scale": 1.0, "distribution": "uniform", "seed": null}, "class_name": "VarianceScaling"}, "dilation_rate": [1, 1]}, "inbound_nodes": [[["batch_normalization_47", 0, 0, {}]]], "class_name": "Conv2D"}, {"name": "batch_normalization_43", "config": {"beta_initializer": {"config": {}, "class_name": "Zeros"}, "moving_variance_initializer": {"config": {}, "class_name": "Ones"}, "gamma_initializer": {"config": {}, "class_name": "Ones"}, "axis": 3, "moving_mean_initializer": {"config": {}, "class_name": "Zeros"}, "beta_constraint": null, "center": true, "trainable": true, "momentum": 0.99, "beta_regularizer": null, "gamma_constraint": null, "scale": true, "name": "batch_normalization_43", "epsilon": 0.001, "gamma_regularizer": null}, "inbound_nodes": [[["conv2d_43", 0, 0, {}]]], "class_name": "BatchNormalization"}, {"name": "batch_normalization_48", "config": {"beta_initializer": {"config": {}, "class_name": "Zeros"}, "moving_variance_initializer": {"config": {}, "class_name": "Ones"}, "gamma_initializer": {"config": {}, "class_name": "Ones"}, "axis": 3, "moving_mean_initializer": {"config": {}, "class_name": "Zeros"}, "beta_constraint": null, "center": true, "trainable": true, "momentum": 0.99, "beta_regularizer": null, "gamma_constraint": null, "scale": true, "name": "batch_normalization_48", "epsilon": 0.001, "gamma_regularizer": null}, "inbound_nodes": [[["conv2d_48", 0, 0, {}]]], "class_name": "BatchNormalization"}, {"name": "average_pooling2d_5", "config": {"strides": [1, 1], "trainable": true, "data_format": "channels_last", "padding": "same", "name": "average_pooling2d_5", "pool_size": [3, 3]}, "inbound_nodes": [[["mixed4", 0, 0, {}]]], "class_name": "AveragePooling2D"}, {"name": "conv2d_41", "config": {"strides": [1, 1], "bias_constraint": null, "data_format": "channels_last", "use_bias": true, "kernel_size": [1, 1], "bias_initializer": {"config": {}, "class_name": "Zeros"}, "kernel_regularizer": null, "name": "conv2d_41", "filters": 96, "activation": "relu", "trainable": true, "bias_regularizer": null, "padding": "same", "kernel_constraint": null, "activity_regularizer": null, "kernel_initializer": {"config": {"mode": "fan_avg", "scale": 1.0, "distribution": "uniform", "seed": null}, "class_name": "VarianceScaling"}, "dilation_rate": [1, 1]}, "inbound_nodes": [[["mixed4", 0, 0, {}]]], "class_name": "Conv2D"}, {"name": "conv2d_44", "config": {"strides": [1, 1], "bias_constraint": null, "data_format": "channels_last", "use_bias": true, "kernel_size": [7, 1], "bias_initializer": {"config": {}, "class_name": "Zeros"}, "kernel_regularizer": null, "name": "conv2d_44", "filters": 96, "activation": "relu", "trainable": true, "bias_regularizer": null, "padding": "same", "kernel_constraint": null, "activity_regularizer": null, "kernel_initializer": {"config": {"mode": "fan_avg", "scale": 1.0, "distribution": "uniform", "seed": null}, "class_name": "VarianceScaling"}, "dilation_rate": [1, 1]}, "inbound_nodes": [[["batch_normalization_43", 0, 0, {}]]], "class_name": "Conv2D"}, {"name": "conv2d_49", "config": {"strides": [1, 1], "bias_constraint": null, "data_format": "channels_last", "use_bias": true, "kernel_size": [1, 7], "bias_initializer": {"config": {}, "class_name": "Zeros"}, "kernel_regularizer": null, "name": "conv2d_49", "filters": 96, "activation": "relu", "trainable": true, "bias_regularizer": null, "padding": "same", "kernel_constraint": null, "activity_regularizer": null, "kernel_initializer": {"config": {"mode": "fan_avg", "scale": 1.0, "distribution": "uniform", "seed": null}, "class_name": "VarianceScaling"}, "dilation_rate": [1, 1]}, "inbound_nodes": [[["batch_normalization_48", 0, 0, {}]]], "class_name": "Conv2D"}, {"name": "conv2d_50", "config": {"strides": [1, 1], "bias_constraint": null, "data_format": "channels_last", "use_bias": true, "kernel_size": [1, 1], "bias_initializer": {"config": {}, "class_name": "Zeros"}, "kernel_regularizer": null, "name": "conv2d_50", "filters": 96, "activation": "relu", "trainable": true, "bias_regularizer": null, "padding": "same", "kernel_constraint": null, "activity_regularizer": null, "kernel_initializer": {"config": {"mode": "fan_avg", "scale": 1.0, "distribution": "uniform", "seed": null}, "class_name": "VarianceScaling"}, "dilation_rate": [1, 1]}, "inbound_nodes": [[["average_pooling2d_5", 0, 0, {}]]], "class_name": "Conv2D"}, {"name": "batch_normalization_41", "config": {"beta_initializer": {"config": {}, "class_name": "Zeros"}, "moving_variance_initializer": {"config": {}, "class_name": "Ones"}, "gamma_initializer": {"config": {}, "class_name": "Ones"}, "axis": 3, "moving_mean_initializer": {"config": {}, "class_name": "Zeros"}, "beta_constraint": null, "center": true, "trainable": true, "momentum": 0.99, "beta_regularizer": null, "gamma_constraint": null, "scale": true, "name": "batch_normalization_41", "epsilon": 0.001, "gamma_regularizer": null}, "inbound_nodes": [[["conv2d_41", 0, 0, {}]]], "class_name": "BatchNormalization"}, {"name": "batch_normalization_44", "config": {"beta_initializer": {"config": {}, "class_name": "Zeros"}, "moving_variance_initializer": {"config": {}, "class_name": "Ones"}, "gamma_initializer": {"config": {}, "class_name": "Ones"}, "axis": 3, "moving_mean_initializer": {"config": {}, "class_name": "Zeros"}, "beta_constraint": null, "center": true, "trainable": true, "momentum": 0.99, "beta_regularizer": null, "gamma_constraint": null, "scale": true, "name": "batch_normalization_44", "epsilon": 0.001, "gamma_regularizer": null}, "inbound_nodes": [[["conv2d_44", 0, 0, {}]]], "class_name": "BatchNormalization"}, {"name": "batch_normalization_49", "config": {"beta_initializer": {"config": {}, "class_name": "Zeros"}, "moving_variance_initializer": {"config": {}, "class_name": "Ones"}, "gamma_initializer": {"config": {}, "class_name": "Ones"}, "axis": 3, "moving_mean_initializer": {"config": {}, "class_name": "Zeros"}, "beta_constraint": null, "center": true, "trainable": true, "momentum": 0.99, "beta_regularizer": null, "gamma_constraint": null, "scale": true, "name": "batch_normalization_49", "epsilon": 0.001, "gamma_regularizer": null}, "inbound_nodes": [[["conv2d_49", 0, 0, {}]]], "class_name": "BatchNormalization"}, {"name": "batch_normalization_50", "config": {"beta_initializer": {"config": {}, "class_name": "Zeros"}, "moving_variance_initializer": {"config": {}, "class_name": "Ones"}, "gamma_initializer": {"config": {}, "class_name": "Ones"}, "axis": 3, "moving_mean_initializer": {"config": {}, "class_name": "Zeros"}, "beta_constraint": null, "center": true, "trainable": true, "momentum": 0.99, "beta_regularizer": null, "gamma_constraint": null, "scale": true, "name": "batch_normalization_50", "epsilon": 0.001, "gamma_regularizer": null}, "inbound_nodes": [[["conv2d_50", 0, 0, {}]]], "class_name": "BatchNormalization"}, {"name": "mixed5", "config": {"name": "mixed5", "axis": -1, "trainable": true}, "inbound_nodes": [[["batch_normalization_41", 0, 0, {}], ["batch_normalization_44", 0, 0, {}], ["batch_normalization_49", 0, 0, {}], ["batch_normalization_50", 0, 0, {}]]], "class_name": "Concatenate"}, {"name": "conv2d_55", "config": {"strides": [1, 1], "bias_constraint": null, "data_format": "channels_last", "use_bias": true, "kernel_size": [1, 1], "bias_initializer": {"config": {}, "class_name": "Zeros"}, "kernel_regularizer": null, "name": "conv2d_55", "filters": 80, "activation": "relu", "trainable": true, "bias_regularizer": null, "padding": "same", "kernel_constraint": null, "activity_regularizer": null, "kernel_initializer": {"config": {"mode": "fan_avg", "scale": 1.0, "distribution": "uniform", "seed": null}, "class_name": "VarianceScaling"}, "dilation_rate": [1, 1]}, "inbound_nodes": [[["mixed5", 0, 0, {}]]], "class_name": "Conv2D"}, {"name": "batch_normalization_55", "config": {"beta_initializer": {"config": {}, "class_name": "Zeros"}, "moving_variance_initializer": {"config": {}, "class_name": "Ones"}, "gamma_initializer": {"config": {}, "class_name": "Ones"}, "axis": 3, "moving_mean_initializer": {"config": {}, "class_name": "Zeros"}, "beta_constraint": null, "center": true, "trainable": true, "momentum": 0.99, "beta_regularizer": null, "gamma_constraint": null, "scale": true, "name": "batch_normalization_55", "epsilon": 0.001, "gamma_regularizer": null}, "inbound_nodes": [[["conv2d_55", 0, 0, {}]]], "class_name": "BatchNormalization"}, {"name": "conv2d_56", "config": {"strides": [1, 1], "bias_constraint": null, "data_format": "channels_last", "use_bias": true, "kernel_size": [7, 1], "bias_initializer": {"config": {}, "class_name": "Zeros"}, "kernel_regularizer": null, "name": "conv2d_56", "filters": 80, "activation": "relu", "trainable": true, "bias_regularizer": null, "padding": "same", "kernel_constraint": null, "activity_regularizer": null, "kernel_initializer": {"config": {"mode": "fan_avg", "scale": 1.0, "distribution": "uniform", "seed": null}, "class_name": "VarianceScaling"}, "dilation_rate": [1, 1]}, "inbound_nodes": [[["batch_normalization_55", 0, 0, {}]]], "class_name": "Conv2D"}, {"name": "batch_normalization_56", "config": {"beta_initializer": {"config": {}, "class_name": "Zeros"}, "moving_variance_initializer": {"config": {}, "class_name": "Ones"}, "gamma_initializer": {"config": {}, "class_name": "Ones"}, "axis": 3, "moving_mean_initializer": {"config": {}, "class_name": "Zeros"}, "beta_constraint": null, "center": true, "trainable": true, "momentum": 0.99, "beta_regularizer": null, "gamma_constraint": null, "scale": true, "name": "batch_normalization_56", "epsilon": 0.001, "gamma_regularizer": null}, "inbound_nodes": [[["conv2d_56", 0, 0, {}]]], "class_name": "BatchNormalization"}, {"name": "conv2d_52", "config": {"strides": [1, 1], "bias_constraint": null, "data_format": "channels_last", "use_bias": true, "kernel_size": [1, 1], "bias_initializer": {"config": {}, "class_name": "Zeros"}, "kernel_regularizer": null, "name": "conv2d_52", "filters": 80, "activation": "relu", "trainable": true, "bias_regularizer": null, "padding": "same", "kernel_constraint": null, "activity_regularizer": null, "kernel_initializer": {"config": {"mode": "fan_avg", "scale": 1.0, "distribution": "uniform", "seed": null}, "class_name": "VarianceScaling"}, "dilation_rate": [1, 1]}, "inbound_nodes": [[["mixed5", 0, 0, {}]]], "class_name": "Conv2D"}, {"name": "conv2d_57", "config": {"strides": [1, 1], "bias_constraint": null, "data_format": "channels_last", "use_bias": true, "kernel_size": [1, 7], "bias_initializer": {"config": {}, "class_name": "Zeros"}, "kernel_regularizer": null, "name": "conv2d_57", "filters": 80, "activation": "relu", "trainable": true, "bias_regularizer": null, "padding": "same", "kernel_constraint": null, "activity_regularizer": null, "kernel_initializer": {"config": {"mode": "fan_avg", "scale": 1.0, "distribution": "uniform", "seed": null}, "class_name": "VarianceScaling"}, "dilation_rate": [1, 1]}, "inbound_nodes": [[["batch_normalization_56", 0, 0, {}]]], "class_name": "Conv2D"}, {"name": "batch_normalization_52", "config": {"beta_initializer": {"config": {}, "class_name": "Zeros"}, "moving_variance_initializer": {"config": {}, "class_name": "Ones"}, "gamma_initializer": {"config": {}, "class_name": "Ones"}, "axis": 3, "moving_mean_initializer": {"config": {}, "class_name": "Zeros"}, "beta_constraint": null, "center": true, "trainable": true, "momentum": 0.99, "beta_regularizer": null, "gamma_constraint": null, "scale": true, "name": "batch_normalization_52", "epsilon": 0.001, "gamma_regularizer": null}, "inbound_nodes": [[["conv2d_52", 0, 0, {}]]], "class_name": "BatchNormalization"}, {"name": "batch_normalization_57", "config": {"beta_initializer": {"config": {}, "class_name": "Zeros"}, "moving_variance_initializer": {"config": {}, "class_name": "Ones"}, "gamma_initializer": {"config": {}, "class_name": "Ones"}, "axis": 3, "moving_mean_initializer": {"config": {}, "class_name": "Zeros"}, "beta_constraint": null, "center": true, "trainable": true, "momentum": 0.99, "beta_regularizer": null, "gamma_constraint": null, "scale": true, "name": "batch_normalization_57", "epsilon": 0.001, "gamma_regularizer": null}, "inbound_nodes": [[["conv2d_57", 0, 0, {}]]], "class_name": "BatchNormalization"}, {"name": "conv2d_53", "config": {"strides": [1, 1], "bias_constraint": null, "data_format": "channels_last", "use_bias": true, "kernel_size": [1, 7], "bias_initializer": {"config": {}, "class_name": "Zeros"}, "kernel_regularizer": null, "name": "conv2d_53", "filters": 80, "activation": "relu", "trainable": true, "bias_regularizer": null, "padding": "same", "kernel_constraint": null, "activity_regularizer": null, "kernel_initializer": {"config": {"mode": "fan_avg", "scale": 1.0, "distribution": "uniform", "seed": null}, "class_name": "VarianceScaling"}, "dilation_rate": [1, 1]}, "inbound_nodes": [[["batch_normalization_52", 0, 0, {}]]], "class_name": "Conv2D"}, {"name": "conv2d_58", "config": {"strides": [1, 1], "bias_constraint": null, "data_format": "channels_last", "use_bias": true, "kernel_size": [7, 1], "bias_initializer": {"config": {}, "class_name": "Zeros"}, "kernel_regularizer": null, "name": "conv2d_58", "filters": 80, "activation": "relu", "trainable": true, "bias_regularizer": null, "padding": "same", "kernel_constraint": null, "activity_regularizer": null, "kernel_initializer": {"config": {"mode": "fan_avg", "scale": 1.0, "distribution": "uniform", "seed": null}, "class_name": "VarianceScaling"}, "dilation_rate": [1, 1]}, "inbound_nodes": [[["batch_normalization_57", 0, 0, {}]]], "class_name": "Conv2D"}, {"name": "batch_normalization_53", "config": {"beta_initializer": {"config": {}, "class_name": "Zeros"}, "moving_variance_initializer": {"config": {}, "class_name": "Ones"}, "gamma_initializer": {"config": {}, "class_name": "Ones"}, "axis": 3, "moving_mean_initializer": {"config": {}, "class_name": "Zeros"}, "beta_constraint": null, "center": true, "trainable": true, "momentum": 0.99, "beta_regularizer": null, "gamma_constraint": null, "scale": true, "name": "batch_normalization_53", "epsilon": 0.001, "gamma_regularizer": null}, "inbound_nodes": [[["conv2d_53", 0, 0, {}]]], "class_name": "BatchNormalization"}, {"name": "batch_normalization_58", "config": {"beta_initializer": {"config": {}, "class_name": "Zeros"}, "moving_variance_initializer": {"config": {}, "class_name": "Ones"}, "gamma_initializer": {"config": {}, "class_name": "Ones"}, "axis": 3, "moving_mean_initializer": {"config": {}, "class_name": "Zeros"}, "beta_constraint": null, "center": true, "trainable": true, "momentum": 0.99, "beta_regularizer": null, "gamma_constraint": null, "scale": true, "name": "batch_normalization_58", "epsilon": 0.001, "gamma_regularizer": null}, "inbound_nodes": [[["conv2d_58", 0, 0, {}]]], "class_name": "BatchNormalization"}, {"name": "average_pooling2d_6", "config": {"strides": [1, 1], "trainable": true, "data_format": "channels_last", "padding": "same", "name": "average_pooling2d_6", "pool_size": [3, 3]}, "inbound_nodes": [[["mixed5", 0, 0, {}]]], "class_name": "AveragePooling2D"}, {"name": "conv2d_51", "config": {"strides": [1, 1], "bias_constraint": null, "data_format": "channels_last", "use_bias": true, "kernel_size": [1, 1], "bias_initializer": {"config": {}, "class_name": "Zeros"}, "kernel_regularizer": null, "name": "conv2d_51", "filters": 96, "activation": "relu", "trainable": true, "bias_regularizer": null, "padding": "same", "kernel_constraint": null, "activity_regularizer": null, "kernel_initializer": {"config": {"mode": "fan_avg", "scale": 1.0, "distribution": "uniform", "seed": null}, "class_name": "VarianceScaling"}, "dilation_rate": [1, 1]}, "inbound_nodes": [[["mixed5", 0, 0, {}]]], "class_name": "Conv2D"}, {"name": "conv2d_54", "config": {"strides": [1, 1], "bias_constraint": null, "data_format": "channels_last", "use_bias": true, "kernel_size": [7, 1], "bias_initializer": {"config": {}, "class_name": "Zeros"}, "kernel_regularizer": null, "name": "conv2d_54", "filters": 96, "activation": "relu", "trainable": true, "bias_regularizer": null, "padding": "same", "kernel_constraint": null, "activity_regularizer": null, "kernel_initializer": {"config": {"mode": "fan_avg", "scale": 1.0, "distribution": "uniform", "seed": null}, "class_name": "VarianceScaling"}, "dilation_rate": [1, 1]}, "inbound_nodes": [[["batch_normalization_53", 0, 0, {}]]], "class_name": "Conv2D"}, {"name": "conv2d_59", "config": {"strides": [1, 1], "bias_constraint": null, "data_format": "channels_last", "use_bias": true, "kernel_size": [1, 7], "bias_initializer": {"config": {}, "class_name": "Zeros"}, "kernel_regularizer": null, "name": "conv2d_59", "filters": 96, "activation": "relu", "trainable": true, "bias_regularizer": null, "padding": "same", "kernel_constraint": null, "activity_regularizer": null, "kernel_initializer": {"config": {"mode": "fan_avg", "scale": 1.0, "distribution": "uniform", "seed": null}, "class_name": "VarianceScaling"}, "dilation_rate": [1, 1]}, "inbound_nodes": [[["batch_normalization_58", 0, 0, {}]]], "class_name": "Conv2D"}, {"name": "conv2d_60", "config": {"strides": [1, 1], "bias_constraint": null, "data_format": "channels_last", "use_bias": true, "kernel_size": [1, 1], "bias_initializer": {"config": {}, "class_name": "Zeros"}, "kernel_regularizer": null, "name": "conv2d_60", "filters": 96, "activation": "relu", "trainable": true, "bias_regularizer": null, "padding": "same", "kernel_constraint": null, "activity_regularizer": null, "kernel_initializer": {"config": {"mode": "fan_avg", "scale": 1.0, "distribution": "uniform", "seed": null}, "class_name": "VarianceScaling"}, "dilation_rate": [1, 1]}, "inbound_nodes": [[["average_pooling2d_6", 0, 0, {}]]], "class_name": "Conv2D"}, {"name": "batch_normalization_51", "config": {"beta_initializer": {"config": {}, "class_name": "Zeros"}, "moving_variance_initializer": {"config": {}, "class_name": "Ones"}, "gamma_initializer": {"config": {}, "class_name": "Ones"}, "axis": 3, "moving_mean_initializer": {"config": {}, "class_name": "Zeros"}, "beta_constraint": null, "center": true, "trainable": true, "momentum": 0.99, "beta_regularizer": null, "gamma_constraint": null, "scale": true, "name": "batch_normalization_51", "epsilon": 0.001, "gamma_regularizer": null}, "inbound_nodes": [[["conv2d_51", 0, 0, {}]]], "class_name": "BatchNormalization"}, {"name": "batch_normalization_54", "config": {"beta_initializer": {"config": {}, "class_name": "Zeros"}, "moving_variance_initializer": {"config": {}, "class_name": "Ones"}, "gamma_initializer": {"config": {}, "class_name": "Ones"}, "axis": 3, "moving_mean_initializer": {"config": {}, "class_name": "Zeros"}, "beta_constraint": null, "center": true, "trainable": true, "momentum": 0.99, "beta_regularizer": null, "gamma_constraint": null, "scale": true, "name": "batch_normalization_54", "epsilon": 0.001, "gamma_regularizer": null}, "inbound_nodes": [[["conv2d_54", 0, 0, {}]]], "class_name": "BatchNormalization"}, {"name": "batch_normalization_59", "config": {"beta_initializer": {"config": {}, "class_name": "Zeros"}, "moving_variance_initializer": {"config": {}, "class_name": "Ones"}, "gamma_initializer": {"config": {}, "class_name": "Ones"}, "axis": 3, "moving_mean_initializer": {"config": {}, "class_name": "Zeros"}, "beta_constraint": null, "center": true, "trainable": true, "momentum": 0.99, "beta_regularizer": null, "gamma_constraint": null, "scale": true, "name": "batch_normalization_59", "epsilon": 0.001, "gamma_regularizer": null}, "inbound_nodes": [[["conv2d_59", 0, 0, {}]]], "class_name": "BatchNormalization"}, {"name": "batch_normalization_60", "config": {"beta_initializer": {"config": {}, "class_name": "Zeros"}, "moving_variance_initializer": {"config": {}, "class_name": "Ones"}, "gamma_initializer": {"config": {}, "class_name": "Ones"}, "axis": 3, "moving_mean_initializer": {"config": {}, "class_name": "Zeros"}, "beta_constraint": null, "center": true, "trainable": true, "momentum": 0.99, "beta_regularizer": null, "gamma_constraint": null, "scale": true, "name": "batch_normalization_60", "epsilon": 0.001, "gamma_regularizer": null}, "inbound_nodes": [[["conv2d_60", 0, 0, {}]]], "class_name": "BatchNormalization"}, {"name": "mixed6", "config": {"name": "mixed6", "axis": -1, "trainable": true}, "inbound_nodes": [[["batch_normalization_51", 0, 0, {}], ["batch_normalization_54", 0, 0, {}], ["batch_normalization_59", 0, 0, {}], ["batch_normalization_60", 0, 0, {}]]], "class_name": "Concatenate"}, {"name": "conv2d_65", "config": {"strides": [1, 1], "bias_constraint": null, "data_format": "channels_last", "use_bias": true, "kernel_size": [1, 1], "bias_initializer": {"config": {}, "class_name": "Zeros"}, "kernel_regularizer": null, "name": "conv2d_65", "filters": 80, "activation": "relu", "trainable": true, "bias_regularizer": null, "padding": "same", "kernel_constraint": null, "activity_regularizer": null, "kernel_initializer": {"config": {"mode": "fan_avg", "scale": 1.0, "distribution": "uniform", "seed": null}, "class_name": "VarianceScaling"}, "dilation_rate": [1, 1]}, "inbound_nodes": [[["mixed6", 0, 0, {}]]], "class_name": "Conv2D"}, {"name": "batch_normalization_65", "config": {"beta_initializer": {"config": {}, "class_name": "Zeros"}, "moving_variance_initializer": {"config": {}, "class_name": "Ones"}, "gamma_initializer": {"config": {}, "class_name": "Ones"}, "axis": 3, "moving_mean_initializer": {"config": {}, "class_name": "Zeros"}, "beta_constraint": null, "center": true, "trainable": true, "momentum": 0.99, "beta_regularizer": null, "gamma_constraint": null, "scale": true, "name": "batch_normalization_65", "epsilon": 0.001, "gamma_regularizer": null}, "inbound_nodes": [[["conv2d_65", 0, 0, {}]]], "class_name": "BatchNormalization"}, {"name": "conv2d_66", "config": {"strides": [1, 1], "bias_constraint": null, "data_format": "channels_last", "use_bias": true, "kernel_size": [7, 1], "bias_initializer": {"config": {}, "class_name": "Zeros"}, "kernel_regularizer": null, "name": "conv2d_66", "filters": 96, "activation": "relu", "trainable": true, "bias_regularizer": null, "padding": "same", "kernel_constraint": null, "activity_regularizer": null, "kernel_initializer": {"config": {"mode": "fan_avg", "scale": 1.0, "distribution": "uniform", "seed": null}, "class_name": "VarianceScaling"}, "dilation_rate": [1, 1]}, "inbound_nodes": [[["batch_normalization_65", 0, 0, {}]]], "class_name": "Conv2D"}, {"name": "batch_normalization_66", "config": {"beta_initializer": {"config": {}, "class_name": "Zeros"}, "moving_variance_initializer": {"config": {}, "class_name": "Ones"}, "gamma_initializer": {"config": {}, "class_name": "Ones"}, "axis": 3, "moving_mean_initializer": {"config": {}, "class_name": "Zeros"}, "beta_constraint": null, "center": true, "trainable": true, "momentum": 0.99, "beta_regularizer": null, "gamma_constraint": null, "scale": true, "name": "batch_normalization_66", "epsilon": 0.001, "gamma_regularizer": null}, "inbound_nodes": [[["conv2d_66", 0, 0, {}]]], "class_name": "BatchNormalization"}, {"name": "conv2d_62", "config": {"strides": [1, 1], "bias_constraint": null, "data_format": "channels_last", "use_bias": true, "kernel_size": [1, 1], "bias_initializer": {"config": {}, "class_name": "Zeros"}, "kernel_regularizer": null, "name": "conv2d_62", "filters": 96, "activation": "relu", "trainable": true, "bias_regularizer": null, "padding": "same", "kernel_constraint": null, "activity_regularizer": null, "kernel_initializer": {"config": {"mode": "fan_avg", "scale": 1.0, "distribution": "uniform", "seed": null}, "class_name": "VarianceScaling"}, "dilation_rate": [1, 1]}, "inbound_nodes": [[["mixed6", 0, 0, {}]]], "class_name": "Conv2D"}, {"name": "conv2d_67", "config": {"strides": [1, 1], "bias_constraint": null, "data_format": "channels_last", "use_bias": true, "kernel_size": [1, 7], "bias_initializer": {"config": {}, "class_name": "Zeros"}, "kernel_regularizer": null, "name": "conv2d_67", "filters": 96, "activation": "relu", "trainable": true, "bias_regularizer": null, "padding": "same", "kernel_constraint": null, "activity_regularizer": null, "kernel_initializer": {"config": {"mode": "fan_avg", "scale": 1.0, "distribution": "uniform", "seed": null}, "class_name": "VarianceScaling"}, "dilation_rate": [1, 1]}, "inbound_nodes": [[["batch_normalization_66", 0, 0, {}]]], "class_name": "Conv2D"}, {"name": "batch_normalization_62", "config": {"beta_initializer": {"config": {}, "class_name": "Zeros"}, "moving_variance_initializer": {"config": {}, "class_name": "Ones"}, "gamma_initializer": {"config": {}, "class_name": "Ones"}, "axis": 3, "moving_mean_initializer": {"config": {}, "class_name": "Zeros"}, "beta_constraint": null, "center": true, "trainable": true, "momentum": 0.99, "beta_regularizer": null, "gamma_constraint": null, "scale": true, "name": "batch_normalization_62", "epsilon": 0.001, "gamma_regularizer": null}, "inbound_nodes": [[["conv2d_62", 0, 0, {}]]], "class_name": "BatchNormalization"}, {"name": "batch_normalization_67", "config": {"beta_initializer": {"config": {}, "class_name": "Zeros"}, "moving_variance_initializer": {"config": {}, "class_name": "Ones"}, "gamma_initializer": {"config": {}, "class_name": "Ones"}, "axis": 3, "moving_mean_initializer": {"config": {}, "class_name": "Zeros"}, "beta_constraint": null, "center": true, "trainable": true, "momentum": 0.99, "beta_regularizer": null, "gamma_constraint": null, "scale": true, "name": "batch_normalization_67", "epsilon": 0.001, "gamma_regularizer": null}, "inbound_nodes": [[["conv2d_67", 0, 0, {}]]], "class_name": "BatchNormalization"}, {"name": "conv2d_63", "config": {"strides": [1, 1], "bias_constraint": null, "data_format": "channels_last", "use_bias": true, "kernel_size": [1, 7], "bias_initializer": {"config": {}, "class_name": "Zeros"}, "kernel_regularizer": null, "name": "conv2d_63", "filters": 96, "activation": "relu", "trainable": true, "bias_regularizer": null, "padding": "same", "kernel_constraint": null, "activity_regularizer": null, "kernel_initializer": {"config": {"mode": "fan_avg", "scale": 1.0, "distribution": "uniform", "seed": null}, "class_name": "VarianceScaling"}, "dilation_rate": [1, 1]}, "inbound_nodes": [[["batch_normalization_62", 0, 0, {}]]], "class_name": "Conv2D"}, {"name": "conv2d_68", "config": {"strides": [1, 1], "bias_constraint": null, "data_format": "channels_last", "use_bias": true, "kernel_size": [7, 1], "bias_initializer": {"config": {}, "class_name": "Zeros"}, "kernel_regularizer": null, "name": "conv2d_68", "filters": 96, "activation": "relu", "trainable": true, "bias_regularizer": null, "padding": "same", "kernel_constraint": null, "activity_regularizer": null, "kernel_initializer": {"config": {"mode": "fan_avg", "scale": 1.0, "distribution": "uniform", "seed": null}, "class_name": "VarianceScaling"}, "dilation_rate": [1, 1]}, "inbound_nodes": [[["batch_normalization_67", 0, 0, {}]]], "class_name": "Conv2D"}, {"name": "batch_normalization_63", "config": {"beta_initializer": {"config": {}, "class_name": "Zeros"}, "moving_variance_initializer": {"config": {}, "class_name": "Ones"}, "gamma_initializer": {"config": {}, "class_name": "Ones"}, "axis": 3, "moving_mean_initializer": {"config": {}, "class_name": "Zeros"}, "beta_constraint": null, "center": true, "trainable": true, "momentum": 0.99, "beta_regularizer": null, "gamma_constraint": null, "scale": true, "name": "batch_normalization_63", "epsilon": 0.001, "gamma_regularizer": null}, "inbound_nodes": [[["conv2d_63", 0, 0, {}]]], "class_name": "BatchNormalization"}, {"name": "batch_normalization_68", "config": {"beta_initializer": {"config": {}, "class_name": "Zeros"}, "moving_variance_initializer": {"config": {}, "class_name": "Ones"}, "gamma_initializer": {"config": {}, "class_name": "Ones"}, "axis": 3, "moving_mean_initializer": {"config": {}, "class_name": "Zeros"}, "beta_constraint": null, "center": true, "trainable": true, "momentum": 0.99, "beta_regularizer": null, "gamma_constraint": null, "scale": true, "name": "batch_normalization_68", "epsilon": 0.001, "gamma_regularizer": null}, "inbound_nodes": [[["conv2d_68", 0, 0, {}]]], "class_name": "BatchNormalization"}, {"name": "average_pooling2d_7", "config": {"strides": [1, 1], "trainable": true, "data_format": "channels_last", "padding": "same", "name": "average_pooling2d_7", "pool_size": [3, 3]}, "inbound_nodes": [[["mixed6", 0, 0, {}]]], "class_name": "AveragePooling2D"}, {"name": "conv2d_61", "config": {"strides": [1, 1], "bias_constraint": null, "data_format": "channels_last", "use_bias": true, "kernel_size": [1, 1], "bias_initializer": {"config": {}, "class_name": "Zeros"}, "kernel_regularizer": null, "name": "conv2d_61", "filters": 96, "activation": "relu", "trainable": true, "bias_regularizer": null, "padding": "same", "kernel_constraint": null, "activity_regularizer": null, "kernel_initializer": {"config": {"mode": "fan_avg", "scale": 1.0, "distribution": "uniform", "seed": null}, "class_name": "VarianceScaling"}, "dilation_rate": [1, 1]}, "inbound_nodes": [[["mixed6", 0, 0, {}]]], "class_name": "Conv2D"}, {"name": "conv2d_64", "config": {"strides": [1, 1], "bias_constraint": null, "data_format": "channels_last", "use_bias": true, "kernel_size": [7, 1], "bias_initializer": {"config": {}, "class_name": "Zeros"}, "kernel_regularizer": null, "name": "conv2d_64", "filters": 96, "activation": "relu", "trainable": true, "bias_regularizer": null, "padding": "same", "kernel_constraint": null, "activity_regularizer": null, "kernel_initializer": {"config": {"mode": "fan_avg", "scale": 1.0, "distribution": "uniform", "seed": null}, "class_name": "VarianceScaling"}, "dilation_rate": [1, 1]}, "inbound_nodes": [[["batch_normalization_63", 0, 0, {}]]], "class_name": "Conv2D"}, {"name": "conv2d_69", "config": {"strides": [1, 1], "bias_constraint": null, "data_format": "channels_last", "use_bias": true, "kernel_size": [1, 7], "bias_initializer": {"config": {}, "class_name": "Zeros"}, "kernel_regularizer": null, "name": "conv2d_69", "filters": 96, "activation": "relu", "trainable": true, "bias_regularizer": null, "padding": "same", "kernel_constraint": null, "activity_regularizer": null, "kernel_initializer": {"config": {"mode": "fan_avg", "scale": 1.0, "distribution": "uniform", "seed": null}, "class_name": "VarianceScaling"}, "dilation_rate": [1, 1]}, "inbound_nodes": [[["batch_normalization_68", 0, 0, {}]]], "class_name": "Conv2D"}, {"name": "conv2d_70", "config": {"strides": [1, 1], "bias_constraint": null, "data_format": "channels_last", "use_bias": true, "kernel_size": [1, 1], "bias_initializer": {"config": {}, "class_name": "Zeros"}, "kernel_regularizer": null, "name": "conv2d_70", "filters": 96, "activation": "relu", "trainable": true, "bias_regularizer": null, "padding": "same", "kernel_constraint": null, "activity_regularizer": null, "kernel_initializer": {"config": {"mode": "fan_avg", "scale": 1.0, "distribution": "uniform", "seed": null}, "class_name": "VarianceScaling"}, "dilation_rate": [1, 1]}, "inbound_nodes": [[["average_pooling2d_7", 0, 0, {}]]], "class_name": "Conv2D"}, {"name": "batch_normalization_61", "config": {"beta_initializer": {"config": {}, "class_name": "Zeros"}, "moving_variance_initializer": {"config": {}, "class_name": "Ones"}, "gamma_initializer": {"config": {}, "class_name": "Ones"}, "axis": 3, "moving_mean_initializer": {"config": {}, "class_name": "Zeros"}, "beta_constraint": null, "center": true, "trainable": true, "momentum": 0.99, "beta_regularizer": null, "gamma_constraint": null, "scale": true, "name": "batch_normalization_61", "epsilon": 0.001, "gamma_regularizer": null}, "inbound_nodes": [[["conv2d_61", 0, 0, {}]]], "class_name": "BatchNormalization"}, {"name": "batch_normalization_64", "config": {"beta_initializer": {"config": {}, "class_name": "Zeros"}, "moving_variance_initializer": {"config": {}, "class_name": "Ones"}, "gamma_initializer": {"config": {}, "class_name": "Ones"}, "axis": 3, "moving_mean_initializer": {"config": {}, "class_name": "Zeros"}, "beta_constraint": null, "center": true, "trainable": true, "momentum": 0.99, "beta_regularizer": null, "gamma_constraint": null, "scale": true, "name": "batch_normalization_64", "epsilon": 0.001, "gamma_regularizer": null}, "inbound_nodes": [[["conv2d_64", 0, 0, {}]]], "class_name": "BatchNormalization"}, {"name": "batch_normalization_69", "config": {"beta_initializer": {"config": {}, "class_name": "Zeros"}, "moving_variance_initializer": {"config": {}, "class_name": "Ones"}, "gamma_initializer": {"config": {}, "class_name": "Ones"}, "axis": 3, "moving_mean_initializer": {"config": {}, "class_name": "Zeros"}, "beta_constraint": null, "center": true, "trainable": true, "momentum": 0.99, "beta_regularizer": null, "gamma_constraint": null, "scale": true, "name": "batch_normalization_69", "epsilon": 0.001, "gamma_regularizer": null}, "inbound_nodes": [[["conv2d_69", 0, 0, {}]]], "class_name": "BatchNormalization"}, {"name": "batch_normalization_70", "config": {"beta_initializer": {"config": {}, "class_name": "Zeros"}, "moving_variance_initializer": {"config": {}, "class_name": "Ones"}, "gamma_initializer": {"config": {}, "class_name": "Ones"}, "axis": 3, "moving_mean_initializer": {"config": {}, "class_name": "Zeros"}, "beta_constraint": null, "center": true, "trainable": true, "momentum": 0.99, "beta_regularizer": null, "gamma_constraint": null, "scale": true, "name": "batch_normalization_70", "epsilon": 0.001, "gamma_regularizer": null}, "inbound_nodes": [[["conv2d_70", 0, 0, {}]]], "class_name": "BatchNormalization"}, {"name": "mixed7", "config": {"name": "mixed7", "axis": -1, "trainable": true}, "inbound_nodes": [[["batch_normalization_61", 0, 0, {}], ["batch_normalization_64", 0, 0, {}], ["batch_normalization_69", 0, 0, {}], ["batch_normalization_70", 0, 0, {}]]], "class_name": "Concatenate"}, {"name": "conv2d_73", "config": {"strides": [1, 1], "bias_constraint": null, "data_format": "channels_last", "use_bias": true, "kernel_size": [1, 1], "bias_initializer": {"config": {}, "class_name": "Zeros"}, "kernel_regularizer": null, "name": "conv2d_73", "filters": 96, "activation": "relu", "trainable": true, "bias_regularizer": null, "padding": "same", "kernel_constraint": null, "activity_regularizer": null, "kernel_initializer": {"config": {"mode": "fan_avg", "scale": 1.0, "distribution": "uniform", "seed": null}, "class_name": "VarianceScaling"}, "dilation_rate": [1, 1]}, "inbound_nodes": [[["mixed7", 0, 0, {}]]], "class_name": "Conv2D"}, {"name": "batch_normalization_73", "config": {"beta_initializer": {"config": {}, "class_name": "Zeros"}, "moving_variance_initializer": {"config": {}, "class_name": "Ones"}, "gamma_initializer": {"config": {}, "class_name": "Ones"}, "axis": 3, "moving_mean_initializer": {"config": {}, "class_name": "Zeros"}, "beta_constraint": null, "center": true, "trainable": true, "momentum": 0.99, "beta_regularizer": null, "gamma_constraint": null, "scale": true, "name": "batch_normalization_73", "epsilon": 0.001, "gamma_regularizer": null}, "inbound_nodes": [[["conv2d_73", 0, 0, {}]]], "class_name": "BatchNormalization"}, {"name": "conv2d_74", "config": {"strides": [1, 1], "bias_constraint": null, "data_format": "channels_last", "use_bias": true, "kernel_size": [1, 7], "bias_initializer": {"config": {}, "class_name": "Zeros"}, "kernel_regularizer": null, "name": "conv2d_74", "filters": 96, "activation": "relu", "trainable": true, "bias_regularizer": null, "padding": "same", "kernel_constraint": null, "activity_regularizer": null, "kernel_initializer": {"config": {"mode": "fan_avg", "scale": 1.0, "distribution": "uniform", "seed": null}, "class_name": "VarianceScaling"}, "dilation_rate": [1, 1]}, "inbound_nodes": [[["batch_normalization_73", 0, 0, {}]]], "class_name": "Conv2D"}, {"name": "batch_normalization_74", "config": {"beta_initializer": {"config": {}, "class_name": "Zeros"}, "moving_variance_initializer": {"config": {}, "class_name": "Ones"}, "gamma_initializer": {"config": {}, "class_name": "Ones"}, "axis": 3, "moving_mean_initializer": {"config": {}, "class_name": "Zeros"}, "beta_constraint": null, "center": true, "trainable": true, "momentum": 0.99, "beta_regularizer": null, "gamma_constraint": null, "scale": true, "name": "batch_normalization_74", "epsilon": 0.001, "gamma_regularizer": null}, "inbound_nodes": [[["conv2d_74", 0, 0, {}]]], "class_name": "BatchNormalization"}, {"name": "conv2d_71", "config": {"strides": [1, 1], "bias_constraint": null, "data_format": "channels_last", "use_bias": true, "kernel_size": [1, 1], "bias_initializer": {"config": {}, "class_name": "Zeros"}, "kernel_regularizer": null, "name": "conv2d_71", "filters": 96, "activation": "relu", "trainable": true, "bias_regularizer": null, "padding": "same", "kernel_constraint": null, "activity_regularizer": null, "kernel_initializer": {"config": {"mode": "fan_avg", "scale": 1.0, "distribution": "uniform", "seed": null}, "class_name": "VarianceScaling"}, "dilation_rate": [1, 1]}, "inbound_nodes": [[["mixed7", 0, 0, {}]]], "class_name": "Conv2D"}, {"name": "conv2d_75", "config": {"strides": [1, 1], "bias_constraint": null, "data_format": "channels_last", "use_bias": true, "kernel_size": [7, 1], "bias_initializer": {"config": {}, "class_name": "Zeros"}, "kernel_regularizer": null, "name": "conv2d_75", "filters": 96, "activation": "relu", "trainable": true, "bias_regularizer": null, "padding": "same", "kernel_constraint": null, "activity_regularizer": null, "kernel_initializer": {"config": {"mode": "fan_avg", "scale": 1.0, "distribution": "uniform", "seed": null}, "class_name": "VarianceScaling"}, "dilation_rate": [1, 1]}, "inbound_nodes": [[["batch_normalization_74", 0, 0, {}]]], "class_name": "Conv2D"}, {"name": "batch_normalization_71", "config": {"beta_initializer": {"config": {}, "class_name": "Zeros"}, "moving_variance_initializer": {"config": {}, "class_name": "Ones"}, "gamma_initializer": {"config": {}, "class_name": "Ones"}, "axis": 3, "moving_mean_initializer": {"config": {}, "class_name": "Zeros"}, "beta_constraint": null, "center": true, "trainable": true, "momentum": 0.99, "beta_regularizer": null, "gamma_constraint": null, "scale": true, "name": "batch_normalization_71", "epsilon": 0.001, "gamma_regularizer": null}, "inbound_nodes": [[["conv2d_71", 0, 0, {}]]], "class_name": "BatchNormalization"}, {"name": "batch_normalization_75", "config": {"beta_initializer": {"config": {}, "class_name": "Zeros"}, "moving_variance_initializer": {"config": {}, "class_name": "Ones"}, "gamma_initializer": {"config": {}, "class_name": "Ones"}, "axis": 3, "moving_mean_initializer": {"config": {}, "class_name": "Zeros"}, "beta_constraint": null, "center": true, "trainable": true, "momentum": 0.99, "beta_regularizer": null, "gamma_constraint": null, "scale": true, "name": "batch_normalization_75", "epsilon": 0.001, "gamma_regularizer": null}, "inbound_nodes": [[["conv2d_75", 0, 0, {}]]], "class_name": "BatchNormalization"}, {"name": "conv2d_72", "config": {"strides": [2, 2], "bias_constraint": null, "data_format": "channels_last", "use_bias": true, "kernel_size": [3, 3], "bias_initializer": {"config": {}, "class_name": "Zeros"}, "kernel_regularizer": null, "name": "conv2d_72", "filters": 160, "activation": "relu", "trainable": true, "bias_regularizer": null, "padding": "valid", "kernel_constraint": null, "activity_regularizer": null, "kernel_initializer": {"config": {"mode": "fan_avg", "scale": 1.0, "distribution": "uniform", "seed": null}, "class_name": "VarianceScaling"}, "dilation_rate": [1, 1]}, "inbound_nodes": [[["batch_normalization_71", 0, 0, {}]]], "class_name": "Conv2D"}, {"name": "conv2d_76", "config": {"strides": [2, 2], "bias_constraint": null, "data_format": "channels_last", "use_bias": true, "kernel_size": [3, 3], "bias_initializer": {"config": {}, "class_name": "Zeros"}, "kernel_regularizer": null, "name": "conv2d_76", "filters": 96, "activation": "relu", "trainable": true, "bias_regularizer": null, "padding": "valid", "kernel_constraint": null, "activity_regularizer": null, "kernel_initializer": {"config": {"mode": "fan_avg", "scale": 1.0, "distribution": "uniform", "seed": null}, "class_name": "VarianceScaling"}, "dilation_rate": [1, 1]}, "inbound_nodes": [[["batch_normalization_75", 0, 0, {}]]], "class_name": "Conv2D"}, {"name": "batch_normalization_72", "config": {"beta_initializer": {"config": {}, "class_name": "Zeros"}, "moving_variance_initializer": {"config": {}, "class_name": "Ones"}, "gamma_initializer": {"config": {}, "class_name": "Ones"}, "axis": 3, "moving_mean_initializer": {"config": {}, "class_name": "Zeros"}, "beta_constraint": null, "center": true, "trainable": true, "momentum": 0.99, "beta_regularizer": null, "gamma_constraint": null, "scale": true, "name": "batch_normalization_72", "epsilon": 0.001, "gamma_regularizer": null}, "inbound_nodes": [[["conv2d_72", 0, 0, {}]]], "class_name": "BatchNormalization"}, {"name": "batch_normalization_76", "config": {"beta_initializer": {"config": {}, "class_name": "Zeros"}, "moving_variance_initializer": {"config": {}, "class_name": "Ones"}, "gamma_initializer": {"config": {}, "class_name": "Ones"}, "axis": 3, "moving_mean_initializer": {"config": {}, "class_name": "Zeros"}, "beta_constraint": null, "center": true, "trainable": true, "momentum": 0.99, "beta_regularizer": null, "gamma_constraint": null, "scale": true, "name": "batch_normalization_76", "epsilon": 0.001, "gamma_regularizer": null}, "inbound_nodes": [[["conv2d_76", 0, 0, {}]]], "class_name": "BatchNormalization"}, {"name": "average_pooling2d_8", "config": {"strides": [2, 2], "trainable": true, "data_format": "channels_last", "padding": "valid", "name": "average_pooling2d_8", "pool_size": [3, 3]}, "inbound_nodes": [[["mixed7", 0, 0, {}]]], "class_name": "AveragePooling2D"}, {"name": "mixed8", "config": {"name": "mixed8", "axis": -1, "trainable": true}, "inbound_nodes": [[["batch_normalization_72", 0, 0, {}], ["batch_normalization_76", 0, 0, {}], ["average_pooling2d_8", 0, 0, {}]]], "class_name": "Concatenate"}, {"name": "conv2d_81", "config": {"strides": [1, 1], "bias_constraint": null, "data_format": "channels_last", "use_bias": true, "kernel_size": [1, 1], "bias_initializer": {"config": {}, "class_name": "Zeros"}, "kernel_regularizer": null, "name": "conv2d_81", "filters": 224, "activation": "relu", "trainable": true, "bias_regularizer": null, "padding": "same", "kernel_constraint": null, "activity_regularizer": null, "kernel_initializer": {"config": {"mode": "fan_avg", "scale": 1.0, "distribution": "uniform", "seed": null}, "class_name": "VarianceScaling"}, "dilation_rate": [1, 1]}, "inbound_nodes": [[["mixed8", 0, 0, {}]]], "class_name": "Conv2D"}, {"name": "batch_normalization_81", "config": {"beta_initializer": {"config": {}, "class_name": "Zeros"}, "moving_variance_initializer": {"config": {}, "class_name": "Ones"}, "gamma_initializer": {"config": {}, "class_name": "Ones"}, "axis": 3, "moving_mean_initializer": {"config": {}, "class_name": "Zeros"}, "beta_constraint": null, "center": true, "trainable": true, "momentum": 0.99, "beta_regularizer": null, "gamma_constraint": null, "scale": true, "name": "batch_normalization_81", "epsilon": 0.001, "gamma_regularizer": null}, "inbound_nodes": [[["conv2d_81", 0, 0, {}]]], "class_name": "BatchNormalization"}, {"name": "conv2d_78", "config": {"strides": [1, 1], "bias_constraint": null, "data_format": "channels_last", "use_bias": true, "kernel_size": [1, 1], "bias_initializer": {"config": {}, "class_name": "Zeros"}, "kernel_regularizer": null, "name": "conv2d_78", "filters": 192, "activation": "relu", "trainable": true, "bias_regularizer": null, "padding": "same", "kernel_constraint": null, "activity_regularizer": null, "kernel_initializer": {"config": {"mode": "fan_avg", "scale": 1.0, "distribution": "uniform", "seed": null}, "class_name": "VarianceScaling"}, "dilation_rate": [1, 1]}, "inbound_nodes": [[["mixed8", 0, 0, {}]]], "class_name": "Conv2D"}, {"name": "conv2d_82", "config": {"strides": [1, 1], "bias_constraint": null, "data_format": "channels_last", "use_bias": true, "kernel_size": [3, 3], "bias_initializer": {"config": {}, "class_name": "Zeros"}, "kernel_regularizer": null, "name": "conv2d_82", "filters": 192, "activation": "relu", "trainable": true, "bias_regularizer": null, "padding": "same", "kernel_constraint": null, "activity_regularizer": null, "kernel_initializer": {"config": {"mode": "fan_avg", "scale": 1.0, "distribution": "uniform", "seed": null}, "class_name": "VarianceScaling"}, "dilation_rate": [1, 1]}, "inbound_nodes": [[["batch_normalization_81", 0, 0, {}]]], "class_name": "Conv2D"}, {"name": "batch_normalization_78", "config": {"beta_initializer": {"config": {}, "class_name": "Zeros"}, "moving_variance_initializer": {"config": {}, "class_name": "Ones"}, "gamma_initializer": {"config": {}, "class_name": "Ones"}, "axis": 3, "moving_mean_initializer": {"config": {}, "class_name": "Zeros"}, "beta_constraint": null, "center": true, "trainable": true, "momentum": 0.99, "beta_regularizer": null, "gamma_constraint": null, "scale": true, "name": "batch_normalization_78", "epsilon": 0.001, "gamma_regularizer": null}, "inbound_nodes": [[["conv2d_78", 0, 0, {}]]], "class_name": "BatchNormalization"}, {"name": "batch_normalization_82", "config": {"beta_initializer": {"config": {}, "class_name": "Zeros"}, "moving_variance_initializer": {"config": {}, "class_name": "Ones"}, "gamma_initializer": {"config": {}, "class_name": "Ones"}, "axis": 3, "moving_mean_initializer": {"config": {}, "class_name": "Zeros"}, "beta_constraint": null, "center": true, "trainable": true, "momentum": 0.99, "beta_regularizer": null, "gamma_constraint": null, "scale": true, "name": "batch_normalization_82", "epsilon": 0.001, "gamma_regularizer": null}, "inbound_nodes": [[["conv2d_82", 0, 0, {}]]], "class_name": "BatchNormalization"}, {"name": "conv2d_79", "config": {"strides": [1, 1], "bias_constraint": null, "data_format": "channels_last", "use_bias": true, "kernel_size": [1, 3], "bias_initializer": {"config": {}, "class_name": "Zeros"}, "kernel_regularizer": null, "name": "conv2d_79", "filters": 192, "activation": "relu", "trainable": true, "bias_regularizer": null, "padding": "same", "kernel_constraint": null, "activity_regularizer": null, "kernel_initializer": {"config": {"mode": "fan_avg", "scale": 1.0, "distribution": "uniform", "seed": null}, "class_name": "VarianceScaling"}, "dilation_rate": [1, 1]}, "inbound_nodes": [[["batch_normalization_78", 0, 0, {}]]], "class_name": "Conv2D"}, {"name": "conv2d_80", "config": {"strides": [1, 1], "bias_constraint": null, "data_format": "channels_last", "use_bias": true, "kernel_size": [3, 1], "bias_initializer": {"config": {}, "class_name": "Zeros"}, "kernel_regularizer": null, "name": "conv2d_80", "filters": 192, "activation": "relu", "trainable": true, "bias_regularizer": null, "padding": "same", "kernel_constraint": null, "activity_regularizer": null, "kernel_initializer": {"config": {"mode": "fan_avg", "scale": 1.0, "distribution": "uniform", "seed": null}, "class_name": "VarianceScaling"}, "dilation_rate": [1, 1]}, "inbound_nodes": [[["batch_normalization_78", 0, 0, {}]]], "class_name": "Conv2D"}, {"name": "conv2d_83", "config": {"strides": [1, 1], "bias_constraint": null, "data_format": "channels_last", "use_bias": true, "kernel_size": [1, 3], "bias_initializer": {"config": {}, "class_name": "Zeros"}, "kernel_regularizer": null, "name": "conv2d_83", "filters": 192, "activation": "relu", "trainable": true, "bias_regularizer": null, "padding": "same", "kernel_constraint": null, "activity_regularizer": null, "kernel_initializer": {"config": {"mode": "fan_avg", "scale": 1.0, "distribution": "uniform", "seed": null}, "class_name": "VarianceScaling"}, "dilation_rate": [1, 1]}, "inbound_nodes": [[["batch_normalization_82", 0, 0, {}]]], "class_name": "Conv2D"}, {"name": "conv2d_84", "config": {"strides": [1, 1], "bias_constraint": null, "data_format": "channels_last", "use_bias": true, "kernel_size": [3, 1], "bias_initializer": {"config": {}, "class_name": "Zeros"}, "kernel_regularizer": null, "name": "conv2d_84", "filters": 192, "activation": "relu", "trainable": true, "bias_regularizer": null, "padding": "same", "kernel_constraint": null, "activity_regularizer": null, "kernel_initializer": {"config": {"mode": "fan_avg", "scale": 1.0, "distribution": "uniform", "seed": null}, "class_name": "VarianceScaling"}, "dilation_rate": [1, 1]}, "inbound_nodes": [[["batch_normalization_82", 0, 0, {}]]], "class_name": "Conv2D"}, {"name": "average_pooling2d_9", "config": {"strides": [1, 1], "trainable": true, "data_format": "channels_last", "padding": "same", "name": "average_pooling2d_9", "pool_size": [3, 3]}, "inbound_nodes": [[["mixed8", 0, 0, {}]]], "class_name": "AveragePooling2D"}, {"name": "conv2d_77", "config": {"strides": [1, 1], "bias_constraint": null, "data_format": "channels_last", "use_bias": true, "kernel_size": [1, 1], "bias_initializer": {"config": {}, "class_name": "Zeros"}, "kernel_regularizer": null, "name": "conv2d_77", "filters": 160, "activation": "relu", "trainable": true, "bias_regularizer": null, "padding": "same", "kernel_constraint": null, "activity_regularizer": null, "kernel_initializer": {"config": {"mode": "fan_avg", "scale": 1.0, "distribution": "uniform", "seed": null}, "class_name": "VarianceScaling"}, "dilation_rate": [1, 1]}, "inbound_nodes": [[["mixed8", 0, 0, {}]]], "class_name": "Conv2D"}, {"name": "batch_normalization_79", "config": {"beta_initializer": {"config": {}, "class_name": "Zeros"}, "moving_variance_initializer": {"config": {}, "class_name": "Ones"}, "gamma_initializer": {"config": {}, "class_name": "Ones"}, "axis": 3, "moving_mean_initializer": {"config": {}, "class_name": "Zeros"}, "beta_constraint": null, "center": true, "trainable": true, "momentum": 0.99, "beta_regularizer": null, "gamma_constraint": null, "scale": true, "name": "batch_normalization_79", "epsilon": 0.001, "gamma_regularizer": null}, "inbound_nodes": [[["conv2d_79", 0, 0, {}]]], "class_name": "BatchNormalization"}, {"name": "batch_normalization_80", "config": {"beta_initializer": {"config": {}, "class_name": "Zeros"}, "moving_variance_initializer": {"config": {}, "class_name": "Ones"}, "gamma_initializer": {"config": {}, "class_name": "Ones"}, "axis": 3, "moving_mean_initializer": {"config": {}, "class_name": "Zeros"}, "beta_constraint": null, "center": true, "trainable": true, "momentum": 0.99, "beta_regularizer": null, "gamma_constraint": null, "scale": true, "name": "batch_normalization_80", "epsilon": 0.001, "gamma_regularizer": null}, "inbound_nodes": [[["conv2d_80", 0, 0, {}]]], "class_name": "BatchNormalization"}, {"name": "batch_normalization_83", "config": {"beta_initializer": {"config": {}, "class_name": "Zeros"}, "moving_variance_initializer": {"config": {}, "class_name": "Ones"}, "gamma_initializer": {"config": {}, "class_name": "Ones"}, "axis": 3, "moving_mean_initializer": {"config": {}, "class_name": "Zeros"}, "beta_constraint": null, "center": true, "trainable": true, "momentum": 0.99, "beta_regularizer": null, "gamma_constraint": null, "scale": true, "name": "batch_normalization_83", "epsilon": 0.001, "gamma_regularizer": null}, "inbound_nodes": [[["conv2d_83", 0, 0, {}]]], "class_name": "BatchNormalization"}, {"name": "batch_normalization_84", "config": {"beta_initializer": {"config": {}, "class_name": "Zeros"}, "moving_variance_initializer": {"config": {}, "class_name": "Ones"}, "gamma_initializer": {"config": {}, "class_name": "Ones"}, "axis": 3, "moving_mean_initializer": {"config": {}, "class_name": "Zeros"}, "beta_constraint": null, "center": true, "trainable": true, "momentum": 0.99, "beta_regularizer": null, "gamma_constraint": null, "scale": true, "name": "batch_normalization_84", "epsilon": 0.001, "gamma_regularizer": null}, "inbound_nodes": [[["conv2d_84", 0, 0, {}]]], "class_name": "BatchNormalization"}, {"name": "conv2d_85", "config": {"strides": [1, 1], "bias_constraint": null, "data_format": "channels_last", "use_bias": true, "kernel_size": [1, 1], "bias_initializer": {"config": {}, "class_name": "Zeros"}, "kernel_regularizer": null, "name": "conv2d_85", "filters": 96, "activation": "relu", "trainable": true, "bias_regularizer": null, "padding": "same", "kernel_constraint": null, "activity_regularizer": null, "kernel_initializer": {"config": {"mode": "fan_avg", "scale": 1.0, "distribution": "uniform", "seed": null}, "class_name": "VarianceScaling"}, "dilation_rate": [1, 1]}, "inbound_nodes": [[["average_pooling2d_9", 0, 0, {}]]], "class_name": "Conv2D"}, {"name": "batch_normalization_77", "config": {"beta_initializer": {"config": {}, "class_name": "Zeros"}, "moving_variance_initializer": {"config": {}, "class_name": "Ones"}, "gamma_initializer": {"config": {}, "class_name": "Ones"}, "axis": 3, "moving_mean_initializer": {"config": {}, "class_name": "Zeros"}, "beta_constraint": null, "center": true, "trainable": true, "momentum": 0.99, "beta_regularizer": null, "gamma_constraint": null, "scale": true, "name": "batch_normalization_77", "epsilon": 0.001, "gamma_regularizer": null}, "inbound_nodes": [[["conv2d_77", 0, 0, {}]]], "class_name": "BatchNormalization"}, {"name": "mixed9_0", "config": {"name": "mixed9_0", "axis": -1, "trainable": true}, "inbound_nodes": [[["batch_normalization_79", 0, 0, {}], ["batch_normalization_80", 0, 0, {}]]], "class_name": "Concatenate"}, {"name": "concatenate_1", "config": {"name": "concatenate_1", "axis": -1, "trainable": true}, "inbound_nodes": [[["batch_normalization_83", 0, 0, {}], ["batch_normalization_84", 0, 0, {}]]], "class_name": "Concatenate"}, {"name": "batch_normalization_85", "config": {"beta_initializer": {"config": {}, "class_name": "Zeros"}, "moving_variance_initializer": {"config": {}, "class_name": "Ones"}, "gamma_initializer": {"config": {}, "class_name": "Ones"}, "axis": 3, "moving_mean_initializer": {"config": {}, "class_name": "Zeros"}, "beta_constraint": null, "center": true, "trainable": true, "momentum": 0.99, "beta_regularizer": null, "gamma_constraint": null, "scale": true, "name": "batch_normalization_85", "epsilon": 0.001, "gamma_regularizer": null}, "inbound_nodes": [[["conv2d_85", 0, 0, {}]]], "class_name": "BatchNormalization"}, {"name": "mixed9", "config": {"name": "mixed9", "axis": -1, "trainable": true}, "inbound_nodes": [[["batch_normalization_77", 0, 0, {}], ["mixed9_0", 0, 0, {}], ["concatenate_1", 0, 0, {}], ["batch_normalization_85", 0, 0, {}]]], "class_name": "Concatenate"}, {"name": "conv2d_90", "config": {"strides": [1, 1], "bias_constraint": null, "data_format": "channels_last", "use_bias": true, "kernel_size": [1, 1], "bias_initializer": {"config": {}, "class_name": "Zeros"}, "kernel_regularizer": null, "name": "conv2d_90", "filters": 224, "activation": "relu", "trainable": true, "bias_regularizer": null, "padding": "same", "kernel_constraint": null, "activity_regularizer": null, "kernel_initializer": {"config": {"mode": "fan_avg", "scale": 1.0, "distribution": "uniform", "seed": null}, "class_name": "VarianceScaling"}, "dilation_rate": [1, 1]}, "inbound_nodes": [[["mixed9", 0, 0, {}]]], "class_name": "Conv2D"}, {"name": "batch_normalization_90", "config": {"beta_initializer": {"config": {}, "class_name": "Zeros"}, "moving_variance_initializer": {"config": {}, "class_name": "Ones"}, "gamma_initializer": {"config": {}, "class_name": "Ones"}, "axis": 3, "moving_mean_initializer": {"config": {}, "class_name": "Zeros"}, "beta_constraint": null, "center": true, "trainable": true, "momentum": 0.99, "beta_regularizer": null, "gamma_constraint": null, "scale": true, "name": "batch_normalization_90", "epsilon": 0.001, "gamma_regularizer": null}, "inbound_nodes": [[["conv2d_90", 0, 0, {}]]], "class_name": "BatchNormalization"}, {"name": "conv2d_87", "config": {"strides": [1, 1], "bias_constraint": null, "data_format": "channels_last", "use_bias": true, "kernel_size": [1, 1], "bias_initializer": {"config": {}, "class_name": "Zeros"}, "kernel_regularizer": null, "name": "conv2d_87", "filters": 192, "activation": "relu", "trainable": true, "bias_regularizer": null, "padding": "same", "kernel_constraint": null, "activity_regularizer": null, "kernel_initializer": {"config": {"mode": "fan_avg", "scale": 1.0, "distribution": "uniform", "seed": null}, "class_name": "VarianceScaling"}, "dilation_rate": [1, 1]}, "inbound_nodes": [[["mixed9", 0, 0, {}]]], "class_name": "Conv2D"}, {"name": "conv2d_91", "config": {"strides": [1, 1], "bias_constraint": null, "data_format": "channels_last", "use_bias": true, "kernel_size": [3, 3], "bias_initializer": {"config": {}, "class_name": "Zeros"}, "kernel_regularizer": null, "name": "conv2d_91", "filters": 192, "activation": "relu", "trainable": true, "bias_regularizer": null, "padding": "same", "kernel_constraint": null, "activity_regularizer": null, "kernel_initializer": {"config": {"mode": "fan_avg", "scale": 1.0, "distribution": "uniform", "seed": null}, "class_name": "VarianceScaling"}, "dilation_rate": [1, 1]}, "inbound_nodes": [[["batch_normalization_90", 0, 0, {}]]], "class_name": "Conv2D"}, {"name": "batch_normalization_87", "config": {"beta_initializer": {"config": {}, "class_name": "Zeros"}, "moving_variance_initializer": {"config": {}, "class_name": "Ones"}, "gamma_initializer": {"config": {}, "class_name": "Ones"}, "axis": 3, "moving_mean_initializer": {"config": {}, "class_name": "Zeros"}, "beta_constraint": null, "center": true, "trainable": true, "momentum": 0.99, "beta_regularizer": null, "gamma_constraint": null, "scale": true, "name": "batch_normalization_87", "epsilon": 0.001, "gamma_regularizer": null}, "inbound_nodes": [[["conv2d_87", 0, 0, {}]]], "class_name": "BatchNormalization"}, {"name": "batch_normalization_91", "config": {"beta_initializer": {"config": {}, "class_name": "Zeros"}, "moving_variance_initializer": {"config": {}, "class_name": "Ones"}, "gamma_initializer": {"config": {}, "class_name": "Ones"}, "axis": 3, "moving_mean_initializer": {"config": {}, "class_name": "Zeros"}, "beta_constraint": null, "center": true, "trainable": true, "momentum": 0.99, "beta_regularizer": null, "gamma_constraint": null, "scale": true, "name": "batch_normalization_91", "epsilon": 0.001, "gamma_regularizer": null}, "inbound_nodes": [[["conv2d_91", 0, 0, {}]]], "class_name": "BatchNormalization"}, {"name": "conv2d_88", "config": {"strides": [1, 1], "bias_constraint": null, "data_format": "channels_last", "use_bias": true, "kernel_size": [1, 3], "bias_initializer": {"config": {}, "class_name": "Zeros"}, "kernel_regularizer": null, "name": "conv2d_88", "filters": 192, "activation": "relu", "trainable": true, "bias_regularizer": null, "padding": "same", "kernel_constraint": null, "activity_regularizer": null, "kernel_initializer": {"config": {"mode": "fan_avg", "scale": 1.0, "distribution": "uniform", "seed": null}, "class_name": "VarianceScaling"}, "dilation_rate": [1, 1]}, "inbound_nodes": [[["batch_normalization_87", 0, 0, {}]]], "class_name": "Conv2D"}, {"name": "conv2d_89", "config": {"strides": [1, 1], "bias_constraint": null, "data_format": "channels_last", "use_bias": true, "kernel_size": [3, 1], "bias_initializer": {"config": {}, "class_name": "Zeros"}, "kernel_regularizer": null, "name": "conv2d_89", "filters": 192, "activation": "relu", "trainable": true, "bias_regularizer": null, "padding": "same", "kernel_constraint": null, "activity_regularizer": null, "kernel_initializer": {"config": {"mode": "fan_avg", "scale": 1.0, "distribution": "uniform", "seed": null}, "class_name": "VarianceScaling"}, "dilation_rate": [1, 1]}, "inbound_nodes": [[["batch_normalization_87", 0, 0, {}]]], "class_name": "Conv2D"}, {"name": "conv2d_92", "config": {"strides": [1, 1], "bias_constraint": null, "data_format": "channels_last", "use_bias": true, "kernel_size": [1, 3], "bias_initializer": {"config": {}, "class_name": "Zeros"}, "kernel_regularizer": null, "name": "conv2d_92", "filters": 192, "activation": "relu", "trainable": true, "bias_regularizer": null, "padding": "same", "kernel_constraint": null, "activity_regularizer": null, "kernel_initializer": {"config": {"mode": "fan_avg", "scale": 1.0, "distribution": "uniform", "seed": null}, "class_name": "VarianceScaling"}, "dilation_rate": [1, 1]}, "inbound_nodes": [[["batch_normalization_91", 0, 0, {}]]], "class_name": "Conv2D"}, {"name": "conv2d_93", "config": {"strides": [1, 1], "bias_constraint": null, "data_format": "channels_last", "use_bias": true, "kernel_size": [3, 1], "bias_initializer": {"config": {}, "class_name": "Zeros"}, "kernel_regularizer": null, "name": "conv2d_93", "filters": 192, "activation": "relu", "trainable": true, "bias_regularizer": null, "padding": "same", "kernel_constraint": null, "activity_regularizer": null, "kernel_initializer": {"config": {"mode": "fan_avg", "scale": 1.0, "distribution": "uniform", "seed": null}, "class_name": "VarianceScaling"}, "dilation_rate": [1, 1]}, "inbound_nodes": [[["batch_normalization_91", 0, 0, {}]]], "class_name": "Conv2D"}, {"name": "average_pooling2d_10", "config": {"strides": [1, 1], "trainable": true, "data_format": "channels_last", "padding": "same", "name": "average_pooling2d_10", "pool_size": [3, 3]}, "inbound_nodes": [[["mixed9", 0, 0, {}]]], "class_name": "AveragePooling2D"}, {"name": "conv2d_86", "config": {"strides": [1, 1], "bias_constraint": null, "data_format": "channels_last", "use_bias": true, "kernel_size": [1, 1], "bias_initializer": {"config": {}, "class_name": "Zeros"}, "kernel_regularizer": null, "name": "conv2d_86", "filters": 160, "activation": "relu", "trainable": true, "bias_regularizer": null, "padding": "same", "kernel_constraint": null, "activity_regularizer": null, "kernel_initializer": {"config": {"mode": "fan_avg", "scale": 1.0, "distribution": "uniform", "seed": null}, "class_name": "VarianceScaling"}, "dilation_rate": [1, 1]}, "inbound_nodes": [[["mixed9", 0, 0, {}]]], "class_name": "Conv2D"}, {"name": "batch_normalization_88", "config": {"beta_initializer": {"config": {}, "class_name": "Zeros"}, "moving_variance_initializer": {"config": {}, "class_name": "Ones"}, "gamma_initializer": {"config": {}, "class_name": "Ones"}, "axis": 3, "moving_mean_initializer": {"config": {}, "class_name": "Zeros"}, "beta_constraint": null, "center": true, "trainable": true, "momentum": 0.99, "beta_regularizer": null, "gamma_constraint": null, "scale": true, "name": "batch_normalization_88", "epsilon": 0.001, "gamma_regularizer": null}, "inbound_nodes": [[["conv2d_88", 0, 0, {}]]], "class_name": "BatchNormalization"}, {"name": "batch_normalization_89", "config": {"beta_initializer": {"config": {}, "class_name": "Zeros"}, "moving_variance_initializer": {"config": {}, "class_name": "Ones"}, "gamma_initializer": {"config": {}, "class_name": "Ones"}, "axis": 3, "moving_mean_initializer": {"config": {}, "class_name": "Zeros"}, "beta_constraint": null, "center": true, "trainable": true, "momentum": 0.99, "beta_regularizer": null, "gamma_constraint": null, "scale": true, "name": "batch_normalization_89", "epsilon": 0.001, "gamma_regularizer": null}, "inbound_nodes": [[["conv2d_89", 0, 0, {}]]], "class_name": "BatchNormalization"}, {"name": "batch_normalization_92", "config": {"beta_initializer": {"config": {}, "class_name": "Zeros"}, "moving_variance_initializer": {"config": {}, "class_name": "Ones"}, "gamma_initializer": {"config": {}, "class_name": "Ones"}, "axis": 3, "moving_mean_initializer": {"config": {}, "class_name": "Zeros"}, "beta_constraint": null, "center": true, "trainable": true, "momentum": 0.99, "beta_regularizer": null, "gamma_constraint": null, "scale": true, "name": "batch_normalization_92", "epsilon": 0.001, "gamma_regularizer": null}, "inbound_nodes": [[["conv2d_92", 0, 0, {}]]], "class_name": "BatchNormalization"}, {"name": "batch_normalization_93", "config": {"beta_initializer": {"config": {}, "class_name": "Zeros"}, "moving_variance_initializer": {"config": {}, "class_name": "Ones"}, "gamma_initializer": {"config": {}, "class_name": "Ones"}, "axis": 3, "moving_mean_initializer": {"config": {}, "class_name": "Zeros"}, "beta_constraint": null, "center": true, "trainable": true, "momentum": 0.99, "beta_regularizer": null, "gamma_constraint": null, "scale": true, "name": "batch_normalization_93", "epsilon": 0.001, "gamma_regularizer": null}, "inbound_nodes": [[["conv2d_93", 0, 0, {}]]], "class_name": "BatchNormalization"}, {"name": "conv2d_94", "config": {"strides": [1, 1], "bias_constraint": null, "data_format": "channels_last", "use_bias": true, "kernel_size": [1, 1], "bias_initializer": {"config": {}, "class_name": "Zeros"}, "kernel_regularizer": null, "name": "conv2d_94", "filters": 96, "activation": "relu", "trainable": true, "bias_regularizer": null, "padding": "same", "kernel_constraint": null, "activity_regularizer": null, "kernel_initializer": {"config": {"mode": "fan_avg", "scale": 1.0, "distribution": "uniform", "seed": null}, "class_name": "VarianceScaling"}, "dilation_rate": [1, 1]}, "inbound_nodes": [[["average_pooling2d_10", 0, 0, {}]]], "class_name": "Conv2D"}, {"name": "batch_normalization_86", "config": {"beta_initializer": {"config": {}, "class_name": "Zeros"}, "moving_variance_initializer": {"config": {}, "class_name": "Ones"}, "gamma_initializer": {"config": {}, "class_name": "Ones"}, "axis": 3, "moving_mean_initializer": {"config": {}, "class_name": "Zeros"}, "beta_constraint": null, "center": true, "trainable": true, "momentum": 0.99, "beta_regularizer": null, "gamma_constraint": null, "scale": true, "name": "batch_normalization_86", "epsilon": 0.001, "gamma_regularizer": null}, "inbound_nodes": [[["conv2d_86", 0, 0, {}]]], "class_name": "BatchNormalization"}, {"name": "mixed9_1", "config": {"name": "mixed9_1", "axis": -1, "trainable": true}, "inbound_nodes": [[["batch_normalization_88", 0, 0, {}], ["batch_normalization_89", 0, 0, {}]]], "class_name": "Concatenate"}, {"name": "concatenate_2", "config": {"name": "concatenate_2", "axis": -1, "trainable": true}, "inbound_nodes": [[["batch_normalization_92", 0, 0, {}], ["batch_normalization_93", 0, 0, {}]]], "class_name": "Concatenate"}, {"name": "batch_normalization_94", "config": {"beta_initializer": {"config": {}, "class_name": "Zeros"}, "moving_variance_initializer": {"config": {}, "class_name": "Ones"}, "gamma_initializer": {"config": {}, "class_name": "Ones"}, "axis": 3, "moving_mean_initializer": {"config": {}, "class_name": "Zeros"}, "beta_constraint": null, "center": true, "trainable": true, "momentum": 0.99, "beta_regularizer": null, "gamma_constraint": null, "scale": true, "name": "batch_normalization_94", "epsilon": 0.001, "gamma_regularizer": null}, "inbound_nodes": [[["conv2d_94", 0, 0, {}]]], "class_name": "BatchNormalization"}, {"name": "mixed10", "config": {"name": "mixed10", "axis": -1, "trainable": true}, "inbound_nodes": [[["batch_normalization_86", 0, 0, {}], ["mixed9_1", 0, 0, {}], ["concatenate_2", 0, 0, {}], ["batch_normalization_94", 0, 0, {}]]], "class_name": "Concatenate"}, {"name": "end_max_pool", "config": {"strides": [2, 2], "trainable": true, "data_format": "channels_last", "padding": "valid", "name": "end_max_pool", "pool_size": [2, 2]}, "inbound_nodes": [[["mixed10", 0, 0, {}]]], "class_name": "MaxPooling2D"}, {"name": "flatten", "config": {"name": "flatten", "trainable": true}, "inbound_nodes": [[["end_max_pool", 0, 0, {}]]], "class_name": "Flatten"}, {"name": "output_layer", "config": {"bias_constraint": null, "use_bias": true, "units": 1, "bias_initializer": {"config": {}, "class_name": "Zeros"}, "kernel_regularizer": null, "activation": "sigmoid", "trainable": true, "bias_regularizer": null, "kernel_constraint": null, "activity_regularizer": null, "kernel_initializer": {"config": {"mode": "fan_avg", "scale": 1.0, "distribution": "uniform", "seed": null}, "class_name": "VarianceScaling"}, "name": "output_layer"}, "inbound_nodes": [[["flatten", 0, 0, {}]]], "class_name": "Dense"}], "input_layers": [["input_1", 0, 0]]}, "class_name": "Model"}