{"config": {"output_layers": [["output_layer", 0, 0]], "name": "model_1", "layers": [{"config": {"sparse": false, "batch_input_shape": [null, 1152, 832, 1], "dtype": "float32", "name": "input_1"}, "inbound_nodes": [], "class_name": "InputLayer", "name": "input_1"}, {"config": {"use_bias": true, "strides": [2, 2], "bias_constraint": null, "data_format": "channels_last", "kernel_initializer": {"config": {"scale": 1.0, "mode": "fan_avg", "distribution": "uniform", "seed": null}, "class_name": "VarianceScaling"}, "name": "conv2d_1", "kernel_size": [3, 3], "padding": "valid", "trainable": true, "dilation_rate": [1, 1], "bias_regularizer": null, "filters": 16, "kernel_constraint": null, "activity_regularizer": null, "bias_initializer": {"config": {}, "class_name": "Zeros"}, "kernel_regularizer": null, "activation": "relu"}, "inbound_nodes": [[["input_1", 0, 0, {}]]], "class_name": "Conv2D", "name": "conv2d_1"}, {"config": {"center": true, "moving_variance_initializer": {"config": {}, "class_name": "Ones"}, "momentum": 0.99, "axis": 3, "beta_constraint": null, "beta_initializer": {"config": {}, "class_name": "Zeros"}, "scale": true, "gamma_constraint": null, "trainable": true, "epsilon": 0.001, "moving_mean_initializer": {"config": {}, "class_name": "Zeros"}, "beta_regularizer": null, "name": "batch_normalization_1", "gamma_regularizer": null, "gamma_initializer": {"config": {}, "class_name": "Ones"}}, "inbound_nodes": [[["conv2d_1", 0, 0, {}]]], "class_name": "BatchNormalization", "name": "batch_normalization_1"}, {"config": {"use_bias": true, "strides": [1, 1], "bias_constraint": null, "data_format": "channels_last", "kernel_initializer": {"config": {"scale": 1.0, "mode": "fan_avg", "distribution": "uniform", "seed": null}, "class_name": "VarianceScaling"}, "name": "conv2d_2", "kernel_size": [3, 3], "padding": "valid", "trainable": true, "dilation_rate": [1, 1], "bias_regularizer": null, "filters": 16, "kernel_constraint": null, "activity_regularizer": null, "bias_initializer": {"config": {}, "class_name": "Zeros"}, "kernel_regularizer": null, "activation": "relu"}, "inbound_nodes": [[["batch_normalization_1", 0, 0, {}]]], "class_name": "Conv2D", "name": "conv2d_2"}, {"config": {"center": true, "moving_variance_initializer": {"config": {}, "class_name": "Ones"}, "momentum": 0.99, "axis": 3, "beta_constraint": null, "beta_initializer": {"config": {}, "class_name": "Zeros"}, "scale": true, "gamma_constraint": null, "trainable": true, "epsilon": 0.001, "moving_mean_initializer": {"config": {}, "class_name": "Zeros"}, "beta_regularizer": null, "name": "batch_normalization_2", "gamma_regularizer": null, "gamma_initializer": {"config": {}, "class_name": "Ones"}}, "inbound_nodes": [[["conv2d_2", 0, 0, {}]]], "class_name": "BatchNormalization", "name": "batch_normalization_2"}, {"config": {"use_bias": true, "strides": [1, 1], "bias_constraint": null, "data_format": "channels_last", "kernel_initializer": {"config": {"scale": 1.0, "mode": "fan_avg", "distribution": "uniform", "seed": null}, "class_name": "VarianceScaling"}, "name": "conv2d_3", "kernel_size": [3, 3], "padding": "same", "trainable": true, "dilation_rate": [1, 1], "bias_regularizer": null, "filters": 32, "kernel_constraint": null, "activity_regularizer": null, "bias_initializer": {"config": {}, "class_name": "Zeros"}, "kernel_regularizer": null, "activation": "relu"}, "inbound_nodes": [[["batch_normalization_2", 0, 0, {}]]], "class_name": "Conv2D", "name": "conv2d_3"}, {"config": {"center": true, "moving_variance_initializer": {"config": {}, "class_name": "Ones"}, "momentum": 0.99, "axis": 3, "beta_constraint": null, "beta_initializer": {"config": {}, "class_name": "Zeros"}, "scale": true, "gamma_constraint": null, "trainable": true, "epsilon": 0.001, "moving_mean_initializer": {"config": {}, "class_name": "Zeros"}, "beta_regularizer": null, "name": "batch_normalization_3", "gamma_regularizer": null, "gamma_initializer": {"config": {}, "class_name": "Ones"}}, "inbound_nodes": [[["conv2d_3", 0, 0, {}]]], "class_name": "BatchNormalization", "name": "batch_normalization_3"}, {"config": {"trainable": true, "strides": [2, 2], "data_format": "channels_last", "padding": "valid", "pool_size": [3, 3], "name": "max_pooling2d_1"}, "inbound_nodes": [[["batch_normalization_3", 0, 0, {}]]], "class_name": "MaxPooling2D", "name": "max_pooling2d_1"}, {"config": {"use_bias": true, "strides": [1, 1], "bias_constraint": null, "data_format": "channels_last", "kernel_initializer": {"config": {"scale": 1.0, "mode": "fan_avg", "distribution": "uniform", "seed": null}, "class_name": "VarianceScaling"}, "name": "conv2d_4", "kernel_size": [1, 1], "padding": "valid", "trainable": true, "dilation_rate": [1, 1], "bias_regularizer": null, "filters": 40, "kernel_constraint": null, "activity_regularizer": null, "bias_initializer": {"config": {}, "class_name": "Zeros"}, "kernel_regularizer": null, "activation": "relu"}, "inbound_nodes": [[["max_pooling2d_1", 0, 0, {}]]], "class_name": "Conv2D", "name": "conv2d_4"}, {"config": {"center": true, "moving_variance_initializer": {"config": {}, "class_name": "Ones"}, "momentum": 0.99, "axis": 3, "beta_constraint": null, "beta_initializer": {"config": {}, "class_name": "Zeros"}, "scale": true, "gamma_constraint": null, "trainable": true, "epsilon": 0.001, "moving_mean_initializer": {"config": {}, "class_name": "Zeros"}, "beta_regularizer": null, "name": "batch_normalization_4", "gamma_regularizer": null, "gamma_initializer": {"config": {}, "class_name": "Ones"}}, "inbound_nodes": [[["conv2d_4", 0, 0, {}]]], "class_name": "BatchNormalization", "name": "batch_normalization_4"}, {"config": {"use_bias": true, "strides": [1, 1], "bias_constraint": null, "data_format": "channels_last", "kernel_initializer": {"config": {"scale": 1.0, "mode": "fan_avg", "distribution": "uniform", "seed": null}, "class_name": "VarianceScaling"}, "name": "conv2d_5", "kernel_size": [3, 3], "padding": "valid", "trainable": true, "dilation_rate": [1, 1], "bias_regularizer": null, "filters": 96, "kernel_constraint": null, "activity_regularizer": null, "bias_initializer": {"config": {}, "class_name": "Zeros"}, "kernel_regularizer": null, "activation": "relu"}, "inbound_nodes": [[["batch_normalization_4", 0, 0, {}]]], "class_name": "Conv2D", "name": "conv2d_5"}, {"config": {"center": true, "moving_variance_initializer": {"config": {}, "class_name": "Ones"}, "momentum": 0.99, "axis": 3, "beta_constraint": null, "beta_initializer": {"config": {}, "class_name": "Zeros"}, "scale": true, "gamma_constraint": null, "trainable": true, "epsilon": 0.001, "moving_mean_initializer": {"config": {}, "class_name": "Zeros"}, "beta_regularizer": null, "name": "batch_normalization_5", "gamma_regularizer": null, "gamma_initializer": {"config": {}, "class_name": "Ones"}}, "inbound_nodes": [[["conv2d_5", 0, 0, {}]]], "class_name": "BatchNormalization", "name": "batch_normalization_5"}, {"config": {"trainable": true, "strides": [2, 2], "data_format": "channels_last", "padding": "valid", "pool_size": [3, 3], "name": "max_pooling2d_2"}, "inbound_nodes": [[["batch_normalization_5", 0, 0, {}]]], "class_name": "MaxPooling2D", "name": "max_pooling2d_2"}, {"config": {"use_bias": true, "strides": [1, 1], "bias_constraint": null, "data_format": "channels_last", "kernel_initializer": {"config": {"scale": 1.0, "mode": "fan_avg", "distribution": "uniform", "seed": null}, "class_name": "VarianceScaling"}, "name": "conv2d_9", "kernel_size": [1, 1], "padding": "same", "trainable": true, "dilation_rate": [1, 1], "bias_regularizer": null, "filters": 32, "kernel_constraint": null, "activity_regularizer": null, "bias_initializer": {"config": {}, "class_name": "Zeros"}, "kernel_regularizer": null, "activation": "relu"}, "inbound_nodes": [[["max_pooling2d_2", 0, 0, {}]]], "class_name": "Conv2D", "name": "conv2d_9"}, {"config": {"center": true, "moving_variance_initializer": {"config": {}, "class_name": "Ones"}, "momentum": 0.99, "axis": 3, "beta_constraint": null, "beta_initializer": {"config": {}, "class_name": "Zeros"}, "scale": true, "gamma_constraint": null, "trainable": true, "epsilon": 0.001, "moving_mean_initializer": {"config": {}, "class_name": "Zeros"}, "beta_regularizer": null, "name": "batch_normalization_9", "gamma_regularizer": null, "gamma_initializer": {"config": {}, "class_name": "Ones"}}, "inbound_nodes": [[["conv2d_9", 0, 0, {}]]], "class_name": "BatchNormalization", "name": "batch_normalization_9"}, {"config": {"use_bias": true, "strides": [1, 1], "bias_constraint": null, "data_format": "channels_last", "kernel_initializer": {"config": {"scale": 1.0, "mode": "fan_avg", "distribution": "uniform", "seed": null}, "class_name": "VarianceScaling"}, "name": "conv2d_7", "kernel_size": [1, 1], "padding": "same", "trainable": true, "dilation_rate": [1, 1], "bias_regularizer": null, "filters": 24, "kernel_constraint": null, "activity_regularizer": null, "bias_initializer": {"config": {}, "class_name": "Zeros"}, "kernel_regularizer": null, "activation": "relu"}, "inbound_nodes": [[["max_pooling2d_2", 0, 0, {}]]], "class_name": "Conv2D", "name": "conv2d_7"}, {"config": {"use_bias": true, "strides": [1, 1], "bias_constraint": null, "data_format": "channels_last", "kernel_initializer": {"config": {"scale": 1.0, "mode": "fan_avg", "distribution": "uniform", "seed": null}, "class_name": "VarianceScaling"}, "name": "conv2d_10", "kernel_size": [3, 3], "padding": "same", "trainable": true, "dilation_rate": [1, 1], "bias_regularizer": null, "filters": 48, "kernel_constraint": null, "activity_regularizer": null, "bias_initializer": {"config": {}, "class_name": "Zeros"}, "kernel_regularizer": null, "activation": "relu"}, "inbound_nodes": [[["batch_normalization_9", 0, 0, {}]]], "class_name": "Conv2D", "name": "conv2d_10"}, {"config": {"center": true, "moving_variance_initializer": {"config": {}, "class_name": "Ones"}, "momentum": 0.99, "axis": 3, "beta_constraint": null, "beta_initializer": {"config": {}, "class_name": "Zeros"}, "scale": true, "gamma_constraint": null, "trainable": true, "epsilon": 0.001, "moving_mean_initializer": {"config": {}, "class_name": "Zeros"}, "beta_regularizer": null, "name": "batch_normalization_7", "gamma_regularizer": null, "gamma_initializer": {"config": {}, "class_name": "Ones"}}, "inbound_nodes": [[["conv2d_7", 0, 0, {}]]], "class_name": "BatchNormalization", "name": "batch_normalization_7"}, {"config": {"center": true, "moving_variance_initializer": {"config": {}, "class_name": "Ones"}, "momentum": 0.99, "axis": 3, "beta_constraint": null, "beta_initializer": {"config": {}, "class_name": "Zeros"}, "scale": true, "gamma_constraint": null, "trainable": true, "epsilon": 0.001, "moving_mean_initializer": {"config": {}, "class_name": "Zeros"}, "beta_regularizer": null, "name": "batch_normalization_10", "gamma_regularizer": null, "gamma_initializer": {"config": {}, "class_name": "Ones"}}, "inbound_nodes": [[["conv2d_10", 0, 0, {}]]], "class_name": "BatchNormalization", "name": "batch_normalization_10"}, {"config": {"trainable": true, "strides": [1, 1], "data_format": "channels_last", "padding": "same", "pool_size": [3, 3], "name": "average_pooling2d_1"}, "inbound_nodes": [[["max_pooling2d_2", 0, 0, {}]]], "class_name": "AveragePooling2D", "name": "average_pooling2d_1"}, {"config": {"use_bias": true, "strides": [1, 1], "bias_constraint": null, "data_format": "channels_last", "kernel_initializer": {"config": {"scale": 1.0, "mode": "fan_avg", "distribution": "uniform", "seed": null}, "class_name": "VarianceScaling"}, "name": "conv2d_6", "kernel_size": [1, 1], "padding": "same", "trainable": true, "dilation_rate": [1, 1], "bias_regularizer": null, "filters": 32, "kernel_constraint": null, "activity_regularizer": null, "bias_initializer": {"config": {}, "class_name": "Zeros"}, "kernel_regularizer": null, "activation": "relu"}, "inbound_nodes": [[["max_pooling2d_2", 0, 0, {}]]], "class_name": "Conv2D", "name": "conv2d_6"}, {"config": {"use_bias": true, "strides": [1, 1], "bias_constraint": null, "data_format": "channels_last", "kernel_initializer": {"config": {"scale": 1.0, "mode": "fan_avg", "distribution": "uniform", "seed": null}, "class_name": "VarianceScaling"}, "name": "conv2d_8", "kernel_size": [5, 5], "padding": "same", "trainable": true, "dilation_rate": [1, 1], "bias_regularizer": null, "filters": 32, "kernel_constraint": null, "activity_regularizer": null, "bias_initializer": {"config": {}, "class_name": "Zeros"}, "kernel_regularizer": null, "activation": "relu"}, "inbound_nodes": [[["batch_normalization_7", 0, 0, {}]]], "class_name": "Conv2D", "name": "conv2d_8"}, {"config": {"use_bias": true, "strides": [1, 1], "bias_constraint": null, "data_format": "channels_last", "kernel_initializer": {"config": {"scale": 1.0, "mode": "fan_avg", "distribution": "uniform", "seed": null}, "class_name": "VarianceScaling"}, "name": "conv2d_11", "kernel_size": [3, 3], "padding": "same", "trainable": true, "dilation_rate": [1, 1], "bias_regularizer": null, "filters": 48, "kernel_constraint": null, "activity_regularizer": null, "bias_initializer": {"config": {}, "class_name": "Zeros"}, "kernel_regularizer": null, "activation": "relu"}, "inbound_nodes": [[["batch_normalization_10", 0, 0, {}]]], "class_name": "Conv2D", "name": "conv2d_11"}, {"config": {"use_bias": true, "strides": [1, 1], "bias_constraint": null, "data_format": "channels_last", "kernel_initializer": {"config": {"scale": 1.0, "mode": "fan_avg", "distribution": "uniform", "seed": null}, "class_name": "VarianceScaling"}, "name": "conv2d_12", "kernel_size": [1, 1], "padding": "same", "trainable": true, "dilation_rate": [1, 1], "bias_regularizer": null, "filters": 16, "kernel_constraint": null, "activity_regularizer": null, "bias_initializer": {"config": {}, "class_name": "Zeros"}, "kernel_regularizer": null, "activation": "relu"}, "inbound_nodes": [[["average_pooling2d_1", 0, 0, {}]]], "class_name": "Conv2D", "name": "conv2d_12"}, {"config": {"center": true, "moving_variance_initializer": {"config": {}, "class_name": "Ones"}, "momentum": 0.99, "axis": 3, "beta_constraint": null, "beta_initializer": {"config": {}, "class_name": "Zeros"}, "scale": true, "gamma_constraint": null, "trainable": true, "epsilon": 0.001, "moving_mean_initializer": {"config": {}, "class_name": "Zeros"}, "beta_regularizer": null, "name": "batch_normalization_6", "gamma_regularizer": null, "gamma_initializer": {"config": {}, "class_name": "Ones"}}, "inbound_nodes": [[["conv2d_6", 0, 0, {}]]], "class_name": "BatchNormalization", "name": "batch_normalization_6"}, {"config": {"center": true, "moving_variance_initializer": {"config": {}, "class_name": "Ones"}, "momentum": 0.99, "axis": 3, "beta_constraint": null, "beta_initializer": {"config": {}, "class_name": "Zeros"}, "scale": true, "gamma_constraint": null, "trainable": true, "epsilon": 0.001, "moving_mean_initializer": {"config": {}, "class_name": "Zeros"}, "beta_regularizer": null, "name": "batch_normalization_8", "gamma_regularizer": null, "gamma_initializer": {"config": {}, "class_name": "Ones"}}, "inbound_nodes": [[["conv2d_8", 0, 0, {}]]], "class_name": "BatchNormalization", "name": "batch_normalization_8"}, {"config": {"center": true, "moving_variance_initializer": {"config": {}, "class_name": "Ones"}, "momentum": 0.99, "axis": 3, "beta_constraint": null, "beta_initializer": {"config": {}, "class_name": "Zeros"}, "scale": true, "gamma_constraint": null, "trainable": true, "epsilon": 0.001, "moving_mean_initializer": {"config": {}, "class_name": "Zeros"}, "beta_regularizer": null, "name": "batch_normalization_11", "gamma_regularizer": null, "gamma_initializer": {"config": {}, "class_name": "Ones"}}, "inbound_nodes": [[["conv2d_11", 0, 0, {}]]], "class_name": "BatchNormalization", "name": "batch_normalization_11"}, {"config": {"center": true, "moving_variance_initializer": {"config": {}, "class_name": "Ones"}, "momentum": 0.99, "axis": 3, "beta_constraint": null, "beta_initializer": {"config": {}, "class_name": "Zeros"}, "scale": true, "gamma_constraint": null, "trainable": true, "epsilon": 0.001, "moving_mean_initializer": {"config": {}, "class_name": "Zeros"}, "beta_regularizer": null, "name": "batch_normalization_12", "gamma_regularizer": null, "gamma_initializer": {"config": {}, "class_name": "Ones"}}, "inbound_nodes": [[["conv2d_12", 0, 0, {}]]], "class_name": "BatchNormalization", "name": "batch_normalization_12"}, {"config": {"trainable": true, "axis": -1, "name": "mixed0"}, "inbound_nodes": [[["batch_normalization_6", 0, 0, {}], ["batch_normalization_8", 0, 0, {}], ["batch_normalization_11", 0, 0, {}], ["batch_normalization_12", 0, 0, {}]]], "class_name": "Concatenate", "name": "mixed0"}, {"config": {"use_bias": true, "strides": [1, 1], "bias_constraint": null, "data_format": "channels_last", "kernel_initializer": {"config": {"scale": 1.0, "mode": "fan_avg", "distribution": "uniform", "seed": null}, "class_name": "VarianceScaling"}, "name": "conv2d_16", "kernel_size": [1, 1], "padding": "same", "trainable": true, "dilation_rate": [1, 1], "bias_regularizer": null, "filters": 32, "kernel_constraint": null, "activity_regularizer": null, "bias_initializer": {"config": {}, "class_name": "Zeros"}, "kernel_regularizer": null, "activation": "relu"}, "inbound_nodes": [[["mixed0", 0, 0, {}]]], "class_name": "Conv2D", "name": "conv2d_16"}, {"config": {"center": true, "moving_variance_initializer": {"config": {}, "class_name": "Ones"}, "momentum": 0.99, "axis": 3, "beta_constraint": null, "beta_initializer": {"config": {}, "class_name": "Zeros"}, "scale": true, "gamma_constraint": null, "trainable": true, "epsilon": 0.001, "moving_mean_initializer": {"config": {}, "class_name": "Zeros"}, "beta_regularizer": null, "name": "batch_normalization_16", "gamma_regularizer": null, "gamma_initializer": {"config": {}, "class_name": "Ones"}}, "inbound_nodes": [[["conv2d_16", 0, 0, {}]]], "class_name": "BatchNormalization", "name": "batch_normalization_16"}, {"config": {"use_bias": true, "strides": [1, 1], "bias_constraint": null, "data_format": "channels_last", "kernel_initializer": {"config": {"scale": 1.0, "mode": "fan_avg", "distribution": "uniform", "seed": null}, "class_name": "VarianceScaling"}, "name": "conv2d_14", "kernel_size": [1, 1], "padding": "same", "trainable": true, "dilation_rate": [1, 1], "bias_regularizer": null, "filters": 24, "kernel_constraint": null, "activity_regularizer": null, "bias_initializer": {"config": {}, "class_name": "Zeros"}, "kernel_regularizer": null, "activation": "relu"}, "inbound_nodes": [[["mixed0", 0, 0, {}]]], "class_name": "Conv2D", "name": "conv2d_14"}, {"config": {"use_bias": true, "strides": [1, 1], "bias_constraint": null, "data_format": "channels_last", "kernel_initializer": {"config": {"scale": 1.0, "mode": "fan_avg", "distribution": "uniform", "seed": null}, "class_name": "VarianceScaling"}, "name": "conv2d_17", "kernel_size": [3, 3], "padding": "same", "trainable": true, "dilation_rate": [1, 1], "bias_regularizer": null, "filters": 48, "kernel_constraint": null, "activity_regularizer": null, "bias_initializer": {"config": {}, "class_name": "Zeros"}, "kernel_regularizer": null, "activation": "relu"}, "inbound_nodes": [[["batch_normalization_16", 0, 0, {}]]], "class_name": "Conv2D", "name": "conv2d_17"}, {"config": {"center": true, "moving_variance_initializer": {"config": {}, "class_name": "Ones"}, "momentum": 0.99, "axis": 3, "beta_constraint": null, "beta_initializer": {"config": {}, "class_name": "Zeros"}, "scale": true, "gamma_constraint": null, "trainable": true, "epsilon": 0.001, "moving_mean_initializer": {"config": {}, "class_name": "Zeros"}, "beta_regularizer": null, "name": "batch_normalization_14", "gamma_regularizer": null, "gamma_initializer": {"config": {}, "class_name": "Ones"}}, "inbound_nodes": [[["conv2d_14", 0, 0, {}]]], "class_name": "BatchNormalization", "name": "batch_normalization_14"}, {"config": {"center": true, "moving_variance_initializer": {"config": {}, "class_name": "Ones"}, "momentum": 0.99, "axis": 3, "beta_constraint": null, "beta_initializer": {"config": {}, "class_name": "Zeros"}, "scale": true, "gamma_constraint": null, "trainable": true, "epsilon": 0.001, "moving_mean_initializer": {"config": {}, "class_name": "Zeros"}, "beta_regularizer": null, "name": "batch_normalization_17", "gamma_regularizer": null, "gamma_initializer": {"config": {}, "class_name": "Ones"}}, "inbound_nodes": [[["conv2d_17", 0, 0, {}]]], "class_name": "BatchNormalization", "name": "batch_normalization_17"}, {"config": {"trainable": true, "strides": [1, 1], "data_format": "channels_last", "padding": "same", "pool_size": [3, 3], "name": "average_pooling2d_2"}, "inbound_nodes": [[["mixed0", 0, 0, {}]]], "class_name": "AveragePooling2D", "name": "average_pooling2d_2"}, {"config": {"use_bias": true, "strides": [1, 1], "bias_constraint": null, "data_format": "channels_last", "kernel_initializer": {"config": {"scale": 1.0, "mode": "fan_avg", "distribution": "uniform", "seed": null}, "class_name": "VarianceScaling"}, "name": "conv2d_13", "kernel_size": [1, 1], "padding": "same", "trainable": true, "dilation_rate": [1, 1], "bias_regularizer": null, "filters": 32, "kernel_constraint": null, "activity_regularizer": null, "bias_initializer": {"config": {}, "class_name": "Zeros"}, "kernel_regularizer": null, "activation": "relu"}, "inbound_nodes": [[["mixed0", 0, 0, {}]]], "class_name": "Conv2D", "name": "conv2d_13"}, {"config": {"use_bias": true, "strides": [1, 1], "bias_constraint": null, "data_format": "channels_last", "kernel_initializer": {"config": {"scale": 1.0, "mode": "fan_avg", "distribution": "uniform", "seed": null}, "class_name": "VarianceScaling"}, "name": "conv2d_15", "kernel_size": [5, 5], "padding": "same", "trainable": true, "dilation_rate": [1, 1], "bias_regularizer": null, "filters": 32, "kernel_constraint": null, "activity_regularizer": null, "bias_initializer": {"config": {}, "class_name": "Zeros"}, "kernel_regularizer": null, "activation": "relu"}, "inbound_nodes": [[["batch_normalization_14", 0, 0, {}]]], "class_name": "Conv2D", "name": "conv2d_15"}, {"config": {"use_bias": true, "strides": [1, 1], "bias_constraint": null, "data_format": "channels_last", "kernel_initializer": {"config": {"scale": 1.0, "mode": "fan_avg", "distribution": "uniform", "seed": null}, "class_name": "VarianceScaling"}, "name": "conv2d_18", "kernel_size": [3, 3], "padding": "same", "trainable": true, "dilation_rate": [1, 1], "bias_regularizer": null, "filters": 48, "kernel_constraint": null, "activity_regularizer": null, "bias_initializer": {"config": {}, "class_name": "Zeros"}, "kernel_regularizer": null, "activation": "relu"}, "inbound_nodes": [[["batch_normalization_17", 0, 0, {}]]], "class_name": "Conv2D", "name": "conv2d_18"}, {"config": {"use_bias": true, "strides": [1, 1], "bias_constraint": null, "data_format": "channels_last", "kernel_initializer": {"config": {"scale": 1.0, "mode": "fan_avg", "distribution": "uniform", "seed": null}, "class_name": "VarianceScaling"}, "name": "conv2d_19", "kernel_size": [1, 1], "padding": "same", "trainable": true, "dilation_rate": [1, 1], "bias_regularizer": null, "filters": 16, "kernel_constraint": null, "activity_regularizer": null, "bias_initializer": {"config": {}, "class_name": "Zeros"}, "kernel_regularizer": null, "activation": "relu"}, "inbound_nodes": [[["average_pooling2d_2", 0, 0, {}]]], "class_name": "Conv2D", "name": "conv2d_19"}, {"config": {"center": true, "moving_variance_initializer": {"config": {}, "class_name": "Ones"}, "momentum": 0.99, "axis": 3, "beta_constraint": null, "beta_initializer": {"config": {}, "class_name": "Zeros"}, "scale": true, "gamma_constraint": null, "trainable": true, "epsilon": 0.001, "moving_mean_initializer": {"config": {}, "class_name": "Zeros"}, "beta_regularizer": null, "name": "batch_normalization_13", "gamma_regularizer": null, "gamma_initializer": {"config": {}, "class_name": "Ones"}}, "inbound_nodes": [[["conv2d_13", 0, 0, {}]]], "class_name": "BatchNormalization", "name": "batch_normalization_13"}, {"config": {"center": true, "moving_variance_initializer": {"config": {}, "class_name": "Ones"}, "momentum": 0.99, "axis": 3, "beta_constraint": null, "beta_initializer": {"config": {}, "class_name": "Zeros"}, "scale": true, "gamma_constraint": null, "trainable": true, "epsilon": 0.001, "moving_mean_initializer": {"config": {}, "class_name": "Zeros"}, "beta_regularizer": null, "name": "batch_normalization_15", "gamma_regularizer": null, "gamma_initializer": {"config": {}, "class_name": "Ones"}}, "inbound_nodes": [[["conv2d_15", 0, 0, {}]]], "class_name": "BatchNormalization", "name": "batch_normalization_15"}, {"config": {"center": true, "moving_variance_initializer": {"config": {}, "class_name": "Ones"}, "momentum": 0.99, "axis": 3, "beta_constraint": null, "beta_initializer": {"config": {}, "class_name": "Zeros"}, "scale": true, "gamma_constraint": null, "trainable": true, "epsilon": 0.001, "moving_mean_initializer": {"config": {}, "class_name": "Zeros"}, "beta_regularizer": null, "name": "batch_normalization_18", "gamma_regularizer": null, "gamma_initializer": {"config": {}, "class_name": "Ones"}}, "inbound_nodes": [[["conv2d_18", 0, 0, {}]]], "class_name": "BatchNormalization", "name": "batch_normalization_18"}, {"config": {"center": true, "moving_variance_initializer": {"config": {}, "class_name": "Ones"}, "momentum": 0.99, "axis": 3, "beta_constraint": null, "beta_initializer": {"config": {}, "class_name": "Zeros"}, "scale": true, "gamma_constraint": null, "trainable": true, "epsilon": 0.001, "moving_mean_initializer": {"config": {}, "class_name": "Zeros"}, "beta_regularizer": null, "name": "batch_normalization_19", "gamma_regularizer": null, "gamma_initializer": {"config": {}, "class_name": "Ones"}}, "inbound_nodes": [[["conv2d_19", 0, 0, {}]]], "class_name": "BatchNormalization", "name": "batch_normalization_19"}, {"config": {"trainable": true, "axis": -1, "name": "mixed1"}, "inbound_nodes": [[["batch_normalization_13", 0, 0, {}], ["batch_normalization_15", 0, 0, {}], ["batch_normalization_18", 0, 0, {}], ["batch_normalization_19", 0, 0, {}]]], "class_name": "Concatenate", "name": "mixed1"}, {"config": {"use_bias": true, "strides": [1, 1], "bias_constraint": null, "data_format": "channels_last", "kernel_initializer": {"config": {"scale": 1.0, "mode": "fan_avg", "distribution": "uniform", "seed": null}, "class_name": "VarianceScaling"}, "name": "conv2d_23", "kernel_size": [1, 1], "padding": "same", "trainable": true, "dilation_rate": [1, 1], "bias_regularizer": null, "filters": 32, "kernel_constraint": null, "activity_regularizer": null, "bias_initializer": {"config": {}, "class_name": "Zeros"}, "kernel_regularizer": null, "activation": "relu"}, "inbound_nodes": [[["mixed1", 0, 0, {}]]], "class_name": "Conv2D", "name": "conv2d_23"}, {"config": {"center": true, "moving_variance_initializer": {"config": {}, "class_name": "Ones"}, "momentum": 0.99, "axis": 3, "beta_constraint": null, "beta_initializer": {"config": {}, "class_name": "Zeros"}, "scale": true, "gamma_constraint": null, "trainable": true, "epsilon": 0.001, "moving_mean_initializer": {"config": {}, "class_name": "Zeros"}, "beta_regularizer": null, "name": "batch_normalization_23", "gamma_regularizer": null, "gamma_initializer": {"config": {}, "class_name": "Ones"}}, "inbound_nodes": [[["conv2d_23", 0, 0, {}]]], "class_name": "BatchNormalization", "name": "batch_normalization_23"}, {"config": {"use_bias": true, "strides": [1, 1], "bias_constraint": null, "data_format": "channels_last", "kernel_initializer": {"config": {"scale": 1.0, "mode": "fan_avg", "distribution": "uniform", "seed": null}, "class_name": "VarianceScaling"}, "name": "conv2d_21", "kernel_size": [1, 1], "padding": "same", "trainable": true, "dilation_rate": [1, 1], "bias_regularizer": null, "filters": 24, "kernel_constraint": null, "activity_regularizer": null, "bias_initializer": {"config": {}, "class_name": "Zeros"}, "kernel_regularizer": null, "activation": "relu"}, "inbound_nodes": [[["mixed1", 0, 0, {}]]], "class_name": "Conv2D", "name": "conv2d_21"}, {"config": {"use_bias": true, "strides": [1, 1], "bias_constraint": null, "data_format": "channels_last", "kernel_initializer": {"config": {"scale": 1.0, "mode": "fan_avg", "distribution": "uniform", "seed": null}, "class_name": "VarianceScaling"}, "name": "conv2d_24", "kernel_size": [3, 3], "padding": "same", "trainable": true, "dilation_rate": [1, 1], "bias_regularizer": null, "filters": 48, "kernel_constraint": null, "activity_regularizer": null, "bias_initializer": {"config": {}, "class_name": "Zeros"}, "kernel_regularizer": null, "activation": "relu"}, "inbound_nodes": [[["batch_normalization_23", 0, 0, {}]]], "class_name": "Conv2D", "name": "conv2d_24"}, {"config": {"center": true, "moving_variance_initializer": {"config": {}, "class_name": "Ones"}, "momentum": 0.99, "axis": 3, "beta_constraint": null, "beta_initializer": {"config": {}, "class_name": "Zeros"}, "scale": true, "gamma_constraint": null, "trainable": true, "epsilon": 0.001, "moving_mean_initializer": {"config": {}, "class_name": "Zeros"}, "beta_regularizer": null, "name": "batch_normalization_21", "gamma_regularizer": null, "gamma_initializer": {"config": {}, "class_name": "Ones"}}, "inbound_nodes": [[["conv2d_21", 0, 0, {}]]], "class_name": "BatchNormalization", "name": "batch_normalization_21"}, {"config": {"center": true, "moving_variance_initializer": {"config": {}, "class_name": "Ones"}, "momentum": 0.99, "axis": 3, "beta_constraint": null, "beta_initializer": {"config": {}, "class_name": "Zeros"}, "scale": true, "gamma_constraint": null, "trainable": true, "epsilon": 0.001, "moving_mean_initializer": {"config": {}, "class_name": "Zeros"}, "beta_regularizer": null, "name": "batch_normalization_24", "gamma_regularizer": null, "gamma_initializer": {"config": {}, "class_name": "Ones"}}, "inbound_nodes": [[["conv2d_24", 0, 0, {}]]], "class_name": "BatchNormalization", "name": "batch_normalization_24"}, {"config": {"trainable": true, "strides": [1, 1], "data_format": "channels_last", "padding": "same", "pool_size": [3, 3], "name": "average_pooling2d_3"}, "inbound_nodes": [[["mixed1", 0, 0, {}]]], "class_name": "AveragePooling2D", "name": "average_pooling2d_3"}, {"config": {"use_bias": true, "strides": [1, 1], "bias_constraint": null, "data_format": "channels_last", "kernel_initializer": {"config": {"scale": 1.0, "mode": "fan_avg", "distribution": "uniform", "seed": null}, "class_name": "VarianceScaling"}, "name": "conv2d_20", "kernel_size": [1, 1], "padding": "same", "trainable": true, "dilation_rate": [1, 1], "bias_regularizer": null, "filters": 32, "kernel_constraint": null, "activity_regularizer": null, "bias_initializer": {"config": {}, "class_name": "Zeros"}, "kernel_regularizer": null, "activation": "relu"}, "inbound_nodes": [[["mixed1", 0, 0, {}]]], "class_name": "Conv2D", "name": "conv2d_20"}, {"config": {"use_bias": true, "strides": [1, 1], "bias_constraint": null, "data_format": "channels_last", "kernel_initializer": {"config": {"scale": 1.0, "mode": "fan_avg", "distribution": "uniform", "seed": null}, "class_name": "VarianceScaling"}, "name": "conv2d_22", "kernel_size": [5, 5], "padding": "same", "trainable": true, "dilation_rate": [1, 1], "bias_regularizer": null, "filters": 32, "kernel_constraint": null, "activity_regularizer": null, "bias_initializer": {"config": {}, "class_name": "Zeros"}, "kernel_regularizer": null, "activation": "relu"}, "inbound_nodes": [[["batch_normalization_21", 0, 0, {}]]], "class_name": "Conv2D", "name": "conv2d_22"}, {"config": {"use_bias": true, "strides": [1, 1], "bias_constraint": null, "data_format": "channels_last", "kernel_initializer": {"config": {"scale": 1.0, "mode": "fan_avg", "distribution": "uniform", "seed": null}, "class_name": "VarianceScaling"}, "name": "conv2d_25", "kernel_size": [3, 3], "padding": "same", "trainable": true, "dilation_rate": [1, 1], "bias_regularizer": null, "filters": 48, "kernel_constraint": null, "activity_regularizer": null, "bias_initializer": {"config": {}, "class_name": "Zeros"}, "kernel_regularizer": null, "activation": "relu"}, "inbound_nodes": [[["batch_normalization_24", 0, 0, {}]]], "class_name": "Conv2D", "name": "conv2d_25"}, {"config": {"use_bias": true, "strides": [1, 1], "bias_constraint": null, "data_format": "channels_last", "kernel_initializer": {"config": {"scale": 1.0, "mode": "fan_avg", "distribution": "uniform", "seed": null}, "class_name": "VarianceScaling"}, "name": "conv2d_26", "kernel_size": [1, 1], "padding": "same", "trainable": true, "dilation_rate": [1, 1], "bias_regularizer": null, "filters": 16, "kernel_constraint": null, "activity_regularizer": null, "bias_initializer": {"config": {}, "class_name": "Zeros"}, "kernel_regularizer": null, "activation": "relu"}, "inbound_nodes": [[["average_pooling2d_3", 0, 0, {}]]], "class_name": "Conv2D", "name": "conv2d_26"}, {"config": {"center": true, "moving_variance_initializer": {"config": {}, "class_name": "Ones"}, "momentum": 0.99, "axis": 3, "beta_constraint": null, "beta_initializer": {"config": {}, "class_name": "Zeros"}, "scale": true, "gamma_constraint": null, "trainable": true, "epsilon": 0.001, "moving_mean_initializer": {"config": {}, "class_name": "Zeros"}, "beta_regularizer": null, "name": "batch_normalization_20", "gamma_regularizer": null, "gamma_initializer": {"config": {}, "class_name": "Ones"}}, "inbound_nodes": [[["conv2d_20", 0, 0, {}]]], "class_name": "BatchNormalization", "name": "batch_normalization_20"}, {"config": {"center": true, "moving_variance_initializer": {"config": {}, "class_name": "Ones"}, "momentum": 0.99, "axis": 3, "beta_constraint": null, "beta_initializer": {"config": {}, "class_name": "Zeros"}, "scale": true, "gamma_constraint": null, "trainable": true, "epsilon": 0.001, "moving_mean_initializer": {"config": {}, "class_name": "Zeros"}, "beta_regularizer": null, "name": "batch_normalization_22", "gamma_regularizer": null, "gamma_initializer": {"config": {}, "class_name": "Ones"}}, "inbound_nodes": [[["conv2d_22", 0, 0, {}]]], "class_name": "BatchNormalization", "name": "batch_normalization_22"}, {"config": {"center": true, "moving_variance_initializer": {"config": {}, "class_name": "Ones"}, "momentum": 0.99, "axis": 3, "beta_constraint": null, "beta_initializer": {"config": {}, "class_name": "Zeros"}, "scale": true, "gamma_constraint": null, "trainable": true, "epsilon": 0.001, "moving_mean_initializer": {"config": {}, "class_name": "Zeros"}, "beta_regularizer": null, "name": "batch_normalization_25", "gamma_regularizer": null, "gamma_initializer": {"config": {}, "class_name": "Ones"}}, "inbound_nodes": [[["conv2d_25", 0, 0, {}]]], "class_name": "BatchNormalization", "name": "batch_normalization_25"}, {"config": {"center": true, "moving_variance_initializer": {"config": {}, "class_name": "Ones"}, "momentum": 0.99, "axis": 3, "beta_constraint": null, "beta_initializer": {"config": {}, "class_name": "Zeros"}, "scale": true, "gamma_constraint": null, "trainable": true, "epsilon": 0.001, "moving_mean_initializer": {"config": {}, "class_name": "Zeros"}, "beta_regularizer": null, "name": "batch_normalization_26", "gamma_regularizer": null, "gamma_initializer": {"config": {}, "class_name": "Ones"}}, "inbound_nodes": [[["conv2d_26", 0, 0, {}]]], "class_name": "BatchNormalization", "name": "batch_normalization_26"}, {"config": {"trainable": true, "axis": -1, "name": "mixed2"}, "inbound_nodes": [[["batch_normalization_20", 0, 0, {}], ["batch_normalization_22", 0, 0, {}], ["batch_normalization_25", 0, 0, {}], ["batch_normalization_26", 0, 0, {}]]], "class_name": "Concatenate", "name": "mixed2"}, {"config": {"use_bias": true, "strides": [1, 1], "bias_constraint": null, "data_format": "channels_last", "kernel_initializer": {"config": {"scale": 1.0, "mode": "fan_avg", "distribution": "uniform", "seed": null}, "class_name": "VarianceScaling"}, "name": "conv2d_28", "kernel_size": [1, 1], "padding": "same", "trainable": true, "dilation_rate": [1, 1], "bias_regularizer": null, "filters": 32, "kernel_constraint": null, "activity_regularizer": null, "bias_initializer": {"config": {}, "class_name": "Zeros"}, "kernel_regularizer": null, "activation": "relu"}, "inbound_nodes": [[["mixed2", 0, 0, {}]]], "class_name": "Conv2D", "name": "conv2d_28"}, {"config": {"center": true, "moving_variance_initializer": {"config": {}, "class_name": "Ones"}, "momentum": 0.99, "axis": 3, "beta_constraint": null, "beta_initializer": {"config": {}, "class_name": "Zeros"}, "scale": true, "gamma_constraint": null, "trainable": true, "epsilon": 0.001, "moving_mean_initializer": {"config": {}, "class_name": "Zeros"}, "beta_regularizer": null, "name": "batch_normalization_28", "gamma_regularizer": null, "gamma_initializer": {"config": {}, "class_name": "Ones"}}, "inbound_nodes": [[["conv2d_28", 0, 0, {}]]], "class_name": "BatchNormalization", "name": "batch_normalization_28"}, {"config": {"use_bias": true, "strides": [1, 1], "bias_constraint": null, "data_format": "channels_last", "kernel_initializer": {"config": {"scale": 1.0, "mode": "fan_avg", "distribution": "uniform", "seed": null}, "class_name": "VarianceScaling"}, "name": "conv2d_29", "kernel_size": [3, 3], "padding": "same", "trainable": true, "dilation_rate": [1, 1], "bias_regularizer": null, "filters": 48, "kernel_constraint": null, "activity_regularizer": null, "bias_initializer": {"config": {}, "class_name": "Zeros"}, "kernel_regularizer": null, "activation": "relu"}, "inbound_nodes": [[["batch_normalization_28", 0, 0, {}]]], "class_name": "Conv2D", "name": "conv2d_29"}, {"config": {"center": true, "moving_variance_initializer": {"config": {}, "class_name": "Ones"}, "momentum": 0.99, "axis": 3, "beta_constraint": null, "beta_initializer": {"config": {}, "class_name": "Zeros"}, "scale": true, "gamma_constraint": null, "trainable": true, "epsilon": 0.001, "moving_mean_initializer": {"config": {}, "class_name": "Zeros"}, "beta_regularizer": null, "name": "batch_normalization_29", "gamma_regularizer": null, "gamma_initializer": {"config": {}, "class_name": "Ones"}}, "inbound_nodes": [[["conv2d_29", 0, 0, {}]]], "class_name": "BatchNormalization", "name": "batch_normalization_29"}, {"config": {"use_bias": true, "strides": [2, 2], "bias_constraint": null, "data_format": "channels_last", "kernel_initializer": {"config": {"scale": 1.0, "mode": "fan_avg", "distribution": "uniform", "seed": null}, "class_name": "VarianceScaling"}, "name": "conv2d_27", "kernel_size": [3, 3], "padding": "valid", "trainable": true, "dilation_rate": [1, 1], "bias_regularizer": null, "filters": 192, "kernel_constraint": null, "activity_regularizer": null, "bias_initializer": {"config": {}, "class_name": "Zeros"}, "kernel_regularizer": null, "activation": "relu"}, "inbound_nodes": [[["mixed2", 0, 0, {}]]], "class_name": "Conv2D", "name": "conv2d_27"}, {"config": {"use_bias": true, "strides": [2, 2], "bias_constraint": null, "data_format": "channels_last", "kernel_initializer": {"config": {"scale": 1.0, "mode": "fan_avg", "distribution": "uniform", "seed": null}, "class_name": "VarianceScaling"}, "name": "conv2d_30", "kernel_size": [3, 3], "padding": "valid", "trainable": true, "dilation_rate": [1, 1], "bias_regularizer": null, "filters": 48, "kernel_constraint": null, "activity_regularizer": null, "bias_initializer": {"config": {}, "class_name": "Zeros"}, "kernel_regularizer": null, "activation": "relu"}, "inbound_nodes": [[["batch_normalization_29", 0, 0, {}]]], "class_name": "Conv2D", "name": "conv2d_30"}, {"config": {"center": true, "moving_variance_initializer": {"config": {}, "class_name": "Ones"}, "momentum": 0.99, "axis": 3, "beta_constraint": null, "beta_initializer": {"config": {}, "class_name": "Zeros"}, "scale": true, "gamma_constraint": null, "trainable": true, "epsilon": 0.001, "moving_mean_initializer": {"config": {}, "class_name": "Zeros"}, "beta_regularizer": null, "name": "batch_normalization_27", "gamma_regularizer": null, "gamma_initializer": {"config": {}, "class_name": "Ones"}}, "inbound_nodes": [[["conv2d_27", 0, 0, {}]]], "class_name": "BatchNormalization", "name": "batch_normalization_27"}, {"config": {"center": true, "moving_variance_initializer": {"config": {}, "class_name": "Ones"}, "momentum": 0.99, "axis": 3, "beta_constraint": null, "beta_initializer": {"config": {}, "class_name": "Zeros"}, "scale": true, "gamma_constraint": null, "trainable": true, "epsilon": 0.001, "moving_mean_initializer": {"config": {}, "class_name": "Zeros"}, "beta_regularizer": null, "name": "batch_normalization_30", "gamma_regularizer": null, "gamma_initializer": {"config": {}, "class_name": "Ones"}}, "inbound_nodes": [[["conv2d_30", 0, 0, {}]]], "class_name": "BatchNormalization", "name": "batch_normalization_30"}, {"config": {"trainable": true, "strides": [2, 2], "data_format": "channels_last", "padding": "valid", "pool_size": [3, 3], "name": "max_pooling2d_3"}, "inbound_nodes": [[["mixed2", 0, 0, {}]]], "class_name": "MaxPooling2D", "name": "max_pooling2d_3"}, {"config": {"trainable": true, "axis": -1, "name": "mixed3"}, "inbound_nodes": [[["batch_normalization_27", 0, 0, {}], ["batch_normalization_30", 0, 0, {}], ["max_pooling2d_3", 0, 0, {}]]], "class_name": "Concatenate", "name": "mixed3"}, {"config": {"use_bias": true, "strides": [1, 1], "bias_constraint": null, "data_format": "channels_last", "kernel_initializer": {"config": {"scale": 1.0, "mode": "fan_avg", "distribution": "uniform", "seed": null}, "class_name": "VarianceScaling"}, "name": "conv2d_35", "kernel_size": [1, 1], "padding": "same", "trainable": true, "dilation_rate": [1, 1], "bias_regularizer": null, "filters": 64, "kernel_constraint": null, "activity_regularizer": null, "bias_initializer": {"config": {}, "class_name": "Zeros"}, "kernel_regularizer": null, "activation": "relu"}, "inbound_nodes": [[["mixed3", 0, 0, {}]]], "class_name": "Conv2D", "name": "conv2d_35"}, {"config": {"center": true, "moving_variance_initializer": {"config": {}, "class_name": "Ones"}, "momentum": 0.99, "axis": 3, "beta_constraint": null, "beta_initializer": {"config": {}, "class_name": "Zeros"}, "scale": true, "gamma_constraint": null, "trainable": true, "epsilon": 0.001, "moving_mean_initializer": {"config": {}, "class_name": "Zeros"}, "beta_regularizer": null, "name": "batch_normalization_35", "gamma_regularizer": null, "gamma_initializer": {"config": {}, "class_name": "Ones"}}, "inbound_nodes": [[["conv2d_35", 0, 0, {}]]], "class_name": "BatchNormalization", "name": "batch_normalization_35"}, {"config": {"use_bias": true, "strides": [1, 1], "bias_constraint": null, "data_format": "channels_last", "kernel_initializer": {"config": {"scale": 1.0, "mode": "fan_avg", "distribution": "uniform", "seed": null}, "class_name": "VarianceScaling"}, "name": "conv2d_36", "kernel_size": [7, 1], "padding": "same", "trainable": true, "dilation_rate": [1, 1], "bias_regularizer": null, "filters": 64, "kernel_constraint": null, "activity_regularizer": null, "bias_initializer": {"config": {}, "class_name": "Zeros"}, "kernel_regularizer": null, "activation": "relu"}, "inbound_nodes": [[["batch_normalization_35", 0, 0, {}]]], "class_name": "Conv2D", "name": "conv2d_36"}, {"config": {"center": true, "moving_variance_initializer": {"config": {}, "class_name": "Ones"}, "momentum": 0.99, "axis": 3, "beta_constraint": null, "beta_initializer": {"config": {}, "class_name": "Zeros"}, "scale": true, "gamma_constraint": null, "trainable": true, "epsilon": 0.001, "moving_mean_initializer": {"config": {}, "class_name": "Zeros"}, "beta_regularizer": null, "name": "batch_normalization_36", "gamma_regularizer": null, "gamma_initializer": {"config": {}, "class_name": "Ones"}}, "inbound_nodes": [[["conv2d_36", 0, 0, {}]]], "class_name": "BatchNormalization", "name": "batch_normalization_36"}, {"config": {"use_bias": true, "strides": [1, 1], "bias_constraint": null, "data_format": "channels_last", "kernel_initializer": {"config": {"scale": 1.0, "mode": "fan_avg", "distribution": "uniform", "seed": null}, "class_name": "VarianceScaling"}, "name": "conv2d_32", "kernel_size": [1, 1], "padding": "same", "trainable": true, "dilation_rate": [1, 1], "bias_regularizer": null, "filters": 64, "kernel_constraint": null, "activity_regularizer": null, "bias_initializer": {"config": {}, "class_name": "Zeros"}, "kernel_regularizer": null, "activation": "relu"}, "inbound_nodes": [[["mixed3", 0, 0, {}]]], "class_name": "Conv2D", "name": "conv2d_32"}, {"config": {"use_bias": true, "strides": [1, 1], "bias_constraint": null, "data_format": "channels_last", "kernel_initializer": {"config": {"scale": 1.0, "mode": "fan_avg", "distribution": "uniform", "seed": null}, "class_name": "VarianceScaling"}, "name": "conv2d_37", "kernel_size": [1, 7], "padding": "same", "trainable": true, "dilation_rate": [1, 1], "bias_regularizer": null, "filters": 64, "kernel_constraint": null, "activity_regularizer": null, "bias_initializer": {"config": {}, "class_name": "Zeros"}, "kernel_regularizer": null, "activation": "relu"}, "inbound_nodes": [[["batch_normalization_36", 0, 0, {}]]], "class_name": "Conv2D", "name": "conv2d_37"}, {"config": {"center": true, "moving_variance_initializer": {"config": {}, "class_name": "Ones"}, "momentum": 0.99, "axis": 3, "beta_constraint": null, "beta_initializer": {"config": {}, "class_name": "Zeros"}, "scale": true, "gamma_constraint": null, "trainable": true, "epsilon": 0.001, "moving_mean_initializer": {"config": {}, "class_name": "Zeros"}, "beta_regularizer": null, "name": "batch_normalization_32", "gamma_regularizer": null, "gamma_initializer": {"config": {}, "class_name": "Ones"}}, "inbound_nodes": [[["conv2d_32", 0, 0, {}]]], "class_name": "BatchNormalization", "name": "batch_normalization_32"}, {"config": {"center": true, "moving_variance_initializer": {"config": {}, "class_name": "Ones"}, "momentum": 0.99, "axis": 3, "beta_constraint": null, "beta_initializer": {"config": {}, "class_name": "Zeros"}, "scale": true, "gamma_constraint": null, "trainable": true, "epsilon": 0.001, "moving_mean_initializer": {"config": {}, "class_name": "Zeros"}, "beta_regularizer": null, "name": "batch_normalization_37", "gamma_regularizer": null, "gamma_initializer": {"config": {}, "class_name": "Ones"}}, "inbound_nodes": [[["conv2d_37", 0, 0, {}]]], "class_name": "BatchNormalization", "name": "batch_normalization_37"}, {"config": {"use_bias": true, "strides": [1, 1], "bias_constraint": null, "data_format": "channels_last", "kernel_initializer": {"config": {"scale": 1.0, "mode": "fan_avg", "distribution": "uniform", "seed": null}, "class_name": "VarianceScaling"}, "name": "conv2d_33", "kernel_size": [1, 7], "padding": "same", "trainable": true, "dilation_rate": [1, 1], "bias_regularizer": null, "filters": 64, "kernel_constraint": null, "activity_regularizer": null, "bias_initializer": {"config": {}, "class_name": "Zeros"}, "kernel_regularizer": null, "activation": "relu"}, "inbound_nodes": [[["batch_normalization_32", 0, 0, {}]]], "class_name": "Conv2D", "name": "conv2d_33"}, {"config": {"use_bias": true, "strides": [1, 1], "bias_constraint": null, "data_format": "channels_last", "kernel_initializer": {"config": {"scale": 1.0, "mode": "fan_avg", "distribution": "uniform", "seed": null}, "class_name": "VarianceScaling"}, "name": "conv2d_38", "kernel_size": [7, 1], "padding": "same", "trainable": true, "dilation_rate": [1, 1], "bias_regularizer": null, "filters": 64, "kernel_constraint": null, "activity_regularizer": null, "bias_initializer": {"config": {}, "class_name": "Zeros"}, "kernel_regularizer": null, "activation": "relu"}, "inbound_nodes": [[["batch_normalization_37", 0, 0, {}]]], "class_name": "Conv2D", "name": "conv2d_38"}, {"config": {"center": true, "moving_variance_initializer": {"config": {}, "class_name": "Ones"}, "momentum": 0.99, "axis": 3, "beta_constraint": null, "beta_initializer": {"config": {}, "class_name": "Zeros"}, "scale": true, "gamma_constraint": null, "trainable": true, "epsilon": 0.001, "moving_mean_initializer": {"config": {}, "class_name": "Zeros"}, "beta_regularizer": null, "name": "batch_normalization_33", "gamma_regularizer": null, "gamma_initializer": {"config": {}, "class_name": "Ones"}}, "inbound_nodes": [[["conv2d_33", 0, 0, {}]]], "class_name": "BatchNormalization", "name": "batch_normalization_33"}, {"config": {"center": true, "moving_variance_initializer": {"config": {}, "class_name": "Ones"}, "momentum": 0.99, "axis": 3, "beta_constraint": null, "beta_initializer": {"config": {}, "class_name": "Zeros"}, "scale": true, "gamma_constraint": null, "trainable": true, "epsilon": 0.001, "moving_mean_initializer": {"config": {}, "class_name": "Zeros"}, "beta_regularizer": null, "name": "batch_normalization_38", "gamma_regularizer": null, "gamma_initializer": {"config": {}, "class_name": "Ones"}}, "inbound_nodes": [[["conv2d_38", 0, 0, {}]]], "class_name": "BatchNormalization", "name": "batch_normalization_38"}, {"config": {"trainable": true, "strides": [1, 1], "data_format": "channels_last", "padding": "same", "pool_size": [3, 3], "name": "average_pooling2d_4"}, "inbound_nodes": [[["mixed3", 0, 0, {}]]], "class_name": "AveragePooling2D", "name": "average_pooling2d_4"}, {"config": {"use_bias": true, "strides": [1, 1], "bias_constraint": null, "data_format": "channels_last", "kernel_initializer": {"config": {"scale": 1.0, "mode": "fan_avg", "distribution": "uniform", "seed": null}, "class_name": "VarianceScaling"}, "name": "conv2d_31", "kernel_size": [1, 1], "padding": "same", "trainable": true, "dilation_rate": [1, 1], "bias_regularizer": null, "filters": 96, "kernel_constraint": null, "activity_regularizer": null, "bias_initializer": {"config": {}, "class_name": "Zeros"}, "kernel_regularizer": null, "activation": "relu"}, "inbound_nodes": [[["mixed3", 0, 0, {}]]], "class_name": "Conv2D", "name": "conv2d_31"}, {"config": {"use_bias": true, "strides": [1, 1], "bias_constraint": null, "data_format": "channels_last", "kernel_initializer": {"config": {"scale": 1.0, "mode": "fan_avg", "distribution": "uniform", "seed": null}, "class_name": "VarianceScaling"}, "name": "conv2d_34", "kernel_size": [7, 1], "padding": "same", "trainable": true, "dilation_rate": [1, 1], "bias_regularizer": null, "filters": 96, "kernel_constraint": null, "activity_regularizer": null, "bias_initializer": {"config": {}, "class_name": "Zeros"}, "kernel_regularizer": null, "activation": "relu"}, "inbound_nodes": [[["batch_normalization_33", 0, 0, {}]]], "class_name": "Conv2D", "name": "conv2d_34"}, {"config": {"use_bias": true, "strides": [1, 1], "bias_constraint": null, "data_format": "channels_last", "kernel_initializer": {"config": {"scale": 1.0, "mode": "fan_avg", "distribution": "uniform", "seed": null}, "class_name": "VarianceScaling"}, "name": "conv2d_39", "kernel_size": [1, 7], "padding": "same", "trainable": true, "dilation_rate": [1, 1], "bias_regularizer": null, "filters": 96, "kernel_constraint": null, "activity_regularizer": null, "bias_initializer": {"config": {}, "class_name": "Zeros"}, "kernel_regularizer": null, "activation": "relu"}, "inbound_nodes": [[["batch_normalization_38", 0, 0, {}]]], "class_name": "Conv2D", "name": "conv2d_39"}, {"config": {"use_bias": true, "strides": [1, 1], "bias_constraint": null, "data_format": "channels_last", "kernel_initializer": {"config": {"scale": 1.0, "mode": "fan_avg", "distribution": "uniform", "seed": null}, "class_name": "VarianceScaling"}, "name": "conv2d_40", "kernel_size": [1, 1], "padding": "same", "trainable": true, "dilation_rate": [1, 1], "bias_regularizer": null, "filters": 96, "kernel_constraint": null, "activity_regularizer": null, "bias_initializer": {"config": {}, "class_name": "Zeros"}, "kernel_regularizer": null, "activation": "relu"}, "inbound_nodes": [[["average_pooling2d_4", 0, 0, {}]]], "class_name": "Conv2D", "name": "conv2d_40"}, {"config": {"center": true, "moving_variance_initializer": {"config": {}, "class_name": "Ones"}, "momentum": 0.99, "axis": 3, "beta_constraint": null, "beta_initializer": {"config": {}, "class_name": "Zeros"}, "scale": true, "gamma_constraint": null, "trainable": true, "epsilon": 0.001, "moving_mean_initializer": {"config": {}, "class_name": "Zeros"}, "beta_regularizer": null, "name": "batch_normalization_31", "gamma_regularizer": null, "gamma_initializer": {"config": {}, "class_name": "Ones"}}, "inbound_nodes": [[["conv2d_31", 0, 0, {}]]], "class_name": "BatchNormalization", "name": "batch_normalization_31"}, {"config": {"center": true, "moving_variance_initializer": {"config": {}, "class_name": "Ones"}, "momentum": 0.99, "axis": 3, "beta_constraint": null, "beta_initializer": {"config": {}, "class_name": "Zeros"}, "scale": true, "gamma_constraint": null, "trainable": true, "epsilon": 0.001, "moving_mean_initializer": {"config": {}, "class_name": "Zeros"}, "beta_regularizer": null, "name": "batch_normalization_34", "gamma_regularizer": null, "gamma_initializer": {"config": {}, "class_name": "Ones"}}, "inbound_nodes": [[["conv2d_34", 0, 0, {}]]], "class_name": "BatchNormalization", "name": "batch_normalization_34"}, {"config": {"center": true, "moving_variance_initializer": {"config": {}, "class_name": "Ones"}, "momentum": 0.99, "axis": 3, "beta_constraint": null, "beta_initializer": {"config": {}, "class_name": "Zeros"}, "scale": true, "gamma_constraint": null, "trainable": true, "epsilon": 0.001, "moving_mean_initializer": {"config": {}, "class_name": "Zeros"}, "beta_regularizer": null, "name": "batch_normalization_39", "gamma_regularizer": null, "gamma_initializer": {"config": {}, "class_name": "Ones"}}, "inbound_nodes": [[["conv2d_39", 0, 0, {}]]], "class_name": "BatchNormalization", "name": "batch_normalization_39"}, {"config": {"center": true, "moving_variance_initializer": {"config": {}, "class_name": "Ones"}, "momentum": 0.99, "axis": 3, "beta_constraint": null, "beta_initializer": {"config": {}, "class_name": "Zeros"}, "scale": true, "gamma_constraint": null, "trainable": true, "epsilon": 0.001, "moving_mean_initializer": {"config": {}, "class_name": "Zeros"}, "beta_regularizer": null, "name": "batch_normalization_40", "gamma_regularizer": null, "gamma_initializer": {"config": {}, "class_name": "Ones"}}, "inbound_nodes": [[["conv2d_40", 0, 0, {}]]], "class_name": "BatchNormalization", "name": "batch_normalization_40"}, {"config": {"trainable": true, "axis": -1, "name": "mixed4"}, "inbound_nodes": [[["batch_normalization_31", 0, 0, {}], ["batch_normalization_34", 0, 0, {}], ["batch_normalization_39", 0, 0, {}], ["batch_normalization_40", 0, 0, {}]]], "class_name": "Concatenate", "name": "mixed4"}, {"config": {"use_bias": true, "strides": [1, 1], "bias_constraint": null, "data_format": "channels_last", "kernel_initializer": {"config": {"scale": 1.0, "mode": "fan_avg", "distribution": "uniform", "seed": null}, "class_name": "VarianceScaling"}, "name": "conv2d_45", "kernel_size": [1, 1], "padding": "same", "trainable": true, "dilation_rate": [1, 1], "bias_regularizer": null, "filters": 80, "kernel_constraint": null, "activity_regularizer": null, "bias_initializer": {"config": {}, "class_name": "Zeros"}, "kernel_regularizer": null, "activation": "relu"}, "inbound_nodes": [[["mixed4", 0, 0, {}]]], "class_name": "Conv2D", "name": "conv2d_45"}, {"config": {"center": true, "moving_variance_initializer": {"config": {}, "class_name": "Ones"}, "momentum": 0.99, "axis": 3, "beta_constraint": null, "beta_initializer": {"config": {}, "class_name": "Zeros"}, "scale": true, "gamma_constraint": null, "trainable": true, "epsilon": 0.001, "moving_mean_initializer": {"config": {}, "class_name": "Zeros"}, "beta_regularizer": null, "name": "batch_normalization_45", "gamma_regularizer": null, "gamma_initializer": {"config": {}, "class_name": "Ones"}}, "inbound_nodes": [[["conv2d_45", 0, 0, {}]]], "class_name": "BatchNormalization", "name": "batch_normalization_45"}, {"config": {"use_bias": true, "strides": [1, 1], "bias_constraint": null, "data_format": "channels_last", "kernel_initializer": {"config": {"scale": 1.0, "mode": "fan_avg", "distribution": "uniform", "seed": null}, "class_name": "VarianceScaling"}, "name": "conv2d_46", "kernel_size": [7, 1], "padding": "same", "trainable": true, "dilation_rate": [1, 1], "bias_regularizer": null, "filters": 80, "kernel_constraint": null, "activity_regularizer": null, "bias_initializer": {"config": {}, "class_name": "Zeros"}, "kernel_regularizer": null, "activation": "relu"}, "inbound_nodes": [[["batch_normalization_45", 0, 0, {}]]], "class_name": "Conv2D", "name": "conv2d_46"}, {"config": {"center": true, "moving_variance_initializer": {"config": {}, "class_name": "Ones"}, "momentum": 0.99, "axis": 3, "beta_constraint": null, "beta_initializer": {"config": {}, "class_name": "Zeros"}, "scale": true, "gamma_constraint": null, "trainable": true, "epsilon": 0.001, "moving_mean_initializer": {"config": {}, "class_name": "Zeros"}, "beta_regularizer": null, "name": "batch_normalization_46", "gamma_regularizer": null, "gamma_initializer": {"config": {}, "class_name": "Ones"}}, "inbound_nodes": [[["conv2d_46", 0, 0, {}]]], "class_name": "BatchNormalization", "name": "batch_normalization_46"}, {"config": {"use_bias": true, "strides": [1, 1], "bias_constraint": null, "data_format": "channels_last", "kernel_initializer": {"config": {"scale": 1.0, "mode": "fan_avg", "distribution": "uniform", "seed": null}, "class_name": "VarianceScaling"}, "name": "conv2d_42", "kernel_size": [1, 1], "padding": "same", "trainable": true, "dilation_rate": [1, 1], "bias_regularizer": null, "filters": 80, "kernel_constraint": null, "activity_regularizer": null, "bias_initializer": {"config": {}, "class_name": "Zeros"}, "kernel_regularizer": null, "activation": "relu"}, "inbound_nodes": [[["mixed4", 0, 0, {}]]], "class_name": "Conv2D", "name": "conv2d_42"}, {"config": {"use_bias": true, "strides": [1, 1], "bias_constraint": null, "data_format": "channels_last", "kernel_initializer": {"config": {"scale": 1.0, "mode": "fan_avg", "distribution": "uniform", "seed": null}, "class_name": "VarianceScaling"}, "name": "conv2d_47", "kernel_size": [1, 7], "padding": "same", "trainable": true, "dilation_rate": [1, 1], "bias_regularizer": null, "filters": 80, "kernel_constraint": null, "activity_regularizer": null, "bias_initializer": {"config": {}, "class_name": "Zeros"}, "kernel_regularizer": null, "activation": "relu"}, "inbound_nodes": [[["batch_normalization_46", 0, 0, {}]]], "class_name": "Conv2D", "name": "conv2d_47"}, {"config": {"center": true, "moving_variance_initializer": {"config": {}, "class_name": "Ones"}, "momentum": 0.99, "axis": 3, "beta_constraint": null, "beta_initializer": {"config": {}, "class_name": "Zeros"}, "scale": true, "gamma_constraint": null, "trainable": true, "epsilon": 0.001, "moving_mean_initializer": {"config": {}, "class_name": "Zeros"}, "beta_regularizer": null, "name": "batch_normalization_42", "gamma_regularizer": null, "gamma_initializer": {"config": {}, "class_name": "Ones"}}, "inbound_nodes": [[["conv2d_42", 0, 0, {}]]], "class_name": "BatchNormalization", "name": "batch_normalization_42"}, {"config": {"center": true, "moving_variance_initializer": {"config": {}, "class_name": "Ones"}, "momentum": 0.99, "axis": 3, "beta_constraint": null, "beta_initializer": {"config": {}, "class_name": "Zeros"}, "scale": true, "gamma_constraint": null, "trainable": true, "epsilon": 0.001, "moving_mean_initializer": {"config": {}, "class_name": "Zeros"}, "beta_regularizer": null, "name": "batch_normalization_47", "gamma_regularizer": null, "gamma_initializer": {"config": {}, "class_name": "Ones"}}, "inbound_nodes": [[["conv2d_47", 0, 0, {}]]], "class_name": "BatchNormalization", "name": "batch_normalization_47"}, {"config": {"use_bias": true, "strides": [1, 1], "bias_constraint": null, "data_format": "channels_last", "kernel_initializer": {"config": {"scale": 1.0, "mode": "fan_avg", "distribution": "uniform", "seed": null}, "class_name": "VarianceScaling"}, "name": "conv2d_43", "kernel_size": [1, 7], "padding": "same", "trainable": true, "dilation_rate": [1, 1], "bias_regularizer": null, "filters": 80, "kernel_constraint": null, "activity_regularizer": null, "bias_initializer": {"config": {}, "class_name": "Zeros"}, "kernel_regularizer": null, "activation": "relu"}, "inbound_nodes": [[["batch_normalization_42", 0, 0, {}]]], "class_name": "Conv2D", "name": "conv2d_43"}, {"config": {"use_bias": true, "strides": [1, 1], "bias_constraint": null, "data_format": "channels_last", "kernel_initializer": {"config": {"scale": 1.0, "mode": "fan_avg", "distribution": "uniform", "seed": null}, "class_name": "VarianceScaling"}, "name": "conv2d_48", "kernel_size": [7, 1], "padding": "same", "trainable": true, "dilation_rate": [1, 1], "bias_regularizer": null, "filters": 80, "kernel_constraint": null, "activity_regularizer": null, "bias_initializer": {"config": {}, "class_name": "Zeros"}, "kernel_regularizer": null, "activation": "relu"}, "inbound_nodes": [[["batch_normalization_47", 0, 0, {}]]], "class_name": "Conv2D", "name": "conv2d_48"}, {"config": {"center": true, "moving_variance_initializer": {"config": {}, "class_name": "Ones"}, "momentum": 0.99, "axis": 3, "beta_constraint": null, "beta_initializer": {"config": {}, "class_name": "Zeros"}, "scale": true, "gamma_constraint": null, "trainable": true, "epsilon": 0.001, "moving_mean_initializer": {"config": {}, "class_name": "Zeros"}, "beta_regularizer": null, "name": "batch_normalization_43", "gamma_regularizer": null, "gamma_initializer": {"config": {}, "class_name": "Ones"}}, "inbound_nodes": [[["conv2d_43", 0, 0, {}]]], "class_name": "BatchNormalization", "name": "batch_normalization_43"}, {"config": {"center": true, "moving_variance_initializer": {"config": {}, "class_name": "Ones"}, "momentum": 0.99, "axis": 3, "beta_constraint": null, "beta_initializer": {"config": {}, "class_name": "Zeros"}, "scale": true, "gamma_constraint": null, "trainable": true, "epsilon": 0.001, "moving_mean_initializer": {"config": {}, "class_name": "Zeros"}, "beta_regularizer": null, "name": "batch_normalization_48", "gamma_regularizer": null, "gamma_initializer": {"config": {}, "class_name": "Ones"}}, "inbound_nodes": [[["conv2d_48", 0, 0, {}]]], "class_name": "BatchNormalization", "name": "batch_normalization_48"}, {"config": {"trainable": true, "strides": [1, 1], "data_format": "channels_last", "padding": "same", "pool_size": [3, 3], "name": "average_pooling2d_5"}, "inbound_nodes": [[["mixed4", 0, 0, {}]]], "class_name": "AveragePooling2D", "name": "average_pooling2d_5"}, {"config": {"use_bias": true, "strides": [1, 1], "bias_constraint": null, "data_format": "channels_last", "kernel_initializer": {"config": {"scale": 1.0, "mode": "fan_avg", "distribution": "uniform", "seed": null}, "class_name": "VarianceScaling"}, "name": "conv2d_41", "kernel_size": [1, 1], "padding": "same", "trainable": true, "dilation_rate": [1, 1], "bias_regularizer": null, "filters": 96, "kernel_constraint": null, "activity_regularizer": null, "bias_initializer": {"config": {}, "class_name": "Zeros"}, "kernel_regularizer": null, "activation": "relu"}, "inbound_nodes": [[["mixed4", 0, 0, {}]]], "class_name": "Conv2D", "name": "conv2d_41"}, {"config": {"use_bias": true, "strides": [1, 1], "bias_constraint": null, "data_format": "channels_last", "kernel_initializer": {"config": {"scale": 1.0, "mode": "fan_avg", "distribution": "uniform", "seed": null}, "class_name": "VarianceScaling"}, "name": "conv2d_44", "kernel_size": [7, 1], "padding": "same", "trainable": true, "dilation_rate": [1, 1], "bias_regularizer": null, "filters": 96, "kernel_constraint": null, "activity_regularizer": null, "bias_initializer": {"config": {}, "class_name": "Zeros"}, "kernel_regularizer": null, "activation": "relu"}, "inbound_nodes": [[["batch_normalization_43", 0, 0, {}]]], "class_name": "Conv2D", "name": "conv2d_44"}, {"config": {"use_bias": true, "strides": [1, 1], "bias_constraint": null, "data_format": "channels_last", "kernel_initializer": {"config": {"scale": 1.0, "mode": "fan_avg", "distribution": "uniform", "seed": null}, "class_name": "VarianceScaling"}, "name": "conv2d_49", "kernel_size": [1, 7], "padding": "same", "trainable": true, "dilation_rate": [1, 1], "bias_regularizer": null, "filters": 96, "kernel_constraint": null, "activity_regularizer": null, "bias_initializer": {"config": {}, "class_name": "Zeros"}, "kernel_regularizer": null, "activation": "relu"}, "inbound_nodes": [[["batch_normalization_48", 0, 0, {}]]], "class_name": "Conv2D", "name": "conv2d_49"}, {"config": {"use_bias": true, "strides": [1, 1], "bias_constraint": null, "data_format": "channels_last", "kernel_initializer": {"config": {"scale": 1.0, "mode": "fan_avg", "distribution": "uniform", "seed": null}, "class_name": "VarianceScaling"}, "name": "conv2d_50", "kernel_size": [1, 1], "padding": "same", "trainable": true, "dilation_rate": [1, 1], "bias_regularizer": null, "filters": 96, "kernel_constraint": null, "activity_regularizer": null, "bias_initializer": {"config": {}, "class_name": "Zeros"}, "kernel_regularizer": null, "activation": "relu"}, "inbound_nodes": [[["average_pooling2d_5", 0, 0, {}]]], "class_name": "Conv2D", "name": "conv2d_50"}, {"config": {"center": true, "moving_variance_initializer": {"config": {}, "class_name": "Ones"}, "momentum": 0.99, "axis": 3, "beta_constraint": null, "beta_initializer": {"config": {}, "class_name": "Zeros"}, "scale": true, "gamma_constraint": null, "trainable": true, "epsilon": 0.001, "moving_mean_initializer": {"config": {}, "class_name": "Zeros"}, "beta_regularizer": null, "name": "batch_normalization_41", "gamma_regularizer": null, "gamma_initializer": {"config": {}, "class_name": "Ones"}}, "inbound_nodes": [[["conv2d_41", 0, 0, {}]]], "class_name": "BatchNormalization", "name": "batch_normalization_41"}, {"config": {"center": true, "moving_variance_initializer": {"config": {}, "class_name": "Ones"}, "momentum": 0.99, "axis": 3, "beta_constraint": null, "beta_initializer": {"config": {}, "class_name": "Zeros"}, "scale": true, "gamma_constraint": null, "trainable": true, "epsilon": 0.001, "moving_mean_initializer": {"config": {}, "class_name": "Zeros"}, "beta_regularizer": null, "name": "batch_normalization_44", "gamma_regularizer": null, "gamma_initializer": {"config": {}, "class_name": "Ones"}}, "inbound_nodes": [[["conv2d_44", 0, 0, {}]]], "class_name": "BatchNormalization", "name": "batch_normalization_44"}, {"config": {"center": true, "moving_variance_initializer": {"config": {}, "class_name": "Ones"}, "momentum": 0.99, "axis": 3, "beta_constraint": null, "beta_initializer": {"config": {}, "class_name": "Zeros"}, "scale": true, "gamma_constraint": null, "trainable": true, "epsilon": 0.001, "moving_mean_initializer": {"config": {}, "class_name": "Zeros"}, "beta_regularizer": null, "name": "batch_normalization_49", "gamma_regularizer": null, "gamma_initializer": {"config": {}, "class_name": "Ones"}}, "inbound_nodes": [[["conv2d_49", 0, 0, {}]]], "class_name": "BatchNormalization", "name": "batch_normalization_49"}, {"config": {"center": true, "moving_variance_initializer": {"config": {}, "class_name": "Ones"}, "momentum": 0.99, "axis": 3, "beta_constraint": null, "beta_initializer": {"config": {}, "class_name": "Zeros"}, "scale": true, "gamma_constraint": null, "trainable": true, "epsilon": 0.001, "moving_mean_initializer": {"config": {}, "class_name": "Zeros"}, "beta_regularizer": null, "name": "batch_normalization_50", "gamma_regularizer": null, "gamma_initializer": {"config": {}, "class_name": "Ones"}}, "inbound_nodes": [[["conv2d_50", 0, 0, {}]]], "class_name": "BatchNormalization", "name": "batch_normalization_50"}, {"config": {"trainable": true, "axis": -1, "name": "mixed5"}, "inbound_nodes": [[["batch_normalization_41", 0, 0, {}], ["batch_normalization_44", 0, 0, {}], ["batch_normalization_49", 0, 0, {}], ["batch_normalization_50", 0, 0, {}]]], "class_name": "Concatenate", "name": "mixed5"}, {"config": {"use_bias": true, "strides": [1, 1], "bias_constraint": null, "data_format": "channels_last", "kernel_initializer": {"config": {"scale": 1.0, "mode": "fan_avg", "distribution": "uniform", "seed": null}, "class_name": "VarianceScaling"}, "name": "conv2d_55", "kernel_size": [1, 1], "padding": "same", "trainable": true, "dilation_rate": [1, 1], "bias_regularizer": null, "filters": 80, "kernel_constraint": null, "activity_regularizer": null, "bias_initializer": {"config": {}, "class_name": "Zeros"}, "kernel_regularizer": null, "activation": "relu"}, "inbound_nodes": [[["mixed5", 0, 0, {}]]], "class_name": "Conv2D", "name": "conv2d_55"}, {"config": {"center": true, "moving_variance_initializer": {"config": {}, "class_name": "Ones"}, "momentum": 0.99, "axis": 3, "beta_constraint": null, "beta_initializer": {"config": {}, "class_name": "Zeros"}, "scale": true, "gamma_constraint": null, "trainable": true, "epsilon": 0.001, "moving_mean_initializer": {"config": {}, "class_name": "Zeros"}, "beta_regularizer": null, "name": "batch_normalization_55", "gamma_regularizer": null, "gamma_initializer": {"config": {}, "class_name": "Ones"}}, "inbound_nodes": [[["conv2d_55", 0, 0, {}]]], "class_name": "BatchNormalization", "name": "batch_normalization_55"}, {"config": {"use_bias": true, "strides": [1, 1], "bias_constraint": null, "data_format": "channels_last", "kernel_initializer": {"config": {"scale": 1.0, "mode": "fan_avg", "distribution": "uniform", "seed": null}, "class_name": "VarianceScaling"}, "name": "conv2d_56", "kernel_size": [7, 1], "padding": "same", "trainable": true, "dilation_rate": [1, 1], "bias_regularizer": null, "filters": 80, "kernel_constraint": null, "activity_regularizer": null, "bias_initializer": {"config": {}, "class_name": "Zeros"}, "kernel_regularizer": null, "activation": "relu"}, "inbound_nodes": [[["batch_normalization_55", 0, 0, {}]]], "class_name": "Conv2D", "name": "conv2d_56"}, {"config": {"center": true, "moving_variance_initializer": {"config": {}, "class_name": "Ones"}, "momentum": 0.99, "axis": 3, "beta_constraint": null, "beta_initializer": {"config": {}, "class_name": "Zeros"}, "scale": true, "gamma_constraint": null, "trainable": true, "epsilon": 0.001, "moving_mean_initializer": {"config": {}, "class_name": "Zeros"}, "beta_regularizer": null, "name": "batch_normalization_56", "gamma_regularizer": null, "gamma_initializer": {"config": {}, "class_name": "Ones"}}, "inbound_nodes": [[["conv2d_56", 0, 0, {}]]], "class_name": "BatchNormalization", "name": "batch_normalization_56"}, {"config": {"use_bias": true, "strides": [1, 1], "bias_constraint": null, "data_format": "channels_last", "kernel_initializer": {"config": {"scale": 1.0, "mode": "fan_avg", "distribution": "uniform", "seed": null}, "class_name": "VarianceScaling"}, "name": "conv2d_52", "kernel_size": [1, 1], "padding": "same", "trainable": true, "dilation_rate": [1, 1], "bias_regularizer": null, "filters": 80, "kernel_constraint": null, "activity_regularizer": null, "bias_initializer": {"config": {}, "class_name": "Zeros"}, "kernel_regularizer": null, "activation": "relu"}, "inbound_nodes": [[["mixed5", 0, 0, {}]]], "class_name": "Conv2D", "name": "conv2d_52"}, {"config": {"use_bias": true, "strides": [1, 1], "bias_constraint": null, "data_format": "channels_last", "kernel_initializer": {"config": {"scale": 1.0, "mode": "fan_avg", "distribution": "uniform", "seed": null}, "class_name": "VarianceScaling"}, "name": "conv2d_57", "kernel_size": [1, 7], "padding": "same", "trainable": true, "dilation_rate": [1, 1], "bias_regularizer": null, "filters": 80, "kernel_constraint": null, "activity_regularizer": null, "bias_initializer": {"config": {}, "class_name": "Zeros"}, "kernel_regularizer": null, "activation": "relu"}, "inbound_nodes": [[["batch_normalization_56", 0, 0, {}]]], "class_name": "Conv2D", "name": "conv2d_57"}, {"config": {"center": true, "moving_variance_initializer": {"config": {}, "class_name": "Ones"}, "momentum": 0.99, "axis": 3, "beta_constraint": null, "beta_initializer": {"config": {}, "class_name": "Zeros"}, "scale": true, "gamma_constraint": null, "trainable": true, "epsilon": 0.001, "moving_mean_initializer": {"config": {}, "class_name": "Zeros"}, "beta_regularizer": null, "name": "batch_normalization_52", "gamma_regularizer": null, "gamma_initializer": {"config": {}, "class_name": "Ones"}}, "inbound_nodes": [[["conv2d_52", 0, 0, {}]]], "class_name": "BatchNormalization", "name": "batch_normalization_52"}, {"config": {"center": true, "moving_variance_initializer": {"config": {}, "class_name": "Ones"}, "momentum": 0.99, "axis": 3, "beta_constraint": null, "beta_initializer": {"config": {}, "class_name": "Zeros"}, "scale": true, "gamma_constraint": null, "trainable": true, "epsilon": 0.001, "moving_mean_initializer": {"config": {}, "class_name": "Zeros"}, "beta_regularizer": null, "name": "batch_normalization_57", "gamma_regularizer": null, "gamma_initializer": {"config": {}, "class_name": "Ones"}}, "inbound_nodes": [[["conv2d_57", 0, 0, {}]]], "class_name": "BatchNormalization", "name": "batch_normalization_57"}, {"config": {"use_bias": true, "strides": [1, 1], "bias_constraint": null, "data_format": "channels_last", "kernel_initializer": {"config": {"scale": 1.0, "mode": "fan_avg", "distribution": "uniform", "seed": null}, "class_name": "VarianceScaling"}, "name": "conv2d_53", "kernel_size": [1, 7], "padding": "same", "trainable": true, "dilation_rate": [1, 1], "bias_regularizer": null, "filters": 80, "kernel_constraint": null, "activity_regularizer": null, "bias_initializer": {"config": {}, "class_name": "Zeros"}, "kernel_regularizer": null, "activation": "relu"}, "inbound_nodes": [[["batch_normalization_52", 0, 0, {}]]], "class_name": "Conv2D", "name": "conv2d_53"}, {"config": {"use_bias": true, "strides": [1, 1], "bias_constraint": null, "data_format": "channels_last", "kernel_initializer": {"config": {"scale": 1.0, "mode": "fan_avg", "distribution": "uniform", "seed": null}, "class_name": "VarianceScaling"}, "name": "conv2d_58", "kernel_size": [7, 1], "padding": "same", "trainable": true, "dilation_rate": [1, 1], "bias_regularizer": null, "filters": 80, "kernel_constraint": null, "activity_regularizer": null, "bias_initializer": {"config": {}, "class_name": "Zeros"}, "kernel_regularizer": null, "activation": "relu"}, "inbound_nodes": [[["batch_normalization_57", 0, 0, {}]]], "class_name": "Conv2D", "name": "conv2d_58"}, {"config": {"center": true, "moving_variance_initializer": {"config": {}, "class_name": "Ones"}, "momentum": 0.99, "axis": 3, "beta_constraint": null, "beta_initializer": {"config": {}, "class_name": "Zeros"}, "scale": true, "gamma_constraint": null, "trainable": true, "epsilon": 0.001, "moving_mean_initializer": {"config": {}, "class_name": "Zeros"}, "beta_regularizer": null, "name": "batch_normalization_53", "gamma_regularizer": null, "gamma_initializer": {"config": {}, "class_name": "Ones"}}, "inbound_nodes": [[["conv2d_53", 0, 0, {}]]], "class_name": "BatchNormalization", "name": "batch_normalization_53"}, {"config": {"center": true, "moving_variance_initializer": {"config": {}, "class_name": "Ones"}, "momentum": 0.99, "axis": 3, "beta_constraint": null, "beta_initializer": {"config": {}, "class_name": "Zeros"}, "scale": true, "gamma_constraint": null, "trainable": true, "epsilon": 0.001, "moving_mean_initializer": {"config": {}, "class_name": "Zeros"}, "beta_regularizer": null, "name": "batch_normalization_58", "gamma_regularizer": null, "gamma_initializer": {"config": {}, "class_name": "Ones"}}, "inbound_nodes": [[["conv2d_58", 0, 0, {}]]], "class_name": "BatchNormalization", "name": "batch_normalization_58"}, {"config": {"trainable": true, "strides": [1, 1], "data_format": "channels_last", "padding": "same", "pool_size": [3, 3], "name": "average_pooling2d_6"}, "inbound_nodes": [[["mixed5", 0, 0, {}]]], "class_name": "AveragePooling2D", "name": "average_pooling2d_6"}, {"config": {"use_bias": true, "strides": [1, 1], "bias_constraint": null, "data_format": "channels_last", "kernel_initializer": {"config": {"scale": 1.0, "mode": "fan_avg", "distribution": "uniform", "seed": null}, "class_name": "VarianceScaling"}, "name": "conv2d_51", "kernel_size": [1, 1], "padding": "same", "trainable": true, "dilation_rate": [1, 1], "bias_regularizer": null, "filters": 96, "kernel_constraint": null, "activity_regularizer": null, "bias_initializer": {"config": {}, "class_name": "Zeros"}, "kernel_regularizer": null, "activation": "relu"}, "inbound_nodes": [[["mixed5", 0, 0, {}]]], "class_name": "Conv2D", "name": "conv2d_51"}, {"config": {"use_bias": true, "strides": [1, 1], "bias_constraint": null, "data_format": "channels_last", "kernel_initializer": {"config": {"scale": 1.0, "mode": "fan_avg", "distribution": "uniform", "seed": null}, "class_name": "VarianceScaling"}, "name": "conv2d_54", "kernel_size": [7, 1], "padding": "same", "trainable": true, "dilation_rate": [1, 1], "bias_regularizer": null, "filters": 96, "kernel_constraint": null, "activity_regularizer": null, "bias_initializer": {"config": {}, "class_name": "Zeros"}, "kernel_regularizer": null, "activation": "relu"}, "inbound_nodes": [[["batch_normalization_53", 0, 0, {}]]], "class_name": "Conv2D", "name": "conv2d_54"}, {"config": {"use_bias": true, "strides": [1, 1], "bias_constraint": null, "data_format": "channels_last", "kernel_initializer": {"config": {"scale": 1.0, "mode": "fan_avg", "distribution": "uniform", "seed": null}, "class_name": "VarianceScaling"}, "name": "conv2d_59", "kernel_size": [1, 7], "padding": "same", "trainable": true, "dilation_rate": [1, 1], "bias_regularizer": null, "filters": 96, "kernel_constraint": null, "activity_regularizer": null, "bias_initializer": {"config": {}, "class_name": "Zeros"}, "kernel_regularizer": null, "activation": "relu"}, "inbound_nodes": [[["batch_normalization_58", 0, 0, {}]]], "class_name": "Conv2D", "name": "conv2d_59"}, {"config": {"use_bias": true, "strides": [1, 1], "bias_constraint": null, "data_format": "channels_last", "kernel_initializer": {"config": {"scale": 1.0, "mode": "fan_avg", "distribution": "uniform", "seed": null}, "class_name": "VarianceScaling"}, "name": "conv2d_60", "kernel_size": [1, 1], "padding": "same", "trainable": true, "dilation_rate": [1, 1], "bias_regularizer": null, "filters": 96, "kernel_constraint": null, "activity_regularizer": null, "bias_initializer": {"config": {}, "class_name": "Zeros"}, "kernel_regularizer": null, "activation": "relu"}, "inbound_nodes": [[["average_pooling2d_6", 0, 0, {}]]], "class_name": "Conv2D", "name": "conv2d_60"}, {"config": {"center": true, "moving_variance_initializer": {"config": {}, "class_name": "Ones"}, "momentum": 0.99, "axis": 3, "beta_constraint": null, "beta_initializer": {"config": {}, "class_name": "Zeros"}, "scale": true, "gamma_constraint": null, "trainable": true, "epsilon": 0.001, "moving_mean_initializer": {"config": {}, "class_name": "Zeros"}, "beta_regularizer": null, "name": "batch_normalization_51", "gamma_regularizer": null, "gamma_initializer": {"config": {}, "class_name": "Ones"}}, "inbound_nodes": [[["conv2d_51", 0, 0, {}]]], "class_name": "BatchNormalization", "name": "batch_normalization_51"}, {"config": {"center": true, "moving_variance_initializer": {"config": {}, "class_name": "Ones"}, "momentum": 0.99, "axis": 3, "beta_constraint": null, "beta_initializer": {"config": {}, "class_name": "Zeros"}, "scale": true, "gamma_constraint": null, "trainable": true, "epsilon": 0.001, "moving_mean_initializer": {"config": {}, "class_name": "Zeros"}, "beta_regularizer": null, "name": "batch_normalization_54", "gamma_regularizer": null, "gamma_initializer": {"config": {}, "class_name": "Ones"}}, "inbound_nodes": [[["conv2d_54", 0, 0, {}]]], "class_name": "BatchNormalization", "name": "batch_normalization_54"}, {"config": {"center": true, "moving_variance_initializer": {"config": {}, "class_name": "Ones"}, "momentum": 0.99, "axis": 3, "beta_constraint": null, "beta_initializer": {"config": {}, "class_name": "Zeros"}, "scale": true, "gamma_constraint": null, "trainable": true, "epsilon": 0.001, "moving_mean_initializer": {"config": {}, "class_name": "Zeros"}, "beta_regularizer": null, "name": "batch_normalization_59", "gamma_regularizer": null, "gamma_initializer": {"config": {}, "class_name": "Ones"}}, "inbound_nodes": [[["conv2d_59", 0, 0, {}]]], "class_name": "BatchNormalization", "name": "batch_normalization_59"}, {"config": {"center": true, "moving_variance_initializer": {"config": {}, "class_name": "Ones"}, "momentum": 0.99, "axis": 3, "beta_constraint": null, "beta_initializer": {"config": {}, "class_name": "Zeros"}, "scale": true, "gamma_constraint": null, "trainable": true, "epsilon": 0.001, "moving_mean_initializer": {"config": {}, "class_name": "Zeros"}, "beta_regularizer": null, "name": "batch_normalization_60", "gamma_regularizer": null, "gamma_initializer": {"config": {}, "class_name": "Ones"}}, "inbound_nodes": [[["conv2d_60", 0, 0, {}]]], "class_name": "BatchNormalization", "name": "batch_normalization_60"}, {"config": {"trainable": true, "axis": -1, "name": "mixed6"}, "inbound_nodes": [[["batch_normalization_51", 0, 0, {}], ["batch_normalization_54", 0, 0, {}], ["batch_normalization_59", 0, 0, {}], ["batch_normalization_60", 0, 0, {}]]], "class_name": "Concatenate", "name": "mixed6"}, {"config": {"use_bias": true, "strides": [1, 1], "bias_constraint": null, "data_format": "channels_last", "kernel_initializer": {"config": {"scale": 1.0, "mode": "fan_avg", "distribution": "uniform", "seed": null}, "class_name": "VarianceScaling"}, "name": "conv2d_65", "kernel_size": [1, 1], "padding": "same", "trainable": true, "dilation_rate": [1, 1], "bias_regularizer": null, "filters": 80, "kernel_constraint": null, "activity_regularizer": null, "bias_initializer": {"config": {}, "class_name": "Zeros"}, "kernel_regularizer": null, "activation": "relu"}, "inbound_nodes": [[["mixed6", 0, 0, {}]]], "class_name": "Conv2D", "name": "conv2d_65"}, {"config": {"center": true, "moving_variance_initializer": {"config": {}, "class_name": "Ones"}, "momentum": 0.99, "axis": 3, "beta_constraint": null, "beta_initializer": {"config": {}, "class_name": "Zeros"}, "scale": true, "gamma_constraint": null, "trainable": true, "epsilon": 0.001, "moving_mean_initializer": {"config": {}, "class_name": "Zeros"}, "beta_regularizer": null, "name": "batch_normalization_65", "gamma_regularizer": null, "gamma_initializer": {"config": {}, "class_name": "Ones"}}, "inbound_nodes": [[["conv2d_65", 0, 0, {}]]], "class_name": "BatchNormalization", "name": "batch_normalization_65"}, {"config": {"use_bias": true, "strides": [1, 1], "bias_constraint": null, "data_format": "channels_last", "kernel_initializer": {"config": {"scale": 1.0, "mode": "fan_avg", "distribution": "uniform", "seed": null}, "class_name": "VarianceScaling"}, "name": "conv2d_66", "kernel_size": [7, 1], "padding": "same", "trainable": true, "dilation_rate": [1, 1], "bias_regularizer": null, "filters": 96, "kernel_constraint": null, "activity_regularizer": null, "bias_initializer": {"config": {}, "class_name": "Zeros"}, "kernel_regularizer": null, "activation": "relu"}, "inbound_nodes": [[["batch_normalization_65", 0, 0, {}]]], "class_name": "Conv2D", "name": "conv2d_66"}, {"config": {"center": true, "moving_variance_initializer": {"config": {}, "class_name": "Ones"}, "momentum": 0.99, "axis": 3, "beta_constraint": null, "beta_initializer": {"config": {}, "class_name": "Zeros"}, "scale": true, "gamma_constraint": null, "trainable": true, "epsilon": 0.001, "moving_mean_initializer": {"config": {}, "class_name": "Zeros"}, "beta_regularizer": null, "name": "batch_normalization_66", "gamma_regularizer": null, "gamma_initializer": {"config": {}, "class_name": "Ones"}}, "inbound_nodes": [[["conv2d_66", 0, 0, {}]]], "class_name": "BatchNormalization", "name": "batch_normalization_66"}, {"config": {"use_bias": true, "strides": [1, 1], "bias_constraint": null, "data_format": "channels_last", "kernel_initializer": {"config": {"scale": 1.0, "mode": "fan_avg", "distribution": "uniform", "seed": null}, "class_name": "VarianceScaling"}, "name": "conv2d_62", "kernel_size": [1, 1], "padding": "same", "trainable": true, "dilation_rate": [1, 1], "bias_regularizer": null, "filters": 96, "kernel_constraint": null, "activity_regularizer": null, "bias_initializer": {"config": {}, "class_name": "Zeros"}, "kernel_regularizer": null, "activation": "relu"}, "inbound_nodes": [[["mixed6", 0, 0, {}]]], "class_name": "Conv2D", "name": "conv2d_62"}, {"config": {"use_bias": true, "strides": [1, 1], "bias_constraint": null, "data_format": "channels_last", "kernel_initializer": {"config": {"scale": 1.0, "mode": "fan_avg", "distribution": "uniform", "seed": null}, "class_name": "VarianceScaling"}, "name": "conv2d_67", "kernel_size": [1, 7], "padding": "same", "trainable": true, "dilation_rate": [1, 1], "bias_regularizer": null, "filters": 96, "kernel_constraint": null, "activity_regularizer": null, "bias_initializer": {"config": {}, "class_name": "Zeros"}, "kernel_regularizer": null, "activation": "relu"}, "inbound_nodes": [[["batch_normalization_66", 0, 0, {}]]], "class_name": "Conv2D", "name": "conv2d_67"}, {"config": {"center": true, "moving_variance_initializer": {"config": {}, "class_name": "Ones"}, "momentum": 0.99, "axis": 3, "beta_constraint": null, "beta_initializer": {"config": {}, "class_name": "Zeros"}, "scale": true, "gamma_constraint": null, "trainable": true, "epsilon": 0.001, "moving_mean_initializer": {"config": {}, "class_name": "Zeros"}, "beta_regularizer": null, "name": "batch_normalization_62", "gamma_regularizer": null, "gamma_initializer": {"config": {}, "class_name": "Ones"}}, "inbound_nodes": [[["conv2d_62", 0, 0, {}]]], "class_name": "BatchNormalization", "name": "batch_normalization_62"}, {"config": {"center": true, "moving_variance_initializer": {"config": {}, "class_name": "Ones"}, "momentum": 0.99, "axis": 3, "beta_constraint": null, "beta_initializer": {"config": {}, "class_name": "Zeros"}, "scale": true, "gamma_constraint": null, "trainable": true, "epsilon": 0.001, "moving_mean_initializer": {"config": {}, "class_name": "Zeros"}, "beta_regularizer": null, "name": "batch_normalization_67", "gamma_regularizer": null, "gamma_initializer": {"config": {}, "class_name": "Ones"}}, "inbound_nodes": [[["conv2d_67", 0, 0, {}]]], "class_name": "BatchNormalization", "name": "batch_normalization_67"}, {"config": {"use_bias": true, "strides": [1, 1], "bias_constraint": null, "data_format": "channels_last", "kernel_initializer": {"config": {"scale": 1.0, "mode": "fan_avg", "distribution": "uniform", "seed": null}, "class_name": "VarianceScaling"}, "name": "conv2d_63", "kernel_size": [1, 7], "padding": "same", "trainable": true, "dilation_rate": [1, 1], "bias_regularizer": null, "filters": 96, "kernel_constraint": null, "activity_regularizer": null, "bias_initializer": {"config": {}, "class_name": "Zeros"}, "kernel_regularizer": null, "activation": "relu"}, "inbound_nodes": [[["batch_normalization_62", 0, 0, {}]]], "class_name": "Conv2D", "name": "conv2d_63"}, {"config": {"use_bias": true, "strides": [1, 1], "bias_constraint": null, "data_format": "channels_last", "kernel_initializer": {"config": {"scale": 1.0, "mode": "fan_avg", "distribution": "uniform", "seed": null}, "class_name": "VarianceScaling"}, "name": "conv2d_68", "kernel_size": [7, 1], "padding": "same", "trainable": true, "dilation_rate": [1, 1], "bias_regularizer": null, "filters": 96, "kernel_constraint": null, "activity_regularizer": null, "bias_initializer": {"config": {}, "class_name": "Zeros"}, "kernel_regularizer": null, "activation": "relu"}, "inbound_nodes": [[["batch_normalization_67", 0, 0, {}]]], "class_name": "Conv2D", "name": "conv2d_68"}, {"config": {"center": true, "moving_variance_initializer": {"config": {}, "class_name": "Ones"}, "momentum": 0.99, "axis": 3, "beta_constraint": null, "beta_initializer": {"config": {}, "class_name": "Zeros"}, "scale": true, "gamma_constraint": null, "trainable": true, "epsilon": 0.001, "moving_mean_initializer": {"config": {}, "class_name": "Zeros"}, "beta_regularizer": null, "name": "batch_normalization_63", "gamma_regularizer": null, "gamma_initializer": {"config": {}, "class_name": "Ones"}}, "inbound_nodes": [[["conv2d_63", 0, 0, {}]]], "class_name": "BatchNormalization", "name": "batch_normalization_63"}, {"config": {"center": true, "moving_variance_initializer": {"config": {}, "class_name": "Ones"}, "momentum": 0.99, "axis": 3, "beta_constraint": null, "beta_initializer": {"config": {}, "class_name": "Zeros"}, "scale": true, "gamma_constraint": null, "trainable": true, "epsilon": 0.001, "moving_mean_initializer": {"config": {}, "class_name": "Zeros"}, "beta_regularizer": null, "name": "batch_normalization_68", "gamma_regularizer": null, "gamma_initializer": {"config": {}, "class_name": "Ones"}}, "inbound_nodes": [[["conv2d_68", 0, 0, {}]]], "class_name": "BatchNormalization", "name": "batch_normalization_68"}, {"config": {"trainable": true, "strides": [1, 1], "data_format": "channels_last", "padding": "same", "pool_size": [3, 3], "name": "average_pooling2d_7"}, "inbound_nodes": [[["mixed6", 0, 0, {}]]], "class_name": "AveragePooling2D", "name": "average_pooling2d_7"}, {"config": {"use_bias": true, "strides": [1, 1], "bias_constraint": null, "data_format": "channels_last", "kernel_initializer": {"config": {"scale": 1.0, "mode": "fan_avg", "distribution": "uniform", "seed": null}, "class_name": "VarianceScaling"}, "name": "conv2d_61", "kernel_size": [1, 1], "padding": "same", "trainable": true, "dilation_rate": [1, 1], "bias_regularizer": null, "filters": 96, "kernel_constraint": null, "activity_regularizer": null, "bias_initializer": {"config": {}, "class_name": "Zeros"}, "kernel_regularizer": null, "activation": "relu"}, "inbound_nodes": [[["mixed6", 0, 0, {}]]], "class_name": "Conv2D", "name": "conv2d_61"}, {"config": {"use_bias": true, "strides": [1, 1], "bias_constraint": null, "data_format": "channels_last", "kernel_initializer": {"config": {"scale": 1.0, "mode": "fan_avg", "distribution": "uniform", "seed": null}, "class_name": "VarianceScaling"}, "name": "conv2d_64", "kernel_size": [7, 1], "padding": "same", "trainable": true, "dilation_rate": [1, 1], "bias_regularizer": null, "filters": 96, "kernel_constraint": null, "activity_regularizer": null, "bias_initializer": {"config": {}, "class_name": "Zeros"}, "kernel_regularizer": null, "activation": "relu"}, "inbound_nodes": [[["batch_normalization_63", 0, 0, {}]]], "class_name": "Conv2D", "name": "conv2d_64"}, {"config": {"use_bias": true, "strides": [1, 1], "bias_constraint": null, "data_format": "channels_last", "kernel_initializer": {"config": {"scale": 1.0, "mode": "fan_avg", "distribution": "uniform", "seed": null}, "class_name": "VarianceScaling"}, "name": "conv2d_69", "kernel_size": [1, 7], "padding": "same", "trainable": true, "dilation_rate": [1, 1], "bias_regularizer": null, "filters": 96, "kernel_constraint": null, "activity_regularizer": null, "bias_initializer": {"config": {}, "class_name": "Zeros"}, "kernel_regularizer": null, "activation": "relu"}, "inbound_nodes": [[["batch_normalization_68", 0, 0, {}]]], "class_name": "Conv2D", "name": "conv2d_69"}, {"config": {"use_bias": true, "strides": [1, 1], "bias_constraint": null, "data_format": "channels_last", "kernel_initializer": {"config": {"scale": 1.0, "mode": "fan_avg", "distribution": "uniform", "seed": null}, "class_name": "VarianceScaling"}, "name": "conv2d_70", "kernel_size": [1, 1], "padding": "same", "trainable": true, "dilation_rate": [1, 1], "bias_regularizer": null, "filters": 96, "kernel_constraint": null, "activity_regularizer": null, "bias_initializer": {"config": {}, "class_name": "Zeros"}, "kernel_regularizer": null, "activation": "relu"}, "inbound_nodes": [[["average_pooling2d_7", 0, 0, {}]]], "class_name": "Conv2D", "name": "conv2d_70"}, {"config": {"center": true, "moving_variance_initializer": {"config": {}, "class_name": "Ones"}, "momentum": 0.99, "axis": 3, "beta_constraint": null, "beta_initializer": {"config": {}, "class_name": "Zeros"}, "scale": true, "gamma_constraint": null, "trainable": true, "epsilon": 0.001, "moving_mean_initializer": {"config": {}, "class_name": "Zeros"}, "beta_regularizer": null, "name": "batch_normalization_61", "gamma_regularizer": null, "gamma_initializer": {"config": {}, "class_name": "Ones"}}, "inbound_nodes": [[["conv2d_61", 0, 0, {}]]], "class_name": "BatchNormalization", "name": "batch_normalization_61"}, {"config": {"center": true, "moving_variance_initializer": {"config": {}, "class_name": "Ones"}, "momentum": 0.99, "axis": 3, "beta_constraint": null, "beta_initializer": {"config": {}, "class_name": "Zeros"}, "scale": true, "gamma_constraint": null, "trainable": true, "epsilon": 0.001, "moving_mean_initializer": {"config": {}, "class_name": "Zeros"}, "beta_regularizer": null, "name": "batch_normalization_64", "gamma_regularizer": null, "gamma_initializer": {"config": {}, "class_name": "Ones"}}, "inbound_nodes": [[["conv2d_64", 0, 0, {}]]], "class_name": "BatchNormalization", "name": "batch_normalization_64"}, {"config": {"center": true, "moving_variance_initializer": {"config": {}, "class_name": "Ones"}, "momentum": 0.99, "axis": 3, "beta_constraint": null, "beta_initializer": {"config": {}, "class_name": "Zeros"}, "scale": true, "gamma_constraint": null, "trainable": true, "epsilon": 0.001, "moving_mean_initializer": {"config": {}, "class_name": "Zeros"}, "beta_regularizer": null, "name": "batch_normalization_69", "gamma_regularizer": null, "gamma_initializer": {"config": {}, "class_name": "Ones"}}, "inbound_nodes": [[["conv2d_69", 0, 0, {}]]], "class_name": "BatchNormalization", "name": "batch_normalization_69"}, {"config": {"center": true, "moving_variance_initializer": {"config": {}, "class_name": "Ones"}, "momentum": 0.99, "axis": 3, "beta_constraint": null, "beta_initializer": {"config": {}, "class_name": "Zeros"}, "scale": true, "gamma_constraint": null, "trainable": true, "epsilon": 0.001, "moving_mean_initializer": {"config": {}, "class_name": "Zeros"}, "beta_regularizer": null, "name": "batch_normalization_70", "gamma_regularizer": null, "gamma_initializer": {"config": {}, "class_name": "Ones"}}, "inbound_nodes": [[["conv2d_70", 0, 0, {}]]], "class_name": "BatchNormalization", "name": "batch_normalization_70"}, {"config": {"trainable": true, "axis": -1, "name": "mixed7"}, "inbound_nodes": [[["batch_normalization_61", 0, 0, {}], ["batch_normalization_64", 0, 0, {}], ["batch_normalization_69", 0, 0, {}], ["batch_normalization_70", 0, 0, {}]]], "class_name": "Concatenate", "name": "mixed7"}, {"config": {"use_bias": true, "strides": [1, 1], "bias_constraint": null, "data_format": "channels_last", "kernel_initializer": {"config": {"scale": 1.0, "mode": "fan_avg", "distribution": "uniform", "seed": null}, "class_name": "VarianceScaling"}, "name": "conv2d_73", "kernel_size": [1, 1], "padding": "same", "trainable": true, "dilation_rate": [1, 1], "bias_regularizer": null, "filters": 96, "kernel_constraint": null, "activity_regularizer": null, "bias_initializer": {"config": {}, "class_name": "Zeros"}, "kernel_regularizer": null, "activation": "relu"}, "inbound_nodes": [[["mixed7", 0, 0, {}]]], "class_name": "Conv2D", "name": "conv2d_73"}, {"config": {"center": true, "moving_variance_initializer": {"config": {}, "class_name": "Ones"}, "momentum": 0.99, "axis": 3, "beta_constraint": null, "beta_initializer": {"config": {}, "class_name": "Zeros"}, "scale": true, "gamma_constraint": null, "trainable": true, "epsilon": 0.001, "moving_mean_initializer": {"config": {}, "class_name": "Zeros"}, "beta_regularizer": null, "name": "batch_normalization_73", "gamma_regularizer": null, "gamma_initializer": {"config": {}, "class_name": "Ones"}}, "inbound_nodes": [[["conv2d_73", 0, 0, {}]]], "class_name": "BatchNormalization", "name": "batch_normalization_73"}, {"config": {"use_bias": true, "strides": [1, 1], "bias_constraint": null, "data_format": "channels_last", "kernel_initializer": {"config": {"scale": 1.0, "mode": "fan_avg", "distribution": "uniform", "seed": null}, "class_name": "VarianceScaling"}, "name": "conv2d_74", "kernel_size": [1, 7], "padding": "same", "trainable": true, "dilation_rate": [1, 1], "bias_regularizer": null, "filters": 96, "kernel_constraint": null, "activity_regularizer": null, "bias_initializer": {"config": {}, "class_name": "Zeros"}, "kernel_regularizer": null, "activation": "relu"}, "inbound_nodes": [[["batch_normalization_73", 0, 0, {}]]], "class_name": "Conv2D", "name": "conv2d_74"}, {"config": {"center": true, "moving_variance_initializer": {"config": {}, "class_name": "Ones"}, "momentum": 0.99, "axis": 3, "beta_constraint": null, "beta_initializer": {"config": {}, "class_name": "Zeros"}, "scale": true, "gamma_constraint": null, "trainable": true, "epsilon": 0.001, "moving_mean_initializer": {"config": {}, "class_name": "Zeros"}, "beta_regularizer": null, "name": "batch_normalization_74", "gamma_regularizer": null, "gamma_initializer": {"config": {}, "class_name": "Ones"}}, "inbound_nodes": [[["conv2d_74", 0, 0, {}]]], "class_name": "BatchNormalization", "name": "batch_normalization_74"}, {"config": {"use_bias": true, "strides": [1, 1], "bias_constraint": null, "data_format": "channels_last", "kernel_initializer": {"config": {"scale": 1.0, "mode": "fan_avg", "distribution": "uniform", "seed": null}, "class_name": "VarianceScaling"}, "name": "conv2d_71", "kernel_size": [1, 1], "padding": "same", "trainable": true, "dilation_rate": [1, 1], "bias_regularizer": null, "filters": 96, "kernel_constraint": null, "activity_regularizer": null, "bias_initializer": {"config": {}, "class_name": "Zeros"}, "kernel_regularizer": null, "activation": "relu"}, "inbound_nodes": [[["mixed7", 0, 0, {}]]], "class_name": "Conv2D", "name": "conv2d_71"}, {"config": {"use_bias": true, "strides": [1, 1], "bias_constraint": null, "data_format": "channels_last", "kernel_initializer": {"config": {"scale": 1.0, "mode": "fan_avg", "distribution": "uniform", "seed": null}, "class_name": "VarianceScaling"}, "name": "conv2d_75", "kernel_size": [7, 1], "padding": "same", "trainable": true, "dilation_rate": [1, 1], "bias_regularizer": null, "filters": 96, "kernel_constraint": null, "activity_regularizer": null, "bias_initializer": {"config": {}, "class_name": "Zeros"}, "kernel_regularizer": null, "activation": "relu"}, "inbound_nodes": [[["batch_normalization_74", 0, 0, {}]]], "class_name": "Conv2D", "name": "conv2d_75"}, {"config": {"center": true, "moving_variance_initializer": {"config": {}, "class_name": "Ones"}, "momentum": 0.99, "axis": 3, "beta_constraint": null, "beta_initializer": {"config": {}, "class_name": "Zeros"}, "scale": true, "gamma_constraint": null, "trainable": true, "epsilon": 0.001, "moving_mean_initializer": {"config": {}, "class_name": "Zeros"}, "beta_regularizer": null, "name": "batch_normalization_71", "gamma_regularizer": null, "gamma_initializer": {"config": {}, "class_name": "Ones"}}, "inbound_nodes": [[["conv2d_71", 0, 0, {}]]], "class_name": "BatchNormalization", "name": "batch_normalization_71"}, {"config": {"center": true, "moving_variance_initializer": {"config": {}, "class_name": "Ones"}, "momentum": 0.99, "axis": 3, "beta_constraint": null, "beta_initializer": {"config": {}, "class_name": "Zeros"}, "scale": true, "gamma_constraint": null, "trainable": true, "epsilon": 0.001, "moving_mean_initializer": {"config": {}, "class_name": "Zeros"}, "beta_regularizer": null, "name": "batch_normalization_75", "gamma_regularizer": null, "gamma_initializer": {"config": {}, "class_name": "Ones"}}, "inbound_nodes": [[["conv2d_75", 0, 0, {}]]], "class_name": "BatchNormalization", "name": "batch_normalization_75"}, {"config": {"use_bias": true, "strides": [2, 2], "bias_constraint": null, "data_format": "channels_last", "kernel_initializer": {"config": {"scale": 1.0, "mode": "fan_avg", "distribution": "uniform", "seed": null}, "class_name": "VarianceScaling"}, "name": "conv2d_72", "kernel_size": [3, 3], "padding": "valid", "trainable": true, "dilation_rate": [1, 1], "bias_regularizer": null, "filters": 160, "kernel_constraint": null, "activity_regularizer": null, "bias_initializer": {"config": {}, "class_name": "Zeros"}, "kernel_regularizer": null, "activation": "relu"}, "inbound_nodes": [[["batch_normalization_71", 0, 0, {}]]], "class_name": "Conv2D", "name": "conv2d_72"}, {"config": {"use_bias": true, "strides": [2, 2], "bias_constraint": null, "data_format": "channels_last", "kernel_initializer": {"config": {"scale": 1.0, "mode": "fan_avg", "distribution": "uniform", "seed": null}, "class_name": "VarianceScaling"}, "name": "conv2d_76", "kernel_size": [3, 3], "padding": "valid", "trainable": true, "dilation_rate": [1, 1], "bias_regularizer": null, "filters": 96, "kernel_constraint": null, "activity_regularizer": null, "bias_initializer": {"config": {}, "class_name": "Zeros"}, "kernel_regularizer": null, "activation": "relu"}, "inbound_nodes": [[["batch_normalization_75", 0, 0, {}]]], "class_name": "Conv2D", "name": "conv2d_76"}, {"config": {"center": true, "moving_variance_initializer": {"config": {}, "class_name": "Ones"}, "momentum": 0.99, "axis": 3, "beta_constraint": null, "beta_initializer": {"config": {}, "class_name": "Zeros"}, "scale": true, "gamma_constraint": null, "trainable": true, "epsilon": 0.001, "moving_mean_initializer": {"config": {}, "class_name": "Zeros"}, "beta_regularizer": null, "name": "batch_normalization_72", "gamma_regularizer": null, "gamma_initializer": {"config": {}, "class_name": "Ones"}}, "inbound_nodes": [[["conv2d_72", 0, 0, {}]]], "class_name": "BatchNormalization", "name": "batch_normalization_72"}, {"config": {"center": true, "moving_variance_initializer": {"config": {}, "class_name": "Ones"}, "momentum": 0.99, "axis": 3, "beta_constraint": null, "beta_initializer": {"config": {}, "class_name": "Zeros"}, "scale": true, "gamma_constraint": null, "trainable": true, "epsilon": 0.001, "moving_mean_initializer": {"config": {}, "class_name": "Zeros"}, "beta_regularizer": null, "name": "batch_normalization_76", "gamma_regularizer": null, "gamma_initializer": {"config": {}, "class_name": "Ones"}}, "inbound_nodes": [[["conv2d_76", 0, 0, {}]]], "class_name": "BatchNormalization", "name": "batch_normalization_76"}, {"config": {"trainable": true, "strides": [2, 2], "data_format": "channels_last", "padding": "valid", "pool_size": [3, 3], "name": "average_pooling2d_8"}, "inbound_nodes": [[["mixed7", 0, 0, {}]]], "class_name": "AveragePooling2D", "name": "average_pooling2d_8"}, {"config": {"trainable": true, "axis": -1, "name": "mixed8"}, "inbound_nodes": [[["batch_normalization_72", 0, 0, {}], ["batch_normalization_76", 0, 0, {}], ["average_pooling2d_8", 0, 0, {}]]], "class_name": "Concatenate", "name": "mixed8"}, {"config": {"use_bias": true, "strides": [1, 1], "bias_constraint": null, "data_format": "channels_last", "kernel_initializer": {"config": {"scale": 1.0, "mode": "fan_avg", "distribution": "uniform", "seed": null}, "class_name": "VarianceScaling"}, "name": "conv2d_81", "kernel_size": [1, 1], "padding": "same", "trainable": true, "dilation_rate": [1, 1], "bias_regularizer": null, "filters": 224, "kernel_constraint": null, "activity_regularizer": null, "bias_initializer": {"config": {}, "class_name": "Zeros"}, "kernel_regularizer": null, "activation": "relu"}, "inbound_nodes": [[["mixed8", 0, 0, {}]]], "class_name": "Conv2D", "name": "conv2d_81"}, {"config": {"center": true, "moving_variance_initializer": {"config": {}, "class_name": "Ones"}, "momentum": 0.99, "axis": 3, "beta_constraint": null, "beta_initializer": {"config": {}, "class_name": "Zeros"}, "scale": true, "gamma_constraint": null, "trainable": true, "epsilon": 0.001, "moving_mean_initializer": {"config": {}, "class_name": "Zeros"}, "beta_regularizer": null, "name": "batch_normalization_81", "gamma_regularizer": null, "gamma_initializer": {"config": {}, "class_name": "Ones"}}, "inbound_nodes": [[["conv2d_81", 0, 0, {}]]], "class_name": "BatchNormalization", "name": "batch_normalization_81"}, {"config": {"use_bias": true, "strides": [1, 1], "bias_constraint": null, "data_format": "channels_last", "kernel_initializer": {"config": {"scale": 1.0, "mode": "fan_avg", "distribution": "uniform", "seed": null}, "class_name": "VarianceScaling"}, "name": "conv2d_78", "kernel_size": [1, 1], "padding": "same", "trainable": true, "dilation_rate": [1, 1], "bias_regularizer": null, "filters": 192, "kernel_constraint": null, "activity_regularizer": null, "bias_initializer": {"config": {}, "class_name": "Zeros"}, "kernel_regularizer": null, "activation": "relu"}, "inbound_nodes": [[["mixed8", 0, 0, {}]]], "class_name": "Conv2D", "name": "conv2d_78"}, {"config": {"use_bias": true, "strides": [1, 1], "bias_constraint": null, "data_format": "channels_last", "kernel_initializer": {"config": {"scale": 1.0, "mode": "fan_avg", "distribution": "uniform", "seed": null}, "class_name": "VarianceScaling"}, "name": "conv2d_82", "kernel_size": [3, 3], "padding": "same", "trainable": true, "dilation_rate": [1, 1], "bias_regularizer": null, "filters": 192, "kernel_constraint": null, "activity_regularizer": null, "bias_initializer": {"config": {}, "class_name": "Zeros"}, "kernel_regularizer": null, "activation": "relu"}, "inbound_nodes": [[["batch_normalization_81", 0, 0, {}]]], "class_name": "Conv2D", "name": "conv2d_82"}, {"config": {"center": true, "moving_variance_initializer": {"config": {}, "class_name": "Ones"}, "momentum": 0.99, "axis": 3, "beta_constraint": null, "beta_initializer": {"config": {}, "class_name": "Zeros"}, "scale": true, "gamma_constraint": null, "trainable": true, "epsilon": 0.001, "moving_mean_initializer": {"config": {}, "class_name": "Zeros"}, "beta_regularizer": null, "name": "batch_normalization_78", "gamma_regularizer": null, "gamma_initializer": {"config": {}, "class_name": "Ones"}}, "inbound_nodes": [[["conv2d_78", 0, 0, {}]]], "class_name": "BatchNormalization", "name": "batch_normalization_78"}, {"config": {"center": true, "moving_variance_initializer": {"config": {}, "class_name": "Ones"}, "momentum": 0.99, "axis": 3, "beta_constraint": null, "beta_initializer": {"config": {}, "class_name": "Zeros"}, "scale": true, "gamma_constraint": null, "trainable": true, "epsilon": 0.001, "moving_mean_initializer": {"config": {}, "class_name": "Zeros"}, "beta_regularizer": null, "name": "batch_normalization_82", "gamma_regularizer": null, "gamma_initializer": {"config": {}, "class_name": "Ones"}}, "inbound_nodes": [[["conv2d_82", 0, 0, {}]]], "class_name": "BatchNormalization", "name": "batch_normalization_82"}, {"config": {"use_bias": true, "strides": [1, 1], "bias_constraint": null, "data_format": "channels_last", "kernel_initializer": {"config": {"scale": 1.0, "mode": "fan_avg", "distribution": "uniform", "seed": null}, "class_name": "VarianceScaling"}, "name": "conv2d_79", "kernel_size": [1, 3], "padding": "same", "trainable": true, "dilation_rate": [1, 1], "bias_regularizer": null, "filters": 192, "kernel_constraint": null, "activity_regularizer": null, "bias_initializer": {"config": {}, "class_name": "Zeros"}, "kernel_regularizer": null, "activation": "relu"}, "inbound_nodes": [[["batch_normalization_78", 0, 0, {}]]], "class_name": "Conv2D", "name": "conv2d_79"}, {"config": {"use_bias": true, "strides": [1, 1], "bias_constraint": null, "data_format": "channels_last", "kernel_initializer": {"config": {"scale": 1.0, "mode": "fan_avg", "distribution": "uniform", "seed": null}, "class_name": "VarianceScaling"}, "name": "conv2d_80", "kernel_size": [3, 1], "padding": "same", "trainable": true, "dilation_rate": [1, 1], "bias_regularizer": null, "filters": 192, "kernel_constraint": null, "activity_regularizer": null, "bias_initializer": {"config": {}, "class_name": "Zeros"}, "kernel_regularizer": null, "activation": "relu"}, "inbound_nodes": [[["batch_normalization_78", 0, 0, {}]]], "class_name": "Conv2D", "name": "conv2d_80"}, {"config": {"use_bias": true, "strides": [1, 1], "bias_constraint": null, "data_format": "channels_last", "kernel_initializer": {"config": {"scale": 1.0, "mode": "fan_avg", "distribution": "uniform", "seed": null}, "class_name": "VarianceScaling"}, "name": "conv2d_83", "kernel_size": [1, 3], "padding": "same", "trainable": true, "dilation_rate": [1, 1], "bias_regularizer": null, "filters": 192, "kernel_constraint": null, "activity_regularizer": null, "bias_initializer": {"config": {}, "class_name": "Zeros"}, "kernel_regularizer": null, "activation": "relu"}, "inbound_nodes": [[["batch_normalization_82", 0, 0, {}]]], "class_name": "Conv2D", "name": "conv2d_83"}, {"config": {"use_bias": true, "strides": [1, 1], "bias_constraint": null, "data_format": "channels_last", "kernel_initializer": {"config": {"scale": 1.0, "mode": "fan_avg", "distribution": "uniform", "seed": null}, "class_name": "VarianceScaling"}, "name": "conv2d_84", "kernel_size": [3, 1], "padding": "same", "trainable": true, "dilation_rate": [1, 1], "bias_regularizer": null, "filters": 192, "kernel_constraint": null, "activity_regularizer": null, "bias_initializer": {"config": {}, "class_name": "Zeros"}, "kernel_regularizer": null, "activation": "relu"}, "inbound_nodes": [[["batch_normalization_82", 0, 0, {}]]], "class_name": "Conv2D", "name": "conv2d_84"}, {"config": {"trainable": true, "strides": [1, 1], "data_format": "channels_last", "padding": "same", "pool_size": [3, 3], "name": "average_pooling2d_9"}, "inbound_nodes": [[["mixed8", 0, 0, {}]]], "class_name": "AveragePooling2D", "name": "average_pooling2d_9"}, {"config": {"use_bias": true, "strides": [1, 1], "bias_constraint": null, "data_format": "channels_last", "kernel_initializer": {"config": {"scale": 1.0, "mode": "fan_avg", "distribution": "uniform", "seed": null}, "class_name": "VarianceScaling"}, "name": "conv2d_77", "kernel_size": [1, 1], "padding": "same", "trainable": true, "dilation_rate": [1, 1], "bias_regularizer": null, "filters": 160, "kernel_constraint": null, "activity_regularizer": null, "bias_initializer": {"config": {}, "class_name": "Zeros"}, "kernel_regularizer": null, "activation": "relu"}, "inbound_nodes": [[["mixed8", 0, 0, {}]]], "class_name": "Conv2D", "name": "conv2d_77"}, {"config": {"center": true, "moving_variance_initializer": {"config": {}, "class_name": "Ones"}, "momentum": 0.99, "axis": 3, "beta_constraint": null, "beta_initializer": {"config": {}, "class_name": "Zeros"}, "scale": true, "gamma_constraint": null, "trainable": true, "epsilon": 0.001, "moving_mean_initializer": {"config": {}, "class_name": "Zeros"}, "beta_regularizer": null, "name": "batch_normalization_79", "gamma_regularizer": null, "gamma_initializer": {"config": {}, "class_name": "Ones"}}, "inbound_nodes": [[["conv2d_79", 0, 0, {}]]], "class_name": "BatchNormalization", "name": "batch_normalization_79"}, {"config": {"center": true, "moving_variance_initializer": {"config": {}, "class_name": "Ones"}, "momentum": 0.99, "axis": 3, "beta_constraint": null, "beta_initializer": {"config": {}, "class_name": "Zeros"}, "scale": true, "gamma_constraint": null, "trainable": true, "epsilon": 0.001, "moving_mean_initializer": {"config": {}, "class_name": "Zeros"}, "beta_regularizer": null, "name": "batch_normalization_80", "gamma_regularizer": null, "gamma_initializer": {"config": {}, "class_name": "Ones"}}, "inbound_nodes": [[["conv2d_80", 0, 0, {}]]], "class_name": "BatchNormalization", "name": "batch_normalization_80"}, {"config": {"center": true, "moving_variance_initializer": {"config": {}, "class_name": "Ones"}, "momentum": 0.99, "axis": 3, "beta_constraint": null, "beta_initializer": {"config": {}, "class_name": "Zeros"}, "scale": true, "gamma_constraint": null, "trainable": true, "epsilon": 0.001, "moving_mean_initializer": {"config": {}, "class_name": "Zeros"}, "beta_regularizer": null, "name": "batch_normalization_83", "gamma_regularizer": null, "gamma_initializer": {"config": {}, "class_name": "Ones"}}, "inbound_nodes": [[["conv2d_83", 0, 0, {}]]], "class_name": "BatchNormalization", "name": "batch_normalization_83"}, {"config": {"center": true, "moving_variance_initializer": {"config": {}, "class_name": "Ones"}, "momentum": 0.99, "axis": 3, "beta_constraint": null, "beta_initializer": {"config": {}, "class_name": "Zeros"}, "scale": true, "gamma_constraint": null, "trainable": true, "epsilon": 0.001, "moving_mean_initializer": {"config": {}, "class_name": "Zeros"}, "beta_regularizer": null, "name": "batch_normalization_84", "gamma_regularizer": null, "gamma_initializer": {"config": {}, "class_name": "Ones"}}, "inbound_nodes": [[["conv2d_84", 0, 0, {}]]], "class_name": "BatchNormalization", "name": "batch_normalization_84"}, {"config": {"use_bias": true, "strides": [1, 1], "bias_constraint": null, "data_format": "channels_last", "kernel_initializer": {"config": {"scale": 1.0, "mode": "fan_avg", "distribution": "uniform", "seed": null}, "class_name": "VarianceScaling"}, "name": "conv2d_85", "kernel_size": [1, 1], "padding": "same", "trainable": true, "dilation_rate": [1, 1], "bias_regularizer": null, "filters": 96, "kernel_constraint": null, "activity_regularizer": null, "bias_initializer": {"config": {}, "class_name": "Zeros"}, "kernel_regularizer": null, "activation": "relu"}, "inbound_nodes": [[["average_pooling2d_9", 0, 0, {}]]], "class_name": "Conv2D", "name": "conv2d_85"}, {"config": {"center": true, "moving_variance_initializer": {"config": {}, "class_name": "Ones"}, "momentum": 0.99, "axis": 3, "beta_constraint": null, "beta_initializer": {"config": {}, "class_name": "Zeros"}, "scale": true, "gamma_constraint": null, "trainable": true, "epsilon": 0.001, "moving_mean_initializer": {"config": {}, "class_name": "Zeros"}, "beta_regularizer": null, "name": "batch_normalization_77", "gamma_regularizer": null, "gamma_initializer": {"config": {}, "class_name": "Ones"}}, "inbound_nodes": [[["conv2d_77", 0, 0, {}]]], "class_name": "BatchNormalization", "name": "batch_normalization_77"}, {"config": {"trainable": true, "axis": -1, "name": "mixed9_0"}, "inbound_nodes": [[["batch_normalization_79", 0, 0, {}], ["batch_normalization_80", 0, 0, {}]]], "class_name": "Concatenate", "name": "mixed9_0"}, {"config": {"trainable": true, "axis": -1, "name": "concatenate_1"}, "inbound_nodes": [[["batch_normalization_83", 0, 0, {}], ["batch_normalization_84", 0, 0, {}]]], "class_name": "Concatenate", "name": "concatenate_1"}, {"config": {"center": true, "moving_variance_initializer": {"config": {}, "class_name": "Ones"}, "momentum": 0.99, "axis": 3, "beta_constraint": null, "beta_initializer": {"config": {}, "class_name": "Zeros"}, "scale": true, "gamma_constraint": null, "trainable": true, "epsilon": 0.001, "moving_mean_initializer": {"config": {}, "class_name": "Zeros"}, "beta_regularizer": null, "name": "batch_normalization_85", "gamma_regularizer": null, "gamma_initializer": {"config": {}, "class_name": "Ones"}}, "inbound_nodes": [[["conv2d_85", 0, 0, {}]]], "class_name": "BatchNormalization", "name": "batch_normalization_85"}, {"config": {"trainable": true, "axis": -1, "name": "mixed9"}, "inbound_nodes": [[["batch_normalization_77", 0, 0, {}], ["mixed9_0", 0, 0, {}], ["concatenate_1", 0, 0, {}], ["batch_normalization_85", 0, 0, {}]]], "class_name": "Concatenate", "name": "mixed9"}, {"config": {"use_bias": true, "strides": [1, 1], "bias_constraint": null, "data_format": "channels_last", "kernel_initializer": {"config": {"scale": 1.0, "mode": "fan_avg", "distribution": "uniform", "seed": null}, "class_name": "VarianceScaling"}, "name": "conv2d_90", "kernel_size": [1, 1], "padding": "same", "trainable": true, "dilation_rate": [1, 1], "bias_regularizer": null, "filters": 224, "kernel_constraint": null, "activity_regularizer": null, "bias_initializer": {"config": {}, "class_name": "Zeros"}, "kernel_regularizer": null, "activation": "relu"}, "inbound_nodes": [[["mixed9", 0, 0, {}]]], "class_name": "Conv2D", "name": "conv2d_90"}, {"config": {"center": true, "moving_variance_initializer": {"config": {}, "class_name": "Ones"}, "momentum": 0.99, "axis": 3, "beta_constraint": null, "beta_initializer": {"config": {}, "class_name": "Zeros"}, "scale": true, "gamma_constraint": null, "trainable": true, "epsilon": 0.001, "moving_mean_initializer": {"config": {}, "class_name": "Zeros"}, "beta_regularizer": null, "name": "batch_normalization_90", "gamma_regularizer": null, "gamma_initializer": {"config": {}, "class_name": "Ones"}}, "inbound_nodes": [[["conv2d_90", 0, 0, {}]]], "class_name": "BatchNormalization", "name": "batch_normalization_90"}, {"config": {"use_bias": true, "strides": [1, 1], "bias_constraint": null, "data_format": "channels_last", "kernel_initializer": {"config": {"scale": 1.0, "mode": "fan_avg", "distribution": "uniform", "seed": null}, "class_name": "VarianceScaling"}, "name": "conv2d_87", "kernel_size": [1, 1], "padding": "same", "trainable": true, "dilation_rate": [1, 1], "bias_regularizer": null, "filters": 192, "kernel_constraint": null, "activity_regularizer": null, "bias_initializer": {"config": {}, "class_name": "Zeros"}, "kernel_regularizer": null, "activation": "relu"}, "inbound_nodes": [[["mixed9", 0, 0, {}]]], "class_name": "Conv2D", "name": "conv2d_87"}, {"config": {"use_bias": true, "strides": [1, 1], "bias_constraint": null, "data_format": "channels_last", "kernel_initializer": {"config": {"scale": 1.0, "mode": "fan_avg", "distribution": "uniform", "seed": null}, "class_name": "VarianceScaling"}, "name": "conv2d_91", "kernel_size": [3, 3], "padding": "same", "trainable": true, "dilation_rate": [1, 1], "bias_regularizer": null, "filters": 192, "kernel_constraint": null, "activity_regularizer": null, "bias_initializer": {"config": {}, "class_name": "Zeros"}, "kernel_regularizer": null, "activation": "relu"}, "inbound_nodes": [[["batch_normalization_90", 0, 0, {}]]], "class_name": "Conv2D", "name": "conv2d_91"}, {"config": {"center": true, "moving_variance_initializer": {"config": {}, "class_name": "Ones"}, "momentum": 0.99, "axis": 3, "beta_constraint": null, "beta_initializer": {"config": {}, "class_name": "Zeros"}, "scale": true, "gamma_constraint": null, "trainable": true, "epsilon": 0.001, "moving_mean_initializer": {"config": {}, "class_name": "Zeros"}, "beta_regularizer": null, "name": "batch_normalization_87", "gamma_regularizer": null, "gamma_initializer": {"config": {}, "class_name": "Ones"}}, "inbound_nodes": [[["conv2d_87", 0, 0, {}]]], "class_name": "BatchNormalization", "name": "batch_normalization_87"}, {"config": {"center": true, "moving_variance_initializer": {"config": {}, "class_name": "Ones"}, "momentum": 0.99, "axis": 3, "beta_constraint": null, "beta_initializer": {"config": {}, "class_name": "Zeros"}, "scale": true, "gamma_constraint": null, "trainable": true, "epsilon": 0.001, "moving_mean_initializer": {"config": {}, "class_name": "Zeros"}, "beta_regularizer": null, "name": "batch_normalization_91", "gamma_regularizer": null, "gamma_initializer": {"config": {}, "class_name": "Ones"}}, "inbound_nodes": [[["conv2d_91", 0, 0, {}]]], "class_name": "BatchNormalization", "name": "batch_normalization_91"}, {"config": {"use_bias": true, "strides": [1, 1], "bias_constraint": null, "data_format": "channels_last", "kernel_initializer": {"config": {"scale": 1.0, "mode": "fan_avg", "distribution": "uniform", "seed": null}, "class_name": "VarianceScaling"}, "name": "conv2d_88", "kernel_size": [1, 3], "padding": "same", "trainable": true, "dilation_rate": [1, 1], "bias_regularizer": null, "filters": 192, "kernel_constraint": null, "activity_regularizer": null, "bias_initializer": {"config": {}, "class_name": "Zeros"}, "kernel_regularizer": null, "activation": "relu"}, "inbound_nodes": [[["batch_normalization_87", 0, 0, {}]]], "class_name": "Conv2D", "name": "conv2d_88"}, {"config": {"use_bias": true, "strides": [1, 1], "bias_constraint": null, "data_format": "channels_last", "kernel_initializer": {"config": {"scale": 1.0, "mode": "fan_avg", "distribution": "uniform", "seed": null}, "class_name": "VarianceScaling"}, "name": "conv2d_89", "kernel_size": [3, 1], "padding": "same", "trainable": true, "dilation_rate": [1, 1], "bias_regularizer": null, "filters": 192, "kernel_constraint": null, "activity_regularizer": null, "bias_initializer": {"config": {}, "class_name": "Zeros"}, "kernel_regularizer": null, "activation": "relu"}, "inbound_nodes": [[["batch_normalization_87", 0, 0, {}]]], "class_name": "Conv2D", "name": "conv2d_89"}, {"config": {"use_bias": true, "strides": [1, 1], "bias_constraint": null, "data_format": "channels_last", "kernel_initializer": {"config": {"scale": 1.0, "mode": "fan_avg", "distribution": "uniform", "seed": null}, "class_name": "VarianceScaling"}, "name": "conv2d_92", "kernel_size": [1, 3], "padding": "same", "trainable": true, "dilation_rate": [1, 1], "bias_regularizer": null, "filters": 192, "kernel_constraint": null, "activity_regularizer": null, "bias_initializer": {"config": {}, "class_name": "Zeros"}, "kernel_regularizer": null, "activation": "relu"}, "inbound_nodes": [[["batch_normalization_91", 0, 0, {}]]], "class_name": "Conv2D", "name": "conv2d_92"}, {"config": {"use_bias": true, "strides": [1, 1], "bias_constraint": null, "data_format": "channels_last", "kernel_initializer": {"config": {"scale": 1.0, "mode": "fan_avg", "distribution": "uniform", "seed": null}, "class_name": "VarianceScaling"}, "name": "conv2d_93", "kernel_size": [3, 1], "padding": "same", "trainable": true, "dilation_rate": [1, 1], "bias_regularizer": null, "filters": 192, "kernel_constraint": null, "activity_regularizer": null, "bias_initializer": {"config": {}, "class_name": "Zeros"}, "kernel_regularizer": null, "activation": "relu"}, "inbound_nodes": [[["batch_normalization_91", 0, 0, {}]]], "class_name": "Conv2D", "name": "conv2d_93"}, {"config": {"trainable": true, "strides": [1, 1], "data_format": "channels_last", "padding": "same", "pool_size": [3, 3], "name": "average_pooling2d_10"}, "inbound_nodes": [[["mixed9", 0, 0, {}]]], "class_name": "AveragePooling2D", "name": "average_pooling2d_10"}, {"config": {"use_bias": true, "strides": [1, 1], "bias_constraint": null, "data_format": "channels_last", "kernel_initializer": {"config": {"scale": 1.0, "mode": "fan_avg", "distribution": "uniform", "seed": null}, "class_name": "VarianceScaling"}, "name": "conv2d_86", "kernel_size": [1, 1], "padding": "same", "trainable": true, "dilation_rate": [1, 1], "bias_regularizer": null, "filters": 160, "kernel_constraint": null, "activity_regularizer": null, "bias_initializer": {"config": {}, "class_name": "Zeros"}, "kernel_regularizer": null, "activation": "relu"}, "inbound_nodes": [[["mixed9", 0, 0, {}]]], "class_name": "Conv2D", "name": "conv2d_86"}, {"config": {"center": true, "moving_variance_initializer": {"config": {}, "class_name": "Ones"}, "momentum": 0.99, "axis": 3, "beta_constraint": null, "beta_initializer": {"config": {}, "class_name": "Zeros"}, "scale": true, "gamma_constraint": null, "trainable": true, "epsilon": 0.001, "moving_mean_initializer": {"config": {}, "class_name": "Zeros"}, "beta_regularizer": null, "name": "batch_normalization_88", "gamma_regularizer": null, "gamma_initializer": {"config": {}, "class_name": "Ones"}}, "inbound_nodes": [[["conv2d_88", 0, 0, {}]]], "class_name": "BatchNormalization", "name": "batch_normalization_88"}, {"config": {"center": true, "moving_variance_initializer": {"config": {}, "class_name": "Ones"}, "momentum": 0.99, "axis": 3, "beta_constraint": null, "beta_initializer": {"config": {}, "class_name": "Zeros"}, "scale": true, "gamma_constraint": null, "trainable": true, "epsilon": 0.001, "moving_mean_initializer": {"config": {}, "class_name": "Zeros"}, "beta_regularizer": null, "name": "batch_normalization_89", "gamma_regularizer": null, "gamma_initializer": {"config": {}, "class_name": "Ones"}}, "inbound_nodes": [[["conv2d_89", 0, 0, {}]]], "class_name": "BatchNormalization", "name": "batch_normalization_89"}, {"config": {"center": true, "moving_variance_initializer": {"config": {}, "class_name": "Ones"}, "momentum": 0.99, "axis": 3, "beta_constraint": null, "beta_initializer": {"config": {}, "class_name": "Zeros"}, "scale": true, "gamma_constraint": null, "trainable": true, "epsilon": 0.001, "moving_mean_initializer": {"config": {}, "class_name": "Zeros"}, "beta_regularizer": null, "name": "batch_normalization_92", "gamma_regularizer": null, "gamma_initializer": {"config": {}, "class_name": "Ones"}}, "inbound_nodes": [[["conv2d_92", 0, 0, {}]]], "class_name": "BatchNormalization", "name": "batch_normalization_92"}, {"config": {"center": true, "moving_variance_initializer": {"config": {}, "class_name": "Ones"}, "momentum": 0.99, "axis": 3, "beta_constraint": null, "beta_initializer": {"config": {}, "class_name": "Zeros"}, "scale": true, "gamma_constraint": null, "trainable": true, "epsilon": 0.001, "moving_mean_initializer": {"config": {}, "class_name": "Zeros"}, "beta_regularizer": null, "name": "batch_normalization_93", "gamma_regularizer": null, "gamma_initializer": {"config": {}, "class_name": "Ones"}}, "inbound_nodes": [[["conv2d_93", 0, 0, {}]]], "class_name": "BatchNormalization", "name": "batch_normalization_93"}, {"config": {"use_bias": true, "strides": [1, 1], "bias_constraint": null, "data_format": "channels_last", "kernel_initializer": {"config": {"scale": 1.0, "mode": "fan_avg", "distribution": "uniform", "seed": null}, "class_name": "VarianceScaling"}, "name": "conv2d_94", "kernel_size": [1, 1], "padding": "same", "trainable": true, "dilation_rate": [1, 1], "bias_regularizer": null, "filters": 96, "kernel_constraint": null, "activity_regularizer": null, "bias_initializer": {"config": {}, "class_name": "Zeros"}, "kernel_regularizer": null, "activation": "relu"}, "inbound_nodes": [[["average_pooling2d_10", 0, 0, {}]]], "class_name": "Conv2D", "name": "conv2d_94"}, {"config": {"center": true, "moving_variance_initializer": {"config": {}, "class_name": "Ones"}, "momentum": 0.99, "axis": 3, "beta_constraint": null, "beta_initializer": {"config": {}, "class_name": "Zeros"}, "scale": true, "gamma_constraint": null, "trainable": true, "epsilon": 0.001, "moving_mean_initializer": {"config": {}, "class_name": "Zeros"}, "beta_regularizer": null, "name": "batch_normalization_86", "gamma_regularizer": null, "gamma_initializer": {"config": {}, "class_name": "Ones"}}, "inbound_nodes": [[["conv2d_86", 0, 0, {}]]], "class_name": "BatchNormalization", "name": "batch_normalization_86"}, {"config": {"trainable": true, "axis": -1, "name": "mixed9_1"}, "inbound_nodes": [[["batch_normalization_88", 0, 0, {}], ["batch_normalization_89", 0, 0, {}]]], "class_name": "Concatenate", "name": "mixed9_1"}, {"config": {"trainable": true, "axis": -1, "name": "concatenate_2"}, "inbound_nodes": [[["batch_normalization_92", 0, 0, {}], ["batch_normalization_93", 0, 0, {}]]], "class_name": "Concatenate", "name": "concatenate_2"}, {"config": {"center": true, "moving_variance_initializer": {"config": {}, "class_name": "Ones"}, "momentum": 0.99, "axis": 3, "beta_constraint": null, "beta_initializer": {"config": {}, "class_name": "Zeros"}, "scale": true, "gamma_constraint": null, "trainable": true, "epsilon": 0.001, "moving_mean_initializer": {"config": {}, "class_name": "Zeros"}, "beta_regularizer": null, "name": "batch_normalization_94", "gamma_regularizer": null, "gamma_initializer": {"config": {}, "class_name": "Ones"}}, "inbound_nodes": [[["conv2d_94", 0, 0, {}]]], "class_name": "BatchNormalization", "name": "batch_normalization_94"}, {"config": {"trainable": true, "axis": -1, "name": "mixed10"}, "inbound_nodes": [[["batch_normalization_86", 0, 0, {}], ["mixed9_1", 0, 0, {}], ["concatenate_2", 0, 0, {}], ["batch_normalization_94", 0, 0, {}]]], "class_name": "Concatenate", "name": "mixed10"}, {"config": {"trainable": true, "strides": [2, 2], "data_format": "channels_last", "padding": "valid", "pool_size": [2, 2], "name": "end_max_pool"}, "inbound_nodes": [[["mixed10", 0, 0, {}]]], "class_name": "MaxPooling2D", "name": "end_max_pool"}, {"config": {"trainable": true, "name": "flatten"}, "inbound_nodes": [[["end_max_pool", 0, 0, {}]]], "class_name": "Flatten", "name": "flatten"}, {"config": {"name": "output_layer", "use_bias": true, "activation": "sigmoid", "bias_constraint": null, "kernel_initializer": {"config": {"scale": 1.0, "mode": "fan_avg", "distribution": "uniform", "seed": null}, "class_name": "VarianceScaling"}, "units": 1, "trainable": true, "bias_regularizer": null, "kernel_constraint": null, "kernel_regularizer": null, "bias_initializer": {"config": {}, "class_name": "Zeros"}, "activity_regularizer": null}, "inbound_nodes": [[["flatten", 0, 0, {}]]], "class_name": "Dense", "name": "output_layer"}], "input_layers": [["input_1", 0, 0]]}, "keras_version": "2.0.6", "backend": "tensorflow", "class_name": "Model"}