{"class_name": "Model", "keras_version": "2.0.6", "config": {"input_layers": [["input_1", 0, 0]], "name": "model_1", "layers": [{"class_name": "InputLayer", "name": "input_1", "inbound_nodes": [], "config": {"dtype": "float32", "batch_input_shape": [null, 1152, 832, 1], "sparse": false, "name": "input_1"}}, {"class_name": "Conv2D", "name": "conv2d_1", "inbound_nodes": [[["input_1", 0, 0, {}]]], "config": {"filters": 16, "name": "conv2d_1", "bias_regularizer": null, "bias_constraint": null, "padding": "valid", "activity_regularizer": null, "strides": [2, 2], "kernel_size": [3, 3], "kernel_regularizer": null, "data_format": "channels_last", "trainable": true, "kernel_constraint": null, "use_bias": true, "bias_initializer": {"class_name": "Zeros", "config": {}}, "kernel_initializer": {"class_name": "VarianceScaling", "config": {"mode": "fan_avg", "seed": null, "scale": 1.0, "distribution": "uniform"}}, "dilation_rate": [1, 1], "activation": "relu"}}, {"class_name": "BatchNormalization", "name": "batch_normalization_1", "inbound_nodes": [[["conv2d_1", 0, 0, {}]]], "config": {"name": "batch_normalization_1", "gamma_initializer": {"class_name": "Ones", "config": {}}, "momentum": 0.99, "moving_mean_initializer": {"class_name": "Zeros", "config": {}}, "gamma_constraint": null, "center": true, "beta_initializer": {"class_name": "Zeros", "config": {}}, "moving_variance_initializer": {"class_name": "Ones", "config": {}}, "axis": 3, "scale": true, "gamma_regularizer": null, "epsilon": 0.001, "beta_constraint": null, "beta_regularizer": null, "trainable": true}}, {"class_name": "Conv2D", "name": "conv2d_2", "inbound_nodes": [[["batch_normalization_1", 0, 0, {}]]], "config": {"filters": 16, "name": "conv2d_2", "bias_regularizer": null, "bias_constraint": null, "padding": "valid", "activity_regularizer": null, "strides": [1, 1], "kernel_size": [3, 3], "kernel_regularizer": null, "data_format": "channels_last", "trainable": true, "kernel_constraint": null, "use_bias": true, "bias_initializer": {"class_name": "Zeros", "config": {}}, "kernel_initializer": {"class_name": "VarianceScaling", "config": {"mode": "fan_avg", "seed": null, "scale": 1.0, "distribution": "uniform"}}, "dilation_rate": [1, 1], "activation": "relu"}}, {"class_name": "BatchNormalization", "name": "batch_normalization_2", "inbound_nodes": [[["conv2d_2", 0, 0, {}]]], "config": {"name": "batch_normalization_2", "gamma_initializer": {"class_name": "Ones", "config": {}}, "momentum": 0.99, "moving_mean_initializer": {"class_name": "Zeros", "config": {}}, "gamma_constraint": null, "center": true, "beta_initializer": {"class_name": "Zeros", "config": {}}, "moving_variance_initializer": {"class_name": "Ones", "config": {}}, "axis": 3, "scale": true, "gamma_regularizer": null, "epsilon": 0.001, "beta_constraint": null, "beta_regularizer": null, "trainable": true}}, {"class_name": "Conv2D", "name": "conv2d_3", "inbound_nodes": [[["batch_normalization_2", 0, 0, {}]]], "config": {"filters": 32, "name": "conv2d_3", "bias_regularizer": null, "bias_constraint": null, "padding": "same", "activity_regularizer": null, "strides": [1, 1], "kernel_size": [3, 3], "kernel_regularizer": null, "data_format": "channels_last", "trainable": true, "kernel_constraint": null, "use_bias": true, "bias_initializer": {"class_name": "Zeros", "config": {}}, "kernel_initializer": {"class_name": "VarianceScaling", "config": {"mode": "fan_avg", "seed": null, "scale": 1.0, "distribution": "uniform"}}, "dilation_rate": [1, 1], "activation": "relu"}}, {"class_name": "BatchNormalization", "name": "batch_normalization_3", "inbound_nodes": [[["conv2d_3", 0, 0, {}]]], "config": {"name": "batch_normalization_3", "gamma_initializer": {"class_name": "Ones", "config": {}}, "momentum": 0.99, "moving_mean_initializer": {"class_name": "Zeros", "config": {}}, "gamma_constraint": null, "center": true, "beta_initializer": {"class_name": "Zeros", "config": {}}, "moving_variance_initializer": {"class_name": "Ones", "config": {}}, "axis": 3, "scale": true, "gamma_regularizer": null, "epsilon": 0.001, "beta_constraint": null, "beta_regularizer": null, "trainable": true}}, {"class_name": "MaxPooling2D", "name": "max_pooling2d_1", "inbound_nodes": [[["batch_normalization_3", 0, 0, {}]]], "config": {"strides": [2, 2], "data_format": "channels_last", "trainable": true, "padding": "valid", "name": "max_pooling2d_1", "pool_size": [3, 3]}}, {"class_name": "Conv2D", "name": "conv2d_4", "inbound_nodes": [[["max_pooling2d_1", 0, 0, {}]]], "config": {"filters": 40, "name": "conv2d_4", "bias_regularizer": null, "bias_constraint": null, "padding": "valid", "activity_regularizer": null, "strides": [1, 1], "kernel_size": [1, 1], "kernel_regularizer": null, "data_format": "channels_last", "trainable": true, "kernel_constraint": null, "use_bias": true, "bias_initializer": {"class_name": "Zeros", "config": {}}, "kernel_initializer": {"class_name": "VarianceScaling", "config": {"mode": "fan_avg", "seed": null, "scale": 1.0, "distribution": "uniform"}}, "dilation_rate": [1, 1], "activation": "relu"}}, {"class_name": "BatchNormalization", "name": "batch_normalization_4", "inbound_nodes": [[["conv2d_4", 0, 0, {}]]], "config": {"name": "batch_normalization_4", "gamma_initializer": {"class_name": "Ones", "config": {}}, "momentum": 0.99, "moving_mean_initializer": {"class_name": "Zeros", "config": {}}, "gamma_constraint": null, "center": true, "beta_initializer": {"class_name": "Zeros", "config": {}}, "moving_variance_initializer": {"class_name": "Ones", "config": {}}, "axis": 3, "scale": true, "gamma_regularizer": null, "epsilon": 0.001, "beta_constraint": null, "beta_regularizer": null, "trainable": true}}, {"class_name": "Conv2D", "name": "conv2d_5", "inbound_nodes": [[["batch_normalization_4", 0, 0, {}]]], "config": {"filters": 96, "name": "conv2d_5", "bias_regularizer": null, "bias_constraint": null, "padding": "valid", "activity_regularizer": null, "strides": [1, 1], "kernel_size": [3, 3], "kernel_regularizer": null, "data_format": "channels_last", "trainable": true, "kernel_constraint": null, "use_bias": true, "bias_initializer": {"class_name": "Zeros", "config": {}}, "kernel_initializer": {"class_name": "VarianceScaling", "config": {"mode": "fan_avg", "seed": null, "scale": 1.0, "distribution": "uniform"}}, "dilation_rate": [1, 1], "activation": "relu"}}, {"class_name": "BatchNormalization", "name": "batch_normalization_5", "inbound_nodes": [[["conv2d_5", 0, 0, {}]]], "config": {"name": "batch_normalization_5", "gamma_initializer": {"class_name": "Ones", "config": {}}, "momentum": 0.99, "moving_mean_initializer": {"class_name": "Zeros", "config": {}}, "gamma_constraint": null, "center": true, "beta_initializer": {"class_name": "Zeros", "config": {}}, "moving_variance_initializer": {"class_name": "Ones", "config": {}}, "axis": 3, "scale": true, "gamma_regularizer": null, "epsilon": 0.001, "beta_constraint": null, "beta_regularizer": null, "trainable": true}}, {"class_name": "MaxPooling2D", "name": "max_pooling2d_2", "inbound_nodes": [[["batch_normalization_5", 0, 0, {}]]], "config": {"strides": [2, 2], "data_format": "channels_last", "trainable": true, "padding": "valid", "name": "max_pooling2d_2", "pool_size": [3, 3]}}, {"class_name": "Conv2D", "name": "conv2d_9", "inbound_nodes": [[["max_pooling2d_2", 0, 0, {}]]], "config": {"filters": 32, "name": "conv2d_9", "bias_regularizer": null, "bias_constraint": null, "padding": "same", "activity_regularizer": null, "strides": [1, 1], "kernel_size": [1, 1], "kernel_regularizer": null, "data_format": "channels_last", "trainable": true, "kernel_constraint": null, "use_bias": true, "bias_initializer": {"class_name": "Zeros", "config": {}}, "kernel_initializer": {"class_name": "VarianceScaling", "config": {"mode": "fan_avg", "seed": null, "scale": 1.0, "distribution": "uniform"}}, "dilation_rate": [1, 1], "activation": "relu"}}, {"class_name": "BatchNormalization", "name": "batch_normalization_9", "inbound_nodes": [[["conv2d_9", 0, 0, {}]]], "config": {"name": "batch_normalization_9", "gamma_initializer": {"class_name": "Ones", "config": {}}, "momentum": 0.99, "moving_mean_initializer": {"class_name": "Zeros", "config": {}}, "gamma_constraint": null, "center": true, "beta_initializer": {"class_name": "Zeros", "config": {}}, "moving_variance_initializer": {"class_name": "Ones", "config": {}}, "axis": 3, "scale": true, "gamma_regularizer": null, "epsilon": 0.001, "beta_constraint": null, "beta_regularizer": null, "trainable": true}}, {"class_name": "Conv2D", "name": "conv2d_7", "inbound_nodes": [[["max_pooling2d_2", 0, 0, {}]]], "config": {"filters": 24, "name": "conv2d_7", "bias_regularizer": null, "bias_constraint": null, "padding": "same", "activity_regularizer": null, "strides": [1, 1], "kernel_size": [1, 1], "kernel_regularizer": null, "data_format": "channels_last", "trainable": true, "kernel_constraint": null, "use_bias": true, "bias_initializer": {"class_name": "Zeros", "config": {}}, "kernel_initializer": {"class_name": "VarianceScaling", "config": {"mode": "fan_avg", "seed": null, "scale": 1.0, "distribution": "uniform"}}, "dilation_rate": [1, 1], "activation": "relu"}}, {"class_name": "Conv2D", "name": "conv2d_10", "inbound_nodes": [[["batch_normalization_9", 0, 0, {}]]], "config": {"filters": 48, "name": "conv2d_10", "bias_regularizer": null, "bias_constraint": null, "padding": "same", "activity_regularizer": null, "strides": [1, 1], "kernel_size": [3, 3], "kernel_regularizer": null, "data_format": "channels_last", "trainable": true, "kernel_constraint": null, "use_bias": true, "bias_initializer": {"class_name": "Zeros", "config": {}}, "kernel_initializer": {"class_name": "VarianceScaling", "config": {"mode": "fan_avg", "seed": null, "scale": 1.0, "distribution": "uniform"}}, "dilation_rate": [1, 1], "activation": "relu"}}, {"class_name": "BatchNormalization", "name": "batch_normalization_7", "inbound_nodes": [[["conv2d_7", 0, 0, {}]]], "config": {"name": "batch_normalization_7", "gamma_initializer": {"class_name": "Ones", "config": {}}, "momentum": 0.99, "moving_mean_initializer": {"class_name": "Zeros", "config": {}}, "gamma_constraint": null, "center": true, "beta_initializer": {"class_name": "Zeros", "config": {}}, "moving_variance_initializer": {"class_name": "Ones", "config": {}}, "axis": 3, "scale": true, "gamma_regularizer": null, "epsilon": 0.001, "beta_constraint": null, "beta_regularizer": null, "trainable": true}}, {"class_name": "BatchNormalization", "name": "batch_normalization_10", "inbound_nodes": [[["conv2d_10", 0, 0, {}]]], "config": {"name": "batch_normalization_10", "gamma_initializer": {"class_name": "Ones", "config": {}}, "momentum": 0.99, "moving_mean_initializer": {"class_name": "Zeros", "config": {}}, "gamma_constraint": null, "center": true, "beta_initializer": {"class_name": "Zeros", "config": {}}, "moving_variance_initializer": {"class_name": "Ones", "config": {}}, "axis": 3, "scale": true, "gamma_regularizer": null, "epsilon": 0.001, "beta_constraint": null, "beta_regularizer": null, "trainable": true}}, {"class_name": "AveragePooling2D", "name": "average_pooling2d_1", "inbound_nodes": [[["max_pooling2d_2", 0, 0, {}]]], "config": {"strides": [1, 1], "data_format": "channels_last", "trainable": true, "padding": "same", "name": "average_pooling2d_1", "pool_size": [3, 3]}}, {"class_name": "Conv2D", "name": "conv2d_6", "inbound_nodes": [[["max_pooling2d_2", 0, 0, {}]]], "config": {"filters": 32, "name": "conv2d_6", "bias_regularizer": null, "bias_constraint": null, "padding": "same", "activity_regularizer": null, "strides": [1, 1], "kernel_size": [1, 1], "kernel_regularizer": null, "data_format": "channels_last", "trainable": true, "kernel_constraint": null, "use_bias": true, "bias_initializer": {"class_name": "Zeros", "config": {}}, "kernel_initializer": {"class_name": "VarianceScaling", "config": {"mode": "fan_avg", "seed": null, "scale": 1.0, "distribution": "uniform"}}, "dilation_rate": [1, 1], "activation": "relu"}}, {"class_name": "Conv2D", "name": "conv2d_8", "inbound_nodes": [[["batch_normalization_7", 0, 0, {}]]], "config": {"filters": 32, "name": "conv2d_8", "bias_regularizer": null, "bias_constraint": null, "padding": "same", "activity_regularizer": null, "strides": [1, 1], "kernel_size": [5, 5], "kernel_regularizer": null, "data_format": "channels_last", "trainable": true, "kernel_constraint": null, "use_bias": true, "bias_initializer": {"class_name": "Zeros", "config": {}}, "kernel_initializer": {"class_name": "VarianceScaling", "config": {"mode": "fan_avg", "seed": null, "scale": 1.0, "distribution": "uniform"}}, "dilation_rate": [1, 1], "activation": "relu"}}, {"class_name": "Conv2D", "name": "conv2d_11", "inbound_nodes": [[["batch_normalization_10", 0, 0, {}]]], "config": {"filters": 48, "name": "conv2d_11", "bias_regularizer": null, "bias_constraint": null, "padding": "same", "activity_regularizer": null, "strides": [1, 1], "kernel_size": [3, 3], "kernel_regularizer": null, "data_format": "channels_last", "trainable": true, "kernel_constraint": null, "use_bias": true, "bias_initializer": {"class_name": "Zeros", "config": {}}, "kernel_initializer": {"class_name": "VarianceScaling", "config": {"mode": "fan_avg", "seed": null, "scale": 1.0, "distribution": "uniform"}}, "dilation_rate": [1, 1], "activation": "relu"}}, {"class_name": "Conv2D", "name": "conv2d_12", "inbound_nodes": [[["average_pooling2d_1", 0, 0, {}]]], "config": {"filters": 16, "name": "conv2d_12", "bias_regularizer": null, "bias_constraint": null, "padding": "same", "activity_regularizer": null, "strides": [1, 1], "kernel_size": [1, 1], "kernel_regularizer": null, "data_format": "channels_last", "trainable": true, "kernel_constraint": null, "use_bias": true, "bias_initializer": {"class_name": "Zeros", "config": {}}, "kernel_initializer": {"class_name": "VarianceScaling", "config": {"mode": "fan_avg", "seed": null, "scale": 1.0, "distribution": "uniform"}}, "dilation_rate": [1, 1], "activation": "relu"}}, {"class_name": "BatchNormalization", "name": "batch_normalization_6", "inbound_nodes": [[["conv2d_6", 0, 0, {}]]], "config": {"name": "batch_normalization_6", "gamma_initializer": {"class_name": "Ones", "config": {}}, "momentum": 0.99, "moving_mean_initializer": {"class_name": "Zeros", "config": {}}, "gamma_constraint": null, "center": true, "beta_initializer": {"class_name": "Zeros", "config": {}}, "moving_variance_initializer": {"class_name": "Ones", "config": {}}, "axis": 3, "scale": true, "gamma_regularizer": null, "epsilon": 0.001, "beta_constraint": null, "beta_regularizer": null, "trainable": true}}, {"class_name": "BatchNormalization", "name": "batch_normalization_8", "inbound_nodes": [[["conv2d_8", 0, 0, {}]]], "config": {"name": "batch_normalization_8", "gamma_initializer": {"class_name": "Ones", "config": {}}, "momentum": 0.99, "moving_mean_initializer": {"class_name": "Zeros", "config": {}}, "gamma_constraint": null, "center": true, "beta_initializer": {"class_name": "Zeros", "config": {}}, "moving_variance_initializer": {"class_name": "Ones", "config": {}}, "axis": 3, "scale": true, "gamma_regularizer": null, "epsilon": 0.001, "beta_constraint": null, "beta_regularizer": null, "trainable": true}}, {"class_name": "BatchNormalization", "name": "batch_normalization_11", "inbound_nodes": [[["conv2d_11", 0, 0, {}]]], "config": {"name": "batch_normalization_11", "gamma_initializer": {"class_name": "Ones", "config": {}}, "momentum": 0.99, "moving_mean_initializer": {"class_name": "Zeros", "config": {}}, "gamma_constraint": null, "center": true, "beta_initializer": {"class_name": "Zeros", "config": {}}, "moving_variance_initializer": {"class_name": "Ones", "config": {}}, "axis": 3, "scale": true, "gamma_regularizer": null, "epsilon": 0.001, "beta_constraint": null, "beta_regularizer": null, "trainable": true}}, {"class_name": "BatchNormalization", "name": "batch_normalization_12", "inbound_nodes": [[["conv2d_12", 0, 0, {}]]], "config": {"name": "batch_normalization_12", "gamma_initializer": {"class_name": "Ones", "config": {}}, "momentum": 0.99, "moving_mean_initializer": {"class_name": "Zeros", "config": {}}, "gamma_constraint": null, "center": true, "beta_initializer": {"class_name": "Zeros", "config": {}}, "moving_variance_initializer": {"class_name": "Ones", "config": {}}, "axis": 3, "scale": true, "gamma_regularizer": null, "epsilon": 0.001, "beta_constraint": null, "beta_regularizer": null, "trainable": true}}, {"class_name": "Concatenate", "name": "mixed0", "inbound_nodes": [[["batch_normalization_6", 0, 0, {}], ["batch_normalization_8", 0, 0, {}], ["batch_normalization_11", 0, 0, {}], ["batch_normalization_12", 0, 0, {}]]], "config": {"name": "mixed0", "axis": -1, "trainable": true}}, {"class_name": "Conv2D", "name": "conv2d_16", "inbound_nodes": [[["mixed0", 0, 0, {}]]], "config": {"filters": 32, "name": "conv2d_16", "bias_regularizer": null, "bias_constraint": null, "padding": "same", "activity_regularizer": null, "strides": [1, 1], "kernel_size": [1, 1], "kernel_regularizer": null, "data_format": "channels_last", "trainable": true, "kernel_constraint": null, "use_bias": true, "bias_initializer": {"class_name": "Zeros", "config": {}}, "kernel_initializer": {"class_name": "VarianceScaling", "config": {"mode": "fan_avg", "seed": null, "scale": 1.0, "distribution": "uniform"}}, "dilation_rate": [1, 1], "activation": "relu"}}, {"class_name": "BatchNormalization", "name": "batch_normalization_16", "inbound_nodes": [[["conv2d_16", 0, 0, {}]]], "config": {"name": "batch_normalization_16", "gamma_initializer": {"class_name": "Ones", "config": {}}, "momentum": 0.99, "moving_mean_initializer": {"class_name": "Zeros", "config": {}}, "gamma_constraint": null, "center": true, "beta_initializer": {"class_name": "Zeros", "config": {}}, "moving_variance_initializer": {"class_name": "Ones", "config": {}}, "axis": 3, "scale": true, "gamma_regularizer": null, "epsilon": 0.001, "beta_constraint": null, "beta_regularizer": null, "trainable": true}}, {"class_name": "Conv2D", "name": "conv2d_14", "inbound_nodes": [[["mixed0", 0, 0, {}]]], "config": {"filters": 24, "name": "conv2d_14", "bias_regularizer": null, "bias_constraint": null, "padding": "same", "activity_regularizer": null, "strides": [1, 1], "kernel_size": [1, 1], "kernel_regularizer": null, "data_format": "channels_last", "trainable": true, "kernel_constraint": null, "use_bias": true, "bias_initializer": {"class_name": "Zeros", "config": {}}, "kernel_initializer": {"class_name": "VarianceScaling", "config": {"mode": "fan_avg", "seed": null, "scale": 1.0, "distribution": "uniform"}}, "dilation_rate": [1, 1], "activation": "relu"}}, {"class_name": "Conv2D", "name": "conv2d_17", "inbound_nodes": [[["batch_normalization_16", 0, 0, {}]]], "config": {"filters": 48, "name": "conv2d_17", "bias_regularizer": null, "bias_constraint": null, "padding": "same", "activity_regularizer": null, "strides": [1, 1], "kernel_size": [3, 3], "kernel_regularizer": null, "data_format": "channels_last", "trainable": true, "kernel_constraint": null, "use_bias": true, "bias_initializer": {"class_name": "Zeros", "config": {}}, "kernel_initializer": {"class_name": "VarianceScaling", "config": {"mode": "fan_avg", "seed": null, "scale": 1.0, "distribution": "uniform"}}, "dilation_rate": [1, 1], "activation": "relu"}}, {"class_name": "BatchNormalization", "name": "batch_normalization_14", "inbound_nodes": [[["conv2d_14", 0, 0, {}]]], "config": {"name": "batch_normalization_14", "gamma_initializer": {"class_name": "Ones", "config": {}}, "momentum": 0.99, "moving_mean_initializer": {"class_name": "Zeros", "config": {}}, "gamma_constraint": null, "center": true, "beta_initializer": {"class_name": "Zeros", "config": {}}, "moving_variance_initializer": {"class_name": "Ones", "config": {}}, "axis": 3, "scale": true, "gamma_regularizer": null, "epsilon": 0.001, "beta_constraint": null, "beta_regularizer": null, "trainable": true}}, {"class_name": "BatchNormalization", "name": "batch_normalization_17", "inbound_nodes": [[["conv2d_17", 0, 0, {}]]], "config": {"name": "batch_normalization_17", "gamma_initializer": {"class_name": "Ones", "config": {}}, "momentum": 0.99, "moving_mean_initializer": {"class_name": "Zeros", "config": {}}, "gamma_constraint": null, "center": true, "beta_initializer": {"class_name": "Zeros", "config": {}}, "moving_variance_initializer": {"class_name": "Ones", "config": {}}, "axis": 3, "scale": true, "gamma_regularizer": null, "epsilon": 0.001, "beta_constraint": null, "beta_regularizer": null, "trainable": true}}, {"class_name": "AveragePooling2D", "name": "average_pooling2d_2", "inbound_nodes": [[["mixed0", 0, 0, {}]]], "config": {"strides": [1, 1], "data_format": "channels_last", "trainable": true, "padding": "same", "name": "average_pooling2d_2", "pool_size": [3, 3]}}, {"class_name": "Conv2D", "name": "conv2d_13", "inbound_nodes": [[["mixed0", 0, 0, {}]]], "config": {"filters": 32, "name": "conv2d_13", "bias_regularizer": null, "bias_constraint": null, "padding": "same", "activity_regularizer": null, "strides": [1, 1], "kernel_size": [1, 1], "kernel_regularizer": null, "data_format": "channels_last", "trainable": true, "kernel_constraint": null, "use_bias": true, "bias_initializer": {"class_name": "Zeros", "config": {}}, "kernel_initializer": {"class_name": "VarianceScaling", "config": {"mode": "fan_avg", "seed": null, "scale": 1.0, "distribution": "uniform"}}, "dilation_rate": [1, 1], "activation": "relu"}}, {"class_name": "Conv2D", "name": "conv2d_15", "inbound_nodes": [[["batch_normalization_14", 0, 0, {}]]], "config": {"filters": 32, "name": "conv2d_15", "bias_regularizer": null, "bias_constraint": null, "padding": "same", "activity_regularizer": null, "strides": [1, 1], "kernel_size": [5, 5], "kernel_regularizer": null, "data_format": "channels_last", "trainable": true, "kernel_constraint": null, "use_bias": true, "bias_initializer": {"class_name": "Zeros", "config": {}}, "kernel_initializer": {"class_name": "VarianceScaling", "config": {"mode": "fan_avg", "seed": null, "scale": 1.0, "distribution": "uniform"}}, "dilation_rate": [1, 1], "activation": "relu"}}, {"class_name": "Conv2D", "name": "conv2d_18", "inbound_nodes": [[["batch_normalization_17", 0, 0, {}]]], "config": {"filters": 48, "name": "conv2d_18", "bias_regularizer": null, "bias_constraint": null, "padding": "same", "activity_regularizer": null, "strides": [1, 1], "kernel_size": [3, 3], "kernel_regularizer": null, "data_format": "channels_last", "trainable": true, "kernel_constraint": null, "use_bias": true, "bias_initializer": {"class_name": "Zeros", "config": {}}, "kernel_initializer": {"class_name": "VarianceScaling", "config": {"mode": "fan_avg", "seed": null, "scale": 1.0, "distribution": "uniform"}}, "dilation_rate": [1, 1], "activation": "relu"}}, {"class_name": "Conv2D", "name": "conv2d_19", "inbound_nodes": [[["average_pooling2d_2", 0, 0, {}]]], "config": {"filters": 16, "name": "conv2d_19", "bias_regularizer": null, "bias_constraint": null, "padding": "same", "activity_regularizer": null, "strides": [1, 1], "kernel_size": [1, 1], "kernel_regularizer": null, "data_format": "channels_last", "trainable": true, "kernel_constraint": null, "use_bias": true, "bias_initializer": {"class_name": "Zeros", "config": {}}, "kernel_initializer": {"class_name": "VarianceScaling", "config": {"mode": "fan_avg", "seed": null, "scale": 1.0, "distribution": "uniform"}}, "dilation_rate": [1, 1], "activation": "relu"}}, {"class_name": "BatchNormalization", "name": "batch_normalization_13", "inbound_nodes": [[["conv2d_13", 0, 0, {}]]], "config": {"name": "batch_normalization_13", "gamma_initializer": {"class_name": "Ones", "config": {}}, "momentum": 0.99, "moving_mean_initializer": {"class_name": "Zeros", "config": {}}, "gamma_constraint": null, "center": true, "beta_initializer": {"class_name": "Zeros", "config": {}}, "moving_variance_initializer": {"class_name": "Ones", "config": {}}, "axis": 3, "scale": true, "gamma_regularizer": null, "epsilon": 0.001, "beta_constraint": null, "beta_regularizer": null, "trainable": true}}, {"class_name": "BatchNormalization", "name": "batch_normalization_15", "inbound_nodes": [[["conv2d_15", 0, 0, {}]]], "config": {"name": "batch_normalization_15", "gamma_initializer": {"class_name": "Ones", "config": {}}, "momentum": 0.99, "moving_mean_initializer": {"class_name": "Zeros", "config": {}}, "gamma_constraint": null, "center": true, "beta_initializer": {"class_name": "Zeros", "config": {}}, "moving_variance_initializer": {"class_name": "Ones", "config": {}}, "axis": 3, "scale": true, "gamma_regularizer": null, "epsilon": 0.001, "beta_constraint": null, "beta_regularizer": null, "trainable": true}}, {"class_name": "BatchNormalization", "name": "batch_normalization_18", "inbound_nodes": [[["conv2d_18", 0, 0, {}]]], "config": {"name": "batch_normalization_18", "gamma_initializer": {"class_name": "Ones", "config": {}}, "momentum": 0.99, "moving_mean_initializer": {"class_name": "Zeros", "config": {}}, "gamma_constraint": null, "center": true, "beta_initializer": {"class_name": "Zeros", "config": {}}, "moving_variance_initializer": {"class_name": "Ones", "config": {}}, "axis": 3, "scale": true, "gamma_regularizer": null, "epsilon": 0.001, "beta_constraint": null, "beta_regularizer": null, "trainable": true}}, {"class_name": "BatchNormalization", "name": "batch_normalization_19", "inbound_nodes": [[["conv2d_19", 0, 0, {}]]], "config": {"name": "batch_normalization_19", "gamma_initializer": {"class_name": "Ones", "config": {}}, "momentum": 0.99, "moving_mean_initializer": {"class_name": "Zeros", "config": {}}, "gamma_constraint": null, "center": true, "beta_initializer": {"class_name": "Zeros", "config": {}}, "moving_variance_initializer": {"class_name": "Ones", "config": {}}, "axis": 3, "scale": true, "gamma_regularizer": null, "epsilon": 0.001, "beta_constraint": null, "beta_regularizer": null, "trainable": true}}, {"class_name": "Concatenate", "name": "mixed1", "inbound_nodes": [[["batch_normalization_13", 0, 0, {}], ["batch_normalization_15", 0, 0, {}], ["batch_normalization_18", 0, 0, {}], ["batch_normalization_19", 0, 0, {}]]], "config": {"name": "mixed1", "axis": -1, "trainable": true}}, {"class_name": "Conv2D", "name": "conv2d_23", "inbound_nodes": [[["mixed1", 0, 0, {}]]], "config": {"filters": 32, "name": "conv2d_23", "bias_regularizer": null, "bias_constraint": null, "padding": "same", "activity_regularizer": null, "strides": [1, 1], "kernel_size": [1, 1], "kernel_regularizer": null, "data_format": "channels_last", "trainable": true, "kernel_constraint": null, "use_bias": true, "bias_initializer": {"class_name": "Zeros", "config": {}}, "kernel_initializer": {"class_name": "VarianceScaling", "config": {"mode": "fan_avg", "seed": null, "scale": 1.0, "distribution": "uniform"}}, "dilation_rate": [1, 1], "activation": "relu"}}, {"class_name": "BatchNormalization", "name": "batch_normalization_23", "inbound_nodes": [[["conv2d_23", 0, 0, {}]]], "config": {"name": "batch_normalization_23", "gamma_initializer": {"class_name": "Ones", "config": {}}, "momentum": 0.99, "moving_mean_initializer": {"class_name": "Zeros", "config": {}}, "gamma_constraint": null, "center": true, "beta_initializer": {"class_name": "Zeros", "config": {}}, "moving_variance_initializer": {"class_name": "Ones", "config": {}}, "axis": 3, "scale": true, "gamma_regularizer": null, "epsilon": 0.001, "beta_constraint": null, "beta_regularizer": null, "trainable": true}}, {"class_name": "Conv2D", "name": "conv2d_21", "inbound_nodes": [[["mixed1", 0, 0, {}]]], "config": {"filters": 24, "name": "conv2d_21", "bias_regularizer": null, "bias_constraint": null, "padding": "same", "activity_regularizer": null, "strides": [1, 1], "kernel_size": [1, 1], "kernel_regularizer": null, "data_format": "channels_last", "trainable": true, "kernel_constraint": null, "use_bias": true, "bias_initializer": {"class_name": "Zeros", "config": {}}, "kernel_initializer": {"class_name": "VarianceScaling", "config": {"mode": "fan_avg", "seed": null, "scale": 1.0, "distribution": "uniform"}}, "dilation_rate": [1, 1], "activation": "relu"}}, {"class_name": "Conv2D", "name": "conv2d_24", "inbound_nodes": [[["batch_normalization_23", 0, 0, {}]]], "config": {"filters": 48, "name": "conv2d_24", "bias_regularizer": null, "bias_constraint": null, "padding": "same", "activity_regularizer": null, "strides": [1, 1], "kernel_size": [3, 3], "kernel_regularizer": null, "data_format": "channels_last", "trainable": true, "kernel_constraint": null, "use_bias": true, "bias_initializer": {"class_name": "Zeros", "config": {}}, "kernel_initializer": {"class_name": "VarianceScaling", "config": {"mode": "fan_avg", "seed": null, "scale": 1.0, "distribution": "uniform"}}, "dilation_rate": [1, 1], "activation": "relu"}}, {"class_name": "BatchNormalization", "name": "batch_normalization_21", "inbound_nodes": [[["conv2d_21", 0, 0, {}]]], "config": {"name": "batch_normalization_21", "gamma_initializer": {"class_name": "Ones", "config": {}}, "momentum": 0.99, "moving_mean_initializer": {"class_name": "Zeros", "config": {}}, "gamma_constraint": null, "center": true, "beta_initializer": {"class_name": "Zeros", "config": {}}, "moving_variance_initializer": {"class_name": "Ones", "config": {}}, "axis": 3, "scale": true, "gamma_regularizer": null, "epsilon": 0.001, "beta_constraint": null, "beta_regularizer": null, "trainable": true}}, {"class_name": "BatchNormalization", "name": "batch_normalization_24", "inbound_nodes": [[["conv2d_24", 0, 0, {}]]], "config": {"name": "batch_normalization_24", "gamma_initializer": {"class_name": "Ones", "config": {}}, "momentum": 0.99, "moving_mean_initializer": {"class_name": "Zeros", "config": {}}, "gamma_constraint": null, "center": true, "beta_initializer": {"class_name": "Zeros", "config": {}}, "moving_variance_initializer": {"class_name": "Ones", "config": {}}, "axis": 3, "scale": true, "gamma_regularizer": null, "epsilon": 0.001, "beta_constraint": null, "beta_regularizer": null, "trainable": true}}, {"class_name": "AveragePooling2D", "name": "average_pooling2d_3", "inbound_nodes": [[["mixed1", 0, 0, {}]]], "config": {"strides": [1, 1], "data_format": "channels_last", "trainable": true, "padding": "same", "name": "average_pooling2d_3", "pool_size": [3, 3]}}, {"class_name": "Conv2D", "name": "conv2d_20", "inbound_nodes": [[["mixed1", 0, 0, {}]]], "config": {"filters": 32, "name": "conv2d_20", "bias_regularizer": null, "bias_constraint": null, "padding": "same", "activity_regularizer": null, "strides": [1, 1], "kernel_size": [1, 1], "kernel_regularizer": null, "data_format": "channels_last", "trainable": true, "kernel_constraint": null, "use_bias": true, "bias_initializer": {"class_name": "Zeros", "config": {}}, "kernel_initializer": {"class_name": "VarianceScaling", "config": {"mode": "fan_avg", "seed": null, "scale": 1.0, "distribution": "uniform"}}, "dilation_rate": [1, 1], "activation": "relu"}}, {"class_name": "Conv2D", "name": "conv2d_22", "inbound_nodes": [[["batch_normalization_21", 0, 0, {}]]], "config": {"filters": 32, "name": "conv2d_22", "bias_regularizer": null, "bias_constraint": null, "padding": "same", "activity_regularizer": null, "strides": [1, 1], "kernel_size": [5, 5], "kernel_regularizer": null, "data_format": "channels_last", "trainable": true, "kernel_constraint": null, "use_bias": true, "bias_initializer": {"class_name": "Zeros", "config": {}}, "kernel_initializer": {"class_name": "VarianceScaling", "config": {"mode": "fan_avg", "seed": null, "scale": 1.0, "distribution": "uniform"}}, "dilation_rate": [1, 1], "activation": "relu"}}, {"class_name": "Conv2D", "name": "conv2d_25", "inbound_nodes": [[["batch_normalization_24", 0, 0, {}]]], "config": {"filters": 48, "name": "conv2d_25", "bias_regularizer": null, "bias_constraint": null, "padding": "same", "activity_regularizer": null, "strides": [1, 1], "kernel_size": [3, 3], "kernel_regularizer": null, "data_format": "channels_last", "trainable": true, "kernel_constraint": null, "use_bias": true, "bias_initializer": {"class_name": "Zeros", "config": {}}, "kernel_initializer": {"class_name": "VarianceScaling", "config": {"mode": "fan_avg", "seed": null, "scale": 1.0, "distribution": "uniform"}}, "dilation_rate": [1, 1], "activation": "relu"}}, {"class_name": "Conv2D", "name": "conv2d_26", "inbound_nodes": [[["average_pooling2d_3", 0, 0, {}]]], "config": {"filters": 16, "name": "conv2d_26", "bias_regularizer": null, "bias_constraint": null, "padding": "same", "activity_regularizer": null, "strides": [1, 1], "kernel_size": [1, 1], "kernel_regularizer": null, "data_format": "channels_last", "trainable": true, "kernel_constraint": null, "use_bias": true, "bias_initializer": {"class_name": "Zeros", "config": {}}, "kernel_initializer": {"class_name": "VarianceScaling", "config": {"mode": "fan_avg", "seed": null, "scale": 1.0, "distribution": "uniform"}}, "dilation_rate": [1, 1], "activation": "relu"}}, {"class_name": "BatchNormalization", "name": "batch_normalization_20", "inbound_nodes": [[["conv2d_20", 0, 0, {}]]], "config": {"name": "batch_normalization_20", "gamma_initializer": {"class_name": "Ones", "config": {}}, "momentum": 0.99, "moving_mean_initializer": {"class_name": "Zeros", "config": {}}, "gamma_constraint": null, "center": true, "beta_initializer": {"class_name": "Zeros", "config": {}}, "moving_variance_initializer": {"class_name": "Ones", "config": {}}, "axis": 3, "scale": true, "gamma_regularizer": null, "epsilon": 0.001, "beta_constraint": null, "beta_regularizer": null, "trainable": true}}, {"class_name": "BatchNormalization", "name": "batch_normalization_22", "inbound_nodes": [[["conv2d_22", 0, 0, {}]]], "config": {"name": "batch_normalization_22", "gamma_initializer": {"class_name": "Ones", "config": {}}, "momentum": 0.99, "moving_mean_initializer": {"class_name": "Zeros", "config": {}}, "gamma_constraint": null, "center": true, "beta_initializer": {"class_name": "Zeros", "config": {}}, "moving_variance_initializer": {"class_name": "Ones", "config": {}}, "axis": 3, "scale": true, "gamma_regularizer": null, "epsilon": 0.001, "beta_constraint": null, "beta_regularizer": null, "trainable": true}}, {"class_name": "BatchNormalization", "name": "batch_normalization_25", "inbound_nodes": [[["conv2d_25", 0, 0, {}]]], "config": {"name": "batch_normalization_25", "gamma_initializer": {"class_name": "Ones", "config": {}}, "momentum": 0.99, "moving_mean_initializer": {"class_name": "Zeros", "config": {}}, "gamma_constraint": null, "center": true, "beta_initializer": {"class_name": "Zeros", "config": {}}, "moving_variance_initializer": {"class_name": "Ones", "config": {}}, "axis": 3, "scale": true, "gamma_regularizer": null, "epsilon": 0.001, "beta_constraint": null, "beta_regularizer": null, "trainable": true}}, {"class_name": "BatchNormalization", "name": "batch_normalization_26", "inbound_nodes": [[["conv2d_26", 0, 0, {}]]], "config": {"name": "batch_normalization_26", "gamma_initializer": {"class_name": "Ones", "config": {}}, "momentum": 0.99, "moving_mean_initializer": {"class_name": "Zeros", "config": {}}, "gamma_constraint": null, "center": true, "beta_initializer": {"class_name": "Zeros", "config": {}}, "moving_variance_initializer": {"class_name": "Ones", "config": {}}, "axis": 3, "scale": true, "gamma_regularizer": null, "epsilon": 0.001, "beta_constraint": null, "beta_regularizer": null, "trainable": true}}, {"class_name": "Concatenate", "name": "mixed2", "inbound_nodes": [[["batch_normalization_20", 0, 0, {}], ["batch_normalization_22", 0, 0, {}], ["batch_normalization_25", 0, 0, {}], ["batch_normalization_26", 0, 0, {}]]], "config": {"name": "mixed2", "axis": -1, "trainable": true}}, {"class_name": "Conv2D", "name": "conv2d_28", "inbound_nodes": [[["mixed2", 0, 0, {}]]], "config": {"filters": 32, "name": "conv2d_28", "bias_regularizer": null, "bias_constraint": null, "padding": "same", "activity_regularizer": null, "strides": [1, 1], "kernel_size": [1, 1], "kernel_regularizer": null, "data_format": "channels_last", "trainable": true, "kernel_constraint": null, "use_bias": true, "bias_initializer": {"class_name": "Zeros", "config": {}}, "kernel_initializer": {"class_name": "VarianceScaling", "config": {"mode": "fan_avg", "seed": null, "scale": 1.0, "distribution": "uniform"}}, "dilation_rate": [1, 1], "activation": "relu"}}, {"class_name": "BatchNormalization", "name": "batch_normalization_28", "inbound_nodes": [[["conv2d_28", 0, 0, {}]]], "config": {"name": "batch_normalization_28", "gamma_initializer": {"class_name": "Ones", "config": {}}, "momentum": 0.99, "moving_mean_initializer": {"class_name": "Zeros", "config": {}}, "gamma_constraint": null, "center": true, "beta_initializer": {"class_name": "Zeros", "config": {}}, "moving_variance_initializer": {"class_name": "Ones", "config": {}}, "axis": 3, "scale": true, "gamma_regularizer": null, "epsilon": 0.001, "beta_constraint": null, "beta_regularizer": null, "trainable": true}}, {"class_name": "Conv2D", "name": "conv2d_29", "inbound_nodes": [[["batch_normalization_28", 0, 0, {}]]], "config": {"filters": 48, "name": "conv2d_29", "bias_regularizer": null, "bias_constraint": null, "padding": "same", "activity_regularizer": null, "strides": [1, 1], "kernel_size": [3, 3], "kernel_regularizer": null, "data_format": "channels_last", "trainable": true, "kernel_constraint": null, "use_bias": true, "bias_initializer": {"class_name": "Zeros", "config": {}}, "kernel_initializer": {"class_name": "VarianceScaling", "config": {"mode": "fan_avg", "seed": null, "scale": 1.0, "distribution": "uniform"}}, "dilation_rate": [1, 1], "activation": "relu"}}, {"class_name": "BatchNormalization", "name": "batch_normalization_29", "inbound_nodes": [[["conv2d_29", 0, 0, {}]]], "config": {"name": "batch_normalization_29", "gamma_initializer": {"class_name": "Ones", "config": {}}, "momentum": 0.99, "moving_mean_initializer": {"class_name": "Zeros", "config": {}}, "gamma_constraint": null, "center": true, "beta_initializer": {"class_name": "Zeros", "config": {}}, "moving_variance_initializer": {"class_name": "Ones", "config": {}}, "axis": 3, "scale": true, "gamma_regularizer": null, "epsilon": 0.001, "beta_constraint": null, "beta_regularizer": null, "trainable": true}}, {"class_name": "Conv2D", "name": "conv2d_27", "inbound_nodes": [[["mixed2", 0, 0, {}]]], "config": {"filters": 192, "name": "conv2d_27", "bias_regularizer": null, "bias_constraint": null, "padding": "valid", "activity_regularizer": null, "strides": [2, 2], "kernel_size": [3, 3], "kernel_regularizer": null, "data_format": "channels_last", "trainable": true, "kernel_constraint": null, "use_bias": true, "bias_initializer": {"class_name": "Zeros", "config": {}}, "kernel_initializer": {"class_name": "VarianceScaling", "config": {"mode": "fan_avg", "seed": null, "scale": 1.0, "distribution": "uniform"}}, "dilation_rate": [1, 1], "activation": "relu"}}, {"class_name": "Conv2D", "name": "conv2d_30", "inbound_nodes": [[["batch_normalization_29", 0, 0, {}]]], "config": {"filters": 48, "name": "conv2d_30", "bias_regularizer": null, "bias_constraint": null, "padding": "valid", "activity_regularizer": null, "strides": [2, 2], "kernel_size": [3, 3], "kernel_regularizer": null, "data_format": "channels_last", "trainable": true, "kernel_constraint": null, "use_bias": true, "bias_initializer": {"class_name": "Zeros", "config": {}}, "kernel_initializer": {"class_name": "VarianceScaling", "config": {"mode": "fan_avg", "seed": null, "scale": 1.0, "distribution": "uniform"}}, "dilation_rate": [1, 1], "activation": "relu"}}, {"class_name": "BatchNormalization", "name": "batch_normalization_27", "inbound_nodes": [[["conv2d_27", 0, 0, {}]]], "config": {"name": "batch_normalization_27", "gamma_initializer": {"class_name": "Ones", "config": {}}, "momentum": 0.99, "moving_mean_initializer": {"class_name": "Zeros", "config": {}}, "gamma_constraint": null, "center": true, "beta_initializer": {"class_name": "Zeros", "config": {}}, "moving_variance_initializer": {"class_name": "Ones", "config": {}}, "axis": 3, "scale": true, "gamma_regularizer": null, "epsilon": 0.001, "beta_constraint": null, "beta_regularizer": null, "trainable": true}}, {"class_name": "BatchNormalization", "name": "batch_normalization_30", "inbound_nodes": [[["conv2d_30", 0, 0, {}]]], "config": {"name": "batch_normalization_30", "gamma_initializer": {"class_name": "Ones", "config": {}}, "momentum": 0.99, "moving_mean_initializer": {"class_name": "Zeros", "config": {}}, "gamma_constraint": null, "center": true, "beta_initializer": {"class_name": "Zeros", "config": {}}, "moving_variance_initializer": {"class_name": "Ones", "config": {}}, "axis": 3, "scale": true, "gamma_regularizer": null, "epsilon": 0.001, "beta_constraint": null, "beta_regularizer": null, "trainable": true}}, {"class_name": "MaxPooling2D", "name": "max_pooling2d_3", "inbound_nodes": [[["mixed2", 0, 0, {}]]], "config": {"strides": [2, 2], "data_format": "channels_last", "trainable": true, "padding": "valid", "name": "max_pooling2d_3", "pool_size": [3, 3]}}, {"class_name": "Concatenate", "name": "mixed3", "inbound_nodes": [[["batch_normalization_27", 0, 0, {}], ["batch_normalization_30", 0, 0, {}], ["max_pooling2d_3", 0, 0, {}]]], "config": {"name": "mixed3", "axis": -1, "trainable": true}}, {"class_name": "Conv2D", "name": "conv2d_35", "inbound_nodes": [[["mixed3", 0, 0, {}]]], "config": {"filters": 64, "name": "conv2d_35", "bias_regularizer": null, "bias_constraint": null, "padding": "same", "activity_regularizer": null, "strides": [1, 1], "kernel_size": [1, 1], "kernel_regularizer": null, "data_format": "channels_last", "trainable": true, "kernel_constraint": null, "use_bias": true, "bias_initializer": {"class_name": "Zeros", "config": {}}, "kernel_initializer": {"class_name": "VarianceScaling", "config": {"mode": "fan_avg", "seed": null, "scale": 1.0, "distribution": "uniform"}}, "dilation_rate": [1, 1], "activation": "relu"}}, {"class_name": "BatchNormalization", "name": "batch_normalization_35", "inbound_nodes": [[["conv2d_35", 0, 0, {}]]], "config": {"name": "batch_normalization_35", "gamma_initializer": {"class_name": "Ones", "config": {}}, "momentum": 0.99, "moving_mean_initializer": {"class_name": "Zeros", "config": {}}, "gamma_constraint": null, "center": true, "beta_initializer": {"class_name": "Zeros", "config": {}}, "moving_variance_initializer": {"class_name": "Ones", "config": {}}, "axis": 3, "scale": true, "gamma_regularizer": null, "epsilon": 0.001, "beta_constraint": null, "beta_regularizer": null, "trainable": true}}, {"class_name": "Conv2D", "name": "conv2d_36", "inbound_nodes": [[["batch_normalization_35", 0, 0, {}]]], "config": {"filters": 64, "name": "conv2d_36", "bias_regularizer": null, "bias_constraint": null, "padding": "same", "activity_regularizer": null, "strides": [1, 1], "kernel_size": [7, 1], "kernel_regularizer": null, "data_format": "channels_last", "trainable": true, "kernel_constraint": null, "use_bias": true, "bias_initializer": {"class_name": "Zeros", "config": {}}, "kernel_initializer": {"class_name": "VarianceScaling", "config": {"mode": "fan_avg", "seed": null, "scale": 1.0, "distribution": "uniform"}}, "dilation_rate": [1, 1], "activation": "relu"}}, {"class_name": "BatchNormalization", "name": "batch_normalization_36", "inbound_nodes": [[["conv2d_36", 0, 0, {}]]], "config": {"name": "batch_normalization_36", "gamma_initializer": {"class_name": "Ones", "config": {}}, "momentum": 0.99, "moving_mean_initializer": {"class_name": "Zeros", "config": {}}, "gamma_constraint": null, "center": true, "beta_initializer": {"class_name": "Zeros", "config": {}}, "moving_variance_initializer": {"class_name": "Ones", "config": {}}, "axis": 3, "scale": true, "gamma_regularizer": null, "epsilon": 0.001, "beta_constraint": null, "beta_regularizer": null, "trainable": true}}, {"class_name": "Conv2D", "name": "conv2d_32", "inbound_nodes": [[["mixed3", 0, 0, {}]]], "config": {"filters": 64, "name": "conv2d_32", "bias_regularizer": null, "bias_constraint": null, "padding": "same", "activity_regularizer": null, "strides": [1, 1], "kernel_size": [1, 1], "kernel_regularizer": null, "data_format": "channels_last", "trainable": true, "kernel_constraint": null, "use_bias": true, "bias_initializer": {"class_name": "Zeros", "config": {}}, "kernel_initializer": {"class_name": "VarianceScaling", "config": {"mode": "fan_avg", "seed": null, "scale": 1.0, "distribution": "uniform"}}, "dilation_rate": [1, 1], "activation": "relu"}}, {"class_name": "Conv2D", "name": "conv2d_37", "inbound_nodes": [[["batch_normalization_36", 0, 0, {}]]], "config": {"filters": 64, "name": "conv2d_37", "bias_regularizer": null, "bias_constraint": null, "padding": "same", "activity_regularizer": null, "strides": [1, 1], "kernel_size": [1, 7], "kernel_regularizer": null, "data_format": "channels_last", "trainable": true, "kernel_constraint": null, "use_bias": true, "bias_initializer": {"class_name": "Zeros", "config": {}}, "kernel_initializer": {"class_name": "VarianceScaling", "config": {"mode": "fan_avg", "seed": null, "scale": 1.0, "distribution": "uniform"}}, "dilation_rate": [1, 1], "activation": "relu"}}, {"class_name": "BatchNormalization", "name": "batch_normalization_32", "inbound_nodes": [[["conv2d_32", 0, 0, {}]]], "config": {"name": "batch_normalization_32", "gamma_initializer": {"class_name": "Ones", "config": {}}, "momentum": 0.99, "moving_mean_initializer": {"class_name": "Zeros", "config": {}}, "gamma_constraint": null, "center": true, "beta_initializer": {"class_name": "Zeros", "config": {}}, "moving_variance_initializer": {"class_name": "Ones", "config": {}}, "axis": 3, "scale": true, "gamma_regularizer": null, "epsilon": 0.001, "beta_constraint": null, "beta_regularizer": null, "trainable": true}}, {"class_name": "BatchNormalization", "name": "batch_normalization_37", "inbound_nodes": [[["conv2d_37", 0, 0, {}]]], "config": {"name": "batch_normalization_37", "gamma_initializer": {"class_name": "Ones", "config": {}}, "momentum": 0.99, "moving_mean_initializer": {"class_name": "Zeros", "config": {}}, "gamma_constraint": null, "center": true, "beta_initializer": {"class_name": "Zeros", "config": {}}, "moving_variance_initializer": {"class_name": "Ones", "config": {}}, "axis": 3, "scale": true, "gamma_regularizer": null, "epsilon": 0.001, "beta_constraint": null, "beta_regularizer": null, "trainable": true}}, {"class_name": "Conv2D", "name": "conv2d_33", "inbound_nodes": [[["batch_normalization_32", 0, 0, {}]]], "config": {"filters": 64, "name": "conv2d_33", "bias_regularizer": null, "bias_constraint": null, "padding": "same", "activity_regularizer": null, "strides": [1, 1], "kernel_size": [1, 7], "kernel_regularizer": null, "data_format": "channels_last", "trainable": true, "kernel_constraint": null, "use_bias": true, "bias_initializer": {"class_name": "Zeros", "config": {}}, "kernel_initializer": {"class_name": "VarianceScaling", "config": {"mode": "fan_avg", "seed": null, "scale": 1.0, "distribution": "uniform"}}, "dilation_rate": [1, 1], "activation": "relu"}}, {"class_name": "Conv2D", "name": "conv2d_38", "inbound_nodes": [[["batch_normalization_37", 0, 0, {}]]], "config": {"filters": 64, "name": "conv2d_38", "bias_regularizer": null, "bias_constraint": null, "padding": "same", "activity_regularizer": null, "strides": [1, 1], "kernel_size": [7, 1], "kernel_regularizer": null, "data_format": "channels_last", "trainable": true, "kernel_constraint": null, "use_bias": true, "bias_initializer": {"class_name": "Zeros", "config": {}}, "kernel_initializer": {"class_name": "VarianceScaling", "config": {"mode": "fan_avg", "seed": null, "scale": 1.0, "distribution": "uniform"}}, "dilation_rate": [1, 1], "activation": "relu"}}, {"class_name": "BatchNormalization", "name": "batch_normalization_33", "inbound_nodes": [[["conv2d_33", 0, 0, {}]]], "config": {"name": "batch_normalization_33", "gamma_initializer": {"class_name": "Ones", "config": {}}, "momentum": 0.99, "moving_mean_initializer": {"class_name": "Zeros", "config": {}}, "gamma_constraint": null, "center": true, "beta_initializer": {"class_name": "Zeros", "config": {}}, "moving_variance_initializer": {"class_name": "Ones", "config": {}}, "axis": 3, "scale": true, "gamma_regularizer": null, "epsilon": 0.001, "beta_constraint": null, "beta_regularizer": null, "trainable": true}}, {"class_name": "BatchNormalization", "name": "batch_normalization_38", "inbound_nodes": [[["conv2d_38", 0, 0, {}]]], "config": {"name": "batch_normalization_38", "gamma_initializer": {"class_name": "Ones", "config": {}}, "momentum": 0.99, "moving_mean_initializer": {"class_name": "Zeros", "config": {}}, "gamma_constraint": null, "center": true, "beta_initializer": {"class_name": "Zeros", "config": {}}, "moving_variance_initializer": {"class_name": "Ones", "config": {}}, "axis": 3, "scale": true, "gamma_regularizer": null, "epsilon": 0.001, "beta_constraint": null, "beta_regularizer": null, "trainable": true}}, {"class_name": "AveragePooling2D", "name": "average_pooling2d_4", "inbound_nodes": [[["mixed3", 0, 0, {}]]], "config": {"strides": [1, 1], "data_format": "channels_last", "trainable": true, "padding": "same", "name": "average_pooling2d_4", "pool_size": [3, 3]}}, {"class_name": "Conv2D", "name": "conv2d_31", "inbound_nodes": [[["mixed3", 0, 0, {}]]], "config": {"filters": 96, "name": "conv2d_31", "bias_regularizer": null, "bias_constraint": null, "padding": "same", "activity_regularizer": null, "strides": [1, 1], "kernel_size": [1, 1], "kernel_regularizer": null, "data_format": "channels_last", "trainable": true, "kernel_constraint": null, "use_bias": true, "bias_initializer": {"class_name": "Zeros", "config": {}}, "kernel_initializer": {"class_name": "VarianceScaling", "config": {"mode": "fan_avg", "seed": null, "scale": 1.0, "distribution": "uniform"}}, "dilation_rate": [1, 1], "activation": "relu"}}, {"class_name": "Conv2D", "name": "conv2d_34", "inbound_nodes": [[["batch_normalization_33", 0, 0, {}]]], "config": {"filters": 96, "name": "conv2d_34", "bias_regularizer": null, "bias_constraint": null, "padding": "same", "activity_regularizer": null, "strides": [1, 1], "kernel_size": [7, 1], "kernel_regularizer": null, "data_format": "channels_last", "trainable": true, "kernel_constraint": null, "use_bias": true, "bias_initializer": {"class_name": "Zeros", "config": {}}, "kernel_initializer": {"class_name": "VarianceScaling", "config": {"mode": "fan_avg", "seed": null, "scale": 1.0, "distribution": "uniform"}}, "dilation_rate": [1, 1], "activation": "relu"}}, {"class_name": "Conv2D", "name": "conv2d_39", "inbound_nodes": [[["batch_normalization_38", 0, 0, {}]]], "config": {"filters": 96, "name": "conv2d_39", "bias_regularizer": null, "bias_constraint": null, "padding": "same", "activity_regularizer": null, "strides": [1, 1], "kernel_size": [1, 7], "kernel_regularizer": null, "data_format": "channels_last", "trainable": true, "kernel_constraint": null, "use_bias": true, "bias_initializer": {"class_name": "Zeros", "config": {}}, "kernel_initializer": {"class_name": "VarianceScaling", "config": {"mode": "fan_avg", "seed": null, "scale": 1.0, "distribution": "uniform"}}, "dilation_rate": [1, 1], "activation": "relu"}}, {"class_name": "Conv2D", "name": "conv2d_40", "inbound_nodes": [[["average_pooling2d_4", 0, 0, {}]]], "config": {"filters": 96, "name": "conv2d_40", "bias_regularizer": null, "bias_constraint": null, "padding": "same", "activity_regularizer": null, "strides": [1, 1], "kernel_size": [1, 1], "kernel_regularizer": null, "data_format": "channels_last", "trainable": true, "kernel_constraint": null, "use_bias": true, "bias_initializer": {"class_name": "Zeros", "config": {}}, "kernel_initializer": {"class_name": "VarianceScaling", "config": {"mode": "fan_avg", "seed": null, "scale": 1.0, "distribution": "uniform"}}, "dilation_rate": [1, 1], "activation": "relu"}}, {"class_name": "BatchNormalization", "name": "batch_normalization_31", "inbound_nodes": [[["conv2d_31", 0, 0, {}]]], "config": {"name": "batch_normalization_31", "gamma_initializer": {"class_name": "Ones", "config": {}}, "momentum": 0.99, "moving_mean_initializer": {"class_name": "Zeros", "config": {}}, "gamma_constraint": null, "center": true, "beta_initializer": {"class_name": "Zeros", "config": {}}, "moving_variance_initializer": {"class_name": "Ones", "config": {}}, "axis": 3, "scale": true, "gamma_regularizer": null, "epsilon": 0.001, "beta_constraint": null, "beta_regularizer": null, "trainable": true}}, {"class_name": "BatchNormalization", "name": "batch_normalization_34", "inbound_nodes": [[["conv2d_34", 0, 0, {}]]], "config": {"name": "batch_normalization_34", "gamma_initializer": {"class_name": "Ones", "config": {}}, "momentum": 0.99, "moving_mean_initializer": {"class_name": "Zeros", "config": {}}, "gamma_constraint": null, "center": true, "beta_initializer": {"class_name": "Zeros", "config": {}}, "moving_variance_initializer": {"class_name": "Ones", "config": {}}, "axis": 3, "scale": true, "gamma_regularizer": null, "epsilon": 0.001, "beta_constraint": null, "beta_regularizer": null, "trainable": true}}, {"class_name": "BatchNormalization", "name": "batch_normalization_39", "inbound_nodes": [[["conv2d_39", 0, 0, {}]]], "config": {"name": "batch_normalization_39", "gamma_initializer": {"class_name": "Ones", "config": {}}, "momentum": 0.99, "moving_mean_initializer": {"class_name": "Zeros", "config": {}}, "gamma_constraint": null, "center": true, "beta_initializer": {"class_name": "Zeros", "config": {}}, "moving_variance_initializer": {"class_name": "Ones", "config": {}}, "axis": 3, "scale": true, "gamma_regularizer": null, "epsilon": 0.001, "beta_constraint": null, "beta_regularizer": null, "trainable": true}}, {"class_name": "BatchNormalization", "name": "batch_normalization_40", "inbound_nodes": [[["conv2d_40", 0, 0, {}]]], "config": {"name": "batch_normalization_40", "gamma_initializer": {"class_name": "Ones", "config": {}}, "momentum": 0.99, "moving_mean_initializer": {"class_name": "Zeros", "config": {}}, "gamma_constraint": null, "center": true, "beta_initializer": {"class_name": "Zeros", "config": {}}, "moving_variance_initializer": {"class_name": "Ones", "config": {}}, "axis": 3, "scale": true, "gamma_regularizer": null, "epsilon": 0.001, "beta_constraint": null, "beta_regularizer": null, "trainable": true}}, {"class_name": "Concatenate", "name": "mixed4", "inbound_nodes": [[["batch_normalization_31", 0, 0, {}], ["batch_normalization_34", 0, 0, {}], ["batch_normalization_39", 0, 0, {}], ["batch_normalization_40", 0, 0, {}]]], "config": {"name": "mixed4", "axis": -1, "trainable": true}}, {"class_name": "Conv2D", "name": "conv2d_45", "inbound_nodes": [[["mixed4", 0, 0, {}]]], "config": {"filters": 80, "name": "conv2d_45", "bias_regularizer": null, "bias_constraint": null, "padding": "same", "activity_regularizer": null, "strides": [1, 1], "kernel_size": [1, 1], "kernel_regularizer": null, "data_format": "channels_last", "trainable": true, "kernel_constraint": null, "use_bias": true, "bias_initializer": {"class_name": "Zeros", "config": {}}, "kernel_initializer": {"class_name": "VarianceScaling", "config": {"mode": "fan_avg", "seed": null, "scale": 1.0, "distribution": "uniform"}}, "dilation_rate": [1, 1], "activation": "relu"}}, {"class_name": "BatchNormalization", "name": "batch_normalization_45", "inbound_nodes": [[["conv2d_45", 0, 0, {}]]], "config": {"name": "batch_normalization_45", "gamma_initializer": {"class_name": "Ones", "config": {}}, "momentum": 0.99, "moving_mean_initializer": {"class_name": "Zeros", "config": {}}, "gamma_constraint": null, "center": true, "beta_initializer": {"class_name": "Zeros", "config": {}}, "moving_variance_initializer": {"class_name": "Ones", "config": {}}, "axis": 3, "scale": true, "gamma_regularizer": null, "epsilon": 0.001, "beta_constraint": null, "beta_regularizer": null, "trainable": true}}, {"class_name": "Conv2D", "name": "conv2d_46", "inbound_nodes": [[["batch_normalization_45", 0, 0, {}]]], "config": {"filters": 80, "name": "conv2d_46", "bias_regularizer": null, "bias_constraint": null, "padding": "same", "activity_regularizer": null, "strides": [1, 1], "kernel_size": [7, 1], "kernel_regularizer": null, "data_format": "channels_last", "trainable": true, "kernel_constraint": null, "use_bias": true, "bias_initializer": {"class_name": "Zeros", "config": {}}, "kernel_initializer": {"class_name": "VarianceScaling", "config": {"mode": "fan_avg", "seed": null, "scale": 1.0, "distribution": "uniform"}}, "dilation_rate": [1, 1], "activation": "relu"}}, {"class_name": "BatchNormalization", "name": "batch_normalization_46", "inbound_nodes": [[["conv2d_46", 0, 0, {}]]], "config": {"name": "batch_normalization_46", "gamma_initializer": {"class_name": "Ones", "config": {}}, "momentum": 0.99, "moving_mean_initializer": {"class_name": "Zeros", "config": {}}, "gamma_constraint": null, "center": true, "beta_initializer": {"class_name": "Zeros", "config": {}}, "moving_variance_initializer": {"class_name": "Ones", "config": {}}, "axis": 3, "scale": true, "gamma_regularizer": null, "epsilon": 0.001, "beta_constraint": null, "beta_regularizer": null, "trainable": true}}, {"class_name": "Conv2D", "name": "conv2d_42", "inbound_nodes": [[["mixed4", 0, 0, {}]]], "config": {"filters": 80, "name": "conv2d_42", "bias_regularizer": null, "bias_constraint": null, "padding": "same", "activity_regularizer": null, "strides": [1, 1], "kernel_size": [1, 1], "kernel_regularizer": null, "data_format": "channels_last", "trainable": true, "kernel_constraint": null, "use_bias": true, "bias_initializer": {"class_name": "Zeros", "config": {}}, "kernel_initializer": {"class_name": "VarianceScaling", "config": {"mode": "fan_avg", "seed": null, "scale": 1.0, "distribution": "uniform"}}, "dilation_rate": [1, 1], "activation": "relu"}}, {"class_name": "Conv2D", "name": "conv2d_47", "inbound_nodes": [[["batch_normalization_46", 0, 0, {}]]], "config": {"filters": 80, "name": "conv2d_47", "bias_regularizer": null, "bias_constraint": null, "padding": "same", "activity_regularizer": null, "strides": [1, 1], "kernel_size": [1, 7], "kernel_regularizer": null, "data_format": "channels_last", "trainable": true, "kernel_constraint": null, "use_bias": true, "bias_initializer": {"class_name": "Zeros", "config": {}}, "kernel_initializer": {"class_name": "VarianceScaling", "config": {"mode": "fan_avg", "seed": null, "scale": 1.0, "distribution": "uniform"}}, "dilation_rate": [1, 1], "activation": "relu"}}, {"class_name": "BatchNormalization", "name": "batch_normalization_42", "inbound_nodes": [[["conv2d_42", 0, 0, {}]]], "config": {"name": "batch_normalization_42", "gamma_initializer": {"class_name": "Ones", "config": {}}, "momentum": 0.99, "moving_mean_initializer": {"class_name": "Zeros", "config": {}}, "gamma_constraint": null, "center": true, "beta_initializer": {"class_name": "Zeros", "config": {}}, "moving_variance_initializer": {"class_name": "Ones", "config": {}}, "axis": 3, "scale": true, "gamma_regularizer": null, "epsilon": 0.001, "beta_constraint": null, "beta_regularizer": null, "trainable": true}}, {"class_name": "BatchNormalization", "name": "batch_normalization_47", "inbound_nodes": [[["conv2d_47", 0, 0, {}]]], "config": {"name": "batch_normalization_47", "gamma_initializer": {"class_name": "Ones", "config": {}}, "momentum": 0.99, "moving_mean_initializer": {"class_name": "Zeros", "config": {}}, "gamma_constraint": null, "center": true, "beta_initializer": {"class_name": "Zeros", "config": {}}, "moving_variance_initializer": {"class_name": "Ones", "config": {}}, "axis": 3, "scale": true, "gamma_regularizer": null, "epsilon": 0.001, "beta_constraint": null, "beta_regularizer": null, "trainable": true}}, {"class_name": "Conv2D", "name": "conv2d_43", "inbound_nodes": [[["batch_normalization_42", 0, 0, {}]]], "config": {"filters": 80, "name": "conv2d_43", "bias_regularizer": null, "bias_constraint": null, "padding": "same", "activity_regularizer": null, "strides": [1, 1], "kernel_size": [1, 7], "kernel_regularizer": null, "data_format": "channels_last", "trainable": true, "kernel_constraint": null, "use_bias": true, "bias_initializer": {"class_name": "Zeros", "config": {}}, "kernel_initializer": {"class_name": "VarianceScaling", "config": {"mode": "fan_avg", "seed": null, "scale": 1.0, "distribution": "uniform"}}, "dilation_rate": [1, 1], "activation": "relu"}}, {"class_name": "Conv2D", "name": "conv2d_48", "inbound_nodes": [[["batch_normalization_47", 0, 0, {}]]], "config": {"filters": 80, "name": "conv2d_48", "bias_regularizer": null, "bias_constraint": null, "padding": "same", "activity_regularizer": null, "strides": [1, 1], "kernel_size": [7, 1], "kernel_regularizer": null, "data_format": "channels_last", "trainable": true, "kernel_constraint": null, "use_bias": true, "bias_initializer": {"class_name": "Zeros", "config": {}}, "kernel_initializer": {"class_name": "VarianceScaling", "config": {"mode": "fan_avg", "seed": null, "scale": 1.0, "distribution": "uniform"}}, "dilation_rate": [1, 1], "activation": "relu"}}, {"class_name": "BatchNormalization", "name": "batch_normalization_43", "inbound_nodes": [[["conv2d_43", 0, 0, {}]]], "config": {"name": "batch_normalization_43", "gamma_initializer": {"class_name": "Ones", "config": {}}, "momentum": 0.99, "moving_mean_initializer": {"class_name": "Zeros", "config": {}}, "gamma_constraint": null, "center": true, "beta_initializer": {"class_name": "Zeros", "config": {}}, "moving_variance_initializer": {"class_name": "Ones", "config": {}}, "axis": 3, "scale": true, "gamma_regularizer": null, "epsilon": 0.001, "beta_constraint": null, "beta_regularizer": null, "trainable": true}}, {"class_name": "BatchNormalization", "name": "batch_normalization_48", "inbound_nodes": [[["conv2d_48", 0, 0, {}]]], "config": {"name": "batch_normalization_48", "gamma_initializer": {"class_name": "Ones", "config": {}}, "momentum": 0.99, "moving_mean_initializer": {"class_name": "Zeros", "config": {}}, "gamma_constraint": null, "center": true, "beta_initializer": {"class_name": "Zeros", "config": {}}, "moving_variance_initializer": {"class_name": "Ones", "config": {}}, "axis": 3, "scale": true, "gamma_regularizer": null, "epsilon": 0.001, "beta_constraint": null, "beta_regularizer": null, "trainable": true}}, {"class_name": "AveragePooling2D", "name": "average_pooling2d_5", "inbound_nodes": [[["mixed4", 0, 0, {}]]], "config": {"strides": [1, 1], "data_format": "channels_last", "trainable": true, "padding": "same", "name": "average_pooling2d_5", "pool_size": [3, 3]}}, {"class_name": "Conv2D", "name": "conv2d_41", "inbound_nodes": [[["mixed4", 0, 0, {}]]], "config": {"filters": 96, "name": "conv2d_41", "bias_regularizer": null, "bias_constraint": null, "padding": "same", "activity_regularizer": null, "strides": [1, 1], "kernel_size": [1, 1], "kernel_regularizer": null, "data_format": "channels_last", "trainable": true, "kernel_constraint": null, "use_bias": true, "bias_initializer": {"class_name": "Zeros", "config": {}}, "kernel_initializer": {"class_name": "VarianceScaling", "config": {"mode": "fan_avg", "seed": null, "scale": 1.0, "distribution": "uniform"}}, "dilation_rate": [1, 1], "activation": "relu"}}, {"class_name": "Conv2D", "name": "conv2d_44", "inbound_nodes": [[["batch_normalization_43", 0, 0, {}]]], "config": {"filters": 96, "name": "conv2d_44", "bias_regularizer": null, "bias_constraint": null, "padding": "same", "activity_regularizer": null, "strides": [1, 1], "kernel_size": [7, 1], "kernel_regularizer": null, "data_format": "channels_last", "trainable": true, "kernel_constraint": null, "use_bias": true, "bias_initializer": {"class_name": "Zeros", "config": {}}, "kernel_initializer": {"class_name": "VarianceScaling", "config": {"mode": "fan_avg", "seed": null, "scale": 1.0, "distribution": "uniform"}}, "dilation_rate": [1, 1], "activation": "relu"}}, {"class_name": "Conv2D", "name": "conv2d_49", "inbound_nodes": [[["batch_normalization_48", 0, 0, {}]]], "config": {"filters": 96, "name": "conv2d_49", "bias_regularizer": null, "bias_constraint": null, "padding": "same", "activity_regularizer": null, "strides": [1, 1], "kernel_size": [1, 7], "kernel_regularizer": null, "data_format": "channels_last", "trainable": true, "kernel_constraint": null, "use_bias": true, "bias_initializer": {"class_name": "Zeros", "config": {}}, "kernel_initializer": {"class_name": "VarianceScaling", "config": {"mode": "fan_avg", "seed": null, "scale": 1.0, "distribution": "uniform"}}, "dilation_rate": [1, 1], "activation": "relu"}}, {"class_name": "Conv2D", "name": "conv2d_50", "inbound_nodes": [[["average_pooling2d_5", 0, 0, {}]]], "config": {"filters": 96, "name": "conv2d_50", "bias_regularizer": null, "bias_constraint": null, "padding": "same", "activity_regularizer": null, "strides": [1, 1], "kernel_size": [1, 1], "kernel_regularizer": null, "data_format": "channels_last", "trainable": true, "kernel_constraint": null, "use_bias": true, "bias_initializer": {"class_name": "Zeros", "config": {}}, "kernel_initializer": {"class_name": "VarianceScaling", "config": {"mode": "fan_avg", "seed": null, "scale": 1.0, "distribution": "uniform"}}, "dilation_rate": [1, 1], "activation": "relu"}}, {"class_name": "BatchNormalization", "name": "batch_normalization_41", "inbound_nodes": [[["conv2d_41", 0, 0, {}]]], "config": {"name": "batch_normalization_41", "gamma_initializer": {"class_name": "Ones", "config": {}}, "momentum": 0.99, "moving_mean_initializer": {"class_name": "Zeros", "config": {}}, "gamma_constraint": null, "center": true, "beta_initializer": {"class_name": "Zeros", "config": {}}, "moving_variance_initializer": {"class_name": "Ones", "config": {}}, "axis": 3, "scale": true, "gamma_regularizer": null, "epsilon": 0.001, "beta_constraint": null, "beta_regularizer": null, "trainable": true}}, {"class_name": "BatchNormalization", "name": "batch_normalization_44", "inbound_nodes": [[["conv2d_44", 0, 0, {}]]], "config": {"name": "batch_normalization_44", "gamma_initializer": {"class_name": "Ones", "config": {}}, "momentum": 0.99, "moving_mean_initializer": {"class_name": "Zeros", "config": {}}, "gamma_constraint": null, "center": true, "beta_initializer": {"class_name": "Zeros", "config": {}}, "moving_variance_initializer": {"class_name": "Ones", "config": {}}, "axis": 3, "scale": true, "gamma_regularizer": null, "epsilon": 0.001, "beta_constraint": null, "beta_regularizer": null, "trainable": true}}, {"class_name": "BatchNormalization", "name": "batch_normalization_49", "inbound_nodes": [[["conv2d_49", 0, 0, {}]]], "config": {"name": "batch_normalization_49", "gamma_initializer": {"class_name": "Ones", "config": {}}, "momentum": 0.99, "moving_mean_initializer": {"class_name": "Zeros", "config": {}}, "gamma_constraint": null, "center": true, "beta_initializer": {"class_name": "Zeros", "config": {}}, "moving_variance_initializer": {"class_name": "Ones", "config": {}}, "axis": 3, "scale": true, "gamma_regularizer": null, "epsilon": 0.001, "beta_constraint": null, "beta_regularizer": null, "trainable": true}}, {"class_name": "BatchNormalization", "name": "batch_normalization_50", "inbound_nodes": [[["conv2d_50", 0, 0, {}]]], "config": {"name": "batch_normalization_50", "gamma_initializer": {"class_name": "Ones", "config": {}}, "momentum": 0.99, "moving_mean_initializer": {"class_name": "Zeros", "config": {}}, "gamma_constraint": null, "center": true, "beta_initializer": {"class_name": "Zeros", "config": {}}, "moving_variance_initializer": {"class_name": "Ones", "config": {}}, "axis": 3, "scale": true, "gamma_regularizer": null, "epsilon": 0.001, "beta_constraint": null, "beta_regularizer": null, "trainable": true}}, {"class_name": "Concatenate", "name": "mixed5", "inbound_nodes": [[["batch_normalization_41", 0, 0, {}], ["batch_normalization_44", 0, 0, {}], ["batch_normalization_49", 0, 0, {}], ["batch_normalization_50", 0, 0, {}]]], "config": {"name": "mixed5", "axis": -1, "trainable": true}}, {"class_name": "Conv2D", "name": "conv2d_55", "inbound_nodes": [[["mixed5", 0, 0, {}]]], "config": {"filters": 80, "name": "conv2d_55", "bias_regularizer": null, "bias_constraint": null, "padding": "same", "activity_regularizer": null, "strides": [1, 1], "kernel_size": [1, 1], "kernel_regularizer": null, "data_format": "channels_last", "trainable": true, "kernel_constraint": null, "use_bias": true, "bias_initializer": {"class_name": "Zeros", "config": {}}, "kernel_initializer": {"class_name": "VarianceScaling", "config": {"mode": "fan_avg", "seed": null, "scale": 1.0, "distribution": "uniform"}}, "dilation_rate": [1, 1], "activation": "relu"}}, {"class_name": "BatchNormalization", "name": "batch_normalization_55", "inbound_nodes": [[["conv2d_55", 0, 0, {}]]], "config": {"name": "batch_normalization_55", "gamma_initializer": {"class_name": "Ones", "config": {}}, "momentum": 0.99, "moving_mean_initializer": {"class_name": "Zeros", "config": {}}, "gamma_constraint": null, "center": true, "beta_initializer": {"class_name": "Zeros", "config": {}}, "moving_variance_initializer": {"class_name": "Ones", "config": {}}, "axis": 3, "scale": true, "gamma_regularizer": null, "epsilon": 0.001, "beta_constraint": null, "beta_regularizer": null, "trainable": true}}, {"class_name": "Conv2D", "name": "conv2d_56", "inbound_nodes": [[["batch_normalization_55", 0, 0, {}]]], "config": {"filters": 80, "name": "conv2d_56", "bias_regularizer": null, "bias_constraint": null, "padding": "same", "activity_regularizer": null, "strides": [1, 1], "kernel_size": [7, 1], "kernel_regularizer": null, "data_format": "channels_last", "trainable": true, "kernel_constraint": null, "use_bias": true, "bias_initializer": {"class_name": "Zeros", "config": {}}, "kernel_initializer": {"class_name": "VarianceScaling", "config": {"mode": "fan_avg", "seed": null, "scale": 1.0, "distribution": "uniform"}}, "dilation_rate": [1, 1], "activation": "relu"}}, {"class_name": "BatchNormalization", "name": "batch_normalization_56", "inbound_nodes": [[["conv2d_56", 0, 0, {}]]], "config": {"name": "batch_normalization_56", "gamma_initializer": {"class_name": "Ones", "config": {}}, "momentum": 0.99, "moving_mean_initializer": {"class_name": "Zeros", "config": {}}, "gamma_constraint": null, "center": true, "beta_initializer": {"class_name": "Zeros", "config": {}}, "moving_variance_initializer": {"class_name": "Ones", "config": {}}, "axis": 3, "scale": true, "gamma_regularizer": null, "epsilon": 0.001, "beta_constraint": null, "beta_regularizer": null, "trainable": true}}, {"class_name": "Conv2D", "name": "conv2d_52", "inbound_nodes": [[["mixed5", 0, 0, {}]]], "config": {"filters": 80, "name": "conv2d_52", "bias_regularizer": null, "bias_constraint": null, "padding": "same", "activity_regularizer": null, "strides": [1, 1], "kernel_size": [1, 1], "kernel_regularizer": null, "data_format": "channels_last", "trainable": true, "kernel_constraint": null, "use_bias": true, "bias_initializer": {"class_name": "Zeros", "config": {}}, "kernel_initializer": {"class_name": "VarianceScaling", "config": {"mode": "fan_avg", "seed": null, "scale": 1.0, "distribution": "uniform"}}, "dilation_rate": [1, 1], "activation": "relu"}}, {"class_name": "Conv2D", "name": "conv2d_57", "inbound_nodes": [[["batch_normalization_56", 0, 0, {}]]], "config": {"filters": 80, "name": "conv2d_57", "bias_regularizer": null, "bias_constraint": null, "padding": "same", "activity_regularizer": null, "strides": [1, 1], "kernel_size": [1, 7], "kernel_regularizer": null, "data_format": "channels_last", "trainable": true, "kernel_constraint": null, "use_bias": true, "bias_initializer": {"class_name": "Zeros", "config": {}}, "kernel_initializer": {"class_name": "VarianceScaling", "config": {"mode": "fan_avg", "seed": null, "scale": 1.0, "distribution": "uniform"}}, "dilation_rate": [1, 1], "activation": "relu"}}, {"class_name": "BatchNormalization", "name": "batch_normalization_52", "inbound_nodes": [[["conv2d_52", 0, 0, {}]]], "config": {"name": "batch_normalization_52", "gamma_initializer": {"class_name": "Ones", "config": {}}, "momentum": 0.99, "moving_mean_initializer": {"class_name": "Zeros", "config": {}}, "gamma_constraint": null, "center": true, "beta_initializer": {"class_name": "Zeros", "config": {}}, "moving_variance_initializer": {"class_name": "Ones", "config": {}}, "axis": 3, "scale": true, "gamma_regularizer": null, "epsilon": 0.001, "beta_constraint": null, "beta_regularizer": null, "trainable": true}}, {"class_name": "BatchNormalization", "name": "batch_normalization_57", "inbound_nodes": [[["conv2d_57", 0, 0, {}]]], "config": {"name": "batch_normalization_57", "gamma_initializer": {"class_name": "Ones", "config": {}}, "momentum": 0.99, "moving_mean_initializer": {"class_name": "Zeros", "config": {}}, "gamma_constraint": null, "center": true, "beta_initializer": {"class_name": "Zeros", "config": {}}, "moving_variance_initializer": {"class_name": "Ones", "config": {}}, "axis": 3, "scale": true, "gamma_regularizer": null, "epsilon": 0.001, "beta_constraint": null, "beta_regularizer": null, "trainable": true}}, {"class_name": "Conv2D", "name": "conv2d_53", "inbound_nodes": [[["batch_normalization_52", 0, 0, {}]]], "config": {"filters": 80, "name": "conv2d_53", "bias_regularizer": null, "bias_constraint": null, "padding": "same", "activity_regularizer": null, "strides": [1, 1], "kernel_size": [1, 7], "kernel_regularizer": null, "data_format": "channels_last", "trainable": true, "kernel_constraint": null, "use_bias": true, "bias_initializer": {"class_name": "Zeros", "config": {}}, "kernel_initializer": {"class_name": "VarianceScaling", "config": {"mode": "fan_avg", "seed": null, "scale": 1.0, "distribution": "uniform"}}, "dilation_rate": [1, 1], "activation": "relu"}}, {"class_name": "Conv2D", "name": "conv2d_58", "inbound_nodes": [[["batch_normalization_57", 0, 0, {}]]], "config": {"filters": 80, "name": "conv2d_58", "bias_regularizer": null, "bias_constraint": null, "padding": "same", "activity_regularizer": null, "strides": [1, 1], "kernel_size": [7, 1], "kernel_regularizer": null, "data_format": "channels_last", "trainable": true, "kernel_constraint": null, "use_bias": true, "bias_initializer": {"class_name": "Zeros", "config": {}}, "kernel_initializer": {"class_name": "VarianceScaling", "config": {"mode": "fan_avg", "seed": null, "scale": 1.0, "distribution": "uniform"}}, "dilation_rate": [1, 1], "activation": "relu"}}, {"class_name": "BatchNormalization", "name": "batch_normalization_53", "inbound_nodes": [[["conv2d_53", 0, 0, {}]]], "config": {"name": "batch_normalization_53", "gamma_initializer": {"class_name": "Ones", "config": {}}, "momentum": 0.99, "moving_mean_initializer": {"class_name": "Zeros", "config": {}}, "gamma_constraint": null, "center": true, "beta_initializer": {"class_name": "Zeros", "config": {}}, "moving_variance_initializer": {"class_name": "Ones", "config": {}}, "axis": 3, "scale": true, "gamma_regularizer": null, "epsilon": 0.001, "beta_constraint": null, "beta_regularizer": null, "trainable": true}}, {"class_name": "BatchNormalization", "name": "batch_normalization_58", "inbound_nodes": [[["conv2d_58", 0, 0, {}]]], "config": {"name": "batch_normalization_58", "gamma_initializer": {"class_name": "Ones", "config": {}}, "momentum": 0.99, "moving_mean_initializer": {"class_name": "Zeros", "config": {}}, "gamma_constraint": null, "center": true, "beta_initializer": {"class_name": "Zeros", "config": {}}, "moving_variance_initializer": {"class_name": "Ones", "config": {}}, "axis": 3, "scale": true, "gamma_regularizer": null, "epsilon": 0.001, "beta_constraint": null, "beta_regularizer": null, "trainable": true}}, {"class_name": "AveragePooling2D", "name": "average_pooling2d_6", "inbound_nodes": [[["mixed5", 0, 0, {}]]], "config": {"strides": [1, 1], "data_format": "channels_last", "trainable": true, "padding": "same", "name": "average_pooling2d_6", "pool_size": [3, 3]}}, {"class_name": "Conv2D", "name": "conv2d_51", "inbound_nodes": [[["mixed5", 0, 0, {}]]], "config": {"filters": 96, "name": "conv2d_51", "bias_regularizer": null, "bias_constraint": null, "padding": "same", "activity_regularizer": null, "strides": [1, 1], "kernel_size": [1, 1], "kernel_regularizer": null, "data_format": "channels_last", "trainable": true, "kernel_constraint": null, "use_bias": true, "bias_initializer": {"class_name": "Zeros", "config": {}}, "kernel_initializer": {"class_name": "VarianceScaling", "config": {"mode": "fan_avg", "seed": null, "scale": 1.0, "distribution": "uniform"}}, "dilation_rate": [1, 1], "activation": "relu"}}, {"class_name": "Conv2D", "name": "conv2d_54", "inbound_nodes": [[["batch_normalization_53", 0, 0, {}]]], "config": {"filters": 96, "name": "conv2d_54", "bias_regularizer": null, "bias_constraint": null, "padding": "same", "activity_regularizer": null, "strides": [1, 1], "kernel_size": [7, 1], "kernel_regularizer": null, "data_format": "channels_last", "trainable": true, "kernel_constraint": null, "use_bias": true, "bias_initializer": {"class_name": "Zeros", "config": {}}, "kernel_initializer": {"class_name": "VarianceScaling", "config": {"mode": "fan_avg", "seed": null, "scale": 1.0, "distribution": "uniform"}}, "dilation_rate": [1, 1], "activation": "relu"}}, {"class_name": "Conv2D", "name": "conv2d_59", "inbound_nodes": [[["batch_normalization_58", 0, 0, {}]]], "config": {"filters": 96, "name": "conv2d_59", "bias_regularizer": null, "bias_constraint": null, "padding": "same", "activity_regularizer": null, "strides": [1, 1], "kernel_size": [1, 7], "kernel_regularizer": null, "data_format": "channels_last", "trainable": true, "kernel_constraint": null, "use_bias": true, "bias_initializer": {"class_name": "Zeros", "config": {}}, "kernel_initializer": {"class_name": "VarianceScaling", "config": {"mode": "fan_avg", "seed": null, "scale": 1.0, "distribution": "uniform"}}, "dilation_rate": [1, 1], "activation": "relu"}}, {"class_name": "Conv2D", "name": "conv2d_60", "inbound_nodes": [[["average_pooling2d_6", 0, 0, {}]]], "config": {"filters": 96, "name": "conv2d_60", "bias_regularizer": null, "bias_constraint": null, "padding": "same", "activity_regularizer": null, "strides": [1, 1], "kernel_size": [1, 1], "kernel_regularizer": null, "data_format": "channels_last", "trainable": true, "kernel_constraint": null, "use_bias": true, "bias_initializer": {"class_name": "Zeros", "config": {}}, "kernel_initializer": {"class_name": "VarianceScaling", "config": {"mode": "fan_avg", "seed": null, "scale": 1.0, "distribution": "uniform"}}, "dilation_rate": [1, 1], "activation": "relu"}}, {"class_name": "BatchNormalization", "name": "batch_normalization_51", "inbound_nodes": [[["conv2d_51", 0, 0, {}]]], "config": {"name": "batch_normalization_51", "gamma_initializer": {"class_name": "Ones", "config": {}}, "momentum": 0.99, "moving_mean_initializer": {"class_name": "Zeros", "config": {}}, "gamma_constraint": null, "center": true, "beta_initializer": {"class_name": "Zeros", "config": {}}, "moving_variance_initializer": {"class_name": "Ones", "config": {}}, "axis": 3, "scale": true, "gamma_regularizer": null, "epsilon": 0.001, "beta_constraint": null, "beta_regularizer": null, "trainable": true}}, {"class_name": "BatchNormalization", "name": "batch_normalization_54", "inbound_nodes": [[["conv2d_54", 0, 0, {}]]], "config": {"name": "batch_normalization_54", "gamma_initializer": {"class_name": "Ones", "config": {}}, "momentum": 0.99, "moving_mean_initializer": {"class_name": "Zeros", "config": {}}, "gamma_constraint": null, "center": true, "beta_initializer": {"class_name": "Zeros", "config": {}}, "moving_variance_initializer": {"class_name": "Ones", "config": {}}, "axis": 3, "scale": true, "gamma_regularizer": null, "epsilon": 0.001, "beta_constraint": null, "beta_regularizer": null, "trainable": true}}, {"class_name": "BatchNormalization", "name": "batch_normalization_59", "inbound_nodes": [[["conv2d_59", 0, 0, {}]]], "config": {"name": "batch_normalization_59", "gamma_initializer": {"class_name": "Ones", "config": {}}, "momentum": 0.99, "moving_mean_initializer": {"class_name": "Zeros", "config": {}}, "gamma_constraint": null, "center": true, "beta_initializer": {"class_name": "Zeros", "config": {}}, "moving_variance_initializer": {"class_name": "Ones", "config": {}}, "axis": 3, "scale": true, "gamma_regularizer": null, "epsilon": 0.001, "beta_constraint": null, "beta_regularizer": null, "trainable": true}}, {"class_name": "BatchNormalization", "name": "batch_normalization_60", "inbound_nodes": [[["conv2d_60", 0, 0, {}]]], "config": {"name": "batch_normalization_60", "gamma_initializer": {"class_name": "Ones", "config": {}}, "momentum": 0.99, "moving_mean_initializer": {"class_name": "Zeros", "config": {}}, "gamma_constraint": null, "center": true, "beta_initializer": {"class_name": "Zeros", "config": {}}, "moving_variance_initializer": {"class_name": "Ones", "config": {}}, "axis": 3, "scale": true, "gamma_regularizer": null, "epsilon": 0.001, "beta_constraint": null, "beta_regularizer": null, "trainable": true}}, {"class_name": "Concatenate", "name": "mixed6", "inbound_nodes": [[["batch_normalization_51", 0, 0, {}], ["batch_normalization_54", 0, 0, {}], ["batch_normalization_59", 0, 0, {}], ["batch_normalization_60", 0, 0, {}]]], "config": {"name": "mixed6", "axis": -1, "trainable": true}}, {"class_name": "Conv2D", "name": "conv2d_65", "inbound_nodes": [[["mixed6", 0, 0, {}]]], "config": {"filters": 80, "name": "conv2d_65", "bias_regularizer": null, "bias_constraint": null, "padding": "same", "activity_regularizer": null, "strides": [1, 1], "kernel_size": [1, 1], "kernel_regularizer": null, "data_format": "channels_last", "trainable": true, "kernel_constraint": null, "use_bias": true, "bias_initializer": {"class_name": "Zeros", "config": {}}, "kernel_initializer": {"class_name": "VarianceScaling", "config": {"mode": "fan_avg", "seed": null, "scale": 1.0, "distribution": "uniform"}}, "dilation_rate": [1, 1], "activation": "relu"}}, {"class_name": "BatchNormalization", "name": "batch_normalization_65", "inbound_nodes": [[["conv2d_65", 0, 0, {}]]], "config": {"name": "batch_normalization_65", "gamma_initializer": {"class_name": "Ones", "config": {}}, "momentum": 0.99, "moving_mean_initializer": {"class_name": "Zeros", "config": {}}, "gamma_constraint": null, "center": true, "beta_initializer": {"class_name": "Zeros", "config": {}}, "moving_variance_initializer": {"class_name": "Ones", "config": {}}, "axis": 3, "scale": true, "gamma_regularizer": null, "epsilon": 0.001, "beta_constraint": null, "beta_regularizer": null, "trainable": true}}, {"class_name": "Conv2D", "name": "conv2d_66", "inbound_nodes": [[["batch_normalization_65", 0, 0, {}]]], "config": {"filters": 96, "name": "conv2d_66", "bias_regularizer": null, "bias_constraint": null, "padding": "same", "activity_regularizer": null, "strides": [1, 1], "kernel_size": [7, 1], "kernel_regularizer": null, "data_format": "channels_last", "trainable": true, "kernel_constraint": null, "use_bias": true, "bias_initializer": {"class_name": "Zeros", "config": {}}, "kernel_initializer": {"class_name": "VarianceScaling", "config": {"mode": "fan_avg", "seed": null, "scale": 1.0, "distribution": "uniform"}}, "dilation_rate": [1, 1], "activation": "relu"}}, {"class_name": "BatchNormalization", "name": "batch_normalization_66", "inbound_nodes": [[["conv2d_66", 0, 0, {}]]], "config": {"name": "batch_normalization_66", "gamma_initializer": {"class_name": "Ones", "config": {}}, "momentum": 0.99, "moving_mean_initializer": {"class_name": "Zeros", "config": {}}, "gamma_constraint": null, "center": true, "beta_initializer": {"class_name": "Zeros", "config": {}}, "moving_variance_initializer": {"class_name": "Ones", "config": {}}, "axis": 3, "scale": true, "gamma_regularizer": null, "epsilon": 0.001, "beta_constraint": null, "beta_regularizer": null, "trainable": true}}, {"class_name": "Conv2D", "name": "conv2d_62", "inbound_nodes": [[["mixed6", 0, 0, {}]]], "config": {"filters": 96, "name": "conv2d_62", "bias_regularizer": null, "bias_constraint": null, "padding": "same", "activity_regularizer": null, "strides": [1, 1], "kernel_size": [1, 1], "kernel_regularizer": null, "data_format": "channels_last", "trainable": true, "kernel_constraint": null, "use_bias": true, "bias_initializer": {"class_name": "Zeros", "config": {}}, "kernel_initializer": {"class_name": "VarianceScaling", "config": {"mode": "fan_avg", "seed": null, "scale": 1.0, "distribution": "uniform"}}, "dilation_rate": [1, 1], "activation": "relu"}}, {"class_name": "Conv2D", "name": "conv2d_67", "inbound_nodes": [[["batch_normalization_66", 0, 0, {}]]], "config": {"filters": 96, "name": "conv2d_67", "bias_regularizer": null, "bias_constraint": null, "padding": "same", "activity_regularizer": null, "strides": [1, 1], "kernel_size": [1, 7], "kernel_regularizer": null, "data_format": "channels_last", "trainable": true, "kernel_constraint": null, "use_bias": true, "bias_initializer": {"class_name": "Zeros", "config": {}}, "kernel_initializer": {"class_name": "VarianceScaling", "config": {"mode": "fan_avg", "seed": null, "scale": 1.0, "distribution": "uniform"}}, "dilation_rate": [1, 1], "activation": "relu"}}, {"class_name": "BatchNormalization", "name": "batch_normalization_62", "inbound_nodes": [[["conv2d_62", 0, 0, {}]]], "config": {"name": "batch_normalization_62", "gamma_initializer": {"class_name": "Ones", "config": {}}, "momentum": 0.99, "moving_mean_initializer": {"class_name": "Zeros", "config": {}}, "gamma_constraint": null, "center": true, "beta_initializer": {"class_name": "Zeros", "config": {}}, "moving_variance_initializer": {"class_name": "Ones", "config": {}}, "axis": 3, "scale": true, "gamma_regularizer": null, "epsilon": 0.001, "beta_constraint": null, "beta_regularizer": null, "trainable": true}}, {"class_name": "BatchNormalization", "name": "batch_normalization_67", "inbound_nodes": [[["conv2d_67", 0, 0, {}]]], "config": {"name": "batch_normalization_67", "gamma_initializer": {"class_name": "Ones", "config": {}}, "momentum": 0.99, "moving_mean_initializer": {"class_name": "Zeros", "config": {}}, "gamma_constraint": null, "center": true, "beta_initializer": {"class_name": "Zeros", "config": {}}, "moving_variance_initializer": {"class_name": "Ones", "config": {}}, "axis": 3, "scale": true, "gamma_regularizer": null, "epsilon": 0.001, "beta_constraint": null, "beta_regularizer": null, "trainable": true}}, {"class_name": "Conv2D", "name": "conv2d_63", "inbound_nodes": [[["batch_normalization_62", 0, 0, {}]]], "config": {"filters": 96, "name": "conv2d_63", "bias_regularizer": null, "bias_constraint": null, "padding": "same", "activity_regularizer": null, "strides": [1, 1], "kernel_size": [1, 7], "kernel_regularizer": null, "data_format": "channels_last", "trainable": true, "kernel_constraint": null, "use_bias": true, "bias_initializer": {"class_name": "Zeros", "config": {}}, "kernel_initializer": {"class_name": "VarianceScaling", "config": {"mode": "fan_avg", "seed": null, "scale": 1.0, "distribution": "uniform"}}, "dilation_rate": [1, 1], "activation": "relu"}}, {"class_name": "Conv2D", "name": "conv2d_68", "inbound_nodes": [[["batch_normalization_67", 0, 0, {}]]], "config": {"filters": 96, "name": "conv2d_68", "bias_regularizer": null, "bias_constraint": null, "padding": "same", "activity_regularizer": null, "strides": [1, 1], "kernel_size": [7, 1], "kernel_regularizer": null, "data_format": "channels_last", "trainable": true, "kernel_constraint": null, "use_bias": true, "bias_initializer": {"class_name": "Zeros", "config": {}}, "kernel_initializer": {"class_name": "VarianceScaling", "config": {"mode": "fan_avg", "seed": null, "scale": 1.0, "distribution": "uniform"}}, "dilation_rate": [1, 1], "activation": "relu"}}, {"class_name": "BatchNormalization", "name": "batch_normalization_63", "inbound_nodes": [[["conv2d_63", 0, 0, {}]]], "config": {"name": "batch_normalization_63", "gamma_initializer": {"class_name": "Ones", "config": {}}, "momentum": 0.99, "moving_mean_initializer": {"class_name": "Zeros", "config": {}}, "gamma_constraint": null, "center": true, "beta_initializer": {"class_name": "Zeros", "config": {}}, "moving_variance_initializer": {"class_name": "Ones", "config": {}}, "axis": 3, "scale": true, "gamma_regularizer": null, "epsilon": 0.001, "beta_constraint": null, "beta_regularizer": null, "trainable": true}}, {"class_name": "BatchNormalization", "name": "batch_normalization_68", "inbound_nodes": [[["conv2d_68", 0, 0, {}]]], "config": {"name": "batch_normalization_68", "gamma_initializer": {"class_name": "Ones", "config": {}}, "momentum": 0.99, "moving_mean_initializer": {"class_name": "Zeros", "config": {}}, "gamma_constraint": null, "center": true, "beta_initializer": {"class_name": "Zeros", "config": {}}, "moving_variance_initializer": {"class_name": "Ones", "config": {}}, "axis": 3, "scale": true, "gamma_regularizer": null, "epsilon": 0.001, "beta_constraint": null, "beta_regularizer": null, "trainable": true}}, {"class_name": "AveragePooling2D", "name": "average_pooling2d_7", "inbound_nodes": [[["mixed6", 0, 0, {}]]], "config": {"strides": [1, 1], "data_format": "channels_last", "trainable": true, "padding": "same", "name": "average_pooling2d_7", "pool_size": [3, 3]}}, {"class_name": "Conv2D", "name": "conv2d_61", "inbound_nodes": [[["mixed6", 0, 0, {}]]], "config": {"filters": 96, "name": "conv2d_61", "bias_regularizer": null, "bias_constraint": null, "padding": "same", "activity_regularizer": null, "strides": [1, 1], "kernel_size": [1, 1], "kernel_regularizer": null, "data_format": "channels_last", "trainable": true, "kernel_constraint": null, "use_bias": true, "bias_initializer": {"class_name": "Zeros", "config": {}}, "kernel_initializer": {"class_name": "VarianceScaling", "config": {"mode": "fan_avg", "seed": null, "scale": 1.0, "distribution": "uniform"}}, "dilation_rate": [1, 1], "activation": "relu"}}, {"class_name": "Conv2D", "name": "conv2d_64", "inbound_nodes": [[["batch_normalization_63", 0, 0, {}]]], "config": {"filters": 96, "name": "conv2d_64", "bias_regularizer": null, "bias_constraint": null, "padding": "same", "activity_regularizer": null, "strides": [1, 1], "kernel_size": [7, 1], "kernel_regularizer": null, "data_format": "channels_last", "trainable": true, "kernel_constraint": null, "use_bias": true, "bias_initializer": {"class_name": "Zeros", "config": {}}, "kernel_initializer": {"class_name": "VarianceScaling", "config": {"mode": "fan_avg", "seed": null, "scale": 1.0, "distribution": "uniform"}}, "dilation_rate": [1, 1], "activation": "relu"}}, {"class_name": "Conv2D", "name": "conv2d_69", "inbound_nodes": [[["batch_normalization_68", 0, 0, {}]]], "config": {"filters": 96, "name": "conv2d_69", "bias_regularizer": null, "bias_constraint": null, "padding": "same", "activity_regularizer": null, "strides": [1, 1], "kernel_size": [1, 7], "kernel_regularizer": null, "data_format": "channels_last", "trainable": true, "kernel_constraint": null, "use_bias": true, "bias_initializer": {"class_name": "Zeros", "config": {}}, "kernel_initializer": {"class_name": "VarianceScaling", "config": {"mode": "fan_avg", "seed": null, "scale": 1.0, "distribution": "uniform"}}, "dilation_rate": [1, 1], "activation": "relu"}}, {"class_name": "Conv2D", "name": "conv2d_70", "inbound_nodes": [[["average_pooling2d_7", 0, 0, {}]]], "config": {"filters": 96, "name": "conv2d_70", "bias_regularizer": null, "bias_constraint": null, "padding": "same", "activity_regularizer": null, "strides": [1, 1], "kernel_size": [1, 1], "kernel_regularizer": null, "data_format": "channels_last", "trainable": true, "kernel_constraint": null, "use_bias": true, "bias_initializer": {"class_name": "Zeros", "config": {}}, "kernel_initializer": {"class_name": "VarianceScaling", "config": {"mode": "fan_avg", "seed": null, "scale": 1.0, "distribution": "uniform"}}, "dilation_rate": [1, 1], "activation": "relu"}}, {"class_name": "BatchNormalization", "name": "batch_normalization_61", "inbound_nodes": [[["conv2d_61", 0, 0, {}]]], "config": {"name": "batch_normalization_61", "gamma_initializer": {"class_name": "Ones", "config": {}}, "momentum": 0.99, "moving_mean_initializer": {"class_name": "Zeros", "config": {}}, "gamma_constraint": null, "center": true, "beta_initializer": {"class_name": "Zeros", "config": {}}, "moving_variance_initializer": {"class_name": "Ones", "config": {}}, "axis": 3, "scale": true, "gamma_regularizer": null, "epsilon": 0.001, "beta_constraint": null, "beta_regularizer": null, "trainable": true}}, {"class_name": "BatchNormalization", "name": "batch_normalization_64", "inbound_nodes": [[["conv2d_64", 0, 0, {}]]], "config": {"name": "batch_normalization_64", "gamma_initializer": {"class_name": "Ones", "config": {}}, "momentum": 0.99, "moving_mean_initializer": {"class_name": "Zeros", "config": {}}, "gamma_constraint": null, "center": true, "beta_initializer": {"class_name": "Zeros", "config": {}}, "moving_variance_initializer": {"class_name": "Ones", "config": {}}, "axis": 3, "scale": true, "gamma_regularizer": null, "epsilon": 0.001, "beta_constraint": null, "beta_regularizer": null, "trainable": true}}, {"class_name": "BatchNormalization", "name": "batch_normalization_69", "inbound_nodes": [[["conv2d_69", 0, 0, {}]]], "config": {"name": "batch_normalization_69", "gamma_initializer": {"class_name": "Ones", "config": {}}, "momentum": 0.99, "moving_mean_initializer": {"class_name": "Zeros", "config": {}}, "gamma_constraint": null, "center": true, "beta_initializer": {"class_name": "Zeros", "config": {}}, "moving_variance_initializer": {"class_name": "Ones", "config": {}}, "axis": 3, "scale": true, "gamma_regularizer": null, "epsilon": 0.001, "beta_constraint": null, "beta_regularizer": null, "trainable": true}}, {"class_name": "BatchNormalization", "name": "batch_normalization_70", "inbound_nodes": [[["conv2d_70", 0, 0, {}]]], "config": {"name": "batch_normalization_70", "gamma_initializer": {"class_name": "Ones", "config": {}}, "momentum": 0.99, "moving_mean_initializer": {"class_name": "Zeros", "config": {}}, "gamma_constraint": null, "center": true, "beta_initializer": {"class_name": "Zeros", "config": {}}, "moving_variance_initializer": {"class_name": "Ones", "config": {}}, "axis": 3, "scale": true, "gamma_regularizer": null, "epsilon": 0.001, "beta_constraint": null, "beta_regularizer": null, "trainable": true}}, {"class_name": "Concatenate", "name": "mixed7", "inbound_nodes": [[["batch_normalization_61", 0, 0, {}], ["batch_normalization_64", 0, 0, {}], ["batch_normalization_69", 0, 0, {}], ["batch_normalization_70", 0, 0, {}]]], "config": {"name": "mixed7", "axis": -1, "trainable": true}}, {"class_name": "Conv2D", "name": "conv2d_73", "inbound_nodes": [[["mixed7", 0, 0, {}]]], "config": {"filters": 96, "name": "conv2d_73", "bias_regularizer": null, "bias_constraint": null, "padding": "same", "activity_regularizer": null, "strides": [1, 1], "kernel_size": [1, 1], "kernel_regularizer": null, "data_format": "channels_last", "trainable": true, "kernel_constraint": null, "use_bias": true, "bias_initializer": {"class_name": "Zeros", "config": {}}, "kernel_initializer": {"class_name": "VarianceScaling", "config": {"mode": "fan_avg", "seed": null, "scale": 1.0, "distribution": "uniform"}}, "dilation_rate": [1, 1], "activation": "relu"}}, {"class_name": "BatchNormalization", "name": "batch_normalization_73", "inbound_nodes": [[["conv2d_73", 0, 0, {}]]], "config": {"name": "batch_normalization_73", "gamma_initializer": {"class_name": "Ones", "config": {}}, "momentum": 0.99, "moving_mean_initializer": {"class_name": "Zeros", "config": {}}, "gamma_constraint": null, "center": true, "beta_initializer": {"class_name": "Zeros", "config": {}}, "moving_variance_initializer": {"class_name": "Ones", "config": {}}, "axis": 3, "scale": true, "gamma_regularizer": null, "epsilon": 0.001, "beta_constraint": null, "beta_regularizer": null, "trainable": true}}, {"class_name": "Conv2D", "name": "conv2d_74", "inbound_nodes": [[["batch_normalization_73", 0, 0, {}]]], "config": {"filters": 96, "name": "conv2d_74", "bias_regularizer": null, "bias_constraint": null, "padding": "same", "activity_regularizer": null, "strides": [1, 1], "kernel_size": [1, 7], "kernel_regularizer": null, "data_format": "channels_last", "trainable": true, "kernel_constraint": null, "use_bias": true, "bias_initializer": {"class_name": "Zeros", "config": {}}, "kernel_initializer": {"class_name": "VarianceScaling", "config": {"mode": "fan_avg", "seed": null, "scale": 1.0, "distribution": "uniform"}}, "dilation_rate": [1, 1], "activation": "relu"}}, {"class_name": "BatchNormalization", "name": "batch_normalization_74", "inbound_nodes": [[["conv2d_74", 0, 0, {}]]], "config": {"name": "batch_normalization_74", "gamma_initializer": {"class_name": "Ones", "config": {}}, "momentum": 0.99, "moving_mean_initializer": {"class_name": "Zeros", "config": {}}, "gamma_constraint": null, "center": true, "beta_initializer": {"class_name": "Zeros", "config": {}}, "moving_variance_initializer": {"class_name": "Ones", "config": {}}, "axis": 3, "scale": true, "gamma_regularizer": null, "epsilon": 0.001, "beta_constraint": null, "beta_regularizer": null, "trainable": true}}, {"class_name": "Conv2D", "name": "conv2d_71", "inbound_nodes": [[["mixed7", 0, 0, {}]]], "config": {"filters": 96, "name": "conv2d_71", "bias_regularizer": null, "bias_constraint": null, "padding": "same", "activity_regularizer": null, "strides": [1, 1], "kernel_size": [1, 1], "kernel_regularizer": null, "data_format": "channels_last", "trainable": true, "kernel_constraint": null, "use_bias": true, "bias_initializer": {"class_name": "Zeros", "config": {}}, "kernel_initializer": {"class_name": "VarianceScaling", "config": {"mode": "fan_avg", "seed": null, "scale": 1.0, "distribution": "uniform"}}, "dilation_rate": [1, 1], "activation": "relu"}}, {"class_name": "Conv2D", "name": "conv2d_75", "inbound_nodes": [[["batch_normalization_74", 0, 0, {}]]], "config": {"filters": 96, "name": "conv2d_75", "bias_regularizer": null, "bias_constraint": null, "padding": "same", "activity_regularizer": null, "strides": [1, 1], "kernel_size": [7, 1], "kernel_regularizer": null, "data_format": "channels_last", "trainable": true, "kernel_constraint": null, "use_bias": true, "bias_initializer": {"class_name": "Zeros", "config": {}}, "kernel_initializer": {"class_name": "VarianceScaling", "config": {"mode": "fan_avg", "seed": null, "scale": 1.0, "distribution": "uniform"}}, "dilation_rate": [1, 1], "activation": "relu"}}, {"class_name": "BatchNormalization", "name": "batch_normalization_71", "inbound_nodes": [[["conv2d_71", 0, 0, {}]]], "config": {"name": "batch_normalization_71", "gamma_initializer": {"class_name": "Ones", "config": {}}, "momentum": 0.99, "moving_mean_initializer": {"class_name": "Zeros", "config": {}}, "gamma_constraint": null, "center": true, "beta_initializer": {"class_name": "Zeros", "config": {}}, "moving_variance_initializer": {"class_name": "Ones", "config": {}}, "axis": 3, "scale": true, "gamma_regularizer": null, "epsilon": 0.001, "beta_constraint": null, "beta_regularizer": null, "trainable": true}}, {"class_name": "BatchNormalization", "name": "batch_normalization_75", "inbound_nodes": [[["conv2d_75", 0, 0, {}]]], "config": {"name": "batch_normalization_75", "gamma_initializer": {"class_name": "Ones", "config": {}}, "momentum": 0.99, "moving_mean_initializer": {"class_name": "Zeros", "config": {}}, "gamma_constraint": null, "center": true, "beta_initializer": {"class_name": "Zeros", "config": {}}, "moving_variance_initializer": {"class_name": "Ones", "config": {}}, "axis": 3, "scale": true, "gamma_regularizer": null, "epsilon": 0.001, "beta_constraint": null, "beta_regularizer": null, "trainable": true}}, {"class_name": "Conv2D", "name": "conv2d_72", "inbound_nodes": [[["batch_normalization_71", 0, 0, {}]]], "config": {"filters": 160, "name": "conv2d_72", "bias_regularizer": null, "bias_constraint": null, "padding": "valid", "activity_regularizer": null, "strides": [2, 2], "kernel_size": [3, 3], "kernel_regularizer": null, "data_format": "channels_last", "trainable": true, "kernel_constraint": null, "use_bias": true, "bias_initializer": {"class_name": "Zeros", "config": {}}, "kernel_initializer": {"class_name": "VarianceScaling", "config": {"mode": "fan_avg", "seed": null, "scale": 1.0, "distribution": "uniform"}}, "dilation_rate": [1, 1], "activation": "relu"}}, {"class_name": "Conv2D", "name": "conv2d_76", "inbound_nodes": [[["batch_normalization_75", 0, 0, {}]]], "config": {"filters": 96, "name": "conv2d_76", "bias_regularizer": null, "bias_constraint": null, "padding": "valid", "activity_regularizer": null, "strides": [2, 2], "kernel_size": [3, 3], "kernel_regularizer": null, "data_format": "channels_last", "trainable": true, "kernel_constraint": null, "use_bias": true, "bias_initializer": {"class_name": "Zeros", "config": {}}, "kernel_initializer": {"class_name": "VarianceScaling", "config": {"mode": "fan_avg", "seed": null, "scale": 1.0, "distribution": "uniform"}}, "dilation_rate": [1, 1], "activation": "relu"}}, {"class_name": "BatchNormalization", "name": "batch_normalization_72", "inbound_nodes": [[["conv2d_72", 0, 0, {}]]], "config": {"name": "batch_normalization_72", "gamma_initializer": {"class_name": "Ones", "config": {}}, "momentum": 0.99, "moving_mean_initializer": {"class_name": "Zeros", "config": {}}, "gamma_constraint": null, "center": true, "beta_initializer": {"class_name": "Zeros", "config": {}}, "moving_variance_initializer": {"class_name": "Ones", "config": {}}, "axis": 3, "scale": true, "gamma_regularizer": null, "epsilon": 0.001, "beta_constraint": null, "beta_regularizer": null, "trainable": true}}, {"class_name": "BatchNormalization", "name": "batch_normalization_76", "inbound_nodes": [[["conv2d_76", 0, 0, {}]]], "config": {"name": "batch_normalization_76", "gamma_initializer": {"class_name": "Ones", "config": {}}, "momentum": 0.99, "moving_mean_initializer": {"class_name": "Zeros", "config": {}}, "gamma_constraint": null, "center": true, "beta_initializer": {"class_name": "Zeros", "config": {}}, "moving_variance_initializer": {"class_name": "Ones", "config": {}}, "axis": 3, "scale": true, "gamma_regularizer": null, "epsilon": 0.001, "beta_constraint": null, "beta_regularizer": null, "trainable": true}}, {"class_name": "AveragePooling2D", "name": "average_pooling2d_8", "inbound_nodes": [[["mixed7", 0, 0, {}]]], "config": {"strides": [2, 2], "data_format": "channels_last", "trainable": true, "padding": "valid", "name": "average_pooling2d_8", "pool_size": [3, 3]}}, {"class_name": "Concatenate", "name": "mixed8", "inbound_nodes": [[["batch_normalization_72", 0, 0, {}], ["batch_normalization_76", 0, 0, {}], ["average_pooling2d_8", 0, 0, {}]]], "config": {"name": "mixed8", "axis": -1, "trainable": true}}, {"class_name": "Conv2D", "name": "conv2d_81", "inbound_nodes": [[["mixed8", 0, 0, {}]]], "config": {"filters": 224, "name": "conv2d_81", "bias_regularizer": null, "bias_constraint": null, "padding": "same", "activity_regularizer": null, "strides": [1, 1], "kernel_size": [1, 1], "kernel_regularizer": null, "data_format": "channels_last", "trainable": true, "kernel_constraint": null, "use_bias": true, "bias_initializer": {"class_name": "Zeros", "config": {}}, "kernel_initializer": {"class_name": "VarianceScaling", "config": {"mode": "fan_avg", "seed": null, "scale": 1.0, "distribution": "uniform"}}, "dilation_rate": [1, 1], "activation": "relu"}}, {"class_name": "BatchNormalization", "name": "batch_normalization_81", "inbound_nodes": [[["conv2d_81", 0, 0, {}]]], "config": {"name": "batch_normalization_81", "gamma_initializer": {"class_name": "Ones", "config": {}}, "momentum": 0.99, "moving_mean_initializer": {"class_name": "Zeros", "config": {}}, "gamma_constraint": null, "center": true, "beta_initializer": {"class_name": "Zeros", "config": {}}, "moving_variance_initializer": {"class_name": "Ones", "config": {}}, "axis": 3, "scale": true, "gamma_regularizer": null, "epsilon": 0.001, "beta_constraint": null, "beta_regularizer": null, "trainable": true}}, {"class_name": "Conv2D", "name": "conv2d_78", "inbound_nodes": [[["mixed8", 0, 0, {}]]], "config": {"filters": 192, "name": "conv2d_78", "bias_regularizer": null, "bias_constraint": null, "padding": "same", "activity_regularizer": null, "strides": [1, 1], "kernel_size": [1, 1], "kernel_regularizer": null, "data_format": "channels_last", "trainable": true, "kernel_constraint": null, "use_bias": true, "bias_initializer": {"class_name": "Zeros", "config": {}}, "kernel_initializer": {"class_name": "VarianceScaling", "config": {"mode": "fan_avg", "seed": null, "scale": 1.0, "distribution": "uniform"}}, "dilation_rate": [1, 1], "activation": "relu"}}, {"class_name": "Conv2D", "name": "conv2d_82", "inbound_nodes": [[["batch_normalization_81", 0, 0, {}]]], "config": {"filters": 192, "name": "conv2d_82", "bias_regularizer": null, "bias_constraint": null, "padding": "same", "activity_regularizer": null, "strides": [1, 1], "kernel_size": [3, 3], "kernel_regularizer": null, "data_format": "channels_last", "trainable": true, "kernel_constraint": null, "use_bias": true, "bias_initializer": {"class_name": "Zeros", "config": {}}, "kernel_initializer": {"class_name": "VarianceScaling", "config": {"mode": "fan_avg", "seed": null, "scale": 1.0, "distribution": "uniform"}}, "dilation_rate": [1, 1], "activation": "relu"}}, {"class_name": "BatchNormalization", "name": "batch_normalization_78", "inbound_nodes": [[["conv2d_78", 0, 0, {}]]], "config": {"name": "batch_normalization_78", "gamma_initializer": {"class_name": "Ones", "config": {}}, "momentum": 0.99, "moving_mean_initializer": {"class_name": "Zeros", "config": {}}, "gamma_constraint": null, "center": true, "beta_initializer": {"class_name": "Zeros", "config": {}}, "moving_variance_initializer": {"class_name": "Ones", "config": {}}, "axis": 3, "scale": true, "gamma_regularizer": null, "epsilon": 0.001, "beta_constraint": null, "beta_regularizer": null, "trainable": true}}, {"class_name": "BatchNormalization", "name": "batch_normalization_82", "inbound_nodes": [[["conv2d_82", 0, 0, {}]]], "config": {"name": "batch_normalization_82", "gamma_initializer": {"class_name": "Ones", "config": {}}, "momentum": 0.99, "moving_mean_initializer": {"class_name": "Zeros", "config": {}}, "gamma_constraint": null, "center": true, "beta_initializer": {"class_name": "Zeros", "config": {}}, "moving_variance_initializer": {"class_name": "Ones", "config": {}}, "axis": 3, "scale": true, "gamma_regularizer": null, "epsilon": 0.001, "beta_constraint": null, "beta_regularizer": null, "trainable": true}}, {"class_name": "Conv2D", "name": "conv2d_79", "inbound_nodes": [[["batch_normalization_78", 0, 0, {}]]], "config": {"filters": 192, "name": "conv2d_79", "bias_regularizer": null, "bias_constraint": null, "padding": "same", "activity_regularizer": null, "strides": [1, 1], "kernel_size": [1, 3], "kernel_regularizer": null, "data_format": "channels_last", "trainable": true, "kernel_constraint": null, "use_bias": true, "bias_initializer": {"class_name": "Zeros", "config": {}}, "kernel_initializer": {"class_name": "VarianceScaling", "config": {"mode": "fan_avg", "seed": null, "scale": 1.0, "distribution": "uniform"}}, "dilation_rate": [1, 1], "activation": "relu"}}, {"class_name": "Conv2D", "name": "conv2d_80", "inbound_nodes": [[["batch_normalization_78", 0, 0, {}]]], "config": {"filters": 192, "name": "conv2d_80", "bias_regularizer": null, "bias_constraint": null, "padding": "same", "activity_regularizer": null, "strides": [1, 1], "kernel_size": [3, 1], "kernel_regularizer": null, "data_format": "channels_last", "trainable": true, "kernel_constraint": null, "use_bias": true, "bias_initializer": {"class_name": "Zeros", "config": {}}, "kernel_initializer": {"class_name": "VarianceScaling", "config": {"mode": "fan_avg", "seed": null, "scale": 1.0, "distribution": "uniform"}}, "dilation_rate": [1, 1], "activation": "relu"}}, {"class_name": "Conv2D", "name": "conv2d_83", "inbound_nodes": [[["batch_normalization_82", 0, 0, {}]]], "config": {"filters": 192, "name": "conv2d_83", "bias_regularizer": null, "bias_constraint": null, "padding": "same", "activity_regularizer": null, "strides": [1, 1], "kernel_size": [1, 3], "kernel_regularizer": null, "data_format": "channels_last", "trainable": true, "kernel_constraint": null, "use_bias": true, "bias_initializer": {"class_name": "Zeros", "config": {}}, "kernel_initializer": {"class_name": "VarianceScaling", "config": {"mode": "fan_avg", "seed": null, "scale": 1.0, "distribution": "uniform"}}, "dilation_rate": [1, 1], "activation": "relu"}}, {"class_name": "Conv2D", "name": "conv2d_84", "inbound_nodes": [[["batch_normalization_82", 0, 0, {}]]], "config": {"filters": 192, "name": "conv2d_84", "bias_regularizer": null, "bias_constraint": null, "padding": "same", "activity_regularizer": null, "strides": [1, 1], "kernel_size": [3, 1], "kernel_regularizer": null, "data_format": "channels_last", "trainable": true, "kernel_constraint": null, "use_bias": true, "bias_initializer": {"class_name": "Zeros", "config": {}}, "kernel_initializer": {"class_name": "VarianceScaling", "config": {"mode": "fan_avg", "seed": null, "scale": 1.0, "distribution": "uniform"}}, "dilation_rate": [1, 1], "activation": "relu"}}, {"class_name": "AveragePooling2D", "name": "average_pooling2d_9", "inbound_nodes": [[["mixed8", 0, 0, {}]]], "config": {"strides": [1, 1], "data_format": "channels_last", "trainable": true, "padding": "same", "name": "average_pooling2d_9", "pool_size": [3, 3]}}, {"class_name": "Conv2D", "name": "conv2d_77", "inbound_nodes": [[["mixed8", 0, 0, {}]]], "config": {"filters": 160, "name": "conv2d_77", "bias_regularizer": null, "bias_constraint": null, "padding": "same", "activity_regularizer": null, "strides": [1, 1], "kernel_size": [1, 1], "kernel_regularizer": null, "data_format": "channels_last", "trainable": true, "kernel_constraint": null, "use_bias": true, "bias_initializer": {"class_name": "Zeros", "config": {}}, "kernel_initializer": {"class_name": "VarianceScaling", "config": {"mode": "fan_avg", "seed": null, "scale": 1.0, "distribution": "uniform"}}, "dilation_rate": [1, 1], "activation": "relu"}}, {"class_name": "BatchNormalization", "name": "batch_normalization_79", "inbound_nodes": [[["conv2d_79", 0, 0, {}]]], "config": {"name": "batch_normalization_79", "gamma_initializer": {"class_name": "Ones", "config": {}}, "momentum": 0.99, "moving_mean_initializer": {"class_name": "Zeros", "config": {}}, "gamma_constraint": null, "center": true, "beta_initializer": {"class_name": "Zeros", "config": {}}, "moving_variance_initializer": {"class_name": "Ones", "config": {}}, "axis": 3, "scale": true, "gamma_regularizer": null, "epsilon": 0.001, "beta_constraint": null, "beta_regularizer": null, "trainable": true}}, {"class_name": "BatchNormalization", "name": "batch_normalization_80", "inbound_nodes": [[["conv2d_80", 0, 0, {}]]], "config": {"name": "batch_normalization_80", "gamma_initializer": {"class_name": "Ones", "config": {}}, "momentum": 0.99, "moving_mean_initializer": {"class_name": "Zeros", "config": {}}, "gamma_constraint": null, "center": true, "beta_initializer": {"class_name": "Zeros", "config": {}}, "moving_variance_initializer": {"class_name": "Ones", "config": {}}, "axis": 3, "scale": true, "gamma_regularizer": null, "epsilon": 0.001, "beta_constraint": null, "beta_regularizer": null, "trainable": true}}, {"class_name": "BatchNormalization", "name": "batch_normalization_83", "inbound_nodes": [[["conv2d_83", 0, 0, {}]]], "config": {"name": "batch_normalization_83", "gamma_initializer": {"class_name": "Ones", "config": {}}, "momentum": 0.99, "moving_mean_initializer": {"class_name": "Zeros", "config": {}}, "gamma_constraint": null, "center": true, "beta_initializer": {"class_name": "Zeros", "config": {}}, "moving_variance_initializer": {"class_name": "Ones", "config": {}}, "axis": 3, "scale": true, "gamma_regularizer": null, "epsilon": 0.001, "beta_constraint": null, "beta_regularizer": null, "trainable": true}}, {"class_name": "BatchNormalization", "name": "batch_normalization_84", "inbound_nodes": [[["conv2d_84", 0, 0, {}]]], "config": {"name": "batch_normalization_84", "gamma_initializer": {"class_name": "Ones", "config": {}}, "momentum": 0.99, "moving_mean_initializer": {"class_name": "Zeros", "config": {}}, "gamma_constraint": null, "center": true, "beta_initializer": {"class_name": "Zeros", "config": {}}, "moving_variance_initializer": {"class_name": "Ones", "config": {}}, "axis": 3, "scale": true, "gamma_regularizer": null, "epsilon": 0.001, "beta_constraint": null, "beta_regularizer": null, "trainable": true}}, {"class_name": "Conv2D", "name": "conv2d_85", "inbound_nodes": [[["average_pooling2d_9", 0, 0, {}]]], "config": {"filters": 96, "name": "conv2d_85", "bias_regularizer": null, "bias_constraint": null, "padding": "same", "activity_regularizer": null, "strides": [1, 1], "kernel_size": [1, 1], "kernel_regularizer": null, "data_format": "channels_last", "trainable": true, "kernel_constraint": null, "use_bias": true, "bias_initializer": {"class_name": "Zeros", "config": {}}, "kernel_initializer": {"class_name": "VarianceScaling", "config": {"mode": "fan_avg", "seed": null, "scale": 1.0, "distribution": "uniform"}}, "dilation_rate": [1, 1], "activation": "relu"}}, {"class_name": "BatchNormalization", "name": "batch_normalization_77", "inbound_nodes": [[["conv2d_77", 0, 0, {}]]], "config": {"name": "batch_normalization_77", "gamma_initializer": {"class_name": "Ones", "config": {}}, "momentum": 0.99, "moving_mean_initializer": {"class_name": "Zeros", "config": {}}, "gamma_constraint": null, "center": true, "beta_initializer": {"class_name": "Zeros", "config": {}}, "moving_variance_initializer": {"class_name": "Ones", "config": {}}, "axis": 3, "scale": true, "gamma_regularizer": null, "epsilon": 0.001, "beta_constraint": null, "beta_regularizer": null, "trainable": true}}, {"class_name": "Concatenate", "name": "mixed9_0", "inbound_nodes": [[["batch_normalization_79", 0, 0, {}], ["batch_normalization_80", 0, 0, {}]]], "config": {"name": "mixed9_0", "axis": -1, "trainable": true}}, {"class_name": "Concatenate", "name": "concatenate_1", "inbound_nodes": [[["batch_normalization_83", 0, 0, {}], ["batch_normalization_84", 0, 0, {}]]], "config": {"name": "concatenate_1", "axis": -1, "trainable": true}}, {"class_name": "BatchNormalization", "name": "batch_normalization_85", "inbound_nodes": [[["conv2d_85", 0, 0, {}]]], "config": {"name": "batch_normalization_85", "gamma_initializer": {"class_name": "Ones", "config": {}}, "momentum": 0.99, "moving_mean_initializer": {"class_name": "Zeros", "config": {}}, "gamma_constraint": null, "center": true, "beta_initializer": {"class_name": "Zeros", "config": {}}, "moving_variance_initializer": {"class_name": "Ones", "config": {}}, "axis": 3, "scale": true, "gamma_regularizer": null, "epsilon": 0.001, "beta_constraint": null, "beta_regularizer": null, "trainable": true}}, {"class_name": "Concatenate", "name": "mixed9", "inbound_nodes": [[["batch_normalization_77", 0, 0, {}], ["mixed9_0", 0, 0, {}], ["concatenate_1", 0, 0, {}], ["batch_normalization_85", 0, 0, {}]]], "config": {"name": "mixed9", "axis": -1, "trainable": true}}, {"class_name": "Conv2D", "name": "conv2d_90", "inbound_nodes": [[["mixed9", 0, 0, {}]]], "config": {"filters": 224, "name": "conv2d_90", "bias_regularizer": null, "bias_constraint": null, "padding": "same", "activity_regularizer": null, "strides": [1, 1], "kernel_size": [1, 1], "kernel_regularizer": null, "data_format": "channels_last", "trainable": true, "kernel_constraint": null, "use_bias": true, "bias_initializer": {"class_name": "Zeros", "config": {}}, "kernel_initializer": {"class_name": "VarianceScaling", "config": {"mode": "fan_avg", "seed": null, "scale": 1.0, "distribution": "uniform"}}, "dilation_rate": [1, 1], "activation": "relu"}}, {"class_name": "BatchNormalization", "name": "batch_normalization_90", "inbound_nodes": [[["conv2d_90", 0, 0, {}]]], "config": {"name": "batch_normalization_90", "gamma_initializer": {"class_name": "Ones", "config": {}}, "momentum": 0.99, "moving_mean_initializer": {"class_name": "Zeros", "config": {}}, "gamma_constraint": null, "center": true, "beta_initializer": {"class_name": "Zeros", "config": {}}, "moving_variance_initializer": {"class_name": "Ones", "config": {}}, "axis": 3, "scale": true, "gamma_regularizer": null, "epsilon": 0.001, "beta_constraint": null, "beta_regularizer": null, "trainable": true}}, {"class_name": "Conv2D", "name": "conv2d_87", "inbound_nodes": [[["mixed9", 0, 0, {}]]], "config": {"filters": 192, "name": "conv2d_87", "bias_regularizer": null, "bias_constraint": null, "padding": "same", "activity_regularizer": null, "strides": [1, 1], "kernel_size": [1, 1], "kernel_regularizer": null, "data_format": "channels_last", "trainable": true, "kernel_constraint": null, "use_bias": true, "bias_initializer": {"class_name": "Zeros", "config": {}}, "kernel_initializer": {"class_name": "VarianceScaling", "config": {"mode": "fan_avg", "seed": null, "scale": 1.0, "distribution": "uniform"}}, "dilation_rate": [1, 1], "activation": "relu"}}, {"class_name": "Conv2D", "name": "conv2d_91", "inbound_nodes": [[["batch_normalization_90", 0, 0, {}]]], "config": {"filters": 192, "name": "conv2d_91", "bias_regularizer": null, "bias_constraint": null, "padding": "same", "activity_regularizer": null, "strides": [1, 1], "kernel_size": [3, 3], "kernel_regularizer": null, "data_format": "channels_last", "trainable": true, "kernel_constraint": null, "use_bias": true, "bias_initializer": {"class_name": "Zeros", "config": {}}, "kernel_initializer": {"class_name": "VarianceScaling", "config": {"mode": "fan_avg", "seed": null, "scale": 1.0, "distribution": "uniform"}}, "dilation_rate": [1, 1], "activation": "relu"}}, {"class_name": "BatchNormalization", "name": "batch_normalization_87", "inbound_nodes": [[["conv2d_87", 0, 0, {}]]], "config": {"name": "batch_normalization_87", "gamma_initializer": {"class_name": "Ones", "config": {}}, "momentum": 0.99, "moving_mean_initializer": {"class_name": "Zeros", "config": {}}, "gamma_constraint": null, "center": true, "beta_initializer": {"class_name": "Zeros", "config": {}}, "moving_variance_initializer": {"class_name": "Ones", "config": {}}, "axis": 3, "scale": true, "gamma_regularizer": null, "epsilon": 0.001, "beta_constraint": null, "beta_regularizer": null, "trainable": true}}, {"class_name": "BatchNormalization", "name": "batch_normalization_91", "inbound_nodes": [[["conv2d_91", 0, 0, {}]]], "config": {"name": "batch_normalization_91", "gamma_initializer": {"class_name": "Ones", "config": {}}, "momentum": 0.99, "moving_mean_initializer": {"class_name": "Zeros", "config": {}}, "gamma_constraint": null, "center": true, "beta_initializer": {"class_name": "Zeros", "config": {}}, "moving_variance_initializer": {"class_name": "Ones", "config": {}}, "axis": 3, "scale": true, "gamma_regularizer": null, "epsilon": 0.001, "beta_constraint": null, "beta_regularizer": null, "trainable": true}}, {"class_name": "Conv2D", "name": "conv2d_88", "inbound_nodes": [[["batch_normalization_87", 0, 0, {}]]], "config": {"filters": 192, "name": "conv2d_88", "bias_regularizer": null, "bias_constraint": null, "padding": "same", "activity_regularizer": null, "strides": [1, 1], "kernel_size": [1, 3], "kernel_regularizer": null, "data_format": "channels_last", "trainable": true, "kernel_constraint": null, "use_bias": true, "bias_initializer": {"class_name": "Zeros", "config": {}}, "kernel_initializer": {"class_name": "VarianceScaling", "config": {"mode": "fan_avg", "seed": null, "scale": 1.0, "distribution": "uniform"}}, "dilation_rate": [1, 1], "activation": "relu"}}, {"class_name": "Conv2D", "name": "conv2d_89", "inbound_nodes": [[["batch_normalization_87", 0, 0, {}]]], "config": {"filters": 192, "name": "conv2d_89", "bias_regularizer": null, "bias_constraint": null, "padding": "same", "activity_regularizer": null, "strides": [1, 1], "kernel_size": [3, 1], "kernel_regularizer": null, "data_format": "channels_last", "trainable": true, "kernel_constraint": null, "use_bias": true, "bias_initializer": {"class_name": "Zeros", "config": {}}, "kernel_initializer": {"class_name": "VarianceScaling", "config": {"mode": "fan_avg", "seed": null, "scale": 1.0, "distribution": "uniform"}}, "dilation_rate": [1, 1], "activation": "relu"}}, {"class_name": "Conv2D", "name": "conv2d_92", "inbound_nodes": [[["batch_normalization_91", 0, 0, {}]]], "config": {"filters": 192, "name": "conv2d_92", "bias_regularizer": null, "bias_constraint": null, "padding": "same", "activity_regularizer": null, "strides": [1, 1], "kernel_size": [1, 3], "kernel_regularizer": null, "data_format": "channels_last", "trainable": true, "kernel_constraint": null, "use_bias": true, "bias_initializer": {"class_name": "Zeros", "config": {}}, "kernel_initializer": {"class_name": "VarianceScaling", "config": {"mode": "fan_avg", "seed": null, "scale": 1.0, "distribution": "uniform"}}, "dilation_rate": [1, 1], "activation": "relu"}}, {"class_name": "Conv2D", "name": "conv2d_93", "inbound_nodes": [[["batch_normalization_91", 0, 0, {}]]], "config": {"filters": 192, "name": "conv2d_93", "bias_regularizer": null, "bias_constraint": null, "padding": "same", "activity_regularizer": null, "strides": [1, 1], "kernel_size": [3, 1], "kernel_regularizer": null, "data_format": "channels_last", "trainable": true, "kernel_constraint": null, "use_bias": true, "bias_initializer": {"class_name": "Zeros", "config": {}}, "kernel_initializer": {"class_name": "VarianceScaling", "config": {"mode": "fan_avg", "seed": null, "scale": 1.0, "distribution": "uniform"}}, "dilation_rate": [1, 1], "activation": "relu"}}, {"class_name": "AveragePooling2D", "name": "average_pooling2d_10", "inbound_nodes": [[["mixed9", 0, 0, {}]]], "config": {"strides": [1, 1], "data_format": "channels_last", "trainable": true, "padding": "same", "name": "average_pooling2d_10", "pool_size": [3, 3]}}, {"class_name": "Conv2D", "name": "conv2d_86", "inbound_nodes": [[["mixed9", 0, 0, {}]]], "config": {"filters": 160, "name": "conv2d_86", "bias_regularizer": null, "bias_constraint": null, "padding": "same", "activity_regularizer": null, "strides": [1, 1], "kernel_size": [1, 1], "kernel_regularizer": null, "data_format": "channels_last", "trainable": true, "kernel_constraint": null, "use_bias": true, "bias_initializer": {"class_name": "Zeros", "config": {}}, "kernel_initializer": {"class_name": "VarianceScaling", "config": {"mode": "fan_avg", "seed": null, "scale": 1.0, "distribution": "uniform"}}, "dilation_rate": [1, 1], "activation": "relu"}}, {"class_name": "BatchNormalization", "name": "batch_normalization_88", "inbound_nodes": [[["conv2d_88", 0, 0, {}]]], "config": {"name": "batch_normalization_88", "gamma_initializer": {"class_name": "Ones", "config": {}}, "momentum": 0.99, "moving_mean_initializer": {"class_name": "Zeros", "config": {}}, "gamma_constraint": null, "center": true, "beta_initializer": {"class_name": "Zeros", "config": {}}, "moving_variance_initializer": {"class_name": "Ones", "config": {}}, "axis": 3, "scale": true, "gamma_regularizer": null, "epsilon": 0.001, "beta_constraint": null, "beta_regularizer": null, "trainable": true}}, {"class_name": "BatchNormalization", "name": "batch_normalization_89", "inbound_nodes": [[["conv2d_89", 0, 0, {}]]], "config": {"name": "batch_normalization_89", "gamma_initializer": {"class_name": "Ones", "config": {}}, "momentum": 0.99, "moving_mean_initializer": {"class_name": "Zeros", "config": {}}, "gamma_constraint": null, "center": true, "beta_initializer": {"class_name": "Zeros", "config": {}}, "moving_variance_initializer": {"class_name": "Ones", "config": {}}, "axis": 3, "scale": true, "gamma_regularizer": null, "epsilon": 0.001, "beta_constraint": null, "beta_regularizer": null, "trainable": true}}, {"class_name": "BatchNormalization", "name": "batch_normalization_92", "inbound_nodes": [[["conv2d_92", 0, 0, {}]]], "config": {"name": "batch_normalization_92", "gamma_initializer": {"class_name": "Ones", "config": {}}, "momentum": 0.99, "moving_mean_initializer": {"class_name": "Zeros", "config": {}}, "gamma_constraint": null, "center": true, "beta_initializer": {"class_name": "Zeros", "config": {}}, "moving_variance_initializer": {"class_name": "Ones", "config": {}}, "axis": 3, "scale": true, "gamma_regularizer": null, "epsilon": 0.001, "beta_constraint": null, "beta_regularizer": null, "trainable": true}}, {"class_name": "BatchNormalization", "name": "batch_normalization_93", "inbound_nodes": [[["conv2d_93", 0, 0, {}]]], "config": {"name": "batch_normalization_93", "gamma_initializer": {"class_name": "Ones", "config": {}}, "momentum": 0.99, "moving_mean_initializer": {"class_name": "Zeros", "config": {}}, "gamma_constraint": null, "center": true, "beta_initializer": {"class_name": "Zeros", "config": {}}, "moving_variance_initializer": {"class_name": "Ones", "config": {}}, "axis": 3, "scale": true, "gamma_regularizer": null, "epsilon": 0.001, "beta_constraint": null, "beta_regularizer": null, "trainable": true}}, {"class_name": "Conv2D", "name": "conv2d_94", "inbound_nodes": [[["average_pooling2d_10", 0, 0, {}]]], "config": {"filters": 96, "name": "conv2d_94", "bias_regularizer": null, "bias_constraint": null, "padding": "same", "activity_regularizer": null, "strides": [1, 1], "kernel_size": [1, 1], "kernel_regularizer": null, "data_format": "channels_last", "trainable": true, "kernel_constraint": null, "use_bias": true, "bias_initializer": {"class_name": "Zeros", "config": {}}, "kernel_initializer": {"class_name": "VarianceScaling", "config": {"mode": "fan_avg", "seed": null, "scale": 1.0, "distribution": "uniform"}}, "dilation_rate": [1, 1], "activation": "relu"}}, {"class_name": "BatchNormalization", "name": "batch_normalization_86", "inbound_nodes": [[["conv2d_86", 0, 0, {}]]], "config": {"name": "batch_normalization_86", "gamma_initializer": {"class_name": "Ones", "config": {}}, "momentum": 0.99, "moving_mean_initializer": {"class_name": "Zeros", "config": {}}, "gamma_constraint": null, "center": true, "beta_initializer": {"class_name": "Zeros", "config": {}}, "moving_variance_initializer": {"class_name": "Ones", "config": {}}, "axis": 3, "scale": true, "gamma_regularizer": null, "epsilon": 0.001, "beta_constraint": null, "beta_regularizer": null, "trainable": true}}, {"class_name": "Concatenate", "name": "mixed9_1", "inbound_nodes": [[["batch_normalization_88", 0, 0, {}], ["batch_normalization_89", 0, 0, {}]]], "config": {"name": "mixed9_1", "axis": -1, "trainable": true}}, {"class_name": "Concatenate", "name": "concatenate_2", "inbound_nodes": [[["batch_normalization_92", 0, 0, {}], ["batch_normalization_93", 0, 0, {}]]], "config": {"name": "concatenate_2", "axis": -1, "trainable": true}}, {"class_name": "BatchNormalization", "name": "batch_normalization_94", "inbound_nodes": [[["conv2d_94", 0, 0, {}]]], "config": {"name": "batch_normalization_94", "gamma_initializer": {"class_name": "Ones", "config": {}}, "momentum": 0.99, "moving_mean_initializer": {"class_name": "Zeros", "config": {}}, "gamma_constraint": null, "center": true, "beta_initializer": {"class_name": "Zeros", "config": {}}, "moving_variance_initializer": {"class_name": "Ones", "config": {}}, "axis": 3, "scale": true, "gamma_regularizer": null, "epsilon": 0.001, "beta_constraint": null, "beta_regularizer": null, "trainable": true}}, {"class_name": "Concatenate", "name": "mixed10", "inbound_nodes": [[["batch_normalization_86", 0, 0, {}], ["mixed9_1", 0, 0, {}], ["concatenate_2", 0, 0, {}], ["batch_normalization_94", 0, 0, {}]]], "config": {"name": "mixed10", "axis": -1, "trainable": true}}, {"class_name": "MaxPooling2D", "name": "end_max_pool", "inbound_nodes": [[["mixed10", 0, 0, {}]]], "config": {"strides": [2, 2], "data_format": "channels_last", "trainable": true, "padding": "valid", "name": "end_max_pool", "pool_size": [2, 2]}}, {"class_name": "Flatten", "name": "flatten", "inbound_nodes": [[["end_max_pool", 0, 0, {}]]], "config": {"name": "flatten", "trainable": true}}, {"class_name": "Dense", "name": "output_layer", "inbound_nodes": [[["flatten", 0, 0, {}]]], "config": {"name": "output_layer", "bias_regularizer": null, "kernel_regularizer": null, "kernel_initializer": {"class_name": "VarianceScaling", "config": {"mode": "fan_avg", "seed": null, "scale": 1.0, "distribution": "uniform"}}, "activity_regularizer": null, "activation": "sigmoid", "units": 1, "trainable": true, "kernel_constraint": null, "bias_initializer": {"class_name": "Zeros", "config": {}}, "bias_constraint": null, "use_bias": true}}], "output_layers": [["output_layer", 0, 0]]}, "backend": "tensorflow"}