{"config": {"name": "model_1", "layers": [{"config": {"dtype": "float32", "batch_input_shape": [null, 1152, 832, 1], "name": "input_1", "sparse": false}, "name": "input_1", "class_name": "InputLayer", "inbound_nodes": []}, {"config": {"kernel_size": [3, 3], "name": "conv2d_1", "bias_regularizer": null, "bias_constraint": null, "trainable": true, "kernel_constraint": null, "data_format": "channels_last", "use_bias": true, "kernel_initializer": {"config": {"distribution": "uniform", "seed": null, "scale": 1.0, "mode": "fan_avg"}, "class_name": "VarianceScaling"}, "padding": "valid", "activation": "relu", "filters": 16, "activity_regularizer": null, "bias_initializer": {"config": {}, "class_name": "Zeros"}, "strides": [2, 2], "kernel_regularizer": null, "dilation_rate": [1, 1]}, "name": "conv2d_1", "class_name": "Conv2D", "inbound_nodes": [[["input_1", 0, 0, {}]]]}, {"config": {"epsilon": 0.001, "moving_mean_initializer": {"config": {}, "class_name": "Zeros"}, "gamma_regularizer": null, "trainable": true, "center": true, "axis": 3, "beta_regularizer": null, "scale": true, "momentum": 0.99, "moving_variance_initializer": {"config": {}, "class_name": "Ones"}, "gamma_initializer": {"config": {}, "class_name": "Ones"}, "name": "batch_normalization_1", "gamma_constraint": null, "beta_initializer": {"config": {}, "class_name": "Zeros"}, "beta_constraint": null}, "name": "batch_normalization_1", "class_name": "BatchNormalization", "inbound_nodes": [[["conv2d_1", 0, 0, {}]]]}, {"config": {"kernel_size": [3, 3], "name": "conv2d_2", "bias_regularizer": null, "bias_constraint": null, "trainable": true, "kernel_constraint": null, "data_format": "channels_last", "use_bias": true, "kernel_initializer": {"config": {"distribution": "uniform", "seed": null, "scale": 1.0, "mode": "fan_avg"}, "class_name": "VarianceScaling"}, "padding": "valid", "activation": "relu", "filters": 16, "activity_regularizer": null, "bias_initializer": {"config": {}, "class_name": "Zeros"}, "strides": [1, 1], "kernel_regularizer": null, "dilation_rate": [1, 1]}, "name": "conv2d_2", "class_name": "Conv2D", "inbound_nodes": [[["batch_normalization_1", 0, 0, {}]]]}, {"config": {"epsilon": 0.001, "moving_mean_initializer": {"config": {}, "class_name": "Zeros"}, "gamma_regularizer": null, "trainable": true, "center": true, "axis": 3, "beta_regularizer": null, "scale": true, "momentum": 0.99, "moving_variance_initializer": {"config": {}, "class_name": "Ones"}, "gamma_initializer": {"config": {}, "class_name": "Ones"}, "name": "batch_normalization_2", "gamma_constraint": null, "beta_initializer": {"config": {}, "class_name": "Zeros"}, "beta_constraint": null}, "name": "batch_normalization_2", "class_name": "BatchNormalization", "inbound_nodes": [[["conv2d_2", 0, 0, {}]]]}, {"config": {"kernel_size": [3, 3], "name": "conv2d_3", "bias_regularizer": null, "bias_constraint": null, "trainable": true, "kernel_constraint": null, "data_format": "channels_last", "use_bias": true, "kernel_initializer": {"config": {"distribution": "uniform", "seed": null, "scale": 1.0, "mode": "fan_avg"}, "class_name": "VarianceScaling"}, "padding": "same", "activation": "relu", "filters": 32, "activity_regularizer": null, "bias_initializer": {"config": {}, "class_name": "Zeros"}, "strides": [1, 1], "kernel_regularizer": null, "dilation_rate": [1, 1]}, "name": "conv2d_3", "class_name": "Conv2D", "inbound_nodes": [[["batch_normalization_2", 0, 0, {}]]]}, {"config": {"epsilon": 0.001, "moving_mean_initializer": {"config": {}, "class_name": "Zeros"}, "gamma_regularizer": null, "trainable": true, "center": true, "axis": 3, "beta_regularizer": null, "scale": true, "momentum": 0.99, "moving_variance_initializer": {"config": {}, "class_name": "Ones"}, "gamma_initializer": {"config": {}, "class_name": "Ones"}, "name": "batch_normalization_3", "gamma_constraint": null, "beta_initializer": {"config": {}, "class_name": "Zeros"}, "beta_constraint": null}, "name": "batch_normalization_3", "class_name": "BatchNormalization", "inbound_nodes": [[["conv2d_3", 0, 0, {}]]]}, {"config": {"padding": "valid", "name": "max_pooling2d_1", "trainable": true, "pool_size": [3, 3], "data_format": "channels_last", "strides": [2, 2]}, "name": "max_pooling2d_1", "class_name": "MaxPooling2D", "inbound_nodes": [[["batch_normalization_3", 0, 0, {}]]]}, {"config": {"kernel_size": [1, 1], "name": "conv2d_4", "bias_regularizer": null, "bias_constraint": null, "trainable": true, "kernel_constraint": null, "data_format": "channels_last", "use_bias": true, "kernel_initializer": {"config": {"distribution": "uniform", "seed": null, "scale": 1.0, "mode": "fan_avg"}, "class_name": "VarianceScaling"}, "padding": "valid", "activation": "relu", "filters": 40, "activity_regularizer": null, "bias_initializer": {"config": {}, "class_name": "Zeros"}, "strides": [1, 1], "kernel_regularizer": null, "dilation_rate": [1, 1]}, "name": "conv2d_4", "class_name": "Conv2D", "inbound_nodes": [[["max_pooling2d_1", 0, 0, {}]]]}, {"config": {"epsilon": 0.001, "moving_mean_initializer": {"config": {}, "class_name": "Zeros"}, "gamma_regularizer": null, "trainable": true, "center": true, "axis": 3, "beta_regularizer": null, "scale": true, "momentum": 0.99, "moving_variance_initializer": {"config": {}, "class_name": "Ones"}, "gamma_initializer": {"config": {}, "class_name": "Ones"}, "name": "batch_normalization_4", "gamma_constraint": null, "beta_initializer": {"config": {}, "class_name": "Zeros"}, "beta_constraint": null}, "name": "batch_normalization_4", "class_name": "BatchNormalization", "inbound_nodes": [[["conv2d_4", 0, 0, {}]]]}, {"config": {"kernel_size": [3, 3], "name": "conv2d_5", "bias_regularizer": null, "bias_constraint": null, "trainable": true, "kernel_constraint": null, "data_format": "channels_last", "use_bias": true, "kernel_initializer": {"config": {"distribution": "uniform", "seed": null, "scale": 1.0, "mode": "fan_avg"}, "class_name": "VarianceScaling"}, "padding": "valid", "activation": "relu", "filters": 96, "activity_regularizer": null, "bias_initializer": {"config": {}, "class_name": "Zeros"}, "strides": [1, 1], "kernel_regularizer": null, "dilation_rate": [1, 1]}, "name": "conv2d_5", "class_name": "Conv2D", "inbound_nodes": [[["batch_normalization_4", 0, 0, {}]]]}, {"config": {"epsilon": 0.001, "moving_mean_initializer": {"config": {}, "class_name": "Zeros"}, "gamma_regularizer": null, "trainable": true, "center": true, "axis": 3, "beta_regularizer": null, "scale": true, "momentum": 0.99, "moving_variance_initializer": {"config": {}, "class_name": "Ones"}, "gamma_initializer": {"config": {}, "class_name": "Ones"}, "name": "batch_normalization_5", "gamma_constraint": null, "beta_initializer": {"config": {}, "class_name": "Zeros"}, "beta_constraint": null}, "name": "batch_normalization_5", "class_name": "BatchNormalization", "inbound_nodes": [[["conv2d_5", 0, 0, {}]]]}, {"config": {"padding": "valid", "name": "max_pooling2d_2", "trainable": true, "pool_size": [3, 3], "data_format": "channels_last", "strides": [2, 2]}, "name": "max_pooling2d_2", "class_name": "MaxPooling2D", "inbound_nodes": [[["batch_normalization_5", 0, 0, {}]]]}, {"config": {"kernel_size": [1, 1], "name": "conv2d_9", "bias_regularizer": null, "bias_constraint": null, "trainable": true, "kernel_constraint": null, "data_format": "channels_last", "use_bias": true, "kernel_initializer": {"config": {"distribution": "uniform", "seed": null, "scale": 1.0, "mode": "fan_avg"}, "class_name": "VarianceScaling"}, "padding": "same", "activation": "relu", "filters": 32, "activity_regularizer": null, "bias_initializer": {"config": {}, "class_name": "Zeros"}, "strides": [1, 1], "kernel_regularizer": null, "dilation_rate": [1, 1]}, "name": "conv2d_9", "class_name": "Conv2D", "inbound_nodes": [[["max_pooling2d_2", 0, 0, {}]]]}, {"config": {"epsilon": 0.001, "moving_mean_initializer": {"config": {}, "class_name": "Zeros"}, "gamma_regularizer": null, "trainable": true, "center": true, "axis": 3, "beta_regularizer": null, "scale": true, "momentum": 0.99, "moving_variance_initializer": {"config": {}, "class_name": "Ones"}, "gamma_initializer": {"config": {}, "class_name": "Ones"}, "name": "batch_normalization_9", "gamma_constraint": null, "beta_initializer": {"config": {}, "class_name": "Zeros"}, "beta_constraint": null}, "name": "batch_normalization_9", "class_name": "BatchNormalization", "inbound_nodes": [[["conv2d_9", 0, 0, {}]]]}, {"config": {"kernel_size": [1, 1], "name": "conv2d_7", "bias_regularizer": null, "bias_constraint": null, "trainable": true, "kernel_constraint": null, "data_format": "channels_last", "use_bias": true, "kernel_initializer": {"config": {"distribution": "uniform", "seed": null, "scale": 1.0, "mode": "fan_avg"}, "class_name": "VarianceScaling"}, "padding": "same", "activation": "relu", "filters": 24, "activity_regularizer": null, "bias_initializer": {"config": {}, "class_name": "Zeros"}, "strides": [1, 1], "kernel_regularizer": null, "dilation_rate": [1, 1]}, "name": "conv2d_7", "class_name": "Conv2D", "inbound_nodes": [[["max_pooling2d_2", 0, 0, {}]]]}, {"config": {"kernel_size": [3, 3], "name": "conv2d_10", "bias_regularizer": null, "bias_constraint": null, "trainable": true, "kernel_constraint": null, "data_format": "channels_last", "use_bias": true, "kernel_initializer": {"config": {"distribution": "uniform", "seed": null, "scale": 1.0, "mode": "fan_avg"}, "class_name": "VarianceScaling"}, "padding": "same", "activation": "relu", "filters": 48, "activity_regularizer": null, "bias_initializer": {"config": {}, "class_name": "Zeros"}, "strides": [1, 1], "kernel_regularizer": null, "dilation_rate": [1, 1]}, "name": "conv2d_10", "class_name": "Conv2D", "inbound_nodes": [[["batch_normalization_9", 0, 0, {}]]]}, {"config": {"epsilon": 0.001, "moving_mean_initializer": {"config": {}, "class_name": "Zeros"}, "gamma_regularizer": null, "trainable": true, "center": true, "axis": 3, "beta_regularizer": null, "scale": true, "momentum": 0.99, "moving_variance_initializer": {"config": {}, "class_name": "Ones"}, "gamma_initializer": {"config": {}, "class_name": "Ones"}, "name": "batch_normalization_7", "gamma_constraint": null, "beta_initializer": {"config": {}, "class_name": "Zeros"}, "beta_constraint": null}, "name": "batch_normalization_7", "class_name": "BatchNormalization", "inbound_nodes": [[["conv2d_7", 0, 0, {}]]]}, {"config": {"epsilon": 0.001, "moving_mean_initializer": {"config": {}, "class_name": "Zeros"}, "gamma_regularizer": null, "trainable": true, "center": true, "axis": 3, "beta_regularizer": null, "scale": true, "momentum": 0.99, "moving_variance_initializer": {"config": {}, "class_name": "Ones"}, "gamma_initializer": {"config": {}, "class_name": "Ones"}, "name": "batch_normalization_10", "gamma_constraint": null, "beta_initializer": {"config": {}, "class_name": "Zeros"}, "beta_constraint": null}, "name": "batch_normalization_10", "class_name": "BatchNormalization", "inbound_nodes": [[["conv2d_10", 0, 0, {}]]]}, {"config": {"padding": "same", "name": "average_pooling2d_1", "trainable": true, "pool_size": [3, 3], "data_format": "channels_last", "strides": [1, 1]}, "name": "average_pooling2d_1", "class_name": "AveragePooling2D", "inbound_nodes": [[["max_pooling2d_2", 0, 0, {}]]]}, {"config": {"kernel_size": [1, 1], "name": "conv2d_6", "bias_regularizer": null, "bias_constraint": null, "trainable": true, "kernel_constraint": null, "data_format": "channels_last", "use_bias": true, "kernel_initializer": {"config": {"distribution": "uniform", "seed": null, "scale": 1.0, "mode": "fan_avg"}, "class_name": "VarianceScaling"}, "padding": "same", "activation": "relu", "filters": 32, "activity_regularizer": null, "bias_initializer": {"config": {}, "class_name": "Zeros"}, "strides": [1, 1], "kernel_regularizer": null, "dilation_rate": [1, 1]}, "name": "conv2d_6", "class_name": "Conv2D", "inbound_nodes": [[["max_pooling2d_2", 0, 0, {}]]]}, {"config": {"kernel_size": [5, 5], "name": "conv2d_8", "bias_regularizer": null, "bias_constraint": null, "trainable": true, "kernel_constraint": null, "data_format": "channels_last", "use_bias": true, "kernel_initializer": {"config": {"distribution": "uniform", "seed": null, "scale": 1.0, "mode": "fan_avg"}, "class_name": "VarianceScaling"}, "padding": "same", "activation": "relu", "filters": 32, "activity_regularizer": null, "bias_initializer": {"config": {}, "class_name": "Zeros"}, "strides": [1, 1], "kernel_regularizer": null, "dilation_rate": [1, 1]}, "name": "conv2d_8", "class_name": "Conv2D", "inbound_nodes": [[["batch_normalization_7", 0, 0, {}]]]}, {"config": {"kernel_size": [3, 3], "name": "conv2d_11", "bias_regularizer": null, "bias_constraint": null, "trainable": true, "kernel_constraint": null, "data_format": "channels_last", "use_bias": true, "kernel_initializer": {"config": {"distribution": "uniform", "seed": null, "scale": 1.0, "mode": "fan_avg"}, "class_name": "VarianceScaling"}, "padding": "same", "activation": "relu", "filters": 48, "activity_regularizer": null, "bias_initializer": {"config": {}, "class_name": "Zeros"}, "strides": [1, 1], "kernel_regularizer": null, "dilation_rate": [1, 1]}, "name": "conv2d_11", "class_name": "Conv2D", "inbound_nodes": [[["batch_normalization_10", 0, 0, {}]]]}, {"config": {"kernel_size": [1, 1], "name": "conv2d_12", "bias_regularizer": null, "bias_constraint": null, "trainable": true, "kernel_constraint": null, "data_format": "channels_last", "use_bias": true, "kernel_initializer": {"config": {"distribution": "uniform", "seed": null, "scale": 1.0, "mode": "fan_avg"}, "class_name": "VarianceScaling"}, "padding": "same", "activation": "relu", "filters": 16, "activity_regularizer": null, "bias_initializer": {"config": {}, "class_name": "Zeros"}, "strides": [1, 1], "kernel_regularizer": null, "dilation_rate": [1, 1]}, "name": "conv2d_12", "class_name": "Conv2D", "inbound_nodes": [[["average_pooling2d_1", 0, 0, {}]]]}, {"config": {"epsilon": 0.001, "moving_mean_initializer": {"config": {}, "class_name": "Zeros"}, "gamma_regularizer": null, "trainable": true, "center": true, "axis": 3, "beta_regularizer": null, "scale": true, "momentum": 0.99, "moving_variance_initializer": {"config": {}, "class_name": "Ones"}, "gamma_initializer": {"config": {}, "class_name": "Ones"}, "name": "batch_normalization_6", "gamma_constraint": null, "beta_initializer": {"config": {}, "class_name": "Zeros"}, "beta_constraint": null}, "name": "batch_normalization_6", "class_name": "BatchNormalization", "inbound_nodes": [[["conv2d_6", 0, 0, {}]]]}, {"config": {"epsilon": 0.001, "moving_mean_initializer": {"config": {}, "class_name": "Zeros"}, "gamma_regularizer": null, "trainable": true, "center": true, "axis": 3, "beta_regularizer": null, "scale": true, "momentum": 0.99, "moving_variance_initializer": {"config": {}, "class_name": "Ones"}, "gamma_initializer": {"config": {}, "class_name": "Ones"}, "name": "batch_normalization_8", "gamma_constraint": null, "beta_initializer": {"config": {}, "class_name": "Zeros"}, "beta_constraint": null}, "name": "batch_normalization_8", "class_name": "BatchNormalization", "inbound_nodes": [[["conv2d_8", 0, 0, {}]]]}, {"config": {"epsilon": 0.001, "moving_mean_initializer": {"config": {}, "class_name": "Zeros"}, "gamma_regularizer": null, "trainable": true, "center": true, "axis": 3, "beta_regularizer": null, "scale": true, "momentum": 0.99, "moving_variance_initializer": {"config": {}, "class_name": "Ones"}, "gamma_initializer": {"config": {}, "class_name": "Ones"}, "name": "batch_normalization_11", "gamma_constraint": null, "beta_initializer": {"config": {}, "class_name": "Zeros"}, "beta_constraint": null}, "name": "batch_normalization_11", "class_name": "BatchNormalization", "inbound_nodes": [[["conv2d_11", 0, 0, {}]]]}, {"config": {"epsilon": 0.001, "moving_mean_initializer": {"config": {}, "class_name": "Zeros"}, "gamma_regularizer": null, "trainable": true, "center": true, "axis": 3, "beta_regularizer": null, "scale": true, "momentum": 0.99, "moving_variance_initializer": {"config": {}, "class_name": "Ones"}, "gamma_initializer": {"config": {}, "class_name": "Ones"}, "name": "batch_normalization_12", "gamma_constraint": null, "beta_initializer": {"config": {}, "class_name": "Zeros"}, "beta_constraint": null}, "name": "batch_normalization_12", "class_name": "BatchNormalization", "inbound_nodes": [[["conv2d_12", 0, 0, {}]]]}, {"config": {"name": "mixed0", "trainable": true, "axis": -1}, "name": "mixed0", "class_name": "Concatenate", "inbound_nodes": [[["batch_normalization_6", 0, 0, {}], ["batch_normalization_8", 0, 0, {}], ["batch_normalization_11", 0, 0, {}], ["batch_normalization_12", 0, 0, {}]]]}, {"config": {"kernel_size": [1, 1], "name": "conv2d_16", "bias_regularizer": null, "bias_constraint": null, "trainable": true, "kernel_constraint": null, "data_format": "channels_last", "use_bias": true, "kernel_initializer": {"config": {"distribution": "uniform", "seed": null, "scale": 1.0, "mode": "fan_avg"}, "class_name": "VarianceScaling"}, "padding": "same", "activation": "relu", "filters": 32, "activity_regularizer": null, "bias_initializer": {"config": {}, "class_name": "Zeros"}, "strides": [1, 1], "kernel_regularizer": null, "dilation_rate": [1, 1]}, "name": "conv2d_16", "class_name": "Conv2D", "inbound_nodes": [[["mixed0", 0, 0, {}]]]}, {"config": {"epsilon": 0.001, "moving_mean_initializer": {"config": {}, "class_name": "Zeros"}, "gamma_regularizer": null, "trainable": true, "center": true, "axis": 3, "beta_regularizer": null, "scale": true, "momentum": 0.99, "moving_variance_initializer": {"config": {}, "class_name": "Ones"}, "gamma_initializer": {"config": {}, "class_name": "Ones"}, "name": "batch_normalization_16", "gamma_constraint": null, "beta_initializer": {"config": {}, "class_name": "Zeros"}, "beta_constraint": null}, "name": "batch_normalization_16", "class_name": "BatchNormalization", "inbound_nodes": [[["conv2d_16", 0, 0, {}]]]}, {"config": {"kernel_size": [1, 1], "name": "conv2d_14", "bias_regularizer": null, "bias_constraint": null, "trainable": true, "kernel_constraint": null, "data_format": "channels_last", "use_bias": true, "kernel_initializer": {"config": {"distribution": "uniform", "seed": null, "scale": 1.0, "mode": "fan_avg"}, "class_name": "VarianceScaling"}, "padding": "same", "activation": "relu", "filters": 24, "activity_regularizer": null, "bias_initializer": {"config": {}, "class_name": "Zeros"}, "strides": [1, 1], "kernel_regularizer": null, "dilation_rate": [1, 1]}, "name": "conv2d_14", "class_name": "Conv2D", "inbound_nodes": [[["mixed0", 0, 0, {}]]]}, {"config": {"kernel_size": [3, 3], "name": "conv2d_17", "bias_regularizer": null, "bias_constraint": null, "trainable": true, "kernel_constraint": null, "data_format": "channels_last", "use_bias": true, "kernel_initializer": {"config": {"distribution": "uniform", "seed": null, "scale": 1.0, "mode": "fan_avg"}, "class_name": "VarianceScaling"}, "padding": "same", "activation": "relu", "filters": 48, "activity_regularizer": null, "bias_initializer": {"config": {}, "class_name": "Zeros"}, "strides": [1, 1], "kernel_regularizer": null, "dilation_rate": [1, 1]}, "name": "conv2d_17", "class_name": "Conv2D", "inbound_nodes": [[["batch_normalization_16", 0, 0, {}]]]}, {"config": {"epsilon": 0.001, "moving_mean_initializer": {"config": {}, "class_name": "Zeros"}, "gamma_regularizer": null, "trainable": true, "center": true, "axis": 3, "beta_regularizer": null, "scale": true, "momentum": 0.99, "moving_variance_initializer": {"config": {}, "class_name": "Ones"}, "gamma_initializer": {"config": {}, "class_name": "Ones"}, "name": "batch_normalization_14", "gamma_constraint": null, "beta_initializer": {"config": {}, "class_name": "Zeros"}, "beta_constraint": null}, "name": "batch_normalization_14", "class_name": "BatchNormalization", "inbound_nodes": [[["conv2d_14", 0, 0, {}]]]}, {"config": {"epsilon": 0.001, "moving_mean_initializer": {"config": {}, "class_name": "Zeros"}, "gamma_regularizer": null, "trainable": true, "center": true, "axis": 3, "beta_regularizer": null, "scale": true, "momentum": 0.99, "moving_variance_initializer": {"config": {}, "class_name": "Ones"}, "gamma_initializer": {"config": {}, "class_name": "Ones"}, "name": "batch_normalization_17", "gamma_constraint": null, "beta_initializer": {"config": {}, "class_name": "Zeros"}, "beta_constraint": null}, "name": "batch_normalization_17", "class_name": "BatchNormalization", "inbound_nodes": [[["conv2d_17", 0, 0, {}]]]}, {"config": {"padding": "same", "name": "average_pooling2d_2", "trainable": true, "pool_size": [3, 3], "data_format": "channels_last", "strides": [1, 1]}, "name": "average_pooling2d_2", "class_name": "AveragePooling2D", "inbound_nodes": [[["mixed0", 0, 0, {}]]]}, {"config": {"kernel_size": [1, 1], "name": "conv2d_13", "bias_regularizer": null, "bias_constraint": null, "trainable": true, "kernel_constraint": null, "data_format": "channels_last", "use_bias": true, "kernel_initializer": {"config": {"distribution": "uniform", "seed": null, "scale": 1.0, "mode": "fan_avg"}, "class_name": "VarianceScaling"}, "padding": "same", "activation": "relu", "filters": 32, "activity_regularizer": null, "bias_initializer": {"config": {}, "class_name": "Zeros"}, "strides": [1, 1], "kernel_regularizer": null, "dilation_rate": [1, 1]}, "name": "conv2d_13", "class_name": "Conv2D", "inbound_nodes": [[["mixed0", 0, 0, {}]]]}, {"config": {"kernel_size": [5, 5], "name": "conv2d_15", "bias_regularizer": null, "bias_constraint": null, "trainable": true, "kernel_constraint": null, "data_format": "channels_last", "use_bias": true, "kernel_initializer": {"config": {"distribution": "uniform", "seed": null, "scale": 1.0, "mode": "fan_avg"}, "class_name": "VarianceScaling"}, "padding": "same", "activation": "relu", "filters": 32, "activity_regularizer": null, "bias_initializer": {"config": {}, "class_name": "Zeros"}, "strides": [1, 1], "kernel_regularizer": null, "dilation_rate": [1, 1]}, "name": "conv2d_15", "class_name": "Conv2D", "inbound_nodes": [[["batch_normalization_14", 0, 0, {}]]]}, {"config": {"kernel_size": [3, 3], "name": "conv2d_18", "bias_regularizer": null, "bias_constraint": null, "trainable": true, "kernel_constraint": null, "data_format": "channels_last", "use_bias": true, "kernel_initializer": {"config": {"distribution": "uniform", "seed": null, "scale": 1.0, "mode": "fan_avg"}, "class_name": "VarianceScaling"}, "padding": "same", "activation": "relu", "filters": 48, "activity_regularizer": null, "bias_initializer": {"config": {}, "class_name": "Zeros"}, "strides": [1, 1], "kernel_regularizer": null, "dilation_rate": [1, 1]}, "name": "conv2d_18", "class_name": "Conv2D", "inbound_nodes": [[["batch_normalization_17", 0, 0, {}]]]}, {"config": {"kernel_size": [1, 1], "name": "conv2d_19", "bias_regularizer": null, "bias_constraint": null, "trainable": true, "kernel_constraint": null, "data_format": "channels_last", "use_bias": true, "kernel_initializer": {"config": {"distribution": "uniform", "seed": null, "scale": 1.0, "mode": "fan_avg"}, "class_name": "VarianceScaling"}, "padding": "same", "activation": "relu", "filters": 16, "activity_regularizer": null, "bias_initializer": {"config": {}, "class_name": "Zeros"}, "strides": [1, 1], "kernel_regularizer": null, "dilation_rate": [1, 1]}, "name": "conv2d_19", "class_name": "Conv2D", "inbound_nodes": [[["average_pooling2d_2", 0, 0, {}]]]}, {"config": {"epsilon": 0.001, "moving_mean_initializer": {"config": {}, "class_name": "Zeros"}, "gamma_regularizer": null, "trainable": true, "center": true, "axis": 3, "beta_regularizer": null, "scale": true, "momentum": 0.99, "moving_variance_initializer": {"config": {}, "class_name": "Ones"}, "gamma_initializer": {"config": {}, "class_name": "Ones"}, "name": "batch_normalization_13", "gamma_constraint": null, "beta_initializer": {"config": {}, "class_name": "Zeros"}, "beta_constraint": null}, "name": "batch_normalization_13", "class_name": "BatchNormalization", "inbound_nodes": [[["conv2d_13", 0, 0, {}]]]}, {"config": {"epsilon": 0.001, "moving_mean_initializer": {"config": {}, "class_name": "Zeros"}, "gamma_regularizer": null, "trainable": true, "center": true, "axis": 3, "beta_regularizer": null, "scale": true, "momentum": 0.99, "moving_variance_initializer": {"config": {}, "class_name": "Ones"}, "gamma_initializer": {"config": {}, "class_name": "Ones"}, "name": "batch_normalization_15", "gamma_constraint": null, "beta_initializer": {"config": {}, "class_name": "Zeros"}, "beta_constraint": null}, "name": "batch_normalization_15", "class_name": "BatchNormalization", "inbound_nodes": [[["conv2d_15", 0, 0, {}]]]}, {"config": {"epsilon": 0.001, "moving_mean_initializer": {"config": {}, "class_name": "Zeros"}, "gamma_regularizer": null, "trainable": true, "center": true, "axis": 3, "beta_regularizer": null, "scale": true, "momentum": 0.99, "moving_variance_initializer": {"config": {}, "class_name": "Ones"}, "gamma_initializer": {"config": {}, "class_name": "Ones"}, "name": "batch_normalization_18", "gamma_constraint": null, "beta_initializer": {"config": {}, "class_name": "Zeros"}, "beta_constraint": null}, "name": "batch_normalization_18", "class_name": "BatchNormalization", "inbound_nodes": [[["conv2d_18", 0, 0, {}]]]}, {"config": {"epsilon": 0.001, "moving_mean_initializer": {"config": {}, "class_name": "Zeros"}, "gamma_regularizer": null, "trainable": true, "center": true, "axis": 3, "beta_regularizer": null, "scale": true, "momentum": 0.99, "moving_variance_initializer": {"config": {}, "class_name": "Ones"}, "gamma_initializer": {"config": {}, "class_name": "Ones"}, "name": "batch_normalization_19", "gamma_constraint": null, "beta_initializer": {"config": {}, "class_name": "Zeros"}, "beta_constraint": null}, "name": "batch_normalization_19", "class_name": "BatchNormalization", "inbound_nodes": [[["conv2d_19", 0, 0, {}]]]}, {"config": {"name": "mixed1", "trainable": true, "axis": -1}, "name": "mixed1", "class_name": "Concatenate", "inbound_nodes": [[["batch_normalization_13", 0, 0, {}], ["batch_normalization_15", 0, 0, {}], ["batch_normalization_18", 0, 0, {}], ["batch_normalization_19", 0, 0, {}]]]}, {"config": {"kernel_size": [1, 1], "name": "conv2d_23", "bias_regularizer": null, "bias_constraint": null, "trainable": true, "kernel_constraint": null, "data_format": "channels_last", "use_bias": true, "kernel_initializer": {"config": {"distribution": "uniform", "seed": null, "scale": 1.0, "mode": "fan_avg"}, "class_name": "VarianceScaling"}, "padding": "same", "activation": "relu", "filters": 32, "activity_regularizer": null, "bias_initializer": {"config": {}, "class_name": "Zeros"}, "strides": [1, 1], "kernel_regularizer": null, "dilation_rate": [1, 1]}, "name": "conv2d_23", "class_name": "Conv2D", "inbound_nodes": [[["mixed1", 0, 0, {}]]]}, {"config": {"epsilon": 0.001, "moving_mean_initializer": {"config": {}, "class_name": "Zeros"}, "gamma_regularizer": null, "trainable": true, "center": true, "axis": 3, "beta_regularizer": null, "scale": true, "momentum": 0.99, "moving_variance_initializer": {"config": {}, "class_name": "Ones"}, "gamma_initializer": {"config": {}, "class_name": "Ones"}, "name": "batch_normalization_23", "gamma_constraint": null, "beta_initializer": {"config": {}, "class_name": "Zeros"}, "beta_constraint": null}, "name": "batch_normalization_23", "class_name": "BatchNormalization", "inbound_nodes": [[["conv2d_23", 0, 0, {}]]]}, {"config": {"kernel_size": [1, 1], "name": "conv2d_21", "bias_regularizer": null, "bias_constraint": null, "trainable": true, "kernel_constraint": null, "data_format": "channels_last", "use_bias": true, "kernel_initializer": {"config": {"distribution": "uniform", "seed": null, "scale": 1.0, "mode": "fan_avg"}, "class_name": "VarianceScaling"}, "padding": "same", "activation": "relu", "filters": 24, "activity_regularizer": null, "bias_initializer": {"config": {}, "class_name": "Zeros"}, "strides": [1, 1], "kernel_regularizer": null, "dilation_rate": [1, 1]}, "name": "conv2d_21", "class_name": "Conv2D", "inbound_nodes": [[["mixed1", 0, 0, {}]]]}, {"config": {"kernel_size": [3, 3], "name": "conv2d_24", "bias_regularizer": null, "bias_constraint": null, "trainable": true, "kernel_constraint": null, "data_format": "channels_last", "use_bias": true, "kernel_initializer": {"config": {"distribution": "uniform", "seed": null, "scale": 1.0, "mode": "fan_avg"}, "class_name": "VarianceScaling"}, "padding": "same", "activation": "relu", "filters": 48, "activity_regularizer": null, "bias_initializer": {"config": {}, "class_name": "Zeros"}, "strides": [1, 1], "kernel_regularizer": null, "dilation_rate": [1, 1]}, "name": "conv2d_24", "class_name": "Conv2D", "inbound_nodes": [[["batch_normalization_23", 0, 0, {}]]]}, {"config": {"epsilon": 0.001, "moving_mean_initializer": {"config": {}, "class_name": "Zeros"}, "gamma_regularizer": null, "trainable": true, "center": true, "axis": 3, "beta_regularizer": null, "scale": true, "momentum": 0.99, "moving_variance_initializer": {"config": {}, "class_name": "Ones"}, "gamma_initializer": {"config": {}, "class_name": "Ones"}, "name": "batch_normalization_21", "gamma_constraint": null, "beta_initializer": {"config": {}, "class_name": "Zeros"}, "beta_constraint": null}, "name": "batch_normalization_21", "class_name": "BatchNormalization", "inbound_nodes": [[["conv2d_21", 0, 0, {}]]]}, {"config": {"epsilon": 0.001, "moving_mean_initializer": {"config": {}, "class_name": "Zeros"}, "gamma_regularizer": null, "trainable": true, "center": true, "axis": 3, "beta_regularizer": null, "scale": true, "momentum": 0.99, "moving_variance_initializer": {"config": {}, "class_name": "Ones"}, "gamma_initializer": {"config": {}, "class_name": "Ones"}, "name": "batch_normalization_24", "gamma_constraint": null, "beta_initializer": {"config": {}, "class_name": "Zeros"}, "beta_constraint": null}, "name": "batch_normalization_24", "class_name": "BatchNormalization", "inbound_nodes": [[["conv2d_24", 0, 0, {}]]]}, {"config": {"padding": "same", "name": "average_pooling2d_3", "trainable": true, "pool_size": [3, 3], "data_format": "channels_last", "strides": [1, 1]}, "name": "average_pooling2d_3", "class_name": "AveragePooling2D", "inbound_nodes": [[["mixed1", 0, 0, {}]]]}, {"config": {"kernel_size": [1, 1], "name": "conv2d_20", "bias_regularizer": null, "bias_constraint": null, "trainable": true, "kernel_constraint": null, "data_format": "channels_last", "use_bias": true, "kernel_initializer": {"config": {"distribution": "uniform", "seed": null, "scale": 1.0, "mode": "fan_avg"}, "class_name": "VarianceScaling"}, "padding": "same", "activation": "relu", "filters": 32, "activity_regularizer": null, "bias_initializer": {"config": {}, "class_name": "Zeros"}, "strides": [1, 1], "kernel_regularizer": null, "dilation_rate": [1, 1]}, "name": "conv2d_20", "class_name": "Conv2D", "inbound_nodes": [[["mixed1", 0, 0, {}]]]}, {"config": {"kernel_size": [5, 5], "name": "conv2d_22", "bias_regularizer": null, "bias_constraint": null, "trainable": true, "kernel_constraint": null, "data_format": "channels_last", "use_bias": true, "kernel_initializer": {"config": {"distribution": "uniform", "seed": null, "scale": 1.0, "mode": "fan_avg"}, "class_name": "VarianceScaling"}, "padding": "same", "activation": "relu", "filters": 32, "activity_regularizer": null, "bias_initializer": {"config": {}, "class_name": "Zeros"}, "strides": [1, 1], "kernel_regularizer": null, "dilation_rate": [1, 1]}, "name": "conv2d_22", "class_name": "Conv2D", "inbound_nodes": [[["batch_normalization_21", 0, 0, {}]]]}, {"config": {"kernel_size": [3, 3], "name": "conv2d_25", "bias_regularizer": null, "bias_constraint": null, "trainable": true, "kernel_constraint": null, "data_format": "channels_last", "use_bias": true, "kernel_initializer": {"config": {"distribution": "uniform", "seed": null, "scale": 1.0, "mode": "fan_avg"}, "class_name": "VarianceScaling"}, "padding": "same", "activation": "relu", "filters": 48, "activity_regularizer": null, "bias_initializer": {"config": {}, "class_name": "Zeros"}, "strides": [1, 1], "kernel_regularizer": null, "dilation_rate": [1, 1]}, "name": "conv2d_25", "class_name": "Conv2D", "inbound_nodes": [[["batch_normalization_24", 0, 0, {}]]]}, {"config": {"kernel_size": [1, 1], "name": "conv2d_26", "bias_regularizer": null, "bias_constraint": null, "trainable": true, "kernel_constraint": null, "data_format": "channels_last", "use_bias": true, "kernel_initializer": {"config": {"distribution": "uniform", "seed": null, "scale": 1.0, "mode": "fan_avg"}, "class_name": "VarianceScaling"}, "padding": "same", "activation": "relu", "filters": 16, "activity_regularizer": null, "bias_initializer": {"config": {}, "class_name": "Zeros"}, "strides": [1, 1], "kernel_regularizer": null, "dilation_rate": [1, 1]}, "name": "conv2d_26", "class_name": "Conv2D", "inbound_nodes": [[["average_pooling2d_3", 0, 0, {}]]]}, {"config": {"epsilon": 0.001, "moving_mean_initializer": {"config": {}, "class_name": "Zeros"}, "gamma_regularizer": null, "trainable": true, "center": true, "axis": 3, "beta_regularizer": null, "scale": true, "momentum": 0.99, "moving_variance_initializer": {"config": {}, "class_name": "Ones"}, "gamma_initializer": {"config": {}, "class_name": "Ones"}, "name": "batch_normalization_20", "gamma_constraint": null, "beta_initializer": {"config": {}, "class_name": "Zeros"}, "beta_constraint": null}, "name": "batch_normalization_20", "class_name": "BatchNormalization", "inbound_nodes": [[["conv2d_20", 0, 0, {}]]]}, {"config": {"epsilon": 0.001, "moving_mean_initializer": {"config": {}, "class_name": "Zeros"}, "gamma_regularizer": null, "trainable": true, "center": true, "axis": 3, "beta_regularizer": null, "scale": true, "momentum": 0.99, "moving_variance_initializer": {"config": {}, "class_name": "Ones"}, "gamma_initializer": {"config": {}, "class_name": "Ones"}, "name": "batch_normalization_22", "gamma_constraint": null, "beta_initializer": {"config": {}, "class_name": "Zeros"}, "beta_constraint": null}, "name": "batch_normalization_22", "class_name": "BatchNormalization", "inbound_nodes": [[["conv2d_22", 0, 0, {}]]]}, {"config": {"epsilon": 0.001, "moving_mean_initializer": {"config": {}, "class_name": "Zeros"}, "gamma_regularizer": null, "trainable": true, "center": true, "axis": 3, "beta_regularizer": null, "scale": true, "momentum": 0.99, "moving_variance_initializer": {"config": {}, "class_name": "Ones"}, "gamma_initializer": {"config": {}, "class_name": "Ones"}, "name": "batch_normalization_25", "gamma_constraint": null, "beta_initializer": {"config": {}, "class_name": "Zeros"}, "beta_constraint": null}, "name": "batch_normalization_25", "class_name": "BatchNormalization", "inbound_nodes": [[["conv2d_25", 0, 0, {}]]]}, {"config": {"epsilon": 0.001, "moving_mean_initializer": {"config": {}, "class_name": "Zeros"}, "gamma_regularizer": null, "trainable": true, "center": true, "axis": 3, "beta_regularizer": null, "scale": true, "momentum": 0.99, "moving_variance_initializer": {"config": {}, "class_name": "Ones"}, "gamma_initializer": {"config": {}, "class_name": "Ones"}, "name": "batch_normalization_26", "gamma_constraint": null, "beta_initializer": {"config": {}, "class_name": "Zeros"}, "beta_constraint": null}, "name": "batch_normalization_26", "class_name": "BatchNormalization", "inbound_nodes": [[["conv2d_26", 0, 0, {}]]]}, {"config": {"name": "mixed2", "trainable": true, "axis": -1}, "name": "mixed2", "class_name": "Concatenate", "inbound_nodes": [[["batch_normalization_20", 0, 0, {}], ["batch_normalization_22", 0, 0, {}], ["batch_normalization_25", 0, 0, {}], ["batch_normalization_26", 0, 0, {}]]]}, {"config": {"kernel_size": [1, 1], "name": "conv2d_28", "bias_regularizer": null, "bias_constraint": null, "trainable": true, "kernel_constraint": null, "data_format": "channels_last", "use_bias": true, "kernel_initializer": {"config": {"distribution": "uniform", "seed": null, "scale": 1.0, "mode": "fan_avg"}, "class_name": "VarianceScaling"}, "padding": "same", "activation": "relu", "filters": 32, "activity_regularizer": null, "bias_initializer": {"config": {}, "class_name": "Zeros"}, "strides": [1, 1], "kernel_regularizer": null, "dilation_rate": [1, 1]}, "name": "conv2d_28", "class_name": "Conv2D", "inbound_nodes": [[["mixed2", 0, 0, {}]]]}, {"config": {"epsilon": 0.001, "moving_mean_initializer": {"config": {}, "class_name": "Zeros"}, "gamma_regularizer": null, "trainable": true, "center": true, "axis": 3, "beta_regularizer": null, "scale": true, "momentum": 0.99, "moving_variance_initializer": {"config": {}, "class_name": "Ones"}, "gamma_initializer": {"config": {}, "class_name": "Ones"}, "name": "batch_normalization_28", "gamma_constraint": null, "beta_initializer": {"config": {}, "class_name": "Zeros"}, "beta_constraint": null}, "name": "batch_normalization_28", "class_name": "BatchNormalization", "inbound_nodes": [[["conv2d_28", 0, 0, {}]]]}, {"config": {"kernel_size": [3, 3], "name": "conv2d_29", "bias_regularizer": null, "bias_constraint": null, "trainable": true, "kernel_constraint": null, "data_format": "channels_last", "use_bias": true, "kernel_initializer": {"config": {"distribution": "uniform", "seed": null, "scale": 1.0, "mode": "fan_avg"}, "class_name": "VarianceScaling"}, "padding": "same", "activation": "relu", "filters": 48, "activity_regularizer": null, "bias_initializer": {"config": {}, "class_name": "Zeros"}, "strides": [1, 1], "kernel_regularizer": null, "dilation_rate": [1, 1]}, "name": "conv2d_29", "class_name": "Conv2D", "inbound_nodes": [[["batch_normalization_28", 0, 0, {}]]]}, {"config": {"epsilon": 0.001, "moving_mean_initializer": {"config": {}, "class_name": "Zeros"}, "gamma_regularizer": null, "trainable": true, "center": true, "axis": 3, "beta_regularizer": null, "scale": true, "momentum": 0.99, "moving_variance_initializer": {"config": {}, "class_name": "Ones"}, "gamma_initializer": {"config": {}, "class_name": "Ones"}, "name": "batch_normalization_29", "gamma_constraint": null, "beta_initializer": {"config": {}, "class_name": "Zeros"}, "beta_constraint": null}, "name": "batch_normalization_29", "class_name": "BatchNormalization", "inbound_nodes": [[["conv2d_29", 0, 0, {}]]]}, {"config": {"kernel_size": [3, 3], "name": "conv2d_27", "bias_regularizer": null, "bias_constraint": null, "trainable": true, "kernel_constraint": null, "data_format": "channels_last", "use_bias": true, "kernel_initializer": {"config": {"distribution": "uniform", "seed": null, "scale": 1.0, "mode": "fan_avg"}, "class_name": "VarianceScaling"}, "padding": "valid", "activation": "relu", "filters": 192, "activity_regularizer": null, "bias_initializer": {"config": {}, "class_name": "Zeros"}, "strides": [2, 2], "kernel_regularizer": null, "dilation_rate": [1, 1]}, "name": "conv2d_27", "class_name": "Conv2D", "inbound_nodes": [[["mixed2", 0, 0, {}]]]}, {"config": {"kernel_size": [3, 3], "name": "conv2d_30", "bias_regularizer": null, "bias_constraint": null, "trainable": true, "kernel_constraint": null, "data_format": "channels_last", "use_bias": true, "kernel_initializer": {"config": {"distribution": "uniform", "seed": null, "scale": 1.0, "mode": "fan_avg"}, "class_name": "VarianceScaling"}, "padding": "valid", "activation": "relu", "filters": 48, "activity_regularizer": null, "bias_initializer": {"config": {}, "class_name": "Zeros"}, "strides": [2, 2], "kernel_regularizer": null, "dilation_rate": [1, 1]}, "name": "conv2d_30", "class_name": "Conv2D", "inbound_nodes": [[["batch_normalization_29", 0, 0, {}]]]}, {"config": {"epsilon": 0.001, "moving_mean_initializer": {"config": {}, "class_name": "Zeros"}, "gamma_regularizer": null, "trainable": true, "center": true, "axis": 3, "beta_regularizer": null, "scale": true, "momentum": 0.99, "moving_variance_initializer": {"config": {}, "class_name": "Ones"}, "gamma_initializer": {"config": {}, "class_name": "Ones"}, "name": "batch_normalization_27", "gamma_constraint": null, "beta_initializer": {"config": {}, "class_name": "Zeros"}, "beta_constraint": null}, "name": "batch_normalization_27", "class_name": "BatchNormalization", "inbound_nodes": [[["conv2d_27", 0, 0, {}]]]}, {"config": {"epsilon": 0.001, "moving_mean_initializer": {"config": {}, "class_name": "Zeros"}, "gamma_regularizer": null, "trainable": true, "center": true, "axis": 3, "beta_regularizer": null, "scale": true, "momentum": 0.99, "moving_variance_initializer": {"config": {}, "class_name": "Ones"}, "gamma_initializer": {"config": {}, "class_name": "Ones"}, "name": "batch_normalization_30", "gamma_constraint": null, "beta_initializer": {"config": {}, "class_name": "Zeros"}, "beta_constraint": null}, "name": "batch_normalization_30", "class_name": "BatchNormalization", "inbound_nodes": [[["conv2d_30", 0, 0, {}]]]}, {"config": {"padding": "valid", "name": "max_pooling2d_3", "trainable": true, "pool_size": [3, 3], "data_format": "channels_last", "strides": [2, 2]}, "name": "max_pooling2d_3", "class_name": "MaxPooling2D", "inbound_nodes": [[["mixed2", 0, 0, {}]]]}, {"config": {"name": "mixed3", "trainable": true, "axis": -1}, "name": "mixed3", "class_name": "Concatenate", "inbound_nodes": [[["batch_normalization_27", 0, 0, {}], ["batch_normalization_30", 0, 0, {}], ["max_pooling2d_3", 0, 0, {}]]]}, {"config": {"kernel_size": [1, 1], "name": "conv2d_35", "bias_regularizer": null, "bias_constraint": null, "trainable": true, "kernel_constraint": null, "data_format": "channels_last", "use_bias": true, "kernel_initializer": {"config": {"distribution": "uniform", "seed": null, "scale": 1.0, "mode": "fan_avg"}, "class_name": "VarianceScaling"}, "padding": "same", "activation": "relu", "filters": 64, "activity_regularizer": null, "bias_initializer": {"config": {}, "class_name": "Zeros"}, "strides": [1, 1], "kernel_regularizer": null, "dilation_rate": [1, 1]}, "name": "conv2d_35", "class_name": "Conv2D", "inbound_nodes": [[["mixed3", 0, 0, {}]]]}, {"config": {"epsilon": 0.001, "moving_mean_initializer": {"config": {}, "class_name": "Zeros"}, "gamma_regularizer": null, "trainable": true, "center": true, "axis": 3, "beta_regularizer": null, "scale": true, "momentum": 0.99, "moving_variance_initializer": {"config": {}, "class_name": "Ones"}, "gamma_initializer": {"config": {}, "class_name": "Ones"}, "name": "batch_normalization_35", "gamma_constraint": null, "beta_initializer": {"config": {}, "class_name": "Zeros"}, "beta_constraint": null}, "name": "batch_normalization_35", "class_name": "BatchNormalization", "inbound_nodes": [[["conv2d_35", 0, 0, {}]]]}, {"config": {"kernel_size": [7, 1], "name": "conv2d_36", "bias_regularizer": null, "bias_constraint": null, "trainable": true, "kernel_constraint": null, "data_format": "channels_last", "use_bias": true, "kernel_initializer": {"config": {"distribution": "uniform", "seed": null, "scale": 1.0, "mode": "fan_avg"}, "class_name": "VarianceScaling"}, "padding": "same", "activation": "relu", "filters": 64, "activity_regularizer": null, "bias_initializer": {"config": {}, "class_name": "Zeros"}, "strides": [1, 1], "kernel_regularizer": null, "dilation_rate": [1, 1]}, "name": "conv2d_36", "class_name": "Conv2D", "inbound_nodes": [[["batch_normalization_35", 0, 0, {}]]]}, {"config": {"epsilon": 0.001, "moving_mean_initializer": {"config": {}, "class_name": "Zeros"}, "gamma_regularizer": null, "trainable": true, "center": true, "axis": 3, "beta_regularizer": null, "scale": true, "momentum": 0.99, "moving_variance_initializer": {"config": {}, "class_name": "Ones"}, "gamma_initializer": {"config": {}, "class_name": "Ones"}, "name": "batch_normalization_36", "gamma_constraint": null, "beta_initializer": {"config": {}, "class_name": "Zeros"}, "beta_constraint": null}, "name": "batch_normalization_36", "class_name": "BatchNormalization", "inbound_nodes": [[["conv2d_36", 0, 0, {}]]]}, {"config": {"kernel_size": [1, 1], "name": "conv2d_32", "bias_regularizer": null, "bias_constraint": null, "trainable": true, "kernel_constraint": null, "data_format": "channels_last", "use_bias": true, "kernel_initializer": {"config": {"distribution": "uniform", "seed": null, "scale": 1.0, "mode": "fan_avg"}, "class_name": "VarianceScaling"}, "padding": "same", "activation": "relu", "filters": 64, "activity_regularizer": null, "bias_initializer": {"config": {}, "class_name": "Zeros"}, "strides": [1, 1], "kernel_regularizer": null, "dilation_rate": [1, 1]}, "name": "conv2d_32", "class_name": "Conv2D", "inbound_nodes": [[["mixed3", 0, 0, {}]]]}, {"config": {"kernel_size": [1, 7], "name": "conv2d_37", "bias_regularizer": null, "bias_constraint": null, "trainable": true, "kernel_constraint": null, "data_format": "channels_last", "use_bias": true, "kernel_initializer": {"config": {"distribution": "uniform", "seed": null, "scale": 1.0, "mode": "fan_avg"}, "class_name": "VarianceScaling"}, "padding": "same", "activation": "relu", "filters": 64, "activity_regularizer": null, "bias_initializer": {"config": {}, "class_name": "Zeros"}, "strides": [1, 1], "kernel_regularizer": null, "dilation_rate": [1, 1]}, "name": "conv2d_37", "class_name": "Conv2D", "inbound_nodes": [[["batch_normalization_36", 0, 0, {}]]]}, {"config": {"epsilon": 0.001, "moving_mean_initializer": {"config": {}, "class_name": "Zeros"}, "gamma_regularizer": null, "trainable": true, "center": true, "axis": 3, "beta_regularizer": null, "scale": true, "momentum": 0.99, "moving_variance_initializer": {"config": {}, "class_name": "Ones"}, "gamma_initializer": {"config": {}, "class_name": "Ones"}, "name": "batch_normalization_32", "gamma_constraint": null, "beta_initializer": {"config": {}, "class_name": "Zeros"}, "beta_constraint": null}, "name": "batch_normalization_32", "class_name": "BatchNormalization", "inbound_nodes": [[["conv2d_32", 0, 0, {}]]]}, {"config": {"epsilon": 0.001, "moving_mean_initializer": {"config": {}, "class_name": "Zeros"}, "gamma_regularizer": null, "trainable": true, "center": true, "axis": 3, "beta_regularizer": null, "scale": true, "momentum": 0.99, "moving_variance_initializer": {"config": {}, "class_name": "Ones"}, "gamma_initializer": {"config": {}, "class_name": "Ones"}, "name": "batch_normalization_37", "gamma_constraint": null, "beta_initializer": {"config": {}, "class_name": "Zeros"}, "beta_constraint": null}, "name": "batch_normalization_37", "class_name": "BatchNormalization", "inbound_nodes": [[["conv2d_37", 0, 0, {}]]]}, {"config": {"kernel_size": [1, 7], "name": "conv2d_33", "bias_regularizer": null, "bias_constraint": null, "trainable": true, "kernel_constraint": null, "data_format": "channels_last", "use_bias": true, "kernel_initializer": {"config": {"distribution": "uniform", "seed": null, "scale": 1.0, "mode": "fan_avg"}, "class_name": "VarianceScaling"}, "padding": "same", "activation": "relu", "filters": 64, "activity_regularizer": null, "bias_initializer": {"config": {}, "class_name": "Zeros"}, "strides": [1, 1], "kernel_regularizer": null, "dilation_rate": [1, 1]}, "name": "conv2d_33", "class_name": "Conv2D", "inbound_nodes": [[["batch_normalization_32", 0, 0, {}]]]}, {"config": {"kernel_size": [7, 1], "name": "conv2d_38", "bias_regularizer": null, "bias_constraint": null, "trainable": true, "kernel_constraint": null, "data_format": "channels_last", "use_bias": true, "kernel_initializer": {"config": {"distribution": "uniform", "seed": null, "scale": 1.0, "mode": "fan_avg"}, "class_name": "VarianceScaling"}, "padding": "same", "activation": "relu", "filters": 64, "activity_regularizer": null, "bias_initializer": {"config": {}, "class_name": "Zeros"}, "strides": [1, 1], "kernel_regularizer": null, "dilation_rate": [1, 1]}, "name": "conv2d_38", "class_name": "Conv2D", "inbound_nodes": [[["batch_normalization_37", 0, 0, {}]]]}, {"config": {"epsilon": 0.001, "moving_mean_initializer": {"config": {}, "class_name": "Zeros"}, "gamma_regularizer": null, "trainable": true, "center": true, "axis": 3, "beta_regularizer": null, "scale": true, "momentum": 0.99, "moving_variance_initializer": {"config": {}, "class_name": "Ones"}, "gamma_initializer": {"config": {}, "class_name": "Ones"}, "name": "batch_normalization_33", "gamma_constraint": null, "beta_initializer": {"config": {}, "class_name": "Zeros"}, "beta_constraint": null}, "name": "batch_normalization_33", "class_name": "BatchNormalization", "inbound_nodes": [[["conv2d_33", 0, 0, {}]]]}, {"config": {"epsilon": 0.001, "moving_mean_initializer": {"config": {}, "class_name": "Zeros"}, "gamma_regularizer": null, "trainable": true, "center": true, "axis": 3, "beta_regularizer": null, "scale": true, "momentum": 0.99, "moving_variance_initializer": {"config": {}, "class_name": "Ones"}, "gamma_initializer": {"config": {}, "class_name": "Ones"}, "name": "batch_normalization_38", "gamma_constraint": null, "beta_initializer": {"config": {}, "class_name": "Zeros"}, "beta_constraint": null}, "name": "batch_normalization_38", "class_name": "BatchNormalization", "inbound_nodes": [[["conv2d_38", 0, 0, {}]]]}, {"config": {"padding": "same", "name": "average_pooling2d_4", "trainable": true, "pool_size": [3, 3], "data_format": "channels_last", "strides": [1, 1]}, "name": "average_pooling2d_4", "class_name": "AveragePooling2D", "inbound_nodes": [[["mixed3", 0, 0, {}]]]}, {"config": {"kernel_size": [1, 1], "name": "conv2d_31", "bias_regularizer": null, "bias_constraint": null, "trainable": true, "kernel_constraint": null, "data_format": "channels_last", "use_bias": true, "kernel_initializer": {"config": {"distribution": "uniform", "seed": null, "scale": 1.0, "mode": "fan_avg"}, "class_name": "VarianceScaling"}, "padding": "same", "activation": "relu", "filters": 96, "activity_regularizer": null, "bias_initializer": {"config": {}, "class_name": "Zeros"}, "strides": [1, 1], "kernel_regularizer": null, "dilation_rate": [1, 1]}, "name": "conv2d_31", "class_name": "Conv2D", "inbound_nodes": [[["mixed3", 0, 0, {}]]]}, {"config": {"kernel_size": [7, 1], "name": "conv2d_34", "bias_regularizer": null, "bias_constraint": null, "trainable": true, "kernel_constraint": null, "data_format": "channels_last", "use_bias": true, "kernel_initializer": {"config": {"distribution": "uniform", "seed": null, "scale": 1.0, "mode": "fan_avg"}, "class_name": "VarianceScaling"}, "padding": "same", "activation": "relu", "filters": 96, "activity_regularizer": null, "bias_initializer": {"config": {}, "class_name": "Zeros"}, "strides": [1, 1], "kernel_regularizer": null, "dilation_rate": [1, 1]}, "name": "conv2d_34", "class_name": "Conv2D", "inbound_nodes": [[["batch_normalization_33", 0, 0, {}]]]}, {"config": {"kernel_size": [1, 7], "name": "conv2d_39", "bias_regularizer": null, "bias_constraint": null, "trainable": true, "kernel_constraint": null, "data_format": "channels_last", "use_bias": true, "kernel_initializer": {"config": {"distribution": "uniform", "seed": null, "scale": 1.0, "mode": "fan_avg"}, "class_name": "VarianceScaling"}, "padding": "same", "activation": "relu", "filters": 96, "activity_regularizer": null, "bias_initializer": {"config": {}, "class_name": "Zeros"}, "strides": [1, 1], "kernel_regularizer": null, "dilation_rate": [1, 1]}, "name": "conv2d_39", "class_name": "Conv2D", "inbound_nodes": [[["batch_normalization_38", 0, 0, {}]]]}, {"config": {"kernel_size": [1, 1], "name": "conv2d_40", "bias_regularizer": null, "bias_constraint": null, "trainable": true, "kernel_constraint": null, "data_format": "channels_last", "use_bias": true, "kernel_initializer": {"config": {"distribution": "uniform", "seed": null, "scale": 1.0, "mode": "fan_avg"}, "class_name": "VarianceScaling"}, "padding": "same", "activation": "relu", "filters": 96, "activity_regularizer": null, "bias_initializer": {"config": {}, "class_name": "Zeros"}, "strides": [1, 1], "kernel_regularizer": null, "dilation_rate": [1, 1]}, "name": "conv2d_40", "class_name": "Conv2D", "inbound_nodes": [[["average_pooling2d_4", 0, 0, {}]]]}, {"config": {"epsilon": 0.001, "moving_mean_initializer": {"config": {}, "class_name": "Zeros"}, "gamma_regularizer": null, "trainable": true, "center": true, "axis": 3, "beta_regularizer": null, "scale": true, "momentum": 0.99, "moving_variance_initializer": {"config": {}, "class_name": "Ones"}, "gamma_initializer": {"config": {}, "class_name": "Ones"}, "name": "batch_normalization_31", "gamma_constraint": null, "beta_initializer": {"config": {}, "class_name": "Zeros"}, "beta_constraint": null}, "name": "batch_normalization_31", "class_name": "BatchNormalization", "inbound_nodes": [[["conv2d_31", 0, 0, {}]]]}, {"config": {"epsilon": 0.001, "moving_mean_initializer": {"config": {}, "class_name": "Zeros"}, "gamma_regularizer": null, "trainable": true, "center": true, "axis": 3, "beta_regularizer": null, "scale": true, "momentum": 0.99, "moving_variance_initializer": {"config": {}, "class_name": "Ones"}, "gamma_initializer": {"config": {}, "class_name": "Ones"}, "name": "batch_normalization_34", "gamma_constraint": null, "beta_initializer": {"config": {}, "class_name": "Zeros"}, "beta_constraint": null}, "name": "batch_normalization_34", "class_name": "BatchNormalization", "inbound_nodes": [[["conv2d_34", 0, 0, {}]]]}, {"config": {"epsilon": 0.001, "moving_mean_initializer": {"config": {}, "class_name": "Zeros"}, "gamma_regularizer": null, "trainable": true, "center": true, "axis": 3, "beta_regularizer": null, "scale": true, "momentum": 0.99, "moving_variance_initializer": {"config": {}, "class_name": "Ones"}, "gamma_initializer": {"config": {}, "class_name": "Ones"}, "name": "batch_normalization_39", "gamma_constraint": null, "beta_initializer": {"config": {}, "class_name": "Zeros"}, "beta_constraint": null}, "name": "batch_normalization_39", "class_name": "BatchNormalization", "inbound_nodes": [[["conv2d_39", 0, 0, {}]]]}, {"config": {"epsilon": 0.001, "moving_mean_initializer": {"config": {}, "class_name": "Zeros"}, "gamma_regularizer": null, "trainable": true, "center": true, "axis": 3, "beta_regularizer": null, "scale": true, "momentum": 0.99, "moving_variance_initializer": {"config": {}, "class_name": "Ones"}, "gamma_initializer": {"config": {}, "class_name": "Ones"}, "name": "batch_normalization_40", "gamma_constraint": null, "beta_initializer": {"config": {}, "class_name": "Zeros"}, "beta_constraint": null}, "name": "batch_normalization_40", "class_name": "BatchNormalization", "inbound_nodes": [[["conv2d_40", 0, 0, {}]]]}, {"config": {"name": "mixed4", "trainable": true, "axis": -1}, "name": "mixed4", "class_name": "Concatenate", "inbound_nodes": [[["batch_normalization_31", 0, 0, {}], ["batch_normalization_34", 0, 0, {}], ["batch_normalization_39", 0, 0, {}], ["batch_normalization_40", 0, 0, {}]]]}, {"config": {"kernel_size": [1, 1], "name": "conv2d_45", "bias_regularizer": null, "bias_constraint": null, "trainable": true, "kernel_constraint": null, "data_format": "channels_last", "use_bias": true, "kernel_initializer": {"config": {"distribution": "uniform", "seed": null, "scale": 1.0, "mode": "fan_avg"}, "class_name": "VarianceScaling"}, "padding": "same", "activation": "relu", "filters": 80, "activity_regularizer": null, "bias_initializer": {"config": {}, "class_name": "Zeros"}, "strides": [1, 1], "kernel_regularizer": null, "dilation_rate": [1, 1]}, "name": "conv2d_45", "class_name": "Conv2D", "inbound_nodes": [[["mixed4", 0, 0, {}]]]}, {"config": {"epsilon": 0.001, "moving_mean_initializer": {"config": {}, "class_name": "Zeros"}, "gamma_regularizer": null, "trainable": true, "center": true, "axis": 3, "beta_regularizer": null, "scale": true, "momentum": 0.99, "moving_variance_initializer": {"config": {}, "class_name": "Ones"}, "gamma_initializer": {"config": {}, "class_name": "Ones"}, "name": "batch_normalization_45", "gamma_constraint": null, "beta_initializer": {"config": {}, "class_name": "Zeros"}, "beta_constraint": null}, "name": "batch_normalization_45", "class_name": "BatchNormalization", "inbound_nodes": [[["conv2d_45", 0, 0, {}]]]}, {"config": {"kernel_size": [7, 1], "name": "conv2d_46", "bias_regularizer": null, "bias_constraint": null, "trainable": true, "kernel_constraint": null, "data_format": "channels_last", "use_bias": true, "kernel_initializer": {"config": {"distribution": "uniform", "seed": null, "scale": 1.0, "mode": "fan_avg"}, "class_name": "VarianceScaling"}, "padding": "same", "activation": "relu", "filters": 80, "activity_regularizer": null, "bias_initializer": {"config": {}, "class_name": "Zeros"}, "strides": [1, 1], "kernel_regularizer": null, "dilation_rate": [1, 1]}, "name": "conv2d_46", "class_name": "Conv2D", "inbound_nodes": [[["batch_normalization_45", 0, 0, {}]]]}, {"config": {"epsilon": 0.001, "moving_mean_initializer": {"config": {}, "class_name": "Zeros"}, "gamma_regularizer": null, "trainable": true, "center": true, "axis": 3, "beta_regularizer": null, "scale": true, "momentum": 0.99, "moving_variance_initializer": {"config": {}, "class_name": "Ones"}, "gamma_initializer": {"config": {}, "class_name": "Ones"}, "name": "batch_normalization_46", "gamma_constraint": null, "beta_initializer": {"config": {}, "class_name": "Zeros"}, "beta_constraint": null}, "name": "batch_normalization_46", "class_name": "BatchNormalization", "inbound_nodes": [[["conv2d_46", 0, 0, {}]]]}, {"config": {"kernel_size": [1, 1], "name": "conv2d_42", "bias_regularizer": null, "bias_constraint": null, "trainable": true, "kernel_constraint": null, "data_format": "channels_last", "use_bias": true, "kernel_initializer": {"config": {"distribution": "uniform", "seed": null, "scale": 1.0, "mode": "fan_avg"}, "class_name": "VarianceScaling"}, "padding": "same", "activation": "relu", "filters": 80, "activity_regularizer": null, "bias_initializer": {"config": {}, "class_name": "Zeros"}, "strides": [1, 1], "kernel_regularizer": null, "dilation_rate": [1, 1]}, "name": "conv2d_42", "class_name": "Conv2D", "inbound_nodes": [[["mixed4", 0, 0, {}]]]}, {"config": {"kernel_size": [1, 7], "name": "conv2d_47", "bias_regularizer": null, "bias_constraint": null, "trainable": true, "kernel_constraint": null, "data_format": "channels_last", "use_bias": true, "kernel_initializer": {"config": {"distribution": "uniform", "seed": null, "scale": 1.0, "mode": "fan_avg"}, "class_name": "VarianceScaling"}, "padding": "same", "activation": "relu", "filters": 80, "activity_regularizer": null, "bias_initializer": {"config": {}, "class_name": "Zeros"}, "strides": [1, 1], "kernel_regularizer": null, "dilation_rate": [1, 1]}, "name": "conv2d_47", "class_name": "Conv2D", "inbound_nodes": [[["batch_normalization_46", 0, 0, {}]]]}, {"config": {"epsilon": 0.001, "moving_mean_initializer": {"config": {}, "class_name": "Zeros"}, "gamma_regularizer": null, "trainable": true, "center": true, "axis": 3, "beta_regularizer": null, "scale": true, "momentum": 0.99, "moving_variance_initializer": {"config": {}, "class_name": "Ones"}, "gamma_initializer": {"config": {}, "class_name": "Ones"}, "name": "batch_normalization_42", "gamma_constraint": null, "beta_initializer": {"config": {}, "class_name": "Zeros"}, "beta_constraint": null}, "name": "batch_normalization_42", "class_name": "BatchNormalization", "inbound_nodes": [[["conv2d_42", 0, 0, {}]]]}, {"config": {"epsilon": 0.001, "moving_mean_initializer": {"config": {}, "class_name": "Zeros"}, "gamma_regularizer": null, "trainable": true, "center": true, "axis": 3, "beta_regularizer": null, "scale": true, "momentum": 0.99, "moving_variance_initializer": {"config": {}, "class_name": "Ones"}, "gamma_initializer": {"config": {}, "class_name": "Ones"}, "name": "batch_normalization_47", "gamma_constraint": null, "beta_initializer": {"config": {}, "class_name": "Zeros"}, "beta_constraint": null}, "name": "batch_normalization_47", "class_name": "BatchNormalization", "inbound_nodes": [[["conv2d_47", 0, 0, {}]]]}, {"config": {"kernel_size": [1, 7], "name": "conv2d_43", "bias_regularizer": null, "bias_constraint": null, "trainable": true, "kernel_constraint": null, "data_format": "channels_last", "use_bias": true, "kernel_initializer": {"config": {"distribution": "uniform", "seed": null, "scale": 1.0, "mode": "fan_avg"}, "class_name": "VarianceScaling"}, "padding": "same", "activation": "relu", "filters": 80, "activity_regularizer": null, "bias_initializer": {"config": {}, "class_name": "Zeros"}, "strides": [1, 1], "kernel_regularizer": null, "dilation_rate": [1, 1]}, "name": "conv2d_43", "class_name": "Conv2D", "inbound_nodes": [[["batch_normalization_42", 0, 0, {}]]]}, {"config": {"kernel_size": [7, 1], "name": "conv2d_48", "bias_regularizer": null, "bias_constraint": null, "trainable": true, "kernel_constraint": null, "data_format": "channels_last", "use_bias": true, "kernel_initializer": {"config": {"distribution": "uniform", "seed": null, "scale": 1.0, "mode": "fan_avg"}, "class_name": "VarianceScaling"}, "padding": "same", "activation": "relu", "filters": 80, "activity_regularizer": null, "bias_initializer": {"config": {}, "class_name": "Zeros"}, "strides": [1, 1], "kernel_regularizer": null, "dilation_rate": [1, 1]}, "name": "conv2d_48", "class_name": "Conv2D", "inbound_nodes": [[["batch_normalization_47", 0, 0, {}]]]}, {"config": {"epsilon": 0.001, "moving_mean_initializer": {"config": {}, "class_name": "Zeros"}, "gamma_regularizer": null, "trainable": true, "center": true, "axis": 3, "beta_regularizer": null, "scale": true, "momentum": 0.99, "moving_variance_initializer": {"config": {}, "class_name": "Ones"}, "gamma_initializer": {"config": {}, "class_name": "Ones"}, "name": "batch_normalization_43", "gamma_constraint": null, "beta_initializer": {"config": {}, "class_name": "Zeros"}, "beta_constraint": null}, "name": "batch_normalization_43", "class_name": "BatchNormalization", "inbound_nodes": [[["conv2d_43", 0, 0, {}]]]}, {"config": {"epsilon": 0.001, "moving_mean_initializer": {"config": {}, "class_name": "Zeros"}, "gamma_regularizer": null, "trainable": true, "center": true, "axis": 3, "beta_regularizer": null, "scale": true, "momentum": 0.99, "moving_variance_initializer": {"config": {}, "class_name": "Ones"}, "gamma_initializer": {"config": {}, "class_name": "Ones"}, "name": "batch_normalization_48", "gamma_constraint": null, "beta_initializer": {"config": {}, "class_name": "Zeros"}, "beta_constraint": null}, "name": "batch_normalization_48", "class_name": "BatchNormalization", "inbound_nodes": [[["conv2d_48", 0, 0, {}]]]}, {"config": {"padding": "same", "name": "average_pooling2d_5", "trainable": true, "pool_size": [3, 3], "data_format": "channels_last", "strides": [1, 1]}, "name": "average_pooling2d_5", "class_name": "AveragePooling2D", "inbound_nodes": [[["mixed4", 0, 0, {}]]]}, {"config": {"kernel_size": [1, 1], "name": "conv2d_41", "bias_regularizer": null, "bias_constraint": null, "trainable": true, "kernel_constraint": null, "data_format": "channels_last", "use_bias": true, "kernel_initializer": {"config": {"distribution": "uniform", "seed": null, "scale": 1.0, "mode": "fan_avg"}, "class_name": "VarianceScaling"}, "padding": "same", "activation": "relu", "filters": 96, "activity_regularizer": null, "bias_initializer": {"config": {}, "class_name": "Zeros"}, "strides": [1, 1], "kernel_regularizer": null, "dilation_rate": [1, 1]}, "name": "conv2d_41", "class_name": "Conv2D", "inbound_nodes": [[["mixed4", 0, 0, {}]]]}, {"config": {"kernel_size": [7, 1], "name": "conv2d_44", "bias_regularizer": null, "bias_constraint": null, "trainable": true, "kernel_constraint": null, "data_format": "channels_last", "use_bias": true, "kernel_initializer": {"config": {"distribution": "uniform", "seed": null, "scale": 1.0, "mode": "fan_avg"}, "class_name": "VarianceScaling"}, "padding": "same", "activation": "relu", "filters": 96, "activity_regularizer": null, "bias_initializer": {"config": {}, "class_name": "Zeros"}, "strides": [1, 1], "kernel_regularizer": null, "dilation_rate": [1, 1]}, "name": "conv2d_44", "class_name": "Conv2D", "inbound_nodes": [[["batch_normalization_43", 0, 0, {}]]]}, {"config": {"kernel_size": [1, 7], "name": "conv2d_49", "bias_regularizer": null, "bias_constraint": null, "trainable": true, "kernel_constraint": null, "data_format": "channels_last", "use_bias": true, "kernel_initializer": {"config": {"distribution": "uniform", "seed": null, "scale": 1.0, "mode": "fan_avg"}, "class_name": "VarianceScaling"}, "padding": "same", "activation": "relu", "filters": 96, "activity_regularizer": null, "bias_initializer": {"config": {}, "class_name": "Zeros"}, "strides": [1, 1], "kernel_regularizer": null, "dilation_rate": [1, 1]}, "name": "conv2d_49", "class_name": "Conv2D", "inbound_nodes": [[["batch_normalization_48", 0, 0, {}]]]}, {"config": {"kernel_size": [1, 1], "name": "conv2d_50", "bias_regularizer": null, "bias_constraint": null, "trainable": true, "kernel_constraint": null, "data_format": "channels_last", "use_bias": true, "kernel_initializer": {"config": {"distribution": "uniform", "seed": null, "scale": 1.0, "mode": "fan_avg"}, "class_name": "VarianceScaling"}, "padding": "same", "activation": "relu", "filters": 96, "activity_regularizer": null, "bias_initializer": {"config": {}, "class_name": "Zeros"}, "strides": [1, 1], "kernel_regularizer": null, "dilation_rate": [1, 1]}, "name": "conv2d_50", "class_name": "Conv2D", "inbound_nodes": [[["average_pooling2d_5", 0, 0, {}]]]}, {"config": {"epsilon": 0.001, "moving_mean_initializer": {"config": {}, "class_name": "Zeros"}, "gamma_regularizer": null, "trainable": true, "center": true, "axis": 3, "beta_regularizer": null, "scale": true, "momentum": 0.99, "moving_variance_initializer": {"config": {}, "class_name": "Ones"}, "gamma_initializer": {"config": {}, "class_name": "Ones"}, "name": "batch_normalization_41", "gamma_constraint": null, "beta_initializer": {"config": {}, "class_name": "Zeros"}, "beta_constraint": null}, "name": "batch_normalization_41", "class_name": "BatchNormalization", "inbound_nodes": [[["conv2d_41", 0, 0, {}]]]}, {"config": {"epsilon": 0.001, "moving_mean_initializer": {"config": {}, "class_name": "Zeros"}, "gamma_regularizer": null, "trainable": true, "center": true, "axis": 3, "beta_regularizer": null, "scale": true, "momentum": 0.99, "moving_variance_initializer": {"config": {}, "class_name": "Ones"}, "gamma_initializer": {"config": {}, "class_name": "Ones"}, "name": "batch_normalization_44", "gamma_constraint": null, "beta_initializer": {"config": {}, "class_name": "Zeros"}, "beta_constraint": null}, "name": "batch_normalization_44", "class_name": "BatchNormalization", "inbound_nodes": [[["conv2d_44", 0, 0, {}]]]}, {"config": {"epsilon": 0.001, "moving_mean_initializer": {"config": {}, "class_name": "Zeros"}, "gamma_regularizer": null, "trainable": true, "center": true, "axis": 3, "beta_regularizer": null, "scale": true, "momentum": 0.99, "moving_variance_initializer": {"config": {}, "class_name": "Ones"}, "gamma_initializer": {"config": {}, "class_name": "Ones"}, "name": "batch_normalization_49", "gamma_constraint": null, "beta_initializer": {"config": {}, "class_name": "Zeros"}, "beta_constraint": null}, "name": "batch_normalization_49", "class_name": "BatchNormalization", "inbound_nodes": [[["conv2d_49", 0, 0, {}]]]}, {"config": {"epsilon": 0.001, "moving_mean_initializer": {"config": {}, "class_name": "Zeros"}, "gamma_regularizer": null, "trainable": true, "center": true, "axis": 3, "beta_regularizer": null, "scale": true, "momentum": 0.99, "moving_variance_initializer": {"config": {}, "class_name": "Ones"}, "gamma_initializer": {"config": {}, "class_name": "Ones"}, "name": "batch_normalization_50", "gamma_constraint": null, "beta_initializer": {"config": {}, "class_name": "Zeros"}, "beta_constraint": null}, "name": "batch_normalization_50", "class_name": "BatchNormalization", "inbound_nodes": [[["conv2d_50", 0, 0, {}]]]}, {"config": {"name": "mixed5", "trainable": true, "axis": -1}, "name": "mixed5", "class_name": "Concatenate", "inbound_nodes": [[["batch_normalization_41", 0, 0, {}], ["batch_normalization_44", 0, 0, {}], ["batch_normalization_49", 0, 0, {}], ["batch_normalization_50", 0, 0, {}]]]}, {"config": {"kernel_size": [1, 1], "name": "conv2d_55", "bias_regularizer": null, "bias_constraint": null, "trainable": true, "kernel_constraint": null, "data_format": "channels_last", "use_bias": true, "kernel_initializer": {"config": {"distribution": "uniform", "seed": null, "scale": 1.0, "mode": "fan_avg"}, "class_name": "VarianceScaling"}, "padding": "same", "activation": "relu", "filters": 80, "activity_regularizer": null, "bias_initializer": {"config": {}, "class_name": "Zeros"}, "strides": [1, 1], "kernel_regularizer": null, "dilation_rate": [1, 1]}, "name": "conv2d_55", "class_name": "Conv2D", "inbound_nodes": [[["mixed5", 0, 0, {}]]]}, {"config": {"epsilon": 0.001, "moving_mean_initializer": {"config": {}, "class_name": "Zeros"}, "gamma_regularizer": null, "trainable": true, "center": true, "axis": 3, "beta_regularizer": null, "scale": true, "momentum": 0.99, "moving_variance_initializer": {"config": {}, "class_name": "Ones"}, "gamma_initializer": {"config": {}, "class_name": "Ones"}, "name": "batch_normalization_55", "gamma_constraint": null, "beta_initializer": {"config": {}, "class_name": "Zeros"}, "beta_constraint": null}, "name": "batch_normalization_55", "class_name": "BatchNormalization", "inbound_nodes": [[["conv2d_55", 0, 0, {}]]]}, {"config": {"kernel_size": [7, 1], "name": "conv2d_56", "bias_regularizer": null, "bias_constraint": null, "trainable": true, "kernel_constraint": null, "data_format": "channels_last", "use_bias": true, "kernel_initializer": {"config": {"distribution": "uniform", "seed": null, "scale": 1.0, "mode": "fan_avg"}, "class_name": "VarianceScaling"}, "padding": "same", "activation": "relu", "filters": 80, "activity_regularizer": null, "bias_initializer": {"config": {}, "class_name": "Zeros"}, "strides": [1, 1], "kernel_regularizer": null, "dilation_rate": [1, 1]}, "name": "conv2d_56", "class_name": "Conv2D", "inbound_nodes": [[["batch_normalization_55", 0, 0, {}]]]}, {"config": {"epsilon": 0.001, "moving_mean_initializer": {"config": {}, "class_name": "Zeros"}, "gamma_regularizer": null, "trainable": true, "center": true, "axis": 3, "beta_regularizer": null, "scale": true, "momentum": 0.99, "moving_variance_initializer": {"config": {}, "class_name": "Ones"}, "gamma_initializer": {"config": {}, "class_name": "Ones"}, "name": "batch_normalization_56", "gamma_constraint": null, "beta_initializer": {"config": {}, "class_name": "Zeros"}, "beta_constraint": null}, "name": "batch_normalization_56", "class_name": "BatchNormalization", "inbound_nodes": [[["conv2d_56", 0, 0, {}]]]}, {"config": {"kernel_size": [1, 1], "name": "conv2d_52", "bias_regularizer": null, "bias_constraint": null, "trainable": true, "kernel_constraint": null, "data_format": "channels_last", "use_bias": true, "kernel_initializer": {"config": {"distribution": "uniform", "seed": null, "scale": 1.0, "mode": "fan_avg"}, "class_name": "VarianceScaling"}, "padding": "same", "activation": "relu", "filters": 80, "activity_regularizer": null, "bias_initializer": {"config": {}, "class_name": "Zeros"}, "strides": [1, 1], "kernel_regularizer": null, "dilation_rate": [1, 1]}, "name": "conv2d_52", "class_name": "Conv2D", "inbound_nodes": [[["mixed5", 0, 0, {}]]]}, {"config": {"kernel_size": [1, 7], "name": "conv2d_57", "bias_regularizer": null, "bias_constraint": null, "trainable": true, "kernel_constraint": null, "data_format": "channels_last", "use_bias": true, "kernel_initializer": {"config": {"distribution": "uniform", "seed": null, "scale": 1.0, "mode": "fan_avg"}, "class_name": "VarianceScaling"}, "padding": "same", "activation": "relu", "filters": 80, "activity_regularizer": null, "bias_initializer": {"config": {}, "class_name": "Zeros"}, "strides": [1, 1], "kernel_regularizer": null, "dilation_rate": [1, 1]}, "name": "conv2d_57", "class_name": "Conv2D", "inbound_nodes": [[["batch_normalization_56", 0, 0, {}]]]}, {"config": {"epsilon": 0.001, "moving_mean_initializer": {"config": {}, "class_name": "Zeros"}, "gamma_regularizer": null, "trainable": true, "center": true, "axis": 3, "beta_regularizer": null, "scale": true, "momentum": 0.99, "moving_variance_initializer": {"config": {}, "class_name": "Ones"}, "gamma_initializer": {"config": {}, "class_name": "Ones"}, "name": "batch_normalization_52", "gamma_constraint": null, "beta_initializer": {"config": {}, "class_name": "Zeros"}, "beta_constraint": null}, "name": "batch_normalization_52", "class_name": "BatchNormalization", "inbound_nodes": [[["conv2d_52", 0, 0, {}]]]}, {"config": {"epsilon": 0.001, "moving_mean_initializer": {"config": {}, "class_name": "Zeros"}, "gamma_regularizer": null, "trainable": true, "center": true, "axis": 3, "beta_regularizer": null, "scale": true, "momentum": 0.99, "moving_variance_initializer": {"config": {}, "class_name": "Ones"}, "gamma_initializer": {"config": {}, "class_name": "Ones"}, "name": "batch_normalization_57", "gamma_constraint": null, "beta_initializer": {"config": {}, "class_name": "Zeros"}, "beta_constraint": null}, "name": "batch_normalization_57", "class_name": "BatchNormalization", "inbound_nodes": [[["conv2d_57", 0, 0, {}]]]}, {"config": {"kernel_size": [1, 7], "name": "conv2d_53", "bias_regularizer": null, "bias_constraint": null, "trainable": true, "kernel_constraint": null, "data_format": "channels_last", "use_bias": true, "kernel_initializer": {"config": {"distribution": "uniform", "seed": null, "scale": 1.0, "mode": "fan_avg"}, "class_name": "VarianceScaling"}, "padding": "same", "activation": "relu", "filters": 80, "activity_regularizer": null, "bias_initializer": {"config": {}, "class_name": "Zeros"}, "strides": [1, 1], "kernel_regularizer": null, "dilation_rate": [1, 1]}, "name": "conv2d_53", "class_name": "Conv2D", "inbound_nodes": [[["batch_normalization_52", 0, 0, {}]]]}, {"config": {"kernel_size": [7, 1], "name": "conv2d_58", "bias_regularizer": null, "bias_constraint": null, "trainable": true, "kernel_constraint": null, "data_format": "channels_last", "use_bias": true, "kernel_initializer": {"config": {"distribution": "uniform", "seed": null, "scale": 1.0, "mode": "fan_avg"}, "class_name": "VarianceScaling"}, "padding": "same", "activation": "relu", "filters": 80, "activity_regularizer": null, "bias_initializer": {"config": {}, "class_name": "Zeros"}, "strides": [1, 1], "kernel_regularizer": null, "dilation_rate": [1, 1]}, "name": "conv2d_58", "class_name": "Conv2D", "inbound_nodes": [[["batch_normalization_57", 0, 0, {}]]]}, {"config": {"epsilon": 0.001, "moving_mean_initializer": {"config": {}, "class_name": "Zeros"}, "gamma_regularizer": null, "trainable": true, "center": true, "axis": 3, "beta_regularizer": null, "scale": true, "momentum": 0.99, "moving_variance_initializer": {"config": {}, "class_name": "Ones"}, "gamma_initializer": {"config": {}, "class_name": "Ones"}, "name": "batch_normalization_53", "gamma_constraint": null, "beta_initializer": {"config": {}, "class_name": "Zeros"}, "beta_constraint": null}, "name": "batch_normalization_53", "class_name": "BatchNormalization", "inbound_nodes": [[["conv2d_53", 0, 0, {}]]]}, {"config": {"epsilon": 0.001, "moving_mean_initializer": {"config": {}, "class_name": "Zeros"}, "gamma_regularizer": null, "trainable": true, "center": true, "axis": 3, "beta_regularizer": null, "scale": true, "momentum": 0.99, "moving_variance_initializer": {"config": {}, "class_name": "Ones"}, "gamma_initializer": {"config": {}, "class_name": "Ones"}, "name": "batch_normalization_58", "gamma_constraint": null, "beta_initializer": {"config": {}, "class_name": "Zeros"}, "beta_constraint": null}, "name": "batch_normalization_58", "class_name": "BatchNormalization", "inbound_nodes": [[["conv2d_58", 0, 0, {}]]]}, {"config": {"padding": "same", "name": "average_pooling2d_6", "trainable": true, "pool_size": [3, 3], "data_format": "channels_last", "strides": [1, 1]}, "name": "average_pooling2d_6", "class_name": "AveragePooling2D", "inbound_nodes": [[["mixed5", 0, 0, {}]]]}, {"config": {"kernel_size": [1, 1], "name": "conv2d_51", "bias_regularizer": null, "bias_constraint": null, "trainable": true, "kernel_constraint": null, "data_format": "channels_last", "use_bias": true, "kernel_initializer": {"config": {"distribution": "uniform", "seed": null, "scale": 1.0, "mode": "fan_avg"}, "class_name": "VarianceScaling"}, "padding": "same", "activation": "relu", "filters": 96, "activity_regularizer": null, "bias_initializer": {"config": {}, "class_name": "Zeros"}, "strides": [1, 1], "kernel_regularizer": null, "dilation_rate": [1, 1]}, "name": "conv2d_51", "class_name": "Conv2D", "inbound_nodes": [[["mixed5", 0, 0, {}]]]}, {"config": {"kernel_size": [7, 1], "name": "conv2d_54", "bias_regularizer": null, "bias_constraint": null, "trainable": true, "kernel_constraint": null, "data_format": "channels_last", "use_bias": true, "kernel_initializer": {"config": {"distribution": "uniform", "seed": null, "scale": 1.0, "mode": "fan_avg"}, "class_name": "VarianceScaling"}, "padding": "same", "activation": "relu", "filters": 96, "activity_regularizer": null, "bias_initializer": {"config": {}, "class_name": "Zeros"}, "strides": [1, 1], "kernel_regularizer": null, "dilation_rate": [1, 1]}, "name": "conv2d_54", "class_name": "Conv2D", "inbound_nodes": [[["batch_normalization_53", 0, 0, {}]]]}, {"config": {"kernel_size": [1, 7], "name": "conv2d_59", "bias_regularizer": null, "bias_constraint": null, "trainable": true, "kernel_constraint": null, "data_format": "channels_last", "use_bias": true, "kernel_initializer": {"config": {"distribution": "uniform", "seed": null, "scale": 1.0, "mode": "fan_avg"}, "class_name": "VarianceScaling"}, "padding": "same", "activation": "relu", "filters": 96, "activity_regularizer": null, "bias_initializer": {"config": {}, "class_name": "Zeros"}, "strides": [1, 1], "kernel_regularizer": null, "dilation_rate": [1, 1]}, "name": "conv2d_59", "class_name": "Conv2D", "inbound_nodes": [[["batch_normalization_58", 0, 0, {}]]]}, {"config": {"kernel_size": [1, 1], "name": "conv2d_60", "bias_regularizer": null, "bias_constraint": null, "trainable": true, "kernel_constraint": null, "data_format": "channels_last", "use_bias": true, "kernel_initializer": {"config": {"distribution": "uniform", "seed": null, "scale": 1.0, "mode": "fan_avg"}, "class_name": "VarianceScaling"}, "padding": "same", "activation": "relu", "filters": 96, "activity_regularizer": null, "bias_initializer": {"config": {}, "class_name": "Zeros"}, "strides": [1, 1], "kernel_regularizer": null, "dilation_rate": [1, 1]}, "name": "conv2d_60", "class_name": "Conv2D", "inbound_nodes": [[["average_pooling2d_6", 0, 0, {}]]]}, {"config": {"epsilon": 0.001, "moving_mean_initializer": {"config": {}, "class_name": "Zeros"}, "gamma_regularizer": null, "trainable": true, "center": true, "axis": 3, "beta_regularizer": null, "scale": true, "momentum": 0.99, "moving_variance_initializer": {"config": {}, "class_name": "Ones"}, "gamma_initializer": {"config": {}, "class_name": "Ones"}, "name": "batch_normalization_51", "gamma_constraint": null, "beta_initializer": {"config": {}, "class_name": "Zeros"}, "beta_constraint": null}, "name": "batch_normalization_51", "class_name": "BatchNormalization", "inbound_nodes": [[["conv2d_51", 0, 0, {}]]]}, {"config": {"epsilon": 0.001, "moving_mean_initializer": {"config": {}, "class_name": "Zeros"}, "gamma_regularizer": null, "trainable": true, "center": true, "axis": 3, "beta_regularizer": null, "scale": true, "momentum": 0.99, "moving_variance_initializer": {"config": {}, "class_name": "Ones"}, "gamma_initializer": {"config": {}, "class_name": "Ones"}, "name": "batch_normalization_54", "gamma_constraint": null, "beta_initializer": {"config": {}, "class_name": "Zeros"}, "beta_constraint": null}, "name": "batch_normalization_54", "class_name": "BatchNormalization", "inbound_nodes": [[["conv2d_54", 0, 0, {}]]]}, {"config": {"epsilon": 0.001, "moving_mean_initializer": {"config": {}, "class_name": "Zeros"}, "gamma_regularizer": null, "trainable": true, "center": true, "axis": 3, "beta_regularizer": null, "scale": true, "momentum": 0.99, "moving_variance_initializer": {"config": {}, "class_name": "Ones"}, "gamma_initializer": {"config": {}, "class_name": "Ones"}, "name": "batch_normalization_59", "gamma_constraint": null, "beta_initializer": {"config": {}, "class_name": "Zeros"}, "beta_constraint": null}, "name": "batch_normalization_59", "class_name": "BatchNormalization", "inbound_nodes": [[["conv2d_59", 0, 0, {}]]]}, {"config": {"epsilon": 0.001, "moving_mean_initializer": {"config": {}, "class_name": "Zeros"}, "gamma_regularizer": null, "trainable": true, "center": true, "axis": 3, "beta_regularizer": null, "scale": true, "momentum": 0.99, "moving_variance_initializer": {"config": {}, "class_name": "Ones"}, "gamma_initializer": {"config": {}, "class_name": "Ones"}, "name": "batch_normalization_60", "gamma_constraint": null, "beta_initializer": {"config": {}, "class_name": "Zeros"}, "beta_constraint": null}, "name": "batch_normalization_60", "class_name": "BatchNormalization", "inbound_nodes": [[["conv2d_60", 0, 0, {}]]]}, {"config": {"name": "mixed6", "trainable": true, "axis": -1}, "name": "mixed6", "class_name": "Concatenate", "inbound_nodes": [[["batch_normalization_51", 0, 0, {}], ["batch_normalization_54", 0, 0, {}], ["batch_normalization_59", 0, 0, {}], ["batch_normalization_60", 0, 0, {}]]]}, {"config": {"kernel_size": [1, 1], "name": "conv2d_65", "bias_regularizer": null, "bias_constraint": null, "trainable": true, "kernel_constraint": null, "data_format": "channels_last", "use_bias": true, "kernel_initializer": {"config": {"distribution": "uniform", "seed": null, "scale": 1.0, "mode": "fan_avg"}, "class_name": "VarianceScaling"}, "padding": "same", "activation": "relu", "filters": 80, "activity_regularizer": null, "bias_initializer": {"config": {}, "class_name": "Zeros"}, "strides": [1, 1], "kernel_regularizer": null, "dilation_rate": [1, 1]}, "name": "conv2d_65", "class_name": "Conv2D", "inbound_nodes": [[["mixed6", 0, 0, {}]]]}, {"config": {"epsilon": 0.001, "moving_mean_initializer": {"config": {}, "class_name": "Zeros"}, "gamma_regularizer": null, "trainable": true, "center": true, "axis": 3, "beta_regularizer": null, "scale": true, "momentum": 0.99, "moving_variance_initializer": {"config": {}, "class_name": "Ones"}, "gamma_initializer": {"config": {}, "class_name": "Ones"}, "name": "batch_normalization_65", "gamma_constraint": null, "beta_initializer": {"config": {}, "class_name": "Zeros"}, "beta_constraint": null}, "name": "batch_normalization_65", "class_name": "BatchNormalization", "inbound_nodes": [[["conv2d_65", 0, 0, {}]]]}, {"config": {"kernel_size": [7, 1], "name": "conv2d_66", "bias_regularizer": null, "bias_constraint": null, "trainable": true, "kernel_constraint": null, "data_format": "channels_last", "use_bias": true, "kernel_initializer": {"config": {"distribution": "uniform", "seed": null, "scale": 1.0, "mode": "fan_avg"}, "class_name": "VarianceScaling"}, "padding": "same", "activation": "relu", "filters": 96, "activity_regularizer": null, "bias_initializer": {"config": {}, "class_name": "Zeros"}, "strides": [1, 1], "kernel_regularizer": null, "dilation_rate": [1, 1]}, "name": "conv2d_66", "class_name": "Conv2D", "inbound_nodes": [[["batch_normalization_65", 0, 0, {}]]]}, {"config": {"epsilon": 0.001, "moving_mean_initializer": {"config": {}, "class_name": "Zeros"}, "gamma_regularizer": null, "trainable": true, "center": true, "axis": 3, "beta_regularizer": null, "scale": true, "momentum": 0.99, "moving_variance_initializer": {"config": {}, "class_name": "Ones"}, "gamma_initializer": {"config": {}, "class_name": "Ones"}, "name": "batch_normalization_66", "gamma_constraint": null, "beta_initializer": {"config": {}, "class_name": "Zeros"}, "beta_constraint": null}, "name": "batch_normalization_66", "class_name": "BatchNormalization", "inbound_nodes": [[["conv2d_66", 0, 0, {}]]]}, {"config": {"kernel_size": [1, 1], "name": "conv2d_62", "bias_regularizer": null, "bias_constraint": null, "trainable": true, "kernel_constraint": null, "data_format": "channels_last", "use_bias": true, "kernel_initializer": {"config": {"distribution": "uniform", "seed": null, "scale": 1.0, "mode": "fan_avg"}, "class_name": "VarianceScaling"}, "padding": "same", "activation": "relu", "filters": 96, "activity_regularizer": null, "bias_initializer": {"config": {}, "class_name": "Zeros"}, "strides": [1, 1], "kernel_regularizer": null, "dilation_rate": [1, 1]}, "name": "conv2d_62", "class_name": "Conv2D", "inbound_nodes": [[["mixed6", 0, 0, {}]]]}, {"config": {"kernel_size": [1, 7], "name": "conv2d_67", "bias_regularizer": null, "bias_constraint": null, "trainable": true, "kernel_constraint": null, "data_format": "channels_last", "use_bias": true, "kernel_initializer": {"config": {"distribution": "uniform", "seed": null, "scale": 1.0, "mode": "fan_avg"}, "class_name": "VarianceScaling"}, "padding": "same", "activation": "relu", "filters": 96, "activity_regularizer": null, "bias_initializer": {"config": {}, "class_name": "Zeros"}, "strides": [1, 1], "kernel_regularizer": null, "dilation_rate": [1, 1]}, "name": "conv2d_67", "class_name": "Conv2D", "inbound_nodes": [[["batch_normalization_66", 0, 0, {}]]]}, {"config": {"epsilon": 0.001, "moving_mean_initializer": {"config": {}, "class_name": "Zeros"}, "gamma_regularizer": null, "trainable": true, "center": true, "axis": 3, "beta_regularizer": null, "scale": true, "momentum": 0.99, "moving_variance_initializer": {"config": {}, "class_name": "Ones"}, "gamma_initializer": {"config": {}, "class_name": "Ones"}, "name": "batch_normalization_62", "gamma_constraint": null, "beta_initializer": {"config": {}, "class_name": "Zeros"}, "beta_constraint": null}, "name": "batch_normalization_62", "class_name": "BatchNormalization", "inbound_nodes": [[["conv2d_62", 0, 0, {}]]]}, {"config": {"epsilon": 0.001, "moving_mean_initializer": {"config": {}, "class_name": "Zeros"}, "gamma_regularizer": null, "trainable": true, "center": true, "axis": 3, "beta_regularizer": null, "scale": true, "momentum": 0.99, "moving_variance_initializer": {"config": {}, "class_name": "Ones"}, "gamma_initializer": {"config": {}, "class_name": "Ones"}, "name": "batch_normalization_67", "gamma_constraint": null, "beta_initializer": {"config": {}, "class_name": "Zeros"}, "beta_constraint": null}, "name": "batch_normalization_67", "class_name": "BatchNormalization", "inbound_nodes": [[["conv2d_67", 0, 0, {}]]]}, {"config": {"kernel_size": [1, 7], "name": "conv2d_63", "bias_regularizer": null, "bias_constraint": null, "trainable": true, "kernel_constraint": null, "data_format": "channels_last", "use_bias": true, "kernel_initializer": {"config": {"distribution": "uniform", "seed": null, "scale": 1.0, "mode": "fan_avg"}, "class_name": "VarianceScaling"}, "padding": "same", "activation": "relu", "filters": 96, "activity_regularizer": null, "bias_initializer": {"config": {}, "class_name": "Zeros"}, "strides": [1, 1], "kernel_regularizer": null, "dilation_rate": [1, 1]}, "name": "conv2d_63", "class_name": "Conv2D", "inbound_nodes": [[["batch_normalization_62", 0, 0, {}]]]}, {"config": {"kernel_size": [7, 1], "name": "conv2d_68", "bias_regularizer": null, "bias_constraint": null, "trainable": true, "kernel_constraint": null, "data_format": "channels_last", "use_bias": true, "kernel_initializer": {"config": {"distribution": "uniform", "seed": null, "scale": 1.0, "mode": "fan_avg"}, "class_name": "VarianceScaling"}, "padding": "same", "activation": "relu", "filters": 96, "activity_regularizer": null, "bias_initializer": {"config": {}, "class_name": "Zeros"}, "strides": [1, 1], "kernel_regularizer": null, "dilation_rate": [1, 1]}, "name": "conv2d_68", "class_name": "Conv2D", "inbound_nodes": [[["batch_normalization_67", 0, 0, {}]]]}, {"config": {"epsilon": 0.001, "moving_mean_initializer": {"config": {}, "class_name": "Zeros"}, "gamma_regularizer": null, "trainable": true, "center": true, "axis": 3, "beta_regularizer": null, "scale": true, "momentum": 0.99, "moving_variance_initializer": {"config": {}, "class_name": "Ones"}, "gamma_initializer": {"config": {}, "class_name": "Ones"}, "name": "batch_normalization_63", "gamma_constraint": null, "beta_initializer": {"config": {}, "class_name": "Zeros"}, "beta_constraint": null}, "name": "batch_normalization_63", "class_name": "BatchNormalization", "inbound_nodes": [[["conv2d_63", 0, 0, {}]]]}, {"config": {"epsilon": 0.001, "moving_mean_initializer": {"config": {}, "class_name": "Zeros"}, "gamma_regularizer": null, "trainable": true, "center": true, "axis": 3, "beta_regularizer": null, "scale": true, "momentum": 0.99, "moving_variance_initializer": {"config": {}, "class_name": "Ones"}, "gamma_initializer": {"config": {}, "class_name": "Ones"}, "name": "batch_normalization_68", "gamma_constraint": null, "beta_initializer": {"config": {}, "class_name": "Zeros"}, "beta_constraint": null}, "name": "batch_normalization_68", "class_name": "BatchNormalization", "inbound_nodes": [[["conv2d_68", 0, 0, {}]]]}, {"config": {"padding": "same", "name": "average_pooling2d_7", "trainable": true, "pool_size": [3, 3], "data_format": "channels_last", "strides": [1, 1]}, "name": "average_pooling2d_7", "class_name": "AveragePooling2D", "inbound_nodes": [[["mixed6", 0, 0, {}]]]}, {"config": {"kernel_size": [1, 1], "name": "conv2d_61", "bias_regularizer": null, "bias_constraint": null, "trainable": true, "kernel_constraint": null, "data_format": "channels_last", "use_bias": true, "kernel_initializer": {"config": {"distribution": "uniform", "seed": null, "scale": 1.0, "mode": "fan_avg"}, "class_name": "VarianceScaling"}, "padding": "same", "activation": "relu", "filters": 96, "activity_regularizer": null, "bias_initializer": {"config": {}, "class_name": "Zeros"}, "strides": [1, 1], "kernel_regularizer": null, "dilation_rate": [1, 1]}, "name": "conv2d_61", "class_name": "Conv2D", "inbound_nodes": [[["mixed6", 0, 0, {}]]]}, {"config": {"kernel_size": [7, 1], "name": "conv2d_64", "bias_regularizer": null, "bias_constraint": null, "trainable": true, "kernel_constraint": null, "data_format": "channels_last", "use_bias": true, "kernel_initializer": {"config": {"distribution": "uniform", "seed": null, "scale": 1.0, "mode": "fan_avg"}, "class_name": "VarianceScaling"}, "padding": "same", "activation": "relu", "filters": 96, "activity_regularizer": null, "bias_initializer": {"config": {}, "class_name": "Zeros"}, "strides": [1, 1], "kernel_regularizer": null, "dilation_rate": [1, 1]}, "name": "conv2d_64", "class_name": "Conv2D", "inbound_nodes": [[["batch_normalization_63", 0, 0, {}]]]}, {"config": {"kernel_size": [1, 7], "name": "conv2d_69", "bias_regularizer": null, "bias_constraint": null, "trainable": true, "kernel_constraint": null, "data_format": "channels_last", "use_bias": true, "kernel_initializer": {"config": {"distribution": "uniform", "seed": null, "scale": 1.0, "mode": "fan_avg"}, "class_name": "VarianceScaling"}, "padding": "same", "activation": "relu", "filters": 96, "activity_regularizer": null, "bias_initializer": {"config": {}, "class_name": "Zeros"}, "strides": [1, 1], "kernel_regularizer": null, "dilation_rate": [1, 1]}, "name": "conv2d_69", "class_name": "Conv2D", "inbound_nodes": [[["batch_normalization_68", 0, 0, {}]]]}, {"config": {"kernel_size": [1, 1], "name": "conv2d_70", "bias_regularizer": null, "bias_constraint": null, "trainable": true, "kernel_constraint": null, "data_format": "channels_last", "use_bias": true, "kernel_initializer": {"config": {"distribution": "uniform", "seed": null, "scale": 1.0, "mode": "fan_avg"}, "class_name": "VarianceScaling"}, "padding": "same", "activation": "relu", "filters": 96, "activity_regularizer": null, "bias_initializer": {"config": {}, "class_name": "Zeros"}, "strides": [1, 1], "kernel_regularizer": null, "dilation_rate": [1, 1]}, "name": "conv2d_70", "class_name": "Conv2D", "inbound_nodes": [[["average_pooling2d_7", 0, 0, {}]]]}, {"config": {"epsilon": 0.001, "moving_mean_initializer": {"config": {}, "class_name": "Zeros"}, "gamma_regularizer": null, "trainable": true, "center": true, "axis": 3, "beta_regularizer": null, "scale": true, "momentum": 0.99, "moving_variance_initializer": {"config": {}, "class_name": "Ones"}, "gamma_initializer": {"config": {}, "class_name": "Ones"}, "name": "batch_normalization_61", "gamma_constraint": null, "beta_initializer": {"config": {}, "class_name": "Zeros"}, "beta_constraint": null}, "name": "batch_normalization_61", "class_name": "BatchNormalization", "inbound_nodes": [[["conv2d_61", 0, 0, {}]]]}, {"config": {"epsilon": 0.001, "moving_mean_initializer": {"config": {}, "class_name": "Zeros"}, "gamma_regularizer": null, "trainable": true, "center": true, "axis": 3, "beta_regularizer": null, "scale": true, "momentum": 0.99, "moving_variance_initializer": {"config": {}, "class_name": "Ones"}, "gamma_initializer": {"config": {}, "class_name": "Ones"}, "name": "batch_normalization_64", "gamma_constraint": null, "beta_initializer": {"config": {}, "class_name": "Zeros"}, "beta_constraint": null}, "name": "batch_normalization_64", "class_name": "BatchNormalization", "inbound_nodes": [[["conv2d_64", 0, 0, {}]]]}, {"config": {"epsilon": 0.001, "moving_mean_initializer": {"config": {}, "class_name": "Zeros"}, "gamma_regularizer": null, "trainable": true, "center": true, "axis": 3, "beta_regularizer": null, "scale": true, "momentum": 0.99, "moving_variance_initializer": {"config": {}, "class_name": "Ones"}, "gamma_initializer": {"config": {}, "class_name": "Ones"}, "name": "batch_normalization_69", "gamma_constraint": null, "beta_initializer": {"config": {}, "class_name": "Zeros"}, "beta_constraint": null}, "name": "batch_normalization_69", "class_name": "BatchNormalization", "inbound_nodes": [[["conv2d_69", 0, 0, {}]]]}, {"config": {"epsilon": 0.001, "moving_mean_initializer": {"config": {}, "class_name": "Zeros"}, "gamma_regularizer": null, "trainable": true, "center": true, "axis": 3, "beta_regularizer": null, "scale": true, "momentum": 0.99, "moving_variance_initializer": {"config": {}, "class_name": "Ones"}, "gamma_initializer": {"config": {}, "class_name": "Ones"}, "name": "batch_normalization_70", "gamma_constraint": null, "beta_initializer": {"config": {}, "class_name": "Zeros"}, "beta_constraint": null}, "name": "batch_normalization_70", "class_name": "BatchNormalization", "inbound_nodes": [[["conv2d_70", 0, 0, {}]]]}, {"config": {"name": "mixed7", "trainable": true, "axis": -1}, "name": "mixed7", "class_name": "Concatenate", "inbound_nodes": [[["batch_normalization_61", 0, 0, {}], ["batch_normalization_64", 0, 0, {}], ["batch_normalization_69", 0, 0, {}], ["batch_normalization_70", 0, 0, {}]]]}, {"config": {"kernel_size": [1, 1], "name": "conv2d_73", "bias_regularizer": null, "bias_constraint": null, "trainable": true, "kernel_constraint": null, "data_format": "channels_last", "use_bias": true, "kernel_initializer": {"config": {"distribution": "uniform", "seed": null, "scale": 1.0, "mode": "fan_avg"}, "class_name": "VarianceScaling"}, "padding": "same", "activation": "relu", "filters": 96, "activity_regularizer": null, "bias_initializer": {"config": {}, "class_name": "Zeros"}, "strides": [1, 1], "kernel_regularizer": null, "dilation_rate": [1, 1]}, "name": "conv2d_73", "class_name": "Conv2D", "inbound_nodes": [[["mixed7", 0, 0, {}]]]}, {"config": {"epsilon": 0.001, "moving_mean_initializer": {"config": {}, "class_name": "Zeros"}, "gamma_regularizer": null, "trainable": true, "center": true, "axis": 3, "beta_regularizer": null, "scale": true, "momentum": 0.99, "moving_variance_initializer": {"config": {}, "class_name": "Ones"}, "gamma_initializer": {"config": {}, "class_name": "Ones"}, "name": "batch_normalization_73", "gamma_constraint": null, "beta_initializer": {"config": {}, "class_name": "Zeros"}, "beta_constraint": null}, "name": "batch_normalization_73", "class_name": "BatchNormalization", "inbound_nodes": [[["conv2d_73", 0, 0, {}]]]}, {"config": {"kernel_size": [1, 7], "name": "conv2d_74", "bias_regularizer": null, "bias_constraint": null, "trainable": true, "kernel_constraint": null, "data_format": "channels_last", "use_bias": true, "kernel_initializer": {"config": {"distribution": "uniform", "seed": null, "scale": 1.0, "mode": "fan_avg"}, "class_name": "VarianceScaling"}, "padding": "same", "activation": "relu", "filters": 96, "activity_regularizer": null, "bias_initializer": {"config": {}, "class_name": "Zeros"}, "strides": [1, 1], "kernel_regularizer": null, "dilation_rate": [1, 1]}, "name": "conv2d_74", "class_name": "Conv2D", "inbound_nodes": [[["batch_normalization_73", 0, 0, {}]]]}, {"config": {"epsilon": 0.001, "moving_mean_initializer": {"config": {}, "class_name": "Zeros"}, "gamma_regularizer": null, "trainable": true, "center": true, "axis": 3, "beta_regularizer": null, "scale": true, "momentum": 0.99, "moving_variance_initializer": {"config": {}, "class_name": "Ones"}, "gamma_initializer": {"config": {}, "class_name": "Ones"}, "name": "batch_normalization_74", "gamma_constraint": null, "beta_initializer": {"config": {}, "class_name": "Zeros"}, "beta_constraint": null}, "name": "batch_normalization_74", "class_name": "BatchNormalization", "inbound_nodes": [[["conv2d_74", 0, 0, {}]]]}, {"config": {"kernel_size": [1, 1], "name": "conv2d_71", "bias_regularizer": null, "bias_constraint": null, "trainable": true, "kernel_constraint": null, "data_format": "channels_last", "use_bias": true, "kernel_initializer": {"config": {"distribution": "uniform", "seed": null, "scale": 1.0, "mode": "fan_avg"}, "class_name": "VarianceScaling"}, "padding": "same", "activation": "relu", "filters": 96, "activity_regularizer": null, "bias_initializer": {"config": {}, "class_name": "Zeros"}, "strides": [1, 1], "kernel_regularizer": null, "dilation_rate": [1, 1]}, "name": "conv2d_71", "class_name": "Conv2D", "inbound_nodes": [[["mixed7", 0, 0, {}]]]}, {"config": {"kernel_size": [7, 1], "name": "conv2d_75", "bias_regularizer": null, "bias_constraint": null, "trainable": true, "kernel_constraint": null, "data_format": "channels_last", "use_bias": true, "kernel_initializer": {"config": {"distribution": "uniform", "seed": null, "scale": 1.0, "mode": "fan_avg"}, "class_name": "VarianceScaling"}, "padding": "same", "activation": "relu", "filters": 96, "activity_regularizer": null, "bias_initializer": {"config": {}, "class_name": "Zeros"}, "strides": [1, 1], "kernel_regularizer": null, "dilation_rate": [1, 1]}, "name": "conv2d_75", "class_name": "Conv2D", "inbound_nodes": [[["batch_normalization_74", 0, 0, {}]]]}, {"config": {"epsilon": 0.001, "moving_mean_initializer": {"config": {}, "class_name": "Zeros"}, "gamma_regularizer": null, "trainable": true, "center": true, "axis": 3, "beta_regularizer": null, "scale": true, "momentum": 0.99, "moving_variance_initializer": {"config": {}, "class_name": "Ones"}, "gamma_initializer": {"config": {}, "class_name": "Ones"}, "name": "batch_normalization_71", "gamma_constraint": null, "beta_initializer": {"config": {}, "class_name": "Zeros"}, "beta_constraint": null}, "name": "batch_normalization_71", "class_name": "BatchNormalization", "inbound_nodes": [[["conv2d_71", 0, 0, {}]]]}, {"config": {"epsilon": 0.001, "moving_mean_initializer": {"config": {}, "class_name": "Zeros"}, "gamma_regularizer": null, "trainable": true, "center": true, "axis": 3, "beta_regularizer": null, "scale": true, "momentum": 0.99, "moving_variance_initializer": {"config": {}, "class_name": "Ones"}, "gamma_initializer": {"config": {}, "class_name": "Ones"}, "name": "batch_normalization_75", "gamma_constraint": null, "beta_initializer": {"config": {}, "class_name": "Zeros"}, "beta_constraint": null}, "name": "batch_normalization_75", "class_name": "BatchNormalization", "inbound_nodes": [[["conv2d_75", 0, 0, {}]]]}, {"config": {"kernel_size": [3, 3], "name": "conv2d_72", "bias_regularizer": null, "bias_constraint": null, "trainable": true, "kernel_constraint": null, "data_format": "channels_last", "use_bias": true, "kernel_initializer": {"config": {"distribution": "uniform", "seed": null, "scale": 1.0, "mode": "fan_avg"}, "class_name": "VarianceScaling"}, "padding": "valid", "activation": "relu", "filters": 160, "activity_regularizer": null, "bias_initializer": {"config": {}, "class_name": "Zeros"}, "strides": [2, 2], "kernel_regularizer": null, "dilation_rate": [1, 1]}, "name": "conv2d_72", "class_name": "Conv2D", "inbound_nodes": [[["batch_normalization_71", 0, 0, {}]]]}, {"config": {"kernel_size": [3, 3], "name": "conv2d_76", "bias_regularizer": null, "bias_constraint": null, "trainable": true, "kernel_constraint": null, "data_format": "channels_last", "use_bias": true, "kernel_initializer": {"config": {"distribution": "uniform", "seed": null, "scale": 1.0, "mode": "fan_avg"}, "class_name": "VarianceScaling"}, "padding": "valid", "activation": "relu", "filters": 96, "activity_regularizer": null, "bias_initializer": {"config": {}, "class_name": "Zeros"}, "strides": [2, 2], "kernel_regularizer": null, "dilation_rate": [1, 1]}, "name": "conv2d_76", "class_name": "Conv2D", "inbound_nodes": [[["batch_normalization_75", 0, 0, {}]]]}, {"config": {"epsilon": 0.001, "moving_mean_initializer": {"config": {}, "class_name": "Zeros"}, "gamma_regularizer": null, "trainable": true, "center": true, "axis": 3, "beta_regularizer": null, "scale": true, "momentum": 0.99, "moving_variance_initializer": {"config": {}, "class_name": "Ones"}, "gamma_initializer": {"config": {}, "class_name": "Ones"}, "name": "batch_normalization_72", "gamma_constraint": null, "beta_initializer": {"config": {}, "class_name": "Zeros"}, "beta_constraint": null}, "name": "batch_normalization_72", "class_name": "BatchNormalization", "inbound_nodes": [[["conv2d_72", 0, 0, {}]]]}, {"config": {"epsilon": 0.001, "moving_mean_initializer": {"config": {}, "class_name": "Zeros"}, "gamma_regularizer": null, "trainable": true, "center": true, "axis": 3, "beta_regularizer": null, "scale": true, "momentum": 0.99, "moving_variance_initializer": {"config": {}, "class_name": "Ones"}, "gamma_initializer": {"config": {}, "class_name": "Ones"}, "name": "batch_normalization_76", "gamma_constraint": null, "beta_initializer": {"config": {}, "class_name": "Zeros"}, "beta_constraint": null}, "name": "batch_normalization_76", "class_name": "BatchNormalization", "inbound_nodes": [[["conv2d_76", 0, 0, {}]]]}, {"config": {"padding": "valid", "name": "average_pooling2d_8", "trainable": true, "pool_size": [3, 3], "data_format": "channels_last", "strides": [2, 2]}, "name": "average_pooling2d_8", "class_name": "AveragePooling2D", "inbound_nodes": [[["mixed7", 0, 0, {}]]]}, {"config": {"name": "mixed8", "trainable": true, "axis": -1}, "name": "mixed8", "class_name": "Concatenate", "inbound_nodes": [[["batch_normalization_72", 0, 0, {}], ["batch_normalization_76", 0, 0, {}], ["average_pooling2d_8", 0, 0, {}]]]}, {"config": {"kernel_size": [1, 1], "name": "conv2d_81", "bias_regularizer": null, "bias_constraint": null, "trainable": true, "kernel_constraint": null, "data_format": "channels_last", "use_bias": true, "kernel_initializer": {"config": {"distribution": "uniform", "seed": null, "scale": 1.0, "mode": "fan_avg"}, "class_name": "VarianceScaling"}, "padding": "same", "activation": "relu", "filters": 224, "activity_regularizer": null, "bias_initializer": {"config": {}, "class_name": "Zeros"}, "strides": [1, 1], "kernel_regularizer": null, "dilation_rate": [1, 1]}, "name": "conv2d_81", "class_name": "Conv2D", "inbound_nodes": [[["mixed8", 0, 0, {}]]]}, {"config": {"epsilon": 0.001, "moving_mean_initializer": {"config": {}, "class_name": "Zeros"}, "gamma_regularizer": null, "trainable": true, "center": true, "axis": 3, "beta_regularizer": null, "scale": true, "momentum": 0.99, "moving_variance_initializer": {"config": {}, "class_name": "Ones"}, "gamma_initializer": {"config": {}, "class_name": "Ones"}, "name": "batch_normalization_81", "gamma_constraint": null, "beta_initializer": {"config": {}, "class_name": "Zeros"}, "beta_constraint": null}, "name": "batch_normalization_81", "class_name": "BatchNormalization", "inbound_nodes": [[["conv2d_81", 0, 0, {}]]]}, {"config": {"kernel_size": [1, 1], "name": "conv2d_78", "bias_regularizer": null, "bias_constraint": null, "trainable": true, "kernel_constraint": null, "data_format": "channels_last", "use_bias": true, "kernel_initializer": {"config": {"distribution": "uniform", "seed": null, "scale": 1.0, "mode": "fan_avg"}, "class_name": "VarianceScaling"}, "padding": "same", "activation": "relu", "filters": 192, "activity_regularizer": null, "bias_initializer": {"config": {}, "class_name": "Zeros"}, "strides": [1, 1], "kernel_regularizer": null, "dilation_rate": [1, 1]}, "name": "conv2d_78", "class_name": "Conv2D", "inbound_nodes": [[["mixed8", 0, 0, {}]]]}, {"config": {"kernel_size": [3, 3], "name": "conv2d_82", "bias_regularizer": null, "bias_constraint": null, "trainable": true, "kernel_constraint": null, "data_format": "channels_last", "use_bias": true, "kernel_initializer": {"config": {"distribution": "uniform", "seed": null, "scale": 1.0, "mode": "fan_avg"}, "class_name": "VarianceScaling"}, "padding": "same", "activation": "relu", "filters": 192, "activity_regularizer": null, "bias_initializer": {"config": {}, "class_name": "Zeros"}, "strides": [1, 1], "kernel_regularizer": null, "dilation_rate": [1, 1]}, "name": "conv2d_82", "class_name": "Conv2D", "inbound_nodes": [[["batch_normalization_81", 0, 0, {}]]]}, {"config": {"epsilon": 0.001, "moving_mean_initializer": {"config": {}, "class_name": "Zeros"}, "gamma_regularizer": null, "trainable": true, "center": true, "axis": 3, "beta_regularizer": null, "scale": true, "momentum": 0.99, "moving_variance_initializer": {"config": {}, "class_name": "Ones"}, "gamma_initializer": {"config": {}, "class_name": "Ones"}, "name": "batch_normalization_78", "gamma_constraint": null, "beta_initializer": {"config": {}, "class_name": "Zeros"}, "beta_constraint": null}, "name": "batch_normalization_78", "class_name": "BatchNormalization", "inbound_nodes": [[["conv2d_78", 0, 0, {}]]]}, {"config": {"epsilon": 0.001, "moving_mean_initializer": {"config": {}, "class_name": "Zeros"}, "gamma_regularizer": null, "trainable": true, "center": true, "axis": 3, "beta_regularizer": null, "scale": true, "momentum": 0.99, "moving_variance_initializer": {"config": {}, "class_name": "Ones"}, "gamma_initializer": {"config": {}, "class_name": "Ones"}, "name": "batch_normalization_82", "gamma_constraint": null, "beta_initializer": {"config": {}, "class_name": "Zeros"}, "beta_constraint": null}, "name": "batch_normalization_82", "class_name": "BatchNormalization", "inbound_nodes": [[["conv2d_82", 0, 0, {}]]]}, {"config": {"kernel_size": [1, 3], "name": "conv2d_79", "bias_regularizer": null, "bias_constraint": null, "trainable": true, "kernel_constraint": null, "data_format": "channels_last", "use_bias": true, "kernel_initializer": {"config": {"distribution": "uniform", "seed": null, "scale": 1.0, "mode": "fan_avg"}, "class_name": "VarianceScaling"}, "padding": "same", "activation": "relu", "filters": 192, "activity_regularizer": null, "bias_initializer": {"config": {}, "class_name": "Zeros"}, "strides": [1, 1], "kernel_regularizer": null, "dilation_rate": [1, 1]}, "name": "conv2d_79", "class_name": "Conv2D", "inbound_nodes": [[["batch_normalization_78", 0, 0, {}]]]}, {"config": {"kernel_size": [3, 1], "name": "conv2d_80", "bias_regularizer": null, "bias_constraint": null, "trainable": true, "kernel_constraint": null, "data_format": "channels_last", "use_bias": true, "kernel_initializer": {"config": {"distribution": "uniform", "seed": null, "scale": 1.0, "mode": "fan_avg"}, "class_name": "VarianceScaling"}, "padding": "same", "activation": "relu", "filters": 192, "activity_regularizer": null, "bias_initializer": {"config": {}, "class_name": "Zeros"}, "strides": [1, 1], "kernel_regularizer": null, "dilation_rate": [1, 1]}, "name": "conv2d_80", "class_name": "Conv2D", "inbound_nodes": [[["batch_normalization_78", 0, 0, {}]]]}, {"config": {"kernel_size": [1, 3], "name": "conv2d_83", "bias_regularizer": null, "bias_constraint": null, "trainable": true, "kernel_constraint": null, "data_format": "channels_last", "use_bias": true, "kernel_initializer": {"config": {"distribution": "uniform", "seed": null, "scale": 1.0, "mode": "fan_avg"}, "class_name": "VarianceScaling"}, "padding": "same", "activation": "relu", "filters": 192, "activity_regularizer": null, "bias_initializer": {"config": {}, "class_name": "Zeros"}, "strides": [1, 1], "kernel_regularizer": null, "dilation_rate": [1, 1]}, "name": "conv2d_83", "class_name": "Conv2D", "inbound_nodes": [[["batch_normalization_82", 0, 0, {}]]]}, {"config": {"kernel_size": [3, 1], "name": "conv2d_84", "bias_regularizer": null, "bias_constraint": null, "trainable": true, "kernel_constraint": null, "data_format": "channels_last", "use_bias": true, "kernel_initializer": {"config": {"distribution": "uniform", "seed": null, "scale": 1.0, "mode": "fan_avg"}, "class_name": "VarianceScaling"}, "padding": "same", "activation": "relu", "filters": 192, "activity_regularizer": null, "bias_initializer": {"config": {}, "class_name": "Zeros"}, "strides": [1, 1], "kernel_regularizer": null, "dilation_rate": [1, 1]}, "name": "conv2d_84", "class_name": "Conv2D", "inbound_nodes": [[["batch_normalization_82", 0, 0, {}]]]}, {"config": {"padding": "same", "name": "average_pooling2d_9", "trainable": true, "pool_size": [3, 3], "data_format": "channels_last", "strides": [1, 1]}, "name": "average_pooling2d_9", "class_name": "AveragePooling2D", "inbound_nodes": [[["mixed8", 0, 0, {}]]]}, {"config": {"kernel_size": [1, 1], "name": "conv2d_77", "bias_regularizer": null, "bias_constraint": null, "trainable": true, "kernel_constraint": null, "data_format": "channels_last", "use_bias": true, "kernel_initializer": {"config": {"distribution": "uniform", "seed": null, "scale": 1.0, "mode": "fan_avg"}, "class_name": "VarianceScaling"}, "padding": "same", "activation": "relu", "filters": 160, "activity_regularizer": null, "bias_initializer": {"config": {}, "class_name": "Zeros"}, "strides": [1, 1], "kernel_regularizer": null, "dilation_rate": [1, 1]}, "name": "conv2d_77", "class_name": "Conv2D", "inbound_nodes": [[["mixed8", 0, 0, {}]]]}, {"config": {"epsilon": 0.001, "moving_mean_initializer": {"config": {}, "class_name": "Zeros"}, "gamma_regularizer": null, "trainable": true, "center": true, "axis": 3, "beta_regularizer": null, "scale": true, "momentum": 0.99, "moving_variance_initializer": {"config": {}, "class_name": "Ones"}, "gamma_initializer": {"config": {}, "class_name": "Ones"}, "name": "batch_normalization_79", "gamma_constraint": null, "beta_initializer": {"config": {}, "class_name": "Zeros"}, "beta_constraint": null}, "name": "batch_normalization_79", "class_name": "BatchNormalization", "inbound_nodes": [[["conv2d_79", 0, 0, {}]]]}, {"config": {"epsilon": 0.001, "moving_mean_initializer": {"config": {}, "class_name": "Zeros"}, "gamma_regularizer": null, "trainable": true, "center": true, "axis": 3, "beta_regularizer": null, "scale": true, "momentum": 0.99, "moving_variance_initializer": {"config": {}, "class_name": "Ones"}, "gamma_initializer": {"config": {}, "class_name": "Ones"}, "name": "batch_normalization_80", "gamma_constraint": null, "beta_initializer": {"config": {}, "class_name": "Zeros"}, "beta_constraint": null}, "name": "batch_normalization_80", "class_name": "BatchNormalization", "inbound_nodes": [[["conv2d_80", 0, 0, {}]]]}, {"config": {"epsilon": 0.001, "moving_mean_initializer": {"config": {}, "class_name": "Zeros"}, "gamma_regularizer": null, "trainable": true, "center": true, "axis": 3, "beta_regularizer": null, "scale": true, "momentum": 0.99, "moving_variance_initializer": {"config": {}, "class_name": "Ones"}, "gamma_initializer": {"config": {}, "class_name": "Ones"}, "name": "batch_normalization_83", "gamma_constraint": null, "beta_initializer": {"config": {}, "class_name": "Zeros"}, "beta_constraint": null}, "name": "batch_normalization_83", "class_name": "BatchNormalization", "inbound_nodes": [[["conv2d_83", 0, 0, {}]]]}, {"config": {"epsilon": 0.001, "moving_mean_initializer": {"config": {}, "class_name": "Zeros"}, "gamma_regularizer": null, "trainable": true, "center": true, "axis": 3, "beta_regularizer": null, "scale": true, "momentum": 0.99, "moving_variance_initializer": {"config": {}, "class_name": "Ones"}, "gamma_initializer": {"config": {}, "class_name": "Ones"}, "name": "batch_normalization_84", "gamma_constraint": null, "beta_initializer": {"config": {}, "class_name": "Zeros"}, "beta_constraint": null}, "name": "batch_normalization_84", "class_name": "BatchNormalization", "inbound_nodes": [[["conv2d_84", 0, 0, {}]]]}, {"config": {"kernel_size": [1, 1], "name": "conv2d_85", "bias_regularizer": null, "bias_constraint": null, "trainable": true, "kernel_constraint": null, "data_format": "channels_last", "use_bias": true, "kernel_initializer": {"config": {"distribution": "uniform", "seed": null, "scale": 1.0, "mode": "fan_avg"}, "class_name": "VarianceScaling"}, "padding": "same", "activation": "relu", "filters": 96, "activity_regularizer": null, "bias_initializer": {"config": {}, "class_name": "Zeros"}, "strides": [1, 1], "kernel_regularizer": null, "dilation_rate": [1, 1]}, "name": "conv2d_85", "class_name": "Conv2D", "inbound_nodes": [[["average_pooling2d_9", 0, 0, {}]]]}, {"config": {"epsilon": 0.001, "moving_mean_initializer": {"config": {}, "class_name": "Zeros"}, "gamma_regularizer": null, "trainable": true, "center": true, "axis": 3, "beta_regularizer": null, "scale": true, "momentum": 0.99, "moving_variance_initializer": {"config": {}, "class_name": "Ones"}, "gamma_initializer": {"config": {}, "class_name": "Ones"}, "name": "batch_normalization_77", "gamma_constraint": null, "beta_initializer": {"config": {}, "class_name": "Zeros"}, "beta_constraint": null}, "name": "batch_normalization_77", "class_name": "BatchNormalization", "inbound_nodes": [[["conv2d_77", 0, 0, {}]]]}, {"config": {"name": "mixed9_0", "trainable": true, "axis": -1}, "name": "mixed9_0", "class_name": "Concatenate", "inbound_nodes": [[["batch_normalization_79", 0, 0, {}], ["batch_normalization_80", 0, 0, {}]]]}, {"config": {"name": "concatenate_1", "trainable": true, "axis": -1}, "name": "concatenate_1", "class_name": "Concatenate", "inbound_nodes": [[["batch_normalization_83", 0, 0, {}], ["batch_normalization_84", 0, 0, {}]]]}, {"config": {"epsilon": 0.001, "moving_mean_initializer": {"config": {}, "class_name": "Zeros"}, "gamma_regularizer": null, "trainable": true, "center": true, "axis": 3, "beta_regularizer": null, "scale": true, "momentum": 0.99, "moving_variance_initializer": {"config": {}, "class_name": "Ones"}, "gamma_initializer": {"config": {}, "class_name": "Ones"}, "name": "batch_normalization_85", "gamma_constraint": null, "beta_initializer": {"config": {}, "class_name": "Zeros"}, "beta_constraint": null}, "name": "batch_normalization_85", "class_name": "BatchNormalization", "inbound_nodes": [[["conv2d_85", 0, 0, {}]]]}, {"config": {"name": "mixed9", "trainable": true, "axis": -1}, "name": "mixed9", "class_name": "Concatenate", "inbound_nodes": [[["batch_normalization_77", 0, 0, {}], ["mixed9_0", 0, 0, {}], ["concatenate_1", 0, 0, {}], ["batch_normalization_85", 0, 0, {}]]]}, {"config": {"kernel_size": [1, 1], "name": "conv2d_90", "bias_regularizer": null, "bias_constraint": null, "trainable": true, "kernel_constraint": null, "data_format": "channels_last", "use_bias": true, "kernel_initializer": {"config": {"distribution": "uniform", "seed": null, "scale": 1.0, "mode": "fan_avg"}, "class_name": "VarianceScaling"}, "padding": "same", "activation": "relu", "filters": 224, "activity_regularizer": null, "bias_initializer": {"config": {}, "class_name": "Zeros"}, "strides": [1, 1], "kernel_regularizer": null, "dilation_rate": [1, 1]}, "name": "conv2d_90", "class_name": "Conv2D", "inbound_nodes": [[["mixed9", 0, 0, {}]]]}, {"config": {"epsilon": 0.001, "moving_mean_initializer": {"config": {}, "class_name": "Zeros"}, "gamma_regularizer": null, "trainable": true, "center": true, "axis": 3, "beta_regularizer": null, "scale": true, "momentum": 0.99, "moving_variance_initializer": {"config": {}, "class_name": "Ones"}, "gamma_initializer": {"config": {}, "class_name": "Ones"}, "name": "batch_normalization_90", "gamma_constraint": null, "beta_initializer": {"config": {}, "class_name": "Zeros"}, "beta_constraint": null}, "name": "batch_normalization_90", "class_name": "BatchNormalization", "inbound_nodes": [[["conv2d_90", 0, 0, {}]]]}, {"config": {"kernel_size": [1, 1], "name": "conv2d_87", "bias_regularizer": null, "bias_constraint": null, "trainable": true, "kernel_constraint": null, "data_format": "channels_last", "use_bias": true, "kernel_initializer": {"config": {"distribution": "uniform", "seed": null, "scale": 1.0, "mode": "fan_avg"}, "class_name": "VarianceScaling"}, "padding": "same", "activation": "relu", "filters": 192, "activity_regularizer": null, "bias_initializer": {"config": {}, "class_name": "Zeros"}, "strides": [1, 1], "kernel_regularizer": null, "dilation_rate": [1, 1]}, "name": "conv2d_87", "class_name": "Conv2D", "inbound_nodes": [[["mixed9", 0, 0, {}]]]}, {"config": {"kernel_size": [3, 3], "name": "conv2d_91", "bias_regularizer": null, "bias_constraint": null, "trainable": true, "kernel_constraint": null, "data_format": "channels_last", "use_bias": true, "kernel_initializer": {"config": {"distribution": "uniform", "seed": null, "scale": 1.0, "mode": "fan_avg"}, "class_name": "VarianceScaling"}, "padding": "same", "activation": "relu", "filters": 192, "activity_regularizer": null, "bias_initializer": {"config": {}, "class_name": "Zeros"}, "strides": [1, 1], "kernel_regularizer": null, "dilation_rate": [1, 1]}, "name": "conv2d_91", "class_name": "Conv2D", "inbound_nodes": [[["batch_normalization_90", 0, 0, {}]]]}, {"config": {"epsilon": 0.001, "moving_mean_initializer": {"config": {}, "class_name": "Zeros"}, "gamma_regularizer": null, "trainable": true, "center": true, "axis": 3, "beta_regularizer": null, "scale": true, "momentum": 0.99, "moving_variance_initializer": {"config": {}, "class_name": "Ones"}, "gamma_initializer": {"config": {}, "class_name": "Ones"}, "name": "batch_normalization_87", "gamma_constraint": null, "beta_initializer": {"config": {}, "class_name": "Zeros"}, "beta_constraint": null}, "name": "batch_normalization_87", "class_name": "BatchNormalization", "inbound_nodes": [[["conv2d_87", 0, 0, {}]]]}, {"config": {"epsilon": 0.001, "moving_mean_initializer": {"config": {}, "class_name": "Zeros"}, "gamma_regularizer": null, "trainable": true, "center": true, "axis": 3, "beta_regularizer": null, "scale": true, "momentum": 0.99, "moving_variance_initializer": {"config": {}, "class_name": "Ones"}, "gamma_initializer": {"config": {}, "class_name": "Ones"}, "name": "batch_normalization_91", "gamma_constraint": null, "beta_initializer": {"config": {}, "class_name": "Zeros"}, "beta_constraint": null}, "name": "batch_normalization_91", "class_name": "BatchNormalization", "inbound_nodes": [[["conv2d_91", 0, 0, {}]]]}, {"config": {"kernel_size": [1, 3], "name": "conv2d_88", "bias_regularizer": null, "bias_constraint": null, "trainable": true, "kernel_constraint": null, "data_format": "channels_last", "use_bias": true, "kernel_initializer": {"config": {"distribution": "uniform", "seed": null, "scale": 1.0, "mode": "fan_avg"}, "class_name": "VarianceScaling"}, "padding": "same", "activation": "relu", "filters": 192, "activity_regularizer": null, "bias_initializer": {"config": {}, "class_name": "Zeros"}, "strides": [1, 1], "kernel_regularizer": null, "dilation_rate": [1, 1]}, "name": "conv2d_88", "class_name": "Conv2D", "inbound_nodes": [[["batch_normalization_87", 0, 0, {}]]]}, {"config": {"kernel_size": [3, 1], "name": "conv2d_89", "bias_regularizer": null, "bias_constraint": null, "trainable": true, "kernel_constraint": null, "data_format": "channels_last", "use_bias": true, "kernel_initializer": {"config": {"distribution": "uniform", "seed": null, "scale": 1.0, "mode": "fan_avg"}, "class_name": "VarianceScaling"}, "padding": "same", "activation": "relu", "filters": 192, "activity_regularizer": null, "bias_initializer": {"config": {}, "class_name": "Zeros"}, "strides": [1, 1], "kernel_regularizer": null, "dilation_rate": [1, 1]}, "name": "conv2d_89", "class_name": "Conv2D", "inbound_nodes": [[["batch_normalization_87", 0, 0, {}]]]}, {"config": {"kernel_size": [1, 3], "name": "conv2d_92", "bias_regularizer": null, "bias_constraint": null, "trainable": true, "kernel_constraint": null, "data_format": "channels_last", "use_bias": true, "kernel_initializer": {"config": {"distribution": "uniform", "seed": null, "scale": 1.0, "mode": "fan_avg"}, "class_name": "VarianceScaling"}, "padding": "same", "activation": "relu", "filters": 192, "activity_regularizer": null, "bias_initializer": {"config": {}, "class_name": "Zeros"}, "strides": [1, 1], "kernel_regularizer": null, "dilation_rate": [1, 1]}, "name": "conv2d_92", "class_name": "Conv2D", "inbound_nodes": [[["batch_normalization_91", 0, 0, {}]]]}, {"config": {"kernel_size": [3, 1], "name": "conv2d_93", "bias_regularizer": null, "bias_constraint": null, "trainable": true, "kernel_constraint": null, "data_format": "channels_last", "use_bias": true, "kernel_initializer": {"config": {"distribution": "uniform", "seed": null, "scale": 1.0, "mode": "fan_avg"}, "class_name": "VarianceScaling"}, "padding": "same", "activation": "relu", "filters": 192, "activity_regularizer": null, "bias_initializer": {"config": {}, "class_name": "Zeros"}, "strides": [1, 1], "kernel_regularizer": null, "dilation_rate": [1, 1]}, "name": "conv2d_93", "class_name": "Conv2D", "inbound_nodes": [[["batch_normalization_91", 0, 0, {}]]]}, {"config": {"padding": "same", "name": "average_pooling2d_10", "trainable": true, "pool_size": [3, 3], "data_format": "channels_last", "strides": [1, 1]}, "name": "average_pooling2d_10", "class_name": "AveragePooling2D", "inbound_nodes": [[["mixed9", 0, 0, {}]]]}, {"config": {"kernel_size": [1, 1], "name": "conv2d_86", "bias_regularizer": null, "bias_constraint": null, "trainable": true, "kernel_constraint": null, "data_format": "channels_last", "use_bias": true, "kernel_initializer": {"config": {"distribution": "uniform", "seed": null, "scale": 1.0, "mode": "fan_avg"}, "class_name": "VarianceScaling"}, "padding": "same", "activation": "relu", "filters": 160, "activity_regularizer": null, "bias_initializer": {"config": {}, "class_name": "Zeros"}, "strides": [1, 1], "kernel_regularizer": null, "dilation_rate": [1, 1]}, "name": "conv2d_86", "class_name": "Conv2D", "inbound_nodes": [[["mixed9", 0, 0, {}]]]}, {"config": {"epsilon": 0.001, "moving_mean_initializer": {"config": {}, "class_name": "Zeros"}, "gamma_regularizer": null, "trainable": true, "center": true, "axis": 3, "beta_regularizer": null, "scale": true, "momentum": 0.99, "moving_variance_initializer": {"config": {}, "class_name": "Ones"}, "gamma_initializer": {"config": {}, "class_name": "Ones"}, "name": "batch_normalization_88", "gamma_constraint": null, "beta_initializer": {"config": {}, "class_name": "Zeros"}, "beta_constraint": null}, "name": "batch_normalization_88", "class_name": "BatchNormalization", "inbound_nodes": [[["conv2d_88", 0, 0, {}]]]}, {"config": {"epsilon": 0.001, "moving_mean_initializer": {"config": {}, "class_name": "Zeros"}, "gamma_regularizer": null, "trainable": true, "center": true, "axis": 3, "beta_regularizer": null, "scale": true, "momentum": 0.99, "moving_variance_initializer": {"config": {}, "class_name": "Ones"}, "gamma_initializer": {"config": {}, "class_name": "Ones"}, "name": "batch_normalization_89", "gamma_constraint": null, "beta_initializer": {"config": {}, "class_name": "Zeros"}, "beta_constraint": null}, "name": "batch_normalization_89", "class_name": "BatchNormalization", "inbound_nodes": [[["conv2d_89", 0, 0, {}]]]}, {"config": {"epsilon": 0.001, "moving_mean_initializer": {"config": {}, "class_name": "Zeros"}, "gamma_regularizer": null, "trainable": true, "center": true, "axis": 3, "beta_regularizer": null, "scale": true, "momentum": 0.99, "moving_variance_initializer": {"config": {}, "class_name": "Ones"}, "gamma_initializer": {"config": {}, "class_name": "Ones"}, "name": "batch_normalization_92", "gamma_constraint": null, "beta_initializer": {"config": {}, "class_name": "Zeros"}, "beta_constraint": null}, "name": "batch_normalization_92", "class_name": "BatchNormalization", "inbound_nodes": [[["conv2d_92", 0, 0, {}]]]}, {"config": {"epsilon": 0.001, "moving_mean_initializer": {"config": {}, "class_name": "Zeros"}, "gamma_regularizer": null, "trainable": true, "center": true, "axis": 3, "beta_regularizer": null, "scale": true, "momentum": 0.99, "moving_variance_initializer": {"config": {}, "class_name": "Ones"}, "gamma_initializer": {"config": {}, "class_name": "Ones"}, "name": "batch_normalization_93", "gamma_constraint": null, "beta_initializer": {"config": {}, "class_name": "Zeros"}, "beta_constraint": null}, "name": "batch_normalization_93", "class_name": "BatchNormalization", "inbound_nodes": [[["conv2d_93", 0, 0, {}]]]}, {"config": {"kernel_size": [1, 1], "name": "conv2d_94", "bias_regularizer": null, "bias_constraint": null, "trainable": true, "kernel_constraint": null, "data_format": "channels_last", "use_bias": true, "kernel_initializer": {"config": {"distribution": "uniform", "seed": null, "scale": 1.0, "mode": "fan_avg"}, "class_name": "VarianceScaling"}, "padding": "same", "activation": "relu", "filters": 96, "activity_regularizer": null, "bias_initializer": {"config": {}, "class_name": "Zeros"}, "strides": [1, 1], "kernel_regularizer": null, "dilation_rate": [1, 1]}, "name": "conv2d_94", "class_name": "Conv2D", "inbound_nodes": [[["average_pooling2d_10", 0, 0, {}]]]}, {"config": {"epsilon": 0.001, "moving_mean_initializer": {"config": {}, "class_name": "Zeros"}, "gamma_regularizer": null, "trainable": true, "center": true, "axis": 3, "beta_regularizer": null, "scale": true, "momentum": 0.99, "moving_variance_initializer": {"config": {}, "class_name": "Ones"}, "gamma_initializer": {"config": {}, "class_name": "Ones"}, "name": "batch_normalization_86", "gamma_constraint": null, "beta_initializer": {"config": {}, "class_name": "Zeros"}, "beta_constraint": null}, "name": "batch_normalization_86", "class_name": "BatchNormalization", "inbound_nodes": [[["conv2d_86", 0, 0, {}]]]}, {"config": {"name": "mixed9_1", "trainable": true, "axis": -1}, "name": "mixed9_1", "class_name": "Concatenate", "inbound_nodes": [[["batch_normalization_88", 0, 0, {}], ["batch_normalization_89", 0, 0, {}]]]}, {"config": {"name": "concatenate_2", "trainable": true, "axis": -1}, "name": "concatenate_2", "class_name": "Concatenate", "inbound_nodes": [[["batch_normalization_92", 0, 0, {}], ["batch_normalization_93", 0, 0, {}]]]}, {"config": {"epsilon": 0.001, "moving_mean_initializer": {"config": {}, "class_name": "Zeros"}, "gamma_regularizer": null, "trainable": true, "center": true, "axis": 3, "beta_regularizer": null, "scale": true, "momentum": 0.99, "moving_variance_initializer": {"config": {}, "class_name": "Ones"}, "gamma_initializer": {"config": {}, "class_name": "Ones"}, "name": "batch_normalization_94", "gamma_constraint": null, "beta_initializer": {"config": {}, "class_name": "Zeros"}, "beta_constraint": null}, "name": "batch_normalization_94", "class_name": "BatchNormalization", "inbound_nodes": [[["conv2d_94", 0, 0, {}]]]}, {"config": {"name": "mixed10", "trainable": true, "axis": -1}, "name": "mixed10", "class_name": "Concatenate", "inbound_nodes": [[["batch_normalization_86", 0, 0, {}], ["mixed9_1", 0, 0, {}], ["concatenate_2", 0, 0, {}], ["batch_normalization_94", 0, 0, {}]]]}, {"config": {"padding": "valid", "name": "end_max_pool", "trainable": true, "pool_size": [2, 2], "data_format": "channels_last", "strides": [2, 2]}, "name": "end_max_pool", "class_name": "MaxPooling2D", "inbound_nodes": [[["mixed10", 0, 0, {}]]]}, {"config": {"trainable": true, "name": "flatten"}, "name": "flatten", "class_name": "Flatten", "inbound_nodes": [[["end_max_pool", 0, 0, {}]]]}, {"config": {"name": "output_layer", "bias_regularizer": null, "bias_constraint": null, "trainable": true, "activity_regularizer": null, "activation": "sigmoid", "use_bias": true, "kernel_regularizer": null, "kernel_constraint": null, "kernel_initializer": {"config": {"distribution": "uniform", "seed": null, "scale": 1.0, "mode": "fan_avg"}, "class_name": "VarianceScaling"}, "units": 1, "bias_initializer": {"config": {}, "class_name": "Zeros"}}, "name": "output_layer", "class_name": "Dense", "inbound_nodes": [[["flatten", 0, 0, {}]]]}], "output_layers": [["output_layer", 0, 0]], "input_layers": [["input_1", 0, 0]]}, "keras_version": "2.0.6", "backend": "tensorflow", "class_name": "Model"}