{"class_name": "Model", "config": {"name": "model_1", "layers": [{"name": "input_1", "class_name": "InputLayer", "config": {"batch_input_shape": [null, 1152, 832, 1], "name": "input_1", "dtype": "float32", "sparse": false}, "inbound_nodes": []}, {"name": "conv2d_1", "class_name": "Conv2D", "config": {"trainable": true, "bias_constraint": null, "name": "conv2d_1", "bias_initializer": {"class_name": "Zeros", "config": {}}, "strides": [2, 2], "filters": 16, "data_format": "channels_last", "activation": "relu", "kernel_initializer": {"class_name": "VarianceScaling", "config": {"scale": 1.0, "distribution": "uniform", "seed": null, "mode": "fan_avg"}}, "use_bias": true, "dilation_rate": [1, 1], "bias_regularizer": null, "kernel_regularizer": null, "activity_regularizer": null, "kernel_size": [3, 3], "padding": "valid", "kernel_constraint": null}, "inbound_nodes": [[["input_1", 0, 0, {}]]]}, {"name": "batch_normalization_1", "class_name": "BatchNormalization", "config": {"gamma_regularizer": null, "momentum": 0.99, "epsilon": 0.001, "name": "batch_normalization_1", "beta_regularizer": null, "moving_mean_initializer": {"class_name": "Zeros", "config": {}}, "center": true, "scale": true, "trainable": true, "moving_variance_initializer": {"class_name": "Ones", "config": {}}, "gamma_constraint": null, "beta_initializer": {"class_name": "Zeros", "config": {}}, "beta_constraint": null, "axis": 3, "gamma_initializer": {"class_name": "Ones", "config": {}}}, "inbound_nodes": [[["conv2d_1", 0, 0, {}]]]}, {"name": "conv2d_2", "class_name": "Conv2D", "config": {"trainable": true, "bias_constraint": null, "name": "conv2d_2", "bias_initializer": {"class_name": "Zeros", "config": {}}, "strides": [1, 1], "filters": 16, "data_format": "channels_last", "activation": "relu", "kernel_initializer": {"class_name": "VarianceScaling", "config": {"scale": 1.0, "distribution": "uniform", "seed": null, "mode": "fan_avg"}}, "use_bias": true, "dilation_rate": [1, 1], "bias_regularizer": null, "kernel_regularizer": null, "activity_regularizer": null, "kernel_size": [3, 3], "padding": "valid", "kernel_constraint": null}, "inbound_nodes": [[["batch_normalization_1", 0, 0, {}]]]}, {"name": "batch_normalization_2", "class_name": "BatchNormalization", "config": {"gamma_regularizer": null, "momentum": 0.99, "epsilon": 0.001, "name": "batch_normalization_2", "beta_regularizer": null, "moving_mean_initializer": {"class_name": "Zeros", "config": {}}, "center": true, "scale": true, "trainable": true, "moving_variance_initializer": {"class_name": "Ones", "config": {}}, "gamma_constraint": null, "beta_initializer": {"class_name": "Zeros", "config": {}}, "beta_constraint": null, "axis": 3, "gamma_initializer": {"class_name": "Ones", "config": {}}}, "inbound_nodes": [[["conv2d_2", 0, 0, {}]]]}, {"name": "conv2d_3", "class_name": "Conv2D", "config": {"trainable": true, "bias_constraint": null, "name": "conv2d_3", "bias_initializer": {"class_name": "Zeros", "config": {}}, "strides": [1, 1], "filters": 32, "data_format": "channels_last", "activation": "relu", "kernel_initializer": {"class_name": "VarianceScaling", "config": {"scale": 1.0, "distribution": "uniform", "seed": null, "mode": "fan_avg"}}, "use_bias": true, "dilation_rate": [1, 1], "bias_regularizer": null, "kernel_regularizer": null, "activity_regularizer": null, "kernel_size": [3, 3], "padding": "same", "kernel_constraint": null}, "inbound_nodes": [[["batch_normalization_2", 0, 0, {}]]]}, {"name": "batch_normalization_3", "class_name": "BatchNormalization", "config": {"gamma_regularizer": null, "momentum": 0.99, "epsilon": 0.001, "name": "batch_normalization_3", "beta_regularizer": null, "moving_mean_initializer": {"class_name": "Zeros", "config": {}}, "center": true, "scale": true, "trainable": true, "moving_variance_initializer": {"class_name": "Ones", "config": {}}, "gamma_constraint": null, "beta_initializer": {"class_name": "Zeros", "config": {}}, "beta_constraint": null, "axis": 3, "gamma_initializer": {"class_name": "Ones", "config": {}}}, "inbound_nodes": [[["conv2d_3", 0, 0, {}]]]}, {"name": "max_pooling2d_1", "class_name": "MaxPooling2D", "config": {"trainable": true, "data_format": "channels_last", "pool_size": [3, 3], "name": "max_pooling2d_1", "strides": [2, 2], "padding": "valid"}, "inbound_nodes": [[["batch_normalization_3", 0, 0, {}]]]}, {"name": "conv2d_4", "class_name": "Conv2D", "config": {"trainable": true, "bias_constraint": null, "name": "conv2d_4", "bias_initializer": {"class_name": "Zeros", "config": {}}, "strides": [1, 1], "filters": 40, "data_format": "channels_last", "activation": "relu", "kernel_initializer": {"class_name": "VarianceScaling", "config": {"scale": 1.0, "distribution": "uniform", "seed": null, "mode": "fan_avg"}}, "use_bias": true, "dilation_rate": [1, 1], "bias_regularizer": null, "kernel_regularizer": null, "activity_regularizer": null, "kernel_size": [1, 1], "padding": "valid", "kernel_constraint": null}, "inbound_nodes": [[["max_pooling2d_1", 0, 0, {}]]]}, {"name": "batch_normalization_4", "class_name": "BatchNormalization", "config": {"gamma_regularizer": null, "momentum": 0.99, "epsilon": 0.001, "name": "batch_normalization_4", "beta_regularizer": null, "moving_mean_initializer": {"class_name": "Zeros", "config": {}}, "center": true, "scale": true, "trainable": true, "moving_variance_initializer": {"class_name": "Ones", "config": {}}, "gamma_constraint": null, "beta_initializer": {"class_name": "Zeros", "config": {}}, "beta_constraint": null, "axis": 3, "gamma_initializer": {"class_name": "Ones", "config": {}}}, "inbound_nodes": [[["conv2d_4", 0, 0, {}]]]}, {"name": "conv2d_5", "class_name": "Conv2D", "config": {"trainable": true, "bias_constraint": null, "name": "conv2d_5", "bias_initializer": {"class_name": "Zeros", "config": {}}, "strides": [1, 1], "filters": 96, "data_format": "channels_last", "activation": "relu", "kernel_initializer": {"class_name": "VarianceScaling", "config": {"scale": 1.0, "distribution": "uniform", "seed": null, "mode": "fan_avg"}}, "use_bias": true, "dilation_rate": [1, 1], "bias_regularizer": null, "kernel_regularizer": null, "activity_regularizer": null, "kernel_size": [3, 3], "padding": "valid", "kernel_constraint": null}, "inbound_nodes": [[["batch_normalization_4", 0, 0, {}]]]}, {"name": "batch_normalization_5", "class_name": "BatchNormalization", "config": {"gamma_regularizer": null, "momentum": 0.99, "epsilon": 0.001, "name": "batch_normalization_5", "beta_regularizer": null, "moving_mean_initializer": {"class_name": "Zeros", "config": {}}, "center": true, "scale": true, "trainable": true, "moving_variance_initializer": {"class_name": "Ones", "config": {}}, "gamma_constraint": null, "beta_initializer": {"class_name": "Zeros", "config": {}}, "beta_constraint": null, "axis": 3, "gamma_initializer": {"class_name": "Ones", "config": {}}}, "inbound_nodes": [[["conv2d_5", 0, 0, {}]]]}, {"name": "max_pooling2d_2", "class_name": "MaxPooling2D", "config": {"trainable": true, "data_format": "channels_last", "pool_size": [3, 3], "name": "max_pooling2d_2", "strides": [2, 2], "padding": "valid"}, "inbound_nodes": [[["batch_normalization_5", 0, 0, {}]]]}, {"name": "conv2d_9", "class_name": "Conv2D", "config": {"trainable": true, "bias_constraint": null, "name": "conv2d_9", "bias_initializer": {"class_name": "Zeros", "config": {}}, "strides": [1, 1], "filters": 32, "data_format": "channels_last", "activation": "relu", "kernel_initializer": {"class_name": "VarianceScaling", "config": {"scale": 1.0, "distribution": "uniform", "seed": null, "mode": "fan_avg"}}, "use_bias": true, "dilation_rate": [1, 1], "bias_regularizer": null, "kernel_regularizer": null, "activity_regularizer": null, "kernel_size": [1, 1], "padding": "same", "kernel_constraint": null}, "inbound_nodes": [[["max_pooling2d_2", 0, 0, {}]]]}, {"name": "batch_normalization_9", "class_name": "BatchNormalization", "config": {"gamma_regularizer": null, "momentum": 0.99, "epsilon": 0.001, "name": "batch_normalization_9", "beta_regularizer": null, "moving_mean_initializer": {"class_name": "Zeros", "config": {}}, "center": true, "scale": true, "trainable": true, "moving_variance_initializer": {"class_name": "Ones", "config": {}}, "gamma_constraint": null, "beta_initializer": {"class_name": "Zeros", "config": {}}, "beta_constraint": null, "axis": 3, "gamma_initializer": {"class_name": "Ones", "config": {}}}, "inbound_nodes": [[["conv2d_9", 0, 0, {}]]]}, {"name": "conv2d_7", "class_name": "Conv2D", "config": {"trainable": true, "bias_constraint": null, "name": "conv2d_7", "bias_initializer": {"class_name": "Zeros", "config": {}}, "strides": [1, 1], "filters": 24, "data_format": "channels_last", "activation": "relu", "kernel_initializer": {"class_name": "VarianceScaling", "config": {"scale": 1.0, "distribution": "uniform", "seed": null, "mode": "fan_avg"}}, "use_bias": true, "dilation_rate": [1, 1], "bias_regularizer": null, "kernel_regularizer": null, "activity_regularizer": null, "kernel_size": [1, 1], "padding": "same", "kernel_constraint": null}, "inbound_nodes": [[["max_pooling2d_2", 0, 0, {}]]]}, {"name": "conv2d_10", "class_name": "Conv2D", "config": {"trainable": true, "bias_constraint": null, "name": "conv2d_10", "bias_initializer": {"class_name": "Zeros", "config": {}}, "strides": [1, 1], "filters": 48, "data_format": "channels_last", "activation": "relu", "kernel_initializer": {"class_name": "VarianceScaling", "config": {"scale": 1.0, "distribution": "uniform", "seed": null, "mode": "fan_avg"}}, "use_bias": true, "dilation_rate": [1, 1], "bias_regularizer": null, "kernel_regularizer": null, "activity_regularizer": null, "kernel_size": [3, 3], "padding": "same", "kernel_constraint": null}, "inbound_nodes": [[["batch_normalization_9", 0, 0, {}]]]}, {"name": "batch_normalization_7", "class_name": "BatchNormalization", "config": {"gamma_regularizer": null, "momentum": 0.99, "epsilon": 0.001, "name": "batch_normalization_7", "beta_regularizer": null, "moving_mean_initializer": {"class_name": "Zeros", "config": {}}, "center": true, "scale": true, "trainable": true, "moving_variance_initializer": {"class_name": "Ones", "config": {}}, "gamma_constraint": null, "beta_initializer": {"class_name": "Zeros", "config": {}}, "beta_constraint": null, "axis": 3, "gamma_initializer": {"class_name": "Ones", "config": {}}}, "inbound_nodes": [[["conv2d_7", 0, 0, {}]]]}, {"name": "batch_normalization_10", "class_name": "BatchNormalization", "config": {"gamma_regularizer": null, "momentum": 0.99, "epsilon": 0.001, "name": "batch_normalization_10", "beta_regularizer": null, "moving_mean_initializer": {"class_name": "Zeros", "config": {}}, "center": true, "scale": true, "trainable": true, "moving_variance_initializer": {"class_name": "Ones", "config": {}}, "gamma_constraint": null, "beta_initializer": {"class_name": "Zeros", "config": {}}, "beta_constraint": null, "axis": 3, "gamma_initializer": {"class_name": "Ones", "config": {}}}, "inbound_nodes": [[["conv2d_10", 0, 0, {}]]]}, {"name": "average_pooling2d_1", "class_name": "AveragePooling2D", "config": {"trainable": true, "data_format": "channels_last", "pool_size": [3, 3], "name": "average_pooling2d_1", "strides": [1, 1], "padding": "same"}, "inbound_nodes": [[["max_pooling2d_2", 0, 0, {}]]]}, {"name": "conv2d_6", "class_name": "Conv2D", "config": {"trainable": true, "bias_constraint": null, "name": "conv2d_6", "bias_initializer": {"class_name": "Zeros", "config": {}}, "strides": [1, 1], "filters": 32, "data_format": "channels_last", "activation": "relu", "kernel_initializer": {"class_name": "VarianceScaling", "config": {"scale": 1.0, "distribution": "uniform", "seed": null, "mode": "fan_avg"}}, "use_bias": true, "dilation_rate": [1, 1], "bias_regularizer": null, "kernel_regularizer": null, "activity_regularizer": null, "kernel_size": [1, 1], "padding": "same", "kernel_constraint": null}, "inbound_nodes": [[["max_pooling2d_2", 0, 0, {}]]]}, {"name": "conv2d_8", "class_name": "Conv2D", "config": {"trainable": true, "bias_constraint": null, "name": "conv2d_8", "bias_initializer": {"class_name": "Zeros", "config": {}}, "strides": [1, 1], "filters": 32, "data_format": "channels_last", "activation": "relu", "kernel_initializer": {"class_name": "VarianceScaling", "config": {"scale": 1.0, "distribution": "uniform", "seed": null, "mode": "fan_avg"}}, "use_bias": true, "dilation_rate": [1, 1], "bias_regularizer": null, "kernel_regularizer": null, "activity_regularizer": null, "kernel_size": [5, 5], "padding": "same", "kernel_constraint": null}, "inbound_nodes": [[["batch_normalization_7", 0, 0, {}]]]}, {"name": "conv2d_11", "class_name": "Conv2D", "config": {"trainable": true, "bias_constraint": null, "name": "conv2d_11", "bias_initializer": {"class_name": "Zeros", "config": {}}, "strides": [1, 1], "filters": 48, "data_format": "channels_last", "activation": "relu", "kernel_initializer": {"class_name": "VarianceScaling", "config": {"scale": 1.0, "distribution": "uniform", "seed": null, "mode": "fan_avg"}}, "use_bias": true, "dilation_rate": [1, 1], "bias_regularizer": null, "kernel_regularizer": null, "activity_regularizer": null, "kernel_size": [3, 3], "padding": "same", "kernel_constraint": null}, "inbound_nodes": [[["batch_normalization_10", 0, 0, {}]]]}, {"name": "conv2d_12", "class_name": "Conv2D", "config": {"trainable": true, "bias_constraint": null, "name": "conv2d_12", "bias_initializer": {"class_name": "Zeros", "config": {}}, "strides": [1, 1], "filters": 16, "data_format": "channels_last", "activation": "relu", "kernel_initializer": {"class_name": "VarianceScaling", "config": {"scale": 1.0, "distribution": "uniform", "seed": null, "mode": "fan_avg"}}, "use_bias": true, "dilation_rate": [1, 1], "bias_regularizer": null, "kernel_regularizer": null, "activity_regularizer": null, "kernel_size": [1, 1], "padding": "same", "kernel_constraint": null}, "inbound_nodes": [[["average_pooling2d_1", 0, 0, {}]]]}, {"name": "batch_normalization_6", "class_name": "BatchNormalization", "config": {"gamma_regularizer": null, "momentum": 0.99, "epsilon": 0.001, "name": "batch_normalization_6", "beta_regularizer": null, "moving_mean_initializer": {"class_name": "Zeros", "config": {}}, "center": true, "scale": true, "trainable": true, "moving_variance_initializer": {"class_name": "Ones", "config": {}}, "gamma_constraint": null, "beta_initializer": {"class_name": "Zeros", "config": {}}, "beta_constraint": null, "axis": 3, "gamma_initializer": {"class_name": "Ones", "config": {}}}, "inbound_nodes": [[["conv2d_6", 0, 0, {}]]]}, {"name": "batch_normalization_8", "class_name": "BatchNormalization", "config": {"gamma_regularizer": null, "momentum": 0.99, "epsilon": 0.001, "name": "batch_normalization_8", "beta_regularizer": null, "moving_mean_initializer": {"class_name": "Zeros", "config": {}}, "center": true, "scale": true, "trainable": true, "moving_variance_initializer": {"class_name": "Ones", "config": {}}, "gamma_constraint": null, "beta_initializer": {"class_name": "Zeros", "config": {}}, "beta_constraint": null, "axis": 3, "gamma_initializer": {"class_name": "Ones", "config": {}}}, "inbound_nodes": [[["conv2d_8", 0, 0, {}]]]}, {"name": "batch_normalization_11", "class_name": "BatchNormalization", "config": {"gamma_regularizer": null, "momentum": 0.99, "epsilon": 0.001, "name": "batch_normalization_11", "beta_regularizer": null, "moving_mean_initializer": {"class_name": "Zeros", "config": {}}, "center": true, "scale": true, "trainable": true, "moving_variance_initializer": {"class_name": "Ones", "config": {}}, "gamma_constraint": null, "beta_initializer": {"class_name": "Zeros", "config": {}}, "beta_constraint": null, "axis": 3, "gamma_initializer": {"class_name": "Ones", "config": {}}}, "inbound_nodes": [[["conv2d_11", 0, 0, {}]]]}, {"name": "batch_normalization_12", "class_name": "BatchNormalization", "config": {"gamma_regularizer": null, "momentum": 0.99, "epsilon": 0.001, "name": "batch_normalization_12", "beta_regularizer": null, "moving_mean_initializer": {"class_name": "Zeros", "config": {}}, "center": true, "scale": true, "trainable": true, "moving_variance_initializer": {"class_name": "Ones", "config": {}}, "gamma_constraint": null, "beta_initializer": {"class_name": "Zeros", "config": {}}, "beta_constraint": null, "axis": 3, "gamma_initializer": {"class_name": "Ones", "config": {}}}, "inbound_nodes": [[["conv2d_12", 0, 0, {}]]]}, {"name": "mixed0", "class_name": "Concatenate", "config": {"name": "mixed0", "trainable": true, "axis": -1}, "inbound_nodes": [[["batch_normalization_6", 0, 0, {}], ["batch_normalization_8", 0, 0, {}], ["batch_normalization_11", 0, 0, {}], ["batch_normalization_12", 0, 0, {}]]]}, {"name": "conv2d_16", "class_name": "Conv2D", "config": {"trainable": true, "bias_constraint": null, "name": "conv2d_16", "bias_initializer": {"class_name": "Zeros", "config": {}}, "strides": [1, 1], "filters": 32, "data_format": "channels_last", "activation": "relu", "kernel_initializer": {"class_name": "VarianceScaling", "config": {"scale": 1.0, "distribution": "uniform", "seed": null, "mode": "fan_avg"}}, "use_bias": true, "dilation_rate": [1, 1], "bias_regularizer": null, "kernel_regularizer": null, "activity_regularizer": null, "kernel_size": [1, 1], "padding": "same", "kernel_constraint": null}, "inbound_nodes": [[["mixed0", 0, 0, {}]]]}, {"name": "batch_normalization_16", "class_name": "BatchNormalization", "config": {"gamma_regularizer": null, "momentum": 0.99, "epsilon": 0.001, "name": "batch_normalization_16", "beta_regularizer": null, "moving_mean_initializer": {"class_name": "Zeros", "config": {}}, "center": true, "scale": true, "trainable": true, "moving_variance_initializer": {"class_name": "Ones", "config": {}}, "gamma_constraint": null, "beta_initializer": {"class_name": "Zeros", "config": {}}, "beta_constraint": null, "axis": 3, "gamma_initializer": {"class_name": "Ones", "config": {}}}, "inbound_nodes": [[["conv2d_16", 0, 0, {}]]]}, {"name": "conv2d_14", "class_name": "Conv2D", "config": {"trainable": true, "bias_constraint": null, "name": "conv2d_14", "bias_initializer": {"class_name": "Zeros", "config": {}}, "strides": [1, 1], "filters": 24, "data_format": "channels_last", "activation": "relu", "kernel_initializer": {"class_name": "VarianceScaling", "config": {"scale": 1.0, "distribution": "uniform", "seed": null, "mode": "fan_avg"}}, "use_bias": true, "dilation_rate": [1, 1], "bias_regularizer": null, "kernel_regularizer": null, "activity_regularizer": null, "kernel_size": [1, 1], "padding": "same", "kernel_constraint": null}, "inbound_nodes": [[["mixed0", 0, 0, {}]]]}, {"name": "conv2d_17", "class_name": "Conv2D", "config": {"trainable": true, "bias_constraint": null, "name": "conv2d_17", "bias_initializer": {"class_name": "Zeros", "config": {}}, "strides": [1, 1], "filters": 48, "data_format": "channels_last", "activation": "relu", "kernel_initializer": {"class_name": "VarianceScaling", "config": {"scale": 1.0, "distribution": "uniform", "seed": null, "mode": "fan_avg"}}, "use_bias": true, "dilation_rate": [1, 1], "bias_regularizer": null, "kernel_regularizer": null, "activity_regularizer": null, "kernel_size": [3, 3], "padding": "same", "kernel_constraint": null}, "inbound_nodes": [[["batch_normalization_16", 0, 0, {}]]]}, {"name": "batch_normalization_14", "class_name": "BatchNormalization", "config": {"gamma_regularizer": null, "momentum": 0.99, "epsilon": 0.001, "name": "batch_normalization_14", "beta_regularizer": null, "moving_mean_initializer": {"class_name": "Zeros", "config": {}}, "center": true, "scale": true, "trainable": true, "moving_variance_initializer": {"class_name": "Ones", "config": {}}, "gamma_constraint": null, "beta_initializer": {"class_name": "Zeros", "config": {}}, "beta_constraint": null, "axis": 3, "gamma_initializer": {"class_name": "Ones", "config": {}}}, "inbound_nodes": [[["conv2d_14", 0, 0, {}]]]}, {"name": "batch_normalization_17", "class_name": "BatchNormalization", "config": {"gamma_regularizer": null, "momentum": 0.99, "epsilon": 0.001, "name": "batch_normalization_17", "beta_regularizer": null, "moving_mean_initializer": {"class_name": "Zeros", "config": {}}, "center": true, "scale": true, "trainable": true, "moving_variance_initializer": {"class_name": "Ones", "config": {}}, "gamma_constraint": null, "beta_initializer": {"class_name": "Zeros", "config": {}}, "beta_constraint": null, "axis": 3, "gamma_initializer": {"class_name": "Ones", "config": {}}}, "inbound_nodes": [[["conv2d_17", 0, 0, {}]]]}, {"name": "average_pooling2d_2", "class_name": "AveragePooling2D", "config": {"trainable": true, "data_format": "channels_last", "pool_size": [3, 3], "name": "average_pooling2d_2", "strides": [1, 1], "padding": "same"}, "inbound_nodes": [[["mixed0", 0, 0, {}]]]}, {"name": "conv2d_13", "class_name": "Conv2D", "config": {"trainable": true, "bias_constraint": null, "name": "conv2d_13", "bias_initializer": {"class_name": "Zeros", "config": {}}, "strides": [1, 1], "filters": 32, "data_format": "channels_last", "activation": "relu", "kernel_initializer": {"class_name": "VarianceScaling", "config": {"scale": 1.0, "distribution": "uniform", "seed": null, "mode": "fan_avg"}}, "use_bias": true, "dilation_rate": [1, 1], "bias_regularizer": null, "kernel_regularizer": null, "activity_regularizer": null, "kernel_size": [1, 1], "padding": "same", "kernel_constraint": null}, "inbound_nodes": [[["mixed0", 0, 0, {}]]]}, {"name": "conv2d_15", "class_name": "Conv2D", "config": {"trainable": true, "bias_constraint": null, "name": "conv2d_15", "bias_initializer": {"class_name": "Zeros", "config": {}}, "strides": [1, 1], "filters": 32, "data_format": "channels_last", "activation": "relu", "kernel_initializer": {"class_name": "VarianceScaling", "config": {"scale": 1.0, "distribution": "uniform", "seed": null, "mode": "fan_avg"}}, "use_bias": true, "dilation_rate": [1, 1], "bias_regularizer": null, "kernel_regularizer": null, "activity_regularizer": null, "kernel_size": [5, 5], "padding": "same", "kernel_constraint": null}, "inbound_nodes": [[["batch_normalization_14", 0, 0, {}]]]}, {"name": "conv2d_18", "class_name": "Conv2D", "config": {"trainable": true, "bias_constraint": null, "name": "conv2d_18", "bias_initializer": {"class_name": "Zeros", "config": {}}, "strides": [1, 1], "filters": 48, "data_format": "channels_last", "activation": "relu", "kernel_initializer": {"class_name": "VarianceScaling", "config": {"scale": 1.0, "distribution": "uniform", "seed": null, "mode": "fan_avg"}}, "use_bias": true, "dilation_rate": [1, 1], "bias_regularizer": null, "kernel_regularizer": null, "activity_regularizer": null, "kernel_size": [3, 3], "padding": "same", "kernel_constraint": null}, "inbound_nodes": [[["batch_normalization_17", 0, 0, {}]]]}, {"name": "conv2d_19", "class_name": "Conv2D", "config": {"trainable": true, "bias_constraint": null, "name": "conv2d_19", "bias_initializer": {"class_name": "Zeros", "config": {}}, "strides": [1, 1], "filters": 16, "data_format": "channels_last", "activation": "relu", "kernel_initializer": {"class_name": "VarianceScaling", "config": {"scale": 1.0, "distribution": "uniform", "seed": null, "mode": "fan_avg"}}, "use_bias": true, "dilation_rate": [1, 1], "bias_regularizer": null, "kernel_regularizer": null, "activity_regularizer": null, "kernel_size": [1, 1], "padding": "same", "kernel_constraint": null}, "inbound_nodes": [[["average_pooling2d_2", 0, 0, {}]]]}, {"name": "batch_normalization_13", "class_name": "BatchNormalization", "config": {"gamma_regularizer": null, "momentum": 0.99, "epsilon": 0.001, "name": "batch_normalization_13", "beta_regularizer": null, "moving_mean_initializer": {"class_name": "Zeros", "config": {}}, "center": true, "scale": true, "trainable": true, "moving_variance_initializer": {"class_name": "Ones", "config": {}}, "gamma_constraint": null, "beta_initializer": {"class_name": "Zeros", "config": {}}, "beta_constraint": null, "axis": 3, "gamma_initializer": {"class_name": "Ones", "config": {}}}, "inbound_nodes": [[["conv2d_13", 0, 0, {}]]]}, {"name": "batch_normalization_15", "class_name": "BatchNormalization", "config": {"gamma_regularizer": null, "momentum": 0.99, "epsilon": 0.001, "name": "batch_normalization_15", "beta_regularizer": null, "moving_mean_initializer": {"class_name": "Zeros", "config": {}}, "center": true, "scale": true, "trainable": true, "moving_variance_initializer": {"class_name": "Ones", "config": {}}, "gamma_constraint": null, "beta_initializer": {"class_name": "Zeros", "config": {}}, "beta_constraint": null, "axis": 3, "gamma_initializer": {"class_name": "Ones", "config": {}}}, "inbound_nodes": [[["conv2d_15", 0, 0, {}]]]}, {"name": "batch_normalization_18", "class_name": "BatchNormalization", "config": {"gamma_regularizer": null, "momentum": 0.99, "epsilon": 0.001, "name": "batch_normalization_18", "beta_regularizer": null, "moving_mean_initializer": {"class_name": "Zeros", "config": {}}, "center": true, "scale": true, "trainable": true, "moving_variance_initializer": {"class_name": "Ones", "config": {}}, "gamma_constraint": null, "beta_initializer": {"class_name": "Zeros", "config": {}}, "beta_constraint": null, "axis": 3, "gamma_initializer": {"class_name": "Ones", "config": {}}}, "inbound_nodes": [[["conv2d_18", 0, 0, {}]]]}, {"name": "batch_normalization_19", "class_name": "BatchNormalization", "config": {"gamma_regularizer": null, "momentum": 0.99, "epsilon": 0.001, "name": "batch_normalization_19", "beta_regularizer": null, "moving_mean_initializer": {"class_name": "Zeros", "config": {}}, "center": true, "scale": true, "trainable": true, "moving_variance_initializer": {"class_name": "Ones", "config": {}}, "gamma_constraint": null, "beta_initializer": {"class_name": "Zeros", "config": {}}, "beta_constraint": null, "axis": 3, "gamma_initializer": {"class_name": "Ones", "config": {}}}, "inbound_nodes": [[["conv2d_19", 0, 0, {}]]]}, {"name": "mixed1", "class_name": "Concatenate", "config": {"name": "mixed1", "trainable": true, "axis": -1}, "inbound_nodes": [[["batch_normalization_13", 0, 0, {}], ["batch_normalization_15", 0, 0, {}], ["batch_normalization_18", 0, 0, {}], ["batch_normalization_19", 0, 0, {}]]]}, {"name": "conv2d_23", "class_name": "Conv2D", "config": {"trainable": true, "bias_constraint": null, "name": "conv2d_23", "bias_initializer": {"class_name": "Zeros", "config": {}}, "strides": [1, 1], "filters": 32, "data_format": "channels_last", "activation": "relu", "kernel_initializer": {"class_name": "VarianceScaling", "config": {"scale": 1.0, "distribution": "uniform", "seed": null, "mode": "fan_avg"}}, "use_bias": true, "dilation_rate": [1, 1], "bias_regularizer": null, "kernel_regularizer": null, "activity_regularizer": null, "kernel_size": [1, 1], "padding": "same", "kernel_constraint": null}, "inbound_nodes": [[["mixed1", 0, 0, {}]]]}, {"name": "batch_normalization_23", "class_name": "BatchNormalization", "config": {"gamma_regularizer": null, "momentum": 0.99, "epsilon": 0.001, "name": "batch_normalization_23", "beta_regularizer": null, "moving_mean_initializer": {"class_name": "Zeros", "config": {}}, "center": true, "scale": true, "trainable": true, "moving_variance_initializer": {"class_name": "Ones", "config": {}}, "gamma_constraint": null, "beta_initializer": {"class_name": "Zeros", "config": {}}, "beta_constraint": null, "axis": 3, "gamma_initializer": {"class_name": "Ones", "config": {}}}, "inbound_nodes": [[["conv2d_23", 0, 0, {}]]]}, {"name": "conv2d_21", "class_name": "Conv2D", "config": {"trainable": true, "bias_constraint": null, "name": "conv2d_21", "bias_initializer": {"class_name": "Zeros", "config": {}}, "strides": [1, 1], "filters": 24, "data_format": "channels_last", "activation": "relu", "kernel_initializer": {"class_name": "VarianceScaling", "config": {"scale": 1.0, "distribution": "uniform", "seed": null, "mode": "fan_avg"}}, "use_bias": true, "dilation_rate": [1, 1], "bias_regularizer": null, "kernel_regularizer": null, "activity_regularizer": null, "kernel_size": [1, 1], "padding": "same", "kernel_constraint": null}, "inbound_nodes": [[["mixed1", 0, 0, {}]]]}, {"name": "conv2d_24", "class_name": "Conv2D", "config": {"trainable": true, "bias_constraint": null, "name": "conv2d_24", "bias_initializer": {"class_name": "Zeros", "config": {}}, "strides": [1, 1], "filters": 48, "data_format": "channels_last", "activation": "relu", "kernel_initializer": {"class_name": "VarianceScaling", "config": {"scale": 1.0, "distribution": "uniform", "seed": null, "mode": "fan_avg"}}, "use_bias": true, "dilation_rate": [1, 1], "bias_regularizer": null, "kernel_regularizer": null, "activity_regularizer": null, "kernel_size": [3, 3], "padding": "same", "kernel_constraint": null}, "inbound_nodes": [[["batch_normalization_23", 0, 0, {}]]]}, {"name": "batch_normalization_21", "class_name": "BatchNormalization", "config": {"gamma_regularizer": null, "momentum": 0.99, "epsilon": 0.001, "name": "batch_normalization_21", "beta_regularizer": null, "moving_mean_initializer": {"class_name": "Zeros", "config": {}}, "center": true, "scale": true, "trainable": true, "moving_variance_initializer": {"class_name": "Ones", "config": {}}, "gamma_constraint": null, "beta_initializer": {"class_name": "Zeros", "config": {}}, "beta_constraint": null, "axis": 3, "gamma_initializer": {"class_name": "Ones", "config": {}}}, "inbound_nodes": [[["conv2d_21", 0, 0, {}]]]}, {"name": "batch_normalization_24", "class_name": "BatchNormalization", "config": {"gamma_regularizer": null, "momentum": 0.99, "epsilon": 0.001, "name": "batch_normalization_24", "beta_regularizer": null, "moving_mean_initializer": {"class_name": "Zeros", "config": {}}, "center": true, "scale": true, "trainable": true, "moving_variance_initializer": {"class_name": "Ones", "config": {}}, "gamma_constraint": null, "beta_initializer": {"class_name": "Zeros", "config": {}}, "beta_constraint": null, "axis": 3, "gamma_initializer": {"class_name": "Ones", "config": {}}}, "inbound_nodes": [[["conv2d_24", 0, 0, {}]]]}, {"name": "average_pooling2d_3", "class_name": "AveragePooling2D", "config": {"trainable": true, "data_format": "channels_last", "pool_size": [3, 3], "name": "average_pooling2d_3", "strides": [1, 1], "padding": "same"}, "inbound_nodes": [[["mixed1", 0, 0, {}]]]}, {"name": "conv2d_20", "class_name": "Conv2D", "config": {"trainable": true, "bias_constraint": null, "name": "conv2d_20", "bias_initializer": {"class_name": "Zeros", "config": {}}, "strides": [1, 1], "filters": 32, "data_format": "channels_last", "activation": "relu", "kernel_initializer": {"class_name": "VarianceScaling", "config": {"scale": 1.0, "distribution": "uniform", "seed": null, "mode": "fan_avg"}}, "use_bias": true, "dilation_rate": [1, 1], "bias_regularizer": null, "kernel_regularizer": null, "activity_regularizer": null, "kernel_size": [1, 1], "padding": "same", "kernel_constraint": null}, "inbound_nodes": [[["mixed1", 0, 0, {}]]]}, {"name": "conv2d_22", "class_name": "Conv2D", "config": {"trainable": true, "bias_constraint": null, "name": "conv2d_22", "bias_initializer": {"class_name": "Zeros", "config": {}}, "strides": [1, 1], "filters": 32, "data_format": "channels_last", "activation": "relu", "kernel_initializer": {"class_name": "VarianceScaling", "config": {"scale": 1.0, "distribution": "uniform", "seed": null, "mode": "fan_avg"}}, "use_bias": true, "dilation_rate": [1, 1], "bias_regularizer": null, "kernel_regularizer": null, "activity_regularizer": null, "kernel_size": [5, 5], "padding": "same", "kernel_constraint": null}, "inbound_nodes": [[["batch_normalization_21", 0, 0, {}]]]}, {"name": "conv2d_25", "class_name": "Conv2D", "config": {"trainable": true, "bias_constraint": null, "name": "conv2d_25", "bias_initializer": {"class_name": "Zeros", "config": {}}, "strides": [1, 1], "filters": 48, "data_format": "channels_last", "activation": "relu", "kernel_initializer": {"class_name": "VarianceScaling", "config": {"scale": 1.0, "distribution": "uniform", "seed": null, "mode": "fan_avg"}}, "use_bias": true, "dilation_rate": [1, 1], "bias_regularizer": null, "kernel_regularizer": null, "activity_regularizer": null, "kernel_size": [3, 3], "padding": "same", "kernel_constraint": null}, "inbound_nodes": [[["batch_normalization_24", 0, 0, {}]]]}, {"name": "conv2d_26", "class_name": "Conv2D", "config": {"trainable": true, "bias_constraint": null, "name": "conv2d_26", "bias_initializer": {"class_name": "Zeros", "config": {}}, "strides": [1, 1], "filters": 16, "data_format": "channels_last", "activation": "relu", "kernel_initializer": {"class_name": "VarianceScaling", "config": {"scale": 1.0, "distribution": "uniform", "seed": null, "mode": "fan_avg"}}, "use_bias": true, "dilation_rate": [1, 1], "bias_regularizer": null, "kernel_regularizer": null, "activity_regularizer": null, "kernel_size": [1, 1], "padding": "same", "kernel_constraint": null}, "inbound_nodes": [[["average_pooling2d_3", 0, 0, {}]]]}, {"name": "batch_normalization_20", "class_name": "BatchNormalization", "config": {"gamma_regularizer": null, "momentum": 0.99, "epsilon": 0.001, "name": "batch_normalization_20", "beta_regularizer": null, "moving_mean_initializer": {"class_name": "Zeros", "config": {}}, "center": true, "scale": true, "trainable": true, "moving_variance_initializer": {"class_name": "Ones", "config": {}}, "gamma_constraint": null, "beta_initializer": {"class_name": "Zeros", "config": {}}, "beta_constraint": null, "axis": 3, "gamma_initializer": {"class_name": "Ones", "config": {}}}, "inbound_nodes": [[["conv2d_20", 0, 0, {}]]]}, {"name": "batch_normalization_22", "class_name": "BatchNormalization", "config": {"gamma_regularizer": null, "momentum": 0.99, "epsilon": 0.001, "name": "batch_normalization_22", "beta_regularizer": null, "moving_mean_initializer": {"class_name": "Zeros", "config": {}}, "center": true, "scale": true, "trainable": true, "moving_variance_initializer": {"class_name": "Ones", "config": {}}, "gamma_constraint": null, "beta_initializer": {"class_name": "Zeros", "config": {}}, "beta_constraint": null, "axis": 3, "gamma_initializer": {"class_name": "Ones", "config": {}}}, "inbound_nodes": [[["conv2d_22", 0, 0, {}]]]}, {"name": "batch_normalization_25", "class_name": "BatchNormalization", "config": {"gamma_regularizer": null, "momentum": 0.99, "epsilon": 0.001, "name": "batch_normalization_25", "beta_regularizer": null, "moving_mean_initializer": {"class_name": "Zeros", "config": {}}, "center": true, "scale": true, "trainable": true, "moving_variance_initializer": {"class_name": "Ones", "config": {}}, "gamma_constraint": null, "beta_initializer": {"class_name": "Zeros", "config": {}}, "beta_constraint": null, "axis": 3, "gamma_initializer": {"class_name": "Ones", "config": {}}}, "inbound_nodes": [[["conv2d_25", 0, 0, {}]]]}, {"name": "batch_normalization_26", "class_name": "BatchNormalization", "config": {"gamma_regularizer": null, "momentum": 0.99, "epsilon": 0.001, "name": "batch_normalization_26", "beta_regularizer": null, "moving_mean_initializer": {"class_name": "Zeros", "config": {}}, "center": true, "scale": true, "trainable": true, "moving_variance_initializer": {"class_name": "Ones", "config": {}}, "gamma_constraint": null, "beta_initializer": {"class_name": "Zeros", "config": {}}, "beta_constraint": null, "axis": 3, "gamma_initializer": {"class_name": "Ones", "config": {}}}, "inbound_nodes": [[["conv2d_26", 0, 0, {}]]]}, {"name": "mixed2", "class_name": "Concatenate", "config": {"name": "mixed2", "trainable": true, "axis": -1}, "inbound_nodes": [[["batch_normalization_20", 0, 0, {}], ["batch_normalization_22", 0, 0, {}], ["batch_normalization_25", 0, 0, {}], ["batch_normalization_26", 0, 0, {}]]]}, {"name": "conv2d_28", "class_name": "Conv2D", "config": {"trainable": true, "bias_constraint": null, "name": "conv2d_28", "bias_initializer": {"class_name": "Zeros", "config": {}}, "strides": [1, 1], "filters": 32, "data_format": "channels_last", "activation": "relu", "kernel_initializer": {"class_name": "VarianceScaling", "config": {"scale": 1.0, "distribution": "uniform", "seed": null, "mode": "fan_avg"}}, "use_bias": true, "dilation_rate": [1, 1], "bias_regularizer": null, "kernel_regularizer": null, "activity_regularizer": null, "kernel_size": [1, 1], "padding": "same", "kernel_constraint": null}, "inbound_nodes": [[["mixed2", 0, 0, {}]]]}, {"name": "batch_normalization_28", "class_name": "BatchNormalization", "config": {"gamma_regularizer": null, "momentum": 0.99, "epsilon": 0.001, "name": "batch_normalization_28", "beta_regularizer": null, "moving_mean_initializer": {"class_name": "Zeros", "config": {}}, "center": true, "scale": true, "trainable": true, "moving_variance_initializer": {"class_name": "Ones", "config": {}}, "gamma_constraint": null, "beta_initializer": {"class_name": "Zeros", "config": {}}, "beta_constraint": null, "axis": 3, "gamma_initializer": {"class_name": "Ones", "config": {}}}, "inbound_nodes": [[["conv2d_28", 0, 0, {}]]]}, {"name": "conv2d_29", "class_name": "Conv2D", "config": {"trainable": true, "bias_constraint": null, "name": "conv2d_29", "bias_initializer": {"class_name": "Zeros", "config": {}}, "strides": [1, 1], "filters": 48, "data_format": "channels_last", "activation": "relu", "kernel_initializer": {"class_name": "VarianceScaling", "config": {"scale": 1.0, "distribution": "uniform", "seed": null, "mode": "fan_avg"}}, "use_bias": true, "dilation_rate": [1, 1], "bias_regularizer": null, "kernel_regularizer": null, "activity_regularizer": null, "kernel_size": [3, 3], "padding": "same", "kernel_constraint": null}, "inbound_nodes": [[["batch_normalization_28", 0, 0, {}]]]}, {"name": "batch_normalization_29", "class_name": "BatchNormalization", "config": {"gamma_regularizer": null, "momentum": 0.99, "epsilon": 0.001, "name": "batch_normalization_29", "beta_regularizer": null, "moving_mean_initializer": {"class_name": "Zeros", "config": {}}, "center": true, "scale": true, "trainable": true, "moving_variance_initializer": {"class_name": "Ones", "config": {}}, "gamma_constraint": null, "beta_initializer": {"class_name": "Zeros", "config": {}}, "beta_constraint": null, "axis": 3, "gamma_initializer": {"class_name": "Ones", "config": {}}}, "inbound_nodes": [[["conv2d_29", 0, 0, {}]]]}, {"name": "conv2d_27", "class_name": "Conv2D", "config": {"trainable": true, "bias_constraint": null, "name": "conv2d_27", "bias_initializer": {"class_name": "Zeros", "config": {}}, "strides": [2, 2], "filters": 192, "data_format": "channels_last", "activation": "relu", "kernel_initializer": {"class_name": "VarianceScaling", "config": {"scale": 1.0, "distribution": "uniform", "seed": null, "mode": "fan_avg"}}, "use_bias": true, "dilation_rate": [1, 1], "bias_regularizer": null, "kernel_regularizer": null, "activity_regularizer": null, "kernel_size": [3, 3], "padding": "valid", "kernel_constraint": null}, "inbound_nodes": [[["mixed2", 0, 0, {}]]]}, {"name": "conv2d_30", "class_name": "Conv2D", "config": {"trainable": true, "bias_constraint": null, "name": "conv2d_30", "bias_initializer": {"class_name": "Zeros", "config": {}}, "strides": [2, 2], "filters": 48, "data_format": "channels_last", "activation": "relu", "kernel_initializer": {"class_name": "VarianceScaling", "config": {"scale": 1.0, "distribution": "uniform", "seed": null, "mode": "fan_avg"}}, "use_bias": true, "dilation_rate": [1, 1], "bias_regularizer": null, "kernel_regularizer": null, "activity_regularizer": null, "kernel_size": [3, 3], "padding": "valid", "kernel_constraint": null}, "inbound_nodes": [[["batch_normalization_29", 0, 0, {}]]]}, {"name": "batch_normalization_27", "class_name": "BatchNormalization", "config": {"gamma_regularizer": null, "momentum": 0.99, "epsilon": 0.001, "name": "batch_normalization_27", "beta_regularizer": null, "moving_mean_initializer": {"class_name": "Zeros", "config": {}}, "center": true, "scale": true, "trainable": true, "moving_variance_initializer": {"class_name": "Ones", "config": {}}, "gamma_constraint": null, "beta_initializer": {"class_name": "Zeros", "config": {}}, "beta_constraint": null, "axis": 3, "gamma_initializer": {"class_name": "Ones", "config": {}}}, "inbound_nodes": [[["conv2d_27", 0, 0, {}]]]}, {"name": "batch_normalization_30", "class_name": "BatchNormalization", "config": {"gamma_regularizer": null, "momentum": 0.99, "epsilon": 0.001, "name": "batch_normalization_30", "beta_regularizer": null, "moving_mean_initializer": {"class_name": "Zeros", "config": {}}, "center": true, "scale": true, "trainable": true, "moving_variance_initializer": {"class_name": "Ones", "config": {}}, "gamma_constraint": null, "beta_initializer": {"class_name": "Zeros", "config": {}}, "beta_constraint": null, "axis": 3, "gamma_initializer": {"class_name": "Ones", "config": {}}}, "inbound_nodes": [[["conv2d_30", 0, 0, {}]]]}, {"name": "max_pooling2d_3", "class_name": "MaxPooling2D", "config": {"trainable": true, "data_format": "channels_last", "pool_size": [3, 3], "name": "max_pooling2d_3", "strides": [2, 2], "padding": "valid"}, "inbound_nodes": [[["mixed2", 0, 0, {}]]]}, {"name": "mixed3", "class_name": "Concatenate", "config": {"name": "mixed3", "trainable": true, "axis": -1}, "inbound_nodes": [[["batch_normalization_27", 0, 0, {}], ["batch_normalization_30", 0, 0, {}], ["max_pooling2d_3", 0, 0, {}]]]}, {"name": "conv2d_35", "class_name": "Conv2D", "config": {"trainable": true, "bias_constraint": null, "name": "conv2d_35", "bias_initializer": {"class_name": "Zeros", "config": {}}, "strides": [1, 1], "filters": 64, "data_format": "channels_last", "activation": "relu", "kernel_initializer": {"class_name": "VarianceScaling", "config": {"scale": 1.0, "distribution": "uniform", "seed": null, "mode": "fan_avg"}}, "use_bias": true, "dilation_rate": [1, 1], "bias_regularizer": null, "kernel_regularizer": null, "activity_regularizer": null, "kernel_size": [1, 1], "padding": "same", "kernel_constraint": null}, "inbound_nodes": [[["mixed3", 0, 0, {}]]]}, {"name": "batch_normalization_35", "class_name": "BatchNormalization", "config": {"gamma_regularizer": null, "momentum": 0.99, "epsilon": 0.001, "name": "batch_normalization_35", "beta_regularizer": null, "moving_mean_initializer": {"class_name": "Zeros", "config": {}}, "center": true, "scale": true, "trainable": true, "moving_variance_initializer": {"class_name": "Ones", "config": {}}, "gamma_constraint": null, "beta_initializer": {"class_name": "Zeros", "config": {}}, "beta_constraint": null, "axis": 3, "gamma_initializer": {"class_name": "Ones", "config": {}}}, "inbound_nodes": [[["conv2d_35", 0, 0, {}]]]}, {"name": "conv2d_36", "class_name": "Conv2D", "config": {"trainable": true, "bias_constraint": null, "name": "conv2d_36", "bias_initializer": {"class_name": "Zeros", "config": {}}, "strides": [1, 1], "filters": 64, "data_format": "channels_last", "activation": "relu", "kernel_initializer": {"class_name": "VarianceScaling", "config": {"scale": 1.0, "distribution": "uniform", "seed": null, "mode": "fan_avg"}}, "use_bias": true, "dilation_rate": [1, 1], "bias_regularizer": null, "kernel_regularizer": null, "activity_regularizer": null, "kernel_size": [7, 1], "padding": "same", "kernel_constraint": null}, "inbound_nodes": [[["batch_normalization_35", 0, 0, {}]]]}, {"name": "batch_normalization_36", "class_name": "BatchNormalization", "config": {"gamma_regularizer": null, "momentum": 0.99, "epsilon": 0.001, "name": "batch_normalization_36", "beta_regularizer": null, "moving_mean_initializer": {"class_name": "Zeros", "config": {}}, "center": true, "scale": true, "trainable": true, "moving_variance_initializer": {"class_name": "Ones", "config": {}}, "gamma_constraint": null, "beta_initializer": {"class_name": "Zeros", "config": {}}, "beta_constraint": null, "axis": 3, "gamma_initializer": {"class_name": "Ones", "config": {}}}, "inbound_nodes": [[["conv2d_36", 0, 0, {}]]]}, {"name": "conv2d_32", "class_name": "Conv2D", "config": {"trainable": true, "bias_constraint": null, "name": "conv2d_32", "bias_initializer": {"class_name": "Zeros", "config": {}}, "strides": [1, 1], "filters": 64, "data_format": "channels_last", "activation": "relu", "kernel_initializer": {"class_name": "VarianceScaling", "config": {"scale": 1.0, "distribution": "uniform", "seed": null, "mode": "fan_avg"}}, "use_bias": true, "dilation_rate": [1, 1], "bias_regularizer": null, "kernel_regularizer": null, "activity_regularizer": null, "kernel_size": [1, 1], "padding": "same", "kernel_constraint": null}, "inbound_nodes": [[["mixed3", 0, 0, {}]]]}, {"name": "conv2d_37", "class_name": "Conv2D", "config": {"trainable": true, "bias_constraint": null, "name": "conv2d_37", "bias_initializer": {"class_name": "Zeros", "config": {}}, "strides": [1, 1], "filters": 64, "data_format": "channels_last", "activation": "relu", "kernel_initializer": {"class_name": "VarianceScaling", "config": {"scale": 1.0, "distribution": "uniform", "seed": null, "mode": "fan_avg"}}, "use_bias": true, "dilation_rate": [1, 1], "bias_regularizer": null, "kernel_regularizer": null, "activity_regularizer": null, "kernel_size": [1, 7], "padding": "same", "kernel_constraint": null}, "inbound_nodes": [[["batch_normalization_36", 0, 0, {}]]]}, {"name": "batch_normalization_32", "class_name": "BatchNormalization", "config": {"gamma_regularizer": null, "momentum": 0.99, "epsilon": 0.001, "name": "batch_normalization_32", "beta_regularizer": null, "moving_mean_initializer": {"class_name": "Zeros", "config": {}}, "center": true, "scale": true, "trainable": true, "moving_variance_initializer": {"class_name": "Ones", "config": {}}, "gamma_constraint": null, "beta_initializer": {"class_name": "Zeros", "config": {}}, "beta_constraint": null, "axis": 3, "gamma_initializer": {"class_name": "Ones", "config": {}}}, "inbound_nodes": [[["conv2d_32", 0, 0, {}]]]}, {"name": "batch_normalization_37", "class_name": "BatchNormalization", "config": {"gamma_regularizer": null, "momentum": 0.99, "epsilon": 0.001, "name": "batch_normalization_37", "beta_regularizer": null, "moving_mean_initializer": {"class_name": "Zeros", "config": {}}, "center": true, "scale": true, "trainable": true, "moving_variance_initializer": {"class_name": "Ones", "config": {}}, "gamma_constraint": null, "beta_initializer": {"class_name": "Zeros", "config": {}}, "beta_constraint": null, "axis": 3, "gamma_initializer": {"class_name": "Ones", "config": {}}}, "inbound_nodes": [[["conv2d_37", 0, 0, {}]]]}, {"name": "conv2d_33", "class_name": "Conv2D", "config": {"trainable": true, "bias_constraint": null, "name": "conv2d_33", "bias_initializer": {"class_name": "Zeros", "config": {}}, "strides": [1, 1], "filters": 64, "data_format": "channels_last", "activation": "relu", "kernel_initializer": {"class_name": "VarianceScaling", "config": {"scale": 1.0, "distribution": "uniform", "seed": null, "mode": "fan_avg"}}, "use_bias": true, "dilation_rate": [1, 1], "bias_regularizer": null, "kernel_regularizer": null, "activity_regularizer": null, "kernel_size": [1, 7], "padding": "same", "kernel_constraint": null}, "inbound_nodes": [[["batch_normalization_32", 0, 0, {}]]]}, {"name": "conv2d_38", "class_name": "Conv2D", "config": {"trainable": true, "bias_constraint": null, "name": "conv2d_38", "bias_initializer": {"class_name": "Zeros", "config": {}}, "strides": [1, 1], "filters": 64, "data_format": "channels_last", "activation": "relu", "kernel_initializer": {"class_name": "VarianceScaling", "config": {"scale": 1.0, "distribution": "uniform", "seed": null, "mode": "fan_avg"}}, "use_bias": true, "dilation_rate": [1, 1], "bias_regularizer": null, "kernel_regularizer": null, "activity_regularizer": null, "kernel_size": [7, 1], "padding": "same", "kernel_constraint": null}, "inbound_nodes": [[["batch_normalization_37", 0, 0, {}]]]}, {"name": "batch_normalization_33", "class_name": "BatchNormalization", "config": {"gamma_regularizer": null, "momentum": 0.99, "epsilon": 0.001, "name": "batch_normalization_33", "beta_regularizer": null, "moving_mean_initializer": {"class_name": "Zeros", "config": {}}, "center": true, "scale": true, "trainable": true, "moving_variance_initializer": {"class_name": "Ones", "config": {}}, "gamma_constraint": null, "beta_initializer": {"class_name": "Zeros", "config": {}}, "beta_constraint": null, "axis": 3, "gamma_initializer": {"class_name": "Ones", "config": {}}}, "inbound_nodes": [[["conv2d_33", 0, 0, {}]]]}, {"name": "batch_normalization_38", "class_name": "BatchNormalization", "config": {"gamma_regularizer": null, "momentum": 0.99, "epsilon": 0.001, "name": "batch_normalization_38", "beta_regularizer": null, "moving_mean_initializer": {"class_name": "Zeros", "config": {}}, "center": true, "scale": true, "trainable": true, "moving_variance_initializer": {"class_name": "Ones", "config": {}}, "gamma_constraint": null, "beta_initializer": {"class_name": "Zeros", "config": {}}, "beta_constraint": null, "axis": 3, "gamma_initializer": {"class_name": "Ones", "config": {}}}, "inbound_nodes": [[["conv2d_38", 0, 0, {}]]]}, {"name": "average_pooling2d_4", "class_name": "AveragePooling2D", "config": {"trainable": true, "data_format": "channels_last", "pool_size": [3, 3], "name": "average_pooling2d_4", "strides": [1, 1], "padding": "same"}, "inbound_nodes": [[["mixed3", 0, 0, {}]]]}, {"name": "conv2d_31", "class_name": "Conv2D", "config": {"trainable": true, "bias_constraint": null, "name": "conv2d_31", "bias_initializer": {"class_name": "Zeros", "config": {}}, "strides": [1, 1], "filters": 96, "data_format": "channels_last", "activation": "relu", "kernel_initializer": {"class_name": "VarianceScaling", "config": {"scale": 1.0, "distribution": "uniform", "seed": null, "mode": "fan_avg"}}, "use_bias": true, "dilation_rate": [1, 1], "bias_regularizer": null, "kernel_regularizer": null, "activity_regularizer": null, "kernel_size": [1, 1], "padding": "same", "kernel_constraint": null}, "inbound_nodes": [[["mixed3", 0, 0, {}]]]}, {"name": "conv2d_34", "class_name": "Conv2D", "config": {"trainable": true, "bias_constraint": null, "name": "conv2d_34", "bias_initializer": {"class_name": "Zeros", "config": {}}, "strides": [1, 1], "filters": 96, "data_format": "channels_last", "activation": "relu", "kernel_initializer": {"class_name": "VarianceScaling", "config": {"scale": 1.0, "distribution": "uniform", "seed": null, "mode": "fan_avg"}}, "use_bias": true, "dilation_rate": [1, 1], "bias_regularizer": null, "kernel_regularizer": null, "activity_regularizer": null, "kernel_size": [7, 1], "padding": "same", "kernel_constraint": null}, "inbound_nodes": [[["batch_normalization_33", 0, 0, {}]]]}, {"name": "conv2d_39", "class_name": "Conv2D", "config": {"trainable": true, "bias_constraint": null, "name": "conv2d_39", "bias_initializer": {"class_name": "Zeros", "config": {}}, "strides": [1, 1], "filters": 96, "data_format": "channels_last", "activation": "relu", "kernel_initializer": {"class_name": "VarianceScaling", "config": {"scale": 1.0, "distribution": "uniform", "seed": null, "mode": "fan_avg"}}, "use_bias": true, "dilation_rate": [1, 1], "bias_regularizer": null, "kernel_regularizer": null, "activity_regularizer": null, "kernel_size": [1, 7], "padding": "same", "kernel_constraint": null}, "inbound_nodes": [[["batch_normalization_38", 0, 0, {}]]]}, {"name": "conv2d_40", "class_name": "Conv2D", "config": {"trainable": true, "bias_constraint": null, "name": "conv2d_40", "bias_initializer": {"class_name": "Zeros", "config": {}}, "strides": [1, 1], "filters": 96, "data_format": "channels_last", "activation": "relu", "kernel_initializer": {"class_name": "VarianceScaling", "config": {"scale": 1.0, "distribution": "uniform", "seed": null, "mode": "fan_avg"}}, "use_bias": true, "dilation_rate": [1, 1], "bias_regularizer": null, "kernel_regularizer": null, "activity_regularizer": null, "kernel_size": [1, 1], "padding": "same", "kernel_constraint": null}, "inbound_nodes": [[["average_pooling2d_4", 0, 0, {}]]]}, {"name": "batch_normalization_31", "class_name": "BatchNormalization", "config": {"gamma_regularizer": null, "momentum": 0.99, "epsilon": 0.001, "name": "batch_normalization_31", "beta_regularizer": null, "moving_mean_initializer": {"class_name": "Zeros", "config": {}}, "center": true, "scale": true, "trainable": true, "moving_variance_initializer": {"class_name": "Ones", "config": {}}, "gamma_constraint": null, "beta_initializer": {"class_name": "Zeros", "config": {}}, "beta_constraint": null, "axis": 3, "gamma_initializer": {"class_name": "Ones", "config": {}}}, "inbound_nodes": [[["conv2d_31", 0, 0, {}]]]}, {"name": "batch_normalization_34", "class_name": "BatchNormalization", "config": {"gamma_regularizer": null, "momentum": 0.99, "epsilon": 0.001, "name": "batch_normalization_34", "beta_regularizer": null, "moving_mean_initializer": {"class_name": "Zeros", "config": {}}, "center": true, "scale": true, "trainable": true, "moving_variance_initializer": {"class_name": "Ones", "config": {}}, "gamma_constraint": null, "beta_initializer": {"class_name": "Zeros", "config": {}}, "beta_constraint": null, "axis": 3, "gamma_initializer": {"class_name": "Ones", "config": {}}}, "inbound_nodes": [[["conv2d_34", 0, 0, {}]]]}, {"name": "batch_normalization_39", "class_name": "BatchNormalization", "config": {"gamma_regularizer": null, "momentum": 0.99, "epsilon": 0.001, "name": "batch_normalization_39", "beta_regularizer": null, "moving_mean_initializer": {"class_name": "Zeros", "config": {}}, "center": true, "scale": true, "trainable": true, "moving_variance_initializer": {"class_name": "Ones", "config": {}}, "gamma_constraint": null, "beta_initializer": {"class_name": "Zeros", "config": {}}, "beta_constraint": null, "axis": 3, "gamma_initializer": {"class_name": "Ones", "config": {}}}, "inbound_nodes": [[["conv2d_39", 0, 0, {}]]]}, {"name": "batch_normalization_40", "class_name": "BatchNormalization", "config": {"gamma_regularizer": null, "momentum": 0.99, "epsilon": 0.001, "name": "batch_normalization_40", "beta_regularizer": null, "moving_mean_initializer": {"class_name": "Zeros", "config": {}}, "center": true, "scale": true, "trainable": true, "moving_variance_initializer": {"class_name": "Ones", "config": {}}, "gamma_constraint": null, "beta_initializer": {"class_name": "Zeros", "config": {}}, "beta_constraint": null, "axis": 3, "gamma_initializer": {"class_name": "Ones", "config": {}}}, "inbound_nodes": [[["conv2d_40", 0, 0, {}]]]}, {"name": "mixed4", "class_name": "Concatenate", "config": {"name": "mixed4", "trainable": true, "axis": -1}, "inbound_nodes": [[["batch_normalization_31", 0, 0, {}], ["batch_normalization_34", 0, 0, {}], ["batch_normalization_39", 0, 0, {}], ["batch_normalization_40", 0, 0, {}]]]}, {"name": "conv2d_45", "class_name": "Conv2D", "config": {"trainable": true, "bias_constraint": null, "name": "conv2d_45", "bias_initializer": {"class_name": "Zeros", "config": {}}, "strides": [1, 1], "filters": 80, "data_format": "channels_last", "activation": "relu", "kernel_initializer": {"class_name": "VarianceScaling", "config": {"scale": 1.0, "distribution": "uniform", "seed": null, "mode": "fan_avg"}}, "use_bias": true, "dilation_rate": [1, 1], "bias_regularizer": null, "kernel_regularizer": null, "activity_regularizer": null, "kernel_size": [1, 1], "padding": "same", "kernel_constraint": null}, "inbound_nodes": [[["mixed4", 0, 0, {}]]]}, {"name": "batch_normalization_45", "class_name": "BatchNormalization", "config": {"gamma_regularizer": null, "momentum": 0.99, "epsilon": 0.001, "name": "batch_normalization_45", "beta_regularizer": null, "moving_mean_initializer": {"class_name": "Zeros", "config": {}}, "center": true, "scale": true, "trainable": true, "moving_variance_initializer": {"class_name": "Ones", "config": {}}, "gamma_constraint": null, "beta_initializer": {"class_name": "Zeros", "config": {}}, "beta_constraint": null, "axis": 3, "gamma_initializer": {"class_name": "Ones", "config": {}}}, "inbound_nodes": [[["conv2d_45", 0, 0, {}]]]}, {"name": "conv2d_46", "class_name": "Conv2D", "config": {"trainable": true, "bias_constraint": null, "name": "conv2d_46", "bias_initializer": {"class_name": "Zeros", "config": {}}, "strides": [1, 1], "filters": 80, "data_format": "channels_last", "activation": "relu", "kernel_initializer": {"class_name": "VarianceScaling", "config": {"scale": 1.0, "distribution": "uniform", "seed": null, "mode": "fan_avg"}}, "use_bias": true, "dilation_rate": [1, 1], "bias_regularizer": null, "kernel_regularizer": null, "activity_regularizer": null, "kernel_size": [7, 1], "padding": "same", "kernel_constraint": null}, "inbound_nodes": [[["batch_normalization_45", 0, 0, {}]]]}, {"name": "batch_normalization_46", "class_name": "BatchNormalization", "config": {"gamma_regularizer": null, "momentum": 0.99, "epsilon": 0.001, "name": "batch_normalization_46", "beta_regularizer": null, "moving_mean_initializer": {"class_name": "Zeros", "config": {}}, "center": true, "scale": true, "trainable": true, "moving_variance_initializer": {"class_name": "Ones", "config": {}}, "gamma_constraint": null, "beta_initializer": {"class_name": "Zeros", "config": {}}, "beta_constraint": null, "axis": 3, "gamma_initializer": {"class_name": "Ones", "config": {}}}, "inbound_nodes": [[["conv2d_46", 0, 0, {}]]]}, {"name": "conv2d_42", "class_name": "Conv2D", "config": {"trainable": true, "bias_constraint": null, "name": "conv2d_42", "bias_initializer": {"class_name": "Zeros", "config": {}}, "strides": [1, 1], "filters": 80, "data_format": "channels_last", "activation": "relu", "kernel_initializer": {"class_name": "VarianceScaling", "config": {"scale": 1.0, "distribution": "uniform", "seed": null, "mode": "fan_avg"}}, "use_bias": true, "dilation_rate": [1, 1], "bias_regularizer": null, "kernel_regularizer": null, "activity_regularizer": null, "kernel_size": [1, 1], "padding": "same", "kernel_constraint": null}, "inbound_nodes": [[["mixed4", 0, 0, {}]]]}, {"name": "conv2d_47", "class_name": "Conv2D", "config": {"trainable": true, "bias_constraint": null, "name": "conv2d_47", "bias_initializer": {"class_name": "Zeros", "config": {}}, "strides": [1, 1], "filters": 80, "data_format": "channels_last", "activation": "relu", "kernel_initializer": {"class_name": "VarianceScaling", "config": {"scale": 1.0, "distribution": "uniform", "seed": null, "mode": "fan_avg"}}, "use_bias": true, "dilation_rate": [1, 1], "bias_regularizer": null, "kernel_regularizer": null, "activity_regularizer": null, "kernel_size": [1, 7], "padding": "same", "kernel_constraint": null}, "inbound_nodes": [[["batch_normalization_46", 0, 0, {}]]]}, {"name": "batch_normalization_42", "class_name": "BatchNormalization", "config": {"gamma_regularizer": null, "momentum": 0.99, "epsilon": 0.001, "name": "batch_normalization_42", "beta_regularizer": null, "moving_mean_initializer": {"class_name": "Zeros", "config": {}}, "center": true, "scale": true, "trainable": true, "moving_variance_initializer": {"class_name": "Ones", "config": {}}, "gamma_constraint": null, "beta_initializer": {"class_name": "Zeros", "config": {}}, "beta_constraint": null, "axis": 3, "gamma_initializer": {"class_name": "Ones", "config": {}}}, "inbound_nodes": [[["conv2d_42", 0, 0, {}]]]}, {"name": "batch_normalization_47", "class_name": "BatchNormalization", "config": {"gamma_regularizer": null, "momentum": 0.99, "epsilon": 0.001, "name": "batch_normalization_47", "beta_regularizer": null, "moving_mean_initializer": {"class_name": "Zeros", "config": {}}, "center": true, "scale": true, "trainable": true, "moving_variance_initializer": {"class_name": "Ones", "config": {}}, "gamma_constraint": null, "beta_initializer": {"class_name": "Zeros", "config": {}}, "beta_constraint": null, "axis": 3, "gamma_initializer": {"class_name": "Ones", "config": {}}}, "inbound_nodes": [[["conv2d_47", 0, 0, {}]]]}, {"name": "conv2d_43", "class_name": "Conv2D", "config": {"trainable": true, "bias_constraint": null, "name": "conv2d_43", "bias_initializer": {"class_name": "Zeros", "config": {}}, "strides": [1, 1], "filters": 80, "data_format": "channels_last", "activation": "relu", "kernel_initializer": {"class_name": "VarianceScaling", "config": {"scale": 1.0, "distribution": "uniform", "seed": null, "mode": "fan_avg"}}, "use_bias": true, "dilation_rate": [1, 1], "bias_regularizer": null, "kernel_regularizer": null, "activity_regularizer": null, "kernel_size": [1, 7], "padding": "same", "kernel_constraint": null}, "inbound_nodes": [[["batch_normalization_42", 0, 0, {}]]]}, {"name": "conv2d_48", "class_name": "Conv2D", "config": {"trainable": true, "bias_constraint": null, "name": "conv2d_48", "bias_initializer": {"class_name": "Zeros", "config": {}}, "strides": [1, 1], "filters": 80, "data_format": "channels_last", "activation": "relu", "kernel_initializer": {"class_name": "VarianceScaling", "config": {"scale": 1.0, "distribution": "uniform", "seed": null, "mode": "fan_avg"}}, "use_bias": true, "dilation_rate": [1, 1], "bias_regularizer": null, "kernel_regularizer": null, "activity_regularizer": null, "kernel_size": [7, 1], "padding": "same", "kernel_constraint": null}, "inbound_nodes": [[["batch_normalization_47", 0, 0, {}]]]}, {"name": "batch_normalization_43", "class_name": "BatchNormalization", "config": {"gamma_regularizer": null, "momentum": 0.99, "epsilon": 0.001, "name": "batch_normalization_43", "beta_regularizer": null, "moving_mean_initializer": {"class_name": "Zeros", "config": {}}, "center": true, "scale": true, "trainable": true, "moving_variance_initializer": {"class_name": "Ones", "config": {}}, "gamma_constraint": null, "beta_initializer": {"class_name": "Zeros", "config": {}}, "beta_constraint": null, "axis": 3, "gamma_initializer": {"class_name": "Ones", "config": {}}}, "inbound_nodes": [[["conv2d_43", 0, 0, {}]]]}, {"name": "batch_normalization_48", "class_name": "BatchNormalization", "config": {"gamma_regularizer": null, "momentum": 0.99, "epsilon": 0.001, "name": "batch_normalization_48", "beta_regularizer": null, "moving_mean_initializer": {"class_name": "Zeros", "config": {}}, "center": true, "scale": true, "trainable": true, "moving_variance_initializer": {"class_name": "Ones", "config": {}}, "gamma_constraint": null, "beta_initializer": {"class_name": "Zeros", "config": {}}, "beta_constraint": null, "axis": 3, "gamma_initializer": {"class_name": "Ones", "config": {}}}, "inbound_nodes": [[["conv2d_48", 0, 0, {}]]]}, {"name": "average_pooling2d_5", "class_name": "AveragePooling2D", "config": {"trainable": true, "data_format": "channels_last", "pool_size": [3, 3], "name": "average_pooling2d_5", "strides": [1, 1], "padding": "same"}, "inbound_nodes": [[["mixed4", 0, 0, {}]]]}, {"name": "conv2d_41", "class_name": "Conv2D", "config": {"trainable": true, "bias_constraint": null, "name": "conv2d_41", "bias_initializer": {"class_name": "Zeros", "config": {}}, "strides": [1, 1], "filters": 96, "data_format": "channels_last", "activation": "relu", "kernel_initializer": {"class_name": "VarianceScaling", "config": {"scale": 1.0, "distribution": "uniform", "seed": null, "mode": "fan_avg"}}, "use_bias": true, "dilation_rate": [1, 1], "bias_regularizer": null, "kernel_regularizer": null, "activity_regularizer": null, "kernel_size": [1, 1], "padding": "same", "kernel_constraint": null}, "inbound_nodes": [[["mixed4", 0, 0, {}]]]}, {"name": "conv2d_44", "class_name": "Conv2D", "config": {"trainable": true, "bias_constraint": null, "name": "conv2d_44", "bias_initializer": {"class_name": "Zeros", "config": {}}, "strides": [1, 1], "filters": 96, "data_format": "channels_last", "activation": "relu", "kernel_initializer": {"class_name": "VarianceScaling", "config": {"scale": 1.0, "distribution": "uniform", "seed": null, "mode": "fan_avg"}}, "use_bias": true, "dilation_rate": [1, 1], "bias_regularizer": null, "kernel_regularizer": null, "activity_regularizer": null, "kernel_size": [7, 1], "padding": "same", "kernel_constraint": null}, "inbound_nodes": [[["batch_normalization_43", 0, 0, {}]]]}, {"name": "conv2d_49", "class_name": "Conv2D", "config": {"trainable": true, "bias_constraint": null, "name": "conv2d_49", "bias_initializer": {"class_name": "Zeros", "config": {}}, "strides": [1, 1], "filters": 96, "data_format": "channels_last", "activation": "relu", "kernel_initializer": {"class_name": "VarianceScaling", "config": {"scale": 1.0, "distribution": "uniform", "seed": null, "mode": "fan_avg"}}, "use_bias": true, "dilation_rate": [1, 1], "bias_regularizer": null, "kernel_regularizer": null, "activity_regularizer": null, "kernel_size": [1, 7], "padding": "same", "kernel_constraint": null}, "inbound_nodes": [[["batch_normalization_48", 0, 0, {}]]]}, {"name": "conv2d_50", "class_name": "Conv2D", "config": {"trainable": true, "bias_constraint": null, "name": "conv2d_50", "bias_initializer": {"class_name": "Zeros", "config": {}}, "strides": [1, 1], "filters": 96, "data_format": "channels_last", "activation": "relu", "kernel_initializer": {"class_name": "VarianceScaling", "config": {"scale": 1.0, "distribution": "uniform", "seed": null, "mode": "fan_avg"}}, "use_bias": true, "dilation_rate": [1, 1], "bias_regularizer": null, "kernel_regularizer": null, "activity_regularizer": null, "kernel_size": [1, 1], "padding": "same", "kernel_constraint": null}, "inbound_nodes": [[["average_pooling2d_5", 0, 0, {}]]]}, {"name": "batch_normalization_41", "class_name": "BatchNormalization", "config": {"gamma_regularizer": null, "momentum": 0.99, "epsilon": 0.001, "name": "batch_normalization_41", "beta_regularizer": null, "moving_mean_initializer": {"class_name": "Zeros", "config": {}}, "center": true, "scale": true, "trainable": true, "moving_variance_initializer": {"class_name": "Ones", "config": {}}, "gamma_constraint": null, "beta_initializer": {"class_name": "Zeros", "config": {}}, "beta_constraint": null, "axis": 3, "gamma_initializer": {"class_name": "Ones", "config": {}}}, "inbound_nodes": [[["conv2d_41", 0, 0, {}]]]}, {"name": "batch_normalization_44", "class_name": "BatchNormalization", "config": {"gamma_regularizer": null, "momentum": 0.99, "epsilon": 0.001, "name": "batch_normalization_44", "beta_regularizer": null, "moving_mean_initializer": {"class_name": "Zeros", "config": {}}, "center": true, "scale": true, "trainable": true, "moving_variance_initializer": {"class_name": "Ones", "config": {}}, "gamma_constraint": null, "beta_initializer": {"class_name": "Zeros", "config": {}}, "beta_constraint": null, "axis": 3, "gamma_initializer": {"class_name": "Ones", "config": {}}}, "inbound_nodes": [[["conv2d_44", 0, 0, {}]]]}, {"name": "batch_normalization_49", "class_name": "BatchNormalization", "config": {"gamma_regularizer": null, "momentum": 0.99, "epsilon": 0.001, "name": "batch_normalization_49", "beta_regularizer": null, "moving_mean_initializer": {"class_name": "Zeros", "config": {}}, "center": true, "scale": true, "trainable": true, "moving_variance_initializer": {"class_name": "Ones", "config": {}}, "gamma_constraint": null, "beta_initializer": {"class_name": "Zeros", "config": {}}, "beta_constraint": null, "axis": 3, "gamma_initializer": {"class_name": "Ones", "config": {}}}, "inbound_nodes": [[["conv2d_49", 0, 0, {}]]]}, {"name": "batch_normalization_50", "class_name": "BatchNormalization", "config": {"gamma_regularizer": null, "momentum": 0.99, "epsilon": 0.001, "name": "batch_normalization_50", "beta_regularizer": null, "moving_mean_initializer": {"class_name": "Zeros", "config": {}}, "center": true, "scale": true, "trainable": true, "moving_variance_initializer": {"class_name": "Ones", "config": {}}, "gamma_constraint": null, "beta_initializer": {"class_name": "Zeros", "config": {}}, "beta_constraint": null, "axis": 3, "gamma_initializer": {"class_name": "Ones", "config": {}}}, "inbound_nodes": [[["conv2d_50", 0, 0, {}]]]}, {"name": "mixed5", "class_name": "Concatenate", "config": {"name": "mixed5", "trainable": true, "axis": -1}, "inbound_nodes": [[["batch_normalization_41", 0, 0, {}], ["batch_normalization_44", 0, 0, {}], ["batch_normalization_49", 0, 0, {}], ["batch_normalization_50", 0, 0, {}]]]}, {"name": "conv2d_55", "class_name": "Conv2D", "config": {"trainable": true, "bias_constraint": null, "name": "conv2d_55", "bias_initializer": {"class_name": "Zeros", "config": {}}, "strides": [1, 1], "filters": 80, "data_format": "channels_last", "activation": "relu", "kernel_initializer": {"class_name": "VarianceScaling", "config": {"scale": 1.0, "distribution": "uniform", "seed": null, "mode": "fan_avg"}}, "use_bias": true, "dilation_rate": [1, 1], "bias_regularizer": null, "kernel_regularizer": null, "activity_regularizer": null, "kernel_size": [1, 1], "padding": "same", "kernel_constraint": null}, "inbound_nodes": [[["mixed5", 0, 0, {}]]]}, {"name": "batch_normalization_55", "class_name": "BatchNormalization", "config": {"gamma_regularizer": null, "momentum": 0.99, "epsilon": 0.001, "name": "batch_normalization_55", "beta_regularizer": null, "moving_mean_initializer": {"class_name": "Zeros", "config": {}}, "center": true, "scale": true, "trainable": true, "moving_variance_initializer": {"class_name": "Ones", "config": {}}, "gamma_constraint": null, "beta_initializer": {"class_name": "Zeros", "config": {}}, "beta_constraint": null, "axis": 3, "gamma_initializer": {"class_name": "Ones", "config": {}}}, "inbound_nodes": [[["conv2d_55", 0, 0, {}]]]}, {"name": "conv2d_56", "class_name": "Conv2D", "config": {"trainable": true, "bias_constraint": null, "name": "conv2d_56", "bias_initializer": {"class_name": "Zeros", "config": {}}, "strides": [1, 1], "filters": 80, "data_format": "channels_last", "activation": "relu", "kernel_initializer": {"class_name": "VarianceScaling", "config": {"scale": 1.0, "distribution": "uniform", "seed": null, "mode": "fan_avg"}}, "use_bias": true, "dilation_rate": [1, 1], "bias_regularizer": null, "kernel_regularizer": null, "activity_regularizer": null, "kernel_size": [7, 1], "padding": "same", "kernel_constraint": null}, "inbound_nodes": [[["batch_normalization_55", 0, 0, {}]]]}, {"name": "batch_normalization_56", "class_name": "BatchNormalization", "config": {"gamma_regularizer": null, "momentum": 0.99, "epsilon": 0.001, "name": "batch_normalization_56", "beta_regularizer": null, "moving_mean_initializer": {"class_name": "Zeros", "config": {}}, "center": true, "scale": true, "trainable": true, "moving_variance_initializer": {"class_name": "Ones", "config": {}}, "gamma_constraint": null, "beta_initializer": {"class_name": "Zeros", "config": {}}, "beta_constraint": null, "axis": 3, "gamma_initializer": {"class_name": "Ones", "config": {}}}, "inbound_nodes": [[["conv2d_56", 0, 0, {}]]]}, {"name": "conv2d_52", "class_name": "Conv2D", "config": {"trainable": true, "bias_constraint": null, "name": "conv2d_52", "bias_initializer": {"class_name": "Zeros", "config": {}}, "strides": [1, 1], "filters": 80, "data_format": "channels_last", "activation": "relu", "kernel_initializer": {"class_name": "VarianceScaling", "config": {"scale": 1.0, "distribution": "uniform", "seed": null, "mode": "fan_avg"}}, "use_bias": true, "dilation_rate": [1, 1], "bias_regularizer": null, "kernel_regularizer": null, "activity_regularizer": null, "kernel_size": [1, 1], "padding": "same", "kernel_constraint": null}, "inbound_nodes": [[["mixed5", 0, 0, {}]]]}, {"name": "conv2d_57", "class_name": "Conv2D", "config": {"trainable": true, "bias_constraint": null, "name": "conv2d_57", "bias_initializer": {"class_name": "Zeros", "config": {}}, "strides": [1, 1], "filters": 80, "data_format": "channels_last", "activation": "relu", "kernel_initializer": {"class_name": "VarianceScaling", "config": {"scale": 1.0, "distribution": "uniform", "seed": null, "mode": "fan_avg"}}, "use_bias": true, "dilation_rate": [1, 1], "bias_regularizer": null, "kernel_regularizer": null, "activity_regularizer": null, "kernel_size": [1, 7], "padding": "same", "kernel_constraint": null}, "inbound_nodes": [[["batch_normalization_56", 0, 0, {}]]]}, {"name": "batch_normalization_52", "class_name": "BatchNormalization", "config": {"gamma_regularizer": null, "momentum": 0.99, "epsilon": 0.001, "name": "batch_normalization_52", "beta_regularizer": null, "moving_mean_initializer": {"class_name": "Zeros", "config": {}}, "center": true, "scale": true, "trainable": true, "moving_variance_initializer": {"class_name": "Ones", "config": {}}, "gamma_constraint": null, "beta_initializer": {"class_name": "Zeros", "config": {}}, "beta_constraint": null, "axis": 3, "gamma_initializer": {"class_name": "Ones", "config": {}}}, "inbound_nodes": [[["conv2d_52", 0, 0, {}]]]}, {"name": "batch_normalization_57", "class_name": "BatchNormalization", "config": {"gamma_regularizer": null, "momentum": 0.99, "epsilon": 0.001, "name": "batch_normalization_57", "beta_regularizer": null, "moving_mean_initializer": {"class_name": "Zeros", "config": {}}, "center": true, "scale": true, "trainable": true, "moving_variance_initializer": {"class_name": "Ones", "config": {}}, "gamma_constraint": null, "beta_initializer": {"class_name": "Zeros", "config": {}}, "beta_constraint": null, "axis": 3, "gamma_initializer": {"class_name": "Ones", "config": {}}}, "inbound_nodes": [[["conv2d_57", 0, 0, {}]]]}, {"name": "conv2d_53", "class_name": "Conv2D", "config": {"trainable": true, "bias_constraint": null, "name": "conv2d_53", "bias_initializer": {"class_name": "Zeros", "config": {}}, "strides": [1, 1], "filters": 80, "data_format": "channels_last", "activation": "relu", "kernel_initializer": {"class_name": "VarianceScaling", "config": {"scale": 1.0, "distribution": "uniform", "seed": null, "mode": "fan_avg"}}, "use_bias": true, "dilation_rate": [1, 1], "bias_regularizer": null, "kernel_regularizer": null, "activity_regularizer": null, "kernel_size": [1, 7], "padding": "same", "kernel_constraint": null}, "inbound_nodes": [[["batch_normalization_52", 0, 0, {}]]]}, {"name": "conv2d_58", "class_name": "Conv2D", "config": {"trainable": true, "bias_constraint": null, "name": "conv2d_58", "bias_initializer": {"class_name": "Zeros", "config": {}}, "strides": [1, 1], "filters": 80, "data_format": "channels_last", "activation": "relu", "kernel_initializer": {"class_name": "VarianceScaling", "config": {"scale": 1.0, "distribution": "uniform", "seed": null, "mode": "fan_avg"}}, "use_bias": true, "dilation_rate": [1, 1], "bias_regularizer": null, "kernel_regularizer": null, "activity_regularizer": null, "kernel_size": [7, 1], "padding": "same", "kernel_constraint": null}, "inbound_nodes": [[["batch_normalization_57", 0, 0, {}]]]}, {"name": "batch_normalization_53", "class_name": "BatchNormalization", "config": {"gamma_regularizer": null, "momentum": 0.99, "epsilon": 0.001, "name": "batch_normalization_53", "beta_regularizer": null, "moving_mean_initializer": {"class_name": "Zeros", "config": {}}, "center": true, "scale": true, "trainable": true, "moving_variance_initializer": {"class_name": "Ones", "config": {}}, "gamma_constraint": null, "beta_initializer": {"class_name": "Zeros", "config": {}}, "beta_constraint": null, "axis": 3, "gamma_initializer": {"class_name": "Ones", "config": {}}}, "inbound_nodes": [[["conv2d_53", 0, 0, {}]]]}, {"name": "batch_normalization_58", "class_name": "BatchNormalization", "config": {"gamma_regularizer": null, "momentum": 0.99, "epsilon": 0.001, "name": "batch_normalization_58", "beta_regularizer": null, "moving_mean_initializer": {"class_name": "Zeros", "config": {}}, "center": true, "scale": true, "trainable": true, "moving_variance_initializer": {"class_name": "Ones", "config": {}}, "gamma_constraint": null, "beta_initializer": {"class_name": "Zeros", "config": {}}, "beta_constraint": null, "axis": 3, "gamma_initializer": {"class_name": "Ones", "config": {}}}, "inbound_nodes": [[["conv2d_58", 0, 0, {}]]]}, {"name": "average_pooling2d_6", "class_name": "AveragePooling2D", "config": {"trainable": true, "data_format": "channels_last", "pool_size": [3, 3], "name": "average_pooling2d_6", "strides": [1, 1], "padding": "same"}, "inbound_nodes": [[["mixed5", 0, 0, {}]]]}, {"name": "conv2d_51", "class_name": "Conv2D", "config": {"trainable": true, "bias_constraint": null, "name": "conv2d_51", "bias_initializer": {"class_name": "Zeros", "config": {}}, "strides": [1, 1], "filters": 96, "data_format": "channels_last", "activation": "relu", "kernel_initializer": {"class_name": "VarianceScaling", "config": {"scale": 1.0, "distribution": "uniform", "seed": null, "mode": "fan_avg"}}, "use_bias": true, "dilation_rate": [1, 1], "bias_regularizer": null, "kernel_regularizer": null, "activity_regularizer": null, "kernel_size": [1, 1], "padding": "same", "kernel_constraint": null}, "inbound_nodes": [[["mixed5", 0, 0, {}]]]}, {"name": "conv2d_54", "class_name": "Conv2D", "config": {"trainable": true, "bias_constraint": null, "name": "conv2d_54", "bias_initializer": {"class_name": "Zeros", "config": {}}, "strides": [1, 1], "filters": 96, "data_format": "channels_last", "activation": "relu", "kernel_initializer": {"class_name": "VarianceScaling", "config": {"scale": 1.0, "distribution": "uniform", "seed": null, "mode": "fan_avg"}}, "use_bias": true, "dilation_rate": [1, 1], "bias_regularizer": null, "kernel_regularizer": null, "activity_regularizer": null, "kernel_size": [7, 1], "padding": "same", "kernel_constraint": null}, "inbound_nodes": [[["batch_normalization_53", 0, 0, {}]]]}, {"name": "conv2d_59", "class_name": "Conv2D", "config": {"trainable": true, "bias_constraint": null, "name": "conv2d_59", "bias_initializer": {"class_name": "Zeros", "config": {}}, "strides": [1, 1], "filters": 96, "data_format": "channels_last", "activation": "relu", "kernel_initializer": {"class_name": "VarianceScaling", "config": {"scale": 1.0, "distribution": "uniform", "seed": null, "mode": "fan_avg"}}, "use_bias": true, "dilation_rate": [1, 1], "bias_regularizer": null, "kernel_regularizer": null, "activity_regularizer": null, "kernel_size": [1, 7], "padding": "same", "kernel_constraint": null}, "inbound_nodes": [[["batch_normalization_58", 0, 0, {}]]]}, {"name": "conv2d_60", "class_name": "Conv2D", "config": {"trainable": true, "bias_constraint": null, "name": "conv2d_60", "bias_initializer": {"class_name": "Zeros", "config": {}}, "strides": [1, 1], "filters": 96, "data_format": "channels_last", "activation": "relu", "kernel_initializer": {"class_name": "VarianceScaling", "config": {"scale": 1.0, "distribution": "uniform", "seed": null, "mode": "fan_avg"}}, "use_bias": true, "dilation_rate": [1, 1], "bias_regularizer": null, "kernel_regularizer": null, "activity_regularizer": null, "kernel_size": [1, 1], "padding": "same", "kernel_constraint": null}, "inbound_nodes": [[["average_pooling2d_6", 0, 0, {}]]]}, {"name": "batch_normalization_51", "class_name": "BatchNormalization", "config": {"gamma_regularizer": null, "momentum": 0.99, "epsilon": 0.001, "name": "batch_normalization_51", "beta_regularizer": null, "moving_mean_initializer": {"class_name": "Zeros", "config": {}}, "center": true, "scale": true, "trainable": true, "moving_variance_initializer": {"class_name": "Ones", "config": {}}, "gamma_constraint": null, "beta_initializer": {"class_name": "Zeros", "config": {}}, "beta_constraint": null, "axis": 3, "gamma_initializer": {"class_name": "Ones", "config": {}}}, "inbound_nodes": [[["conv2d_51", 0, 0, {}]]]}, {"name": "batch_normalization_54", "class_name": "BatchNormalization", "config": {"gamma_regularizer": null, "momentum": 0.99, "epsilon": 0.001, "name": "batch_normalization_54", "beta_regularizer": null, "moving_mean_initializer": {"class_name": "Zeros", "config": {}}, "center": true, "scale": true, "trainable": true, "moving_variance_initializer": {"class_name": "Ones", "config": {}}, "gamma_constraint": null, "beta_initializer": {"class_name": "Zeros", "config": {}}, "beta_constraint": null, "axis": 3, "gamma_initializer": {"class_name": "Ones", "config": {}}}, "inbound_nodes": [[["conv2d_54", 0, 0, {}]]]}, {"name": "batch_normalization_59", "class_name": "BatchNormalization", "config": {"gamma_regularizer": null, "momentum": 0.99, "epsilon": 0.001, "name": "batch_normalization_59", "beta_regularizer": null, "moving_mean_initializer": {"class_name": "Zeros", "config": {}}, "center": true, "scale": true, "trainable": true, "moving_variance_initializer": {"class_name": "Ones", "config": {}}, "gamma_constraint": null, "beta_initializer": {"class_name": "Zeros", "config": {}}, "beta_constraint": null, "axis": 3, "gamma_initializer": {"class_name": "Ones", "config": {}}}, "inbound_nodes": [[["conv2d_59", 0, 0, {}]]]}, {"name": "batch_normalization_60", "class_name": "BatchNormalization", "config": {"gamma_regularizer": null, "momentum": 0.99, "epsilon": 0.001, "name": "batch_normalization_60", "beta_regularizer": null, "moving_mean_initializer": {"class_name": "Zeros", "config": {}}, "center": true, "scale": true, "trainable": true, "moving_variance_initializer": {"class_name": "Ones", "config": {}}, "gamma_constraint": null, "beta_initializer": {"class_name": "Zeros", "config": {}}, "beta_constraint": null, "axis": 3, "gamma_initializer": {"class_name": "Ones", "config": {}}}, "inbound_nodes": [[["conv2d_60", 0, 0, {}]]]}, {"name": "mixed6", "class_name": "Concatenate", "config": {"name": "mixed6", "trainable": true, "axis": -1}, "inbound_nodes": [[["batch_normalization_51", 0, 0, {}], ["batch_normalization_54", 0, 0, {}], ["batch_normalization_59", 0, 0, {}], ["batch_normalization_60", 0, 0, {}]]]}, {"name": "conv2d_65", "class_name": "Conv2D", "config": {"trainable": true, "bias_constraint": null, "name": "conv2d_65", "bias_initializer": {"class_name": "Zeros", "config": {}}, "strides": [1, 1], "filters": 80, "data_format": "channels_last", "activation": "relu", "kernel_initializer": {"class_name": "VarianceScaling", "config": {"scale": 1.0, "distribution": "uniform", "seed": null, "mode": "fan_avg"}}, "use_bias": true, "dilation_rate": [1, 1], "bias_regularizer": null, "kernel_regularizer": null, "activity_regularizer": null, "kernel_size": [1, 1], "padding": "same", "kernel_constraint": null}, "inbound_nodes": [[["mixed6", 0, 0, {}]]]}, {"name": "batch_normalization_65", "class_name": "BatchNormalization", "config": {"gamma_regularizer": null, "momentum": 0.99, "epsilon": 0.001, "name": "batch_normalization_65", "beta_regularizer": null, "moving_mean_initializer": {"class_name": "Zeros", "config": {}}, "center": true, "scale": true, "trainable": true, "moving_variance_initializer": {"class_name": "Ones", "config": {}}, "gamma_constraint": null, "beta_initializer": {"class_name": "Zeros", "config": {}}, "beta_constraint": null, "axis": 3, "gamma_initializer": {"class_name": "Ones", "config": {}}}, "inbound_nodes": [[["conv2d_65", 0, 0, {}]]]}, {"name": "conv2d_66", "class_name": "Conv2D", "config": {"trainable": true, "bias_constraint": null, "name": "conv2d_66", "bias_initializer": {"class_name": "Zeros", "config": {}}, "strides": [1, 1], "filters": 96, "data_format": "channels_last", "activation": "relu", "kernel_initializer": {"class_name": "VarianceScaling", "config": {"scale": 1.0, "distribution": "uniform", "seed": null, "mode": "fan_avg"}}, "use_bias": true, "dilation_rate": [1, 1], "bias_regularizer": null, "kernel_regularizer": null, "activity_regularizer": null, "kernel_size": [7, 1], "padding": "same", "kernel_constraint": null}, "inbound_nodes": [[["batch_normalization_65", 0, 0, {}]]]}, {"name": "batch_normalization_66", "class_name": "BatchNormalization", "config": {"gamma_regularizer": null, "momentum": 0.99, "epsilon": 0.001, "name": "batch_normalization_66", "beta_regularizer": null, "moving_mean_initializer": {"class_name": "Zeros", "config": {}}, "center": true, "scale": true, "trainable": true, "moving_variance_initializer": {"class_name": "Ones", "config": {}}, "gamma_constraint": null, "beta_initializer": {"class_name": "Zeros", "config": {}}, "beta_constraint": null, "axis": 3, "gamma_initializer": {"class_name": "Ones", "config": {}}}, "inbound_nodes": [[["conv2d_66", 0, 0, {}]]]}, {"name": "conv2d_62", "class_name": "Conv2D", "config": {"trainable": true, "bias_constraint": null, "name": "conv2d_62", "bias_initializer": {"class_name": "Zeros", "config": {}}, "strides": [1, 1], "filters": 96, "data_format": "channels_last", "activation": "relu", "kernel_initializer": {"class_name": "VarianceScaling", "config": {"scale": 1.0, "distribution": "uniform", "seed": null, "mode": "fan_avg"}}, "use_bias": true, "dilation_rate": [1, 1], "bias_regularizer": null, "kernel_regularizer": null, "activity_regularizer": null, "kernel_size": [1, 1], "padding": "same", "kernel_constraint": null}, "inbound_nodes": [[["mixed6", 0, 0, {}]]]}, {"name": "conv2d_67", "class_name": "Conv2D", "config": {"trainable": true, "bias_constraint": null, "name": "conv2d_67", "bias_initializer": {"class_name": "Zeros", "config": {}}, "strides": [1, 1], "filters": 96, "data_format": "channels_last", "activation": "relu", "kernel_initializer": {"class_name": "VarianceScaling", "config": {"scale": 1.0, "distribution": "uniform", "seed": null, "mode": "fan_avg"}}, "use_bias": true, "dilation_rate": [1, 1], "bias_regularizer": null, "kernel_regularizer": null, "activity_regularizer": null, "kernel_size": [1, 7], "padding": "same", "kernel_constraint": null}, "inbound_nodes": [[["batch_normalization_66", 0, 0, {}]]]}, {"name": "batch_normalization_62", "class_name": "BatchNormalization", "config": {"gamma_regularizer": null, "momentum": 0.99, "epsilon": 0.001, "name": "batch_normalization_62", "beta_regularizer": null, "moving_mean_initializer": {"class_name": "Zeros", "config": {}}, "center": true, "scale": true, "trainable": true, "moving_variance_initializer": {"class_name": "Ones", "config": {}}, "gamma_constraint": null, "beta_initializer": {"class_name": "Zeros", "config": {}}, "beta_constraint": null, "axis": 3, "gamma_initializer": {"class_name": "Ones", "config": {}}}, "inbound_nodes": [[["conv2d_62", 0, 0, {}]]]}, {"name": "batch_normalization_67", "class_name": "BatchNormalization", "config": {"gamma_regularizer": null, "momentum": 0.99, "epsilon": 0.001, "name": "batch_normalization_67", "beta_regularizer": null, "moving_mean_initializer": {"class_name": "Zeros", "config": {}}, "center": true, "scale": true, "trainable": true, "moving_variance_initializer": {"class_name": "Ones", "config": {}}, "gamma_constraint": null, "beta_initializer": {"class_name": "Zeros", "config": {}}, "beta_constraint": null, "axis": 3, "gamma_initializer": {"class_name": "Ones", "config": {}}}, "inbound_nodes": [[["conv2d_67", 0, 0, {}]]]}, {"name": "conv2d_63", "class_name": "Conv2D", "config": {"trainable": true, "bias_constraint": null, "name": "conv2d_63", "bias_initializer": {"class_name": "Zeros", "config": {}}, "strides": [1, 1], "filters": 96, "data_format": "channels_last", "activation": "relu", "kernel_initializer": {"class_name": "VarianceScaling", "config": {"scale": 1.0, "distribution": "uniform", "seed": null, "mode": "fan_avg"}}, "use_bias": true, "dilation_rate": [1, 1], "bias_regularizer": null, "kernel_regularizer": null, "activity_regularizer": null, "kernel_size": [1, 7], "padding": "same", "kernel_constraint": null}, "inbound_nodes": [[["batch_normalization_62", 0, 0, {}]]]}, {"name": "conv2d_68", "class_name": "Conv2D", "config": {"trainable": true, "bias_constraint": null, "name": "conv2d_68", "bias_initializer": {"class_name": "Zeros", "config": {}}, "strides": [1, 1], "filters": 96, "data_format": "channels_last", "activation": "relu", "kernel_initializer": {"class_name": "VarianceScaling", "config": {"scale": 1.0, "distribution": "uniform", "seed": null, "mode": "fan_avg"}}, "use_bias": true, "dilation_rate": [1, 1], "bias_regularizer": null, "kernel_regularizer": null, "activity_regularizer": null, "kernel_size": [7, 1], "padding": "same", "kernel_constraint": null}, "inbound_nodes": [[["batch_normalization_67", 0, 0, {}]]]}, {"name": "batch_normalization_63", "class_name": "BatchNormalization", "config": {"gamma_regularizer": null, "momentum": 0.99, "epsilon": 0.001, "name": "batch_normalization_63", "beta_regularizer": null, "moving_mean_initializer": {"class_name": "Zeros", "config": {}}, "center": true, "scale": true, "trainable": true, "moving_variance_initializer": {"class_name": "Ones", "config": {}}, "gamma_constraint": null, "beta_initializer": {"class_name": "Zeros", "config": {}}, "beta_constraint": null, "axis": 3, "gamma_initializer": {"class_name": "Ones", "config": {}}}, "inbound_nodes": [[["conv2d_63", 0, 0, {}]]]}, {"name": "batch_normalization_68", "class_name": "BatchNormalization", "config": {"gamma_regularizer": null, "momentum": 0.99, "epsilon": 0.001, "name": "batch_normalization_68", "beta_regularizer": null, "moving_mean_initializer": {"class_name": "Zeros", "config": {}}, "center": true, "scale": true, "trainable": true, "moving_variance_initializer": {"class_name": "Ones", "config": {}}, "gamma_constraint": null, "beta_initializer": {"class_name": "Zeros", "config": {}}, "beta_constraint": null, "axis": 3, "gamma_initializer": {"class_name": "Ones", "config": {}}}, "inbound_nodes": [[["conv2d_68", 0, 0, {}]]]}, {"name": "average_pooling2d_7", "class_name": "AveragePooling2D", "config": {"trainable": true, "data_format": "channels_last", "pool_size": [3, 3], "name": "average_pooling2d_7", "strides": [1, 1], "padding": "same"}, "inbound_nodes": [[["mixed6", 0, 0, {}]]]}, {"name": "conv2d_61", "class_name": "Conv2D", "config": {"trainable": true, "bias_constraint": null, "name": "conv2d_61", "bias_initializer": {"class_name": "Zeros", "config": {}}, "strides": [1, 1], "filters": 96, "data_format": "channels_last", "activation": "relu", "kernel_initializer": {"class_name": "VarianceScaling", "config": {"scale": 1.0, "distribution": "uniform", "seed": null, "mode": "fan_avg"}}, "use_bias": true, "dilation_rate": [1, 1], "bias_regularizer": null, "kernel_regularizer": null, "activity_regularizer": null, "kernel_size": [1, 1], "padding": "same", "kernel_constraint": null}, "inbound_nodes": [[["mixed6", 0, 0, {}]]]}, {"name": "conv2d_64", "class_name": "Conv2D", "config": {"trainable": true, "bias_constraint": null, "name": "conv2d_64", "bias_initializer": {"class_name": "Zeros", "config": {}}, "strides": [1, 1], "filters": 96, "data_format": "channels_last", "activation": "relu", "kernel_initializer": {"class_name": "VarianceScaling", "config": {"scale": 1.0, "distribution": "uniform", "seed": null, "mode": "fan_avg"}}, "use_bias": true, "dilation_rate": [1, 1], "bias_regularizer": null, "kernel_regularizer": null, "activity_regularizer": null, "kernel_size": [7, 1], "padding": "same", "kernel_constraint": null}, "inbound_nodes": [[["batch_normalization_63", 0, 0, {}]]]}, {"name": "conv2d_69", "class_name": "Conv2D", "config": {"trainable": true, "bias_constraint": null, "name": "conv2d_69", "bias_initializer": {"class_name": "Zeros", "config": {}}, "strides": [1, 1], "filters": 96, "data_format": "channels_last", "activation": "relu", "kernel_initializer": {"class_name": "VarianceScaling", "config": {"scale": 1.0, "distribution": "uniform", "seed": null, "mode": "fan_avg"}}, "use_bias": true, "dilation_rate": [1, 1], "bias_regularizer": null, "kernel_regularizer": null, "activity_regularizer": null, "kernel_size": [1, 7], "padding": "same", "kernel_constraint": null}, "inbound_nodes": [[["batch_normalization_68", 0, 0, {}]]]}, {"name": "conv2d_70", "class_name": "Conv2D", "config": {"trainable": true, "bias_constraint": null, "name": "conv2d_70", "bias_initializer": {"class_name": "Zeros", "config": {}}, "strides": [1, 1], "filters": 96, "data_format": "channels_last", "activation": "relu", "kernel_initializer": {"class_name": "VarianceScaling", "config": {"scale": 1.0, "distribution": "uniform", "seed": null, "mode": "fan_avg"}}, "use_bias": true, "dilation_rate": [1, 1], "bias_regularizer": null, "kernel_regularizer": null, "activity_regularizer": null, "kernel_size": [1, 1], "padding": "same", "kernel_constraint": null}, "inbound_nodes": [[["average_pooling2d_7", 0, 0, {}]]]}, {"name": "batch_normalization_61", "class_name": "BatchNormalization", "config": {"gamma_regularizer": null, "momentum": 0.99, "epsilon": 0.001, "name": "batch_normalization_61", "beta_regularizer": null, "moving_mean_initializer": {"class_name": "Zeros", "config": {}}, "center": true, "scale": true, "trainable": true, "moving_variance_initializer": {"class_name": "Ones", "config": {}}, "gamma_constraint": null, "beta_initializer": {"class_name": "Zeros", "config": {}}, "beta_constraint": null, "axis": 3, "gamma_initializer": {"class_name": "Ones", "config": {}}}, "inbound_nodes": [[["conv2d_61", 0, 0, {}]]]}, {"name": "batch_normalization_64", "class_name": "BatchNormalization", "config": {"gamma_regularizer": null, "momentum": 0.99, "epsilon": 0.001, "name": "batch_normalization_64", "beta_regularizer": null, "moving_mean_initializer": {"class_name": "Zeros", "config": {}}, "center": true, "scale": true, "trainable": true, "moving_variance_initializer": {"class_name": "Ones", "config": {}}, "gamma_constraint": null, "beta_initializer": {"class_name": "Zeros", "config": {}}, "beta_constraint": null, "axis": 3, "gamma_initializer": {"class_name": "Ones", "config": {}}}, "inbound_nodes": [[["conv2d_64", 0, 0, {}]]]}, {"name": "batch_normalization_69", "class_name": "BatchNormalization", "config": {"gamma_regularizer": null, "momentum": 0.99, "epsilon": 0.001, "name": "batch_normalization_69", "beta_regularizer": null, "moving_mean_initializer": {"class_name": "Zeros", "config": {}}, "center": true, "scale": true, "trainable": true, "moving_variance_initializer": {"class_name": "Ones", "config": {}}, "gamma_constraint": null, "beta_initializer": {"class_name": "Zeros", "config": {}}, "beta_constraint": null, "axis": 3, "gamma_initializer": {"class_name": "Ones", "config": {}}}, "inbound_nodes": [[["conv2d_69", 0, 0, {}]]]}, {"name": "batch_normalization_70", "class_name": "BatchNormalization", "config": {"gamma_regularizer": null, "momentum": 0.99, "epsilon": 0.001, "name": "batch_normalization_70", "beta_regularizer": null, "moving_mean_initializer": {"class_name": "Zeros", "config": {}}, "center": true, "scale": true, "trainable": true, "moving_variance_initializer": {"class_name": "Ones", "config": {}}, "gamma_constraint": null, "beta_initializer": {"class_name": "Zeros", "config": {}}, "beta_constraint": null, "axis": 3, "gamma_initializer": {"class_name": "Ones", "config": {}}}, "inbound_nodes": [[["conv2d_70", 0, 0, {}]]]}, {"name": "mixed7", "class_name": "Concatenate", "config": {"name": "mixed7", "trainable": true, "axis": -1}, "inbound_nodes": [[["batch_normalization_61", 0, 0, {}], ["batch_normalization_64", 0, 0, {}], ["batch_normalization_69", 0, 0, {}], ["batch_normalization_70", 0, 0, {}]]]}, {"name": "conv2d_73", "class_name": "Conv2D", "config": {"trainable": true, "bias_constraint": null, "name": "conv2d_73", "bias_initializer": {"class_name": "Zeros", "config": {}}, "strides": [1, 1], "filters": 96, "data_format": "channels_last", "activation": "relu", "kernel_initializer": {"class_name": "VarianceScaling", "config": {"scale": 1.0, "distribution": "uniform", "seed": null, "mode": "fan_avg"}}, "use_bias": true, "dilation_rate": [1, 1], "bias_regularizer": null, "kernel_regularizer": null, "activity_regularizer": null, "kernel_size": [1, 1], "padding": "same", "kernel_constraint": null}, "inbound_nodes": [[["mixed7", 0, 0, {}]]]}, {"name": "batch_normalization_73", "class_name": "BatchNormalization", "config": {"gamma_regularizer": null, "momentum": 0.99, "epsilon": 0.001, "name": "batch_normalization_73", "beta_regularizer": null, "moving_mean_initializer": {"class_name": "Zeros", "config": {}}, "center": true, "scale": true, "trainable": true, "moving_variance_initializer": {"class_name": "Ones", "config": {}}, "gamma_constraint": null, "beta_initializer": {"class_name": "Zeros", "config": {}}, "beta_constraint": null, "axis": 3, "gamma_initializer": {"class_name": "Ones", "config": {}}}, "inbound_nodes": [[["conv2d_73", 0, 0, {}]]]}, {"name": "conv2d_74", "class_name": "Conv2D", "config": {"trainable": true, "bias_constraint": null, "name": "conv2d_74", "bias_initializer": {"class_name": "Zeros", "config": {}}, "strides": [1, 1], "filters": 96, "data_format": "channels_last", "activation": "relu", "kernel_initializer": {"class_name": "VarianceScaling", "config": {"scale": 1.0, "distribution": "uniform", "seed": null, "mode": "fan_avg"}}, "use_bias": true, "dilation_rate": [1, 1], "bias_regularizer": null, "kernel_regularizer": null, "activity_regularizer": null, "kernel_size": [1, 7], "padding": "same", "kernel_constraint": null}, "inbound_nodes": [[["batch_normalization_73", 0, 0, {}]]]}, {"name": "batch_normalization_74", "class_name": "BatchNormalization", "config": {"gamma_regularizer": null, "momentum": 0.99, "epsilon": 0.001, "name": "batch_normalization_74", "beta_regularizer": null, "moving_mean_initializer": {"class_name": "Zeros", "config": {}}, "center": true, "scale": true, "trainable": true, "moving_variance_initializer": {"class_name": "Ones", "config": {}}, "gamma_constraint": null, "beta_initializer": {"class_name": "Zeros", "config": {}}, "beta_constraint": null, "axis": 3, "gamma_initializer": {"class_name": "Ones", "config": {}}}, "inbound_nodes": [[["conv2d_74", 0, 0, {}]]]}, {"name": "conv2d_71", "class_name": "Conv2D", "config": {"trainable": true, "bias_constraint": null, "name": "conv2d_71", "bias_initializer": {"class_name": "Zeros", "config": {}}, "strides": [1, 1], "filters": 96, "data_format": "channels_last", "activation": "relu", "kernel_initializer": {"class_name": "VarianceScaling", "config": {"scale": 1.0, "distribution": "uniform", "seed": null, "mode": "fan_avg"}}, "use_bias": true, "dilation_rate": [1, 1], "bias_regularizer": null, "kernel_regularizer": null, "activity_regularizer": null, "kernel_size": [1, 1], "padding": "same", "kernel_constraint": null}, "inbound_nodes": [[["mixed7", 0, 0, {}]]]}, {"name": "conv2d_75", "class_name": "Conv2D", "config": {"trainable": true, "bias_constraint": null, "name": "conv2d_75", "bias_initializer": {"class_name": "Zeros", "config": {}}, "strides": [1, 1], "filters": 96, "data_format": "channels_last", "activation": "relu", "kernel_initializer": {"class_name": "VarianceScaling", "config": {"scale": 1.0, "distribution": "uniform", "seed": null, "mode": "fan_avg"}}, "use_bias": true, "dilation_rate": [1, 1], "bias_regularizer": null, "kernel_regularizer": null, "activity_regularizer": null, "kernel_size": [7, 1], "padding": "same", "kernel_constraint": null}, "inbound_nodes": [[["batch_normalization_74", 0, 0, {}]]]}, {"name": "batch_normalization_71", "class_name": "BatchNormalization", "config": {"gamma_regularizer": null, "momentum": 0.99, "epsilon": 0.001, "name": "batch_normalization_71", "beta_regularizer": null, "moving_mean_initializer": {"class_name": "Zeros", "config": {}}, "center": true, "scale": true, "trainable": true, "moving_variance_initializer": {"class_name": "Ones", "config": {}}, "gamma_constraint": null, "beta_initializer": {"class_name": "Zeros", "config": {}}, "beta_constraint": null, "axis": 3, "gamma_initializer": {"class_name": "Ones", "config": {}}}, "inbound_nodes": [[["conv2d_71", 0, 0, {}]]]}, {"name": "batch_normalization_75", "class_name": "BatchNormalization", "config": {"gamma_regularizer": null, "momentum": 0.99, "epsilon": 0.001, "name": "batch_normalization_75", "beta_regularizer": null, "moving_mean_initializer": {"class_name": "Zeros", "config": {}}, "center": true, "scale": true, "trainable": true, "moving_variance_initializer": {"class_name": "Ones", "config": {}}, "gamma_constraint": null, "beta_initializer": {"class_name": "Zeros", "config": {}}, "beta_constraint": null, "axis": 3, "gamma_initializer": {"class_name": "Ones", "config": {}}}, "inbound_nodes": [[["conv2d_75", 0, 0, {}]]]}, {"name": "conv2d_72", "class_name": "Conv2D", "config": {"trainable": true, "bias_constraint": null, "name": "conv2d_72", "bias_initializer": {"class_name": "Zeros", "config": {}}, "strides": [2, 2], "filters": 160, "data_format": "channels_last", "activation": "relu", "kernel_initializer": {"class_name": "VarianceScaling", "config": {"scale": 1.0, "distribution": "uniform", "seed": null, "mode": "fan_avg"}}, "use_bias": true, "dilation_rate": [1, 1], "bias_regularizer": null, "kernel_regularizer": null, "activity_regularizer": null, "kernel_size": [3, 3], "padding": "valid", "kernel_constraint": null}, "inbound_nodes": [[["batch_normalization_71", 0, 0, {}]]]}, {"name": "conv2d_76", "class_name": "Conv2D", "config": {"trainable": true, "bias_constraint": null, "name": "conv2d_76", "bias_initializer": {"class_name": "Zeros", "config": {}}, "strides": [2, 2], "filters": 96, "data_format": "channels_last", "activation": "relu", "kernel_initializer": {"class_name": "VarianceScaling", "config": {"scale": 1.0, "distribution": "uniform", "seed": null, "mode": "fan_avg"}}, "use_bias": true, "dilation_rate": [1, 1], "bias_regularizer": null, "kernel_regularizer": null, "activity_regularizer": null, "kernel_size": [3, 3], "padding": "valid", "kernel_constraint": null}, "inbound_nodes": [[["batch_normalization_75", 0, 0, {}]]]}, {"name": "batch_normalization_72", "class_name": "BatchNormalization", "config": {"gamma_regularizer": null, "momentum": 0.99, "epsilon": 0.001, "name": "batch_normalization_72", "beta_regularizer": null, "moving_mean_initializer": {"class_name": "Zeros", "config": {}}, "center": true, "scale": true, "trainable": true, "moving_variance_initializer": {"class_name": "Ones", "config": {}}, "gamma_constraint": null, "beta_initializer": {"class_name": "Zeros", "config": {}}, "beta_constraint": null, "axis": 3, "gamma_initializer": {"class_name": "Ones", "config": {}}}, "inbound_nodes": [[["conv2d_72", 0, 0, {}]]]}, {"name": "batch_normalization_76", "class_name": "BatchNormalization", "config": {"gamma_regularizer": null, "momentum": 0.99, "epsilon": 0.001, "name": "batch_normalization_76", "beta_regularizer": null, "moving_mean_initializer": {"class_name": "Zeros", "config": {}}, "center": true, "scale": true, "trainable": true, "moving_variance_initializer": {"class_name": "Ones", "config": {}}, "gamma_constraint": null, "beta_initializer": {"class_name": "Zeros", "config": {}}, "beta_constraint": null, "axis": 3, "gamma_initializer": {"class_name": "Ones", "config": {}}}, "inbound_nodes": [[["conv2d_76", 0, 0, {}]]]}, {"name": "average_pooling2d_8", "class_name": "AveragePooling2D", "config": {"trainable": true, "data_format": "channels_last", "pool_size": [3, 3], "name": "average_pooling2d_8", "strides": [2, 2], "padding": "valid"}, "inbound_nodes": [[["mixed7", 0, 0, {}]]]}, {"name": "mixed8", "class_name": "Concatenate", "config": {"name": "mixed8", "trainable": true, "axis": -1}, "inbound_nodes": [[["batch_normalization_72", 0, 0, {}], ["batch_normalization_76", 0, 0, {}], ["average_pooling2d_8", 0, 0, {}]]]}, {"name": "conv2d_81", "class_name": "Conv2D", "config": {"trainable": true, "bias_constraint": null, "name": "conv2d_81", "bias_initializer": {"class_name": "Zeros", "config": {}}, "strides": [1, 1], "filters": 224, "data_format": "channels_last", "activation": "relu", "kernel_initializer": {"class_name": "VarianceScaling", "config": {"scale": 1.0, "distribution": "uniform", "seed": null, "mode": "fan_avg"}}, "use_bias": true, "dilation_rate": [1, 1], "bias_regularizer": null, "kernel_regularizer": null, "activity_regularizer": null, "kernel_size": [1, 1], "padding": "same", "kernel_constraint": null}, "inbound_nodes": [[["mixed8", 0, 0, {}]]]}, {"name": "batch_normalization_81", "class_name": "BatchNormalization", "config": {"gamma_regularizer": null, "momentum": 0.99, "epsilon": 0.001, "name": "batch_normalization_81", "beta_regularizer": null, "moving_mean_initializer": {"class_name": "Zeros", "config": {}}, "center": true, "scale": true, "trainable": true, "moving_variance_initializer": {"class_name": "Ones", "config": {}}, "gamma_constraint": null, "beta_initializer": {"class_name": "Zeros", "config": {}}, "beta_constraint": null, "axis": 3, "gamma_initializer": {"class_name": "Ones", "config": {}}}, "inbound_nodes": [[["conv2d_81", 0, 0, {}]]]}, {"name": "conv2d_78", "class_name": "Conv2D", "config": {"trainable": true, "bias_constraint": null, "name": "conv2d_78", "bias_initializer": {"class_name": "Zeros", "config": {}}, "strides": [1, 1], "filters": 192, "data_format": "channels_last", "activation": "relu", "kernel_initializer": {"class_name": "VarianceScaling", "config": {"scale": 1.0, "distribution": "uniform", "seed": null, "mode": "fan_avg"}}, "use_bias": true, "dilation_rate": [1, 1], "bias_regularizer": null, "kernel_regularizer": null, "activity_regularizer": null, "kernel_size": [1, 1], "padding": "same", "kernel_constraint": null}, "inbound_nodes": [[["mixed8", 0, 0, {}]]]}, {"name": "conv2d_82", "class_name": "Conv2D", "config": {"trainable": true, "bias_constraint": null, "name": "conv2d_82", "bias_initializer": {"class_name": "Zeros", "config": {}}, "strides": [1, 1], "filters": 192, "data_format": "channels_last", "activation": "relu", "kernel_initializer": {"class_name": "VarianceScaling", "config": {"scale": 1.0, "distribution": "uniform", "seed": null, "mode": "fan_avg"}}, "use_bias": true, "dilation_rate": [1, 1], "bias_regularizer": null, "kernel_regularizer": null, "activity_regularizer": null, "kernel_size": [3, 3], "padding": "same", "kernel_constraint": null}, "inbound_nodes": [[["batch_normalization_81", 0, 0, {}]]]}, {"name": "batch_normalization_78", "class_name": "BatchNormalization", "config": {"gamma_regularizer": null, "momentum": 0.99, "epsilon": 0.001, "name": "batch_normalization_78", "beta_regularizer": null, "moving_mean_initializer": {"class_name": "Zeros", "config": {}}, "center": true, "scale": true, "trainable": true, "moving_variance_initializer": {"class_name": "Ones", "config": {}}, "gamma_constraint": null, "beta_initializer": {"class_name": "Zeros", "config": {}}, "beta_constraint": null, "axis": 3, "gamma_initializer": {"class_name": "Ones", "config": {}}}, "inbound_nodes": [[["conv2d_78", 0, 0, {}]]]}, {"name": "batch_normalization_82", "class_name": "BatchNormalization", "config": {"gamma_regularizer": null, "momentum": 0.99, "epsilon": 0.001, "name": "batch_normalization_82", "beta_regularizer": null, "moving_mean_initializer": {"class_name": "Zeros", "config": {}}, "center": true, "scale": true, "trainable": true, "moving_variance_initializer": {"class_name": "Ones", "config": {}}, "gamma_constraint": null, "beta_initializer": {"class_name": "Zeros", "config": {}}, "beta_constraint": null, "axis": 3, "gamma_initializer": {"class_name": "Ones", "config": {}}}, "inbound_nodes": [[["conv2d_82", 0, 0, {}]]]}, {"name": "conv2d_79", "class_name": "Conv2D", "config": {"trainable": true, "bias_constraint": null, "name": "conv2d_79", "bias_initializer": {"class_name": "Zeros", "config": {}}, "strides": [1, 1], "filters": 192, "data_format": "channels_last", "activation": "relu", "kernel_initializer": {"class_name": "VarianceScaling", "config": {"scale": 1.0, "distribution": "uniform", "seed": null, "mode": "fan_avg"}}, "use_bias": true, "dilation_rate": [1, 1], "bias_regularizer": null, "kernel_regularizer": null, "activity_regularizer": null, "kernel_size": [1, 3], "padding": "same", "kernel_constraint": null}, "inbound_nodes": [[["batch_normalization_78", 0, 0, {}]]]}, {"name": "conv2d_80", "class_name": "Conv2D", "config": {"trainable": true, "bias_constraint": null, "name": "conv2d_80", "bias_initializer": {"class_name": "Zeros", "config": {}}, "strides": [1, 1], "filters": 192, "data_format": "channels_last", "activation": "relu", "kernel_initializer": {"class_name": "VarianceScaling", "config": {"scale": 1.0, "distribution": "uniform", "seed": null, "mode": "fan_avg"}}, "use_bias": true, "dilation_rate": [1, 1], "bias_regularizer": null, "kernel_regularizer": null, "activity_regularizer": null, "kernel_size": [3, 1], "padding": "same", "kernel_constraint": null}, "inbound_nodes": [[["batch_normalization_78", 0, 0, {}]]]}, {"name": "conv2d_83", "class_name": "Conv2D", "config": {"trainable": true, "bias_constraint": null, "name": "conv2d_83", "bias_initializer": {"class_name": "Zeros", "config": {}}, "strides": [1, 1], "filters": 192, "data_format": "channels_last", "activation": "relu", "kernel_initializer": {"class_name": "VarianceScaling", "config": {"scale": 1.0, "distribution": "uniform", "seed": null, "mode": "fan_avg"}}, "use_bias": true, "dilation_rate": [1, 1], "bias_regularizer": null, "kernel_regularizer": null, "activity_regularizer": null, "kernel_size": [1, 3], "padding": "same", "kernel_constraint": null}, "inbound_nodes": [[["batch_normalization_82", 0, 0, {}]]]}, {"name": "conv2d_84", "class_name": "Conv2D", "config": {"trainable": true, "bias_constraint": null, "name": "conv2d_84", "bias_initializer": {"class_name": "Zeros", "config": {}}, "strides": [1, 1], "filters": 192, "data_format": "channels_last", "activation": "relu", "kernel_initializer": {"class_name": "VarianceScaling", "config": {"scale": 1.0, "distribution": "uniform", "seed": null, "mode": "fan_avg"}}, "use_bias": true, "dilation_rate": [1, 1], "bias_regularizer": null, "kernel_regularizer": null, "activity_regularizer": null, "kernel_size": [3, 1], "padding": "same", "kernel_constraint": null}, "inbound_nodes": [[["batch_normalization_82", 0, 0, {}]]]}, {"name": "average_pooling2d_9", "class_name": "AveragePooling2D", "config": {"trainable": true, "data_format": "channels_last", "pool_size": [3, 3], "name": "average_pooling2d_9", "strides": [1, 1], "padding": "same"}, "inbound_nodes": [[["mixed8", 0, 0, {}]]]}, {"name": "conv2d_77", "class_name": "Conv2D", "config": {"trainable": true, "bias_constraint": null, "name": "conv2d_77", "bias_initializer": {"class_name": "Zeros", "config": {}}, "strides": [1, 1], "filters": 160, "data_format": "channels_last", "activation": "relu", "kernel_initializer": {"class_name": "VarianceScaling", "config": {"scale": 1.0, "distribution": "uniform", "seed": null, "mode": "fan_avg"}}, "use_bias": true, "dilation_rate": [1, 1], "bias_regularizer": null, "kernel_regularizer": null, "activity_regularizer": null, "kernel_size": [1, 1], "padding": "same", "kernel_constraint": null}, "inbound_nodes": [[["mixed8", 0, 0, {}]]]}, {"name": "batch_normalization_79", "class_name": "BatchNormalization", "config": {"gamma_regularizer": null, "momentum": 0.99, "epsilon": 0.001, "name": "batch_normalization_79", "beta_regularizer": null, "moving_mean_initializer": {"class_name": "Zeros", "config": {}}, "center": true, "scale": true, "trainable": true, "moving_variance_initializer": {"class_name": "Ones", "config": {}}, "gamma_constraint": null, "beta_initializer": {"class_name": "Zeros", "config": {}}, "beta_constraint": null, "axis": 3, "gamma_initializer": {"class_name": "Ones", "config": {}}}, "inbound_nodes": [[["conv2d_79", 0, 0, {}]]]}, {"name": "batch_normalization_80", "class_name": "BatchNormalization", "config": {"gamma_regularizer": null, "momentum": 0.99, "epsilon": 0.001, "name": "batch_normalization_80", "beta_regularizer": null, "moving_mean_initializer": {"class_name": "Zeros", "config": {}}, "center": true, "scale": true, "trainable": true, "moving_variance_initializer": {"class_name": "Ones", "config": {}}, "gamma_constraint": null, "beta_initializer": {"class_name": "Zeros", "config": {}}, "beta_constraint": null, "axis": 3, "gamma_initializer": {"class_name": "Ones", "config": {}}}, "inbound_nodes": [[["conv2d_80", 0, 0, {}]]]}, {"name": "batch_normalization_83", "class_name": "BatchNormalization", "config": {"gamma_regularizer": null, "momentum": 0.99, "epsilon": 0.001, "name": "batch_normalization_83", "beta_regularizer": null, "moving_mean_initializer": {"class_name": "Zeros", "config": {}}, "center": true, "scale": true, "trainable": true, "moving_variance_initializer": {"class_name": "Ones", "config": {}}, "gamma_constraint": null, "beta_initializer": {"class_name": "Zeros", "config": {}}, "beta_constraint": null, "axis": 3, "gamma_initializer": {"class_name": "Ones", "config": {}}}, "inbound_nodes": [[["conv2d_83", 0, 0, {}]]]}, {"name": "batch_normalization_84", "class_name": "BatchNormalization", "config": {"gamma_regularizer": null, "momentum": 0.99, "epsilon": 0.001, "name": "batch_normalization_84", "beta_regularizer": null, "moving_mean_initializer": {"class_name": "Zeros", "config": {}}, "center": true, "scale": true, "trainable": true, "moving_variance_initializer": {"class_name": "Ones", "config": {}}, "gamma_constraint": null, "beta_initializer": {"class_name": "Zeros", "config": {}}, "beta_constraint": null, "axis": 3, "gamma_initializer": {"class_name": "Ones", "config": {}}}, "inbound_nodes": [[["conv2d_84", 0, 0, {}]]]}, {"name": "conv2d_85", "class_name": "Conv2D", "config": {"trainable": true, "bias_constraint": null, "name": "conv2d_85", "bias_initializer": {"class_name": "Zeros", "config": {}}, "strides": [1, 1], "filters": 96, "data_format": "channels_last", "activation": "relu", "kernel_initializer": {"class_name": "VarianceScaling", "config": {"scale": 1.0, "distribution": "uniform", "seed": null, "mode": "fan_avg"}}, "use_bias": true, "dilation_rate": [1, 1], "bias_regularizer": null, "kernel_regularizer": null, "activity_regularizer": null, "kernel_size": [1, 1], "padding": "same", "kernel_constraint": null}, "inbound_nodes": [[["average_pooling2d_9", 0, 0, {}]]]}, {"name": "batch_normalization_77", "class_name": "BatchNormalization", "config": {"gamma_regularizer": null, "momentum": 0.99, "epsilon": 0.001, "name": "batch_normalization_77", "beta_regularizer": null, "moving_mean_initializer": {"class_name": "Zeros", "config": {}}, "center": true, "scale": true, "trainable": true, "moving_variance_initializer": {"class_name": "Ones", "config": {}}, "gamma_constraint": null, "beta_initializer": {"class_name": "Zeros", "config": {}}, "beta_constraint": null, "axis": 3, "gamma_initializer": {"class_name": "Ones", "config": {}}}, "inbound_nodes": [[["conv2d_77", 0, 0, {}]]]}, {"name": "mixed9_0", "class_name": "Concatenate", "config": {"name": "mixed9_0", "trainable": true, "axis": -1}, "inbound_nodes": [[["batch_normalization_79", 0, 0, {}], ["batch_normalization_80", 0, 0, {}]]]}, {"name": "concatenate_1", "class_name": "Concatenate", "config": {"name": "concatenate_1", "trainable": true, "axis": -1}, "inbound_nodes": [[["batch_normalization_83", 0, 0, {}], ["batch_normalization_84", 0, 0, {}]]]}, {"name": "batch_normalization_85", "class_name": "BatchNormalization", "config": {"gamma_regularizer": null, "momentum": 0.99, "epsilon": 0.001, "name": "batch_normalization_85", "beta_regularizer": null, "moving_mean_initializer": {"class_name": "Zeros", "config": {}}, "center": true, "scale": true, "trainable": true, "moving_variance_initializer": {"class_name": "Ones", "config": {}}, "gamma_constraint": null, "beta_initializer": {"class_name": "Zeros", "config": {}}, "beta_constraint": null, "axis": 3, "gamma_initializer": {"class_name": "Ones", "config": {}}}, "inbound_nodes": [[["conv2d_85", 0, 0, {}]]]}, {"name": "mixed9", "class_name": "Concatenate", "config": {"name": "mixed9", "trainable": true, "axis": -1}, "inbound_nodes": [[["batch_normalization_77", 0, 0, {}], ["mixed9_0", 0, 0, {}], ["concatenate_1", 0, 0, {}], ["batch_normalization_85", 0, 0, {}]]]}, {"name": "conv2d_90", "class_name": "Conv2D", "config": {"trainable": true, "bias_constraint": null, "name": "conv2d_90", "bias_initializer": {"class_name": "Zeros", "config": {}}, "strides": [1, 1], "filters": 224, "data_format": "channels_last", "activation": "relu", "kernel_initializer": {"class_name": "VarianceScaling", "config": {"scale": 1.0, "distribution": "uniform", "seed": null, "mode": "fan_avg"}}, "use_bias": true, "dilation_rate": [1, 1], "bias_regularizer": null, "kernel_regularizer": null, "activity_regularizer": null, "kernel_size": [1, 1], "padding": "same", "kernel_constraint": null}, "inbound_nodes": [[["mixed9", 0, 0, {}]]]}, {"name": "batch_normalization_90", "class_name": "BatchNormalization", "config": {"gamma_regularizer": null, "momentum": 0.99, "epsilon": 0.001, "name": "batch_normalization_90", "beta_regularizer": null, "moving_mean_initializer": {"class_name": "Zeros", "config": {}}, "center": true, "scale": true, "trainable": true, "moving_variance_initializer": {"class_name": "Ones", "config": {}}, "gamma_constraint": null, "beta_initializer": {"class_name": "Zeros", "config": {}}, "beta_constraint": null, "axis": 3, "gamma_initializer": {"class_name": "Ones", "config": {}}}, "inbound_nodes": [[["conv2d_90", 0, 0, {}]]]}, {"name": "conv2d_87", "class_name": "Conv2D", "config": {"trainable": true, "bias_constraint": null, "name": "conv2d_87", "bias_initializer": {"class_name": "Zeros", "config": {}}, "strides": [1, 1], "filters": 192, "data_format": "channels_last", "activation": "relu", "kernel_initializer": {"class_name": "VarianceScaling", "config": {"scale": 1.0, "distribution": "uniform", "seed": null, "mode": "fan_avg"}}, "use_bias": true, "dilation_rate": [1, 1], "bias_regularizer": null, "kernel_regularizer": null, "activity_regularizer": null, "kernel_size": [1, 1], "padding": "same", "kernel_constraint": null}, "inbound_nodes": [[["mixed9", 0, 0, {}]]]}, {"name": "conv2d_91", "class_name": "Conv2D", "config": {"trainable": true, "bias_constraint": null, "name": "conv2d_91", "bias_initializer": {"class_name": "Zeros", "config": {}}, "strides": [1, 1], "filters": 192, "data_format": "channels_last", "activation": "relu", "kernel_initializer": {"class_name": "VarianceScaling", "config": {"scale": 1.0, "distribution": "uniform", "seed": null, "mode": "fan_avg"}}, "use_bias": true, "dilation_rate": [1, 1], "bias_regularizer": null, "kernel_regularizer": null, "activity_regularizer": null, "kernel_size": [3, 3], "padding": "same", "kernel_constraint": null}, "inbound_nodes": [[["batch_normalization_90", 0, 0, {}]]]}, {"name": "batch_normalization_87", "class_name": "BatchNormalization", "config": {"gamma_regularizer": null, "momentum": 0.99, "epsilon": 0.001, "name": "batch_normalization_87", "beta_regularizer": null, "moving_mean_initializer": {"class_name": "Zeros", "config": {}}, "center": true, "scale": true, "trainable": true, "moving_variance_initializer": {"class_name": "Ones", "config": {}}, "gamma_constraint": null, "beta_initializer": {"class_name": "Zeros", "config": {}}, "beta_constraint": null, "axis": 3, "gamma_initializer": {"class_name": "Ones", "config": {}}}, "inbound_nodes": [[["conv2d_87", 0, 0, {}]]]}, {"name": "batch_normalization_91", "class_name": "BatchNormalization", "config": {"gamma_regularizer": null, "momentum": 0.99, "epsilon": 0.001, "name": "batch_normalization_91", "beta_regularizer": null, "moving_mean_initializer": {"class_name": "Zeros", "config": {}}, "center": true, "scale": true, "trainable": true, "moving_variance_initializer": {"class_name": "Ones", "config": {}}, "gamma_constraint": null, "beta_initializer": {"class_name": "Zeros", "config": {}}, "beta_constraint": null, "axis": 3, "gamma_initializer": {"class_name": "Ones", "config": {}}}, "inbound_nodes": [[["conv2d_91", 0, 0, {}]]]}, {"name": "conv2d_88", "class_name": "Conv2D", "config": {"trainable": true, "bias_constraint": null, "name": "conv2d_88", "bias_initializer": {"class_name": "Zeros", "config": {}}, "strides": [1, 1], "filters": 192, "data_format": "channels_last", "activation": "relu", "kernel_initializer": {"class_name": "VarianceScaling", "config": {"scale": 1.0, "distribution": "uniform", "seed": null, "mode": "fan_avg"}}, "use_bias": true, "dilation_rate": [1, 1], "bias_regularizer": null, "kernel_regularizer": null, "activity_regularizer": null, "kernel_size": [1, 3], "padding": "same", "kernel_constraint": null}, "inbound_nodes": [[["batch_normalization_87", 0, 0, {}]]]}, {"name": "conv2d_89", "class_name": "Conv2D", "config": {"trainable": true, "bias_constraint": null, "name": "conv2d_89", "bias_initializer": {"class_name": "Zeros", "config": {}}, "strides": [1, 1], "filters": 192, "data_format": "channels_last", "activation": "relu", "kernel_initializer": {"class_name": "VarianceScaling", "config": {"scale": 1.0, "distribution": "uniform", "seed": null, "mode": "fan_avg"}}, "use_bias": true, "dilation_rate": [1, 1], "bias_regularizer": null, "kernel_regularizer": null, "activity_regularizer": null, "kernel_size": [3, 1], "padding": "same", "kernel_constraint": null}, "inbound_nodes": [[["batch_normalization_87", 0, 0, {}]]]}, {"name": "conv2d_92", "class_name": "Conv2D", "config": {"trainable": true, "bias_constraint": null, "name": "conv2d_92", "bias_initializer": {"class_name": "Zeros", "config": {}}, "strides": [1, 1], "filters": 192, "data_format": "channels_last", "activation": "relu", "kernel_initializer": {"class_name": "VarianceScaling", "config": {"scale": 1.0, "distribution": "uniform", "seed": null, "mode": "fan_avg"}}, "use_bias": true, "dilation_rate": [1, 1], "bias_regularizer": null, "kernel_regularizer": null, "activity_regularizer": null, "kernel_size": [1, 3], "padding": "same", "kernel_constraint": null}, "inbound_nodes": [[["batch_normalization_91", 0, 0, {}]]]}, {"name": "conv2d_93", "class_name": "Conv2D", "config": {"trainable": true, "bias_constraint": null, "name": "conv2d_93", "bias_initializer": {"class_name": "Zeros", "config": {}}, "strides": [1, 1], "filters": 192, "data_format": "channels_last", "activation": "relu", "kernel_initializer": {"class_name": "VarianceScaling", "config": {"scale": 1.0, "distribution": "uniform", "seed": null, "mode": "fan_avg"}}, "use_bias": true, "dilation_rate": [1, 1], "bias_regularizer": null, "kernel_regularizer": null, "activity_regularizer": null, "kernel_size": [3, 1], "padding": "same", "kernel_constraint": null}, "inbound_nodes": [[["batch_normalization_91", 0, 0, {}]]]}, {"name": "average_pooling2d_10", "class_name": "AveragePooling2D", "config": {"trainable": true, "data_format": "channels_last", "pool_size": [3, 3], "name": "average_pooling2d_10", "strides": [1, 1], "padding": "same"}, "inbound_nodes": [[["mixed9", 0, 0, {}]]]}, {"name": "conv2d_86", "class_name": "Conv2D", "config": {"trainable": true, "bias_constraint": null, "name": "conv2d_86", "bias_initializer": {"class_name": "Zeros", "config": {}}, "strides": [1, 1], "filters": 160, "data_format": "channels_last", "activation": "relu", "kernel_initializer": {"class_name": "VarianceScaling", "config": {"scale": 1.0, "distribution": "uniform", "seed": null, "mode": "fan_avg"}}, "use_bias": true, "dilation_rate": [1, 1], "bias_regularizer": null, "kernel_regularizer": null, "activity_regularizer": null, "kernel_size": [1, 1], "padding": "same", "kernel_constraint": null}, "inbound_nodes": [[["mixed9", 0, 0, {}]]]}, {"name": "batch_normalization_88", "class_name": "BatchNormalization", "config": {"gamma_regularizer": null, "momentum": 0.99, "epsilon": 0.001, "name": "batch_normalization_88", "beta_regularizer": null, "moving_mean_initializer": {"class_name": "Zeros", "config": {}}, "center": true, "scale": true, "trainable": true, "moving_variance_initializer": {"class_name": "Ones", "config": {}}, "gamma_constraint": null, "beta_initializer": {"class_name": "Zeros", "config": {}}, "beta_constraint": null, "axis": 3, "gamma_initializer": {"class_name": "Ones", "config": {}}}, "inbound_nodes": [[["conv2d_88", 0, 0, {}]]]}, {"name": "batch_normalization_89", "class_name": "BatchNormalization", "config": {"gamma_regularizer": null, "momentum": 0.99, "epsilon": 0.001, "name": "batch_normalization_89", "beta_regularizer": null, "moving_mean_initializer": {"class_name": "Zeros", "config": {}}, "center": true, "scale": true, "trainable": true, "moving_variance_initializer": {"class_name": "Ones", "config": {}}, "gamma_constraint": null, "beta_initializer": {"class_name": "Zeros", "config": {}}, "beta_constraint": null, "axis": 3, "gamma_initializer": {"class_name": "Ones", "config": {}}}, "inbound_nodes": [[["conv2d_89", 0, 0, {}]]]}, {"name": "batch_normalization_92", "class_name": "BatchNormalization", "config": {"gamma_regularizer": null, "momentum": 0.99, "epsilon": 0.001, "name": "batch_normalization_92", "beta_regularizer": null, "moving_mean_initializer": {"class_name": "Zeros", "config": {}}, "center": true, "scale": true, "trainable": true, "moving_variance_initializer": {"class_name": "Ones", "config": {}}, "gamma_constraint": null, "beta_initializer": {"class_name": "Zeros", "config": {}}, "beta_constraint": null, "axis": 3, "gamma_initializer": {"class_name": "Ones", "config": {}}}, "inbound_nodes": [[["conv2d_92", 0, 0, {}]]]}, {"name": "batch_normalization_93", "class_name": "BatchNormalization", "config": {"gamma_regularizer": null, "momentum": 0.99, "epsilon": 0.001, "name": "batch_normalization_93", "beta_regularizer": null, "moving_mean_initializer": {"class_name": "Zeros", "config": {}}, "center": true, "scale": true, "trainable": true, "moving_variance_initializer": {"class_name": "Ones", "config": {}}, "gamma_constraint": null, "beta_initializer": {"class_name": "Zeros", "config": {}}, "beta_constraint": null, "axis": 3, "gamma_initializer": {"class_name": "Ones", "config": {}}}, "inbound_nodes": [[["conv2d_93", 0, 0, {}]]]}, {"name": "conv2d_94", "class_name": "Conv2D", "config": {"trainable": true, "bias_constraint": null, "name": "conv2d_94", "bias_initializer": {"class_name": "Zeros", "config": {}}, "strides": [1, 1], "filters": 96, "data_format": "channels_last", "activation": "relu", "kernel_initializer": {"class_name": "VarianceScaling", "config": {"scale": 1.0, "distribution": "uniform", "seed": null, "mode": "fan_avg"}}, "use_bias": true, "dilation_rate": [1, 1], "bias_regularizer": null, "kernel_regularizer": null, "activity_regularizer": null, "kernel_size": [1, 1], "padding": "same", "kernel_constraint": null}, "inbound_nodes": [[["average_pooling2d_10", 0, 0, {}]]]}, {"name": "batch_normalization_86", "class_name": "BatchNormalization", "config": {"gamma_regularizer": null, "momentum": 0.99, "epsilon": 0.001, "name": "batch_normalization_86", "beta_regularizer": null, "moving_mean_initializer": {"class_name": "Zeros", "config": {}}, "center": true, "scale": true, "trainable": true, "moving_variance_initializer": {"class_name": "Ones", "config": {}}, "gamma_constraint": null, "beta_initializer": {"class_name": "Zeros", "config": {}}, "beta_constraint": null, "axis": 3, "gamma_initializer": {"class_name": "Ones", "config": {}}}, "inbound_nodes": [[["conv2d_86", 0, 0, {}]]]}, {"name": "mixed9_1", "class_name": "Concatenate", "config": {"name": "mixed9_1", "trainable": true, "axis": -1}, "inbound_nodes": [[["batch_normalization_88", 0, 0, {}], ["batch_normalization_89", 0, 0, {}]]]}, {"name": "concatenate_2", "class_name": "Concatenate", "config": {"name": "concatenate_2", "trainable": true, "axis": -1}, "inbound_nodes": [[["batch_normalization_92", 0, 0, {}], ["batch_normalization_93", 0, 0, {}]]]}, {"name": "batch_normalization_94", "class_name": "BatchNormalization", "config": {"gamma_regularizer": null, "momentum": 0.99, "epsilon": 0.001, "name": "batch_normalization_94", "beta_regularizer": null, "moving_mean_initializer": {"class_name": "Zeros", "config": {}}, "center": true, "scale": true, "trainable": true, "moving_variance_initializer": {"class_name": "Ones", "config": {}}, "gamma_constraint": null, "beta_initializer": {"class_name": "Zeros", "config": {}}, "beta_constraint": null, "axis": 3, "gamma_initializer": {"class_name": "Ones", "config": {}}}, "inbound_nodes": [[["conv2d_94", 0, 0, {}]]]}, {"name": "mixed10", "class_name": "Concatenate", "config": {"name": "mixed10", "trainable": true, "axis": -1}, "inbound_nodes": [[["batch_normalization_86", 0, 0, {}], ["mixed9_1", 0, 0, {}], ["concatenate_2", 0, 0, {}], ["batch_normalization_94", 0, 0, {}]]]}, {"name": "end_max_pool", "class_name": "MaxPooling2D", "config": {"trainable": true, "data_format": "channels_last", "pool_size": [2, 2], "name": "end_max_pool", "strides": [2, 2], "padding": "valid"}, "inbound_nodes": [[["mixed10", 0, 0, {}]]]}, {"name": "flatten", "class_name": "Flatten", "config": {"name": "flatten", "trainable": true}, "inbound_nodes": [[["end_max_pool", 0, 0, {}]]]}, {"name": "output_layer", "class_name": "Dense", "config": {"bias_constraint": null, "name": "output_layer", "bias_initializer": {"class_name": "Zeros", "config": {}}, "units": 1, "kernel_constraint": null, "trainable": true, "activation": "sigmoid", "kernel_initializer": {"class_name": "VarianceScaling", "config": {"scale": 1.0, "distribution": "uniform", "seed": null, "mode": "fan_avg"}}, "use_bias": true, "bias_regularizer": null, "kernel_regularizer": null, "activity_regularizer": null}, "inbound_nodes": [[["flatten", 0, 0, {}]]]}], "output_layers": [["output_layer", 0, 0]], "input_layers": [["input_1", 0, 0]]}, "keras_version": "2.0.6", "backend": "tensorflow"}