{"config": {"name": "model_1", "output_layers": [["output_layer", 0, 0]], "layers": [{"name": "input_1", "class_name": "InputLayer", "config": {"sparse": false, "dtype": "float16", "name": "input_1", "batch_input_shape": [null, 1152, 832, 1]}, "inbound_nodes": []}, {"name": "conv2d_1", "class_name": "Conv2D", "config": {"kernel_constraint": null, "kernel_initializer": {"config": {"distribution": "uniform", "scale": 1.0, "mode": "fan_avg", "seed": null}, "class_name": "VarianceScaling"}, "bias_constraint": null, "dilation_rate": [1, 1], "trainable": true, "use_bias": true, "kernel_regularizer": null, "filters": 32, "bias_initializer": {"config": {}, "class_name": "Zeros"}, "name": "conv2d_1", "data_format": "channels_last", "activity_regularizer": null, "bias_regularizer": null, "kernel_size": [3, 3], "strides": [2, 2], "activation": "relu", "padding": "valid"}, "inbound_nodes": [[["input_1", 0, 0, {}]]]}, {"name": "batch_normalization_1", "class_name": "BatchNormalization", "config": {"momentum": 0.99, "epsilon": 0.001, "beta_constraint": null, "trainable": true, "scale": true, "center": true, "moving_mean_initializer": {"config": {}, "class_name": "Zeros"}, "gamma_regularizer": null, "axis": 3, "name": "batch_normalization_1", "moving_variance_initializer": {"config": {}, "class_name": "Ones"}, "beta_regularizer": null, "gamma_initializer": {"config": {}, "class_name": "Ones"}, "beta_initializer": {"config": {}, "class_name": "Zeros"}, "gamma_constraint": null}, "inbound_nodes": [[["conv2d_1", 0, 0, {}]]]}, {"name": "conv2d_2", "class_name": "Conv2D", "config": {"kernel_constraint": null, "kernel_initializer": {"config": {"distribution": "uniform", "scale": 1.0, "mode": "fan_avg", "seed": null}, "class_name": "VarianceScaling"}, "bias_constraint": null, "dilation_rate": [1, 1], "trainable": true, "use_bias": true, "kernel_regularizer": null, "filters": 32, "bias_initializer": {"config": {}, "class_name": "Zeros"}, "name": "conv2d_2", "data_format": "channels_last", "activity_regularizer": null, "bias_regularizer": null, "kernel_size": [3, 3], "strides": [1, 1], "activation": "relu", "padding": "valid"}, "inbound_nodes": [[["batch_normalization_1", 0, 0, {}]]]}, {"name": "batch_normalization_2", "class_name": "BatchNormalization", "config": {"momentum": 0.99, "epsilon": 0.001, "beta_constraint": null, "trainable": true, "scale": true, "center": true, "moving_mean_initializer": {"config": {}, "class_name": "Zeros"}, "gamma_regularizer": null, "axis": 3, "name": "batch_normalization_2", "moving_variance_initializer": {"config": {}, "class_name": "Ones"}, "beta_regularizer": null, "gamma_initializer": {"config": {}, "class_name": "Ones"}, "beta_initializer": {"config": {}, "class_name": "Zeros"}, "gamma_constraint": null}, "inbound_nodes": [[["conv2d_2", 0, 0, {}]]]}, {"name": "conv2d_3", "class_name": "Conv2D", "config": {"kernel_constraint": null, "kernel_initializer": {"config": {"distribution": "uniform", "scale": 1.0, "mode": "fan_avg", "seed": null}, "class_name": "VarianceScaling"}, "bias_constraint": null, "dilation_rate": [1, 1], "trainable": true, "use_bias": true, "kernel_regularizer": null, "filters": 64, "bias_initializer": {"config": {}, "class_name": "Zeros"}, "name": "conv2d_3", "data_format": "channels_last", "activity_regularizer": null, "bias_regularizer": null, "kernel_size": [3, 3], "strides": [1, 1], "activation": "relu", "padding": "same"}, "inbound_nodes": [[["batch_normalization_2", 0, 0, {}]]]}, {"name": "batch_normalization_3", "class_name": "BatchNormalization", "config": {"momentum": 0.99, "epsilon": 0.001, "beta_constraint": null, "trainable": true, "scale": true, "center": true, "moving_mean_initializer": {"config": {}, "class_name": "Zeros"}, "gamma_regularizer": null, "axis": 3, "name": "batch_normalization_3", "moving_variance_initializer": {"config": {}, "class_name": "Ones"}, "beta_regularizer": null, "gamma_initializer": {"config": {}, "class_name": "Ones"}, "beta_initializer": {"config": {}, "class_name": "Zeros"}, "gamma_constraint": null}, "inbound_nodes": [[["conv2d_3", 0, 0, {}]]]}, {"name": "max_pooling2d_1", "class_name": "MaxPooling2D", "config": {"trainable": true, "name": "max_pooling2d_1", "padding": "valid", "pool_size": [3, 3], "data_format": "channels_last", "strides": [2, 2]}, "inbound_nodes": [[["batch_normalization_3", 0, 0, {}]]]}, {"name": "conv2d_4", "class_name": "Conv2D", "config": {"kernel_constraint": null, "kernel_initializer": {"config": {"distribution": "uniform", "scale": 1.0, "mode": "fan_avg", "seed": null}, "class_name": "VarianceScaling"}, "bias_constraint": null, "dilation_rate": [1, 1], "trainable": true, "use_bias": true, "kernel_regularizer": null, "filters": 80, "bias_initializer": {"config": {}, "class_name": "Zeros"}, "name": "conv2d_4", "data_format": "channels_last", "activity_regularizer": null, "bias_regularizer": null, "kernel_size": [1, 1], "strides": [1, 1], "activation": "relu", "padding": "valid"}, "inbound_nodes": [[["max_pooling2d_1", 0, 0, {}]]]}, {"name": "batch_normalization_4", "class_name": "BatchNormalization", "config": {"momentum": 0.99, "epsilon": 0.001, "beta_constraint": null, "trainable": true, "scale": true, "center": true, "moving_mean_initializer": {"config": {}, "class_name": "Zeros"}, "gamma_regularizer": null, "axis": 3, "name": "batch_normalization_4", "moving_variance_initializer": {"config": {}, "class_name": "Ones"}, "beta_regularizer": null, "gamma_initializer": {"config": {}, "class_name": "Ones"}, "beta_initializer": {"config": {}, "class_name": "Zeros"}, "gamma_constraint": null}, "inbound_nodes": [[["conv2d_4", 0, 0, {}]]]}, {"name": "conv2d_5", "class_name": "Conv2D", "config": {"kernel_constraint": null, "kernel_initializer": {"config": {"distribution": "uniform", "scale": 1.0, "mode": "fan_avg", "seed": null}, "class_name": "VarianceScaling"}, "bias_constraint": null, "dilation_rate": [1, 1], "trainable": true, "use_bias": true, "kernel_regularizer": null, "filters": 192, "bias_initializer": {"config": {}, "class_name": "Zeros"}, "name": "conv2d_5", "data_format": "channels_last", "activity_regularizer": null, "bias_regularizer": null, "kernel_size": [3, 3], "strides": [1, 1], "activation": "relu", "padding": "valid"}, "inbound_nodes": [[["batch_normalization_4", 0, 0, {}]]]}, {"name": "batch_normalization_5", "class_name": "BatchNormalization", "config": {"momentum": 0.99, "epsilon": 0.001, "beta_constraint": null, "trainable": true, "scale": true, "center": true, "moving_mean_initializer": {"config": {}, "class_name": "Zeros"}, "gamma_regularizer": null, "axis": 3, "name": "batch_normalization_5", "moving_variance_initializer": {"config": {}, "class_name": "Ones"}, "beta_regularizer": null, "gamma_initializer": {"config": {}, "class_name": "Ones"}, "beta_initializer": {"config": {}, "class_name": "Zeros"}, "gamma_constraint": null}, "inbound_nodes": [[["conv2d_5", 0, 0, {}]]]}, {"name": "max_pooling2d_2", "class_name": "MaxPooling2D", "config": {"trainable": true, "name": "max_pooling2d_2", "padding": "valid", "pool_size": [3, 3], "data_format": "channels_last", "strides": [2, 2]}, "inbound_nodes": [[["batch_normalization_5", 0, 0, {}]]]}, {"name": "conv2d_9", "class_name": "Conv2D", "config": {"kernel_constraint": null, "kernel_initializer": {"config": {"distribution": "uniform", "scale": 1.0, "mode": "fan_avg", "seed": null}, "class_name": "VarianceScaling"}, "bias_constraint": null, "dilation_rate": [1, 1], "trainable": true, "use_bias": true, "kernel_regularizer": null, "filters": 64, "bias_initializer": {"config": {}, "class_name": "Zeros"}, "name": "conv2d_9", "data_format": "channels_last", "activity_regularizer": null, "bias_regularizer": null, "kernel_size": [1, 1], "strides": [1, 1], "activation": "relu", "padding": "same"}, "inbound_nodes": [[["max_pooling2d_2", 0, 0, {}]]]}, {"name": "batch_normalization_9", "class_name": "BatchNormalization", "config": {"momentum": 0.99, "epsilon": 0.001, "beta_constraint": null, "trainable": true, "scale": true, "center": true, "moving_mean_initializer": {"config": {}, "class_name": "Zeros"}, "gamma_regularizer": null, "axis": 3, "name": "batch_normalization_9", "moving_variance_initializer": {"config": {}, "class_name": "Ones"}, "beta_regularizer": null, "gamma_initializer": {"config": {}, "class_name": "Ones"}, "beta_initializer": {"config": {}, "class_name": "Zeros"}, "gamma_constraint": null}, "inbound_nodes": [[["conv2d_9", 0, 0, {}]]]}, {"name": "conv2d_7", "class_name": "Conv2D", "config": {"kernel_constraint": null, "kernel_initializer": {"config": {"distribution": "uniform", "scale": 1.0, "mode": "fan_avg", "seed": null}, "class_name": "VarianceScaling"}, "bias_constraint": null, "dilation_rate": [1, 1], "trainable": true, "use_bias": true, "kernel_regularizer": null, "filters": 48, "bias_initializer": {"config": {}, "class_name": "Zeros"}, "name": "conv2d_7", "data_format": "channels_last", "activity_regularizer": null, "bias_regularizer": null, "kernel_size": [1, 1], "strides": [1, 1], "activation": "relu", "padding": "same"}, "inbound_nodes": [[["max_pooling2d_2", 0, 0, {}]]]}, {"name": "conv2d_10", "class_name": "Conv2D", "config": {"kernel_constraint": null, "kernel_initializer": {"config": {"distribution": "uniform", "scale": 1.0, "mode": "fan_avg", "seed": null}, "class_name": "VarianceScaling"}, "bias_constraint": null, "dilation_rate": [1, 1], "trainable": true, "use_bias": true, "kernel_regularizer": null, "filters": 96, "bias_initializer": {"config": {}, "class_name": "Zeros"}, "name": "conv2d_10", "data_format": "channels_last", "activity_regularizer": null, "bias_regularizer": null, "kernel_size": [3, 3], "strides": [1, 1], "activation": "relu", "padding": "same"}, "inbound_nodes": [[["batch_normalization_9", 0, 0, {}]]]}, {"name": "batch_normalization_7", "class_name": "BatchNormalization", "config": {"momentum": 0.99, "epsilon": 0.001, "beta_constraint": null, "trainable": true, "scale": true, "center": true, "moving_mean_initializer": {"config": {}, "class_name": "Zeros"}, "gamma_regularizer": null, "axis": 3, "name": "batch_normalization_7", "moving_variance_initializer": {"config": {}, "class_name": "Ones"}, "beta_regularizer": null, "gamma_initializer": {"config": {}, "class_name": "Ones"}, "beta_initializer": {"config": {}, "class_name": "Zeros"}, "gamma_constraint": null}, "inbound_nodes": [[["conv2d_7", 0, 0, {}]]]}, {"name": "batch_normalization_10", "class_name": "BatchNormalization", "config": {"momentum": 0.99, "epsilon": 0.001, "beta_constraint": null, "trainable": true, "scale": true, "center": true, "moving_mean_initializer": {"config": {}, "class_name": "Zeros"}, "gamma_regularizer": null, "axis": 3, "name": "batch_normalization_10", "moving_variance_initializer": {"config": {}, "class_name": "Ones"}, "beta_regularizer": null, "gamma_initializer": {"config": {}, "class_name": "Ones"}, "beta_initializer": {"config": {}, "class_name": "Zeros"}, "gamma_constraint": null}, "inbound_nodes": [[["conv2d_10", 0, 0, {}]]]}, {"name": "average_pooling2d_1", "class_name": "AveragePooling2D", "config": {"trainable": true, "name": "average_pooling2d_1", "padding": "same", "pool_size": [3, 3], "data_format": "channels_last", "strides": [1, 1]}, "inbound_nodes": [[["max_pooling2d_2", 0, 0, {}]]]}, {"name": "conv2d_6", "class_name": "Conv2D", "config": {"kernel_constraint": null, "kernel_initializer": {"config": {"distribution": "uniform", "scale": 1.0, "mode": "fan_avg", "seed": null}, "class_name": "VarianceScaling"}, "bias_constraint": null, "dilation_rate": [1, 1], "trainable": true, "use_bias": true, "kernel_regularizer": null, "filters": 64, "bias_initializer": {"config": {}, "class_name": "Zeros"}, "name": "conv2d_6", "data_format": "channels_last", "activity_regularizer": null, "bias_regularizer": null, "kernel_size": [1, 1], "strides": [1, 1], "activation": "relu", "padding": "same"}, "inbound_nodes": [[["max_pooling2d_2", 0, 0, {}]]]}, {"name": "conv2d_8", "class_name": "Conv2D", "config": {"kernel_constraint": null, "kernel_initializer": {"config": {"distribution": "uniform", "scale": 1.0, "mode": "fan_avg", "seed": null}, "class_name": "VarianceScaling"}, "bias_constraint": null, "dilation_rate": [1, 1], "trainable": true, "use_bias": true, "kernel_regularizer": null, "filters": 64, "bias_initializer": {"config": {}, "class_name": "Zeros"}, "name": "conv2d_8", "data_format": "channels_last", "activity_regularizer": null, "bias_regularizer": null, "kernel_size": [5, 5], "strides": [1, 1], "activation": "relu", "padding": "same"}, "inbound_nodes": [[["batch_normalization_7", 0, 0, {}]]]}, {"name": "conv2d_11", "class_name": "Conv2D", "config": {"kernel_constraint": null, "kernel_initializer": {"config": {"distribution": "uniform", "scale": 1.0, "mode": "fan_avg", "seed": null}, "class_name": "VarianceScaling"}, "bias_constraint": null, "dilation_rate": [1, 1], "trainable": true, "use_bias": true, "kernel_regularizer": null, "filters": 96, "bias_initializer": {"config": {}, "class_name": "Zeros"}, "name": "conv2d_11", "data_format": "channels_last", "activity_regularizer": null, "bias_regularizer": null, "kernel_size": [3, 3], "strides": [1, 1], "activation": "relu", "padding": "same"}, "inbound_nodes": [[["batch_normalization_10", 0, 0, {}]]]}, {"name": "conv2d_12", "class_name": "Conv2D", "config": {"kernel_constraint": null, "kernel_initializer": {"config": {"distribution": "uniform", "scale": 1.0, "mode": "fan_avg", "seed": null}, "class_name": "VarianceScaling"}, "bias_constraint": null, "dilation_rate": [1, 1], "trainable": true, "use_bias": true, "kernel_regularizer": null, "filters": 32, "bias_initializer": {"config": {}, "class_name": "Zeros"}, "name": "conv2d_12", "data_format": "channels_last", "activity_regularizer": null, "bias_regularizer": null, "kernel_size": [1, 1], "strides": [1, 1], "activation": "relu", "padding": "same"}, "inbound_nodes": [[["average_pooling2d_1", 0, 0, {}]]]}, {"name": "batch_normalization_6", "class_name": "BatchNormalization", "config": {"momentum": 0.99, "epsilon": 0.001, "beta_constraint": null, "trainable": true, "scale": true, "center": true, "moving_mean_initializer": {"config": {}, "class_name": "Zeros"}, "gamma_regularizer": null, "axis": 3, "name": "batch_normalization_6", "moving_variance_initializer": {"config": {}, "class_name": "Ones"}, "beta_regularizer": null, "gamma_initializer": {"config": {}, "class_name": "Ones"}, "beta_initializer": {"config": {}, "class_name": "Zeros"}, "gamma_constraint": null}, "inbound_nodes": [[["conv2d_6", 0, 0, {}]]]}, {"name": "batch_normalization_8", "class_name": "BatchNormalization", "config": {"momentum": 0.99, "epsilon": 0.001, "beta_constraint": null, "trainable": true, "scale": true, "center": true, "moving_mean_initializer": {"config": {}, "class_name": "Zeros"}, "gamma_regularizer": null, "axis": 3, "name": "batch_normalization_8", "moving_variance_initializer": {"config": {}, "class_name": "Ones"}, "beta_regularizer": null, "gamma_initializer": {"config": {}, "class_name": "Ones"}, "beta_initializer": {"config": {}, "class_name": "Zeros"}, "gamma_constraint": null}, "inbound_nodes": [[["conv2d_8", 0, 0, {}]]]}, {"name": "batch_normalization_11", "class_name": "BatchNormalization", "config": {"momentum": 0.99, "epsilon": 0.001, "beta_constraint": null, "trainable": true, "scale": true, "center": true, "moving_mean_initializer": {"config": {}, "class_name": "Zeros"}, "gamma_regularizer": null, "axis": 3, "name": "batch_normalization_11", "moving_variance_initializer": {"config": {}, "class_name": "Ones"}, "beta_regularizer": null, "gamma_initializer": {"config": {}, "class_name": "Ones"}, "beta_initializer": {"config": {}, "class_name": "Zeros"}, "gamma_constraint": null}, "inbound_nodes": [[["conv2d_11", 0, 0, {}]]]}, {"name": "batch_normalization_12", "class_name": "BatchNormalization", "config": {"momentum": 0.99, "epsilon": 0.001, "beta_constraint": null, "trainable": true, "scale": true, "center": true, "moving_mean_initializer": {"config": {}, "class_name": "Zeros"}, "gamma_regularizer": null, "axis": 3, "name": "batch_normalization_12", "moving_variance_initializer": {"config": {}, "class_name": "Ones"}, "beta_regularizer": null, "gamma_initializer": {"config": {}, "class_name": "Ones"}, "beta_initializer": {"config": {}, "class_name": "Zeros"}, "gamma_constraint": null}, "inbound_nodes": [[["conv2d_12", 0, 0, {}]]]}, {"name": "mixed0", "class_name": "Concatenate", "config": {"trainable": true, "axis": -1, "name": "mixed0"}, "inbound_nodes": [[["batch_normalization_6", 0, 0, {}], ["batch_normalization_8", 0, 0, {}], ["batch_normalization_11", 0, 0, {}], ["batch_normalization_12", 0, 0, {}]]]}, {"name": "conv2d_16", "class_name": "Conv2D", "config": {"kernel_constraint": null, "kernel_initializer": {"config": {"distribution": "uniform", "scale": 1.0, "mode": "fan_avg", "seed": null}, "class_name": "VarianceScaling"}, "bias_constraint": null, "dilation_rate": [1, 1], "trainable": true, "use_bias": true, "kernel_regularizer": null, "filters": 64, "bias_initializer": {"config": {}, "class_name": "Zeros"}, "name": "conv2d_16", "data_format": "channels_last", "activity_regularizer": null, "bias_regularizer": null, "kernel_size": [1, 1], "strides": [1, 1], "activation": "relu", "padding": "same"}, "inbound_nodes": [[["mixed0", 0, 0, {}]]]}, {"name": "batch_normalization_16", "class_name": "BatchNormalization", "config": {"momentum": 0.99, "epsilon": 0.001, "beta_constraint": null, "trainable": true, "scale": true, "center": true, "moving_mean_initializer": {"config": {}, "class_name": "Zeros"}, "gamma_regularizer": null, "axis": 3, "name": "batch_normalization_16", "moving_variance_initializer": {"config": {}, "class_name": "Ones"}, "beta_regularizer": null, "gamma_initializer": {"config": {}, "class_name": "Ones"}, "beta_initializer": {"config": {}, "class_name": "Zeros"}, "gamma_constraint": null}, "inbound_nodes": [[["conv2d_16", 0, 0, {}]]]}, {"name": "conv2d_14", "class_name": "Conv2D", "config": {"kernel_constraint": null, "kernel_initializer": {"config": {"distribution": "uniform", "scale": 1.0, "mode": "fan_avg", "seed": null}, "class_name": "VarianceScaling"}, "bias_constraint": null, "dilation_rate": [1, 1], "trainable": true, "use_bias": true, "kernel_regularizer": null, "filters": 48, "bias_initializer": {"config": {}, "class_name": "Zeros"}, "name": "conv2d_14", "data_format": "channels_last", "activity_regularizer": null, "bias_regularizer": null, "kernel_size": [1, 1], "strides": [1, 1], "activation": "relu", "padding": "same"}, "inbound_nodes": [[["mixed0", 0, 0, {}]]]}, {"name": "conv2d_17", "class_name": "Conv2D", "config": {"kernel_constraint": null, "kernel_initializer": {"config": {"distribution": "uniform", "scale": 1.0, "mode": "fan_avg", "seed": null}, "class_name": "VarianceScaling"}, "bias_constraint": null, "dilation_rate": [1, 1], "trainable": true, "use_bias": true, "kernel_regularizer": null, "filters": 96, "bias_initializer": {"config": {}, "class_name": "Zeros"}, "name": "conv2d_17", "data_format": "channels_last", "activity_regularizer": null, "bias_regularizer": null, "kernel_size": [3, 3], "strides": [1, 1], "activation": "relu", "padding": "same"}, "inbound_nodes": [[["batch_normalization_16", 0, 0, {}]]]}, {"name": "batch_normalization_14", "class_name": "BatchNormalization", "config": {"momentum": 0.99, "epsilon": 0.001, "beta_constraint": null, "trainable": true, "scale": true, "center": true, "moving_mean_initializer": {"config": {}, "class_name": "Zeros"}, "gamma_regularizer": null, "axis": 3, "name": "batch_normalization_14", "moving_variance_initializer": {"config": {}, "class_name": "Ones"}, "beta_regularizer": null, "gamma_initializer": {"config": {}, "class_name": "Ones"}, "beta_initializer": {"config": {}, "class_name": "Zeros"}, "gamma_constraint": null}, "inbound_nodes": [[["conv2d_14", 0, 0, {}]]]}, {"name": "batch_normalization_17", "class_name": "BatchNormalization", "config": {"momentum": 0.99, "epsilon": 0.001, "beta_constraint": null, "trainable": true, "scale": true, "center": true, "moving_mean_initializer": {"config": {}, "class_name": "Zeros"}, "gamma_regularizer": null, "axis": 3, "name": "batch_normalization_17", "moving_variance_initializer": {"config": {}, "class_name": "Ones"}, "beta_regularizer": null, "gamma_initializer": {"config": {}, "class_name": "Ones"}, "beta_initializer": {"config": {}, "class_name": "Zeros"}, "gamma_constraint": null}, "inbound_nodes": [[["conv2d_17", 0, 0, {}]]]}, {"name": "average_pooling2d_2", "class_name": "AveragePooling2D", "config": {"trainable": true, "name": "average_pooling2d_2", "padding": "same", "pool_size": [3, 3], "data_format": "channels_last", "strides": [1, 1]}, "inbound_nodes": [[["mixed0", 0, 0, {}]]]}, {"name": "conv2d_13", "class_name": "Conv2D", "config": {"kernel_constraint": null, "kernel_initializer": {"config": {"distribution": "uniform", "scale": 1.0, "mode": "fan_avg", "seed": null}, "class_name": "VarianceScaling"}, "bias_constraint": null, "dilation_rate": [1, 1], "trainable": true, "use_bias": true, "kernel_regularizer": null, "filters": 64, "bias_initializer": {"config": {}, "class_name": "Zeros"}, "name": "conv2d_13", "data_format": "channels_last", "activity_regularizer": null, "bias_regularizer": null, "kernel_size": [1, 1], "strides": [1, 1], "activation": "relu", "padding": "same"}, "inbound_nodes": [[["mixed0", 0, 0, {}]]]}, {"name": "conv2d_15", "class_name": "Conv2D", "config": {"kernel_constraint": null, "kernel_initializer": {"config": {"distribution": "uniform", "scale": 1.0, "mode": "fan_avg", "seed": null}, "class_name": "VarianceScaling"}, "bias_constraint": null, "dilation_rate": [1, 1], "trainable": true, "use_bias": true, "kernel_regularizer": null, "filters": 64, "bias_initializer": {"config": {}, "class_name": "Zeros"}, "name": "conv2d_15", "data_format": "channels_last", "activity_regularizer": null, "bias_regularizer": null, "kernel_size": [5, 5], "strides": [1, 1], "activation": "relu", "padding": "same"}, "inbound_nodes": [[["batch_normalization_14", 0, 0, {}]]]}, {"name": "conv2d_18", "class_name": "Conv2D", "config": {"kernel_constraint": null, "kernel_initializer": {"config": {"distribution": "uniform", "scale": 1.0, "mode": "fan_avg", "seed": null}, "class_name": "VarianceScaling"}, "bias_constraint": null, "dilation_rate": [1, 1], "trainable": true, "use_bias": true, "kernel_regularizer": null, "filters": 96, "bias_initializer": {"config": {}, "class_name": "Zeros"}, "name": "conv2d_18", "data_format": "channels_last", "activity_regularizer": null, "bias_regularizer": null, "kernel_size": [3, 3], "strides": [1, 1], "activation": "relu", "padding": "same"}, "inbound_nodes": [[["batch_normalization_17", 0, 0, {}]]]}, {"name": "conv2d_19", "class_name": "Conv2D", "config": {"kernel_constraint": null, "kernel_initializer": {"config": {"distribution": "uniform", "scale": 1.0, "mode": "fan_avg", "seed": null}, "class_name": "VarianceScaling"}, "bias_constraint": null, "dilation_rate": [1, 1], "trainable": true, "use_bias": true, "kernel_regularizer": null, "filters": 32, "bias_initializer": {"config": {}, "class_name": "Zeros"}, "name": "conv2d_19", "data_format": "channels_last", "activity_regularizer": null, "bias_regularizer": null, "kernel_size": [1, 1], "strides": [1, 1], "activation": "relu", "padding": "same"}, "inbound_nodes": [[["average_pooling2d_2", 0, 0, {}]]]}, {"name": "batch_normalization_13", "class_name": "BatchNormalization", "config": {"momentum": 0.99, "epsilon": 0.001, "beta_constraint": null, "trainable": true, "scale": true, "center": true, "moving_mean_initializer": {"config": {}, "class_name": "Zeros"}, "gamma_regularizer": null, "axis": 3, "name": "batch_normalization_13", "moving_variance_initializer": {"config": {}, "class_name": "Ones"}, "beta_regularizer": null, "gamma_initializer": {"config": {}, "class_name": "Ones"}, "beta_initializer": {"config": {}, "class_name": "Zeros"}, "gamma_constraint": null}, "inbound_nodes": [[["conv2d_13", 0, 0, {}]]]}, {"name": "batch_normalization_15", "class_name": "BatchNormalization", "config": {"momentum": 0.99, "epsilon": 0.001, "beta_constraint": null, "trainable": true, "scale": true, "center": true, "moving_mean_initializer": {"config": {}, "class_name": "Zeros"}, "gamma_regularizer": null, "axis": 3, "name": "batch_normalization_15", "moving_variance_initializer": {"config": {}, "class_name": "Ones"}, "beta_regularizer": null, "gamma_initializer": {"config": {}, "class_name": "Ones"}, "beta_initializer": {"config": {}, "class_name": "Zeros"}, "gamma_constraint": null}, "inbound_nodes": [[["conv2d_15", 0, 0, {}]]]}, {"name": "batch_normalization_18", "class_name": "BatchNormalization", "config": {"momentum": 0.99, "epsilon": 0.001, "beta_constraint": null, "trainable": true, "scale": true, "center": true, "moving_mean_initializer": {"config": {}, "class_name": "Zeros"}, "gamma_regularizer": null, "axis": 3, "name": "batch_normalization_18", "moving_variance_initializer": {"config": {}, "class_name": "Ones"}, "beta_regularizer": null, "gamma_initializer": {"config": {}, "class_name": "Ones"}, "beta_initializer": {"config": {}, "class_name": "Zeros"}, "gamma_constraint": null}, "inbound_nodes": [[["conv2d_18", 0, 0, {}]]]}, {"name": "batch_normalization_19", "class_name": "BatchNormalization", "config": {"momentum": 0.99, "epsilon": 0.001, "beta_constraint": null, "trainable": true, "scale": true, "center": true, "moving_mean_initializer": {"config": {}, "class_name": "Zeros"}, "gamma_regularizer": null, "axis": 3, "name": "batch_normalization_19", "moving_variance_initializer": {"config": {}, "class_name": "Ones"}, "beta_regularizer": null, "gamma_initializer": {"config": {}, "class_name": "Ones"}, "beta_initializer": {"config": {}, "class_name": "Zeros"}, "gamma_constraint": null}, "inbound_nodes": [[["conv2d_19", 0, 0, {}]]]}, {"name": "mixed1", "class_name": "Concatenate", "config": {"trainable": true, "axis": -1, "name": "mixed1"}, "inbound_nodes": [[["batch_normalization_13", 0, 0, {}], ["batch_normalization_15", 0, 0, {}], ["batch_normalization_18", 0, 0, {}], ["batch_normalization_19", 0, 0, {}]]]}, {"name": "conv2d_23", "class_name": "Conv2D", "config": {"kernel_constraint": null, "kernel_initializer": {"config": {"distribution": "uniform", "scale": 1.0, "mode": "fan_avg", "seed": null}, "class_name": "VarianceScaling"}, "bias_constraint": null, "dilation_rate": [1, 1], "trainable": true, "use_bias": true, "kernel_regularizer": null, "filters": 64, "bias_initializer": {"config": {}, "class_name": "Zeros"}, "name": "conv2d_23", "data_format": "channels_last", "activity_regularizer": null, "bias_regularizer": null, "kernel_size": [1, 1], "strides": [1, 1], "activation": "relu", "padding": "same"}, "inbound_nodes": [[["mixed1", 0, 0, {}]]]}, {"name": "batch_normalization_23", "class_name": "BatchNormalization", "config": {"momentum": 0.99, "epsilon": 0.001, "beta_constraint": null, "trainable": true, "scale": true, "center": true, "moving_mean_initializer": {"config": {}, "class_name": "Zeros"}, "gamma_regularizer": null, "axis": 3, "name": "batch_normalization_23", "moving_variance_initializer": {"config": {}, "class_name": "Ones"}, "beta_regularizer": null, "gamma_initializer": {"config": {}, "class_name": "Ones"}, "beta_initializer": {"config": {}, "class_name": "Zeros"}, "gamma_constraint": null}, "inbound_nodes": [[["conv2d_23", 0, 0, {}]]]}, {"name": "conv2d_21", "class_name": "Conv2D", "config": {"kernel_constraint": null, "kernel_initializer": {"config": {"distribution": "uniform", "scale": 1.0, "mode": "fan_avg", "seed": null}, "class_name": "VarianceScaling"}, "bias_constraint": null, "dilation_rate": [1, 1], "trainable": true, "use_bias": true, "kernel_regularizer": null, "filters": 48, "bias_initializer": {"config": {}, "class_name": "Zeros"}, "name": "conv2d_21", "data_format": "channels_last", "activity_regularizer": null, "bias_regularizer": null, "kernel_size": [1, 1], "strides": [1, 1], "activation": "relu", "padding": "same"}, "inbound_nodes": [[["mixed1", 0, 0, {}]]]}, {"name": "conv2d_24", "class_name": "Conv2D", "config": {"kernel_constraint": null, "kernel_initializer": {"config": {"distribution": "uniform", "scale": 1.0, "mode": "fan_avg", "seed": null}, "class_name": "VarianceScaling"}, "bias_constraint": null, "dilation_rate": [1, 1], "trainable": true, "use_bias": true, "kernel_regularizer": null, "filters": 96, "bias_initializer": {"config": {}, "class_name": "Zeros"}, "name": "conv2d_24", "data_format": "channels_last", "activity_regularizer": null, "bias_regularizer": null, "kernel_size": [3, 3], "strides": [1, 1], "activation": "relu", "padding": "same"}, "inbound_nodes": [[["batch_normalization_23", 0, 0, {}]]]}, {"name": "batch_normalization_21", "class_name": "BatchNormalization", "config": {"momentum": 0.99, "epsilon": 0.001, "beta_constraint": null, "trainable": true, "scale": true, "center": true, "moving_mean_initializer": {"config": {}, "class_name": "Zeros"}, "gamma_regularizer": null, "axis": 3, "name": "batch_normalization_21", "moving_variance_initializer": {"config": {}, "class_name": "Ones"}, "beta_regularizer": null, "gamma_initializer": {"config": {}, "class_name": "Ones"}, "beta_initializer": {"config": {}, "class_name": "Zeros"}, "gamma_constraint": null}, "inbound_nodes": [[["conv2d_21", 0, 0, {}]]]}, {"name": "batch_normalization_24", "class_name": "BatchNormalization", "config": {"momentum": 0.99, "epsilon": 0.001, "beta_constraint": null, "trainable": true, "scale": true, "center": true, "moving_mean_initializer": {"config": {}, "class_name": "Zeros"}, "gamma_regularizer": null, "axis": 3, "name": "batch_normalization_24", "moving_variance_initializer": {"config": {}, "class_name": "Ones"}, "beta_regularizer": null, "gamma_initializer": {"config": {}, "class_name": "Ones"}, "beta_initializer": {"config": {}, "class_name": "Zeros"}, "gamma_constraint": null}, "inbound_nodes": [[["conv2d_24", 0, 0, {}]]]}, {"name": "average_pooling2d_3", "class_name": "AveragePooling2D", "config": {"trainable": true, "name": "average_pooling2d_3", "padding": "same", "pool_size": [3, 3], "data_format": "channels_last", "strides": [1, 1]}, "inbound_nodes": [[["mixed1", 0, 0, {}]]]}, {"name": "conv2d_20", "class_name": "Conv2D", "config": {"kernel_constraint": null, "kernel_initializer": {"config": {"distribution": "uniform", "scale": 1.0, "mode": "fan_avg", "seed": null}, "class_name": "VarianceScaling"}, "bias_constraint": null, "dilation_rate": [1, 1], "trainable": true, "use_bias": true, "kernel_regularizer": null, "filters": 64, "bias_initializer": {"config": {}, "class_name": "Zeros"}, "name": "conv2d_20", "data_format": "channels_last", "activity_regularizer": null, "bias_regularizer": null, "kernel_size": [1, 1], "strides": [1, 1], "activation": "relu", "padding": "same"}, "inbound_nodes": [[["mixed1", 0, 0, {}]]]}, {"name": "conv2d_22", "class_name": "Conv2D", "config": {"kernel_constraint": null, "kernel_initializer": {"config": {"distribution": "uniform", "scale": 1.0, "mode": "fan_avg", "seed": null}, "class_name": "VarianceScaling"}, "bias_constraint": null, "dilation_rate": [1, 1], "trainable": true, "use_bias": true, "kernel_regularizer": null, "filters": 64, "bias_initializer": {"config": {}, "class_name": "Zeros"}, "name": "conv2d_22", "data_format": "channels_last", "activity_regularizer": null, "bias_regularizer": null, "kernel_size": [5, 5], "strides": [1, 1], "activation": "relu", "padding": "same"}, "inbound_nodes": [[["batch_normalization_21", 0, 0, {}]]]}, {"name": "conv2d_25", "class_name": "Conv2D", "config": {"kernel_constraint": null, "kernel_initializer": {"config": {"distribution": "uniform", "scale": 1.0, "mode": "fan_avg", "seed": null}, "class_name": "VarianceScaling"}, "bias_constraint": null, "dilation_rate": [1, 1], "trainable": true, "use_bias": true, "kernel_regularizer": null, "filters": 96, "bias_initializer": {"config": {}, "class_name": "Zeros"}, "name": "conv2d_25", "data_format": "channels_last", "activity_regularizer": null, "bias_regularizer": null, "kernel_size": [3, 3], "strides": [1, 1], "activation": "relu", "padding": "same"}, "inbound_nodes": [[["batch_normalization_24", 0, 0, {}]]]}, {"name": "conv2d_26", "class_name": "Conv2D", "config": {"kernel_constraint": null, "kernel_initializer": {"config": {"distribution": "uniform", "scale": 1.0, "mode": "fan_avg", "seed": null}, "class_name": "VarianceScaling"}, "bias_constraint": null, "dilation_rate": [1, 1], "trainable": true, "use_bias": true, "kernel_regularizer": null, "filters": 32, "bias_initializer": {"config": {}, "class_name": "Zeros"}, "name": "conv2d_26", "data_format": "channels_last", "activity_regularizer": null, "bias_regularizer": null, "kernel_size": [1, 1], "strides": [1, 1], "activation": "relu", "padding": "same"}, "inbound_nodes": [[["average_pooling2d_3", 0, 0, {}]]]}, {"name": "batch_normalization_20", "class_name": "BatchNormalization", "config": {"momentum": 0.99, "epsilon": 0.001, "beta_constraint": null, "trainable": true, "scale": true, "center": true, "moving_mean_initializer": {"config": {}, "class_name": "Zeros"}, "gamma_regularizer": null, "axis": 3, "name": "batch_normalization_20", "moving_variance_initializer": {"config": {}, "class_name": "Ones"}, "beta_regularizer": null, "gamma_initializer": {"config": {}, "class_name": "Ones"}, "beta_initializer": {"config": {}, "class_name": "Zeros"}, "gamma_constraint": null}, "inbound_nodes": [[["conv2d_20", 0, 0, {}]]]}, {"name": "batch_normalization_22", "class_name": "BatchNormalization", "config": {"momentum": 0.99, "epsilon": 0.001, "beta_constraint": null, "trainable": true, "scale": true, "center": true, "moving_mean_initializer": {"config": {}, "class_name": "Zeros"}, "gamma_regularizer": null, "axis": 3, "name": "batch_normalization_22", "moving_variance_initializer": {"config": {}, "class_name": "Ones"}, "beta_regularizer": null, "gamma_initializer": {"config": {}, "class_name": "Ones"}, "beta_initializer": {"config": {}, "class_name": "Zeros"}, "gamma_constraint": null}, "inbound_nodes": [[["conv2d_22", 0, 0, {}]]]}, {"name": "batch_normalization_25", "class_name": "BatchNormalization", "config": {"momentum": 0.99, "epsilon": 0.001, "beta_constraint": null, "trainable": true, "scale": true, "center": true, "moving_mean_initializer": {"config": {}, "class_name": "Zeros"}, "gamma_regularizer": null, "axis": 3, "name": "batch_normalization_25", "moving_variance_initializer": {"config": {}, "class_name": "Ones"}, "beta_regularizer": null, "gamma_initializer": {"config": {}, "class_name": "Ones"}, "beta_initializer": {"config": {}, "class_name": "Zeros"}, "gamma_constraint": null}, "inbound_nodes": [[["conv2d_25", 0, 0, {}]]]}, {"name": "batch_normalization_26", "class_name": "BatchNormalization", "config": {"momentum": 0.99, "epsilon": 0.001, "beta_constraint": null, "trainable": true, "scale": true, "center": true, "moving_mean_initializer": {"config": {}, "class_name": "Zeros"}, "gamma_regularizer": null, "axis": 3, "name": "batch_normalization_26", "moving_variance_initializer": {"config": {}, "class_name": "Ones"}, "beta_regularizer": null, "gamma_initializer": {"config": {}, "class_name": "Ones"}, "beta_initializer": {"config": {}, "class_name": "Zeros"}, "gamma_constraint": null}, "inbound_nodes": [[["conv2d_26", 0, 0, {}]]]}, {"name": "mixed2", "class_name": "Concatenate", "config": {"trainable": true, "axis": -1, "name": "mixed2"}, "inbound_nodes": [[["batch_normalization_20", 0, 0, {}], ["batch_normalization_22", 0, 0, {}], ["batch_normalization_25", 0, 0, {}], ["batch_normalization_26", 0, 0, {}]]]}, {"name": "conv2d_28", "class_name": "Conv2D", "config": {"kernel_constraint": null, "kernel_initializer": {"config": {"distribution": "uniform", "scale": 1.0, "mode": "fan_avg", "seed": null}, "class_name": "VarianceScaling"}, "bias_constraint": null, "dilation_rate": [1, 1], "trainable": true, "use_bias": true, "kernel_regularizer": null, "filters": 64, "bias_initializer": {"config": {}, "class_name": "Zeros"}, "name": "conv2d_28", "data_format": "channels_last", "activity_regularizer": null, "bias_regularizer": null, "kernel_size": [1, 1], "strides": [1, 1], "activation": "relu", "padding": "same"}, "inbound_nodes": [[["mixed2", 0, 0, {}]]]}, {"name": "batch_normalization_28", "class_name": "BatchNormalization", "config": {"momentum": 0.99, "epsilon": 0.001, "beta_constraint": null, "trainable": true, "scale": true, "center": true, "moving_mean_initializer": {"config": {}, "class_name": "Zeros"}, "gamma_regularizer": null, "axis": 3, "name": "batch_normalization_28", "moving_variance_initializer": {"config": {}, "class_name": "Ones"}, "beta_regularizer": null, "gamma_initializer": {"config": {}, "class_name": "Ones"}, "beta_initializer": {"config": {}, "class_name": "Zeros"}, "gamma_constraint": null}, "inbound_nodes": [[["conv2d_28", 0, 0, {}]]]}, {"name": "conv2d_29", "class_name": "Conv2D", "config": {"kernel_constraint": null, "kernel_initializer": {"config": {"distribution": "uniform", "scale": 1.0, "mode": "fan_avg", "seed": null}, "class_name": "VarianceScaling"}, "bias_constraint": null, "dilation_rate": [1, 1], "trainable": true, "use_bias": true, "kernel_regularizer": null, "filters": 96, "bias_initializer": {"config": {}, "class_name": "Zeros"}, "name": "conv2d_29", "data_format": "channels_last", "activity_regularizer": null, "bias_regularizer": null, "kernel_size": [3, 3], "strides": [1, 1], "activation": "relu", "padding": "same"}, "inbound_nodes": [[["batch_normalization_28", 0, 0, {}]]]}, {"name": "batch_normalization_29", "class_name": "BatchNormalization", "config": {"momentum": 0.99, "epsilon": 0.001, "beta_constraint": null, "trainable": true, "scale": true, "center": true, "moving_mean_initializer": {"config": {}, "class_name": "Zeros"}, "gamma_regularizer": null, "axis": 3, "name": "batch_normalization_29", "moving_variance_initializer": {"config": {}, "class_name": "Ones"}, "beta_regularizer": null, "gamma_initializer": {"config": {}, "class_name": "Ones"}, "beta_initializer": {"config": {}, "class_name": "Zeros"}, "gamma_constraint": null}, "inbound_nodes": [[["conv2d_29", 0, 0, {}]]]}, {"name": "conv2d_27", "class_name": "Conv2D", "config": {"kernel_constraint": null, "kernel_initializer": {"config": {"distribution": "uniform", "scale": 1.0, "mode": "fan_avg", "seed": null}, "class_name": "VarianceScaling"}, "bias_constraint": null, "dilation_rate": [1, 1], "trainable": true, "use_bias": true, "kernel_regularizer": null, "filters": 384, "bias_initializer": {"config": {}, "class_name": "Zeros"}, "name": "conv2d_27", "data_format": "channels_last", "activity_regularizer": null, "bias_regularizer": null, "kernel_size": [3, 3], "strides": [2, 2], "activation": "relu", "padding": "valid"}, "inbound_nodes": [[["mixed2", 0, 0, {}]]]}, {"name": "conv2d_30", "class_name": "Conv2D", "config": {"kernel_constraint": null, "kernel_initializer": {"config": {"distribution": "uniform", "scale": 1.0, "mode": "fan_avg", "seed": null}, "class_name": "VarianceScaling"}, "bias_constraint": null, "dilation_rate": [1, 1], "trainable": true, "use_bias": true, "kernel_regularizer": null, "filters": 96, "bias_initializer": {"config": {}, "class_name": "Zeros"}, "name": "conv2d_30", "data_format": "channels_last", "activity_regularizer": null, "bias_regularizer": null, "kernel_size": [3, 3], "strides": [2, 2], "activation": "relu", "padding": "valid"}, "inbound_nodes": [[["batch_normalization_29", 0, 0, {}]]]}, {"name": "batch_normalization_27", "class_name": "BatchNormalization", "config": {"momentum": 0.99, "epsilon": 0.001, "beta_constraint": null, "trainable": true, "scale": true, "center": true, "moving_mean_initializer": {"config": {}, "class_name": "Zeros"}, "gamma_regularizer": null, "axis": 3, "name": "batch_normalization_27", "moving_variance_initializer": {"config": {}, "class_name": "Ones"}, "beta_regularizer": null, "gamma_initializer": {"config": {}, "class_name": "Ones"}, "beta_initializer": {"config": {}, "class_name": "Zeros"}, "gamma_constraint": null}, "inbound_nodes": [[["conv2d_27", 0, 0, {}]]]}, {"name": "batch_normalization_30", "class_name": "BatchNormalization", "config": {"momentum": 0.99, "epsilon": 0.001, "beta_constraint": null, "trainable": true, "scale": true, "center": true, "moving_mean_initializer": {"config": {}, "class_name": "Zeros"}, "gamma_regularizer": null, "axis": 3, "name": "batch_normalization_30", "moving_variance_initializer": {"config": {}, "class_name": "Ones"}, "beta_regularizer": null, "gamma_initializer": {"config": {}, "class_name": "Ones"}, "beta_initializer": {"config": {}, "class_name": "Zeros"}, "gamma_constraint": null}, "inbound_nodes": [[["conv2d_30", 0, 0, {}]]]}, {"name": "max_pooling2d_3", "class_name": "MaxPooling2D", "config": {"trainable": true, "name": "max_pooling2d_3", "padding": "valid", "pool_size": [3, 3], "data_format": "channels_last", "strides": [2, 2]}, "inbound_nodes": [[["mixed2", 0, 0, {}]]]}, {"name": "mixed3", "class_name": "Concatenate", "config": {"trainable": true, "axis": -1, "name": "mixed3"}, "inbound_nodes": [[["batch_normalization_27", 0, 0, {}], ["batch_normalization_30", 0, 0, {}], ["max_pooling2d_3", 0, 0, {}]]]}, {"name": "conv2d_35", "class_name": "Conv2D", "config": {"kernel_constraint": null, "kernel_initializer": {"config": {"distribution": "uniform", "scale": 1.0, "mode": "fan_avg", "seed": null}, "class_name": "VarianceScaling"}, "bias_constraint": null, "dilation_rate": [1, 1], "trainable": true, "use_bias": true, "kernel_regularizer": null, "filters": 128, "bias_initializer": {"config": {}, "class_name": "Zeros"}, "name": "conv2d_35", "data_format": "channels_last", "activity_regularizer": null, "bias_regularizer": null, "kernel_size": [1, 1], "strides": [1, 1], "activation": "relu", "padding": "same"}, "inbound_nodes": [[["mixed3", 0, 0, {}]]]}, {"name": "batch_normalization_35", "class_name": "BatchNormalization", "config": {"momentum": 0.99, "epsilon": 0.001, "beta_constraint": null, "trainable": true, "scale": true, "center": true, "moving_mean_initializer": {"config": {}, "class_name": "Zeros"}, "gamma_regularizer": null, "axis": 3, "name": "batch_normalization_35", "moving_variance_initializer": {"config": {}, "class_name": "Ones"}, "beta_regularizer": null, "gamma_initializer": {"config": {}, "class_name": "Ones"}, "beta_initializer": {"config": {}, "class_name": "Zeros"}, "gamma_constraint": null}, "inbound_nodes": [[["conv2d_35", 0, 0, {}]]]}, {"name": "conv2d_36", "class_name": "Conv2D", "config": {"kernel_constraint": null, "kernel_initializer": {"config": {"distribution": "uniform", "scale": 1.0, "mode": "fan_avg", "seed": null}, "class_name": "VarianceScaling"}, "bias_constraint": null, "dilation_rate": [1, 1], "trainable": true, "use_bias": true, "kernel_regularizer": null, "filters": 128, "bias_initializer": {"config": {}, "class_name": "Zeros"}, "name": "conv2d_36", "data_format": "channels_last", "activity_regularizer": null, "bias_regularizer": null, "kernel_size": [7, 1], "strides": [1, 1], "activation": "relu", "padding": "same"}, "inbound_nodes": [[["batch_normalization_35", 0, 0, {}]]]}, {"name": "batch_normalization_36", "class_name": "BatchNormalization", "config": {"momentum": 0.99, "epsilon": 0.001, "beta_constraint": null, "trainable": true, "scale": true, "center": true, "moving_mean_initializer": {"config": {}, "class_name": "Zeros"}, "gamma_regularizer": null, "axis": 3, "name": "batch_normalization_36", "moving_variance_initializer": {"config": {}, "class_name": "Ones"}, "beta_regularizer": null, "gamma_initializer": {"config": {}, "class_name": "Ones"}, "beta_initializer": {"config": {}, "class_name": "Zeros"}, "gamma_constraint": null}, "inbound_nodes": [[["conv2d_36", 0, 0, {}]]]}, {"name": "conv2d_32", "class_name": "Conv2D", "config": {"kernel_constraint": null, "kernel_initializer": {"config": {"distribution": "uniform", "scale": 1.0, "mode": "fan_avg", "seed": null}, "class_name": "VarianceScaling"}, "bias_constraint": null, "dilation_rate": [1, 1], "trainable": true, "use_bias": true, "kernel_regularizer": null, "filters": 128, "bias_initializer": {"config": {}, "class_name": "Zeros"}, "name": "conv2d_32", "data_format": "channels_last", "activity_regularizer": null, "bias_regularizer": null, "kernel_size": [1, 1], "strides": [1, 1], "activation": "relu", "padding": "same"}, "inbound_nodes": [[["mixed3", 0, 0, {}]]]}, {"name": "conv2d_37", "class_name": "Conv2D", "config": {"kernel_constraint": null, "kernel_initializer": {"config": {"distribution": "uniform", "scale": 1.0, "mode": "fan_avg", "seed": null}, "class_name": "VarianceScaling"}, "bias_constraint": null, "dilation_rate": [1, 1], "trainable": true, "use_bias": true, "kernel_regularizer": null, "filters": 128, "bias_initializer": {"config": {}, "class_name": "Zeros"}, "name": "conv2d_37", "data_format": "channels_last", "activity_regularizer": null, "bias_regularizer": null, "kernel_size": [1, 7], "strides": [1, 1], "activation": "relu", "padding": "same"}, "inbound_nodes": [[["batch_normalization_36", 0, 0, {}]]]}, {"name": "batch_normalization_32", "class_name": "BatchNormalization", "config": {"momentum": 0.99, "epsilon": 0.001, "beta_constraint": null, "trainable": true, "scale": true, "center": true, "moving_mean_initializer": {"config": {}, "class_name": "Zeros"}, "gamma_regularizer": null, "axis": 3, "name": "batch_normalization_32", "moving_variance_initializer": {"config": {}, "class_name": "Ones"}, "beta_regularizer": null, "gamma_initializer": {"config": {}, "class_name": "Ones"}, "beta_initializer": {"config": {}, "class_name": "Zeros"}, "gamma_constraint": null}, "inbound_nodes": [[["conv2d_32", 0, 0, {}]]]}, {"name": "batch_normalization_37", "class_name": "BatchNormalization", "config": {"momentum": 0.99, "epsilon": 0.001, "beta_constraint": null, "trainable": true, "scale": true, "center": true, "moving_mean_initializer": {"config": {}, "class_name": "Zeros"}, "gamma_regularizer": null, "axis": 3, "name": "batch_normalization_37", "moving_variance_initializer": {"config": {}, "class_name": "Ones"}, "beta_regularizer": null, "gamma_initializer": {"config": {}, "class_name": "Ones"}, "beta_initializer": {"config": {}, "class_name": "Zeros"}, "gamma_constraint": null}, "inbound_nodes": [[["conv2d_37", 0, 0, {}]]]}, {"name": "conv2d_33", "class_name": "Conv2D", "config": {"kernel_constraint": null, "kernel_initializer": {"config": {"distribution": "uniform", "scale": 1.0, "mode": "fan_avg", "seed": null}, "class_name": "VarianceScaling"}, "bias_constraint": null, "dilation_rate": [1, 1], "trainable": true, "use_bias": true, "kernel_regularizer": null, "filters": 128, "bias_initializer": {"config": {}, "class_name": "Zeros"}, "name": "conv2d_33", "data_format": "channels_last", "activity_regularizer": null, "bias_regularizer": null, "kernel_size": [1, 7], "strides": [1, 1], "activation": "relu", "padding": "same"}, "inbound_nodes": [[["batch_normalization_32", 0, 0, {}]]]}, {"name": "conv2d_38", "class_name": "Conv2D", "config": {"kernel_constraint": null, "kernel_initializer": {"config": {"distribution": "uniform", "scale": 1.0, "mode": "fan_avg", "seed": null}, "class_name": "VarianceScaling"}, "bias_constraint": null, "dilation_rate": [1, 1], "trainable": true, "use_bias": true, "kernel_regularizer": null, "filters": 128, "bias_initializer": {"config": {}, "class_name": "Zeros"}, "name": "conv2d_38", "data_format": "channels_last", "activity_regularizer": null, "bias_regularizer": null, "kernel_size": [7, 1], "strides": [1, 1], "activation": "relu", "padding": "same"}, "inbound_nodes": [[["batch_normalization_37", 0, 0, {}]]]}, {"name": "batch_normalization_33", "class_name": "BatchNormalization", "config": {"momentum": 0.99, "epsilon": 0.001, "beta_constraint": null, "trainable": true, "scale": true, "center": true, "moving_mean_initializer": {"config": {}, "class_name": "Zeros"}, "gamma_regularizer": null, "axis": 3, "name": "batch_normalization_33", "moving_variance_initializer": {"config": {}, "class_name": "Ones"}, "beta_regularizer": null, "gamma_initializer": {"config": {}, "class_name": "Ones"}, "beta_initializer": {"config": {}, "class_name": "Zeros"}, "gamma_constraint": null}, "inbound_nodes": [[["conv2d_33", 0, 0, {}]]]}, {"name": "batch_normalization_38", "class_name": "BatchNormalization", "config": {"momentum": 0.99, "epsilon": 0.001, "beta_constraint": null, "trainable": true, "scale": true, "center": true, "moving_mean_initializer": {"config": {}, "class_name": "Zeros"}, "gamma_regularizer": null, "axis": 3, "name": "batch_normalization_38", "moving_variance_initializer": {"config": {}, "class_name": "Ones"}, "beta_regularizer": null, "gamma_initializer": {"config": {}, "class_name": "Ones"}, "beta_initializer": {"config": {}, "class_name": "Zeros"}, "gamma_constraint": null}, "inbound_nodes": [[["conv2d_38", 0, 0, {}]]]}, {"name": "average_pooling2d_4", "class_name": "AveragePooling2D", "config": {"trainable": true, "name": "average_pooling2d_4", "padding": "same", "pool_size": [3, 3], "data_format": "channels_last", "strides": [1, 1]}, "inbound_nodes": [[["mixed3", 0, 0, {}]]]}, {"name": "conv2d_31", "class_name": "Conv2D", "config": {"kernel_constraint": null, "kernel_initializer": {"config": {"distribution": "uniform", "scale": 1.0, "mode": "fan_avg", "seed": null}, "class_name": "VarianceScaling"}, "bias_constraint": null, "dilation_rate": [1, 1], "trainable": true, "use_bias": true, "kernel_regularizer": null, "filters": 192, "bias_initializer": {"config": {}, "class_name": "Zeros"}, "name": "conv2d_31", "data_format": "channels_last", "activity_regularizer": null, "bias_regularizer": null, "kernel_size": [1, 1], "strides": [1, 1], "activation": "relu", "padding": "same"}, "inbound_nodes": [[["mixed3", 0, 0, {}]]]}, {"name": "conv2d_34", "class_name": "Conv2D", "config": {"kernel_constraint": null, "kernel_initializer": {"config": {"distribution": "uniform", "scale": 1.0, "mode": "fan_avg", "seed": null}, "class_name": "VarianceScaling"}, "bias_constraint": null, "dilation_rate": [1, 1], "trainable": true, "use_bias": true, "kernel_regularizer": null, "filters": 192, "bias_initializer": {"config": {}, "class_name": "Zeros"}, "name": "conv2d_34", "data_format": "channels_last", "activity_regularizer": null, "bias_regularizer": null, "kernel_size": [7, 1], "strides": [1, 1], "activation": "relu", "padding": "same"}, "inbound_nodes": [[["batch_normalization_33", 0, 0, {}]]]}, {"name": "conv2d_39", "class_name": "Conv2D", "config": {"kernel_constraint": null, "kernel_initializer": {"config": {"distribution": "uniform", "scale": 1.0, "mode": "fan_avg", "seed": null}, "class_name": "VarianceScaling"}, "bias_constraint": null, "dilation_rate": [1, 1], "trainable": true, "use_bias": true, "kernel_regularizer": null, "filters": 192, "bias_initializer": {"config": {}, "class_name": "Zeros"}, "name": "conv2d_39", "data_format": "channels_last", "activity_regularizer": null, "bias_regularizer": null, "kernel_size": [1, 7], "strides": [1, 1], "activation": "relu", "padding": "same"}, "inbound_nodes": [[["batch_normalization_38", 0, 0, {}]]]}, {"name": "conv2d_40", "class_name": "Conv2D", "config": {"kernel_constraint": null, "kernel_initializer": {"config": {"distribution": "uniform", "scale": 1.0, "mode": "fan_avg", "seed": null}, "class_name": "VarianceScaling"}, "bias_constraint": null, "dilation_rate": [1, 1], "trainable": true, "use_bias": true, "kernel_regularizer": null, "filters": 192, "bias_initializer": {"config": {}, "class_name": "Zeros"}, "name": "conv2d_40", "data_format": "channels_last", "activity_regularizer": null, "bias_regularizer": null, "kernel_size": [1, 1], "strides": [1, 1], "activation": "relu", "padding": "same"}, "inbound_nodes": [[["average_pooling2d_4", 0, 0, {}]]]}, {"name": "batch_normalization_31", "class_name": "BatchNormalization", "config": {"momentum": 0.99, "epsilon": 0.001, "beta_constraint": null, "trainable": true, "scale": true, "center": true, "moving_mean_initializer": {"config": {}, "class_name": "Zeros"}, "gamma_regularizer": null, "axis": 3, "name": "batch_normalization_31", "moving_variance_initializer": {"config": {}, "class_name": "Ones"}, "beta_regularizer": null, "gamma_initializer": {"config": {}, "class_name": "Ones"}, "beta_initializer": {"config": {}, "class_name": "Zeros"}, "gamma_constraint": null}, "inbound_nodes": [[["conv2d_31", 0, 0, {}]]]}, {"name": "batch_normalization_34", "class_name": "BatchNormalization", "config": {"momentum": 0.99, "epsilon": 0.001, "beta_constraint": null, "trainable": true, "scale": true, "center": true, "moving_mean_initializer": {"config": {}, "class_name": "Zeros"}, "gamma_regularizer": null, "axis": 3, "name": "batch_normalization_34", "moving_variance_initializer": {"config": {}, "class_name": "Ones"}, "beta_regularizer": null, "gamma_initializer": {"config": {}, "class_name": "Ones"}, "beta_initializer": {"config": {}, "class_name": "Zeros"}, "gamma_constraint": null}, "inbound_nodes": [[["conv2d_34", 0, 0, {}]]]}, {"name": "batch_normalization_39", "class_name": "BatchNormalization", "config": {"momentum": 0.99, "epsilon": 0.001, "beta_constraint": null, "trainable": true, "scale": true, "center": true, "moving_mean_initializer": {"config": {}, "class_name": "Zeros"}, "gamma_regularizer": null, "axis": 3, "name": "batch_normalization_39", "moving_variance_initializer": {"config": {}, "class_name": "Ones"}, "beta_regularizer": null, "gamma_initializer": {"config": {}, "class_name": "Ones"}, "beta_initializer": {"config": {}, "class_name": "Zeros"}, "gamma_constraint": null}, "inbound_nodes": [[["conv2d_39", 0, 0, {}]]]}, {"name": "batch_normalization_40", "class_name": "BatchNormalization", "config": {"momentum": 0.99, "epsilon": 0.001, "beta_constraint": null, "trainable": true, "scale": true, "center": true, "moving_mean_initializer": {"config": {}, "class_name": "Zeros"}, "gamma_regularizer": null, "axis": 3, "name": "batch_normalization_40", "moving_variance_initializer": {"config": {}, "class_name": "Ones"}, "beta_regularizer": null, "gamma_initializer": {"config": {}, "class_name": "Ones"}, "beta_initializer": {"config": {}, "class_name": "Zeros"}, "gamma_constraint": null}, "inbound_nodes": [[["conv2d_40", 0, 0, {}]]]}, {"name": "mixed4", "class_name": "Concatenate", "config": {"trainable": true, "axis": -1, "name": "mixed4"}, "inbound_nodes": [[["batch_normalization_31", 0, 0, {}], ["batch_normalization_34", 0, 0, {}], ["batch_normalization_39", 0, 0, {}], ["batch_normalization_40", 0, 0, {}]]]}, {"name": "conv2d_45", "class_name": "Conv2D", "config": {"kernel_constraint": null, "kernel_initializer": {"config": {"distribution": "uniform", "scale": 1.0, "mode": "fan_avg", "seed": null}, "class_name": "VarianceScaling"}, "bias_constraint": null, "dilation_rate": [1, 1], "trainable": true, "use_bias": true, "kernel_regularizer": null, "filters": 160, "bias_initializer": {"config": {}, "class_name": "Zeros"}, "name": "conv2d_45", "data_format": "channels_last", "activity_regularizer": null, "bias_regularizer": null, "kernel_size": [1, 1], "strides": [1, 1], "activation": "relu", "padding": "same"}, "inbound_nodes": [[["mixed4", 0, 0, {}]]]}, {"name": "batch_normalization_45", "class_name": "BatchNormalization", "config": {"momentum": 0.99, "epsilon": 0.001, "beta_constraint": null, "trainable": true, "scale": true, "center": true, "moving_mean_initializer": {"config": {}, "class_name": "Zeros"}, "gamma_regularizer": null, "axis": 3, "name": "batch_normalization_45", "moving_variance_initializer": {"config": {}, "class_name": "Ones"}, "beta_regularizer": null, "gamma_initializer": {"config": {}, "class_name": "Ones"}, "beta_initializer": {"config": {}, "class_name": "Zeros"}, "gamma_constraint": null}, "inbound_nodes": [[["conv2d_45", 0, 0, {}]]]}, {"name": "conv2d_46", "class_name": "Conv2D", "config": {"kernel_constraint": null, "kernel_initializer": {"config": {"distribution": "uniform", "scale": 1.0, "mode": "fan_avg", "seed": null}, "class_name": "VarianceScaling"}, "bias_constraint": null, "dilation_rate": [1, 1], "trainable": true, "use_bias": true, "kernel_regularizer": null, "filters": 160, "bias_initializer": {"config": {}, "class_name": "Zeros"}, "name": "conv2d_46", "data_format": "channels_last", "activity_regularizer": null, "bias_regularizer": null, "kernel_size": [7, 1], "strides": [1, 1], "activation": "relu", "padding": "same"}, "inbound_nodes": [[["batch_normalization_45", 0, 0, {}]]]}, {"name": "batch_normalization_46", "class_name": "BatchNormalization", "config": {"momentum": 0.99, "epsilon": 0.001, "beta_constraint": null, "trainable": true, "scale": true, "center": true, "moving_mean_initializer": {"config": {}, "class_name": "Zeros"}, "gamma_regularizer": null, "axis": 3, "name": "batch_normalization_46", "moving_variance_initializer": {"config": {}, "class_name": "Ones"}, "beta_regularizer": null, "gamma_initializer": {"config": {}, "class_name": "Ones"}, "beta_initializer": {"config": {}, "class_name": "Zeros"}, "gamma_constraint": null}, "inbound_nodes": [[["conv2d_46", 0, 0, {}]]]}, {"name": "conv2d_42", "class_name": "Conv2D", "config": {"kernel_constraint": null, "kernel_initializer": {"config": {"distribution": "uniform", "scale": 1.0, "mode": "fan_avg", "seed": null}, "class_name": "VarianceScaling"}, "bias_constraint": null, "dilation_rate": [1, 1], "trainable": true, "use_bias": true, "kernel_regularizer": null, "filters": 160, "bias_initializer": {"config": {}, "class_name": "Zeros"}, "name": "conv2d_42", "data_format": "channels_last", "activity_regularizer": null, "bias_regularizer": null, "kernel_size": [1, 1], "strides": [1, 1], "activation": "relu", "padding": "same"}, "inbound_nodes": [[["mixed4", 0, 0, {}]]]}, {"name": "conv2d_47", "class_name": "Conv2D", "config": {"kernel_constraint": null, "kernel_initializer": {"config": {"distribution": "uniform", "scale": 1.0, "mode": "fan_avg", "seed": null}, "class_name": "VarianceScaling"}, "bias_constraint": null, "dilation_rate": [1, 1], "trainable": true, "use_bias": true, "kernel_regularizer": null, "filters": 160, "bias_initializer": {"config": {}, "class_name": "Zeros"}, "name": "conv2d_47", "data_format": "channels_last", "activity_regularizer": null, "bias_regularizer": null, "kernel_size": [1, 7], "strides": [1, 1], "activation": "relu", "padding": "same"}, "inbound_nodes": [[["batch_normalization_46", 0, 0, {}]]]}, {"name": "batch_normalization_42", "class_name": "BatchNormalization", "config": {"momentum": 0.99, "epsilon": 0.001, "beta_constraint": null, "trainable": true, "scale": true, "center": true, "moving_mean_initializer": {"config": {}, "class_name": "Zeros"}, "gamma_regularizer": null, "axis": 3, "name": "batch_normalization_42", "moving_variance_initializer": {"config": {}, "class_name": "Ones"}, "beta_regularizer": null, "gamma_initializer": {"config": {}, "class_name": "Ones"}, "beta_initializer": {"config": {}, "class_name": "Zeros"}, "gamma_constraint": null}, "inbound_nodes": [[["conv2d_42", 0, 0, {}]]]}, {"name": "batch_normalization_47", "class_name": "BatchNormalization", "config": {"momentum": 0.99, "epsilon": 0.001, "beta_constraint": null, "trainable": true, "scale": true, "center": true, "moving_mean_initializer": {"config": {}, "class_name": "Zeros"}, "gamma_regularizer": null, "axis": 3, "name": "batch_normalization_47", "moving_variance_initializer": {"config": {}, "class_name": "Ones"}, "beta_regularizer": null, "gamma_initializer": {"config": {}, "class_name": "Ones"}, "beta_initializer": {"config": {}, "class_name": "Zeros"}, "gamma_constraint": null}, "inbound_nodes": [[["conv2d_47", 0, 0, {}]]]}, {"name": "conv2d_43", "class_name": "Conv2D", "config": {"kernel_constraint": null, "kernel_initializer": {"config": {"distribution": "uniform", "scale": 1.0, "mode": "fan_avg", "seed": null}, "class_name": "VarianceScaling"}, "bias_constraint": null, "dilation_rate": [1, 1], "trainable": true, "use_bias": true, "kernel_regularizer": null, "filters": 160, "bias_initializer": {"config": {}, "class_name": "Zeros"}, "name": "conv2d_43", "data_format": "channels_last", "activity_regularizer": null, "bias_regularizer": null, "kernel_size": [1, 7], "strides": [1, 1], "activation": "relu", "padding": "same"}, "inbound_nodes": [[["batch_normalization_42", 0, 0, {}]]]}, {"name": "conv2d_48", "class_name": "Conv2D", "config": {"kernel_constraint": null, "kernel_initializer": {"config": {"distribution": "uniform", "scale": 1.0, "mode": "fan_avg", "seed": null}, "class_name": "VarianceScaling"}, "bias_constraint": null, "dilation_rate": [1, 1], "trainable": true, "use_bias": true, "kernel_regularizer": null, "filters": 160, "bias_initializer": {"config": {}, "class_name": "Zeros"}, "name": "conv2d_48", "data_format": "channels_last", "activity_regularizer": null, "bias_regularizer": null, "kernel_size": [7, 1], "strides": [1, 1], "activation": "relu", "padding": "same"}, "inbound_nodes": [[["batch_normalization_47", 0, 0, {}]]]}, {"name": "batch_normalization_43", "class_name": "BatchNormalization", "config": {"momentum": 0.99, "epsilon": 0.001, "beta_constraint": null, "trainable": true, "scale": true, "center": true, "moving_mean_initializer": {"config": {}, "class_name": "Zeros"}, "gamma_regularizer": null, "axis": 3, "name": "batch_normalization_43", "moving_variance_initializer": {"config": {}, "class_name": "Ones"}, "beta_regularizer": null, "gamma_initializer": {"config": {}, "class_name": "Ones"}, "beta_initializer": {"config": {}, "class_name": "Zeros"}, "gamma_constraint": null}, "inbound_nodes": [[["conv2d_43", 0, 0, {}]]]}, {"name": "batch_normalization_48", "class_name": "BatchNormalization", "config": {"momentum": 0.99, "epsilon": 0.001, "beta_constraint": null, "trainable": true, "scale": true, "center": true, "moving_mean_initializer": {"config": {}, "class_name": "Zeros"}, "gamma_regularizer": null, "axis": 3, "name": "batch_normalization_48", "moving_variance_initializer": {"config": {}, "class_name": "Ones"}, "beta_regularizer": null, "gamma_initializer": {"config": {}, "class_name": "Ones"}, "beta_initializer": {"config": {}, "class_name": "Zeros"}, "gamma_constraint": null}, "inbound_nodes": [[["conv2d_48", 0, 0, {}]]]}, {"name": "average_pooling2d_5", "class_name": "AveragePooling2D", "config": {"trainable": true, "name": "average_pooling2d_5", "padding": "same", "pool_size": [3, 3], "data_format": "channels_last", "strides": [1, 1]}, "inbound_nodes": [[["mixed4", 0, 0, {}]]]}, {"name": "conv2d_41", "class_name": "Conv2D", "config": {"kernel_constraint": null, "kernel_initializer": {"config": {"distribution": "uniform", "scale": 1.0, "mode": "fan_avg", "seed": null}, "class_name": "VarianceScaling"}, "bias_constraint": null, "dilation_rate": [1, 1], "trainable": true, "use_bias": true, "kernel_regularizer": null, "filters": 192, "bias_initializer": {"config": {}, "class_name": "Zeros"}, "name": "conv2d_41", "data_format": "channels_last", "activity_regularizer": null, "bias_regularizer": null, "kernel_size": [1, 1], "strides": [1, 1], "activation": "relu", "padding": "same"}, "inbound_nodes": [[["mixed4", 0, 0, {}]]]}, {"name": "conv2d_44", "class_name": "Conv2D", "config": {"kernel_constraint": null, "kernel_initializer": {"config": {"distribution": "uniform", "scale": 1.0, "mode": "fan_avg", "seed": null}, "class_name": "VarianceScaling"}, "bias_constraint": null, "dilation_rate": [1, 1], "trainable": true, "use_bias": true, "kernel_regularizer": null, "filters": 192, "bias_initializer": {"config": {}, "class_name": "Zeros"}, "name": "conv2d_44", "data_format": "channels_last", "activity_regularizer": null, "bias_regularizer": null, "kernel_size": [7, 1], "strides": [1, 1], "activation": "relu", "padding": "same"}, "inbound_nodes": [[["batch_normalization_43", 0, 0, {}]]]}, {"name": "conv2d_49", "class_name": "Conv2D", "config": {"kernel_constraint": null, "kernel_initializer": {"config": {"distribution": "uniform", "scale": 1.0, "mode": "fan_avg", "seed": null}, "class_name": "VarianceScaling"}, "bias_constraint": null, "dilation_rate": [1, 1], "trainable": true, "use_bias": true, "kernel_regularizer": null, "filters": 192, "bias_initializer": {"config": {}, "class_name": "Zeros"}, "name": "conv2d_49", "data_format": "channels_last", "activity_regularizer": null, "bias_regularizer": null, "kernel_size": [1, 7], "strides": [1, 1], "activation": "relu", "padding": "same"}, "inbound_nodes": [[["batch_normalization_48", 0, 0, {}]]]}, {"name": "conv2d_50", "class_name": "Conv2D", "config": {"kernel_constraint": null, "kernel_initializer": {"config": {"distribution": "uniform", "scale": 1.0, "mode": "fan_avg", "seed": null}, "class_name": "VarianceScaling"}, "bias_constraint": null, "dilation_rate": [1, 1], "trainable": true, "use_bias": true, "kernel_regularizer": null, "filters": 192, "bias_initializer": {"config": {}, "class_name": "Zeros"}, "name": "conv2d_50", "data_format": "channels_last", "activity_regularizer": null, "bias_regularizer": null, "kernel_size": [1, 1], "strides": [1, 1], "activation": "relu", "padding": "same"}, "inbound_nodes": [[["average_pooling2d_5", 0, 0, {}]]]}, {"name": "batch_normalization_41", "class_name": "BatchNormalization", "config": {"momentum": 0.99, "epsilon": 0.001, "beta_constraint": null, "trainable": true, "scale": true, "center": true, "moving_mean_initializer": {"config": {}, "class_name": "Zeros"}, "gamma_regularizer": null, "axis": 3, "name": "batch_normalization_41", "moving_variance_initializer": {"config": {}, "class_name": "Ones"}, "beta_regularizer": null, "gamma_initializer": {"config": {}, "class_name": "Ones"}, "beta_initializer": {"config": {}, "class_name": "Zeros"}, "gamma_constraint": null}, "inbound_nodes": [[["conv2d_41", 0, 0, {}]]]}, {"name": "batch_normalization_44", "class_name": "BatchNormalization", "config": {"momentum": 0.99, "epsilon": 0.001, "beta_constraint": null, "trainable": true, "scale": true, "center": true, "moving_mean_initializer": {"config": {}, "class_name": "Zeros"}, "gamma_regularizer": null, "axis": 3, "name": "batch_normalization_44", "moving_variance_initializer": {"config": {}, "class_name": "Ones"}, "beta_regularizer": null, "gamma_initializer": {"config": {}, "class_name": "Ones"}, "beta_initializer": {"config": {}, "class_name": "Zeros"}, "gamma_constraint": null}, "inbound_nodes": [[["conv2d_44", 0, 0, {}]]]}, {"name": "batch_normalization_49", "class_name": "BatchNormalization", "config": {"momentum": 0.99, "epsilon": 0.001, "beta_constraint": null, "trainable": true, "scale": true, "center": true, "moving_mean_initializer": {"config": {}, "class_name": "Zeros"}, "gamma_regularizer": null, "axis": 3, "name": "batch_normalization_49", "moving_variance_initializer": {"config": {}, "class_name": "Ones"}, "beta_regularizer": null, "gamma_initializer": {"config": {}, "class_name": "Ones"}, "beta_initializer": {"config": {}, "class_name": "Zeros"}, "gamma_constraint": null}, "inbound_nodes": [[["conv2d_49", 0, 0, {}]]]}, {"name": "batch_normalization_50", "class_name": "BatchNormalization", "config": {"momentum": 0.99, "epsilon": 0.001, "beta_constraint": null, "trainable": true, "scale": true, "center": true, "moving_mean_initializer": {"config": {}, "class_name": "Zeros"}, "gamma_regularizer": null, "axis": 3, "name": "batch_normalization_50", "moving_variance_initializer": {"config": {}, "class_name": "Ones"}, "beta_regularizer": null, "gamma_initializer": {"config": {}, "class_name": "Ones"}, "beta_initializer": {"config": {}, "class_name": "Zeros"}, "gamma_constraint": null}, "inbound_nodes": [[["conv2d_50", 0, 0, {}]]]}, {"name": "mixed5", "class_name": "Concatenate", "config": {"trainable": true, "axis": -1, "name": "mixed5"}, "inbound_nodes": [[["batch_normalization_41", 0, 0, {}], ["batch_normalization_44", 0, 0, {}], ["batch_normalization_49", 0, 0, {}], ["batch_normalization_50", 0, 0, {}]]]}, {"name": "conv2d_55", "class_name": "Conv2D", "config": {"kernel_constraint": null, "kernel_initializer": {"config": {"distribution": "uniform", "scale": 1.0, "mode": "fan_avg", "seed": null}, "class_name": "VarianceScaling"}, "bias_constraint": null, "dilation_rate": [1, 1], "trainable": true, "use_bias": true, "kernel_regularizer": null, "filters": 160, "bias_initializer": {"config": {}, "class_name": "Zeros"}, "name": "conv2d_55", "data_format": "channels_last", "activity_regularizer": null, "bias_regularizer": null, "kernel_size": [1, 1], "strides": [1, 1], "activation": "relu", "padding": "same"}, "inbound_nodes": [[["mixed5", 0, 0, {}]]]}, {"name": "batch_normalization_55", "class_name": "BatchNormalization", "config": {"momentum": 0.99, "epsilon": 0.001, "beta_constraint": null, "trainable": true, "scale": true, "center": true, "moving_mean_initializer": {"config": {}, "class_name": "Zeros"}, "gamma_regularizer": null, "axis": 3, "name": "batch_normalization_55", "moving_variance_initializer": {"config": {}, "class_name": "Ones"}, "beta_regularizer": null, "gamma_initializer": {"config": {}, "class_name": "Ones"}, "beta_initializer": {"config": {}, "class_name": "Zeros"}, "gamma_constraint": null}, "inbound_nodes": [[["conv2d_55", 0, 0, {}]]]}, {"name": "conv2d_56", "class_name": "Conv2D", "config": {"kernel_constraint": null, "kernel_initializer": {"config": {"distribution": "uniform", "scale": 1.0, "mode": "fan_avg", "seed": null}, "class_name": "VarianceScaling"}, "bias_constraint": null, "dilation_rate": [1, 1], "trainable": true, "use_bias": true, "kernel_regularizer": null, "filters": 160, "bias_initializer": {"config": {}, "class_name": "Zeros"}, "name": "conv2d_56", "data_format": "channels_last", "activity_regularizer": null, "bias_regularizer": null, "kernel_size": [7, 1], "strides": [1, 1], "activation": "relu", "padding": "same"}, "inbound_nodes": [[["batch_normalization_55", 0, 0, {}]]]}, {"name": "batch_normalization_56", "class_name": "BatchNormalization", "config": {"momentum": 0.99, "epsilon": 0.001, "beta_constraint": null, "trainable": true, "scale": true, "center": true, "moving_mean_initializer": {"config": {}, "class_name": "Zeros"}, "gamma_regularizer": null, "axis": 3, "name": "batch_normalization_56", "moving_variance_initializer": {"config": {}, "class_name": "Ones"}, "beta_regularizer": null, "gamma_initializer": {"config": {}, "class_name": "Ones"}, "beta_initializer": {"config": {}, "class_name": "Zeros"}, "gamma_constraint": null}, "inbound_nodes": [[["conv2d_56", 0, 0, {}]]]}, {"name": "conv2d_52", "class_name": "Conv2D", "config": {"kernel_constraint": null, "kernel_initializer": {"config": {"distribution": "uniform", "scale": 1.0, "mode": "fan_avg", "seed": null}, "class_name": "VarianceScaling"}, "bias_constraint": null, "dilation_rate": [1, 1], "trainable": true, "use_bias": true, "kernel_regularizer": null, "filters": 160, "bias_initializer": {"config": {}, "class_name": "Zeros"}, "name": "conv2d_52", "data_format": "channels_last", "activity_regularizer": null, "bias_regularizer": null, "kernel_size": [1, 1], "strides": [1, 1], "activation": "relu", "padding": "same"}, "inbound_nodes": [[["mixed5", 0, 0, {}]]]}, {"name": "conv2d_57", "class_name": "Conv2D", "config": {"kernel_constraint": null, "kernel_initializer": {"config": {"distribution": "uniform", "scale": 1.0, "mode": "fan_avg", "seed": null}, "class_name": "VarianceScaling"}, "bias_constraint": null, "dilation_rate": [1, 1], "trainable": true, "use_bias": true, "kernel_regularizer": null, "filters": 160, "bias_initializer": {"config": {}, "class_name": "Zeros"}, "name": "conv2d_57", "data_format": "channels_last", "activity_regularizer": null, "bias_regularizer": null, "kernel_size": [1, 7], "strides": [1, 1], "activation": "relu", "padding": "same"}, "inbound_nodes": [[["batch_normalization_56", 0, 0, {}]]]}, {"name": "batch_normalization_52", "class_name": "BatchNormalization", "config": {"momentum": 0.99, "epsilon": 0.001, "beta_constraint": null, "trainable": true, "scale": true, "center": true, "moving_mean_initializer": {"config": {}, "class_name": "Zeros"}, "gamma_regularizer": null, "axis": 3, "name": "batch_normalization_52", "moving_variance_initializer": {"config": {}, "class_name": "Ones"}, "beta_regularizer": null, "gamma_initializer": {"config": {}, "class_name": "Ones"}, "beta_initializer": {"config": {}, "class_name": "Zeros"}, "gamma_constraint": null}, "inbound_nodes": [[["conv2d_52", 0, 0, {}]]]}, {"name": "batch_normalization_57", "class_name": "BatchNormalization", "config": {"momentum": 0.99, "epsilon": 0.001, "beta_constraint": null, "trainable": true, "scale": true, "center": true, "moving_mean_initializer": {"config": {}, "class_name": "Zeros"}, "gamma_regularizer": null, "axis": 3, "name": "batch_normalization_57", "moving_variance_initializer": {"config": {}, "class_name": "Ones"}, "beta_regularizer": null, "gamma_initializer": {"config": {}, "class_name": "Ones"}, "beta_initializer": {"config": {}, "class_name": "Zeros"}, "gamma_constraint": null}, "inbound_nodes": [[["conv2d_57", 0, 0, {}]]]}, {"name": "conv2d_53", "class_name": "Conv2D", "config": {"kernel_constraint": null, "kernel_initializer": {"config": {"distribution": "uniform", "scale": 1.0, "mode": "fan_avg", "seed": null}, "class_name": "VarianceScaling"}, "bias_constraint": null, "dilation_rate": [1, 1], "trainable": true, "use_bias": true, "kernel_regularizer": null, "filters": 160, "bias_initializer": {"config": {}, "class_name": "Zeros"}, "name": "conv2d_53", "data_format": "channels_last", "activity_regularizer": null, "bias_regularizer": null, "kernel_size": [1, 7], "strides": [1, 1], "activation": "relu", "padding": "same"}, "inbound_nodes": [[["batch_normalization_52", 0, 0, {}]]]}, {"name": "conv2d_58", "class_name": "Conv2D", "config": {"kernel_constraint": null, "kernel_initializer": {"config": {"distribution": "uniform", "scale": 1.0, "mode": "fan_avg", "seed": null}, "class_name": "VarianceScaling"}, "bias_constraint": null, "dilation_rate": [1, 1], "trainable": true, "use_bias": true, "kernel_regularizer": null, "filters": 160, "bias_initializer": {"config": {}, "class_name": "Zeros"}, "name": "conv2d_58", "data_format": "channels_last", "activity_regularizer": null, "bias_regularizer": null, "kernel_size": [7, 1], "strides": [1, 1], "activation": "relu", "padding": "same"}, "inbound_nodes": [[["batch_normalization_57", 0, 0, {}]]]}, {"name": "batch_normalization_53", "class_name": "BatchNormalization", "config": {"momentum": 0.99, "epsilon": 0.001, "beta_constraint": null, "trainable": true, "scale": true, "center": true, "moving_mean_initializer": {"config": {}, "class_name": "Zeros"}, "gamma_regularizer": null, "axis": 3, "name": "batch_normalization_53", "moving_variance_initializer": {"config": {}, "class_name": "Ones"}, "beta_regularizer": null, "gamma_initializer": {"config": {}, "class_name": "Ones"}, "beta_initializer": {"config": {}, "class_name": "Zeros"}, "gamma_constraint": null}, "inbound_nodes": [[["conv2d_53", 0, 0, {}]]]}, {"name": "batch_normalization_58", "class_name": "BatchNormalization", "config": {"momentum": 0.99, "epsilon": 0.001, "beta_constraint": null, "trainable": true, "scale": true, "center": true, "moving_mean_initializer": {"config": {}, "class_name": "Zeros"}, "gamma_regularizer": null, "axis": 3, "name": "batch_normalization_58", "moving_variance_initializer": {"config": {}, "class_name": "Ones"}, "beta_regularizer": null, "gamma_initializer": {"config": {}, "class_name": "Ones"}, "beta_initializer": {"config": {}, "class_name": "Zeros"}, "gamma_constraint": null}, "inbound_nodes": [[["conv2d_58", 0, 0, {}]]]}, {"name": "average_pooling2d_6", "class_name": "AveragePooling2D", "config": {"trainable": true, "name": "average_pooling2d_6", "padding": "same", "pool_size": [3, 3], "data_format": "channels_last", "strides": [1, 1]}, "inbound_nodes": [[["mixed5", 0, 0, {}]]]}, {"name": "conv2d_51", "class_name": "Conv2D", "config": {"kernel_constraint": null, "kernel_initializer": {"config": {"distribution": "uniform", "scale": 1.0, "mode": "fan_avg", "seed": null}, "class_name": "VarianceScaling"}, "bias_constraint": null, "dilation_rate": [1, 1], "trainable": true, "use_bias": true, "kernel_regularizer": null, "filters": 192, "bias_initializer": {"config": {}, "class_name": "Zeros"}, "name": "conv2d_51", "data_format": "channels_last", "activity_regularizer": null, "bias_regularizer": null, "kernel_size": [1, 1], "strides": [1, 1], "activation": "relu", "padding": "same"}, "inbound_nodes": [[["mixed5", 0, 0, {}]]]}, {"name": "conv2d_54", "class_name": "Conv2D", "config": {"kernel_constraint": null, "kernel_initializer": {"config": {"distribution": "uniform", "scale": 1.0, "mode": "fan_avg", "seed": null}, "class_name": "VarianceScaling"}, "bias_constraint": null, "dilation_rate": [1, 1], "trainable": true, "use_bias": true, "kernel_regularizer": null, "filters": 192, "bias_initializer": {"config": {}, "class_name": "Zeros"}, "name": "conv2d_54", "data_format": "channels_last", "activity_regularizer": null, "bias_regularizer": null, "kernel_size": [7, 1], "strides": [1, 1], "activation": "relu", "padding": "same"}, "inbound_nodes": [[["batch_normalization_53", 0, 0, {}]]]}, {"name": "conv2d_59", "class_name": "Conv2D", "config": {"kernel_constraint": null, "kernel_initializer": {"config": {"distribution": "uniform", "scale": 1.0, "mode": "fan_avg", "seed": null}, "class_name": "VarianceScaling"}, "bias_constraint": null, "dilation_rate": [1, 1], "trainable": true, "use_bias": true, "kernel_regularizer": null, "filters": 192, "bias_initializer": {"config": {}, "class_name": "Zeros"}, "name": "conv2d_59", "data_format": "channels_last", "activity_regularizer": null, "bias_regularizer": null, "kernel_size": [1, 7], "strides": [1, 1], "activation": "relu", "padding": "same"}, "inbound_nodes": [[["batch_normalization_58", 0, 0, {}]]]}, {"name": "conv2d_60", "class_name": "Conv2D", "config": {"kernel_constraint": null, "kernel_initializer": {"config": {"distribution": "uniform", "scale": 1.0, "mode": "fan_avg", "seed": null}, "class_name": "VarianceScaling"}, "bias_constraint": null, "dilation_rate": [1, 1], "trainable": true, "use_bias": true, "kernel_regularizer": null, "filters": 192, "bias_initializer": {"config": {}, "class_name": "Zeros"}, "name": "conv2d_60", "data_format": "channels_last", "activity_regularizer": null, "bias_regularizer": null, "kernel_size": [1, 1], "strides": [1, 1], "activation": "relu", "padding": "same"}, "inbound_nodes": [[["average_pooling2d_6", 0, 0, {}]]]}, {"name": "batch_normalization_51", "class_name": "BatchNormalization", "config": {"momentum": 0.99, "epsilon": 0.001, "beta_constraint": null, "trainable": true, "scale": true, "center": true, "moving_mean_initializer": {"config": {}, "class_name": "Zeros"}, "gamma_regularizer": null, "axis": 3, "name": "batch_normalization_51", "moving_variance_initializer": {"config": {}, "class_name": "Ones"}, "beta_regularizer": null, "gamma_initializer": {"config": {}, "class_name": "Ones"}, "beta_initializer": {"config": {}, "class_name": "Zeros"}, "gamma_constraint": null}, "inbound_nodes": [[["conv2d_51", 0, 0, {}]]]}, {"name": "batch_normalization_54", "class_name": "BatchNormalization", "config": {"momentum": 0.99, "epsilon": 0.001, "beta_constraint": null, "trainable": true, "scale": true, "center": true, "moving_mean_initializer": {"config": {}, "class_name": "Zeros"}, "gamma_regularizer": null, "axis": 3, "name": "batch_normalization_54", "moving_variance_initializer": {"config": {}, "class_name": "Ones"}, "beta_regularizer": null, "gamma_initializer": {"config": {}, "class_name": "Ones"}, "beta_initializer": {"config": {}, "class_name": "Zeros"}, "gamma_constraint": null}, "inbound_nodes": [[["conv2d_54", 0, 0, {}]]]}, {"name": "batch_normalization_59", "class_name": "BatchNormalization", "config": {"momentum": 0.99, "epsilon": 0.001, "beta_constraint": null, "trainable": true, "scale": true, "center": true, "moving_mean_initializer": {"config": {}, "class_name": "Zeros"}, "gamma_regularizer": null, "axis": 3, "name": "batch_normalization_59", "moving_variance_initializer": {"config": {}, "class_name": "Ones"}, "beta_regularizer": null, "gamma_initializer": {"config": {}, "class_name": "Ones"}, "beta_initializer": {"config": {}, "class_name": "Zeros"}, "gamma_constraint": null}, "inbound_nodes": [[["conv2d_59", 0, 0, {}]]]}, {"name": "batch_normalization_60", "class_name": "BatchNormalization", "config": {"momentum": 0.99, "epsilon": 0.001, "beta_constraint": null, "trainable": true, "scale": true, "center": true, "moving_mean_initializer": {"config": {}, "class_name": "Zeros"}, "gamma_regularizer": null, "axis": 3, "name": "batch_normalization_60", "moving_variance_initializer": {"config": {}, "class_name": "Ones"}, "beta_regularizer": null, "gamma_initializer": {"config": {}, "class_name": "Ones"}, "beta_initializer": {"config": {}, "class_name": "Zeros"}, "gamma_constraint": null}, "inbound_nodes": [[["conv2d_60", 0, 0, {}]]]}, {"name": "mixed6", "class_name": "Concatenate", "config": {"trainable": true, "axis": -1, "name": "mixed6"}, "inbound_nodes": [[["batch_normalization_51", 0, 0, {}], ["batch_normalization_54", 0, 0, {}], ["batch_normalization_59", 0, 0, {}], ["batch_normalization_60", 0, 0, {}]]]}, {"name": "conv2d_65", "class_name": "Conv2D", "config": {"kernel_constraint": null, "kernel_initializer": {"config": {"distribution": "uniform", "scale": 1.0, "mode": "fan_avg", "seed": null}, "class_name": "VarianceScaling"}, "bias_constraint": null, "dilation_rate": [1, 1], "trainable": true, "use_bias": true, "kernel_regularizer": null, "filters": 160, "bias_initializer": {"config": {}, "class_name": "Zeros"}, "name": "conv2d_65", "data_format": "channels_last", "activity_regularizer": null, "bias_regularizer": null, "kernel_size": [1, 1], "strides": [1, 1], "activation": "relu", "padding": "same"}, "inbound_nodes": [[["mixed6", 0, 0, {}]]]}, {"name": "batch_normalization_65", "class_name": "BatchNormalization", "config": {"momentum": 0.99, "epsilon": 0.001, "beta_constraint": null, "trainable": true, "scale": true, "center": true, "moving_mean_initializer": {"config": {}, "class_name": "Zeros"}, "gamma_regularizer": null, "axis": 3, "name": "batch_normalization_65", "moving_variance_initializer": {"config": {}, "class_name": "Ones"}, "beta_regularizer": null, "gamma_initializer": {"config": {}, "class_name": "Ones"}, "beta_initializer": {"config": {}, "class_name": "Zeros"}, "gamma_constraint": null}, "inbound_nodes": [[["conv2d_65", 0, 0, {}]]]}, {"name": "conv2d_66", "class_name": "Conv2D", "config": {"kernel_constraint": null, "kernel_initializer": {"config": {"distribution": "uniform", "scale": 1.0, "mode": "fan_avg", "seed": null}, "class_name": "VarianceScaling"}, "bias_constraint": null, "dilation_rate": [1, 1], "trainable": true, "use_bias": true, "kernel_regularizer": null, "filters": 192, "bias_initializer": {"config": {}, "class_name": "Zeros"}, "name": "conv2d_66", "data_format": "channels_last", "activity_regularizer": null, "bias_regularizer": null, "kernel_size": [7, 1], "strides": [1, 1], "activation": "relu", "padding": "same"}, "inbound_nodes": [[["batch_normalization_65", 0, 0, {}]]]}, {"name": "batch_normalization_66", "class_name": "BatchNormalization", "config": {"momentum": 0.99, "epsilon": 0.001, "beta_constraint": null, "trainable": true, "scale": true, "center": true, "moving_mean_initializer": {"config": {}, "class_name": "Zeros"}, "gamma_regularizer": null, "axis": 3, "name": "batch_normalization_66", "moving_variance_initializer": {"config": {}, "class_name": "Ones"}, "beta_regularizer": null, "gamma_initializer": {"config": {}, "class_name": "Ones"}, "beta_initializer": {"config": {}, "class_name": "Zeros"}, "gamma_constraint": null}, "inbound_nodes": [[["conv2d_66", 0, 0, {}]]]}, {"name": "conv2d_62", "class_name": "Conv2D", "config": {"kernel_constraint": null, "kernel_initializer": {"config": {"distribution": "uniform", "scale": 1.0, "mode": "fan_avg", "seed": null}, "class_name": "VarianceScaling"}, "bias_constraint": null, "dilation_rate": [1, 1], "trainable": true, "use_bias": true, "kernel_regularizer": null, "filters": 192, "bias_initializer": {"config": {}, "class_name": "Zeros"}, "name": "conv2d_62", "data_format": "channels_last", "activity_regularizer": null, "bias_regularizer": null, "kernel_size": [1, 1], "strides": [1, 1], "activation": "relu", "padding": "same"}, "inbound_nodes": [[["mixed6", 0, 0, {}]]]}, {"name": "conv2d_67", "class_name": "Conv2D", "config": {"kernel_constraint": null, "kernel_initializer": {"config": {"distribution": "uniform", "scale": 1.0, "mode": "fan_avg", "seed": null}, "class_name": "VarianceScaling"}, "bias_constraint": null, "dilation_rate": [1, 1], "trainable": true, "use_bias": true, "kernel_regularizer": null, "filters": 192, "bias_initializer": {"config": {}, "class_name": "Zeros"}, "name": "conv2d_67", "data_format": "channels_last", "activity_regularizer": null, "bias_regularizer": null, "kernel_size": [1, 7], "strides": [1, 1], "activation": "relu", "padding": "same"}, "inbound_nodes": [[["batch_normalization_66", 0, 0, {}]]]}, {"name": "batch_normalization_62", "class_name": "BatchNormalization", "config": {"momentum": 0.99, "epsilon": 0.001, "beta_constraint": null, "trainable": true, "scale": true, "center": true, "moving_mean_initializer": {"config": {}, "class_name": "Zeros"}, "gamma_regularizer": null, "axis": 3, "name": "batch_normalization_62", "moving_variance_initializer": {"config": {}, "class_name": "Ones"}, "beta_regularizer": null, "gamma_initializer": {"config": {}, "class_name": "Ones"}, "beta_initializer": {"config": {}, "class_name": "Zeros"}, "gamma_constraint": null}, "inbound_nodes": [[["conv2d_62", 0, 0, {}]]]}, {"name": "batch_normalization_67", "class_name": "BatchNormalization", "config": {"momentum": 0.99, "epsilon": 0.001, "beta_constraint": null, "trainable": true, "scale": true, "center": true, "moving_mean_initializer": {"config": {}, "class_name": "Zeros"}, "gamma_regularizer": null, "axis": 3, "name": "batch_normalization_67", "moving_variance_initializer": {"config": {}, "class_name": "Ones"}, "beta_regularizer": null, "gamma_initializer": {"config": {}, "class_name": "Ones"}, "beta_initializer": {"config": {}, "class_name": "Zeros"}, "gamma_constraint": null}, "inbound_nodes": [[["conv2d_67", 0, 0, {}]]]}, {"name": "conv2d_63", "class_name": "Conv2D", "config": {"kernel_constraint": null, "kernel_initializer": {"config": {"distribution": "uniform", "scale": 1.0, "mode": "fan_avg", "seed": null}, "class_name": "VarianceScaling"}, "bias_constraint": null, "dilation_rate": [1, 1], "trainable": true, "use_bias": true, "kernel_regularizer": null, "filters": 192, "bias_initializer": {"config": {}, "class_name": "Zeros"}, "name": "conv2d_63", "data_format": "channels_last", "activity_regularizer": null, "bias_regularizer": null, "kernel_size": [1, 7], "strides": [1, 1], "activation": "relu", "padding": "same"}, "inbound_nodes": [[["batch_normalization_62", 0, 0, {}]]]}, {"name": "conv2d_68", "class_name": "Conv2D", "config": {"kernel_constraint": null, "kernel_initializer": {"config": {"distribution": "uniform", "scale": 1.0, "mode": "fan_avg", "seed": null}, "class_name": "VarianceScaling"}, "bias_constraint": null, "dilation_rate": [1, 1], "trainable": true, "use_bias": true, "kernel_regularizer": null, "filters": 192, "bias_initializer": {"config": {}, "class_name": "Zeros"}, "name": "conv2d_68", "data_format": "channels_last", "activity_regularizer": null, "bias_regularizer": null, "kernel_size": [7, 1], "strides": [1, 1], "activation": "relu", "padding": "same"}, "inbound_nodes": [[["batch_normalization_67", 0, 0, {}]]]}, {"name": "batch_normalization_63", "class_name": "BatchNormalization", "config": {"momentum": 0.99, "epsilon": 0.001, "beta_constraint": null, "trainable": true, "scale": true, "center": true, "moving_mean_initializer": {"config": {}, "class_name": "Zeros"}, "gamma_regularizer": null, "axis": 3, "name": "batch_normalization_63", "moving_variance_initializer": {"config": {}, "class_name": "Ones"}, "beta_regularizer": null, "gamma_initializer": {"config": {}, "class_name": "Ones"}, "beta_initializer": {"config": {}, "class_name": "Zeros"}, "gamma_constraint": null}, "inbound_nodes": [[["conv2d_63", 0, 0, {}]]]}, {"name": "batch_normalization_68", "class_name": "BatchNormalization", "config": {"momentum": 0.99, "epsilon": 0.001, "beta_constraint": null, "trainable": true, "scale": true, "center": true, "moving_mean_initializer": {"config": {}, "class_name": "Zeros"}, "gamma_regularizer": null, "axis": 3, "name": "batch_normalization_68", "moving_variance_initializer": {"config": {}, "class_name": "Ones"}, "beta_regularizer": null, "gamma_initializer": {"config": {}, "class_name": "Ones"}, "beta_initializer": {"config": {}, "class_name": "Zeros"}, "gamma_constraint": null}, "inbound_nodes": [[["conv2d_68", 0, 0, {}]]]}, {"name": "average_pooling2d_7", "class_name": "AveragePooling2D", "config": {"trainable": true, "name": "average_pooling2d_7", "padding": "same", "pool_size": [3, 3], "data_format": "channels_last", "strides": [1, 1]}, "inbound_nodes": [[["mixed6", 0, 0, {}]]]}, {"name": "conv2d_61", "class_name": "Conv2D", "config": {"kernel_constraint": null, "kernel_initializer": {"config": {"distribution": "uniform", "scale": 1.0, "mode": "fan_avg", "seed": null}, "class_name": "VarianceScaling"}, "bias_constraint": null, "dilation_rate": [1, 1], "trainable": true, "use_bias": true, "kernel_regularizer": null, "filters": 192, "bias_initializer": {"config": {}, "class_name": "Zeros"}, "name": "conv2d_61", "data_format": "channels_last", "activity_regularizer": null, "bias_regularizer": null, "kernel_size": [1, 1], "strides": [1, 1], "activation": "relu", "padding": "same"}, "inbound_nodes": [[["mixed6", 0, 0, {}]]]}, {"name": "conv2d_64", "class_name": "Conv2D", "config": {"kernel_constraint": null, "kernel_initializer": {"config": {"distribution": "uniform", "scale": 1.0, "mode": "fan_avg", "seed": null}, "class_name": "VarianceScaling"}, "bias_constraint": null, "dilation_rate": [1, 1], "trainable": true, "use_bias": true, "kernel_regularizer": null, "filters": 192, "bias_initializer": {"config": {}, "class_name": "Zeros"}, "name": "conv2d_64", "data_format": "channels_last", "activity_regularizer": null, "bias_regularizer": null, "kernel_size": [7, 1], "strides": [1, 1], "activation": "relu", "padding": "same"}, "inbound_nodes": [[["batch_normalization_63", 0, 0, {}]]]}, {"name": "conv2d_69", "class_name": "Conv2D", "config": {"kernel_constraint": null, "kernel_initializer": {"config": {"distribution": "uniform", "scale": 1.0, "mode": "fan_avg", "seed": null}, "class_name": "VarianceScaling"}, "bias_constraint": null, "dilation_rate": [1, 1], "trainable": true, "use_bias": true, "kernel_regularizer": null, "filters": 192, "bias_initializer": {"config": {}, "class_name": "Zeros"}, "name": "conv2d_69", "data_format": "channels_last", "activity_regularizer": null, "bias_regularizer": null, "kernel_size": [1, 7], "strides": [1, 1], "activation": "relu", "padding": "same"}, "inbound_nodes": [[["batch_normalization_68", 0, 0, {}]]]}, {"name": "conv2d_70", "class_name": "Conv2D", "config": {"kernel_constraint": null, "kernel_initializer": {"config": {"distribution": "uniform", "scale": 1.0, "mode": "fan_avg", "seed": null}, "class_name": "VarianceScaling"}, "bias_constraint": null, "dilation_rate": [1, 1], "trainable": true, "use_bias": true, "kernel_regularizer": null, "filters": 192, "bias_initializer": {"config": {}, "class_name": "Zeros"}, "name": "conv2d_70", "data_format": "channels_last", "activity_regularizer": null, "bias_regularizer": null, "kernel_size": [1, 1], "strides": [1, 1], "activation": "relu", "padding": "same"}, "inbound_nodes": [[["average_pooling2d_7", 0, 0, {}]]]}, {"name": "batch_normalization_61", "class_name": "BatchNormalization", "config": {"momentum": 0.99, "epsilon": 0.001, "beta_constraint": null, "trainable": true, "scale": true, "center": true, "moving_mean_initializer": {"config": {}, "class_name": "Zeros"}, "gamma_regularizer": null, "axis": 3, "name": "batch_normalization_61", "moving_variance_initializer": {"config": {}, "class_name": "Ones"}, "beta_regularizer": null, "gamma_initializer": {"config": {}, "class_name": "Ones"}, "beta_initializer": {"config": {}, "class_name": "Zeros"}, "gamma_constraint": null}, "inbound_nodes": [[["conv2d_61", 0, 0, {}]]]}, {"name": "batch_normalization_64", "class_name": "BatchNormalization", "config": {"momentum": 0.99, "epsilon": 0.001, "beta_constraint": null, "trainable": true, "scale": true, "center": true, "moving_mean_initializer": {"config": {}, "class_name": "Zeros"}, "gamma_regularizer": null, "axis": 3, "name": "batch_normalization_64", "moving_variance_initializer": {"config": {}, "class_name": "Ones"}, "beta_regularizer": null, "gamma_initializer": {"config": {}, "class_name": "Ones"}, "beta_initializer": {"config": {}, "class_name": "Zeros"}, "gamma_constraint": null}, "inbound_nodes": [[["conv2d_64", 0, 0, {}]]]}, {"name": "batch_normalization_69", "class_name": "BatchNormalization", "config": {"momentum": 0.99, "epsilon": 0.001, "beta_constraint": null, "trainable": true, "scale": true, "center": true, "moving_mean_initializer": {"config": {}, "class_name": "Zeros"}, "gamma_regularizer": null, "axis": 3, "name": "batch_normalization_69", "moving_variance_initializer": {"config": {}, "class_name": "Ones"}, "beta_regularizer": null, "gamma_initializer": {"config": {}, "class_name": "Ones"}, "beta_initializer": {"config": {}, "class_name": "Zeros"}, "gamma_constraint": null}, "inbound_nodes": [[["conv2d_69", 0, 0, {}]]]}, {"name": "batch_normalization_70", "class_name": "BatchNormalization", "config": {"momentum": 0.99, "epsilon": 0.001, "beta_constraint": null, "trainable": true, "scale": true, "center": true, "moving_mean_initializer": {"config": {}, "class_name": "Zeros"}, "gamma_regularizer": null, "axis": 3, "name": "batch_normalization_70", "moving_variance_initializer": {"config": {}, "class_name": "Ones"}, "beta_regularizer": null, "gamma_initializer": {"config": {}, "class_name": "Ones"}, "beta_initializer": {"config": {}, "class_name": "Zeros"}, "gamma_constraint": null}, "inbound_nodes": [[["conv2d_70", 0, 0, {}]]]}, {"name": "mixed7", "class_name": "Concatenate", "config": {"trainable": true, "axis": -1, "name": "mixed7"}, "inbound_nodes": [[["batch_normalization_61", 0, 0, {}], ["batch_normalization_64", 0, 0, {}], ["batch_normalization_69", 0, 0, {}], ["batch_normalization_70", 0, 0, {}]]]}, {"name": "conv2d_73", "class_name": "Conv2D", "config": {"kernel_constraint": null, "kernel_initializer": {"config": {"distribution": "uniform", "scale": 1.0, "mode": "fan_avg", "seed": null}, "class_name": "VarianceScaling"}, "bias_constraint": null, "dilation_rate": [1, 1], "trainable": true, "use_bias": true, "kernel_regularizer": null, "filters": 192, "bias_initializer": {"config": {}, "class_name": "Zeros"}, "name": "conv2d_73", "data_format": "channels_last", "activity_regularizer": null, "bias_regularizer": null, "kernel_size": [1, 1], "strides": [1, 1], "activation": "relu", "padding": "same"}, "inbound_nodes": [[["mixed7", 0, 0, {}]]]}, {"name": "batch_normalization_73", "class_name": "BatchNormalization", "config": {"momentum": 0.99, "epsilon": 0.001, "beta_constraint": null, "trainable": true, "scale": true, "center": true, "moving_mean_initializer": {"config": {}, "class_name": "Zeros"}, "gamma_regularizer": null, "axis": 3, "name": "batch_normalization_73", "moving_variance_initializer": {"config": {}, "class_name": "Ones"}, "beta_regularizer": null, "gamma_initializer": {"config": {}, "class_name": "Ones"}, "beta_initializer": {"config": {}, "class_name": "Zeros"}, "gamma_constraint": null}, "inbound_nodes": [[["conv2d_73", 0, 0, {}]]]}, {"name": "conv2d_74", "class_name": "Conv2D", "config": {"kernel_constraint": null, "kernel_initializer": {"config": {"distribution": "uniform", "scale": 1.0, "mode": "fan_avg", "seed": null}, "class_name": "VarianceScaling"}, "bias_constraint": null, "dilation_rate": [1, 1], "trainable": true, "use_bias": true, "kernel_regularizer": null, "filters": 192, "bias_initializer": {"config": {}, "class_name": "Zeros"}, "name": "conv2d_74", "data_format": "channels_last", "activity_regularizer": null, "bias_regularizer": null, "kernel_size": [1, 7], "strides": [1, 1], "activation": "relu", "padding": "same"}, "inbound_nodes": [[["batch_normalization_73", 0, 0, {}]]]}, {"name": "batch_normalization_74", "class_name": "BatchNormalization", "config": {"momentum": 0.99, "epsilon": 0.001, "beta_constraint": null, "trainable": true, "scale": true, "center": true, "moving_mean_initializer": {"config": {}, "class_name": "Zeros"}, "gamma_regularizer": null, "axis": 3, "name": "batch_normalization_74", "moving_variance_initializer": {"config": {}, "class_name": "Ones"}, "beta_regularizer": null, "gamma_initializer": {"config": {}, "class_name": "Ones"}, "beta_initializer": {"config": {}, "class_name": "Zeros"}, "gamma_constraint": null}, "inbound_nodes": [[["conv2d_74", 0, 0, {}]]]}, {"name": "conv2d_71", "class_name": "Conv2D", "config": {"kernel_constraint": null, "kernel_initializer": {"config": {"distribution": "uniform", "scale": 1.0, "mode": "fan_avg", "seed": null}, "class_name": "VarianceScaling"}, "bias_constraint": null, "dilation_rate": [1, 1], "trainable": true, "use_bias": true, "kernel_regularizer": null, "filters": 192, "bias_initializer": {"config": {}, "class_name": "Zeros"}, "name": "conv2d_71", "data_format": "channels_last", "activity_regularizer": null, "bias_regularizer": null, "kernel_size": [1, 1], "strides": [1, 1], "activation": "relu", "padding": "same"}, "inbound_nodes": [[["mixed7", 0, 0, {}]]]}, {"name": "conv2d_75", "class_name": "Conv2D", "config": {"kernel_constraint": null, "kernel_initializer": {"config": {"distribution": "uniform", "scale": 1.0, "mode": "fan_avg", "seed": null}, "class_name": "VarianceScaling"}, "bias_constraint": null, "dilation_rate": [1, 1], "trainable": true, "use_bias": true, "kernel_regularizer": null, "filters": 192, "bias_initializer": {"config": {}, "class_name": "Zeros"}, "name": "conv2d_75", "data_format": "channels_last", "activity_regularizer": null, "bias_regularizer": null, "kernel_size": [7, 1], "strides": [1, 1], "activation": "relu", "padding": "same"}, "inbound_nodes": [[["batch_normalization_74", 0, 0, {}]]]}, {"name": "batch_normalization_71", "class_name": "BatchNormalization", "config": {"momentum": 0.99, "epsilon": 0.001, "beta_constraint": null, "trainable": true, "scale": true, "center": true, "moving_mean_initializer": {"config": {}, "class_name": "Zeros"}, "gamma_regularizer": null, "axis": 3, "name": "batch_normalization_71", "moving_variance_initializer": {"config": {}, "class_name": "Ones"}, "beta_regularizer": null, "gamma_initializer": {"config": {}, "class_name": "Ones"}, "beta_initializer": {"config": {}, "class_name": "Zeros"}, "gamma_constraint": null}, "inbound_nodes": [[["conv2d_71", 0, 0, {}]]]}, {"name": "batch_normalization_75", "class_name": "BatchNormalization", "config": {"momentum": 0.99, "epsilon": 0.001, "beta_constraint": null, "trainable": true, "scale": true, "center": true, "moving_mean_initializer": {"config": {}, "class_name": "Zeros"}, "gamma_regularizer": null, "axis": 3, "name": "batch_normalization_75", "moving_variance_initializer": {"config": {}, "class_name": "Ones"}, "beta_regularizer": null, "gamma_initializer": {"config": {}, "class_name": "Ones"}, "beta_initializer": {"config": {}, "class_name": "Zeros"}, "gamma_constraint": null}, "inbound_nodes": [[["conv2d_75", 0, 0, {}]]]}, {"name": "conv2d_72", "class_name": "Conv2D", "config": {"kernel_constraint": null, "kernel_initializer": {"config": {"distribution": "uniform", "scale": 1.0, "mode": "fan_avg", "seed": null}, "class_name": "VarianceScaling"}, "bias_constraint": null, "dilation_rate": [1, 1], "trainable": true, "use_bias": true, "kernel_regularizer": null, "filters": 320, "bias_initializer": {"config": {}, "class_name": "Zeros"}, "name": "conv2d_72", "data_format": "channels_last", "activity_regularizer": null, "bias_regularizer": null, "kernel_size": [3, 3], "strides": [2, 2], "activation": "relu", "padding": "valid"}, "inbound_nodes": [[["batch_normalization_71", 0, 0, {}]]]}, {"name": "conv2d_76", "class_name": "Conv2D", "config": {"kernel_constraint": null, "kernel_initializer": {"config": {"distribution": "uniform", "scale": 1.0, "mode": "fan_avg", "seed": null}, "class_name": "VarianceScaling"}, "bias_constraint": null, "dilation_rate": [1, 1], "trainable": true, "use_bias": true, "kernel_regularizer": null, "filters": 192, "bias_initializer": {"config": {}, "class_name": "Zeros"}, "name": "conv2d_76", "data_format": "channels_last", "activity_regularizer": null, "bias_regularizer": null, "kernel_size": [3, 3], "strides": [2, 2], "activation": "relu", "padding": "valid"}, "inbound_nodes": [[["batch_normalization_75", 0, 0, {}]]]}, {"name": "batch_normalization_72", "class_name": "BatchNormalization", "config": {"momentum": 0.99, "epsilon": 0.001, "beta_constraint": null, "trainable": true, "scale": true, "center": true, "moving_mean_initializer": {"config": {}, "class_name": "Zeros"}, "gamma_regularizer": null, "axis": 3, "name": "batch_normalization_72", "moving_variance_initializer": {"config": {}, "class_name": "Ones"}, "beta_regularizer": null, "gamma_initializer": {"config": {}, "class_name": "Ones"}, "beta_initializer": {"config": {}, "class_name": "Zeros"}, "gamma_constraint": null}, "inbound_nodes": [[["conv2d_72", 0, 0, {}]]]}, {"name": "batch_normalization_76", "class_name": "BatchNormalization", "config": {"momentum": 0.99, "epsilon": 0.001, "beta_constraint": null, "trainable": true, "scale": true, "center": true, "moving_mean_initializer": {"config": {}, "class_name": "Zeros"}, "gamma_regularizer": null, "axis": 3, "name": "batch_normalization_76", "moving_variance_initializer": {"config": {}, "class_name": "Ones"}, "beta_regularizer": null, "gamma_initializer": {"config": {}, "class_name": "Ones"}, "beta_initializer": {"config": {}, "class_name": "Zeros"}, "gamma_constraint": null}, "inbound_nodes": [[["conv2d_76", 0, 0, {}]]]}, {"name": "average_pooling2d_8", "class_name": "AveragePooling2D", "config": {"trainable": true, "name": "average_pooling2d_8", "padding": "valid", "pool_size": [3, 3], "data_format": "channels_last", "strides": [2, 2]}, "inbound_nodes": [[["mixed7", 0, 0, {}]]]}, {"name": "mixed8", "class_name": "Concatenate", "config": {"trainable": true, "axis": -1, "name": "mixed8"}, "inbound_nodes": [[["batch_normalization_72", 0, 0, {}], ["batch_normalization_76", 0, 0, {}], ["average_pooling2d_8", 0, 0, {}]]]}, {"name": "conv2d_81", "class_name": "Conv2D", "config": {"kernel_constraint": null, "kernel_initializer": {"config": {"distribution": "uniform", "scale": 1.0, "mode": "fan_avg", "seed": null}, "class_name": "VarianceScaling"}, "bias_constraint": null, "dilation_rate": [1, 1], "trainable": true, "use_bias": true, "kernel_regularizer": null, "filters": 448, "bias_initializer": {"config": {}, "class_name": "Zeros"}, "name": "conv2d_81", "data_format": "channels_last", "activity_regularizer": null, "bias_regularizer": null, "kernel_size": [1, 1], "strides": [1, 1], "activation": "relu", "padding": "same"}, "inbound_nodes": [[["mixed8", 0, 0, {}]]]}, {"name": "batch_normalization_81", "class_name": "BatchNormalization", "config": {"momentum": 0.99, "epsilon": 0.001, "beta_constraint": null, "trainable": true, "scale": true, "center": true, "moving_mean_initializer": {"config": {}, "class_name": "Zeros"}, "gamma_regularizer": null, "axis": 3, "name": "batch_normalization_81", "moving_variance_initializer": {"config": {}, "class_name": "Ones"}, "beta_regularizer": null, "gamma_initializer": {"config": {}, "class_name": "Ones"}, "beta_initializer": {"config": {}, "class_name": "Zeros"}, "gamma_constraint": null}, "inbound_nodes": [[["conv2d_81", 0, 0, {}]]]}, {"name": "conv2d_78", "class_name": "Conv2D", "config": {"kernel_constraint": null, "kernel_initializer": {"config": {"distribution": "uniform", "scale": 1.0, "mode": "fan_avg", "seed": null}, "class_name": "VarianceScaling"}, "bias_constraint": null, "dilation_rate": [1, 1], "trainable": true, "use_bias": true, "kernel_regularizer": null, "filters": 384, "bias_initializer": {"config": {}, "class_name": "Zeros"}, "name": "conv2d_78", "data_format": "channels_last", "activity_regularizer": null, "bias_regularizer": null, "kernel_size": [1, 1], "strides": [1, 1], "activation": "relu", "padding": "same"}, "inbound_nodes": [[["mixed8", 0, 0, {}]]]}, {"name": "conv2d_82", "class_name": "Conv2D", "config": {"kernel_constraint": null, "kernel_initializer": {"config": {"distribution": "uniform", "scale": 1.0, "mode": "fan_avg", "seed": null}, "class_name": "VarianceScaling"}, "bias_constraint": null, "dilation_rate": [1, 1], "trainable": true, "use_bias": true, "kernel_regularizer": null, "filters": 384, "bias_initializer": {"config": {}, "class_name": "Zeros"}, "name": "conv2d_82", "data_format": "channels_last", "activity_regularizer": null, "bias_regularizer": null, "kernel_size": [3, 3], "strides": [1, 1], "activation": "relu", "padding": "same"}, "inbound_nodes": [[["batch_normalization_81", 0, 0, {}]]]}, {"name": "batch_normalization_78", "class_name": "BatchNormalization", "config": {"momentum": 0.99, "epsilon": 0.001, "beta_constraint": null, "trainable": true, "scale": true, "center": true, "moving_mean_initializer": {"config": {}, "class_name": "Zeros"}, "gamma_regularizer": null, "axis": 3, "name": "batch_normalization_78", "moving_variance_initializer": {"config": {}, "class_name": "Ones"}, "beta_regularizer": null, "gamma_initializer": {"config": {}, "class_name": "Ones"}, "beta_initializer": {"config": {}, "class_name": "Zeros"}, "gamma_constraint": null}, "inbound_nodes": [[["conv2d_78", 0, 0, {}]]]}, {"name": "batch_normalization_82", "class_name": "BatchNormalization", "config": {"momentum": 0.99, "epsilon": 0.001, "beta_constraint": null, "trainable": true, "scale": true, "center": true, "moving_mean_initializer": {"config": {}, "class_name": "Zeros"}, "gamma_regularizer": null, "axis": 3, "name": "batch_normalization_82", "moving_variance_initializer": {"config": {}, "class_name": "Ones"}, "beta_regularizer": null, "gamma_initializer": {"config": {}, "class_name": "Ones"}, "beta_initializer": {"config": {}, "class_name": "Zeros"}, "gamma_constraint": null}, "inbound_nodes": [[["conv2d_82", 0, 0, {}]]]}, {"name": "conv2d_79", "class_name": "Conv2D", "config": {"kernel_constraint": null, "kernel_initializer": {"config": {"distribution": "uniform", "scale": 1.0, "mode": "fan_avg", "seed": null}, "class_name": "VarianceScaling"}, "bias_constraint": null, "dilation_rate": [1, 1], "trainable": true, "use_bias": true, "kernel_regularizer": null, "filters": 384, "bias_initializer": {"config": {}, "class_name": "Zeros"}, "name": "conv2d_79", "data_format": "channels_last", "activity_regularizer": null, "bias_regularizer": null, "kernel_size": [1, 3], "strides": [1, 1], "activation": "relu", "padding": "same"}, "inbound_nodes": [[["batch_normalization_78", 0, 0, {}]]]}, {"name": "conv2d_80", "class_name": "Conv2D", "config": {"kernel_constraint": null, "kernel_initializer": {"config": {"distribution": "uniform", "scale": 1.0, "mode": "fan_avg", "seed": null}, "class_name": "VarianceScaling"}, "bias_constraint": null, "dilation_rate": [1, 1], "trainable": true, "use_bias": true, "kernel_regularizer": null, "filters": 384, "bias_initializer": {"config": {}, "class_name": "Zeros"}, "name": "conv2d_80", "data_format": "channels_last", "activity_regularizer": null, "bias_regularizer": null, "kernel_size": [3, 1], "strides": [1, 1], "activation": "relu", "padding": "same"}, "inbound_nodes": [[["batch_normalization_78", 0, 0, {}]]]}, {"name": "conv2d_83", "class_name": "Conv2D", "config": {"kernel_constraint": null, "kernel_initializer": {"config": {"distribution": "uniform", "scale": 1.0, "mode": "fan_avg", "seed": null}, "class_name": "VarianceScaling"}, "bias_constraint": null, "dilation_rate": [1, 1], "trainable": true, "use_bias": true, "kernel_regularizer": null, "filters": 384, "bias_initializer": {"config": {}, "class_name": "Zeros"}, "name": "conv2d_83", "data_format": "channels_last", "activity_regularizer": null, "bias_regularizer": null, "kernel_size": [1, 3], "strides": [1, 1], "activation": "relu", "padding": "same"}, "inbound_nodes": [[["batch_normalization_82", 0, 0, {}]]]}, {"name": "conv2d_84", "class_name": "Conv2D", "config": {"kernel_constraint": null, "kernel_initializer": {"config": {"distribution": "uniform", "scale": 1.0, "mode": "fan_avg", "seed": null}, "class_name": "VarianceScaling"}, "bias_constraint": null, "dilation_rate": [1, 1], "trainable": true, "use_bias": true, "kernel_regularizer": null, "filters": 384, "bias_initializer": {"config": {}, "class_name": "Zeros"}, "name": "conv2d_84", "data_format": "channels_last", "activity_regularizer": null, "bias_regularizer": null, "kernel_size": [3, 1], "strides": [1, 1], "activation": "relu", "padding": "same"}, "inbound_nodes": [[["batch_normalization_82", 0, 0, {}]]]}, {"name": "average_pooling2d_9", "class_name": "AveragePooling2D", "config": {"trainable": true, "name": "average_pooling2d_9", "padding": "same", "pool_size": [3, 3], "data_format": "channels_last", "strides": [1, 1]}, "inbound_nodes": [[["mixed8", 0, 0, {}]]]}, {"name": "conv2d_77", "class_name": "Conv2D", "config": {"kernel_constraint": null, "kernel_initializer": {"config": {"distribution": "uniform", "scale": 1.0, "mode": "fan_avg", "seed": null}, "class_name": "VarianceScaling"}, "bias_constraint": null, "dilation_rate": [1, 1], "trainable": true, "use_bias": true, "kernel_regularizer": null, "filters": 320, "bias_initializer": {"config": {}, "class_name": "Zeros"}, "name": "conv2d_77", "data_format": "channels_last", "activity_regularizer": null, "bias_regularizer": null, "kernel_size": [1, 1], "strides": [1, 1], "activation": "relu", "padding": "same"}, "inbound_nodes": [[["mixed8", 0, 0, {}]]]}, {"name": "batch_normalization_79", "class_name": "BatchNormalization", "config": {"momentum": 0.99, "epsilon": 0.001, "beta_constraint": null, "trainable": true, "scale": true, "center": true, "moving_mean_initializer": {"config": {}, "class_name": "Zeros"}, "gamma_regularizer": null, "axis": 3, "name": "batch_normalization_79", "moving_variance_initializer": {"config": {}, "class_name": "Ones"}, "beta_regularizer": null, "gamma_initializer": {"config": {}, "class_name": "Ones"}, "beta_initializer": {"config": {}, "class_name": "Zeros"}, "gamma_constraint": null}, "inbound_nodes": [[["conv2d_79", 0, 0, {}]]]}, {"name": "batch_normalization_80", "class_name": "BatchNormalization", "config": {"momentum": 0.99, "epsilon": 0.001, "beta_constraint": null, "trainable": true, "scale": true, "center": true, "moving_mean_initializer": {"config": {}, "class_name": "Zeros"}, "gamma_regularizer": null, "axis": 3, "name": "batch_normalization_80", "moving_variance_initializer": {"config": {}, "class_name": "Ones"}, "beta_regularizer": null, "gamma_initializer": {"config": {}, "class_name": "Ones"}, "beta_initializer": {"config": {}, "class_name": "Zeros"}, "gamma_constraint": null}, "inbound_nodes": [[["conv2d_80", 0, 0, {}]]]}, {"name": "batch_normalization_83", "class_name": "BatchNormalization", "config": {"momentum": 0.99, "epsilon": 0.001, "beta_constraint": null, "trainable": true, "scale": true, "center": true, "moving_mean_initializer": {"config": {}, "class_name": "Zeros"}, "gamma_regularizer": null, "axis": 3, "name": "batch_normalization_83", "moving_variance_initializer": {"config": {}, "class_name": "Ones"}, "beta_regularizer": null, "gamma_initializer": {"config": {}, "class_name": "Ones"}, "beta_initializer": {"config": {}, "class_name": "Zeros"}, "gamma_constraint": null}, "inbound_nodes": [[["conv2d_83", 0, 0, {}]]]}, {"name": "batch_normalization_84", "class_name": "BatchNormalization", "config": {"momentum": 0.99, "epsilon": 0.001, "beta_constraint": null, "trainable": true, "scale": true, "center": true, "moving_mean_initializer": {"config": {}, "class_name": "Zeros"}, "gamma_regularizer": null, "axis": 3, "name": "batch_normalization_84", "moving_variance_initializer": {"config": {}, "class_name": "Ones"}, "beta_regularizer": null, "gamma_initializer": {"config": {}, "class_name": "Ones"}, "beta_initializer": {"config": {}, "class_name": "Zeros"}, "gamma_constraint": null}, "inbound_nodes": [[["conv2d_84", 0, 0, {}]]]}, {"name": "conv2d_85", "class_name": "Conv2D", "config": {"kernel_constraint": null, "kernel_initializer": {"config": {"distribution": "uniform", "scale": 1.0, "mode": "fan_avg", "seed": null}, "class_name": "VarianceScaling"}, "bias_constraint": null, "dilation_rate": [1, 1], "trainable": true, "use_bias": true, "kernel_regularizer": null, "filters": 192, "bias_initializer": {"config": {}, "class_name": "Zeros"}, "name": "conv2d_85", "data_format": "channels_last", "activity_regularizer": null, "bias_regularizer": null, "kernel_size": [1, 1], "strides": [1, 1], "activation": "relu", "padding": "same"}, "inbound_nodes": [[["average_pooling2d_9", 0, 0, {}]]]}, {"name": "batch_normalization_77", "class_name": "BatchNormalization", "config": {"momentum": 0.99, "epsilon": 0.001, "beta_constraint": null, "trainable": true, "scale": true, "center": true, "moving_mean_initializer": {"config": {}, "class_name": "Zeros"}, "gamma_regularizer": null, "axis": 3, "name": "batch_normalization_77", "moving_variance_initializer": {"config": {}, "class_name": "Ones"}, "beta_regularizer": null, "gamma_initializer": {"config": {}, "class_name": "Ones"}, "beta_initializer": {"config": {}, "class_name": "Zeros"}, "gamma_constraint": null}, "inbound_nodes": [[["conv2d_77", 0, 0, {}]]]}, {"name": "mixed9_0", "class_name": "Concatenate", "config": {"trainable": true, "axis": -1, "name": "mixed9_0"}, "inbound_nodes": [[["batch_normalization_79", 0, 0, {}], ["batch_normalization_80", 0, 0, {}]]]}, {"name": "concatenate_1", "class_name": "Concatenate", "config": {"trainable": true, "axis": -1, "name": "concatenate_1"}, "inbound_nodes": [[["batch_normalization_83", 0, 0, {}], ["batch_normalization_84", 0, 0, {}]]]}, {"name": "batch_normalization_85", "class_name": "BatchNormalization", "config": {"momentum": 0.99, "epsilon": 0.001, "beta_constraint": null, "trainable": true, "scale": true, "center": true, "moving_mean_initializer": {"config": {}, "class_name": "Zeros"}, "gamma_regularizer": null, "axis": 3, "name": "batch_normalization_85", "moving_variance_initializer": {"config": {}, "class_name": "Ones"}, "beta_regularizer": null, "gamma_initializer": {"config": {}, "class_name": "Ones"}, "beta_initializer": {"config": {}, "class_name": "Zeros"}, "gamma_constraint": null}, "inbound_nodes": [[["conv2d_85", 0, 0, {}]]]}, {"name": "mixed9", "class_name": "Concatenate", "config": {"trainable": true, "axis": -1, "name": "mixed9"}, "inbound_nodes": [[["batch_normalization_77", 0, 0, {}], ["mixed9_0", 0, 0, {}], ["concatenate_1", 0, 0, {}], ["batch_normalization_85", 0, 0, {}]]]}, {"name": "conv2d_90", "class_name": "Conv2D", "config": {"kernel_constraint": null, "kernel_initializer": {"config": {"distribution": "uniform", "scale": 1.0, "mode": "fan_avg", "seed": null}, "class_name": "VarianceScaling"}, "bias_constraint": null, "dilation_rate": [1, 1], "trainable": true, "use_bias": true, "kernel_regularizer": null, "filters": 448, "bias_initializer": {"config": {}, "class_name": "Zeros"}, "name": "conv2d_90", "data_format": "channels_last", "activity_regularizer": null, "bias_regularizer": null, "kernel_size": [1, 1], "strides": [1, 1], "activation": "relu", "padding": "same"}, "inbound_nodes": [[["mixed9", 0, 0, {}]]]}, {"name": "batch_normalization_90", "class_name": "BatchNormalization", "config": {"momentum": 0.99, "epsilon": 0.001, "beta_constraint": null, "trainable": true, "scale": true, "center": true, "moving_mean_initializer": {"config": {}, "class_name": "Zeros"}, "gamma_regularizer": null, "axis": 3, "name": "batch_normalization_90", "moving_variance_initializer": {"config": {}, "class_name": "Ones"}, "beta_regularizer": null, "gamma_initializer": {"config": {}, "class_name": "Ones"}, "beta_initializer": {"config": {}, "class_name": "Zeros"}, "gamma_constraint": null}, "inbound_nodes": [[["conv2d_90", 0, 0, {}]]]}, {"name": "conv2d_87", "class_name": "Conv2D", "config": {"kernel_constraint": null, "kernel_initializer": {"config": {"distribution": "uniform", "scale": 1.0, "mode": "fan_avg", "seed": null}, "class_name": "VarianceScaling"}, "bias_constraint": null, "dilation_rate": [1, 1], "trainable": true, "use_bias": true, "kernel_regularizer": null, "filters": 384, "bias_initializer": {"config": {}, "class_name": "Zeros"}, "name": "conv2d_87", "data_format": "channels_last", "activity_regularizer": null, "bias_regularizer": null, "kernel_size": [1, 1], "strides": [1, 1], "activation": "relu", "padding": "same"}, "inbound_nodes": [[["mixed9", 0, 0, {}]]]}, {"name": "conv2d_91", "class_name": "Conv2D", "config": {"kernel_constraint": null, "kernel_initializer": {"config": {"distribution": "uniform", "scale": 1.0, "mode": "fan_avg", "seed": null}, "class_name": "VarianceScaling"}, "bias_constraint": null, "dilation_rate": [1, 1], "trainable": true, "use_bias": true, "kernel_regularizer": null, "filters": 384, "bias_initializer": {"config": {}, "class_name": "Zeros"}, "name": "conv2d_91", "data_format": "channels_last", "activity_regularizer": null, "bias_regularizer": null, "kernel_size": [3, 3], "strides": [1, 1], "activation": "relu", "padding": "same"}, "inbound_nodes": [[["batch_normalization_90", 0, 0, {}]]]}, {"name": "batch_normalization_87", "class_name": "BatchNormalization", "config": {"momentum": 0.99, "epsilon": 0.001, "beta_constraint": null, "trainable": true, "scale": true, "center": true, "moving_mean_initializer": {"config": {}, "class_name": "Zeros"}, "gamma_regularizer": null, "axis": 3, "name": "batch_normalization_87", "moving_variance_initializer": {"config": {}, "class_name": "Ones"}, "beta_regularizer": null, "gamma_initializer": {"config": {}, "class_name": "Ones"}, "beta_initializer": {"config": {}, "class_name": "Zeros"}, "gamma_constraint": null}, "inbound_nodes": [[["conv2d_87", 0, 0, {}]]]}, {"name": "batch_normalization_91", "class_name": "BatchNormalization", "config": {"momentum": 0.99, "epsilon": 0.001, "beta_constraint": null, "trainable": true, "scale": true, "center": true, "moving_mean_initializer": {"config": {}, "class_name": "Zeros"}, "gamma_regularizer": null, "axis": 3, "name": "batch_normalization_91", "moving_variance_initializer": {"config": {}, "class_name": "Ones"}, "beta_regularizer": null, "gamma_initializer": {"config": {}, "class_name": "Ones"}, "beta_initializer": {"config": {}, "class_name": "Zeros"}, "gamma_constraint": null}, "inbound_nodes": [[["conv2d_91", 0, 0, {}]]]}, {"name": "conv2d_88", "class_name": "Conv2D", "config": {"kernel_constraint": null, "kernel_initializer": {"config": {"distribution": "uniform", "scale": 1.0, "mode": "fan_avg", "seed": null}, "class_name": "VarianceScaling"}, "bias_constraint": null, "dilation_rate": [1, 1], "trainable": true, "use_bias": true, "kernel_regularizer": null, "filters": 384, "bias_initializer": {"config": {}, "class_name": "Zeros"}, "name": "conv2d_88", "data_format": "channels_last", "activity_regularizer": null, "bias_regularizer": null, "kernel_size": [1, 3], "strides": [1, 1], "activation": "relu", "padding": "same"}, "inbound_nodes": [[["batch_normalization_87", 0, 0, {}]]]}, {"name": "conv2d_89", "class_name": "Conv2D", "config": {"kernel_constraint": null, "kernel_initializer": {"config": {"distribution": "uniform", "scale": 1.0, "mode": "fan_avg", "seed": null}, "class_name": "VarianceScaling"}, "bias_constraint": null, "dilation_rate": [1, 1], "trainable": true, "use_bias": true, "kernel_regularizer": null, "filters": 384, "bias_initializer": {"config": {}, "class_name": "Zeros"}, "name": "conv2d_89", "data_format": "channels_last", "activity_regularizer": null, "bias_regularizer": null, "kernel_size": [3, 1], "strides": [1, 1], "activation": "relu", "padding": "same"}, "inbound_nodes": [[["batch_normalization_87", 0, 0, {}]]]}, {"name": "conv2d_92", "class_name": "Conv2D", "config": {"kernel_constraint": null, "kernel_initializer": {"config": {"distribution": "uniform", "scale": 1.0, "mode": "fan_avg", "seed": null}, "class_name": "VarianceScaling"}, "bias_constraint": null, "dilation_rate": [1, 1], "trainable": true, "use_bias": true, "kernel_regularizer": null, "filters": 384, "bias_initializer": {"config": {}, "class_name": "Zeros"}, "name": "conv2d_92", "data_format": "channels_last", "activity_regularizer": null, "bias_regularizer": null, "kernel_size": [1, 3], "strides": [1, 1], "activation": "relu", "padding": "same"}, "inbound_nodes": [[["batch_normalization_91", 0, 0, {}]]]}, {"name": "conv2d_93", "class_name": "Conv2D", "config": {"kernel_constraint": null, "kernel_initializer": {"config": {"distribution": "uniform", "scale": 1.0, "mode": "fan_avg", "seed": null}, "class_name": "VarianceScaling"}, "bias_constraint": null, "dilation_rate": [1, 1], "trainable": true, "use_bias": true, "kernel_regularizer": null, "filters": 384, "bias_initializer": {"config": {}, "class_name": "Zeros"}, "name": "conv2d_93", "data_format": "channels_last", "activity_regularizer": null, "bias_regularizer": null, "kernel_size": [3, 1], "strides": [1, 1], "activation": "relu", "padding": "same"}, "inbound_nodes": [[["batch_normalization_91", 0, 0, {}]]]}, {"name": "average_pooling2d_10", "class_name": "AveragePooling2D", "config": {"trainable": true, "name": "average_pooling2d_10", "padding": "same", "pool_size": [3, 3], "data_format": "channels_last", "strides": [1, 1]}, "inbound_nodes": [[["mixed9", 0, 0, {}]]]}, {"name": "conv2d_86", "class_name": "Conv2D", "config": {"kernel_constraint": null, "kernel_initializer": {"config": {"distribution": "uniform", "scale": 1.0, "mode": "fan_avg", "seed": null}, "class_name": "VarianceScaling"}, "bias_constraint": null, "dilation_rate": [1, 1], "trainable": true, "use_bias": true, "kernel_regularizer": null, "filters": 320, "bias_initializer": {"config": {}, "class_name": "Zeros"}, "name": "conv2d_86", "data_format": "channels_last", "activity_regularizer": null, "bias_regularizer": null, "kernel_size": [1, 1], "strides": [1, 1], "activation": "relu", "padding": "same"}, "inbound_nodes": [[["mixed9", 0, 0, {}]]]}, {"name": "batch_normalization_88", "class_name": "BatchNormalization", "config": {"momentum": 0.99, "epsilon": 0.001, "beta_constraint": null, "trainable": true, "scale": true, "center": true, "moving_mean_initializer": {"config": {}, "class_name": "Zeros"}, "gamma_regularizer": null, "axis": 3, "name": "batch_normalization_88", "moving_variance_initializer": {"config": {}, "class_name": "Ones"}, "beta_regularizer": null, "gamma_initializer": {"config": {}, "class_name": "Ones"}, "beta_initializer": {"config": {}, "class_name": "Zeros"}, "gamma_constraint": null}, "inbound_nodes": [[["conv2d_88", 0, 0, {}]]]}, {"name": "batch_normalization_89", "class_name": "BatchNormalization", "config": {"momentum": 0.99, "epsilon": 0.001, "beta_constraint": null, "trainable": true, "scale": true, "center": true, "moving_mean_initializer": {"config": {}, "class_name": "Zeros"}, "gamma_regularizer": null, "axis": 3, "name": "batch_normalization_89", "moving_variance_initializer": {"config": {}, "class_name": "Ones"}, "beta_regularizer": null, "gamma_initializer": {"config": {}, "class_name": "Ones"}, "beta_initializer": {"config": {}, "class_name": "Zeros"}, "gamma_constraint": null}, "inbound_nodes": [[["conv2d_89", 0, 0, {}]]]}, {"name": "batch_normalization_92", "class_name": "BatchNormalization", "config": {"momentum": 0.99, "epsilon": 0.001, "beta_constraint": null, "trainable": true, "scale": true, "center": true, "moving_mean_initializer": {"config": {}, "class_name": "Zeros"}, "gamma_regularizer": null, "axis": 3, "name": "batch_normalization_92", "moving_variance_initializer": {"config": {}, "class_name": "Ones"}, "beta_regularizer": null, "gamma_initializer": {"config": {}, "class_name": "Ones"}, "beta_initializer": {"config": {}, "class_name": "Zeros"}, "gamma_constraint": null}, "inbound_nodes": [[["conv2d_92", 0, 0, {}]]]}, {"name": "batch_normalization_93", "class_name": "BatchNormalization", "config": {"momentum": 0.99, "epsilon": 0.001, "beta_constraint": null, "trainable": true, "scale": true, "center": true, "moving_mean_initializer": {"config": {}, "class_name": "Zeros"}, "gamma_regularizer": null, "axis": 3, "name": "batch_normalization_93", "moving_variance_initializer": {"config": {}, "class_name": "Ones"}, "beta_regularizer": null, "gamma_initializer": {"config": {}, "class_name": "Ones"}, "beta_initializer": {"config": {}, "class_name": "Zeros"}, "gamma_constraint": null}, "inbound_nodes": [[["conv2d_93", 0, 0, {}]]]}, {"name": "conv2d_94", "class_name": "Conv2D", "config": {"kernel_constraint": null, "kernel_initializer": {"config": {"distribution": "uniform", "scale": 1.0, "mode": "fan_avg", "seed": null}, "class_name": "VarianceScaling"}, "bias_constraint": null, "dilation_rate": [1, 1], "trainable": true, "use_bias": true, "kernel_regularizer": null, "filters": 192, "bias_initializer": {"config": {}, "class_name": "Zeros"}, "name": "conv2d_94", "data_format": "channels_last", "activity_regularizer": null, "bias_regularizer": null, "kernel_size": [1, 1], "strides": [1, 1], "activation": "relu", "padding": "same"}, "inbound_nodes": [[["average_pooling2d_10", 0, 0, {}]]]}, {"name": "batch_normalization_86", "class_name": "BatchNormalization", "config": {"momentum": 0.99, "epsilon": 0.001, "beta_constraint": null, "trainable": true, "scale": true, "center": true, "moving_mean_initializer": {"config": {}, "class_name": "Zeros"}, "gamma_regularizer": null, "axis": 3, "name": "batch_normalization_86", "moving_variance_initializer": {"config": {}, "class_name": "Ones"}, "beta_regularizer": null, "gamma_initializer": {"config": {}, "class_name": "Ones"}, "beta_initializer": {"config": {}, "class_name": "Zeros"}, "gamma_constraint": null}, "inbound_nodes": [[["conv2d_86", 0, 0, {}]]]}, {"name": "mixed9_1", "class_name": "Concatenate", "config": {"trainable": true, "axis": -1, "name": "mixed9_1"}, "inbound_nodes": [[["batch_normalization_88", 0, 0, {}], ["batch_normalization_89", 0, 0, {}]]]}, {"name": "concatenate_2", "class_name": "Concatenate", "config": {"trainable": true, "axis": -1, "name": "concatenate_2"}, "inbound_nodes": [[["batch_normalization_92", 0, 0, {}], ["batch_normalization_93", 0, 0, {}]]]}, {"name": "batch_normalization_94", "class_name": "BatchNormalization", "config": {"momentum": 0.99, "epsilon": 0.001, "beta_constraint": null, "trainable": true, "scale": true, "center": true, "moving_mean_initializer": {"config": {}, "class_name": "Zeros"}, "gamma_regularizer": null, "axis": 3, "name": "batch_normalization_94", "moving_variance_initializer": {"config": {}, "class_name": "Ones"}, "beta_regularizer": null, "gamma_initializer": {"config": {}, "class_name": "Ones"}, "beta_initializer": {"config": {}, "class_name": "Zeros"}, "gamma_constraint": null}, "inbound_nodes": [[["conv2d_94", 0, 0, {}]]]}, {"name": "mixed10", "class_name": "Concatenate", "config": {"trainable": true, "axis": -1, "name": "mixed10"}, "inbound_nodes": [[["batch_normalization_86", 0, 0, {}], ["mixed9_1", 0, 0, {}], ["concatenate_2", 0, 0, {}], ["batch_normalization_94", 0, 0, {}]]]}, {"name": "end_max_pool", "class_name": "MaxPooling2D", "config": {"trainable": true, "name": "end_max_pool", "padding": "valid", "pool_size": [2, 2], "data_format": "channels_last", "strides": [2, 2]}, "inbound_nodes": [[["mixed10", 0, 0, {}]]]}, {"name": "flatten", "class_name": "Flatten", "config": {"trainable": true, "name": "flatten"}, "inbound_nodes": [[["end_max_pool", 0, 0, {}]]]}, {"name": "output_layer", "class_name": "Dense", "config": {"kernel_constraint": null, "units": 1, "bias_constraint": null, "activation": "sigmoid", "trainable": true, "use_bias": true, "kernel_regularizer": null, "bias_initializer": {"config": {}, "class_name": "Zeros"}, "name": "output_layer", "kernel_initializer": {"config": {"distribution": "uniform", "scale": 1.0, "mode": "fan_avg", "seed": null}, "class_name": "VarianceScaling"}, "bias_regularizer": null, "activity_regularizer": null}, "inbound_nodes": [[["flatten", 0, 0, {}]]]}], "input_layers": [["input_1", 0, 0]]}, "class_name": "Model", "keras_version": "2.0.6", "backend": "tensorflow"}