{"config": {"input_layers": [["input_1", 0, 0]], "output_layers": [["output_layer", 0, 0]], "name": "model_1", "layers": [{"name": "input_1", "class_name": "InputLayer", "config": {"batch_input_shape": [null, 1152, 832, 1], "sparse": false, "name": "input_1", "dtype": "float32"}, "inbound_nodes": []}, {"name": "conv2d_1", "class_name": "Conv2D", "config": {"use_bias": true, "data_format": "channels_last", "filters": 16, "kernel_size": [3, 3], "bias_regularizer": null, "activity_regularizer": null, "kernel_regularizer": null, "bias_initializer": {"config": {}, "class_name": "Zeros"}, "name": "conv2d_1", "bias_constraint": null, "kernel_initializer": {"config": {"mode": "fan_avg", "distribution": "uniform", "scale": 1.0, "seed": null}, "class_name": "VarianceScaling"}, "kernel_constraint": null, "activation": "relu", "dilation_rate": [1, 1], "strides": [2, 2], "padding": "valid", "trainable": true}, "inbound_nodes": [[["input_1", 0, 0, {}]]]}, {"name": "batch_normalization_1", "class_name": "BatchNormalization", "config": {"moving_mean_initializer": {"config": {}, "class_name": "Zeros"}, "axis": 3, "beta_regularizer": null, "beta_initializer": {"config": {}, "class_name": "Zeros"}, "beta_constraint": null, "center": true, "momentum": 0.99, "name": "batch_normalization_1", "trainable": true, "moving_variance_initializer": {"config": {}, "class_name": "Ones"}, "gamma_initializer": {"config": {}, "class_name": "Ones"}, "epsilon": 0.001, "gamma_constraint": null, "scale": true, "gamma_regularizer": null}, "inbound_nodes": [[["conv2d_1", 0, 0, {}]]]}, {"name": "conv2d_2", "class_name": "Conv2D", "config": {"use_bias": true, "data_format": "channels_last", "filters": 16, "kernel_size": [3, 3], "bias_regularizer": null, "activity_regularizer": null, "kernel_regularizer": null, "bias_initializer": {"config": {}, "class_name": "Zeros"}, "name": "conv2d_2", "bias_constraint": null, "kernel_initializer": {"config": {"mode": "fan_avg", "distribution": "uniform", "scale": 1.0, "seed": null}, "class_name": "VarianceScaling"}, "kernel_constraint": null, "activation": "relu", "dilation_rate": [1, 1], "strides": [1, 1], "padding": "valid", "trainable": true}, "inbound_nodes": [[["batch_normalization_1", 0, 0, {}]]]}, {"name": "batch_normalization_2", "class_name": "BatchNormalization", "config": {"moving_mean_initializer": {"config": {}, "class_name": "Zeros"}, "axis": 3, "beta_regularizer": null, "beta_initializer": {"config": {}, "class_name": "Zeros"}, "beta_constraint": null, "center": true, "momentum": 0.99, "name": "batch_normalization_2", "trainable": true, "moving_variance_initializer": {"config": {}, "class_name": "Ones"}, "gamma_initializer": {"config": {}, "class_name": "Ones"}, "epsilon": 0.001, "gamma_constraint": null, "scale": true, "gamma_regularizer": null}, "inbound_nodes": [[["conv2d_2", 0, 0, {}]]]}, {"name": "conv2d_3", "class_name": "Conv2D", "config": {"use_bias": true, "data_format": "channels_last", "filters": 32, "kernel_size": [3, 3], "bias_regularizer": null, "activity_regularizer": null, "kernel_regularizer": null, "bias_initializer": {"config": {}, "class_name": "Zeros"}, "name": "conv2d_3", "bias_constraint": null, "kernel_initializer": {"config": {"mode": "fan_avg", "distribution": "uniform", "scale": 1.0, "seed": null}, "class_name": "VarianceScaling"}, "kernel_constraint": null, "activation": "relu", "dilation_rate": [1, 1], "strides": [1, 1], "padding": "same", "trainable": true}, "inbound_nodes": [[["batch_normalization_2", 0, 0, {}]]]}, {"name": "batch_normalization_3", "class_name": "BatchNormalization", "config": {"moving_mean_initializer": {"config": {}, "class_name": "Zeros"}, "axis": 3, "beta_regularizer": null, "beta_initializer": {"config": {}, "class_name": "Zeros"}, "beta_constraint": null, "center": true, "momentum": 0.99, "name": "batch_normalization_3", "trainable": true, "moving_variance_initializer": {"config": {}, "class_name": "Ones"}, "gamma_initializer": {"config": {}, "class_name": "Ones"}, "epsilon": 0.001, "gamma_constraint": null, "scale": true, "gamma_regularizer": null}, "inbound_nodes": [[["conv2d_3", 0, 0, {}]]]}, {"name": "max_pooling2d_1", "class_name": "MaxPooling2D", "config": {"name": "max_pooling2d_1", "strides": [2, 2], "pool_size": [3, 3], "data_format": "channels_last", "trainable": true, "padding": "valid"}, "inbound_nodes": [[["batch_normalization_3", 0, 0, {}]]]}, {"name": "conv2d_4", "class_name": "Conv2D", "config": {"use_bias": true, "data_format": "channels_last", "filters": 40, "kernel_size": [1, 1], "bias_regularizer": null, "activity_regularizer": null, "kernel_regularizer": null, "bias_initializer": {"config": {}, "class_name": "Zeros"}, "name": "conv2d_4", "bias_constraint": null, "kernel_initializer": {"config": {"mode": "fan_avg", "distribution": "uniform", "scale": 1.0, "seed": null}, "class_name": "VarianceScaling"}, "kernel_constraint": null, "activation": "relu", "dilation_rate": [1, 1], "strides": [1, 1], "padding": "valid", "trainable": true}, "inbound_nodes": [[["max_pooling2d_1", 0, 0, {}]]]}, {"name": "batch_normalization_4", "class_name": "BatchNormalization", "config": {"moving_mean_initializer": {"config": {}, "class_name": "Zeros"}, "axis": 3, "beta_regularizer": null, "beta_initializer": {"config": {}, "class_name": "Zeros"}, "beta_constraint": null, "center": true, "momentum": 0.99, "name": "batch_normalization_4", "trainable": true, "moving_variance_initializer": {"config": {}, "class_name": "Ones"}, "gamma_initializer": {"config": {}, "class_name": "Ones"}, "epsilon": 0.001, "gamma_constraint": null, "scale": true, "gamma_regularizer": null}, "inbound_nodes": [[["conv2d_4", 0, 0, {}]]]}, {"name": "conv2d_5", "class_name": "Conv2D", "config": {"use_bias": true, "data_format": "channels_last", "filters": 96, "kernel_size": [3, 3], "bias_regularizer": null, "activity_regularizer": null, "kernel_regularizer": null, "bias_initializer": {"config": {}, "class_name": "Zeros"}, "name": "conv2d_5", "bias_constraint": null, "kernel_initializer": {"config": {"mode": "fan_avg", "distribution": "uniform", "scale": 1.0, "seed": null}, "class_name": "VarianceScaling"}, "kernel_constraint": null, "activation": "relu", "dilation_rate": [1, 1], "strides": [1, 1], "padding": "valid", "trainable": true}, "inbound_nodes": [[["batch_normalization_4", 0, 0, {}]]]}, {"name": "batch_normalization_5", "class_name": "BatchNormalization", "config": {"moving_mean_initializer": {"config": {}, "class_name": "Zeros"}, "axis": 3, "beta_regularizer": null, "beta_initializer": {"config": {}, "class_name": "Zeros"}, "beta_constraint": null, "center": true, "momentum": 0.99, "name": "batch_normalization_5", "trainable": true, "moving_variance_initializer": {"config": {}, "class_name": "Ones"}, "gamma_initializer": {"config": {}, "class_name": "Ones"}, "epsilon": 0.001, "gamma_constraint": null, "scale": true, "gamma_regularizer": null}, "inbound_nodes": [[["conv2d_5", 0, 0, {}]]]}, {"name": "max_pooling2d_2", "class_name": "MaxPooling2D", "config": {"name": "max_pooling2d_2", "strides": [2, 2], "pool_size": [3, 3], "data_format": "channels_last", "trainable": true, "padding": "valid"}, "inbound_nodes": [[["batch_normalization_5", 0, 0, {}]]]}, {"name": "conv2d_9", "class_name": "Conv2D", "config": {"use_bias": true, "data_format": "channels_last", "filters": 32, "kernel_size": [1, 1], "bias_regularizer": null, "activity_regularizer": null, "kernel_regularizer": null, "bias_initializer": {"config": {}, "class_name": "Zeros"}, "name": "conv2d_9", "bias_constraint": null, "kernel_initializer": {"config": {"mode": "fan_avg", "distribution": "uniform", "scale": 1.0, "seed": null}, "class_name": "VarianceScaling"}, "kernel_constraint": null, "activation": "relu", "dilation_rate": [1, 1], "strides": [1, 1], "padding": "same", "trainable": true}, "inbound_nodes": [[["max_pooling2d_2", 0, 0, {}]]]}, {"name": "batch_normalization_9", "class_name": "BatchNormalization", "config": {"moving_mean_initializer": {"config": {}, "class_name": "Zeros"}, "axis": 3, "beta_regularizer": null, "beta_initializer": {"config": {}, "class_name": "Zeros"}, "beta_constraint": null, "center": true, "momentum": 0.99, "name": "batch_normalization_9", "trainable": true, "moving_variance_initializer": {"config": {}, "class_name": "Ones"}, "gamma_initializer": {"config": {}, "class_name": "Ones"}, "epsilon": 0.001, "gamma_constraint": null, "scale": true, "gamma_regularizer": null}, "inbound_nodes": [[["conv2d_9", 0, 0, {}]]]}, {"name": "conv2d_7", "class_name": "Conv2D", "config": {"use_bias": true, "data_format": "channels_last", "filters": 24, "kernel_size": [1, 1], "bias_regularizer": null, "activity_regularizer": null, "kernel_regularizer": null, "bias_initializer": {"config": {}, "class_name": "Zeros"}, "name": "conv2d_7", "bias_constraint": null, "kernel_initializer": {"config": {"mode": "fan_avg", "distribution": "uniform", "scale": 1.0, "seed": null}, "class_name": "VarianceScaling"}, "kernel_constraint": null, "activation": "relu", "dilation_rate": [1, 1], "strides": [1, 1], "padding": "same", "trainable": true}, "inbound_nodes": [[["max_pooling2d_2", 0, 0, {}]]]}, {"name": "conv2d_10", "class_name": "Conv2D", "config": {"use_bias": true, "data_format": "channels_last", "filters": 48, "kernel_size": [3, 3], "bias_regularizer": null, "activity_regularizer": null, "kernel_regularizer": null, "bias_initializer": {"config": {}, "class_name": "Zeros"}, "name": "conv2d_10", "bias_constraint": null, "kernel_initializer": {"config": {"mode": "fan_avg", "distribution": "uniform", "scale": 1.0, "seed": null}, "class_name": "VarianceScaling"}, "kernel_constraint": null, "activation": "relu", "dilation_rate": [1, 1], "strides": [1, 1], "padding": "same", "trainable": true}, "inbound_nodes": [[["batch_normalization_9", 0, 0, {}]]]}, {"name": "batch_normalization_7", "class_name": "BatchNormalization", "config": {"moving_mean_initializer": {"config": {}, "class_name": "Zeros"}, "axis": 3, "beta_regularizer": null, "beta_initializer": {"config": {}, "class_name": "Zeros"}, "beta_constraint": null, "center": true, "momentum": 0.99, "name": "batch_normalization_7", "trainable": true, "moving_variance_initializer": {"config": {}, "class_name": "Ones"}, "gamma_initializer": {"config": {}, "class_name": "Ones"}, "epsilon": 0.001, "gamma_constraint": null, "scale": true, "gamma_regularizer": null}, "inbound_nodes": [[["conv2d_7", 0, 0, {}]]]}, {"name": "batch_normalization_10", "class_name": "BatchNormalization", "config": {"moving_mean_initializer": {"config": {}, "class_name": "Zeros"}, "axis": 3, "beta_regularizer": null, "beta_initializer": {"config": {}, "class_name": "Zeros"}, "beta_constraint": null, "center": true, "momentum": 0.99, "name": "batch_normalization_10", "trainable": true, "moving_variance_initializer": {"config": {}, "class_name": "Ones"}, "gamma_initializer": {"config": {}, "class_name": "Ones"}, "epsilon": 0.001, "gamma_constraint": null, "scale": true, "gamma_regularizer": null}, "inbound_nodes": [[["conv2d_10", 0, 0, {}]]]}, {"name": "average_pooling2d_1", "class_name": "AveragePooling2D", "config": {"name": "average_pooling2d_1", "strides": [1, 1], "pool_size": [3, 3], "data_format": "channels_last", "trainable": true, "padding": "same"}, "inbound_nodes": [[["max_pooling2d_2", 0, 0, {}]]]}, {"name": "conv2d_6", "class_name": "Conv2D", "config": {"use_bias": true, "data_format": "channels_last", "filters": 32, "kernel_size": [1, 1], "bias_regularizer": null, "activity_regularizer": null, "kernel_regularizer": null, "bias_initializer": {"config": {}, "class_name": "Zeros"}, "name": "conv2d_6", "bias_constraint": null, "kernel_initializer": {"config": {"mode": "fan_avg", "distribution": "uniform", "scale": 1.0, "seed": null}, "class_name": "VarianceScaling"}, "kernel_constraint": null, "activation": "relu", "dilation_rate": [1, 1], "strides": [1, 1], "padding": "same", "trainable": true}, "inbound_nodes": [[["max_pooling2d_2", 0, 0, {}]]]}, {"name": "conv2d_8", "class_name": "Conv2D", "config": {"use_bias": true, "data_format": "channels_last", "filters": 32, "kernel_size": [5, 5], "bias_regularizer": null, "activity_regularizer": null, "kernel_regularizer": null, "bias_initializer": {"config": {}, "class_name": "Zeros"}, "name": "conv2d_8", "bias_constraint": null, "kernel_initializer": {"config": {"mode": "fan_avg", "distribution": "uniform", "scale": 1.0, "seed": null}, "class_name": "VarianceScaling"}, "kernel_constraint": null, "activation": "relu", "dilation_rate": [1, 1], "strides": [1, 1], "padding": "same", "trainable": true}, "inbound_nodes": [[["batch_normalization_7", 0, 0, {}]]]}, {"name": "conv2d_11", "class_name": "Conv2D", "config": {"use_bias": true, "data_format": "channels_last", "filters": 48, "kernel_size": [3, 3], "bias_regularizer": null, "activity_regularizer": null, "kernel_regularizer": null, "bias_initializer": {"config": {}, "class_name": "Zeros"}, "name": "conv2d_11", "bias_constraint": null, "kernel_initializer": {"config": {"mode": "fan_avg", "distribution": "uniform", "scale": 1.0, "seed": null}, "class_name": "VarianceScaling"}, "kernel_constraint": null, "activation": "relu", "dilation_rate": [1, 1], "strides": [1, 1], "padding": "same", "trainable": true}, "inbound_nodes": [[["batch_normalization_10", 0, 0, {}]]]}, {"name": "conv2d_12", "class_name": "Conv2D", "config": {"use_bias": true, "data_format": "channels_last", "filters": 16, "kernel_size": [1, 1], "bias_regularizer": null, "activity_regularizer": null, "kernel_regularizer": null, "bias_initializer": {"config": {}, "class_name": "Zeros"}, "name": "conv2d_12", "bias_constraint": null, "kernel_initializer": {"config": {"mode": "fan_avg", "distribution": "uniform", "scale": 1.0, "seed": null}, "class_name": "VarianceScaling"}, "kernel_constraint": null, "activation": "relu", "dilation_rate": [1, 1], "strides": [1, 1], "padding": "same", "trainable": true}, "inbound_nodes": [[["average_pooling2d_1", 0, 0, {}]]]}, {"name": "batch_normalization_6", "class_name": "BatchNormalization", "config": {"moving_mean_initializer": {"config": {}, "class_name": "Zeros"}, "axis": 3, "beta_regularizer": null, "beta_initializer": {"config": {}, "class_name": "Zeros"}, "beta_constraint": null, "center": true, "momentum": 0.99, "name": "batch_normalization_6", "trainable": true, "moving_variance_initializer": {"config": {}, "class_name": "Ones"}, "gamma_initializer": {"config": {}, "class_name": "Ones"}, "epsilon": 0.001, "gamma_constraint": null, "scale": true, "gamma_regularizer": null}, "inbound_nodes": [[["conv2d_6", 0, 0, {}]]]}, {"name": "batch_normalization_8", "class_name": "BatchNormalization", "config": {"moving_mean_initializer": {"config": {}, "class_name": "Zeros"}, "axis": 3, "beta_regularizer": null, "beta_initializer": {"config": {}, "class_name": "Zeros"}, "beta_constraint": null, "center": true, "momentum": 0.99, "name": "batch_normalization_8", "trainable": true, "moving_variance_initializer": {"config": {}, "class_name": "Ones"}, "gamma_initializer": {"config": {}, "class_name": "Ones"}, "epsilon": 0.001, "gamma_constraint": null, "scale": true, "gamma_regularizer": null}, "inbound_nodes": [[["conv2d_8", 0, 0, {}]]]}, {"name": "batch_normalization_11", "class_name": "BatchNormalization", "config": {"moving_mean_initializer": {"config": {}, "class_name": "Zeros"}, "axis": 3, "beta_regularizer": null, "beta_initializer": {"config": {}, "class_name": "Zeros"}, "beta_constraint": null, "center": true, "momentum": 0.99, "name": "batch_normalization_11", "trainable": true, "moving_variance_initializer": {"config": {}, "class_name": "Ones"}, "gamma_initializer": {"config": {}, "class_name": "Ones"}, "epsilon": 0.001, "gamma_constraint": null, "scale": true, "gamma_regularizer": null}, "inbound_nodes": [[["conv2d_11", 0, 0, {}]]]}, {"name": "batch_normalization_12", "class_name": "BatchNormalization", "config": {"moving_mean_initializer": {"config": {}, "class_name": "Zeros"}, "axis": 3, "beta_regularizer": null, "beta_initializer": {"config": {}, "class_name": "Zeros"}, "beta_constraint": null, "center": true, "momentum": 0.99, "name": "batch_normalization_12", "trainable": true, "moving_variance_initializer": {"config": {}, "class_name": "Ones"}, "gamma_initializer": {"config": {}, "class_name": "Ones"}, "epsilon": 0.001, "gamma_constraint": null, "scale": true, "gamma_regularizer": null}, "inbound_nodes": [[["conv2d_12", 0, 0, {}]]]}, {"name": "mixed0", "class_name": "Concatenate", "config": {"name": "mixed0", "axis": -1, "trainable": true}, "inbound_nodes": [[["batch_normalization_6", 0, 0, {}], ["batch_normalization_8", 0, 0, {}], ["batch_normalization_11", 0, 0, {}], ["batch_normalization_12", 0, 0, {}]]]}, {"name": "conv2d_16", "class_name": "Conv2D", "config": {"use_bias": true, "data_format": "channels_last", "filters": 32, "kernel_size": [1, 1], "bias_regularizer": null, "activity_regularizer": null, "kernel_regularizer": null, "bias_initializer": {"config": {}, "class_name": "Zeros"}, "name": "conv2d_16", "bias_constraint": null, "kernel_initializer": {"config": {"mode": "fan_avg", "distribution": "uniform", "scale": 1.0, "seed": null}, "class_name": "VarianceScaling"}, "kernel_constraint": null, "activation": "relu", "dilation_rate": [1, 1], "strides": [1, 1], "padding": "same", "trainable": true}, "inbound_nodes": [[["mixed0", 0, 0, {}]]]}, {"name": "batch_normalization_16", "class_name": "BatchNormalization", "config": {"moving_mean_initializer": {"config": {}, "class_name": "Zeros"}, "axis": 3, "beta_regularizer": null, "beta_initializer": {"config": {}, "class_name": "Zeros"}, "beta_constraint": null, "center": true, "momentum": 0.99, "name": "batch_normalization_16", "trainable": true, "moving_variance_initializer": {"config": {}, "class_name": "Ones"}, "gamma_initializer": {"config": {}, "class_name": "Ones"}, "epsilon": 0.001, "gamma_constraint": null, "scale": true, "gamma_regularizer": null}, "inbound_nodes": [[["conv2d_16", 0, 0, {}]]]}, {"name": "conv2d_14", "class_name": "Conv2D", "config": {"use_bias": true, "data_format": "channels_last", "filters": 24, "kernel_size": [1, 1], "bias_regularizer": null, "activity_regularizer": null, "kernel_regularizer": null, "bias_initializer": {"config": {}, "class_name": "Zeros"}, "name": "conv2d_14", "bias_constraint": null, "kernel_initializer": {"config": {"mode": "fan_avg", "distribution": "uniform", "scale": 1.0, "seed": null}, "class_name": "VarianceScaling"}, "kernel_constraint": null, "activation": "relu", "dilation_rate": [1, 1], "strides": [1, 1], "padding": "same", "trainable": true}, "inbound_nodes": [[["mixed0", 0, 0, {}]]]}, {"name": "conv2d_17", "class_name": "Conv2D", "config": {"use_bias": true, "data_format": "channels_last", "filters": 48, "kernel_size": [3, 3], "bias_regularizer": null, "activity_regularizer": null, "kernel_regularizer": null, "bias_initializer": {"config": {}, "class_name": "Zeros"}, "name": "conv2d_17", "bias_constraint": null, "kernel_initializer": {"config": {"mode": "fan_avg", "distribution": "uniform", "scale": 1.0, "seed": null}, "class_name": "VarianceScaling"}, "kernel_constraint": null, "activation": "relu", "dilation_rate": [1, 1], "strides": [1, 1], "padding": "same", "trainable": true}, "inbound_nodes": [[["batch_normalization_16", 0, 0, {}]]]}, {"name": "batch_normalization_14", "class_name": "BatchNormalization", "config": {"moving_mean_initializer": {"config": {}, "class_name": "Zeros"}, "axis": 3, "beta_regularizer": null, "beta_initializer": {"config": {}, "class_name": "Zeros"}, "beta_constraint": null, "center": true, "momentum": 0.99, "name": "batch_normalization_14", "trainable": true, "moving_variance_initializer": {"config": {}, "class_name": "Ones"}, "gamma_initializer": {"config": {}, "class_name": "Ones"}, "epsilon": 0.001, "gamma_constraint": null, "scale": true, "gamma_regularizer": null}, "inbound_nodes": [[["conv2d_14", 0, 0, {}]]]}, {"name": "batch_normalization_17", "class_name": "BatchNormalization", "config": {"moving_mean_initializer": {"config": {}, "class_name": "Zeros"}, "axis": 3, "beta_regularizer": null, "beta_initializer": {"config": {}, "class_name": "Zeros"}, "beta_constraint": null, "center": true, "momentum": 0.99, "name": "batch_normalization_17", "trainable": true, "moving_variance_initializer": {"config": {}, "class_name": "Ones"}, "gamma_initializer": {"config": {}, "class_name": "Ones"}, "epsilon": 0.001, "gamma_constraint": null, "scale": true, "gamma_regularizer": null}, "inbound_nodes": [[["conv2d_17", 0, 0, {}]]]}, {"name": "average_pooling2d_2", "class_name": "AveragePooling2D", "config": {"name": "average_pooling2d_2", "strides": [1, 1], "pool_size": [3, 3], "data_format": "channels_last", "trainable": true, "padding": "same"}, "inbound_nodes": [[["mixed0", 0, 0, {}]]]}, {"name": "conv2d_13", "class_name": "Conv2D", "config": {"use_bias": true, "data_format": "channels_last", "filters": 32, "kernel_size": [1, 1], "bias_regularizer": null, "activity_regularizer": null, "kernel_regularizer": null, "bias_initializer": {"config": {}, "class_name": "Zeros"}, "name": "conv2d_13", "bias_constraint": null, "kernel_initializer": {"config": {"mode": "fan_avg", "distribution": "uniform", "scale": 1.0, "seed": null}, "class_name": "VarianceScaling"}, "kernel_constraint": null, "activation": "relu", "dilation_rate": [1, 1], "strides": [1, 1], "padding": "same", "trainable": true}, "inbound_nodes": [[["mixed0", 0, 0, {}]]]}, {"name": "conv2d_15", "class_name": "Conv2D", "config": {"use_bias": true, "data_format": "channels_last", "filters": 32, "kernel_size": [5, 5], "bias_regularizer": null, "activity_regularizer": null, "kernel_regularizer": null, "bias_initializer": {"config": {}, "class_name": "Zeros"}, "name": "conv2d_15", "bias_constraint": null, "kernel_initializer": {"config": {"mode": "fan_avg", "distribution": "uniform", "scale": 1.0, "seed": null}, "class_name": "VarianceScaling"}, "kernel_constraint": null, "activation": "relu", "dilation_rate": [1, 1], "strides": [1, 1], "padding": "same", "trainable": true}, "inbound_nodes": [[["batch_normalization_14", 0, 0, {}]]]}, {"name": "conv2d_18", "class_name": "Conv2D", "config": {"use_bias": true, "data_format": "channels_last", "filters": 48, "kernel_size": [3, 3], "bias_regularizer": null, "activity_regularizer": null, "kernel_regularizer": null, "bias_initializer": {"config": {}, "class_name": "Zeros"}, "name": "conv2d_18", "bias_constraint": null, "kernel_initializer": {"config": {"mode": "fan_avg", "distribution": "uniform", "scale": 1.0, "seed": null}, "class_name": "VarianceScaling"}, "kernel_constraint": null, "activation": "relu", "dilation_rate": [1, 1], "strides": [1, 1], "padding": "same", "trainable": true}, "inbound_nodes": [[["batch_normalization_17", 0, 0, {}]]]}, {"name": "conv2d_19", "class_name": "Conv2D", "config": {"use_bias": true, "data_format": "channels_last", "filters": 16, "kernel_size": [1, 1], "bias_regularizer": null, "activity_regularizer": null, "kernel_regularizer": null, "bias_initializer": {"config": {}, "class_name": "Zeros"}, "name": "conv2d_19", "bias_constraint": null, "kernel_initializer": {"config": {"mode": "fan_avg", "distribution": "uniform", "scale": 1.0, "seed": null}, "class_name": "VarianceScaling"}, "kernel_constraint": null, "activation": "relu", "dilation_rate": [1, 1], "strides": [1, 1], "padding": "same", "trainable": true}, "inbound_nodes": [[["average_pooling2d_2", 0, 0, {}]]]}, {"name": "batch_normalization_13", "class_name": "BatchNormalization", "config": {"moving_mean_initializer": {"config": {}, "class_name": "Zeros"}, "axis": 3, "beta_regularizer": null, "beta_initializer": {"config": {}, "class_name": "Zeros"}, "beta_constraint": null, "center": true, "momentum": 0.99, "name": "batch_normalization_13", "trainable": true, "moving_variance_initializer": {"config": {}, "class_name": "Ones"}, "gamma_initializer": {"config": {}, "class_name": "Ones"}, "epsilon": 0.001, "gamma_constraint": null, "scale": true, "gamma_regularizer": null}, "inbound_nodes": [[["conv2d_13", 0, 0, {}]]]}, {"name": "batch_normalization_15", "class_name": "BatchNormalization", "config": {"moving_mean_initializer": {"config": {}, "class_name": "Zeros"}, "axis": 3, "beta_regularizer": null, "beta_initializer": {"config": {}, "class_name": "Zeros"}, "beta_constraint": null, "center": true, "momentum": 0.99, "name": "batch_normalization_15", "trainable": true, "moving_variance_initializer": {"config": {}, "class_name": "Ones"}, "gamma_initializer": {"config": {}, "class_name": "Ones"}, "epsilon": 0.001, "gamma_constraint": null, "scale": true, "gamma_regularizer": null}, "inbound_nodes": [[["conv2d_15", 0, 0, {}]]]}, {"name": "batch_normalization_18", "class_name": "BatchNormalization", "config": {"moving_mean_initializer": {"config": {}, "class_name": "Zeros"}, "axis": 3, "beta_regularizer": null, "beta_initializer": {"config": {}, "class_name": "Zeros"}, "beta_constraint": null, "center": true, "momentum": 0.99, "name": "batch_normalization_18", "trainable": true, "moving_variance_initializer": {"config": {}, "class_name": "Ones"}, "gamma_initializer": {"config": {}, "class_name": "Ones"}, "epsilon": 0.001, "gamma_constraint": null, "scale": true, "gamma_regularizer": null}, "inbound_nodes": [[["conv2d_18", 0, 0, {}]]]}, {"name": "batch_normalization_19", "class_name": "BatchNormalization", "config": {"moving_mean_initializer": {"config": {}, "class_name": "Zeros"}, "axis": 3, "beta_regularizer": null, "beta_initializer": {"config": {}, "class_name": "Zeros"}, "beta_constraint": null, "center": true, "momentum": 0.99, "name": "batch_normalization_19", "trainable": true, "moving_variance_initializer": {"config": {}, "class_name": "Ones"}, "gamma_initializer": {"config": {}, "class_name": "Ones"}, "epsilon": 0.001, "gamma_constraint": null, "scale": true, "gamma_regularizer": null}, "inbound_nodes": [[["conv2d_19", 0, 0, {}]]]}, {"name": "mixed1", "class_name": "Concatenate", "config": {"name": "mixed1", "axis": -1, "trainable": true}, "inbound_nodes": [[["batch_normalization_13", 0, 0, {}], ["batch_normalization_15", 0, 0, {}], ["batch_normalization_18", 0, 0, {}], ["batch_normalization_19", 0, 0, {}]]]}, {"name": "conv2d_23", "class_name": "Conv2D", "config": {"use_bias": true, "data_format": "channels_last", "filters": 32, "kernel_size": [1, 1], "bias_regularizer": null, "activity_regularizer": null, "kernel_regularizer": null, "bias_initializer": {"config": {}, "class_name": "Zeros"}, "name": "conv2d_23", "bias_constraint": null, "kernel_initializer": {"config": {"mode": "fan_avg", "distribution": "uniform", "scale": 1.0, "seed": null}, "class_name": "VarianceScaling"}, "kernel_constraint": null, "activation": "relu", "dilation_rate": [1, 1], "strides": [1, 1], "padding": "same", "trainable": true}, "inbound_nodes": [[["mixed1", 0, 0, {}]]]}, {"name": "batch_normalization_23", "class_name": "BatchNormalization", "config": {"moving_mean_initializer": {"config": {}, "class_name": "Zeros"}, "axis": 3, "beta_regularizer": null, "beta_initializer": {"config": {}, "class_name": "Zeros"}, "beta_constraint": null, "center": true, "momentum": 0.99, "name": "batch_normalization_23", "trainable": true, "moving_variance_initializer": {"config": {}, "class_name": "Ones"}, "gamma_initializer": {"config": {}, "class_name": "Ones"}, "epsilon": 0.001, "gamma_constraint": null, "scale": true, "gamma_regularizer": null}, "inbound_nodes": [[["conv2d_23", 0, 0, {}]]]}, {"name": "conv2d_21", "class_name": "Conv2D", "config": {"use_bias": true, "data_format": "channels_last", "filters": 24, "kernel_size": [1, 1], "bias_regularizer": null, "activity_regularizer": null, "kernel_regularizer": null, "bias_initializer": {"config": {}, "class_name": "Zeros"}, "name": "conv2d_21", "bias_constraint": null, "kernel_initializer": {"config": {"mode": "fan_avg", "distribution": "uniform", "scale": 1.0, "seed": null}, "class_name": "VarianceScaling"}, "kernel_constraint": null, "activation": "relu", "dilation_rate": [1, 1], "strides": [1, 1], "padding": "same", "trainable": true}, "inbound_nodes": [[["mixed1", 0, 0, {}]]]}, {"name": "conv2d_24", "class_name": "Conv2D", "config": {"use_bias": true, "data_format": "channels_last", "filters": 48, "kernel_size": [3, 3], "bias_regularizer": null, "activity_regularizer": null, "kernel_regularizer": null, "bias_initializer": {"config": {}, "class_name": "Zeros"}, "name": "conv2d_24", "bias_constraint": null, "kernel_initializer": {"config": {"mode": "fan_avg", "distribution": "uniform", "scale": 1.0, "seed": null}, "class_name": "VarianceScaling"}, "kernel_constraint": null, "activation": "relu", "dilation_rate": [1, 1], "strides": [1, 1], "padding": "same", "trainable": true}, "inbound_nodes": [[["batch_normalization_23", 0, 0, {}]]]}, {"name": "batch_normalization_21", "class_name": "BatchNormalization", "config": {"moving_mean_initializer": {"config": {}, "class_name": "Zeros"}, "axis": 3, "beta_regularizer": null, "beta_initializer": {"config": {}, "class_name": "Zeros"}, "beta_constraint": null, "center": true, "momentum": 0.99, "name": "batch_normalization_21", "trainable": true, "moving_variance_initializer": {"config": {}, "class_name": "Ones"}, "gamma_initializer": {"config": {}, "class_name": "Ones"}, "epsilon": 0.001, "gamma_constraint": null, "scale": true, "gamma_regularizer": null}, "inbound_nodes": [[["conv2d_21", 0, 0, {}]]]}, {"name": "batch_normalization_24", "class_name": "BatchNormalization", "config": {"moving_mean_initializer": {"config": {}, "class_name": "Zeros"}, "axis": 3, "beta_regularizer": null, "beta_initializer": {"config": {}, "class_name": "Zeros"}, "beta_constraint": null, "center": true, "momentum": 0.99, "name": "batch_normalization_24", "trainable": true, "moving_variance_initializer": {"config": {}, "class_name": "Ones"}, "gamma_initializer": {"config": {}, "class_name": "Ones"}, "epsilon": 0.001, "gamma_constraint": null, "scale": true, "gamma_regularizer": null}, "inbound_nodes": [[["conv2d_24", 0, 0, {}]]]}, {"name": "average_pooling2d_3", "class_name": "AveragePooling2D", "config": {"name": "average_pooling2d_3", "strides": [1, 1], "pool_size": [3, 3], "data_format": "channels_last", "trainable": true, "padding": "same"}, "inbound_nodes": [[["mixed1", 0, 0, {}]]]}, {"name": "conv2d_20", "class_name": "Conv2D", "config": {"use_bias": true, "data_format": "channels_last", "filters": 32, "kernel_size": [1, 1], "bias_regularizer": null, "activity_regularizer": null, "kernel_regularizer": null, "bias_initializer": {"config": {}, "class_name": "Zeros"}, "name": "conv2d_20", "bias_constraint": null, "kernel_initializer": {"config": {"mode": "fan_avg", "distribution": "uniform", "scale": 1.0, "seed": null}, "class_name": "VarianceScaling"}, "kernel_constraint": null, "activation": "relu", "dilation_rate": [1, 1], "strides": [1, 1], "padding": "same", "trainable": true}, "inbound_nodes": [[["mixed1", 0, 0, {}]]]}, {"name": "conv2d_22", "class_name": "Conv2D", "config": {"use_bias": true, "data_format": "channels_last", "filters": 32, "kernel_size": [5, 5], "bias_regularizer": null, "activity_regularizer": null, "kernel_regularizer": null, "bias_initializer": {"config": {}, "class_name": "Zeros"}, "name": "conv2d_22", "bias_constraint": null, "kernel_initializer": {"config": {"mode": "fan_avg", "distribution": "uniform", "scale": 1.0, "seed": null}, "class_name": "VarianceScaling"}, "kernel_constraint": null, "activation": "relu", "dilation_rate": [1, 1], "strides": [1, 1], "padding": "same", "trainable": true}, "inbound_nodes": [[["batch_normalization_21", 0, 0, {}]]]}, {"name": "conv2d_25", "class_name": "Conv2D", "config": {"use_bias": true, "data_format": "channels_last", "filters": 48, "kernel_size": [3, 3], "bias_regularizer": null, "activity_regularizer": null, "kernel_regularizer": null, "bias_initializer": {"config": {}, "class_name": "Zeros"}, "name": "conv2d_25", "bias_constraint": null, "kernel_initializer": {"config": {"mode": "fan_avg", "distribution": "uniform", "scale": 1.0, "seed": null}, "class_name": "VarianceScaling"}, "kernel_constraint": null, "activation": "relu", "dilation_rate": [1, 1], "strides": [1, 1], "padding": "same", "trainable": true}, "inbound_nodes": [[["batch_normalization_24", 0, 0, {}]]]}, {"name": "conv2d_26", "class_name": "Conv2D", "config": {"use_bias": true, "data_format": "channels_last", "filters": 16, "kernel_size": [1, 1], "bias_regularizer": null, "activity_regularizer": null, "kernel_regularizer": null, "bias_initializer": {"config": {}, "class_name": "Zeros"}, "name": "conv2d_26", "bias_constraint": null, "kernel_initializer": {"config": {"mode": "fan_avg", "distribution": "uniform", "scale": 1.0, "seed": null}, "class_name": "VarianceScaling"}, "kernel_constraint": null, "activation": "relu", "dilation_rate": [1, 1], "strides": [1, 1], "padding": "same", "trainable": true}, "inbound_nodes": [[["average_pooling2d_3", 0, 0, {}]]]}, {"name": "batch_normalization_20", "class_name": "BatchNormalization", "config": {"moving_mean_initializer": {"config": {}, "class_name": "Zeros"}, "axis": 3, "beta_regularizer": null, "beta_initializer": {"config": {}, "class_name": "Zeros"}, "beta_constraint": null, "center": true, "momentum": 0.99, "name": "batch_normalization_20", "trainable": true, "moving_variance_initializer": {"config": {}, "class_name": "Ones"}, "gamma_initializer": {"config": {}, "class_name": "Ones"}, "epsilon": 0.001, "gamma_constraint": null, "scale": true, "gamma_regularizer": null}, "inbound_nodes": [[["conv2d_20", 0, 0, {}]]]}, {"name": "batch_normalization_22", "class_name": "BatchNormalization", "config": {"moving_mean_initializer": {"config": {}, "class_name": "Zeros"}, "axis": 3, "beta_regularizer": null, "beta_initializer": {"config": {}, "class_name": "Zeros"}, "beta_constraint": null, "center": true, "momentum": 0.99, "name": "batch_normalization_22", "trainable": true, "moving_variance_initializer": {"config": {}, "class_name": "Ones"}, "gamma_initializer": {"config": {}, "class_name": "Ones"}, "epsilon": 0.001, "gamma_constraint": null, "scale": true, "gamma_regularizer": null}, "inbound_nodes": [[["conv2d_22", 0, 0, {}]]]}, {"name": "batch_normalization_25", "class_name": "BatchNormalization", "config": {"moving_mean_initializer": {"config": {}, "class_name": "Zeros"}, "axis": 3, "beta_regularizer": null, "beta_initializer": {"config": {}, "class_name": "Zeros"}, "beta_constraint": null, "center": true, "momentum": 0.99, "name": "batch_normalization_25", "trainable": true, "moving_variance_initializer": {"config": {}, "class_name": "Ones"}, "gamma_initializer": {"config": {}, "class_name": "Ones"}, "epsilon": 0.001, "gamma_constraint": null, "scale": true, "gamma_regularizer": null}, "inbound_nodes": [[["conv2d_25", 0, 0, {}]]]}, {"name": "batch_normalization_26", "class_name": "BatchNormalization", "config": {"moving_mean_initializer": {"config": {}, "class_name": "Zeros"}, "axis": 3, "beta_regularizer": null, "beta_initializer": {"config": {}, "class_name": "Zeros"}, "beta_constraint": null, "center": true, "momentum": 0.99, "name": "batch_normalization_26", "trainable": true, "moving_variance_initializer": {"config": {}, "class_name": "Ones"}, "gamma_initializer": {"config": {}, "class_name": "Ones"}, "epsilon": 0.001, "gamma_constraint": null, "scale": true, "gamma_regularizer": null}, "inbound_nodes": [[["conv2d_26", 0, 0, {}]]]}, {"name": "mixed2", "class_name": "Concatenate", "config": {"name": "mixed2", "axis": -1, "trainable": true}, "inbound_nodes": [[["batch_normalization_20", 0, 0, {}], ["batch_normalization_22", 0, 0, {}], ["batch_normalization_25", 0, 0, {}], ["batch_normalization_26", 0, 0, {}]]]}, {"name": "conv2d_28", "class_name": "Conv2D", "config": {"use_bias": true, "data_format": "channels_last", "filters": 32, "kernel_size": [1, 1], "bias_regularizer": null, "activity_regularizer": null, "kernel_regularizer": null, "bias_initializer": {"config": {}, "class_name": "Zeros"}, "name": "conv2d_28", "bias_constraint": null, "kernel_initializer": {"config": {"mode": "fan_avg", "distribution": "uniform", "scale": 1.0, "seed": null}, "class_name": "VarianceScaling"}, "kernel_constraint": null, "activation": "relu", "dilation_rate": [1, 1], "strides": [1, 1], "padding": "same", "trainable": true}, "inbound_nodes": [[["mixed2", 0, 0, {}]]]}, {"name": "batch_normalization_28", "class_name": "BatchNormalization", "config": {"moving_mean_initializer": {"config": {}, "class_name": "Zeros"}, "axis": 3, "beta_regularizer": null, "beta_initializer": {"config": {}, "class_name": "Zeros"}, "beta_constraint": null, "center": true, "momentum": 0.99, "name": "batch_normalization_28", "trainable": true, "moving_variance_initializer": {"config": {}, "class_name": "Ones"}, "gamma_initializer": {"config": {}, "class_name": "Ones"}, "epsilon": 0.001, "gamma_constraint": null, "scale": true, "gamma_regularizer": null}, "inbound_nodes": [[["conv2d_28", 0, 0, {}]]]}, {"name": "conv2d_29", "class_name": "Conv2D", "config": {"use_bias": true, "data_format": "channels_last", "filters": 48, "kernel_size": [3, 3], "bias_regularizer": null, "activity_regularizer": null, "kernel_regularizer": null, "bias_initializer": {"config": {}, "class_name": "Zeros"}, "name": "conv2d_29", "bias_constraint": null, "kernel_initializer": {"config": {"mode": "fan_avg", "distribution": "uniform", "scale": 1.0, "seed": null}, "class_name": "VarianceScaling"}, "kernel_constraint": null, "activation": "relu", "dilation_rate": [1, 1], "strides": [1, 1], "padding": "same", "trainable": true}, "inbound_nodes": [[["batch_normalization_28", 0, 0, {}]]]}, {"name": "batch_normalization_29", "class_name": "BatchNormalization", "config": {"moving_mean_initializer": {"config": {}, "class_name": "Zeros"}, "axis": 3, "beta_regularizer": null, "beta_initializer": {"config": {}, "class_name": "Zeros"}, "beta_constraint": null, "center": true, "momentum": 0.99, "name": "batch_normalization_29", "trainable": true, "moving_variance_initializer": {"config": {}, "class_name": "Ones"}, "gamma_initializer": {"config": {}, "class_name": "Ones"}, "epsilon": 0.001, "gamma_constraint": null, "scale": true, "gamma_regularizer": null}, "inbound_nodes": [[["conv2d_29", 0, 0, {}]]]}, {"name": "conv2d_27", "class_name": "Conv2D", "config": {"use_bias": true, "data_format": "channels_last", "filters": 192, "kernel_size": [3, 3], "bias_regularizer": null, "activity_regularizer": null, "kernel_regularizer": null, "bias_initializer": {"config": {}, "class_name": "Zeros"}, "name": "conv2d_27", "bias_constraint": null, "kernel_initializer": {"config": {"mode": "fan_avg", "distribution": "uniform", "scale": 1.0, "seed": null}, "class_name": "VarianceScaling"}, "kernel_constraint": null, "activation": "relu", "dilation_rate": [1, 1], "strides": [2, 2], "padding": "valid", "trainable": true}, "inbound_nodes": [[["mixed2", 0, 0, {}]]]}, {"name": "conv2d_30", "class_name": "Conv2D", "config": {"use_bias": true, "data_format": "channels_last", "filters": 48, "kernel_size": [3, 3], "bias_regularizer": null, "activity_regularizer": null, "kernel_regularizer": null, "bias_initializer": {"config": {}, "class_name": "Zeros"}, "name": "conv2d_30", "bias_constraint": null, "kernel_initializer": {"config": {"mode": "fan_avg", "distribution": "uniform", "scale": 1.0, "seed": null}, "class_name": "VarianceScaling"}, "kernel_constraint": null, "activation": "relu", "dilation_rate": [1, 1], "strides": [2, 2], "padding": "valid", "trainable": true}, "inbound_nodes": [[["batch_normalization_29", 0, 0, {}]]]}, {"name": "batch_normalization_27", "class_name": "BatchNormalization", "config": {"moving_mean_initializer": {"config": {}, "class_name": "Zeros"}, "axis": 3, "beta_regularizer": null, "beta_initializer": {"config": {}, "class_name": "Zeros"}, "beta_constraint": null, "center": true, "momentum": 0.99, "name": "batch_normalization_27", "trainable": true, "moving_variance_initializer": {"config": {}, "class_name": "Ones"}, "gamma_initializer": {"config": {}, "class_name": "Ones"}, "epsilon": 0.001, "gamma_constraint": null, "scale": true, "gamma_regularizer": null}, "inbound_nodes": [[["conv2d_27", 0, 0, {}]]]}, {"name": "batch_normalization_30", "class_name": "BatchNormalization", "config": {"moving_mean_initializer": {"config": {}, "class_name": "Zeros"}, "axis": 3, "beta_regularizer": null, "beta_initializer": {"config": {}, "class_name": "Zeros"}, "beta_constraint": null, "center": true, "momentum": 0.99, "name": "batch_normalization_30", "trainable": true, "moving_variance_initializer": {"config": {}, "class_name": "Ones"}, "gamma_initializer": {"config": {}, "class_name": "Ones"}, "epsilon": 0.001, "gamma_constraint": null, "scale": true, "gamma_regularizer": null}, "inbound_nodes": [[["conv2d_30", 0, 0, {}]]]}, {"name": "max_pooling2d_3", "class_name": "MaxPooling2D", "config": {"name": "max_pooling2d_3", "strides": [2, 2], "pool_size": [3, 3], "data_format": "channels_last", "trainable": true, "padding": "valid"}, "inbound_nodes": [[["mixed2", 0, 0, {}]]]}, {"name": "mixed3", "class_name": "Concatenate", "config": {"name": "mixed3", "axis": -1, "trainable": true}, "inbound_nodes": [[["batch_normalization_27", 0, 0, {}], ["batch_normalization_30", 0, 0, {}], ["max_pooling2d_3", 0, 0, {}]]]}, {"name": "conv2d_35", "class_name": "Conv2D", "config": {"use_bias": true, "data_format": "channels_last", "filters": 64, "kernel_size": [1, 1], "bias_regularizer": null, "activity_regularizer": null, "kernel_regularizer": null, "bias_initializer": {"config": {}, "class_name": "Zeros"}, "name": "conv2d_35", "bias_constraint": null, "kernel_initializer": {"config": {"mode": "fan_avg", "distribution": "uniform", "scale": 1.0, "seed": null}, "class_name": "VarianceScaling"}, "kernel_constraint": null, "activation": "relu", "dilation_rate": [1, 1], "strides": [1, 1], "padding": "same", "trainable": true}, "inbound_nodes": [[["mixed3", 0, 0, {}]]]}, {"name": "batch_normalization_35", "class_name": "BatchNormalization", "config": {"moving_mean_initializer": {"config": {}, "class_name": "Zeros"}, "axis": 3, "beta_regularizer": null, "beta_initializer": {"config": {}, "class_name": "Zeros"}, "beta_constraint": null, "center": true, "momentum": 0.99, "name": "batch_normalization_35", "trainable": true, "moving_variance_initializer": {"config": {}, "class_name": "Ones"}, "gamma_initializer": {"config": {}, "class_name": "Ones"}, "epsilon": 0.001, "gamma_constraint": null, "scale": true, "gamma_regularizer": null}, "inbound_nodes": [[["conv2d_35", 0, 0, {}]]]}, {"name": "conv2d_36", "class_name": "Conv2D", "config": {"use_bias": true, "data_format": "channels_last", "filters": 64, "kernel_size": [7, 1], "bias_regularizer": null, "activity_regularizer": null, "kernel_regularizer": null, "bias_initializer": {"config": {}, "class_name": "Zeros"}, "name": "conv2d_36", "bias_constraint": null, "kernel_initializer": {"config": {"mode": "fan_avg", "distribution": "uniform", "scale": 1.0, "seed": null}, "class_name": "VarianceScaling"}, "kernel_constraint": null, "activation": "relu", "dilation_rate": [1, 1], "strides": [1, 1], "padding": "same", "trainable": true}, "inbound_nodes": [[["batch_normalization_35", 0, 0, {}]]]}, {"name": "batch_normalization_36", "class_name": "BatchNormalization", "config": {"moving_mean_initializer": {"config": {}, "class_name": "Zeros"}, "axis": 3, "beta_regularizer": null, "beta_initializer": {"config": {}, "class_name": "Zeros"}, "beta_constraint": null, "center": true, "momentum": 0.99, "name": "batch_normalization_36", "trainable": true, "moving_variance_initializer": {"config": {}, "class_name": "Ones"}, "gamma_initializer": {"config": {}, "class_name": "Ones"}, "epsilon": 0.001, "gamma_constraint": null, "scale": true, "gamma_regularizer": null}, "inbound_nodes": [[["conv2d_36", 0, 0, {}]]]}, {"name": "conv2d_32", "class_name": "Conv2D", "config": {"use_bias": true, "data_format": "channels_last", "filters": 64, "kernel_size": [1, 1], "bias_regularizer": null, "activity_regularizer": null, "kernel_regularizer": null, "bias_initializer": {"config": {}, "class_name": "Zeros"}, "name": "conv2d_32", "bias_constraint": null, "kernel_initializer": {"config": {"mode": "fan_avg", "distribution": "uniform", "scale": 1.0, "seed": null}, "class_name": "VarianceScaling"}, "kernel_constraint": null, "activation": "relu", "dilation_rate": [1, 1], "strides": [1, 1], "padding": "same", "trainable": true}, "inbound_nodes": [[["mixed3", 0, 0, {}]]]}, {"name": "conv2d_37", "class_name": "Conv2D", "config": {"use_bias": true, "data_format": "channels_last", "filters": 64, "kernel_size": [1, 7], "bias_regularizer": null, "activity_regularizer": null, "kernel_regularizer": null, "bias_initializer": {"config": {}, "class_name": "Zeros"}, "name": "conv2d_37", "bias_constraint": null, "kernel_initializer": {"config": {"mode": "fan_avg", "distribution": "uniform", "scale": 1.0, "seed": null}, "class_name": "VarianceScaling"}, "kernel_constraint": null, "activation": "relu", "dilation_rate": [1, 1], "strides": [1, 1], "padding": "same", "trainable": true}, "inbound_nodes": [[["batch_normalization_36", 0, 0, {}]]]}, {"name": "batch_normalization_32", "class_name": "BatchNormalization", "config": {"moving_mean_initializer": {"config": {}, "class_name": "Zeros"}, "axis": 3, "beta_regularizer": null, "beta_initializer": {"config": {}, "class_name": "Zeros"}, "beta_constraint": null, "center": true, "momentum": 0.99, "name": "batch_normalization_32", "trainable": true, "moving_variance_initializer": {"config": {}, "class_name": "Ones"}, "gamma_initializer": {"config": {}, "class_name": "Ones"}, "epsilon": 0.001, "gamma_constraint": null, "scale": true, "gamma_regularizer": null}, "inbound_nodes": [[["conv2d_32", 0, 0, {}]]]}, {"name": "batch_normalization_37", "class_name": "BatchNormalization", "config": {"moving_mean_initializer": {"config": {}, "class_name": "Zeros"}, "axis": 3, "beta_regularizer": null, "beta_initializer": {"config": {}, "class_name": "Zeros"}, "beta_constraint": null, "center": true, "momentum": 0.99, "name": "batch_normalization_37", "trainable": true, "moving_variance_initializer": {"config": {}, "class_name": "Ones"}, "gamma_initializer": {"config": {}, "class_name": "Ones"}, "epsilon": 0.001, "gamma_constraint": null, "scale": true, "gamma_regularizer": null}, "inbound_nodes": [[["conv2d_37", 0, 0, {}]]]}, {"name": "conv2d_33", "class_name": "Conv2D", "config": {"use_bias": true, "data_format": "channels_last", "filters": 64, "kernel_size": [1, 7], "bias_regularizer": null, "activity_regularizer": null, "kernel_regularizer": null, "bias_initializer": {"config": {}, "class_name": "Zeros"}, "name": "conv2d_33", "bias_constraint": null, "kernel_initializer": {"config": {"mode": "fan_avg", "distribution": "uniform", "scale": 1.0, "seed": null}, "class_name": "VarianceScaling"}, "kernel_constraint": null, "activation": "relu", "dilation_rate": [1, 1], "strides": [1, 1], "padding": "same", "trainable": true}, "inbound_nodes": [[["batch_normalization_32", 0, 0, {}]]]}, {"name": "conv2d_38", "class_name": "Conv2D", "config": {"use_bias": true, "data_format": "channels_last", "filters": 64, "kernel_size": [7, 1], "bias_regularizer": null, "activity_regularizer": null, "kernel_regularizer": null, "bias_initializer": {"config": {}, "class_name": "Zeros"}, "name": "conv2d_38", "bias_constraint": null, "kernel_initializer": {"config": {"mode": "fan_avg", "distribution": "uniform", "scale": 1.0, "seed": null}, "class_name": "VarianceScaling"}, "kernel_constraint": null, "activation": "relu", "dilation_rate": [1, 1], "strides": [1, 1], "padding": "same", "trainable": true}, "inbound_nodes": [[["batch_normalization_37", 0, 0, {}]]]}, {"name": "batch_normalization_33", "class_name": "BatchNormalization", "config": {"moving_mean_initializer": {"config": {}, "class_name": "Zeros"}, "axis": 3, "beta_regularizer": null, "beta_initializer": {"config": {}, "class_name": "Zeros"}, "beta_constraint": null, "center": true, "momentum": 0.99, "name": "batch_normalization_33", "trainable": true, "moving_variance_initializer": {"config": {}, "class_name": "Ones"}, "gamma_initializer": {"config": {}, "class_name": "Ones"}, "epsilon": 0.001, "gamma_constraint": null, "scale": true, "gamma_regularizer": null}, "inbound_nodes": [[["conv2d_33", 0, 0, {}]]]}, {"name": "batch_normalization_38", "class_name": "BatchNormalization", "config": {"moving_mean_initializer": {"config": {}, "class_name": "Zeros"}, "axis": 3, "beta_regularizer": null, "beta_initializer": {"config": {}, "class_name": "Zeros"}, "beta_constraint": null, "center": true, "momentum": 0.99, "name": "batch_normalization_38", "trainable": true, "moving_variance_initializer": {"config": {}, "class_name": "Ones"}, "gamma_initializer": {"config": {}, "class_name": "Ones"}, "epsilon": 0.001, "gamma_constraint": null, "scale": true, "gamma_regularizer": null}, "inbound_nodes": [[["conv2d_38", 0, 0, {}]]]}, {"name": "average_pooling2d_4", "class_name": "AveragePooling2D", "config": {"name": "average_pooling2d_4", "strides": [1, 1], "pool_size": [3, 3], "data_format": "channels_last", "trainable": true, "padding": "same"}, "inbound_nodes": [[["mixed3", 0, 0, {}]]]}, {"name": "conv2d_31", "class_name": "Conv2D", "config": {"use_bias": true, "data_format": "channels_last", "filters": 96, "kernel_size": [1, 1], "bias_regularizer": null, "activity_regularizer": null, "kernel_regularizer": null, "bias_initializer": {"config": {}, "class_name": "Zeros"}, "name": "conv2d_31", "bias_constraint": null, "kernel_initializer": {"config": {"mode": "fan_avg", "distribution": "uniform", "scale": 1.0, "seed": null}, "class_name": "VarianceScaling"}, "kernel_constraint": null, "activation": "relu", "dilation_rate": [1, 1], "strides": [1, 1], "padding": "same", "trainable": true}, "inbound_nodes": [[["mixed3", 0, 0, {}]]]}, {"name": "conv2d_34", "class_name": "Conv2D", "config": {"use_bias": true, "data_format": "channels_last", "filters": 96, "kernel_size": [7, 1], "bias_regularizer": null, "activity_regularizer": null, "kernel_regularizer": null, "bias_initializer": {"config": {}, "class_name": "Zeros"}, "name": "conv2d_34", "bias_constraint": null, "kernel_initializer": {"config": {"mode": "fan_avg", "distribution": "uniform", "scale": 1.0, "seed": null}, "class_name": "VarianceScaling"}, "kernel_constraint": null, "activation": "relu", "dilation_rate": [1, 1], "strides": [1, 1], "padding": "same", "trainable": true}, "inbound_nodes": [[["batch_normalization_33", 0, 0, {}]]]}, {"name": "conv2d_39", "class_name": "Conv2D", "config": {"use_bias": true, "data_format": "channels_last", "filters": 96, "kernel_size": [1, 7], "bias_regularizer": null, "activity_regularizer": null, "kernel_regularizer": null, "bias_initializer": {"config": {}, "class_name": "Zeros"}, "name": "conv2d_39", "bias_constraint": null, "kernel_initializer": {"config": {"mode": "fan_avg", "distribution": "uniform", "scale": 1.0, "seed": null}, "class_name": "VarianceScaling"}, "kernel_constraint": null, "activation": "relu", "dilation_rate": [1, 1], "strides": [1, 1], "padding": "same", "trainable": true}, "inbound_nodes": [[["batch_normalization_38", 0, 0, {}]]]}, {"name": "conv2d_40", "class_name": "Conv2D", "config": {"use_bias": true, "data_format": "channels_last", "filters": 96, "kernel_size": [1, 1], "bias_regularizer": null, "activity_regularizer": null, "kernel_regularizer": null, "bias_initializer": {"config": {}, "class_name": "Zeros"}, "name": "conv2d_40", "bias_constraint": null, "kernel_initializer": {"config": {"mode": "fan_avg", "distribution": "uniform", "scale": 1.0, "seed": null}, "class_name": "VarianceScaling"}, "kernel_constraint": null, "activation": "relu", "dilation_rate": [1, 1], "strides": [1, 1], "padding": "same", "trainable": true}, "inbound_nodes": [[["average_pooling2d_4", 0, 0, {}]]]}, {"name": "batch_normalization_31", "class_name": "BatchNormalization", "config": {"moving_mean_initializer": {"config": {}, "class_name": "Zeros"}, "axis": 3, "beta_regularizer": null, "beta_initializer": {"config": {}, "class_name": "Zeros"}, "beta_constraint": null, "center": true, "momentum": 0.99, "name": "batch_normalization_31", "trainable": true, "moving_variance_initializer": {"config": {}, "class_name": "Ones"}, "gamma_initializer": {"config": {}, "class_name": "Ones"}, "epsilon": 0.001, "gamma_constraint": null, "scale": true, "gamma_regularizer": null}, "inbound_nodes": [[["conv2d_31", 0, 0, {}]]]}, {"name": "batch_normalization_34", "class_name": "BatchNormalization", "config": {"moving_mean_initializer": {"config": {}, "class_name": "Zeros"}, "axis": 3, "beta_regularizer": null, "beta_initializer": {"config": {}, "class_name": "Zeros"}, "beta_constraint": null, "center": true, "momentum": 0.99, "name": "batch_normalization_34", "trainable": true, "moving_variance_initializer": {"config": {}, "class_name": "Ones"}, "gamma_initializer": {"config": {}, "class_name": "Ones"}, "epsilon": 0.001, "gamma_constraint": null, "scale": true, "gamma_regularizer": null}, "inbound_nodes": [[["conv2d_34", 0, 0, {}]]]}, {"name": "batch_normalization_39", "class_name": "BatchNormalization", "config": {"moving_mean_initializer": {"config": {}, "class_name": "Zeros"}, "axis": 3, "beta_regularizer": null, "beta_initializer": {"config": {}, "class_name": "Zeros"}, "beta_constraint": null, "center": true, "momentum": 0.99, "name": "batch_normalization_39", "trainable": true, "moving_variance_initializer": {"config": {}, "class_name": "Ones"}, "gamma_initializer": {"config": {}, "class_name": "Ones"}, "epsilon": 0.001, "gamma_constraint": null, "scale": true, "gamma_regularizer": null}, "inbound_nodes": [[["conv2d_39", 0, 0, {}]]]}, {"name": "batch_normalization_40", "class_name": "BatchNormalization", "config": {"moving_mean_initializer": {"config": {}, "class_name": "Zeros"}, "axis": 3, "beta_regularizer": null, "beta_initializer": {"config": {}, "class_name": "Zeros"}, "beta_constraint": null, "center": true, "momentum": 0.99, "name": "batch_normalization_40", "trainable": true, "moving_variance_initializer": {"config": {}, "class_name": "Ones"}, "gamma_initializer": {"config": {}, "class_name": "Ones"}, "epsilon": 0.001, "gamma_constraint": null, "scale": true, "gamma_regularizer": null}, "inbound_nodes": [[["conv2d_40", 0, 0, {}]]]}, {"name": "mixed4", "class_name": "Concatenate", "config": {"name": "mixed4", "axis": -1, "trainable": true}, "inbound_nodes": [[["batch_normalization_31", 0, 0, {}], ["batch_normalization_34", 0, 0, {}], ["batch_normalization_39", 0, 0, {}], ["batch_normalization_40", 0, 0, {}]]]}, {"name": "conv2d_45", "class_name": "Conv2D", "config": {"use_bias": true, "data_format": "channels_last", "filters": 80, "kernel_size": [1, 1], "bias_regularizer": null, "activity_regularizer": null, "kernel_regularizer": null, "bias_initializer": {"config": {}, "class_name": "Zeros"}, "name": "conv2d_45", "bias_constraint": null, "kernel_initializer": {"config": {"mode": "fan_avg", "distribution": "uniform", "scale": 1.0, "seed": null}, "class_name": "VarianceScaling"}, "kernel_constraint": null, "activation": "relu", "dilation_rate": [1, 1], "strides": [1, 1], "padding": "same", "trainable": true}, "inbound_nodes": [[["mixed4", 0, 0, {}]]]}, {"name": "batch_normalization_45", "class_name": "BatchNormalization", "config": {"moving_mean_initializer": {"config": {}, "class_name": "Zeros"}, "axis": 3, "beta_regularizer": null, "beta_initializer": {"config": {}, "class_name": "Zeros"}, "beta_constraint": null, "center": true, "momentum": 0.99, "name": "batch_normalization_45", "trainable": true, "moving_variance_initializer": {"config": {}, "class_name": "Ones"}, "gamma_initializer": {"config": {}, "class_name": "Ones"}, "epsilon": 0.001, "gamma_constraint": null, "scale": true, "gamma_regularizer": null}, "inbound_nodes": [[["conv2d_45", 0, 0, {}]]]}, {"name": "conv2d_46", "class_name": "Conv2D", "config": {"use_bias": true, "data_format": "channels_last", "filters": 80, "kernel_size": [7, 1], "bias_regularizer": null, "activity_regularizer": null, "kernel_regularizer": null, "bias_initializer": {"config": {}, "class_name": "Zeros"}, "name": "conv2d_46", "bias_constraint": null, "kernel_initializer": {"config": {"mode": "fan_avg", "distribution": "uniform", "scale": 1.0, "seed": null}, "class_name": "VarianceScaling"}, "kernel_constraint": null, "activation": "relu", "dilation_rate": [1, 1], "strides": [1, 1], "padding": "same", "trainable": true}, "inbound_nodes": [[["batch_normalization_45", 0, 0, {}]]]}, {"name": "batch_normalization_46", "class_name": "BatchNormalization", "config": {"moving_mean_initializer": {"config": {}, "class_name": "Zeros"}, "axis": 3, "beta_regularizer": null, "beta_initializer": {"config": {}, "class_name": "Zeros"}, "beta_constraint": null, "center": true, "momentum": 0.99, "name": "batch_normalization_46", "trainable": true, "moving_variance_initializer": {"config": {}, "class_name": "Ones"}, "gamma_initializer": {"config": {}, "class_name": "Ones"}, "epsilon": 0.001, "gamma_constraint": null, "scale": true, "gamma_regularizer": null}, "inbound_nodes": [[["conv2d_46", 0, 0, {}]]]}, {"name": "conv2d_42", "class_name": "Conv2D", "config": {"use_bias": true, "data_format": "channels_last", "filters": 80, "kernel_size": [1, 1], "bias_regularizer": null, "activity_regularizer": null, "kernel_regularizer": null, "bias_initializer": {"config": {}, "class_name": "Zeros"}, "name": "conv2d_42", "bias_constraint": null, "kernel_initializer": {"config": {"mode": "fan_avg", "distribution": "uniform", "scale": 1.0, "seed": null}, "class_name": "VarianceScaling"}, "kernel_constraint": null, "activation": "relu", "dilation_rate": [1, 1], "strides": [1, 1], "padding": "same", "trainable": true}, "inbound_nodes": [[["mixed4", 0, 0, {}]]]}, {"name": "conv2d_47", "class_name": "Conv2D", "config": {"use_bias": true, "data_format": "channels_last", "filters": 80, "kernel_size": [1, 7], "bias_regularizer": null, "activity_regularizer": null, "kernel_regularizer": null, "bias_initializer": {"config": {}, "class_name": "Zeros"}, "name": "conv2d_47", "bias_constraint": null, "kernel_initializer": {"config": {"mode": "fan_avg", "distribution": "uniform", "scale": 1.0, "seed": null}, "class_name": "VarianceScaling"}, "kernel_constraint": null, "activation": "relu", "dilation_rate": [1, 1], "strides": [1, 1], "padding": "same", "trainable": true}, "inbound_nodes": [[["batch_normalization_46", 0, 0, {}]]]}, {"name": "batch_normalization_42", "class_name": "BatchNormalization", "config": {"moving_mean_initializer": {"config": {}, "class_name": "Zeros"}, "axis": 3, "beta_regularizer": null, "beta_initializer": {"config": {}, "class_name": "Zeros"}, "beta_constraint": null, "center": true, "momentum": 0.99, "name": "batch_normalization_42", "trainable": true, "moving_variance_initializer": {"config": {}, "class_name": "Ones"}, "gamma_initializer": {"config": {}, "class_name": "Ones"}, "epsilon": 0.001, "gamma_constraint": null, "scale": true, "gamma_regularizer": null}, "inbound_nodes": [[["conv2d_42", 0, 0, {}]]]}, {"name": "batch_normalization_47", "class_name": "BatchNormalization", "config": {"moving_mean_initializer": {"config": {}, "class_name": "Zeros"}, "axis": 3, "beta_regularizer": null, "beta_initializer": {"config": {}, "class_name": "Zeros"}, "beta_constraint": null, "center": true, "momentum": 0.99, "name": "batch_normalization_47", "trainable": true, "moving_variance_initializer": {"config": {}, "class_name": "Ones"}, "gamma_initializer": {"config": {}, "class_name": "Ones"}, "epsilon": 0.001, "gamma_constraint": null, "scale": true, "gamma_regularizer": null}, "inbound_nodes": [[["conv2d_47", 0, 0, {}]]]}, {"name": "conv2d_43", "class_name": "Conv2D", "config": {"use_bias": true, "data_format": "channels_last", "filters": 80, "kernel_size": [1, 7], "bias_regularizer": null, "activity_regularizer": null, "kernel_regularizer": null, "bias_initializer": {"config": {}, "class_name": "Zeros"}, "name": "conv2d_43", "bias_constraint": null, "kernel_initializer": {"config": {"mode": "fan_avg", "distribution": "uniform", "scale": 1.0, "seed": null}, "class_name": "VarianceScaling"}, "kernel_constraint": null, "activation": "relu", "dilation_rate": [1, 1], "strides": [1, 1], "padding": "same", "trainable": true}, "inbound_nodes": [[["batch_normalization_42", 0, 0, {}]]]}, {"name": "conv2d_48", "class_name": "Conv2D", "config": {"use_bias": true, "data_format": "channels_last", "filters": 80, "kernel_size": [7, 1], "bias_regularizer": null, "activity_regularizer": null, "kernel_regularizer": null, "bias_initializer": {"config": {}, "class_name": "Zeros"}, "name": "conv2d_48", "bias_constraint": null, "kernel_initializer": {"config": {"mode": "fan_avg", "distribution": "uniform", "scale": 1.0, "seed": null}, "class_name": "VarianceScaling"}, "kernel_constraint": null, "activation": "relu", "dilation_rate": [1, 1], "strides": [1, 1], "padding": "same", "trainable": true}, "inbound_nodes": [[["batch_normalization_47", 0, 0, {}]]]}, {"name": "batch_normalization_43", "class_name": "BatchNormalization", "config": {"moving_mean_initializer": {"config": {}, "class_name": "Zeros"}, "axis": 3, "beta_regularizer": null, "beta_initializer": {"config": {}, "class_name": "Zeros"}, "beta_constraint": null, "center": true, "momentum": 0.99, "name": "batch_normalization_43", "trainable": true, "moving_variance_initializer": {"config": {}, "class_name": "Ones"}, "gamma_initializer": {"config": {}, "class_name": "Ones"}, "epsilon": 0.001, "gamma_constraint": null, "scale": true, "gamma_regularizer": null}, "inbound_nodes": [[["conv2d_43", 0, 0, {}]]]}, {"name": "batch_normalization_48", "class_name": "BatchNormalization", "config": {"moving_mean_initializer": {"config": {}, "class_name": "Zeros"}, "axis": 3, "beta_regularizer": null, "beta_initializer": {"config": {}, "class_name": "Zeros"}, "beta_constraint": null, "center": true, "momentum": 0.99, "name": "batch_normalization_48", "trainable": true, "moving_variance_initializer": {"config": {}, "class_name": "Ones"}, "gamma_initializer": {"config": {}, "class_name": "Ones"}, "epsilon": 0.001, "gamma_constraint": null, "scale": true, "gamma_regularizer": null}, "inbound_nodes": [[["conv2d_48", 0, 0, {}]]]}, {"name": "average_pooling2d_5", "class_name": "AveragePooling2D", "config": {"name": "average_pooling2d_5", "strides": [1, 1], "pool_size": [3, 3], "data_format": "channels_last", "trainable": true, "padding": "same"}, "inbound_nodes": [[["mixed4", 0, 0, {}]]]}, {"name": "conv2d_41", "class_name": "Conv2D", "config": {"use_bias": true, "data_format": "channels_last", "filters": 96, "kernel_size": [1, 1], "bias_regularizer": null, "activity_regularizer": null, "kernel_regularizer": null, "bias_initializer": {"config": {}, "class_name": "Zeros"}, "name": "conv2d_41", "bias_constraint": null, "kernel_initializer": {"config": {"mode": "fan_avg", "distribution": "uniform", "scale": 1.0, "seed": null}, "class_name": "VarianceScaling"}, "kernel_constraint": null, "activation": "relu", "dilation_rate": [1, 1], "strides": [1, 1], "padding": "same", "trainable": true}, "inbound_nodes": [[["mixed4", 0, 0, {}]]]}, {"name": "conv2d_44", "class_name": "Conv2D", "config": {"use_bias": true, "data_format": "channels_last", "filters": 96, "kernel_size": [7, 1], "bias_regularizer": null, "activity_regularizer": null, "kernel_regularizer": null, "bias_initializer": {"config": {}, "class_name": "Zeros"}, "name": "conv2d_44", "bias_constraint": null, "kernel_initializer": {"config": {"mode": "fan_avg", "distribution": "uniform", "scale": 1.0, "seed": null}, "class_name": "VarianceScaling"}, "kernel_constraint": null, "activation": "relu", "dilation_rate": [1, 1], "strides": [1, 1], "padding": "same", "trainable": true}, "inbound_nodes": [[["batch_normalization_43", 0, 0, {}]]]}, {"name": "conv2d_49", "class_name": "Conv2D", "config": {"use_bias": true, "data_format": "channels_last", "filters": 96, "kernel_size": [1, 7], "bias_regularizer": null, "activity_regularizer": null, "kernel_regularizer": null, "bias_initializer": {"config": {}, "class_name": "Zeros"}, "name": "conv2d_49", "bias_constraint": null, "kernel_initializer": {"config": {"mode": "fan_avg", "distribution": "uniform", "scale": 1.0, "seed": null}, "class_name": "VarianceScaling"}, "kernel_constraint": null, "activation": "relu", "dilation_rate": [1, 1], "strides": [1, 1], "padding": "same", "trainable": true}, "inbound_nodes": [[["batch_normalization_48", 0, 0, {}]]]}, {"name": "conv2d_50", "class_name": "Conv2D", "config": {"use_bias": true, "data_format": "channels_last", "filters": 96, "kernel_size": [1, 1], "bias_regularizer": null, "activity_regularizer": null, "kernel_regularizer": null, "bias_initializer": {"config": {}, "class_name": "Zeros"}, "name": "conv2d_50", "bias_constraint": null, "kernel_initializer": {"config": {"mode": "fan_avg", "distribution": "uniform", "scale": 1.0, "seed": null}, "class_name": "VarianceScaling"}, "kernel_constraint": null, "activation": "relu", "dilation_rate": [1, 1], "strides": [1, 1], "padding": "same", "trainable": true}, "inbound_nodes": [[["average_pooling2d_5", 0, 0, {}]]]}, {"name": "batch_normalization_41", "class_name": "BatchNormalization", "config": {"moving_mean_initializer": {"config": {}, "class_name": "Zeros"}, "axis": 3, "beta_regularizer": null, "beta_initializer": {"config": {}, "class_name": "Zeros"}, "beta_constraint": null, "center": true, "momentum": 0.99, "name": "batch_normalization_41", "trainable": true, "moving_variance_initializer": {"config": {}, "class_name": "Ones"}, "gamma_initializer": {"config": {}, "class_name": "Ones"}, "epsilon": 0.001, "gamma_constraint": null, "scale": true, "gamma_regularizer": null}, "inbound_nodes": [[["conv2d_41", 0, 0, {}]]]}, {"name": "batch_normalization_44", "class_name": "BatchNormalization", "config": {"moving_mean_initializer": {"config": {}, "class_name": "Zeros"}, "axis": 3, "beta_regularizer": null, "beta_initializer": {"config": {}, "class_name": "Zeros"}, "beta_constraint": null, "center": true, "momentum": 0.99, "name": "batch_normalization_44", "trainable": true, "moving_variance_initializer": {"config": {}, "class_name": "Ones"}, "gamma_initializer": {"config": {}, "class_name": "Ones"}, "epsilon": 0.001, "gamma_constraint": null, "scale": true, "gamma_regularizer": null}, "inbound_nodes": [[["conv2d_44", 0, 0, {}]]]}, {"name": "batch_normalization_49", "class_name": "BatchNormalization", "config": {"moving_mean_initializer": {"config": {}, "class_name": "Zeros"}, "axis": 3, "beta_regularizer": null, "beta_initializer": {"config": {}, "class_name": "Zeros"}, "beta_constraint": null, "center": true, "momentum": 0.99, "name": "batch_normalization_49", "trainable": true, "moving_variance_initializer": {"config": {}, "class_name": "Ones"}, "gamma_initializer": {"config": {}, "class_name": "Ones"}, "epsilon": 0.001, "gamma_constraint": null, "scale": true, "gamma_regularizer": null}, "inbound_nodes": [[["conv2d_49", 0, 0, {}]]]}, {"name": "batch_normalization_50", "class_name": "BatchNormalization", "config": {"moving_mean_initializer": {"config": {}, "class_name": "Zeros"}, "axis": 3, "beta_regularizer": null, "beta_initializer": {"config": {}, "class_name": "Zeros"}, "beta_constraint": null, "center": true, "momentum": 0.99, "name": "batch_normalization_50", "trainable": true, "moving_variance_initializer": {"config": {}, "class_name": "Ones"}, "gamma_initializer": {"config": {}, "class_name": "Ones"}, "epsilon": 0.001, "gamma_constraint": null, "scale": true, "gamma_regularizer": null}, "inbound_nodes": [[["conv2d_50", 0, 0, {}]]]}, {"name": "mixed5", "class_name": "Concatenate", "config": {"name": "mixed5", "axis": -1, "trainable": true}, "inbound_nodes": [[["batch_normalization_41", 0, 0, {}], ["batch_normalization_44", 0, 0, {}], ["batch_normalization_49", 0, 0, {}], ["batch_normalization_50", 0, 0, {}]]]}, {"name": "conv2d_55", "class_name": "Conv2D", "config": {"use_bias": true, "data_format": "channels_last", "filters": 80, "kernel_size": [1, 1], "bias_regularizer": null, "activity_regularizer": null, "kernel_regularizer": null, "bias_initializer": {"config": {}, "class_name": "Zeros"}, "name": "conv2d_55", "bias_constraint": null, "kernel_initializer": {"config": {"mode": "fan_avg", "distribution": "uniform", "scale": 1.0, "seed": null}, "class_name": "VarianceScaling"}, "kernel_constraint": null, "activation": "relu", "dilation_rate": [1, 1], "strides": [1, 1], "padding": "same", "trainable": true}, "inbound_nodes": [[["mixed5", 0, 0, {}]]]}, {"name": "batch_normalization_55", "class_name": "BatchNormalization", "config": {"moving_mean_initializer": {"config": {}, "class_name": "Zeros"}, "axis": 3, "beta_regularizer": null, "beta_initializer": {"config": {}, "class_name": "Zeros"}, "beta_constraint": null, "center": true, "momentum": 0.99, "name": "batch_normalization_55", "trainable": true, "moving_variance_initializer": {"config": {}, "class_name": "Ones"}, "gamma_initializer": {"config": {}, "class_name": "Ones"}, "epsilon": 0.001, "gamma_constraint": null, "scale": true, "gamma_regularizer": null}, "inbound_nodes": [[["conv2d_55", 0, 0, {}]]]}, {"name": "conv2d_56", "class_name": "Conv2D", "config": {"use_bias": true, "data_format": "channels_last", "filters": 80, "kernel_size": [7, 1], "bias_regularizer": null, "activity_regularizer": null, "kernel_regularizer": null, "bias_initializer": {"config": {}, "class_name": "Zeros"}, "name": "conv2d_56", "bias_constraint": null, "kernel_initializer": {"config": {"mode": "fan_avg", "distribution": "uniform", "scale": 1.0, "seed": null}, "class_name": "VarianceScaling"}, "kernel_constraint": null, "activation": "relu", "dilation_rate": [1, 1], "strides": [1, 1], "padding": "same", "trainable": true}, "inbound_nodes": [[["batch_normalization_55", 0, 0, {}]]]}, {"name": "batch_normalization_56", "class_name": "BatchNormalization", "config": {"moving_mean_initializer": {"config": {}, "class_name": "Zeros"}, "axis": 3, "beta_regularizer": null, "beta_initializer": {"config": {}, "class_name": "Zeros"}, "beta_constraint": null, "center": true, "momentum": 0.99, "name": "batch_normalization_56", "trainable": true, "moving_variance_initializer": {"config": {}, "class_name": "Ones"}, "gamma_initializer": {"config": {}, "class_name": "Ones"}, "epsilon": 0.001, "gamma_constraint": null, "scale": true, "gamma_regularizer": null}, "inbound_nodes": [[["conv2d_56", 0, 0, {}]]]}, {"name": "conv2d_52", "class_name": "Conv2D", "config": {"use_bias": true, "data_format": "channels_last", "filters": 80, "kernel_size": [1, 1], "bias_regularizer": null, "activity_regularizer": null, "kernel_regularizer": null, "bias_initializer": {"config": {}, "class_name": "Zeros"}, "name": "conv2d_52", "bias_constraint": null, "kernel_initializer": {"config": {"mode": "fan_avg", "distribution": "uniform", "scale": 1.0, "seed": null}, "class_name": "VarianceScaling"}, "kernel_constraint": null, "activation": "relu", "dilation_rate": [1, 1], "strides": [1, 1], "padding": "same", "trainable": true}, "inbound_nodes": [[["mixed5", 0, 0, {}]]]}, {"name": "conv2d_57", "class_name": "Conv2D", "config": {"use_bias": true, "data_format": "channels_last", "filters": 80, "kernel_size": [1, 7], "bias_regularizer": null, "activity_regularizer": null, "kernel_regularizer": null, "bias_initializer": {"config": {}, "class_name": "Zeros"}, "name": "conv2d_57", "bias_constraint": null, "kernel_initializer": {"config": {"mode": "fan_avg", "distribution": "uniform", "scale": 1.0, "seed": null}, "class_name": "VarianceScaling"}, "kernel_constraint": null, "activation": "relu", "dilation_rate": [1, 1], "strides": [1, 1], "padding": "same", "trainable": true}, "inbound_nodes": [[["batch_normalization_56", 0, 0, {}]]]}, {"name": "batch_normalization_52", "class_name": "BatchNormalization", "config": {"moving_mean_initializer": {"config": {}, "class_name": "Zeros"}, "axis": 3, "beta_regularizer": null, "beta_initializer": {"config": {}, "class_name": "Zeros"}, "beta_constraint": null, "center": true, "momentum": 0.99, "name": "batch_normalization_52", "trainable": true, "moving_variance_initializer": {"config": {}, "class_name": "Ones"}, "gamma_initializer": {"config": {}, "class_name": "Ones"}, "epsilon": 0.001, "gamma_constraint": null, "scale": true, "gamma_regularizer": null}, "inbound_nodes": [[["conv2d_52", 0, 0, {}]]]}, {"name": "batch_normalization_57", "class_name": "BatchNormalization", "config": {"moving_mean_initializer": {"config": {}, "class_name": "Zeros"}, "axis": 3, "beta_regularizer": null, "beta_initializer": {"config": {}, "class_name": "Zeros"}, "beta_constraint": null, "center": true, "momentum": 0.99, "name": "batch_normalization_57", "trainable": true, "moving_variance_initializer": {"config": {}, "class_name": "Ones"}, "gamma_initializer": {"config": {}, "class_name": "Ones"}, "epsilon": 0.001, "gamma_constraint": null, "scale": true, "gamma_regularizer": null}, "inbound_nodes": [[["conv2d_57", 0, 0, {}]]]}, {"name": "conv2d_53", "class_name": "Conv2D", "config": {"use_bias": true, "data_format": "channels_last", "filters": 80, "kernel_size": [1, 7], "bias_regularizer": null, "activity_regularizer": null, "kernel_regularizer": null, "bias_initializer": {"config": {}, "class_name": "Zeros"}, "name": "conv2d_53", "bias_constraint": null, "kernel_initializer": {"config": {"mode": "fan_avg", "distribution": "uniform", "scale": 1.0, "seed": null}, "class_name": "VarianceScaling"}, "kernel_constraint": null, "activation": "relu", "dilation_rate": [1, 1], "strides": [1, 1], "padding": "same", "trainable": true}, "inbound_nodes": [[["batch_normalization_52", 0, 0, {}]]]}, {"name": "conv2d_58", "class_name": "Conv2D", "config": {"use_bias": true, "data_format": "channels_last", "filters": 80, "kernel_size": [7, 1], "bias_regularizer": null, "activity_regularizer": null, "kernel_regularizer": null, "bias_initializer": {"config": {}, "class_name": "Zeros"}, "name": "conv2d_58", "bias_constraint": null, "kernel_initializer": {"config": {"mode": "fan_avg", "distribution": "uniform", "scale": 1.0, "seed": null}, "class_name": "VarianceScaling"}, "kernel_constraint": null, "activation": "relu", "dilation_rate": [1, 1], "strides": [1, 1], "padding": "same", "trainable": true}, "inbound_nodes": [[["batch_normalization_57", 0, 0, {}]]]}, {"name": "batch_normalization_53", "class_name": "BatchNormalization", "config": {"moving_mean_initializer": {"config": {}, "class_name": "Zeros"}, "axis": 3, "beta_regularizer": null, "beta_initializer": {"config": {}, "class_name": "Zeros"}, "beta_constraint": null, "center": true, "momentum": 0.99, "name": "batch_normalization_53", "trainable": true, "moving_variance_initializer": {"config": {}, "class_name": "Ones"}, "gamma_initializer": {"config": {}, "class_name": "Ones"}, "epsilon": 0.001, "gamma_constraint": null, "scale": true, "gamma_regularizer": null}, "inbound_nodes": [[["conv2d_53", 0, 0, {}]]]}, {"name": "batch_normalization_58", "class_name": "BatchNormalization", "config": {"moving_mean_initializer": {"config": {}, "class_name": "Zeros"}, "axis": 3, "beta_regularizer": null, "beta_initializer": {"config": {}, "class_name": "Zeros"}, "beta_constraint": null, "center": true, "momentum": 0.99, "name": "batch_normalization_58", "trainable": true, "moving_variance_initializer": {"config": {}, "class_name": "Ones"}, "gamma_initializer": {"config": {}, "class_name": "Ones"}, "epsilon": 0.001, "gamma_constraint": null, "scale": true, "gamma_regularizer": null}, "inbound_nodes": [[["conv2d_58", 0, 0, {}]]]}, {"name": "average_pooling2d_6", "class_name": "AveragePooling2D", "config": {"name": "average_pooling2d_6", "strides": [1, 1], "pool_size": [3, 3], "data_format": "channels_last", "trainable": true, "padding": "same"}, "inbound_nodes": [[["mixed5", 0, 0, {}]]]}, {"name": "conv2d_51", "class_name": "Conv2D", "config": {"use_bias": true, "data_format": "channels_last", "filters": 96, "kernel_size": [1, 1], "bias_regularizer": null, "activity_regularizer": null, "kernel_regularizer": null, "bias_initializer": {"config": {}, "class_name": "Zeros"}, "name": "conv2d_51", "bias_constraint": null, "kernel_initializer": {"config": {"mode": "fan_avg", "distribution": "uniform", "scale": 1.0, "seed": null}, "class_name": "VarianceScaling"}, "kernel_constraint": null, "activation": "relu", "dilation_rate": [1, 1], "strides": [1, 1], "padding": "same", "trainable": true}, "inbound_nodes": [[["mixed5", 0, 0, {}]]]}, {"name": "conv2d_54", "class_name": "Conv2D", "config": {"use_bias": true, "data_format": "channels_last", "filters": 96, "kernel_size": [7, 1], "bias_regularizer": null, "activity_regularizer": null, "kernel_regularizer": null, "bias_initializer": {"config": {}, "class_name": "Zeros"}, "name": "conv2d_54", "bias_constraint": null, "kernel_initializer": {"config": {"mode": "fan_avg", "distribution": "uniform", "scale": 1.0, "seed": null}, "class_name": "VarianceScaling"}, "kernel_constraint": null, "activation": "relu", "dilation_rate": [1, 1], "strides": [1, 1], "padding": "same", "trainable": true}, "inbound_nodes": [[["batch_normalization_53", 0, 0, {}]]]}, {"name": "conv2d_59", "class_name": "Conv2D", "config": {"use_bias": true, "data_format": "channels_last", "filters": 96, "kernel_size": [1, 7], "bias_regularizer": null, "activity_regularizer": null, "kernel_regularizer": null, "bias_initializer": {"config": {}, "class_name": "Zeros"}, "name": "conv2d_59", "bias_constraint": null, "kernel_initializer": {"config": {"mode": "fan_avg", "distribution": "uniform", "scale": 1.0, "seed": null}, "class_name": "VarianceScaling"}, "kernel_constraint": null, "activation": "relu", "dilation_rate": [1, 1], "strides": [1, 1], "padding": "same", "trainable": true}, "inbound_nodes": [[["batch_normalization_58", 0, 0, {}]]]}, {"name": "conv2d_60", "class_name": "Conv2D", "config": {"use_bias": true, "data_format": "channels_last", "filters": 96, "kernel_size": [1, 1], "bias_regularizer": null, "activity_regularizer": null, "kernel_regularizer": null, "bias_initializer": {"config": {}, "class_name": "Zeros"}, "name": "conv2d_60", "bias_constraint": null, "kernel_initializer": {"config": {"mode": "fan_avg", "distribution": "uniform", "scale": 1.0, "seed": null}, "class_name": "VarianceScaling"}, "kernel_constraint": null, "activation": "relu", "dilation_rate": [1, 1], "strides": [1, 1], "padding": "same", "trainable": true}, "inbound_nodes": [[["average_pooling2d_6", 0, 0, {}]]]}, {"name": "batch_normalization_51", "class_name": "BatchNormalization", "config": {"moving_mean_initializer": {"config": {}, "class_name": "Zeros"}, "axis": 3, "beta_regularizer": null, "beta_initializer": {"config": {}, "class_name": "Zeros"}, "beta_constraint": null, "center": true, "momentum": 0.99, "name": "batch_normalization_51", "trainable": true, "moving_variance_initializer": {"config": {}, "class_name": "Ones"}, "gamma_initializer": {"config": {}, "class_name": "Ones"}, "epsilon": 0.001, "gamma_constraint": null, "scale": true, "gamma_regularizer": null}, "inbound_nodes": [[["conv2d_51", 0, 0, {}]]]}, {"name": "batch_normalization_54", "class_name": "BatchNormalization", "config": {"moving_mean_initializer": {"config": {}, "class_name": "Zeros"}, "axis": 3, "beta_regularizer": null, "beta_initializer": {"config": {}, "class_name": "Zeros"}, "beta_constraint": null, "center": true, "momentum": 0.99, "name": "batch_normalization_54", "trainable": true, "moving_variance_initializer": {"config": {}, "class_name": "Ones"}, "gamma_initializer": {"config": {}, "class_name": "Ones"}, "epsilon": 0.001, "gamma_constraint": null, "scale": true, "gamma_regularizer": null}, "inbound_nodes": [[["conv2d_54", 0, 0, {}]]]}, {"name": "batch_normalization_59", "class_name": "BatchNormalization", "config": {"moving_mean_initializer": {"config": {}, "class_name": "Zeros"}, "axis": 3, "beta_regularizer": null, "beta_initializer": {"config": {}, "class_name": "Zeros"}, "beta_constraint": null, "center": true, "momentum": 0.99, "name": "batch_normalization_59", "trainable": true, "moving_variance_initializer": {"config": {}, "class_name": "Ones"}, "gamma_initializer": {"config": {}, "class_name": "Ones"}, "epsilon": 0.001, "gamma_constraint": null, "scale": true, "gamma_regularizer": null}, "inbound_nodes": [[["conv2d_59", 0, 0, {}]]]}, {"name": "batch_normalization_60", "class_name": "BatchNormalization", "config": {"moving_mean_initializer": {"config": {}, "class_name": "Zeros"}, "axis": 3, "beta_regularizer": null, "beta_initializer": {"config": {}, "class_name": "Zeros"}, "beta_constraint": null, "center": true, "momentum": 0.99, "name": "batch_normalization_60", "trainable": true, "moving_variance_initializer": {"config": {}, "class_name": "Ones"}, "gamma_initializer": {"config": {}, "class_name": "Ones"}, "epsilon": 0.001, "gamma_constraint": null, "scale": true, "gamma_regularizer": null}, "inbound_nodes": [[["conv2d_60", 0, 0, {}]]]}, {"name": "mixed6", "class_name": "Concatenate", "config": {"name": "mixed6", "axis": -1, "trainable": true}, "inbound_nodes": [[["batch_normalization_51", 0, 0, {}], ["batch_normalization_54", 0, 0, {}], ["batch_normalization_59", 0, 0, {}], ["batch_normalization_60", 0, 0, {}]]]}, {"name": "conv2d_65", "class_name": "Conv2D", "config": {"use_bias": true, "data_format": "channels_last", "filters": 80, "kernel_size": [1, 1], "bias_regularizer": null, "activity_regularizer": null, "kernel_regularizer": null, "bias_initializer": {"config": {}, "class_name": "Zeros"}, "name": "conv2d_65", "bias_constraint": null, "kernel_initializer": {"config": {"mode": "fan_avg", "distribution": "uniform", "scale": 1.0, "seed": null}, "class_name": "VarianceScaling"}, "kernel_constraint": null, "activation": "relu", "dilation_rate": [1, 1], "strides": [1, 1], "padding": "same", "trainable": true}, "inbound_nodes": [[["mixed6", 0, 0, {}]]]}, {"name": "batch_normalization_65", "class_name": "BatchNormalization", "config": {"moving_mean_initializer": {"config": {}, "class_name": "Zeros"}, "axis": 3, "beta_regularizer": null, "beta_initializer": {"config": {}, "class_name": "Zeros"}, "beta_constraint": null, "center": true, "momentum": 0.99, "name": "batch_normalization_65", "trainable": true, "moving_variance_initializer": {"config": {}, "class_name": "Ones"}, "gamma_initializer": {"config": {}, "class_name": "Ones"}, "epsilon": 0.001, "gamma_constraint": null, "scale": true, "gamma_regularizer": null}, "inbound_nodes": [[["conv2d_65", 0, 0, {}]]]}, {"name": "conv2d_66", "class_name": "Conv2D", "config": {"use_bias": true, "data_format": "channels_last", "filters": 96, "kernel_size": [7, 1], "bias_regularizer": null, "activity_regularizer": null, "kernel_regularizer": null, "bias_initializer": {"config": {}, "class_name": "Zeros"}, "name": "conv2d_66", "bias_constraint": null, "kernel_initializer": {"config": {"mode": "fan_avg", "distribution": "uniform", "scale": 1.0, "seed": null}, "class_name": "VarianceScaling"}, "kernel_constraint": null, "activation": "relu", "dilation_rate": [1, 1], "strides": [1, 1], "padding": "same", "trainable": true}, "inbound_nodes": [[["batch_normalization_65", 0, 0, {}]]]}, {"name": "batch_normalization_66", "class_name": "BatchNormalization", "config": {"moving_mean_initializer": {"config": {}, "class_name": "Zeros"}, "axis": 3, "beta_regularizer": null, "beta_initializer": {"config": {}, "class_name": "Zeros"}, "beta_constraint": null, "center": true, "momentum": 0.99, "name": "batch_normalization_66", "trainable": true, "moving_variance_initializer": {"config": {}, "class_name": "Ones"}, "gamma_initializer": {"config": {}, "class_name": "Ones"}, "epsilon": 0.001, "gamma_constraint": null, "scale": true, "gamma_regularizer": null}, "inbound_nodes": [[["conv2d_66", 0, 0, {}]]]}, {"name": "conv2d_62", "class_name": "Conv2D", "config": {"use_bias": true, "data_format": "channels_last", "filters": 96, "kernel_size": [1, 1], "bias_regularizer": null, "activity_regularizer": null, "kernel_regularizer": null, "bias_initializer": {"config": {}, "class_name": "Zeros"}, "name": "conv2d_62", "bias_constraint": null, "kernel_initializer": {"config": {"mode": "fan_avg", "distribution": "uniform", "scale": 1.0, "seed": null}, "class_name": "VarianceScaling"}, "kernel_constraint": null, "activation": "relu", "dilation_rate": [1, 1], "strides": [1, 1], "padding": "same", "trainable": true}, "inbound_nodes": [[["mixed6", 0, 0, {}]]]}, {"name": "conv2d_67", "class_name": "Conv2D", "config": {"use_bias": true, "data_format": "channels_last", "filters": 96, "kernel_size": [1, 7], "bias_regularizer": null, "activity_regularizer": null, "kernel_regularizer": null, "bias_initializer": {"config": {}, "class_name": "Zeros"}, "name": "conv2d_67", "bias_constraint": null, "kernel_initializer": {"config": {"mode": "fan_avg", "distribution": "uniform", "scale": 1.0, "seed": null}, "class_name": "VarianceScaling"}, "kernel_constraint": null, "activation": "relu", "dilation_rate": [1, 1], "strides": [1, 1], "padding": "same", "trainable": true}, "inbound_nodes": [[["batch_normalization_66", 0, 0, {}]]]}, {"name": "batch_normalization_62", "class_name": "BatchNormalization", "config": {"moving_mean_initializer": {"config": {}, "class_name": "Zeros"}, "axis": 3, "beta_regularizer": null, "beta_initializer": {"config": {}, "class_name": "Zeros"}, "beta_constraint": null, "center": true, "momentum": 0.99, "name": "batch_normalization_62", "trainable": true, "moving_variance_initializer": {"config": {}, "class_name": "Ones"}, "gamma_initializer": {"config": {}, "class_name": "Ones"}, "epsilon": 0.001, "gamma_constraint": null, "scale": true, "gamma_regularizer": null}, "inbound_nodes": [[["conv2d_62", 0, 0, {}]]]}, {"name": "batch_normalization_67", "class_name": "BatchNormalization", "config": {"moving_mean_initializer": {"config": {}, "class_name": "Zeros"}, "axis": 3, "beta_regularizer": null, "beta_initializer": {"config": {}, "class_name": "Zeros"}, "beta_constraint": null, "center": true, "momentum": 0.99, "name": "batch_normalization_67", "trainable": true, "moving_variance_initializer": {"config": {}, "class_name": "Ones"}, "gamma_initializer": {"config": {}, "class_name": "Ones"}, "epsilon": 0.001, "gamma_constraint": null, "scale": true, "gamma_regularizer": null}, "inbound_nodes": [[["conv2d_67", 0, 0, {}]]]}, {"name": "conv2d_63", "class_name": "Conv2D", "config": {"use_bias": true, "data_format": "channels_last", "filters": 96, "kernel_size": [1, 7], "bias_regularizer": null, "activity_regularizer": null, "kernel_regularizer": null, "bias_initializer": {"config": {}, "class_name": "Zeros"}, "name": "conv2d_63", "bias_constraint": null, "kernel_initializer": {"config": {"mode": "fan_avg", "distribution": "uniform", "scale": 1.0, "seed": null}, "class_name": "VarianceScaling"}, "kernel_constraint": null, "activation": "relu", "dilation_rate": [1, 1], "strides": [1, 1], "padding": "same", "trainable": true}, "inbound_nodes": [[["batch_normalization_62", 0, 0, {}]]]}, {"name": "conv2d_68", "class_name": "Conv2D", "config": {"use_bias": true, "data_format": "channels_last", "filters": 96, "kernel_size": [7, 1], "bias_regularizer": null, "activity_regularizer": null, "kernel_regularizer": null, "bias_initializer": {"config": {}, "class_name": "Zeros"}, "name": "conv2d_68", "bias_constraint": null, "kernel_initializer": {"config": {"mode": "fan_avg", "distribution": "uniform", "scale": 1.0, "seed": null}, "class_name": "VarianceScaling"}, "kernel_constraint": null, "activation": "relu", "dilation_rate": [1, 1], "strides": [1, 1], "padding": "same", "trainable": true}, "inbound_nodes": [[["batch_normalization_67", 0, 0, {}]]]}, {"name": "batch_normalization_63", "class_name": "BatchNormalization", "config": {"moving_mean_initializer": {"config": {}, "class_name": "Zeros"}, "axis": 3, "beta_regularizer": null, "beta_initializer": {"config": {}, "class_name": "Zeros"}, "beta_constraint": null, "center": true, "momentum": 0.99, "name": "batch_normalization_63", "trainable": true, "moving_variance_initializer": {"config": {}, "class_name": "Ones"}, "gamma_initializer": {"config": {}, "class_name": "Ones"}, "epsilon": 0.001, "gamma_constraint": null, "scale": true, "gamma_regularizer": null}, "inbound_nodes": [[["conv2d_63", 0, 0, {}]]]}, {"name": "batch_normalization_68", "class_name": "BatchNormalization", "config": {"moving_mean_initializer": {"config": {}, "class_name": "Zeros"}, "axis": 3, "beta_regularizer": null, "beta_initializer": {"config": {}, "class_name": "Zeros"}, "beta_constraint": null, "center": true, "momentum": 0.99, "name": "batch_normalization_68", "trainable": true, "moving_variance_initializer": {"config": {}, "class_name": "Ones"}, "gamma_initializer": {"config": {}, "class_name": "Ones"}, "epsilon": 0.001, "gamma_constraint": null, "scale": true, "gamma_regularizer": null}, "inbound_nodes": [[["conv2d_68", 0, 0, {}]]]}, {"name": "average_pooling2d_7", "class_name": "AveragePooling2D", "config": {"name": "average_pooling2d_7", "strides": [1, 1], "pool_size": [3, 3], "data_format": "channels_last", "trainable": true, "padding": "same"}, "inbound_nodes": [[["mixed6", 0, 0, {}]]]}, {"name": "conv2d_61", "class_name": "Conv2D", "config": {"use_bias": true, "data_format": "channels_last", "filters": 96, "kernel_size": [1, 1], "bias_regularizer": null, "activity_regularizer": null, "kernel_regularizer": null, "bias_initializer": {"config": {}, "class_name": "Zeros"}, "name": "conv2d_61", "bias_constraint": null, "kernel_initializer": {"config": {"mode": "fan_avg", "distribution": "uniform", "scale": 1.0, "seed": null}, "class_name": "VarianceScaling"}, "kernel_constraint": null, "activation": "relu", "dilation_rate": [1, 1], "strides": [1, 1], "padding": "same", "trainable": true}, "inbound_nodes": [[["mixed6", 0, 0, {}]]]}, {"name": "conv2d_64", "class_name": "Conv2D", "config": {"use_bias": true, "data_format": "channels_last", "filters": 96, "kernel_size": [7, 1], "bias_regularizer": null, "activity_regularizer": null, "kernel_regularizer": null, "bias_initializer": {"config": {}, "class_name": "Zeros"}, "name": "conv2d_64", "bias_constraint": null, "kernel_initializer": {"config": {"mode": "fan_avg", "distribution": "uniform", "scale": 1.0, "seed": null}, "class_name": "VarianceScaling"}, "kernel_constraint": null, "activation": "relu", "dilation_rate": [1, 1], "strides": [1, 1], "padding": "same", "trainable": true}, "inbound_nodes": [[["batch_normalization_63", 0, 0, {}]]]}, {"name": "conv2d_69", "class_name": "Conv2D", "config": {"use_bias": true, "data_format": "channels_last", "filters": 96, "kernel_size": [1, 7], "bias_regularizer": null, "activity_regularizer": null, "kernel_regularizer": null, "bias_initializer": {"config": {}, "class_name": "Zeros"}, "name": "conv2d_69", "bias_constraint": null, "kernel_initializer": {"config": {"mode": "fan_avg", "distribution": "uniform", "scale": 1.0, "seed": null}, "class_name": "VarianceScaling"}, "kernel_constraint": null, "activation": "relu", "dilation_rate": [1, 1], "strides": [1, 1], "padding": "same", "trainable": true}, "inbound_nodes": [[["batch_normalization_68", 0, 0, {}]]]}, {"name": "conv2d_70", "class_name": "Conv2D", "config": {"use_bias": true, "data_format": "channels_last", "filters": 96, "kernel_size": [1, 1], "bias_regularizer": null, "activity_regularizer": null, "kernel_regularizer": null, "bias_initializer": {"config": {}, "class_name": "Zeros"}, "name": "conv2d_70", "bias_constraint": null, "kernel_initializer": {"config": {"mode": "fan_avg", "distribution": "uniform", "scale": 1.0, "seed": null}, "class_name": "VarianceScaling"}, "kernel_constraint": null, "activation": "relu", "dilation_rate": [1, 1], "strides": [1, 1], "padding": "same", "trainable": true}, "inbound_nodes": [[["average_pooling2d_7", 0, 0, {}]]]}, {"name": "batch_normalization_61", "class_name": "BatchNormalization", "config": {"moving_mean_initializer": {"config": {}, "class_name": "Zeros"}, "axis": 3, "beta_regularizer": null, "beta_initializer": {"config": {}, "class_name": "Zeros"}, "beta_constraint": null, "center": true, "momentum": 0.99, "name": "batch_normalization_61", "trainable": true, "moving_variance_initializer": {"config": {}, "class_name": "Ones"}, "gamma_initializer": {"config": {}, "class_name": "Ones"}, "epsilon": 0.001, "gamma_constraint": null, "scale": true, "gamma_regularizer": null}, "inbound_nodes": [[["conv2d_61", 0, 0, {}]]]}, {"name": "batch_normalization_64", "class_name": "BatchNormalization", "config": {"moving_mean_initializer": {"config": {}, "class_name": "Zeros"}, "axis": 3, "beta_regularizer": null, "beta_initializer": {"config": {}, "class_name": "Zeros"}, "beta_constraint": null, "center": true, "momentum": 0.99, "name": "batch_normalization_64", "trainable": true, "moving_variance_initializer": {"config": {}, "class_name": "Ones"}, "gamma_initializer": {"config": {}, "class_name": "Ones"}, "epsilon": 0.001, "gamma_constraint": null, "scale": true, "gamma_regularizer": null}, "inbound_nodes": [[["conv2d_64", 0, 0, {}]]]}, {"name": "batch_normalization_69", "class_name": "BatchNormalization", "config": {"moving_mean_initializer": {"config": {}, "class_name": "Zeros"}, "axis": 3, "beta_regularizer": null, "beta_initializer": {"config": {}, "class_name": "Zeros"}, "beta_constraint": null, "center": true, "momentum": 0.99, "name": "batch_normalization_69", "trainable": true, "moving_variance_initializer": {"config": {}, "class_name": "Ones"}, "gamma_initializer": {"config": {}, "class_name": "Ones"}, "epsilon": 0.001, "gamma_constraint": null, "scale": true, "gamma_regularizer": null}, "inbound_nodes": [[["conv2d_69", 0, 0, {}]]]}, {"name": "batch_normalization_70", "class_name": "BatchNormalization", "config": {"moving_mean_initializer": {"config": {}, "class_name": "Zeros"}, "axis": 3, "beta_regularizer": null, "beta_initializer": {"config": {}, "class_name": "Zeros"}, "beta_constraint": null, "center": true, "momentum": 0.99, "name": "batch_normalization_70", "trainable": true, "moving_variance_initializer": {"config": {}, "class_name": "Ones"}, "gamma_initializer": {"config": {}, "class_name": "Ones"}, "epsilon": 0.001, "gamma_constraint": null, "scale": true, "gamma_regularizer": null}, "inbound_nodes": [[["conv2d_70", 0, 0, {}]]]}, {"name": "mixed7", "class_name": "Concatenate", "config": {"name": "mixed7", "axis": -1, "trainable": true}, "inbound_nodes": [[["batch_normalization_61", 0, 0, {}], ["batch_normalization_64", 0, 0, {}], ["batch_normalization_69", 0, 0, {}], ["batch_normalization_70", 0, 0, {}]]]}, {"name": "conv2d_73", "class_name": "Conv2D", "config": {"use_bias": true, "data_format": "channels_last", "filters": 96, "kernel_size": [1, 1], "bias_regularizer": null, "activity_regularizer": null, "kernel_regularizer": null, "bias_initializer": {"config": {}, "class_name": "Zeros"}, "name": "conv2d_73", "bias_constraint": null, "kernel_initializer": {"config": {"mode": "fan_avg", "distribution": "uniform", "scale": 1.0, "seed": null}, "class_name": "VarianceScaling"}, "kernel_constraint": null, "activation": "relu", "dilation_rate": [1, 1], "strides": [1, 1], "padding": "same", "trainable": true}, "inbound_nodes": [[["mixed7", 0, 0, {}]]]}, {"name": "batch_normalization_73", "class_name": "BatchNormalization", "config": {"moving_mean_initializer": {"config": {}, "class_name": "Zeros"}, "axis": 3, "beta_regularizer": null, "beta_initializer": {"config": {}, "class_name": "Zeros"}, "beta_constraint": null, "center": true, "momentum": 0.99, "name": "batch_normalization_73", "trainable": true, "moving_variance_initializer": {"config": {}, "class_name": "Ones"}, "gamma_initializer": {"config": {}, "class_name": "Ones"}, "epsilon": 0.001, "gamma_constraint": null, "scale": true, "gamma_regularizer": null}, "inbound_nodes": [[["conv2d_73", 0, 0, {}]]]}, {"name": "conv2d_74", "class_name": "Conv2D", "config": {"use_bias": true, "data_format": "channels_last", "filters": 96, "kernel_size": [1, 7], "bias_regularizer": null, "activity_regularizer": null, "kernel_regularizer": null, "bias_initializer": {"config": {}, "class_name": "Zeros"}, "name": "conv2d_74", "bias_constraint": null, "kernel_initializer": {"config": {"mode": "fan_avg", "distribution": "uniform", "scale": 1.0, "seed": null}, "class_name": "VarianceScaling"}, "kernel_constraint": null, "activation": "relu", "dilation_rate": [1, 1], "strides": [1, 1], "padding": "same", "trainable": true}, "inbound_nodes": [[["batch_normalization_73", 0, 0, {}]]]}, {"name": "batch_normalization_74", "class_name": "BatchNormalization", "config": {"moving_mean_initializer": {"config": {}, "class_name": "Zeros"}, "axis": 3, "beta_regularizer": null, "beta_initializer": {"config": {}, "class_name": "Zeros"}, "beta_constraint": null, "center": true, "momentum": 0.99, "name": "batch_normalization_74", "trainable": true, "moving_variance_initializer": {"config": {}, "class_name": "Ones"}, "gamma_initializer": {"config": {}, "class_name": "Ones"}, "epsilon": 0.001, "gamma_constraint": null, "scale": true, "gamma_regularizer": null}, "inbound_nodes": [[["conv2d_74", 0, 0, {}]]]}, {"name": "conv2d_71", "class_name": "Conv2D", "config": {"use_bias": true, "data_format": "channels_last", "filters": 96, "kernel_size": [1, 1], "bias_regularizer": null, "activity_regularizer": null, "kernel_regularizer": null, "bias_initializer": {"config": {}, "class_name": "Zeros"}, "name": "conv2d_71", "bias_constraint": null, "kernel_initializer": {"config": {"mode": "fan_avg", "distribution": "uniform", "scale": 1.0, "seed": null}, "class_name": "VarianceScaling"}, "kernel_constraint": null, "activation": "relu", "dilation_rate": [1, 1], "strides": [1, 1], "padding": "same", "trainable": true}, "inbound_nodes": [[["mixed7", 0, 0, {}]]]}, {"name": "conv2d_75", "class_name": "Conv2D", "config": {"use_bias": true, "data_format": "channels_last", "filters": 96, "kernel_size": [7, 1], "bias_regularizer": null, "activity_regularizer": null, "kernel_regularizer": null, "bias_initializer": {"config": {}, "class_name": "Zeros"}, "name": "conv2d_75", "bias_constraint": null, "kernel_initializer": {"config": {"mode": "fan_avg", "distribution": "uniform", "scale": 1.0, "seed": null}, "class_name": "VarianceScaling"}, "kernel_constraint": null, "activation": "relu", "dilation_rate": [1, 1], "strides": [1, 1], "padding": "same", "trainable": true}, "inbound_nodes": [[["batch_normalization_74", 0, 0, {}]]]}, {"name": "batch_normalization_71", "class_name": "BatchNormalization", "config": {"moving_mean_initializer": {"config": {}, "class_name": "Zeros"}, "axis": 3, "beta_regularizer": null, "beta_initializer": {"config": {}, "class_name": "Zeros"}, "beta_constraint": null, "center": true, "momentum": 0.99, "name": "batch_normalization_71", "trainable": true, "moving_variance_initializer": {"config": {}, "class_name": "Ones"}, "gamma_initializer": {"config": {}, "class_name": "Ones"}, "epsilon": 0.001, "gamma_constraint": null, "scale": true, "gamma_regularizer": null}, "inbound_nodes": [[["conv2d_71", 0, 0, {}]]]}, {"name": "batch_normalization_75", "class_name": "BatchNormalization", "config": {"moving_mean_initializer": {"config": {}, "class_name": "Zeros"}, "axis": 3, "beta_regularizer": null, "beta_initializer": {"config": {}, "class_name": "Zeros"}, "beta_constraint": null, "center": true, "momentum": 0.99, "name": "batch_normalization_75", "trainable": true, "moving_variance_initializer": {"config": {}, "class_name": "Ones"}, "gamma_initializer": {"config": {}, "class_name": "Ones"}, "epsilon": 0.001, "gamma_constraint": null, "scale": true, "gamma_regularizer": null}, "inbound_nodes": [[["conv2d_75", 0, 0, {}]]]}, {"name": "conv2d_72", "class_name": "Conv2D", "config": {"use_bias": true, "data_format": "channels_last", "filters": 160, "kernel_size": [3, 3], "bias_regularizer": null, "activity_regularizer": null, "kernel_regularizer": null, "bias_initializer": {"config": {}, "class_name": "Zeros"}, "name": "conv2d_72", "bias_constraint": null, "kernel_initializer": {"config": {"mode": "fan_avg", "distribution": "uniform", "scale": 1.0, "seed": null}, "class_name": "VarianceScaling"}, "kernel_constraint": null, "activation": "relu", "dilation_rate": [1, 1], "strides": [2, 2], "padding": "valid", "trainable": true}, "inbound_nodes": [[["batch_normalization_71", 0, 0, {}]]]}, {"name": "conv2d_76", "class_name": "Conv2D", "config": {"use_bias": true, "data_format": "channels_last", "filters": 96, "kernel_size": [3, 3], "bias_regularizer": null, "activity_regularizer": null, "kernel_regularizer": null, "bias_initializer": {"config": {}, "class_name": "Zeros"}, "name": "conv2d_76", "bias_constraint": null, "kernel_initializer": {"config": {"mode": "fan_avg", "distribution": "uniform", "scale": 1.0, "seed": null}, "class_name": "VarianceScaling"}, "kernel_constraint": null, "activation": "relu", "dilation_rate": [1, 1], "strides": [2, 2], "padding": "valid", "trainable": true}, "inbound_nodes": [[["batch_normalization_75", 0, 0, {}]]]}, {"name": "batch_normalization_72", "class_name": "BatchNormalization", "config": {"moving_mean_initializer": {"config": {}, "class_name": "Zeros"}, "axis": 3, "beta_regularizer": null, "beta_initializer": {"config": {}, "class_name": "Zeros"}, "beta_constraint": null, "center": true, "momentum": 0.99, "name": "batch_normalization_72", "trainable": true, "moving_variance_initializer": {"config": {}, "class_name": "Ones"}, "gamma_initializer": {"config": {}, "class_name": "Ones"}, "epsilon": 0.001, "gamma_constraint": null, "scale": true, "gamma_regularizer": null}, "inbound_nodes": [[["conv2d_72", 0, 0, {}]]]}, {"name": "batch_normalization_76", "class_name": "BatchNormalization", "config": {"moving_mean_initializer": {"config": {}, "class_name": "Zeros"}, "axis": 3, "beta_regularizer": null, "beta_initializer": {"config": {}, "class_name": "Zeros"}, "beta_constraint": null, "center": true, "momentum": 0.99, "name": "batch_normalization_76", "trainable": true, "moving_variance_initializer": {"config": {}, "class_name": "Ones"}, "gamma_initializer": {"config": {}, "class_name": "Ones"}, "epsilon": 0.001, "gamma_constraint": null, "scale": true, "gamma_regularizer": null}, "inbound_nodes": [[["conv2d_76", 0, 0, {}]]]}, {"name": "average_pooling2d_8", "class_name": "AveragePooling2D", "config": {"name": "average_pooling2d_8", "strides": [2, 2], "pool_size": [3, 3], "data_format": "channels_last", "trainable": true, "padding": "valid"}, "inbound_nodes": [[["mixed7", 0, 0, {}]]]}, {"name": "mixed8", "class_name": "Concatenate", "config": {"name": "mixed8", "axis": -1, "trainable": true}, "inbound_nodes": [[["batch_normalization_72", 0, 0, {}], ["batch_normalization_76", 0, 0, {}], ["average_pooling2d_8", 0, 0, {}]]]}, {"name": "conv2d_81", "class_name": "Conv2D", "config": {"use_bias": true, "data_format": "channels_last", "filters": 224, "kernel_size": [1, 1], "bias_regularizer": null, "activity_regularizer": null, "kernel_regularizer": null, "bias_initializer": {"config": {}, "class_name": "Zeros"}, "name": "conv2d_81", "bias_constraint": null, "kernel_initializer": {"config": {"mode": "fan_avg", "distribution": "uniform", "scale": 1.0, "seed": null}, "class_name": "VarianceScaling"}, "kernel_constraint": null, "activation": "relu", "dilation_rate": [1, 1], "strides": [1, 1], "padding": "same", "trainable": true}, "inbound_nodes": [[["mixed8", 0, 0, {}]]]}, {"name": "batch_normalization_81", "class_name": "BatchNormalization", "config": {"moving_mean_initializer": {"config": {}, "class_name": "Zeros"}, "axis": 3, "beta_regularizer": null, "beta_initializer": {"config": {}, "class_name": "Zeros"}, "beta_constraint": null, "center": true, "momentum": 0.99, "name": "batch_normalization_81", "trainable": true, "moving_variance_initializer": {"config": {}, "class_name": "Ones"}, "gamma_initializer": {"config": {}, "class_name": "Ones"}, "epsilon": 0.001, "gamma_constraint": null, "scale": true, "gamma_regularizer": null}, "inbound_nodes": [[["conv2d_81", 0, 0, {}]]]}, {"name": "conv2d_78", "class_name": "Conv2D", "config": {"use_bias": true, "data_format": "channels_last", "filters": 192, "kernel_size": [1, 1], "bias_regularizer": null, "activity_regularizer": null, "kernel_regularizer": null, "bias_initializer": {"config": {}, "class_name": "Zeros"}, "name": "conv2d_78", "bias_constraint": null, "kernel_initializer": {"config": {"mode": "fan_avg", "distribution": "uniform", "scale": 1.0, "seed": null}, "class_name": "VarianceScaling"}, "kernel_constraint": null, "activation": "relu", "dilation_rate": [1, 1], "strides": [1, 1], "padding": "same", "trainable": true}, "inbound_nodes": [[["mixed8", 0, 0, {}]]]}, {"name": "conv2d_82", "class_name": "Conv2D", "config": {"use_bias": true, "data_format": "channels_last", "filters": 192, "kernel_size": [3, 3], "bias_regularizer": null, "activity_regularizer": null, "kernel_regularizer": null, "bias_initializer": {"config": {}, "class_name": "Zeros"}, "name": "conv2d_82", "bias_constraint": null, "kernel_initializer": {"config": {"mode": "fan_avg", "distribution": "uniform", "scale": 1.0, "seed": null}, "class_name": "VarianceScaling"}, "kernel_constraint": null, "activation": "relu", "dilation_rate": [1, 1], "strides": [1, 1], "padding": "same", "trainable": true}, "inbound_nodes": [[["batch_normalization_81", 0, 0, {}]]]}, {"name": "batch_normalization_78", "class_name": "BatchNormalization", "config": {"moving_mean_initializer": {"config": {}, "class_name": "Zeros"}, "axis": 3, "beta_regularizer": null, "beta_initializer": {"config": {}, "class_name": "Zeros"}, "beta_constraint": null, "center": true, "momentum": 0.99, "name": "batch_normalization_78", "trainable": true, "moving_variance_initializer": {"config": {}, "class_name": "Ones"}, "gamma_initializer": {"config": {}, "class_name": "Ones"}, "epsilon": 0.001, "gamma_constraint": null, "scale": true, "gamma_regularizer": null}, "inbound_nodes": [[["conv2d_78", 0, 0, {}]]]}, {"name": "batch_normalization_82", "class_name": "BatchNormalization", "config": {"moving_mean_initializer": {"config": {}, "class_name": "Zeros"}, "axis": 3, "beta_regularizer": null, "beta_initializer": {"config": {}, "class_name": "Zeros"}, "beta_constraint": null, "center": true, "momentum": 0.99, "name": "batch_normalization_82", "trainable": true, "moving_variance_initializer": {"config": {}, "class_name": "Ones"}, "gamma_initializer": {"config": {}, "class_name": "Ones"}, "epsilon": 0.001, "gamma_constraint": null, "scale": true, "gamma_regularizer": null}, "inbound_nodes": [[["conv2d_82", 0, 0, {}]]]}, {"name": "conv2d_79", "class_name": "Conv2D", "config": {"use_bias": true, "data_format": "channels_last", "filters": 192, "kernel_size": [1, 3], "bias_regularizer": null, "activity_regularizer": null, "kernel_regularizer": null, "bias_initializer": {"config": {}, "class_name": "Zeros"}, "name": "conv2d_79", "bias_constraint": null, "kernel_initializer": {"config": {"mode": "fan_avg", "distribution": "uniform", "scale": 1.0, "seed": null}, "class_name": "VarianceScaling"}, "kernel_constraint": null, "activation": "relu", "dilation_rate": [1, 1], "strides": [1, 1], "padding": "same", "trainable": true}, "inbound_nodes": [[["batch_normalization_78", 0, 0, {}]]]}, {"name": "conv2d_80", "class_name": "Conv2D", "config": {"use_bias": true, "data_format": "channels_last", "filters": 192, "kernel_size": [3, 1], "bias_regularizer": null, "activity_regularizer": null, "kernel_regularizer": null, "bias_initializer": {"config": {}, "class_name": "Zeros"}, "name": "conv2d_80", "bias_constraint": null, "kernel_initializer": {"config": {"mode": "fan_avg", "distribution": "uniform", "scale": 1.0, "seed": null}, "class_name": "VarianceScaling"}, "kernel_constraint": null, "activation": "relu", "dilation_rate": [1, 1], "strides": [1, 1], "padding": "same", "trainable": true}, "inbound_nodes": [[["batch_normalization_78", 0, 0, {}]]]}, {"name": "conv2d_83", "class_name": "Conv2D", "config": {"use_bias": true, "data_format": "channels_last", "filters": 192, "kernel_size": [1, 3], "bias_regularizer": null, "activity_regularizer": null, "kernel_regularizer": null, "bias_initializer": {"config": {}, "class_name": "Zeros"}, "name": "conv2d_83", "bias_constraint": null, "kernel_initializer": {"config": {"mode": "fan_avg", "distribution": "uniform", "scale": 1.0, "seed": null}, "class_name": "VarianceScaling"}, "kernel_constraint": null, "activation": "relu", "dilation_rate": [1, 1], "strides": [1, 1], "padding": "same", "trainable": true}, "inbound_nodes": [[["batch_normalization_82", 0, 0, {}]]]}, {"name": "conv2d_84", "class_name": "Conv2D", "config": {"use_bias": true, "data_format": "channels_last", "filters": 192, "kernel_size": [3, 1], "bias_regularizer": null, "activity_regularizer": null, "kernel_regularizer": null, "bias_initializer": {"config": {}, "class_name": "Zeros"}, "name": "conv2d_84", "bias_constraint": null, "kernel_initializer": {"config": {"mode": "fan_avg", "distribution": "uniform", "scale": 1.0, "seed": null}, "class_name": "VarianceScaling"}, "kernel_constraint": null, "activation": "relu", "dilation_rate": [1, 1], "strides": [1, 1], "padding": "same", "trainable": true}, "inbound_nodes": [[["batch_normalization_82", 0, 0, {}]]]}, {"name": "average_pooling2d_9", "class_name": "AveragePooling2D", "config": {"name": "average_pooling2d_9", "strides": [1, 1], "pool_size": [3, 3], "data_format": "channels_last", "trainable": true, "padding": "same"}, "inbound_nodes": [[["mixed8", 0, 0, {}]]]}, {"name": "conv2d_77", "class_name": "Conv2D", "config": {"use_bias": true, "data_format": "channels_last", "filters": 160, "kernel_size": [1, 1], "bias_regularizer": null, "activity_regularizer": null, "kernel_regularizer": null, "bias_initializer": {"config": {}, "class_name": "Zeros"}, "name": "conv2d_77", "bias_constraint": null, "kernel_initializer": {"config": {"mode": "fan_avg", "distribution": "uniform", "scale": 1.0, "seed": null}, "class_name": "VarianceScaling"}, "kernel_constraint": null, "activation": "relu", "dilation_rate": [1, 1], "strides": [1, 1], "padding": "same", "trainable": true}, "inbound_nodes": [[["mixed8", 0, 0, {}]]]}, {"name": "batch_normalization_79", "class_name": "BatchNormalization", "config": {"moving_mean_initializer": {"config": {}, "class_name": "Zeros"}, "axis": 3, "beta_regularizer": null, "beta_initializer": {"config": {}, "class_name": "Zeros"}, "beta_constraint": null, "center": true, "momentum": 0.99, "name": "batch_normalization_79", "trainable": true, "moving_variance_initializer": {"config": {}, "class_name": "Ones"}, "gamma_initializer": {"config": {}, "class_name": "Ones"}, "epsilon": 0.001, "gamma_constraint": null, "scale": true, "gamma_regularizer": null}, "inbound_nodes": [[["conv2d_79", 0, 0, {}]]]}, {"name": "batch_normalization_80", "class_name": "BatchNormalization", "config": {"moving_mean_initializer": {"config": {}, "class_name": "Zeros"}, "axis": 3, "beta_regularizer": null, "beta_initializer": {"config": {}, "class_name": "Zeros"}, "beta_constraint": null, "center": true, "momentum": 0.99, "name": "batch_normalization_80", "trainable": true, "moving_variance_initializer": {"config": {}, "class_name": "Ones"}, "gamma_initializer": {"config": {}, "class_name": "Ones"}, "epsilon": 0.001, "gamma_constraint": null, "scale": true, "gamma_regularizer": null}, "inbound_nodes": [[["conv2d_80", 0, 0, {}]]]}, {"name": "batch_normalization_83", "class_name": "BatchNormalization", "config": {"moving_mean_initializer": {"config": {}, "class_name": "Zeros"}, "axis": 3, "beta_regularizer": null, "beta_initializer": {"config": {}, "class_name": "Zeros"}, "beta_constraint": null, "center": true, "momentum": 0.99, "name": "batch_normalization_83", "trainable": true, "moving_variance_initializer": {"config": {}, "class_name": "Ones"}, "gamma_initializer": {"config": {}, "class_name": "Ones"}, "epsilon": 0.001, "gamma_constraint": null, "scale": true, "gamma_regularizer": null}, "inbound_nodes": [[["conv2d_83", 0, 0, {}]]]}, {"name": "batch_normalization_84", "class_name": "BatchNormalization", "config": {"moving_mean_initializer": {"config": {}, "class_name": "Zeros"}, "axis": 3, "beta_regularizer": null, "beta_initializer": {"config": {}, "class_name": "Zeros"}, "beta_constraint": null, "center": true, "momentum": 0.99, "name": "batch_normalization_84", "trainable": true, "moving_variance_initializer": {"config": {}, "class_name": "Ones"}, "gamma_initializer": {"config": {}, "class_name": "Ones"}, "epsilon": 0.001, "gamma_constraint": null, "scale": true, "gamma_regularizer": null}, "inbound_nodes": [[["conv2d_84", 0, 0, {}]]]}, {"name": "conv2d_85", "class_name": "Conv2D", "config": {"use_bias": true, "data_format": "channels_last", "filters": 96, "kernel_size": [1, 1], "bias_regularizer": null, "activity_regularizer": null, "kernel_regularizer": null, "bias_initializer": {"config": {}, "class_name": "Zeros"}, "name": "conv2d_85", "bias_constraint": null, "kernel_initializer": {"config": {"mode": "fan_avg", "distribution": "uniform", "scale": 1.0, "seed": null}, "class_name": "VarianceScaling"}, "kernel_constraint": null, "activation": "relu", "dilation_rate": [1, 1], "strides": [1, 1], "padding": "same", "trainable": true}, "inbound_nodes": [[["average_pooling2d_9", 0, 0, {}]]]}, {"name": "batch_normalization_77", "class_name": "BatchNormalization", "config": {"moving_mean_initializer": {"config": {}, "class_name": "Zeros"}, "axis": 3, "beta_regularizer": null, "beta_initializer": {"config": {}, "class_name": "Zeros"}, "beta_constraint": null, "center": true, "momentum": 0.99, "name": "batch_normalization_77", "trainable": true, "moving_variance_initializer": {"config": {}, "class_name": "Ones"}, "gamma_initializer": {"config": {}, "class_name": "Ones"}, "epsilon": 0.001, "gamma_constraint": null, "scale": true, "gamma_regularizer": null}, "inbound_nodes": [[["conv2d_77", 0, 0, {}]]]}, {"name": "mixed9_0", "class_name": "Concatenate", "config": {"name": "mixed9_0", "axis": -1, "trainable": true}, "inbound_nodes": [[["batch_normalization_79", 0, 0, {}], ["batch_normalization_80", 0, 0, {}]]]}, {"name": "concatenate_1", "class_name": "Concatenate", "config": {"name": "concatenate_1", "axis": -1, "trainable": true}, "inbound_nodes": [[["batch_normalization_83", 0, 0, {}], ["batch_normalization_84", 0, 0, {}]]]}, {"name": "batch_normalization_85", "class_name": "BatchNormalization", "config": {"moving_mean_initializer": {"config": {}, "class_name": "Zeros"}, "axis": 3, "beta_regularizer": null, "beta_initializer": {"config": {}, "class_name": "Zeros"}, "beta_constraint": null, "center": true, "momentum": 0.99, "name": "batch_normalization_85", "trainable": true, "moving_variance_initializer": {"config": {}, "class_name": "Ones"}, "gamma_initializer": {"config": {}, "class_name": "Ones"}, "epsilon": 0.001, "gamma_constraint": null, "scale": true, "gamma_regularizer": null}, "inbound_nodes": [[["conv2d_85", 0, 0, {}]]]}, {"name": "mixed9", "class_name": "Concatenate", "config": {"name": "mixed9", "axis": -1, "trainable": true}, "inbound_nodes": [[["batch_normalization_77", 0, 0, {}], ["mixed9_0", 0, 0, {}], ["concatenate_1", 0, 0, {}], ["batch_normalization_85", 0, 0, {}]]]}, {"name": "conv2d_90", "class_name": "Conv2D", "config": {"use_bias": true, "data_format": "channels_last", "filters": 224, "kernel_size": [1, 1], "bias_regularizer": null, "activity_regularizer": null, "kernel_regularizer": null, "bias_initializer": {"config": {}, "class_name": "Zeros"}, "name": "conv2d_90", "bias_constraint": null, "kernel_initializer": {"config": {"mode": "fan_avg", "distribution": "uniform", "scale": 1.0, "seed": null}, "class_name": "VarianceScaling"}, "kernel_constraint": null, "activation": "relu", "dilation_rate": [1, 1], "strides": [1, 1], "padding": "same", "trainable": true}, "inbound_nodes": [[["mixed9", 0, 0, {}]]]}, {"name": "batch_normalization_90", "class_name": "BatchNormalization", "config": {"moving_mean_initializer": {"config": {}, "class_name": "Zeros"}, "axis": 3, "beta_regularizer": null, "beta_initializer": {"config": {}, "class_name": "Zeros"}, "beta_constraint": null, "center": true, "momentum": 0.99, "name": "batch_normalization_90", "trainable": true, "moving_variance_initializer": {"config": {}, "class_name": "Ones"}, "gamma_initializer": {"config": {}, "class_name": "Ones"}, "epsilon": 0.001, "gamma_constraint": null, "scale": true, "gamma_regularizer": null}, "inbound_nodes": [[["conv2d_90", 0, 0, {}]]]}, {"name": "conv2d_87", "class_name": "Conv2D", "config": {"use_bias": true, "data_format": "channels_last", "filters": 192, "kernel_size": [1, 1], "bias_regularizer": null, "activity_regularizer": null, "kernel_regularizer": null, "bias_initializer": {"config": {}, "class_name": "Zeros"}, "name": "conv2d_87", "bias_constraint": null, "kernel_initializer": {"config": {"mode": "fan_avg", "distribution": "uniform", "scale": 1.0, "seed": null}, "class_name": "VarianceScaling"}, "kernel_constraint": null, "activation": "relu", "dilation_rate": [1, 1], "strides": [1, 1], "padding": "same", "trainable": true}, "inbound_nodes": [[["mixed9", 0, 0, {}]]]}, {"name": "conv2d_91", "class_name": "Conv2D", "config": {"use_bias": true, "data_format": "channels_last", "filters": 192, "kernel_size": [3, 3], "bias_regularizer": null, "activity_regularizer": null, "kernel_regularizer": null, "bias_initializer": {"config": {}, "class_name": "Zeros"}, "name": "conv2d_91", "bias_constraint": null, "kernel_initializer": {"config": {"mode": "fan_avg", "distribution": "uniform", "scale": 1.0, "seed": null}, "class_name": "VarianceScaling"}, "kernel_constraint": null, "activation": "relu", "dilation_rate": [1, 1], "strides": [1, 1], "padding": "same", "trainable": true}, "inbound_nodes": [[["batch_normalization_90", 0, 0, {}]]]}, {"name": "batch_normalization_87", "class_name": "BatchNormalization", "config": {"moving_mean_initializer": {"config": {}, "class_name": "Zeros"}, "axis": 3, "beta_regularizer": null, "beta_initializer": {"config": {}, "class_name": "Zeros"}, "beta_constraint": null, "center": true, "momentum": 0.99, "name": "batch_normalization_87", "trainable": true, "moving_variance_initializer": {"config": {}, "class_name": "Ones"}, "gamma_initializer": {"config": {}, "class_name": "Ones"}, "epsilon": 0.001, "gamma_constraint": null, "scale": true, "gamma_regularizer": null}, "inbound_nodes": [[["conv2d_87", 0, 0, {}]]]}, {"name": "batch_normalization_91", "class_name": "BatchNormalization", "config": {"moving_mean_initializer": {"config": {}, "class_name": "Zeros"}, "axis": 3, "beta_regularizer": null, "beta_initializer": {"config": {}, "class_name": "Zeros"}, "beta_constraint": null, "center": true, "momentum": 0.99, "name": "batch_normalization_91", "trainable": true, "moving_variance_initializer": {"config": {}, "class_name": "Ones"}, "gamma_initializer": {"config": {}, "class_name": "Ones"}, "epsilon": 0.001, "gamma_constraint": null, "scale": true, "gamma_regularizer": null}, "inbound_nodes": [[["conv2d_91", 0, 0, {}]]]}, {"name": "conv2d_88", "class_name": "Conv2D", "config": {"use_bias": true, "data_format": "channels_last", "filters": 192, "kernel_size": [1, 3], "bias_regularizer": null, "activity_regularizer": null, "kernel_regularizer": null, "bias_initializer": {"config": {}, "class_name": "Zeros"}, "name": "conv2d_88", "bias_constraint": null, "kernel_initializer": {"config": {"mode": "fan_avg", "distribution": "uniform", "scale": 1.0, "seed": null}, "class_name": "VarianceScaling"}, "kernel_constraint": null, "activation": "relu", "dilation_rate": [1, 1], "strides": [1, 1], "padding": "same", "trainable": true}, "inbound_nodes": [[["batch_normalization_87", 0, 0, {}]]]}, {"name": "conv2d_89", "class_name": "Conv2D", "config": {"use_bias": true, "data_format": "channels_last", "filters": 192, "kernel_size": [3, 1], "bias_regularizer": null, "activity_regularizer": null, "kernel_regularizer": null, "bias_initializer": {"config": {}, "class_name": "Zeros"}, "name": "conv2d_89", "bias_constraint": null, "kernel_initializer": {"config": {"mode": "fan_avg", "distribution": "uniform", "scale": 1.0, "seed": null}, "class_name": "VarianceScaling"}, "kernel_constraint": null, "activation": "relu", "dilation_rate": [1, 1], "strides": [1, 1], "padding": "same", "trainable": true}, "inbound_nodes": [[["batch_normalization_87", 0, 0, {}]]]}, {"name": "conv2d_92", "class_name": "Conv2D", "config": {"use_bias": true, "data_format": "channels_last", "filters": 192, "kernel_size": [1, 3], "bias_regularizer": null, "activity_regularizer": null, "kernel_regularizer": null, "bias_initializer": {"config": {}, "class_name": "Zeros"}, "name": "conv2d_92", "bias_constraint": null, "kernel_initializer": {"config": {"mode": "fan_avg", "distribution": "uniform", "scale": 1.0, "seed": null}, "class_name": "VarianceScaling"}, "kernel_constraint": null, "activation": "relu", "dilation_rate": [1, 1], "strides": [1, 1], "padding": "same", "trainable": true}, "inbound_nodes": [[["batch_normalization_91", 0, 0, {}]]]}, {"name": "conv2d_93", "class_name": "Conv2D", "config": {"use_bias": true, "data_format": "channels_last", "filters": 192, "kernel_size": [3, 1], "bias_regularizer": null, "activity_regularizer": null, "kernel_regularizer": null, "bias_initializer": {"config": {}, "class_name": "Zeros"}, "name": "conv2d_93", "bias_constraint": null, "kernel_initializer": {"config": {"mode": "fan_avg", "distribution": "uniform", "scale": 1.0, "seed": null}, "class_name": "VarianceScaling"}, "kernel_constraint": null, "activation": "relu", "dilation_rate": [1, 1], "strides": [1, 1], "padding": "same", "trainable": true}, "inbound_nodes": [[["batch_normalization_91", 0, 0, {}]]]}, {"name": "average_pooling2d_10", "class_name": "AveragePooling2D", "config": {"name": "average_pooling2d_10", "strides": [1, 1], "pool_size": [3, 3], "data_format": "channels_last", "trainable": true, "padding": "same"}, "inbound_nodes": [[["mixed9", 0, 0, {}]]]}, {"name": "conv2d_86", "class_name": "Conv2D", "config": {"use_bias": true, "data_format": "channels_last", "filters": 160, "kernel_size": [1, 1], "bias_regularizer": null, "activity_regularizer": null, "kernel_regularizer": null, "bias_initializer": {"config": {}, "class_name": "Zeros"}, "name": "conv2d_86", "bias_constraint": null, "kernel_initializer": {"config": {"mode": "fan_avg", "distribution": "uniform", "scale": 1.0, "seed": null}, "class_name": "VarianceScaling"}, "kernel_constraint": null, "activation": "relu", "dilation_rate": [1, 1], "strides": [1, 1], "padding": "same", "trainable": true}, "inbound_nodes": [[["mixed9", 0, 0, {}]]]}, {"name": "batch_normalization_88", "class_name": "BatchNormalization", "config": {"moving_mean_initializer": {"config": {}, "class_name": "Zeros"}, "axis": 3, "beta_regularizer": null, "beta_initializer": {"config": {}, "class_name": "Zeros"}, "beta_constraint": null, "center": true, "momentum": 0.99, "name": "batch_normalization_88", "trainable": true, "moving_variance_initializer": {"config": {}, "class_name": "Ones"}, "gamma_initializer": {"config": {}, "class_name": "Ones"}, "epsilon": 0.001, "gamma_constraint": null, "scale": true, "gamma_regularizer": null}, "inbound_nodes": [[["conv2d_88", 0, 0, {}]]]}, {"name": "batch_normalization_89", "class_name": "BatchNormalization", "config": {"moving_mean_initializer": {"config": {}, "class_name": "Zeros"}, "axis": 3, "beta_regularizer": null, "beta_initializer": {"config": {}, "class_name": "Zeros"}, "beta_constraint": null, "center": true, "momentum": 0.99, "name": "batch_normalization_89", "trainable": true, "moving_variance_initializer": {"config": {}, "class_name": "Ones"}, "gamma_initializer": {"config": {}, "class_name": "Ones"}, "epsilon": 0.001, "gamma_constraint": null, "scale": true, "gamma_regularizer": null}, "inbound_nodes": [[["conv2d_89", 0, 0, {}]]]}, {"name": "batch_normalization_92", "class_name": "BatchNormalization", "config": {"moving_mean_initializer": {"config": {}, "class_name": "Zeros"}, "axis": 3, "beta_regularizer": null, "beta_initializer": {"config": {}, "class_name": "Zeros"}, "beta_constraint": null, "center": true, "momentum": 0.99, "name": "batch_normalization_92", "trainable": true, "moving_variance_initializer": {"config": {}, "class_name": "Ones"}, "gamma_initializer": {"config": {}, "class_name": "Ones"}, "epsilon": 0.001, "gamma_constraint": null, "scale": true, "gamma_regularizer": null}, "inbound_nodes": [[["conv2d_92", 0, 0, {}]]]}, {"name": "batch_normalization_93", "class_name": "BatchNormalization", "config": {"moving_mean_initializer": {"config": {}, "class_name": "Zeros"}, "axis": 3, "beta_regularizer": null, "beta_initializer": {"config": {}, "class_name": "Zeros"}, "beta_constraint": null, "center": true, "momentum": 0.99, "name": "batch_normalization_93", "trainable": true, "moving_variance_initializer": {"config": {}, "class_name": "Ones"}, "gamma_initializer": {"config": {}, "class_name": "Ones"}, "epsilon": 0.001, "gamma_constraint": null, "scale": true, "gamma_regularizer": null}, "inbound_nodes": [[["conv2d_93", 0, 0, {}]]]}, {"name": "conv2d_94", "class_name": "Conv2D", "config": {"use_bias": true, "data_format": "channels_last", "filters": 96, "kernel_size": [1, 1], "bias_regularizer": null, "activity_regularizer": null, "kernel_regularizer": null, "bias_initializer": {"config": {}, "class_name": "Zeros"}, "name": "conv2d_94", "bias_constraint": null, "kernel_initializer": {"config": {"mode": "fan_avg", "distribution": "uniform", "scale": 1.0, "seed": null}, "class_name": "VarianceScaling"}, "kernel_constraint": null, "activation": "relu", "dilation_rate": [1, 1], "strides": [1, 1], "padding": "same", "trainable": true}, "inbound_nodes": [[["average_pooling2d_10", 0, 0, {}]]]}, {"name": "batch_normalization_86", "class_name": "BatchNormalization", "config": {"moving_mean_initializer": {"config": {}, "class_name": "Zeros"}, "axis": 3, "beta_regularizer": null, "beta_initializer": {"config": {}, "class_name": "Zeros"}, "beta_constraint": null, "center": true, "momentum": 0.99, "name": "batch_normalization_86", "trainable": true, "moving_variance_initializer": {"config": {}, "class_name": "Ones"}, "gamma_initializer": {"config": {}, "class_name": "Ones"}, "epsilon": 0.001, "gamma_constraint": null, "scale": true, "gamma_regularizer": null}, "inbound_nodes": [[["conv2d_86", 0, 0, {}]]]}, {"name": "mixed9_1", "class_name": "Concatenate", "config": {"name": "mixed9_1", "axis": -1, "trainable": true}, "inbound_nodes": [[["batch_normalization_88", 0, 0, {}], ["batch_normalization_89", 0, 0, {}]]]}, {"name": "concatenate_2", "class_name": "Concatenate", "config": {"name": "concatenate_2", "axis": -1, "trainable": true}, "inbound_nodes": [[["batch_normalization_92", 0, 0, {}], ["batch_normalization_93", 0, 0, {}]]]}, {"name": "batch_normalization_94", "class_name": "BatchNormalization", "config": {"moving_mean_initializer": {"config": {}, "class_name": "Zeros"}, "axis": 3, "beta_regularizer": null, "beta_initializer": {"config": {}, "class_name": "Zeros"}, "beta_constraint": null, "center": true, "momentum": 0.99, "name": "batch_normalization_94", "trainable": true, "moving_variance_initializer": {"config": {}, "class_name": "Ones"}, "gamma_initializer": {"config": {}, "class_name": "Ones"}, "epsilon": 0.001, "gamma_constraint": null, "scale": true, "gamma_regularizer": null}, "inbound_nodes": [[["conv2d_94", 0, 0, {}]]]}, {"name": "mixed10", "class_name": "Concatenate", "config": {"name": "mixed10", "axis": -1, "trainable": true}, "inbound_nodes": [[["batch_normalization_86", 0, 0, {}], ["mixed9_1", 0, 0, {}], ["concatenate_2", 0, 0, {}], ["batch_normalization_94", 0, 0, {}]]]}, {"name": "end_max_pool", "class_name": "MaxPooling2D", "config": {"name": "end_max_pool", "strides": [2, 2], "pool_size": [2, 2], "data_format": "channels_last", "trainable": true, "padding": "valid"}, "inbound_nodes": [[["mixed10", 0, 0, {}]]]}, {"name": "flatten", "class_name": "Flatten", "config": {"name": "flatten", "trainable": true}, "inbound_nodes": [[["end_max_pool", 0, 0, {}]]]}, {"name": "output_layer", "class_name": "Dense", "config": {"use_bias": true, "kernel_regularizer": null, "units": 1, "bias_regularizer": null, "activity_regularizer": null, "bias_initializer": {"config": {}, "class_name": "Zeros"}, "name": "output_layer", "bias_constraint": null, "kernel_initializer": {"config": {"mode": "fan_avg", "distribution": "uniform", "scale": 1.0, "seed": null}, "class_name": "VarianceScaling"}, "kernel_constraint": null, "activation": "sigmoid", "trainable": true}, "inbound_nodes": [[["flatten", 0, 0, {}]]]}]}, "class_name": "Model", "backend": "tensorflow", "keras_version": "2.0.6"}