{"class_name": "Model", "config": {"input_layers": [["input_1", 0, 0]], "name": "model_1", "output_layers": [["output_layer", 0, 0]], "layers": [{"class_name": "InputLayer", "name": "input_1", "config": {"batch_input_shape": [null, 1152, 832, 1], "sparse": false, "name": "input_1", "dtype": "float32"}, "inbound_nodes": []}, {"class_name": "Conv2D", "name": "conv2d_1", "config": {"kernel_size": [3, 3], "strides": [2, 2], "kernel_initializer": {"class_name": "VarianceScaling", "config": {"mode": "fan_avg", "scale": 1.0, "distribution": "uniform", "seed": null}}, "bias_initializer": {"class_name": "Zeros", "config": {}}, "trainable": true, "name": "conv2d_1", "activity_regularizer": null, "filters": 16, "kernel_constraint": null, "dilation_rate": [1, 1], "use_bias": true, "kernel_regularizer": null, "bias_regularizer": null, "padding": "valid", "activation": "relu", "bias_constraint": null, "data_format": "channels_last"}, "inbound_nodes": [[["input_1", 0, 0, {}]]]}, {"class_name": "BatchNormalization", "name": "batch_normalization_1", "config": {"moving_variance_initializer": {"class_name": "Ones", "config": {}}, "axis": 3, "gamma_initializer": {"class_name": "Ones", "config": {}}, "trainable": true, "name": "batch_normalization_1", "beta_constraint": null, "scale": true, "momentum": 0.99, "beta_regularizer": null, "gamma_constraint": null, "gamma_regularizer": null, "epsilon": 0.001, "center": true, "beta_initializer": {"class_name": "Zeros", "config": {}}, "moving_mean_initializer": {"class_name": "Zeros", "config": {}}}, "inbound_nodes": [[["conv2d_1", 0, 0, {}]]]}, {"class_name": "Conv2D", "name": "conv2d_2", "config": {"kernel_size": [3, 3], "strides": [1, 1], "kernel_initializer": {"class_name": "VarianceScaling", "config": {"mode": "fan_avg", "scale": 1.0, "distribution": "uniform", "seed": null}}, "bias_initializer": {"class_name": "Zeros", "config": {}}, "trainable": true, "name": "conv2d_2", "activity_regularizer": null, "filters": 16, "kernel_constraint": null, "dilation_rate": [1, 1], "use_bias": true, "kernel_regularizer": null, "bias_regularizer": null, "padding": "valid", "activation": "relu", "bias_constraint": null, "data_format": "channels_last"}, "inbound_nodes": [[["batch_normalization_1", 0, 0, {}]]]}, {"class_name": "BatchNormalization", "name": "batch_normalization_2", "config": {"moving_variance_initializer": {"class_name": "Ones", "config": {}}, "axis": 3, "gamma_initializer": {"class_name": "Ones", "config": {}}, "trainable": true, "name": "batch_normalization_2", "beta_constraint": null, "scale": true, "momentum": 0.99, "beta_regularizer": null, "gamma_constraint": null, "gamma_regularizer": null, "epsilon": 0.001, "center": true, "beta_initializer": {"class_name": "Zeros", "config": {}}, "moving_mean_initializer": {"class_name": "Zeros", "config": {}}}, "inbound_nodes": [[["conv2d_2", 0, 0, {}]]]}, {"class_name": "Conv2D", "name": "conv2d_3", "config": {"kernel_size": [3, 3], "strides": [1, 1], "kernel_initializer": {"class_name": "VarianceScaling", "config": {"mode": "fan_avg", "scale": 1.0, "distribution": "uniform", "seed": null}}, "bias_initializer": {"class_name": "Zeros", "config": {}}, "trainable": true, "name": "conv2d_3", "activity_regularizer": null, "filters": 32, "kernel_constraint": null, "dilation_rate": [1, 1], "use_bias": true, "kernel_regularizer": null, "bias_regularizer": null, "padding": "same", "activation": "relu", "bias_constraint": null, "data_format": "channels_last"}, "inbound_nodes": [[["batch_normalization_2", 0, 0, {}]]]}, {"class_name": "BatchNormalization", "name": "batch_normalization_3", "config": {"moving_variance_initializer": {"class_name": "Ones", "config": {}}, "axis": 3, "gamma_initializer": {"class_name": "Ones", "config": {}}, "trainable": true, "name": "batch_normalization_3", "beta_constraint": null, "scale": true, "momentum": 0.99, "beta_regularizer": null, "gamma_constraint": null, "gamma_regularizer": null, "epsilon": 0.001, "center": true, "beta_initializer": {"class_name": "Zeros", "config": {}}, "moving_mean_initializer": {"class_name": "Zeros", "config": {}}}, "inbound_nodes": [[["conv2d_3", 0, 0, {}]]]}, {"class_name": "MaxPooling2D", "name": "max_pooling2d_1", "config": {"strides": [2, 2], "trainable": true, "name": "max_pooling2d_1", "padding": "valid", "data_format": "channels_last", "pool_size": [3, 3]}, "inbound_nodes": [[["batch_normalization_3", 0, 0, {}]]]}, {"class_name": "Conv2D", "name": "conv2d_4", "config": {"kernel_size": [1, 1], "strides": [1, 1], "kernel_initializer": {"class_name": "VarianceScaling", "config": {"mode": "fan_avg", "scale": 1.0, "distribution": "uniform", "seed": null}}, "bias_initializer": {"class_name": "Zeros", "config": {}}, "trainable": true, "name": "conv2d_4", "activity_regularizer": null, "filters": 40, "kernel_constraint": null, "dilation_rate": [1, 1], "use_bias": true, "kernel_regularizer": null, "bias_regularizer": null, "padding": "valid", "activation": "relu", "bias_constraint": null, "data_format": "channels_last"}, "inbound_nodes": [[["max_pooling2d_1", 0, 0, {}]]]}, {"class_name": "BatchNormalization", "name": "batch_normalization_4", "config": {"moving_variance_initializer": {"class_name": "Ones", "config": {}}, "axis": 3, "gamma_initializer": {"class_name": "Ones", "config": {}}, "trainable": true, "name": "batch_normalization_4", "beta_constraint": null, "scale": true, "momentum": 0.99, "beta_regularizer": null, "gamma_constraint": null, "gamma_regularizer": null, "epsilon": 0.001, "center": true, "beta_initializer": {"class_name": "Zeros", "config": {}}, "moving_mean_initializer": {"class_name": "Zeros", "config": {}}}, "inbound_nodes": [[["conv2d_4", 0, 0, {}]]]}, {"class_name": "Conv2D", "name": "conv2d_5", "config": {"kernel_size": [3, 3], "strides": [1, 1], "kernel_initializer": {"class_name": "VarianceScaling", "config": {"mode": "fan_avg", "scale": 1.0, "distribution": "uniform", "seed": null}}, "bias_initializer": {"class_name": "Zeros", "config": {}}, "trainable": true, "name": "conv2d_5", "activity_regularizer": null, "filters": 96, "kernel_constraint": null, "dilation_rate": [1, 1], "use_bias": true, "kernel_regularizer": null, "bias_regularizer": null, "padding": "valid", "activation": "relu", "bias_constraint": null, "data_format": "channels_last"}, "inbound_nodes": [[["batch_normalization_4", 0, 0, {}]]]}, {"class_name": "BatchNormalization", "name": "batch_normalization_5", "config": {"moving_variance_initializer": {"class_name": "Ones", "config": {}}, "axis": 3, "gamma_initializer": {"class_name": "Ones", "config": {}}, "trainable": true, "name": "batch_normalization_5", "beta_constraint": null, "scale": true, "momentum": 0.99, "beta_regularizer": null, "gamma_constraint": null, "gamma_regularizer": null, "epsilon": 0.001, "center": true, "beta_initializer": {"class_name": "Zeros", "config": {}}, "moving_mean_initializer": {"class_name": "Zeros", "config": {}}}, "inbound_nodes": [[["conv2d_5", 0, 0, {}]]]}, {"class_name": "MaxPooling2D", "name": "max_pooling2d_2", "config": {"strides": [2, 2], "trainable": true, "name": "max_pooling2d_2", "padding": "valid", "data_format": "channels_last", "pool_size": [3, 3]}, "inbound_nodes": [[["batch_normalization_5", 0, 0, {}]]]}, {"class_name": "Conv2D", "name": "conv2d_9", "config": {"kernel_size": [1, 1], "strides": [1, 1], "kernel_initializer": {"class_name": "VarianceScaling", "config": {"mode": "fan_avg", "scale": 1.0, "distribution": "uniform", "seed": null}}, "bias_initializer": {"class_name": "Zeros", "config": {}}, "trainable": true, "name": "conv2d_9", "activity_regularizer": null, "filters": 32, "kernel_constraint": null, "dilation_rate": [1, 1], "use_bias": true, "kernel_regularizer": null, "bias_regularizer": null, "padding": "same", "activation": "relu", "bias_constraint": null, "data_format": "channels_last"}, "inbound_nodes": [[["max_pooling2d_2", 0, 0, {}]]]}, {"class_name": "BatchNormalization", "name": "batch_normalization_9", "config": {"moving_variance_initializer": {"class_name": "Ones", "config": {}}, "axis": 3, "gamma_initializer": {"class_name": "Ones", "config": {}}, "trainable": true, "name": "batch_normalization_9", "beta_constraint": null, "scale": true, "momentum": 0.99, "beta_regularizer": null, "gamma_constraint": null, "gamma_regularizer": null, "epsilon": 0.001, "center": true, "beta_initializer": {"class_name": "Zeros", "config": {}}, "moving_mean_initializer": {"class_name": "Zeros", "config": {}}}, "inbound_nodes": [[["conv2d_9", 0, 0, {}]]]}, {"class_name": "Conv2D", "name": "conv2d_7", "config": {"kernel_size": [1, 1], "strides": [1, 1], "kernel_initializer": {"class_name": "VarianceScaling", "config": {"mode": "fan_avg", "scale": 1.0, "distribution": "uniform", "seed": null}}, "bias_initializer": {"class_name": "Zeros", "config": {}}, "trainable": true, "name": "conv2d_7", "activity_regularizer": null, "filters": 24, "kernel_constraint": null, "dilation_rate": [1, 1], "use_bias": true, "kernel_regularizer": null, "bias_regularizer": null, "padding": "same", "activation": "relu", "bias_constraint": null, "data_format": "channels_last"}, "inbound_nodes": [[["max_pooling2d_2", 0, 0, {}]]]}, {"class_name": "Conv2D", "name": "conv2d_10", "config": {"kernel_size": [3, 3], "strides": [1, 1], "kernel_initializer": {"class_name": "VarianceScaling", "config": {"mode": "fan_avg", "scale": 1.0, "distribution": "uniform", "seed": null}}, "bias_initializer": {"class_name": "Zeros", "config": {}}, "trainable": true, "name": "conv2d_10", "activity_regularizer": null, "filters": 48, "kernel_constraint": null, "dilation_rate": [1, 1], "use_bias": true, "kernel_regularizer": null, "bias_regularizer": null, "padding": "same", "activation": "relu", "bias_constraint": null, "data_format": "channels_last"}, "inbound_nodes": [[["batch_normalization_9", 0, 0, {}]]]}, {"class_name": "BatchNormalization", "name": "batch_normalization_7", "config": {"moving_variance_initializer": {"class_name": "Ones", "config": {}}, "axis": 3, "gamma_initializer": {"class_name": "Ones", "config": {}}, "trainable": true, "name": "batch_normalization_7", "beta_constraint": null, "scale": true, "momentum": 0.99, "beta_regularizer": null, "gamma_constraint": null, "gamma_regularizer": null, "epsilon": 0.001, "center": true, "beta_initializer": {"class_name": "Zeros", "config": {}}, "moving_mean_initializer": {"class_name": "Zeros", "config": {}}}, "inbound_nodes": [[["conv2d_7", 0, 0, {}]]]}, {"class_name": "BatchNormalization", "name": "batch_normalization_10", "config": {"moving_variance_initializer": {"class_name": "Ones", "config": {}}, "axis": 3, "gamma_initializer": {"class_name": "Ones", "config": {}}, "trainable": true, "name": "batch_normalization_10", "beta_constraint": null, "scale": true, "momentum": 0.99, "beta_regularizer": null, "gamma_constraint": null, "gamma_regularizer": null, "epsilon": 0.001, "center": true, "beta_initializer": {"class_name": "Zeros", "config": {}}, "moving_mean_initializer": {"class_name": "Zeros", "config": {}}}, "inbound_nodes": [[["conv2d_10", 0, 0, {}]]]}, {"class_name": "AveragePooling2D", "name": "average_pooling2d_1", "config": {"strides": [1, 1], "trainable": true, "name": "average_pooling2d_1", "padding": "same", "data_format": "channels_last", "pool_size": [3, 3]}, "inbound_nodes": [[["max_pooling2d_2", 0, 0, {}]]]}, {"class_name": "Conv2D", "name": "conv2d_6", "config": {"kernel_size": [1, 1], "strides": [1, 1], "kernel_initializer": {"class_name": "VarianceScaling", "config": {"mode": "fan_avg", "scale": 1.0, "distribution": "uniform", "seed": null}}, "bias_initializer": {"class_name": "Zeros", "config": {}}, "trainable": true, "name": "conv2d_6", "activity_regularizer": null, "filters": 32, "kernel_constraint": null, "dilation_rate": [1, 1], "use_bias": true, "kernel_regularizer": null, "bias_regularizer": null, "padding": "same", "activation": "relu", "bias_constraint": null, "data_format": "channels_last"}, "inbound_nodes": [[["max_pooling2d_2", 0, 0, {}]]]}, {"class_name": "Conv2D", "name": "conv2d_8", "config": {"kernel_size": [5, 5], "strides": [1, 1], "kernel_initializer": {"class_name": "VarianceScaling", "config": {"mode": "fan_avg", "scale": 1.0, "distribution": "uniform", "seed": null}}, "bias_initializer": {"class_name": "Zeros", "config": {}}, "trainable": true, "name": "conv2d_8", "activity_regularizer": null, "filters": 32, "kernel_constraint": null, "dilation_rate": [1, 1], "use_bias": true, "kernel_regularizer": null, "bias_regularizer": null, "padding": "same", "activation": "relu", "bias_constraint": null, "data_format": "channels_last"}, "inbound_nodes": [[["batch_normalization_7", 0, 0, {}]]]}, {"class_name": "Conv2D", "name": "conv2d_11", "config": {"kernel_size": [3, 3], "strides": [1, 1], "kernel_initializer": {"class_name": "VarianceScaling", "config": {"mode": "fan_avg", "scale": 1.0, "distribution": "uniform", "seed": null}}, "bias_initializer": {"class_name": "Zeros", "config": {}}, "trainable": true, "name": "conv2d_11", "activity_regularizer": null, "filters": 48, "kernel_constraint": null, "dilation_rate": [1, 1], "use_bias": true, "kernel_regularizer": null, "bias_regularizer": null, "padding": "same", "activation": "relu", "bias_constraint": null, "data_format": "channels_last"}, "inbound_nodes": [[["batch_normalization_10", 0, 0, {}]]]}, {"class_name": "Conv2D", "name": "conv2d_12", "config": {"kernel_size": [1, 1], "strides": [1, 1], "kernel_initializer": {"class_name": "VarianceScaling", "config": {"mode": "fan_avg", "scale": 1.0, "distribution": "uniform", "seed": null}}, "bias_initializer": {"class_name": "Zeros", "config": {}}, "trainable": true, "name": "conv2d_12", "activity_regularizer": null, "filters": 16, "kernel_constraint": null, "dilation_rate": [1, 1], "use_bias": true, "kernel_regularizer": null, "bias_regularizer": null, "padding": "same", "activation": "relu", "bias_constraint": null, "data_format": "channels_last"}, "inbound_nodes": [[["average_pooling2d_1", 0, 0, {}]]]}, {"class_name": "BatchNormalization", "name": "batch_normalization_6", "config": {"moving_variance_initializer": {"class_name": "Ones", "config": {}}, "axis": 3, "gamma_initializer": {"class_name": "Ones", "config": {}}, "trainable": true, "name": "batch_normalization_6", "beta_constraint": null, "scale": true, "momentum": 0.99, "beta_regularizer": null, "gamma_constraint": null, "gamma_regularizer": null, "epsilon": 0.001, "center": true, "beta_initializer": {"class_name": "Zeros", "config": {}}, "moving_mean_initializer": {"class_name": "Zeros", "config": {}}}, "inbound_nodes": [[["conv2d_6", 0, 0, {}]]]}, {"class_name": "BatchNormalization", "name": "batch_normalization_8", "config": {"moving_variance_initializer": {"class_name": "Ones", "config": {}}, "axis": 3, "gamma_initializer": {"class_name": "Ones", "config": {}}, "trainable": true, "name": "batch_normalization_8", "beta_constraint": null, "scale": true, "momentum": 0.99, "beta_regularizer": null, "gamma_constraint": null, "gamma_regularizer": null, "epsilon": 0.001, "center": true, "beta_initializer": {"class_name": "Zeros", "config": {}}, "moving_mean_initializer": {"class_name": "Zeros", "config": {}}}, "inbound_nodes": [[["conv2d_8", 0, 0, {}]]]}, {"class_name": "BatchNormalization", "name": "batch_normalization_11", "config": {"moving_variance_initializer": {"class_name": "Ones", "config": {}}, "axis": 3, "gamma_initializer": {"class_name": "Ones", "config": {}}, "trainable": true, "name": "batch_normalization_11", "beta_constraint": null, "scale": true, "momentum": 0.99, "beta_regularizer": null, "gamma_constraint": null, "gamma_regularizer": null, "epsilon": 0.001, "center": true, "beta_initializer": {"class_name": "Zeros", "config": {}}, "moving_mean_initializer": {"class_name": "Zeros", "config": {}}}, "inbound_nodes": [[["conv2d_11", 0, 0, {}]]]}, {"class_name": "BatchNormalization", "name": "batch_normalization_12", "config": {"moving_variance_initializer": {"class_name": "Ones", "config": {}}, "axis": 3, "gamma_initializer": {"class_name": "Ones", "config": {}}, "trainable": true, "name": "batch_normalization_12", "beta_constraint": null, "scale": true, "momentum": 0.99, "beta_regularizer": null, "gamma_constraint": null, "gamma_regularizer": null, "epsilon": 0.001, "center": true, "beta_initializer": {"class_name": "Zeros", "config": {}}, "moving_mean_initializer": {"class_name": "Zeros", "config": {}}}, "inbound_nodes": [[["conv2d_12", 0, 0, {}]]]}, {"class_name": "Concatenate", "name": "mixed0", "config": {"name": "mixed0", "axis": -1, "trainable": true}, "inbound_nodes": [[["batch_normalization_6", 0, 0, {}], ["batch_normalization_8", 0, 0, {}], ["batch_normalization_11", 0, 0, {}], ["batch_normalization_12", 0, 0, {}]]]}, {"class_name": "Conv2D", "name": "conv2d_16", "config": {"kernel_size": [1, 1], "strides": [1, 1], "kernel_initializer": {"class_name": "VarianceScaling", "config": {"mode": "fan_avg", "scale": 1.0, "distribution": "uniform", "seed": null}}, "bias_initializer": {"class_name": "Zeros", "config": {}}, "trainable": true, "name": "conv2d_16", "activity_regularizer": null, "filters": 32, "kernel_constraint": null, "dilation_rate": [1, 1], "use_bias": true, "kernel_regularizer": null, "bias_regularizer": null, "padding": "same", "activation": "relu", "bias_constraint": null, "data_format": "channels_last"}, "inbound_nodes": [[["mixed0", 0, 0, {}]]]}, {"class_name": "BatchNormalization", "name": "batch_normalization_16", "config": {"moving_variance_initializer": {"class_name": "Ones", "config": {}}, "axis": 3, "gamma_initializer": {"class_name": "Ones", "config": {}}, "trainable": true, "name": "batch_normalization_16", "beta_constraint": null, "scale": true, "momentum": 0.99, "beta_regularizer": null, "gamma_constraint": null, "gamma_regularizer": null, "epsilon": 0.001, "center": true, "beta_initializer": {"class_name": "Zeros", "config": {}}, "moving_mean_initializer": {"class_name": "Zeros", "config": {}}}, "inbound_nodes": [[["conv2d_16", 0, 0, {}]]]}, {"class_name": "Conv2D", "name": "conv2d_14", "config": {"kernel_size": [1, 1], "strides": [1, 1], "kernel_initializer": {"class_name": "VarianceScaling", "config": {"mode": "fan_avg", "scale": 1.0, "distribution": "uniform", "seed": null}}, "bias_initializer": {"class_name": "Zeros", "config": {}}, "trainable": true, "name": "conv2d_14", "activity_regularizer": null, "filters": 24, "kernel_constraint": null, "dilation_rate": [1, 1], "use_bias": true, "kernel_regularizer": null, "bias_regularizer": null, "padding": "same", "activation": "relu", "bias_constraint": null, "data_format": "channels_last"}, "inbound_nodes": [[["mixed0", 0, 0, {}]]]}, {"class_name": "Conv2D", "name": "conv2d_17", "config": {"kernel_size": [3, 3], "strides": [1, 1], "kernel_initializer": {"class_name": "VarianceScaling", "config": {"mode": "fan_avg", "scale": 1.0, "distribution": "uniform", "seed": null}}, "bias_initializer": {"class_name": "Zeros", "config": {}}, "trainable": true, "name": "conv2d_17", "activity_regularizer": null, "filters": 48, "kernel_constraint": null, "dilation_rate": [1, 1], "use_bias": true, "kernel_regularizer": null, "bias_regularizer": null, "padding": "same", "activation": "relu", "bias_constraint": null, "data_format": "channels_last"}, "inbound_nodes": [[["batch_normalization_16", 0, 0, {}]]]}, {"class_name": "BatchNormalization", "name": "batch_normalization_14", "config": {"moving_variance_initializer": {"class_name": "Ones", "config": {}}, "axis": 3, "gamma_initializer": {"class_name": "Ones", "config": {}}, "trainable": true, "name": "batch_normalization_14", "beta_constraint": null, "scale": true, "momentum": 0.99, "beta_regularizer": null, "gamma_constraint": null, "gamma_regularizer": null, "epsilon": 0.001, "center": true, "beta_initializer": {"class_name": "Zeros", "config": {}}, "moving_mean_initializer": {"class_name": "Zeros", "config": {}}}, "inbound_nodes": [[["conv2d_14", 0, 0, {}]]]}, {"class_name": "BatchNormalization", "name": "batch_normalization_17", "config": {"moving_variance_initializer": {"class_name": "Ones", "config": {}}, "axis": 3, "gamma_initializer": {"class_name": "Ones", "config": {}}, "trainable": true, "name": "batch_normalization_17", "beta_constraint": null, "scale": true, "momentum": 0.99, "beta_regularizer": null, "gamma_constraint": null, "gamma_regularizer": null, "epsilon": 0.001, "center": true, "beta_initializer": {"class_name": "Zeros", "config": {}}, "moving_mean_initializer": {"class_name": "Zeros", "config": {}}}, "inbound_nodes": [[["conv2d_17", 0, 0, {}]]]}, {"class_name": "AveragePooling2D", "name": "average_pooling2d_2", "config": {"strides": [1, 1], "trainable": true, "name": "average_pooling2d_2", "padding": "same", "data_format": "channels_last", "pool_size": [3, 3]}, "inbound_nodes": [[["mixed0", 0, 0, {}]]]}, {"class_name": "Conv2D", "name": "conv2d_13", "config": {"kernel_size": [1, 1], "strides": [1, 1], "kernel_initializer": {"class_name": "VarianceScaling", "config": {"mode": "fan_avg", "scale": 1.0, "distribution": "uniform", "seed": null}}, "bias_initializer": {"class_name": "Zeros", "config": {}}, "trainable": true, "name": "conv2d_13", "activity_regularizer": null, "filters": 32, "kernel_constraint": null, "dilation_rate": [1, 1], "use_bias": true, "kernel_regularizer": null, "bias_regularizer": null, "padding": "same", "activation": "relu", "bias_constraint": null, "data_format": "channels_last"}, "inbound_nodes": [[["mixed0", 0, 0, {}]]]}, {"class_name": "Conv2D", "name": "conv2d_15", "config": {"kernel_size": [5, 5], "strides": [1, 1], "kernel_initializer": {"class_name": "VarianceScaling", "config": {"mode": "fan_avg", "scale": 1.0, "distribution": "uniform", "seed": null}}, "bias_initializer": {"class_name": "Zeros", "config": {}}, "trainable": true, "name": "conv2d_15", "activity_regularizer": null, "filters": 32, "kernel_constraint": null, "dilation_rate": [1, 1], "use_bias": true, "kernel_regularizer": null, "bias_regularizer": null, "padding": "same", "activation": "relu", "bias_constraint": null, "data_format": "channels_last"}, "inbound_nodes": [[["batch_normalization_14", 0, 0, {}]]]}, {"class_name": "Conv2D", "name": "conv2d_18", "config": {"kernel_size": [3, 3], "strides": [1, 1], "kernel_initializer": {"class_name": "VarianceScaling", "config": {"mode": "fan_avg", "scale": 1.0, "distribution": "uniform", "seed": null}}, "bias_initializer": {"class_name": "Zeros", "config": {}}, "trainable": true, "name": "conv2d_18", "activity_regularizer": null, "filters": 48, "kernel_constraint": null, "dilation_rate": [1, 1], "use_bias": true, "kernel_regularizer": null, "bias_regularizer": null, "padding": "same", "activation": "relu", "bias_constraint": null, "data_format": "channels_last"}, "inbound_nodes": [[["batch_normalization_17", 0, 0, {}]]]}, {"class_name": "Conv2D", "name": "conv2d_19", "config": {"kernel_size": [1, 1], "strides": [1, 1], "kernel_initializer": {"class_name": "VarianceScaling", "config": {"mode": "fan_avg", "scale": 1.0, "distribution": "uniform", "seed": null}}, "bias_initializer": {"class_name": "Zeros", "config": {}}, "trainable": true, "name": "conv2d_19", "activity_regularizer": null, "filters": 16, "kernel_constraint": null, "dilation_rate": [1, 1], "use_bias": true, "kernel_regularizer": null, "bias_regularizer": null, "padding": "same", "activation": "relu", "bias_constraint": null, "data_format": "channels_last"}, "inbound_nodes": [[["average_pooling2d_2", 0, 0, {}]]]}, {"class_name": "BatchNormalization", "name": "batch_normalization_13", "config": {"moving_variance_initializer": {"class_name": "Ones", "config": {}}, "axis": 3, "gamma_initializer": {"class_name": "Ones", "config": {}}, "trainable": true, "name": "batch_normalization_13", "beta_constraint": null, "scale": true, "momentum": 0.99, "beta_regularizer": null, "gamma_constraint": null, "gamma_regularizer": null, "epsilon": 0.001, "center": true, "beta_initializer": {"class_name": "Zeros", "config": {}}, "moving_mean_initializer": {"class_name": "Zeros", "config": {}}}, "inbound_nodes": [[["conv2d_13", 0, 0, {}]]]}, {"class_name": "BatchNormalization", "name": "batch_normalization_15", "config": {"moving_variance_initializer": {"class_name": "Ones", "config": {}}, "axis": 3, "gamma_initializer": {"class_name": "Ones", "config": {}}, "trainable": true, "name": "batch_normalization_15", "beta_constraint": null, "scale": true, "momentum": 0.99, "beta_regularizer": null, "gamma_constraint": null, "gamma_regularizer": null, "epsilon": 0.001, "center": true, "beta_initializer": {"class_name": "Zeros", "config": {}}, "moving_mean_initializer": {"class_name": "Zeros", "config": {}}}, "inbound_nodes": [[["conv2d_15", 0, 0, {}]]]}, {"class_name": "BatchNormalization", "name": "batch_normalization_18", "config": {"moving_variance_initializer": {"class_name": "Ones", "config": {}}, "axis": 3, "gamma_initializer": {"class_name": "Ones", "config": {}}, "trainable": true, "name": "batch_normalization_18", "beta_constraint": null, "scale": true, "momentum": 0.99, "beta_regularizer": null, "gamma_constraint": null, "gamma_regularizer": null, "epsilon": 0.001, "center": true, "beta_initializer": {"class_name": "Zeros", "config": {}}, "moving_mean_initializer": {"class_name": "Zeros", "config": {}}}, "inbound_nodes": [[["conv2d_18", 0, 0, {}]]]}, {"class_name": "BatchNormalization", "name": "batch_normalization_19", "config": {"moving_variance_initializer": {"class_name": "Ones", "config": {}}, "axis": 3, "gamma_initializer": {"class_name": "Ones", "config": {}}, "trainable": true, "name": "batch_normalization_19", "beta_constraint": null, "scale": true, "momentum": 0.99, "beta_regularizer": null, "gamma_constraint": null, "gamma_regularizer": null, "epsilon": 0.001, "center": true, "beta_initializer": {"class_name": "Zeros", "config": {}}, "moving_mean_initializer": {"class_name": "Zeros", "config": {}}}, "inbound_nodes": [[["conv2d_19", 0, 0, {}]]]}, {"class_name": "Concatenate", "name": "mixed1", "config": {"name": "mixed1", "axis": -1, "trainable": true}, "inbound_nodes": [[["batch_normalization_13", 0, 0, {}], ["batch_normalization_15", 0, 0, {}], ["batch_normalization_18", 0, 0, {}], ["batch_normalization_19", 0, 0, {}]]]}, {"class_name": "Conv2D", "name": "conv2d_23", "config": {"kernel_size": [1, 1], "strides": [1, 1], "kernel_initializer": {"class_name": "VarianceScaling", "config": {"mode": "fan_avg", "scale": 1.0, "distribution": "uniform", "seed": null}}, "bias_initializer": {"class_name": "Zeros", "config": {}}, "trainable": true, "name": "conv2d_23", "activity_regularizer": null, "filters": 32, "kernel_constraint": null, "dilation_rate": [1, 1], "use_bias": true, "kernel_regularizer": null, "bias_regularizer": null, "padding": "same", "activation": "relu", "bias_constraint": null, "data_format": "channels_last"}, "inbound_nodes": [[["mixed1", 0, 0, {}]]]}, {"class_name": "BatchNormalization", "name": "batch_normalization_23", "config": {"moving_variance_initializer": {"class_name": "Ones", "config": {}}, "axis": 3, "gamma_initializer": {"class_name": "Ones", "config": {}}, "trainable": true, "name": "batch_normalization_23", "beta_constraint": null, "scale": true, "momentum": 0.99, "beta_regularizer": null, "gamma_constraint": null, "gamma_regularizer": null, "epsilon": 0.001, "center": true, "beta_initializer": {"class_name": "Zeros", "config": {}}, "moving_mean_initializer": {"class_name": "Zeros", "config": {}}}, "inbound_nodes": [[["conv2d_23", 0, 0, {}]]]}, {"class_name": "Conv2D", "name": "conv2d_21", "config": {"kernel_size": [1, 1], "strides": [1, 1], "kernel_initializer": {"class_name": "VarianceScaling", "config": {"mode": "fan_avg", "scale": 1.0, "distribution": "uniform", "seed": null}}, "bias_initializer": {"class_name": "Zeros", "config": {}}, "trainable": true, "name": "conv2d_21", "activity_regularizer": null, "filters": 24, "kernel_constraint": null, "dilation_rate": [1, 1], "use_bias": true, "kernel_regularizer": null, "bias_regularizer": null, "padding": "same", "activation": "relu", "bias_constraint": null, "data_format": "channels_last"}, "inbound_nodes": [[["mixed1", 0, 0, {}]]]}, {"class_name": "Conv2D", "name": "conv2d_24", "config": {"kernel_size": [3, 3], "strides": [1, 1], "kernel_initializer": {"class_name": "VarianceScaling", "config": {"mode": "fan_avg", "scale": 1.0, "distribution": "uniform", "seed": null}}, "bias_initializer": {"class_name": "Zeros", "config": {}}, "trainable": true, "name": "conv2d_24", "activity_regularizer": null, "filters": 48, "kernel_constraint": null, "dilation_rate": [1, 1], "use_bias": true, "kernel_regularizer": null, "bias_regularizer": null, "padding": "same", "activation": "relu", "bias_constraint": null, "data_format": "channels_last"}, "inbound_nodes": [[["batch_normalization_23", 0, 0, {}]]]}, {"class_name": "BatchNormalization", "name": "batch_normalization_21", "config": {"moving_variance_initializer": {"class_name": "Ones", "config": {}}, "axis": 3, "gamma_initializer": {"class_name": "Ones", "config": {}}, "trainable": true, "name": "batch_normalization_21", "beta_constraint": null, "scale": true, "momentum": 0.99, "beta_regularizer": null, "gamma_constraint": null, "gamma_regularizer": null, "epsilon": 0.001, "center": true, "beta_initializer": {"class_name": "Zeros", "config": {}}, "moving_mean_initializer": {"class_name": "Zeros", "config": {}}}, "inbound_nodes": [[["conv2d_21", 0, 0, {}]]]}, {"class_name": "BatchNormalization", "name": "batch_normalization_24", "config": {"moving_variance_initializer": {"class_name": "Ones", "config": {}}, "axis": 3, "gamma_initializer": {"class_name": "Ones", "config": {}}, "trainable": true, "name": "batch_normalization_24", "beta_constraint": null, "scale": true, "momentum": 0.99, "beta_regularizer": null, "gamma_constraint": null, "gamma_regularizer": null, "epsilon": 0.001, "center": true, "beta_initializer": {"class_name": "Zeros", "config": {}}, "moving_mean_initializer": {"class_name": "Zeros", "config": {}}}, "inbound_nodes": [[["conv2d_24", 0, 0, {}]]]}, {"class_name": "AveragePooling2D", "name": "average_pooling2d_3", "config": {"strides": [1, 1], "trainable": true, "name": "average_pooling2d_3", "padding": "same", "data_format": "channels_last", "pool_size": [3, 3]}, "inbound_nodes": [[["mixed1", 0, 0, {}]]]}, {"class_name": "Conv2D", "name": "conv2d_20", "config": {"kernel_size": [1, 1], "strides": [1, 1], "kernel_initializer": {"class_name": "VarianceScaling", "config": {"mode": "fan_avg", "scale": 1.0, "distribution": "uniform", "seed": null}}, "bias_initializer": {"class_name": "Zeros", "config": {}}, "trainable": true, "name": "conv2d_20", "activity_regularizer": null, "filters": 32, "kernel_constraint": null, "dilation_rate": [1, 1], "use_bias": true, "kernel_regularizer": null, "bias_regularizer": null, "padding": "same", "activation": "relu", "bias_constraint": null, "data_format": "channels_last"}, "inbound_nodes": [[["mixed1", 0, 0, {}]]]}, {"class_name": "Conv2D", "name": "conv2d_22", "config": {"kernel_size": [5, 5], "strides": [1, 1], "kernel_initializer": {"class_name": "VarianceScaling", "config": {"mode": "fan_avg", "scale": 1.0, "distribution": "uniform", "seed": null}}, "bias_initializer": {"class_name": "Zeros", "config": {}}, "trainable": true, "name": "conv2d_22", "activity_regularizer": null, "filters": 32, "kernel_constraint": null, "dilation_rate": [1, 1], "use_bias": true, "kernel_regularizer": null, "bias_regularizer": null, "padding": "same", "activation": "relu", "bias_constraint": null, "data_format": "channels_last"}, "inbound_nodes": [[["batch_normalization_21", 0, 0, {}]]]}, {"class_name": "Conv2D", "name": "conv2d_25", "config": {"kernel_size": [3, 3], "strides": [1, 1], "kernel_initializer": {"class_name": "VarianceScaling", "config": {"mode": "fan_avg", "scale": 1.0, "distribution": "uniform", "seed": null}}, "bias_initializer": {"class_name": "Zeros", "config": {}}, "trainable": true, "name": "conv2d_25", "activity_regularizer": null, "filters": 48, "kernel_constraint": null, "dilation_rate": [1, 1], "use_bias": true, "kernel_regularizer": null, "bias_regularizer": null, "padding": "same", "activation": "relu", "bias_constraint": null, "data_format": "channels_last"}, "inbound_nodes": [[["batch_normalization_24", 0, 0, {}]]]}, {"class_name": "Conv2D", "name": "conv2d_26", "config": {"kernel_size": [1, 1], "strides": [1, 1], "kernel_initializer": {"class_name": "VarianceScaling", "config": {"mode": "fan_avg", "scale": 1.0, "distribution": "uniform", "seed": null}}, "bias_initializer": {"class_name": "Zeros", "config": {}}, "trainable": true, "name": "conv2d_26", "activity_regularizer": null, "filters": 16, "kernel_constraint": null, "dilation_rate": [1, 1], "use_bias": true, "kernel_regularizer": null, "bias_regularizer": null, "padding": "same", "activation": "relu", "bias_constraint": null, "data_format": "channels_last"}, "inbound_nodes": [[["average_pooling2d_3", 0, 0, {}]]]}, {"class_name": "BatchNormalization", "name": "batch_normalization_20", "config": {"moving_variance_initializer": {"class_name": "Ones", "config": {}}, "axis": 3, "gamma_initializer": {"class_name": "Ones", "config": {}}, "trainable": true, "name": "batch_normalization_20", "beta_constraint": null, "scale": true, "momentum": 0.99, "beta_regularizer": null, "gamma_constraint": null, "gamma_regularizer": null, "epsilon": 0.001, "center": true, "beta_initializer": {"class_name": "Zeros", "config": {}}, "moving_mean_initializer": {"class_name": "Zeros", "config": {}}}, "inbound_nodes": [[["conv2d_20", 0, 0, {}]]]}, {"class_name": "BatchNormalization", "name": "batch_normalization_22", "config": {"moving_variance_initializer": {"class_name": "Ones", "config": {}}, "axis": 3, "gamma_initializer": {"class_name": "Ones", "config": {}}, "trainable": true, "name": "batch_normalization_22", "beta_constraint": null, "scale": true, "momentum": 0.99, "beta_regularizer": null, "gamma_constraint": null, "gamma_regularizer": null, "epsilon": 0.001, "center": true, "beta_initializer": {"class_name": "Zeros", "config": {}}, "moving_mean_initializer": {"class_name": "Zeros", "config": {}}}, "inbound_nodes": [[["conv2d_22", 0, 0, {}]]]}, {"class_name": "BatchNormalization", "name": "batch_normalization_25", "config": {"moving_variance_initializer": {"class_name": "Ones", "config": {}}, "axis": 3, "gamma_initializer": {"class_name": "Ones", "config": {}}, "trainable": true, "name": "batch_normalization_25", "beta_constraint": null, "scale": true, "momentum": 0.99, "beta_regularizer": null, "gamma_constraint": null, "gamma_regularizer": null, "epsilon": 0.001, "center": true, "beta_initializer": {"class_name": "Zeros", "config": {}}, "moving_mean_initializer": {"class_name": "Zeros", "config": {}}}, "inbound_nodes": [[["conv2d_25", 0, 0, {}]]]}, {"class_name": "BatchNormalization", "name": "batch_normalization_26", "config": {"moving_variance_initializer": {"class_name": "Ones", "config": {}}, "axis": 3, "gamma_initializer": {"class_name": "Ones", "config": {}}, "trainable": true, "name": "batch_normalization_26", "beta_constraint": null, "scale": true, "momentum": 0.99, "beta_regularizer": null, "gamma_constraint": null, "gamma_regularizer": null, "epsilon": 0.001, "center": true, "beta_initializer": {"class_name": "Zeros", "config": {}}, "moving_mean_initializer": {"class_name": "Zeros", "config": {}}}, "inbound_nodes": [[["conv2d_26", 0, 0, {}]]]}, {"class_name": "Concatenate", "name": "mixed2", "config": {"name": "mixed2", "axis": -1, "trainable": true}, "inbound_nodes": [[["batch_normalization_20", 0, 0, {}], ["batch_normalization_22", 0, 0, {}], ["batch_normalization_25", 0, 0, {}], ["batch_normalization_26", 0, 0, {}]]]}, {"class_name": "Conv2D", "name": "conv2d_28", "config": {"kernel_size": [1, 1], "strides": [1, 1], "kernel_initializer": {"class_name": "VarianceScaling", "config": {"mode": "fan_avg", "scale": 1.0, "distribution": "uniform", "seed": null}}, "bias_initializer": {"class_name": "Zeros", "config": {}}, "trainable": true, "name": "conv2d_28", "activity_regularizer": null, "filters": 32, "kernel_constraint": null, "dilation_rate": [1, 1], "use_bias": true, "kernel_regularizer": null, "bias_regularizer": null, "padding": "same", "activation": "relu", "bias_constraint": null, "data_format": "channels_last"}, "inbound_nodes": [[["mixed2", 0, 0, {}]]]}, {"class_name": "BatchNormalization", "name": "batch_normalization_28", "config": {"moving_variance_initializer": {"class_name": "Ones", "config": {}}, "axis": 3, "gamma_initializer": {"class_name": "Ones", "config": {}}, "trainable": true, "name": "batch_normalization_28", "beta_constraint": null, "scale": true, "momentum": 0.99, "beta_regularizer": null, "gamma_constraint": null, "gamma_regularizer": null, "epsilon": 0.001, "center": true, "beta_initializer": {"class_name": "Zeros", "config": {}}, "moving_mean_initializer": {"class_name": "Zeros", "config": {}}}, "inbound_nodes": [[["conv2d_28", 0, 0, {}]]]}, {"class_name": "Conv2D", "name": "conv2d_29", "config": {"kernel_size": [3, 3], "strides": [1, 1], "kernel_initializer": {"class_name": "VarianceScaling", "config": {"mode": "fan_avg", "scale": 1.0, "distribution": "uniform", "seed": null}}, "bias_initializer": {"class_name": "Zeros", "config": {}}, "trainable": true, "name": "conv2d_29", "activity_regularizer": null, "filters": 48, "kernel_constraint": null, "dilation_rate": [1, 1], "use_bias": true, "kernel_regularizer": null, "bias_regularizer": null, "padding": "same", "activation": "relu", "bias_constraint": null, "data_format": "channels_last"}, "inbound_nodes": [[["batch_normalization_28", 0, 0, {}]]]}, {"class_name": "BatchNormalization", "name": "batch_normalization_29", "config": {"moving_variance_initializer": {"class_name": "Ones", "config": {}}, "axis": 3, "gamma_initializer": {"class_name": "Ones", "config": {}}, "trainable": true, "name": "batch_normalization_29", "beta_constraint": null, "scale": true, "momentum": 0.99, "beta_regularizer": null, "gamma_constraint": null, "gamma_regularizer": null, "epsilon": 0.001, "center": true, "beta_initializer": {"class_name": "Zeros", "config": {}}, "moving_mean_initializer": {"class_name": "Zeros", "config": {}}}, "inbound_nodes": [[["conv2d_29", 0, 0, {}]]]}, {"class_name": "Conv2D", "name": "conv2d_27", "config": {"kernel_size": [3, 3], "strides": [2, 2], "kernel_initializer": {"class_name": "VarianceScaling", "config": {"mode": "fan_avg", "scale": 1.0, "distribution": "uniform", "seed": null}}, "bias_initializer": {"class_name": "Zeros", "config": {}}, "trainable": true, "name": "conv2d_27", "activity_regularizer": null, "filters": 192, "kernel_constraint": null, "dilation_rate": [1, 1], "use_bias": true, "kernel_regularizer": null, "bias_regularizer": null, "padding": "valid", "activation": "relu", "bias_constraint": null, "data_format": "channels_last"}, "inbound_nodes": [[["mixed2", 0, 0, {}]]]}, {"class_name": "Conv2D", "name": "conv2d_30", "config": {"kernel_size": [3, 3], "strides": [2, 2], "kernel_initializer": {"class_name": "VarianceScaling", "config": {"mode": "fan_avg", "scale": 1.0, "distribution": "uniform", "seed": null}}, "bias_initializer": {"class_name": "Zeros", "config": {}}, "trainable": true, "name": "conv2d_30", "activity_regularizer": null, "filters": 48, "kernel_constraint": null, "dilation_rate": [1, 1], "use_bias": true, "kernel_regularizer": null, "bias_regularizer": null, "padding": "valid", "activation": "relu", "bias_constraint": null, "data_format": "channels_last"}, "inbound_nodes": [[["batch_normalization_29", 0, 0, {}]]]}, {"class_name": "BatchNormalization", "name": "batch_normalization_27", "config": {"moving_variance_initializer": {"class_name": "Ones", "config": {}}, "axis": 3, "gamma_initializer": {"class_name": "Ones", "config": {}}, "trainable": true, "name": "batch_normalization_27", "beta_constraint": null, "scale": true, "momentum": 0.99, "beta_regularizer": null, "gamma_constraint": null, "gamma_regularizer": null, "epsilon": 0.001, "center": true, "beta_initializer": {"class_name": "Zeros", "config": {}}, "moving_mean_initializer": {"class_name": "Zeros", "config": {}}}, "inbound_nodes": [[["conv2d_27", 0, 0, {}]]]}, {"class_name": "BatchNormalization", "name": "batch_normalization_30", "config": {"moving_variance_initializer": {"class_name": "Ones", "config": {}}, "axis": 3, "gamma_initializer": {"class_name": "Ones", "config": {}}, "trainable": true, "name": "batch_normalization_30", "beta_constraint": null, "scale": true, "momentum": 0.99, "beta_regularizer": null, "gamma_constraint": null, "gamma_regularizer": null, "epsilon": 0.001, "center": true, "beta_initializer": {"class_name": "Zeros", "config": {}}, "moving_mean_initializer": {"class_name": "Zeros", "config": {}}}, "inbound_nodes": [[["conv2d_30", 0, 0, {}]]]}, {"class_name": "MaxPooling2D", "name": "max_pooling2d_3", "config": {"strides": [2, 2], "trainable": true, "name": "max_pooling2d_3", "padding": "valid", "data_format": "channels_last", "pool_size": [3, 3]}, "inbound_nodes": [[["mixed2", 0, 0, {}]]]}, {"class_name": "Concatenate", "name": "mixed3", "config": {"name": "mixed3", "axis": -1, "trainable": true}, "inbound_nodes": [[["batch_normalization_27", 0, 0, {}], ["batch_normalization_30", 0, 0, {}], ["max_pooling2d_3", 0, 0, {}]]]}, {"class_name": "Conv2D", "name": "conv2d_35", "config": {"kernel_size": [1, 1], "strides": [1, 1], "kernel_initializer": {"class_name": "VarianceScaling", "config": {"mode": "fan_avg", "scale": 1.0, "distribution": "uniform", "seed": null}}, "bias_initializer": {"class_name": "Zeros", "config": {}}, "trainable": true, "name": "conv2d_35", "activity_regularizer": null, "filters": 64, "kernel_constraint": null, "dilation_rate": [1, 1], "use_bias": true, "kernel_regularizer": null, "bias_regularizer": null, "padding": "same", "activation": "relu", "bias_constraint": null, "data_format": "channels_last"}, "inbound_nodes": [[["mixed3", 0, 0, {}]]]}, {"class_name": "BatchNormalization", "name": "batch_normalization_35", "config": {"moving_variance_initializer": {"class_name": "Ones", "config": {}}, "axis": 3, "gamma_initializer": {"class_name": "Ones", "config": {}}, "trainable": true, "name": "batch_normalization_35", "beta_constraint": null, "scale": true, "momentum": 0.99, "beta_regularizer": null, "gamma_constraint": null, "gamma_regularizer": null, "epsilon": 0.001, "center": true, "beta_initializer": {"class_name": "Zeros", "config": {}}, "moving_mean_initializer": {"class_name": "Zeros", "config": {}}}, "inbound_nodes": [[["conv2d_35", 0, 0, {}]]]}, {"class_name": "Conv2D", "name": "conv2d_36", "config": {"kernel_size": [7, 1], "strides": [1, 1], "kernel_initializer": {"class_name": "VarianceScaling", "config": {"mode": "fan_avg", "scale": 1.0, "distribution": "uniform", "seed": null}}, "bias_initializer": {"class_name": "Zeros", "config": {}}, "trainable": true, "name": "conv2d_36", "activity_regularizer": null, "filters": 64, "kernel_constraint": null, "dilation_rate": [1, 1], "use_bias": true, "kernel_regularizer": null, "bias_regularizer": null, "padding": "same", "activation": "relu", "bias_constraint": null, "data_format": "channels_last"}, "inbound_nodes": [[["batch_normalization_35", 0, 0, {}]]]}, {"class_name": "BatchNormalization", "name": "batch_normalization_36", "config": {"moving_variance_initializer": {"class_name": "Ones", "config": {}}, "axis": 3, "gamma_initializer": {"class_name": "Ones", "config": {}}, "trainable": true, "name": "batch_normalization_36", "beta_constraint": null, "scale": true, "momentum": 0.99, "beta_regularizer": null, "gamma_constraint": null, "gamma_regularizer": null, "epsilon": 0.001, "center": true, "beta_initializer": {"class_name": "Zeros", "config": {}}, "moving_mean_initializer": {"class_name": "Zeros", "config": {}}}, "inbound_nodes": [[["conv2d_36", 0, 0, {}]]]}, {"class_name": "Conv2D", "name": "conv2d_32", "config": {"kernel_size": [1, 1], "strides": [1, 1], "kernel_initializer": {"class_name": "VarianceScaling", "config": {"mode": "fan_avg", "scale": 1.0, "distribution": "uniform", "seed": null}}, "bias_initializer": {"class_name": "Zeros", "config": {}}, "trainable": true, "name": "conv2d_32", "activity_regularizer": null, "filters": 64, "kernel_constraint": null, "dilation_rate": [1, 1], "use_bias": true, "kernel_regularizer": null, "bias_regularizer": null, "padding": "same", "activation": "relu", "bias_constraint": null, "data_format": "channels_last"}, "inbound_nodes": [[["mixed3", 0, 0, {}]]]}, {"class_name": "Conv2D", "name": "conv2d_37", "config": {"kernel_size": [1, 7], "strides": [1, 1], "kernel_initializer": {"class_name": "VarianceScaling", "config": {"mode": "fan_avg", "scale": 1.0, "distribution": "uniform", "seed": null}}, "bias_initializer": {"class_name": "Zeros", "config": {}}, "trainable": true, "name": "conv2d_37", "activity_regularizer": null, "filters": 64, "kernel_constraint": null, "dilation_rate": [1, 1], "use_bias": true, "kernel_regularizer": null, "bias_regularizer": null, "padding": "same", "activation": "relu", "bias_constraint": null, "data_format": "channels_last"}, "inbound_nodes": [[["batch_normalization_36", 0, 0, {}]]]}, {"class_name": "BatchNormalization", "name": "batch_normalization_32", "config": {"moving_variance_initializer": {"class_name": "Ones", "config": {}}, "axis": 3, "gamma_initializer": {"class_name": "Ones", "config": {}}, "trainable": true, "name": "batch_normalization_32", "beta_constraint": null, "scale": true, "momentum": 0.99, "beta_regularizer": null, "gamma_constraint": null, "gamma_regularizer": null, "epsilon": 0.001, "center": true, "beta_initializer": {"class_name": "Zeros", "config": {}}, "moving_mean_initializer": {"class_name": "Zeros", "config": {}}}, "inbound_nodes": [[["conv2d_32", 0, 0, {}]]]}, {"class_name": "BatchNormalization", "name": "batch_normalization_37", "config": {"moving_variance_initializer": {"class_name": "Ones", "config": {}}, "axis": 3, "gamma_initializer": {"class_name": "Ones", "config": {}}, "trainable": true, "name": "batch_normalization_37", "beta_constraint": null, "scale": true, "momentum": 0.99, "beta_regularizer": null, "gamma_constraint": null, "gamma_regularizer": null, "epsilon": 0.001, "center": true, "beta_initializer": {"class_name": "Zeros", "config": {}}, "moving_mean_initializer": {"class_name": "Zeros", "config": {}}}, "inbound_nodes": [[["conv2d_37", 0, 0, {}]]]}, {"class_name": "Conv2D", "name": "conv2d_33", "config": {"kernel_size": [1, 7], "strides": [1, 1], "kernel_initializer": {"class_name": "VarianceScaling", "config": {"mode": "fan_avg", "scale": 1.0, "distribution": "uniform", "seed": null}}, "bias_initializer": {"class_name": "Zeros", "config": {}}, "trainable": true, "name": "conv2d_33", "activity_regularizer": null, "filters": 64, "kernel_constraint": null, "dilation_rate": [1, 1], "use_bias": true, "kernel_regularizer": null, "bias_regularizer": null, "padding": "same", "activation": "relu", "bias_constraint": null, "data_format": "channels_last"}, "inbound_nodes": [[["batch_normalization_32", 0, 0, {}]]]}, {"class_name": "Conv2D", "name": "conv2d_38", "config": {"kernel_size": [7, 1], "strides": [1, 1], "kernel_initializer": {"class_name": "VarianceScaling", "config": {"mode": "fan_avg", "scale": 1.0, "distribution": "uniform", "seed": null}}, "bias_initializer": {"class_name": "Zeros", "config": {}}, "trainable": true, "name": "conv2d_38", "activity_regularizer": null, "filters": 64, "kernel_constraint": null, "dilation_rate": [1, 1], "use_bias": true, "kernel_regularizer": null, "bias_regularizer": null, "padding": "same", "activation": "relu", "bias_constraint": null, "data_format": "channels_last"}, "inbound_nodes": [[["batch_normalization_37", 0, 0, {}]]]}, {"class_name": "BatchNormalization", "name": "batch_normalization_33", "config": {"moving_variance_initializer": {"class_name": "Ones", "config": {}}, "axis": 3, "gamma_initializer": {"class_name": "Ones", "config": {}}, "trainable": true, "name": "batch_normalization_33", "beta_constraint": null, "scale": true, "momentum": 0.99, "beta_regularizer": null, "gamma_constraint": null, "gamma_regularizer": null, "epsilon": 0.001, "center": true, "beta_initializer": {"class_name": "Zeros", "config": {}}, "moving_mean_initializer": {"class_name": "Zeros", "config": {}}}, "inbound_nodes": [[["conv2d_33", 0, 0, {}]]]}, {"class_name": "BatchNormalization", "name": "batch_normalization_38", "config": {"moving_variance_initializer": {"class_name": "Ones", "config": {}}, "axis": 3, "gamma_initializer": {"class_name": "Ones", "config": {}}, "trainable": true, "name": "batch_normalization_38", "beta_constraint": null, "scale": true, "momentum": 0.99, "beta_regularizer": null, "gamma_constraint": null, "gamma_regularizer": null, "epsilon": 0.001, "center": true, "beta_initializer": {"class_name": "Zeros", "config": {}}, "moving_mean_initializer": {"class_name": "Zeros", "config": {}}}, "inbound_nodes": [[["conv2d_38", 0, 0, {}]]]}, {"class_name": "AveragePooling2D", "name": "average_pooling2d_4", "config": {"strides": [1, 1], "trainable": true, "name": "average_pooling2d_4", "padding": "same", "data_format": "channels_last", "pool_size": [3, 3]}, "inbound_nodes": [[["mixed3", 0, 0, {}]]]}, {"class_name": "Conv2D", "name": "conv2d_31", "config": {"kernel_size": [1, 1], "strides": [1, 1], "kernel_initializer": {"class_name": "VarianceScaling", "config": {"mode": "fan_avg", "scale": 1.0, "distribution": "uniform", "seed": null}}, "bias_initializer": {"class_name": "Zeros", "config": {}}, "trainable": true, "name": "conv2d_31", "activity_regularizer": null, "filters": 96, "kernel_constraint": null, "dilation_rate": [1, 1], "use_bias": true, "kernel_regularizer": null, "bias_regularizer": null, "padding": "same", "activation": "relu", "bias_constraint": null, "data_format": "channels_last"}, "inbound_nodes": [[["mixed3", 0, 0, {}]]]}, {"class_name": "Conv2D", "name": "conv2d_34", "config": {"kernel_size": [7, 1], "strides": [1, 1], "kernel_initializer": {"class_name": "VarianceScaling", "config": {"mode": "fan_avg", "scale": 1.0, "distribution": "uniform", "seed": null}}, "bias_initializer": {"class_name": "Zeros", "config": {}}, "trainable": true, "name": "conv2d_34", "activity_regularizer": null, "filters": 96, "kernel_constraint": null, "dilation_rate": [1, 1], "use_bias": true, "kernel_regularizer": null, "bias_regularizer": null, "padding": "same", "activation": "relu", "bias_constraint": null, "data_format": "channels_last"}, "inbound_nodes": [[["batch_normalization_33", 0, 0, {}]]]}, {"class_name": "Conv2D", "name": "conv2d_39", "config": {"kernel_size": [1, 7], "strides": [1, 1], "kernel_initializer": {"class_name": "VarianceScaling", "config": {"mode": "fan_avg", "scale": 1.0, "distribution": "uniform", "seed": null}}, "bias_initializer": {"class_name": "Zeros", "config": {}}, "trainable": true, "name": "conv2d_39", "activity_regularizer": null, "filters": 96, "kernel_constraint": null, "dilation_rate": [1, 1], "use_bias": true, "kernel_regularizer": null, "bias_regularizer": null, "padding": "same", "activation": "relu", "bias_constraint": null, "data_format": "channels_last"}, "inbound_nodes": [[["batch_normalization_38", 0, 0, {}]]]}, {"class_name": "Conv2D", "name": "conv2d_40", "config": {"kernel_size": [1, 1], "strides": [1, 1], "kernel_initializer": {"class_name": "VarianceScaling", "config": {"mode": "fan_avg", "scale": 1.0, "distribution": "uniform", "seed": null}}, "bias_initializer": {"class_name": "Zeros", "config": {}}, "trainable": true, "name": "conv2d_40", "activity_regularizer": null, "filters": 96, "kernel_constraint": null, "dilation_rate": [1, 1], "use_bias": true, "kernel_regularizer": null, "bias_regularizer": null, "padding": "same", "activation": "relu", "bias_constraint": null, "data_format": "channels_last"}, "inbound_nodes": [[["average_pooling2d_4", 0, 0, {}]]]}, {"class_name": "BatchNormalization", "name": "batch_normalization_31", "config": {"moving_variance_initializer": {"class_name": "Ones", "config": {}}, "axis": 3, "gamma_initializer": {"class_name": "Ones", "config": {}}, "trainable": true, "name": "batch_normalization_31", "beta_constraint": null, "scale": true, "momentum": 0.99, "beta_regularizer": null, "gamma_constraint": null, "gamma_regularizer": null, "epsilon": 0.001, "center": true, "beta_initializer": {"class_name": "Zeros", "config": {}}, "moving_mean_initializer": {"class_name": "Zeros", "config": {}}}, "inbound_nodes": [[["conv2d_31", 0, 0, {}]]]}, {"class_name": "BatchNormalization", "name": "batch_normalization_34", "config": {"moving_variance_initializer": {"class_name": "Ones", "config": {}}, "axis": 3, "gamma_initializer": {"class_name": "Ones", "config": {}}, "trainable": true, "name": "batch_normalization_34", "beta_constraint": null, "scale": true, "momentum": 0.99, "beta_regularizer": null, "gamma_constraint": null, "gamma_regularizer": null, "epsilon": 0.001, "center": true, "beta_initializer": {"class_name": "Zeros", "config": {}}, "moving_mean_initializer": {"class_name": "Zeros", "config": {}}}, "inbound_nodes": [[["conv2d_34", 0, 0, {}]]]}, {"class_name": "BatchNormalization", "name": "batch_normalization_39", "config": {"moving_variance_initializer": {"class_name": "Ones", "config": {}}, "axis": 3, "gamma_initializer": {"class_name": "Ones", "config": {}}, "trainable": true, "name": "batch_normalization_39", "beta_constraint": null, "scale": true, "momentum": 0.99, "beta_regularizer": null, "gamma_constraint": null, "gamma_regularizer": null, "epsilon": 0.001, "center": true, "beta_initializer": {"class_name": "Zeros", "config": {}}, "moving_mean_initializer": {"class_name": "Zeros", "config": {}}}, "inbound_nodes": [[["conv2d_39", 0, 0, {}]]]}, {"class_name": "BatchNormalization", "name": "batch_normalization_40", "config": {"moving_variance_initializer": {"class_name": "Ones", "config": {}}, "axis": 3, "gamma_initializer": {"class_name": "Ones", "config": {}}, "trainable": true, "name": "batch_normalization_40", "beta_constraint": null, "scale": true, "momentum": 0.99, "beta_regularizer": null, "gamma_constraint": null, "gamma_regularizer": null, "epsilon": 0.001, "center": true, "beta_initializer": {"class_name": "Zeros", "config": {}}, "moving_mean_initializer": {"class_name": "Zeros", "config": {}}}, "inbound_nodes": [[["conv2d_40", 0, 0, {}]]]}, {"class_name": "Concatenate", "name": "mixed4", "config": {"name": "mixed4", "axis": -1, "trainable": true}, "inbound_nodes": [[["batch_normalization_31", 0, 0, {}], ["batch_normalization_34", 0, 0, {}], ["batch_normalization_39", 0, 0, {}], ["batch_normalization_40", 0, 0, {}]]]}, {"class_name": "Conv2D", "name": "conv2d_45", "config": {"kernel_size": [1, 1], "strides": [1, 1], "kernel_initializer": {"class_name": "VarianceScaling", "config": {"mode": "fan_avg", "scale": 1.0, "distribution": "uniform", "seed": null}}, "bias_initializer": {"class_name": "Zeros", "config": {}}, "trainable": true, "name": "conv2d_45", "activity_regularizer": null, "filters": 80, "kernel_constraint": null, "dilation_rate": [1, 1], "use_bias": true, "kernel_regularizer": null, "bias_regularizer": null, "padding": "same", "activation": "relu", "bias_constraint": null, "data_format": "channels_last"}, "inbound_nodes": [[["mixed4", 0, 0, {}]]]}, {"class_name": "BatchNormalization", "name": "batch_normalization_45", "config": {"moving_variance_initializer": {"class_name": "Ones", "config": {}}, "axis": 3, "gamma_initializer": {"class_name": "Ones", "config": {}}, "trainable": true, "name": "batch_normalization_45", "beta_constraint": null, "scale": true, "momentum": 0.99, "beta_regularizer": null, "gamma_constraint": null, "gamma_regularizer": null, "epsilon": 0.001, "center": true, "beta_initializer": {"class_name": "Zeros", "config": {}}, "moving_mean_initializer": {"class_name": "Zeros", "config": {}}}, "inbound_nodes": [[["conv2d_45", 0, 0, {}]]]}, {"class_name": "Conv2D", "name": "conv2d_46", "config": {"kernel_size": [7, 1], "strides": [1, 1], "kernel_initializer": {"class_name": "VarianceScaling", "config": {"mode": "fan_avg", "scale": 1.0, "distribution": "uniform", "seed": null}}, "bias_initializer": {"class_name": "Zeros", "config": {}}, "trainable": true, "name": "conv2d_46", "activity_regularizer": null, "filters": 80, "kernel_constraint": null, "dilation_rate": [1, 1], "use_bias": true, "kernel_regularizer": null, "bias_regularizer": null, "padding": "same", "activation": "relu", "bias_constraint": null, "data_format": "channels_last"}, "inbound_nodes": [[["batch_normalization_45", 0, 0, {}]]]}, {"class_name": "BatchNormalization", "name": "batch_normalization_46", "config": {"moving_variance_initializer": {"class_name": "Ones", "config": {}}, "axis": 3, "gamma_initializer": {"class_name": "Ones", "config": {}}, "trainable": true, "name": "batch_normalization_46", "beta_constraint": null, "scale": true, "momentum": 0.99, "beta_regularizer": null, "gamma_constraint": null, "gamma_regularizer": null, "epsilon": 0.001, "center": true, "beta_initializer": {"class_name": "Zeros", "config": {}}, "moving_mean_initializer": {"class_name": "Zeros", "config": {}}}, "inbound_nodes": [[["conv2d_46", 0, 0, {}]]]}, {"class_name": "Conv2D", "name": "conv2d_42", "config": {"kernel_size": [1, 1], "strides": [1, 1], "kernel_initializer": {"class_name": "VarianceScaling", "config": {"mode": "fan_avg", "scale": 1.0, "distribution": "uniform", "seed": null}}, "bias_initializer": {"class_name": "Zeros", "config": {}}, "trainable": true, "name": "conv2d_42", "activity_regularizer": null, "filters": 80, "kernel_constraint": null, "dilation_rate": [1, 1], "use_bias": true, "kernel_regularizer": null, "bias_regularizer": null, "padding": "same", "activation": "relu", "bias_constraint": null, "data_format": "channels_last"}, "inbound_nodes": [[["mixed4", 0, 0, {}]]]}, {"class_name": "Conv2D", "name": "conv2d_47", "config": {"kernel_size": [1, 7], "strides": [1, 1], "kernel_initializer": {"class_name": "VarianceScaling", "config": {"mode": "fan_avg", "scale": 1.0, "distribution": "uniform", "seed": null}}, "bias_initializer": {"class_name": "Zeros", "config": {}}, "trainable": true, "name": "conv2d_47", "activity_regularizer": null, "filters": 80, "kernel_constraint": null, "dilation_rate": [1, 1], "use_bias": true, "kernel_regularizer": null, "bias_regularizer": null, "padding": "same", "activation": "relu", "bias_constraint": null, "data_format": "channels_last"}, "inbound_nodes": [[["batch_normalization_46", 0, 0, {}]]]}, {"class_name": "BatchNormalization", "name": "batch_normalization_42", "config": {"moving_variance_initializer": {"class_name": "Ones", "config": {}}, "axis": 3, "gamma_initializer": {"class_name": "Ones", "config": {}}, "trainable": true, "name": "batch_normalization_42", "beta_constraint": null, "scale": true, "momentum": 0.99, "beta_regularizer": null, "gamma_constraint": null, "gamma_regularizer": null, "epsilon": 0.001, "center": true, "beta_initializer": {"class_name": "Zeros", "config": {}}, "moving_mean_initializer": {"class_name": "Zeros", "config": {}}}, "inbound_nodes": [[["conv2d_42", 0, 0, {}]]]}, {"class_name": "BatchNormalization", "name": "batch_normalization_47", "config": {"moving_variance_initializer": {"class_name": "Ones", "config": {}}, "axis": 3, "gamma_initializer": {"class_name": "Ones", "config": {}}, "trainable": true, "name": "batch_normalization_47", "beta_constraint": null, "scale": true, "momentum": 0.99, "beta_regularizer": null, "gamma_constraint": null, "gamma_regularizer": null, "epsilon": 0.001, "center": true, "beta_initializer": {"class_name": "Zeros", "config": {}}, "moving_mean_initializer": {"class_name": "Zeros", "config": {}}}, "inbound_nodes": [[["conv2d_47", 0, 0, {}]]]}, {"class_name": "Conv2D", "name": "conv2d_43", "config": {"kernel_size": [1, 7], "strides": [1, 1], "kernel_initializer": {"class_name": "VarianceScaling", "config": {"mode": "fan_avg", "scale": 1.0, "distribution": "uniform", "seed": null}}, "bias_initializer": {"class_name": "Zeros", "config": {}}, "trainable": true, "name": "conv2d_43", "activity_regularizer": null, "filters": 80, "kernel_constraint": null, "dilation_rate": [1, 1], "use_bias": true, "kernel_regularizer": null, "bias_regularizer": null, "padding": "same", "activation": "relu", "bias_constraint": null, "data_format": "channels_last"}, "inbound_nodes": [[["batch_normalization_42", 0, 0, {}]]]}, {"class_name": "Conv2D", "name": "conv2d_48", "config": {"kernel_size": [7, 1], "strides": [1, 1], "kernel_initializer": {"class_name": "VarianceScaling", "config": {"mode": "fan_avg", "scale": 1.0, "distribution": "uniform", "seed": null}}, "bias_initializer": {"class_name": "Zeros", "config": {}}, "trainable": true, "name": "conv2d_48", "activity_regularizer": null, "filters": 80, "kernel_constraint": null, "dilation_rate": [1, 1], "use_bias": true, "kernel_regularizer": null, "bias_regularizer": null, "padding": "same", "activation": "relu", "bias_constraint": null, "data_format": "channels_last"}, "inbound_nodes": [[["batch_normalization_47", 0, 0, {}]]]}, {"class_name": "BatchNormalization", "name": "batch_normalization_43", "config": {"moving_variance_initializer": {"class_name": "Ones", "config": {}}, "axis": 3, "gamma_initializer": {"class_name": "Ones", "config": {}}, "trainable": true, "name": "batch_normalization_43", "beta_constraint": null, "scale": true, "momentum": 0.99, "beta_regularizer": null, "gamma_constraint": null, "gamma_regularizer": null, "epsilon": 0.001, "center": true, "beta_initializer": {"class_name": "Zeros", "config": {}}, "moving_mean_initializer": {"class_name": "Zeros", "config": {}}}, "inbound_nodes": [[["conv2d_43", 0, 0, {}]]]}, {"class_name": "BatchNormalization", "name": "batch_normalization_48", "config": {"moving_variance_initializer": {"class_name": "Ones", "config": {}}, "axis": 3, "gamma_initializer": {"class_name": "Ones", "config": {}}, "trainable": true, "name": "batch_normalization_48", "beta_constraint": null, "scale": true, "momentum": 0.99, "beta_regularizer": null, "gamma_constraint": null, "gamma_regularizer": null, "epsilon": 0.001, "center": true, "beta_initializer": {"class_name": "Zeros", "config": {}}, "moving_mean_initializer": {"class_name": "Zeros", "config": {}}}, "inbound_nodes": [[["conv2d_48", 0, 0, {}]]]}, {"class_name": "AveragePooling2D", "name": "average_pooling2d_5", "config": {"strides": [1, 1], "trainable": true, "name": "average_pooling2d_5", "padding": "same", "data_format": "channels_last", "pool_size": [3, 3]}, "inbound_nodes": [[["mixed4", 0, 0, {}]]]}, {"class_name": "Conv2D", "name": "conv2d_41", "config": {"kernel_size": [1, 1], "strides": [1, 1], "kernel_initializer": {"class_name": "VarianceScaling", "config": {"mode": "fan_avg", "scale": 1.0, "distribution": "uniform", "seed": null}}, "bias_initializer": {"class_name": "Zeros", "config": {}}, "trainable": true, "name": "conv2d_41", "activity_regularizer": null, "filters": 96, "kernel_constraint": null, "dilation_rate": [1, 1], "use_bias": true, "kernel_regularizer": null, "bias_regularizer": null, "padding": "same", "activation": "relu", "bias_constraint": null, "data_format": "channels_last"}, "inbound_nodes": [[["mixed4", 0, 0, {}]]]}, {"class_name": "Conv2D", "name": "conv2d_44", "config": {"kernel_size": [7, 1], "strides": [1, 1], "kernel_initializer": {"class_name": "VarianceScaling", "config": {"mode": "fan_avg", "scale": 1.0, "distribution": "uniform", "seed": null}}, "bias_initializer": {"class_name": "Zeros", "config": {}}, "trainable": true, "name": "conv2d_44", "activity_regularizer": null, "filters": 96, "kernel_constraint": null, "dilation_rate": [1, 1], "use_bias": true, "kernel_regularizer": null, "bias_regularizer": null, "padding": "same", "activation": "relu", "bias_constraint": null, "data_format": "channels_last"}, "inbound_nodes": [[["batch_normalization_43", 0, 0, {}]]]}, {"class_name": "Conv2D", "name": "conv2d_49", "config": {"kernel_size": [1, 7], "strides": [1, 1], "kernel_initializer": {"class_name": "VarianceScaling", "config": {"mode": "fan_avg", "scale": 1.0, "distribution": "uniform", "seed": null}}, "bias_initializer": {"class_name": "Zeros", "config": {}}, "trainable": true, "name": "conv2d_49", "activity_regularizer": null, "filters": 96, "kernel_constraint": null, "dilation_rate": [1, 1], "use_bias": true, "kernel_regularizer": null, "bias_regularizer": null, "padding": "same", "activation": "relu", "bias_constraint": null, "data_format": "channels_last"}, "inbound_nodes": [[["batch_normalization_48", 0, 0, {}]]]}, {"class_name": "Conv2D", "name": "conv2d_50", "config": {"kernel_size": [1, 1], "strides": [1, 1], "kernel_initializer": {"class_name": "VarianceScaling", "config": {"mode": "fan_avg", "scale": 1.0, "distribution": "uniform", "seed": null}}, "bias_initializer": {"class_name": "Zeros", "config": {}}, "trainable": true, "name": "conv2d_50", "activity_regularizer": null, "filters": 96, "kernel_constraint": null, "dilation_rate": [1, 1], "use_bias": true, "kernel_regularizer": null, "bias_regularizer": null, "padding": "same", "activation": "relu", "bias_constraint": null, "data_format": "channels_last"}, "inbound_nodes": [[["average_pooling2d_5", 0, 0, {}]]]}, {"class_name": "BatchNormalization", "name": "batch_normalization_41", "config": {"moving_variance_initializer": {"class_name": "Ones", "config": {}}, "axis": 3, "gamma_initializer": {"class_name": "Ones", "config": {}}, "trainable": true, "name": "batch_normalization_41", "beta_constraint": null, "scale": true, "momentum": 0.99, "beta_regularizer": null, "gamma_constraint": null, "gamma_regularizer": null, "epsilon": 0.001, "center": true, "beta_initializer": {"class_name": "Zeros", "config": {}}, "moving_mean_initializer": {"class_name": "Zeros", "config": {}}}, "inbound_nodes": [[["conv2d_41", 0, 0, {}]]]}, {"class_name": "BatchNormalization", "name": "batch_normalization_44", "config": {"moving_variance_initializer": {"class_name": "Ones", "config": {}}, "axis": 3, "gamma_initializer": {"class_name": "Ones", "config": {}}, "trainable": true, "name": "batch_normalization_44", "beta_constraint": null, "scale": true, "momentum": 0.99, "beta_regularizer": null, "gamma_constraint": null, "gamma_regularizer": null, "epsilon": 0.001, "center": true, "beta_initializer": {"class_name": "Zeros", "config": {}}, "moving_mean_initializer": {"class_name": "Zeros", "config": {}}}, "inbound_nodes": [[["conv2d_44", 0, 0, {}]]]}, {"class_name": "BatchNormalization", "name": "batch_normalization_49", "config": {"moving_variance_initializer": {"class_name": "Ones", "config": {}}, "axis": 3, "gamma_initializer": {"class_name": "Ones", "config": {}}, "trainable": true, "name": "batch_normalization_49", "beta_constraint": null, "scale": true, "momentum": 0.99, "beta_regularizer": null, "gamma_constraint": null, "gamma_regularizer": null, "epsilon": 0.001, "center": true, "beta_initializer": {"class_name": "Zeros", "config": {}}, "moving_mean_initializer": {"class_name": "Zeros", "config": {}}}, "inbound_nodes": [[["conv2d_49", 0, 0, {}]]]}, {"class_name": "BatchNormalization", "name": "batch_normalization_50", "config": {"moving_variance_initializer": {"class_name": "Ones", "config": {}}, "axis": 3, "gamma_initializer": {"class_name": "Ones", "config": {}}, "trainable": true, "name": "batch_normalization_50", "beta_constraint": null, "scale": true, "momentum": 0.99, "beta_regularizer": null, "gamma_constraint": null, "gamma_regularizer": null, "epsilon": 0.001, "center": true, "beta_initializer": {"class_name": "Zeros", "config": {}}, "moving_mean_initializer": {"class_name": "Zeros", "config": {}}}, "inbound_nodes": [[["conv2d_50", 0, 0, {}]]]}, {"class_name": "Concatenate", "name": "mixed5", "config": {"name": "mixed5", "axis": -1, "trainable": true}, "inbound_nodes": [[["batch_normalization_41", 0, 0, {}], ["batch_normalization_44", 0, 0, {}], ["batch_normalization_49", 0, 0, {}], ["batch_normalization_50", 0, 0, {}]]]}, {"class_name": "Conv2D", "name": "conv2d_55", "config": {"kernel_size": [1, 1], "strides": [1, 1], "kernel_initializer": {"class_name": "VarianceScaling", "config": {"mode": "fan_avg", "scale": 1.0, "distribution": "uniform", "seed": null}}, "bias_initializer": {"class_name": "Zeros", "config": {}}, "trainable": true, "name": "conv2d_55", "activity_regularizer": null, "filters": 80, "kernel_constraint": null, "dilation_rate": [1, 1], "use_bias": true, "kernel_regularizer": null, "bias_regularizer": null, "padding": "same", "activation": "relu", "bias_constraint": null, "data_format": "channels_last"}, "inbound_nodes": [[["mixed5", 0, 0, {}]]]}, {"class_name": "BatchNormalization", "name": "batch_normalization_55", "config": {"moving_variance_initializer": {"class_name": "Ones", "config": {}}, "axis": 3, "gamma_initializer": {"class_name": "Ones", "config": {}}, "trainable": true, "name": "batch_normalization_55", "beta_constraint": null, "scale": true, "momentum": 0.99, "beta_regularizer": null, "gamma_constraint": null, "gamma_regularizer": null, "epsilon": 0.001, "center": true, "beta_initializer": {"class_name": "Zeros", "config": {}}, "moving_mean_initializer": {"class_name": "Zeros", "config": {}}}, "inbound_nodes": [[["conv2d_55", 0, 0, {}]]]}, {"class_name": "Conv2D", "name": "conv2d_56", "config": {"kernel_size": [7, 1], "strides": [1, 1], "kernel_initializer": {"class_name": "VarianceScaling", "config": {"mode": "fan_avg", "scale": 1.0, "distribution": "uniform", "seed": null}}, "bias_initializer": {"class_name": "Zeros", "config": {}}, "trainable": true, "name": "conv2d_56", "activity_regularizer": null, "filters": 80, "kernel_constraint": null, "dilation_rate": [1, 1], "use_bias": true, "kernel_regularizer": null, "bias_regularizer": null, "padding": "same", "activation": "relu", "bias_constraint": null, "data_format": "channels_last"}, "inbound_nodes": [[["batch_normalization_55", 0, 0, {}]]]}, {"class_name": "BatchNormalization", "name": "batch_normalization_56", "config": {"moving_variance_initializer": {"class_name": "Ones", "config": {}}, "axis": 3, "gamma_initializer": {"class_name": "Ones", "config": {}}, "trainable": true, "name": "batch_normalization_56", "beta_constraint": null, "scale": true, "momentum": 0.99, "beta_regularizer": null, "gamma_constraint": null, "gamma_regularizer": null, "epsilon": 0.001, "center": true, "beta_initializer": {"class_name": "Zeros", "config": {}}, "moving_mean_initializer": {"class_name": "Zeros", "config": {}}}, "inbound_nodes": [[["conv2d_56", 0, 0, {}]]]}, {"class_name": "Conv2D", "name": "conv2d_52", "config": {"kernel_size": [1, 1], "strides": [1, 1], "kernel_initializer": {"class_name": "VarianceScaling", "config": {"mode": "fan_avg", "scale": 1.0, "distribution": "uniform", "seed": null}}, "bias_initializer": {"class_name": "Zeros", "config": {}}, "trainable": true, "name": "conv2d_52", "activity_regularizer": null, "filters": 80, "kernel_constraint": null, "dilation_rate": [1, 1], "use_bias": true, "kernel_regularizer": null, "bias_regularizer": null, "padding": "same", "activation": "relu", "bias_constraint": null, "data_format": "channels_last"}, "inbound_nodes": [[["mixed5", 0, 0, {}]]]}, {"class_name": "Conv2D", "name": "conv2d_57", "config": {"kernel_size": [1, 7], "strides": [1, 1], "kernel_initializer": {"class_name": "VarianceScaling", "config": {"mode": "fan_avg", "scale": 1.0, "distribution": "uniform", "seed": null}}, "bias_initializer": {"class_name": "Zeros", "config": {}}, "trainable": true, "name": "conv2d_57", "activity_regularizer": null, "filters": 80, "kernel_constraint": null, "dilation_rate": [1, 1], "use_bias": true, "kernel_regularizer": null, "bias_regularizer": null, "padding": "same", "activation": "relu", "bias_constraint": null, "data_format": "channels_last"}, "inbound_nodes": [[["batch_normalization_56", 0, 0, {}]]]}, {"class_name": "BatchNormalization", "name": "batch_normalization_52", "config": {"moving_variance_initializer": {"class_name": "Ones", "config": {}}, "axis": 3, "gamma_initializer": {"class_name": "Ones", "config": {}}, "trainable": true, "name": "batch_normalization_52", "beta_constraint": null, "scale": true, "momentum": 0.99, "beta_regularizer": null, "gamma_constraint": null, "gamma_regularizer": null, "epsilon": 0.001, "center": true, "beta_initializer": {"class_name": "Zeros", "config": {}}, "moving_mean_initializer": {"class_name": "Zeros", "config": {}}}, "inbound_nodes": [[["conv2d_52", 0, 0, {}]]]}, {"class_name": "BatchNormalization", "name": "batch_normalization_57", "config": {"moving_variance_initializer": {"class_name": "Ones", "config": {}}, "axis": 3, "gamma_initializer": {"class_name": "Ones", "config": {}}, "trainable": true, "name": "batch_normalization_57", "beta_constraint": null, "scale": true, "momentum": 0.99, "beta_regularizer": null, "gamma_constraint": null, "gamma_regularizer": null, "epsilon": 0.001, "center": true, "beta_initializer": {"class_name": "Zeros", "config": {}}, "moving_mean_initializer": {"class_name": "Zeros", "config": {}}}, "inbound_nodes": [[["conv2d_57", 0, 0, {}]]]}, {"class_name": "Conv2D", "name": "conv2d_53", "config": {"kernel_size": [1, 7], "strides": [1, 1], "kernel_initializer": {"class_name": "VarianceScaling", "config": {"mode": "fan_avg", "scale": 1.0, "distribution": "uniform", "seed": null}}, "bias_initializer": {"class_name": "Zeros", "config": {}}, "trainable": true, "name": "conv2d_53", "activity_regularizer": null, "filters": 80, "kernel_constraint": null, "dilation_rate": [1, 1], "use_bias": true, "kernel_regularizer": null, "bias_regularizer": null, "padding": "same", "activation": "relu", "bias_constraint": null, "data_format": "channels_last"}, "inbound_nodes": [[["batch_normalization_52", 0, 0, {}]]]}, {"class_name": "Conv2D", "name": "conv2d_58", "config": {"kernel_size": [7, 1], "strides": [1, 1], "kernel_initializer": {"class_name": "VarianceScaling", "config": {"mode": "fan_avg", "scale": 1.0, "distribution": "uniform", "seed": null}}, "bias_initializer": {"class_name": "Zeros", "config": {}}, "trainable": true, "name": "conv2d_58", "activity_regularizer": null, "filters": 80, "kernel_constraint": null, "dilation_rate": [1, 1], "use_bias": true, "kernel_regularizer": null, "bias_regularizer": null, "padding": "same", "activation": "relu", "bias_constraint": null, "data_format": "channels_last"}, "inbound_nodes": [[["batch_normalization_57", 0, 0, {}]]]}, {"class_name": "BatchNormalization", "name": "batch_normalization_53", "config": {"moving_variance_initializer": {"class_name": "Ones", "config": {}}, "axis": 3, "gamma_initializer": {"class_name": "Ones", "config": {}}, "trainable": true, "name": "batch_normalization_53", "beta_constraint": null, "scale": true, "momentum": 0.99, "beta_regularizer": null, "gamma_constraint": null, "gamma_regularizer": null, "epsilon": 0.001, "center": true, "beta_initializer": {"class_name": "Zeros", "config": {}}, "moving_mean_initializer": {"class_name": "Zeros", "config": {}}}, "inbound_nodes": [[["conv2d_53", 0, 0, {}]]]}, {"class_name": "BatchNormalization", "name": "batch_normalization_58", "config": {"moving_variance_initializer": {"class_name": "Ones", "config": {}}, "axis": 3, "gamma_initializer": {"class_name": "Ones", "config": {}}, "trainable": true, "name": "batch_normalization_58", "beta_constraint": null, "scale": true, "momentum": 0.99, "beta_regularizer": null, "gamma_constraint": null, "gamma_regularizer": null, "epsilon": 0.001, "center": true, "beta_initializer": {"class_name": "Zeros", "config": {}}, "moving_mean_initializer": {"class_name": "Zeros", "config": {}}}, "inbound_nodes": [[["conv2d_58", 0, 0, {}]]]}, {"class_name": "AveragePooling2D", "name": "average_pooling2d_6", "config": {"strides": [1, 1], "trainable": true, "name": "average_pooling2d_6", "padding": "same", "data_format": "channels_last", "pool_size": [3, 3]}, "inbound_nodes": [[["mixed5", 0, 0, {}]]]}, {"class_name": "Conv2D", "name": "conv2d_51", "config": {"kernel_size": [1, 1], "strides": [1, 1], "kernel_initializer": {"class_name": "VarianceScaling", "config": {"mode": "fan_avg", "scale": 1.0, "distribution": "uniform", "seed": null}}, "bias_initializer": {"class_name": "Zeros", "config": {}}, "trainable": true, "name": "conv2d_51", "activity_regularizer": null, "filters": 96, "kernel_constraint": null, "dilation_rate": [1, 1], "use_bias": true, "kernel_regularizer": null, "bias_regularizer": null, "padding": "same", "activation": "relu", "bias_constraint": null, "data_format": "channels_last"}, "inbound_nodes": [[["mixed5", 0, 0, {}]]]}, {"class_name": "Conv2D", "name": "conv2d_54", "config": {"kernel_size": [7, 1], "strides": [1, 1], "kernel_initializer": {"class_name": "VarianceScaling", "config": {"mode": "fan_avg", "scale": 1.0, "distribution": "uniform", "seed": null}}, "bias_initializer": {"class_name": "Zeros", "config": {}}, "trainable": true, "name": "conv2d_54", "activity_regularizer": null, "filters": 96, "kernel_constraint": null, "dilation_rate": [1, 1], "use_bias": true, "kernel_regularizer": null, "bias_regularizer": null, "padding": "same", "activation": "relu", "bias_constraint": null, "data_format": "channels_last"}, "inbound_nodes": [[["batch_normalization_53", 0, 0, {}]]]}, {"class_name": "Conv2D", "name": "conv2d_59", "config": {"kernel_size": [1, 7], "strides": [1, 1], "kernel_initializer": {"class_name": "VarianceScaling", "config": {"mode": "fan_avg", "scale": 1.0, "distribution": "uniform", "seed": null}}, "bias_initializer": {"class_name": "Zeros", "config": {}}, "trainable": true, "name": "conv2d_59", "activity_regularizer": null, "filters": 96, "kernel_constraint": null, "dilation_rate": [1, 1], "use_bias": true, "kernel_regularizer": null, "bias_regularizer": null, "padding": "same", "activation": "relu", "bias_constraint": null, "data_format": "channels_last"}, "inbound_nodes": [[["batch_normalization_58", 0, 0, {}]]]}, {"class_name": "Conv2D", "name": "conv2d_60", "config": {"kernel_size": [1, 1], "strides": [1, 1], "kernel_initializer": {"class_name": "VarianceScaling", "config": {"mode": "fan_avg", "scale": 1.0, "distribution": "uniform", "seed": null}}, "bias_initializer": {"class_name": "Zeros", "config": {}}, "trainable": true, "name": "conv2d_60", "activity_regularizer": null, "filters": 96, "kernel_constraint": null, "dilation_rate": [1, 1], "use_bias": true, "kernel_regularizer": null, "bias_regularizer": null, "padding": "same", "activation": "relu", "bias_constraint": null, "data_format": "channels_last"}, "inbound_nodes": [[["average_pooling2d_6", 0, 0, {}]]]}, {"class_name": "BatchNormalization", "name": "batch_normalization_51", "config": {"moving_variance_initializer": {"class_name": "Ones", "config": {}}, "axis": 3, "gamma_initializer": {"class_name": "Ones", "config": {}}, "trainable": true, "name": "batch_normalization_51", "beta_constraint": null, "scale": true, "momentum": 0.99, "beta_regularizer": null, "gamma_constraint": null, "gamma_regularizer": null, "epsilon": 0.001, "center": true, "beta_initializer": {"class_name": "Zeros", "config": {}}, "moving_mean_initializer": {"class_name": "Zeros", "config": {}}}, "inbound_nodes": [[["conv2d_51", 0, 0, {}]]]}, {"class_name": "BatchNormalization", "name": "batch_normalization_54", "config": {"moving_variance_initializer": {"class_name": "Ones", "config": {}}, "axis": 3, "gamma_initializer": {"class_name": "Ones", "config": {}}, "trainable": true, "name": "batch_normalization_54", "beta_constraint": null, "scale": true, "momentum": 0.99, "beta_regularizer": null, "gamma_constraint": null, "gamma_regularizer": null, "epsilon": 0.001, "center": true, "beta_initializer": {"class_name": "Zeros", "config": {}}, "moving_mean_initializer": {"class_name": "Zeros", "config": {}}}, "inbound_nodes": [[["conv2d_54", 0, 0, {}]]]}, {"class_name": "BatchNormalization", "name": "batch_normalization_59", "config": {"moving_variance_initializer": {"class_name": "Ones", "config": {}}, "axis": 3, "gamma_initializer": {"class_name": "Ones", "config": {}}, "trainable": true, "name": "batch_normalization_59", "beta_constraint": null, "scale": true, "momentum": 0.99, "beta_regularizer": null, "gamma_constraint": null, "gamma_regularizer": null, "epsilon": 0.001, "center": true, "beta_initializer": {"class_name": "Zeros", "config": {}}, "moving_mean_initializer": {"class_name": "Zeros", "config": {}}}, "inbound_nodes": [[["conv2d_59", 0, 0, {}]]]}, {"class_name": "BatchNormalization", "name": "batch_normalization_60", "config": {"moving_variance_initializer": {"class_name": "Ones", "config": {}}, "axis": 3, "gamma_initializer": {"class_name": "Ones", "config": {}}, "trainable": true, "name": "batch_normalization_60", "beta_constraint": null, "scale": true, "momentum": 0.99, "beta_regularizer": null, "gamma_constraint": null, "gamma_regularizer": null, "epsilon": 0.001, "center": true, "beta_initializer": {"class_name": "Zeros", "config": {}}, "moving_mean_initializer": {"class_name": "Zeros", "config": {}}}, "inbound_nodes": [[["conv2d_60", 0, 0, {}]]]}, {"class_name": "Concatenate", "name": "mixed6", "config": {"name": "mixed6", "axis": -1, "trainable": true}, "inbound_nodes": [[["batch_normalization_51", 0, 0, {}], ["batch_normalization_54", 0, 0, {}], ["batch_normalization_59", 0, 0, {}], ["batch_normalization_60", 0, 0, {}]]]}, {"class_name": "Conv2D", "name": "conv2d_65", "config": {"kernel_size": [1, 1], "strides": [1, 1], "kernel_initializer": {"class_name": "VarianceScaling", "config": {"mode": "fan_avg", "scale": 1.0, "distribution": "uniform", "seed": null}}, "bias_initializer": {"class_name": "Zeros", "config": {}}, "trainable": true, "name": "conv2d_65", "activity_regularizer": null, "filters": 80, "kernel_constraint": null, "dilation_rate": [1, 1], "use_bias": true, "kernel_regularizer": null, "bias_regularizer": null, "padding": "same", "activation": "relu", "bias_constraint": null, "data_format": "channels_last"}, "inbound_nodes": [[["mixed6", 0, 0, {}]]]}, {"class_name": "BatchNormalization", "name": "batch_normalization_65", "config": {"moving_variance_initializer": {"class_name": "Ones", "config": {}}, "axis": 3, "gamma_initializer": {"class_name": "Ones", "config": {}}, "trainable": true, "name": "batch_normalization_65", "beta_constraint": null, "scale": true, "momentum": 0.99, "beta_regularizer": null, "gamma_constraint": null, "gamma_regularizer": null, "epsilon": 0.001, "center": true, "beta_initializer": {"class_name": "Zeros", "config": {}}, "moving_mean_initializer": {"class_name": "Zeros", "config": {}}}, "inbound_nodes": [[["conv2d_65", 0, 0, {}]]]}, {"class_name": "Conv2D", "name": "conv2d_66", "config": {"kernel_size": [7, 1], "strides": [1, 1], "kernel_initializer": {"class_name": "VarianceScaling", "config": {"mode": "fan_avg", "scale": 1.0, "distribution": "uniform", "seed": null}}, "bias_initializer": {"class_name": "Zeros", "config": {}}, "trainable": true, "name": "conv2d_66", "activity_regularizer": null, "filters": 96, "kernel_constraint": null, "dilation_rate": [1, 1], "use_bias": true, "kernel_regularizer": null, "bias_regularizer": null, "padding": "same", "activation": "relu", "bias_constraint": null, "data_format": "channels_last"}, "inbound_nodes": [[["batch_normalization_65", 0, 0, {}]]]}, {"class_name": "BatchNormalization", "name": "batch_normalization_66", "config": {"moving_variance_initializer": {"class_name": "Ones", "config": {}}, "axis": 3, "gamma_initializer": {"class_name": "Ones", "config": {}}, "trainable": true, "name": "batch_normalization_66", "beta_constraint": null, "scale": true, "momentum": 0.99, "beta_regularizer": null, "gamma_constraint": null, "gamma_regularizer": null, "epsilon": 0.001, "center": true, "beta_initializer": {"class_name": "Zeros", "config": {}}, "moving_mean_initializer": {"class_name": "Zeros", "config": {}}}, "inbound_nodes": [[["conv2d_66", 0, 0, {}]]]}, {"class_name": "Conv2D", "name": "conv2d_62", "config": {"kernel_size": [1, 1], "strides": [1, 1], "kernel_initializer": {"class_name": "VarianceScaling", "config": {"mode": "fan_avg", "scale": 1.0, "distribution": "uniform", "seed": null}}, "bias_initializer": {"class_name": "Zeros", "config": {}}, "trainable": true, "name": "conv2d_62", "activity_regularizer": null, "filters": 96, "kernel_constraint": null, "dilation_rate": [1, 1], "use_bias": true, "kernel_regularizer": null, "bias_regularizer": null, "padding": "same", "activation": "relu", "bias_constraint": null, "data_format": "channels_last"}, "inbound_nodes": [[["mixed6", 0, 0, {}]]]}, {"class_name": "Conv2D", "name": "conv2d_67", "config": {"kernel_size": [1, 7], "strides": [1, 1], "kernel_initializer": {"class_name": "VarianceScaling", "config": {"mode": "fan_avg", "scale": 1.0, "distribution": "uniform", "seed": null}}, "bias_initializer": {"class_name": "Zeros", "config": {}}, "trainable": true, "name": "conv2d_67", "activity_regularizer": null, "filters": 96, "kernel_constraint": null, "dilation_rate": [1, 1], "use_bias": true, "kernel_regularizer": null, "bias_regularizer": null, "padding": "same", "activation": "relu", "bias_constraint": null, "data_format": "channels_last"}, "inbound_nodes": [[["batch_normalization_66", 0, 0, {}]]]}, {"class_name": "BatchNormalization", "name": "batch_normalization_62", "config": {"moving_variance_initializer": {"class_name": "Ones", "config": {}}, "axis": 3, "gamma_initializer": {"class_name": "Ones", "config": {}}, "trainable": true, "name": "batch_normalization_62", "beta_constraint": null, "scale": true, "momentum": 0.99, "beta_regularizer": null, "gamma_constraint": null, "gamma_regularizer": null, "epsilon": 0.001, "center": true, "beta_initializer": {"class_name": "Zeros", "config": {}}, "moving_mean_initializer": {"class_name": "Zeros", "config": {}}}, "inbound_nodes": [[["conv2d_62", 0, 0, {}]]]}, {"class_name": "BatchNormalization", "name": "batch_normalization_67", "config": {"moving_variance_initializer": {"class_name": "Ones", "config": {}}, "axis": 3, "gamma_initializer": {"class_name": "Ones", "config": {}}, "trainable": true, "name": "batch_normalization_67", "beta_constraint": null, "scale": true, "momentum": 0.99, "beta_regularizer": null, "gamma_constraint": null, "gamma_regularizer": null, "epsilon": 0.001, "center": true, "beta_initializer": {"class_name": "Zeros", "config": {}}, "moving_mean_initializer": {"class_name": "Zeros", "config": {}}}, "inbound_nodes": [[["conv2d_67", 0, 0, {}]]]}, {"class_name": "Conv2D", "name": "conv2d_63", "config": {"kernel_size": [1, 7], "strides": [1, 1], "kernel_initializer": {"class_name": "VarianceScaling", "config": {"mode": "fan_avg", "scale": 1.0, "distribution": "uniform", "seed": null}}, "bias_initializer": {"class_name": "Zeros", "config": {}}, "trainable": true, "name": "conv2d_63", "activity_regularizer": null, "filters": 96, "kernel_constraint": null, "dilation_rate": [1, 1], "use_bias": true, "kernel_regularizer": null, "bias_regularizer": null, "padding": "same", "activation": "relu", "bias_constraint": null, "data_format": "channels_last"}, "inbound_nodes": [[["batch_normalization_62", 0, 0, {}]]]}, {"class_name": "Conv2D", "name": "conv2d_68", "config": {"kernel_size": [7, 1], "strides": [1, 1], "kernel_initializer": {"class_name": "VarianceScaling", "config": {"mode": "fan_avg", "scale": 1.0, "distribution": "uniform", "seed": null}}, "bias_initializer": {"class_name": "Zeros", "config": {}}, "trainable": true, "name": "conv2d_68", "activity_regularizer": null, "filters": 96, "kernel_constraint": null, "dilation_rate": [1, 1], "use_bias": true, "kernel_regularizer": null, "bias_regularizer": null, "padding": "same", "activation": "relu", "bias_constraint": null, "data_format": "channels_last"}, "inbound_nodes": [[["batch_normalization_67", 0, 0, {}]]]}, {"class_name": "BatchNormalization", "name": "batch_normalization_63", "config": {"moving_variance_initializer": {"class_name": "Ones", "config": {}}, "axis": 3, "gamma_initializer": {"class_name": "Ones", "config": {}}, "trainable": true, "name": "batch_normalization_63", "beta_constraint": null, "scale": true, "momentum": 0.99, "beta_regularizer": null, "gamma_constraint": null, "gamma_regularizer": null, "epsilon": 0.001, "center": true, "beta_initializer": {"class_name": "Zeros", "config": {}}, "moving_mean_initializer": {"class_name": "Zeros", "config": {}}}, "inbound_nodes": [[["conv2d_63", 0, 0, {}]]]}, {"class_name": "BatchNormalization", "name": "batch_normalization_68", "config": {"moving_variance_initializer": {"class_name": "Ones", "config": {}}, "axis": 3, "gamma_initializer": {"class_name": "Ones", "config": {}}, "trainable": true, "name": "batch_normalization_68", "beta_constraint": null, "scale": true, "momentum": 0.99, "beta_regularizer": null, "gamma_constraint": null, "gamma_regularizer": null, "epsilon": 0.001, "center": true, "beta_initializer": {"class_name": "Zeros", "config": {}}, "moving_mean_initializer": {"class_name": "Zeros", "config": {}}}, "inbound_nodes": [[["conv2d_68", 0, 0, {}]]]}, {"class_name": "AveragePooling2D", "name": "average_pooling2d_7", "config": {"strides": [1, 1], "trainable": true, "name": "average_pooling2d_7", "padding": "same", "data_format": "channels_last", "pool_size": [3, 3]}, "inbound_nodes": [[["mixed6", 0, 0, {}]]]}, {"class_name": "Conv2D", "name": "conv2d_61", "config": {"kernel_size": [1, 1], "strides": [1, 1], "kernel_initializer": {"class_name": "VarianceScaling", "config": {"mode": "fan_avg", "scale": 1.0, "distribution": "uniform", "seed": null}}, "bias_initializer": {"class_name": "Zeros", "config": {}}, "trainable": true, "name": "conv2d_61", "activity_regularizer": null, "filters": 96, "kernel_constraint": null, "dilation_rate": [1, 1], "use_bias": true, "kernel_regularizer": null, "bias_regularizer": null, "padding": "same", "activation": "relu", "bias_constraint": null, "data_format": "channels_last"}, "inbound_nodes": [[["mixed6", 0, 0, {}]]]}, {"class_name": "Conv2D", "name": "conv2d_64", "config": {"kernel_size": [7, 1], "strides": [1, 1], "kernel_initializer": {"class_name": "VarianceScaling", "config": {"mode": "fan_avg", "scale": 1.0, "distribution": "uniform", "seed": null}}, "bias_initializer": {"class_name": "Zeros", "config": {}}, "trainable": true, "name": "conv2d_64", "activity_regularizer": null, "filters": 96, "kernel_constraint": null, "dilation_rate": [1, 1], "use_bias": true, "kernel_regularizer": null, "bias_regularizer": null, "padding": "same", "activation": "relu", "bias_constraint": null, "data_format": "channels_last"}, "inbound_nodes": [[["batch_normalization_63", 0, 0, {}]]]}, {"class_name": "Conv2D", "name": "conv2d_69", "config": {"kernel_size": [1, 7], "strides": [1, 1], "kernel_initializer": {"class_name": "VarianceScaling", "config": {"mode": "fan_avg", "scale": 1.0, "distribution": "uniform", "seed": null}}, "bias_initializer": {"class_name": "Zeros", "config": {}}, "trainable": true, "name": "conv2d_69", "activity_regularizer": null, "filters": 96, "kernel_constraint": null, "dilation_rate": [1, 1], "use_bias": true, "kernel_regularizer": null, "bias_regularizer": null, "padding": "same", "activation": "relu", "bias_constraint": null, "data_format": "channels_last"}, "inbound_nodes": [[["batch_normalization_68", 0, 0, {}]]]}, {"class_name": "Conv2D", "name": "conv2d_70", "config": {"kernel_size": [1, 1], "strides": [1, 1], "kernel_initializer": {"class_name": "VarianceScaling", "config": {"mode": "fan_avg", "scale": 1.0, "distribution": "uniform", "seed": null}}, "bias_initializer": {"class_name": "Zeros", "config": {}}, "trainable": true, "name": "conv2d_70", "activity_regularizer": null, "filters": 96, "kernel_constraint": null, "dilation_rate": [1, 1], "use_bias": true, "kernel_regularizer": null, "bias_regularizer": null, "padding": "same", "activation": "relu", "bias_constraint": null, "data_format": "channels_last"}, "inbound_nodes": [[["average_pooling2d_7", 0, 0, {}]]]}, {"class_name": "BatchNormalization", "name": "batch_normalization_61", "config": {"moving_variance_initializer": {"class_name": "Ones", "config": {}}, "axis": 3, "gamma_initializer": {"class_name": "Ones", "config": {}}, "trainable": true, "name": "batch_normalization_61", "beta_constraint": null, "scale": true, "momentum": 0.99, "beta_regularizer": null, "gamma_constraint": null, "gamma_regularizer": null, "epsilon": 0.001, "center": true, "beta_initializer": {"class_name": "Zeros", "config": {}}, "moving_mean_initializer": {"class_name": "Zeros", "config": {}}}, "inbound_nodes": [[["conv2d_61", 0, 0, {}]]]}, {"class_name": "BatchNormalization", "name": "batch_normalization_64", "config": {"moving_variance_initializer": {"class_name": "Ones", "config": {}}, "axis": 3, "gamma_initializer": {"class_name": "Ones", "config": {}}, "trainable": true, "name": "batch_normalization_64", "beta_constraint": null, "scale": true, "momentum": 0.99, "beta_regularizer": null, "gamma_constraint": null, "gamma_regularizer": null, "epsilon": 0.001, "center": true, "beta_initializer": {"class_name": "Zeros", "config": {}}, "moving_mean_initializer": {"class_name": "Zeros", "config": {}}}, "inbound_nodes": [[["conv2d_64", 0, 0, {}]]]}, {"class_name": "BatchNormalization", "name": "batch_normalization_69", "config": {"moving_variance_initializer": {"class_name": "Ones", "config": {}}, "axis": 3, "gamma_initializer": {"class_name": "Ones", "config": {}}, "trainable": true, "name": "batch_normalization_69", "beta_constraint": null, "scale": true, "momentum": 0.99, "beta_regularizer": null, "gamma_constraint": null, "gamma_regularizer": null, "epsilon": 0.001, "center": true, "beta_initializer": {"class_name": "Zeros", "config": {}}, "moving_mean_initializer": {"class_name": "Zeros", "config": {}}}, "inbound_nodes": [[["conv2d_69", 0, 0, {}]]]}, {"class_name": "BatchNormalization", "name": "batch_normalization_70", "config": {"moving_variance_initializer": {"class_name": "Ones", "config": {}}, "axis": 3, "gamma_initializer": {"class_name": "Ones", "config": {}}, "trainable": true, "name": "batch_normalization_70", "beta_constraint": null, "scale": true, "momentum": 0.99, "beta_regularizer": null, "gamma_constraint": null, "gamma_regularizer": null, "epsilon": 0.001, "center": true, "beta_initializer": {"class_name": "Zeros", "config": {}}, "moving_mean_initializer": {"class_name": "Zeros", "config": {}}}, "inbound_nodes": [[["conv2d_70", 0, 0, {}]]]}, {"class_name": "Concatenate", "name": "mixed7", "config": {"name": "mixed7", "axis": -1, "trainable": true}, "inbound_nodes": [[["batch_normalization_61", 0, 0, {}], ["batch_normalization_64", 0, 0, {}], ["batch_normalization_69", 0, 0, {}], ["batch_normalization_70", 0, 0, {}]]]}, {"class_name": "Conv2D", "name": "conv2d_73", "config": {"kernel_size": [1, 1], "strides": [1, 1], "kernel_initializer": {"class_name": "VarianceScaling", "config": {"mode": "fan_avg", "scale": 1.0, "distribution": "uniform", "seed": null}}, "bias_initializer": {"class_name": "Zeros", "config": {}}, "trainable": true, "name": "conv2d_73", "activity_regularizer": null, "filters": 96, "kernel_constraint": null, "dilation_rate": [1, 1], "use_bias": true, "kernel_regularizer": null, "bias_regularizer": null, "padding": "same", "activation": "relu", "bias_constraint": null, "data_format": "channels_last"}, "inbound_nodes": [[["mixed7", 0, 0, {}]]]}, {"class_name": "BatchNormalization", "name": "batch_normalization_73", "config": {"moving_variance_initializer": {"class_name": "Ones", "config": {}}, "axis": 3, "gamma_initializer": {"class_name": "Ones", "config": {}}, "trainable": true, "name": "batch_normalization_73", "beta_constraint": null, "scale": true, "momentum": 0.99, "beta_regularizer": null, "gamma_constraint": null, "gamma_regularizer": null, "epsilon": 0.001, "center": true, "beta_initializer": {"class_name": "Zeros", "config": {}}, "moving_mean_initializer": {"class_name": "Zeros", "config": {}}}, "inbound_nodes": [[["conv2d_73", 0, 0, {}]]]}, {"class_name": "Conv2D", "name": "conv2d_74", "config": {"kernel_size": [1, 7], "strides": [1, 1], "kernel_initializer": {"class_name": "VarianceScaling", "config": {"mode": "fan_avg", "scale": 1.0, "distribution": "uniform", "seed": null}}, "bias_initializer": {"class_name": "Zeros", "config": {}}, "trainable": true, "name": "conv2d_74", "activity_regularizer": null, "filters": 96, "kernel_constraint": null, "dilation_rate": [1, 1], "use_bias": true, "kernel_regularizer": null, "bias_regularizer": null, "padding": "same", "activation": "relu", "bias_constraint": null, "data_format": "channels_last"}, "inbound_nodes": [[["batch_normalization_73", 0, 0, {}]]]}, {"class_name": "BatchNormalization", "name": "batch_normalization_74", "config": {"moving_variance_initializer": {"class_name": "Ones", "config": {}}, "axis": 3, "gamma_initializer": {"class_name": "Ones", "config": {}}, "trainable": true, "name": "batch_normalization_74", "beta_constraint": null, "scale": true, "momentum": 0.99, "beta_regularizer": null, "gamma_constraint": null, "gamma_regularizer": null, "epsilon": 0.001, "center": true, "beta_initializer": {"class_name": "Zeros", "config": {}}, "moving_mean_initializer": {"class_name": "Zeros", "config": {}}}, "inbound_nodes": [[["conv2d_74", 0, 0, {}]]]}, {"class_name": "Conv2D", "name": "conv2d_71", "config": {"kernel_size": [1, 1], "strides": [1, 1], "kernel_initializer": {"class_name": "VarianceScaling", "config": {"mode": "fan_avg", "scale": 1.0, "distribution": "uniform", "seed": null}}, "bias_initializer": {"class_name": "Zeros", "config": {}}, "trainable": true, "name": "conv2d_71", "activity_regularizer": null, "filters": 96, "kernel_constraint": null, "dilation_rate": [1, 1], "use_bias": true, "kernel_regularizer": null, "bias_regularizer": null, "padding": "same", "activation": "relu", "bias_constraint": null, "data_format": "channels_last"}, "inbound_nodes": [[["mixed7", 0, 0, {}]]]}, {"class_name": "Conv2D", "name": "conv2d_75", "config": {"kernel_size": [7, 1], "strides": [1, 1], "kernel_initializer": {"class_name": "VarianceScaling", "config": {"mode": "fan_avg", "scale": 1.0, "distribution": "uniform", "seed": null}}, "bias_initializer": {"class_name": "Zeros", "config": {}}, "trainable": true, "name": "conv2d_75", "activity_regularizer": null, "filters": 96, "kernel_constraint": null, "dilation_rate": [1, 1], "use_bias": true, "kernel_regularizer": null, "bias_regularizer": null, "padding": "same", "activation": "relu", "bias_constraint": null, "data_format": "channels_last"}, "inbound_nodes": [[["batch_normalization_74", 0, 0, {}]]]}, {"class_name": "BatchNormalization", "name": "batch_normalization_71", "config": {"moving_variance_initializer": {"class_name": "Ones", "config": {}}, "axis": 3, "gamma_initializer": {"class_name": "Ones", "config": {}}, "trainable": true, "name": "batch_normalization_71", "beta_constraint": null, "scale": true, "momentum": 0.99, "beta_regularizer": null, "gamma_constraint": null, "gamma_regularizer": null, "epsilon": 0.001, "center": true, "beta_initializer": {"class_name": "Zeros", "config": {}}, "moving_mean_initializer": {"class_name": "Zeros", "config": {}}}, "inbound_nodes": [[["conv2d_71", 0, 0, {}]]]}, {"class_name": "BatchNormalization", "name": "batch_normalization_75", "config": {"moving_variance_initializer": {"class_name": "Ones", "config": {}}, "axis": 3, "gamma_initializer": {"class_name": "Ones", "config": {}}, "trainable": true, "name": "batch_normalization_75", "beta_constraint": null, "scale": true, "momentum": 0.99, "beta_regularizer": null, "gamma_constraint": null, "gamma_regularizer": null, "epsilon": 0.001, "center": true, "beta_initializer": {"class_name": "Zeros", "config": {}}, "moving_mean_initializer": {"class_name": "Zeros", "config": {}}}, "inbound_nodes": [[["conv2d_75", 0, 0, {}]]]}, {"class_name": "Conv2D", "name": "conv2d_72", "config": {"kernel_size": [3, 3], "strides": [2, 2], "kernel_initializer": {"class_name": "VarianceScaling", "config": {"mode": "fan_avg", "scale": 1.0, "distribution": "uniform", "seed": null}}, "bias_initializer": {"class_name": "Zeros", "config": {}}, "trainable": true, "name": "conv2d_72", "activity_regularizer": null, "filters": 160, "kernel_constraint": null, "dilation_rate": [1, 1], "use_bias": true, "kernel_regularizer": null, "bias_regularizer": null, "padding": "valid", "activation": "relu", "bias_constraint": null, "data_format": "channels_last"}, "inbound_nodes": [[["batch_normalization_71", 0, 0, {}]]]}, {"class_name": "Conv2D", "name": "conv2d_76", "config": {"kernel_size": [3, 3], "strides": [2, 2], "kernel_initializer": {"class_name": "VarianceScaling", "config": {"mode": "fan_avg", "scale": 1.0, "distribution": "uniform", "seed": null}}, "bias_initializer": {"class_name": "Zeros", "config": {}}, "trainable": true, "name": "conv2d_76", "activity_regularizer": null, "filters": 96, "kernel_constraint": null, "dilation_rate": [1, 1], "use_bias": true, "kernel_regularizer": null, "bias_regularizer": null, "padding": "valid", "activation": "relu", "bias_constraint": null, "data_format": "channels_last"}, "inbound_nodes": [[["batch_normalization_75", 0, 0, {}]]]}, {"class_name": "BatchNormalization", "name": "batch_normalization_72", "config": {"moving_variance_initializer": {"class_name": "Ones", "config": {}}, "axis": 3, "gamma_initializer": {"class_name": "Ones", "config": {}}, "trainable": true, "name": "batch_normalization_72", "beta_constraint": null, "scale": true, "momentum": 0.99, "beta_regularizer": null, "gamma_constraint": null, "gamma_regularizer": null, "epsilon": 0.001, "center": true, "beta_initializer": {"class_name": "Zeros", "config": {}}, "moving_mean_initializer": {"class_name": "Zeros", "config": {}}}, "inbound_nodes": [[["conv2d_72", 0, 0, {}]]]}, {"class_name": "BatchNormalization", "name": "batch_normalization_76", "config": {"moving_variance_initializer": {"class_name": "Ones", "config": {}}, "axis": 3, "gamma_initializer": {"class_name": "Ones", "config": {}}, "trainable": true, "name": "batch_normalization_76", "beta_constraint": null, "scale": true, "momentum": 0.99, "beta_regularizer": null, "gamma_constraint": null, "gamma_regularizer": null, "epsilon": 0.001, "center": true, "beta_initializer": {"class_name": "Zeros", "config": {}}, "moving_mean_initializer": {"class_name": "Zeros", "config": {}}}, "inbound_nodes": [[["conv2d_76", 0, 0, {}]]]}, {"class_name": "AveragePooling2D", "name": "average_pooling2d_8", "config": {"strides": [2, 2], "trainable": true, "name": "average_pooling2d_8", "padding": "valid", "data_format": "channels_last", "pool_size": [3, 3]}, "inbound_nodes": [[["mixed7", 0, 0, {}]]]}, {"class_name": "Concatenate", "name": "mixed8", "config": {"name": "mixed8", "axis": -1, "trainable": true}, "inbound_nodes": [[["batch_normalization_72", 0, 0, {}], ["batch_normalization_76", 0, 0, {}], ["average_pooling2d_8", 0, 0, {}]]]}, {"class_name": "Conv2D", "name": "conv2d_81", "config": {"kernel_size": [1, 1], "strides": [1, 1], "kernel_initializer": {"class_name": "VarianceScaling", "config": {"mode": "fan_avg", "scale": 1.0, "distribution": "uniform", "seed": null}}, "bias_initializer": {"class_name": "Zeros", "config": {}}, "trainable": true, "name": "conv2d_81", "activity_regularizer": null, "filters": 224, "kernel_constraint": null, "dilation_rate": [1, 1], "use_bias": true, "kernel_regularizer": null, "bias_regularizer": null, "padding": "same", "activation": "relu", "bias_constraint": null, "data_format": "channels_last"}, "inbound_nodes": [[["mixed8", 0, 0, {}]]]}, {"class_name": "BatchNormalization", "name": "batch_normalization_81", "config": {"moving_variance_initializer": {"class_name": "Ones", "config": {}}, "axis": 3, "gamma_initializer": {"class_name": "Ones", "config": {}}, "trainable": true, "name": "batch_normalization_81", "beta_constraint": null, "scale": true, "momentum": 0.99, "beta_regularizer": null, "gamma_constraint": null, "gamma_regularizer": null, "epsilon": 0.001, "center": true, "beta_initializer": {"class_name": "Zeros", "config": {}}, "moving_mean_initializer": {"class_name": "Zeros", "config": {}}}, "inbound_nodes": [[["conv2d_81", 0, 0, {}]]]}, {"class_name": "Conv2D", "name": "conv2d_78", "config": {"kernel_size": [1, 1], "strides": [1, 1], "kernel_initializer": {"class_name": "VarianceScaling", "config": {"mode": "fan_avg", "scale": 1.0, "distribution": "uniform", "seed": null}}, "bias_initializer": {"class_name": "Zeros", "config": {}}, "trainable": true, "name": "conv2d_78", "activity_regularizer": null, "filters": 192, "kernel_constraint": null, "dilation_rate": [1, 1], "use_bias": true, "kernel_regularizer": null, "bias_regularizer": null, "padding": "same", "activation": "relu", "bias_constraint": null, "data_format": "channels_last"}, "inbound_nodes": [[["mixed8", 0, 0, {}]]]}, {"class_name": "Conv2D", "name": "conv2d_82", "config": {"kernel_size": [3, 3], "strides": [1, 1], "kernel_initializer": {"class_name": "VarianceScaling", "config": {"mode": "fan_avg", "scale": 1.0, "distribution": "uniform", "seed": null}}, "bias_initializer": {"class_name": "Zeros", "config": {}}, "trainable": true, "name": "conv2d_82", "activity_regularizer": null, "filters": 192, "kernel_constraint": null, "dilation_rate": [1, 1], "use_bias": true, "kernel_regularizer": null, "bias_regularizer": null, "padding": "same", "activation": "relu", "bias_constraint": null, "data_format": "channels_last"}, "inbound_nodes": [[["batch_normalization_81", 0, 0, {}]]]}, {"class_name": "BatchNormalization", "name": "batch_normalization_78", "config": {"moving_variance_initializer": {"class_name": "Ones", "config": {}}, "axis": 3, "gamma_initializer": {"class_name": "Ones", "config": {}}, "trainable": true, "name": "batch_normalization_78", "beta_constraint": null, "scale": true, "momentum": 0.99, "beta_regularizer": null, "gamma_constraint": null, "gamma_regularizer": null, "epsilon": 0.001, "center": true, "beta_initializer": {"class_name": "Zeros", "config": {}}, "moving_mean_initializer": {"class_name": "Zeros", "config": {}}}, "inbound_nodes": [[["conv2d_78", 0, 0, {}]]]}, {"class_name": "BatchNormalization", "name": "batch_normalization_82", "config": {"moving_variance_initializer": {"class_name": "Ones", "config": {}}, "axis": 3, "gamma_initializer": {"class_name": "Ones", "config": {}}, "trainable": true, "name": "batch_normalization_82", "beta_constraint": null, "scale": true, "momentum": 0.99, "beta_regularizer": null, "gamma_constraint": null, "gamma_regularizer": null, "epsilon": 0.001, "center": true, "beta_initializer": {"class_name": "Zeros", "config": {}}, "moving_mean_initializer": {"class_name": "Zeros", "config": {}}}, "inbound_nodes": [[["conv2d_82", 0, 0, {}]]]}, {"class_name": "Conv2D", "name": "conv2d_79", "config": {"kernel_size": [1, 3], "strides": [1, 1], "kernel_initializer": {"class_name": "VarianceScaling", "config": {"mode": "fan_avg", "scale": 1.0, "distribution": "uniform", "seed": null}}, "bias_initializer": {"class_name": "Zeros", "config": {}}, "trainable": true, "name": "conv2d_79", "activity_regularizer": null, "filters": 192, "kernel_constraint": null, "dilation_rate": [1, 1], "use_bias": true, "kernel_regularizer": null, "bias_regularizer": null, "padding": "same", "activation": "relu", "bias_constraint": null, "data_format": "channels_last"}, "inbound_nodes": [[["batch_normalization_78", 0, 0, {}]]]}, {"class_name": "Conv2D", "name": "conv2d_80", "config": {"kernel_size": [3, 1], "strides": [1, 1], "kernel_initializer": {"class_name": "VarianceScaling", "config": {"mode": "fan_avg", "scale": 1.0, "distribution": "uniform", "seed": null}}, "bias_initializer": {"class_name": "Zeros", "config": {}}, "trainable": true, "name": "conv2d_80", "activity_regularizer": null, "filters": 192, "kernel_constraint": null, "dilation_rate": [1, 1], "use_bias": true, "kernel_regularizer": null, "bias_regularizer": null, "padding": "same", "activation": "relu", "bias_constraint": null, "data_format": "channels_last"}, "inbound_nodes": [[["batch_normalization_78", 0, 0, {}]]]}, {"class_name": "Conv2D", "name": "conv2d_83", "config": {"kernel_size": [1, 3], "strides": [1, 1], "kernel_initializer": {"class_name": "VarianceScaling", "config": {"mode": "fan_avg", "scale": 1.0, "distribution": "uniform", "seed": null}}, "bias_initializer": {"class_name": "Zeros", "config": {}}, "trainable": true, "name": "conv2d_83", "activity_regularizer": null, "filters": 192, "kernel_constraint": null, "dilation_rate": [1, 1], "use_bias": true, "kernel_regularizer": null, "bias_regularizer": null, "padding": "same", "activation": "relu", "bias_constraint": null, "data_format": "channels_last"}, "inbound_nodes": [[["batch_normalization_82", 0, 0, {}]]]}, {"class_name": "Conv2D", "name": "conv2d_84", "config": {"kernel_size": [3, 1], "strides": [1, 1], "kernel_initializer": {"class_name": "VarianceScaling", "config": {"mode": "fan_avg", "scale": 1.0, "distribution": "uniform", "seed": null}}, "bias_initializer": {"class_name": "Zeros", "config": {}}, "trainable": true, "name": "conv2d_84", "activity_regularizer": null, "filters": 192, "kernel_constraint": null, "dilation_rate": [1, 1], "use_bias": true, "kernel_regularizer": null, "bias_regularizer": null, "padding": "same", "activation": "relu", "bias_constraint": null, "data_format": "channels_last"}, "inbound_nodes": [[["batch_normalization_82", 0, 0, {}]]]}, {"class_name": "AveragePooling2D", "name": "average_pooling2d_9", "config": {"strides": [1, 1], "trainable": true, "name": "average_pooling2d_9", "padding": "same", "data_format": "channels_last", "pool_size": [3, 3]}, "inbound_nodes": [[["mixed8", 0, 0, {}]]]}, {"class_name": "Conv2D", "name": "conv2d_77", "config": {"kernel_size": [1, 1], "strides": [1, 1], "kernel_initializer": {"class_name": "VarianceScaling", "config": {"mode": "fan_avg", "scale": 1.0, "distribution": "uniform", "seed": null}}, "bias_initializer": {"class_name": "Zeros", "config": {}}, "trainable": true, "name": "conv2d_77", "activity_regularizer": null, "filters": 160, "kernel_constraint": null, "dilation_rate": [1, 1], "use_bias": true, "kernel_regularizer": null, "bias_regularizer": null, "padding": "same", "activation": "relu", "bias_constraint": null, "data_format": "channels_last"}, "inbound_nodes": [[["mixed8", 0, 0, {}]]]}, {"class_name": "BatchNormalization", "name": "batch_normalization_79", "config": {"moving_variance_initializer": {"class_name": "Ones", "config": {}}, "axis": 3, "gamma_initializer": {"class_name": "Ones", "config": {}}, "trainable": true, "name": "batch_normalization_79", "beta_constraint": null, "scale": true, "momentum": 0.99, "beta_regularizer": null, "gamma_constraint": null, "gamma_regularizer": null, "epsilon": 0.001, "center": true, "beta_initializer": {"class_name": "Zeros", "config": {}}, "moving_mean_initializer": {"class_name": "Zeros", "config": {}}}, "inbound_nodes": [[["conv2d_79", 0, 0, {}]]]}, {"class_name": "BatchNormalization", "name": "batch_normalization_80", "config": {"moving_variance_initializer": {"class_name": "Ones", "config": {}}, "axis": 3, "gamma_initializer": {"class_name": "Ones", "config": {}}, "trainable": true, "name": "batch_normalization_80", "beta_constraint": null, "scale": true, "momentum": 0.99, "beta_regularizer": null, "gamma_constraint": null, "gamma_regularizer": null, "epsilon": 0.001, "center": true, "beta_initializer": {"class_name": "Zeros", "config": {}}, "moving_mean_initializer": {"class_name": "Zeros", "config": {}}}, "inbound_nodes": [[["conv2d_80", 0, 0, {}]]]}, {"class_name": "BatchNormalization", "name": "batch_normalization_83", "config": {"moving_variance_initializer": {"class_name": "Ones", "config": {}}, "axis": 3, "gamma_initializer": {"class_name": "Ones", "config": {}}, "trainable": true, "name": "batch_normalization_83", "beta_constraint": null, "scale": true, "momentum": 0.99, "beta_regularizer": null, "gamma_constraint": null, "gamma_regularizer": null, "epsilon": 0.001, "center": true, "beta_initializer": {"class_name": "Zeros", "config": {}}, "moving_mean_initializer": {"class_name": "Zeros", "config": {}}}, "inbound_nodes": [[["conv2d_83", 0, 0, {}]]]}, {"class_name": "BatchNormalization", "name": "batch_normalization_84", "config": {"moving_variance_initializer": {"class_name": "Ones", "config": {}}, "axis": 3, "gamma_initializer": {"class_name": "Ones", "config": {}}, "trainable": true, "name": "batch_normalization_84", "beta_constraint": null, "scale": true, "momentum": 0.99, "beta_regularizer": null, "gamma_constraint": null, "gamma_regularizer": null, "epsilon": 0.001, "center": true, "beta_initializer": {"class_name": "Zeros", "config": {}}, "moving_mean_initializer": {"class_name": "Zeros", "config": {}}}, "inbound_nodes": [[["conv2d_84", 0, 0, {}]]]}, {"class_name": "Conv2D", "name": "conv2d_85", "config": {"kernel_size": [1, 1], "strides": [1, 1], "kernel_initializer": {"class_name": "VarianceScaling", "config": {"mode": "fan_avg", "scale": 1.0, "distribution": "uniform", "seed": null}}, "bias_initializer": {"class_name": "Zeros", "config": {}}, "trainable": true, "name": "conv2d_85", "activity_regularizer": null, "filters": 96, "kernel_constraint": null, "dilation_rate": [1, 1], "use_bias": true, "kernel_regularizer": null, "bias_regularizer": null, "padding": "same", "activation": "relu", "bias_constraint": null, "data_format": "channels_last"}, "inbound_nodes": [[["average_pooling2d_9", 0, 0, {}]]]}, {"class_name": "BatchNormalization", "name": "batch_normalization_77", "config": {"moving_variance_initializer": {"class_name": "Ones", "config": {}}, "axis": 3, "gamma_initializer": {"class_name": "Ones", "config": {}}, "trainable": true, "name": "batch_normalization_77", "beta_constraint": null, "scale": true, "momentum": 0.99, "beta_regularizer": null, "gamma_constraint": null, "gamma_regularizer": null, "epsilon": 0.001, "center": true, "beta_initializer": {"class_name": "Zeros", "config": {}}, "moving_mean_initializer": {"class_name": "Zeros", "config": {}}}, "inbound_nodes": [[["conv2d_77", 0, 0, {}]]]}, {"class_name": "Concatenate", "name": "mixed9_0", "config": {"name": "mixed9_0", "axis": -1, "trainable": true}, "inbound_nodes": [[["batch_normalization_79", 0, 0, {}], ["batch_normalization_80", 0, 0, {}]]]}, {"class_name": "Concatenate", "name": "concatenate_1", "config": {"name": "concatenate_1", "axis": -1, "trainable": true}, "inbound_nodes": [[["batch_normalization_83", 0, 0, {}], ["batch_normalization_84", 0, 0, {}]]]}, {"class_name": "BatchNormalization", "name": "batch_normalization_85", "config": {"moving_variance_initializer": {"class_name": "Ones", "config": {}}, "axis": 3, "gamma_initializer": {"class_name": "Ones", "config": {}}, "trainable": true, "name": "batch_normalization_85", "beta_constraint": null, "scale": true, "momentum": 0.99, "beta_regularizer": null, "gamma_constraint": null, "gamma_regularizer": null, "epsilon": 0.001, "center": true, "beta_initializer": {"class_name": "Zeros", "config": {}}, "moving_mean_initializer": {"class_name": "Zeros", "config": {}}}, "inbound_nodes": [[["conv2d_85", 0, 0, {}]]]}, {"class_name": "Concatenate", "name": "mixed9", "config": {"name": "mixed9", "axis": -1, "trainable": true}, "inbound_nodes": [[["batch_normalization_77", 0, 0, {}], ["mixed9_0", 0, 0, {}], ["concatenate_1", 0, 0, {}], ["batch_normalization_85", 0, 0, {}]]]}, {"class_name": "Conv2D", "name": "conv2d_90", "config": {"kernel_size": [1, 1], "strides": [1, 1], "kernel_initializer": {"class_name": "VarianceScaling", "config": {"mode": "fan_avg", "scale": 1.0, "distribution": "uniform", "seed": null}}, "bias_initializer": {"class_name": "Zeros", "config": {}}, "trainable": true, "name": "conv2d_90", "activity_regularizer": null, "filters": 224, "kernel_constraint": null, "dilation_rate": [1, 1], "use_bias": true, "kernel_regularizer": null, "bias_regularizer": null, "padding": "same", "activation": "relu", "bias_constraint": null, "data_format": "channels_last"}, "inbound_nodes": [[["mixed9", 0, 0, {}]]]}, {"class_name": "BatchNormalization", "name": "batch_normalization_90", "config": {"moving_variance_initializer": {"class_name": "Ones", "config": {}}, "axis": 3, "gamma_initializer": {"class_name": "Ones", "config": {}}, "trainable": true, "name": "batch_normalization_90", "beta_constraint": null, "scale": true, "momentum": 0.99, "beta_regularizer": null, "gamma_constraint": null, "gamma_regularizer": null, "epsilon": 0.001, "center": true, "beta_initializer": {"class_name": "Zeros", "config": {}}, "moving_mean_initializer": {"class_name": "Zeros", "config": {}}}, "inbound_nodes": [[["conv2d_90", 0, 0, {}]]]}, {"class_name": "Conv2D", "name": "conv2d_87", "config": {"kernel_size": [1, 1], "strides": [1, 1], "kernel_initializer": {"class_name": "VarianceScaling", "config": {"mode": "fan_avg", "scale": 1.0, "distribution": "uniform", "seed": null}}, "bias_initializer": {"class_name": "Zeros", "config": {}}, "trainable": true, "name": "conv2d_87", "activity_regularizer": null, "filters": 192, "kernel_constraint": null, "dilation_rate": [1, 1], "use_bias": true, "kernel_regularizer": null, "bias_regularizer": null, "padding": "same", "activation": "relu", "bias_constraint": null, "data_format": "channels_last"}, "inbound_nodes": [[["mixed9", 0, 0, {}]]]}, {"class_name": "Conv2D", "name": "conv2d_91", "config": {"kernel_size": [3, 3], "strides": [1, 1], "kernel_initializer": {"class_name": "VarianceScaling", "config": {"mode": "fan_avg", "scale": 1.0, "distribution": "uniform", "seed": null}}, "bias_initializer": {"class_name": "Zeros", "config": {}}, "trainable": true, "name": "conv2d_91", "activity_regularizer": null, "filters": 192, "kernel_constraint": null, "dilation_rate": [1, 1], "use_bias": true, "kernel_regularizer": null, "bias_regularizer": null, "padding": "same", "activation": "relu", "bias_constraint": null, "data_format": "channels_last"}, "inbound_nodes": [[["batch_normalization_90", 0, 0, {}]]]}, {"class_name": "BatchNormalization", "name": "batch_normalization_87", "config": {"moving_variance_initializer": {"class_name": "Ones", "config": {}}, "axis": 3, "gamma_initializer": {"class_name": "Ones", "config": {}}, "trainable": true, "name": "batch_normalization_87", "beta_constraint": null, "scale": true, "momentum": 0.99, "beta_regularizer": null, "gamma_constraint": null, "gamma_regularizer": null, "epsilon": 0.001, "center": true, "beta_initializer": {"class_name": "Zeros", "config": {}}, "moving_mean_initializer": {"class_name": "Zeros", "config": {}}}, "inbound_nodes": [[["conv2d_87", 0, 0, {}]]]}, {"class_name": "BatchNormalization", "name": "batch_normalization_91", "config": {"moving_variance_initializer": {"class_name": "Ones", "config": {}}, "axis": 3, "gamma_initializer": {"class_name": "Ones", "config": {}}, "trainable": true, "name": "batch_normalization_91", "beta_constraint": null, "scale": true, "momentum": 0.99, "beta_regularizer": null, "gamma_constraint": null, "gamma_regularizer": null, "epsilon": 0.001, "center": true, "beta_initializer": {"class_name": "Zeros", "config": {}}, "moving_mean_initializer": {"class_name": "Zeros", "config": {}}}, "inbound_nodes": [[["conv2d_91", 0, 0, {}]]]}, {"class_name": "Conv2D", "name": "conv2d_88", "config": {"kernel_size": [1, 3], "strides": [1, 1], "kernel_initializer": {"class_name": "VarianceScaling", "config": {"mode": "fan_avg", "scale": 1.0, "distribution": "uniform", "seed": null}}, "bias_initializer": {"class_name": "Zeros", "config": {}}, "trainable": true, "name": "conv2d_88", "activity_regularizer": null, "filters": 192, "kernel_constraint": null, "dilation_rate": [1, 1], "use_bias": true, "kernel_regularizer": null, "bias_regularizer": null, "padding": "same", "activation": "relu", "bias_constraint": null, "data_format": "channels_last"}, "inbound_nodes": [[["batch_normalization_87", 0, 0, {}]]]}, {"class_name": "Conv2D", "name": "conv2d_89", "config": {"kernel_size": [3, 1], "strides": [1, 1], "kernel_initializer": {"class_name": "VarianceScaling", "config": {"mode": "fan_avg", "scale": 1.0, "distribution": "uniform", "seed": null}}, "bias_initializer": {"class_name": "Zeros", "config": {}}, "trainable": true, "name": "conv2d_89", "activity_regularizer": null, "filters": 192, "kernel_constraint": null, "dilation_rate": [1, 1], "use_bias": true, "kernel_regularizer": null, "bias_regularizer": null, "padding": "same", "activation": "relu", "bias_constraint": null, "data_format": "channels_last"}, "inbound_nodes": [[["batch_normalization_87", 0, 0, {}]]]}, {"class_name": "Conv2D", "name": "conv2d_92", "config": {"kernel_size": [1, 3], "strides": [1, 1], "kernel_initializer": {"class_name": "VarianceScaling", "config": {"mode": "fan_avg", "scale": 1.0, "distribution": "uniform", "seed": null}}, "bias_initializer": {"class_name": "Zeros", "config": {}}, "trainable": true, "name": "conv2d_92", "activity_regularizer": null, "filters": 192, "kernel_constraint": null, "dilation_rate": [1, 1], "use_bias": true, "kernel_regularizer": null, "bias_regularizer": null, "padding": "same", "activation": "relu", "bias_constraint": null, "data_format": "channels_last"}, "inbound_nodes": [[["batch_normalization_91", 0, 0, {}]]]}, {"class_name": "Conv2D", "name": "conv2d_93", "config": {"kernel_size": [3, 1], "strides": [1, 1], "kernel_initializer": {"class_name": "VarianceScaling", "config": {"mode": "fan_avg", "scale": 1.0, "distribution": "uniform", "seed": null}}, "bias_initializer": {"class_name": "Zeros", "config": {}}, "trainable": true, "name": "conv2d_93", "activity_regularizer": null, "filters": 192, "kernel_constraint": null, "dilation_rate": [1, 1], "use_bias": true, "kernel_regularizer": null, "bias_regularizer": null, "padding": "same", "activation": "relu", "bias_constraint": null, "data_format": "channels_last"}, "inbound_nodes": [[["batch_normalization_91", 0, 0, {}]]]}, {"class_name": "AveragePooling2D", "name": "average_pooling2d_10", "config": {"strides": [1, 1], "trainable": true, "name": "average_pooling2d_10", "padding": "same", "data_format": "channels_last", "pool_size": [3, 3]}, "inbound_nodes": [[["mixed9", 0, 0, {}]]]}, {"class_name": "Conv2D", "name": "conv2d_86", "config": {"kernel_size": [1, 1], "strides": [1, 1], "kernel_initializer": {"class_name": "VarianceScaling", "config": {"mode": "fan_avg", "scale": 1.0, "distribution": "uniform", "seed": null}}, "bias_initializer": {"class_name": "Zeros", "config": {}}, "trainable": true, "name": "conv2d_86", "activity_regularizer": null, "filters": 160, "kernel_constraint": null, "dilation_rate": [1, 1], "use_bias": true, "kernel_regularizer": null, "bias_regularizer": null, "padding": "same", "activation": "relu", "bias_constraint": null, "data_format": "channels_last"}, "inbound_nodes": [[["mixed9", 0, 0, {}]]]}, {"class_name": "BatchNormalization", "name": "batch_normalization_88", "config": {"moving_variance_initializer": {"class_name": "Ones", "config": {}}, "axis": 3, "gamma_initializer": {"class_name": "Ones", "config": {}}, "trainable": true, "name": "batch_normalization_88", "beta_constraint": null, "scale": true, "momentum": 0.99, "beta_regularizer": null, "gamma_constraint": null, "gamma_regularizer": null, "epsilon": 0.001, "center": true, "beta_initializer": {"class_name": "Zeros", "config": {}}, "moving_mean_initializer": {"class_name": "Zeros", "config": {}}}, "inbound_nodes": [[["conv2d_88", 0, 0, {}]]]}, {"class_name": "BatchNormalization", "name": "batch_normalization_89", "config": {"moving_variance_initializer": {"class_name": "Ones", "config": {}}, "axis": 3, "gamma_initializer": {"class_name": "Ones", "config": {}}, "trainable": true, "name": "batch_normalization_89", "beta_constraint": null, "scale": true, "momentum": 0.99, "beta_regularizer": null, "gamma_constraint": null, "gamma_regularizer": null, "epsilon": 0.001, "center": true, "beta_initializer": {"class_name": "Zeros", "config": {}}, "moving_mean_initializer": {"class_name": "Zeros", "config": {}}}, "inbound_nodes": [[["conv2d_89", 0, 0, {}]]]}, {"class_name": "BatchNormalization", "name": "batch_normalization_92", "config": {"moving_variance_initializer": {"class_name": "Ones", "config": {}}, "axis": 3, "gamma_initializer": {"class_name": "Ones", "config": {}}, "trainable": true, "name": "batch_normalization_92", "beta_constraint": null, "scale": true, "momentum": 0.99, "beta_regularizer": null, "gamma_constraint": null, "gamma_regularizer": null, "epsilon": 0.001, "center": true, "beta_initializer": {"class_name": "Zeros", "config": {}}, "moving_mean_initializer": {"class_name": "Zeros", "config": {}}}, "inbound_nodes": [[["conv2d_92", 0, 0, {}]]]}, {"class_name": "BatchNormalization", "name": "batch_normalization_93", "config": {"moving_variance_initializer": {"class_name": "Ones", "config": {}}, "axis": 3, "gamma_initializer": {"class_name": "Ones", "config": {}}, "trainable": true, "name": "batch_normalization_93", "beta_constraint": null, "scale": true, "momentum": 0.99, "beta_regularizer": null, "gamma_constraint": null, "gamma_regularizer": null, "epsilon": 0.001, "center": true, "beta_initializer": {"class_name": "Zeros", "config": {}}, "moving_mean_initializer": {"class_name": "Zeros", "config": {}}}, "inbound_nodes": [[["conv2d_93", 0, 0, {}]]]}, {"class_name": "Conv2D", "name": "conv2d_94", "config": {"kernel_size": [1, 1], "strides": [1, 1], "kernel_initializer": {"class_name": "VarianceScaling", "config": {"mode": "fan_avg", "scale": 1.0, "distribution": "uniform", "seed": null}}, "bias_initializer": {"class_name": "Zeros", "config": {}}, "trainable": true, "name": "conv2d_94", "activity_regularizer": null, "filters": 96, "kernel_constraint": null, "dilation_rate": [1, 1], "use_bias": true, "kernel_regularizer": null, "bias_regularizer": null, "padding": "same", "activation": "relu", "bias_constraint": null, "data_format": "channels_last"}, "inbound_nodes": [[["average_pooling2d_10", 0, 0, {}]]]}, {"class_name": "BatchNormalization", "name": "batch_normalization_86", "config": {"moving_variance_initializer": {"class_name": "Ones", "config": {}}, "axis": 3, "gamma_initializer": {"class_name": "Ones", "config": {}}, "trainable": true, "name": "batch_normalization_86", "beta_constraint": null, "scale": true, "momentum": 0.99, "beta_regularizer": null, "gamma_constraint": null, "gamma_regularizer": null, "epsilon": 0.001, "center": true, "beta_initializer": {"class_name": "Zeros", "config": {}}, "moving_mean_initializer": {"class_name": "Zeros", "config": {}}}, "inbound_nodes": [[["conv2d_86", 0, 0, {}]]]}, {"class_name": "Concatenate", "name": "mixed9_1", "config": {"name": "mixed9_1", "axis": -1, "trainable": true}, "inbound_nodes": [[["batch_normalization_88", 0, 0, {}], ["batch_normalization_89", 0, 0, {}]]]}, {"class_name": "Concatenate", "name": "concatenate_2", "config": {"name": "concatenate_2", "axis": -1, "trainable": true}, "inbound_nodes": [[["batch_normalization_92", 0, 0, {}], ["batch_normalization_93", 0, 0, {}]]]}, {"class_name": "BatchNormalization", "name": "batch_normalization_94", "config": {"moving_variance_initializer": {"class_name": "Ones", "config": {}}, "axis": 3, "gamma_initializer": {"class_name": "Ones", "config": {}}, "trainable": true, "name": "batch_normalization_94", "beta_constraint": null, "scale": true, "momentum": 0.99, "beta_regularizer": null, "gamma_constraint": null, "gamma_regularizer": null, "epsilon": 0.001, "center": true, "beta_initializer": {"class_name": "Zeros", "config": {}}, "moving_mean_initializer": {"class_name": "Zeros", "config": {}}}, "inbound_nodes": [[["conv2d_94", 0, 0, {}]]]}, {"class_name": "Concatenate", "name": "mixed10", "config": {"name": "mixed10", "axis": -1, "trainable": true}, "inbound_nodes": [[["batch_normalization_86", 0, 0, {}], ["mixed9_1", 0, 0, {}], ["concatenate_2", 0, 0, {}], ["batch_normalization_94", 0, 0, {}]]]}, {"class_name": "MaxPooling2D", "name": "end_max_pool", "config": {"strides": [2, 2], "trainable": true, "name": "end_max_pool", "padding": "valid", "data_format": "channels_last", "pool_size": [2, 2]}, "inbound_nodes": [[["mixed10", 0, 0, {}]]]}, {"class_name": "Flatten", "name": "flatten", "config": {"name": "flatten", "trainable": true}, "inbound_nodes": [[["end_max_pool", 0, 0, {}]]]}, {"class_name": "Dense", "name": "output_layer", "config": {"kernel_initializer": {"class_name": "VarianceScaling", "config": {"mode": "fan_avg", "scale": 1.0, "distribution": "uniform", "seed": null}}, "bias_initializer": {"class_name": "Zeros", "config": {}}, "activity_regularizer": null, "name": "output_layer", "trainable": true, "kernel_constraint": null, "units": 1, "use_bias": true, "kernel_regularizer": null, "bias_regularizer": null, "activation": "sigmoid", "bias_constraint": null}, "inbound_nodes": [[["flatten", 0, 0, {}]]]}]}, "keras_version": "2.0.6", "backend": "tensorflow"}