{"class_name": "Model", "config": {"layers": [{"class_name": "InputLayer", "config": {"dtype": "float32", "sparse": false, "batch_input_shape": [null, 1152, 832, 1], "name": "input_1"}, "inbound_nodes": [], "name": "input_1"}, {"class_name": "Conv2D", "config": {"activation": "relu", "use_bias": true, "data_format": "channels_last", "strides": [2, 2], "dilation_rate": [1, 1], "kernel_initializer": {"class_name": "VarianceScaling", "config": {"seed": null, "scale": 1.0, "mode": "fan_avg", "distribution": "uniform"}}, "filters": 16, "bias_constraint": null, "kernel_size": [3, 3], "kernel_regularizer": null, "trainable": true, "padding": "valid", "activity_regularizer": null, "kernel_constraint": null, "bias_initializer": {"class_name": "Zeros", "config": {}}, "bias_regularizer": null, "name": "conv2d_1"}, "inbound_nodes": [[["input_1", 0, 0, {}]]], "name": "conv2d_1"}, {"class_name": "BatchNormalization", "config": {"scale": true, "epsilon": 0.001, "center": true, "moving_mean_initializer": {"class_name": "Zeros", "config": {}}, "beta_constraint": null, "gamma_constraint": null, "trainable": true, "momentum": 0.99, "gamma_initializer": {"class_name": "Ones", "config": {}}, "moving_variance_initializer": {"class_name": "Ones", "config": {}}, "gamma_regularizer": null, "name": "batch_normalization_1", "beta_initializer": {"class_name": "Zeros", "config": {}}, "axis": 3, "beta_regularizer": null}, "inbound_nodes": [[["conv2d_1", 0, 0, {}]]], "name": "batch_normalization_1"}, {"class_name": "Conv2D", "config": {"activation": "relu", "use_bias": true, "data_format": "channels_last", "strides": [1, 1], "dilation_rate": [1, 1], "kernel_initializer": {"class_name": "VarianceScaling", "config": {"seed": null, "scale": 1.0, "mode": "fan_avg", "distribution": "uniform"}}, "filters": 16, "bias_constraint": null, "kernel_size": [3, 3], "kernel_regularizer": null, "trainable": true, "padding": "valid", "activity_regularizer": null, "kernel_constraint": null, "bias_initializer": {"class_name": "Zeros", "config": {}}, "bias_regularizer": null, "name": "conv2d_2"}, "inbound_nodes": [[["batch_normalization_1", 0, 0, {}]]], "name": "conv2d_2"}, {"class_name": "BatchNormalization", "config": {"scale": true, "epsilon": 0.001, "center": true, "moving_mean_initializer": {"class_name": "Zeros", "config": {}}, "beta_constraint": null, "gamma_constraint": null, "trainable": true, "momentum": 0.99, "gamma_initializer": {"class_name": "Ones", "config": {}}, "moving_variance_initializer": {"class_name": "Ones", "config": {}}, "gamma_regularizer": null, "name": "batch_normalization_2", "beta_initializer": {"class_name": "Zeros", "config": {}}, "axis": 3, "beta_regularizer": null}, "inbound_nodes": [[["conv2d_2", 0, 0, {}]]], "name": "batch_normalization_2"}, {"class_name": "Conv2D", "config": {"activation": "relu", "use_bias": true, "data_format": "channels_last", "strides": [1, 1], "dilation_rate": [1, 1], "kernel_initializer": {"class_name": "VarianceScaling", "config": {"seed": null, "scale": 1.0, "mode": "fan_avg", "distribution": "uniform"}}, "filters": 32, "bias_constraint": null, "kernel_size": [3, 3], "kernel_regularizer": null, "trainable": true, "padding": "same", "activity_regularizer": null, "kernel_constraint": null, "bias_initializer": {"class_name": "Zeros", "config": {}}, "bias_regularizer": null, "name": "conv2d_3"}, "inbound_nodes": [[["batch_normalization_2", 0, 0, {}]]], "name": "conv2d_3"}, {"class_name": "BatchNormalization", "config": {"scale": true, "epsilon": 0.001, "center": true, "moving_mean_initializer": {"class_name": "Zeros", "config": {}}, "beta_constraint": null, "gamma_constraint": null, "trainable": true, "momentum": 0.99, "gamma_initializer": {"class_name": "Ones", "config": {}}, "moving_variance_initializer": {"class_name": "Ones", "config": {}}, "gamma_regularizer": null, "name": "batch_normalization_3", "beta_initializer": {"class_name": "Zeros", "config": {}}, "axis": 3, "beta_regularizer": null}, "inbound_nodes": [[["conv2d_3", 0, 0, {}]]], "name": "batch_normalization_3"}, {"class_name": "MaxPooling2D", "config": {"padding": "valid", "data_format": "channels_last", "strides": [2, 2], "pool_size": [3, 3], "trainable": true, "name": "max_pooling2d_1"}, "inbound_nodes": [[["batch_normalization_3", 0, 0, {}]]], "name": "max_pooling2d_1"}, {"class_name": "Conv2D", "config": {"activation": "relu", "use_bias": true, "data_format": "channels_last", "strides": [1, 1], "dilation_rate": [1, 1], "kernel_initializer": {"class_name": "VarianceScaling", "config": {"seed": null, "scale": 1.0, "mode": "fan_avg", "distribution": "uniform"}}, "filters": 40, "bias_constraint": null, "kernel_size": [1, 1], "kernel_regularizer": null, "trainable": true, "padding": "valid", "activity_regularizer": null, "kernel_constraint": null, "bias_initializer": {"class_name": "Zeros", "config": {}}, "bias_regularizer": null, "name": "conv2d_4"}, "inbound_nodes": [[["max_pooling2d_1", 0, 0, {}]]], "name": "conv2d_4"}, {"class_name": "BatchNormalization", "config": {"scale": true, "epsilon": 0.001, "center": true, "moving_mean_initializer": {"class_name": "Zeros", "config": {}}, "beta_constraint": null, "gamma_constraint": null, "trainable": true, "momentum": 0.99, "gamma_initializer": {"class_name": "Ones", "config": {}}, "moving_variance_initializer": {"class_name": "Ones", "config": {}}, "gamma_regularizer": null, "name": "batch_normalization_4", "beta_initializer": {"class_name": "Zeros", "config": {}}, "axis": 3, "beta_regularizer": null}, "inbound_nodes": [[["conv2d_4", 0, 0, {}]]], "name": "batch_normalization_4"}, {"class_name": "Conv2D", "config": {"activation": "relu", "use_bias": true, "data_format": "channels_last", "strides": [1, 1], "dilation_rate": [1, 1], "kernel_initializer": {"class_name": "VarianceScaling", "config": {"seed": null, "scale": 1.0, "mode": "fan_avg", "distribution": "uniform"}}, "filters": 96, "bias_constraint": null, "kernel_size": [3, 3], "kernel_regularizer": null, "trainable": true, "padding": "valid", "activity_regularizer": null, "kernel_constraint": null, "bias_initializer": {"class_name": "Zeros", "config": {}}, "bias_regularizer": null, "name": "conv2d_5"}, "inbound_nodes": [[["batch_normalization_4", 0, 0, {}]]], "name": "conv2d_5"}, {"class_name": "BatchNormalization", "config": {"scale": true, "epsilon": 0.001, "center": true, "moving_mean_initializer": {"class_name": "Zeros", "config": {}}, "beta_constraint": null, "gamma_constraint": null, "trainable": true, "momentum": 0.99, "gamma_initializer": {"class_name": "Ones", "config": {}}, "moving_variance_initializer": {"class_name": "Ones", "config": {}}, "gamma_regularizer": null, "name": "batch_normalization_5", "beta_initializer": {"class_name": "Zeros", "config": {}}, "axis": 3, "beta_regularizer": null}, "inbound_nodes": [[["conv2d_5", 0, 0, {}]]], "name": "batch_normalization_5"}, {"class_name": "MaxPooling2D", "config": {"padding": "valid", "data_format": "channels_last", "strides": [2, 2], "pool_size": [3, 3], "trainable": true, "name": "max_pooling2d_2"}, "inbound_nodes": [[["batch_normalization_5", 0, 0, {}]]], "name": "max_pooling2d_2"}, {"class_name": "Conv2D", "config": {"activation": "relu", "use_bias": true, "data_format": "channels_last", "strides": [1, 1], "dilation_rate": [1, 1], "kernel_initializer": {"class_name": "VarianceScaling", "config": {"seed": null, "scale": 1.0, "mode": "fan_avg", "distribution": "uniform"}}, "filters": 32, "bias_constraint": null, "kernel_size": [1, 1], "kernel_regularizer": null, "trainable": true, "padding": "same", "activity_regularizer": null, "kernel_constraint": null, "bias_initializer": {"class_name": "Zeros", "config": {}}, "bias_regularizer": null, "name": "conv2d_9"}, "inbound_nodes": [[["max_pooling2d_2", 0, 0, {}]]], "name": "conv2d_9"}, {"class_name": "BatchNormalization", "config": {"scale": true, "epsilon": 0.001, "center": true, "moving_mean_initializer": {"class_name": "Zeros", "config": {}}, "beta_constraint": null, "gamma_constraint": null, "trainable": true, "momentum": 0.99, "gamma_initializer": {"class_name": "Ones", "config": {}}, "moving_variance_initializer": {"class_name": "Ones", "config": {}}, "gamma_regularizer": null, "name": "batch_normalization_9", "beta_initializer": {"class_name": "Zeros", "config": {}}, "axis": 3, "beta_regularizer": null}, "inbound_nodes": [[["conv2d_9", 0, 0, {}]]], "name": "batch_normalization_9"}, {"class_name": "Conv2D", "config": {"activation": "relu", "use_bias": true, "data_format": "channels_last", "strides": [1, 1], "dilation_rate": [1, 1], "kernel_initializer": {"class_name": "VarianceScaling", "config": {"seed": null, "scale": 1.0, "mode": "fan_avg", "distribution": "uniform"}}, "filters": 24, "bias_constraint": null, "kernel_size": [1, 1], "kernel_regularizer": null, "trainable": true, "padding": "same", "activity_regularizer": null, "kernel_constraint": null, "bias_initializer": {"class_name": "Zeros", "config": {}}, "bias_regularizer": null, "name": "conv2d_7"}, "inbound_nodes": [[["max_pooling2d_2", 0, 0, {}]]], "name": "conv2d_7"}, {"class_name": "Conv2D", "config": {"activation": "relu", "use_bias": true, "data_format": "channels_last", "strides": [1, 1], "dilation_rate": [1, 1], "kernel_initializer": {"class_name": "VarianceScaling", "config": {"seed": null, "scale": 1.0, "mode": "fan_avg", "distribution": "uniform"}}, "filters": 48, "bias_constraint": null, "kernel_size": [3, 3], "kernel_regularizer": null, "trainable": true, "padding": "same", "activity_regularizer": null, "kernel_constraint": null, "bias_initializer": {"class_name": "Zeros", "config": {}}, "bias_regularizer": null, "name": "conv2d_10"}, "inbound_nodes": [[["batch_normalization_9", 0, 0, {}]]], "name": "conv2d_10"}, {"class_name": "BatchNormalization", "config": {"scale": true, "epsilon": 0.001, "center": true, "moving_mean_initializer": {"class_name": "Zeros", "config": {}}, "beta_constraint": null, "gamma_constraint": null, "trainable": true, "momentum": 0.99, "gamma_initializer": {"class_name": "Ones", "config": {}}, "moving_variance_initializer": {"class_name": "Ones", "config": {}}, "gamma_regularizer": null, "name": "batch_normalization_7", "beta_initializer": {"class_name": "Zeros", "config": {}}, "axis": 3, "beta_regularizer": null}, "inbound_nodes": [[["conv2d_7", 0, 0, {}]]], "name": "batch_normalization_7"}, {"class_name": "BatchNormalization", "config": {"scale": true, "epsilon": 0.001, "center": true, "moving_mean_initializer": {"class_name": "Zeros", "config": {}}, "beta_constraint": null, "gamma_constraint": null, "trainable": true, "momentum": 0.99, "gamma_initializer": {"class_name": "Ones", "config": {}}, "moving_variance_initializer": {"class_name": "Ones", "config": {}}, "gamma_regularizer": null, "name": "batch_normalization_10", "beta_initializer": {"class_name": "Zeros", "config": {}}, "axis": 3, "beta_regularizer": null}, "inbound_nodes": [[["conv2d_10", 0, 0, {}]]], "name": "batch_normalization_10"}, {"class_name": "AveragePooling2D", "config": {"padding": "same", "data_format": "channels_last", "strides": [1, 1], "pool_size": [3, 3], "trainable": true, "name": "average_pooling2d_1"}, "inbound_nodes": [[["max_pooling2d_2", 0, 0, {}]]], "name": "average_pooling2d_1"}, {"class_name": "Conv2D", "config": {"activation": "relu", "use_bias": true, "data_format": "channels_last", "strides": [1, 1], "dilation_rate": [1, 1], "kernel_initializer": {"class_name": "VarianceScaling", "config": {"seed": null, "scale": 1.0, "mode": "fan_avg", "distribution": "uniform"}}, "filters": 32, "bias_constraint": null, "kernel_size": [1, 1], "kernel_regularizer": null, "trainable": true, "padding": "same", "activity_regularizer": null, "kernel_constraint": null, "bias_initializer": {"class_name": "Zeros", "config": {}}, "bias_regularizer": null, "name": "conv2d_6"}, "inbound_nodes": [[["max_pooling2d_2", 0, 0, {}]]], "name": "conv2d_6"}, {"class_name": "Conv2D", "config": {"activation": "relu", "use_bias": true, "data_format": "channels_last", "strides": [1, 1], "dilation_rate": [1, 1], "kernel_initializer": {"class_name": "VarianceScaling", "config": {"seed": null, "scale": 1.0, "mode": "fan_avg", "distribution": "uniform"}}, "filters": 32, "bias_constraint": null, "kernel_size": [5, 5], "kernel_regularizer": null, "trainable": true, "padding": "same", "activity_regularizer": null, "kernel_constraint": null, "bias_initializer": {"class_name": "Zeros", "config": {}}, "bias_regularizer": null, "name": "conv2d_8"}, "inbound_nodes": [[["batch_normalization_7", 0, 0, {}]]], "name": "conv2d_8"}, {"class_name": "Conv2D", "config": {"activation": "relu", "use_bias": true, "data_format": "channels_last", "strides": [1, 1], "dilation_rate": [1, 1], "kernel_initializer": {"class_name": "VarianceScaling", "config": {"seed": null, "scale": 1.0, "mode": "fan_avg", "distribution": "uniform"}}, "filters": 48, "bias_constraint": null, "kernel_size": [3, 3], "kernel_regularizer": null, "trainable": true, "padding": "same", "activity_regularizer": null, "kernel_constraint": null, "bias_initializer": {"class_name": "Zeros", "config": {}}, "bias_regularizer": null, "name": "conv2d_11"}, "inbound_nodes": [[["batch_normalization_10", 0, 0, {}]]], "name": "conv2d_11"}, {"class_name": "Conv2D", "config": {"activation": "relu", "use_bias": true, "data_format": "channels_last", "strides": [1, 1], "dilation_rate": [1, 1], "kernel_initializer": {"class_name": "VarianceScaling", "config": {"seed": null, "scale": 1.0, "mode": "fan_avg", "distribution": "uniform"}}, "filters": 16, "bias_constraint": null, "kernel_size": [1, 1], "kernel_regularizer": null, "trainable": true, "padding": "same", "activity_regularizer": null, "kernel_constraint": null, "bias_initializer": {"class_name": "Zeros", "config": {}}, "bias_regularizer": null, "name": "conv2d_12"}, "inbound_nodes": [[["average_pooling2d_1", 0, 0, {}]]], "name": "conv2d_12"}, {"class_name": "BatchNormalization", "config": {"scale": true, "epsilon": 0.001, "center": true, "moving_mean_initializer": {"class_name": "Zeros", "config": {}}, "beta_constraint": null, "gamma_constraint": null, "trainable": true, "momentum": 0.99, "gamma_initializer": {"class_name": "Ones", "config": {}}, "moving_variance_initializer": {"class_name": "Ones", "config": {}}, "gamma_regularizer": null, "name": "batch_normalization_6", "beta_initializer": {"class_name": "Zeros", "config": {}}, "axis": 3, "beta_regularizer": null}, "inbound_nodes": [[["conv2d_6", 0, 0, {}]]], "name": "batch_normalization_6"}, {"class_name": "BatchNormalization", "config": {"scale": true, "epsilon": 0.001, "center": true, "moving_mean_initializer": {"class_name": "Zeros", "config": {}}, "beta_constraint": null, "gamma_constraint": null, "trainable": true, "momentum": 0.99, "gamma_initializer": {"class_name": "Ones", "config": {}}, "moving_variance_initializer": {"class_name": "Ones", "config": {}}, "gamma_regularizer": null, "name": "batch_normalization_8", "beta_initializer": {"class_name": "Zeros", "config": {}}, "axis": 3, "beta_regularizer": null}, "inbound_nodes": [[["conv2d_8", 0, 0, {}]]], "name": "batch_normalization_8"}, {"class_name": "BatchNormalization", "config": {"scale": true, "epsilon": 0.001, "center": true, "moving_mean_initializer": {"class_name": "Zeros", "config": {}}, "beta_constraint": null, "gamma_constraint": null, "trainable": true, "momentum": 0.99, "gamma_initializer": {"class_name": "Ones", "config": {}}, "moving_variance_initializer": {"class_name": "Ones", "config": {}}, "gamma_regularizer": null, "name": "batch_normalization_11", "beta_initializer": {"class_name": "Zeros", "config": {}}, "axis": 3, "beta_regularizer": null}, "inbound_nodes": [[["conv2d_11", 0, 0, {}]]], "name": "batch_normalization_11"}, {"class_name": "BatchNormalization", "config": {"scale": true, "epsilon": 0.001, "center": true, "moving_mean_initializer": {"class_name": "Zeros", "config": {}}, "beta_constraint": null, "gamma_constraint": null, "trainable": true, "momentum": 0.99, "gamma_initializer": {"class_name": "Ones", "config": {}}, "moving_variance_initializer": {"class_name": "Ones", "config": {}}, "gamma_regularizer": null, "name": "batch_normalization_12", "beta_initializer": {"class_name": "Zeros", "config": {}}, "axis": 3, "beta_regularizer": null}, "inbound_nodes": [[["conv2d_12", 0, 0, {}]]], "name": "batch_normalization_12"}, {"class_name": "Concatenate", "config": {"trainable": true, "axis": -1, "name": "mixed0"}, "inbound_nodes": [[["batch_normalization_6", 0, 0, {}], ["batch_normalization_8", 0, 0, {}], ["batch_normalization_11", 0, 0, {}], ["batch_normalization_12", 0, 0, {}]]], "name": "mixed0"}, {"class_name": "Conv2D", "config": {"activation": "relu", "use_bias": true, "data_format": "channels_last", "strides": [1, 1], "dilation_rate": [1, 1], "kernel_initializer": {"class_name": "VarianceScaling", "config": {"seed": null, "scale": 1.0, "mode": "fan_avg", "distribution": "uniform"}}, "filters": 32, "bias_constraint": null, "kernel_size": [1, 1], "kernel_regularizer": null, "trainable": true, "padding": "same", "activity_regularizer": null, "kernel_constraint": null, "bias_initializer": {"class_name": "Zeros", "config": {}}, "bias_regularizer": null, "name": "conv2d_16"}, "inbound_nodes": [[["mixed0", 0, 0, {}]]], "name": "conv2d_16"}, {"class_name": "BatchNormalization", "config": {"scale": true, "epsilon": 0.001, "center": true, "moving_mean_initializer": {"class_name": "Zeros", "config": {}}, "beta_constraint": null, "gamma_constraint": null, "trainable": true, "momentum": 0.99, "gamma_initializer": {"class_name": "Ones", "config": {}}, "moving_variance_initializer": {"class_name": "Ones", "config": {}}, "gamma_regularizer": null, "name": "batch_normalization_16", "beta_initializer": {"class_name": "Zeros", "config": {}}, "axis": 3, "beta_regularizer": null}, "inbound_nodes": [[["conv2d_16", 0, 0, {}]]], "name": "batch_normalization_16"}, {"class_name": "Conv2D", "config": {"activation": "relu", "use_bias": true, "data_format": "channels_last", "strides": [1, 1], "dilation_rate": [1, 1], "kernel_initializer": {"class_name": "VarianceScaling", "config": {"seed": null, "scale": 1.0, "mode": "fan_avg", "distribution": "uniform"}}, "filters": 24, "bias_constraint": null, "kernel_size": [1, 1], "kernel_regularizer": null, "trainable": true, "padding": "same", "activity_regularizer": null, "kernel_constraint": null, "bias_initializer": {"class_name": "Zeros", "config": {}}, "bias_regularizer": null, "name": "conv2d_14"}, "inbound_nodes": [[["mixed0", 0, 0, {}]]], "name": "conv2d_14"}, {"class_name": "Conv2D", "config": {"activation": "relu", "use_bias": true, "data_format": "channels_last", "strides": [1, 1], "dilation_rate": [1, 1], "kernel_initializer": {"class_name": "VarianceScaling", "config": {"seed": null, "scale": 1.0, "mode": "fan_avg", "distribution": "uniform"}}, "filters": 48, "bias_constraint": null, "kernel_size": [3, 3], "kernel_regularizer": null, "trainable": true, "padding": "same", "activity_regularizer": null, "kernel_constraint": null, "bias_initializer": {"class_name": "Zeros", "config": {}}, "bias_regularizer": null, "name": "conv2d_17"}, "inbound_nodes": [[["batch_normalization_16", 0, 0, {}]]], "name": "conv2d_17"}, {"class_name": "BatchNormalization", "config": {"scale": true, "epsilon": 0.001, "center": true, "moving_mean_initializer": {"class_name": "Zeros", "config": {}}, "beta_constraint": null, "gamma_constraint": null, "trainable": true, "momentum": 0.99, "gamma_initializer": {"class_name": "Ones", "config": {}}, "moving_variance_initializer": {"class_name": "Ones", "config": {}}, "gamma_regularizer": null, "name": "batch_normalization_14", "beta_initializer": {"class_name": "Zeros", "config": {}}, "axis": 3, "beta_regularizer": null}, "inbound_nodes": [[["conv2d_14", 0, 0, {}]]], "name": "batch_normalization_14"}, {"class_name": "BatchNormalization", "config": {"scale": true, "epsilon": 0.001, "center": true, "moving_mean_initializer": {"class_name": "Zeros", "config": {}}, "beta_constraint": null, "gamma_constraint": null, "trainable": true, "momentum": 0.99, "gamma_initializer": {"class_name": "Ones", "config": {}}, "moving_variance_initializer": {"class_name": "Ones", "config": {}}, "gamma_regularizer": null, "name": "batch_normalization_17", "beta_initializer": {"class_name": "Zeros", "config": {}}, "axis": 3, "beta_regularizer": null}, "inbound_nodes": [[["conv2d_17", 0, 0, {}]]], "name": "batch_normalization_17"}, {"class_name": "AveragePooling2D", "config": {"padding": "same", "data_format": "channels_last", "strides": [1, 1], "pool_size": [3, 3], "trainable": true, "name": "average_pooling2d_2"}, "inbound_nodes": [[["mixed0", 0, 0, {}]]], "name": "average_pooling2d_2"}, {"class_name": "Conv2D", "config": {"activation": "relu", "use_bias": true, "data_format": "channels_last", "strides": [1, 1], "dilation_rate": [1, 1], "kernel_initializer": {"class_name": "VarianceScaling", "config": {"seed": null, "scale": 1.0, "mode": "fan_avg", "distribution": "uniform"}}, "filters": 32, "bias_constraint": null, "kernel_size": [1, 1], "kernel_regularizer": null, "trainable": true, "padding": "same", "activity_regularizer": null, "kernel_constraint": null, "bias_initializer": {"class_name": "Zeros", "config": {}}, "bias_regularizer": null, "name": "conv2d_13"}, "inbound_nodes": [[["mixed0", 0, 0, {}]]], "name": "conv2d_13"}, {"class_name": "Conv2D", "config": {"activation": "relu", "use_bias": true, "data_format": "channels_last", "strides": [1, 1], "dilation_rate": [1, 1], "kernel_initializer": {"class_name": "VarianceScaling", "config": {"seed": null, "scale": 1.0, "mode": "fan_avg", "distribution": "uniform"}}, "filters": 32, "bias_constraint": null, "kernel_size": [5, 5], "kernel_regularizer": null, "trainable": true, "padding": "same", "activity_regularizer": null, "kernel_constraint": null, "bias_initializer": {"class_name": "Zeros", "config": {}}, "bias_regularizer": null, "name": "conv2d_15"}, "inbound_nodes": [[["batch_normalization_14", 0, 0, {}]]], "name": "conv2d_15"}, {"class_name": "Conv2D", "config": {"activation": "relu", "use_bias": true, "data_format": "channels_last", "strides": [1, 1], "dilation_rate": [1, 1], "kernel_initializer": {"class_name": "VarianceScaling", "config": {"seed": null, "scale": 1.0, "mode": "fan_avg", "distribution": "uniform"}}, "filters": 48, "bias_constraint": null, "kernel_size": [3, 3], "kernel_regularizer": null, "trainable": true, "padding": "same", "activity_regularizer": null, "kernel_constraint": null, "bias_initializer": {"class_name": "Zeros", "config": {}}, "bias_regularizer": null, "name": "conv2d_18"}, "inbound_nodes": [[["batch_normalization_17", 0, 0, {}]]], "name": "conv2d_18"}, {"class_name": "Conv2D", "config": {"activation": "relu", "use_bias": true, "data_format": "channels_last", "strides": [1, 1], "dilation_rate": [1, 1], "kernel_initializer": {"class_name": "VarianceScaling", "config": {"seed": null, "scale": 1.0, "mode": "fan_avg", "distribution": "uniform"}}, "filters": 16, "bias_constraint": null, "kernel_size": [1, 1], "kernel_regularizer": null, "trainable": true, "padding": "same", "activity_regularizer": null, "kernel_constraint": null, "bias_initializer": {"class_name": "Zeros", "config": {}}, "bias_regularizer": null, "name": "conv2d_19"}, "inbound_nodes": [[["average_pooling2d_2", 0, 0, {}]]], "name": "conv2d_19"}, {"class_name": "BatchNormalization", "config": {"scale": true, "epsilon": 0.001, "center": true, "moving_mean_initializer": {"class_name": "Zeros", "config": {}}, "beta_constraint": null, "gamma_constraint": null, "trainable": true, "momentum": 0.99, "gamma_initializer": {"class_name": "Ones", "config": {}}, "moving_variance_initializer": {"class_name": "Ones", "config": {}}, "gamma_regularizer": null, "name": "batch_normalization_13", "beta_initializer": {"class_name": "Zeros", "config": {}}, "axis": 3, "beta_regularizer": null}, "inbound_nodes": [[["conv2d_13", 0, 0, {}]]], "name": "batch_normalization_13"}, {"class_name": "BatchNormalization", "config": {"scale": true, "epsilon": 0.001, "center": true, "moving_mean_initializer": {"class_name": "Zeros", "config": {}}, "beta_constraint": null, "gamma_constraint": null, "trainable": true, "momentum": 0.99, "gamma_initializer": {"class_name": "Ones", "config": {}}, "moving_variance_initializer": {"class_name": "Ones", "config": {}}, "gamma_regularizer": null, "name": "batch_normalization_15", "beta_initializer": {"class_name": "Zeros", "config": {}}, "axis": 3, "beta_regularizer": null}, "inbound_nodes": [[["conv2d_15", 0, 0, {}]]], "name": "batch_normalization_15"}, {"class_name": "BatchNormalization", "config": {"scale": true, "epsilon": 0.001, "center": true, "moving_mean_initializer": {"class_name": "Zeros", "config": {}}, "beta_constraint": null, "gamma_constraint": null, "trainable": true, "momentum": 0.99, "gamma_initializer": {"class_name": "Ones", "config": {}}, "moving_variance_initializer": {"class_name": "Ones", "config": {}}, "gamma_regularizer": null, "name": "batch_normalization_18", "beta_initializer": {"class_name": "Zeros", "config": {}}, "axis": 3, "beta_regularizer": null}, "inbound_nodes": [[["conv2d_18", 0, 0, {}]]], "name": "batch_normalization_18"}, {"class_name": "BatchNormalization", "config": {"scale": true, "epsilon": 0.001, "center": true, "moving_mean_initializer": {"class_name": "Zeros", "config": {}}, "beta_constraint": null, "gamma_constraint": null, "trainable": true, "momentum": 0.99, "gamma_initializer": {"class_name": "Ones", "config": {}}, "moving_variance_initializer": {"class_name": "Ones", "config": {}}, "gamma_regularizer": null, "name": "batch_normalization_19", "beta_initializer": {"class_name": "Zeros", "config": {}}, "axis": 3, "beta_regularizer": null}, "inbound_nodes": [[["conv2d_19", 0, 0, {}]]], "name": "batch_normalization_19"}, {"class_name": "Concatenate", "config": {"trainable": true, "axis": -1, "name": "mixed1"}, "inbound_nodes": [[["batch_normalization_13", 0, 0, {}], ["batch_normalization_15", 0, 0, {}], ["batch_normalization_18", 0, 0, {}], ["batch_normalization_19", 0, 0, {}]]], "name": "mixed1"}, {"class_name": "Conv2D", "config": {"activation": "relu", "use_bias": true, "data_format": "channels_last", "strides": [1, 1], "dilation_rate": [1, 1], "kernel_initializer": {"class_name": "VarianceScaling", "config": {"seed": null, "scale": 1.0, "mode": "fan_avg", "distribution": "uniform"}}, "filters": 32, "bias_constraint": null, "kernel_size": [1, 1], "kernel_regularizer": null, "trainable": true, "padding": "same", "activity_regularizer": null, "kernel_constraint": null, "bias_initializer": {"class_name": "Zeros", "config": {}}, "bias_regularizer": null, "name": "conv2d_23"}, "inbound_nodes": [[["mixed1", 0, 0, {}]]], "name": "conv2d_23"}, {"class_name": "BatchNormalization", "config": {"scale": true, "epsilon": 0.001, "center": true, "moving_mean_initializer": {"class_name": "Zeros", "config": {}}, "beta_constraint": null, "gamma_constraint": null, "trainable": true, "momentum": 0.99, "gamma_initializer": {"class_name": "Ones", "config": {}}, "moving_variance_initializer": {"class_name": "Ones", "config": {}}, "gamma_regularizer": null, "name": "batch_normalization_23", "beta_initializer": {"class_name": "Zeros", "config": {}}, "axis": 3, "beta_regularizer": null}, "inbound_nodes": [[["conv2d_23", 0, 0, {}]]], "name": "batch_normalization_23"}, {"class_name": "Conv2D", "config": {"activation": "relu", "use_bias": true, "data_format": "channels_last", "strides": [1, 1], "dilation_rate": [1, 1], "kernel_initializer": {"class_name": "VarianceScaling", "config": {"seed": null, "scale": 1.0, "mode": "fan_avg", "distribution": "uniform"}}, "filters": 24, "bias_constraint": null, "kernel_size": [1, 1], "kernel_regularizer": null, "trainable": true, "padding": "same", "activity_regularizer": null, "kernel_constraint": null, "bias_initializer": {"class_name": "Zeros", "config": {}}, "bias_regularizer": null, "name": "conv2d_21"}, "inbound_nodes": [[["mixed1", 0, 0, {}]]], "name": "conv2d_21"}, {"class_name": "Conv2D", "config": {"activation": "relu", "use_bias": true, "data_format": "channels_last", "strides": [1, 1], "dilation_rate": [1, 1], "kernel_initializer": {"class_name": "VarianceScaling", "config": {"seed": null, "scale": 1.0, "mode": "fan_avg", "distribution": "uniform"}}, "filters": 48, "bias_constraint": null, "kernel_size": [3, 3], "kernel_regularizer": null, "trainable": true, "padding": "same", "activity_regularizer": null, "kernel_constraint": null, "bias_initializer": {"class_name": "Zeros", "config": {}}, "bias_regularizer": null, "name": "conv2d_24"}, "inbound_nodes": [[["batch_normalization_23", 0, 0, {}]]], "name": "conv2d_24"}, {"class_name": "BatchNormalization", "config": {"scale": true, "epsilon": 0.001, "center": true, "moving_mean_initializer": {"class_name": "Zeros", "config": {}}, "beta_constraint": null, "gamma_constraint": null, "trainable": true, "momentum": 0.99, "gamma_initializer": {"class_name": "Ones", "config": {}}, "moving_variance_initializer": {"class_name": "Ones", "config": {}}, "gamma_regularizer": null, "name": "batch_normalization_21", "beta_initializer": {"class_name": "Zeros", "config": {}}, "axis": 3, "beta_regularizer": null}, "inbound_nodes": [[["conv2d_21", 0, 0, {}]]], "name": "batch_normalization_21"}, {"class_name": "BatchNormalization", "config": {"scale": true, "epsilon": 0.001, "center": true, "moving_mean_initializer": {"class_name": "Zeros", "config": {}}, "beta_constraint": null, "gamma_constraint": null, "trainable": true, "momentum": 0.99, "gamma_initializer": {"class_name": "Ones", "config": {}}, "moving_variance_initializer": {"class_name": "Ones", "config": {}}, "gamma_regularizer": null, "name": "batch_normalization_24", "beta_initializer": {"class_name": "Zeros", "config": {}}, "axis": 3, "beta_regularizer": null}, "inbound_nodes": [[["conv2d_24", 0, 0, {}]]], "name": "batch_normalization_24"}, {"class_name": "AveragePooling2D", "config": {"padding": "same", "data_format": "channels_last", "strides": [1, 1], "pool_size": [3, 3], "trainable": true, "name": "average_pooling2d_3"}, "inbound_nodes": [[["mixed1", 0, 0, {}]]], "name": "average_pooling2d_3"}, {"class_name": "Conv2D", "config": {"activation": "relu", "use_bias": true, "data_format": "channels_last", "strides": [1, 1], "dilation_rate": [1, 1], "kernel_initializer": {"class_name": "VarianceScaling", "config": {"seed": null, "scale": 1.0, "mode": "fan_avg", "distribution": "uniform"}}, "filters": 32, "bias_constraint": null, "kernel_size": [1, 1], "kernel_regularizer": null, "trainable": true, "padding": "same", "activity_regularizer": null, "kernel_constraint": null, "bias_initializer": {"class_name": "Zeros", "config": {}}, "bias_regularizer": null, "name": "conv2d_20"}, "inbound_nodes": [[["mixed1", 0, 0, {}]]], "name": "conv2d_20"}, {"class_name": "Conv2D", "config": {"activation": "relu", "use_bias": true, "data_format": "channels_last", "strides": [1, 1], "dilation_rate": [1, 1], "kernel_initializer": {"class_name": "VarianceScaling", "config": {"seed": null, "scale": 1.0, "mode": "fan_avg", "distribution": "uniform"}}, "filters": 32, "bias_constraint": null, "kernel_size": [5, 5], "kernel_regularizer": null, "trainable": true, "padding": "same", "activity_regularizer": null, "kernel_constraint": null, "bias_initializer": {"class_name": "Zeros", "config": {}}, "bias_regularizer": null, "name": "conv2d_22"}, "inbound_nodes": [[["batch_normalization_21", 0, 0, {}]]], "name": "conv2d_22"}, {"class_name": "Conv2D", "config": {"activation": "relu", "use_bias": true, "data_format": "channels_last", "strides": [1, 1], "dilation_rate": [1, 1], "kernel_initializer": {"class_name": "VarianceScaling", "config": {"seed": null, "scale": 1.0, "mode": "fan_avg", "distribution": "uniform"}}, "filters": 48, "bias_constraint": null, "kernel_size": [3, 3], "kernel_regularizer": null, "trainable": true, "padding": "same", "activity_regularizer": null, "kernel_constraint": null, "bias_initializer": {"class_name": "Zeros", "config": {}}, "bias_regularizer": null, "name": "conv2d_25"}, "inbound_nodes": [[["batch_normalization_24", 0, 0, {}]]], "name": "conv2d_25"}, {"class_name": "Conv2D", "config": {"activation": "relu", "use_bias": true, "data_format": "channels_last", "strides": [1, 1], "dilation_rate": [1, 1], "kernel_initializer": {"class_name": "VarianceScaling", "config": {"seed": null, "scale": 1.0, "mode": "fan_avg", "distribution": "uniform"}}, "filters": 16, "bias_constraint": null, "kernel_size": [1, 1], "kernel_regularizer": null, "trainable": true, "padding": "same", "activity_regularizer": null, "kernel_constraint": null, "bias_initializer": {"class_name": "Zeros", "config": {}}, "bias_regularizer": null, "name": "conv2d_26"}, "inbound_nodes": [[["average_pooling2d_3", 0, 0, {}]]], "name": "conv2d_26"}, {"class_name": "BatchNormalization", "config": {"scale": true, "epsilon": 0.001, "center": true, "moving_mean_initializer": {"class_name": "Zeros", "config": {}}, "beta_constraint": null, "gamma_constraint": null, "trainable": true, "momentum": 0.99, "gamma_initializer": {"class_name": "Ones", "config": {}}, "moving_variance_initializer": {"class_name": "Ones", "config": {}}, "gamma_regularizer": null, "name": "batch_normalization_20", "beta_initializer": {"class_name": "Zeros", "config": {}}, "axis": 3, "beta_regularizer": null}, "inbound_nodes": [[["conv2d_20", 0, 0, {}]]], "name": "batch_normalization_20"}, {"class_name": "BatchNormalization", "config": {"scale": true, "epsilon": 0.001, "center": true, "moving_mean_initializer": {"class_name": "Zeros", "config": {}}, "beta_constraint": null, "gamma_constraint": null, "trainable": true, "momentum": 0.99, "gamma_initializer": {"class_name": "Ones", "config": {}}, "moving_variance_initializer": {"class_name": "Ones", "config": {}}, "gamma_regularizer": null, "name": "batch_normalization_22", "beta_initializer": {"class_name": "Zeros", "config": {}}, "axis": 3, "beta_regularizer": null}, "inbound_nodes": [[["conv2d_22", 0, 0, {}]]], "name": "batch_normalization_22"}, {"class_name": "BatchNormalization", "config": {"scale": true, "epsilon": 0.001, "center": true, "moving_mean_initializer": {"class_name": "Zeros", "config": {}}, "beta_constraint": null, "gamma_constraint": null, "trainable": true, "momentum": 0.99, "gamma_initializer": {"class_name": "Ones", "config": {}}, "moving_variance_initializer": {"class_name": "Ones", "config": {}}, "gamma_regularizer": null, "name": "batch_normalization_25", "beta_initializer": {"class_name": "Zeros", "config": {}}, "axis": 3, "beta_regularizer": null}, "inbound_nodes": [[["conv2d_25", 0, 0, {}]]], "name": "batch_normalization_25"}, {"class_name": "BatchNormalization", "config": {"scale": true, "epsilon": 0.001, "center": true, "moving_mean_initializer": {"class_name": "Zeros", "config": {}}, "beta_constraint": null, "gamma_constraint": null, "trainable": true, "momentum": 0.99, "gamma_initializer": {"class_name": "Ones", "config": {}}, "moving_variance_initializer": {"class_name": "Ones", "config": {}}, "gamma_regularizer": null, "name": "batch_normalization_26", "beta_initializer": {"class_name": "Zeros", "config": {}}, "axis": 3, "beta_regularizer": null}, "inbound_nodes": [[["conv2d_26", 0, 0, {}]]], "name": "batch_normalization_26"}, {"class_name": "Concatenate", "config": {"trainable": true, "axis": -1, "name": "mixed2"}, "inbound_nodes": [[["batch_normalization_20", 0, 0, {}], ["batch_normalization_22", 0, 0, {}], ["batch_normalization_25", 0, 0, {}], ["batch_normalization_26", 0, 0, {}]]], "name": "mixed2"}, {"class_name": "Conv2D", "config": {"activation": "relu", "use_bias": true, "data_format": "channels_last", "strides": [1, 1], "dilation_rate": [1, 1], "kernel_initializer": {"class_name": "VarianceScaling", "config": {"seed": null, "scale": 1.0, "mode": "fan_avg", "distribution": "uniform"}}, "filters": 32, "bias_constraint": null, "kernel_size": [1, 1], "kernel_regularizer": null, "trainable": true, "padding": "same", "activity_regularizer": null, "kernel_constraint": null, "bias_initializer": {"class_name": "Zeros", "config": {}}, "bias_regularizer": null, "name": "conv2d_28"}, "inbound_nodes": [[["mixed2", 0, 0, {}]]], "name": "conv2d_28"}, {"class_name": "BatchNormalization", "config": {"scale": true, "epsilon": 0.001, "center": true, "moving_mean_initializer": {"class_name": "Zeros", "config": {}}, "beta_constraint": null, "gamma_constraint": null, "trainable": true, "momentum": 0.99, "gamma_initializer": {"class_name": "Ones", "config": {}}, "moving_variance_initializer": {"class_name": "Ones", "config": {}}, "gamma_regularizer": null, "name": "batch_normalization_28", "beta_initializer": {"class_name": "Zeros", "config": {}}, "axis": 3, "beta_regularizer": null}, "inbound_nodes": [[["conv2d_28", 0, 0, {}]]], "name": "batch_normalization_28"}, {"class_name": "Conv2D", "config": {"activation": "relu", "use_bias": true, "data_format": "channels_last", "strides": [1, 1], "dilation_rate": [1, 1], "kernel_initializer": {"class_name": "VarianceScaling", "config": {"seed": null, "scale": 1.0, "mode": "fan_avg", "distribution": "uniform"}}, "filters": 48, "bias_constraint": null, "kernel_size": [3, 3], "kernel_regularizer": null, "trainable": true, "padding": "same", "activity_regularizer": null, "kernel_constraint": null, "bias_initializer": {"class_name": "Zeros", "config": {}}, "bias_regularizer": null, "name": "conv2d_29"}, "inbound_nodes": [[["batch_normalization_28", 0, 0, {}]]], "name": "conv2d_29"}, {"class_name": "BatchNormalization", "config": {"scale": true, "epsilon": 0.001, "center": true, "moving_mean_initializer": {"class_name": "Zeros", "config": {}}, "beta_constraint": null, "gamma_constraint": null, "trainable": true, "momentum": 0.99, "gamma_initializer": {"class_name": "Ones", "config": {}}, "moving_variance_initializer": {"class_name": "Ones", "config": {}}, "gamma_regularizer": null, "name": "batch_normalization_29", "beta_initializer": {"class_name": "Zeros", "config": {}}, "axis": 3, "beta_regularizer": null}, "inbound_nodes": [[["conv2d_29", 0, 0, {}]]], "name": "batch_normalization_29"}, {"class_name": "Conv2D", "config": {"activation": "relu", "use_bias": true, "data_format": "channels_last", "strides": [2, 2], "dilation_rate": [1, 1], "kernel_initializer": {"class_name": "VarianceScaling", "config": {"seed": null, "scale": 1.0, "mode": "fan_avg", "distribution": "uniform"}}, "filters": 192, "bias_constraint": null, "kernel_size": [3, 3], "kernel_regularizer": null, "trainable": true, "padding": "valid", "activity_regularizer": null, "kernel_constraint": null, "bias_initializer": {"class_name": "Zeros", "config": {}}, "bias_regularizer": null, "name": "conv2d_27"}, "inbound_nodes": [[["mixed2", 0, 0, {}]]], "name": "conv2d_27"}, {"class_name": "Conv2D", "config": {"activation": "relu", "use_bias": true, "data_format": "channels_last", "strides": [2, 2], "dilation_rate": [1, 1], "kernel_initializer": {"class_name": "VarianceScaling", "config": {"seed": null, "scale": 1.0, "mode": "fan_avg", "distribution": "uniform"}}, "filters": 48, "bias_constraint": null, "kernel_size": [3, 3], "kernel_regularizer": null, "trainable": true, "padding": "valid", "activity_regularizer": null, "kernel_constraint": null, "bias_initializer": {"class_name": "Zeros", "config": {}}, "bias_regularizer": null, "name": "conv2d_30"}, "inbound_nodes": [[["batch_normalization_29", 0, 0, {}]]], "name": "conv2d_30"}, {"class_name": "BatchNormalization", "config": {"scale": true, "epsilon": 0.001, "center": true, "moving_mean_initializer": {"class_name": "Zeros", "config": {}}, "beta_constraint": null, "gamma_constraint": null, "trainable": true, "momentum": 0.99, "gamma_initializer": {"class_name": "Ones", "config": {}}, "moving_variance_initializer": {"class_name": "Ones", "config": {}}, "gamma_regularizer": null, "name": "batch_normalization_27", "beta_initializer": {"class_name": "Zeros", "config": {}}, "axis": 3, "beta_regularizer": null}, "inbound_nodes": [[["conv2d_27", 0, 0, {}]]], "name": "batch_normalization_27"}, {"class_name": "BatchNormalization", "config": {"scale": true, "epsilon": 0.001, "center": true, "moving_mean_initializer": {"class_name": "Zeros", "config": {}}, "beta_constraint": null, "gamma_constraint": null, "trainable": true, "momentum": 0.99, "gamma_initializer": {"class_name": "Ones", "config": {}}, "moving_variance_initializer": {"class_name": "Ones", "config": {}}, "gamma_regularizer": null, "name": "batch_normalization_30", "beta_initializer": {"class_name": "Zeros", "config": {}}, "axis": 3, "beta_regularizer": null}, "inbound_nodes": [[["conv2d_30", 0, 0, {}]]], "name": "batch_normalization_30"}, {"class_name": "MaxPooling2D", "config": {"padding": "valid", "data_format": "channels_last", "strides": [2, 2], "pool_size": [3, 3], "trainable": true, "name": "max_pooling2d_3"}, "inbound_nodes": [[["mixed2", 0, 0, {}]]], "name": "max_pooling2d_3"}, {"class_name": "Concatenate", "config": {"trainable": true, "axis": -1, "name": "mixed3"}, "inbound_nodes": [[["batch_normalization_27", 0, 0, {}], ["batch_normalization_30", 0, 0, {}], ["max_pooling2d_3", 0, 0, {}]]], "name": "mixed3"}, {"class_name": "Conv2D", "config": {"activation": "relu", "use_bias": true, "data_format": "channels_last", "strides": [1, 1], "dilation_rate": [1, 1], "kernel_initializer": {"class_name": "VarianceScaling", "config": {"seed": null, "scale": 1.0, "mode": "fan_avg", "distribution": "uniform"}}, "filters": 64, "bias_constraint": null, "kernel_size": [1, 1], "kernel_regularizer": null, "trainable": true, "padding": "same", "activity_regularizer": null, "kernel_constraint": null, "bias_initializer": {"class_name": "Zeros", "config": {}}, "bias_regularizer": null, "name": "conv2d_35"}, "inbound_nodes": [[["mixed3", 0, 0, {}]]], "name": "conv2d_35"}, {"class_name": "BatchNormalization", "config": {"scale": true, "epsilon": 0.001, "center": true, "moving_mean_initializer": {"class_name": "Zeros", "config": {}}, "beta_constraint": null, "gamma_constraint": null, "trainable": true, "momentum": 0.99, "gamma_initializer": {"class_name": "Ones", "config": {}}, "moving_variance_initializer": {"class_name": "Ones", "config": {}}, "gamma_regularizer": null, "name": "batch_normalization_35", "beta_initializer": {"class_name": "Zeros", "config": {}}, "axis": 3, "beta_regularizer": null}, "inbound_nodes": [[["conv2d_35", 0, 0, {}]]], "name": "batch_normalization_35"}, {"class_name": "Conv2D", "config": {"activation": "relu", "use_bias": true, "data_format": "channels_last", "strides": [1, 1], "dilation_rate": [1, 1], "kernel_initializer": {"class_name": "VarianceScaling", "config": {"seed": null, "scale": 1.0, "mode": "fan_avg", "distribution": "uniform"}}, "filters": 64, "bias_constraint": null, "kernel_size": [7, 1], "kernel_regularizer": null, "trainable": true, "padding": "same", "activity_regularizer": null, "kernel_constraint": null, "bias_initializer": {"class_name": "Zeros", "config": {}}, "bias_regularizer": null, "name": "conv2d_36"}, "inbound_nodes": [[["batch_normalization_35", 0, 0, {}]]], "name": "conv2d_36"}, {"class_name": "BatchNormalization", "config": {"scale": true, "epsilon": 0.001, "center": true, "moving_mean_initializer": {"class_name": "Zeros", "config": {}}, "beta_constraint": null, "gamma_constraint": null, "trainable": true, "momentum": 0.99, "gamma_initializer": {"class_name": "Ones", "config": {}}, "moving_variance_initializer": {"class_name": "Ones", "config": {}}, "gamma_regularizer": null, "name": "batch_normalization_36", "beta_initializer": {"class_name": "Zeros", "config": {}}, "axis": 3, "beta_regularizer": null}, "inbound_nodes": [[["conv2d_36", 0, 0, {}]]], "name": "batch_normalization_36"}, {"class_name": "Conv2D", "config": {"activation": "relu", "use_bias": true, "data_format": "channels_last", "strides": [1, 1], "dilation_rate": [1, 1], "kernel_initializer": {"class_name": "VarianceScaling", "config": {"seed": null, "scale": 1.0, "mode": "fan_avg", "distribution": "uniform"}}, "filters": 64, "bias_constraint": null, "kernel_size": [1, 1], "kernel_regularizer": null, "trainable": true, "padding": "same", "activity_regularizer": null, "kernel_constraint": null, "bias_initializer": {"class_name": "Zeros", "config": {}}, "bias_regularizer": null, "name": "conv2d_32"}, "inbound_nodes": [[["mixed3", 0, 0, {}]]], "name": "conv2d_32"}, {"class_name": "Conv2D", "config": {"activation": "relu", "use_bias": true, "data_format": "channels_last", "strides": [1, 1], "dilation_rate": [1, 1], "kernel_initializer": {"class_name": "VarianceScaling", "config": {"seed": null, "scale": 1.0, "mode": "fan_avg", "distribution": "uniform"}}, "filters": 64, "bias_constraint": null, "kernel_size": [1, 7], "kernel_regularizer": null, "trainable": true, "padding": "same", "activity_regularizer": null, "kernel_constraint": null, "bias_initializer": {"class_name": "Zeros", "config": {}}, "bias_regularizer": null, "name": "conv2d_37"}, "inbound_nodes": [[["batch_normalization_36", 0, 0, {}]]], "name": "conv2d_37"}, {"class_name": "BatchNormalization", "config": {"scale": true, "epsilon": 0.001, "center": true, "moving_mean_initializer": {"class_name": "Zeros", "config": {}}, "beta_constraint": null, "gamma_constraint": null, "trainable": true, "momentum": 0.99, "gamma_initializer": {"class_name": "Ones", "config": {}}, "moving_variance_initializer": {"class_name": "Ones", "config": {}}, "gamma_regularizer": null, "name": "batch_normalization_32", "beta_initializer": {"class_name": "Zeros", "config": {}}, "axis": 3, "beta_regularizer": null}, "inbound_nodes": [[["conv2d_32", 0, 0, {}]]], "name": "batch_normalization_32"}, {"class_name": "BatchNormalization", "config": {"scale": true, "epsilon": 0.001, "center": true, "moving_mean_initializer": {"class_name": "Zeros", "config": {}}, "beta_constraint": null, "gamma_constraint": null, "trainable": true, "momentum": 0.99, "gamma_initializer": {"class_name": "Ones", "config": {}}, "moving_variance_initializer": {"class_name": "Ones", "config": {}}, "gamma_regularizer": null, "name": "batch_normalization_37", "beta_initializer": {"class_name": "Zeros", "config": {}}, "axis": 3, "beta_regularizer": null}, "inbound_nodes": [[["conv2d_37", 0, 0, {}]]], "name": "batch_normalization_37"}, {"class_name": "Conv2D", "config": {"activation": "relu", "use_bias": true, "data_format": "channels_last", "strides": [1, 1], "dilation_rate": [1, 1], "kernel_initializer": {"class_name": "VarianceScaling", "config": {"seed": null, "scale": 1.0, "mode": "fan_avg", "distribution": "uniform"}}, "filters": 64, "bias_constraint": null, "kernel_size": [1, 7], "kernel_regularizer": null, "trainable": true, "padding": "same", "activity_regularizer": null, "kernel_constraint": null, "bias_initializer": {"class_name": "Zeros", "config": {}}, "bias_regularizer": null, "name": "conv2d_33"}, "inbound_nodes": [[["batch_normalization_32", 0, 0, {}]]], "name": "conv2d_33"}, {"class_name": "Conv2D", "config": {"activation": "relu", "use_bias": true, "data_format": "channels_last", "strides": [1, 1], "dilation_rate": [1, 1], "kernel_initializer": {"class_name": "VarianceScaling", "config": {"seed": null, "scale": 1.0, "mode": "fan_avg", "distribution": "uniform"}}, "filters": 64, "bias_constraint": null, "kernel_size": [7, 1], "kernel_regularizer": null, "trainable": true, "padding": "same", "activity_regularizer": null, "kernel_constraint": null, "bias_initializer": {"class_name": "Zeros", "config": {}}, "bias_regularizer": null, "name": "conv2d_38"}, "inbound_nodes": [[["batch_normalization_37", 0, 0, {}]]], "name": "conv2d_38"}, {"class_name": "BatchNormalization", "config": {"scale": true, "epsilon": 0.001, "center": true, "moving_mean_initializer": {"class_name": "Zeros", "config": {}}, "beta_constraint": null, "gamma_constraint": null, "trainable": true, "momentum": 0.99, "gamma_initializer": {"class_name": "Ones", "config": {}}, "moving_variance_initializer": {"class_name": "Ones", "config": {}}, "gamma_regularizer": null, "name": "batch_normalization_33", "beta_initializer": {"class_name": "Zeros", "config": {}}, "axis": 3, "beta_regularizer": null}, "inbound_nodes": [[["conv2d_33", 0, 0, {}]]], "name": "batch_normalization_33"}, {"class_name": "BatchNormalization", "config": {"scale": true, "epsilon": 0.001, "center": true, "moving_mean_initializer": {"class_name": "Zeros", "config": {}}, "beta_constraint": null, "gamma_constraint": null, "trainable": true, "momentum": 0.99, "gamma_initializer": {"class_name": "Ones", "config": {}}, "moving_variance_initializer": {"class_name": "Ones", "config": {}}, "gamma_regularizer": null, "name": "batch_normalization_38", "beta_initializer": {"class_name": "Zeros", "config": {}}, "axis": 3, "beta_regularizer": null}, "inbound_nodes": [[["conv2d_38", 0, 0, {}]]], "name": "batch_normalization_38"}, {"class_name": "AveragePooling2D", "config": {"padding": "same", "data_format": "channels_last", "strides": [1, 1], "pool_size": [3, 3], "trainable": true, "name": "average_pooling2d_4"}, "inbound_nodes": [[["mixed3", 0, 0, {}]]], "name": "average_pooling2d_4"}, {"class_name": "Conv2D", "config": {"activation": "relu", "use_bias": true, "data_format": "channels_last", "strides": [1, 1], "dilation_rate": [1, 1], "kernel_initializer": {"class_name": "VarianceScaling", "config": {"seed": null, "scale": 1.0, "mode": "fan_avg", "distribution": "uniform"}}, "filters": 96, "bias_constraint": null, "kernel_size": [1, 1], "kernel_regularizer": null, "trainable": true, "padding": "same", "activity_regularizer": null, "kernel_constraint": null, "bias_initializer": {"class_name": "Zeros", "config": {}}, "bias_regularizer": null, "name": "conv2d_31"}, "inbound_nodes": [[["mixed3", 0, 0, {}]]], "name": "conv2d_31"}, {"class_name": "Conv2D", "config": {"activation": "relu", "use_bias": true, "data_format": "channels_last", "strides": [1, 1], "dilation_rate": [1, 1], "kernel_initializer": {"class_name": "VarianceScaling", "config": {"seed": null, "scale": 1.0, "mode": "fan_avg", "distribution": "uniform"}}, "filters": 96, "bias_constraint": null, "kernel_size": [7, 1], "kernel_regularizer": null, "trainable": true, "padding": "same", "activity_regularizer": null, "kernel_constraint": null, "bias_initializer": {"class_name": "Zeros", "config": {}}, "bias_regularizer": null, "name": "conv2d_34"}, "inbound_nodes": [[["batch_normalization_33", 0, 0, {}]]], "name": "conv2d_34"}, {"class_name": "Conv2D", "config": {"activation": "relu", "use_bias": true, "data_format": "channels_last", "strides": [1, 1], "dilation_rate": [1, 1], "kernel_initializer": {"class_name": "VarianceScaling", "config": {"seed": null, "scale": 1.0, "mode": "fan_avg", "distribution": "uniform"}}, "filters": 96, "bias_constraint": null, "kernel_size": [1, 7], "kernel_regularizer": null, "trainable": true, "padding": "same", "activity_regularizer": null, "kernel_constraint": null, "bias_initializer": {"class_name": "Zeros", "config": {}}, "bias_regularizer": null, "name": "conv2d_39"}, "inbound_nodes": [[["batch_normalization_38", 0, 0, {}]]], "name": "conv2d_39"}, {"class_name": "Conv2D", "config": {"activation": "relu", "use_bias": true, "data_format": "channels_last", "strides": [1, 1], "dilation_rate": [1, 1], "kernel_initializer": {"class_name": "VarianceScaling", "config": {"seed": null, "scale": 1.0, "mode": "fan_avg", "distribution": "uniform"}}, "filters": 96, "bias_constraint": null, "kernel_size": [1, 1], "kernel_regularizer": null, "trainable": true, "padding": "same", "activity_regularizer": null, "kernel_constraint": null, "bias_initializer": {"class_name": "Zeros", "config": {}}, "bias_regularizer": null, "name": "conv2d_40"}, "inbound_nodes": [[["average_pooling2d_4", 0, 0, {}]]], "name": "conv2d_40"}, {"class_name": "BatchNormalization", "config": {"scale": true, "epsilon": 0.001, "center": true, "moving_mean_initializer": {"class_name": "Zeros", "config": {}}, "beta_constraint": null, "gamma_constraint": null, "trainable": true, "momentum": 0.99, "gamma_initializer": {"class_name": "Ones", "config": {}}, "moving_variance_initializer": {"class_name": "Ones", "config": {}}, "gamma_regularizer": null, "name": "batch_normalization_31", "beta_initializer": {"class_name": "Zeros", "config": {}}, "axis": 3, "beta_regularizer": null}, "inbound_nodes": [[["conv2d_31", 0, 0, {}]]], "name": "batch_normalization_31"}, {"class_name": "BatchNormalization", "config": {"scale": true, "epsilon": 0.001, "center": true, "moving_mean_initializer": {"class_name": "Zeros", "config": {}}, "beta_constraint": null, "gamma_constraint": null, "trainable": true, "momentum": 0.99, "gamma_initializer": {"class_name": "Ones", "config": {}}, "moving_variance_initializer": {"class_name": "Ones", "config": {}}, "gamma_regularizer": null, "name": "batch_normalization_34", "beta_initializer": {"class_name": "Zeros", "config": {}}, "axis": 3, "beta_regularizer": null}, "inbound_nodes": [[["conv2d_34", 0, 0, {}]]], "name": "batch_normalization_34"}, {"class_name": "BatchNormalization", "config": {"scale": true, "epsilon": 0.001, "center": true, "moving_mean_initializer": {"class_name": "Zeros", "config": {}}, "beta_constraint": null, "gamma_constraint": null, "trainable": true, "momentum": 0.99, "gamma_initializer": {"class_name": "Ones", "config": {}}, "moving_variance_initializer": {"class_name": "Ones", "config": {}}, "gamma_regularizer": null, "name": "batch_normalization_39", "beta_initializer": {"class_name": "Zeros", "config": {}}, "axis": 3, "beta_regularizer": null}, "inbound_nodes": [[["conv2d_39", 0, 0, {}]]], "name": "batch_normalization_39"}, {"class_name": "BatchNormalization", "config": {"scale": true, "epsilon": 0.001, "center": true, "moving_mean_initializer": {"class_name": "Zeros", "config": {}}, "beta_constraint": null, "gamma_constraint": null, "trainable": true, "momentum": 0.99, "gamma_initializer": {"class_name": "Ones", "config": {}}, "moving_variance_initializer": {"class_name": "Ones", "config": {}}, "gamma_regularizer": null, "name": "batch_normalization_40", "beta_initializer": {"class_name": "Zeros", "config": {}}, "axis": 3, "beta_regularizer": null}, "inbound_nodes": [[["conv2d_40", 0, 0, {}]]], "name": "batch_normalization_40"}, {"class_name": "Concatenate", "config": {"trainable": true, "axis": -1, "name": "mixed4"}, "inbound_nodes": [[["batch_normalization_31", 0, 0, {}], ["batch_normalization_34", 0, 0, {}], ["batch_normalization_39", 0, 0, {}], ["batch_normalization_40", 0, 0, {}]]], "name": "mixed4"}, {"class_name": "Conv2D", "config": {"activation": "relu", "use_bias": true, "data_format": "channels_last", "strides": [1, 1], "dilation_rate": [1, 1], "kernel_initializer": {"class_name": "VarianceScaling", "config": {"seed": null, "scale": 1.0, "mode": "fan_avg", "distribution": "uniform"}}, "filters": 80, "bias_constraint": null, "kernel_size": [1, 1], "kernel_regularizer": null, "trainable": true, "padding": "same", "activity_regularizer": null, "kernel_constraint": null, "bias_initializer": {"class_name": "Zeros", "config": {}}, "bias_regularizer": null, "name": "conv2d_45"}, "inbound_nodes": [[["mixed4", 0, 0, {}]]], "name": "conv2d_45"}, {"class_name": "BatchNormalization", "config": {"scale": true, "epsilon": 0.001, "center": true, "moving_mean_initializer": {"class_name": "Zeros", "config": {}}, "beta_constraint": null, "gamma_constraint": null, "trainable": true, "momentum": 0.99, "gamma_initializer": {"class_name": "Ones", "config": {}}, "moving_variance_initializer": {"class_name": "Ones", "config": {}}, "gamma_regularizer": null, "name": "batch_normalization_45", "beta_initializer": {"class_name": "Zeros", "config": {}}, "axis": 3, "beta_regularizer": null}, "inbound_nodes": [[["conv2d_45", 0, 0, {}]]], "name": "batch_normalization_45"}, {"class_name": "Conv2D", "config": {"activation": "relu", "use_bias": true, "data_format": "channels_last", "strides": [1, 1], "dilation_rate": [1, 1], "kernel_initializer": {"class_name": "VarianceScaling", "config": {"seed": null, "scale": 1.0, "mode": "fan_avg", "distribution": "uniform"}}, "filters": 80, "bias_constraint": null, "kernel_size": [7, 1], "kernel_regularizer": null, "trainable": true, "padding": "same", "activity_regularizer": null, "kernel_constraint": null, "bias_initializer": {"class_name": "Zeros", "config": {}}, "bias_regularizer": null, "name": "conv2d_46"}, "inbound_nodes": [[["batch_normalization_45", 0, 0, {}]]], "name": "conv2d_46"}, {"class_name": "BatchNormalization", "config": {"scale": true, "epsilon": 0.001, "center": true, "moving_mean_initializer": {"class_name": "Zeros", "config": {}}, "beta_constraint": null, "gamma_constraint": null, "trainable": true, "momentum": 0.99, "gamma_initializer": {"class_name": "Ones", "config": {}}, "moving_variance_initializer": {"class_name": "Ones", "config": {}}, "gamma_regularizer": null, "name": "batch_normalization_46", "beta_initializer": {"class_name": "Zeros", "config": {}}, "axis": 3, "beta_regularizer": null}, "inbound_nodes": [[["conv2d_46", 0, 0, {}]]], "name": "batch_normalization_46"}, {"class_name": "Conv2D", "config": {"activation": "relu", "use_bias": true, "data_format": "channels_last", "strides": [1, 1], "dilation_rate": [1, 1], "kernel_initializer": {"class_name": "VarianceScaling", "config": {"seed": null, "scale": 1.0, "mode": "fan_avg", "distribution": "uniform"}}, "filters": 80, "bias_constraint": null, "kernel_size": [1, 1], "kernel_regularizer": null, "trainable": true, "padding": "same", "activity_regularizer": null, "kernel_constraint": null, "bias_initializer": {"class_name": "Zeros", "config": {}}, "bias_regularizer": null, "name": "conv2d_42"}, "inbound_nodes": [[["mixed4", 0, 0, {}]]], "name": "conv2d_42"}, {"class_name": "Conv2D", "config": {"activation": "relu", "use_bias": true, "data_format": "channels_last", "strides": [1, 1], "dilation_rate": [1, 1], "kernel_initializer": {"class_name": "VarianceScaling", "config": {"seed": null, "scale": 1.0, "mode": "fan_avg", "distribution": "uniform"}}, "filters": 80, "bias_constraint": null, "kernel_size": [1, 7], "kernel_regularizer": null, "trainable": true, "padding": "same", "activity_regularizer": null, "kernel_constraint": null, "bias_initializer": {"class_name": "Zeros", "config": {}}, "bias_regularizer": null, "name": "conv2d_47"}, "inbound_nodes": [[["batch_normalization_46", 0, 0, {}]]], "name": "conv2d_47"}, {"class_name": "BatchNormalization", "config": {"scale": true, "epsilon": 0.001, "center": true, "moving_mean_initializer": {"class_name": "Zeros", "config": {}}, "beta_constraint": null, "gamma_constraint": null, "trainable": true, "momentum": 0.99, "gamma_initializer": {"class_name": "Ones", "config": {}}, "moving_variance_initializer": {"class_name": "Ones", "config": {}}, "gamma_regularizer": null, "name": "batch_normalization_42", "beta_initializer": {"class_name": "Zeros", "config": {}}, "axis": 3, "beta_regularizer": null}, "inbound_nodes": [[["conv2d_42", 0, 0, {}]]], "name": "batch_normalization_42"}, {"class_name": "BatchNormalization", "config": {"scale": true, "epsilon": 0.001, "center": true, "moving_mean_initializer": {"class_name": "Zeros", "config": {}}, "beta_constraint": null, "gamma_constraint": null, "trainable": true, "momentum": 0.99, "gamma_initializer": {"class_name": "Ones", "config": {}}, "moving_variance_initializer": {"class_name": "Ones", "config": {}}, "gamma_regularizer": null, "name": "batch_normalization_47", "beta_initializer": {"class_name": "Zeros", "config": {}}, "axis": 3, "beta_regularizer": null}, "inbound_nodes": [[["conv2d_47", 0, 0, {}]]], "name": "batch_normalization_47"}, {"class_name": "Conv2D", "config": {"activation": "relu", "use_bias": true, "data_format": "channels_last", "strides": [1, 1], "dilation_rate": [1, 1], "kernel_initializer": {"class_name": "VarianceScaling", "config": {"seed": null, "scale": 1.0, "mode": "fan_avg", "distribution": "uniform"}}, "filters": 80, "bias_constraint": null, "kernel_size": [1, 7], "kernel_regularizer": null, "trainable": true, "padding": "same", "activity_regularizer": null, "kernel_constraint": null, "bias_initializer": {"class_name": "Zeros", "config": {}}, "bias_regularizer": null, "name": "conv2d_43"}, "inbound_nodes": [[["batch_normalization_42", 0, 0, {}]]], "name": "conv2d_43"}, {"class_name": "Conv2D", "config": {"activation": "relu", "use_bias": true, "data_format": "channels_last", "strides": [1, 1], "dilation_rate": [1, 1], "kernel_initializer": {"class_name": "VarianceScaling", "config": {"seed": null, "scale": 1.0, "mode": "fan_avg", "distribution": "uniform"}}, "filters": 80, "bias_constraint": null, "kernel_size": [7, 1], "kernel_regularizer": null, "trainable": true, "padding": "same", "activity_regularizer": null, "kernel_constraint": null, "bias_initializer": {"class_name": "Zeros", "config": {}}, "bias_regularizer": null, "name": "conv2d_48"}, "inbound_nodes": [[["batch_normalization_47", 0, 0, {}]]], "name": "conv2d_48"}, {"class_name": "BatchNormalization", "config": {"scale": true, "epsilon": 0.001, "center": true, "moving_mean_initializer": {"class_name": "Zeros", "config": {}}, "beta_constraint": null, "gamma_constraint": null, "trainable": true, "momentum": 0.99, "gamma_initializer": {"class_name": "Ones", "config": {}}, "moving_variance_initializer": {"class_name": "Ones", "config": {}}, "gamma_regularizer": null, "name": "batch_normalization_43", "beta_initializer": {"class_name": "Zeros", "config": {}}, "axis": 3, "beta_regularizer": null}, "inbound_nodes": [[["conv2d_43", 0, 0, {}]]], "name": "batch_normalization_43"}, {"class_name": "BatchNormalization", "config": {"scale": true, "epsilon": 0.001, "center": true, "moving_mean_initializer": {"class_name": "Zeros", "config": {}}, "beta_constraint": null, "gamma_constraint": null, "trainable": true, "momentum": 0.99, "gamma_initializer": {"class_name": "Ones", "config": {}}, "moving_variance_initializer": {"class_name": "Ones", "config": {}}, "gamma_regularizer": null, "name": "batch_normalization_48", "beta_initializer": {"class_name": "Zeros", "config": {}}, "axis": 3, "beta_regularizer": null}, "inbound_nodes": [[["conv2d_48", 0, 0, {}]]], "name": "batch_normalization_48"}, {"class_name": "AveragePooling2D", "config": {"padding": "same", "data_format": "channels_last", "strides": [1, 1], "pool_size": [3, 3], "trainable": true, "name": "average_pooling2d_5"}, "inbound_nodes": [[["mixed4", 0, 0, {}]]], "name": "average_pooling2d_5"}, {"class_name": "Conv2D", "config": {"activation": "relu", "use_bias": true, "data_format": "channels_last", "strides": [1, 1], "dilation_rate": [1, 1], "kernel_initializer": {"class_name": "VarianceScaling", "config": {"seed": null, "scale": 1.0, "mode": "fan_avg", "distribution": "uniform"}}, "filters": 96, "bias_constraint": null, "kernel_size": [1, 1], "kernel_regularizer": null, "trainable": true, "padding": "same", "activity_regularizer": null, "kernel_constraint": null, "bias_initializer": {"class_name": "Zeros", "config": {}}, "bias_regularizer": null, "name": "conv2d_41"}, "inbound_nodes": [[["mixed4", 0, 0, {}]]], "name": "conv2d_41"}, {"class_name": "Conv2D", "config": {"activation": "relu", "use_bias": true, "data_format": "channels_last", "strides": [1, 1], "dilation_rate": [1, 1], "kernel_initializer": {"class_name": "VarianceScaling", "config": {"seed": null, "scale": 1.0, "mode": "fan_avg", "distribution": "uniform"}}, "filters": 96, "bias_constraint": null, "kernel_size": [7, 1], "kernel_regularizer": null, "trainable": true, "padding": "same", "activity_regularizer": null, "kernel_constraint": null, "bias_initializer": {"class_name": "Zeros", "config": {}}, "bias_regularizer": null, "name": "conv2d_44"}, "inbound_nodes": [[["batch_normalization_43", 0, 0, {}]]], "name": "conv2d_44"}, {"class_name": "Conv2D", "config": {"activation": "relu", "use_bias": true, "data_format": "channels_last", "strides": [1, 1], "dilation_rate": [1, 1], "kernel_initializer": {"class_name": "VarianceScaling", "config": {"seed": null, "scale": 1.0, "mode": "fan_avg", "distribution": "uniform"}}, "filters": 96, "bias_constraint": null, "kernel_size": [1, 7], "kernel_regularizer": null, "trainable": true, "padding": "same", "activity_regularizer": null, "kernel_constraint": null, "bias_initializer": {"class_name": "Zeros", "config": {}}, "bias_regularizer": null, "name": "conv2d_49"}, "inbound_nodes": [[["batch_normalization_48", 0, 0, {}]]], "name": "conv2d_49"}, {"class_name": "Conv2D", "config": {"activation": "relu", "use_bias": true, "data_format": "channels_last", "strides": [1, 1], "dilation_rate": [1, 1], "kernel_initializer": {"class_name": "VarianceScaling", "config": {"seed": null, "scale": 1.0, "mode": "fan_avg", "distribution": "uniform"}}, "filters": 96, "bias_constraint": null, "kernel_size": [1, 1], "kernel_regularizer": null, "trainable": true, "padding": "same", "activity_regularizer": null, "kernel_constraint": null, "bias_initializer": {"class_name": "Zeros", "config": {}}, "bias_regularizer": null, "name": "conv2d_50"}, "inbound_nodes": [[["average_pooling2d_5", 0, 0, {}]]], "name": "conv2d_50"}, {"class_name": "BatchNormalization", "config": {"scale": true, "epsilon": 0.001, "center": true, "moving_mean_initializer": {"class_name": "Zeros", "config": {}}, "beta_constraint": null, "gamma_constraint": null, "trainable": true, "momentum": 0.99, "gamma_initializer": {"class_name": "Ones", "config": {}}, "moving_variance_initializer": {"class_name": "Ones", "config": {}}, "gamma_regularizer": null, "name": "batch_normalization_41", "beta_initializer": {"class_name": "Zeros", "config": {}}, "axis": 3, "beta_regularizer": null}, "inbound_nodes": [[["conv2d_41", 0, 0, {}]]], "name": "batch_normalization_41"}, {"class_name": "BatchNormalization", "config": {"scale": true, "epsilon": 0.001, "center": true, "moving_mean_initializer": {"class_name": "Zeros", "config": {}}, "beta_constraint": null, "gamma_constraint": null, "trainable": true, "momentum": 0.99, "gamma_initializer": {"class_name": "Ones", "config": {}}, "moving_variance_initializer": {"class_name": "Ones", "config": {}}, "gamma_regularizer": null, "name": "batch_normalization_44", "beta_initializer": {"class_name": "Zeros", "config": {}}, "axis": 3, "beta_regularizer": null}, "inbound_nodes": [[["conv2d_44", 0, 0, {}]]], "name": "batch_normalization_44"}, {"class_name": "BatchNormalization", "config": {"scale": true, "epsilon": 0.001, "center": true, "moving_mean_initializer": {"class_name": "Zeros", "config": {}}, "beta_constraint": null, "gamma_constraint": null, "trainable": true, "momentum": 0.99, "gamma_initializer": {"class_name": "Ones", "config": {}}, "moving_variance_initializer": {"class_name": "Ones", "config": {}}, "gamma_regularizer": null, "name": "batch_normalization_49", "beta_initializer": {"class_name": "Zeros", "config": {}}, "axis": 3, "beta_regularizer": null}, "inbound_nodes": [[["conv2d_49", 0, 0, {}]]], "name": "batch_normalization_49"}, {"class_name": "BatchNormalization", "config": {"scale": true, "epsilon": 0.001, "center": true, "moving_mean_initializer": {"class_name": "Zeros", "config": {}}, "beta_constraint": null, "gamma_constraint": null, "trainable": true, "momentum": 0.99, "gamma_initializer": {"class_name": "Ones", "config": {}}, "moving_variance_initializer": {"class_name": "Ones", "config": {}}, "gamma_regularizer": null, "name": "batch_normalization_50", "beta_initializer": {"class_name": "Zeros", "config": {}}, "axis": 3, "beta_regularizer": null}, "inbound_nodes": [[["conv2d_50", 0, 0, {}]]], "name": "batch_normalization_50"}, {"class_name": "Concatenate", "config": {"trainable": true, "axis": -1, "name": "mixed5"}, "inbound_nodes": [[["batch_normalization_41", 0, 0, {}], ["batch_normalization_44", 0, 0, {}], ["batch_normalization_49", 0, 0, {}], ["batch_normalization_50", 0, 0, {}]]], "name": "mixed5"}, {"class_name": "Conv2D", "config": {"activation": "relu", "use_bias": true, "data_format": "channels_last", "strides": [1, 1], "dilation_rate": [1, 1], "kernel_initializer": {"class_name": "VarianceScaling", "config": {"seed": null, "scale": 1.0, "mode": "fan_avg", "distribution": "uniform"}}, "filters": 80, "bias_constraint": null, "kernel_size": [1, 1], "kernel_regularizer": null, "trainable": true, "padding": "same", "activity_regularizer": null, "kernel_constraint": null, "bias_initializer": {"class_name": "Zeros", "config": {}}, "bias_regularizer": null, "name": "conv2d_55"}, "inbound_nodes": [[["mixed5", 0, 0, {}]]], "name": "conv2d_55"}, {"class_name": "BatchNormalization", "config": {"scale": true, "epsilon": 0.001, "center": true, "moving_mean_initializer": {"class_name": "Zeros", "config": {}}, "beta_constraint": null, "gamma_constraint": null, "trainable": true, "momentum": 0.99, "gamma_initializer": {"class_name": "Ones", "config": {}}, "moving_variance_initializer": {"class_name": "Ones", "config": {}}, "gamma_regularizer": null, "name": "batch_normalization_55", "beta_initializer": {"class_name": "Zeros", "config": {}}, "axis": 3, "beta_regularizer": null}, "inbound_nodes": [[["conv2d_55", 0, 0, {}]]], "name": "batch_normalization_55"}, {"class_name": "Conv2D", "config": {"activation": "relu", "use_bias": true, "data_format": "channels_last", "strides": [1, 1], "dilation_rate": [1, 1], "kernel_initializer": {"class_name": "VarianceScaling", "config": {"seed": null, "scale": 1.0, "mode": "fan_avg", "distribution": "uniform"}}, "filters": 80, "bias_constraint": null, "kernel_size": [7, 1], "kernel_regularizer": null, "trainable": true, "padding": "same", "activity_regularizer": null, "kernel_constraint": null, "bias_initializer": {"class_name": "Zeros", "config": {}}, "bias_regularizer": null, "name": "conv2d_56"}, "inbound_nodes": [[["batch_normalization_55", 0, 0, {}]]], "name": "conv2d_56"}, {"class_name": "BatchNormalization", "config": {"scale": true, "epsilon": 0.001, "center": true, "moving_mean_initializer": {"class_name": "Zeros", "config": {}}, "beta_constraint": null, "gamma_constraint": null, "trainable": true, "momentum": 0.99, "gamma_initializer": {"class_name": "Ones", "config": {}}, "moving_variance_initializer": {"class_name": "Ones", "config": {}}, "gamma_regularizer": null, "name": "batch_normalization_56", "beta_initializer": {"class_name": "Zeros", "config": {}}, "axis": 3, "beta_regularizer": null}, "inbound_nodes": [[["conv2d_56", 0, 0, {}]]], "name": "batch_normalization_56"}, {"class_name": "Conv2D", "config": {"activation": "relu", "use_bias": true, "data_format": "channels_last", "strides": [1, 1], "dilation_rate": [1, 1], "kernel_initializer": {"class_name": "VarianceScaling", "config": {"seed": null, "scale": 1.0, "mode": "fan_avg", "distribution": "uniform"}}, "filters": 80, "bias_constraint": null, "kernel_size": [1, 1], "kernel_regularizer": null, "trainable": true, "padding": "same", "activity_regularizer": null, "kernel_constraint": null, "bias_initializer": {"class_name": "Zeros", "config": {}}, "bias_regularizer": null, "name": "conv2d_52"}, "inbound_nodes": [[["mixed5", 0, 0, {}]]], "name": "conv2d_52"}, {"class_name": "Conv2D", "config": {"activation": "relu", "use_bias": true, "data_format": "channels_last", "strides": [1, 1], "dilation_rate": [1, 1], "kernel_initializer": {"class_name": "VarianceScaling", "config": {"seed": null, "scale": 1.0, "mode": "fan_avg", "distribution": "uniform"}}, "filters": 80, "bias_constraint": null, "kernel_size": [1, 7], "kernel_regularizer": null, "trainable": true, "padding": "same", "activity_regularizer": null, "kernel_constraint": null, "bias_initializer": {"class_name": "Zeros", "config": {}}, "bias_regularizer": null, "name": "conv2d_57"}, "inbound_nodes": [[["batch_normalization_56", 0, 0, {}]]], "name": "conv2d_57"}, {"class_name": "BatchNormalization", "config": {"scale": true, "epsilon": 0.001, "center": true, "moving_mean_initializer": {"class_name": "Zeros", "config": {}}, "beta_constraint": null, "gamma_constraint": null, "trainable": true, "momentum": 0.99, "gamma_initializer": {"class_name": "Ones", "config": {}}, "moving_variance_initializer": {"class_name": "Ones", "config": {}}, "gamma_regularizer": null, "name": "batch_normalization_52", "beta_initializer": {"class_name": "Zeros", "config": {}}, "axis": 3, "beta_regularizer": null}, "inbound_nodes": [[["conv2d_52", 0, 0, {}]]], "name": "batch_normalization_52"}, {"class_name": "BatchNormalization", "config": {"scale": true, "epsilon": 0.001, "center": true, "moving_mean_initializer": {"class_name": "Zeros", "config": {}}, "beta_constraint": null, "gamma_constraint": null, "trainable": true, "momentum": 0.99, "gamma_initializer": {"class_name": "Ones", "config": {}}, "moving_variance_initializer": {"class_name": "Ones", "config": {}}, "gamma_regularizer": null, "name": "batch_normalization_57", "beta_initializer": {"class_name": "Zeros", "config": {}}, "axis": 3, "beta_regularizer": null}, "inbound_nodes": [[["conv2d_57", 0, 0, {}]]], "name": "batch_normalization_57"}, {"class_name": "Conv2D", "config": {"activation": "relu", "use_bias": true, "data_format": "channels_last", "strides": [1, 1], "dilation_rate": [1, 1], "kernel_initializer": {"class_name": "VarianceScaling", "config": {"seed": null, "scale": 1.0, "mode": "fan_avg", "distribution": "uniform"}}, "filters": 80, "bias_constraint": null, "kernel_size": [1, 7], "kernel_regularizer": null, "trainable": true, "padding": "same", "activity_regularizer": null, "kernel_constraint": null, "bias_initializer": {"class_name": "Zeros", "config": {}}, "bias_regularizer": null, "name": "conv2d_53"}, "inbound_nodes": [[["batch_normalization_52", 0, 0, {}]]], "name": "conv2d_53"}, {"class_name": "Conv2D", "config": {"activation": "relu", "use_bias": true, "data_format": "channels_last", "strides": [1, 1], "dilation_rate": [1, 1], "kernel_initializer": {"class_name": "VarianceScaling", "config": {"seed": null, "scale": 1.0, "mode": "fan_avg", "distribution": "uniform"}}, "filters": 80, "bias_constraint": null, "kernel_size": [7, 1], "kernel_regularizer": null, "trainable": true, "padding": "same", "activity_regularizer": null, "kernel_constraint": null, "bias_initializer": {"class_name": "Zeros", "config": {}}, "bias_regularizer": null, "name": "conv2d_58"}, "inbound_nodes": [[["batch_normalization_57", 0, 0, {}]]], "name": "conv2d_58"}, {"class_name": "BatchNormalization", "config": {"scale": true, "epsilon": 0.001, "center": true, "moving_mean_initializer": {"class_name": "Zeros", "config": {}}, "beta_constraint": null, "gamma_constraint": null, "trainable": true, "momentum": 0.99, "gamma_initializer": {"class_name": "Ones", "config": {}}, "moving_variance_initializer": {"class_name": "Ones", "config": {}}, "gamma_regularizer": null, "name": "batch_normalization_53", "beta_initializer": {"class_name": "Zeros", "config": {}}, "axis": 3, "beta_regularizer": null}, "inbound_nodes": [[["conv2d_53", 0, 0, {}]]], "name": "batch_normalization_53"}, {"class_name": "BatchNormalization", "config": {"scale": true, "epsilon": 0.001, "center": true, "moving_mean_initializer": {"class_name": "Zeros", "config": {}}, "beta_constraint": null, "gamma_constraint": null, "trainable": true, "momentum": 0.99, "gamma_initializer": {"class_name": "Ones", "config": {}}, "moving_variance_initializer": {"class_name": "Ones", "config": {}}, "gamma_regularizer": null, "name": "batch_normalization_58", "beta_initializer": {"class_name": "Zeros", "config": {}}, "axis": 3, "beta_regularizer": null}, "inbound_nodes": [[["conv2d_58", 0, 0, {}]]], "name": "batch_normalization_58"}, {"class_name": "AveragePooling2D", "config": {"padding": "same", "data_format": "channels_last", "strides": [1, 1], "pool_size": [3, 3], "trainable": true, "name": "average_pooling2d_6"}, "inbound_nodes": [[["mixed5", 0, 0, {}]]], "name": "average_pooling2d_6"}, {"class_name": "Conv2D", "config": {"activation": "relu", "use_bias": true, "data_format": "channels_last", "strides": [1, 1], "dilation_rate": [1, 1], "kernel_initializer": {"class_name": "VarianceScaling", "config": {"seed": null, "scale": 1.0, "mode": "fan_avg", "distribution": "uniform"}}, "filters": 96, "bias_constraint": null, "kernel_size": [1, 1], "kernel_regularizer": null, "trainable": true, "padding": "same", "activity_regularizer": null, "kernel_constraint": null, "bias_initializer": {"class_name": "Zeros", "config": {}}, "bias_regularizer": null, "name": "conv2d_51"}, "inbound_nodes": [[["mixed5", 0, 0, {}]]], "name": "conv2d_51"}, {"class_name": "Conv2D", "config": {"activation": "relu", "use_bias": true, "data_format": "channels_last", "strides": [1, 1], "dilation_rate": [1, 1], "kernel_initializer": {"class_name": "VarianceScaling", "config": {"seed": null, "scale": 1.0, "mode": "fan_avg", "distribution": "uniform"}}, "filters": 96, "bias_constraint": null, "kernel_size": [7, 1], "kernel_regularizer": null, "trainable": true, "padding": "same", "activity_regularizer": null, "kernel_constraint": null, "bias_initializer": {"class_name": "Zeros", "config": {}}, "bias_regularizer": null, "name": "conv2d_54"}, "inbound_nodes": [[["batch_normalization_53", 0, 0, {}]]], "name": "conv2d_54"}, {"class_name": "Conv2D", "config": {"activation": "relu", "use_bias": true, "data_format": "channels_last", "strides": [1, 1], "dilation_rate": [1, 1], "kernel_initializer": {"class_name": "VarianceScaling", "config": {"seed": null, "scale": 1.0, "mode": "fan_avg", "distribution": "uniform"}}, "filters": 96, "bias_constraint": null, "kernel_size": [1, 7], "kernel_regularizer": null, "trainable": true, "padding": "same", "activity_regularizer": null, "kernel_constraint": null, "bias_initializer": {"class_name": "Zeros", "config": {}}, "bias_regularizer": null, "name": "conv2d_59"}, "inbound_nodes": [[["batch_normalization_58", 0, 0, {}]]], "name": "conv2d_59"}, {"class_name": "Conv2D", "config": {"activation": "relu", "use_bias": true, "data_format": "channels_last", "strides": [1, 1], "dilation_rate": [1, 1], "kernel_initializer": {"class_name": "VarianceScaling", "config": {"seed": null, "scale": 1.0, "mode": "fan_avg", "distribution": "uniform"}}, "filters": 96, "bias_constraint": null, "kernel_size": [1, 1], "kernel_regularizer": null, "trainable": true, "padding": "same", "activity_regularizer": null, "kernel_constraint": null, "bias_initializer": {"class_name": "Zeros", "config": {}}, "bias_regularizer": null, "name": "conv2d_60"}, "inbound_nodes": [[["average_pooling2d_6", 0, 0, {}]]], "name": "conv2d_60"}, {"class_name": "BatchNormalization", "config": {"scale": true, "epsilon": 0.001, "center": true, "moving_mean_initializer": {"class_name": "Zeros", "config": {}}, "beta_constraint": null, "gamma_constraint": null, "trainable": true, "momentum": 0.99, "gamma_initializer": {"class_name": "Ones", "config": {}}, "moving_variance_initializer": {"class_name": "Ones", "config": {}}, "gamma_regularizer": null, "name": "batch_normalization_51", "beta_initializer": {"class_name": "Zeros", "config": {}}, "axis": 3, "beta_regularizer": null}, "inbound_nodes": [[["conv2d_51", 0, 0, {}]]], "name": "batch_normalization_51"}, {"class_name": "BatchNormalization", "config": {"scale": true, "epsilon": 0.001, "center": true, "moving_mean_initializer": {"class_name": "Zeros", "config": {}}, "beta_constraint": null, "gamma_constraint": null, "trainable": true, "momentum": 0.99, "gamma_initializer": {"class_name": "Ones", "config": {}}, "moving_variance_initializer": {"class_name": "Ones", "config": {}}, "gamma_regularizer": null, "name": "batch_normalization_54", "beta_initializer": {"class_name": "Zeros", "config": {}}, "axis": 3, "beta_regularizer": null}, "inbound_nodes": [[["conv2d_54", 0, 0, {}]]], "name": "batch_normalization_54"}, {"class_name": "BatchNormalization", "config": {"scale": true, "epsilon": 0.001, "center": true, "moving_mean_initializer": {"class_name": "Zeros", "config": {}}, "beta_constraint": null, "gamma_constraint": null, "trainable": true, "momentum": 0.99, "gamma_initializer": {"class_name": "Ones", "config": {}}, "moving_variance_initializer": {"class_name": "Ones", "config": {}}, "gamma_regularizer": null, "name": "batch_normalization_59", "beta_initializer": {"class_name": "Zeros", "config": {}}, "axis": 3, "beta_regularizer": null}, "inbound_nodes": [[["conv2d_59", 0, 0, {}]]], "name": "batch_normalization_59"}, {"class_name": "BatchNormalization", "config": {"scale": true, "epsilon": 0.001, "center": true, "moving_mean_initializer": {"class_name": "Zeros", "config": {}}, "beta_constraint": null, "gamma_constraint": null, "trainable": true, "momentum": 0.99, "gamma_initializer": {"class_name": "Ones", "config": {}}, "moving_variance_initializer": {"class_name": "Ones", "config": {}}, "gamma_regularizer": null, "name": "batch_normalization_60", "beta_initializer": {"class_name": "Zeros", "config": {}}, "axis": 3, "beta_regularizer": null}, "inbound_nodes": [[["conv2d_60", 0, 0, {}]]], "name": "batch_normalization_60"}, {"class_name": "Concatenate", "config": {"trainable": true, "axis": -1, "name": "mixed6"}, "inbound_nodes": [[["batch_normalization_51", 0, 0, {}], ["batch_normalization_54", 0, 0, {}], ["batch_normalization_59", 0, 0, {}], ["batch_normalization_60", 0, 0, {}]]], "name": "mixed6"}, {"class_name": "Conv2D", "config": {"activation": "relu", "use_bias": true, "data_format": "channels_last", "strides": [1, 1], "dilation_rate": [1, 1], "kernel_initializer": {"class_name": "VarianceScaling", "config": {"seed": null, "scale": 1.0, "mode": "fan_avg", "distribution": "uniform"}}, "filters": 80, "bias_constraint": null, "kernel_size": [1, 1], "kernel_regularizer": null, "trainable": true, "padding": "same", "activity_regularizer": null, "kernel_constraint": null, "bias_initializer": {"class_name": "Zeros", "config": {}}, "bias_regularizer": null, "name": "conv2d_65"}, "inbound_nodes": [[["mixed6", 0, 0, {}]]], "name": "conv2d_65"}, {"class_name": "BatchNormalization", "config": {"scale": true, "epsilon": 0.001, "center": true, "moving_mean_initializer": {"class_name": "Zeros", "config": {}}, "beta_constraint": null, "gamma_constraint": null, "trainable": true, "momentum": 0.99, "gamma_initializer": {"class_name": "Ones", "config": {}}, "moving_variance_initializer": {"class_name": "Ones", "config": {}}, "gamma_regularizer": null, "name": "batch_normalization_65", "beta_initializer": {"class_name": "Zeros", "config": {}}, "axis": 3, "beta_regularizer": null}, "inbound_nodes": [[["conv2d_65", 0, 0, {}]]], "name": "batch_normalization_65"}, {"class_name": "Conv2D", "config": {"activation": "relu", "use_bias": true, "data_format": "channels_last", "strides": [1, 1], "dilation_rate": [1, 1], "kernel_initializer": {"class_name": "VarianceScaling", "config": {"seed": null, "scale": 1.0, "mode": "fan_avg", "distribution": "uniform"}}, "filters": 96, "bias_constraint": null, "kernel_size": [7, 1], "kernel_regularizer": null, "trainable": true, "padding": "same", "activity_regularizer": null, "kernel_constraint": null, "bias_initializer": {"class_name": "Zeros", "config": {}}, "bias_regularizer": null, "name": "conv2d_66"}, "inbound_nodes": [[["batch_normalization_65", 0, 0, {}]]], "name": "conv2d_66"}, {"class_name": "BatchNormalization", "config": {"scale": true, "epsilon": 0.001, "center": true, "moving_mean_initializer": {"class_name": "Zeros", "config": {}}, "beta_constraint": null, "gamma_constraint": null, "trainable": true, "momentum": 0.99, "gamma_initializer": {"class_name": "Ones", "config": {}}, "moving_variance_initializer": {"class_name": "Ones", "config": {}}, "gamma_regularizer": null, "name": "batch_normalization_66", "beta_initializer": {"class_name": "Zeros", "config": {}}, "axis": 3, "beta_regularizer": null}, "inbound_nodes": [[["conv2d_66", 0, 0, {}]]], "name": "batch_normalization_66"}, {"class_name": "Conv2D", "config": {"activation": "relu", "use_bias": true, "data_format": "channels_last", "strides": [1, 1], "dilation_rate": [1, 1], "kernel_initializer": {"class_name": "VarianceScaling", "config": {"seed": null, "scale": 1.0, "mode": "fan_avg", "distribution": "uniform"}}, "filters": 96, "bias_constraint": null, "kernel_size": [1, 1], "kernel_regularizer": null, "trainable": true, "padding": "same", "activity_regularizer": null, "kernel_constraint": null, "bias_initializer": {"class_name": "Zeros", "config": {}}, "bias_regularizer": null, "name": "conv2d_62"}, "inbound_nodes": [[["mixed6", 0, 0, {}]]], "name": "conv2d_62"}, {"class_name": "Conv2D", "config": {"activation": "relu", "use_bias": true, "data_format": "channels_last", "strides": [1, 1], "dilation_rate": [1, 1], "kernel_initializer": {"class_name": "VarianceScaling", "config": {"seed": null, "scale": 1.0, "mode": "fan_avg", "distribution": "uniform"}}, "filters": 96, "bias_constraint": null, "kernel_size": [1, 7], "kernel_regularizer": null, "trainable": true, "padding": "same", "activity_regularizer": null, "kernel_constraint": null, "bias_initializer": {"class_name": "Zeros", "config": {}}, "bias_regularizer": null, "name": "conv2d_67"}, "inbound_nodes": [[["batch_normalization_66", 0, 0, {}]]], "name": "conv2d_67"}, {"class_name": "BatchNormalization", "config": {"scale": true, "epsilon": 0.001, "center": true, "moving_mean_initializer": {"class_name": "Zeros", "config": {}}, "beta_constraint": null, "gamma_constraint": null, "trainable": true, "momentum": 0.99, "gamma_initializer": {"class_name": "Ones", "config": {}}, "moving_variance_initializer": {"class_name": "Ones", "config": {}}, "gamma_regularizer": null, "name": "batch_normalization_62", "beta_initializer": {"class_name": "Zeros", "config": {}}, "axis": 3, "beta_regularizer": null}, "inbound_nodes": [[["conv2d_62", 0, 0, {}]]], "name": "batch_normalization_62"}, {"class_name": "BatchNormalization", "config": {"scale": true, "epsilon": 0.001, "center": true, "moving_mean_initializer": {"class_name": "Zeros", "config": {}}, "beta_constraint": null, "gamma_constraint": null, "trainable": true, "momentum": 0.99, "gamma_initializer": {"class_name": "Ones", "config": {}}, "moving_variance_initializer": {"class_name": "Ones", "config": {}}, "gamma_regularizer": null, "name": "batch_normalization_67", "beta_initializer": {"class_name": "Zeros", "config": {}}, "axis": 3, "beta_regularizer": null}, "inbound_nodes": [[["conv2d_67", 0, 0, {}]]], "name": "batch_normalization_67"}, {"class_name": "Conv2D", "config": {"activation": "relu", "use_bias": true, "data_format": "channels_last", "strides": [1, 1], "dilation_rate": [1, 1], "kernel_initializer": {"class_name": "VarianceScaling", "config": {"seed": null, "scale": 1.0, "mode": "fan_avg", "distribution": "uniform"}}, "filters": 96, "bias_constraint": null, "kernel_size": [1, 7], "kernel_regularizer": null, "trainable": true, "padding": "same", "activity_regularizer": null, "kernel_constraint": null, "bias_initializer": {"class_name": "Zeros", "config": {}}, "bias_regularizer": null, "name": "conv2d_63"}, "inbound_nodes": [[["batch_normalization_62", 0, 0, {}]]], "name": "conv2d_63"}, {"class_name": "Conv2D", "config": {"activation": "relu", "use_bias": true, "data_format": "channels_last", "strides": [1, 1], "dilation_rate": [1, 1], "kernel_initializer": {"class_name": "VarianceScaling", "config": {"seed": null, "scale": 1.0, "mode": "fan_avg", "distribution": "uniform"}}, "filters": 96, "bias_constraint": null, "kernel_size": [7, 1], "kernel_regularizer": null, "trainable": true, "padding": "same", "activity_regularizer": null, "kernel_constraint": null, "bias_initializer": {"class_name": "Zeros", "config": {}}, "bias_regularizer": null, "name": "conv2d_68"}, "inbound_nodes": [[["batch_normalization_67", 0, 0, {}]]], "name": "conv2d_68"}, {"class_name": "BatchNormalization", "config": {"scale": true, "epsilon": 0.001, "center": true, "moving_mean_initializer": {"class_name": "Zeros", "config": {}}, "beta_constraint": null, "gamma_constraint": null, "trainable": true, "momentum": 0.99, "gamma_initializer": {"class_name": "Ones", "config": {}}, "moving_variance_initializer": {"class_name": "Ones", "config": {}}, "gamma_regularizer": null, "name": "batch_normalization_63", "beta_initializer": {"class_name": "Zeros", "config": {}}, "axis": 3, "beta_regularizer": null}, "inbound_nodes": [[["conv2d_63", 0, 0, {}]]], "name": "batch_normalization_63"}, {"class_name": "BatchNormalization", "config": {"scale": true, "epsilon": 0.001, "center": true, "moving_mean_initializer": {"class_name": "Zeros", "config": {}}, "beta_constraint": null, "gamma_constraint": null, "trainable": true, "momentum": 0.99, "gamma_initializer": {"class_name": "Ones", "config": {}}, "moving_variance_initializer": {"class_name": "Ones", "config": {}}, "gamma_regularizer": null, "name": "batch_normalization_68", "beta_initializer": {"class_name": "Zeros", "config": {}}, "axis": 3, "beta_regularizer": null}, "inbound_nodes": [[["conv2d_68", 0, 0, {}]]], "name": "batch_normalization_68"}, {"class_name": "AveragePooling2D", "config": {"padding": "same", "data_format": "channels_last", "strides": [1, 1], "pool_size": [3, 3], "trainable": true, "name": "average_pooling2d_7"}, "inbound_nodes": [[["mixed6", 0, 0, {}]]], "name": "average_pooling2d_7"}, {"class_name": "Conv2D", "config": {"activation": "relu", "use_bias": true, "data_format": "channels_last", "strides": [1, 1], "dilation_rate": [1, 1], "kernel_initializer": {"class_name": "VarianceScaling", "config": {"seed": null, "scale": 1.0, "mode": "fan_avg", "distribution": "uniform"}}, "filters": 96, "bias_constraint": null, "kernel_size": [1, 1], "kernel_regularizer": null, "trainable": true, "padding": "same", "activity_regularizer": null, "kernel_constraint": null, "bias_initializer": {"class_name": "Zeros", "config": {}}, "bias_regularizer": null, "name": "conv2d_61"}, "inbound_nodes": [[["mixed6", 0, 0, {}]]], "name": "conv2d_61"}, {"class_name": "Conv2D", "config": {"activation": "relu", "use_bias": true, "data_format": "channels_last", "strides": [1, 1], "dilation_rate": [1, 1], "kernel_initializer": {"class_name": "VarianceScaling", "config": {"seed": null, "scale": 1.0, "mode": "fan_avg", "distribution": "uniform"}}, "filters": 96, "bias_constraint": null, "kernel_size": [7, 1], "kernel_regularizer": null, "trainable": true, "padding": "same", "activity_regularizer": null, "kernel_constraint": null, "bias_initializer": {"class_name": "Zeros", "config": {}}, "bias_regularizer": null, "name": "conv2d_64"}, "inbound_nodes": [[["batch_normalization_63", 0, 0, {}]]], "name": "conv2d_64"}, {"class_name": "Conv2D", "config": {"activation": "relu", "use_bias": true, "data_format": "channels_last", "strides": [1, 1], "dilation_rate": [1, 1], "kernel_initializer": {"class_name": "VarianceScaling", "config": {"seed": null, "scale": 1.0, "mode": "fan_avg", "distribution": "uniform"}}, "filters": 96, "bias_constraint": null, "kernel_size": [1, 7], "kernel_regularizer": null, "trainable": true, "padding": "same", "activity_regularizer": null, "kernel_constraint": null, "bias_initializer": {"class_name": "Zeros", "config": {}}, "bias_regularizer": null, "name": "conv2d_69"}, "inbound_nodes": [[["batch_normalization_68", 0, 0, {}]]], "name": "conv2d_69"}, {"class_name": "Conv2D", "config": {"activation": "relu", "use_bias": true, "data_format": "channels_last", "strides": [1, 1], "dilation_rate": [1, 1], "kernel_initializer": {"class_name": "VarianceScaling", "config": {"seed": null, "scale": 1.0, "mode": "fan_avg", "distribution": "uniform"}}, "filters": 96, "bias_constraint": null, "kernel_size": [1, 1], "kernel_regularizer": null, "trainable": true, "padding": "same", "activity_regularizer": null, "kernel_constraint": null, "bias_initializer": {"class_name": "Zeros", "config": {}}, "bias_regularizer": null, "name": "conv2d_70"}, "inbound_nodes": [[["average_pooling2d_7", 0, 0, {}]]], "name": "conv2d_70"}, {"class_name": "BatchNormalization", "config": {"scale": true, "epsilon": 0.001, "center": true, "moving_mean_initializer": {"class_name": "Zeros", "config": {}}, "beta_constraint": null, "gamma_constraint": null, "trainable": true, "momentum": 0.99, "gamma_initializer": {"class_name": "Ones", "config": {}}, "moving_variance_initializer": {"class_name": "Ones", "config": {}}, "gamma_regularizer": null, "name": "batch_normalization_61", "beta_initializer": {"class_name": "Zeros", "config": {}}, "axis": 3, "beta_regularizer": null}, "inbound_nodes": [[["conv2d_61", 0, 0, {}]]], "name": "batch_normalization_61"}, {"class_name": "BatchNormalization", "config": {"scale": true, "epsilon": 0.001, "center": true, "moving_mean_initializer": {"class_name": "Zeros", "config": {}}, "beta_constraint": null, "gamma_constraint": null, "trainable": true, "momentum": 0.99, "gamma_initializer": {"class_name": "Ones", "config": {}}, "moving_variance_initializer": {"class_name": "Ones", "config": {}}, "gamma_regularizer": null, "name": "batch_normalization_64", "beta_initializer": {"class_name": "Zeros", "config": {}}, "axis": 3, "beta_regularizer": null}, "inbound_nodes": [[["conv2d_64", 0, 0, {}]]], "name": "batch_normalization_64"}, {"class_name": "BatchNormalization", "config": {"scale": true, "epsilon": 0.001, "center": true, "moving_mean_initializer": {"class_name": "Zeros", "config": {}}, "beta_constraint": null, "gamma_constraint": null, "trainable": true, "momentum": 0.99, "gamma_initializer": {"class_name": "Ones", "config": {}}, "moving_variance_initializer": {"class_name": "Ones", "config": {}}, "gamma_regularizer": null, "name": "batch_normalization_69", "beta_initializer": {"class_name": "Zeros", "config": {}}, "axis": 3, "beta_regularizer": null}, "inbound_nodes": [[["conv2d_69", 0, 0, {}]]], "name": "batch_normalization_69"}, {"class_name": "BatchNormalization", "config": {"scale": true, "epsilon": 0.001, "center": true, "moving_mean_initializer": {"class_name": "Zeros", "config": {}}, "beta_constraint": null, "gamma_constraint": null, "trainable": true, "momentum": 0.99, "gamma_initializer": {"class_name": "Ones", "config": {}}, "moving_variance_initializer": {"class_name": "Ones", "config": {}}, "gamma_regularizer": null, "name": "batch_normalization_70", "beta_initializer": {"class_name": "Zeros", "config": {}}, "axis": 3, "beta_regularizer": null}, "inbound_nodes": [[["conv2d_70", 0, 0, {}]]], "name": "batch_normalization_70"}, {"class_name": "Concatenate", "config": {"trainable": true, "axis": -1, "name": "mixed7"}, "inbound_nodes": [[["batch_normalization_61", 0, 0, {}], ["batch_normalization_64", 0, 0, {}], ["batch_normalization_69", 0, 0, {}], ["batch_normalization_70", 0, 0, {}]]], "name": "mixed7"}, {"class_name": "Conv2D", "config": {"activation": "relu", "use_bias": true, "data_format": "channels_last", "strides": [1, 1], "dilation_rate": [1, 1], "kernel_initializer": {"class_name": "VarianceScaling", "config": {"seed": null, "scale": 1.0, "mode": "fan_avg", "distribution": "uniform"}}, "filters": 96, "bias_constraint": null, "kernel_size": [1, 1], "kernel_regularizer": null, "trainable": true, "padding": "same", "activity_regularizer": null, "kernel_constraint": null, "bias_initializer": {"class_name": "Zeros", "config": {}}, "bias_regularizer": null, "name": "conv2d_73"}, "inbound_nodes": [[["mixed7", 0, 0, {}]]], "name": "conv2d_73"}, {"class_name": "BatchNormalization", "config": {"scale": true, "epsilon": 0.001, "center": true, "moving_mean_initializer": {"class_name": "Zeros", "config": {}}, "beta_constraint": null, "gamma_constraint": null, "trainable": true, "momentum": 0.99, "gamma_initializer": {"class_name": "Ones", "config": {}}, "moving_variance_initializer": {"class_name": "Ones", "config": {}}, "gamma_regularizer": null, "name": "batch_normalization_73", "beta_initializer": {"class_name": "Zeros", "config": {}}, "axis": 3, "beta_regularizer": null}, "inbound_nodes": [[["conv2d_73", 0, 0, {}]]], "name": "batch_normalization_73"}, {"class_name": "Conv2D", "config": {"activation": "relu", "use_bias": true, "data_format": "channels_last", "strides": [1, 1], "dilation_rate": [1, 1], "kernel_initializer": {"class_name": "VarianceScaling", "config": {"seed": null, "scale": 1.0, "mode": "fan_avg", "distribution": "uniform"}}, "filters": 96, "bias_constraint": null, "kernel_size": [1, 7], "kernel_regularizer": null, "trainable": true, "padding": "same", "activity_regularizer": null, "kernel_constraint": null, "bias_initializer": {"class_name": "Zeros", "config": {}}, "bias_regularizer": null, "name": "conv2d_74"}, "inbound_nodes": [[["batch_normalization_73", 0, 0, {}]]], "name": "conv2d_74"}, {"class_name": "BatchNormalization", "config": {"scale": true, "epsilon": 0.001, "center": true, "moving_mean_initializer": {"class_name": "Zeros", "config": {}}, "beta_constraint": null, "gamma_constraint": null, "trainable": true, "momentum": 0.99, "gamma_initializer": {"class_name": "Ones", "config": {}}, "moving_variance_initializer": {"class_name": "Ones", "config": {}}, "gamma_regularizer": null, "name": "batch_normalization_74", "beta_initializer": {"class_name": "Zeros", "config": {}}, "axis": 3, "beta_regularizer": null}, "inbound_nodes": [[["conv2d_74", 0, 0, {}]]], "name": "batch_normalization_74"}, {"class_name": "Conv2D", "config": {"activation": "relu", "use_bias": true, "data_format": "channels_last", "strides": [1, 1], "dilation_rate": [1, 1], "kernel_initializer": {"class_name": "VarianceScaling", "config": {"seed": null, "scale": 1.0, "mode": "fan_avg", "distribution": "uniform"}}, "filters": 96, "bias_constraint": null, "kernel_size": [1, 1], "kernel_regularizer": null, "trainable": true, "padding": "same", "activity_regularizer": null, "kernel_constraint": null, "bias_initializer": {"class_name": "Zeros", "config": {}}, "bias_regularizer": null, "name": "conv2d_71"}, "inbound_nodes": [[["mixed7", 0, 0, {}]]], "name": "conv2d_71"}, {"class_name": "Conv2D", "config": {"activation": "relu", "use_bias": true, "data_format": "channels_last", "strides": [1, 1], "dilation_rate": [1, 1], "kernel_initializer": {"class_name": "VarianceScaling", "config": {"seed": null, "scale": 1.0, "mode": "fan_avg", "distribution": "uniform"}}, "filters": 96, "bias_constraint": null, "kernel_size": [7, 1], "kernel_regularizer": null, "trainable": true, "padding": "same", "activity_regularizer": null, "kernel_constraint": null, "bias_initializer": {"class_name": "Zeros", "config": {}}, "bias_regularizer": null, "name": "conv2d_75"}, "inbound_nodes": [[["batch_normalization_74", 0, 0, {}]]], "name": "conv2d_75"}, {"class_name": "BatchNormalization", "config": {"scale": true, "epsilon": 0.001, "center": true, "moving_mean_initializer": {"class_name": "Zeros", "config": {}}, "beta_constraint": null, "gamma_constraint": null, "trainable": true, "momentum": 0.99, "gamma_initializer": {"class_name": "Ones", "config": {}}, "moving_variance_initializer": {"class_name": "Ones", "config": {}}, "gamma_regularizer": null, "name": "batch_normalization_71", "beta_initializer": {"class_name": "Zeros", "config": {}}, "axis": 3, "beta_regularizer": null}, "inbound_nodes": [[["conv2d_71", 0, 0, {}]]], "name": "batch_normalization_71"}, {"class_name": "BatchNormalization", "config": {"scale": true, "epsilon": 0.001, "center": true, "moving_mean_initializer": {"class_name": "Zeros", "config": {}}, "beta_constraint": null, "gamma_constraint": null, "trainable": true, "momentum": 0.99, "gamma_initializer": {"class_name": "Ones", "config": {}}, "moving_variance_initializer": {"class_name": "Ones", "config": {}}, "gamma_regularizer": null, "name": "batch_normalization_75", "beta_initializer": {"class_name": "Zeros", "config": {}}, "axis": 3, "beta_regularizer": null}, "inbound_nodes": [[["conv2d_75", 0, 0, {}]]], "name": "batch_normalization_75"}, {"class_name": "Conv2D", "config": {"activation": "relu", "use_bias": true, "data_format": "channels_last", "strides": [2, 2], "dilation_rate": [1, 1], "kernel_initializer": {"class_name": "VarianceScaling", "config": {"seed": null, "scale": 1.0, "mode": "fan_avg", "distribution": "uniform"}}, "filters": 160, "bias_constraint": null, "kernel_size": [3, 3], "kernel_regularizer": null, "trainable": true, "padding": "valid", "activity_regularizer": null, "kernel_constraint": null, "bias_initializer": {"class_name": "Zeros", "config": {}}, "bias_regularizer": null, "name": "conv2d_72"}, "inbound_nodes": [[["batch_normalization_71", 0, 0, {}]]], "name": "conv2d_72"}, {"class_name": "Conv2D", "config": {"activation": "relu", "use_bias": true, "data_format": "channels_last", "strides": [2, 2], "dilation_rate": [1, 1], "kernel_initializer": {"class_name": "VarianceScaling", "config": {"seed": null, "scale": 1.0, "mode": "fan_avg", "distribution": "uniform"}}, "filters": 96, "bias_constraint": null, "kernel_size": [3, 3], "kernel_regularizer": null, "trainable": true, "padding": "valid", "activity_regularizer": null, "kernel_constraint": null, "bias_initializer": {"class_name": "Zeros", "config": {}}, "bias_regularizer": null, "name": "conv2d_76"}, "inbound_nodes": [[["batch_normalization_75", 0, 0, {}]]], "name": "conv2d_76"}, {"class_name": "BatchNormalization", "config": {"scale": true, "epsilon": 0.001, "center": true, "moving_mean_initializer": {"class_name": "Zeros", "config": {}}, "beta_constraint": null, "gamma_constraint": null, "trainable": true, "momentum": 0.99, "gamma_initializer": {"class_name": "Ones", "config": {}}, "moving_variance_initializer": {"class_name": "Ones", "config": {}}, "gamma_regularizer": null, "name": "batch_normalization_72", "beta_initializer": {"class_name": "Zeros", "config": {}}, "axis": 3, "beta_regularizer": null}, "inbound_nodes": [[["conv2d_72", 0, 0, {}]]], "name": "batch_normalization_72"}, {"class_name": "BatchNormalization", "config": {"scale": true, "epsilon": 0.001, "center": true, "moving_mean_initializer": {"class_name": "Zeros", "config": {}}, "beta_constraint": null, "gamma_constraint": null, "trainable": true, "momentum": 0.99, "gamma_initializer": {"class_name": "Ones", "config": {}}, "moving_variance_initializer": {"class_name": "Ones", "config": {}}, "gamma_regularizer": null, "name": "batch_normalization_76", "beta_initializer": {"class_name": "Zeros", "config": {}}, "axis": 3, "beta_regularizer": null}, "inbound_nodes": [[["conv2d_76", 0, 0, {}]]], "name": "batch_normalization_76"}, {"class_name": "AveragePooling2D", "config": {"padding": "valid", "data_format": "channels_last", "strides": [2, 2], "pool_size": [3, 3], "trainable": true, "name": "average_pooling2d_8"}, "inbound_nodes": [[["mixed7", 0, 0, {}]]], "name": "average_pooling2d_8"}, {"class_name": "Concatenate", "config": {"trainable": true, "axis": -1, "name": "mixed8"}, "inbound_nodes": [[["batch_normalization_72", 0, 0, {}], ["batch_normalization_76", 0, 0, {}], ["average_pooling2d_8", 0, 0, {}]]], "name": "mixed8"}, {"class_name": "Conv2D", "config": {"activation": "relu", "use_bias": true, "data_format": "channels_last", "strides": [1, 1], "dilation_rate": [1, 1], "kernel_initializer": {"class_name": "VarianceScaling", "config": {"seed": null, "scale": 1.0, "mode": "fan_avg", "distribution": "uniform"}}, "filters": 224, "bias_constraint": null, "kernel_size": [1, 1], "kernel_regularizer": null, "trainable": true, "padding": "same", "activity_regularizer": null, "kernel_constraint": null, "bias_initializer": {"class_name": "Zeros", "config": {}}, "bias_regularizer": null, "name": "conv2d_81"}, "inbound_nodes": [[["mixed8", 0, 0, {}]]], "name": "conv2d_81"}, {"class_name": "BatchNormalization", "config": {"scale": true, "epsilon": 0.001, "center": true, "moving_mean_initializer": {"class_name": "Zeros", "config": {}}, "beta_constraint": null, "gamma_constraint": null, "trainable": true, "momentum": 0.99, "gamma_initializer": {"class_name": "Ones", "config": {}}, "moving_variance_initializer": {"class_name": "Ones", "config": {}}, "gamma_regularizer": null, "name": "batch_normalization_81", "beta_initializer": {"class_name": "Zeros", "config": {}}, "axis": 3, "beta_regularizer": null}, "inbound_nodes": [[["conv2d_81", 0, 0, {}]]], "name": "batch_normalization_81"}, {"class_name": "Conv2D", "config": {"activation": "relu", "use_bias": true, "data_format": "channels_last", "strides": [1, 1], "dilation_rate": [1, 1], "kernel_initializer": {"class_name": "VarianceScaling", "config": {"seed": null, "scale": 1.0, "mode": "fan_avg", "distribution": "uniform"}}, "filters": 192, "bias_constraint": null, "kernel_size": [1, 1], "kernel_regularizer": null, "trainable": true, "padding": "same", "activity_regularizer": null, "kernel_constraint": null, "bias_initializer": {"class_name": "Zeros", "config": {}}, "bias_regularizer": null, "name": "conv2d_78"}, "inbound_nodes": [[["mixed8", 0, 0, {}]]], "name": "conv2d_78"}, {"class_name": "Conv2D", "config": {"activation": "relu", "use_bias": true, "data_format": "channels_last", "strides": [1, 1], "dilation_rate": [1, 1], "kernel_initializer": {"class_name": "VarianceScaling", "config": {"seed": null, "scale": 1.0, "mode": "fan_avg", "distribution": "uniform"}}, "filters": 192, "bias_constraint": null, "kernel_size": [3, 3], "kernel_regularizer": null, "trainable": true, "padding": "same", "activity_regularizer": null, "kernel_constraint": null, "bias_initializer": {"class_name": "Zeros", "config": {}}, "bias_regularizer": null, "name": "conv2d_82"}, "inbound_nodes": [[["batch_normalization_81", 0, 0, {}]]], "name": "conv2d_82"}, {"class_name": "BatchNormalization", "config": {"scale": true, "epsilon": 0.001, "center": true, "moving_mean_initializer": {"class_name": "Zeros", "config": {}}, "beta_constraint": null, "gamma_constraint": null, "trainable": true, "momentum": 0.99, "gamma_initializer": {"class_name": "Ones", "config": {}}, "moving_variance_initializer": {"class_name": "Ones", "config": {}}, "gamma_regularizer": null, "name": "batch_normalization_78", "beta_initializer": {"class_name": "Zeros", "config": {}}, "axis": 3, "beta_regularizer": null}, "inbound_nodes": [[["conv2d_78", 0, 0, {}]]], "name": "batch_normalization_78"}, {"class_name": "BatchNormalization", "config": {"scale": true, "epsilon": 0.001, "center": true, "moving_mean_initializer": {"class_name": "Zeros", "config": {}}, "beta_constraint": null, "gamma_constraint": null, "trainable": true, "momentum": 0.99, "gamma_initializer": {"class_name": "Ones", "config": {}}, "moving_variance_initializer": {"class_name": "Ones", "config": {}}, "gamma_regularizer": null, "name": "batch_normalization_82", "beta_initializer": {"class_name": "Zeros", "config": {}}, "axis": 3, "beta_regularizer": null}, "inbound_nodes": [[["conv2d_82", 0, 0, {}]]], "name": "batch_normalization_82"}, {"class_name": "Conv2D", "config": {"activation": "relu", "use_bias": true, "data_format": "channels_last", "strides": [1, 1], "dilation_rate": [1, 1], "kernel_initializer": {"class_name": "VarianceScaling", "config": {"seed": null, "scale": 1.0, "mode": "fan_avg", "distribution": "uniform"}}, "filters": 192, "bias_constraint": null, "kernel_size": [1, 3], "kernel_regularizer": null, "trainable": true, "padding": "same", "activity_regularizer": null, "kernel_constraint": null, "bias_initializer": {"class_name": "Zeros", "config": {}}, "bias_regularizer": null, "name": "conv2d_79"}, "inbound_nodes": [[["batch_normalization_78", 0, 0, {}]]], "name": "conv2d_79"}, {"class_name": "Conv2D", "config": {"activation": "relu", "use_bias": true, "data_format": "channels_last", "strides": [1, 1], "dilation_rate": [1, 1], "kernel_initializer": {"class_name": "VarianceScaling", "config": {"seed": null, "scale": 1.0, "mode": "fan_avg", "distribution": "uniform"}}, "filters": 192, "bias_constraint": null, "kernel_size": [3, 1], "kernel_regularizer": null, "trainable": true, "padding": "same", "activity_regularizer": null, "kernel_constraint": null, "bias_initializer": {"class_name": "Zeros", "config": {}}, "bias_regularizer": null, "name": "conv2d_80"}, "inbound_nodes": [[["batch_normalization_78", 0, 0, {}]]], "name": "conv2d_80"}, {"class_name": "Conv2D", "config": {"activation": "relu", "use_bias": true, "data_format": "channels_last", "strides": [1, 1], "dilation_rate": [1, 1], "kernel_initializer": {"class_name": "VarianceScaling", "config": {"seed": null, "scale": 1.0, "mode": "fan_avg", "distribution": "uniform"}}, "filters": 192, "bias_constraint": null, "kernel_size": [1, 3], "kernel_regularizer": null, "trainable": true, "padding": "same", "activity_regularizer": null, "kernel_constraint": null, "bias_initializer": {"class_name": "Zeros", "config": {}}, "bias_regularizer": null, "name": "conv2d_83"}, "inbound_nodes": [[["batch_normalization_82", 0, 0, {}]]], "name": "conv2d_83"}, {"class_name": "Conv2D", "config": {"activation": "relu", "use_bias": true, "data_format": "channels_last", "strides": [1, 1], "dilation_rate": [1, 1], "kernel_initializer": {"class_name": "VarianceScaling", "config": {"seed": null, "scale": 1.0, "mode": "fan_avg", "distribution": "uniform"}}, "filters": 192, "bias_constraint": null, "kernel_size": [3, 1], "kernel_regularizer": null, "trainable": true, "padding": "same", "activity_regularizer": null, "kernel_constraint": null, "bias_initializer": {"class_name": "Zeros", "config": {}}, "bias_regularizer": null, "name": "conv2d_84"}, "inbound_nodes": [[["batch_normalization_82", 0, 0, {}]]], "name": "conv2d_84"}, {"class_name": "AveragePooling2D", "config": {"padding": "same", "data_format": "channels_last", "strides": [1, 1], "pool_size": [3, 3], "trainable": true, "name": "average_pooling2d_9"}, "inbound_nodes": [[["mixed8", 0, 0, {}]]], "name": "average_pooling2d_9"}, {"class_name": "Conv2D", "config": {"activation": "relu", "use_bias": true, "data_format": "channels_last", "strides": [1, 1], "dilation_rate": [1, 1], "kernel_initializer": {"class_name": "VarianceScaling", "config": {"seed": null, "scale": 1.0, "mode": "fan_avg", "distribution": "uniform"}}, "filters": 160, "bias_constraint": null, "kernel_size": [1, 1], "kernel_regularizer": null, "trainable": true, "padding": "same", "activity_regularizer": null, "kernel_constraint": null, "bias_initializer": {"class_name": "Zeros", "config": {}}, "bias_regularizer": null, "name": "conv2d_77"}, "inbound_nodes": [[["mixed8", 0, 0, {}]]], "name": "conv2d_77"}, {"class_name": "BatchNormalization", "config": {"scale": true, "epsilon": 0.001, "center": true, "moving_mean_initializer": {"class_name": "Zeros", "config": {}}, "beta_constraint": null, "gamma_constraint": null, "trainable": true, "momentum": 0.99, "gamma_initializer": {"class_name": "Ones", "config": {}}, "moving_variance_initializer": {"class_name": "Ones", "config": {}}, "gamma_regularizer": null, "name": "batch_normalization_79", "beta_initializer": {"class_name": "Zeros", "config": {}}, "axis": 3, "beta_regularizer": null}, "inbound_nodes": [[["conv2d_79", 0, 0, {}]]], "name": "batch_normalization_79"}, {"class_name": "BatchNormalization", "config": {"scale": true, "epsilon": 0.001, "center": true, "moving_mean_initializer": {"class_name": "Zeros", "config": {}}, "beta_constraint": null, "gamma_constraint": null, "trainable": true, "momentum": 0.99, "gamma_initializer": {"class_name": "Ones", "config": {}}, "moving_variance_initializer": {"class_name": "Ones", "config": {}}, "gamma_regularizer": null, "name": "batch_normalization_80", "beta_initializer": {"class_name": "Zeros", "config": {}}, "axis": 3, "beta_regularizer": null}, "inbound_nodes": [[["conv2d_80", 0, 0, {}]]], "name": "batch_normalization_80"}, {"class_name": "BatchNormalization", "config": {"scale": true, "epsilon": 0.001, "center": true, "moving_mean_initializer": {"class_name": "Zeros", "config": {}}, "beta_constraint": null, "gamma_constraint": null, "trainable": true, "momentum": 0.99, "gamma_initializer": {"class_name": "Ones", "config": {}}, "moving_variance_initializer": {"class_name": "Ones", "config": {}}, "gamma_regularizer": null, "name": "batch_normalization_83", "beta_initializer": {"class_name": "Zeros", "config": {}}, "axis": 3, "beta_regularizer": null}, "inbound_nodes": [[["conv2d_83", 0, 0, {}]]], "name": "batch_normalization_83"}, {"class_name": "BatchNormalization", "config": {"scale": true, "epsilon": 0.001, "center": true, "moving_mean_initializer": {"class_name": "Zeros", "config": {}}, "beta_constraint": null, "gamma_constraint": null, "trainable": true, "momentum": 0.99, "gamma_initializer": {"class_name": "Ones", "config": {}}, "moving_variance_initializer": {"class_name": "Ones", "config": {}}, "gamma_regularizer": null, "name": "batch_normalization_84", "beta_initializer": {"class_name": "Zeros", "config": {}}, "axis": 3, "beta_regularizer": null}, "inbound_nodes": [[["conv2d_84", 0, 0, {}]]], "name": "batch_normalization_84"}, {"class_name": "Conv2D", "config": {"activation": "relu", "use_bias": true, "data_format": "channels_last", "strides": [1, 1], "dilation_rate": [1, 1], "kernel_initializer": {"class_name": "VarianceScaling", "config": {"seed": null, "scale": 1.0, "mode": "fan_avg", "distribution": "uniform"}}, "filters": 96, "bias_constraint": null, "kernel_size": [1, 1], "kernel_regularizer": null, "trainable": true, "padding": "same", "activity_regularizer": null, "kernel_constraint": null, "bias_initializer": {"class_name": "Zeros", "config": {}}, "bias_regularizer": null, "name": "conv2d_85"}, "inbound_nodes": [[["average_pooling2d_9", 0, 0, {}]]], "name": "conv2d_85"}, {"class_name": "BatchNormalization", "config": {"scale": true, "epsilon": 0.001, "center": true, "moving_mean_initializer": {"class_name": "Zeros", "config": {}}, "beta_constraint": null, "gamma_constraint": null, "trainable": true, "momentum": 0.99, "gamma_initializer": {"class_name": "Ones", "config": {}}, "moving_variance_initializer": {"class_name": "Ones", "config": {}}, "gamma_regularizer": null, "name": "batch_normalization_77", "beta_initializer": {"class_name": "Zeros", "config": {}}, "axis": 3, "beta_regularizer": null}, "inbound_nodes": [[["conv2d_77", 0, 0, {}]]], "name": "batch_normalization_77"}, {"class_name": "Concatenate", "config": {"trainable": true, "axis": -1, "name": "mixed9_0"}, "inbound_nodes": [[["batch_normalization_79", 0, 0, {}], ["batch_normalization_80", 0, 0, {}]]], "name": "mixed9_0"}, {"class_name": "Concatenate", "config": {"trainable": true, "axis": -1, "name": "concatenate_1"}, "inbound_nodes": [[["batch_normalization_83", 0, 0, {}], ["batch_normalization_84", 0, 0, {}]]], "name": "concatenate_1"}, {"class_name": "BatchNormalization", "config": {"scale": true, "epsilon": 0.001, "center": true, "moving_mean_initializer": {"class_name": "Zeros", "config": {}}, "beta_constraint": null, "gamma_constraint": null, "trainable": true, "momentum": 0.99, "gamma_initializer": {"class_name": "Ones", "config": {}}, "moving_variance_initializer": {"class_name": "Ones", "config": {}}, "gamma_regularizer": null, "name": "batch_normalization_85", "beta_initializer": {"class_name": "Zeros", "config": {}}, "axis": 3, "beta_regularizer": null}, "inbound_nodes": [[["conv2d_85", 0, 0, {}]]], "name": "batch_normalization_85"}, {"class_name": "Concatenate", "config": {"trainable": true, "axis": -1, "name": "mixed9"}, "inbound_nodes": [[["batch_normalization_77", 0, 0, {}], ["mixed9_0", 0, 0, {}], ["concatenate_1", 0, 0, {}], ["batch_normalization_85", 0, 0, {}]]], "name": "mixed9"}, {"class_name": "Conv2D", "config": {"activation": "relu", "use_bias": true, "data_format": "channels_last", "strides": [1, 1], "dilation_rate": [1, 1], "kernel_initializer": {"class_name": "VarianceScaling", "config": {"seed": null, "scale": 1.0, "mode": "fan_avg", "distribution": "uniform"}}, "filters": 224, "bias_constraint": null, "kernel_size": [1, 1], "kernel_regularizer": null, "trainable": true, "padding": "same", "activity_regularizer": null, "kernel_constraint": null, "bias_initializer": {"class_name": "Zeros", "config": {}}, "bias_regularizer": null, "name": "conv2d_90"}, "inbound_nodes": [[["mixed9", 0, 0, {}]]], "name": "conv2d_90"}, {"class_name": "BatchNormalization", "config": {"scale": true, "epsilon": 0.001, "center": true, "moving_mean_initializer": {"class_name": "Zeros", "config": {}}, "beta_constraint": null, "gamma_constraint": null, "trainable": true, "momentum": 0.99, "gamma_initializer": {"class_name": "Ones", "config": {}}, "moving_variance_initializer": {"class_name": "Ones", "config": {}}, "gamma_regularizer": null, "name": "batch_normalization_90", "beta_initializer": {"class_name": "Zeros", "config": {}}, "axis": 3, "beta_regularizer": null}, "inbound_nodes": [[["conv2d_90", 0, 0, {}]]], "name": "batch_normalization_90"}, {"class_name": "Conv2D", "config": {"activation": "relu", "use_bias": true, "data_format": "channels_last", "strides": [1, 1], "dilation_rate": [1, 1], "kernel_initializer": {"class_name": "VarianceScaling", "config": {"seed": null, "scale": 1.0, "mode": "fan_avg", "distribution": "uniform"}}, "filters": 192, "bias_constraint": null, "kernel_size": [1, 1], "kernel_regularizer": null, "trainable": true, "padding": "same", "activity_regularizer": null, "kernel_constraint": null, "bias_initializer": {"class_name": "Zeros", "config": {}}, "bias_regularizer": null, "name": "conv2d_87"}, "inbound_nodes": [[["mixed9", 0, 0, {}]]], "name": "conv2d_87"}, {"class_name": "Conv2D", "config": {"activation": "relu", "use_bias": true, "data_format": "channels_last", "strides": [1, 1], "dilation_rate": [1, 1], "kernel_initializer": {"class_name": "VarianceScaling", "config": {"seed": null, "scale": 1.0, "mode": "fan_avg", "distribution": "uniform"}}, "filters": 192, "bias_constraint": null, "kernel_size": [3, 3], "kernel_regularizer": null, "trainable": true, "padding": "same", "activity_regularizer": null, "kernel_constraint": null, "bias_initializer": {"class_name": "Zeros", "config": {}}, "bias_regularizer": null, "name": "conv2d_91"}, "inbound_nodes": [[["batch_normalization_90", 0, 0, {}]]], "name": "conv2d_91"}, {"class_name": "BatchNormalization", "config": {"scale": true, "epsilon": 0.001, "center": true, "moving_mean_initializer": {"class_name": "Zeros", "config": {}}, "beta_constraint": null, "gamma_constraint": null, "trainable": true, "momentum": 0.99, "gamma_initializer": {"class_name": "Ones", "config": {}}, "moving_variance_initializer": {"class_name": "Ones", "config": {}}, "gamma_regularizer": null, "name": "batch_normalization_87", "beta_initializer": {"class_name": "Zeros", "config": {}}, "axis": 3, "beta_regularizer": null}, "inbound_nodes": [[["conv2d_87", 0, 0, {}]]], "name": "batch_normalization_87"}, {"class_name": "BatchNormalization", "config": {"scale": true, "epsilon": 0.001, "center": true, "moving_mean_initializer": {"class_name": "Zeros", "config": {}}, "beta_constraint": null, "gamma_constraint": null, "trainable": true, "momentum": 0.99, "gamma_initializer": {"class_name": "Ones", "config": {}}, "moving_variance_initializer": {"class_name": "Ones", "config": {}}, "gamma_regularizer": null, "name": "batch_normalization_91", "beta_initializer": {"class_name": "Zeros", "config": {}}, "axis": 3, "beta_regularizer": null}, "inbound_nodes": [[["conv2d_91", 0, 0, {}]]], "name": "batch_normalization_91"}, {"class_name": "Conv2D", "config": {"activation": "relu", "use_bias": true, "data_format": "channels_last", "strides": [1, 1], "dilation_rate": [1, 1], "kernel_initializer": {"class_name": "VarianceScaling", "config": {"seed": null, "scale": 1.0, "mode": "fan_avg", "distribution": "uniform"}}, "filters": 192, "bias_constraint": null, "kernel_size": [1, 3], "kernel_regularizer": null, "trainable": true, "padding": "same", "activity_regularizer": null, "kernel_constraint": null, "bias_initializer": {"class_name": "Zeros", "config": {}}, "bias_regularizer": null, "name": "conv2d_88"}, "inbound_nodes": [[["batch_normalization_87", 0, 0, {}]]], "name": "conv2d_88"}, {"class_name": "Conv2D", "config": {"activation": "relu", "use_bias": true, "data_format": "channels_last", "strides": [1, 1], "dilation_rate": [1, 1], "kernel_initializer": {"class_name": "VarianceScaling", "config": {"seed": null, "scale": 1.0, "mode": "fan_avg", "distribution": "uniform"}}, "filters": 192, "bias_constraint": null, "kernel_size": [3, 1], "kernel_regularizer": null, "trainable": true, "padding": "same", "activity_regularizer": null, "kernel_constraint": null, "bias_initializer": {"class_name": "Zeros", "config": {}}, "bias_regularizer": null, "name": "conv2d_89"}, "inbound_nodes": [[["batch_normalization_87", 0, 0, {}]]], "name": "conv2d_89"}, {"class_name": "Conv2D", "config": {"activation": "relu", "use_bias": true, "data_format": "channels_last", "strides": [1, 1], "dilation_rate": [1, 1], "kernel_initializer": {"class_name": "VarianceScaling", "config": {"seed": null, "scale": 1.0, "mode": "fan_avg", "distribution": "uniform"}}, "filters": 192, "bias_constraint": null, "kernel_size": [1, 3], "kernel_regularizer": null, "trainable": true, "padding": "same", "activity_regularizer": null, "kernel_constraint": null, "bias_initializer": {"class_name": "Zeros", "config": {}}, "bias_regularizer": null, "name": "conv2d_92"}, "inbound_nodes": [[["batch_normalization_91", 0, 0, {}]]], "name": "conv2d_92"}, {"class_name": "Conv2D", "config": {"activation": "relu", "use_bias": true, "data_format": "channels_last", "strides": [1, 1], "dilation_rate": [1, 1], "kernel_initializer": {"class_name": "VarianceScaling", "config": {"seed": null, "scale": 1.0, "mode": "fan_avg", "distribution": "uniform"}}, "filters": 192, "bias_constraint": null, "kernel_size": [3, 1], "kernel_regularizer": null, "trainable": true, "padding": "same", "activity_regularizer": null, "kernel_constraint": null, "bias_initializer": {"class_name": "Zeros", "config": {}}, "bias_regularizer": null, "name": "conv2d_93"}, "inbound_nodes": [[["batch_normalization_91", 0, 0, {}]]], "name": "conv2d_93"}, {"class_name": "AveragePooling2D", "config": {"padding": "same", "data_format": "channels_last", "strides": [1, 1], "pool_size": [3, 3], "trainable": true, "name": "average_pooling2d_10"}, "inbound_nodes": [[["mixed9", 0, 0, {}]]], "name": "average_pooling2d_10"}, {"class_name": "Conv2D", "config": {"activation": "relu", "use_bias": true, "data_format": "channels_last", "strides": [1, 1], "dilation_rate": [1, 1], "kernel_initializer": {"class_name": "VarianceScaling", "config": {"seed": null, "scale": 1.0, "mode": "fan_avg", "distribution": "uniform"}}, "filters": 160, "bias_constraint": null, "kernel_size": [1, 1], "kernel_regularizer": null, "trainable": true, "padding": "same", "activity_regularizer": null, "kernel_constraint": null, "bias_initializer": {"class_name": "Zeros", "config": {}}, "bias_regularizer": null, "name": "conv2d_86"}, "inbound_nodes": [[["mixed9", 0, 0, {}]]], "name": "conv2d_86"}, {"class_name": "BatchNormalization", "config": {"scale": true, "epsilon": 0.001, "center": true, "moving_mean_initializer": {"class_name": "Zeros", "config": {}}, "beta_constraint": null, "gamma_constraint": null, "trainable": true, "momentum": 0.99, "gamma_initializer": {"class_name": "Ones", "config": {}}, "moving_variance_initializer": {"class_name": "Ones", "config": {}}, "gamma_regularizer": null, "name": "batch_normalization_88", "beta_initializer": {"class_name": "Zeros", "config": {}}, "axis": 3, "beta_regularizer": null}, "inbound_nodes": [[["conv2d_88", 0, 0, {}]]], "name": "batch_normalization_88"}, {"class_name": "BatchNormalization", "config": {"scale": true, "epsilon": 0.001, "center": true, "moving_mean_initializer": {"class_name": "Zeros", "config": {}}, "beta_constraint": null, "gamma_constraint": null, "trainable": true, "momentum": 0.99, "gamma_initializer": {"class_name": "Ones", "config": {}}, "moving_variance_initializer": {"class_name": "Ones", "config": {}}, "gamma_regularizer": null, "name": "batch_normalization_89", "beta_initializer": {"class_name": "Zeros", "config": {}}, "axis": 3, "beta_regularizer": null}, "inbound_nodes": [[["conv2d_89", 0, 0, {}]]], "name": "batch_normalization_89"}, {"class_name": "BatchNormalization", "config": {"scale": true, "epsilon": 0.001, "center": true, "moving_mean_initializer": {"class_name": "Zeros", "config": {}}, "beta_constraint": null, "gamma_constraint": null, "trainable": true, "momentum": 0.99, "gamma_initializer": {"class_name": "Ones", "config": {}}, "moving_variance_initializer": {"class_name": "Ones", "config": {}}, "gamma_regularizer": null, "name": "batch_normalization_92", "beta_initializer": {"class_name": "Zeros", "config": {}}, "axis": 3, "beta_regularizer": null}, "inbound_nodes": [[["conv2d_92", 0, 0, {}]]], "name": "batch_normalization_92"}, {"class_name": "BatchNormalization", "config": {"scale": true, "epsilon": 0.001, "center": true, "moving_mean_initializer": {"class_name": "Zeros", "config": {}}, "beta_constraint": null, "gamma_constraint": null, "trainable": true, "momentum": 0.99, "gamma_initializer": {"class_name": "Ones", "config": {}}, "moving_variance_initializer": {"class_name": "Ones", "config": {}}, "gamma_regularizer": null, "name": "batch_normalization_93", "beta_initializer": {"class_name": "Zeros", "config": {}}, "axis": 3, "beta_regularizer": null}, "inbound_nodes": [[["conv2d_93", 0, 0, {}]]], "name": "batch_normalization_93"}, {"class_name": "Conv2D", "config": {"activation": "relu", "use_bias": true, "data_format": "channels_last", "strides": [1, 1], "dilation_rate": [1, 1], "kernel_initializer": {"class_name": "VarianceScaling", "config": {"seed": null, "scale": 1.0, "mode": "fan_avg", "distribution": "uniform"}}, "filters": 96, "bias_constraint": null, "kernel_size": [1, 1], "kernel_regularizer": null, "trainable": true, "padding": "same", "activity_regularizer": null, "kernel_constraint": null, "bias_initializer": {"class_name": "Zeros", "config": {}}, "bias_regularizer": null, "name": "conv2d_94"}, "inbound_nodes": [[["average_pooling2d_10", 0, 0, {}]]], "name": "conv2d_94"}, {"class_name": "BatchNormalization", "config": {"scale": true, "epsilon": 0.001, "center": true, "moving_mean_initializer": {"class_name": "Zeros", "config": {}}, "beta_constraint": null, "gamma_constraint": null, "trainable": true, "momentum": 0.99, "gamma_initializer": {"class_name": "Ones", "config": {}}, "moving_variance_initializer": {"class_name": "Ones", "config": {}}, "gamma_regularizer": null, "name": "batch_normalization_86", "beta_initializer": {"class_name": "Zeros", "config": {}}, "axis": 3, "beta_regularizer": null}, "inbound_nodes": [[["conv2d_86", 0, 0, {}]]], "name": "batch_normalization_86"}, {"class_name": "Concatenate", "config": {"trainable": true, "axis": -1, "name": "mixed9_1"}, "inbound_nodes": [[["batch_normalization_88", 0, 0, {}], ["batch_normalization_89", 0, 0, {}]]], "name": "mixed9_1"}, {"class_name": "Concatenate", "config": {"trainable": true, "axis": -1, "name": "concatenate_2"}, "inbound_nodes": [[["batch_normalization_92", 0, 0, {}], ["batch_normalization_93", 0, 0, {}]]], "name": "concatenate_2"}, {"class_name": "BatchNormalization", "config": {"scale": true, "epsilon": 0.001, "center": true, "moving_mean_initializer": {"class_name": "Zeros", "config": {}}, "beta_constraint": null, "gamma_constraint": null, "trainable": true, "momentum": 0.99, "gamma_initializer": {"class_name": "Ones", "config": {}}, "moving_variance_initializer": {"class_name": "Ones", "config": {}}, "gamma_regularizer": null, "name": "batch_normalization_94", "beta_initializer": {"class_name": "Zeros", "config": {}}, "axis": 3, "beta_regularizer": null}, "inbound_nodes": [[["conv2d_94", 0, 0, {}]]], "name": "batch_normalization_94"}, {"class_name": "Concatenate", "config": {"trainable": true, "axis": -1, "name": "mixed10"}, "inbound_nodes": [[["batch_normalization_86", 0, 0, {}], ["mixed9_1", 0, 0, {}], ["concatenate_2", 0, 0, {}], ["batch_normalization_94", 0, 0, {}]]], "name": "mixed10"}, {"class_name": "MaxPooling2D", "config": {"padding": "valid", "data_format": "channels_last", "strides": [2, 2], "pool_size": [2, 2], "trainable": true, "name": "end_max_pool"}, "inbound_nodes": [[["mixed10", 0, 0, {}]]], "name": "end_max_pool"}, {"class_name": "Flatten", "config": {"trainable": true, "name": "flatten"}, "inbound_nodes": [[["end_max_pool", 0, 0, {}]]], "name": "flatten"}, {"class_name": "Dense", "config": {"units": 1, "activation": "sigmoid", "kernel_regularizer": null, "kernel_initializer": {"class_name": "VarianceScaling", "config": {"seed": null, "scale": 1.0, "mode": "fan_avg", "distribution": "uniform"}}, "bias_constraint": null, "trainable": true, "activity_regularizer": null, "kernel_constraint": null, "use_bias": true, "bias_initializer": {"class_name": "Zeros", "config": {}}, "bias_regularizer": null, "name": "output_layer"}, "inbound_nodes": [[["flatten", 0, 0, {}]]], "name": "output_layer"}], "input_layers": [["input_1", 0, 0]], "output_layers": [["output_layer", 0, 0]], "name": "model_1"}, "backend": "tensorflow", "keras_version": "2.0.6"}