{"class_name": "Model", "backend": "tensorflow", "keras_version": "2.0.6", "config": {"name": "model_1", "input_layers": [["input_1", 0, 0]], "layers": [{"inbound_nodes": [], "class_name": "InputLayer", "name": "input_1", "config": {"batch_input_shape": [null, 1152, 832, 1], "dtype": "float32", "sparse": false, "name": "input_1"}}, {"inbound_nodes": [[["input_1", 0, 0, {}]]], "class_name": "Conv2D", "name": "conv2d_1", "config": {"data_format": "channels_last", "name": "conv2d_1", "strides": [2, 2], "dilation_rate": [1, 1], "bias_regularizer": null, "kernel_size": [3, 3], "trainable": true, "activation": "relu", "kernel_initializer": {"class_name": "VarianceScaling", "config": {"mode": "fan_avg", "seed": null, "scale": 1.0, "distribution": "uniform"}}, "bias_constraint": null, "kernel_constraint": null, "use_bias": true, "bias_initializer": {"class_name": "Zeros", "config": {}}, "filters": 16, "kernel_regularizer": null, "padding": "valid", "activity_regularizer": null}}, {"inbound_nodes": [[["conv2d_1", 0, 0, {}]]], "class_name": "BatchNormalization", "name": "batch_normalization_1", "config": {"moving_variance_initializer": {"class_name": "Ones", "config": {}}, "name": "batch_normalization_1", "gamma_constraint": null, "gamma_regularizer": null, "momentum": 0.99, "beta_initializer": {"class_name": "Zeros", "config": {}}, "center": true, "scale": true, "trainable": true, "gamma_initializer": {"class_name": "Ones", "config": {}}, "epsilon": 0.001, "axis": 3, "beta_regularizer": null, "beta_constraint": null, "moving_mean_initializer": {"class_name": "Zeros", "config": {}}}}, {"inbound_nodes": [[["batch_normalization_1", 0, 0, {}]]], "class_name": "Conv2D", "name": "conv2d_2", "config": {"data_format": "channels_last", "name": "conv2d_2", "strides": [1, 1], "dilation_rate": [1, 1], "bias_regularizer": null, "kernel_size": [3, 3], "trainable": true, "activation": "relu", "kernel_initializer": {"class_name": "VarianceScaling", "config": {"mode": "fan_avg", "seed": null, "scale": 1.0, "distribution": "uniform"}}, "bias_constraint": null, "kernel_constraint": null, "use_bias": true, "bias_initializer": {"class_name": "Zeros", "config": {}}, "filters": 16, "kernel_regularizer": null, "padding": "valid", "activity_regularizer": null}}, {"inbound_nodes": [[["conv2d_2", 0, 0, {}]]], "class_name": "BatchNormalization", "name": "batch_normalization_2", "config": {"moving_variance_initializer": {"class_name": "Ones", "config": {}}, "name": "batch_normalization_2", "gamma_constraint": null, "gamma_regularizer": null, "momentum": 0.99, "beta_initializer": {"class_name": "Zeros", "config": {}}, "center": true, "scale": true, "trainable": true, "gamma_initializer": {"class_name": "Ones", "config": {}}, "epsilon": 0.001, "axis": 3, "beta_regularizer": null, "beta_constraint": null, "moving_mean_initializer": {"class_name": "Zeros", "config": {}}}}, {"inbound_nodes": [[["batch_normalization_2", 0, 0, {}]]], "class_name": "Conv2D", "name": "conv2d_3", "config": {"data_format": "channels_last", "name": "conv2d_3", "strides": [1, 1], "dilation_rate": [1, 1], "bias_regularizer": null, "kernel_size": [3, 3], "trainable": true, "activation": "relu", "kernel_initializer": {"class_name": "VarianceScaling", "config": {"mode": "fan_avg", "seed": null, "scale": 1.0, "distribution": "uniform"}}, "bias_constraint": null, "kernel_constraint": null, "use_bias": true, "bias_initializer": {"class_name": "Zeros", "config": {}}, "filters": 32, "kernel_regularizer": null, "padding": "same", "activity_regularizer": null}}, {"inbound_nodes": [[["conv2d_3", 0, 0, {}]]], "class_name": "BatchNormalization", "name": "batch_normalization_3", "config": {"moving_variance_initializer": {"class_name": "Ones", "config": {}}, "name": "batch_normalization_3", "gamma_constraint": null, "gamma_regularizer": null, "momentum": 0.99, "beta_initializer": {"class_name": "Zeros", "config": {}}, "center": true, "scale": true, "trainable": true, "gamma_initializer": {"class_name": "Ones", "config": {}}, "epsilon": 0.001, "axis": 3, "beta_regularizer": null, "beta_constraint": null, "moving_mean_initializer": {"class_name": "Zeros", "config": {}}}}, {"inbound_nodes": [[["batch_normalization_3", 0, 0, {}]]], "class_name": "MaxPooling2D", "name": "max_pooling2d_1", "config": {"trainable": true, "data_format": "channels_last", "name": "max_pooling2d_1", "strides": [2, 2], "pool_size": [3, 3], "padding": "valid"}}, {"inbound_nodes": [[["max_pooling2d_1", 0, 0, {}]]], "class_name": "Conv2D", "name": "conv2d_4", "config": {"data_format": "channels_last", "name": "conv2d_4", "strides": [1, 1], "dilation_rate": [1, 1], "bias_regularizer": null, "kernel_size": [1, 1], "trainable": true, "activation": "relu", "kernel_initializer": {"class_name": "VarianceScaling", "config": {"mode": "fan_avg", "seed": null, "scale": 1.0, "distribution": "uniform"}}, "bias_constraint": null, "kernel_constraint": null, "use_bias": true, "bias_initializer": {"class_name": "Zeros", "config": {}}, "filters": 40, "kernel_regularizer": null, "padding": "valid", "activity_regularizer": null}}, {"inbound_nodes": [[["conv2d_4", 0, 0, {}]]], "class_name": "BatchNormalization", "name": "batch_normalization_4", "config": {"moving_variance_initializer": {"class_name": "Ones", "config": {}}, "name": "batch_normalization_4", "gamma_constraint": null, "gamma_regularizer": null, "momentum": 0.99, "beta_initializer": {"class_name": "Zeros", "config": {}}, "center": true, "scale": true, "trainable": true, "gamma_initializer": {"class_name": "Ones", "config": {}}, "epsilon": 0.001, "axis": 3, "beta_regularizer": null, "beta_constraint": null, "moving_mean_initializer": {"class_name": "Zeros", "config": {}}}}, {"inbound_nodes": [[["batch_normalization_4", 0, 0, {}]]], "class_name": "Conv2D", "name": "conv2d_5", "config": {"data_format": "channels_last", "name": "conv2d_5", "strides": [1, 1], "dilation_rate": [1, 1], "bias_regularizer": null, "kernel_size": [3, 3], "trainable": true, "activation": "relu", "kernel_initializer": {"class_name": "VarianceScaling", "config": {"mode": "fan_avg", "seed": null, "scale": 1.0, "distribution": "uniform"}}, "bias_constraint": null, "kernel_constraint": null, "use_bias": true, "bias_initializer": {"class_name": "Zeros", "config": {}}, "filters": 96, "kernel_regularizer": null, "padding": "valid", "activity_regularizer": null}}, {"inbound_nodes": [[["conv2d_5", 0, 0, {}]]], "class_name": "BatchNormalization", "name": "batch_normalization_5", "config": {"moving_variance_initializer": {"class_name": "Ones", "config": {}}, "name": "batch_normalization_5", "gamma_constraint": null, "gamma_regularizer": null, "momentum": 0.99, "beta_initializer": {"class_name": "Zeros", "config": {}}, "center": true, "scale": true, "trainable": true, "gamma_initializer": {"class_name": "Ones", "config": {}}, "epsilon": 0.001, "axis": 3, "beta_regularizer": null, "beta_constraint": null, "moving_mean_initializer": {"class_name": "Zeros", "config": {}}}}, {"inbound_nodes": [[["batch_normalization_5", 0, 0, {}]]], "class_name": "MaxPooling2D", "name": "max_pooling2d_2", "config": {"trainable": true, "data_format": "channels_last", "name": "max_pooling2d_2", "strides": [2, 2], "pool_size": [3, 3], "padding": "valid"}}, {"inbound_nodes": [[["max_pooling2d_2", 0, 0, {}]]], "class_name": "Conv2D", "name": "conv2d_9", "config": {"data_format": "channels_last", "name": "conv2d_9", "strides": [1, 1], "dilation_rate": [1, 1], "bias_regularizer": null, "kernel_size": [1, 1], "trainable": true, "activation": "relu", "kernel_initializer": {"class_name": "VarianceScaling", "config": {"mode": "fan_avg", "seed": null, "scale": 1.0, "distribution": "uniform"}}, "bias_constraint": null, "kernel_constraint": null, "use_bias": true, "bias_initializer": {"class_name": "Zeros", "config": {}}, "filters": 32, "kernel_regularizer": null, "padding": "same", "activity_regularizer": null}}, {"inbound_nodes": [[["conv2d_9", 0, 0, {}]]], "class_name": "BatchNormalization", "name": "batch_normalization_9", "config": {"moving_variance_initializer": {"class_name": "Ones", "config": {}}, "name": "batch_normalization_9", "gamma_constraint": null, "gamma_regularizer": null, "momentum": 0.99, "beta_initializer": {"class_name": "Zeros", "config": {}}, "center": true, "scale": true, "trainable": true, "gamma_initializer": {"class_name": "Ones", "config": {}}, "epsilon": 0.001, "axis": 3, "beta_regularizer": null, "beta_constraint": null, "moving_mean_initializer": {"class_name": "Zeros", "config": {}}}}, {"inbound_nodes": [[["max_pooling2d_2", 0, 0, {}]]], "class_name": "Conv2D", "name": "conv2d_7", "config": {"data_format": "channels_last", "name": "conv2d_7", "strides": [1, 1], "dilation_rate": [1, 1], "bias_regularizer": null, "kernel_size": [1, 1], "trainable": true, "activation": "relu", "kernel_initializer": {"class_name": "VarianceScaling", "config": {"mode": "fan_avg", "seed": null, "scale": 1.0, "distribution": "uniform"}}, "bias_constraint": null, "kernel_constraint": null, "use_bias": true, "bias_initializer": {"class_name": "Zeros", "config": {}}, "filters": 24, "kernel_regularizer": null, "padding": "same", "activity_regularizer": null}}, {"inbound_nodes": [[["batch_normalization_9", 0, 0, {}]]], "class_name": "Conv2D", "name": "conv2d_10", "config": {"data_format": "channels_last", "name": "conv2d_10", "strides": [1, 1], "dilation_rate": [1, 1], "bias_regularizer": null, "kernel_size": [3, 3], "trainable": true, "activation": "relu", "kernel_initializer": {"class_name": "VarianceScaling", "config": {"mode": "fan_avg", "seed": null, "scale": 1.0, "distribution": "uniform"}}, "bias_constraint": null, "kernel_constraint": null, "use_bias": true, "bias_initializer": {"class_name": "Zeros", "config": {}}, "filters": 48, "kernel_regularizer": null, "padding": "same", "activity_regularizer": null}}, {"inbound_nodes": [[["conv2d_7", 0, 0, {}]]], "class_name": "BatchNormalization", "name": "batch_normalization_7", "config": {"moving_variance_initializer": {"class_name": "Ones", "config": {}}, "name": "batch_normalization_7", "gamma_constraint": null, "gamma_regularizer": null, "momentum": 0.99, "beta_initializer": {"class_name": "Zeros", "config": {}}, "center": true, "scale": true, "trainable": true, "gamma_initializer": {"class_name": "Ones", "config": {}}, "epsilon": 0.001, "axis": 3, "beta_regularizer": null, "beta_constraint": null, "moving_mean_initializer": {"class_name": "Zeros", "config": {}}}}, {"inbound_nodes": [[["conv2d_10", 0, 0, {}]]], "class_name": "BatchNormalization", "name": "batch_normalization_10", "config": {"moving_variance_initializer": {"class_name": "Ones", "config": {}}, "name": "batch_normalization_10", "gamma_constraint": null, "gamma_regularizer": null, "momentum": 0.99, "beta_initializer": {"class_name": "Zeros", "config": {}}, "center": true, "scale": true, "trainable": true, "gamma_initializer": {"class_name": "Ones", "config": {}}, "epsilon": 0.001, "axis": 3, "beta_regularizer": null, "beta_constraint": null, "moving_mean_initializer": {"class_name": "Zeros", "config": {}}}}, {"inbound_nodes": [[["max_pooling2d_2", 0, 0, {}]]], "class_name": "AveragePooling2D", "name": "average_pooling2d_1", "config": {"trainable": true, "data_format": "channels_last", "name": "average_pooling2d_1", "strides": [1, 1], "pool_size": [3, 3], "padding": "same"}}, {"inbound_nodes": [[["max_pooling2d_2", 0, 0, {}]]], "class_name": "Conv2D", "name": "conv2d_6", "config": {"data_format": "channels_last", "name": "conv2d_6", "strides": [1, 1], "dilation_rate": [1, 1], "bias_regularizer": null, "kernel_size": [1, 1], "trainable": true, "activation": "relu", "kernel_initializer": {"class_name": "VarianceScaling", "config": {"mode": "fan_avg", "seed": null, "scale": 1.0, "distribution": "uniform"}}, "bias_constraint": null, "kernel_constraint": null, "use_bias": true, "bias_initializer": {"class_name": "Zeros", "config": {}}, "filters": 32, "kernel_regularizer": null, "padding": "same", "activity_regularizer": null}}, {"inbound_nodes": [[["batch_normalization_7", 0, 0, {}]]], "class_name": "Conv2D", "name": "conv2d_8", "config": {"data_format": "channels_last", "name": "conv2d_8", "strides": [1, 1], "dilation_rate": [1, 1], "bias_regularizer": null, "kernel_size": [5, 5], "trainable": true, "activation": "relu", "kernel_initializer": {"class_name": "VarianceScaling", "config": {"mode": "fan_avg", "seed": null, "scale": 1.0, "distribution": "uniform"}}, "bias_constraint": null, "kernel_constraint": null, "use_bias": true, "bias_initializer": {"class_name": "Zeros", "config": {}}, "filters": 32, "kernel_regularizer": null, "padding": "same", "activity_regularizer": null}}, {"inbound_nodes": [[["batch_normalization_10", 0, 0, {}]]], "class_name": "Conv2D", "name": "conv2d_11", "config": {"data_format": "channels_last", "name": "conv2d_11", "strides": [1, 1], "dilation_rate": [1, 1], "bias_regularizer": null, "kernel_size": [3, 3], "trainable": true, "activation": "relu", "kernel_initializer": {"class_name": "VarianceScaling", "config": {"mode": "fan_avg", "seed": null, "scale": 1.0, "distribution": "uniform"}}, "bias_constraint": null, "kernel_constraint": null, "use_bias": true, "bias_initializer": {"class_name": "Zeros", "config": {}}, "filters": 48, "kernel_regularizer": null, "padding": "same", "activity_regularizer": null}}, {"inbound_nodes": [[["average_pooling2d_1", 0, 0, {}]]], "class_name": "Conv2D", "name": "conv2d_12", "config": {"data_format": "channels_last", "name": "conv2d_12", "strides": [1, 1], "dilation_rate": [1, 1], "bias_regularizer": null, "kernel_size": [1, 1], "trainable": true, "activation": "relu", "kernel_initializer": {"class_name": "VarianceScaling", "config": {"mode": "fan_avg", "seed": null, "scale": 1.0, "distribution": "uniform"}}, "bias_constraint": null, "kernel_constraint": null, "use_bias": true, "bias_initializer": {"class_name": "Zeros", "config": {}}, "filters": 16, "kernel_regularizer": null, "padding": "same", "activity_regularizer": null}}, {"inbound_nodes": [[["conv2d_6", 0, 0, {}]]], "class_name": "BatchNormalization", "name": "batch_normalization_6", "config": {"moving_variance_initializer": {"class_name": "Ones", "config": {}}, "name": "batch_normalization_6", "gamma_constraint": null, "gamma_regularizer": null, "momentum": 0.99, "beta_initializer": {"class_name": "Zeros", "config": {}}, "center": true, "scale": true, "trainable": true, "gamma_initializer": {"class_name": "Ones", "config": {}}, "epsilon": 0.001, "axis": 3, "beta_regularizer": null, "beta_constraint": null, "moving_mean_initializer": {"class_name": "Zeros", "config": {}}}}, {"inbound_nodes": [[["conv2d_8", 0, 0, {}]]], "class_name": "BatchNormalization", "name": "batch_normalization_8", "config": {"moving_variance_initializer": {"class_name": "Ones", "config": {}}, "name": "batch_normalization_8", "gamma_constraint": null, "gamma_regularizer": null, "momentum": 0.99, "beta_initializer": {"class_name": "Zeros", "config": {}}, "center": true, "scale": true, "trainable": true, "gamma_initializer": {"class_name": "Ones", "config": {}}, "epsilon": 0.001, "axis": 3, "beta_regularizer": null, "beta_constraint": null, "moving_mean_initializer": {"class_name": "Zeros", "config": {}}}}, {"inbound_nodes": [[["conv2d_11", 0, 0, {}]]], "class_name": "BatchNormalization", "name": "batch_normalization_11", "config": {"moving_variance_initializer": {"class_name": "Ones", "config": {}}, "name": "batch_normalization_11", "gamma_constraint": null, "gamma_regularizer": null, "momentum": 0.99, "beta_initializer": {"class_name": "Zeros", "config": {}}, "center": true, "scale": true, "trainable": true, "gamma_initializer": {"class_name": "Ones", "config": {}}, "epsilon": 0.001, "axis": 3, "beta_regularizer": null, "beta_constraint": null, "moving_mean_initializer": {"class_name": "Zeros", "config": {}}}}, {"inbound_nodes": [[["conv2d_12", 0, 0, {}]]], "class_name": "BatchNormalization", "name": "batch_normalization_12", "config": {"moving_variance_initializer": {"class_name": "Ones", "config": {}}, "name": "batch_normalization_12", "gamma_constraint": null, "gamma_regularizer": null, "momentum": 0.99, "beta_initializer": {"class_name": "Zeros", "config": {}}, "center": true, "scale": true, "trainable": true, "gamma_initializer": {"class_name": "Ones", "config": {}}, "epsilon": 0.001, "axis": 3, "beta_regularizer": null, "beta_constraint": null, "moving_mean_initializer": {"class_name": "Zeros", "config": {}}}}, {"inbound_nodes": [[["batch_normalization_6", 0, 0, {}], ["batch_normalization_8", 0, 0, {}], ["batch_normalization_11", 0, 0, {}], ["batch_normalization_12", 0, 0, {}]]], "class_name": "Concatenate", "name": "mixed0", "config": {"trainable": true, "name": "mixed0", "axis": -1}}, {"inbound_nodes": [[["mixed0", 0, 0, {}]]], "class_name": "Conv2D", "name": "conv2d_16", "config": {"data_format": "channels_last", "name": "conv2d_16", "strides": [1, 1], "dilation_rate": [1, 1], "bias_regularizer": null, "kernel_size": [1, 1], "trainable": true, "activation": "relu", "kernel_initializer": {"class_name": "VarianceScaling", "config": {"mode": "fan_avg", "seed": null, "scale": 1.0, "distribution": "uniform"}}, "bias_constraint": null, "kernel_constraint": null, "use_bias": true, "bias_initializer": {"class_name": "Zeros", "config": {}}, "filters": 32, "kernel_regularizer": null, "padding": "same", "activity_regularizer": null}}, {"inbound_nodes": [[["conv2d_16", 0, 0, {}]]], "class_name": "BatchNormalization", "name": "batch_normalization_16", "config": {"moving_variance_initializer": {"class_name": "Ones", "config": {}}, "name": "batch_normalization_16", "gamma_constraint": null, "gamma_regularizer": null, "momentum": 0.99, "beta_initializer": {"class_name": "Zeros", "config": {}}, "center": true, "scale": true, "trainable": true, "gamma_initializer": {"class_name": "Ones", "config": {}}, "epsilon": 0.001, "axis": 3, "beta_regularizer": null, "beta_constraint": null, "moving_mean_initializer": {"class_name": "Zeros", "config": {}}}}, {"inbound_nodes": [[["mixed0", 0, 0, {}]]], "class_name": "Conv2D", "name": "conv2d_14", "config": {"data_format": "channels_last", "name": "conv2d_14", "strides": [1, 1], "dilation_rate": [1, 1], "bias_regularizer": null, "kernel_size": [1, 1], "trainable": true, "activation": "relu", "kernel_initializer": {"class_name": "VarianceScaling", "config": {"mode": "fan_avg", "seed": null, "scale": 1.0, "distribution": "uniform"}}, "bias_constraint": null, "kernel_constraint": null, "use_bias": true, "bias_initializer": {"class_name": "Zeros", "config": {}}, "filters": 24, "kernel_regularizer": null, "padding": "same", "activity_regularizer": null}}, {"inbound_nodes": [[["batch_normalization_16", 0, 0, {}]]], "class_name": "Conv2D", "name": "conv2d_17", "config": {"data_format": "channels_last", "name": "conv2d_17", "strides": [1, 1], "dilation_rate": [1, 1], "bias_regularizer": null, "kernel_size": [3, 3], "trainable": true, "activation": "relu", "kernel_initializer": {"class_name": "VarianceScaling", "config": {"mode": "fan_avg", "seed": null, "scale": 1.0, "distribution": "uniform"}}, "bias_constraint": null, "kernel_constraint": null, "use_bias": true, "bias_initializer": {"class_name": "Zeros", "config": {}}, "filters": 48, "kernel_regularizer": null, "padding": "same", "activity_regularizer": null}}, {"inbound_nodes": [[["conv2d_14", 0, 0, {}]]], "class_name": "BatchNormalization", "name": "batch_normalization_14", "config": {"moving_variance_initializer": {"class_name": "Ones", "config": {}}, "name": "batch_normalization_14", "gamma_constraint": null, "gamma_regularizer": null, "momentum": 0.99, "beta_initializer": {"class_name": "Zeros", "config": {}}, "center": true, "scale": true, "trainable": true, "gamma_initializer": {"class_name": "Ones", "config": {}}, "epsilon": 0.001, "axis": 3, "beta_regularizer": null, "beta_constraint": null, "moving_mean_initializer": {"class_name": "Zeros", "config": {}}}}, {"inbound_nodes": [[["conv2d_17", 0, 0, {}]]], "class_name": "BatchNormalization", "name": "batch_normalization_17", "config": {"moving_variance_initializer": {"class_name": "Ones", "config": {}}, "name": "batch_normalization_17", "gamma_constraint": null, "gamma_regularizer": null, "momentum": 0.99, "beta_initializer": {"class_name": "Zeros", "config": {}}, "center": true, "scale": true, "trainable": true, "gamma_initializer": {"class_name": "Ones", "config": {}}, "epsilon": 0.001, "axis": 3, "beta_regularizer": null, "beta_constraint": null, "moving_mean_initializer": {"class_name": "Zeros", "config": {}}}}, {"inbound_nodes": [[["mixed0", 0, 0, {}]]], "class_name": "AveragePooling2D", "name": "average_pooling2d_2", "config": {"trainable": true, "data_format": "channels_last", "name": "average_pooling2d_2", "strides": [1, 1], "pool_size": [3, 3], "padding": "same"}}, {"inbound_nodes": [[["mixed0", 0, 0, {}]]], "class_name": "Conv2D", "name": "conv2d_13", "config": {"data_format": "channels_last", "name": "conv2d_13", "strides": [1, 1], "dilation_rate": [1, 1], "bias_regularizer": null, "kernel_size": [1, 1], "trainable": true, "activation": "relu", "kernel_initializer": {"class_name": "VarianceScaling", "config": {"mode": "fan_avg", "seed": null, "scale": 1.0, "distribution": "uniform"}}, "bias_constraint": null, "kernel_constraint": null, "use_bias": true, "bias_initializer": {"class_name": "Zeros", "config": {}}, "filters": 32, "kernel_regularizer": null, "padding": "same", "activity_regularizer": null}}, {"inbound_nodes": [[["batch_normalization_14", 0, 0, {}]]], "class_name": "Conv2D", "name": "conv2d_15", "config": {"data_format": "channels_last", "name": "conv2d_15", "strides": [1, 1], "dilation_rate": [1, 1], "bias_regularizer": null, "kernel_size": [5, 5], "trainable": true, "activation": "relu", "kernel_initializer": {"class_name": "VarianceScaling", "config": {"mode": "fan_avg", "seed": null, "scale": 1.0, "distribution": "uniform"}}, "bias_constraint": null, "kernel_constraint": null, "use_bias": true, "bias_initializer": {"class_name": "Zeros", "config": {}}, "filters": 32, "kernel_regularizer": null, "padding": "same", "activity_regularizer": null}}, {"inbound_nodes": [[["batch_normalization_17", 0, 0, {}]]], "class_name": "Conv2D", "name": "conv2d_18", "config": {"data_format": "channels_last", "name": "conv2d_18", "strides": [1, 1], "dilation_rate": [1, 1], "bias_regularizer": null, "kernel_size": [3, 3], "trainable": true, "activation": "relu", "kernel_initializer": {"class_name": "VarianceScaling", "config": {"mode": "fan_avg", "seed": null, "scale": 1.0, "distribution": "uniform"}}, "bias_constraint": null, "kernel_constraint": null, "use_bias": true, "bias_initializer": {"class_name": "Zeros", "config": {}}, "filters": 48, "kernel_regularizer": null, "padding": "same", "activity_regularizer": null}}, {"inbound_nodes": [[["average_pooling2d_2", 0, 0, {}]]], "class_name": "Conv2D", "name": "conv2d_19", "config": {"data_format": "channels_last", "name": "conv2d_19", "strides": [1, 1], "dilation_rate": [1, 1], "bias_regularizer": null, "kernel_size": [1, 1], "trainable": true, "activation": "relu", "kernel_initializer": {"class_name": "VarianceScaling", "config": {"mode": "fan_avg", "seed": null, "scale": 1.0, "distribution": "uniform"}}, "bias_constraint": null, "kernel_constraint": null, "use_bias": true, "bias_initializer": {"class_name": "Zeros", "config": {}}, "filters": 16, "kernel_regularizer": null, "padding": "same", "activity_regularizer": null}}, {"inbound_nodes": [[["conv2d_13", 0, 0, {}]]], "class_name": "BatchNormalization", "name": "batch_normalization_13", "config": {"moving_variance_initializer": {"class_name": "Ones", "config": {}}, "name": "batch_normalization_13", "gamma_constraint": null, "gamma_regularizer": null, "momentum": 0.99, "beta_initializer": {"class_name": "Zeros", "config": {}}, "center": true, "scale": true, "trainable": true, "gamma_initializer": {"class_name": "Ones", "config": {}}, "epsilon": 0.001, "axis": 3, "beta_regularizer": null, "beta_constraint": null, "moving_mean_initializer": {"class_name": "Zeros", "config": {}}}}, {"inbound_nodes": [[["conv2d_15", 0, 0, {}]]], "class_name": "BatchNormalization", "name": "batch_normalization_15", "config": {"moving_variance_initializer": {"class_name": "Ones", "config": {}}, "name": "batch_normalization_15", "gamma_constraint": null, "gamma_regularizer": null, "momentum": 0.99, "beta_initializer": {"class_name": "Zeros", "config": {}}, "center": true, "scale": true, "trainable": true, "gamma_initializer": {"class_name": "Ones", "config": {}}, "epsilon": 0.001, "axis": 3, "beta_regularizer": null, "beta_constraint": null, "moving_mean_initializer": {"class_name": "Zeros", "config": {}}}}, {"inbound_nodes": [[["conv2d_18", 0, 0, {}]]], "class_name": "BatchNormalization", "name": "batch_normalization_18", "config": {"moving_variance_initializer": {"class_name": "Ones", "config": {}}, "name": "batch_normalization_18", "gamma_constraint": null, "gamma_regularizer": null, "momentum": 0.99, "beta_initializer": {"class_name": "Zeros", "config": {}}, "center": true, "scale": true, "trainable": true, "gamma_initializer": {"class_name": "Ones", "config": {}}, "epsilon": 0.001, "axis": 3, "beta_regularizer": null, "beta_constraint": null, "moving_mean_initializer": {"class_name": "Zeros", "config": {}}}}, {"inbound_nodes": [[["conv2d_19", 0, 0, {}]]], "class_name": "BatchNormalization", "name": "batch_normalization_19", "config": {"moving_variance_initializer": {"class_name": "Ones", "config": {}}, "name": "batch_normalization_19", "gamma_constraint": null, "gamma_regularizer": null, "momentum": 0.99, "beta_initializer": {"class_name": "Zeros", "config": {}}, "center": true, "scale": true, "trainable": true, "gamma_initializer": {"class_name": "Ones", "config": {}}, "epsilon": 0.001, "axis": 3, "beta_regularizer": null, "beta_constraint": null, "moving_mean_initializer": {"class_name": "Zeros", "config": {}}}}, {"inbound_nodes": [[["batch_normalization_13", 0, 0, {}], ["batch_normalization_15", 0, 0, {}], ["batch_normalization_18", 0, 0, {}], ["batch_normalization_19", 0, 0, {}]]], "class_name": "Concatenate", "name": "mixed1", "config": {"trainable": true, "name": "mixed1", "axis": -1}}, {"inbound_nodes": [[["mixed1", 0, 0, {}]]], "class_name": "Conv2D", "name": "conv2d_23", "config": {"data_format": "channels_last", "name": "conv2d_23", "strides": [1, 1], "dilation_rate": [1, 1], "bias_regularizer": null, "kernel_size": [1, 1], "trainable": true, "activation": "relu", "kernel_initializer": {"class_name": "VarianceScaling", "config": {"mode": "fan_avg", "seed": null, "scale": 1.0, "distribution": "uniform"}}, "bias_constraint": null, "kernel_constraint": null, "use_bias": true, "bias_initializer": {"class_name": "Zeros", "config": {}}, "filters": 32, "kernel_regularizer": null, "padding": "same", "activity_regularizer": null}}, {"inbound_nodes": [[["conv2d_23", 0, 0, {}]]], "class_name": "BatchNormalization", "name": "batch_normalization_23", "config": {"moving_variance_initializer": {"class_name": "Ones", "config": {}}, "name": "batch_normalization_23", "gamma_constraint": null, "gamma_regularizer": null, "momentum": 0.99, "beta_initializer": {"class_name": "Zeros", "config": {}}, "center": true, "scale": true, "trainable": true, "gamma_initializer": {"class_name": "Ones", "config": {}}, "epsilon": 0.001, "axis": 3, "beta_regularizer": null, "beta_constraint": null, "moving_mean_initializer": {"class_name": "Zeros", "config": {}}}}, {"inbound_nodes": [[["mixed1", 0, 0, {}]]], "class_name": "Conv2D", "name": "conv2d_21", "config": {"data_format": "channels_last", "name": "conv2d_21", "strides": [1, 1], "dilation_rate": [1, 1], "bias_regularizer": null, "kernel_size": [1, 1], "trainable": true, "activation": "relu", "kernel_initializer": {"class_name": "VarianceScaling", "config": {"mode": "fan_avg", "seed": null, "scale": 1.0, "distribution": "uniform"}}, "bias_constraint": null, "kernel_constraint": null, "use_bias": true, "bias_initializer": {"class_name": "Zeros", "config": {}}, "filters": 24, "kernel_regularizer": null, "padding": "same", "activity_regularizer": null}}, {"inbound_nodes": [[["batch_normalization_23", 0, 0, {}]]], "class_name": "Conv2D", "name": "conv2d_24", "config": {"data_format": "channels_last", "name": "conv2d_24", "strides": [1, 1], "dilation_rate": [1, 1], "bias_regularizer": null, "kernel_size": [3, 3], "trainable": true, "activation": "relu", "kernel_initializer": {"class_name": "VarianceScaling", "config": {"mode": "fan_avg", "seed": null, "scale": 1.0, "distribution": "uniform"}}, "bias_constraint": null, "kernel_constraint": null, "use_bias": true, "bias_initializer": {"class_name": "Zeros", "config": {}}, "filters": 48, "kernel_regularizer": null, "padding": "same", "activity_regularizer": null}}, {"inbound_nodes": [[["conv2d_21", 0, 0, {}]]], "class_name": "BatchNormalization", "name": "batch_normalization_21", "config": {"moving_variance_initializer": {"class_name": "Ones", "config": {}}, "name": "batch_normalization_21", "gamma_constraint": null, "gamma_regularizer": null, "momentum": 0.99, "beta_initializer": {"class_name": "Zeros", "config": {}}, "center": true, "scale": true, "trainable": true, "gamma_initializer": {"class_name": "Ones", "config": {}}, "epsilon": 0.001, "axis": 3, "beta_regularizer": null, "beta_constraint": null, "moving_mean_initializer": {"class_name": "Zeros", "config": {}}}}, {"inbound_nodes": [[["conv2d_24", 0, 0, {}]]], "class_name": "BatchNormalization", "name": "batch_normalization_24", "config": {"moving_variance_initializer": {"class_name": "Ones", "config": {}}, "name": "batch_normalization_24", "gamma_constraint": null, "gamma_regularizer": null, "momentum": 0.99, "beta_initializer": {"class_name": "Zeros", "config": {}}, "center": true, "scale": true, "trainable": true, "gamma_initializer": {"class_name": "Ones", "config": {}}, "epsilon": 0.001, "axis": 3, "beta_regularizer": null, "beta_constraint": null, "moving_mean_initializer": {"class_name": "Zeros", "config": {}}}}, {"inbound_nodes": [[["mixed1", 0, 0, {}]]], "class_name": "AveragePooling2D", "name": "average_pooling2d_3", "config": {"trainable": true, "data_format": "channels_last", "name": "average_pooling2d_3", "strides": [1, 1], "pool_size": [3, 3], "padding": "same"}}, {"inbound_nodes": [[["mixed1", 0, 0, {}]]], "class_name": "Conv2D", "name": "conv2d_20", "config": {"data_format": "channels_last", "name": "conv2d_20", "strides": [1, 1], "dilation_rate": [1, 1], "bias_regularizer": null, "kernel_size": [1, 1], "trainable": true, "activation": "relu", "kernel_initializer": {"class_name": "VarianceScaling", "config": {"mode": "fan_avg", "seed": null, "scale": 1.0, "distribution": "uniform"}}, "bias_constraint": null, "kernel_constraint": null, "use_bias": true, "bias_initializer": {"class_name": "Zeros", "config": {}}, "filters": 32, "kernel_regularizer": null, "padding": "same", "activity_regularizer": null}}, {"inbound_nodes": [[["batch_normalization_21", 0, 0, {}]]], "class_name": "Conv2D", "name": "conv2d_22", "config": {"data_format": "channels_last", "name": "conv2d_22", "strides": [1, 1], "dilation_rate": [1, 1], "bias_regularizer": null, "kernel_size": [5, 5], "trainable": true, "activation": "relu", "kernel_initializer": {"class_name": "VarianceScaling", "config": {"mode": "fan_avg", "seed": null, "scale": 1.0, "distribution": "uniform"}}, "bias_constraint": null, "kernel_constraint": null, "use_bias": true, "bias_initializer": {"class_name": "Zeros", "config": {}}, "filters": 32, "kernel_regularizer": null, "padding": "same", "activity_regularizer": null}}, {"inbound_nodes": [[["batch_normalization_24", 0, 0, {}]]], "class_name": "Conv2D", "name": "conv2d_25", "config": {"data_format": "channels_last", "name": "conv2d_25", "strides": [1, 1], "dilation_rate": [1, 1], "bias_regularizer": null, "kernel_size": [3, 3], "trainable": true, "activation": "relu", "kernel_initializer": {"class_name": "VarianceScaling", "config": {"mode": "fan_avg", "seed": null, "scale": 1.0, "distribution": "uniform"}}, "bias_constraint": null, "kernel_constraint": null, "use_bias": true, "bias_initializer": {"class_name": "Zeros", "config": {}}, "filters": 48, "kernel_regularizer": null, "padding": "same", "activity_regularizer": null}}, {"inbound_nodes": [[["average_pooling2d_3", 0, 0, {}]]], "class_name": "Conv2D", "name": "conv2d_26", "config": {"data_format": "channels_last", "name": "conv2d_26", "strides": [1, 1], "dilation_rate": [1, 1], "bias_regularizer": null, "kernel_size": [1, 1], "trainable": true, "activation": "relu", "kernel_initializer": {"class_name": "VarianceScaling", "config": {"mode": "fan_avg", "seed": null, "scale": 1.0, "distribution": "uniform"}}, "bias_constraint": null, "kernel_constraint": null, "use_bias": true, "bias_initializer": {"class_name": "Zeros", "config": {}}, "filters": 16, "kernel_regularizer": null, "padding": "same", "activity_regularizer": null}}, {"inbound_nodes": [[["conv2d_20", 0, 0, {}]]], "class_name": "BatchNormalization", "name": "batch_normalization_20", "config": {"moving_variance_initializer": {"class_name": "Ones", "config": {}}, "name": "batch_normalization_20", "gamma_constraint": null, "gamma_regularizer": null, "momentum": 0.99, "beta_initializer": {"class_name": "Zeros", "config": {}}, "center": true, "scale": true, "trainable": true, "gamma_initializer": {"class_name": "Ones", "config": {}}, "epsilon": 0.001, "axis": 3, "beta_regularizer": null, "beta_constraint": null, "moving_mean_initializer": {"class_name": "Zeros", "config": {}}}}, {"inbound_nodes": [[["conv2d_22", 0, 0, {}]]], "class_name": "BatchNormalization", "name": "batch_normalization_22", "config": {"moving_variance_initializer": {"class_name": "Ones", "config": {}}, "name": "batch_normalization_22", "gamma_constraint": null, "gamma_regularizer": null, "momentum": 0.99, "beta_initializer": {"class_name": "Zeros", "config": {}}, "center": true, "scale": true, "trainable": true, "gamma_initializer": {"class_name": "Ones", "config": {}}, "epsilon": 0.001, "axis": 3, "beta_regularizer": null, "beta_constraint": null, "moving_mean_initializer": {"class_name": "Zeros", "config": {}}}}, {"inbound_nodes": [[["conv2d_25", 0, 0, {}]]], "class_name": "BatchNormalization", "name": "batch_normalization_25", "config": {"moving_variance_initializer": {"class_name": "Ones", "config": {}}, "name": "batch_normalization_25", "gamma_constraint": null, "gamma_regularizer": null, "momentum": 0.99, "beta_initializer": {"class_name": "Zeros", "config": {}}, "center": true, "scale": true, "trainable": true, "gamma_initializer": {"class_name": "Ones", "config": {}}, "epsilon": 0.001, "axis": 3, "beta_regularizer": null, "beta_constraint": null, "moving_mean_initializer": {"class_name": "Zeros", "config": {}}}}, {"inbound_nodes": [[["conv2d_26", 0, 0, {}]]], "class_name": "BatchNormalization", "name": "batch_normalization_26", "config": {"moving_variance_initializer": {"class_name": "Ones", "config": {}}, "name": "batch_normalization_26", "gamma_constraint": null, "gamma_regularizer": null, "momentum": 0.99, "beta_initializer": {"class_name": "Zeros", "config": {}}, "center": true, "scale": true, "trainable": true, "gamma_initializer": {"class_name": "Ones", "config": {}}, "epsilon": 0.001, "axis": 3, "beta_regularizer": null, "beta_constraint": null, "moving_mean_initializer": {"class_name": "Zeros", "config": {}}}}, {"inbound_nodes": [[["batch_normalization_20", 0, 0, {}], ["batch_normalization_22", 0, 0, {}], ["batch_normalization_25", 0, 0, {}], ["batch_normalization_26", 0, 0, {}]]], "class_name": "Concatenate", "name": "mixed2", "config": {"trainable": true, "name": "mixed2", "axis": -1}}, {"inbound_nodes": [[["mixed2", 0, 0, {}]]], "class_name": "Conv2D", "name": "conv2d_28", "config": {"data_format": "channels_last", "name": "conv2d_28", "strides": [1, 1], "dilation_rate": [1, 1], "bias_regularizer": null, "kernel_size": [1, 1], "trainable": true, "activation": "relu", "kernel_initializer": {"class_name": "VarianceScaling", "config": {"mode": "fan_avg", "seed": null, "scale": 1.0, "distribution": "uniform"}}, "bias_constraint": null, "kernel_constraint": null, "use_bias": true, "bias_initializer": {"class_name": "Zeros", "config": {}}, "filters": 32, "kernel_regularizer": null, "padding": "same", "activity_regularizer": null}}, {"inbound_nodes": [[["conv2d_28", 0, 0, {}]]], "class_name": "BatchNormalization", "name": "batch_normalization_28", "config": {"moving_variance_initializer": {"class_name": "Ones", "config": {}}, "name": "batch_normalization_28", "gamma_constraint": null, "gamma_regularizer": null, "momentum": 0.99, "beta_initializer": {"class_name": "Zeros", "config": {}}, "center": true, "scale": true, "trainable": true, "gamma_initializer": {"class_name": "Ones", "config": {}}, "epsilon": 0.001, "axis": 3, "beta_regularizer": null, "beta_constraint": null, "moving_mean_initializer": {"class_name": "Zeros", "config": {}}}}, {"inbound_nodes": [[["batch_normalization_28", 0, 0, {}]]], "class_name": "Conv2D", "name": "conv2d_29", "config": {"data_format": "channels_last", "name": "conv2d_29", "strides": [1, 1], "dilation_rate": [1, 1], "bias_regularizer": null, "kernel_size": [3, 3], "trainable": true, "activation": "relu", "kernel_initializer": {"class_name": "VarianceScaling", "config": {"mode": "fan_avg", "seed": null, "scale": 1.0, "distribution": "uniform"}}, "bias_constraint": null, "kernel_constraint": null, "use_bias": true, "bias_initializer": {"class_name": "Zeros", "config": {}}, "filters": 48, "kernel_regularizer": null, "padding": "same", "activity_regularizer": null}}, {"inbound_nodes": [[["conv2d_29", 0, 0, {}]]], "class_name": "BatchNormalization", "name": "batch_normalization_29", "config": {"moving_variance_initializer": {"class_name": "Ones", "config": {}}, "name": "batch_normalization_29", "gamma_constraint": null, "gamma_regularizer": null, "momentum": 0.99, "beta_initializer": {"class_name": "Zeros", "config": {}}, "center": true, "scale": true, "trainable": true, "gamma_initializer": {"class_name": "Ones", "config": {}}, "epsilon": 0.001, "axis": 3, "beta_regularizer": null, "beta_constraint": null, "moving_mean_initializer": {"class_name": "Zeros", "config": {}}}}, {"inbound_nodes": [[["mixed2", 0, 0, {}]]], "class_name": "Conv2D", "name": "conv2d_27", "config": {"data_format": "channels_last", "name": "conv2d_27", "strides": [2, 2], "dilation_rate": [1, 1], "bias_regularizer": null, "kernel_size": [3, 3], "trainable": true, "activation": "relu", "kernel_initializer": {"class_name": "VarianceScaling", "config": {"mode": "fan_avg", "seed": null, "scale": 1.0, "distribution": "uniform"}}, "bias_constraint": null, "kernel_constraint": null, "use_bias": true, "bias_initializer": {"class_name": "Zeros", "config": {}}, "filters": 192, "kernel_regularizer": null, "padding": "valid", "activity_regularizer": null}}, {"inbound_nodes": [[["batch_normalization_29", 0, 0, {}]]], "class_name": "Conv2D", "name": "conv2d_30", "config": {"data_format": "channels_last", "name": "conv2d_30", "strides": [2, 2], "dilation_rate": [1, 1], "bias_regularizer": null, "kernel_size": [3, 3], "trainable": true, "activation": "relu", "kernel_initializer": {"class_name": "VarianceScaling", "config": {"mode": "fan_avg", "seed": null, "scale": 1.0, "distribution": "uniform"}}, "bias_constraint": null, "kernel_constraint": null, "use_bias": true, "bias_initializer": {"class_name": "Zeros", "config": {}}, "filters": 48, "kernel_regularizer": null, "padding": "valid", "activity_regularizer": null}}, {"inbound_nodes": [[["conv2d_27", 0, 0, {}]]], "class_name": "BatchNormalization", "name": "batch_normalization_27", "config": {"moving_variance_initializer": {"class_name": "Ones", "config": {}}, "name": "batch_normalization_27", "gamma_constraint": null, "gamma_regularizer": null, "momentum": 0.99, "beta_initializer": {"class_name": "Zeros", "config": {}}, "center": true, "scale": true, "trainable": true, "gamma_initializer": {"class_name": "Ones", "config": {}}, "epsilon": 0.001, "axis": 3, "beta_regularizer": null, "beta_constraint": null, "moving_mean_initializer": {"class_name": "Zeros", "config": {}}}}, {"inbound_nodes": [[["conv2d_30", 0, 0, {}]]], "class_name": "BatchNormalization", "name": "batch_normalization_30", "config": {"moving_variance_initializer": {"class_name": "Ones", "config": {}}, "name": "batch_normalization_30", "gamma_constraint": null, "gamma_regularizer": null, "momentum": 0.99, "beta_initializer": {"class_name": "Zeros", "config": {}}, "center": true, "scale": true, "trainable": true, "gamma_initializer": {"class_name": "Ones", "config": {}}, "epsilon": 0.001, "axis": 3, "beta_regularizer": null, "beta_constraint": null, "moving_mean_initializer": {"class_name": "Zeros", "config": {}}}}, {"inbound_nodes": [[["mixed2", 0, 0, {}]]], "class_name": "MaxPooling2D", "name": "max_pooling2d_3", "config": {"trainable": true, "data_format": "channels_last", "name": "max_pooling2d_3", "strides": [2, 2], "pool_size": [3, 3], "padding": "valid"}}, {"inbound_nodes": [[["batch_normalization_27", 0, 0, {}], ["batch_normalization_30", 0, 0, {}], ["max_pooling2d_3", 0, 0, {}]]], "class_name": "Concatenate", "name": "mixed3", "config": {"trainable": true, "name": "mixed3", "axis": -1}}, {"inbound_nodes": [[["mixed3", 0, 0, {}]]], "class_name": "Conv2D", "name": "conv2d_35", "config": {"data_format": "channels_last", "name": "conv2d_35", "strides": [1, 1], "dilation_rate": [1, 1], "bias_regularizer": null, "kernel_size": [1, 1], "trainable": true, "activation": "relu", "kernel_initializer": {"class_name": "VarianceScaling", "config": {"mode": "fan_avg", "seed": null, "scale": 1.0, "distribution": "uniform"}}, "bias_constraint": null, "kernel_constraint": null, "use_bias": true, "bias_initializer": {"class_name": "Zeros", "config": {}}, "filters": 64, "kernel_regularizer": null, "padding": "same", "activity_regularizer": null}}, {"inbound_nodes": [[["conv2d_35", 0, 0, {}]]], "class_name": "BatchNormalization", "name": "batch_normalization_35", "config": {"moving_variance_initializer": {"class_name": "Ones", "config": {}}, "name": "batch_normalization_35", "gamma_constraint": null, "gamma_regularizer": null, "momentum": 0.99, "beta_initializer": {"class_name": "Zeros", "config": {}}, "center": true, "scale": true, "trainable": true, "gamma_initializer": {"class_name": "Ones", "config": {}}, "epsilon": 0.001, "axis": 3, "beta_regularizer": null, "beta_constraint": null, "moving_mean_initializer": {"class_name": "Zeros", "config": {}}}}, {"inbound_nodes": [[["batch_normalization_35", 0, 0, {}]]], "class_name": "Conv2D", "name": "conv2d_36", "config": {"data_format": "channels_last", "name": "conv2d_36", "strides": [1, 1], "dilation_rate": [1, 1], "bias_regularizer": null, "kernel_size": [7, 1], "trainable": true, "activation": "relu", "kernel_initializer": {"class_name": "VarianceScaling", "config": {"mode": "fan_avg", "seed": null, "scale": 1.0, "distribution": "uniform"}}, "bias_constraint": null, "kernel_constraint": null, "use_bias": true, "bias_initializer": {"class_name": "Zeros", "config": {}}, "filters": 64, "kernel_regularizer": null, "padding": "same", "activity_regularizer": null}}, {"inbound_nodes": [[["conv2d_36", 0, 0, {}]]], "class_name": "BatchNormalization", "name": "batch_normalization_36", "config": {"moving_variance_initializer": {"class_name": "Ones", "config": {}}, "name": "batch_normalization_36", "gamma_constraint": null, "gamma_regularizer": null, "momentum": 0.99, "beta_initializer": {"class_name": "Zeros", "config": {}}, "center": true, "scale": true, "trainable": true, "gamma_initializer": {"class_name": "Ones", "config": {}}, "epsilon": 0.001, "axis": 3, "beta_regularizer": null, "beta_constraint": null, "moving_mean_initializer": {"class_name": "Zeros", "config": {}}}}, {"inbound_nodes": [[["mixed3", 0, 0, {}]]], "class_name": "Conv2D", "name": "conv2d_32", "config": {"data_format": "channels_last", "name": "conv2d_32", "strides": [1, 1], "dilation_rate": [1, 1], "bias_regularizer": null, "kernel_size": [1, 1], "trainable": true, "activation": "relu", "kernel_initializer": {"class_name": "VarianceScaling", "config": {"mode": "fan_avg", "seed": null, "scale": 1.0, "distribution": "uniform"}}, "bias_constraint": null, "kernel_constraint": null, "use_bias": true, "bias_initializer": {"class_name": "Zeros", "config": {}}, "filters": 64, "kernel_regularizer": null, "padding": "same", "activity_regularizer": null}}, {"inbound_nodes": [[["batch_normalization_36", 0, 0, {}]]], "class_name": "Conv2D", "name": "conv2d_37", "config": {"data_format": "channels_last", "name": "conv2d_37", "strides": [1, 1], "dilation_rate": [1, 1], "bias_regularizer": null, "kernel_size": [1, 7], "trainable": true, "activation": "relu", "kernel_initializer": {"class_name": "VarianceScaling", "config": {"mode": "fan_avg", "seed": null, "scale": 1.0, "distribution": "uniform"}}, "bias_constraint": null, "kernel_constraint": null, "use_bias": true, "bias_initializer": {"class_name": "Zeros", "config": {}}, "filters": 64, "kernel_regularizer": null, "padding": "same", "activity_regularizer": null}}, {"inbound_nodes": [[["conv2d_32", 0, 0, {}]]], "class_name": "BatchNormalization", "name": "batch_normalization_32", "config": {"moving_variance_initializer": {"class_name": "Ones", "config": {}}, "name": "batch_normalization_32", "gamma_constraint": null, "gamma_regularizer": null, "momentum": 0.99, "beta_initializer": {"class_name": "Zeros", "config": {}}, "center": true, "scale": true, "trainable": true, "gamma_initializer": {"class_name": "Ones", "config": {}}, "epsilon": 0.001, "axis": 3, "beta_regularizer": null, "beta_constraint": null, "moving_mean_initializer": {"class_name": "Zeros", "config": {}}}}, {"inbound_nodes": [[["conv2d_37", 0, 0, {}]]], "class_name": "BatchNormalization", "name": "batch_normalization_37", "config": {"moving_variance_initializer": {"class_name": "Ones", "config": {}}, "name": "batch_normalization_37", "gamma_constraint": null, "gamma_regularizer": null, "momentum": 0.99, "beta_initializer": {"class_name": "Zeros", "config": {}}, "center": true, "scale": true, "trainable": true, "gamma_initializer": {"class_name": "Ones", "config": {}}, "epsilon": 0.001, "axis": 3, "beta_regularizer": null, "beta_constraint": null, "moving_mean_initializer": {"class_name": "Zeros", "config": {}}}}, {"inbound_nodes": [[["batch_normalization_32", 0, 0, {}]]], "class_name": "Conv2D", "name": "conv2d_33", "config": {"data_format": "channels_last", "name": "conv2d_33", "strides": [1, 1], "dilation_rate": [1, 1], "bias_regularizer": null, "kernel_size": [1, 7], "trainable": true, "activation": "relu", "kernel_initializer": {"class_name": "VarianceScaling", "config": {"mode": "fan_avg", "seed": null, "scale": 1.0, "distribution": "uniform"}}, "bias_constraint": null, "kernel_constraint": null, "use_bias": true, "bias_initializer": {"class_name": "Zeros", "config": {}}, "filters": 64, "kernel_regularizer": null, "padding": "same", "activity_regularizer": null}}, {"inbound_nodes": [[["batch_normalization_37", 0, 0, {}]]], "class_name": "Conv2D", "name": "conv2d_38", "config": {"data_format": "channels_last", "name": "conv2d_38", "strides": [1, 1], "dilation_rate": [1, 1], "bias_regularizer": null, "kernel_size": [7, 1], "trainable": true, "activation": "relu", "kernel_initializer": {"class_name": "VarianceScaling", "config": {"mode": "fan_avg", "seed": null, "scale": 1.0, "distribution": "uniform"}}, "bias_constraint": null, "kernel_constraint": null, "use_bias": true, "bias_initializer": {"class_name": "Zeros", "config": {}}, "filters": 64, "kernel_regularizer": null, "padding": "same", "activity_regularizer": null}}, {"inbound_nodes": [[["conv2d_33", 0, 0, {}]]], "class_name": "BatchNormalization", "name": "batch_normalization_33", "config": {"moving_variance_initializer": {"class_name": "Ones", "config": {}}, "name": "batch_normalization_33", "gamma_constraint": null, "gamma_regularizer": null, "momentum": 0.99, "beta_initializer": {"class_name": "Zeros", "config": {}}, "center": true, "scale": true, "trainable": true, "gamma_initializer": {"class_name": "Ones", "config": {}}, "epsilon": 0.001, "axis": 3, "beta_regularizer": null, "beta_constraint": null, "moving_mean_initializer": {"class_name": "Zeros", "config": {}}}}, {"inbound_nodes": [[["conv2d_38", 0, 0, {}]]], "class_name": "BatchNormalization", "name": "batch_normalization_38", "config": {"moving_variance_initializer": {"class_name": "Ones", "config": {}}, "name": "batch_normalization_38", "gamma_constraint": null, "gamma_regularizer": null, "momentum": 0.99, "beta_initializer": {"class_name": "Zeros", "config": {}}, "center": true, "scale": true, "trainable": true, "gamma_initializer": {"class_name": "Ones", "config": {}}, "epsilon": 0.001, "axis": 3, "beta_regularizer": null, "beta_constraint": null, "moving_mean_initializer": {"class_name": "Zeros", "config": {}}}}, {"inbound_nodes": [[["mixed3", 0, 0, {}]]], "class_name": "AveragePooling2D", "name": "average_pooling2d_4", "config": {"trainable": true, "data_format": "channels_last", "name": "average_pooling2d_4", "strides": [1, 1], "pool_size": [3, 3], "padding": "same"}}, {"inbound_nodes": [[["mixed3", 0, 0, {}]]], "class_name": "Conv2D", "name": "conv2d_31", "config": {"data_format": "channels_last", "name": "conv2d_31", "strides": [1, 1], "dilation_rate": [1, 1], "bias_regularizer": null, "kernel_size": [1, 1], "trainable": true, "activation": "relu", "kernel_initializer": {"class_name": "VarianceScaling", "config": {"mode": "fan_avg", "seed": null, "scale": 1.0, "distribution": "uniform"}}, "bias_constraint": null, "kernel_constraint": null, "use_bias": true, "bias_initializer": {"class_name": "Zeros", "config": {}}, "filters": 96, "kernel_regularizer": null, "padding": "same", "activity_regularizer": null}}, {"inbound_nodes": [[["batch_normalization_33", 0, 0, {}]]], "class_name": "Conv2D", "name": "conv2d_34", "config": {"data_format": "channels_last", "name": "conv2d_34", "strides": [1, 1], "dilation_rate": [1, 1], "bias_regularizer": null, "kernel_size": [7, 1], "trainable": true, "activation": "relu", "kernel_initializer": {"class_name": "VarianceScaling", "config": {"mode": "fan_avg", "seed": null, "scale": 1.0, "distribution": "uniform"}}, "bias_constraint": null, "kernel_constraint": null, "use_bias": true, "bias_initializer": {"class_name": "Zeros", "config": {}}, "filters": 96, "kernel_regularizer": null, "padding": "same", "activity_regularizer": null}}, {"inbound_nodes": [[["batch_normalization_38", 0, 0, {}]]], "class_name": "Conv2D", "name": "conv2d_39", "config": {"data_format": "channels_last", "name": "conv2d_39", "strides": [1, 1], "dilation_rate": [1, 1], "bias_regularizer": null, "kernel_size": [1, 7], "trainable": true, "activation": "relu", "kernel_initializer": {"class_name": "VarianceScaling", "config": {"mode": "fan_avg", "seed": null, "scale": 1.0, "distribution": "uniform"}}, "bias_constraint": null, "kernel_constraint": null, "use_bias": true, "bias_initializer": {"class_name": "Zeros", "config": {}}, "filters": 96, "kernel_regularizer": null, "padding": "same", "activity_regularizer": null}}, {"inbound_nodes": [[["average_pooling2d_4", 0, 0, {}]]], "class_name": "Conv2D", "name": "conv2d_40", "config": {"data_format": "channels_last", "name": "conv2d_40", "strides": [1, 1], "dilation_rate": [1, 1], "bias_regularizer": null, "kernel_size": [1, 1], "trainable": true, "activation": "relu", "kernel_initializer": {"class_name": "VarianceScaling", "config": {"mode": "fan_avg", "seed": null, "scale": 1.0, "distribution": "uniform"}}, "bias_constraint": null, "kernel_constraint": null, "use_bias": true, "bias_initializer": {"class_name": "Zeros", "config": {}}, "filters": 96, "kernel_regularizer": null, "padding": "same", "activity_regularizer": null}}, {"inbound_nodes": [[["conv2d_31", 0, 0, {}]]], "class_name": "BatchNormalization", "name": "batch_normalization_31", "config": {"moving_variance_initializer": {"class_name": "Ones", "config": {}}, "name": "batch_normalization_31", "gamma_constraint": null, "gamma_regularizer": null, "momentum": 0.99, "beta_initializer": {"class_name": "Zeros", "config": {}}, "center": true, "scale": true, "trainable": true, "gamma_initializer": {"class_name": "Ones", "config": {}}, "epsilon": 0.001, "axis": 3, "beta_regularizer": null, "beta_constraint": null, "moving_mean_initializer": {"class_name": "Zeros", "config": {}}}}, {"inbound_nodes": [[["conv2d_34", 0, 0, {}]]], "class_name": "BatchNormalization", "name": "batch_normalization_34", "config": {"moving_variance_initializer": {"class_name": "Ones", "config": {}}, "name": "batch_normalization_34", "gamma_constraint": null, "gamma_regularizer": null, "momentum": 0.99, "beta_initializer": {"class_name": "Zeros", "config": {}}, "center": true, "scale": true, "trainable": true, "gamma_initializer": {"class_name": "Ones", "config": {}}, "epsilon": 0.001, "axis": 3, "beta_regularizer": null, "beta_constraint": null, "moving_mean_initializer": {"class_name": "Zeros", "config": {}}}}, {"inbound_nodes": [[["conv2d_39", 0, 0, {}]]], "class_name": "BatchNormalization", "name": "batch_normalization_39", "config": {"moving_variance_initializer": {"class_name": "Ones", "config": {}}, "name": "batch_normalization_39", "gamma_constraint": null, "gamma_regularizer": null, "momentum": 0.99, "beta_initializer": {"class_name": "Zeros", "config": {}}, "center": true, "scale": true, "trainable": true, "gamma_initializer": {"class_name": "Ones", "config": {}}, "epsilon": 0.001, "axis": 3, "beta_regularizer": null, "beta_constraint": null, "moving_mean_initializer": {"class_name": "Zeros", "config": {}}}}, {"inbound_nodes": [[["conv2d_40", 0, 0, {}]]], "class_name": "BatchNormalization", "name": "batch_normalization_40", "config": {"moving_variance_initializer": {"class_name": "Ones", "config": {}}, "name": "batch_normalization_40", "gamma_constraint": null, "gamma_regularizer": null, "momentum": 0.99, "beta_initializer": {"class_name": "Zeros", "config": {}}, "center": true, "scale": true, "trainable": true, "gamma_initializer": {"class_name": "Ones", "config": {}}, "epsilon": 0.001, "axis": 3, "beta_regularizer": null, "beta_constraint": null, "moving_mean_initializer": {"class_name": "Zeros", "config": {}}}}, {"inbound_nodes": [[["batch_normalization_31", 0, 0, {}], ["batch_normalization_34", 0, 0, {}], ["batch_normalization_39", 0, 0, {}], ["batch_normalization_40", 0, 0, {}]]], "class_name": "Concatenate", "name": "mixed4", "config": {"trainable": true, "name": "mixed4", "axis": -1}}, {"inbound_nodes": [[["mixed4", 0, 0, {}]]], "class_name": "Conv2D", "name": "conv2d_45", "config": {"data_format": "channels_last", "name": "conv2d_45", "strides": [1, 1], "dilation_rate": [1, 1], "bias_regularizer": null, "kernel_size": [1, 1], "trainable": true, "activation": "relu", "kernel_initializer": {"class_name": "VarianceScaling", "config": {"mode": "fan_avg", "seed": null, "scale": 1.0, "distribution": "uniform"}}, "bias_constraint": null, "kernel_constraint": null, "use_bias": true, "bias_initializer": {"class_name": "Zeros", "config": {}}, "filters": 80, "kernel_regularizer": null, "padding": "same", "activity_regularizer": null}}, {"inbound_nodes": [[["conv2d_45", 0, 0, {}]]], "class_name": "BatchNormalization", "name": "batch_normalization_45", "config": {"moving_variance_initializer": {"class_name": "Ones", "config": {}}, "name": "batch_normalization_45", "gamma_constraint": null, "gamma_regularizer": null, "momentum": 0.99, "beta_initializer": {"class_name": "Zeros", "config": {}}, "center": true, "scale": true, "trainable": true, "gamma_initializer": {"class_name": "Ones", "config": {}}, "epsilon": 0.001, "axis": 3, "beta_regularizer": null, "beta_constraint": null, "moving_mean_initializer": {"class_name": "Zeros", "config": {}}}}, {"inbound_nodes": [[["batch_normalization_45", 0, 0, {}]]], "class_name": "Conv2D", "name": "conv2d_46", "config": {"data_format": "channels_last", "name": "conv2d_46", "strides": [1, 1], "dilation_rate": [1, 1], "bias_regularizer": null, "kernel_size": [7, 1], "trainable": true, "activation": "relu", "kernel_initializer": {"class_name": "VarianceScaling", "config": {"mode": "fan_avg", "seed": null, "scale": 1.0, "distribution": "uniform"}}, "bias_constraint": null, "kernel_constraint": null, "use_bias": true, "bias_initializer": {"class_name": "Zeros", "config": {}}, "filters": 80, "kernel_regularizer": null, "padding": "same", "activity_regularizer": null}}, {"inbound_nodes": [[["conv2d_46", 0, 0, {}]]], "class_name": "BatchNormalization", "name": "batch_normalization_46", "config": {"moving_variance_initializer": {"class_name": "Ones", "config": {}}, "name": "batch_normalization_46", "gamma_constraint": null, "gamma_regularizer": null, "momentum": 0.99, "beta_initializer": {"class_name": "Zeros", "config": {}}, "center": true, "scale": true, "trainable": true, "gamma_initializer": {"class_name": "Ones", "config": {}}, "epsilon": 0.001, "axis": 3, "beta_regularizer": null, "beta_constraint": null, "moving_mean_initializer": {"class_name": "Zeros", "config": {}}}}, {"inbound_nodes": [[["mixed4", 0, 0, {}]]], "class_name": "Conv2D", "name": "conv2d_42", "config": {"data_format": "channels_last", "name": "conv2d_42", "strides": [1, 1], "dilation_rate": [1, 1], "bias_regularizer": null, "kernel_size": [1, 1], "trainable": true, "activation": "relu", "kernel_initializer": {"class_name": "VarianceScaling", "config": {"mode": "fan_avg", "seed": null, "scale": 1.0, "distribution": "uniform"}}, "bias_constraint": null, "kernel_constraint": null, "use_bias": true, "bias_initializer": {"class_name": "Zeros", "config": {}}, "filters": 80, "kernel_regularizer": null, "padding": "same", "activity_regularizer": null}}, {"inbound_nodes": [[["batch_normalization_46", 0, 0, {}]]], "class_name": "Conv2D", "name": "conv2d_47", "config": {"data_format": "channels_last", "name": "conv2d_47", "strides": [1, 1], "dilation_rate": [1, 1], "bias_regularizer": null, "kernel_size": [1, 7], "trainable": true, "activation": "relu", "kernel_initializer": {"class_name": "VarianceScaling", "config": {"mode": "fan_avg", "seed": null, "scale": 1.0, "distribution": "uniform"}}, "bias_constraint": null, "kernel_constraint": null, "use_bias": true, "bias_initializer": {"class_name": "Zeros", "config": {}}, "filters": 80, "kernel_regularizer": null, "padding": "same", "activity_regularizer": null}}, {"inbound_nodes": [[["conv2d_42", 0, 0, {}]]], "class_name": "BatchNormalization", "name": "batch_normalization_42", "config": {"moving_variance_initializer": {"class_name": "Ones", "config": {}}, "name": "batch_normalization_42", "gamma_constraint": null, "gamma_regularizer": null, "momentum": 0.99, "beta_initializer": {"class_name": "Zeros", "config": {}}, "center": true, "scale": true, "trainable": true, "gamma_initializer": {"class_name": "Ones", "config": {}}, "epsilon": 0.001, "axis": 3, "beta_regularizer": null, "beta_constraint": null, "moving_mean_initializer": {"class_name": "Zeros", "config": {}}}}, {"inbound_nodes": [[["conv2d_47", 0, 0, {}]]], "class_name": "BatchNormalization", "name": "batch_normalization_47", "config": {"moving_variance_initializer": {"class_name": "Ones", "config": {}}, "name": "batch_normalization_47", "gamma_constraint": null, "gamma_regularizer": null, "momentum": 0.99, "beta_initializer": {"class_name": "Zeros", "config": {}}, "center": true, "scale": true, "trainable": true, "gamma_initializer": {"class_name": "Ones", "config": {}}, "epsilon": 0.001, "axis": 3, "beta_regularizer": null, "beta_constraint": null, "moving_mean_initializer": {"class_name": "Zeros", "config": {}}}}, {"inbound_nodes": [[["batch_normalization_42", 0, 0, {}]]], "class_name": "Conv2D", "name": "conv2d_43", "config": {"data_format": "channels_last", "name": "conv2d_43", "strides": [1, 1], "dilation_rate": [1, 1], "bias_regularizer": null, "kernel_size": [1, 7], "trainable": true, "activation": "relu", "kernel_initializer": {"class_name": "VarianceScaling", "config": {"mode": "fan_avg", "seed": null, "scale": 1.0, "distribution": "uniform"}}, "bias_constraint": null, "kernel_constraint": null, "use_bias": true, "bias_initializer": {"class_name": "Zeros", "config": {}}, "filters": 80, "kernel_regularizer": null, "padding": "same", "activity_regularizer": null}}, {"inbound_nodes": [[["batch_normalization_47", 0, 0, {}]]], "class_name": "Conv2D", "name": "conv2d_48", "config": {"data_format": "channels_last", "name": "conv2d_48", "strides": [1, 1], "dilation_rate": [1, 1], "bias_regularizer": null, "kernel_size": [7, 1], "trainable": true, "activation": "relu", "kernel_initializer": {"class_name": "VarianceScaling", "config": {"mode": "fan_avg", "seed": null, "scale": 1.0, "distribution": "uniform"}}, "bias_constraint": null, "kernel_constraint": null, "use_bias": true, "bias_initializer": {"class_name": "Zeros", "config": {}}, "filters": 80, "kernel_regularizer": null, "padding": "same", "activity_regularizer": null}}, {"inbound_nodes": [[["conv2d_43", 0, 0, {}]]], "class_name": "BatchNormalization", "name": "batch_normalization_43", "config": {"moving_variance_initializer": {"class_name": "Ones", "config": {}}, "name": "batch_normalization_43", "gamma_constraint": null, "gamma_regularizer": null, "momentum": 0.99, "beta_initializer": {"class_name": "Zeros", "config": {}}, "center": true, "scale": true, "trainable": true, "gamma_initializer": {"class_name": "Ones", "config": {}}, "epsilon": 0.001, "axis": 3, "beta_regularizer": null, "beta_constraint": null, "moving_mean_initializer": {"class_name": "Zeros", "config": {}}}}, {"inbound_nodes": [[["conv2d_48", 0, 0, {}]]], "class_name": "BatchNormalization", "name": "batch_normalization_48", "config": {"moving_variance_initializer": {"class_name": "Ones", "config": {}}, "name": "batch_normalization_48", "gamma_constraint": null, "gamma_regularizer": null, "momentum": 0.99, "beta_initializer": {"class_name": "Zeros", "config": {}}, "center": true, "scale": true, "trainable": true, "gamma_initializer": {"class_name": "Ones", "config": {}}, "epsilon": 0.001, "axis": 3, "beta_regularizer": null, "beta_constraint": null, "moving_mean_initializer": {"class_name": "Zeros", "config": {}}}}, {"inbound_nodes": [[["mixed4", 0, 0, {}]]], "class_name": "AveragePooling2D", "name": "average_pooling2d_5", "config": {"trainable": true, "data_format": "channels_last", "name": "average_pooling2d_5", "strides": [1, 1], "pool_size": [3, 3], "padding": "same"}}, {"inbound_nodes": [[["mixed4", 0, 0, {}]]], "class_name": "Conv2D", "name": "conv2d_41", "config": {"data_format": "channels_last", "name": "conv2d_41", "strides": [1, 1], "dilation_rate": [1, 1], "bias_regularizer": null, "kernel_size": [1, 1], "trainable": true, "activation": "relu", "kernel_initializer": {"class_name": "VarianceScaling", "config": {"mode": "fan_avg", "seed": null, "scale": 1.0, "distribution": "uniform"}}, "bias_constraint": null, "kernel_constraint": null, "use_bias": true, "bias_initializer": {"class_name": "Zeros", "config": {}}, "filters": 96, "kernel_regularizer": null, "padding": "same", "activity_regularizer": null}}, {"inbound_nodes": [[["batch_normalization_43", 0, 0, {}]]], "class_name": "Conv2D", "name": "conv2d_44", "config": {"data_format": "channels_last", "name": "conv2d_44", "strides": [1, 1], "dilation_rate": [1, 1], "bias_regularizer": null, "kernel_size": [7, 1], "trainable": true, "activation": "relu", "kernel_initializer": {"class_name": "VarianceScaling", "config": {"mode": "fan_avg", "seed": null, "scale": 1.0, "distribution": "uniform"}}, "bias_constraint": null, "kernel_constraint": null, "use_bias": true, "bias_initializer": {"class_name": "Zeros", "config": {}}, "filters": 96, "kernel_regularizer": null, "padding": "same", "activity_regularizer": null}}, {"inbound_nodes": [[["batch_normalization_48", 0, 0, {}]]], "class_name": "Conv2D", "name": "conv2d_49", "config": {"data_format": "channels_last", "name": "conv2d_49", "strides": [1, 1], "dilation_rate": [1, 1], "bias_regularizer": null, "kernel_size": [1, 7], "trainable": true, "activation": "relu", "kernel_initializer": {"class_name": "VarianceScaling", "config": {"mode": "fan_avg", "seed": null, "scale": 1.0, "distribution": "uniform"}}, "bias_constraint": null, "kernel_constraint": null, "use_bias": true, "bias_initializer": {"class_name": "Zeros", "config": {}}, "filters": 96, "kernel_regularizer": null, "padding": "same", "activity_regularizer": null}}, {"inbound_nodes": [[["average_pooling2d_5", 0, 0, {}]]], "class_name": "Conv2D", "name": "conv2d_50", "config": {"data_format": "channels_last", "name": "conv2d_50", "strides": [1, 1], "dilation_rate": [1, 1], "bias_regularizer": null, "kernel_size": [1, 1], "trainable": true, "activation": "relu", "kernel_initializer": {"class_name": "VarianceScaling", "config": {"mode": "fan_avg", "seed": null, "scale": 1.0, "distribution": "uniform"}}, "bias_constraint": null, "kernel_constraint": null, "use_bias": true, "bias_initializer": {"class_name": "Zeros", "config": {}}, "filters": 96, "kernel_regularizer": null, "padding": "same", "activity_regularizer": null}}, {"inbound_nodes": [[["conv2d_41", 0, 0, {}]]], "class_name": "BatchNormalization", "name": "batch_normalization_41", "config": {"moving_variance_initializer": {"class_name": "Ones", "config": {}}, "name": "batch_normalization_41", "gamma_constraint": null, "gamma_regularizer": null, "momentum": 0.99, "beta_initializer": {"class_name": "Zeros", "config": {}}, "center": true, "scale": true, "trainable": true, "gamma_initializer": {"class_name": "Ones", "config": {}}, "epsilon": 0.001, "axis": 3, "beta_regularizer": null, "beta_constraint": null, "moving_mean_initializer": {"class_name": "Zeros", "config": {}}}}, {"inbound_nodes": [[["conv2d_44", 0, 0, {}]]], "class_name": "BatchNormalization", "name": "batch_normalization_44", "config": {"moving_variance_initializer": {"class_name": "Ones", "config": {}}, "name": "batch_normalization_44", "gamma_constraint": null, "gamma_regularizer": null, "momentum": 0.99, "beta_initializer": {"class_name": "Zeros", "config": {}}, "center": true, "scale": true, "trainable": true, "gamma_initializer": {"class_name": "Ones", "config": {}}, "epsilon": 0.001, "axis": 3, "beta_regularizer": null, "beta_constraint": null, "moving_mean_initializer": {"class_name": "Zeros", "config": {}}}}, {"inbound_nodes": [[["conv2d_49", 0, 0, {}]]], "class_name": "BatchNormalization", "name": "batch_normalization_49", "config": {"moving_variance_initializer": {"class_name": "Ones", "config": {}}, "name": "batch_normalization_49", "gamma_constraint": null, "gamma_regularizer": null, "momentum": 0.99, "beta_initializer": {"class_name": "Zeros", "config": {}}, "center": true, "scale": true, "trainable": true, "gamma_initializer": {"class_name": "Ones", "config": {}}, "epsilon": 0.001, "axis": 3, "beta_regularizer": null, "beta_constraint": null, "moving_mean_initializer": {"class_name": "Zeros", "config": {}}}}, {"inbound_nodes": [[["conv2d_50", 0, 0, {}]]], "class_name": "BatchNormalization", "name": "batch_normalization_50", "config": {"moving_variance_initializer": {"class_name": "Ones", "config": {}}, "name": "batch_normalization_50", "gamma_constraint": null, "gamma_regularizer": null, "momentum": 0.99, "beta_initializer": {"class_name": "Zeros", "config": {}}, "center": true, "scale": true, "trainable": true, "gamma_initializer": {"class_name": "Ones", "config": {}}, "epsilon": 0.001, "axis": 3, "beta_regularizer": null, "beta_constraint": null, "moving_mean_initializer": {"class_name": "Zeros", "config": {}}}}, {"inbound_nodes": [[["batch_normalization_41", 0, 0, {}], ["batch_normalization_44", 0, 0, {}], ["batch_normalization_49", 0, 0, {}], ["batch_normalization_50", 0, 0, {}]]], "class_name": "Concatenate", "name": "mixed5", "config": {"trainable": true, "name": "mixed5", "axis": -1}}, {"inbound_nodes": [[["mixed5", 0, 0, {}]]], "class_name": "Conv2D", "name": "conv2d_55", "config": {"data_format": "channels_last", "name": "conv2d_55", "strides": [1, 1], "dilation_rate": [1, 1], "bias_regularizer": null, "kernel_size": [1, 1], "trainable": true, "activation": "relu", "kernel_initializer": {"class_name": "VarianceScaling", "config": {"mode": "fan_avg", "seed": null, "scale": 1.0, "distribution": "uniform"}}, "bias_constraint": null, "kernel_constraint": null, "use_bias": true, "bias_initializer": {"class_name": "Zeros", "config": {}}, "filters": 80, "kernel_regularizer": null, "padding": "same", "activity_regularizer": null}}, {"inbound_nodes": [[["conv2d_55", 0, 0, {}]]], "class_name": "BatchNormalization", "name": "batch_normalization_55", "config": {"moving_variance_initializer": {"class_name": "Ones", "config": {}}, "name": "batch_normalization_55", "gamma_constraint": null, "gamma_regularizer": null, "momentum": 0.99, "beta_initializer": {"class_name": "Zeros", "config": {}}, "center": true, "scale": true, "trainable": true, "gamma_initializer": {"class_name": "Ones", "config": {}}, "epsilon": 0.001, "axis": 3, "beta_regularizer": null, "beta_constraint": null, "moving_mean_initializer": {"class_name": "Zeros", "config": {}}}}, {"inbound_nodes": [[["batch_normalization_55", 0, 0, {}]]], "class_name": "Conv2D", "name": "conv2d_56", "config": {"data_format": "channels_last", "name": "conv2d_56", "strides": [1, 1], "dilation_rate": [1, 1], "bias_regularizer": null, "kernel_size": [7, 1], "trainable": true, "activation": "relu", "kernel_initializer": {"class_name": "VarianceScaling", "config": {"mode": "fan_avg", "seed": null, "scale": 1.0, "distribution": "uniform"}}, "bias_constraint": null, "kernel_constraint": null, "use_bias": true, "bias_initializer": {"class_name": "Zeros", "config": {}}, "filters": 80, "kernel_regularizer": null, "padding": "same", "activity_regularizer": null}}, {"inbound_nodes": [[["conv2d_56", 0, 0, {}]]], "class_name": "BatchNormalization", "name": "batch_normalization_56", "config": {"moving_variance_initializer": {"class_name": "Ones", "config": {}}, "name": "batch_normalization_56", "gamma_constraint": null, "gamma_regularizer": null, "momentum": 0.99, "beta_initializer": {"class_name": "Zeros", "config": {}}, "center": true, "scale": true, "trainable": true, "gamma_initializer": {"class_name": "Ones", "config": {}}, "epsilon": 0.001, "axis": 3, "beta_regularizer": null, "beta_constraint": null, "moving_mean_initializer": {"class_name": "Zeros", "config": {}}}}, {"inbound_nodes": [[["mixed5", 0, 0, {}]]], "class_name": "Conv2D", "name": "conv2d_52", "config": {"data_format": "channels_last", "name": "conv2d_52", "strides": [1, 1], "dilation_rate": [1, 1], "bias_regularizer": null, "kernel_size": [1, 1], "trainable": true, "activation": "relu", "kernel_initializer": {"class_name": "VarianceScaling", "config": {"mode": "fan_avg", "seed": null, "scale": 1.0, "distribution": "uniform"}}, "bias_constraint": null, "kernel_constraint": null, "use_bias": true, "bias_initializer": {"class_name": "Zeros", "config": {}}, "filters": 80, "kernel_regularizer": null, "padding": "same", "activity_regularizer": null}}, {"inbound_nodes": [[["batch_normalization_56", 0, 0, {}]]], "class_name": "Conv2D", "name": "conv2d_57", "config": {"data_format": "channels_last", "name": "conv2d_57", "strides": [1, 1], "dilation_rate": [1, 1], "bias_regularizer": null, "kernel_size": [1, 7], "trainable": true, "activation": "relu", "kernel_initializer": {"class_name": "VarianceScaling", "config": {"mode": "fan_avg", "seed": null, "scale": 1.0, "distribution": "uniform"}}, "bias_constraint": null, "kernel_constraint": null, "use_bias": true, "bias_initializer": {"class_name": "Zeros", "config": {}}, "filters": 80, "kernel_regularizer": null, "padding": "same", "activity_regularizer": null}}, {"inbound_nodes": [[["conv2d_52", 0, 0, {}]]], "class_name": "BatchNormalization", "name": "batch_normalization_52", "config": {"moving_variance_initializer": {"class_name": "Ones", "config": {}}, "name": "batch_normalization_52", "gamma_constraint": null, "gamma_regularizer": null, "momentum": 0.99, "beta_initializer": {"class_name": "Zeros", "config": {}}, "center": true, "scale": true, "trainable": true, "gamma_initializer": {"class_name": "Ones", "config": {}}, "epsilon": 0.001, "axis": 3, "beta_regularizer": null, "beta_constraint": null, "moving_mean_initializer": {"class_name": "Zeros", "config": {}}}}, {"inbound_nodes": [[["conv2d_57", 0, 0, {}]]], "class_name": "BatchNormalization", "name": "batch_normalization_57", "config": {"moving_variance_initializer": {"class_name": "Ones", "config": {}}, "name": "batch_normalization_57", "gamma_constraint": null, "gamma_regularizer": null, "momentum": 0.99, "beta_initializer": {"class_name": "Zeros", "config": {}}, "center": true, "scale": true, "trainable": true, "gamma_initializer": {"class_name": "Ones", "config": {}}, "epsilon": 0.001, "axis": 3, "beta_regularizer": null, "beta_constraint": null, "moving_mean_initializer": {"class_name": "Zeros", "config": {}}}}, {"inbound_nodes": [[["batch_normalization_52", 0, 0, {}]]], "class_name": "Conv2D", "name": "conv2d_53", "config": {"data_format": "channels_last", "name": "conv2d_53", "strides": [1, 1], "dilation_rate": [1, 1], "bias_regularizer": null, "kernel_size": [1, 7], "trainable": true, "activation": "relu", "kernel_initializer": {"class_name": "VarianceScaling", "config": {"mode": "fan_avg", "seed": null, "scale": 1.0, "distribution": "uniform"}}, "bias_constraint": null, "kernel_constraint": null, "use_bias": true, "bias_initializer": {"class_name": "Zeros", "config": {}}, "filters": 80, "kernel_regularizer": null, "padding": "same", "activity_regularizer": null}}, {"inbound_nodes": [[["batch_normalization_57", 0, 0, {}]]], "class_name": "Conv2D", "name": "conv2d_58", "config": {"data_format": "channels_last", "name": "conv2d_58", "strides": [1, 1], "dilation_rate": [1, 1], "bias_regularizer": null, "kernel_size": [7, 1], "trainable": true, "activation": "relu", "kernel_initializer": {"class_name": "VarianceScaling", "config": {"mode": "fan_avg", "seed": null, "scale": 1.0, "distribution": "uniform"}}, "bias_constraint": null, "kernel_constraint": null, "use_bias": true, "bias_initializer": {"class_name": "Zeros", "config": {}}, "filters": 80, "kernel_regularizer": null, "padding": "same", "activity_regularizer": null}}, {"inbound_nodes": [[["conv2d_53", 0, 0, {}]]], "class_name": "BatchNormalization", "name": "batch_normalization_53", "config": {"moving_variance_initializer": {"class_name": "Ones", "config": {}}, "name": "batch_normalization_53", "gamma_constraint": null, "gamma_regularizer": null, "momentum": 0.99, "beta_initializer": {"class_name": "Zeros", "config": {}}, "center": true, "scale": true, "trainable": true, "gamma_initializer": {"class_name": "Ones", "config": {}}, "epsilon": 0.001, "axis": 3, "beta_regularizer": null, "beta_constraint": null, "moving_mean_initializer": {"class_name": "Zeros", "config": {}}}}, {"inbound_nodes": [[["conv2d_58", 0, 0, {}]]], "class_name": "BatchNormalization", "name": "batch_normalization_58", "config": {"moving_variance_initializer": {"class_name": "Ones", "config": {}}, "name": "batch_normalization_58", "gamma_constraint": null, "gamma_regularizer": null, "momentum": 0.99, "beta_initializer": {"class_name": "Zeros", "config": {}}, "center": true, "scale": true, "trainable": true, "gamma_initializer": {"class_name": "Ones", "config": {}}, "epsilon": 0.001, "axis": 3, "beta_regularizer": null, "beta_constraint": null, "moving_mean_initializer": {"class_name": "Zeros", "config": {}}}}, {"inbound_nodes": [[["mixed5", 0, 0, {}]]], "class_name": "AveragePooling2D", "name": "average_pooling2d_6", "config": {"trainable": true, "data_format": "channels_last", "name": "average_pooling2d_6", "strides": [1, 1], "pool_size": [3, 3], "padding": "same"}}, {"inbound_nodes": [[["mixed5", 0, 0, {}]]], "class_name": "Conv2D", "name": "conv2d_51", "config": {"data_format": "channels_last", "name": "conv2d_51", "strides": [1, 1], "dilation_rate": [1, 1], "bias_regularizer": null, "kernel_size": [1, 1], "trainable": true, "activation": "relu", "kernel_initializer": {"class_name": "VarianceScaling", "config": {"mode": "fan_avg", "seed": null, "scale": 1.0, "distribution": "uniform"}}, "bias_constraint": null, "kernel_constraint": null, "use_bias": true, "bias_initializer": {"class_name": "Zeros", "config": {}}, "filters": 96, "kernel_regularizer": null, "padding": "same", "activity_regularizer": null}}, {"inbound_nodes": [[["batch_normalization_53", 0, 0, {}]]], "class_name": "Conv2D", "name": "conv2d_54", "config": {"data_format": "channels_last", "name": "conv2d_54", "strides": [1, 1], "dilation_rate": [1, 1], "bias_regularizer": null, "kernel_size": [7, 1], "trainable": true, "activation": "relu", "kernel_initializer": {"class_name": "VarianceScaling", "config": {"mode": "fan_avg", "seed": null, "scale": 1.0, "distribution": "uniform"}}, "bias_constraint": null, "kernel_constraint": null, "use_bias": true, "bias_initializer": {"class_name": "Zeros", "config": {}}, "filters": 96, "kernel_regularizer": null, "padding": "same", "activity_regularizer": null}}, {"inbound_nodes": [[["batch_normalization_58", 0, 0, {}]]], "class_name": "Conv2D", "name": "conv2d_59", "config": {"data_format": "channels_last", "name": "conv2d_59", "strides": [1, 1], "dilation_rate": [1, 1], "bias_regularizer": null, "kernel_size": [1, 7], "trainable": true, "activation": "relu", "kernel_initializer": {"class_name": "VarianceScaling", "config": {"mode": "fan_avg", "seed": null, "scale": 1.0, "distribution": "uniform"}}, "bias_constraint": null, "kernel_constraint": null, "use_bias": true, "bias_initializer": {"class_name": "Zeros", "config": {}}, "filters": 96, "kernel_regularizer": null, "padding": "same", "activity_regularizer": null}}, {"inbound_nodes": [[["average_pooling2d_6", 0, 0, {}]]], "class_name": "Conv2D", "name": "conv2d_60", "config": {"data_format": "channels_last", "name": "conv2d_60", "strides": [1, 1], "dilation_rate": [1, 1], "bias_regularizer": null, "kernel_size": [1, 1], "trainable": true, "activation": "relu", "kernel_initializer": {"class_name": "VarianceScaling", "config": {"mode": "fan_avg", "seed": null, "scale": 1.0, "distribution": "uniform"}}, "bias_constraint": null, "kernel_constraint": null, "use_bias": true, "bias_initializer": {"class_name": "Zeros", "config": {}}, "filters": 96, "kernel_regularizer": null, "padding": "same", "activity_regularizer": null}}, {"inbound_nodes": [[["conv2d_51", 0, 0, {}]]], "class_name": "BatchNormalization", "name": "batch_normalization_51", "config": {"moving_variance_initializer": {"class_name": "Ones", "config": {}}, "name": "batch_normalization_51", "gamma_constraint": null, "gamma_regularizer": null, "momentum": 0.99, "beta_initializer": {"class_name": "Zeros", "config": {}}, "center": true, "scale": true, "trainable": true, "gamma_initializer": {"class_name": "Ones", "config": {}}, "epsilon": 0.001, "axis": 3, "beta_regularizer": null, "beta_constraint": null, "moving_mean_initializer": {"class_name": "Zeros", "config": {}}}}, {"inbound_nodes": [[["conv2d_54", 0, 0, {}]]], "class_name": "BatchNormalization", "name": "batch_normalization_54", "config": {"moving_variance_initializer": {"class_name": "Ones", "config": {}}, "name": "batch_normalization_54", "gamma_constraint": null, "gamma_regularizer": null, "momentum": 0.99, "beta_initializer": {"class_name": "Zeros", "config": {}}, "center": true, "scale": true, "trainable": true, "gamma_initializer": {"class_name": "Ones", "config": {}}, "epsilon": 0.001, "axis": 3, "beta_regularizer": null, "beta_constraint": null, "moving_mean_initializer": {"class_name": "Zeros", "config": {}}}}, {"inbound_nodes": [[["conv2d_59", 0, 0, {}]]], "class_name": "BatchNormalization", "name": "batch_normalization_59", "config": {"moving_variance_initializer": {"class_name": "Ones", "config": {}}, "name": "batch_normalization_59", "gamma_constraint": null, "gamma_regularizer": null, "momentum": 0.99, "beta_initializer": {"class_name": "Zeros", "config": {}}, "center": true, "scale": true, "trainable": true, "gamma_initializer": {"class_name": "Ones", "config": {}}, "epsilon": 0.001, "axis": 3, "beta_regularizer": null, "beta_constraint": null, "moving_mean_initializer": {"class_name": "Zeros", "config": {}}}}, {"inbound_nodes": [[["conv2d_60", 0, 0, {}]]], "class_name": "BatchNormalization", "name": "batch_normalization_60", "config": {"moving_variance_initializer": {"class_name": "Ones", "config": {}}, "name": "batch_normalization_60", "gamma_constraint": null, "gamma_regularizer": null, "momentum": 0.99, "beta_initializer": {"class_name": "Zeros", "config": {}}, "center": true, "scale": true, "trainable": true, "gamma_initializer": {"class_name": "Ones", "config": {}}, "epsilon": 0.001, "axis": 3, "beta_regularizer": null, "beta_constraint": null, "moving_mean_initializer": {"class_name": "Zeros", "config": {}}}}, {"inbound_nodes": [[["batch_normalization_51", 0, 0, {}], ["batch_normalization_54", 0, 0, {}], ["batch_normalization_59", 0, 0, {}], ["batch_normalization_60", 0, 0, {}]]], "class_name": "Concatenate", "name": "mixed6", "config": {"trainable": true, "name": "mixed6", "axis": -1}}, {"inbound_nodes": [[["mixed6", 0, 0, {}]]], "class_name": "Conv2D", "name": "conv2d_65", "config": {"data_format": "channels_last", "name": "conv2d_65", "strides": [1, 1], "dilation_rate": [1, 1], "bias_regularizer": null, "kernel_size": [1, 1], "trainable": true, "activation": "relu", "kernel_initializer": {"class_name": "VarianceScaling", "config": {"mode": "fan_avg", "seed": null, "scale": 1.0, "distribution": "uniform"}}, "bias_constraint": null, "kernel_constraint": null, "use_bias": true, "bias_initializer": {"class_name": "Zeros", "config": {}}, "filters": 80, "kernel_regularizer": null, "padding": "same", "activity_regularizer": null}}, {"inbound_nodes": [[["conv2d_65", 0, 0, {}]]], "class_name": "BatchNormalization", "name": "batch_normalization_65", "config": {"moving_variance_initializer": {"class_name": "Ones", "config": {}}, "name": "batch_normalization_65", "gamma_constraint": null, "gamma_regularizer": null, "momentum": 0.99, "beta_initializer": {"class_name": "Zeros", "config": {}}, "center": true, "scale": true, "trainable": true, "gamma_initializer": {"class_name": "Ones", "config": {}}, "epsilon": 0.001, "axis": 3, "beta_regularizer": null, "beta_constraint": null, "moving_mean_initializer": {"class_name": "Zeros", "config": {}}}}, {"inbound_nodes": [[["batch_normalization_65", 0, 0, {}]]], "class_name": "Conv2D", "name": "conv2d_66", "config": {"data_format": "channels_last", "name": "conv2d_66", "strides": [1, 1], "dilation_rate": [1, 1], "bias_regularizer": null, "kernel_size": [7, 1], "trainable": true, "activation": "relu", "kernel_initializer": {"class_name": "VarianceScaling", "config": {"mode": "fan_avg", "seed": null, "scale": 1.0, "distribution": "uniform"}}, "bias_constraint": null, "kernel_constraint": null, "use_bias": true, "bias_initializer": {"class_name": "Zeros", "config": {}}, "filters": 96, "kernel_regularizer": null, "padding": "same", "activity_regularizer": null}}, {"inbound_nodes": [[["conv2d_66", 0, 0, {}]]], "class_name": "BatchNormalization", "name": "batch_normalization_66", "config": {"moving_variance_initializer": {"class_name": "Ones", "config": {}}, "name": "batch_normalization_66", "gamma_constraint": null, "gamma_regularizer": null, "momentum": 0.99, "beta_initializer": {"class_name": "Zeros", "config": {}}, "center": true, "scale": true, "trainable": true, "gamma_initializer": {"class_name": "Ones", "config": {}}, "epsilon": 0.001, "axis": 3, "beta_regularizer": null, "beta_constraint": null, "moving_mean_initializer": {"class_name": "Zeros", "config": {}}}}, {"inbound_nodes": [[["mixed6", 0, 0, {}]]], "class_name": "Conv2D", "name": "conv2d_62", "config": {"data_format": "channels_last", "name": "conv2d_62", "strides": [1, 1], "dilation_rate": [1, 1], "bias_regularizer": null, "kernel_size": [1, 1], "trainable": true, "activation": "relu", "kernel_initializer": {"class_name": "VarianceScaling", "config": {"mode": "fan_avg", "seed": null, "scale": 1.0, "distribution": "uniform"}}, "bias_constraint": null, "kernel_constraint": null, "use_bias": true, "bias_initializer": {"class_name": "Zeros", "config": {}}, "filters": 96, "kernel_regularizer": null, "padding": "same", "activity_regularizer": null}}, {"inbound_nodes": [[["batch_normalization_66", 0, 0, {}]]], "class_name": "Conv2D", "name": "conv2d_67", "config": {"data_format": "channels_last", "name": "conv2d_67", "strides": [1, 1], "dilation_rate": [1, 1], "bias_regularizer": null, "kernel_size": [1, 7], "trainable": true, "activation": "relu", "kernel_initializer": {"class_name": "VarianceScaling", "config": {"mode": "fan_avg", "seed": null, "scale": 1.0, "distribution": "uniform"}}, "bias_constraint": null, "kernel_constraint": null, "use_bias": true, "bias_initializer": {"class_name": "Zeros", "config": {}}, "filters": 96, "kernel_regularizer": null, "padding": "same", "activity_regularizer": null}}, {"inbound_nodes": [[["conv2d_62", 0, 0, {}]]], "class_name": "BatchNormalization", "name": "batch_normalization_62", "config": {"moving_variance_initializer": {"class_name": "Ones", "config": {}}, "name": "batch_normalization_62", "gamma_constraint": null, "gamma_regularizer": null, "momentum": 0.99, "beta_initializer": {"class_name": "Zeros", "config": {}}, "center": true, "scale": true, "trainable": true, "gamma_initializer": {"class_name": "Ones", "config": {}}, "epsilon": 0.001, "axis": 3, "beta_regularizer": null, "beta_constraint": null, "moving_mean_initializer": {"class_name": "Zeros", "config": {}}}}, {"inbound_nodes": [[["conv2d_67", 0, 0, {}]]], "class_name": "BatchNormalization", "name": "batch_normalization_67", "config": {"moving_variance_initializer": {"class_name": "Ones", "config": {}}, "name": "batch_normalization_67", "gamma_constraint": null, "gamma_regularizer": null, "momentum": 0.99, "beta_initializer": {"class_name": "Zeros", "config": {}}, "center": true, "scale": true, "trainable": true, "gamma_initializer": {"class_name": "Ones", "config": {}}, "epsilon": 0.001, "axis": 3, "beta_regularizer": null, "beta_constraint": null, "moving_mean_initializer": {"class_name": "Zeros", "config": {}}}}, {"inbound_nodes": [[["batch_normalization_62", 0, 0, {}]]], "class_name": "Conv2D", "name": "conv2d_63", "config": {"data_format": "channels_last", "name": "conv2d_63", "strides": [1, 1], "dilation_rate": [1, 1], "bias_regularizer": null, "kernel_size": [1, 7], "trainable": true, "activation": "relu", "kernel_initializer": {"class_name": "VarianceScaling", "config": {"mode": "fan_avg", "seed": null, "scale": 1.0, "distribution": "uniform"}}, "bias_constraint": null, "kernel_constraint": null, "use_bias": true, "bias_initializer": {"class_name": "Zeros", "config": {}}, "filters": 96, "kernel_regularizer": null, "padding": "same", "activity_regularizer": null}}, {"inbound_nodes": [[["batch_normalization_67", 0, 0, {}]]], "class_name": "Conv2D", "name": "conv2d_68", "config": {"data_format": "channels_last", "name": "conv2d_68", "strides": [1, 1], "dilation_rate": [1, 1], "bias_regularizer": null, "kernel_size": [7, 1], "trainable": true, "activation": "relu", "kernel_initializer": {"class_name": "VarianceScaling", "config": {"mode": "fan_avg", "seed": null, "scale": 1.0, "distribution": "uniform"}}, "bias_constraint": null, "kernel_constraint": null, "use_bias": true, "bias_initializer": {"class_name": "Zeros", "config": {}}, "filters": 96, "kernel_regularizer": null, "padding": "same", "activity_regularizer": null}}, {"inbound_nodes": [[["conv2d_63", 0, 0, {}]]], "class_name": "BatchNormalization", "name": "batch_normalization_63", "config": {"moving_variance_initializer": {"class_name": "Ones", "config": {}}, "name": "batch_normalization_63", "gamma_constraint": null, "gamma_regularizer": null, "momentum": 0.99, "beta_initializer": {"class_name": "Zeros", "config": {}}, "center": true, "scale": true, "trainable": true, "gamma_initializer": {"class_name": "Ones", "config": {}}, "epsilon": 0.001, "axis": 3, "beta_regularizer": null, "beta_constraint": null, "moving_mean_initializer": {"class_name": "Zeros", "config": {}}}}, {"inbound_nodes": [[["conv2d_68", 0, 0, {}]]], "class_name": "BatchNormalization", "name": "batch_normalization_68", "config": {"moving_variance_initializer": {"class_name": "Ones", "config": {}}, "name": "batch_normalization_68", "gamma_constraint": null, "gamma_regularizer": null, "momentum": 0.99, "beta_initializer": {"class_name": "Zeros", "config": {}}, "center": true, "scale": true, "trainable": true, "gamma_initializer": {"class_name": "Ones", "config": {}}, "epsilon": 0.001, "axis": 3, "beta_regularizer": null, "beta_constraint": null, "moving_mean_initializer": {"class_name": "Zeros", "config": {}}}}, {"inbound_nodes": [[["mixed6", 0, 0, {}]]], "class_name": "AveragePooling2D", "name": "average_pooling2d_7", "config": {"trainable": true, "data_format": "channels_last", "name": "average_pooling2d_7", "strides": [1, 1], "pool_size": [3, 3], "padding": "same"}}, {"inbound_nodes": [[["mixed6", 0, 0, {}]]], "class_name": "Conv2D", "name": "conv2d_61", "config": {"data_format": "channels_last", "name": "conv2d_61", "strides": [1, 1], "dilation_rate": [1, 1], "bias_regularizer": null, "kernel_size": [1, 1], "trainable": true, "activation": "relu", "kernel_initializer": {"class_name": "VarianceScaling", "config": {"mode": "fan_avg", "seed": null, "scale": 1.0, "distribution": "uniform"}}, "bias_constraint": null, "kernel_constraint": null, "use_bias": true, "bias_initializer": {"class_name": "Zeros", "config": {}}, "filters": 96, "kernel_regularizer": null, "padding": "same", "activity_regularizer": null}}, {"inbound_nodes": [[["batch_normalization_63", 0, 0, {}]]], "class_name": "Conv2D", "name": "conv2d_64", "config": {"data_format": "channels_last", "name": "conv2d_64", "strides": [1, 1], "dilation_rate": [1, 1], "bias_regularizer": null, "kernel_size": [7, 1], "trainable": true, "activation": "relu", "kernel_initializer": {"class_name": "VarianceScaling", "config": {"mode": "fan_avg", "seed": null, "scale": 1.0, "distribution": "uniform"}}, "bias_constraint": null, "kernel_constraint": null, "use_bias": true, "bias_initializer": {"class_name": "Zeros", "config": {}}, "filters": 96, "kernel_regularizer": null, "padding": "same", "activity_regularizer": null}}, {"inbound_nodes": [[["batch_normalization_68", 0, 0, {}]]], "class_name": "Conv2D", "name": "conv2d_69", "config": {"data_format": "channels_last", "name": "conv2d_69", "strides": [1, 1], "dilation_rate": [1, 1], "bias_regularizer": null, "kernel_size": [1, 7], "trainable": true, "activation": "relu", "kernel_initializer": {"class_name": "VarianceScaling", "config": {"mode": "fan_avg", "seed": null, "scale": 1.0, "distribution": "uniform"}}, "bias_constraint": null, "kernel_constraint": null, "use_bias": true, "bias_initializer": {"class_name": "Zeros", "config": {}}, "filters": 96, "kernel_regularizer": null, "padding": "same", "activity_regularizer": null}}, {"inbound_nodes": [[["average_pooling2d_7", 0, 0, {}]]], "class_name": "Conv2D", "name": "conv2d_70", "config": {"data_format": "channels_last", "name": "conv2d_70", "strides": [1, 1], "dilation_rate": [1, 1], "bias_regularizer": null, "kernel_size": [1, 1], "trainable": true, "activation": "relu", "kernel_initializer": {"class_name": "VarianceScaling", "config": {"mode": "fan_avg", "seed": null, "scale": 1.0, "distribution": "uniform"}}, "bias_constraint": null, "kernel_constraint": null, "use_bias": true, "bias_initializer": {"class_name": "Zeros", "config": {}}, "filters": 96, "kernel_regularizer": null, "padding": "same", "activity_regularizer": null}}, {"inbound_nodes": [[["conv2d_61", 0, 0, {}]]], "class_name": "BatchNormalization", "name": "batch_normalization_61", "config": {"moving_variance_initializer": {"class_name": "Ones", "config": {}}, "name": "batch_normalization_61", "gamma_constraint": null, "gamma_regularizer": null, "momentum": 0.99, "beta_initializer": {"class_name": "Zeros", "config": {}}, "center": true, "scale": true, "trainable": true, "gamma_initializer": {"class_name": "Ones", "config": {}}, "epsilon": 0.001, "axis": 3, "beta_regularizer": null, "beta_constraint": null, "moving_mean_initializer": {"class_name": "Zeros", "config": {}}}}, {"inbound_nodes": [[["conv2d_64", 0, 0, {}]]], "class_name": "BatchNormalization", "name": "batch_normalization_64", "config": {"moving_variance_initializer": {"class_name": "Ones", "config": {}}, "name": "batch_normalization_64", "gamma_constraint": null, "gamma_regularizer": null, "momentum": 0.99, "beta_initializer": {"class_name": "Zeros", "config": {}}, "center": true, "scale": true, "trainable": true, "gamma_initializer": {"class_name": "Ones", "config": {}}, "epsilon": 0.001, "axis": 3, "beta_regularizer": null, "beta_constraint": null, "moving_mean_initializer": {"class_name": "Zeros", "config": {}}}}, {"inbound_nodes": [[["conv2d_69", 0, 0, {}]]], "class_name": "BatchNormalization", "name": "batch_normalization_69", "config": {"moving_variance_initializer": {"class_name": "Ones", "config": {}}, "name": "batch_normalization_69", "gamma_constraint": null, "gamma_regularizer": null, "momentum": 0.99, "beta_initializer": {"class_name": "Zeros", "config": {}}, "center": true, "scale": true, "trainable": true, "gamma_initializer": {"class_name": "Ones", "config": {}}, "epsilon": 0.001, "axis": 3, "beta_regularizer": null, "beta_constraint": null, "moving_mean_initializer": {"class_name": "Zeros", "config": {}}}}, {"inbound_nodes": [[["conv2d_70", 0, 0, {}]]], "class_name": "BatchNormalization", "name": "batch_normalization_70", "config": {"moving_variance_initializer": {"class_name": "Ones", "config": {}}, "name": "batch_normalization_70", "gamma_constraint": null, "gamma_regularizer": null, "momentum": 0.99, "beta_initializer": {"class_name": "Zeros", "config": {}}, "center": true, "scale": true, "trainable": true, "gamma_initializer": {"class_name": "Ones", "config": {}}, "epsilon": 0.001, "axis": 3, "beta_regularizer": null, "beta_constraint": null, "moving_mean_initializer": {"class_name": "Zeros", "config": {}}}}, {"inbound_nodes": [[["batch_normalization_61", 0, 0, {}], ["batch_normalization_64", 0, 0, {}], ["batch_normalization_69", 0, 0, {}], ["batch_normalization_70", 0, 0, {}]]], "class_name": "Concatenate", "name": "mixed7", "config": {"trainable": true, "name": "mixed7", "axis": -1}}, {"inbound_nodes": [[["mixed7", 0, 0, {}]]], "class_name": "Conv2D", "name": "conv2d_73", "config": {"data_format": "channels_last", "name": "conv2d_73", "strides": [1, 1], "dilation_rate": [1, 1], "bias_regularizer": null, "kernel_size": [1, 1], "trainable": true, "activation": "relu", "kernel_initializer": {"class_name": "VarianceScaling", "config": {"mode": "fan_avg", "seed": null, "scale": 1.0, "distribution": "uniform"}}, "bias_constraint": null, "kernel_constraint": null, "use_bias": true, "bias_initializer": {"class_name": "Zeros", "config": {}}, "filters": 96, "kernel_regularizer": null, "padding": "same", "activity_regularizer": null}}, {"inbound_nodes": [[["conv2d_73", 0, 0, {}]]], "class_name": "BatchNormalization", "name": "batch_normalization_73", "config": {"moving_variance_initializer": {"class_name": "Ones", "config": {}}, "name": "batch_normalization_73", "gamma_constraint": null, "gamma_regularizer": null, "momentum": 0.99, "beta_initializer": {"class_name": "Zeros", "config": {}}, "center": true, "scale": true, "trainable": true, "gamma_initializer": {"class_name": "Ones", "config": {}}, "epsilon": 0.001, "axis": 3, "beta_regularizer": null, "beta_constraint": null, "moving_mean_initializer": {"class_name": "Zeros", "config": {}}}}, {"inbound_nodes": [[["batch_normalization_73", 0, 0, {}]]], "class_name": "Conv2D", "name": "conv2d_74", "config": {"data_format": "channels_last", "name": "conv2d_74", "strides": [1, 1], "dilation_rate": [1, 1], "bias_regularizer": null, "kernel_size": [1, 7], "trainable": true, "activation": "relu", "kernel_initializer": {"class_name": "VarianceScaling", "config": {"mode": "fan_avg", "seed": null, "scale": 1.0, "distribution": "uniform"}}, "bias_constraint": null, "kernel_constraint": null, "use_bias": true, "bias_initializer": {"class_name": "Zeros", "config": {}}, "filters": 96, "kernel_regularizer": null, "padding": "same", "activity_regularizer": null}}, {"inbound_nodes": [[["conv2d_74", 0, 0, {}]]], "class_name": "BatchNormalization", "name": "batch_normalization_74", "config": {"moving_variance_initializer": {"class_name": "Ones", "config": {}}, "name": "batch_normalization_74", "gamma_constraint": null, "gamma_regularizer": null, "momentum": 0.99, "beta_initializer": {"class_name": "Zeros", "config": {}}, "center": true, "scale": true, "trainable": true, "gamma_initializer": {"class_name": "Ones", "config": {}}, "epsilon": 0.001, "axis": 3, "beta_regularizer": null, "beta_constraint": null, "moving_mean_initializer": {"class_name": "Zeros", "config": {}}}}, {"inbound_nodes": [[["mixed7", 0, 0, {}]]], "class_name": "Conv2D", "name": "conv2d_71", "config": {"data_format": "channels_last", "name": "conv2d_71", "strides": [1, 1], "dilation_rate": [1, 1], "bias_regularizer": null, "kernel_size": [1, 1], "trainable": true, "activation": "relu", "kernel_initializer": {"class_name": "VarianceScaling", "config": {"mode": "fan_avg", "seed": null, "scale": 1.0, "distribution": "uniform"}}, "bias_constraint": null, "kernel_constraint": null, "use_bias": true, "bias_initializer": {"class_name": "Zeros", "config": {}}, "filters": 96, "kernel_regularizer": null, "padding": "same", "activity_regularizer": null}}, {"inbound_nodes": [[["batch_normalization_74", 0, 0, {}]]], "class_name": "Conv2D", "name": "conv2d_75", "config": {"data_format": "channels_last", "name": "conv2d_75", "strides": [1, 1], "dilation_rate": [1, 1], "bias_regularizer": null, "kernel_size": [7, 1], "trainable": true, "activation": "relu", "kernel_initializer": {"class_name": "VarianceScaling", "config": {"mode": "fan_avg", "seed": null, "scale": 1.0, "distribution": "uniform"}}, "bias_constraint": null, "kernel_constraint": null, "use_bias": true, "bias_initializer": {"class_name": "Zeros", "config": {}}, "filters": 96, "kernel_regularizer": null, "padding": "same", "activity_regularizer": null}}, {"inbound_nodes": [[["conv2d_71", 0, 0, {}]]], "class_name": "BatchNormalization", "name": "batch_normalization_71", "config": {"moving_variance_initializer": {"class_name": "Ones", "config": {}}, "name": "batch_normalization_71", "gamma_constraint": null, "gamma_regularizer": null, "momentum": 0.99, "beta_initializer": {"class_name": "Zeros", "config": {}}, "center": true, "scale": true, "trainable": true, "gamma_initializer": {"class_name": "Ones", "config": {}}, "epsilon": 0.001, "axis": 3, "beta_regularizer": null, "beta_constraint": null, "moving_mean_initializer": {"class_name": "Zeros", "config": {}}}}, {"inbound_nodes": [[["conv2d_75", 0, 0, {}]]], "class_name": "BatchNormalization", "name": "batch_normalization_75", "config": {"moving_variance_initializer": {"class_name": "Ones", "config": {}}, "name": "batch_normalization_75", "gamma_constraint": null, "gamma_regularizer": null, "momentum": 0.99, "beta_initializer": {"class_name": "Zeros", "config": {}}, "center": true, "scale": true, "trainable": true, "gamma_initializer": {"class_name": "Ones", "config": {}}, "epsilon": 0.001, "axis": 3, "beta_regularizer": null, "beta_constraint": null, "moving_mean_initializer": {"class_name": "Zeros", "config": {}}}}, {"inbound_nodes": [[["batch_normalization_71", 0, 0, {}]]], "class_name": "Conv2D", "name": "conv2d_72", "config": {"data_format": "channels_last", "name": "conv2d_72", "strides": [2, 2], "dilation_rate": [1, 1], "bias_regularizer": null, "kernel_size": [3, 3], "trainable": true, "activation": "relu", "kernel_initializer": {"class_name": "VarianceScaling", "config": {"mode": "fan_avg", "seed": null, "scale": 1.0, "distribution": "uniform"}}, "bias_constraint": null, "kernel_constraint": null, "use_bias": true, "bias_initializer": {"class_name": "Zeros", "config": {}}, "filters": 160, "kernel_regularizer": null, "padding": "valid", "activity_regularizer": null}}, {"inbound_nodes": [[["batch_normalization_75", 0, 0, {}]]], "class_name": "Conv2D", "name": "conv2d_76", "config": {"data_format": "channels_last", "name": "conv2d_76", "strides": [2, 2], "dilation_rate": [1, 1], "bias_regularizer": null, "kernel_size": [3, 3], "trainable": true, "activation": "relu", "kernel_initializer": {"class_name": "VarianceScaling", "config": {"mode": "fan_avg", "seed": null, "scale": 1.0, "distribution": "uniform"}}, "bias_constraint": null, "kernel_constraint": null, "use_bias": true, "bias_initializer": {"class_name": "Zeros", "config": {}}, "filters": 96, "kernel_regularizer": null, "padding": "valid", "activity_regularizer": null}}, {"inbound_nodes": [[["conv2d_72", 0, 0, {}]]], "class_name": "BatchNormalization", "name": "batch_normalization_72", "config": {"moving_variance_initializer": {"class_name": "Ones", "config": {}}, "name": "batch_normalization_72", "gamma_constraint": null, "gamma_regularizer": null, "momentum": 0.99, "beta_initializer": {"class_name": "Zeros", "config": {}}, "center": true, "scale": true, "trainable": true, "gamma_initializer": {"class_name": "Ones", "config": {}}, "epsilon": 0.001, "axis": 3, "beta_regularizer": null, "beta_constraint": null, "moving_mean_initializer": {"class_name": "Zeros", "config": {}}}}, {"inbound_nodes": [[["conv2d_76", 0, 0, {}]]], "class_name": "BatchNormalization", "name": "batch_normalization_76", "config": {"moving_variance_initializer": {"class_name": "Ones", "config": {}}, "name": "batch_normalization_76", "gamma_constraint": null, "gamma_regularizer": null, "momentum": 0.99, "beta_initializer": {"class_name": "Zeros", "config": {}}, "center": true, "scale": true, "trainable": true, "gamma_initializer": {"class_name": "Ones", "config": {}}, "epsilon": 0.001, "axis": 3, "beta_regularizer": null, "beta_constraint": null, "moving_mean_initializer": {"class_name": "Zeros", "config": {}}}}, {"inbound_nodes": [[["mixed7", 0, 0, {}]]], "class_name": "AveragePooling2D", "name": "average_pooling2d_8", "config": {"trainable": true, "data_format": "channels_last", "name": "average_pooling2d_8", "strides": [2, 2], "pool_size": [3, 3], "padding": "valid"}}, {"inbound_nodes": [[["batch_normalization_72", 0, 0, {}], ["batch_normalization_76", 0, 0, {}], ["average_pooling2d_8", 0, 0, {}]]], "class_name": "Concatenate", "name": "mixed8", "config": {"trainable": true, "name": "mixed8", "axis": -1}}, {"inbound_nodes": [[["mixed8", 0, 0, {}]]], "class_name": "Conv2D", "name": "conv2d_81", "config": {"data_format": "channels_last", "name": "conv2d_81", "strides": [1, 1], "dilation_rate": [1, 1], "bias_regularizer": null, "kernel_size": [1, 1], "trainable": true, "activation": "relu", "kernel_initializer": {"class_name": "VarianceScaling", "config": {"mode": "fan_avg", "seed": null, "scale": 1.0, "distribution": "uniform"}}, "bias_constraint": null, "kernel_constraint": null, "use_bias": true, "bias_initializer": {"class_name": "Zeros", "config": {}}, "filters": 224, "kernel_regularizer": null, "padding": "same", "activity_regularizer": null}}, {"inbound_nodes": [[["conv2d_81", 0, 0, {}]]], "class_name": "BatchNormalization", "name": "batch_normalization_81", "config": {"moving_variance_initializer": {"class_name": "Ones", "config": {}}, "name": "batch_normalization_81", "gamma_constraint": null, "gamma_regularizer": null, "momentum": 0.99, "beta_initializer": {"class_name": "Zeros", "config": {}}, "center": true, "scale": true, "trainable": true, "gamma_initializer": {"class_name": "Ones", "config": {}}, "epsilon": 0.001, "axis": 3, "beta_regularizer": null, "beta_constraint": null, "moving_mean_initializer": {"class_name": "Zeros", "config": {}}}}, {"inbound_nodes": [[["mixed8", 0, 0, {}]]], "class_name": "Conv2D", "name": "conv2d_78", "config": {"data_format": "channels_last", "name": "conv2d_78", "strides": [1, 1], "dilation_rate": [1, 1], "bias_regularizer": null, "kernel_size": [1, 1], "trainable": true, "activation": "relu", "kernel_initializer": {"class_name": "VarianceScaling", "config": {"mode": "fan_avg", "seed": null, "scale": 1.0, "distribution": "uniform"}}, "bias_constraint": null, "kernel_constraint": null, "use_bias": true, "bias_initializer": {"class_name": "Zeros", "config": {}}, "filters": 192, "kernel_regularizer": null, "padding": "same", "activity_regularizer": null}}, {"inbound_nodes": [[["batch_normalization_81", 0, 0, {}]]], "class_name": "Conv2D", "name": "conv2d_82", "config": {"data_format": "channels_last", "name": "conv2d_82", "strides": [1, 1], "dilation_rate": [1, 1], "bias_regularizer": null, "kernel_size": [3, 3], "trainable": true, "activation": "relu", "kernel_initializer": {"class_name": "VarianceScaling", "config": {"mode": "fan_avg", "seed": null, "scale": 1.0, "distribution": "uniform"}}, "bias_constraint": null, "kernel_constraint": null, "use_bias": true, "bias_initializer": {"class_name": "Zeros", "config": {}}, "filters": 192, "kernel_regularizer": null, "padding": "same", "activity_regularizer": null}}, {"inbound_nodes": [[["conv2d_78", 0, 0, {}]]], "class_name": "BatchNormalization", "name": "batch_normalization_78", "config": {"moving_variance_initializer": {"class_name": "Ones", "config": {}}, "name": "batch_normalization_78", "gamma_constraint": null, "gamma_regularizer": null, "momentum": 0.99, "beta_initializer": {"class_name": "Zeros", "config": {}}, "center": true, "scale": true, "trainable": true, "gamma_initializer": {"class_name": "Ones", "config": {}}, "epsilon": 0.001, "axis": 3, "beta_regularizer": null, "beta_constraint": null, "moving_mean_initializer": {"class_name": "Zeros", "config": {}}}}, {"inbound_nodes": [[["conv2d_82", 0, 0, {}]]], "class_name": "BatchNormalization", "name": "batch_normalization_82", "config": {"moving_variance_initializer": {"class_name": "Ones", "config": {}}, "name": "batch_normalization_82", "gamma_constraint": null, "gamma_regularizer": null, "momentum": 0.99, "beta_initializer": {"class_name": "Zeros", "config": {}}, "center": true, "scale": true, "trainable": true, "gamma_initializer": {"class_name": "Ones", "config": {}}, "epsilon": 0.001, "axis": 3, "beta_regularizer": null, "beta_constraint": null, "moving_mean_initializer": {"class_name": "Zeros", "config": {}}}}, {"inbound_nodes": [[["batch_normalization_78", 0, 0, {}]]], "class_name": "Conv2D", "name": "conv2d_79", "config": {"data_format": "channels_last", "name": "conv2d_79", "strides": [1, 1], "dilation_rate": [1, 1], "bias_regularizer": null, "kernel_size": [1, 3], "trainable": true, "activation": "relu", "kernel_initializer": {"class_name": "VarianceScaling", "config": {"mode": "fan_avg", "seed": null, "scale": 1.0, "distribution": "uniform"}}, "bias_constraint": null, "kernel_constraint": null, "use_bias": true, "bias_initializer": {"class_name": "Zeros", "config": {}}, "filters": 192, "kernel_regularizer": null, "padding": "same", "activity_regularizer": null}}, {"inbound_nodes": [[["batch_normalization_78", 0, 0, {}]]], "class_name": "Conv2D", "name": "conv2d_80", "config": {"data_format": "channels_last", "name": "conv2d_80", "strides": [1, 1], "dilation_rate": [1, 1], "bias_regularizer": null, "kernel_size": [3, 1], "trainable": true, "activation": "relu", "kernel_initializer": {"class_name": "VarianceScaling", "config": {"mode": "fan_avg", "seed": null, "scale": 1.0, "distribution": "uniform"}}, "bias_constraint": null, "kernel_constraint": null, "use_bias": true, "bias_initializer": {"class_name": "Zeros", "config": {}}, "filters": 192, "kernel_regularizer": null, "padding": "same", "activity_regularizer": null}}, {"inbound_nodes": [[["batch_normalization_82", 0, 0, {}]]], "class_name": "Conv2D", "name": "conv2d_83", "config": {"data_format": "channels_last", "name": "conv2d_83", "strides": [1, 1], "dilation_rate": [1, 1], "bias_regularizer": null, "kernel_size": [1, 3], "trainable": true, "activation": "relu", "kernel_initializer": {"class_name": "VarianceScaling", "config": {"mode": "fan_avg", "seed": null, "scale": 1.0, "distribution": "uniform"}}, "bias_constraint": null, "kernel_constraint": null, "use_bias": true, "bias_initializer": {"class_name": "Zeros", "config": {}}, "filters": 192, "kernel_regularizer": null, "padding": "same", "activity_regularizer": null}}, {"inbound_nodes": [[["batch_normalization_82", 0, 0, {}]]], "class_name": "Conv2D", "name": "conv2d_84", "config": {"data_format": "channels_last", "name": "conv2d_84", "strides": [1, 1], "dilation_rate": [1, 1], "bias_regularizer": null, "kernel_size": [3, 1], "trainable": true, "activation": "relu", "kernel_initializer": {"class_name": "VarianceScaling", "config": {"mode": "fan_avg", "seed": null, "scale": 1.0, "distribution": "uniform"}}, "bias_constraint": null, "kernel_constraint": null, "use_bias": true, "bias_initializer": {"class_name": "Zeros", "config": {}}, "filters": 192, "kernel_regularizer": null, "padding": "same", "activity_regularizer": null}}, {"inbound_nodes": [[["mixed8", 0, 0, {}]]], "class_name": "AveragePooling2D", "name": "average_pooling2d_9", "config": {"trainable": true, "data_format": "channels_last", "name": "average_pooling2d_9", "strides": [1, 1], "pool_size": [3, 3], "padding": "same"}}, {"inbound_nodes": [[["mixed8", 0, 0, {}]]], "class_name": "Conv2D", "name": "conv2d_77", "config": {"data_format": "channels_last", "name": "conv2d_77", "strides": [1, 1], "dilation_rate": [1, 1], "bias_regularizer": null, "kernel_size": [1, 1], "trainable": true, "activation": "relu", "kernel_initializer": {"class_name": "VarianceScaling", "config": {"mode": "fan_avg", "seed": null, "scale": 1.0, "distribution": "uniform"}}, "bias_constraint": null, "kernel_constraint": null, "use_bias": true, "bias_initializer": {"class_name": "Zeros", "config": {}}, "filters": 160, "kernel_regularizer": null, "padding": "same", "activity_regularizer": null}}, {"inbound_nodes": [[["conv2d_79", 0, 0, {}]]], "class_name": "BatchNormalization", "name": "batch_normalization_79", "config": {"moving_variance_initializer": {"class_name": "Ones", "config": {}}, "name": "batch_normalization_79", "gamma_constraint": null, "gamma_regularizer": null, "momentum": 0.99, "beta_initializer": {"class_name": "Zeros", "config": {}}, "center": true, "scale": true, "trainable": true, "gamma_initializer": {"class_name": "Ones", "config": {}}, "epsilon": 0.001, "axis": 3, "beta_regularizer": null, "beta_constraint": null, "moving_mean_initializer": {"class_name": "Zeros", "config": {}}}}, {"inbound_nodes": [[["conv2d_80", 0, 0, {}]]], "class_name": "BatchNormalization", "name": "batch_normalization_80", "config": {"moving_variance_initializer": {"class_name": "Ones", "config": {}}, "name": "batch_normalization_80", "gamma_constraint": null, "gamma_regularizer": null, "momentum": 0.99, "beta_initializer": {"class_name": "Zeros", "config": {}}, "center": true, "scale": true, "trainable": true, "gamma_initializer": {"class_name": "Ones", "config": {}}, "epsilon": 0.001, "axis": 3, "beta_regularizer": null, "beta_constraint": null, "moving_mean_initializer": {"class_name": "Zeros", "config": {}}}}, {"inbound_nodes": [[["conv2d_83", 0, 0, {}]]], "class_name": "BatchNormalization", "name": "batch_normalization_83", "config": {"moving_variance_initializer": {"class_name": "Ones", "config": {}}, "name": "batch_normalization_83", "gamma_constraint": null, "gamma_regularizer": null, "momentum": 0.99, "beta_initializer": {"class_name": "Zeros", "config": {}}, "center": true, "scale": true, "trainable": true, "gamma_initializer": {"class_name": "Ones", "config": {}}, "epsilon": 0.001, "axis": 3, "beta_regularizer": null, "beta_constraint": null, "moving_mean_initializer": {"class_name": "Zeros", "config": {}}}}, {"inbound_nodes": [[["conv2d_84", 0, 0, {}]]], "class_name": "BatchNormalization", "name": "batch_normalization_84", "config": {"moving_variance_initializer": {"class_name": "Ones", "config": {}}, "name": "batch_normalization_84", "gamma_constraint": null, "gamma_regularizer": null, "momentum": 0.99, "beta_initializer": {"class_name": "Zeros", "config": {}}, "center": true, "scale": true, "trainable": true, "gamma_initializer": {"class_name": "Ones", "config": {}}, "epsilon": 0.001, "axis": 3, "beta_regularizer": null, "beta_constraint": null, "moving_mean_initializer": {"class_name": "Zeros", "config": {}}}}, {"inbound_nodes": [[["average_pooling2d_9", 0, 0, {}]]], "class_name": "Conv2D", "name": "conv2d_85", "config": {"data_format": "channels_last", "name": "conv2d_85", "strides": [1, 1], "dilation_rate": [1, 1], "bias_regularizer": null, "kernel_size": [1, 1], "trainable": true, "activation": "relu", "kernel_initializer": {"class_name": "VarianceScaling", "config": {"mode": "fan_avg", "seed": null, "scale": 1.0, "distribution": "uniform"}}, "bias_constraint": null, "kernel_constraint": null, "use_bias": true, "bias_initializer": {"class_name": "Zeros", "config": {}}, "filters": 96, "kernel_regularizer": null, "padding": "same", "activity_regularizer": null}}, {"inbound_nodes": [[["conv2d_77", 0, 0, {}]]], "class_name": "BatchNormalization", "name": "batch_normalization_77", "config": {"moving_variance_initializer": {"class_name": "Ones", "config": {}}, "name": "batch_normalization_77", "gamma_constraint": null, "gamma_regularizer": null, "momentum": 0.99, "beta_initializer": {"class_name": "Zeros", "config": {}}, "center": true, "scale": true, "trainable": true, "gamma_initializer": {"class_name": "Ones", "config": {}}, "epsilon": 0.001, "axis": 3, "beta_regularizer": null, "beta_constraint": null, "moving_mean_initializer": {"class_name": "Zeros", "config": {}}}}, {"inbound_nodes": [[["batch_normalization_79", 0, 0, {}], ["batch_normalization_80", 0, 0, {}]]], "class_name": "Concatenate", "name": "mixed9_0", "config": {"trainable": true, "name": "mixed9_0", "axis": -1}}, {"inbound_nodes": [[["batch_normalization_83", 0, 0, {}], ["batch_normalization_84", 0, 0, {}]]], "class_name": "Concatenate", "name": "concatenate_1", "config": {"trainable": true, "name": "concatenate_1", "axis": -1}}, {"inbound_nodes": [[["conv2d_85", 0, 0, {}]]], "class_name": "BatchNormalization", "name": "batch_normalization_85", "config": {"moving_variance_initializer": {"class_name": "Ones", "config": {}}, "name": "batch_normalization_85", "gamma_constraint": null, "gamma_regularizer": null, "momentum": 0.99, "beta_initializer": {"class_name": "Zeros", "config": {}}, "center": true, "scale": true, "trainable": true, "gamma_initializer": {"class_name": "Ones", "config": {}}, "epsilon": 0.001, "axis": 3, "beta_regularizer": null, "beta_constraint": null, "moving_mean_initializer": {"class_name": "Zeros", "config": {}}}}, {"inbound_nodes": [[["batch_normalization_77", 0, 0, {}], ["mixed9_0", 0, 0, {}], ["concatenate_1", 0, 0, {}], ["batch_normalization_85", 0, 0, {}]]], "class_name": "Concatenate", "name": "mixed9", "config": {"trainable": true, "name": "mixed9", "axis": -1}}, {"inbound_nodes": [[["mixed9", 0, 0, {}]]], "class_name": "Conv2D", "name": "conv2d_90", "config": {"data_format": "channels_last", "name": "conv2d_90", "strides": [1, 1], "dilation_rate": [1, 1], "bias_regularizer": null, "kernel_size": [1, 1], "trainable": true, "activation": "relu", "kernel_initializer": {"class_name": "VarianceScaling", "config": {"mode": "fan_avg", "seed": null, "scale": 1.0, "distribution": "uniform"}}, "bias_constraint": null, "kernel_constraint": null, "use_bias": true, "bias_initializer": {"class_name": "Zeros", "config": {}}, "filters": 224, "kernel_regularizer": null, "padding": "same", "activity_regularizer": null}}, {"inbound_nodes": [[["conv2d_90", 0, 0, {}]]], "class_name": "BatchNormalization", "name": "batch_normalization_90", "config": {"moving_variance_initializer": {"class_name": "Ones", "config": {}}, "name": "batch_normalization_90", "gamma_constraint": null, "gamma_regularizer": null, "momentum": 0.99, "beta_initializer": {"class_name": "Zeros", "config": {}}, "center": true, "scale": true, "trainable": true, "gamma_initializer": {"class_name": "Ones", "config": {}}, "epsilon": 0.001, "axis": 3, "beta_regularizer": null, "beta_constraint": null, "moving_mean_initializer": {"class_name": "Zeros", "config": {}}}}, {"inbound_nodes": [[["mixed9", 0, 0, {}]]], "class_name": "Conv2D", "name": "conv2d_87", "config": {"data_format": "channels_last", "name": "conv2d_87", "strides": [1, 1], "dilation_rate": [1, 1], "bias_regularizer": null, "kernel_size": [1, 1], "trainable": true, "activation": "relu", "kernel_initializer": {"class_name": "VarianceScaling", "config": {"mode": "fan_avg", "seed": null, "scale": 1.0, "distribution": "uniform"}}, "bias_constraint": null, "kernel_constraint": null, "use_bias": true, "bias_initializer": {"class_name": "Zeros", "config": {}}, "filters": 192, "kernel_regularizer": null, "padding": "same", "activity_regularizer": null}}, {"inbound_nodes": [[["batch_normalization_90", 0, 0, {}]]], "class_name": "Conv2D", "name": "conv2d_91", "config": {"data_format": "channels_last", "name": "conv2d_91", "strides": [1, 1], "dilation_rate": [1, 1], "bias_regularizer": null, "kernel_size": [3, 3], "trainable": true, "activation": "relu", "kernel_initializer": {"class_name": "VarianceScaling", "config": {"mode": "fan_avg", "seed": null, "scale": 1.0, "distribution": "uniform"}}, "bias_constraint": null, "kernel_constraint": null, "use_bias": true, "bias_initializer": {"class_name": "Zeros", "config": {}}, "filters": 192, "kernel_regularizer": null, "padding": "same", "activity_regularizer": null}}, {"inbound_nodes": [[["conv2d_87", 0, 0, {}]]], "class_name": "BatchNormalization", "name": "batch_normalization_87", "config": {"moving_variance_initializer": {"class_name": "Ones", "config": {}}, "name": "batch_normalization_87", "gamma_constraint": null, "gamma_regularizer": null, "momentum": 0.99, "beta_initializer": {"class_name": "Zeros", "config": {}}, "center": true, "scale": true, "trainable": true, "gamma_initializer": {"class_name": "Ones", "config": {}}, "epsilon": 0.001, "axis": 3, "beta_regularizer": null, "beta_constraint": null, "moving_mean_initializer": {"class_name": "Zeros", "config": {}}}}, {"inbound_nodes": [[["conv2d_91", 0, 0, {}]]], "class_name": "BatchNormalization", "name": "batch_normalization_91", "config": {"moving_variance_initializer": {"class_name": "Ones", "config": {}}, "name": "batch_normalization_91", "gamma_constraint": null, "gamma_regularizer": null, "momentum": 0.99, "beta_initializer": {"class_name": "Zeros", "config": {}}, "center": true, "scale": true, "trainable": true, "gamma_initializer": {"class_name": "Ones", "config": {}}, "epsilon": 0.001, "axis": 3, "beta_regularizer": null, "beta_constraint": null, "moving_mean_initializer": {"class_name": "Zeros", "config": {}}}}, {"inbound_nodes": [[["batch_normalization_87", 0, 0, {}]]], "class_name": "Conv2D", "name": "conv2d_88", "config": {"data_format": "channels_last", "name": "conv2d_88", "strides": [1, 1], "dilation_rate": [1, 1], "bias_regularizer": null, "kernel_size": [1, 3], "trainable": true, "activation": "relu", "kernel_initializer": {"class_name": "VarianceScaling", "config": {"mode": "fan_avg", "seed": null, "scale": 1.0, "distribution": "uniform"}}, "bias_constraint": null, "kernel_constraint": null, "use_bias": true, "bias_initializer": {"class_name": "Zeros", "config": {}}, "filters": 192, "kernel_regularizer": null, "padding": "same", "activity_regularizer": null}}, {"inbound_nodes": [[["batch_normalization_87", 0, 0, {}]]], "class_name": "Conv2D", "name": "conv2d_89", "config": {"data_format": "channels_last", "name": "conv2d_89", "strides": [1, 1], "dilation_rate": [1, 1], "bias_regularizer": null, "kernel_size": [3, 1], "trainable": true, "activation": "relu", "kernel_initializer": {"class_name": "VarianceScaling", "config": {"mode": "fan_avg", "seed": null, "scale": 1.0, "distribution": "uniform"}}, "bias_constraint": null, "kernel_constraint": null, "use_bias": true, "bias_initializer": {"class_name": "Zeros", "config": {}}, "filters": 192, "kernel_regularizer": null, "padding": "same", "activity_regularizer": null}}, {"inbound_nodes": [[["batch_normalization_91", 0, 0, {}]]], "class_name": "Conv2D", "name": "conv2d_92", "config": {"data_format": "channels_last", "name": "conv2d_92", "strides": [1, 1], "dilation_rate": [1, 1], "bias_regularizer": null, "kernel_size": [1, 3], "trainable": true, "activation": "relu", "kernel_initializer": {"class_name": "VarianceScaling", "config": {"mode": "fan_avg", "seed": null, "scale": 1.0, "distribution": "uniform"}}, "bias_constraint": null, "kernel_constraint": null, "use_bias": true, "bias_initializer": {"class_name": "Zeros", "config": {}}, "filters": 192, "kernel_regularizer": null, "padding": "same", "activity_regularizer": null}}, {"inbound_nodes": [[["batch_normalization_91", 0, 0, {}]]], "class_name": "Conv2D", "name": "conv2d_93", "config": {"data_format": "channels_last", "name": "conv2d_93", "strides": [1, 1], "dilation_rate": [1, 1], "bias_regularizer": null, "kernel_size": [3, 1], "trainable": true, "activation": "relu", "kernel_initializer": {"class_name": "VarianceScaling", "config": {"mode": "fan_avg", "seed": null, "scale": 1.0, "distribution": "uniform"}}, "bias_constraint": null, "kernel_constraint": null, "use_bias": true, "bias_initializer": {"class_name": "Zeros", "config": {}}, "filters": 192, "kernel_regularizer": null, "padding": "same", "activity_regularizer": null}}, {"inbound_nodes": [[["mixed9", 0, 0, {}]]], "class_name": "AveragePooling2D", "name": "average_pooling2d_10", "config": {"trainable": true, "data_format": "channels_last", "name": "average_pooling2d_10", "strides": [1, 1], "pool_size": [3, 3], "padding": "same"}}, {"inbound_nodes": [[["mixed9", 0, 0, {}]]], "class_name": "Conv2D", "name": "conv2d_86", "config": {"data_format": "channels_last", "name": "conv2d_86", "strides": [1, 1], "dilation_rate": [1, 1], "bias_regularizer": null, "kernel_size": [1, 1], "trainable": true, "activation": "relu", "kernel_initializer": {"class_name": "VarianceScaling", "config": {"mode": "fan_avg", "seed": null, "scale": 1.0, "distribution": "uniform"}}, "bias_constraint": null, "kernel_constraint": null, "use_bias": true, "bias_initializer": {"class_name": "Zeros", "config": {}}, "filters": 160, "kernel_regularizer": null, "padding": "same", "activity_regularizer": null}}, {"inbound_nodes": [[["conv2d_88", 0, 0, {}]]], "class_name": "BatchNormalization", "name": "batch_normalization_88", "config": {"moving_variance_initializer": {"class_name": "Ones", "config": {}}, "name": "batch_normalization_88", "gamma_constraint": null, "gamma_regularizer": null, "momentum": 0.99, "beta_initializer": {"class_name": "Zeros", "config": {}}, "center": true, "scale": true, "trainable": true, "gamma_initializer": {"class_name": "Ones", "config": {}}, "epsilon": 0.001, "axis": 3, "beta_regularizer": null, "beta_constraint": null, "moving_mean_initializer": {"class_name": "Zeros", "config": {}}}}, {"inbound_nodes": [[["conv2d_89", 0, 0, {}]]], "class_name": "BatchNormalization", "name": "batch_normalization_89", "config": {"moving_variance_initializer": {"class_name": "Ones", "config": {}}, "name": "batch_normalization_89", "gamma_constraint": null, "gamma_regularizer": null, "momentum": 0.99, "beta_initializer": {"class_name": "Zeros", "config": {}}, "center": true, "scale": true, "trainable": true, "gamma_initializer": {"class_name": "Ones", "config": {}}, "epsilon": 0.001, "axis": 3, "beta_regularizer": null, "beta_constraint": null, "moving_mean_initializer": {"class_name": "Zeros", "config": {}}}}, {"inbound_nodes": [[["conv2d_92", 0, 0, {}]]], "class_name": "BatchNormalization", "name": "batch_normalization_92", "config": {"moving_variance_initializer": {"class_name": "Ones", "config": {}}, "name": "batch_normalization_92", "gamma_constraint": null, "gamma_regularizer": null, "momentum": 0.99, "beta_initializer": {"class_name": "Zeros", "config": {}}, "center": true, "scale": true, "trainable": true, "gamma_initializer": {"class_name": "Ones", "config": {}}, "epsilon": 0.001, "axis": 3, "beta_regularizer": null, "beta_constraint": null, "moving_mean_initializer": {"class_name": "Zeros", "config": {}}}}, {"inbound_nodes": [[["conv2d_93", 0, 0, {}]]], "class_name": "BatchNormalization", "name": "batch_normalization_93", "config": {"moving_variance_initializer": {"class_name": "Ones", "config": {}}, "name": "batch_normalization_93", "gamma_constraint": null, "gamma_regularizer": null, "momentum": 0.99, "beta_initializer": {"class_name": "Zeros", "config": {}}, "center": true, "scale": true, "trainable": true, "gamma_initializer": {"class_name": "Ones", "config": {}}, "epsilon": 0.001, "axis": 3, "beta_regularizer": null, "beta_constraint": null, "moving_mean_initializer": {"class_name": "Zeros", "config": {}}}}, {"inbound_nodes": [[["average_pooling2d_10", 0, 0, {}]]], "class_name": "Conv2D", "name": "conv2d_94", "config": {"data_format": "channels_last", "name": "conv2d_94", "strides": [1, 1], "dilation_rate": [1, 1], "bias_regularizer": null, "kernel_size": [1, 1], "trainable": true, "activation": "relu", "kernel_initializer": {"class_name": "VarianceScaling", "config": {"mode": "fan_avg", "seed": null, "scale": 1.0, "distribution": "uniform"}}, "bias_constraint": null, "kernel_constraint": null, "use_bias": true, "bias_initializer": {"class_name": "Zeros", "config": {}}, "filters": 96, "kernel_regularizer": null, "padding": "same", "activity_regularizer": null}}, {"inbound_nodes": [[["conv2d_86", 0, 0, {}]]], "class_name": "BatchNormalization", "name": "batch_normalization_86", "config": {"moving_variance_initializer": {"class_name": "Ones", "config": {}}, "name": "batch_normalization_86", "gamma_constraint": null, "gamma_regularizer": null, "momentum": 0.99, "beta_initializer": {"class_name": "Zeros", "config": {}}, "center": true, "scale": true, "trainable": true, "gamma_initializer": {"class_name": "Ones", "config": {}}, "epsilon": 0.001, "axis": 3, "beta_regularizer": null, "beta_constraint": null, "moving_mean_initializer": {"class_name": "Zeros", "config": {}}}}, {"inbound_nodes": [[["batch_normalization_88", 0, 0, {}], ["batch_normalization_89", 0, 0, {}]]], "class_name": "Concatenate", "name": "mixed9_1", "config": {"trainable": true, "name": "mixed9_1", "axis": -1}}, {"inbound_nodes": [[["batch_normalization_92", 0, 0, {}], ["batch_normalization_93", 0, 0, {}]]], "class_name": "Concatenate", "name": "concatenate_2", "config": {"trainable": true, "name": "concatenate_2", "axis": -1}}, {"inbound_nodes": [[["conv2d_94", 0, 0, {}]]], "class_name": "BatchNormalization", "name": "batch_normalization_94", "config": {"moving_variance_initializer": {"class_name": "Ones", "config": {}}, "name": "batch_normalization_94", "gamma_constraint": null, "gamma_regularizer": null, "momentum": 0.99, "beta_initializer": {"class_name": "Zeros", "config": {}}, "center": true, "scale": true, "trainable": true, "gamma_initializer": {"class_name": "Ones", "config": {}}, "epsilon": 0.001, "axis": 3, "beta_regularizer": null, "beta_constraint": null, "moving_mean_initializer": {"class_name": "Zeros", "config": {}}}}, {"inbound_nodes": [[["batch_normalization_86", 0, 0, {}], ["mixed9_1", 0, 0, {}], ["concatenate_2", 0, 0, {}], ["batch_normalization_94", 0, 0, {}]]], "class_name": "Concatenate", "name": "mixed10", "config": {"trainable": true, "name": "mixed10", "axis": -1}}, {"inbound_nodes": [[["mixed10", 0, 0, {}]]], "class_name": "MaxPooling2D", "name": "end_max_pool", "config": {"trainable": true, "data_format": "channels_last", "name": "end_max_pool", "strides": [2, 2], "pool_size": [2, 2], "padding": "valid"}}, {"inbound_nodes": [[["end_max_pool", 0, 0, {}]]], "class_name": "Flatten", "name": "flatten", "config": {"trainable": true, "name": "flatten"}}, {"inbound_nodes": [[["flatten", 0, 0, {}]]], "class_name": "Dense", "name": "output_layer", "config": {"bias_initializer": {"class_name": "Zeros", "config": {}}, "name": "output_layer", "activity_regularizer": null, "bias_regularizer": null, "trainable": true, "units": 1, "use_bias": true, "bias_constraint": null, "activation": "sigmoid", "kernel_regularizer": null, "kernel_initializer": {"class_name": "VarianceScaling", "config": {"mode": "fan_avg", "seed": null, "scale": 1.0, "distribution": "uniform"}}, "kernel_constraint": null}}], "output_layers": [["output_layer", 0, 0]]}}