{"keras_version": "2.0.6", "config": {"input_layers": [["input_1", 0, 0]], "output_layers": [["output_layer", 0, 0]], "layers": [{"name": "input_1", "config": {"batch_input_shape": [null, 1152, 832, 1], "name": "input_1", "sparse": false, "dtype": "float32"}, "inbound_nodes": [], "class_name": "InputLayer"}, {"name": "conv2d_1", "config": {"data_format": "channels_last", "dilation_rate": [1, 1], "activation": "relu", "filters": 16, "kernel_initializer": {"config": {"seed": null, "distribution": "uniform", "mode": "fan_avg", "scale": 1.0}, "class_name": "VarianceScaling"}, "bias_regularizer": null, "strides": [2, 2], "padding": "valid", "kernel_constraint": null, "kernel_regularizer": null, "name": "conv2d_1", "use_bias": true, "kernel_size": [3, 3], "activity_regularizer": null, "trainable": true, "bias_initializer": {"config": {}, "class_name": "Zeros"}, "bias_constraint": null}, "inbound_nodes": [[["input_1", 0, 0, {}]]], "class_name": "Conv2D"}, {"name": "batch_normalization_1", "config": {"moving_variance_initializer": {"config": {}, "class_name": "Ones"}, "gamma_regularizer": null, "momentum": 0.99, "beta_constraint": null, "beta_regularizer": null, "name": "batch_normalization_1", "gamma_constraint": null, "epsilon": 0.001, "moving_mean_initializer": {"config": {}, "class_name": "Zeros"}, "gamma_initializer": {"config": {}, "class_name": "Ones"}, "trainable": true, "beta_initializer": {"config": {}, "class_name": "Zeros"}, "axis": 3, "scale": true, "center": true}, "inbound_nodes": [[["conv2d_1", 0, 0, {}]]], "class_name": "BatchNormalization"}, {"name": "conv2d_2", "config": {"data_format": "channels_last", "dilation_rate": [1, 1], "activation": "relu", "filters": 16, "kernel_initializer": {"config": {"seed": null, "distribution": "uniform", "mode": "fan_avg", "scale": 1.0}, "class_name": "VarianceScaling"}, "bias_regularizer": null, "strides": [1, 1], "padding": "valid", "kernel_constraint": null, "kernel_regularizer": null, "name": "conv2d_2", "use_bias": true, "kernel_size": [3, 3], "activity_regularizer": null, "trainable": true, "bias_initializer": {"config": {}, "class_name": "Zeros"}, "bias_constraint": null}, "inbound_nodes": [[["batch_normalization_1", 0, 0, {}]]], "class_name": "Conv2D"}, {"name": "batch_normalization_2", "config": {"moving_variance_initializer": {"config": {}, "class_name": "Ones"}, "gamma_regularizer": null, "momentum": 0.99, "beta_constraint": null, "beta_regularizer": null, "name": "batch_normalization_2", "gamma_constraint": null, "epsilon": 0.001, "moving_mean_initializer": {"config": {}, "class_name": "Zeros"}, "gamma_initializer": {"config": {}, "class_name": "Ones"}, "trainable": true, "beta_initializer": {"config": {}, "class_name": "Zeros"}, "axis": 3, "scale": true, "center": true}, "inbound_nodes": [[["conv2d_2", 0, 0, {}]]], "class_name": "BatchNormalization"}, {"name": "conv2d_3", "config": {"data_format": "channels_last", "dilation_rate": [1, 1], "activation": "relu", "filters": 32, "kernel_initializer": {"config": {"seed": null, "distribution": "uniform", "mode": "fan_avg", "scale": 1.0}, "class_name": "VarianceScaling"}, "bias_regularizer": null, "strides": [1, 1], "padding": "same", "kernel_constraint": null, "kernel_regularizer": null, "name": "conv2d_3", "use_bias": true, "kernel_size": [3, 3], "activity_regularizer": null, "trainable": true, "bias_initializer": {"config": {}, "class_name": "Zeros"}, "bias_constraint": null}, "inbound_nodes": [[["batch_normalization_2", 0, 0, {}]]], "class_name": "Conv2D"}, {"name": "batch_normalization_3", "config": {"moving_variance_initializer": {"config": {}, "class_name": "Ones"}, "gamma_regularizer": null, "momentum": 0.99, "beta_constraint": null, "beta_regularizer": null, "name": "batch_normalization_3", "gamma_constraint": null, "epsilon": 0.001, "moving_mean_initializer": {"config": {}, "class_name": "Zeros"}, "gamma_initializer": {"config": {}, "class_name": "Ones"}, "trainable": true, "beta_initializer": {"config": {}, "class_name": "Zeros"}, "axis": 3, "scale": true, "center": true}, "inbound_nodes": [[["conv2d_3", 0, 0, {}]]], "class_name": "BatchNormalization"}, {"name": "max_pooling2d_1", "config": {"name": "max_pooling2d_1", "pool_size": [3, 3], "data_format": "channels_last", "trainable": true, "padding": "valid", "strides": [2, 2]}, "inbound_nodes": [[["batch_normalization_3", 0, 0, {}]]], "class_name": "MaxPooling2D"}, {"name": "conv2d_4", "config": {"data_format": "channels_last", "dilation_rate": [1, 1], "activation": "relu", "filters": 40, "kernel_initializer": {"config": {"seed": null, "distribution": "uniform", "mode": "fan_avg", "scale": 1.0}, "class_name": "VarianceScaling"}, "bias_regularizer": null, "strides": [1, 1], "padding": "valid", "kernel_constraint": null, "kernel_regularizer": null, "name": "conv2d_4", "use_bias": true, "kernel_size": [1, 1], "activity_regularizer": null, "trainable": true, "bias_initializer": {"config": {}, "class_name": "Zeros"}, "bias_constraint": null}, "inbound_nodes": [[["max_pooling2d_1", 0, 0, {}]]], "class_name": "Conv2D"}, {"name": "batch_normalization_4", "config": {"moving_variance_initializer": {"config": {}, "class_name": "Ones"}, "gamma_regularizer": null, "momentum": 0.99, "beta_constraint": null, "beta_regularizer": null, "name": "batch_normalization_4", "gamma_constraint": null, "epsilon": 0.001, "moving_mean_initializer": {"config": {}, "class_name": "Zeros"}, "gamma_initializer": {"config": {}, "class_name": "Ones"}, "trainable": true, "beta_initializer": {"config": {}, "class_name": "Zeros"}, "axis": 3, "scale": true, "center": true}, "inbound_nodes": [[["conv2d_4", 0, 0, {}]]], "class_name": "BatchNormalization"}, {"name": "conv2d_5", "config": {"data_format": "channels_last", "dilation_rate": [1, 1], "activation": "relu", "filters": 96, "kernel_initializer": {"config": {"seed": null, "distribution": "uniform", "mode": "fan_avg", "scale": 1.0}, "class_name": "VarianceScaling"}, "bias_regularizer": null, "strides": [1, 1], "padding": "valid", "kernel_constraint": null, "kernel_regularizer": null, "name": "conv2d_5", "use_bias": true, "kernel_size": [3, 3], "activity_regularizer": null, "trainable": true, "bias_initializer": {"config": {}, "class_name": "Zeros"}, "bias_constraint": null}, "inbound_nodes": [[["batch_normalization_4", 0, 0, {}]]], "class_name": "Conv2D"}, {"name": "batch_normalization_5", "config": {"moving_variance_initializer": {"config": {}, "class_name": "Ones"}, "gamma_regularizer": null, "momentum": 0.99, "beta_constraint": null, "beta_regularizer": null, "name": "batch_normalization_5", "gamma_constraint": null, "epsilon": 0.001, "moving_mean_initializer": {"config": {}, "class_name": "Zeros"}, "gamma_initializer": {"config": {}, "class_name": "Ones"}, "trainable": true, "beta_initializer": {"config": {}, "class_name": "Zeros"}, "axis": 3, "scale": true, "center": true}, "inbound_nodes": [[["conv2d_5", 0, 0, {}]]], "class_name": "BatchNormalization"}, {"name": "max_pooling2d_2", "config": {"name": "max_pooling2d_2", "pool_size": [3, 3], "data_format": "channels_last", "trainable": true, "padding": "valid", "strides": [2, 2]}, "inbound_nodes": [[["batch_normalization_5", 0, 0, {}]]], "class_name": "MaxPooling2D"}, {"name": "conv2d_9", "config": {"data_format": "channels_last", "dilation_rate": [1, 1], "activation": "relu", "filters": 32, "kernel_initializer": {"config": {"seed": null, "distribution": "uniform", "mode": "fan_avg", "scale": 1.0}, "class_name": "VarianceScaling"}, "bias_regularizer": null, "strides": [1, 1], "padding": "same", "kernel_constraint": null, "kernel_regularizer": null, "name": "conv2d_9", "use_bias": true, "kernel_size": [1, 1], "activity_regularizer": null, "trainable": true, "bias_initializer": {"config": {}, "class_name": "Zeros"}, "bias_constraint": null}, "inbound_nodes": [[["max_pooling2d_2", 0, 0, {}]]], "class_name": "Conv2D"}, {"name": "batch_normalization_9", "config": {"moving_variance_initializer": {"config": {}, "class_name": "Ones"}, "gamma_regularizer": null, "momentum": 0.99, "beta_constraint": null, "beta_regularizer": null, "name": "batch_normalization_9", "gamma_constraint": null, "epsilon": 0.001, "moving_mean_initializer": {"config": {}, "class_name": "Zeros"}, "gamma_initializer": {"config": {}, "class_name": "Ones"}, "trainable": true, "beta_initializer": {"config": {}, "class_name": "Zeros"}, "axis": 3, "scale": true, "center": true}, "inbound_nodes": [[["conv2d_9", 0, 0, {}]]], "class_name": "BatchNormalization"}, {"name": "conv2d_7", "config": {"data_format": "channels_last", "dilation_rate": [1, 1], "activation": "relu", "filters": 24, "kernel_initializer": {"config": {"seed": null, "distribution": "uniform", "mode": "fan_avg", "scale": 1.0}, "class_name": "VarianceScaling"}, "bias_regularizer": null, "strides": [1, 1], "padding": "same", "kernel_constraint": null, "kernel_regularizer": null, "name": "conv2d_7", "use_bias": true, "kernel_size": [1, 1], "activity_regularizer": null, "trainable": true, "bias_initializer": {"config": {}, "class_name": "Zeros"}, "bias_constraint": null}, "inbound_nodes": [[["max_pooling2d_2", 0, 0, {}]]], "class_name": "Conv2D"}, {"name": "conv2d_10", "config": {"data_format": "channels_last", "dilation_rate": [1, 1], "activation": "relu", "filters": 48, "kernel_initializer": {"config": {"seed": null, "distribution": "uniform", "mode": "fan_avg", "scale": 1.0}, "class_name": "VarianceScaling"}, "bias_regularizer": null, "strides": [1, 1], "padding": "same", "kernel_constraint": null, "kernel_regularizer": null, "name": "conv2d_10", "use_bias": true, "kernel_size": [3, 3], "activity_regularizer": null, "trainable": true, "bias_initializer": {"config": {}, "class_name": "Zeros"}, "bias_constraint": null}, "inbound_nodes": [[["batch_normalization_9", 0, 0, {}]]], "class_name": "Conv2D"}, {"name": "batch_normalization_7", "config": {"moving_variance_initializer": {"config": {}, "class_name": "Ones"}, "gamma_regularizer": null, "momentum": 0.99, "beta_constraint": null, "beta_regularizer": null, "name": "batch_normalization_7", "gamma_constraint": null, "epsilon": 0.001, "moving_mean_initializer": {"config": {}, "class_name": "Zeros"}, "gamma_initializer": {"config": {}, "class_name": "Ones"}, "trainable": true, "beta_initializer": {"config": {}, "class_name": "Zeros"}, "axis": 3, "scale": true, "center": true}, "inbound_nodes": [[["conv2d_7", 0, 0, {}]]], "class_name": "BatchNormalization"}, {"name": "batch_normalization_10", "config": {"moving_variance_initializer": {"config": {}, "class_name": "Ones"}, "gamma_regularizer": null, "momentum": 0.99, "beta_constraint": null, "beta_regularizer": null, "name": "batch_normalization_10", "gamma_constraint": null, "epsilon": 0.001, "moving_mean_initializer": {"config": {}, "class_name": "Zeros"}, "gamma_initializer": {"config": {}, "class_name": "Ones"}, "trainable": true, "beta_initializer": {"config": {}, "class_name": "Zeros"}, "axis": 3, "scale": true, "center": true}, "inbound_nodes": [[["conv2d_10", 0, 0, {}]]], "class_name": "BatchNormalization"}, {"name": "average_pooling2d_1", "config": {"name": "average_pooling2d_1", "pool_size": [3, 3], "data_format": "channels_last", "trainable": true, "padding": "same", "strides": [1, 1]}, "inbound_nodes": [[["max_pooling2d_2", 0, 0, {}]]], "class_name": "AveragePooling2D"}, {"name": "conv2d_6", "config": {"data_format": "channels_last", "dilation_rate": [1, 1], "activation": "relu", "filters": 32, "kernel_initializer": {"config": {"seed": null, "distribution": "uniform", "mode": "fan_avg", "scale": 1.0}, "class_name": "VarianceScaling"}, "bias_regularizer": null, "strides": [1, 1], "padding": "same", "kernel_constraint": null, "kernel_regularizer": null, "name": "conv2d_6", "use_bias": true, "kernel_size": [1, 1], "activity_regularizer": null, "trainable": true, "bias_initializer": {"config": {}, "class_name": "Zeros"}, "bias_constraint": null}, "inbound_nodes": [[["max_pooling2d_2", 0, 0, {}]]], "class_name": "Conv2D"}, {"name": "conv2d_8", "config": {"data_format": "channels_last", "dilation_rate": [1, 1], "activation": "relu", "filters": 32, "kernel_initializer": {"config": {"seed": null, "distribution": "uniform", "mode": "fan_avg", "scale": 1.0}, "class_name": "VarianceScaling"}, "bias_regularizer": null, "strides": [1, 1], "padding": "same", "kernel_constraint": null, "kernel_regularizer": null, "name": "conv2d_8", "use_bias": true, "kernel_size": [5, 5], "activity_regularizer": null, "trainable": true, "bias_initializer": {"config": {}, "class_name": "Zeros"}, "bias_constraint": null}, "inbound_nodes": [[["batch_normalization_7", 0, 0, {}]]], "class_name": "Conv2D"}, {"name": "conv2d_11", "config": {"data_format": "channels_last", "dilation_rate": [1, 1], "activation": "relu", "filters": 48, "kernel_initializer": {"config": {"seed": null, "distribution": "uniform", "mode": "fan_avg", "scale": 1.0}, "class_name": "VarianceScaling"}, "bias_regularizer": null, "strides": [1, 1], "padding": "same", "kernel_constraint": null, "kernel_regularizer": null, "name": "conv2d_11", "use_bias": true, "kernel_size": [3, 3], "activity_regularizer": null, "trainable": true, "bias_initializer": {"config": {}, "class_name": "Zeros"}, "bias_constraint": null}, "inbound_nodes": [[["batch_normalization_10", 0, 0, {}]]], "class_name": "Conv2D"}, {"name": "conv2d_12", "config": {"data_format": "channels_last", "dilation_rate": [1, 1], "activation": "relu", "filters": 16, "kernel_initializer": {"config": {"seed": null, "distribution": "uniform", "mode": "fan_avg", "scale": 1.0}, "class_name": "VarianceScaling"}, "bias_regularizer": null, "strides": [1, 1], "padding": "same", "kernel_constraint": null, "kernel_regularizer": null, "name": "conv2d_12", "use_bias": true, "kernel_size": [1, 1], "activity_regularizer": null, "trainable": true, "bias_initializer": {"config": {}, "class_name": "Zeros"}, "bias_constraint": null}, "inbound_nodes": [[["average_pooling2d_1", 0, 0, {}]]], "class_name": "Conv2D"}, {"name": "batch_normalization_6", "config": {"moving_variance_initializer": {"config": {}, "class_name": "Ones"}, "gamma_regularizer": null, "momentum": 0.99, "beta_constraint": null, "beta_regularizer": null, "name": "batch_normalization_6", "gamma_constraint": null, "epsilon": 0.001, "moving_mean_initializer": {"config": {}, "class_name": "Zeros"}, "gamma_initializer": {"config": {}, "class_name": "Ones"}, "trainable": true, "beta_initializer": {"config": {}, "class_name": "Zeros"}, "axis": 3, "scale": true, "center": true}, "inbound_nodes": [[["conv2d_6", 0, 0, {}]]], "class_name": "BatchNormalization"}, {"name": "batch_normalization_8", "config": {"moving_variance_initializer": {"config": {}, "class_name": "Ones"}, "gamma_regularizer": null, "momentum": 0.99, "beta_constraint": null, "beta_regularizer": null, "name": "batch_normalization_8", "gamma_constraint": null, "epsilon": 0.001, "moving_mean_initializer": {"config": {}, "class_name": "Zeros"}, "gamma_initializer": {"config": {}, "class_name": "Ones"}, "trainable": true, "beta_initializer": {"config": {}, "class_name": "Zeros"}, "axis": 3, "scale": true, "center": true}, "inbound_nodes": [[["conv2d_8", 0, 0, {}]]], "class_name": "BatchNormalization"}, {"name": "batch_normalization_11", "config": {"moving_variance_initializer": {"config": {}, "class_name": "Ones"}, "gamma_regularizer": null, "momentum": 0.99, "beta_constraint": null, "beta_regularizer": null, "name": "batch_normalization_11", "gamma_constraint": null, "epsilon": 0.001, "moving_mean_initializer": {"config": {}, "class_name": "Zeros"}, "gamma_initializer": {"config": {}, "class_name": "Ones"}, "trainable": true, "beta_initializer": {"config": {}, "class_name": "Zeros"}, "axis": 3, "scale": true, "center": true}, "inbound_nodes": [[["conv2d_11", 0, 0, {}]]], "class_name": "BatchNormalization"}, {"name": "batch_normalization_12", "config": {"moving_variance_initializer": {"config": {}, "class_name": "Ones"}, "gamma_regularizer": null, "momentum": 0.99, "beta_constraint": null, "beta_regularizer": null, "name": "batch_normalization_12", "gamma_constraint": null, "epsilon": 0.001, "moving_mean_initializer": {"config": {}, "class_name": "Zeros"}, "gamma_initializer": {"config": {}, "class_name": "Ones"}, "trainable": true, "beta_initializer": {"config": {}, "class_name": "Zeros"}, "axis": 3, "scale": true, "center": true}, "inbound_nodes": [[["conv2d_12", 0, 0, {}]]], "class_name": "BatchNormalization"}, {"name": "mixed0", "config": {"name": "mixed0", "trainable": true, "axis": -1}, "inbound_nodes": [[["batch_normalization_6", 0, 0, {}], ["batch_normalization_8", 0, 0, {}], ["batch_normalization_11", 0, 0, {}], ["batch_normalization_12", 0, 0, {}]]], "class_name": "Concatenate"}, {"name": "conv2d_16", "config": {"data_format": "channels_last", "dilation_rate": [1, 1], "activation": "relu", "filters": 32, "kernel_initializer": {"config": {"seed": null, "distribution": "uniform", "mode": "fan_avg", "scale": 1.0}, "class_name": "VarianceScaling"}, "bias_regularizer": null, "strides": [1, 1], "padding": "same", "kernel_constraint": null, "kernel_regularizer": null, "name": "conv2d_16", "use_bias": true, "kernel_size": [1, 1], "activity_regularizer": null, "trainable": true, "bias_initializer": {"config": {}, "class_name": "Zeros"}, "bias_constraint": null}, "inbound_nodes": [[["mixed0", 0, 0, {}]]], "class_name": "Conv2D"}, {"name": "batch_normalization_16", "config": {"moving_variance_initializer": {"config": {}, "class_name": "Ones"}, "gamma_regularizer": null, "momentum": 0.99, "beta_constraint": null, "beta_regularizer": null, "name": "batch_normalization_16", "gamma_constraint": null, "epsilon": 0.001, "moving_mean_initializer": {"config": {}, "class_name": "Zeros"}, "gamma_initializer": {"config": {}, "class_name": "Ones"}, "trainable": true, "beta_initializer": {"config": {}, "class_name": "Zeros"}, "axis": 3, "scale": true, "center": true}, "inbound_nodes": [[["conv2d_16", 0, 0, {}]]], "class_name": "BatchNormalization"}, {"name": "conv2d_14", "config": {"data_format": "channels_last", "dilation_rate": [1, 1], "activation": "relu", "filters": 24, "kernel_initializer": {"config": {"seed": null, "distribution": "uniform", "mode": "fan_avg", "scale": 1.0}, "class_name": "VarianceScaling"}, "bias_regularizer": null, "strides": [1, 1], "padding": "same", "kernel_constraint": null, "kernel_regularizer": null, "name": "conv2d_14", "use_bias": true, "kernel_size": [1, 1], "activity_regularizer": null, "trainable": true, "bias_initializer": {"config": {}, "class_name": "Zeros"}, "bias_constraint": null}, "inbound_nodes": [[["mixed0", 0, 0, {}]]], "class_name": "Conv2D"}, {"name": "conv2d_17", "config": {"data_format": "channels_last", "dilation_rate": [1, 1], "activation": "relu", "filters": 48, "kernel_initializer": {"config": {"seed": null, "distribution": "uniform", "mode": "fan_avg", "scale": 1.0}, "class_name": "VarianceScaling"}, "bias_regularizer": null, "strides": [1, 1], "padding": "same", "kernel_constraint": null, "kernel_regularizer": null, "name": "conv2d_17", "use_bias": true, "kernel_size": [3, 3], "activity_regularizer": null, "trainable": true, "bias_initializer": {"config": {}, "class_name": "Zeros"}, "bias_constraint": null}, "inbound_nodes": [[["batch_normalization_16", 0, 0, {}]]], "class_name": "Conv2D"}, {"name": "batch_normalization_14", "config": {"moving_variance_initializer": {"config": {}, "class_name": "Ones"}, "gamma_regularizer": null, "momentum": 0.99, "beta_constraint": null, "beta_regularizer": null, "name": "batch_normalization_14", "gamma_constraint": null, "epsilon": 0.001, "moving_mean_initializer": {"config": {}, "class_name": "Zeros"}, "gamma_initializer": {"config": {}, "class_name": "Ones"}, "trainable": true, "beta_initializer": {"config": {}, "class_name": "Zeros"}, "axis": 3, "scale": true, "center": true}, "inbound_nodes": [[["conv2d_14", 0, 0, {}]]], "class_name": "BatchNormalization"}, {"name": "batch_normalization_17", "config": {"moving_variance_initializer": {"config": {}, "class_name": "Ones"}, "gamma_regularizer": null, "momentum": 0.99, "beta_constraint": null, "beta_regularizer": null, "name": "batch_normalization_17", "gamma_constraint": null, "epsilon": 0.001, "moving_mean_initializer": {"config": {}, "class_name": "Zeros"}, "gamma_initializer": {"config": {}, "class_name": "Ones"}, "trainable": true, "beta_initializer": {"config": {}, "class_name": "Zeros"}, "axis": 3, "scale": true, "center": true}, "inbound_nodes": [[["conv2d_17", 0, 0, {}]]], "class_name": "BatchNormalization"}, {"name": "average_pooling2d_2", "config": {"name": "average_pooling2d_2", "pool_size": [3, 3], "data_format": "channels_last", "trainable": true, "padding": "same", "strides": [1, 1]}, "inbound_nodes": [[["mixed0", 0, 0, {}]]], "class_name": "AveragePooling2D"}, {"name": "conv2d_13", "config": {"data_format": "channels_last", "dilation_rate": [1, 1], "activation": "relu", "filters": 32, "kernel_initializer": {"config": {"seed": null, "distribution": "uniform", "mode": "fan_avg", "scale": 1.0}, "class_name": "VarianceScaling"}, "bias_regularizer": null, "strides": [1, 1], "padding": "same", "kernel_constraint": null, "kernel_regularizer": null, "name": "conv2d_13", "use_bias": true, "kernel_size": [1, 1], "activity_regularizer": null, "trainable": true, "bias_initializer": {"config": {}, "class_name": "Zeros"}, "bias_constraint": null}, "inbound_nodes": [[["mixed0", 0, 0, {}]]], "class_name": "Conv2D"}, {"name": "conv2d_15", "config": {"data_format": "channels_last", "dilation_rate": [1, 1], "activation": "relu", "filters": 32, "kernel_initializer": {"config": {"seed": null, "distribution": "uniform", "mode": "fan_avg", "scale": 1.0}, "class_name": "VarianceScaling"}, "bias_regularizer": null, "strides": [1, 1], "padding": "same", "kernel_constraint": null, "kernel_regularizer": null, "name": "conv2d_15", "use_bias": true, "kernel_size": [5, 5], "activity_regularizer": null, "trainable": true, "bias_initializer": {"config": {}, "class_name": "Zeros"}, "bias_constraint": null}, "inbound_nodes": [[["batch_normalization_14", 0, 0, {}]]], "class_name": "Conv2D"}, {"name": "conv2d_18", "config": {"data_format": "channels_last", "dilation_rate": [1, 1], "activation": "relu", "filters": 48, "kernel_initializer": {"config": {"seed": null, "distribution": "uniform", "mode": "fan_avg", "scale": 1.0}, "class_name": "VarianceScaling"}, "bias_regularizer": null, "strides": [1, 1], "padding": "same", "kernel_constraint": null, "kernel_regularizer": null, "name": "conv2d_18", "use_bias": true, "kernel_size": [3, 3], "activity_regularizer": null, "trainable": true, "bias_initializer": {"config": {}, "class_name": "Zeros"}, "bias_constraint": null}, "inbound_nodes": [[["batch_normalization_17", 0, 0, {}]]], "class_name": "Conv2D"}, {"name": "conv2d_19", "config": {"data_format": "channels_last", "dilation_rate": [1, 1], "activation": "relu", "filters": 16, "kernel_initializer": {"config": {"seed": null, "distribution": "uniform", "mode": "fan_avg", "scale": 1.0}, "class_name": "VarianceScaling"}, "bias_regularizer": null, "strides": [1, 1], "padding": "same", "kernel_constraint": null, "kernel_regularizer": null, "name": "conv2d_19", "use_bias": true, "kernel_size": [1, 1], "activity_regularizer": null, "trainable": true, "bias_initializer": {"config": {}, "class_name": "Zeros"}, "bias_constraint": null}, "inbound_nodes": [[["average_pooling2d_2", 0, 0, {}]]], "class_name": "Conv2D"}, {"name": "batch_normalization_13", "config": {"moving_variance_initializer": {"config": {}, "class_name": "Ones"}, "gamma_regularizer": null, "momentum": 0.99, "beta_constraint": null, "beta_regularizer": null, "name": "batch_normalization_13", "gamma_constraint": null, "epsilon": 0.001, "moving_mean_initializer": {"config": {}, "class_name": "Zeros"}, "gamma_initializer": {"config": {}, "class_name": "Ones"}, "trainable": true, "beta_initializer": {"config": {}, "class_name": "Zeros"}, "axis": 3, "scale": true, "center": true}, "inbound_nodes": [[["conv2d_13", 0, 0, {}]]], "class_name": "BatchNormalization"}, {"name": "batch_normalization_15", "config": {"moving_variance_initializer": {"config": {}, "class_name": "Ones"}, "gamma_regularizer": null, "momentum": 0.99, "beta_constraint": null, "beta_regularizer": null, "name": "batch_normalization_15", "gamma_constraint": null, "epsilon": 0.001, "moving_mean_initializer": {"config": {}, "class_name": "Zeros"}, "gamma_initializer": {"config": {}, "class_name": "Ones"}, "trainable": true, "beta_initializer": {"config": {}, "class_name": "Zeros"}, "axis": 3, "scale": true, "center": true}, "inbound_nodes": [[["conv2d_15", 0, 0, {}]]], "class_name": "BatchNormalization"}, {"name": "batch_normalization_18", "config": {"moving_variance_initializer": {"config": {}, "class_name": "Ones"}, "gamma_regularizer": null, "momentum": 0.99, "beta_constraint": null, "beta_regularizer": null, "name": "batch_normalization_18", "gamma_constraint": null, "epsilon": 0.001, "moving_mean_initializer": {"config": {}, "class_name": "Zeros"}, "gamma_initializer": {"config": {}, "class_name": "Ones"}, "trainable": true, "beta_initializer": {"config": {}, "class_name": "Zeros"}, "axis": 3, "scale": true, "center": true}, "inbound_nodes": [[["conv2d_18", 0, 0, {}]]], "class_name": "BatchNormalization"}, {"name": "batch_normalization_19", "config": {"moving_variance_initializer": {"config": {}, "class_name": "Ones"}, "gamma_regularizer": null, "momentum": 0.99, "beta_constraint": null, "beta_regularizer": null, "name": "batch_normalization_19", "gamma_constraint": null, "epsilon": 0.001, "moving_mean_initializer": {"config": {}, "class_name": "Zeros"}, "gamma_initializer": {"config": {}, "class_name": "Ones"}, "trainable": true, "beta_initializer": {"config": {}, "class_name": "Zeros"}, "axis": 3, "scale": true, "center": true}, "inbound_nodes": [[["conv2d_19", 0, 0, {}]]], "class_name": "BatchNormalization"}, {"name": "mixed1", "config": {"name": "mixed1", "trainable": true, "axis": -1}, "inbound_nodes": [[["batch_normalization_13", 0, 0, {}], ["batch_normalization_15", 0, 0, {}], ["batch_normalization_18", 0, 0, {}], ["batch_normalization_19", 0, 0, {}]]], "class_name": "Concatenate"}, {"name": "conv2d_23", "config": {"data_format": "channels_last", "dilation_rate": [1, 1], "activation": "relu", "filters": 32, "kernel_initializer": {"config": {"seed": null, "distribution": "uniform", "mode": "fan_avg", "scale": 1.0}, "class_name": "VarianceScaling"}, "bias_regularizer": null, "strides": [1, 1], "padding": "same", "kernel_constraint": null, "kernel_regularizer": null, "name": "conv2d_23", "use_bias": true, "kernel_size": [1, 1], "activity_regularizer": null, "trainable": true, "bias_initializer": {"config": {}, "class_name": "Zeros"}, "bias_constraint": null}, "inbound_nodes": [[["mixed1", 0, 0, {}]]], "class_name": "Conv2D"}, {"name": "batch_normalization_23", "config": {"moving_variance_initializer": {"config": {}, "class_name": "Ones"}, "gamma_regularizer": null, "momentum": 0.99, "beta_constraint": null, "beta_regularizer": null, "name": "batch_normalization_23", "gamma_constraint": null, "epsilon": 0.001, "moving_mean_initializer": {"config": {}, "class_name": "Zeros"}, "gamma_initializer": {"config": {}, "class_name": "Ones"}, "trainable": true, "beta_initializer": {"config": {}, "class_name": "Zeros"}, "axis": 3, "scale": true, "center": true}, "inbound_nodes": [[["conv2d_23", 0, 0, {}]]], "class_name": "BatchNormalization"}, {"name": "conv2d_21", "config": {"data_format": "channels_last", "dilation_rate": [1, 1], "activation": "relu", "filters": 24, "kernel_initializer": {"config": {"seed": null, "distribution": "uniform", "mode": "fan_avg", "scale": 1.0}, "class_name": "VarianceScaling"}, "bias_regularizer": null, "strides": [1, 1], "padding": "same", "kernel_constraint": null, "kernel_regularizer": null, "name": "conv2d_21", "use_bias": true, "kernel_size": [1, 1], "activity_regularizer": null, "trainable": true, "bias_initializer": {"config": {}, "class_name": "Zeros"}, "bias_constraint": null}, "inbound_nodes": [[["mixed1", 0, 0, {}]]], "class_name": "Conv2D"}, {"name": "conv2d_24", "config": {"data_format": "channels_last", "dilation_rate": [1, 1], "activation": "relu", "filters": 48, "kernel_initializer": {"config": {"seed": null, "distribution": "uniform", "mode": "fan_avg", "scale": 1.0}, "class_name": "VarianceScaling"}, "bias_regularizer": null, "strides": [1, 1], "padding": "same", "kernel_constraint": null, "kernel_regularizer": null, "name": "conv2d_24", "use_bias": true, "kernel_size": [3, 3], "activity_regularizer": null, "trainable": true, "bias_initializer": {"config": {}, "class_name": "Zeros"}, "bias_constraint": null}, "inbound_nodes": [[["batch_normalization_23", 0, 0, {}]]], "class_name": "Conv2D"}, {"name": "batch_normalization_21", "config": {"moving_variance_initializer": {"config": {}, "class_name": "Ones"}, "gamma_regularizer": null, "momentum": 0.99, "beta_constraint": null, "beta_regularizer": null, "name": "batch_normalization_21", "gamma_constraint": null, "epsilon": 0.001, "moving_mean_initializer": {"config": {}, "class_name": "Zeros"}, "gamma_initializer": {"config": {}, "class_name": "Ones"}, "trainable": true, "beta_initializer": {"config": {}, "class_name": "Zeros"}, "axis": 3, "scale": true, "center": true}, "inbound_nodes": [[["conv2d_21", 0, 0, {}]]], "class_name": "BatchNormalization"}, {"name": "batch_normalization_24", "config": {"moving_variance_initializer": {"config": {}, "class_name": "Ones"}, "gamma_regularizer": null, "momentum": 0.99, "beta_constraint": null, "beta_regularizer": null, "name": "batch_normalization_24", "gamma_constraint": null, "epsilon": 0.001, "moving_mean_initializer": {"config": {}, "class_name": "Zeros"}, "gamma_initializer": {"config": {}, "class_name": "Ones"}, "trainable": true, "beta_initializer": {"config": {}, "class_name": "Zeros"}, "axis": 3, "scale": true, "center": true}, "inbound_nodes": [[["conv2d_24", 0, 0, {}]]], "class_name": "BatchNormalization"}, {"name": "average_pooling2d_3", "config": {"name": "average_pooling2d_3", "pool_size": [3, 3], "data_format": "channels_last", "trainable": true, "padding": "same", "strides": [1, 1]}, "inbound_nodes": [[["mixed1", 0, 0, {}]]], "class_name": "AveragePooling2D"}, {"name": "conv2d_20", "config": {"data_format": "channels_last", "dilation_rate": [1, 1], "activation": "relu", "filters": 32, "kernel_initializer": {"config": {"seed": null, "distribution": "uniform", "mode": "fan_avg", "scale": 1.0}, "class_name": "VarianceScaling"}, "bias_regularizer": null, "strides": [1, 1], "padding": "same", "kernel_constraint": null, "kernel_regularizer": null, "name": "conv2d_20", "use_bias": true, "kernel_size": [1, 1], "activity_regularizer": null, "trainable": true, "bias_initializer": {"config": {}, "class_name": "Zeros"}, "bias_constraint": null}, "inbound_nodes": [[["mixed1", 0, 0, {}]]], "class_name": "Conv2D"}, {"name": "conv2d_22", "config": {"data_format": "channels_last", "dilation_rate": [1, 1], "activation": "relu", "filters": 32, "kernel_initializer": {"config": {"seed": null, "distribution": "uniform", "mode": "fan_avg", "scale": 1.0}, "class_name": "VarianceScaling"}, "bias_regularizer": null, "strides": [1, 1], "padding": "same", "kernel_constraint": null, "kernel_regularizer": null, "name": "conv2d_22", "use_bias": true, "kernel_size": [5, 5], "activity_regularizer": null, "trainable": true, "bias_initializer": {"config": {}, "class_name": "Zeros"}, "bias_constraint": null}, "inbound_nodes": [[["batch_normalization_21", 0, 0, {}]]], "class_name": "Conv2D"}, {"name": "conv2d_25", "config": {"data_format": "channels_last", "dilation_rate": [1, 1], "activation": "relu", "filters": 48, "kernel_initializer": {"config": {"seed": null, "distribution": "uniform", "mode": "fan_avg", "scale": 1.0}, "class_name": "VarianceScaling"}, "bias_regularizer": null, "strides": [1, 1], "padding": "same", "kernel_constraint": null, "kernel_regularizer": null, "name": "conv2d_25", "use_bias": true, "kernel_size": [3, 3], "activity_regularizer": null, "trainable": true, "bias_initializer": {"config": {}, "class_name": "Zeros"}, "bias_constraint": null}, "inbound_nodes": [[["batch_normalization_24", 0, 0, {}]]], "class_name": "Conv2D"}, {"name": "conv2d_26", "config": {"data_format": "channels_last", "dilation_rate": [1, 1], "activation": "relu", "filters": 16, "kernel_initializer": {"config": {"seed": null, "distribution": "uniform", "mode": "fan_avg", "scale": 1.0}, "class_name": "VarianceScaling"}, "bias_regularizer": null, "strides": [1, 1], "padding": "same", "kernel_constraint": null, "kernel_regularizer": null, "name": "conv2d_26", "use_bias": true, "kernel_size": [1, 1], "activity_regularizer": null, "trainable": true, "bias_initializer": {"config": {}, "class_name": "Zeros"}, "bias_constraint": null}, "inbound_nodes": [[["average_pooling2d_3", 0, 0, {}]]], "class_name": "Conv2D"}, {"name": "batch_normalization_20", "config": {"moving_variance_initializer": {"config": {}, "class_name": "Ones"}, "gamma_regularizer": null, "momentum": 0.99, "beta_constraint": null, "beta_regularizer": null, "name": "batch_normalization_20", "gamma_constraint": null, "epsilon": 0.001, "moving_mean_initializer": {"config": {}, "class_name": "Zeros"}, "gamma_initializer": {"config": {}, "class_name": "Ones"}, "trainable": true, "beta_initializer": {"config": {}, "class_name": "Zeros"}, "axis": 3, "scale": true, "center": true}, "inbound_nodes": [[["conv2d_20", 0, 0, {}]]], "class_name": "BatchNormalization"}, {"name": "batch_normalization_22", "config": {"moving_variance_initializer": {"config": {}, "class_name": "Ones"}, "gamma_regularizer": null, "momentum": 0.99, "beta_constraint": null, "beta_regularizer": null, "name": "batch_normalization_22", "gamma_constraint": null, "epsilon": 0.001, "moving_mean_initializer": {"config": {}, "class_name": "Zeros"}, "gamma_initializer": {"config": {}, "class_name": "Ones"}, "trainable": true, "beta_initializer": {"config": {}, "class_name": "Zeros"}, "axis": 3, "scale": true, "center": true}, "inbound_nodes": [[["conv2d_22", 0, 0, {}]]], "class_name": "BatchNormalization"}, {"name": "batch_normalization_25", "config": {"moving_variance_initializer": {"config": {}, "class_name": "Ones"}, "gamma_regularizer": null, "momentum": 0.99, "beta_constraint": null, "beta_regularizer": null, "name": "batch_normalization_25", "gamma_constraint": null, "epsilon": 0.001, "moving_mean_initializer": {"config": {}, "class_name": "Zeros"}, "gamma_initializer": {"config": {}, "class_name": "Ones"}, "trainable": true, "beta_initializer": {"config": {}, "class_name": "Zeros"}, "axis": 3, "scale": true, "center": true}, "inbound_nodes": [[["conv2d_25", 0, 0, {}]]], "class_name": "BatchNormalization"}, {"name": "batch_normalization_26", "config": {"moving_variance_initializer": {"config": {}, "class_name": "Ones"}, "gamma_regularizer": null, "momentum": 0.99, "beta_constraint": null, "beta_regularizer": null, "name": "batch_normalization_26", "gamma_constraint": null, "epsilon": 0.001, "moving_mean_initializer": {"config": {}, "class_name": "Zeros"}, "gamma_initializer": {"config": {}, "class_name": "Ones"}, "trainable": true, "beta_initializer": {"config": {}, "class_name": "Zeros"}, "axis": 3, "scale": true, "center": true}, "inbound_nodes": [[["conv2d_26", 0, 0, {}]]], "class_name": "BatchNormalization"}, {"name": "mixed2", "config": {"name": "mixed2", "trainable": true, "axis": -1}, "inbound_nodes": [[["batch_normalization_20", 0, 0, {}], ["batch_normalization_22", 0, 0, {}], ["batch_normalization_25", 0, 0, {}], ["batch_normalization_26", 0, 0, {}]]], "class_name": "Concatenate"}, {"name": "conv2d_28", "config": {"data_format": "channels_last", "dilation_rate": [1, 1], "activation": "relu", "filters": 32, "kernel_initializer": {"config": {"seed": null, "distribution": "uniform", "mode": "fan_avg", "scale": 1.0}, "class_name": "VarianceScaling"}, "bias_regularizer": null, "strides": [1, 1], "padding": "same", "kernel_constraint": null, "kernel_regularizer": null, "name": "conv2d_28", "use_bias": true, "kernel_size": [1, 1], "activity_regularizer": null, "trainable": true, "bias_initializer": {"config": {}, "class_name": "Zeros"}, "bias_constraint": null}, "inbound_nodes": [[["mixed2", 0, 0, {}]]], "class_name": "Conv2D"}, {"name": "batch_normalization_28", "config": {"moving_variance_initializer": {"config": {}, "class_name": "Ones"}, "gamma_regularizer": null, "momentum": 0.99, "beta_constraint": null, "beta_regularizer": null, "name": "batch_normalization_28", "gamma_constraint": null, "epsilon": 0.001, "moving_mean_initializer": {"config": {}, "class_name": "Zeros"}, "gamma_initializer": {"config": {}, "class_name": "Ones"}, "trainable": true, "beta_initializer": {"config": {}, "class_name": "Zeros"}, "axis": 3, "scale": true, "center": true}, "inbound_nodes": [[["conv2d_28", 0, 0, {}]]], "class_name": "BatchNormalization"}, {"name": "conv2d_29", "config": {"data_format": "channels_last", "dilation_rate": [1, 1], "activation": "relu", "filters": 48, "kernel_initializer": {"config": {"seed": null, "distribution": "uniform", "mode": "fan_avg", "scale": 1.0}, "class_name": "VarianceScaling"}, "bias_regularizer": null, "strides": [1, 1], "padding": "same", "kernel_constraint": null, "kernel_regularizer": null, "name": "conv2d_29", "use_bias": true, "kernel_size": [3, 3], "activity_regularizer": null, "trainable": true, "bias_initializer": {"config": {}, "class_name": "Zeros"}, "bias_constraint": null}, "inbound_nodes": [[["batch_normalization_28", 0, 0, {}]]], "class_name": "Conv2D"}, {"name": "batch_normalization_29", "config": {"moving_variance_initializer": {"config": {}, "class_name": "Ones"}, "gamma_regularizer": null, "momentum": 0.99, "beta_constraint": null, "beta_regularizer": null, "name": "batch_normalization_29", "gamma_constraint": null, "epsilon": 0.001, "moving_mean_initializer": {"config": {}, "class_name": "Zeros"}, "gamma_initializer": {"config": {}, "class_name": "Ones"}, "trainable": true, "beta_initializer": {"config": {}, "class_name": "Zeros"}, "axis": 3, "scale": true, "center": true}, "inbound_nodes": [[["conv2d_29", 0, 0, {}]]], "class_name": "BatchNormalization"}, {"name": "conv2d_27", "config": {"data_format": "channels_last", "dilation_rate": [1, 1], "activation": "relu", "filters": 192, "kernel_initializer": {"config": {"seed": null, "distribution": "uniform", "mode": "fan_avg", "scale": 1.0}, "class_name": "VarianceScaling"}, "bias_regularizer": null, "strides": [2, 2], "padding": "valid", "kernel_constraint": null, "kernel_regularizer": null, "name": "conv2d_27", "use_bias": true, "kernel_size": [3, 3], "activity_regularizer": null, "trainable": true, "bias_initializer": {"config": {}, "class_name": "Zeros"}, "bias_constraint": null}, "inbound_nodes": [[["mixed2", 0, 0, {}]]], "class_name": "Conv2D"}, {"name": "conv2d_30", "config": {"data_format": "channels_last", "dilation_rate": [1, 1], "activation": "relu", "filters": 48, "kernel_initializer": {"config": {"seed": null, "distribution": "uniform", "mode": "fan_avg", "scale": 1.0}, "class_name": "VarianceScaling"}, "bias_regularizer": null, "strides": [2, 2], "padding": "valid", "kernel_constraint": null, "kernel_regularizer": null, "name": "conv2d_30", "use_bias": true, "kernel_size": [3, 3], "activity_regularizer": null, "trainable": true, "bias_initializer": {"config": {}, "class_name": "Zeros"}, "bias_constraint": null}, "inbound_nodes": [[["batch_normalization_29", 0, 0, {}]]], "class_name": "Conv2D"}, {"name": "batch_normalization_27", "config": {"moving_variance_initializer": {"config": {}, "class_name": "Ones"}, "gamma_regularizer": null, "momentum": 0.99, "beta_constraint": null, "beta_regularizer": null, "name": "batch_normalization_27", "gamma_constraint": null, "epsilon": 0.001, "moving_mean_initializer": {"config": {}, "class_name": "Zeros"}, "gamma_initializer": {"config": {}, "class_name": "Ones"}, "trainable": true, "beta_initializer": {"config": {}, "class_name": "Zeros"}, "axis": 3, "scale": true, "center": true}, "inbound_nodes": [[["conv2d_27", 0, 0, {}]]], "class_name": "BatchNormalization"}, {"name": "batch_normalization_30", "config": {"moving_variance_initializer": {"config": {}, "class_name": "Ones"}, "gamma_regularizer": null, "momentum": 0.99, "beta_constraint": null, "beta_regularizer": null, "name": "batch_normalization_30", "gamma_constraint": null, "epsilon": 0.001, "moving_mean_initializer": {"config": {}, "class_name": "Zeros"}, "gamma_initializer": {"config": {}, "class_name": "Ones"}, "trainable": true, "beta_initializer": {"config": {}, "class_name": "Zeros"}, "axis": 3, "scale": true, "center": true}, "inbound_nodes": [[["conv2d_30", 0, 0, {}]]], "class_name": "BatchNormalization"}, {"name": "max_pooling2d_3", "config": {"name": "max_pooling2d_3", "pool_size": [3, 3], "data_format": "channels_last", "trainable": true, "padding": "valid", "strides": [2, 2]}, "inbound_nodes": [[["mixed2", 0, 0, {}]]], "class_name": "MaxPooling2D"}, {"name": "mixed3", "config": {"name": "mixed3", "trainable": true, "axis": -1}, "inbound_nodes": [[["batch_normalization_27", 0, 0, {}], ["batch_normalization_30", 0, 0, {}], ["max_pooling2d_3", 0, 0, {}]]], "class_name": "Concatenate"}, {"name": "conv2d_35", "config": {"data_format": "channels_last", "dilation_rate": [1, 1], "activation": "relu", "filters": 64, "kernel_initializer": {"config": {"seed": null, "distribution": "uniform", "mode": "fan_avg", "scale": 1.0}, "class_name": "VarianceScaling"}, "bias_regularizer": null, "strides": [1, 1], "padding": "same", "kernel_constraint": null, "kernel_regularizer": null, "name": "conv2d_35", "use_bias": true, "kernel_size": [1, 1], "activity_regularizer": null, "trainable": true, "bias_initializer": {"config": {}, "class_name": "Zeros"}, "bias_constraint": null}, "inbound_nodes": [[["mixed3", 0, 0, {}]]], "class_name": "Conv2D"}, {"name": "batch_normalization_35", "config": {"moving_variance_initializer": {"config": {}, "class_name": "Ones"}, "gamma_regularizer": null, "momentum": 0.99, "beta_constraint": null, "beta_regularizer": null, "name": "batch_normalization_35", "gamma_constraint": null, "epsilon": 0.001, "moving_mean_initializer": {"config": {}, "class_name": "Zeros"}, "gamma_initializer": {"config": {}, "class_name": "Ones"}, "trainable": true, "beta_initializer": {"config": {}, "class_name": "Zeros"}, "axis": 3, "scale": true, "center": true}, "inbound_nodes": [[["conv2d_35", 0, 0, {}]]], "class_name": "BatchNormalization"}, {"name": "conv2d_36", "config": {"data_format": "channels_last", "dilation_rate": [1, 1], "activation": "relu", "filters": 64, "kernel_initializer": {"config": {"seed": null, "distribution": "uniform", "mode": "fan_avg", "scale": 1.0}, "class_name": "VarianceScaling"}, "bias_regularizer": null, "strides": [1, 1], "padding": "same", "kernel_constraint": null, "kernel_regularizer": null, "name": "conv2d_36", "use_bias": true, "kernel_size": [7, 1], "activity_regularizer": null, "trainable": true, "bias_initializer": {"config": {}, "class_name": "Zeros"}, "bias_constraint": null}, "inbound_nodes": [[["batch_normalization_35", 0, 0, {}]]], "class_name": "Conv2D"}, {"name": "batch_normalization_36", "config": {"moving_variance_initializer": {"config": {}, "class_name": "Ones"}, "gamma_regularizer": null, "momentum": 0.99, "beta_constraint": null, "beta_regularizer": null, "name": "batch_normalization_36", "gamma_constraint": null, "epsilon": 0.001, "moving_mean_initializer": {"config": {}, "class_name": "Zeros"}, "gamma_initializer": {"config": {}, "class_name": "Ones"}, "trainable": true, "beta_initializer": {"config": {}, "class_name": "Zeros"}, "axis": 3, "scale": true, "center": true}, "inbound_nodes": [[["conv2d_36", 0, 0, {}]]], "class_name": "BatchNormalization"}, {"name": "conv2d_32", "config": {"data_format": "channels_last", "dilation_rate": [1, 1], "activation": "relu", "filters": 64, "kernel_initializer": {"config": {"seed": null, "distribution": "uniform", "mode": "fan_avg", "scale": 1.0}, "class_name": "VarianceScaling"}, "bias_regularizer": null, "strides": [1, 1], "padding": "same", "kernel_constraint": null, "kernel_regularizer": null, "name": "conv2d_32", "use_bias": true, "kernel_size": [1, 1], "activity_regularizer": null, "trainable": true, "bias_initializer": {"config": {}, "class_name": "Zeros"}, "bias_constraint": null}, "inbound_nodes": [[["mixed3", 0, 0, {}]]], "class_name": "Conv2D"}, {"name": "conv2d_37", "config": {"data_format": "channels_last", "dilation_rate": [1, 1], "activation": "relu", "filters": 64, "kernel_initializer": {"config": {"seed": null, "distribution": "uniform", "mode": "fan_avg", "scale": 1.0}, "class_name": "VarianceScaling"}, "bias_regularizer": null, "strides": [1, 1], "padding": "same", "kernel_constraint": null, "kernel_regularizer": null, "name": "conv2d_37", "use_bias": true, "kernel_size": [1, 7], "activity_regularizer": null, "trainable": true, "bias_initializer": {"config": {}, "class_name": "Zeros"}, "bias_constraint": null}, "inbound_nodes": [[["batch_normalization_36", 0, 0, {}]]], "class_name": "Conv2D"}, {"name": "batch_normalization_32", "config": {"moving_variance_initializer": {"config": {}, "class_name": "Ones"}, "gamma_regularizer": null, "momentum": 0.99, "beta_constraint": null, "beta_regularizer": null, "name": "batch_normalization_32", "gamma_constraint": null, "epsilon": 0.001, "moving_mean_initializer": {"config": {}, "class_name": "Zeros"}, "gamma_initializer": {"config": {}, "class_name": "Ones"}, "trainable": true, "beta_initializer": {"config": {}, "class_name": "Zeros"}, "axis": 3, "scale": true, "center": true}, "inbound_nodes": [[["conv2d_32", 0, 0, {}]]], "class_name": "BatchNormalization"}, {"name": "batch_normalization_37", "config": {"moving_variance_initializer": {"config": {}, "class_name": "Ones"}, "gamma_regularizer": null, "momentum": 0.99, "beta_constraint": null, "beta_regularizer": null, "name": "batch_normalization_37", "gamma_constraint": null, "epsilon": 0.001, "moving_mean_initializer": {"config": {}, "class_name": "Zeros"}, "gamma_initializer": {"config": {}, "class_name": "Ones"}, "trainable": true, "beta_initializer": {"config": {}, "class_name": "Zeros"}, "axis": 3, "scale": true, "center": true}, "inbound_nodes": [[["conv2d_37", 0, 0, {}]]], "class_name": "BatchNormalization"}, {"name": "conv2d_33", "config": {"data_format": "channels_last", "dilation_rate": [1, 1], "activation": "relu", "filters": 64, "kernel_initializer": {"config": {"seed": null, "distribution": "uniform", "mode": "fan_avg", "scale": 1.0}, "class_name": "VarianceScaling"}, "bias_regularizer": null, "strides": [1, 1], "padding": "same", "kernel_constraint": null, "kernel_regularizer": null, "name": "conv2d_33", "use_bias": true, "kernel_size": [1, 7], "activity_regularizer": null, "trainable": true, "bias_initializer": {"config": {}, "class_name": "Zeros"}, "bias_constraint": null}, "inbound_nodes": [[["batch_normalization_32", 0, 0, {}]]], "class_name": "Conv2D"}, {"name": "conv2d_38", "config": {"data_format": "channels_last", "dilation_rate": [1, 1], "activation": "relu", "filters": 64, "kernel_initializer": {"config": {"seed": null, "distribution": "uniform", "mode": "fan_avg", "scale": 1.0}, "class_name": "VarianceScaling"}, "bias_regularizer": null, "strides": [1, 1], "padding": "same", "kernel_constraint": null, "kernel_regularizer": null, "name": "conv2d_38", "use_bias": true, "kernel_size": [7, 1], "activity_regularizer": null, "trainable": true, "bias_initializer": {"config": {}, "class_name": "Zeros"}, "bias_constraint": null}, "inbound_nodes": [[["batch_normalization_37", 0, 0, {}]]], "class_name": "Conv2D"}, {"name": "batch_normalization_33", "config": {"moving_variance_initializer": {"config": {}, "class_name": "Ones"}, "gamma_regularizer": null, "momentum": 0.99, "beta_constraint": null, "beta_regularizer": null, "name": "batch_normalization_33", "gamma_constraint": null, "epsilon": 0.001, "moving_mean_initializer": {"config": {}, "class_name": "Zeros"}, "gamma_initializer": {"config": {}, "class_name": "Ones"}, "trainable": true, "beta_initializer": {"config": {}, "class_name": "Zeros"}, "axis": 3, "scale": true, "center": true}, "inbound_nodes": [[["conv2d_33", 0, 0, {}]]], "class_name": "BatchNormalization"}, {"name": "batch_normalization_38", "config": {"moving_variance_initializer": {"config": {}, "class_name": "Ones"}, "gamma_regularizer": null, "momentum": 0.99, "beta_constraint": null, "beta_regularizer": null, "name": "batch_normalization_38", "gamma_constraint": null, "epsilon": 0.001, "moving_mean_initializer": {"config": {}, "class_name": "Zeros"}, "gamma_initializer": {"config": {}, "class_name": "Ones"}, "trainable": true, "beta_initializer": {"config": {}, "class_name": "Zeros"}, "axis": 3, "scale": true, "center": true}, "inbound_nodes": [[["conv2d_38", 0, 0, {}]]], "class_name": "BatchNormalization"}, {"name": "average_pooling2d_4", "config": {"name": "average_pooling2d_4", "pool_size": [3, 3], "data_format": "channels_last", "trainable": true, "padding": "same", "strides": [1, 1]}, "inbound_nodes": [[["mixed3", 0, 0, {}]]], "class_name": "AveragePooling2D"}, {"name": "conv2d_31", "config": {"data_format": "channels_last", "dilation_rate": [1, 1], "activation": "relu", "filters": 96, "kernel_initializer": {"config": {"seed": null, "distribution": "uniform", "mode": "fan_avg", "scale": 1.0}, "class_name": "VarianceScaling"}, "bias_regularizer": null, "strides": [1, 1], "padding": "same", "kernel_constraint": null, "kernel_regularizer": null, "name": "conv2d_31", "use_bias": true, "kernel_size": [1, 1], "activity_regularizer": null, "trainable": true, "bias_initializer": {"config": {}, "class_name": "Zeros"}, "bias_constraint": null}, "inbound_nodes": [[["mixed3", 0, 0, {}]]], "class_name": "Conv2D"}, {"name": "conv2d_34", "config": {"data_format": "channels_last", "dilation_rate": [1, 1], "activation": "relu", "filters": 96, "kernel_initializer": {"config": {"seed": null, "distribution": "uniform", "mode": "fan_avg", "scale": 1.0}, "class_name": "VarianceScaling"}, "bias_regularizer": null, "strides": [1, 1], "padding": "same", "kernel_constraint": null, "kernel_regularizer": null, "name": "conv2d_34", "use_bias": true, "kernel_size": [7, 1], "activity_regularizer": null, "trainable": true, "bias_initializer": {"config": {}, "class_name": "Zeros"}, "bias_constraint": null}, "inbound_nodes": [[["batch_normalization_33", 0, 0, {}]]], "class_name": "Conv2D"}, {"name": "conv2d_39", "config": {"data_format": "channels_last", "dilation_rate": [1, 1], "activation": "relu", "filters": 96, "kernel_initializer": {"config": {"seed": null, "distribution": "uniform", "mode": "fan_avg", "scale": 1.0}, "class_name": "VarianceScaling"}, "bias_regularizer": null, "strides": [1, 1], "padding": "same", "kernel_constraint": null, "kernel_regularizer": null, "name": "conv2d_39", "use_bias": true, "kernel_size": [1, 7], "activity_regularizer": null, "trainable": true, "bias_initializer": {"config": {}, "class_name": "Zeros"}, "bias_constraint": null}, "inbound_nodes": [[["batch_normalization_38", 0, 0, {}]]], "class_name": "Conv2D"}, {"name": "conv2d_40", "config": {"data_format": "channels_last", "dilation_rate": [1, 1], "activation": "relu", "filters": 96, "kernel_initializer": {"config": {"seed": null, "distribution": "uniform", "mode": "fan_avg", "scale": 1.0}, "class_name": "VarianceScaling"}, "bias_regularizer": null, "strides": [1, 1], "padding": "same", "kernel_constraint": null, "kernel_regularizer": null, "name": "conv2d_40", "use_bias": true, "kernel_size": [1, 1], "activity_regularizer": null, "trainable": true, "bias_initializer": {"config": {}, "class_name": "Zeros"}, "bias_constraint": null}, "inbound_nodes": [[["average_pooling2d_4", 0, 0, {}]]], "class_name": "Conv2D"}, {"name": "batch_normalization_31", "config": {"moving_variance_initializer": {"config": {}, "class_name": "Ones"}, "gamma_regularizer": null, "momentum": 0.99, "beta_constraint": null, "beta_regularizer": null, "name": "batch_normalization_31", "gamma_constraint": null, "epsilon": 0.001, "moving_mean_initializer": {"config": {}, "class_name": "Zeros"}, "gamma_initializer": {"config": {}, "class_name": "Ones"}, "trainable": true, "beta_initializer": {"config": {}, "class_name": "Zeros"}, "axis": 3, "scale": true, "center": true}, "inbound_nodes": [[["conv2d_31", 0, 0, {}]]], "class_name": "BatchNormalization"}, {"name": "batch_normalization_34", "config": {"moving_variance_initializer": {"config": {}, "class_name": "Ones"}, "gamma_regularizer": null, "momentum": 0.99, "beta_constraint": null, "beta_regularizer": null, "name": "batch_normalization_34", "gamma_constraint": null, "epsilon": 0.001, "moving_mean_initializer": {"config": {}, "class_name": "Zeros"}, "gamma_initializer": {"config": {}, "class_name": "Ones"}, "trainable": true, "beta_initializer": {"config": {}, "class_name": "Zeros"}, "axis": 3, "scale": true, "center": true}, "inbound_nodes": [[["conv2d_34", 0, 0, {}]]], "class_name": "BatchNormalization"}, {"name": "batch_normalization_39", "config": {"moving_variance_initializer": {"config": {}, "class_name": "Ones"}, "gamma_regularizer": null, "momentum": 0.99, "beta_constraint": null, "beta_regularizer": null, "name": "batch_normalization_39", "gamma_constraint": null, "epsilon": 0.001, "moving_mean_initializer": {"config": {}, "class_name": "Zeros"}, "gamma_initializer": {"config": {}, "class_name": "Ones"}, "trainable": true, "beta_initializer": {"config": {}, "class_name": "Zeros"}, "axis": 3, "scale": true, "center": true}, "inbound_nodes": [[["conv2d_39", 0, 0, {}]]], "class_name": "BatchNormalization"}, {"name": "batch_normalization_40", "config": {"moving_variance_initializer": {"config": {}, "class_name": "Ones"}, "gamma_regularizer": null, "momentum": 0.99, "beta_constraint": null, "beta_regularizer": null, "name": "batch_normalization_40", "gamma_constraint": null, "epsilon": 0.001, "moving_mean_initializer": {"config": {}, "class_name": "Zeros"}, "gamma_initializer": {"config": {}, "class_name": "Ones"}, "trainable": true, "beta_initializer": {"config": {}, "class_name": "Zeros"}, "axis": 3, "scale": true, "center": true}, "inbound_nodes": [[["conv2d_40", 0, 0, {}]]], "class_name": "BatchNormalization"}, {"name": "mixed4", "config": {"name": "mixed4", "trainable": true, "axis": -1}, "inbound_nodes": [[["batch_normalization_31", 0, 0, {}], ["batch_normalization_34", 0, 0, {}], ["batch_normalization_39", 0, 0, {}], ["batch_normalization_40", 0, 0, {}]]], "class_name": "Concatenate"}, {"name": "conv2d_45", "config": {"data_format": "channels_last", "dilation_rate": [1, 1], "activation": "relu", "filters": 80, "kernel_initializer": {"config": {"seed": null, "distribution": "uniform", "mode": "fan_avg", "scale": 1.0}, "class_name": "VarianceScaling"}, "bias_regularizer": null, "strides": [1, 1], "padding": "same", "kernel_constraint": null, "kernel_regularizer": null, "name": "conv2d_45", "use_bias": true, "kernel_size": [1, 1], "activity_regularizer": null, "trainable": true, "bias_initializer": {"config": {}, "class_name": "Zeros"}, "bias_constraint": null}, "inbound_nodes": [[["mixed4", 0, 0, {}]]], "class_name": "Conv2D"}, {"name": "batch_normalization_45", "config": {"moving_variance_initializer": {"config": {}, "class_name": "Ones"}, "gamma_regularizer": null, "momentum": 0.99, "beta_constraint": null, "beta_regularizer": null, "name": "batch_normalization_45", "gamma_constraint": null, "epsilon": 0.001, "moving_mean_initializer": {"config": {}, "class_name": "Zeros"}, "gamma_initializer": {"config": {}, "class_name": "Ones"}, "trainable": true, "beta_initializer": {"config": {}, "class_name": "Zeros"}, "axis": 3, "scale": true, "center": true}, "inbound_nodes": [[["conv2d_45", 0, 0, {}]]], "class_name": "BatchNormalization"}, {"name": "conv2d_46", "config": {"data_format": "channels_last", "dilation_rate": [1, 1], "activation": "relu", "filters": 80, "kernel_initializer": {"config": {"seed": null, "distribution": "uniform", "mode": "fan_avg", "scale": 1.0}, "class_name": "VarianceScaling"}, "bias_regularizer": null, "strides": [1, 1], "padding": "same", "kernel_constraint": null, "kernel_regularizer": null, "name": "conv2d_46", "use_bias": true, "kernel_size": [7, 1], "activity_regularizer": null, "trainable": true, "bias_initializer": {"config": {}, "class_name": "Zeros"}, "bias_constraint": null}, "inbound_nodes": [[["batch_normalization_45", 0, 0, {}]]], "class_name": "Conv2D"}, {"name": "batch_normalization_46", "config": {"moving_variance_initializer": {"config": {}, "class_name": "Ones"}, "gamma_regularizer": null, "momentum": 0.99, "beta_constraint": null, "beta_regularizer": null, "name": "batch_normalization_46", "gamma_constraint": null, "epsilon": 0.001, "moving_mean_initializer": {"config": {}, "class_name": "Zeros"}, "gamma_initializer": {"config": {}, "class_name": "Ones"}, "trainable": true, "beta_initializer": {"config": {}, "class_name": "Zeros"}, "axis": 3, "scale": true, "center": true}, "inbound_nodes": [[["conv2d_46", 0, 0, {}]]], "class_name": "BatchNormalization"}, {"name": "conv2d_42", "config": {"data_format": "channels_last", "dilation_rate": [1, 1], "activation": "relu", "filters": 80, "kernel_initializer": {"config": {"seed": null, "distribution": "uniform", "mode": "fan_avg", "scale": 1.0}, "class_name": "VarianceScaling"}, "bias_regularizer": null, "strides": [1, 1], "padding": "same", "kernel_constraint": null, "kernel_regularizer": null, "name": "conv2d_42", "use_bias": true, "kernel_size": [1, 1], "activity_regularizer": null, "trainable": true, "bias_initializer": {"config": {}, "class_name": "Zeros"}, "bias_constraint": null}, "inbound_nodes": [[["mixed4", 0, 0, {}]]], "class_name": "Conv2D"}, {"name": "conv2d_47", "config": {"data_format": "channels_last", "dilation_rate": [1, 1], "activation": "relu", "filters": 80, "kernel_initializer": {"config": {"seed": null, "distribution": "uniform", "mode": "fan_avg", "scale": 1.0}, "class_name": "VarianceScaling"}, "bias_regularizer": null, "strides": [1, 1], "padding": "same", "kernel_constraint": null, "kernel_regularizer": null, "name": "conv2d_47", "use_bias": true, "kernel_size": [1, 7], "activity_regularizer": null, "trainable": true, "bias_initializer": {"config": {}, "class_name": "Zeros"}, "bias_constraint": null}, "inbound_nodes": [[["batch_normalization_46", 0, 0, {}]]], "class_name": "Conv2D"}, {"name": "batch_normalization_42", "config": {"moving_variance_initializer": {"config": {}, "class_name": "Ones"}, "gamma_regularizer": null, "momentum": 0.99, "beta_constraint": null, "beta_regularizer": null, "name": "batch_normalization_42", "gamma_constraint": null, "epsilon": 0.001, "moving_mean_initializer": {"config": {}, "class_name": "Zeros"}, "gamma_initializer": {"config": {}, "class_name": "Ones"}, "trainable": true, "beta_initializer": {"config": {}, "class_name": "Zeros"}, "axis": 3, "scale": true, "center": true}, "inbound_nodes": [[["conv2d_42", 0, 0, {}]]], "class_name": "BatchNormalization"}, {"name": "batch_normalization_47", "config": {"moving_variance_initializer": {"config": {}, "class_name": "Ones"}, "gamma_regularizer": null, "momentum": 0.99, "beta_constraint": null, "beta_regularizer": null, "name": "batch_normalization_47", "gamma_constraint": null, "epsilon": 0.001, "moving_mean_initializer": {"config": {}, "class_name": "Zeros"}, "gamma_initializer": {"config": {}, "class_name": "Ones"}, "trainable": true, "beta_initializer": {"config": {}, "class_name": "Zeros"}, "axis": 3, "scale": true, "center": true}, "inbound_nodes": [[["conv2d_47", 0, 0, {}]]], "class_name": "BatchNormalization"}, {"name": "conv2d_43", "config": {"data_format": "channels_last", "dilation_rate": [1, 1], "activation": "relu", "filters": 80, "kernel_initializer": {"config": {"seed": null, "distribution": "uniform", "mode": "fan_avg", "scale": 1.0}, "class_name": "VarianceScaling"}, "bias_regularizer": null, "strides": [1, 1], "padding": "same", "kernel_constraint": null, "kernel_regularizer": null, "name": "conv2d_43", "use_bias": true, "kernel_size": [1, 7], "activity_regularizer": null, "trainable": true, "bias_initializer": {"config": {}, "class_name": "Zeros"}, "bias_constraint": null}, "inbound_nodes": [[["batch_normalization_42", 0, 0, {}]]], "class_name": "Conv2D"}, {"name": "conv2d_48", "config": {"data_format": "channels_last", "dilation_rate": [1, 1], "activation": "relu", "filters": 80, "kernel_initializer": {"config": {"seed": null, "distribution": "uniform", "mode": "fan_avg", "scale": 1.0}, "class_name": "VarianceScaling"}, "bias_regularizer": null, "strides": [1, 1], "padding": "same", "kernel_constraint": null, "kernel_regularizer": null, "name": "conv2d_48", "use_bias": true, "kernel_size": [7, 1], "activity_regularizer": null, "trainable": true, "bias_initializer": {"config": {}, "class_name": "Zeros"}, "bias_constraint": null}, "inbound_nodes": [[["batch_normalization_47", 0, 0, {}]]], "class_name": "Conv2D"}, {"name": "batch_normalization_43", "config": {"moving_variance_initializer": {"config": {}, "class_name": "Ones"}, "gamma_regularizer": null, "momentum": 0.99, "beta_constraint": null, "beta_regularizer": null, "name": "batch_normalization_43", "gamma_constraint": null, "epsilon": 0.001, "moving_mean_initializer": {"config": {}, "class_name": "Zeros"}, "gamma_initializer": {"config": {}, "class_name": "Ones"}, "trainable": true, "beta_initializer": {"config": {}, "class_name": "Zeros"}, "axis": 3, "scale": true, "center": true}, "inbound_nodes": [[["conv2d_43", 0, 0, {}]]], "class_name": "BatchNormalization"}, {"name": "batch_normalization_48", "config": {"moving_variance_initializer": {"config": {}, "class_name": "Ones"}, "gamma_regularizer": null, "momentum": 0.99, "beta_constraint": null, "beta_regularizer": null, "name": "batch_normalization_48", "gamma_constraint": null, "epsilon": 0.001, "moving_mean_initializer": {"config": {}, "class_name": "Zeros"}, "gamma_initializer": {"config": {}, "class_name": "Ones"}, "trainable": true, "beta_initializer": {"config": {}, "class_name": "Zeros"}, "axis": 3, "scale": true, "center": true}, "inbound_nodes": [[["conv2d_48", 0, 0, {}]]], "class_name": "BatchNormalization"}, {"name": "average_pooling2d_5", "config": {"name": "average_pooling2d_5", "pool_size": [3, 3], "data_format": "channels_last", "trainable": true, "padding": "same", "strides": [1, 1]}, "inbound_nodes": [[["mixed4", 0, 0, {}]]], "class_name": "AveragePooling2D"}, {"name": "conv2d_41", "config": {"data_format": "channels_last", "dilation_rate": [1, 1], "activation": "relu", "filters": 96, "kernel_initializer": {"config": {"seed": null, "distribution": "uniform", "mode": "fan_avg", "scale": 1.0}, "class_name": "VarianceScaling"}, "bias_regularizer": null, "strides": [1, 1], "padding": "same", "kernel_constraint": null, "kernel_regularizer": null, "name": "conv2d_41", "use_bias": true, "kernel_size": [1, 1], "activity_regularizer": null, "trainable": true, "bias_initializer": {"config": {}, "class_name": "Zeros"}, "bias_constraint": null}, "inbound_nodes": [[["mixed4", 0, 0, {}]]], "class_name": "Conv2D"}, {"name": "conv2d_44", "config": {"data_format": "channels_last", "dilation_rate": [1, 1], "activation": "relu", "filters": 96, "kernel_initializer": {"config": {"seed": null, "distribution": "uniform", "mode": "fan_avg", "scale": 1.0}, "class_name": "VarianceScaling"}, "bias_regularizer": null, "strides": [1, 1], "padding": "same", "kernel_constraint": null, "kernel_regularizer": null, "name": "conv2d_44", "use_bias": true, "kernel_size": [7, 1], "activity_regularizer": null, "trainable": true, "bias_initializer": {"config": {}, "class_name": "Zeros"}, "bias_constraint": null}, "inbound_nodes": [[["batch_normalization_43", 0, 0, {}]]], "class_name": "Conv2D"}, {"name": "conv2d_49", "config": {"data_format": "channels_last", "dilation_rate": [1, 1], "activation": "relu", "filters": 96, "kernel_initializer": {"config": {"seed": null, "distribution": "uniform", "mode": "fan_avg", "scale": 1.0}, "class_name": "VarianceScaling"}, "bias_regularizer": null, "strides": [1, 1], "padding": "same", "kernel_constraint": null, "kernel_regularizer": null, "name": "conv2d_49", "use_bias": true, "kernel_size": [1, 7], "activity_regularizer": null, "trainable": true, "bias_initializer": {"config": {}, "class_name": "Zeros"}, "bias_constraint": null}, "inbound_nodes": [[["batch_normalization_48", 0, 0, {}]]], "class_name": "Conv2D"}, {"name": "conv2d_50", "config": {"data_format": "channels_last", "dilation_rate": [1, 1], "activation": "relu", "filters": 96, "kernel_initializer": {"config": {"seed": null, "distribution": "uniform", "mode": "fan_avg", "scale": 1.0}, "class_name": "VarianceScaling"}, "bias_regularizer": null, "strides": [1, 1], "padding": "same", "kernel_constraint": null, "kernel_regularizer": null, "name": "conv2d_50", "use_bias": true, "kernel_size": [1, 1], "activity_regularizer": null, "trainable": true, "bias_initializer": {"config": {}, "class_name": "Zeros"}, "bias_constraint": null}, "inbound_nodes": [[["average_pooling2d_5", 0, 0, {}]]], "class_name": "Conv2D"}, {"name": "batch_normalization_41", "config": {"moving_variance_initializer": {"config": {}, "class_name": "Ones"}, "gamma_regularizer": null, "momentum": 0.99, "beta_constraint": null, "beta_regularizer": null, "name": "batch_normalization_41", "gamma_constraint": null, "epsilon": 0.001, "moving_mean_initializer": {"config": {}, "class_name": "Zeros"}, "gamma_initializer": {"config": {}, "class_name": "Ones"}, "trainable": true, "beta_initializer": {"config": {}, "class_name": "Zeros"}, "axis": 3, "scale": true, "center": true}, "inbound_nodes": [[["conv2d_41", 0, 0, {}]]], "class_name": "BatchNormalization"}, {"name": "batch_normalization_44", "config": {"moving_variance_initializer": {"config": {}, "class_name": "Ones"}, "gamma_regularizer": null, "momentum": 0.99, "beta_constraint": null, "beta_regularizer": null, "name": "batch_normalization_44", "gamma_constraint": null, "epsilon": 0.001, "moving_mean_initializer": {"config": {}, "class_name": "Zeros"}, "gamma_initializer": {"config": {}, "class_name": "Ones"}, "trainable": true, "beta_initializer": {"config": {}, "class_name": "Zeros"}, "axis": 3, "scale": true, "center": true}, "inbound_nodes": [[["conv2d_44", 0, 0, {}]]], "class_name": "BatchNormalization"}, {"name": "batch_normalization_49", "config": {"moving_variance_initializer": {"config": {}, "class_name": "Ones"}, "gamma_regularizer": null, "momentum": 0.99, "beta_constraint": null, "beta_regularizer": null, "name": "batch_normalization_49", "gamma_constraint": null, "epsilon": 0.001, "moving_mean_initializer": {"config": {}, "class_name": "Zeros"}, "gamma_initializer": {"config": {}, "class_name": "Ones"}, "trainable": true, "beta_initializer": {"config": {}, "class_name": "Zeros"}, "axis": 3, "scale": true, "center": true}, "inbound_nodes": [[["conv2d_49", 0, 0, {}]]], "class_name": "BatchNormalization"}, {"name": "batch_normalization_50", "config": {"moving_variance_initializer": {"config": {}, "class_name": "Ones"}, "gamma_regularizer": null, "momentum": 0.99, "beta_constraint": null, "beta_regularizer": null, "name": "batch_normalization_50", "gamma_constraint": null, "epsilon": 0.001, "moving_mean_initializer": {"config": {}, "class_name": "Zeros"}, "gamma_initializer": {"config": {}, "class_name": "Ones"}, "trainable": true, "beta_initializer": {"config": {}, "class_name": "Zeros"}, "axis": 3, "scale": true, "center": true}, "inbound_nodes": [[["conv2d_50", 0, 0, {}]]], "class_name": "BatchNormalization"}, {"name": "mixed5", "config": {"name": "mixed5", "trainable": true, "axis": -1}, "inbound_nodes": [[["batch_normalization_41", 0, 0, {}], ["batch_normalization_44", 0, 0, {}], ["batch_normalization_49", 0, 0, {}], ["batch_normalization_50", 0, 0, {}]]], "class_name": "Concatenate"}, {"name": "conv2d_55", "config": {"data_format": "channels_last", "dilation_rate": [1, 1], "activation": "relu", "filters": 80, "kernel_initializer": {"config": {"seed": null, "distribution": "uniform", "mode": "fan_avg", "scale": 1.0}, "class_name": "VarianceScaling"}, "bias_regularizer": null, "strides": [1, 1], "padding": "same", "kernel_constraint": null, "kernel_regularizer": null, "name": "conv2d_55", "use_bias": true, "kernel_size": [1, 1], "activity_regularizer": null, "trainable": true, "bias_initializer": {"config": {}, "class_name": "Zeros"}, "bias_constraint": null}, "inbound_nodes": [[["mixed5", 0, 0, {}]]], "class_name": "Conv2D"}, {"name": "batch_normalization_55", "config": {"moving_variance_initializer": {"config": {}, "class_name": "Ones"}, "gamma_regularizer": null, "momentum": 0.99, "beta_constraint": null, "beta_regularizer": null, "name": "batch_normalization_55", "gamma_constraint": null, "epsilon": 0.001, "moving_mean_initializer": {"config": {}, "class_name": "Zeros"}, "gamma_initializer": {"config": {}, "class_name": "Ones"}, "trainable": true, "beta_initializer": {"config": {}, "class_name": "Zeros"}, "axis": 3, "scale": true, "center": true}, "inbound_nodes": [[["conv2d_55", 0, 0, {}]]], "class_name": "BatchNormalization"}, {"name": "conv2d_56", "config": {"data_format": "channels_last", "dilation_rate": [1, 1], "activation": "relu", "filters": 80, "kernel_initializer": {"config": {"seed": null, "distribution": "uniform", "mode": "fan_avg", "scale": 1.0}, "class_name": "VarianceScaling"}, "bias_regularizer": null, "strides": [1, 1], "padding": "same", "kernel_constraint": null, "kernel_regularizer": null, "name": "conv2d_56", "use_bias": true, "kernel_size": [7, 1], "activity_regularizer": null, "trainable": true, "bias_initializer": {"config": {}, "class_name": "Zeros"}, "bias_constraint": null}, "inbound_nodes": [[["batch_normalization_55", 0, 0, {}]]], "class_name": "Conv2D"}, {"name": "batch_normalization_56", "config": {"moving_variance_initializer": {"config": {}, "class_name": "Ones"}, "gamma_regularizer": null, "momentum": 0.99, "beta_constraint": null, "beta_regularizer": null, "name": "batch_normalization_56", "gamma_constraint": null, "epsilon": 0.001, "moving_mean_initializer": {"config": {}, "class_name": "Zeros"}, "gamma_initializer": {"config": {}, "class_name": "Ones"}, "trainable": true, "beta_initializer": {"config": {}, "class_name": "Zeros"}, "axis": 3, "scale": true, "center": true}, "inbound_nodes": [[["conv2d_56", 0, 0, {}]]], "class_name": "BatchNormalization"}, {"name": "conv2d_52", "config": {"data_format": "channels_last", "dilation_rate": [1, 1], "activation": "relu", "filters": 80, "kernel_initializer": {"config": {"seed": null, "distribution": "uniform", "mode": "fan_avg", "scale": 1.0}, "class_name": "VarianceScaling"}, "bias_regularizer": null, "strides": [1, 1], "padding": "same", "kernel_constraint": null, "kernel_regularizer": null, "name": "conv2d_52", "use_bias": true, "kernel_size": [1, 1], "activity_regularizer": null, "trainable": true, "bias_initializer": {"config": {}, "class_name": "Zeros"}, "bias_constraint": null}, "inbound_nodes": [[["mixed5", 0, 0, {}]]], "class_name": "Conv2D"}, {"name": "conv2d_57", "config": {"data_format": "channels_last", "dilation_rate": [1, 1], "activation": "relu", "filters": 80, "kernel_initializer": {"config": {"seed": null, "distribution": "uniform", "mode": "fan_avg", "scale": 1.0}, "class_name": "VarianceScaling"}, "bias_regularizer": null, "strides": [1, 1], "padding": "same", "kernel_constraint": null, "kernel_regularizer": null, "name": "conv2d_57", "use_bias": true, "kernel_size": [1, 7], "activity_regularizer": null, "trainable": true, "bias_initializer": {"config": {}, "class_name": "Zeros"}, "bias_constraint": null}, "inbound_nodes": [[["batch_normalization_56", 0, 0, {}]]], "class_name": "Conv2D"}, {"name": "batch_normalization_52", "config": {"moving_variance_initializer": {"config": {}, "class_name": "Ones"}, "gamma_regularizer": null, "momentum": 0.99, "beta_constraint": null, "beta_regularizer": null, "name": "batch_normalization_52", "gamma_constraint": null, "epsilon": 0.001, "moving_mean_initializer": {"config": {}, "class_name": "Zeros"}, "gamma_initializer": {"config": {}, "class_name": "Ones"}, "trainable": true, "beta_initializer": {"config": {}, "class_name": "Zeros"}, "axis": 3, "scale": true, "center": true}, "inbound_nodes": [[["conv2d_52", 0, 0, {}]]], "class_name": "BatchNormalization"}, {"name": "batch_normalization_57", "config": {"moving_variance_initializer": {"config": {}, "class_name": "Ones"}, "gamma_regularizer": null, "momentum": 0.99, "beta_constraint": null, "beta_regularizer": null, "name": "batch_normalization_57", "gamma_constraint": null, "epsilon": 0.001, "moving_mean_initializer": {"config": {}, "class_name": "Zeros"}, "gamma_initializer": {"config": {}, "class_name": "Ones"}, "trainable": true, "beta_initializer": {"config": {}, "class_name": "Zeros"}, "axis": 3, "scale": true, "center": true}, "inbound_nodes": [[["conv2d_57", 0, 0, {}]]], "class_name": "BatchNormalization"}, {"name": "conv2d_53", "config": {"data_format": "channels_last", "dilation_rate": [1, 1], "activation": "relu", "filters": 80, "kernel_initializer": {"config": {"seed": null, "distribution": "uniform", "mode": "fan_avg", "scale": 1.0}, "class_name": "VarianceScaling"}, "bias_regularizer": null, "strides": [1, 1], "padding": "same", "kernel_constraint": null, "kernel_regularizer": null, "name": "conv2d_53", "use_bias": true, "kernel_size": [1, 7], "activity_regularizer": null, "trainable": true, "bias_initializer": {"config": {}, "class_name": "Zeros"}, "bias_constraint": null}, "inbound_nodes": [[["batch_normalization_52", 0, 0, {}]]], "class_name": "Conv2D"}, {"name": "conv2d_58", "config": {"data_format": "channels_last", "dilation_rate": [1, 1], "activation": "relu", "filters": 80, "kernel_initializer": {"config": {"seed": null, "distribution": "uniform", "mode": "fan_avg", "scale": 1.0}, "class_name": "VarianceScaling"}, "bias_regularizer": null, "strides": [1, 1], "padding": "same", "kernel_constraint": null, "kernel_regularizer": null, "name": "conv2d_58", "use_bias": true, "kernel_size": [7, 1], "activity_regularizer": null, "trainable": true, "bias_initializer": {"config": {}, "class_name": "Zeros"}, "bias_constraint": null}, "inbound_nodes": [[["batch_normalization_57", 0, 0, {}]]], "class_name": "Conv2D"}, {"name": "batch_normalization_53", "config": {"moving_variance_initializer": {"config": {}, "class_name": "Ones"}, "gamma_regularizer": null, "momentum": 0.99, "beta_constraint": null, "beta_regularizer": null, "name": "batch_normalization_53", "gamma_constraint": null, "epsilon": 0.001, "moving_mean_initializer": {"config": {}, "class_name": "Zeros"}, "gamma_initializer": {"config": {}, "class_name": "Ones"}, "trainable": true, "beta_initializer": {"config": {}, "class_name": "Zeros"}, "axis": 3, "scale": true, "center": true}, "inbound_nodes": [[["conv2d_53", 0, 0, {}]]], "class_name": "BatchNormalization"}, {"name": "batch_normalization_58", "config": {"moving_variance_initializer": {"config": {}, "class_name": "Ones"}, "gamma_regularizer": null, "momentum": 0.99, "beta_constraint": null, "beta_regularizer": null, "name": "batch_normalization_58", "gamma_constraint": null, "epsilon": 0.001, "moving_mean_initializer": {"config": {}, "class_name": "Zeros"}, "gamma_initializer": {"config": {}, "class_name": "Ones"}, "trainable": true, "beta_initializer": {"config": {}, "class_name": "Zeros"}, "axis": 3, "scale": true, "center": true}, "inbound_nodes": [[["conv2d_58", 0, 0, {}]]], "class_name": "BatchNormalization"}, {"name": "average_pooling2d_6", "config": {"name": "average_pooling2d_6", "pool_size": [3, 3], "data_format": "channels_last", "trainable": true, "padding": "same", "strides": [1, 1]}, "inbound_nodes": [[["mixed5", 0, 0, {}]]], "class_name": "AveragePooling2D"}, {"name": "conv2d_51", "config": {"data_format": "channels_last", "dilation_rate": [1, 1], "activation": "relu", "filters": 96, "kernel_initializer": {"config": {"seed": null, "distribution": "uniform", "mode": "fan_avg", "scale": 1.0}, "class_name": "VarianceScaling"}, "bias_regularizer": null, "strides": [1, 1], "padding": "same", "kernel_constraint": null, "kernel_regularizer": null, "name": "conv2d_51", "use_bias": true, "kernel_size": [1, 1], "activity_regularizer": null, "trainable": true, "bias_initializer": {"config": {}, "class_name": "Zeros"}, "bias_constraint": null}, "inbound_nodes": [[["mixed5", 0, 0, {}]]], "class_name": "Conv2D"}, {"name": "conv2d_54", "config": {"data_format": "channels_last", "dilation_rate": [1, 1], "activation": "relu", "filters": 96, "kernel_initializer": {"config": {"seed": null, "distribution": "uniform", "mode": "fan_avg", "scale": 1.0}, "class_name": "VarianceScaling"}, "bias_regularizer": null, "strides": [1, 1], "padding": "same", "kernel_constraint": null, "kernel_regularizer": null, "name": "conv2d_54", "use_bias": true, "kernel_size": [7, 1], "activity_regularizer": null, "trainable": true, "bias_initializer": {"config": {}, "class_name": "Zeros"}, "bias_constraint": null}, "inbound_nodes": [[["batch_normalization_53", 0, 0, {}]]], "class_name": "Conv2D"}, {"name": "conv2d_59", "config": {"data_format": "channels_last", "dilation_rate": [1, 1], "activation": "relu", "filters": 96, "kernel_initializer": {"config": {"seed": null, "distribution": "uniform", "mode": "fan_avg", "scale": 1.0}, "class_name": "VarianceScaling"}, "bias_regularizer": null, "strides": [1, 1], "padding": "same", "kernel_constraint": null, "kernel_regularizer": null, "name": "conv2d_59", "use_bias": true, "kernel_size": [1, 7], "activity_regularizer": null, "trainable": true, "bias_initializer": {"config": {}, "class_name": "Zeros"}, "bias_constraint": null}, "inbound_nodes": [[["batch_normalization_58", 0, 0, {}]]], "class_name": "Conv2D"}, {"name": "conv2d_60", "config": {"data_format": "channels_last", "dilation_rate": [1, 1], "activation": "relu", "filters": 96, "kernel_initializer": {"config": {"seed": null, "distribution": "uniform", "mode": "fan_avg", "scale": 1.0}, "class_name": "VarianceScaling"}, "bias_regularizer": null, "strides": [1, 1], "padding": "same", "kernel_constraint": null, "kernel_regularizer": null, "name": "conv2d_60", "use_bias": true, "kernel_size": [1, 1], "activity_regularizer": null, "trainable": true, "bias_initializer": {"config": {}, "class_name": "Zeros"}, "bias_constraint": null}, "inbound_nodes": [[["average_pooling2d_6", 0, 0, {}]]], "class_name": "Conv2D"}, {"name": "batch_normalization_51", "config": {"moving_variance_initializer": {"config": {}, "class_name": "Ones"}, "gamma_regularizer": null, "momentum": 0.99, "beta_constraint": null, "beta_regularizer": null, "name": "batch_normalization_51", "gamma_constraint": null, "epsilon": 0.001, "moving_mean_initializer": {"config": {}, "class_name": "Zeros"}, "gamma_initializer": {"config": {}, "class_name": "Ones"}, "trainable": true, "beta_initializer": {"config": {}, "class_name": "Zeros"}, "axis": 3, "scale": true, "center": true}, "inbound_nodes": [[["conv2d_51", 0, 0, {}]]], "class_name": "BatchNormalization"}, {"name": "batch_normalization_54", "config": {"moving_variance_initializer": {"config": {}, "class_name": "Ones"}, "gamma_regularizer": null, "momentum": 0.99, "beta_constraint": null, "beta_regularizer": null, "name": "batch_normalization_54", "gamma_constraint": null, "epsilon": 0.001, "moving_mean_initializer": {"config": {}, "class_name": "Zeros"}, "gamma_initializer": {"config": {}, "class_name": "Ones"}, "trainable": true, "beta_initializer": {"config": {}, "class_name": "Zeros"}, "axis": 3, "scale": true, "center": true}, "inbound_nodes": [[["conv2d_54", 0, 0, {}]]], "class_name": "BatchNormalization"}, {"name": "batch_normalization_59", "config": {"moving_variance_initializer": {"config": {}, "class_name": "Ones"}, "gamma_regularizer": null, "momentum": 0.99, "beta_constraint": null, "beta_regularizer": null, "name": "batch_normalization_59", "gamma_constraint": null, "epsilon": 0.001, "moving_mean_initializer": {"config": {}, "class_name": "Zeros"}, "gamma_initializer": {"config": {}, "class_name": "Ones"}, "trainable": true, "beta_initializer": {"config": {}, "class_name": "Zeros"}, "axis": 3, "scale": true, "center": true}, "inbound_nodes": [[["conv2d_59", 0, 0, {}]]], "class_name": "BatchNormalization"}, {"name": "batch_normalization_60", "config": {"moving_variance_initializer": {"config": {}, "class_name": "Ones"}, "gamma_regularizer": null, "momentum": 0.99, "beta_constraint": null, "beta_regularizer": null, "name": "batch_normalization_60", "gamma_constraint": null, "epsilon": 0.001, "moving_mean_initializer": {"config": {}, "class_name": "Zeros"}, "gamma_initializer": {"config": {}, "class_name": "Ones"}, "trainable": true, "beta_initializer": {"config": {}, "class_name": "Zeros"}, "axis": 3, "scale": true, "center": true}, "inbound_nodes": [[["conv2d_60", 0, 0, {}]]], "class_name": "BatchNormalization"}, {"name": "mixed6", "config": {"name": "mixed6", "trainable": true, "axis": -1}, "inbound_nodes": [[["batch_normalization_51", 0, 0, {}], ["batch_normalization_54", 0, 0, {}], ["batch_normalization_59", 0, 0, {}], ["batch_normalization_60", 0, 0, {}]]], "class_name": "Concatenate"}, {"name": "conv2d_65", "config": {"data_format": "channels_last", "dilation_rate": [1, 1], "activation": "relu", "filters": 80, "kernel_initializer": {"config": {"seed": null, "distribution": "uniform", "mode": "fan_avg", "scale": 1.0}, "class_name": "VarianceScaling"}, "bias_regularizer": null, "strides": [1, 1], "padding": "same", "kernel_constraint": null, "kernel_regularizer": null, "name": "conv2d_65", "use_bias": true, "kernel_size": [1, 1], "activity_regularizer": null, "trainable": true, "bias_initializer": {"config": {}, "class_name": "Zeros"}, "bias_constraint": null}, "inbound_nodes": [[["mixed6", 0, 0, {}]]], "class_name": "Conv2D"}, {"name": "batch_normalization_65", "config": {"moving_variance_initializer": {"config": {}, "class_name": "Ones"}, "gamma_regularizer": null, "momentum": 0.99, "beta_constraint": null, "beta_regularizer": null, "name": "batch_normalization_65", "gamma_constraint": null, "epsilon": 0.001, "moving_mean_initializer": {"config": {}, "class_name": "Zeros"}, "gamma_initializer": {"config": {}, "class_name": "Ones"}, "trainable": true, "beta_initializer": {"config": {}, "class_name": "Zeros"}, "axis": 3, "scale": true, "center": true}, "inbound_nodes": [[["conv2d_65", 0, 0, {}]]], "class_name": "BatchNormalization"}, {"name": "conv2d_66", "config": {"data_format": "channels_last", "dilation_rate": [1, 1], "activation": "relu", "filters": 96, "kernel_initializer": {"config": {"seed": null, "distribution": "uniform", "mode": "fan_avg", "scale": 1.0}, "class_name": "VarianceScaling"}, "bias_regularizer": null, "strides": [1, 1], "padding": "same", "kernel_constraint": null, "kernel_regularizer": null, "name": "conv2d_66", "use_bias": true, "kernel_size": [7, 1], "activity_regularizer": null, "trainable": true, "bias_initializer": {"config": {}, "class_name": "Zeros"}, "bias_constraint": null}, "inbound_nodes": [[["batch_normalization_65", 0, 0, {}]]], "class_name": "Conv2D"}, {"name": "batch_normalization_66", "config": {"moving_variance_initializer": {"config": {}, "class_name": "Ones"}, "gamma_regularizer": null, "momentum": 0.99, "beta_constraint": null, "beta_regularizer": null, "name": "batch_normalization_66", "gamma_constraint": null, "epsilon": 0.001, "moving_mean_initializer": {"config": {}, "class_name": "Zeros"}, "gamma_initializer": {"config": {}, "class_name": "Ones"}, "trainable": true, "beta_initializer": {"config": {}, "class_name": "Zeros"}, "axis": 3, "scale": true, "center": true}, "inbound_nodes": [[["conv2d_66", 0, 0, {}]]], "class_name": "BatchNormalization"}, {"name": "conv2d_62", "config": {"data_format": "channels_last", "dilation_rate": [1, 1], "activation": "relu", "filters": 96, "kernel_initializer": {"config": {"seed": null, "distribution": "uniform", "mode": "fan_avg", "scale": 1.0}, "class_name": "VarianceScaling"}, "bias_regularizer": null, "strides": [1, 1], "padding": "same", "kernel_constraint": null, "kernel_regularizer": null, "name": "conv2d_62", "use_bias": true, "kernel_size": [1, 1], "activity_regularizer": null, "trainable": true, "bias_initializer": {"config": {}, "class_name": "Zeros"}, "bias_constraint": null}, "inbound_nodes": [[["mixed6", 0, 0, {}]]], "class_name": "Conv2D"}, {"name": "conv2d_67", "config": {"data_format": "channels_last", "dilation_rate": [1, 1], "activation": "relu", "filters": 96, "kernel_initializer": {"config": {"seed": null, "distribution": "uniform", "mode": "fan_avg", "scale": 1.0}, "class_name": "VarianceScaling"}, "bias_regularizer": null, "strides": [1, 1], "padding": "same", "kernel_constraint": null, "kernel_regularizer": null, "name": "conv2d_67", "use_bias": true, "kernel_size": [1, 7], "activity_regularizer": null, "trainable": true, "bias_initializer": {"config": {}, "class_name": "Zeros"}, "bias_constraint": null}, "inbound_nodes": [[["batch_normalization_66", 0, 0, {}]]], "class_name": "Conv2D"}, {"name": "batch_normalization_62", "config": {"moving_variance_initializer": {"config": {}, "class_name": "Ones"}, "gamma_regularizer": null, "momentum": 0.99, "beta_constraint": null, "beta_regularizer": null, "name": "batch_normalization_62", "gamma_constraint": null, "epsilon": 0.001, "moving_mean_initializer": {"config": {}, "class_name": "Zeros"}, "gamma_initializer": {"config": {}, "class_name": "Ones"}, "trainable": true, "beta_initializer": {"config": {}, "class_name": "Zeros"}, "axis": 3, "scale": true, "center": true}, "inbound_nodes": [[["conv2d_62", 0, 0, {}]]], "class_name": "BatchNormalization"}, {"name": "batch_normalization_67", "config": {"moving_variance_initializer": {"config": {}, "class_name": "Ones"}, "gamma_regularizer": null, "momentum": 0.99, "beta_constraint": null, "beta_regularizer": null, "name": "batch_normalization_67", "gamma_constraint": null, "epsilon": 0.001, "moving_mean_initializer": {"config": {}, "class_name": "Zeros"}, "gamma_initializer": {"config": {}, "class_name": "Ones"}, "trainable": true, "beta_initializer": {"config": {}, "class_name": "Zeros"}, "axis": 3, "scale": true, "center": true}, "inbound_nodes": [[["conv2d_67", 0, 0, {}]]], "class_name": "BatchNormalization"}, {"name": "conv2d_63", "config": {"data_format": "channels_last", "dilation_rate": [1, 1], "activation": "relu", "filters": 96, "kernel_initializer": {"config": {"seed": null, "distribution": "uniform", "mode": "fan_avg", "scale": 1.0}, "class_name": "VarianceScaling"}, "bias_regularizer": null, "strides": [1, 1], "padding": "same", "kernel_constraint": null, "kernel_regularizer": null, "name": "conv2d_63", "use_bias": true, "kernel_size": [1, 7], "activity_regularizer": null, "trainable": true, "bias_initializer": {"config": {}, "class_name": "Zeros"}, "bias_constraint": null}, "inbound_nodes": [[["batch_normalization_62", 0, 0, {}]]], "class_name": "Conv2D"}, {"name": "conv2d_68", "config": {"data_format": "channels_last", "dilation_rate": [1, 1], "activation": "relu", "filters": 96, "kernel_initializer": {"config": {"seed": null, "distribution": "uniform", "mode": "fan_avg", "scale": 1.0}, "class_name": "VarianceScaling"}, "bias_regularizer": null, "strides": [1, 1], "padding": "same", "kernel_constraint": null, "kernel_regularizer": null, "name": "conv2d_68", "use_bias": true, "kernel_size": [7, 1], "activity_regularizer": null, "trainable": true, "bias_initializer": {"config": {}, "class_name": "Zeros"}, "bias_constraint": null}, "inbound_nodes": [[["batch_normalization_67", 0, 0, {}]]], "class_name": "Conv2D"}, {"name": "batch_normalization_63", "config": {"moving_variance_initializer": {"config": {}, "class_name": "Ones"}, "gamma_regularizer": null, "momentum": 0.99, "beta_constraint": null, "beta_regularizer": null, "name": "batch_normalization_63", "gamma_constraint": null, "epsilon": 0.001, "moving_mean_initializer": {"config": {}, "class_name": "Zeros"}, "gamma_initializer": {"config": {}, "class_name": "Ones"}, "trainable": true, "beta_initializer": {"config": {}, "class_name": "Zeros"}, "axis": 3, "scale": true, "center": true}, "inbound_nodes": [[["conv2d_63", 0, 0, {}]]], "class_name": "BatchNormalization"}, {"name": "batch_normalization_68", "config": {"moving_variance_initializer": {"config": {}, "class_name": "Ones"}, "gamma_regularizer": null, "momentum": 0.99, "beta_constraint": null, "beta_regularizer": null, "name": "batch_normalization_68", "gamma_constraint": null, "epsilon": 0.001, "moving_mean_initializer": {"config": {}, "class_name": "Zeros"}, "gamma_initializer": {"config": {}, "class_name": "Ones"}, "trainable": true, "beta_initializer": {"config": {}, "class_name": "Zeros"}, "axis": 3, "scale": true, "center": true}, "inbound_nodes": [[["conv2d_68", 0, 0, {}]]], "class_name": "BatchNormalization"}, {"name": "average_pooling2d_7", "config": {"name": "average_pooling2d_7", "pool_size": [3, 3], "data_format": "channels_last", "trainable": true, "padding": "same", "strides": [1, 1]}, "inbound_nodes": [[["mixed6", 0, 0, {}]]], "class_name": "AveragePooling2D"}, {"name": "conv2d_61", "config": {"data_format": "channels_last", "dilation_rate": [1, 1], "activation": "relu", "filters": 96, "kernel_initializer": {"config": {"seed": null, "distribution": "uniform", "mode": "fan_avg", "scale": 1.0}, "class_name": "VarianceScaling"}, "bias_regularizer": null, "strides": [1, 1], "padding": "same", "kernel_constraint": null, "kernel_regularizer": null, "name": "conv2d_61", "use_bias": true, "kernel_size": [1, 1], "activity_regularizer": null, "trainable": true, "bias_initializer": {"config": {}, "class_name": "Zeros"}, "bias_constraint": null}, "inbound_nodes": [[["mixed6", 0, 0, {}]]], "class_name": "Conv2D"}, {"name": "conv2d_64", "config": {"data_format": "channels_last", "dilation_rate": [1, 1], "activation": "relu", "filters": 96, "kernel_initializer": {"config": {"seed": null, "distribution": "uniform", "mode": "fan_avg", "scale": 1.0}, "class_name": "VarianceScaling"}, "bias_regularizer": null, "strides": [1, 1], "padding": "same", "kernel_constraint": null, "kernel_regularizer": null, "name": "conv2d_64", "use_bias": true, "kernel_size": [7, 1], "activity_regularizer": null, "trainable": true, "bias_initializer": {"config": {}, "class_name": "Zeros"}, "bias_constraint": null}, "inbound_nodes": [[["batch_normalization_63", 0, 0, {}]]], "class_name": "Conv2D"}, {"name": "conv2d_69", "config": {"data_format": "channels_last", "dilation_rate": [1, 1], "activation": "relu", "filters": 96, "kernel_initializer": {"config": {"seed": null, "distribution": "uniform", "mode": "fan_avg", "scale": 1.0}, "class_name": "VarianceScaling"}, "bias_regularizer": null, "strides": [1, 1], "padding": "same", "kernel_constraint": null, "kernel_regularizer": null, "name": "conv2d_69", "use_bias": true, "kernel_size": [1, 7], "activity_regularizer": null, "trainable": true, "bias_initializer": {"config": {}, "class_name": "Zeros"}, "bias_constraint": null}, "inbound_nodes": [[["batch_normalization_68", 0, 0, {}]]], "class_name": "Conv2D"}, {"name": "conv2d_70", "config": {"data_format": "channels_last", "dilation_rate": [1, 1], "activation": "relu", "filters": 96, "kernel_initializer": {"config": {"seed": null, "distribution": "uniform", "mode": "fan_avg", "scale": 1.0}, "class_name": "VarianceScaling"}, "bias_regularizer": null, "strides": [1, 1], "padding": "same", "kernel_constraint": null, "kernel_regularizer": null, "name": "conv2d_70", "use_bias": true, "kernel_size": [1, 1], "activity_regularizer": null, "trainable": true, "bias_initializer": {"config": {}, "class_name": "Zeros"}, "bias_constraint": null}, "inbound_nodes": [[["average_pooling2d_7", 0, 0, {}]]], "class_name": "Conv2D"}, {"name": "batch_normalization_61", "config": {"moving_variance_initializer": {"config": {}, "class_name": "Ones"}, "gamma_regularizer": null, "momentum": 0.99, "beta_constraint": null, "beta_regularizer": null, "name": "batch_normalization_61", "gamma_constraint": null, "epsilon": 0.001, "moving_mean_initializer": {"config": {}, "class_name": "Zeros"}, "gamma_initializer": {"config": {}, "class_name": "Ones"}, "trainable": true, "beta_initializer": {"config": {}, "class_name": "Zeros"}, "axis": 3, "scale": true, "center": true}, "inbound_nodes": [[["conv2d_61", 0, 0, {}]]], "class_name": "BatchNormalization"}, {"name": "batch_normalization_64", "config": {"moving_variance_initializer": {"config": {}, "class_name": "Ones"}, "gamma_regularizer": null, "momentum": 0.99, "beta_constraint": null, "beta_regularizer": null, "name": "batch_normalization_64", "gamma_constraint": null, "epsilon": 0.001, "moving_mean_initializer": {"config": {}, "class_name": "Zeros"}, "gamma_initializer": {"config": {}, "class_name": "Ones"}, "trainable": true, "beta_initializer": {"config": {}, "class_name": "Zeros"}, "axis": 3, "scale": true, "center": true}, "inbound_nodes": [[["conv2d_64", 0, 0, {}]]], "class_name": "BatchNormalization"}, {"name": "batch_normalization_69", "config": {"moving_variance_initializer": {"config": {}, "class_name": "Ones"}, "gamma_regularizer": null, "momentum": 0.99, "beta_constraint": null, "beta_regularizer": null, "name": "batch_normalization_69", "gamma_constraint": null, "epsilon": 0.001, "moving_mean_initializer": {"config": {}, "class_name": "Zeros"}, "gamma_initializer": {"config": {}, "class_name": "Ones"}, "trainable": true, "beta_initializer": {"config": {}, "class_name": "Zeros"}, "axis": 3, "scale": true, "center": true}, "inbound_nodes": [[["conv2d_69", 0, 0, {}]]], "class_name": "BatchNormalization"}, {"name": "batch_normalization_70", "config": {"moving_variance_initializer": {"config": {}, "class_name": "Ones"}, "gamma_regularizer": null, "momentum": 0.99, "beta_constraint": null, "beta_regularizer": null, "name": "batch_normalization_70", "gamma_constraint": null, "epsilon": 0.001, "moving_mean_initializer": {"config": {}, "class_name": "Zeros"}, "gamma_initializer": {"config": {}, "class_name": "Ones"}, "trainable": true, "beta_initializer": {"config": {}, "class_name": "Zeros"}, "axis": 3, "scale": true, "center": true}, "inbound_nodes": [[["conv2d_70", 0, 0, {}]]], "class_name": "BatchNormalization"}, {"name": "mixed7", "config": {"name": "mixed7", "trainable": true, "axis": -1}, "inbound_nodes": [[["batch_normalization_61", 0, 0, {}], ["batch_normalization_64", 0, 0, {}], ["batch_normalization_69", 0, 0, {}], ["batch_normalization_70", 0, 0, {}]]], "class_name": "Concatenate"}, {"name": "conv2d_73", "config": {"data_format": "channels_last", "dilation_rate": [1, 1], "activation": "relu", "filters": 96, "kernel_initializer": {"config": {"seed": null, "distribution": "uniform", "mode": "fan_avg", "scale": 1.0}, "class_name": "VarianceScaling"}, "bias_regularizer": null, "strides": [1, 1], "padding": "same", "kernel_constraint": null, "kernel_regularizer": null, "name": "conv2d_73", "use_bias": true, "kernel_size": [1, 1], "activity_regularizer": null, "trainable": true, "bias_initializer": {"config": {}, "class_name": "Zeros"}, "bias_constraint": null}, "inbound_nodes": [[["mixed7", 0, 0, {}]]], "class_name": "Conv2D"}, {"name": "batch_normalization_73", "config": {"moving_variance_initializer": {"config": {}, "class_name": "Ones"}, "gamma_regularizer": null, "momentum": 0.99, "beta_constraint": null, "beta_regularizer": null, "name": "batch_normalization_73", "gamma_constraint": null, "epsilon": 0.001, "moving_mean_initializer": {"config": {}, "class_name": "Zeros"}, "gamma_initializer": {"config": {}, "class_name": "Ones"}, "trainable": true, "beta_initializer": {"config": {}, "class_name": "Zeros"}, "axis": 3, "scale": true, "center": true}, "inbound_nodes": [[["conv2d_73", 0, 0, {}]]], "class_name": "BatchNormalization"}, {"name": "conv2d_74", "config": {"data_format": "channels_last", "dilation_rate": [1, 1], "activation": "relu", "filters": 96, "kernel_initializer": {"config": {"seed": null, "distribution": "uniform", "mode": "fan_avg", "scale": 1.0}, "class_name": "VarianceScaling"}, "bias_regularizer": null, "strides": [1, 1], "padding": "same", "kernel_constraint": null, "kernel_regularizer": null, "name": "conv2d_74", "use_bias": true, "kernel_size": [1, 7], "activity_regularizer": null, "trainable": true, "bias_initializer": {"config": {}, "class_name": "Zeros"}, "bias_constraint": null}, "inbound_nodes": [[["batch_normalization_73", 0, 0, {}]]], "class_name": "Conv2D"}, {"name": "batch_normalization_74", "config": {"moving_variance_initializer": {"config": {}, "class_name": "Ones"}, "gamma_regularizer": null, "momentum": 0.99, "beta_constraint": null, "beta_regularizer": null, "name": "batch_normalization_74", "gamma_constraint": null, "epsilon": 0.001, "moving_mean_initializer": {"config": {}, "class_name": "Zeros"}, "gamma_initializer": {"config": {}, "class_name": "Ones"}, "trainable": true, "beta_initializer": {"config": {}, "class_name": "Zeros"}, "axis": 3, "scale": true, "center": true}, "inbound_nodes": [[["conv2d_74", 0, 0, {}]]], "class_name": "BatchNormalization"}, {"name": "conv2d_71", "config": {"data_format": "channels_last", "dilation_rate": [1, 1], "activation": "relu", "filters": 96, "kernel_initializer": {"config": {"seed": null, "distribution": "uniform", "mode": "fan_avg", "scale": 1.0}, "class_name": "VarianceScaling"}, "bias_regularizer": null, "strides": [1, 1], "padding": "same", "kernel_constraint": null, "kernel_regularizer": null, "name": "conv2d_71", "use_bias": true, "kernel_size": [1, 1], "activity_regularizer": null, "trainable": true, "bias_initializer": {"config": {}, "class_name": "Zeros"}, "bias_constraint": null}, "inbound_nodes": [[["mixed7", 0, 0, {}]]], "class_name": "Conv2D"}, {"name": "conv2d_75", "config": {"data_format": "channels_last", "dilation_rate": [1, 1], "activation": "relu", "filters": 96, "kernel_initializer": {"config": {"seed": null, "distribution": "uniform", "mode": "fan_avg", "scale": 1.0}, "class_name": "VarianceScaling"}, "bias_regularizer": null, "strides": [1, 1], "padding": "same", "kernel_constraint": null, "kernel_regularizer": null, "name": "conv2d_75", "use_bias": true, "kernel_size": [7, 1], "activity_regularizer": null, "trainable": true, "bias_initializer": {"config": {}, "class_name": "Zeros"}, "bias_constraint": null}, "inbound_nodes": [[["batch_normalization_74", 0, 0, {}]]], "class_name": "Conv2D"}, {"name": "batch_normalization_71", "config": {"moving_variance_initializer": {"config": {}, "class_name": "Ones"}, "gamma_regularizer": null, "momentum": 0.99, "beta_constraint": null, "beta_regularizer": null, "name": "batch_normalization_71", "gamma_constraint": null, "epsilon": 0.001, "moving_mean_initializer": {"config": {}, "class_name": "Zeros"}, "gamma_initializer": {"config": {}, "class_name": "Ones"}, "trainable": true, "beta_initializer": {"config": {}, "class_name": "Zeros"}, "axis": 3, "scale": true, "center": true}, "inbound_nodes": [[["conv2d_71", 0, 0, {}]]], "class_name": "BatchNormalization"}, {"name": "batch_normalization_75", "config": {"moving_variance_initializer": {"config": {}, "class_name": "Ones"}, "gamma_regularizer": null, "momentum": 0.99, "beta_constraint": null, "beta_regularizer": null, "name": "batch_normalization_75", "gamma_constraint": null, "epsilon": 0.001, "moving_mean_initializer": {"config": {}, "class_name": "Zeros"}, "gamma_initializer": {"config": {}, "class_name": "Ones"}, "trainable": true, "beta_initializer": {"config": {}, "class_name": "Zeros"}, "axis": 3, "scale": true, "center": true}, "inbound_nodes": [[["conv2d_75", 0, 0, {}]]], "class_name": "BatchNormalization"}, {"name": "conv2d_72", "config": {"data_format": "channels_last", "dilation_rate": [1, 1], "activation": "relu", "filters": 160, "kernel_initializer": {"config": {"seed": null, "distribution": "uniform", "mode": "fan_avg", "scale": 1.0}, "class_name": "VarianceScaling"}, "bias_regularizer": null, "strides": [2, 2], "padding": "valid", "kernel_constraint": null, "kernel_regularizer": null, "name": "conv2d_72", "use_bias": true, "kernel_size": [3, 3], "activity_regularizer": null, "trainable": true, "bias_initializer": {"config": {}, "class_name": "Zeros"}, "bias_constraint": null}, "inbound_nodes": [[["batch_normalization_71", 0, 0, {}]]], "class_name": "Conv2D"}, {"name": "conv2d_76", "config": {"data_format": "channels_last", "dilation_rate": [1, 1], "activation": "relu", "filters": 96, "kernel_initializer": {"config": {"seed": null, "distribution": "uniform", "mode": "fan_avg", "scale": 1.0}, "class_name": "VarianceScaling"}, "bias_regularizer": null, "strides": [2, 2], "padding": "valid", "kernel_constraint": null, "kernel_regularizer": null, "name": "conv2d_76", "use_bias": true, "kernel_size": [3, 3], "activity_regularizer": null, "trainable": true, "bias_initializer": {"config": {}, "class_name": "Zeros"}, "bias_constraint": null}, "inbound_nodes": [[["batch_normalization_75", 0, 0, {}]]], "class_name": "Conv2D"}, {"name": "batch_normalization_72", "config": {"moving_variance_initializer": {"config": {}, "class_name": "Ones"}, "gamma_regularizer": null, "momentum": 0.99, "beta_constraint": null, "beta_regularizer": null, "name": "batch_normalization_72", "gamma_constraint": null, "epsilon": 0.001, "moving_mean_initializer": {"config": {}, "class_name": "Zeros"}, "gamma_initializer": {"config": {}, "class_name": "Ones"}, "trainable": true, "beta_initializer": {"config": {}, "class_name": "Zeros"}, "axis": 3, "scale": true, "center": true}, "inbound_nodes": [[["conv2d_72", 0, 0, {}]]], "class_name": "BatchNormalization"}, {"name": "batch_normalization_76", "config": {"moving_variance_initializer": {"config": {}, "class_name": "Ones"}, "gamma_regularizer": null, "momentum": 0.99, "beta_constraint": null, "beta_regularizer": null, "name": "batch_normalization_76", "gamma_constraint": null, "epsilon": 0.001, "moving_mean_initializer": {"config": {}, "class_name": "Zeros"}, "gamma_initializer": {"config": {}, "class_name": "Ones"}, "trainable": true, "beta_initializer": {"config": {}, "class_name": "Zeros"}, "axis": 3, "scale": true, "center": true}, "inbound_nodes": [[["conv2d_76", 0, 0, {}]]], "class_name": "BatchNormalization"}, {"name": "average_pooling2d_8", "config": {"name": "average_pooling2d_8", "pool_size": [3, 3], "data_format": "channels_last", "trainable": true, "padding": "valid", "strides": [2, 2]}, "inbound_nodes": [[["mixed7", 0, 0, {}]]], "class_name": "AveragePooling2D"}, {"name": "mixed8", "config": {"name": "mixed8", "trainable": true, "axis": -1}, "inbound_nodes": [[["batch_normalization_72", 0, 0, {}], ["batch_normalization_76", 0, 0, {}], ["average_pooling2d_8", 0, 0, {}]]], "class_name": "Concatenate"}, {"name": "conv2d_81", "config": {"data_format": "channels_last", "dilation_rate": [1, 1], "activation": "relu", "filters": 224, "kernel_initializer": {"config": {"seed": null, "distribution": "uniform", "mode": "fan_avg", "scale": 1.0}, "class_name": "VarianceScaling"}, "bias_regularizer": null, "strides": [1, 1], "padding": "same", "kernel_constraint": null, "kernel_regularizer": null, "name": "conv2d_81", "use_bias": true, "kernel_size": [1, 1], "activity_regularizer": null, "trainable": true, "bias_initializer": {"config": {}, "class_name": "Zeros"}, "bias_constraint": null}, "inbound_nodes": [[["mixed8", 0, 0, {}]]], "class_name": "Conv2D"}, {"name": "batch_normalization_81", "config": {"moving_variance_initializer": {"config": {}, "class_name": "Ones"}, "gamma_regularizer": null, "momentum": 0.99, "beta_constraint": null, "beta_regularizer": null, "name": "batch_normalization_81", "gamma_constraint": null, "epsilon": 0.001, "moving_mean_initializer": {"config": {}, "class_name": "Zeros"}, "gamma_initializer": {"config": {}, "class_name": "Ones"}, "trainable": true, "beta_initializer": {"config": {}, "class_name": "Zeros"}, "axis": 3, "scale": true, "center": true}, "inbound_nodes": [[["conv2d_81", 0, 0, {}]]], "class_name": "BatchNormalization"}, {"name": "conv2d_78", "config": {"data_format": "channels_last", "dilation_rate": [1, 1], "activation": "relu", "filters": 192, "kernel_initializer": {"config": {"seed": null, "distribution": "uniform", "mode": "fan_avg", "scale": 1.0}, "class_name": "VarianceScaling"}, "bias_regularizer": null, "strides": [1, 1], "padding": "same", "kernel_constraint": null, "kernel_regularizer": null, "name": "conv2d_78", "use_bias": true, "kernel_size": [1, 1], "activity_regularizer": null, "trainable": true, "bias_initializer": {"config": {}, "class_name": "Zeros"}, "bias_constraint": null}, "inbound_nodes": [[["mixed8", 0, 0, {}]]], "class_name": "Conv2D"}, {"name": "conv2d_82", "config": {"data_format": "channels_last", "dilation_rate": [1, 1], "activation": "relu", "filters": 192, "kernel_initializer": {"config": {"seed": null, "distribution": "uniform", "mode": "fan_avg", "scale": 1.0}, "class_name": "VarianceScaling"}, "bias_regularizer": null, "strides": [1, 1], "padding": "same", "kernel_constraint": null, "kernel_regularizer": null, "name": "conv2d_82", "use_bias": true, "kernel_size": [3, 3], "activity_regularizer": null, "trainable": true, "bias_initializer": {"config": {}, "class_name": "Zeros"}, "bias_constraint": null}, "inbound_nodes": [[["batch_normalization_81", 0, 0, {}]]], "class_name": "Conv2D"}, {"name": "batch_normalization_78", "config": {"moving_variance_initializer": {"config": {}, "class_name": "Ones"}, "gamma_regularizer": null, "momentum": 0.99, "beta_constraint": null, "beta_regularizer": null, "name": "batch_normalization_78", "gamma_constraint": null, "epsilon": 0.001, "moving_mean_initializer": {"config": {}, "class_name": "Zeros"}, "gamma_initializer": {"config": {}, "class_name": "Ones"}, "trainable": true, "beta_initializer": {"config": {}, "class_name": "Zeros"}, "axis": 3, "scale": true, "center": true}, "inbound_nodes": [[["conv2d_78", 0, 0, {}]]], "class_name": "BatchNormalization"}, {"name": "batch_normalization_82", "config": {"moving_variance_initializer": {"config": {}, "class_name": "Ones"}, "gamma_regularizer": null, "momentum": 0.99, "beta_constraint": null, "beta_regularizer": null, "name": "batch_normalization_82", "gamma_constraint": null, "epsilon": 0.001, "moving_mean_initializer": {"config": {}, "class_name": "Zeros"}, "gamma_initializer": {"config": {}, "class_name": "Ones"}, "trainable": true, "beta_initializer": {"config": {}, "class_name": "Zeros"}, "axis": 3, "scale": true, "center": true}, "inbound_nodes": [[["conv2d_82", 0, 0, {}]]], "class_name": "BatchNormalization"}, {"name": "conv2d_79", "config": {"data_format": "channels_last", "dilation_rate": [1, 1], "activation": "relu", "filters": 192, "kernel_initializer": {"config": {"seed": null, "distribution": "uniform", "mode": "fan_avg", "scale": 1.0}, "class_name": "VarianceScaling"}, "bias_regularizer": null, "strides": [1, 1], "padding": "same", "kernel_constraint": null, "kernel_regularizer": null, "name": "conv2d_79", "use_bias": true, "kernel_size": [1, 3], "activity_regularizer": null, "trainable": true, "bias_initializer": {"config": {}, "class_name": "Zeros"}, "bias_constraint": null}, "inbound_nodes": [[["batch_normalization_78", 0, 0, {}]]], "class_name": "Conv2D"}, {"name": "conv2d_80", "config": {"data_format": "channels_last", "dilation_rate": [1, 1], "activation": "relu", "filters": 192, "kernel_initializer": {"config": {"seed": null, "distribution": "uniform", "mode": "fan_avg", "scale": 1.0}, "class_name": "VarianceScaling"}, "bias_regularizer": null, "strides": [1, 1], "padding": "same", "kernel_constraint": null, "kernel_regularizer": null, "name": "conv2d_80", "use_bias": true, "kernel_size": [3, 1], "activity_regularizer": null, "trainable": true, "bias_initializer": {"config": {}, "class_name": "Zeros"}, "bias_constraint": null}, "inbound_nodes": [[["batch_normalization_78", 0, 0, {}]]], "class_name": "Conv2D"}, {"name": "conv2d_83", "config": {"data_format": "channels_last", "dilation_rate": [1, 1], "activation": "relu", "filters": 192, "kernel_initializer": {"config": {"seed": null, "distribution": "uniform", "mode": "fan_avg", "scale": 1.0}, "class_name": "VarianceScaling"}, "bias_regularizer": null, "strides": [1, 1], "padding": "same", "kernel_constraint": null, "kernel_regularizer": null, "name": "conv2d_83", "use_bias": true, "kernel_size": [1, 3], "activity_regularizer": null, "trainable": true, "bias_initializer": {"config": {}, "class_name": "Zeros"}, "bias_constraint": null}, "inbound_nodes": [[["batch_normalization_82", 0, 0, {}]]], "class_name": "Conv2D"}, {"name": "conv2d_84", "config": {"data_format": "channels_last", "dilation_rate": [1, 1], "activation": "relu", "filters": 192, "kernel_initializer": {"config": {"seed": null, "distribution": "uniform", "mode": "fan_avg", "scale": 1.0}, "class_name": "VarianceScaling"}, "bias_regularizer": null, "strides": [1, 1], "padding": "same", "kernel_constraint": null, "kernel_regularizer": null, "name": "conv2d_84", "use_bias": true, "kernel_size": [3, 1], "activity_regularizer": null, "trainable": true, "bias_initializer": {"config": {}, "class_name": "Zeros"}, "bias_constraint": null}, "inbound_nodes": [[["batch_normalization_82", 0, 0, {}]]], "class_name": "Conv2D"}, {"name": "average_pooling2d_9", "config": {"name": "average_pooling2d_9", "pool_size": [3, 3], "data_format": "channels_last", "trainable": true, "padding": "same", "strides": [1, 1]}, "inbound_nodes": [[["mixed8", 0, 0, {}]]], "class_name": "AveragePooling2D"}, {"name": "conv2d_77", "config": {"data_format": "channels_last", "dilation_rate": [1, 1], "activation": "relu", "filters": 160, "kernel_initializer": {"config": {"seed": null, "distribution": "uniform", "mode": "fan_avg", "scale": 1.0}, "class_name": "VarianceScaling"}, "bias_regularizer": null, "strides": [1, 1], "padding": "same", "kernel_constraint": null, "kernel_regularizer": null, "name": "conv2d_77", "use_bias": true, "kernel_size": [1, 1], "activity_regularizer": null, "trainable": true, "bias_initializer": {"config": {}, "class_name": "Zeros"}, "bias_constraint": null}, "inbound_nodes": [[["mixed8", 0, 0, {}]]], "class_name": "Conv2D"}, {"name": "batch_normalization_79", "config": {"moving_variance_initializer": {"config": {}, "class_name": "Ones"}, "gamma_regularizer": null, "momentum": 0.99, "beta_constraint": null, "beta_regularizer": null, "name": "batch_normalization_79", "gamma_constraint": null, "epsilon": 0.001, "moving_mean_initializer": {"config": {}, "class_name": "Zeros"}, "gamma_initializer": {"config": {}, "class_name": "Ones"}, "trainable": true, "beta_initializer": {"config": {}, "class_name": "Zeros"}, "axis": 3, "scale": true, "center": true}, "inbound_nodes": [[["conv2d_79", 0, 0, {}]]], "class_name": "BatchNormalization"}, {"name": "batch_normalization_80", "config": {"moving_variance_initializer": {"config": {}, "class_name": "Ones"}, "gamma_regularizer": null, "momentum": 0.99, "beta_constraint": null, "beta_regularizer": null, "name": "batch_normalization_80", "gamma_constraint": null, "epsilon": 0.001, "moving_mean_initializer": {"config": {}, "class_name": "Zeros"}, "gamma_initializer": {"config": {}, "class_name": "Ones"}, "trainable": true, "beta_initializer": {"config": {}, "class_name": "Zeros"}, "axis": 3, "scale": true, "center": true}, "inbound_nodes": [[["conv2d_80", 0, 0, {}]]], "class_name": "BatchNormalization"}, {"name": "batch_normalization_83", "config": {"moving_variance_initializer": {"config": {}, "class_name": "Ones"}, "gamma_regularizer": null, "momentum": 0.99, "beta_constraint": null, "beta_regularizer": null, "name": "batch_normalization_83", "gamma_constraint": null, "epsilon": 0.001, "moving_mean_initializer": {"config": {}, "class_name": "Zeros"}, "gamma_initializer": {"config": {}, "class_name": "Ones"}, "trainable": true, "beta_initializer": {"config": {}, "class_name": "Zeros"}, "axis": 3, "scale": true, "center": true}, "inbound_nodes": [[["conv2d_83", 0, 0, {}]]], "class_name": "BatchNormalization"}, {"name": "batch_normalization_84", "config": {"moving_variance_initializer": {"config": {}, "class_name": "Ones"}, "gamma_regularizer": null, "momentum": 0.99, "beta_constraint": null, "beta_regularizer": null, "name": "batch_normalization_84", "gamma_constraint": null, "epsilon": 0.001, "moving_mean_initializer": {"config": {}, "class_name": "Zeros"}, "gamma_initializer": {"config": {}, "class_name": "Ones"}, "trainable": true, "beta_initializer": {"config": {}, "class_name": "Zeros"}, "axis": 3, "scale": true, "center": true}, "inbound_nodes": [[["conv2d_84", 0, 0, {}]]], "class_name": "BatchNormalization"}, {"name": "conv2d_85", "config": {"data_format": "channels_last", "dilation_rate": [1, 1], "activation": "relu", "filters": 96, "kernel_initializer": {"config": {"seed": null, "distribution": "uniform", "mode": "fan_avg", "scale": 1.0}, "class_name": "VarianceScaling"}, "bias_regularizer": null, "strides": [1, 1], "padding": "same", "kernel_constraint": null, "kernel_regularizer": null, "name": "conv2d_85", "use_bias": true, "kernel_size": [1, 1], "activity_regularizer": null, "trainable": true, "bias_initializer": {"config": {}, "class_name": "Zeros"}, "bias_constraint": null}, "inbound_nodes": [[["average_pooling2d_9", 0, 0, {}]]], "class_name": "Conv2D"}, {"name": "batch_normalization_77", "config": {"moving_variance_initializer": {"config": {}, "class_name": "Ones"}, "gamma_regularizer": null, "momentum": 0.99, "beta_constraint": null, "beta_regularizer": null, "name": "batch_normalization_77", "gamma_constraint": null, "epsilon": 0.001, "moving_mean_initializer": {"config": {}, "class_name": "Zeros"}, "gamma_initializer": {"config": {}, "class_name": "Ones"}, "trainable": true, "beta_initializer": {"config": {}, "class_name": "Zeros"}, "axis": 3, "scale": true, "center": true}, "inbound_nodes": [[["conv2d_77", 0, 0, {}]]], "class_name": "BatchNormalization"}, {"name": "mixed9_0", "config": {"name": "mixed9_0", "trainable": true, "axis": -1}, "inbound_nodes": [[["batch_normalization_79", 0, 0, {}], ["batch_normalization_80", 0, 0, {}]]], "class_name": "Concatenate"}, {"name": "concatenate_1", "config": {"name": "concatenate_1", "trainable": true, "axis": -1}, "inbound_nodes": [[["batch_normalization_83", 0, 0, {}], ["batch_normalization_84", 0, 0, {}]]], "class_name": "Concatenate"}, {"name": "batch_normalization_85", "config": {"moving_variance_initializer": {"config": {}, "class_name": "Ones"}, "gamma_regularizer": null, "momentum": 0.99, "beta_constraint": null, "beta_regularizer": null, "name": "batch_normalization_85", "gamma_constraint": null, "epsilon": 0.001, "moving_mean_initializer": {"config": {}, "class_name": "Zeros"}, "gamma_initializer": {"config": {}, "class_name": "Ones"}, "trainable": true, "beta_initializer": {"config": {}, "class_name": "Zeros"}, "axis": 3, "scale": true, "center": true}, "inbound_nodes": [[["conv2d_85", 0, 0, {}]]], "class_name": "BatchNormalization"}, {"name": "mixed9", "config": {"name": "mixed9", "trainable": true, "axis": -1}, "inbound_nodes": [[["batch_normalization_77", 0, 0, {}], ["mixed9_0", 0, 0, {}], ["concatenate_1", 0, 0, {}], ["batch_normalization_85", 0, 0, {}]]], "class_name": "Concatenate"}, {"name": "conv2d_90", "config": {"data_format": "channels_last", "dilation_rate": [1, 1], "activation": "relu", "filters": 224, "kernel_initializer": {"config": {"seed": null, "distribution": "uniform", "mode": "fan_avg", "scale": 1.0}, "class_name": "VarianceScaling"}, "bias_regularizer": null, "strides": [1, 1], "padding": "same", "kernel_constraint": null, "kernel_regularizer": null, "name": "conv2d_90", "use_bias": true, "kernel_size": [1, 1], "activity_regularizer": null, "trainable": true, "bias_initializer": {"config": {}, "class_name": "Zeros"}, "bias_constraint": null}, "inbound_nodes": [[["mixed9", 0, 0, {}]]], "class_name": "Conv2D"}, {"name": "batch_normalization_90", "config": {"moving_variance_initializer": {"config": {}, "class_name": "Ones"}, "gamma_regularizer": null, "momentum": 0.99, "beta_constraint": null, "beta_regularizer": null, "name": "batch_normalization_90", "gamma_constraint": null, "epsilon": 0.001, "moving_mean_initializer": {"config": {}, "class_name": "Zeros"}, "gamma_initializer": {"config": {}, "class_name": "Ones"}, "trainable": true, "beta_initializer": {"config": {}, "class_name": "Zeros"}, "axis": 3, "scale": true, "center": true}, "inbound_nodes": [[["conv2d_90", 0, 0, {}]]], "class_name": "BatchNormalization"}, {"name": "conv2d_87", "config": {"data_format": "channels_last", "dilation_rate": [1, 1], "activation": "relu", "filters": 192, "kernel_initializer": {"config": {"seed": null, "distribution": "uniform", "mode": "fan_avg", "scale": 1.0}, "class_name": "VarianceScaling"}, "bias_regularizer": null, "strides": [1, 1], "padding": "same", "kernel_constraint": null, "kernel_regularizer": null, "name": "conv2d_87", "use_bias": true, "kernel_size": [1, 1], "activity_regularizer": null, "trainable": true, "bias_initializer": {"config": {}, "class_name": "Zeros"}, "bias_constraint": null}, "inbound_nodes": [[["mixed9", 0, 0, {}]]], "class_name": "Conv2D"}, {"name": "conv2d_91", "config": {"data_format": "channels_last", "dilation_rate": [1, 1], "activation": "relu", "filters": 192, "kernel_initializer": {"config": {"seed": null, "distribution": "uniform", "mode": "fan_avg", "scale": 1.0}, "class_name": "VarianceScaling"}, "bias_regularizer": null, "strides": [1, 1], "padding": "same", "kernel_constraint": null, "kernel_regularizer": null, "name": "conv2d_91", "use_bias": true, "kernel_size": [3, 3], "activity_regularizer": null, "trainable": true, "bias_initializer": {"config": {}, "class_name": "Zeros"}, "bias_constraint": null}, "inbound_nodes": [[["batch_normalization_90", 0, 0, {}]]], "class_name": "Conv2D"}, {"name": "batch_normalization_87", "config": {"moving_variance_initializer": {"config": {}, "class_name": "Ones"}, "gamma_regularizer": null, "momentum": 0.99, "beta_constraint": null, "beta_regularizer": null, "name": "batch_normalization_87", "gamma_constraint": null, "epsilon": 0.001, "moving_mean_initializer": {"config": {}, "class_name": "Zeros"}, "gamma_initializer": {"config": {}, "class_name": "Ones"}, "trainable": true, "beta_initializer": {"config": {}, "class_name": "Zeros"}, "axis": 3, "scale": true, "center": true}, "inbound_nodes": [[["conv2d_87", 0, 0, {}]]], "class_name": "BatchNormalization"}, {"name": "batch_normalization_91", "config": {"moving_variance_initializer": {"config": {}, "class_name": "Ones"}, "gamma_regularizer": null, "momentum": 0.99, "beta_constraint": null, "beta_regularizer": null, "name": "batch_normalization_91", "gamma_constraint": null, "epsilon": 0.001, "moving_mean_initializer": {"config": {}, "class_name": "Zeros"}, "gamma_initializer": {"config": {}, "class_name": "Ones"}, "trainable": true, "beta_initializer": {"config": {}, "class_name": "Zeros"}, "axis": 3, "scale": true, "center": true}, "inbound_nodes": [[["conv2d_91", 0, 0, {}]]], "class_name": "BatchNormalization"}, {"name": "conv2d_88", "config": {"data_format": "channels_last", "dilation_rate": [1, 1], "activation": "relu", "filters": 192, "kernel_initializer": {"config": {"seed": null, "distribution": "uniform", "mode": "fan_avg", "scale": 1.0}, "class_name": "VarianceScaling"}, "bias_regularizer": null, "strides": [1, 1], "padding": "same", "kernel_constraint": null, "kernel_regularizer": null, "name": "conv2d_88", "use_bias": true, "kernel_size": [1, 3], "activity_regularizer": null, "trainable": true, "bias_initializer": {"config": {}, "class_name": "Zeros"}, "bias_constraint": null}, "inbound_nodes": [[["batch_normalization_87", 0, 0, {}]]], "class_name": "Conv2D"}, {"name": "conv2d_89", "config": {"data_format": "channels_last", "dilation_rate": [1, 1], "activation": "relu", "filters": 192, "kernel_initializer": {"config": {"seed": null, "distribution": "uniform", "mode": "fan_avg", "scale": 1.0}, "class_name": "VarianceScaling"}, "bias_regularizer": null, "strides": [1, 1], "padding": "same", "kernel_constraint": null, "kernel_regularizer": null, "name": "conv2d_89", "use_bias": true, "kernel_size": [3, 1], "activity_regularizer": null, "trainable": true, "bias_initializer": {"config": {}, "class_name": "Zeros"}, "bias_constraint": null}, "inbound_nodes": [[["batch_normalization_87", 0, 0, {}]]], "class_name": "Conv2D"}, {"name": "conv2d_92", "config": {"data_format": "channels_last", "dilation_rate": [1, 1], "activation": "relu", "filters": 192, "kernel_initializer": {"config": {"seed": null, "distribution": "uniform", "mode": "fan_avg", "scale": 1.0}, "class_name": "VarianceScaling"}, "bias_regularizer": null, "strides": [1, 1], "padding": "same", "kernel_constraint": null, "kernel_regularizer": null, "name": "conv2d_92", "use_bias": true, "kernel_size": [1, 3], "activity_regularizer": null, "trainable": true, "bias_initializer": {"config": {}, "class_name": "Zeros"}, "bias_constraint": null}, "inbound_nodes": [[["batch_normalization_91", 0, 0, {}]]], "class_name": "Conv2D"}, {"name": "conv2d_93", "config": {"data_format": "channels_last", "dilation_rate": [1, 1], "activation": "relu", "filters": 192, "kernel_initializer": {"config": {"seed": null, "distribution": "uniform", "mode": "fan_avg", "scale": 1.0}, "class_name": "VarianceScaling"}, "bias_regularizer": null, "strides": [1, 1], "padding": "same", "kernel_constraint": null, "kernel_regularizer": null, "name": "conv2d_93", "use_bias": true, "kernel_size": [3, 1], "activity_regularizer": null, "trainable": true, "bias_initializer": {"config": {}, "class_name": "Zeros"}, "bias_constraint": null}, "inbound_nodes": [[["batch_normalization_91", 0, 0, {}]]], "class_name": "Conv2D"}, {"name": "average_pooling2d_10", "config": {"name": "average_pooling2d_10", "pool_size": [3, 3], "data_format": "channels_last", "trainable": true, "padding": "same", "strides": [1, 1]}, "inbound_nodes": [[["mixed9", 0, 0, {}]]], "class_name": "AveragePooling2D"}, {"name": "conv2d_86", "config": {"data_format": "channels_last", "dilation_rate": [1, 1], "activation": "relu", "filters": 160, "kernel_initializer": {"config": {"seed": null, "distribution": "uniform", "mode": "fan_avg", "scale": 1.0}, "class_name": "VarianceScaling"}, "bias_regularizer": null, "strides": [1, 1], "padding": "same", "kernel_constraint": null, "kernel_regularizer": null, "name": "conv2d_86", "use_bias": true, "kernel_size": [1, 1], "activity_regularizer": null, "trainable": true, "bias_initializer": {"config": {}, "class_name": "Zeros"}, "bias_constraint": null}, "inbound_nodes": [[["mixed9", 0, 0, {}]]], "class_name": "Conv2D"}, {"name": "batch_normalization_88", "config": {"moving_variance_initializer": {"config": {}, "class_name": "Ones"}, "gamma_regularizer": null, "momentum": 0.99, "beta_constraint": null, "beta_regularizer": null, "name": "batch_normalization_88", "gamma_constraint": null, "epsilon": 0.001, "moving_mean_initializer": {"config": {}, "class_name": "Zeros"}, "gamma_initializer": {"config": {}, "class_name": "Ones"}, "trainable": true, "beta_initializer": {"config": {}, "class_name": "Zeros"}, "axis": 3, "scale": true, "center": true}, "inbound_nodes": [[["conv2d_88", 0, 0, {}]]], "class_name": "BatchNormalization"}, {"name": "batch_normalization_89", "config": {"moving_variance_initializer": {"config": {}, "class_name": "Ones"}, "gamma_regularizer": null, "momentum": 0.99, "beta_constraint": null, "beta_regularizer": null, "name": "batch_normalization_89", "gamma_constraint": null, "epsilon": 0.001, "moving_mean_initializer": {"config": {}, "class_name": "Zeros"}, "gamma_initializer": {"config": {}, "class_name": "Ones"}, "trainable": true, "beta_initializer": {"config": {}, "class_name": "Zeros"}, "axis": 3, "scale": true, "center": true}, "inbound_nodes": [[["conv2d_89", 0, 0, {}]]], "class_name": "BatchNormalization"}, {"name": "batch_normalization_92", "config": {"moving_variance_initializer": {"config": {}, "class_name": "Ones"}, "gamma_regularizer": null, "momentum": 0.99, "beta_constraint": null, "beta_regularizer": null, "name": "batch_normalization_92", "gamma_constraint": null, "epsilon": 0.001, "moving_mean_initializer": {"config": {}, "class_name": "Zeros"}, "gamma_initializer": {"config": {}, "class_name": "Ones"}, "trainable": true, "beta_initializer": {"config": {}, "class_name": "Zeros"}, "axis": 3, "scale": true, "center": true}, "inbound_nodes": [[["conv2d_92", 0, 0, {}]]], "class_name": "BatchNormalization"}, {"name": "batch_normalization_93", "config": {"moving_variance_initializer": {"config": {}, "class_name": "Ones"}, "gamma_regularizer": null, "momentum": 0.99, "beta_constraint": null, "beta_regularizer": null, "name": "batch_normalization_93", "gamma_constraint": null, "epsilon": 0.001, "moving_mean_initializer": {"config": {}, "class_name": "Zeros"}, "gamma_initializer": {"config": {}, "class_name": "Ones"}, "trainable": true, "beta_initializer": {"config": {}, "class_name": "Zeros"}, "axis": 3, "scale": true, "center": true}, "inbound_nodes": [[["conv2d_93", 0, 0, {}]]], "class_name": "BatchNormalization"}, {"name": "conv2d_94", "config": {"data_format": "channels_last", "dilation_rate": [1, 1], "activation": "relu", "filters": 96, "kernel_initializer": {"config": {"seed": null, "distribution": "uniform", "mode": "fan_avg", "scale": 1.0}, "class_name": "VarianceScaling"}, "bias_regularizer": null, "strides": [1, 1], "padding": "same", "kernel_constraint": null, "kernel_regularizer": null, "name": "conv2d_94", "use_bias": true, "kernel_size": [1, 1], "activity_regularizer": null, "trainable": true, "bias_initializer": {"config": {}, "class_name": "Zeros"}, "bias_constraint": null}, "inbound_nodes": [[["average_pooling2d_10", 0, 0, {}]]], "class_name": "Conv2D"}, {"name": "batch_normalization_86", "config": {"moving_variance_initializer": {"config": {}, "class_name": "Ones"}, "gamma_regularizer": null, "momentum": 0.99, "beta_constraint": null, "beta_regularizer": null, "name": "batch_normalization_86", "gamma_constraint": null, "epsilon": 0.001, "moving_mean_initializer": {"config": {}, "class_name": "Zeros"}, "gamma_initializer": {"config": {}, "class_name": "Ones"}, "trainable": true, "beta_initializer": {"config": {}, "class_name": "Zeros"}, "axis": 3, "scale": true, "center": true}, "inbound_nodes": [[["conv2d_86", 0, 0, {}]]], "class_name": "BatchNormalization"}, {"name": "mixed9_1", "config": {"name": "mixed9_1", "trainable": true, "axis": -1}, "inbound_nodes": [[["batch_normalization_88", 0, 0, {}], ["batch_normalization_89", 0, 0, {}]]], "class_name": "Concatenate"}, {"name": "concatenate_2", "config": {"name": "concatenate_2", "trainable": true, "axis": -1}, "inbound_nodes": [[["batch_normalization_92", 0, 0, {}], ["batch_normalization_93", 0, 0, {}]]], "class_name": "Concatenate"}, {"name": "batch_normalization_94", "config": {"moving_variance_initializer": {"config": {}, "class_name": "Ones"}, "gamma_regularizer": null, "momentum": 0.99, "beta_constraint": null, "beta_regularizer": null, "name": "batch_normalization_94", "gamma_constraint": null, "epsilon": 0.001, "moving_mean_initializer": {"config": {}, "class_name": "Zeros"}, "gamma_initializer": {"config": {}, "class_name": "Ones"}, "trainable": true, "beta_initializer": {"config": {}, "class_name": "Zeros"}, "axis": 3, "scale": true, "center": true}, "inbound_nodes": [[["conv2d_94", 0, 0, {}]]], "class_name": "BatchNormalization"}, {"name": "mixed10", "config": {"name": "mixed10", "trainable": true, "axis": -1}, "inbound_nodes": [[["batch_normalization_86", 0, 0, {}], ["mixed9_1", 0, 0, {}], ["concatenate_2", 0, 0, {}], ["batch_normalization_94", 0, 0, {}]]], "class_name": "Concatenate"}, {"name": "end_max_pool", "config": {"name": "end_max_pool", "pool_size": [2, 2], "data_format": "channels_last", "trainable": true, "padding": "valid", "strides": [2, 2]}, "inbound_nodes": [[["mixed10", 0, 0, {}]]], "class_name": "MaxPooling2D"}, {"name": "flatten", "config": {"name": "flatten", "trainable": true}, "inbound_nodes": [[["end_max_pool", 0, 0, {}]]], "class_name": "Flatten"}, {"name": "output_layer", "config": {"kernel_constraint": null, "activation": "sigmoid", "kernel_initializer": {"config": {"seed": null, "distribution": "uniform", "mode": "fan_avg", "scale": 1.0}, "class_name": "VarianceScaling"}, "bias_regularizer": null, "kernel_regularizer": null, "name": "output_layer", "use_bias": true, "bias_constraint": null, "activity_regularizer": null, "trainable": true, "units": 1, "bias_initializer": {"config": {}, "class_name": "Zeros"}}, "inbound_nodes": [[["flatten", 0, 0, {}]]], "class_name": "Dense"}], "name": "model_1"}, "backend": "tensorflow", "class_name": "Model"}