{"keras_version": "2.0.6", "config": {"name": "model_1", "layers": [{"config": {"dtype": "float32", "batch_input_shape": [null, 1152, 832, 1], "name": "input_1", "sparse": false}, "class_name": "InputLayer", "inbound_nodes": [], "name": "input_1"}, {"config": {"dilation_rate": [1, 1], "kernel_constraint": null, "strides": [2, 2], "use_bias": true, "kernel_regularizer": null, "data_format": "channels_last", "kernel_initializer": {"config": {"mode": "fan_avg", "distribution": "uniform", "scale": 1.0, "seed": null}, "class_name": "VarianceScaling"}, "bias_constraint": null, "bias_initializer": {"config": {}, "class_name": "Zeros"}, "kernel_size": [3, 3], "activity_regularizer": null, "name": "conv2d_1", "trainable": true, "filters": 16, "bias_regularizer": null, "activation": "relu", "padding": "valid"}, "class_name": "Conv2D", "inbound_nodes": [[["input_1", 0, 0, {}]]], "name": "conv2d_1"}, {"config": {"momentum": 0.99, "beta_regularizer": null, "epsilon": 0.001, "trainable": true, "beta_constraint": null, "moving_variance_initializer": {"config": {}, "class_name": "Ones"}, "center": true, "gamma_constraint": null, "name": "batch_normalization_1", "gamma_regularizer": null, "axis": 3, "scale": true, "gamma_initializer": {"config": {}, "class_name": "Ones"}, "moving_mean_initializer": {"config": {}, "class_name": "Zeros"}, "beta_initializer": {"config": {}, "class_name": "Zeros"}}, "class_name": "BatchNormalization", "inbound_nodes": [[["conv2d_1", 0, 0, {}]]], "name": "batch_normalization_1"}, {"config": {"dilation_rate": [1, 1], "kernel_constraint": null, "strides": [1, 1], "use_bias": true, "kernel_regularizer": null, "data_format": "channels_last", "kernel_initializer": {"config": {"mode": "fan_avg", "distribution": "uniform", "scale": 1.0, "seed": null}, "class_name": "VarianceScaling"}, "bias_constraint": null, "bias_initializer": {"config": {}, "class_name": "Zeros"}, "kernel_size": [3, 3], "activity_regularizer": null, "name": "conv2d_2", "trainable": true, "filters": 16, "bias_regularizer": null, "activation": "relu", "padding": "valid"}, "class_name": "Conv2D", "inbound_nodes": [[["batch_normalization_1", 0, 0, {}]]], "name": "conv2d_2"}, {"config": {"momentum": 0.99, "beta_regularizer": null, "epsilon": 0.001, "trainable": true, "beta_constraint": null, "moving_variance_initializer": {"config": {}, "class_name": "Ones"}, "center": true, "gamma_constraint": null, "name": "batch_normalization_2", "gamma_regularizer": null, "axis": 3, "scale": true, "gamma_initializer": {"config": {}, "class_name": "Ones"}, "moving_mean_initializer": {"config": {}, "class_name": "Zeros"}, "beta_initializer": {"config": {}, "class_name": "Zeros"}}, "class_name": "BatchNormalization", "inbound_nodes": [[["conv2d_2", 0, 0, {}]]], "name": "batch_normalization_2"}, {"config": {"dilation_rate": [1, 1], "kernel_constraint": null, "strides": [1, 1], "use_bias": true, "kernel_regularizer": null, "data_format": "channels_last", "kernel_initializer": {"config": {"mode": "fan_avg", "distribution": "uniform", "scale": 1.0, "seed": null}, "class_name": "VarianceScaling"}, "bias_constraint": null, "bias_initializer": {"config": {}, "class_name": "Zeros"}, "kernel_size": [3, 3], "activity_regularizer": null, "name": "conv2d_3", "trainable": true, "filters": 32, "bias_regularizer": null, "activation": "relu", "padding": "same"}, "class_name": "Conv2D", "inbound_nodes": [[["batch_normalization_2", 0, 0, {}]]], "name": "conv2d_3"}, {"config": {"momentum": 0.99, "beta_regularizer": null, "epsilon": 0.001, "trainable": true, "beta_constraint": null, "moving_variance_initializer": {"config": {}, "class_name": "Ones"}, "center": true, "gamma_constraint": null, "name": "batch_normalization_3", "gamma_regularizer": null, "axis": 3, "scale": true, "gamma_initializer": {"config": {}, "class_name": "Ones"}, "moving_mean_initializer": {"config": {}, "class_name": "Zeros"}, "beta_initializer": {"config": {}, "class_name": "Zeros"}}, "class_name": "BatchNormalization", "inbound_nodes": [[["conv2d_3", 0, 0, {}]]], "name": "batch_normalization_3"}, {"config": {"strides": [2, 2], "name": "max_pooling2d_1", "trainable": true, "padding": "valid", "pool_size": [3, 3], "data_format": "channels_last"}, "class_name": "MaxPooling2D", "inbound_nodes": [[["batch_normalization_3", 0, 0, {}]]], "name": "max_pooling2d_1"}, {"config": {"dilation_rate": [1, 1], "kernel_constraint": null, "strides": [1, 1], "use_bias": true, "kernel_regularizer": null, "data_format": "channels_last", "kernel_initializer": {"config": {"mode": "fan_avg", "distribution": "uniform", "scale": 1.0, "seed": null}, "class_name": "VarianceScaling"}, "bias_constraint": null, "bias_initializer": {"config": {}, "class_name": "Zeros"}, "kernel_size": [1, 1], "activity_regularizer": null, "name": "conv2d_4", "trainable": true, "filters": 40, "bias_regularizer": null, "activation": "relu", "padding": "valid"}, "class_name": "Conv2D", "inbound_nodes": [[["max_pooling2d_1", 0, 0, {}]]], "name": "conv2d_4"}, {"config": {"momentum": 0.99, "beta_regularizer": null, "epsilon": 0.001, "trainable": true, "beta_constraint": null, "moving_variance_initializer": {"config": {}, "class_name": "Ones"}, "center": true, "gamma_constraint": null, "name": "batch_normalization_4", "gamma_regularizer": null, "axis": 3, "scale": true, "gamma_initializer": {"config": {}, "class_name": "Ones"}, "moving_mean_initializer": {"config": {}, "class_name": "Zeros"}, "beta_initializer": {"config": {}, "class_name": "Zeros"}}, "class_name": "BatchNormalization", "inbound_nodes": [[["conv2d_4", 0, 0, {}]]], "name": "batch_normalization_4"}, {"config": {"dilation_rate": [1, 1], "kernel_constraint": null, "strides": [1, 1], "use_bias": true, "kernel_regularizer": null, "data_format": "channels_last", "kernel_initializer": {"config": {"mode": "fan_avg", "distribution": "uniform", "scale": 1.0, "seed": null}, "class_name": "VarianceScaling"}, "bias_constraint": null, "bias_initializer": {"config": {}, "class_name": "Zeros"}, "kernel_size": [3, 3], "activity_regularizer": null, "name": "conv2d_5", "trainable": true, "filters": 96, "bias_regularizer": null, "activation": "relu", "padding": "valid"}, "class_name": "Conv2D", "inbound_nodes": [[["batch_normalization_4", 0, 0, {}]]], "name": "conv2d_5"}, {"config": {"momentum": 0.99, "beta_regularizer": null, "epsilon": 0.001, "trainable": true, "beta_constraint": null, "moving_variance_initializer": {"config": {}, "class_name": "Ones"}, "center": true, "gamma_constraint": null, "name": "batch_normalization_5", "gamma_regularizer": null, "axis": 3, "scale": true, "gamma_initializer": {"config": {}, "class_name": "Ones"}, "moving_mean_initializer": {"config": {}, "class_name": "Zeros"}, "beta_initializer": {"config": {}, "class_name": "Zeros"}}, "class_name": "BatchNormalization", "inbound_nodes": [[["conv2d_5", 0, 0, {}]]], "name": "batch_normalization_5"}, {"config": {"strides": [2, 2], "name": "max_pooling2d_2", "trainable": true, "padding": "valid", "pool_size": [3, 3], "data_format": "channels_last"}, "class_name": "MaxPooling2D", "inbound_nodes": [[["batch_normalization_5", 0, 0, {}]]], "name": "max_pooling2d_2"}, {"config": {"dilation_rate": [1, 1], "kernel_constraint": null, "strides": [1, 1], "use_bias": true, "kernel_regularizer": null, "data_format": "channels_last", "kernel_initializer": {"config": {"mode": "fan_avg", "distribution": "uniform", "scale": 1.0, "seed": null}, "class_name": "VarianceScaling"}, "bias_constraint": null, "bias_initializer": {"config": {}, "class_name": "Zeros"}, "kernel_size": [1, 1], "activity_regularizer": null, "name": "conv2d_9", "trainable": true, "filters": 32, "bias_regularizer": null, "activation": "relu", "padding": "same"}, "class_name": "Conv2D", "inbound_nodes": [[["max_pooling2d_2", 0, 0, {}]]], "name": "conv2d_9"}, {"config": {"momentum": 0.99, "beta_regularizer": null, "epsilon": 0.001, "trainable": true, "beta_constraint": null, "moving_variance_initializer": {"config": {}, "class_name": "Ones"}, "center": true, "gamma_constraint": null, "name": "batch_normalization_9", "gamma_regularizer": null, "axis": 3, "scale": true, "gamma_initializer": {"config": {}, "class_name": "Ones"}, "moving_mean_initializer": {"config": {}, "class_name": "Zeros"}, "beta_initializer": {"config": {}, "class_name": "Zeros"}}, "class_name": "BatchNormalization", "inbound_nodes": [[["conv2d_9", 0, 0, {}]]], "name": "batch_normalization_9"}, {"config": {"dilation_rate": [1, 1], "kernel_constraint": null, "strides": [1, 1], "use_bias": true, "kernel_regularizer": null, "data_format": "channels_last", "kernel_initializer": {"config": {"mode": "fan_avg", "distribution": "uniform", "scale": 1.0, "seed": null}, "class_name": "VarianceScaling"}, "bias_constraint": null, "bias_initializer": {"config": {}, "class_name": "Zeros"}, "kernel_size": [1, 1], "activity_regularizer": null, "name": "conv2d_7", "trainable": true, "filters": 24, "bias_regularizer": null, "activation": "relu", "padding": "same"}, "class_name": "Conv2D", "inbound_nodes": [[["max_pooling2d_2", 0, 0, {}]]], "name": "conv2d_7"}, {"config": {"dilation_rate": [1, 1], "kernel_constraint": null, "strides": [1, 1], "use_bias": true, "kernel_regularizer": null, "data_format": "channels_last", "kernel_initializer": {"config": {"mode": "fan_avg", "distribution": "uniform", "scale": 1.0, "seed": null}, "class_name": "VarianceScaling"}, "bias_constraint": null, "bias_initializer": {"config": {}, "class_name": "Zeros"}, "kernel_size": [3, 3], "activity_regularizer": null, "name": "conv2d_10", "trainable": true, "filters": 48, "bias_regularizer": null, "activation": "relu", "padding": "same"}, "class_name": "Conv2D", "inbound_nodes": [[["batch_normalization_9", 0, 0, {}]]], "name": "conv2d_10"}, {"config": {"momentum": 0.99, "beta_regularizer": null, "epsilon": 0.001, "trainable": true, "beta_constraint": null, "moving_variance_initializer": {"config": {}, "class_name": "Ones"}, "center": true, "gamma_constraint": null, "name": "batch_normalization_7", "gamma_regularizer": null, "axis": 3, "scale": true, "gamma_initializer": {"config": {}, "class_name": "Ones"}, "moving_mean_initializer": {"config": {}, "class_name": "Zeros"}, "beta_initializer": {"config": {}, "class_name": "Zeros"}}, "class_name": "BatchNormalization", "inbound_nodes": [[["conv2d_7", 0, 0, {}]]], "name": "batch_normalization_7"}, {"config": {"momentum": 0.99, "beta_regularizer": null, "epsilon": 0.001, "trainable": true, "beta_constraint": null, "moving_variance_initializer": {"config": {}, "class_name": "Ones"}, "center": true, "gamma_constraint": null, "name": "batch_normalization_10", "gamma_regularizer": null, "axis": 3, "scale": true, "gamma_initializer": {"config": {}, "class_name": "Ones"}, "moving_mean_initializer": {"config": {}, "class_name": "Zeros"}, "beta_initializer": {"config": {}, "class_name": "Zeros"}}, "class_name": "BatchNormalization", "inbound_nodes": [[["conv2d_10", 0, 0, {}]]], "name": "batch_normalization_10"}, {"config": {"strides": [1, 1], "name": "average_pooling2d_1", "trainable": true, "padding": "same", "pool_size": [3, 3], "data_format": "channels_last"}, "class_name": "AveragePooling2D", "inbound_nodes": [[["max_pooling2d_2", 0, 0, {}]]], "name": "average_pooling2d_1"}, {"config": {"dilation_rate": [1, 1], "kernel_constraint": null, "strides": [1, 1], "use_bias": true, "kernel_regularizer": null, "data_format": "channels_last", "kernel_initializer": {"config": {"mode": "fan_avg", "distribution": "uniform", "scale": 1.0, "seed": null}, "class_name": "VarianceScaling"}, "bias_constraint": null, "bias_initializer": {"config": {}, "class_name": "Zeros"}, "kernel_size": [1, 1], "activity_regularizer": null, "name": "conv2d_6", "trainable": true, "filters": 32, "bias_regularizer": null, "activation": "relu", "padding": "same"}, "class_name": "Conv2D", "inbound_nodes": [[["max_pooling2d_2", 0, 0, {}]]], "name": "conv2d_6"}, {"config": {"dilation_rate": [1, 1], "kernel_constraint": null, "strides": [1, 1], "use_bias": true, "kernel_regularizer": null, "data_format": "channels_last", "kernel_initializer": {"config": {"mode": "fan_avg", "distribution": "uniform", "scale": 1.0, "seed": null}, "class_name": "VarianceScaling"}, "bias_constraint": null, "bias_initializer": {"config": {}, "class_name": "Zeros"}, "kernel_size": [5, 5], "activity_regularizer": null, "name": "conv2d_8", "trainable": true, "filters": 32, "bias_regularizer": null, "activation": "relu", "padding": "same"}, "class_name": "Conv2D", "inbound_nodes": [[["batch_normalization_7", 0, 0, {}]]], "name": "conv2d_8"}, {"config": {"dilation_rate": [1, 1], "kernel_constraint": null, "strides": [1, 1], "use_bias": true, "kernel_regularizer": null, "data_format": "channels_last", "kernel_initializer": {"config": {"mode": "fan_avg", "distribution": "uniform", "scale": 1.0, "seed": null}, "class_name": "VarianceScaling"}, "bias_constraint": null, "bias_initializer": {"config": {}, "class_name": "Zeros"}, "kernel_size": [3, 3], "activity_regularizer": null, "name": "conv2d_11", "trainable": true, "filters": 48, "bias_regularizer": null, "activation": "relu", "padding": "same"}, "class_name": "Conv2D", "inbound_nodes": [[["batch_normalization_10", 0, 0, {}]]], "name": "conv2d_11"}, {"config": {"dilation_rate": [1, 1], "kernel_constraint": null, "strides": [1, 1], "use_bias": true, "kernel_regularizer": null, "data_format": "channels_last", "kernel_initializer": {"config": {"mode": "fan_avg", "distribution": "uniform", "scale": 1.0, "seed": null}, "class_name": "VarianceScaling"}, "bias_constraint": null, "bias_initializer": {"config": {}, "class_name": "Zeros"}, "kernel_size": [1, 1], "activity_regularizer": null, "name": "conv2d_12", "trainable": true, "filters": 16, "bias_regularizer": null, "activation": "relu", "padding": "same"}, "class_name": "Conv2D", "inbound_nodes": [[["average_pooling2d_1", 0, 0, {}]]], "name": "conv2d_12"}, {"config": {"momentum": 0.99, "beta_regularizer": null, "epsilon": 0.001, "trainable": true, "beta_constraint": null, "moving_variance_initializer": {"config": {}, "class_name": "Ones"}, "center": true, "gamma_constraint": null, "name": "batch_normalization_6", "gamma_regularizer": null, "axis": 3, "scale": true, "gamma_initializer": {"config": {}, "class_name": "Ones"}, "moving_mean_initializer": {"config": {}, "class_name": "Zeros"}, "beta_initializer": {"config": {}, "class_name": "Zeros"}}, "class_name": "BatchNormalization", "inbound_nodes": [[["conv2d_6", 0, 0, {}]]], "name": "batch_normalization_6"}, {"config": {"momentum": 0.99, "beta_regularizer": null, "epsilon": 0.001, "trainable": true, "beta_constraint": null, "moving_variance_initializer": {"config": {}, "class_name": "Ones"}, "center": true, "gamma_constraint": null, "name": "batch_normalization_8", "gamma_regularizer": null, "axis": 3, "scale": true, "gamma_initializer": {"config": {}, "class_name": "Ones"}, "moving_mean_initializer": {"config": {}, "class_name": "Zeros"}, "beta_initializer": {"config": {}, "class_name": "Zeros"}}, "class_name": "BatchNormalization", "inbound_nodes": [[["conv2d_8", 0, 0, {}]]], "name": "batch_normalization_8"}, {"config": {"momentum": 0.99, "beta_regularizer": null, "epsilon": 0.001, "trainable": true, "beta_constraint": null, "moving_variance_initializer": {"config": {}, "class_name": "Ones"}, "center": true, "gamma_constraint": null, "name": "batch_normalization_11", "gamma_regularizer": null, "axis": 3, "scale": true, "gamma_initializer": {"config": {}, "class_name": "Ones"}, "moving_mean_initializer": {"config": {}, "class_name": "Zeros"}, "beta_initializer": {"config": {}, "class_name": "Zeros"}}, "class_name": "BatchNormalization", "inbound_nodes": [[["conv2d_11", 0, 0, {}]]], "name": "batch_normalization_11"}, {"config": {"momentum": 0.99, "beta_regularizer": null, "epsilon": 0.001, "trainable": true, "beta_constraint": null, "moving_variance_initializer": {"config": {}, "class_name": "Ones"}, "center": true, "gamma_constraint": null, "name": "batch_normalization_12", "gamma_regularizer": null, "axis": 3, "scale": true, "gamma_initializer": {"config": {}, "class_name": "Ones"}, "moving_mean_initializer": {"config": {}, "class_name": "Zeros"}, "beta_initializer": {"config": {}, "class_name": "Zeros"}}, "class_name": "BatchNormalization", "inbound_nodes": [[["conv2d_12", 0, 0, {}]]], "name": "batch_normalization_12"}, {"config": {"axis": -1, "trainable": true, "name": "mixed0"}, "class_name": "Concatenate", "inbound_nodes": [[["batch_normalization_6", 0, 0, {}], ["batch_normalization_8", 0, 0, {}], ["batch_normalization_11", 0, 0, {}], ["batch_normalization_12", 0, 0, {}]]], "name": "mixed0"}, {"config": {"dilation_rate": [1, 1], "kernel_constraint": null, "strides": [1, 1], "use_bias": true, "kernel_regularizer": null, "data_format": "channels_last", "kernel_initializer": {"config": {"mode": "fan_avg", "distribution": "uniform", "scale": 1.0, "seed": null}, "class_name": "VarianceScaling"}, "bias_constraint": null, "bias_initializer": {"config": {}, "class_name": "Zeros"}, "kernel_size": [1, 1], "activity_regularizer": null, "name": "conv2d_16", "trainable": true, "filters": 32, "bias_regularizer": null, "activation": "relu", "padding": "same"}, "class_name": "Conv2D", "inbound_nodes": [[["mixed0", 0, 0, {}]]], "name": "conv2d_16"}, {"config": {"momentum": 0.99, "beta_regularizer": null, "epsilon": 0.001, "trainable": true, "beta_constraint": null, "moving_variance_initializer": {"config": {}, "class_name": "Ones"}, "center": true, "gamma_constraint": null, "name": "batch_normalization_16", "gamma_regularizer": null, "axis": 3, "scale": true, "gamma_initializer": {"config": {}, "class_name": "Ones"}, "moving_mean_initializer": {"config": {}, "class_name": "Zeros"}, "beta_initializer": {"config": {}, "class_name": "Zeros"}}, "class_name": "BatchNormalization", "inbound_nodes": [[["conv2d_16", 0, 0, {}]]], "name": "batch_normalization_16"}, {"config": {"dilation_rate": [1, 1], "kernel_constraint": null, "strides": [1, 1], "use_bias": true, "kernel_regularizer": null, "data_format": "channels_last", "kernel_initializer": {"config": {"mode": "fan_avg", "distribution": "uniform", "scale": 1.0, "seed": null}, "class_name": "VarianceScaling"}, "bias_constraint": null, "bias_initializer": {"config": {}, "class_name": "Zeros"}, "kernel_size": [1, 1], "activity_regularizer": null, "name": "conv2d_14", "trainable": true, "filters": 24, "bias_regularizer": null, "activation": "relu", "padding": "same"}, "class_name": "Conv2D", "inbound_nodes": [[["mixed0", 0, 0, {}]]], "name": "conv2d_14"}, {"config": {"dilation_rate": [1, 1], "kernel_constraint": null, "strides": [1, 1], "use_bias": true, "kernel_regularizer": null, "data_format": "channels_last", "kernel_initializer": {"config": {"mode": "fan_avg", "distribution": "uniform", "scale": 1.0, "seed": null}, "class_name": "VarianceScaling"}, "bias_constraint": null, "bias_initializer": {"config": {}, "class_name": "Zeros"}, "kernel_size": [3, 3], "activity_regularizer": null, "name": "conv2d_17", "trainable": true, "filters": 48, "bias_regularizer": null, "activation": "relu", "padding": "same"}, "class_name": "Conv2D", "inbound_nodes": [[["batch_normalization_16", 0, 0, {}]]], "name": "conv2d_17"}, {"config": {"momentum": 0.99, "beta_regularizer": null, "epsilon": 0.001, "trainable": true, "beta_constraint": null, "moving_variance_initializer": {"config": {}, "class_name": "Ones"}, "center": true, "gamma_constraint": null, "name": "batch_normalization_14", "gamma_regularizer": null, "axis": 3, "scale": true, "gamma_initializer": {"config": {}, "class_name": "Ones"}, "moving_mean_initializer": {"config": {}, "class_name": "Zeros"}, "beta_initializer": {"config": {}, "class_name": "Zeros"}}, "class_name": "BatchNormalization", "inbound_nodes": [[["conv2d_14", 0, 0, {}]]], "name": "batch_normalization_14"}, {"config": {"momentum": 0.99, "beta_regularizer": null, "epsilon": 0.001, "trainable": true, "beta_constraint": null, "moving_variance_initializer": {"config": {}, "class_name": "Ones"}, "center": true, "gamma_constraint": null, "name": "batch_normalization_17", "gamma_regularizer": null, "axis": 3, "scale": true, "gamma_initializer": {"config": {}, "class_name": "Ones"}, "moving_mean_initializer": {"config": {}, "class_name": "Zeros"}, "beta_initializer": {"config": {}, "class_name": "Zeros"}}, "class_name": "BatchNormalization", "inbound_nodes": [[["conv2d_17", 0, 0, {}]]], "name": "batch_normalization_17"}, {"config": {"strides": [1, 1], "name": "average_pooling2d_2", "trainable": true, "padding": "same", "pool_size": [3, 3], "data_format": "channels_last"}, "class_name": "AveragePooling2D", "inbound_nodes": [[["mixed0", 0, 0, {}]]], "name": "average_pooling2d_2"}, {"config": {"dilation_rate": [1, 1], "kernel_constraint": null, "strides": [1, 1], "use_bias": true, "kernel_regularizer": null, "data_format": "channels_last", "kernel_initializer": {"config": {"mode": "fan_avg", "distribution": "uniform", "scale": 1.0, "seed": null}, "class_name": "VarianceScaling"}, "bias_constraint": null, "bias_initializer": {"config": {}, "class_name": "Zeros"}, "kernel_size": [1, 1], "activity_regularizer": null, "name": "conv2d_13", "trainable": true, "filters": 32, "bias_regularizer": null, "activation": "relu", "padding": "same"}, "class_name": "Conv2D", "inbound_nodes": [[["mixed0", 0, 0, {}]]], "name": "conv2d_13"}, {"config": {"dilation_rate": [1, 1], "kernel_constraint": null, "strides": [1, 1], "use_bias": true, "kernel_regularizer": null, "data_format": "channels_last", "kernel_initializer": {"config": {"mode": "fan_avg", "distribution": "uniform", "scale": 1.0, "seed": null}, "class_name": "VarianceScaling"}, "bias_constraint": null, "bias_initializer": {"config": {}, "class_name": "Zeros"}, "kernel_size": [5, 5], "activity_regularizer": null, "name": "conv2d_15", "trainable": true, "filters": 32, "bias_regularizer": null, "activation": "relu", "padding": "same"}, "class_name": "Conv2D", "inbound_nodes": [[["batch_normalization_14", 0, 0, {}]]], "name": "conv2d_15"}, {"config": {"dilation_rate": [1, 1], "kernel_constraint": null, "strides": [1, 1], "use_bias": true, "kernel_regularizer": null, "data_format": "channels_last", "kernel_initializer": {"config": {"mode": "fan_avg", "distribution": "uniform", "scale": 1.0, "seed": null}, "class_name": "VarianceScaling"}, "bias_constraint": null, "bias_initializer": {"config": {}, "class_name": "Zeros"}, "kernel_size": [3, 3], "activity_regularizer": null, "name": "conv2d_18", "trainable": true, "filters": 48, "bias_regularizer": null, "activation": "relu", "padding": "same"}, "class_name": "Conv2D", "inbound_nodes": [[["batch_normalization_17", 0, 0, {}]]], "name": "conv2d_18"}, {"config": {"dilation_rate": [1, 1], "kernel_constraint": null, "strides": [1, 1], "use_bias": true, "kernel_regularizer": null, "data_format": "channels_last", "kernel_initializer": {"config": {"mode": "fan_avg", "distribution": "uniform", "scale": 1.0, "seed": null}, "class_name": "VarianceScaling"}, "bias_constraint": null, "bias_initializer": {"config": {}, "class_name": "Zeros"}, "kernel_size": [1, 1], "activity_regularizer": null, "name": "conv2d_19", "trainable": true, "filters": 16, "bias_regularizer": null, "activation": "relu", "padding": "same"}, "class_name": "Conv2D", "inbound_nodes": [[["average_pooling2d_2", 0, 0, {}]]], "name": "conv2d_19"}, {"config": {"momentum": 0.99, "beta_regularizer": null, "epsilon": 0.001, "trainable": true, "beta_constraint": null, "moving_variance_initializer": {"config": {}, "class_name": "Ones"}, "center": true, "gamma_constraint": null, "name": "batch_normalization_13", "gamma_regularizer": null, "axis": 3, "scale": true, "gamma_initializer": {"config": {}, "class_name": "Ones"}, "moving_mean_initializer": {"config": {}, "class_name": "Zeros"}, "beta_initializer": {"config": {}, "class_name": "Zeros"}}, "class_name": "BatchNormalization", "inbound_nodes": [[["conv2d_13", 0, 0, {}]]], "name": "batch_normalization_13"}, {"config": {"momentum": 0.99, "beta_regularizer": null, "epsilon": 0.001, "trainable": true, "beta_constraint": null, "moving_variance_initializer": {"config": {}, "class_name": "Ones"}, "center": true, "gamma_constraint": null, "name": "batch_normalization_15", "gamma_regularizer": null, "axis": 3, "scale": true, "gamma_initializer": {"config": {}, "class_name": "Ones"}, "moving_mean_initializer": {"config": {}, "class_name": "Zeros"}, "beta_initializer": {"config": {}, "class_name": "Zeros"}}, "class_name": "BatchNormalization", "inbound_nodes": [[["conv2d_15", 0, 0, {}]]], "name": "batch_normalization_15"}, {"config": {"momentum": 0.99, "beta_regularizer": null, "epsilon": 0.001, "trainable": true, "beta_constraint": null, "moving_variance_initializer": {"config": {}, "class_name": "Ones"}, "center": true, "gamma_constraint": null, "name": "batch_normalization_18", "gamma_regularizer": null, "axis": 3, "scale": true, "gamma_initializer": {"config": {}, "class_name": "Ones"}, "moving_mean_initializer": {"config": {}, "class_name": "Zeros"}, "beta_initializer": {"config": {}, "class_name": "Zeros"}}, "class_name": "BatchNormalization", "inbound_nodes": [[["conv2d_18", 0, 0, {}]]], "name": "batch_normalization_18"}, {"config": {"momentum": 0.99, "beta_regularizer": null, "epsilon": 0.001, "trainable": true, "beta_constraint": null, "moving_variance_initializer": {"config": {}, "class_name": "Ones"}, "center": true, "gamma_constraint": null, "name": "batch_normalization_19", "gamma_regularizer": null, "axis": 3, "scale": true, "gamma_initializer": {"config": {}, "class_name": "Ones"}, "moving_mean_initializer": {"config": {}, "class_name": "Zeros"}, "beta_initializer": {"config": {}, "class_name": "Zeros"}}, "class_name": "BatchNormalization", "inbound_nodes": [[["conv2d_19", 0, 0, {}]]], "name": "batch_normalization_19"}, {"config": {"axis": -1, "trainable": true, "name": "mixed1"}, "class_name": "Concatenate", "inbound_nodes": [[["batch_normalization_13", 0, 0, {}], ["batch_normalization_15", 0, 0, {}], ["batch_normalization_18", 0, 0, {}], ["batch_normalization_19", 0, 0, {}]]], "name": "mixed1"}, {"config": {"dilation_rate": [1, 1], "kernel_constraint": null, "strides": [1, 1], "use_bias": true, "kernel_regularizer": null, "data_format": "channels_last", "kernel_initializer": {"config": {"mode": "fan_avg", "distribution": "uniform", "scale": 1.0, "seed": null}, "class_name": "VarianceScaling"}, "bias_constraint": null, "bias_initializer": {"config": {}, "class_name": "Zeros"}, "kernel_size": [1, 1], "activity_regularizer": null, "name": "conv2d_23", "trainable": true, "filters": 32, "bias_regularizer": null, "activation": "relu", "padding": "same"}, "class_name": "Conv2D", "inbound_nodes": [[["mixed1", 0, 0, {}]]], "name": "conv2d_23"}, {"config": {"momentum": 0.99, "beta_regularizer": null, "epsilon": 0.001, "trainable": true, "beta_constraint": null, "moving_variance_initializer": {"config": {}, "class_name": "Ones"}, "center": true, "gamma_constraint": null, "name": "batch_normalization_23", "gamma_regularizer": null, "axis": 3, "scale": true, "gamma_initializer": {"config": {}, "class_name": "Ones"}, "moving_mean_initializer": {"config": {}, "class_name": "Zeros"}, "beta_initializer": {"config": {}, "class_name": "Zeros"}}, "class_name": "BatchNormalization", "inbound_nodes": [[["conv2d_23", 0, 0, {}]]], "name": "batch_normalization_23"}, {"config": {"dilation_rate": [1, 1], "kernel_constraint": null, "strides": [1, 1], "use_bias": true, "kernel_regularizer": null, "data_format": "channels_last", "kernel_initializer": {"config": {"mode": "fan_avg", "distribution": "uniform", "scale": 1.0, "seed": null}, "class_name": "VarianceScaling"}, "bias_constraint": null, "bias_initializer": {"config": {}, "class_name": "Zeros"}, "kernel_size": [1, 1], "activity_regularizer": null, "name": "conv2d_21", "trainable": true, "filters": 24, "bias_regularizer": null, "activation": "relu", "padding": "same"}, "class_name": "Conv2D", "inbound_nodes": [[["mixed1", 0, 0, {}]]], "name": "conv2d_21"}, {"config": {"dilation_rate": [1, 1], "kernel_constraint": null, "strides": [1, 1], "use_bias": true, "kernel_regularizer": null, "data_format": "channels_last", "kernel_initializer": {"config": {"mode": "fan_avg", "distribution": "uniform", "scale": 1.0, "seed": null}, "class_name": "VarianceScaling"}, "bias_constraint": null, "bias_initializer": {"config": {}, "class_name": "Zeros"}, "kernel_size": [3, 3], "activity_regularizer": null, "name": "conv2d_24", "trainable": true, "filters": 48, "bias_regularizer": null, "activation": "relu", "padding": "same"}, "class_name": "Conv2D", "inbound_nodes": [[["batch_normalization_23", 0, 0, {}]]], "name": "conv2d_24"}, {"config": {"momentum": 0.99, "beta_regularizer": null, "epsilon": 0.001, "trainable": true, "beta_constraint": null, "moving_variance_initializer": {"config": {}, "class_name": "Ones"}, "center": true, "gamma_constraint": null, "name": "batch_normalization_21", "gamma_regularizer": null, "axis": 3, "scale": true, "gamma_initializer": {"config": {}, "class_name": "Ones"}, "moving_mean_initializer": {"config": {}, "class_name": "Zeros"}, "beta_initializer": {"config": {}, "class_name": "Zeros"}}, "class_name": "BatchNormalization", "inbound_nodes": [[["conv2d_21", 0, 0, {}]]], "name": "batch_normalization_21"}, {"config": {"momentum": 0.99, "beta_regularizer": null, "epsilon": 0.001, "trainable": true, "beta_constraint": null, "moving_variance_initializer": {"config": {}, "class_name": "Ones"}, "center": true, "gamma_constraint": null, "name": "batch_normalization_24", "gamma_regularizer": null, "axis": 3, "scale": true, "gamma_initializer": {"config": {}, "class_name": "Ones"}, "moving_mean_initializer": {"config": {}, "class_name": "Zeros"}, "beta_initializer": {"config": {}, "class_name": "Zeros"}}, "class_name": "BatchNormalization", "inbound_nodes": [[["conv2d_24", 0, 0, {}]]], "name": "batch_normalization_24"}, {"config": {"strides": [1, 1], "name": "average_pooling2d_3", "trainable": true, "padding": "same", "pool_size": [3, 3], "data_format": "channels_last"}, "class_name": "AveragePooling2D", "inbound_nodes": [[["mixed1", 0, 0, {}]]], "name": "average_pooling2d_3"}, {"config": {"dilation_rate": [1, 1], "kernel_constraint": null, "strides": [1, 1], "use_bias": true, "kernel_regularizer": null, "data_format": "channels_last", "kernel_initializer": {"config": {"mode": "fan_avg", "distribution": "uniform", "scale": 1.0, "seed": null}, "class_name": "VarianceScaling"}, "bias_constraint": null, "bias_initializer": {"config": {}, "class_name": "Zeros"}, "kernel_size": [1, 1], "activity_regularizer": null, "name": "conv2d_20", "trainable": true, "filters": 32, "bias_regularizer": null, "activation": "relu", "padding": "same"}, "class_name": "Conv2D", "inbound_nodes": [[["mixed1", 0, 0, {}]]], "name": "conv2d_20"}, {"config": {"dilation_rate": [1, 1], "kernel_constraint": null, "strides": [1, 1], "use_bias": true, "kernel_regularizer": null, "data_format": "channels_last", "kernel_initializer": {"config": {"mode": "fan_avg", "distribution": "uniform", "scale": 1.0, "seed": null}, "class_name": "VarianceScaling"}, "bias_constraint": null, "bias_initializer": {"config": {}, "class_name": "Zeros"}, "kernel_size": [5, 5], "activity_regularizer": null, "name": "conv2d_22", "trainable": true, "filters": 32, "bias_regularizer": null, "activation": "relu", "padding": "same"}, "class_name": "Conv2D", "inbound_nodes": [[["batch_normalization_21", 0, 0, {}]]], "name": "conv2d_22"}, {"config": {"dilation_rate": [1, 1], "kernel_constraint": null, "strides": [1, 1], "use_bias": true, "kernel_regularizer": null, "data_format": "channels_last", "kernel_initializer": {"config": {"mode": "fan_avg", "distribution": "uniform", "scale": 1.0, "seed": null}, "class_name": "VarianceScaling"}, "bias_constraint": null, "bias_initializer": {"config": {}, "class_name": "Zeros"}, "kernel_size": [3, 3], "activity_regularizer": null, "name": "conv2d_25", "trainable": true, "filters": 48, "bias_regularizer": null, "activation": "relu", "padding": "same"}, "class_name": "Conv2D", "inbound_nodes": [[["batch_normalization_24", 0, 0, {}]]], "name": "conv2d_25"}, {"config": {"dilation_rate": [1, 1], "kernel_constraint": null, "strides": [1, 1], "use_bias": true, "kernel_regularizer": null, "data_format": "channels_last", "kernel_initializer": {"config": {"mode": "fan_avg", "distribution": "uniform", "scale": 1.0, "seed": null}, "class_name": "VarianceScaling"}, "bias_constraint": null, "bias_initializer": {"config": {}, "class_name": "Zeros"}, "kernel_size": [1, 1], "activity_regularizer": null, "name": "conv2d_26", "trainable": true, "filters": 16, "bias_regularizer": null, "activation": "relu", "padding": "same"}, "class_name": "Conv2D", "inbound_nodes": [[["average_pooling2d_3", 0, 0, {}]]], "name": "conv2d_26"}, {"config": {"momentum": 0.99, "beta_regularizer": null, "epsilon": 0.001, "trainable": true, "beta_constraint": null, "moving_variance_initializer": {"config": {}, "class_name": "Ones"}, "center": true, "gamma_constraint": null, "name": "batch_normalization_20", "gamma_regularizer": null, "axis": 3, "scale": true, "gamma_initializer": {"config": {}, "class_name": "Ones"}, "moving_mean_initializer": {"config": {}, "class_name": "Zeros"}, "beta_initializer": {"config": {}, "class_name": "Zeros"}}, "class_name": "BatchNormalization", "inbound_nodes": [[["conv2d_20", 0, 0, {}]]], "name": "batch_normalization_20"}, {"config": {"momentum": 0.99, "beta_regularizer": null, "epsilon": 0.001, "trainable": true, "beta_constraint": null, "moving_variance_initializer": {"config": {}, "class_name": "Ones"}, "center": true, "gamma_constraint": null, "name": "batch_normalization_22", "gamma_regularizer": null, "axis": 3, "scale": true, "gamma_initializer": {"config": {}, "class_name": "Ones"}, "moving_mean_initializer": {"config": {}, "class_name": "Zeros"}, "beta_initializer": {"config": {}, "class_name": "Zeros"}}, "class_name": "BatchNormalization", "inbound_nodes": [[["conv2d_22", 0, 0, {}]]], "name": "batch_normalization_22"}, {"config": {"momentum": 0.99, "beta_regularizer": null, "epsilon": 0.001, "trainable": true, "beta_constraint": null, "moving_variance_initializer": {"config": {}, "class_name": "Ones"}, "center": true, "gamma_constraint": null, "name": "batch_normalization_25", "gamma_regularizer": null, "axis": 3, "scale": true, "gamma_initializer": {"config": {}, "class_name": "Ones"}, "moving_mean_initializer": {"config": {}, "class_name": "Zeros"}, "beta_initializer": {"config": {}, "class_name": "Zeros"}}, "class_name": "BatchNormalization", "inbound_nodes": [[["conv2d_25", 0, 0, {}]]], "name": "batch_normalization_25"}, {"config": {"momentum": 0.99, "beta_regularizer": null, "epsilon": 0.001, "trainable": true, "beta_constraint": null, "moving_variance_initializer": {"config": {}, "class_name": "Ones"}, "center": true, "gamma_constraint": null, "name": "batch_normalization_26", "gamma_regularizer": null, "axis": 3, "scale": true, "gamma_initializer": {"config": {}, "class_name": "Ones"}, "moving_mean_initializer": {"config": {}, "class_name": "Zeros"}, "beta_initializer": {"config": {}, "class_name": "Zeros"}}, "class_name": "BatchNormalization", "inbound_nodes": [[["conv2d_26", 0, 0, {}]]], "name": "batch_normalization_26"}, {"config": {"axis": -1, "trainable": true, "name": "mixed2"}, "class_name": "Concatenate", "inbound_nodes": [[["batch_normalization_20", 0, 0, {}], ["batch_normalization_22", 0, 0, {}], ["batch_normalization_25", 0, 0, {}], ["batch_normalization_26", 0, 0, {}]]], "name": "mixed2"}, {"config": {"dilation_rate": [1, 1], "kernel_constraint": null, "strides": [1, 1], "use_bias": true, "kernel_regularizer": null, "data_format": "channels_last", "kernel_initializer": {"config": {"mode": "fan_avg", "distribution": "uniform", "scale": 1.0, "seed": null}, "class_name": "VarianceScaling"}, "bias_constraint": null, "bias_initializer": {"config": {}, "class_name": "Zeros"}, "kernel_size": [1, 1], "activity_regularizer": null, "name": "conv2d_28", "trainable": true, "filters": 32, "bias_regularizer": null, "activation": "relu", "padding": "same"}, "class_name": "Conv2D", "inbound_nodes": [[["mixed2", 0, 0, {}]]], "name": "conv2d_28"}, {"config": {"momentum": 0.99, "beta_regularizer": null, "epsilon": 0.001, "trainable": true, "beta_constraint": null, "moving_variance_initializer": {"config": {}, "class_name": "Ones"}, "center": true, "gamma_constraint": null, "name": "batch_normalization_28", "gamma_regularizer": null, "axis": 3, "scale": true, "gamma_initializer": {"config": {}, "class_name": "Ones"}, "moving_mean_initializer": {"config": {}, "class_name": "Zeros"}, "beta_initializer": {"config": {}, "class_name": "Zeros"}}, "class_name": "BatchNormalization", "inbound_nodes": [[["conv2d_28", 0, 0, {}]]], "name": "batch_normalization_28"}, {"config": {"dilation_rate": [1, 1], "kernel_constraint": null, "strides": [1, 1], "use_bias": true, "kernel_regularizer": null, "data_format": "channels_last", "kernel_initializer": {"config": {"mode": "fan_avg", "distribution": "uniform", "scale": 1.0, "seed": null}, "class_name": "VarianceScaling"}, "bias_constraint": null, "bias_initializer": {"config": {}, "class_name": "Zeros"}, "kernel_size": [3, 3], "activity_regularizer": null, "name": "conv2d_29", "trainable": true, "filters": 48, "bias_regularizer": null, "activation": "relu", "padding": "same"}, "class_name": "Conv2D", "inbound_nodes": [[["batch_normalization_28", 0, 0, {}]]], "name": "conv2d_29"}, {"config": {"momentum": 0.99, "beta_regularizer": null, "epsilon": 0.001, "trainable": true, "beta_constraint": null, "moving_variance_initializer": {"config": {}, "class_name": "Ones"}, "center": true, "gamma_constraint": null, "name": "batch_normalization_29", "gamma_regularizer": null, "axis": 3, "scale": true, "gamma_initializer": {"config": {}, "class_name": "Ones"}, "moving_mean_initializer": {"config": {}, "class_name": "Zeros"}, "beta_initializer": {"config": {}, "class_name": "Zeros"}}, "class_name": "BatchNormalization", "inbound_nodes": [[["conv2d_29", 0, 0, {}]]], "name": "batch_normalization_29"}, {"config": {"dilation_rate": [1, 1], "kernel_constraint": null, "strides": [2, 2], "use_bias": true, "kernel_regularizer": null, "data_format": "channels_last", "kernel_initializer": {"config": {"mode": "fan_avg", "distribution": "uniform", "scale": 1.0, "seed": null}, "class_name": "VarianceScaling"}, "bias_constraint": null, "bias_initializer": {"config": {}, "class_name": "Zeros"}, "kernel_size": [3, 3], "activity_regularizer": null, "name": "conv2d_27", "trainable": true, "filters": 192, "bias_regularizer": null, "activation": "relu", "padding": "valid"}, "class_name": "Conv2D", "inbound_nodes": [[["mixed2", 0, 0, {}]]], "name": "conv2d_27"}, {"config": {"dilation_rate": [1, 1], "kernel_constraint": null, "strides": [2, 2], "use_bias": true, "kernel_regularizer": null, "data_format": "channels_last", "kernel_initializer": {"config": {"mode": "fan_avg", "distribution": "uniform", "scale": 1.0, "seed": null}, "class_name": "VarianceScaling"}, "bias_constraint": null, "bias_initializer": {"config": {}, "class_name": "Zeros"}, "kernel_size": [3, 3], "activity_regularizer": null, "name": "conv2d_30", "trainable": true, "filters": 48, "bias_regularizer": null, "activation": "relu", "padding": "valid"}, "class_name": "Conv2D", "inbound_nodes": [[["batch_normalization_29", 0, 0, {}]]], "name": "conv2d_30"}, {"config": {"momentum": 0.99, "beta_regularizer": null, "epsilon": 0.001, "trainable": true, "beta_constraint": null, "moving_variance_initializer": {"config": {}, "class_name": "Ones"}, "center": true, "gamma_constraint": null, "name": "batch_normalization_27", "gamma_regularizer": null, "axis": 3, "scale": true, "gamma_initializer": {"config": {}, "class_name": "Ones"}, "moving_mean_initializer": {"config": {}, "class_name": "Zeros"}, "beta_initializer": {"config": {}, "class_name": "Zeros"}}, "class_name": "BatchNormalization", "inbound_nodes": [[["conv2d_27", 0, 0, {}]]], "name": "batch_normalization_27"}, {"config": {"momentum": 0.99, "beta_regularizer": null, "epsilon": 0.001, "trainable": true, "beta_constraint": null, "moving_variance_initializer": {"config": {}, "class_name": "Ones"}, "center": true, "gamma_constraint": null, "name": "batch_normalization_30", "gamma_regularizer": null, "axis": 3, "scale": true, "gamma_initializer": {"config": {}, "class_name": "Ones"}, "moving_mean_initializer": {"config": {}, "class_name": "Zeros"}, "beta_initializer": {"config": {}, "class_name": "Zeros"}}, "class_name": "BatchNormalization", "inbound_nodes": [[["conv2d_30", 0, 0, {}]]], "name": "batch_normalization_30"}, {"config": {"strides": [2, 2], "name": "max_pooling2d_3", "trainable": true, "padding": "valid", "pool_size": [3, 3], "data_format": "channels_last"}, "class_name": "MaxPooling2D", "inbound_nodes": [[["mixed2", 0, 0, {}]]], "name": "max_pooling2d_3"}, {"config": {"axis": -1, "trainable": true, "name": "mixed3"}, "class_name": "Concatenate", "inbound_nodes": [[["batch_normalization_27", 0, 0, {}], ["batch_normalization_30", 0, 0, {}], ["max_pooling2d_3", 0, 0, {}]]], "name": "mixed3"}, {"config": {"dilation_rate": [1, 1], "kernel_constraint": null, "strides": [1, 1], "use_bias": true, "kernel_regularizer": null, "data_format": "channels_last", "kernel_initializer": {"config": {"mode": "fan_avg", "distribution": "uniform", "scale": 1.0, "seed": null}, "class_name": "VarianceScaling"}, "bias_constraint": null, "bias_initializer": {"config": {}, "class_name": "Zeros"}, "kernel_size": [1, 1], "activity_regularizer": null, "name": "conv2d_35", "trainable": true, "filters": 64, "bias_regularizer": null, "activation": "relu", "padding": "same"}, "class_name": "Conv2D", "inbound_nodes": [[["mixed3", 0, 0, {}]]], "name": "conv2d_35"}, {"config": {"momentum": 0.99, "beta_regularizer": null, "epsilon": 0.001, "trainable": true, "beta_constraint": null, "moving_variance_initializer": {"config": {}, "class_name": "Ones"}, "center": true, "gamma_constraint": null, "name": "batch_normalization_35", "gamma_regularizer": null, "axis": 3, "scale": true, "gamma_initializer": {"config": {}, "class_name": "Ones"}, "moving_mean_initializer": {"config": {}, "class_name": "Zeros"}, "beta_initializer": {"config": {}, "class_name": "Zeros"}}, "class_name": "BatchNormalization", "inbound_nodes": [[["conv2d_35", 0, 0, {}]]], "name": "batch_normalization_35"}, {"config": {"dilation_rate": [1, 1], "kernel_constraint": null, "strides": [1, 1], "use_bias": true, "kernel_regularizer": null, "data_format": "channels_last", "kernel_initializer": {"config": {"mode": "fan_avg", "distribution": "uniform", "scale": 1.0, "seed": null}, "class_name": "VarianceScaling"}, "bias_constraint": null, "bias_initializer": {"config": {}, "class_name": "Zeros"}, "kernel_size": [7, 1], "activity_regularizer": null, "name": "conv2d_36", "trainable": true, "filters": 64, "bias_regularizer": null, "activation": "relu", "padding": "same"}, "class_name": "Conv2D", "inbound_nodes": [[["batch_normalization_35", 0, 0, {}]]], "name": "conv2d_36"}, {"config": {"momentum": 0.99, "beta_regularizer": null, "epsilon": 0.001, "trainable": true, "beta_constraint": null, "moving_variance_initializer": {"config": {}, "class_name": "Ones"}, "center": true, "gamma_constraint": null, "name": "batch_normalization_36", "gamma_regularizer": null, "axis": 3, "scale": true, "gamma_initializer": {"config": {}, "class_name": "Ones"}, "moving_mean_initializer": {"config": {}, "class_name": "Zeros"}, "beta_initializer": {"config": {}, "class_name": "Zeros"}}, "class_name": "BatchNormalization", "inbound_nodes": [[["conv2d_36", 0, 0, {}]]], "name": "batch_normalization_36"}, {"config": {"dilation_rate": [1, 1], "kernel_constraint": null, "strides": [1, 1], "use_bias": true, "kernel_regularizer": null, "data_format": "channels_last", "kernel_initializer": {"config": {"mode": "fan_avg", "distribution": "uniform", "scale": 1.0, "seed": null}, "class_name": "VarianceScaling"}, "bias_constraint": null, "bias_initializer": {"config": {}, "class_name": "Zeros"}, "kernel_size": [1, 1], "activity_regularizer": null, "name": "conv2d_32", "trainable": true, "filters": 64, "bias_regularizer": null, "activation": "relu", "padding": "same"}, "class_name": "Conv2D", "inbound_nodes": [[["mixed3", 0, 0, {}]]], "name": "conv2d_32"}, {"config": {"dilation_rate": [1, 1], "kernel_constraint": null, "strides": [1, 1], "use_bias": true, "kernel_regularizer": null, "data_format": "channels_last", "kernel_initializer": {"config": {"mode": "fan_avg", "distribution": "uniform", "scale": 1.0, "seed": null}, "class_name": "VarianceScaling"}, "bias_constraint": null, "bias_initializer": {"config": {}, "class_name": "Zeros"}, "kernel_size": [1, 7], "activity_regularizer": null, "name": "conv2d_37", "trainable": true, "filters": 64, "bias_regularizer": null, "activation": "relu", "padding": "same"}, "class_name": "Conv2D", "inbound_nodes": [[["batch_normalization_36", 0, 0, {}]]], "name": "conv2d_37"}, {"config": {"momentum": 0.99, "beta_regularizer": null, "epsilon": 0.001, "trainable": true, "beta_constraint": null, "moving_variance_initializer": {"config": {}, "class_name": "Ones"}, "center": true, "gamma_constraint": null, "name": "batch_normalization_32", "gamma_regularizer": null, "axis": 3, "scale": true, "gamma_initializer": {"config": {}, "class_name": "Ones"}, "moving_mean_initializer": {"config": {}, "class_name": "Zeros"}, "beta_initializer": {"config": {}, "class_name": "Zeros"}}, "class_name": "BatchNormalization", "inbound_nodes": [[["conv2d_32", 0, 0, {}]]], "name": "batch_normalization_32"}, {"config": {"momentum": 0.99, "beta_regularizer": null, "epsilon": 0.001, "trainable": true, "beta_constraint": null, "moving_variance_initializer": {"config": {}, "class_name": "Ones"}, "center": true, "gamma_constraint": null, "name": "batch_normalization_37", "gamma_regularizer": null, "axis": 3, "scale": true, "gamma_initializer": {"config": {}, "class_name": "Ones"}, "moving_mean_initializer": {"config": {}, "class_name": "Zeros"}, "beta_initializer": {"config": {}, "class_name": "Zeros"}}, "class_name": "BatchNormalization", "inbound_nodes": [[["conv2d_37", 0, 0, {}]]], "name": "batch_normalization_37"}, {"config": {"dilation_rate": [1, 1], "kernel_constraint": null, "strides": [1, 1], "use_bias": true, "kernel_regularizer": null, "data_format": "channels_last", "kernel_initializer": {"config": {"mode": "fan_avg", "distribution": "uniform", "scale": 1.0, "seed": null}, "class_name": "VarianceScaling"}, "bias_constraint": null, "bias_initializer": {"config": {}, "class_name": "Zeros"}, "kernel_size": [1, 7], "activity_regularizer": null, "name": "conv2d_33", "trainable": true, "filters": 64, "bias_regularizer": null, "activation": "relu", "padding": "same"}, "class_name": "Conv2D", "inbound_nodes": [[["batch_normalization_32", 0, 0, {}]]], "name": "conv2d_33"}, {"config": {"dilation_rate": [1, 1], "kernel_constraint": null, "strides": [1, 1], "use_bias": true, "kernel_regularizer": null, "data_format": "channels_last", "kernel_initializer": {"config": {"mode": "fan_avg", "distribution": "uniform", "scale": 1.0, "seed": null}, "class_name": "VarianceScaling"}, "bias_constraint": null, "bias_initializer": {"config": {}, "class_name": "Zeros"}, "kernel_size": [7, 1], "activity_regularizer": null, "name": "conv2d_38", "trainable": true, "filters": 64, "bias_regularizer": null, "activation": "relu", "padding": "same"}, "class_name": "Conv2D", "inbound_nodes": [[["batch_normalization_37", 0, 0, {}]]], "name": "conv2d_38"}, {"config": {"momentum": 0.99, "beta_regularizer": null, "epsilon": 0.001, "trainable": true, "beta_constraint": null, "moving_variance_initializer": {"config": {}, "class_name": "Ones"}, "center": true, "gamma_constraint": null, "name": "batch_normalization_33", "gamma_regularizer": null, "axis": 3, "scale": true, "gamma_initializer": {"config": {}, "class_name": "Ones"}, "moving_mean_initializer": {"config": {}, "class_name": "Zeros"}, "beta_initializer": {"config": {}, "class_name": "Zeros"}}, "class_name": "BatchNormalization", "inbound_nodes": [[["conv2d_33", 0, 0, {}]]], "name": "batch_normalization_33"}, {"config": {"momentum": 0.99, "beta_regularizer": null, "epsilon": 0.001, "trainable": true, "beta_constraint": null, "moving_variance_initializer": {"config": {}, "class_name": "Ones"}, "center": true, "gamma_constraint": null, "name": "batch_normalization_38", "gamma_regularizer": null, "axis": 3, "scale": true, "gamma_initializer": {"config": {}, "class_name": "Ones"}, "moving_mean_initializer": {"config": {}, "class_name": "Zeros"}, "beta_initializer": {"config": {}, "class_name": "Zeros"}}, "class_name": "BatchNormalization", "inbound_nodes": [[["conv2d_38", 0, 0, {}]]], "name": "batch_normalization_38"}, {"config": {"strides": [1, 1], "name": "average_pooling2d_4", "trainable": true, "padding": "same", "pool_size": [3, 3], "data_format": "channels_last"}, "class_name": "AveragePooling2D", "inbound_nodes": [[["mixed3", 0, 0, {}]]], "name": "average_pooling2d_4"}, {"config": {"dilation_rate": [1, 1], "kernel_constraint": null, "strides": [1, 1], "use_bias": true, "kernel_regularizer": null, "data_format": "channels_last", "kernel_initializer": {"config": {"mode": "fan_avg", "distribution": "uniform", "scale": 1.0, "seed": null}, "class_name": "VarianceScaling"}, "bias_constraint": null, "bias_initializer": {"config": {}, "class_name": "Zeros"}, "kernel_size": [1, 1], "activity_regularizer": null, "name": "conv2d_31", "trainable": true, "filters": 96, "bias_regularizer": null, "activation": "relu", "padding": "same"}, "class_name": "Conv2D", "inbound_nodes": [[["mixed3", 0, 0, {}]]], "name": "conv2d_31"}, {"config": {"dilation_rate": [1, 1], "kernel_constraint": null, "strides": [1, 1], "use_bias": true, "kernel_regularizer": null, "data_format": "channels_last", "kernel_initializer": {"config": {"mode": "fan_avg", "distribution": "uniform", "scale": 1.0, "seed": null}, "class_name": "VarianceScaling"}, "bias_constraint": null, "bias_initializer": {"config": {}, "class_name": "Zeros"}, "kernel_size": [7, 1], "activity_regularizer": null, "name": "conv2d_34", "trainable": true, "filters": 96, "bias_regularizer": null, "activation": "relu", "padding": "same"}, "class_name": "Conv2D", "inbound_nodes": [[["batch_normalization_33", 0, 0, {}]]], "name": "conv2d_34"}, {"config": {"dilation_rate": [1, 1], "kernel_constraint": null, "strides": [1, 1], "use_bias": true, "kernel_regularizer": null, "data_format": "channels_last", "kernel_initializer": {"config": {"mode": "fan_avg", "distribution": "uniform", "scale": 1.0, "seed": null}, "class_name": "VarianceScaling"}, "bias_constraint": null, "bias_initializer": {"config": {}, "class_name": "Zeros"}, "kernel_size": [1, 7], "activity_regularizer": null, "name": "conv2d_39", "trainable": true, "filters": 96, "bias_regularizer": null, "activation": "relu", "padding": "same"}, "class_name": "Conv2D", "inbound_nodes": [[["batch_normalization_38", 0, 0, {}]]], "name": "conv2d_39"}, {"config": {"dilation_rate": [1, 1], "kernel_constraint": null, "strides": [1, 1], "use_bias": true, "kernel_regularizer": null, "data_format": "channels_last", "kernel_initializer": {"config": {"mode": "fan_avg", "distribution": "uniform", "scale": 1.0, "seed": null}, "class_name": "VarianceScaling"}, "bias_constraint": null, "bias_initializer": {"config": {}, "class_name": "Zeros"}, "kernel_size": [1, 1], "activity_regularizer": null, "name": "conv2d_40", "trainable": true, "filters": 96, "bias_regularizer": null, "activation": "relu", "padding": "same"}, "class_name": "Conv2D", "inbound_nodes": [[["average_pooling2d_4", 0, 0, {}]]], "name": "conv2d_40"}, {"config": {"momentum": 0.99, "beta_regularizer": null, "epsilon": 0.001, "trainable": true, "beta_constraint": null, "moving_variance_initializer": {"config": {}, "class_name": "Ones"}, "center": true, "gamma_constraint": null, "name": "batch_normalization_31", "gamma_regularizer": null, "axis": 3, "scale": true, "gamma_initializer": {"config": {}, "class_name": "Ones"}, "moving_mean_initializer": {"config": {}, "class_name": "Zeros"}, "beta_initializer": {"config": {}, "class_name": "Zeros"}}, "class_name": "BatchNormalization", "inbound_nodes": [[["conv2d_31", 0, 0, {}]]], "name": "batch_normalization_31"}, {"config": {"momentum": 0.99, "beta_regularizer": null, "epsilon": 0.001, "trainable": true, "beta_constraint": null, "moving_variance_initializer": {"config": {}, "class_name": "Ones"}, "center": true, "gamma_constraint": null, "name": "batch_normalization_34", "gamma_regularizer": null, "axis": 3, "scale": true, "gamma_initializer": {"config": {}, "class_name": "Ones"}, "moving_mean_initializer": {"config": {}, "class_name": "Zeros"}, "beta_initializer": {"config": {}, "class_name": "Zeros"}}, "class_name": "BatchNormalization", "inbound_nodes": [[["conv2d_34", 0, 0, {}]]], "name": "batch_normalization_34"}, {"config": {"momentum": 0.99, "beta_regularizer": null, "epsilon": 0.001, "trainable": true, "beta_constraint": null, "moving_variance_initializer": {"config": {}, "class_name": "Ones"}, "center": true, "gamma_constraint": null, "name": "batch_normalization_39", "gamma_regularizer": null, "axis": 3, "scale": true, "gamma_initializer": {"config": {}, "class_name": "Ones"}, "moving_mean_initializer": {"config": {}, "class_name": "Zeros"}, "beta_initializer": {"config": {}, "class_name": "Zeros"}}, "class_name": "BatchNormalization", "inbound_nodes": [[["conv2d_39", 0, 0, {}]]], "name": "batch_normalization_39"}, {"config": {"momentum": 0.99, "beta_regularizer": null, "epsilon": 0.001, "trainable": true, "beta_constraint": null, "moving_variance_initializer": {"config": {}, "class_name": "Ones"}, "center": true, "gamma_constraint": null, "name": "batch_normalization_40", "gamma_regularizer": null, "axis": 3, "scale": true, "gamma_initializer": {"config": {}, "class_name": "Ones"}, "moving_mean_initializer": {"config": {}, "class_name": "Zeros"}, "beta_initializer": {"config": {}, "class_name": "Zeros"}}, "class_name": "BatchNormalization", "inbound_nodes": [[["conv2d_40", 0, 0, {}]]], "name": "batch_normalization_40"}, {"config": {"axis": -1, "trainable": true, "name": "mixed4"}, "class_name": "Concatenate", "inbound_nodes": [[["batch_normalization_31", 0, 0, {}], ["batch_normalization_34", 0, 0, {}], ["batch_normalization_39", 0, 0, {}], ["batch_normalization_40", 0, 0, {}]]], "name": "mixed4"}, {"config": {"dilation_rate": [1, 1], "kernel_constraint": null, "strides": [1, 1], "use_bias": true, "kernel_regularizer": null, "data_format": "channels_last", "kernel_initializer": {"config": {"mode": "fan_avg", "distribution": "uniform", "scale": 1.0, "seed": null}, "class_name": "VarianceScaling"}, "bias_constraint": null, "bias_initializer": {"config": {}, "class_name": "Zeros"}, "kernel_size": [1, 1], "activity_regularizer": null, "name": "conv2d_45", "trainable": true, "filters": 80, "bias_regularizer": null, "activation": "relu", "padding": "same"}, "class_name": "Conv2D", "inbound_nodes": [[["mixed4", 0, 0, {}]]], "name": "conv2d_45"}, {"config": {"momentum": 0.99, "beta_regularizer": null, "epsilon": 0.001, "trainable": true, "beta_constraint": null, "moving_variance_initializer": {"config": {}, "class_name": "Ones"}, "center": true, "gamma_constraint": null, "name": "batch_normalization_45", "gamma_regularizer": null, "axis": 3, "scale": true, "gamma_initializer": {"config": {}, "class_name": "Ones"}, "moving_mean_initializer": {"config": {}, "class_name": "Zeros"}, "beta_initializer": {"config": {}, "class_name": "Zeros"}}, "class_name": "BatchNormalization", "inbound_nodes": [[["conv2d_45", 0, 0, {}]]], "name": "batch_normalization_45"}, {"config": {"dilation_rate": [1, 1], "kernel_constraint": null, "strides": [1, 1], "use_bias": true, "kernel_regularizer": null, "data_format": "channels_last", "kernel_initializer": {"config": {"mode": "fan_avg", "distribution": "uniform", "scale": 1.0, "seed": null}, "class_name": "VarianceScaling"}, "bias_constraint": null, "bias_initializer": {"config": {}, "class_name": "Zeros"}, "kernel_size": [7, 1], "activity_regularizer": null, "name": "conv2d_46", "trainable": true, "filters": 80, "bias_regularizer": null, "activation": "relu", "padding": "same"}, "class_name": "Conv2D", "inbound_nodes": [[["batch_normalization_45", 0, 0, {}]]], "name": "conv2d_46"}, {"config": {"momentum": 0.99, "beta_regularizer": null, "epsilon": 0.001, "trainable": true, "beta_constraint": null, "moving_variance_initializer": {"config": {}, "class_name": "Ones"}, "center": true, "gamma_constraint": null, "name": "batch_normalization_46", "gamma_regularizer": null, "axis": 3, "scale": true, "gamma_initializer": {"config": {}, "class_name": "Ones"}, "moving_mean_initializer": {"config": {}, "class_name": "Zeros"}, "beta_initializer": {"config": {}, "class_name": "Zeros"}}, "class_name": "BatchNormalization", "inbound_nodes": [[["conv2d_46", 0, 0, {}]]], "name": "batch_normalization_46"}, {"config": {"dilation_rate": [1, 1], "kernel_constraint": null, "strides": [1, 1], "use_bias": true, "kernel_regularizer": null, "data_format": "channels_last", "kernel_initializer": {"config": {"mode": "fan_avg", "distribution": "uniform", "scale": 1.0, "seed": null}, "class_name": "VarianceScaling"}, "bias_constraint": null, "bias_initializer": {"config": {}, "class_name": "Zeros"}, "kernel_size": [1, 1], "activity_regularizer": null, "name": "conv2d_42", "trainable": true, "filters": 80, "bias_regularizer": null, "activation": "relu", "padding": "same"}, "class_name": "Conv2D", "inbound_nodes": [[["mixed4", 0, 0, {}]]], "name": "conv2d_42"}, {"config": {"dilation_rate": [1, 1], "kernel_constraint": null, "strides": [1, 1], "use_bias": true, "kernel_regularizer": null, "data_format": "channels_last", "kernel_initializer": {"config": {"mode": "fan_avg", "distribution": "uniform", "scale": 1.0, "seed": null}, "class_name": "VarianceScaling"}, "bias_constraint": null, "bias_initializer": {"config": {}, "class_name": "Zeros"}, "kernel_size": [1, 7], "activity_regularizer": null, "name": "conv2d_47", "trainable": true, "filters": 80, "bias_regularizer": null, "activation": "relu", "padding": "same"}, "class_name": "Conv2D", "inbound_nodes": [[["batch_normalization_46", 0, 0, {}]]], "name": "conv2d_47"}, {"config": {"momentum": 0.99, "beta_regularizer": null, "epsilon": 0.001, "trainable": true, "beta_constraint": null, "moving_variance_initializer": {"config": {}, "class_name": "Ones"}, "center": true, "gamma_constraint": null, "name": "batch_normalization_42", "gamma_regularizer": null, "axis": 3, "scale": true, "gamma_initializer": {"config": {}, "class_name": "Ones"}, "moving_mean_initializer": {"config": {}, "class_name": "Zeros"}, "beta_initializer": {"config": {}, "class_name": "Zeros"}}, "class_name": "BatchNormalization", "inbound_nodes": [[["conv2d_42", 0, 0, {}]]], "name": "batch_normalization_42"}, {"config": {"momentum": 0.99, "beta_regularizer": null, "epsilon": 0.001, "trainable": true, "beta_constraint": null, "moving_variance_initializer": {"config": {}, "class_name": "Ones"}, "center": true, "gamma_constraint": null, "name": "batch_normalization_47", "gamma_regularizer": null, "axis": 3, "scale": true, "gamma_initializer": {"config": {}, "class_name": "Ones"}, "moving_mean_initializer": {"config": {}, "class_name": "Zeros"}, "beta_initializer": {"config": {}, "class_name": "Zeros"}}, "class_name": "BatchNormalization", "inbound_nodes": [[["conv2d_47", 0, 0, {}]]], "name": "batch_normalization_47"}, {"config": {"dilation_rate": [1, 1], "kernel_constraint": null, "strides": [1, 1], "use_bias": true, "kernel_regularizer": null, "data_format": "channels_last", "kernel_initializer": {"config": {"mode": "fan_avg", "distribution": "uniform", "scale": 1.0, "seed": null}, "class_name": "VarianceScaling"}, "bias_constraint": null, "bias_initializer": {"config": {}, "class_name": "Zeros"}, "kernel_size": [1, 7], "activity_regularizer": null, "name": "conv2d_43", "trainable": true, "filters": 80, "bias_regularizer": null, "activation": "relu", "padding": "same"}, "class_name": "Conv2D", "inbound_nodes": [[["batch_normalization_42", 0, 0, {}]]], "name": "conv2d_43"}, {"config": {"dilation_rate": [1, 1], "kernel_constraint": null, "strides": [1, 1], "use_bias": true, "kernel_regularizer": null, "data_format": "channels_last", "kernel_initializer": {"config": {"mode": "fan_avg", "distribution": "uniform", "scale": 1.0, "seed": null}, "class_name": "VarianceScaling"}, "bias_constraint": null, "bias_initializer": {"config": {}, "class_name": "Zeros"}, "kernel_size": [7, 1], "activity_regularizer": null, "name": "conv2d_48", "trainable": true, "filters": 80, "bias_regularizer": null, "activation": "relu", "padding": "same"}, "class_name": "Conv2D", "inbound_nodes": [[["batch_normalization_47", 0, 0, {}]]], "name": "conv2d_48"}, {"config": {"momentum": 0.99, "beta_regularizer": null, "epsilon": 0.001, "trainable": true, "beta_constraint": null, "moving_variance_initializer": {"config": {}, "class_name": "Ones"}, "center": true, "gamma_constraint": null, "name": "batch_normalization_43", "gamma_regularizer": null, "axis": 3, "scale": true, "gamma_initializer": {"config": {}, "class_name": "Ones"}, "moving_mean_initializer": {"config": {}, "class_name": "Zeros"}, "beta_initializer": {"config": {}, "class_name": "Zeros"}}, "class_name": "BatchNormalization", "inbound_nodes": [[["conv2d_43", 0, 0, {}]]], "name": "batch_normalization_43"}, {"config": {"momentum": 0.99, "beta_regularizer": null, "epsilon": 0.001, "trainable": true, "beta_constraint": null, "moving_variance_initializer": {"config": {}, "class_name": "Ones"}, "center": true, "gamma_constraint": null, "name": "batch_normalization_48", "gamma_regularizer": null, "axis": 3, "scale": true, "gamma_initializer": {"config": {}, "class_name": "Ones"}, "moving_mean_initializer": {"config": {}, "class_name": "Zeros"}, "beta_initializer": {"config": {}, "class_name": "Zeros"}}, "class_name": "BatchNormalization", "inbound_nodes": [[["conv2d_48", 0, 0, {}]]], "name": "batch_normalization_48"}, {"config": {"strides": [1, 1], "name": "average_pooling2d_5", "trainable": true, "padding": "same", "pool_size": [3, 3], "data_format": "channels_last"}, "class_name": "AveragePooling2D", "inbound_nodes": [[["mixed4", 0, 0, {}]]], "name": "average_pooling2d_5"}, {"config": {"dilation_rate": [1, 1], "kernel_constraint": null, "strides": [1, 1], "use_bias": true, "kernel_regularizer": null, "data_format": "channels_last", "kernel_initializer": {"config": {"mode": "fan_avg", "distribution": "uniform", "scale": 1.0, "seed": null}, "class_name": "VarianceScaling"}, "bias_constraint": null, "bias_initializer": {"config": {}, "class_name": "Zeros"}, "kernel_size": [1, 1], "activity_regularizer": null, "name": "conv2d_41", "trainable": true, "filters": 96, "bias_regularizer": null, "activation": "relu", "padding": "same"}, "class_name": "Conv2D", "inbound_nodes": [[["mixed4", 0, 0, {}]]], "name": "conv2d_41"}, {"config": {"dilation_rate": [1, 1], "kernel_constraint": null, "strides": [1, 1], "use_bias": true, "kernel_regularizer": null, "data_format": "channels_last", "kernel_initializer": {"config": {"mode": "fan_avg", "distribution": "uniform", "scale": 1.0, "seed": null}, "class_name": "VarianceScaling"}, "bias_constraint": null, "bias_initializer": {"config": {}, "class_name": "Zeros"}, "kernel_size": [7, 1], "activity_regularizer": null, "name": "conv2d_44", "trainable": true, "filters": 96, "bias_regularizer": null, "activation": "relu", "padding": "same"}, "class_name": "Conv2D", "inbound_nodes": [[["batch_normalization_43", 0, 0, {}]]], "name": "conv2d_44"}, {"config": {"dilation_rate": [1, 1], "kernel_constraint": null, "strides": [1, 1], "use_bias": true, "kernel_regularizer": null, "data_format": "channels_last", "kernel_initializer": {"config": {"mode": "fan_avg", "distribution": "uniform", "scale": 1.0, "seed": null}, "class_name": "VarianceScaling"}, "bias_constraint": null, "bias_initializer": {"config": {}, "class_name": "Zeros"}, "kernel_size": [1, 7], "activity_regularizer": null, "name": "conv2d_49", "trainable": true, "filters": 96, "bias_regularizer": null, "activation": "relu", "padding": "same"}, "class_name": "Conv2D", "inbound_nodes": [[["batch_normalization_48", 0, 0, {}]]], "name": "conv2d_49"}, {"config": {"dilation_rate": [1, 1], "kernel_constraint": null, "strides": [1, 1], "use_bias": true, "kernel_regularizer": null, "data_format": "channels_last", "kernel_initializer": {"config": {"mode": "fan_avg", "distribution": "uniform", "scale": 1.0, "seed": null}, "class_name": "VarianceScaling"}, "bias_constraint": null, "bias_initializer": {"config": {}, "class_name": "Zeros"}, "kernel_size": [1, 1], "activity_regularizer": null, "name": "conv2d_50", "trainable": true, "filters": 96, "bias_regularizer": null, "activation": "relu", "padding": "same"}, "class_name": "Conv2D", "inbound_nodes": [[["average_pooling2d_5", 0, 0, {}]]], "name": "conv2d_50"}, {"config": {"momentum": 0.99, "beta_regularizer": null, "epsilon": 0.001, "trainable": true, "beta_constraint": null, "moving_variance_initializer": {"config": {}, "class_name": "Ones"}, "center": true, "gamma_constraint": null, "name": "batch_normalization_41", "gamma_regularizer": null, "axis": 3, "scale": true, "gamma_initializer": {"config": {}, "class_name": "Ones"}, "moving_mean_initializer": {"config": {}, "class_name": "Zeros"}, "beta_initializer": {"config": {}, "class_name": "Zeros"}}, "class_name": "BatchNormalization", "inbound_nodes": [[["conv2d_41", 0, 0, {}]]], "name": "batch_normalization_41"}, {"config": {"momentum": 0.99, "beta_regularizer": null, "epsilon": 0.001, "trainable": true, "beta_constraint": null, "moving_variance_initializer": {"config": {}, "class_name": "Ones"}, "center": true, "gamma_constraint": null, "name": "batch_normalization_44", "gamma_regularizer": null, "axis": 3, "scale": true, "gamma_initializer": {"config": {}, "class_name": "Ones"}, "moving_mean_initializer": {"config": {}, "class_name": "Zeros"}, "beta_initializer": {"config": {}, "class_name": "Zeros"}}, "class_name": "BatchNormalization", "inbound_nodes": [[["conv2d_44", 0, 0, {}]]], "name": "batch_normalization_44"}, {"config": {"momentum": 0.99, "beta_regularizer": null, "epsilon": 0.001, "trainable": true, "beta_constraint": null, "moving_variance_initializer": {"config": {}, "class_name": "Ones"}, "center": true, "gamma_constraint": null, "name": "batch_normalization_49", "gamma_regularizer": null, "axis": 3, "scale": true, "gamma_initializer": {"config": {}, "class_name": "Ones"}, "moving_mean_initializer": {"config": {}, "class_name": "Zeros"}, "beta_initializer": {"config": {}, "class_name": "Zeros"}}, "class_name": "BatchNormalization", "inbound_nodes": [[["conv2d_49", 0, 0, {}]]], "name": "batch_normalization_49"}, {"config": {"momentum": 0.99, "beta_regularizer": null, "epsilon": 0.001, "trainable": true, "beta_constraint": null, "moving_variance_initializer": {"config": {}, "class_name": "Ones"}, "center": true, "gamma_constraint": null, "name": "batch_normalization_50", "gamma_regularizer": null, "axis": 3, "scale": true, "gamma_initializer": {"config": {}, "class_name": "Ones"}, "moving_mean_initializer": {"config": {}, "class_name": "Zeros"}, "beta_initializer": {"config": {}, "class_name": "Zeros"}}, "class_name": "BatchNormalization", "inbound_nodes": [[["conv2d_50", 0, 0, {}]]], "name": "batch_normalization_50"}, {"config": {"axis": -1, "trainable": true, "name": "mixed5"}, "class_name": "Concatenate", "inbound_nodes": [[["batch_normalization_41", 0, 0, {}], ["batch_normalization_44", 0, 0, {}], ["batch_normalization_49", 0, 0, {}], ["batch_normalization_50", 0, 0, {}]]], "name": "mixed5"}, {"config": {"dilation_rate": [1, 1], "kernel_constraint": null, "strides": [1, 1], "use_bias": true, "kernel_regularizer": null, "data_format": "channels_last", "kernel_initializer": {"config": {"mode": "fan_avg", "distribution": "uniform", "scale": 1.0, "seed": null}, "class_name": "VarianceScaling"}, "bias_constraint": null, "bias_initializer": {"config": {}, "class_name": "Zeros"}, "kernel_size": [1, 1], "activity_regularizer": null, "name": "conv2d_55", "trainable": true, "filters": 80, "bias_regularizer": null, "activation": "relu", "padding": "same"}, "class_name": "Conv2D", "inbound_nodes": [[["mixed5", 0, 0, {}]]], "name": "conv2d_55"}, {"config": {"momentum": 0.99, "beta_regularizer": null, "epsilon": 0.001, "trainable": true, "beta_constraint": null, "moving_variance_initializer": {"config": {}, "class_name": "Ones"}, "center": true, "gamma_constraint": null, "name": "batch_normalization_55", "gamma_regularizer": null, "axis": 3, "scale": true, "gamma_initializer": {"config": {}, "class_name": "Ones"}, "moving_mean_initializer": {"config": {}, "class_name": "Zeros"}, "beta_initializer": {"config": {}, "class_name": "Zeros"}}, "class_name": "BatchNormalization", "inbound_nodes": [[["conv2d_55", 0, 0, {}]]], "name": "batch_normalization_55"}, {"config": {"dilation_rate": [1, 1], "kernel_constraint": null, "strides": [1, 1], "use_bias": true, "kernel_regularizer": null, "data_format": "channels_last", "kernel_initializer": {"config": {"mode": "fan_avg", "distribution": "uniform", "scale": 1.0, "seed": null}, "class_name": "VarianceScaling"}, "bias_constraint": null, "bias_initializer": {"config": {}, "class_name": "Zeros"}, "kernel_size": [7, 1], "activity_regularizer": null, "name": "conv2d_56", "trainable": true, "filters": 80, "bias_regularizer": null, "activation": "relu", "padding": "same"}, "class_name": "Conv2D", "inbound_nodes": [[["batch_normalization_55", 0, 0, {}]]], "name": "conv2d_56"}, {"config": {"momentum": 0.99, "beta_regularizer": null, "epsilon": 0.001, "trainable": true, "beta_constraint": null, "moving_variance_initializer": {"config": {}, "class_name": "Ones"}, "center": true, "gamma_constraint": null, "name": "batch_normalization_56", "gamma_regularizer": null, "axis": 3, "scale": true, "gamma_initializer": {"config": {}, "class_name": "Ones"}, "moving_mean_initializer": {"config": {}, "class_name": "Zeros"}, "beta_initializer": {"config": {}, "class_name": "Zeros"}}, "class_name": "BatchNormalization", "inbound_nodes": [[["conv2d_56", 0, 0, {}]]], "name": "batch_normalization_56"}, {"config": {"dilation_rate": [1, 1], "kernel_constraint": null, "strides": [1, 1], "use_bias": true, "kernel_regularizer": null, "data_format": "channels_last", "kernel_initializer": {"config": {"mode": "fan_avg", "distribution": "uniform", "scale": 1.0, "seed": null}, "class_name": "VarianceScaling"}, "bias_constraint": null, "bias_initializer": {"config": {}, "class_name": "Zeros"}, "kernel_size": [1, 1], "activity_regularizer": null, "name": "conv2d_52", "trainable": true, "filters": 80, "bias_regularizer": null, "activation": "relu", "padding": "same"}, "class_name": "Conv2D", "inbound_nodes": [[["mixed5", 0, 0, {}]]], "name": "conv2d_52"}, {"config": {"dilation_rate": [1, 1], "kernel_constraint": null, "strides": [1, 1], "use_bias": true, "kernel_regularizer": null, "data_format": "channels_last", "kernel_initializer": {"config": {"mode": "fan_avg", "distribution": "uniform", "scale": 1.0, "seed": null}, "class_name": "VarianceScaling"}, "bias_constraint": null, "bias_initializer": {"config": {}, "class_name": "Zeros"}, "kernel_size": [1, 7], "activity_regularizer": null, "name": "conv2d_57", "trainable": true, "filters": 80, "bias_regularizer": null, "activation": "relu", "padding": "same"}, "class_name": "Conv2D", "inbound_nodes": [[["batch_normalization_56", 0, 0, {}]]], "name": "conv2d_57"}, {"config": {"momentum": 0.99, "beta_regularizer": null, "epsilon": 0.001, "trainable": true, "beta_constraint": null, "moving_variance_initializer": {"config": {}, "class_name": "Ones"}, "center": true, "gamma_constraint": null, "name": "batch_normalization_52", "gamma_regularizer": null, "axis": 3, "scale": true, "gamma_initializer": {"config": {}, "class_name": "Ones"}, "moving_mean_initializer": {"config": {}, "class_name": "Zeros"}, "beta_initializer": {"config": {}, "class_name": "Zeros"}}, "class_name": "BatchNormalization", "inbound_nodes": [[["conv2d_52", 0, 0, {}]]], "name": "batch_normalization_52"}, {"config": {"momentum": 0.99, "beta_regularizer": null, "epsilon": 0.001, "trainable": true, "beta_constraint": null, "moving_variance_initializer": {"config": {}, "class_name": "Ones"}, "center": true, "gamma_constraint": null, "name": "batch_normalization_57", "gamma_regularizer": null, "axis": 3, "scale": true, "gamma_initializer": {"config": {}, "class_name": "Ones"}, "moving_mean_initializer": {"config": {}, "class_name": "Zeros"}, "beta_initializer": {"config": {}, "class_name": "Zeros"}}, "class_name": "BatchNormalization", "inbound_nodes": [[["conv2d_57", 0, 0, {}]]], "name": "batch_normalization_57"}, {"config": {"dilation_rate": [1, 1], "kernel_constraint": null, "strides": [1, 1], "use_bias": true, "kernel_regularizer": null, "data_format": "channels_last", "kernel_initializer": {"config": {"mode": "fan_avg", "distribution": "uniform", "scale": 1.0, "seed": null}, "class_name": "VarianceScaling"}, "bias_constraint": null, "bias_initializer": {"config": {}, "class_name": "Zeros"}, "kernel_size": [1, 7], "activity_regularizer": null, "name": "conv2d_53", "trainable": true, "filters": 80, "bias_regularizer": null, "activation": "relu", "padding": "same"}, "class_name": "Conv2D", "inbound_nodes": [[["batch_normalization_52", 0, 0, {}]]], "name": "conv2d_53"}, {"config": {"dilation_rate": [1, 1], "kernel_constraint": null, "strides": [1, 1], "use_bias": true, "kernel_regularizer": null, "data_format": "channels_last", "kernel_initializer": {"config": {"mode": "fan_avg", "distribution": "uniform", "scale": 1.0, "seed": null}, "class_name": "VarianceScaling"}, "bias_constraint": null, "bias_initializer": {"config": {}, "class_name": "Zeros"}, "kernel_size": [7, 1], "activity_regularizer": null, "name": "conv2d_58", "trainable": true, "filters": 80, "bias_regularizer": null, "activation": "relu", "padding": "same"}, "class_name": "Conv2D", "inbound_nodes": [[["batch_normalization_57", 0, 0, {}]]], "name": "conv2d_58"}, {"config": {"momentum": 0.99, "beta_regularizer": null, "epsilon": 0.001, "trainable": true, "beta_constraint": null, "moving_variance_initializer": {"config": {}, "class_name": "Ones"}, "center": true, "gamma_constraint": null, "name": "batch_normalization_53", "gamma_regularizer": null, "axis": 3, "scale": true, "gamma_initializer": {"config": {}, "class_name": "Ones"}, "moving_mean_initializer": {"config": {}, "class_name": "Zeros"}, "beta_initializer": {"config": {}, "class_name": "Zeros"}}, "class_name": "BatchNormalization", "inbound_nodes": [[["conv2d_53", 0, 0, {}]]], "name": "batch_normalization_53"}, {"config": {"momentum": 0.99, "beta_regularizer": null, "epsilon": 0.001, "trainable": true, "beta_constraint": null, "moving_variance_initializer": {"config": {}, "class_name": "Ones"}, "center": true, "gamma_constraint": null, "name": "batch_normalization_58", "gamma_regularizer": null, "axis": 3, "scale": true, "gamma_initializer": {"config": {}, "class_name": "Ones"}, "moving_mean_initializer": {"config": {}, "class_name": "Zeros"}, "beta_initializer": {"config": {}, "class_name": "Zeros"}}, "class_name": "BatchNormalization", "inbound_nodes": [[["conv2d_58", 0, 0, {}]]], "name": "batch_normalization_58"}, {"config": {"strides": [1, 1], "name": "average_pooling2d_6", "trainable": true, "padding": "same", "pool_size": [3, 3], "data_format": "channels_last"}, "class_name": "AveragePooling2D", "inbound_nodes": [[["mixed5", 0, 0, {}]]], "name": "average_pooling2d_6"}, {"config": {"dilation_rate": [1, 1], "kernel_constraint": null, "strides": [1, 1], "use_bias": true, "kernel_regularizer": null, "data_format": "channels_last", "kernel_initializer": {"config": {"mode": "fan_avg", "distribution": "uniform", "scale": 1.0, "seed": null}, "class_name": "VarianceScaling"}, "bias_constraint": null, "bias_initializer": {"config": {}, "class_name": "Zeros"}, "kernel_size": [1, 1], "activity_regularizer": null, "name": "conv2d_51", "trainable": true, "filters": 96, "bias_regularizer": null, "activation": "relu", "padding": "same"}, "class_name": "Conv2D", "inbound_nodes": [[["mixed5", 0, 0, {}]]], "name": "conv2d_51"}, {"config": {"dilation_rate": [1, 1], "kernel_constraint": null, "strides": [1, 1], "use_bias": true, "kernel_regularizer": null, "data_format": "channels_last", "kernel_initializer": {"config": {"mode": "fan_avg", "distribution": "uniform", "scale": 1.0, "seed": null}, "class_name": "VarianceScaling"}, "bias_constraint": null, "bias_initializer": {"config": {}, "class_name": "Zeros"}, "kernel_size": [7, 1], "activity_regularizer": null, "name": "conv2d_54", "trainable": true, "filters": 96, "bias_regularizer": null, "activation": "relu", "padding": "same"}, "class_name": "Conv2D", "inbound_nodes": [[["batch_normalization_53", 0, 0, {}]]], "name": "conv2d_54"}, {"config": {"dilation_rate": [1, 1], "kernel_constraint": null, "strides": [1, 1], "use_bias": true, "kernel_regularizer": null, "data_format": "channels_last", "kernel_initializer": {"config": {"mode": "fan_avg", "distribution": "uniform", "scale": 1.0, "seed": null}, "class_name": "VarianceScaling"}, "bias_constraint": null, "bias_initializer": {"config": {}, "class_name": "Zeros"}, "kernel_size": [1, 7], "activity_regularizer": null, "name": "conv2d_59", "trainable": true, "filters": 96, "bias_regularizer": null, "activation": "relu", "padding": "same"}, "class_name": "Conv2D", "inbound_nodes": [[["batch_normalization_58", 0, 0, {}]]], "name": "conv2d_59"}, {"config": {"dilation_rate": [1, 1], "kernel_constraint": null, "strides": [1, 1], "use_bias": true, "kernel_regularizer": null, "data_format": "channels_last", "kernel_initializer": {"config": {"mode": "fan_avg", "distribution": "uniform", "scale": 1.0, "seed": null}, "class_name": "VarianceScaling"}, "bias_constraint": null, "bias_initializer": {"config": {}, "class_name": "Zeros"}, "kernel_size": [1, 1], "activity_regularizer": null, "name": "conv2d_60", "trainable": true, "filters": 96, "bias_regularizer": null, "activation": "relu", "padding": "same"}, "class_name": "Conv2D", "inbound_nodes": [[["average_pooling2d_6", 0, 0, {}]]], "name": "conv2d_60"}, {"config": {"momentum": 0.99, "beta_regularizer": null, "epsilon": 0.001, "trainable": true, "beta_constraint": null, "moving_variance_initializer": {"config": {}, "class_name": "Ones"}, "center": true, "gamma_constraint": null, "name": "batch_normalization_51", "gamma_regularizer": null, "axis": 3, "scale": true, "gamma_initializer": {"config": {}, "class_name": "Ones"}, "moving_mean_initializer": {"config": {}, "class_name": "Zeros"}, "beta_initializer": {"config": {}, "class_name": "Zeros"}}, "class_name": "BatchNormalization", "inbound_nodes": [[["conv2d_51", 0, 0, {}]]], "name": "batch_normalization_51"}, {"config": {"momentum": 0.99, "beta_regularizer": null, "epsilon": 0.001, "trainable": true, "beta_constraint": null, "moving_variance_initializer": {"config": {}, "class_name": "Ones"}, "center": true, "gamma_constraint": null, "name": "batch_normalization_54", "gamma_regularizer": null, "axis": 3, "scale": true, "gamma_initializer": {"config": {}, "class_name": "Ones"}, "moving_mean_initializer": {"config": {}, "class_name": "Zeros"}, "beta_initializer": {"config": {}, "class_name": "Zeros"}}, "class_name": "BatchNormalization", "inbound_nodes": [[["conv2d_54", 0, 0, {}]]], "name": "batch_normalization_54"}, {"config": {"momentum": 0.99, "beta_regularizer": null, "epsilon": 0.001, "trainable": true, "beta_constraint": null, "moving_variance_initializer": {"config": {}, "class_name": "Ones"}, "center": true, "gamma_constraint": null, "name": "batch_normalization_59", "gamma_regularizer": null, "axis": 3, "scale": true, "gamma_initializer": {"config": {}, "class_name": "Ones"}, "moving_mean_initializer": {"config": {}, "class_name": "Zeros"}, "beta_initializer": {"config": {}, "class_name": "Zeros"}}, "class_name": "BatchNormalization", "inbound_nodes": [[["conv2d_59", 0, 0, {}]]], "name": "batch_normalization_59"}, {"config": {"momentum": 0.99, "beta_regularizer": null, "epsilon": 0.001, "trainable": true, "beta_constraint": null, "moving_variance_initializer": {"config": {}, "class_name": "Ones"}, "center": true, "gamma_constraint": null, "name": "batch_normalization_60", "gamma_regularizer": null, "axis": 3, "scale": true, "gamma_initializer": {"config": {}, "class_name": "Ones"}, "moving_mean_initializer": {"config": {}, "class_name": "Zeros"}, "beta_initializer": {"config": {}, "class_name": "Zeros"}}, "class_name": "BatchNormalization", "inbound_nodes": [[["conv2d_60", 0, 0, {}]]], "name": "batch_normalization_60"}, {"config": {"axis": -1, "trainable": true, "name": "mixed6"}, "class_name": "Concatenate", "inbound_nodes": [[["batch_normalization_51", 0, 0, {}], ["batch_normalization_54", 0, 0, {}], ["batch_normalization_59", 0, 0, {}], ["batch_normalization_60", 0, 0, {}]]], "name": "mixed6"}, {"config": {"dilation_rate": [1, 1], "kernel_constraint": null, "strides": [1, 1], "use_bias": true, "kernel_regularizer": null, "data_format": "channels_last", "kernel_initializer": {"config": {"mode": "fan_avg", "distribution": "uniform", "scale": 1.0, "seed": null}, "class_name": "VarianceScaling"}, "bias_constraint": null, "bias_initializer": {"config": {}, "class_name": "Zeros"}, "kernel_size": [1, 1], "activity_regularizer": null, "name": "conv2d_65", "trainable": true, "filters": 80, "bias_regularizer": null, "activation": "relu", "padding": "same"}, "class_name": "Conv2D", "inbound_nodes": [[["mixed6", 0, 0, {}]]], "name": "conv2d_65"}, {"config": {"momentum": 0.99, "beta_regularizer": null, "epsilon": 0.001, "trainable": true, "beta_constraint": null, "moving_variance_initializer": {"config": {}, "class_name": "Ones"}, "center": true, "gamma_constraint": null, "name": "batch_normalization_65", "gamma_regularizer": null, "axis": 3, "scale": true, "gamma_initializer": {"config": {}, "class_name": "Ones"}, "moving_mean_initializer": {"config": {}, "class_name": "Zeros"}, "beta_initializer": {"config": {}, "class_name": "Zeros"}}, "class_name": "BatchNormalization", "inbound_nodes": [[["conv2d_65", 0, 0, {}]]], "name": "batch_normalization_65"}, {"config": {"dilation_rate": [1, 1], "kernel_constraint": null, "strides": [1, 1], "use_bias": true, "kernel_regularizer": null, "data_format": "channels_last", "kernel_initializer": {"config": {"mode": "fan_avg", "distribution": "uniform", "scale": 1.0, "seed": null}, "class_name": "VarianceScaling"}, "bias_constraint": null, "bias_initializer": {"config": {}, "class_name": "Zeros"}, "kernel_size": [7, 1], "activity_regularizer": null, "name": "conv2d_66", "trainable": true, "filters": 96, "bias_regularizer": null, "activation": "relu", "padding": "same"}, "class_name": "Conv2D", "inbound_nodes": [[["batch_normalization_65", 0, 0, {}]]], "name": "conv2d_66"}, {"config": {"momentum": 0.99, "beta_regularizer": null, "epsilon": 0.001, "trainable": true, "beta_constraint": null, "moving_variance_initializer": {"config": {}, "class_name": "Ones"}, "center": true, "gamma_constraint": null, "name": "batch_normalization_66", "gamma_regularizer": null, "axis": 3, "scale": true, "gamma_initializer": {"config": {}, "class_name": "Ones"}, "moving_mean_initializer": {"config": {}, "class_name": "Zeros"}, "beta_initializer": {"config": {}, "class_name": "Zeros"}}, "class_name": "BatchNormalization", "inbound_nodes": [[["conv2d_66", 0, 0, {}]]], "name": "batch_normalization_66"}, {"config": {"dilation_rate": [1, 1], "kernel_constraint": null, "strides": [1, 1], "use_bias": true, "kernel_regularizer": null, "data_format": "channels_last", "kernel_initializer": {"config": {"mode": "fan_avg", "distribution": "uniform", "scale": 1.0, "seed": null}, "class_name": "VarianceScaling"}, "bias_constraint": null, "bias_initializer": {"config": {}, "class_name": "Zeros"}, "kernel_size": [1, 1], "activity_regularizer": null, "name": "conv2d_62", "trainable": true, "filters": 96, "bias_regularizer": null, "activation": "relu", "padding": "same"}, "class_name": "Conv2D", "inbound_nodes": [[["mixed6", 0, 0, {}]]], "name": "conv2d_62"}, {"config": {"dilation_rate": [1, 1], "kernel_constraint": null, "strides": [1, 1], "use_bias": true, "kernel_regularizer": null, "data_format": "channels_last", "kernel_initializer": {"config": {"mode": "fan_avg", "distribution": "uniform", "scale": 1.0, "seed": null}, "class_name": "VarianceScaling"}, "bias_constraint": null, "bias_initializer": {"config": {}, "class_name": "Zeros"}, "kernel_size": [1, 7], "activity_regularizer": null, "name": "conv2d_67", "trainable": true, "filters": 96, "bias_regularizer": null, "activation": "relu", "padding": "same"}, "class_name": "Conv2D", "inbound_nodes": [[["batch_normalization_66", 0, 0, {}]]], "name": "conv2d_67"}, {"config": {"momentum": 0.99, "beta_regularizer": null, "epsilon": 0.001, "trainable": true, "beta_constraint": null, "moving_variance_initializer": {"config": {}, "class_name": "Ones"}, "center": true, "gamma_constraint": null, "name": "batch_normalization_62", "gamma_regularizer": null, "axis": 3, "scale": true, "gamma_initializer": {"config": {}, "class_name": "Ones"}, "moving_mean_initializer": {"config": {}, "class_name": "Zeros"}, "beta_initializer": {"config": {}, "class_name": "Zeros"}}, "class_name": "BatchNormalization", "inbound_nodes": [[["conv2d_62", 0, 0, {}]]], "name": "batch_normalization_62"}, {"config": {"momentum": 0.99, "beta_regularizer": null, "epsilon": 0.001, "trainable": true, "beta_constraint": null, "moving_variance_initializer": {"config": {}, "class_name": "Ones"}, "center": true, "gamma_constraint": null, "name": "batch_normalization_67", "gamma_regularizer": null, "axis": 3, "scale": true, "gamma_initializer": {"config": {}, "class_name": "Ones"}, "moving_mean_initializer": {"config": {}, "class_name": "Zeros"}, "beta_initializer": {"config": {}, "class_name": "Zeros"}}, "class_name": "BatchNormalization", "inbound_nodes": [[["conv2d_67", 0, 0, {}]]], "name": "batch_normalization_67"}, {"config": {"dilation_rate": [1, 1], "kernel_constraint": null, "strides": [1, 1], "use_bias": true, "kernel_regularizer": null, "data_format": "channels_last", "kernel_initializer": {"config": {"mode": "fan_avg", "distribution": "uniform", "scale": 1.0, "seed": null}, "class_name": "VarianceScaling"}, "bias_constraint": null, "bias_initializer": {"config": {}, "class_name": "Zeros"}, "kernel_size": [1, 7], "activity_regularizer": null, "name": "conv2d_63", "trainable": true, "filters": 96, "bias_regularizer": null, "activation": "relu", "padding": "same"}, "class_name": "Conv2D", "inbound_nodes": [[["batch_normalization_62", 0, 0, {}]]], "name": "conv2d_63"}, {"config": {"dilation_rate": [1, 1], "kernel_constraint": null, "strides": [1, 1], "use_bias": true, "kernel_regularizer": null, "data_format": "channels_last", "kernel_initializer": {"config": {"mode": "fan_avg", "distribution": "uniform", "scale": 1.0, "seed": null}, "class_name": "VarianceScaling"}, "bias_constraint": null, "bias_initializer": {"config": {}, "class_name": "Zeros"}, "kernel_size": [7, 1], "activity_regularizer": null, "name": "conv2d_68", "trainable": true, "filters": 96, "bias_regularizer": null, "activation": "relu", "padding": "same"}, "class_name": "Conv2D", "inbound_nodes": [[["batch_normalization_67", 0, 0, {}]]], "name": "conv2d_68"}, {"config": {"momentum": 0.99, "beta_regularizer": null, "epsilon": 0.001, "trainable": true, "beta_constraint": null, "moving_variance_initializer": {"config": {}, "class_name": "Ones"}, "center": true, "gamma_constraint": null, "name": "batch_normalization_63", "gamma_regularizer": null, "axis": 3, "scale": true, "gamma_initializer": {"config": {}, "class_name": "Ones"}, "moving_mean_initializer": {"config": {}, "class_name": "Zeros"}, "beta_initializer": {"config": {}, "class_name": "Zeros"}}, "class_name": "BatchNormalization", "inbound_nodes": [[["conv2d_63", 0, 0, {}]]], "name": "batch_normalization_63"}, {"config": {"momentum": 0.99, "beta_regularizer": null, "epsilon": 0.001, "trainable": true, "beta_constraint": null, "moving_variance_initializer": {"config": {}, "class_name": "Ones"}, "center": true, "gamma_constraint": null, "name": "batch_normalization_68", "gamma_regularizer": null, "axis": 3, "scale": true, "gamma_initializer": {"config": {}, "class_name": "Ones"}, "moving_mean_initializer": {"config": {}, "class_name": "Zeros"}, "beta_initializer": {"config": {}, "class_name": "Zeros"}}, "class_name": "BatchNormalization", "inbound_nodes": [[["conv2d_68", 0, 0, {}]]], "name": "batch_normalization_68"}, {"config": {"strides": [1, 1], "name": "average_pooling2d_7", "trainable": true, "padding": "same", "pool_size": [3, 3], "data_format": "channels_last"}, "class_name": "AveragePooling2D", "inbound_nodes": [[["mixed6", 0, 0, {}]]], "name": "average_pooling2d_7"}, {"config": {"dilation_rate": [1, 1], "kernel_constraint": null, "strides": [1, 1], "use_bias": true, "kernel_regularizer": null, "data_format": "channels_last", "kernel_initializer": {"config": {"mode": "fan_avg", "distribution": "uniform", "scale": 1.0, "seed": null}, "class_name": "VarianceScaling"}, "bias_constraint": null, "bias_initializer": {"config": {}, "class_name": "Zeros"}, "kernel_size": [1, 1], "activity_regularizer": null, "name": "conv2d_61", "trainable": true, "filters": 96, "bias_regularizer": null, "activation": "relu", "padding": "same"}, "class_name": "Conv2D", "inbound_nodes": [[["mixed6", 0, 0, {}]]], "name": "conv2d_61"}, {"config": {"dilation_rate": [1, 1], "kernel_constraint": null, "strides": [1, 1], "use_bias": true, "kernel_regularizer": null, "data_format": "channels_last", "kernel_initializer": {"config": {"mode": "fan_avg", "distribution": "uniform", "scale": 1.0, "seed": null}, "class_name": "VarianceScaling"}, "bias_constraint": null, "bias_initializer": {"config": {}, "class_name": "Zeros"}, "kernel_size": [7, 1], "activity_regularizer": null, "name": "conv2d_64", "trainable": true, "filters": 96, "bias_regularizer": null, "activation": "relu", "padding": "same"}, "class_name": "Conv2D", "inbound_nodes": [[["batch_normalization_63", 0, 0, {}]]], "name": "conv2d_64"}, {"config": {"dilation_rate": [1, 1], "kernel_constraint": null, "strides": [1, 1], "use_bias": true, "kernel_regularizer": null, "data_format": "channels_last", "kernel_initializer": {"config": {"mode": "fan_avg", "distribution": "uniform", "scale": 1.0, "seed": null}, "class_name": "VarianceScaling"}, "bias_constraint": null, "bias_initializer": {"config": {}, "class_name": "Zeros"}, "kernel_size": [1, 7], "activity_regularizer": null, "name": "conv2d_69", "trainable": true, "filters": 96, "bias_regularizer": null, "activation": "relu", "padding": "same"}, "class_name": "Conv2D", "inbound_nodes": [[["batch_normalization_68", 0, 0, {}]]], "name": "conv2d_69"}, {"config": {"dilation_rate": [1, 1], "kernel_constraint": null, "strides": [1, 1], "use_bias": true, "kernel_regularizer": null, "data_format": "channels_last", "kernel_initializer": {"config": {"mode": "fan_avg", "distribution": "uniform", "scale": 1.0, "seed": null}, "class_name": "VarianceScaling"}, "bias_constraint": null, "bias_initializer": {"config": {}, "class_name": "Zeros"}, "kernel_size": [1, 1], "activity_regularizer": null, "name": "conv2d_70", "trainable": true, "filters": 96, "bias_regularizer": null, "activation": "relu", "padding": "same"}, "class_name": "Conv2D", "inbound_nodes": [[["average_pooling2d_7", 0, 0, {}]]], "name": "conv2d_70"}, {"config": {"momentum": 0.99, "beta_regularizer": null, "epsilon": 0.001, "trainable": true, "beta_constraint": null, "moving_variance_initializer": {"config": {}, "class_name": "Ones"}, "center": true, "gamma_constraint": null, "name": "batch_normalization_61", "gamma_regularizer": null, "axis": 3, "scale": true, "gamma_initializer": {"config": {}, "class_name": "Ones"}, "moving_mean_initializer": {"config": {}, "class_name": "Zeros"}, "beta_initializer": {"config": {}, "class_name": "Zeros"}}, "class_name": "BatchNormalization", "inbound_nodes": [[["conv2d_61", 0, 0, {}]]], "name": "batch_normalization_61"}, {"config": {"momentum": 0.99, "beta_regularizer": null, "epsilon": 0.001, "trainable": true, "beta_constraint": null, "moving_variance_initializer": {"config": {}, "class_name": "Ones"}, "center": true, "gamma_constraint": null, "name": "batch_normalization_64", "gamma_regularizer": null, "axis": 3, "scale": true, "gamma_initializer": {"config": {}, "class_name": "Ones"}, "moving_mean_initializer": {"config": {}, "class_name": "Zeros"}, "beta_initializer": {"config": {}, "class_name": "Zeros"}}, "class_name": "BatchNormalization", "inbound_nodes": [[["conv2d_64", 0, 0, {}]]], "name": "batch_normalization_64"}, {"config": {"momentum": 0.99, "beta_regularizer": null, "epsilon": 0.001, "trainable": true, "beta_constraint": null, "moving_variance_initializer": {"config": {}, "class_name": "Ones"}, "center": true, "gamma_constraint": null, "name": "batch_normalization_69", "gamma_regularizer": null, "axis": 3, "scale": true, "gamma_initializer": {"config": {}, "class_name": "Ones"}, "moving_mean_initializer": {"config": {}, "class_name": "Zeros"}, "beta_initializer": {"config": {}, "class_name": "Zeros"}}, "class_name": "BatchNormalization", "inbound_nodes": [[["conv2d_69", 0, 0, {}]]], "name": "batch_normalization_69"}, {"config": {"momentum": 0.99, "beta_regularizer": null, "epsilon": 0.001, "trainable": true, "beta_constraint": null, "moving_variance_initializer": {"config": {}, "class_name": "Ones"}, "center": true, "gamma_constraint": null, "name": "batch_normalization_70", "gamma_regularizer": null, "axis": 3, "scale": true, "gamma_initializer": {"config": {}, "class_name": "Ones"}, "moving_mean_initializer": {"config": {}, "class_name": "Zeros"}, "beta_initializer": {"config": {}, "class_name": "Zeros"}}, "class_name": "BatchNormalization", "inbound_nodes": [[["conv2d_70", 0, 0, {}]]], "name": "batch_normalization_70"}, {"config": {"axis": -1, "trainable": true, "name": "mixed7"}, "class_name": "Concatenate", "inbound_nodes": [[["batch_normalization_61", 0, 0, {}], ["batch_normalization_64", 0, 0, {}], ["batch_normalization_69", 0, 0, {}], ["batch_normalization_70", 0, 0, {}]]], "name": "mixed7"}, {"config": {"dilation_rate": [1, 1], "kernel_constraint": null, "strides": [1, 1], "use_bias": true, "kernel_regularizer": null, "data_format": "channels_last", "kernel_initializer": {"config": {"mode": "fan_avg", "distribution": "uniform", "scale": 1.0, "seed": null}, "class_name": "VarianceScaling"}, "bias_constraint": null, "bias_initializer": {"config": {}, "class_name": "Zeros"}, "kernel_size": [1, 1], "activity_regularizer": null, "name": "conv2d_73", "trainable": true, "filters": 96, "bias_regularizer": null, "activation": "relu", "padding": "same"}, "class_name": "Conv2D", "inbound_nodes": [[["mixed7", 0, 0, {}]]], "name": "conv2d_73"}, {"config": {"momentum": 0.99, "beta_regularizer": null, "epsilon": 0.001, "trainable": true, "beta_constraint": null, "moving_variance_initializer": {"config": {}, "class_name": "Ones"}, "center": true, "gamma_constraint": null, "name": "batch_normalization_73", "gamma_regularizer": null, "axis": 3, "scale": true, "gamma_initializer": {"config": {}, "class_name": "Ones"}, "moving_mean_initializer": {"config": {}, "class_name": "Zeros"}, "beta_initializer": {"config": {}, "class_name": "Zeros"}}, "class_name": "BatchNormalization", "inbound_nodes": [[["conv2d_73", 0, 0, {}]]], "name": "batch_normalization_73"}, {"config": {"dilation_rate": [1, 1], "kernel_constraint": null, "strides": [1, 1], "use_bias": true, "kernel_regularizer": null, "data_format": "channels_last", "kernel_initializer": {"config": {"mode": "fan_avg", "distribution": "uniform", "scale": 1.0, "seed": null}, "class_name": "VarianceScaling"}, "bias_constraint": null, "bias_initializer": {"config": {}, "class_name": "Zeros"}, "kernel_size": [1, 7], "activity_regularizer": null, "name": "conv2d_74", "trainable": true, "filters": 96, "bias_regularizer": null, "activation": "relu", "padding": "same"}, "class_name": "Conv2D", "inbound_nodes": [[["batch_normalization_73", 0, 0, {}]]], "name": "conv2d_74"}, {"config": {"momentum": 0.99, "beta_regularizer": null, "epsilon": 0.001, "trainable": true, "beta_constraint": null, "moving_variance_initializer": {"config": {}, "class_name": "Ones"}, "center": true, "gamma_constraint": null, "name": "batch_normalization_74", "gamma_regularizer": null, "axis": 3, "scale": true, "gamma_initializer": {"config": {}, "class_name": "Ones"}, "moving_mean_initializer": {"config": {}, "class_name": "Zeros"}, "beta_initializer": {"config": {}, "class_name": "Zeros"}}, "class_name": "BatchNormalization", "inbound_nodes": [[["conv2d_74", 0, 0, {}]]], "name": "batch_normalization_74"}, {"config": {"dilation_rate": [1, 1], "kernel_constraint": null, "strides": [1, 1], "use_bias": true, "kernel_regularizer": null, "data_format": "channels_last", "kernel_initializer": {"config": {"mode": "fan_avg", "distribution": "uniform", "scale": 1.0, "seed": null}, "class_name": "VarianceScaling"}, "bias_constraint": null, "bias_initializer": {"config": {}, "class_name": "Zeros"}, "kernel_size": [1, 1], "activity_regularizer": null, "name": "conv2d_71", "trainable": true, "filters": 96, "bias_regularizer": null, "activation": "relu", "padding": "same"}, "class_name": "Conv2D", "inbound_nodes": [[["mixed7", 0, 0, {}]]], "name": "conv2d_71"}, {"config": {"dilation_rate": [1, 1], "kernel_constraint": null, "strides": [1, 1], "use_bias": true, "kernel_regularizer": null, "data_format": "channels_last", "kernel_initializer": {"config": {"mode": "fan_avg", "distribution": "uniform", "scale": 1.0, "seed": null}, "class_name": "VarianceScaling"}, "bias_constraint": null, "bias_initializer": {"config": {}, "class_name": "Zeros"}, "kernel_size": [7, 1], "activity_regularizer": null, "name": "conv2d_75", "trainable": true, "filters": 96, "bias_regularizer": null, "activation": "relu", "padding": "same"}, "class_name": "Conv2D", "inbound_nodes": [[["batch_normalization_74", 0, 0, {}]]], "name": "conv2d_75"}, {"config": {"momentum": 0.99, "beta_regularizer": null, "epsilon": 0.001, "trainable": true, "beta_constraint": null, "moving_variance_initializer": {"config": {}, "class_name": "Ones"}, "center": true, "gamma_constraint": null, "name": "batch_normalization_71", "gamma_regularizer": null, "axis": 3, "scale": true, "gamma_initializer": {"config": {}, "class_name": "Ones"}, "moving_mean_initializer": {"config": {}, "class_name": "Zeros"}, "beta_initializer": {"config": {}, "class_name": "Zeros"}}, "class_name": "BatchNormalization", "inbound_nodes": [[["conv2d_71", 0, 0, {}]]], "name": "batch_normalization_71"}, {"config": {"momentum": 0.99, "beta_regularizer": null, "epsilon": 0.001, "trainable": true, "beta_constraint": null, "moving_variance_initializer": {"config": {}, "class_name": "Ones"}, "center": true, "gamma_constraint": null, "name": "batch_normalization_75", "gamma_regularizer": null, "axis": 3, "scale": true, "gamma_initializer": {"config": {}, "class_name": "Ones"}, "moving_mean_initializer": {"config": {}, "class_name": "Zeros"}, "beta_initializer": {"config": {}, "class_name": "Zeros"}}, "class_name": "BatchNormalization", "inbound_nodes": [[["conv2d_75", 0, 0, {}]]], "name": "batch_normalization_75"}, {"config": {"dilation_rate": [1, 1], "kernel_constraint": null, "strides": [2, 2], "use_bias": true, "kernel_regularizer": null, "data_format": "channels_last", "kernel_initializer": {"config": {"mode": "fan_avg", "distribution": "uniform", "scale": 1.0, "seed": null}, "class_name": "VarianceScaling"}, "bias_constraint": null, "bias_initializer": {"config": {}, "class_name": "Zeros"}, "kernel_size": [3, 3], "activity_regularizer": null, "name": "conv2d_72", "trainable": true, "filters": 160, "bias_regularizer": null, "activation": "relu", "padding": "valid"}, "class_name": "Conv2D", "inbound_nodes": [[["batch_normalization_71", 0, 0, {}]]], "name": "conv2d_72"}, {"config": {"dilation_rate": [1, 1], "kernel_constraint": null, "strides": [2, 2], "use_bias": true, "kernel_regularizer": null, "data_format": "channels_last", "kernel_initializer": {"config": {"mode": "fan_avg", "distribution": "uniform", "scale": 1.0, "seed": null}, "class_name": "VarianceScaling"}, "bias_constraint": null, "bias_initializer": {"config": {}, "class_name": "Zeros"}, "kernel_size": [3, 3], "activity_regularizer": null, "name": "conv2d_76", "trainable": true, "filters": 96, "bias_regularizer": null, "activation": "relu", "padding": "valid"}, "class_name": "Conv2D", "inbound_nodes": [[["batch_normalization_75", 0, 0, {}]]], "name": "conv2d_76"}, {"config": {"momentum": 0.99, "beta_regularizer": null, "epsilon": 0.001, "trainable": true, "beta_constraint": null, "moving_variance_initializer": {"config": {}, "class_name": "Ones"}, "center": true, "gamma_constraint": null, "name": "batch_normalization_72", "gamma_regularizer": null, "axis": 3, "scale": true, "gamma_initializer": {"config": {}, "class_name": "Ones"}, "moving_mean_initializer": {"config": {}, "class_name": "Zeros"}, "beta_initializer": {"config": {}, "class_name": "Zeros"}}, "class_name": "BatchNormalization", "inbound_nodes": [[["conv2d_72", 0, 0, {}]]], "name": "batch_normalization_72"}, {"config": {"momentum": 0.99, "beta_regularizer": null, "epsilon": 0.001, "trainable": true, "beta_constraint": null, "moving_variance_initializer": {"config": {}, "class_name": "Ones"}, "center": true, "gamma_constraint": null, "name": "batch_normalization_76", "gamma_regularizer": null, "axis": 3, "scale": true, "gamma_initializer": {"config": {}, "class_name": "Ones"}, "moving_mean_initializer": {"config": {}, "class_name": "Zeros"}, "beta_initializer": {"config": {}, "class_name": "Zeros"}}, "class_name": "BatchNormalization", "inbound_nodes": [[["conv2d_76", 0, 0, {}]]], "name": "batch_normalization_76"}, {"config": {"strides": [2, 2], "name": "average_pooling2d_8", "trainable": true, "padding": "valid", "pool_size": [3, 3], "data_format": "channels_last"}, "class_name": "AveragePooling2D", "inbound_nodes": [[["mixed7", 0, 0, {}]]], "name": "average_pooling2d_8"}, {"config": {"axis": -1, "trainable": true, "name": "mixed8"}, "class_name": "Concatenate", "inbound_nodes": [[["batch_normalization_72", 0, 0, {}], ["batch_normalization_76", 0, 0, {}], ["average_pooling2d_8", 0, 0, {}]]], "name": "mixed8"}, {"config": {"dilation_rate": [1, 1], "kernel_constraint": null, "strides": [1, 1], "use_bias": true, "kernel_regularizer": null, "data_format": "channels_last", "kernel_initializer": {"config": {"mode": "fan_avg", "distribution": "uniform", "scale": 1.0, "seed": null}, "class_name": "VarianceScaling"}, "bias_constraint": null, "bias_initializer": {"config": {}, "class_name": "Zeros"}, "kernel_size": [1, 1], "activity_regularizer": null, "name": "conv2d_81", "trainable": true, "filters": 224, "bias_regularizer": null, "activation": "relu", "padding": "same"}, "class_name": "Conv2D", "inbound_nodes": [[["mixed8", 0, 0, {}]]], "name": "conv2d_81"}, {"config": {"momentum": 0.99, "beta_regularizer": null, "epsilon": 0.001, "trainable": true, "beta_constraint": null, "moving_variance_initializer": {"config": {}, "class_name": "Ones"}, "center": true, "gamma_constraint": null, "name": "batch_normalization_81", "gamma_regularizer": null, "axis": 3, "scale": true, "gamma_initializer": {"config": {}, "class_name": "Ones"}, "moving_mean_initializer": {"config": {}, "class_name": "Zeros"}, "beta_initializer": {"config": {}, "class_name": "Zeros"}}, "class_name": "BatchNormalization", "inbound_nodes": [[["conv2d_81", 0, 0, {}]]], "name": "batch_normalization_81"}, {"config": {"dilation_rate": [1, 1], "kernel_constraint": null, "strides": [1, 1], "use_bias": true, "kernel_regularizer": null, "data_format": "channels_last", "kernel_initializer": {"config": {"mode": "fan_avg", "distribution": "uniform", "scale": 1.0, "seed": null}, "class_name": "VarianceScaling"}, "bias_constraint": null, "bias_initializer": {"config": {}, "class_name": "Zeros"}, "kernel_size": [1, 1], "activity_regularizer": null, "name": "conv2d_78", "trainable": true, "filters": 192, "bias_regularizer": null, "activation": "relu", "padding": "same"}, "class_name": "Conv2D", "inbound_nodes": [[["mixed8", 0, 0, {}]]], "name": "conv2d_78"}, {"config": {"dilation_rate": [1, 1], "kernel_constraint": null, "strides": [1, 1], "use_bias": true, "kernel_regularizer": null, "data_format": "channels_last", "kernel_initializer": {"config": {"mode": "fan_avg", "distribution": "uniform", "scale": 1.0, "seed": null}, "class_name": "VarianceScaling"}, "bias_constraint": null, "bias_initializer": {"config": {}, "class_name": "Zeros"}, "kernel_size": [3, 3], "activity_regularizer": null, "name": "conv2d_82", "trainable": true, "filters": 192, "bias_regularizer": null, "activation": "relu", "padding": "same"}, "class_name": "Conv2D", "inbound_nodes": [[["batch_normalization_81", 0, 0, {}]]], "name": "conv2d_82"}, {"config": {"momentum": 0.99, "beta_regularizer": null, "epsilon": 0.001, "trainable": true, "beta_constraint": null, "moving_variance_initializer": {"config": {}, "class_name": "Ones"}, "center": true, "gamma_constraint": null, "name": "batch_normalization_78", "gamma_regularizer": null, "axis": 3, "scale": true, "gamma_initializer": {"config": {}, "class_name": "Ones"}, "moving_mean_initializer": {"config": {}, "class_name": "Zeros"}, "beta_initializer": {"config": {}, "class_name": "Zeros"}}, "class_name": "BatchNormalization", "inbound_nodes": [[["conv2d_78", 0, 0, {}]]], "name": "batch_normalization_78"}, {"config": {"momentum": 0.99, "beta_regularizer": null, "epsilon": 0.001, "trainable": true, "beta_constraint": null, "moving_variance_initializer": {"config": {}, "class_name": "Ones"}, "center": true, "gamma_constraint": null, "name": "batch_normalization_82", "gamma_regularizer": null, "axis": 3, "scale": true, "gamma_initializer": {"config": {}, "class_name": "Ones"}, "moving_mean_initializer": {"config": {}, "class_name": "Zeros"}, "beta_initializer": {"config": {}, "class_name": "Zeros"}}, "class_name": "BatchNormalization", "inbound_nodes": [[["conv2d_82", 0, 0, {}]]], "name": "batch_normalization_82"}, {"config": {"dilation_rate": [1, 1], "kernel_constraint": null, "strides": [1, 1], "use_bias": true, "kernel_regularizer": null, "data_format": "channels_last", "kernel_initializer": {"config": {"mode": "fan_avg", "distribution": "uniform", "scale": 1.0, "seed": null}, "class_name": "VarianceScaling"}, "bias_constraint": null, "bias_initializer": {"config": {}, "class_name": "Zeros"}, "kernel_size": [1, 3], "activity_regularizer": null, "name": "conv2d_79", "trainable": true, "filters": 192, "bias_regularizer": null, "activation": "relu", "padding": "same"}, "class_name": "Conv2D", "inbound_nodes": [[["batch_normalization_78", 0, 0, {}]]], "name": "conv2d_79"}, {"config": {"dilation_rate": [1, 1], "kernel_constraint": null, "strides": [1, 1], "use_bias": true, "kernel_regularizer": null, "data_format": "channels_last", "kernel_initializer": {"config": {"mode": "fan_avg", "distribution": "uniform", "scale": 1.0, "seed": null}, "class_name": "VarianceScaling"}, "bias_constraint": null, "bias_initializer": {"config": {}, "class_name": "Zeros"}, "kernel_size": [3, 1], "activity_regularizer": null, "name": "conv2d_80", "trainable": true, "filters": 192, "bias_regularizer": null, "activation": "relu", "padding": "same"}, "class_name": "Conv2D", "inbound_nodes": [[["batch_normalization_78", 0, 0, {}]]], "name": "conv2d_80"}, {"config": {"dilation_rate": [1, 1], "kernel_constraint": null, "strides": [1, 1], "use_bias": true, "kernel_regularizer": null, "data_format": "channels_last", "kernel_initializer": {"config": {"mode": "fan_avg", "distribution": "uniform", "scale": 1.0, "seed": null}, "class_name": "VarianceScaling"}, "bias_constraint": null, "bias_initializer": {"config": {}, "class_name": "Zeros"}, "kernel_size": [1, 3], "activity_regularizer": null, "name": "conv2d_83", "trainable": true, "filters": 192, "bias_regularizer": null, "activation": "relu", "padding": "same"}, "class_name": "Conv2D", "inbound_nodes": [[["batch_normalization_82", 0, 0, {}]]], "name": "conv2d_83"}, {"config": {"dilation_rate": [1, 1], "kernel_constraint": null, "strides": [1, 1], "use_bias": true, "kernel_regularizer": null, "data_format": "channels_last", "kernel_initializer": {"config": {"mode": "fan_avg", "distribution": "uniform", "scale": 1.0, "seed": null}, "class_name": "VarianceScaling"}, "bias_constraint": null, "bias_initializer": {"config": {}, "class_name": "Zeros"}, "kernel_size": [3, 1], "activity_regularizer": null, "name": "conv2d_84", "trainable": true, "filters": 192, "bias_regularizer": null, "activation": "relu", "padding": "same"}, "class_name": "Conv2D", "inbound_nodes": [[["batch_normalization_82", 0, 0, {}]]], "name": "conv2d_84"}, {"config": {"strides": [1, 1], "name": "average_pooling2d_9", "trainable": true, "padding": "same", "pool_size": [3, 3], "data_format": "channels_last"}, "class_name": "AveragePooling2D", "inbound_nodes": [[["mixed8", 0, 0, {}]]], "name": "average_pooling2d_9"}, {"config": {"dilation_rate": [1, 1], "kernel_constraint": null, "strides": [1, 1], "use_bias": true, "kernel_regularizer": null, "data_format": "channels_last", "kernel_initializer": {"config": {"mode": "fan_avg", "distribution": "uniform", "scale": 1.0, "seed": null}, "class_name": "VarianceScaling"}, "bias_constraint": null, "bias_initializer": {"config": {}, "class_name": "Zeros"}, "kernel_size": [1, 1], "activity_regularizer": null, "name": "conv2d_77", "trainable": true, "filters": 160, "bias_regularizer": null, "activation": "relu", "padding": "same"}, "class_name": "Conv2D", "inbound_nodes": [[["mixed8", 0, 0, {}]]], "name": "conv2d_77"}, {"config": {"momentum": 0.99, "beta_regularizer": null, "epsilon": 0.001, "trainable": true, "beta_constraint": null, "moving_variance_initializer": {"config": {}, "class_name": "Ones"}, "center": true, "gamma_constraint": null, "name": "batch_normalization_79", "gamma_regularizer": null, "axis": 3, "scale": true, "gamma_initializer": {"config": {}, "class_name": "Ones"}, "moving_mean_initializer": {"config": {}, "class_name": "Zeros"}, "beta_initializer": {"config": {}, "class_name": "Zeros"}}, "class_name": "BatchNormalization", "inbound_nodes": [[["conv2d_79", 0, 0, {}]]], "name": "batch_normalization_79"}, {"config": {"momentum": 0.99, "beta_regularizer": null, "epsilon": 0.001, "trainable": true, "beta_constraint": null, "moving_variance_initializer": {"config": {}, "class_name": "Ones"}, "center": true, "gamma_constraint": null, "name": "batch_normalization_80", "gamma_regularizer": null, "axis": 3, "scale": true, "gamma_initializer": {"config": {}, "class_name": "Ones"}, "moving_mean_initializer": {"config": {}, "class_name": "Zeros"}, "beta_initializer": {"config": {}, "class_name": "Zeros"}}, "class_name": "BatchNormalization", "inbound_nodes": [[["conv2d_80", 0, 0, {}]]], "name": "batch_normalization_80"}, {"config": {"momentum": 0.99, "beta_regularizer": null, "epsilon": 0.001, "trainable": true, "beta_constraint": null, "moving_variance_initializer": {"config": {}, "class_name": "Ones"}, "center": true, "gamma_constraint": null, "name": "batch_normalization_83", "gamma_regularizer": null, "axis": 3, "scale": true, "gamma_initializer": {"config": {}, "class_name": "Ones"}, "moving_mean_initializer": {"config": {}, "class_name": "Zeros"}, "beta_initializer": {"config": {}, "class_name": "Zeros"}}, "class_name": "BatchNormalization", "inbound_nodes": [[["conv2d_83", 0, 0, {}]]], "name": "batch_normalization_83"}, {"config": {"momentum": 0.99, "beta_regularizer": null, "epsilon": 0.001, "trainable": true, "beta_constraint": null, "moving_variance_initializer": {"config": {}, "class_name": "Ones"}, "center": true, "gamma_constraint": null, "name": "batch_normalization_84", "gamma_regularizer": null, "axis": 3, "scale": true, "gamma_initializer": {"config": {}, "class_name": "Ones"}, "moving_mean_initializer": {"config": {}, "class_name": "Zeros"}, "beta_initializer": {"config": {}, "class_name": "Zeros"}}, "class_name": "BatchNormalization", "inbound_nodes": [[["conv2d_84", 0, 0, {}]]], "name": "batch_normalization_84"}, {"config": {"dilation_rate": [1, 1], "kernel_constraint": null, "strides": [1, 1], "use_bias": true, "kernel_regularizer": null, "data_format": "channels_last", "kernel_initializer": {"config": {"mode": "fan_avg", "distribution": "uniform", "scale": 1.0, "seed": null}, "class_name": "VarianceScaling"}, "bias_constraint": null, "bias_initializer": {"config": {}, "class_name": "Zeros"}, "kernel_size": [1, 1], "activity_regularizer": null, "name": "conv2d_85", "trainable": true, "filters": 96, "bias_regularizer": null, "activation": "relu", "padding": "same"}, "class_name": "Conv2D", "inbound_nodes": [[["average_pooling2d_9", 0, 0, {}]]], "name": "conv2d_85"}, {"config": {"momentum": 0.99, "beta_regularizer": null, "epsilon": 0.001, "trainable": true, "beta_constraint": null, "moving_variance_initializer": {"config": {}, "class_name": "Ones"}, "center": true, "gamma_constraint": null, "name": "batch_normalization_77", "gamma_regularizer": null, "axis": 3, "scale": true, "gamma_initializer": {"config": {}, "class_name": "Ones"}, "moving_mean_initializer": {"config": {}, "class_name": "Zeros"}, "beta_initializer": {"config": {}, "class_name": "Zeros"}}, "class_name": "BatchNormalization", "inbound_nodes": [[["conv2d_77", 0, 0, {}]]], "name": "batch_normalization_77"}, {"config": {"axis": -1, "trainable": true, "name": "mixed9_0"}, "class_name": "Concatenate", "inbound_nodes": [[["batch_normalization_79", 0, 0, {}], ["batch_normalization_80", 0, 0, {}]]], "name": "mixed9_0"}, {"config": {"axis": -1, "trainable": true, "name": "concatenate_1"}, "class_name": "Concatenate", "inbound_nodes": [[["batch_normalization_83", 0, 0, {}], ["batch_normalization_84", 0, 0, {}]]], "name": "concatenate_1"}, {"config": {"momentum": 0.99, "beta_regularizer": null, "epsilon": 0.001, "trainable": true, "beta_constraint": null, "moving_variance_initializer": {"config": {}, "class_name": "Ones"}, "center": true, "gamma_constraint": null, "name": "batch_normalization_85", "gamma_regularizer": null, "axis": 3, "scale": true, "gamma_initializer": {"config": {}, "class_name": "Ones"}, "moving_mean_initializer": {"config": {}, "class_name": "Zeros"}, "beta_initializer": {"config": {}, "class_name": "Zeros"}}, "class_name": "BatchNormalization", "inbound_nodes": [[["conv2d_85", 0, 0, {}]]], "name": "batch_normalization_85"}, {"config": {"axis": -1, "trainable": true, "name": "mixed9"}, "class_name": "Concatenate", "inbound_nodes": [[["batch_normalization_77", 0, 0, {}], ["mixed9_0", 0, 0, {}], ["concatenate_1", 0, 0, {}], ["batch_normalization_85", 0, 0, {}]]], "name": "mixed9"}, {"config": {"dilation_rate": [1, 1], "kernel_constraint": null, "strides": [1, 1], "use_bias": true, "kernel_regularizer": null, "data_format": "channels_last", "kernel_initializer": {"config": {"mode": "fan_avg", "distribution": "uniform", "scale": 1.0, "seed": null}, "class_name": "VarianceScaling"}, "bias_constraint": null, "bias_initializer": {"config": {}, "class_name": "Zeros"}, "kernel_size": [1, 1], "activity_regularizer": null, "name": "conv2d_90", "trainable": true, "filters": 224, "bias_regularizer": null, "activation": "relu", "padding": "same"}, "class_name": "Conv2D", "inbound_nodes": [[["mixed9", 0, 0, {}]]], "name": "conv2d_90"}, {"config": {"momentum": 0.99, "beta_regularizer": null, "epsilon": 0.001, "trainable": true, "beta_constraint": null, "moving_variance_initializer": {"config": {}, "class_name": "Ones"}, "center": true, "gamma_constraint": null, "name": "batch_normalization_90", "gamma_regularizer": null, "axis": 3, "scale": true, "gamma_initializer": {"config": {}, "class_name": "Ones"}, "moving_mean_initializer": {"config": {}, "class_name": "Zeros"}, "beta_initializer": {"config": {}, "class_name": "Zeros"}}, "class_name": "BatchNormalization", "inbound_nodes": [[["conv2d_90", 0, 0, {}]]], "name": "batch_normalization_90"}, {"config": {"dilation_rate": [1, 1], "kernel_constraint": null, "strides": [1, 1], "use_bias": true, "kernel_regularizer": null, "data_format": "channels_last", "kernel_initializer": {"config": {"mode": "fan_avg", "distribution": "uniform", "scale": 1.0, "seed": null}, "class_name": "VarianceScaling"}, "bias_constraint": null, "bias_initializer": {"config": {}, "class_name": "Zeros"}, "kernel_size": [1, 1], "activity_regularizer": null, "name": "conv2d_87", "trainable": true, "filters": 192, "bias_regularizer": null, "activation": "relu", "padding": "same"}, "class_name": "Conv2D", "inbound_nodes": [[["mixed9", 0, 0, {}]]], "name": "conv2d_87"}, {"config": {"dilation_rate": [1, 1], "kernel_constraint": null, "strides": [1, 1], "use_bias": true, "kernel_regularizer": null, "data_format": "channels_last", "kernel_initializer": {"config": {"mode": "fan_avg", "distribution": "uniform", "scale": 1.0, "seed": null}, "class_name": "VarianceScaling"}, "bias_constraint": null, "bias_initializer": {"config": {}, "class_name": "Zeros"}, "kernel_size": [3, 3], "activity_regularizer": null, "name": "conv2d_91", "trainable": true, "filters": 192, "bias_regularizer": null, "activation": "relu", "padding": "same"}, "class_name": "Conv2D", "inbound_nodes": [[["batch_normalization_90", 0, 0, {}]]], "name": "conv2d_91"}, {"config": {"momentum": 0.99, "beta_regularizer": null, "epsilon": 0.001, "trainable": true, "beta_constraint": null, "moving_variance_initializer": {"config": {}, "class_name": "Ones"}, "center": true, "gamma_constraint": null, "name": "batch_normalization_87", "gamma_regularizer": null, "axis": 3, "scale": true, "gamma_initializer": {"config": {}, "class_name": "Ones"}, "moving_mean_initializer": {"config": {}, "class_name": "Zeros"}, "beta_initializer": {"config": {}, "class_name": "Zeros"}}, "class_name": "BatchNormalization", "inbound_nodes": [[["conv2d_87", 0, 0, {}]]], "name": "batch_normalization_87"}, {"config": {"momentum": 0.99, "beta_regularizer": null, "epsilon": 0.001, "trainable": true, "beta_constraint": null, "moving_variance_initializer": {"config": {}, "class_name": "Ones"}, "center": true, "gamma_constraint": null, "name": "batch_normalization_91", "gamma_regularizer": null, "axis": 3, "scale": true, "gamma_initializer": {"config": {}, "class_name": "Ones"}, "moving_mean_initializer": {"config": {}, "class_name": "Zeros"}, "beta_initializer": {"config": {}, "class_name": "Zeros"}}, "class_name": "BatchNormalization", "inbound_nodes": [[["conv2d_91", 0, 0, {}]]], "name": "batch_normalization_91"}, {"config": {"dilation_rate": [1, 1], "kernel_constraint": null, "strides": [1, 1], "use_bias": true, "kernel_regularizer": null, "data_format": "channels_last", "kernel_initializer": {"config": {"mode": "fan_avg", "distribution": "uniform", "scale": 1.0, "seed": null}, "class_name": "VarianceScaling"}, "bias_constraint": null, "bias_initializer": {"config": {}, "class_name": "Zeros"}, "kernel_size": [1, 3], "activity_regularizer": null, "name": "conv2d_88", "trainable": true, "filters": 192, "bias_regularizer": null, "activation": "relu", "padding": "same"}, "class_name": "Conv2D", "inbound_nodes": [[["batch_normalization_87", 0, 0, {}]]], "name": "conv2d_88"}, {"config": {"dilation_rate": [1, 1], "kernel_constraint": null, "strides": [1, 1], "use_bias": true, "kernel_regularizer": null, "data_format": "channels_last", "kernel_initializer": {"config": {"mode": "fan_avg", "distribution": "uniform", "scale": 1.0, "seed": null}, "class_name": "VarianceScaling"}, "bias_constraint": null, "bias_initializer": {"config": {}, "class_name": "Zeros"}, "kernel_size": [3, 1], "activity_regularizer": null, "name": "conv2d_89", "trainable": true, "filters": 192, "bias_regularizer": null, "activation": "relu", "padding": "same"}, "class_name": "Conv2D", "inbound_nodes": [[["batch_normalization_87", 0, 0, {}]]], "name": "conv2d_89"}, {"config": {"dilation_rate": [1, 1], "kernel_constraint": null, "strides": [1, 1], "use_bias": true, "kernel_regularizer": null, "data_format": "channels_last", "kernel_initializer": {"config": {"mode": "fan_avg", "distribution": "uniform", "scale": 1.0, "seed": null}, "class_name": "VarianceScaling"}, "bias_constraint": null, "bias_initializer": {"config": {}, "class_name": "Zeros"}, "kernel_size": [1, 3], "activity_regularizer": null, "name": "conv2d_92", "trainable": true, "filters": 192, "bias_regularizer": null, "activation": "relu", "padding": "same"}, "class_name": "Conv2D", "inbound_nodes": [[["batch_normalization_91", 0, 0, {}]]], "name": "conv2d_92"}, {"config": {"dilation_rate": [1, 1], "kernel_constraint": null, "strides": [1, 1], "use_bias": true, "kernel_regularizer": null, "data_format": "channels_last", "kernel_initializer": {"config": {"mode": "fan_avg", "distribution": "uniform", "scale": 1.0, "seed": null}, "class_name": "VarianceScaling"}, "bias_constraint": null, "bias_initializer": {"config": {}, "class_name": "Zeros"}, "kernel_size": [3, 1], "activity_regularizer": null, "name": "conv2d_93", "trainable": true, "filters": 192, "bias_regularizer": null, "activation": "relu", "padding": "same"}, "class_name": "Conv2D", "inbound_nodes": [[["batch_normalization_91", 0, 0, {}]]], "name": "conv2d_93"}, {"config": {"strides": [1, 1], "name": "average_pooling2d_10", "trainable": true, "padding": "same", "pool_size": [3, 3], "data_format": "channels_last"}, "class_name": "AveragePooling2D", "inbound_nodes": [[["mixed9", 0, 0, {}]]], "name": "average_pooling2d_10"}, {"config": {"dilation_rate": [1, 1], "kernel_constraint": null, "strides": [1, 1], "use_bias": true, "kernel_regularizer": null, "data_format": "channels_last", "kernel_initializer": {"config": {"mode": "fan_avg", "distribution": "uniform", "scale": 1.0, "seed": null}, "class_name": "VarianceScaling"}, "bias_constraint": null, "bias_initializer": {"config": {}, "class_name": "Zeros"}, "kernel_size": [1, 1], "activity_regularizer": null, "name": "conv2d_86", "trainable": true, "filters": 160, "bias_regularizer": null, "activation": "relu", "padding": "same"}, "class_name": "Conv2D", "inbound_nodes": [[["mixed9", 0, 0, {}]]], "name": "conv2d_86"}, {"config": {"momentum": 0.99, "beta_regularizer": null, "epsilon": 0.001, "trainable": true, "beta_constraint": null, "moving_variance_initializer": {"config": {}, "class_name": "Ones"}, "center": true, "gamma_constraint": null, "name": "batch_normalization_88", "gamma_regularizer": null, "axis": 3, "scale": true, "gamma_initializer": {"config": {}, "class_name": "Ones"}, "moving_mean_initializer": {"config": {}, "class_name": "Zeros"}, "beta_initializer": {"config": {}, "class_name": "Zeros"}}, "class_name": "BatchNormalization", "inbound_nodes": [[["conv2d_88", 0, 0, {}]]], "name": "batch_normalization_88"}, {"config": {"momentum": 0.99, "beta_regularizer": null, "epsilon": 0.001, "trainable": true, "beta_constraint": null, "moving_variance_initializer": {"config": {}, "class_name": "Ones"}, "center": true, "gamma_constraint": null, "name": "batch_normalization_89", "gamma_regularizer": null, "axis": 3, "scale": true, "gamma_initializer": {"config": {}, "class_name": "Ones"}, "moving_mean_initializer": {"config": {}, "class_name": "Zeros"}, "beta_initializer": {"config": {}, "class_name": "Zeros"}}, "class_name": "BatchNormalization", "inbound_nodes": [[["conv2d_89", 0, 0, {}]]], "name": "batch_normalization_89"}, {"config": {"momentum": 0.99, "beta_regularizer": null, "epsilon": 0.001, "trainable": true, "beta_constraint": null, "moving_variance_initializer": {"config": {}, "class_name": "Ones"}, "center": true, "gamma_constraint": null, "name": "batch_normalization_92", "gamma_regularizer": null, "axis": 3, "scale": true, "gamma_initializer": {"config": {}, "class_name": "Ones"}, "moving_mean_initializer": {"config": {}, "class_name": "Zeros"}, "beta_initializer": {"config": {}, "class_name": "Zeros"}}, "class_name": "BatchNormalization", "inbound_nodes": [[["conv2d_92", 0, 0, {}]]], "name": "batch_normalization_92"}, {"config": {"momentum": 0.99, "beta_regularizer": null, "epsilon": 0.001, "trainable": true, "beta_constraint": null, "moving_variance_initializer": {"config": {}, "class_name": "Ones"}, "center": true, "gamma_constraint": null, "name": "batch_normalization_93", "gamma_regularizer": null, "axis": 3, "scale": true, "gamma_initializer": {"config": {}, "class_name": "Ones"}, "moving_mean_initializer": {"config": {}, "class_name": "Zeros"}, "beta_initializer": {"config": {}, "class_name": "Zeros"}}, "class_name": "BatchNormalization", "inbound_nodes": [[["conv2d_93", 0, 0, {}]]], "name": "batch_normalization_93"}, {"config": {"dilation_rate": [1, 1], "kernel_constraint": null, "strides": [1, 1], "use_bias": true, "kernel_regularizer": null, "data_format": "channels_last", "kernel_initializer": {"config": {"mode": "fan_avg", "distribution": "uniform", "scale": 1.0, "seed": null}, "class_name": "VarianceScaling"}, "bias_constraint": null, "bias_initializer": {"config": {}, "class_name": "Zeros"}, "kernel_size": [1, 1], "activity_regularizer": null, "name": "conv2d_94", "trainable": true, "filters": 96, "bias_regularizer": null, "activation": "relu", "padding": "same"}, "class_name": "Conv2D", "inbound_nodes": [[["average_pooling2d_10", 0, 0, {}]]], "name": "conv2d_94"}, {"config": {"momentum": 0.99, "beta_regularizer": null, "epsilon": 0.001, "trainable": true, "beta_constraint": null, "moving_variance_initializer": {"config": {}, "class_name": "Ones"}, "center": true, "gamma_constraint": null, "name": "batch_normalization_86", "gamma_regularizer": null, "axis": 3, "scale": true, "gamma_initializer": {"config": {}, "class_name": "Ones"}, "moving_mean_initializer": {"config": {}, "class_name": "Zeros"}, "beta_initializer": {"config": {}, "class_name": "Zeros"}}, "class_name": "BatchNormalization", "inbound_nodes": [[["conv2d_86", 0, 0, {}]]], "name": "batch_normalization_86"}, {"config": {"axis": -1, "trainable": true, "name": "mixed9_1"}, "class_name": "Concatenate", "inbound_nodes": [[["batch_normalization_88", 0, 0, {}], ["batch_normalization_89", 0, 0, {}]]], "name": "mixed9_1"}, {"config": {"axis": -1, "trainable": true, "name": "concatenate_2"}, "class_name": "Concatenate", "inbound_nodes": [[["batch_normalization_92", 0, 0, {}], ["batch_normalization_93", 0, 0, {}]]], "name": "concatenate_2"}, {"config": {"momentum": 0.99, "beta_regularizer": null, "epsilon": 0.001, "trainable": true, "beta_constraint": null, "moving_variance_initializer": {"config": {}, "class_name": "Ones"}, "center": true, "gamma_constraint": null, "name": "batch_normalization_94", "gamma_regularizer": null, "axis": 3, "scale": true, "gamma_initializer": {"config": {}, "class_name": "Ones"}, "moving_mean_initializer": {"config": {}, "class_name": "Zeros"}, "beta_initializer": {"config": {}, "class_name": "Zeros"}}, "class_name": "BatchNormalization", "inbound_nodes": [[["conv2d_94", 0, 0, {}]]], "name": "batch_normalization_94"}, {"config": {"axis": -1, "trainable": true, "name": "mixed10"}, "class_name": "Concatenate", "inbound_nodes": [[["batch_normalization_86", 0, 0, {}], ["mixed9_1", 0, 0, {}], ["concatenate_2", 0, 0, {}], ["batch_normalization_94", 0, 0, {}]]], "name": "mixed10"}, {"config": {"strides": [2, 2], "name": "end_max_pool", "trainable": true, "padding": "valid", "pool_size": [2, 2], "data_format": "channels_last"}, "class_name": "MaxPooling2D", "inbound_nodes": [[["mixed10", 0, 0, {}]]], "name": "end_max_pool"}, {"config": {"trainable": true, "name": "flatten"}, "class_name": "Flatten", "inbound_nodes": [[["end_max_pool", 0, 0, {}]]], "name": "flatten"}, {"config": {"kernel_constraint": null, "use_bias": true, "trainable": true, "bias_initializer": {"config": {}, "class_name": "Zeros"}, "kernel_initializer": {"config": {"mode": "fan_avg", "distribution": "uniform", "scale": 1.0, "seed": null}, "class_name": "VarianceScaling"}, "bias_constraint": null, "activation": "sigmoid", "activity_regularizer": null, "name": "output_layer", "kernel_regularizer": null, "units": 1, "bias_regularizer": null}, "class_name": "Dense", "inbound_nodes": [[["flatten", 0, 0, {}]]], "name": "output_layer"}], "input_layers": [["input_1", 0, 0]], "output_layers": [["output_layer", 0, 0]]}, "class_name": "Model", "backend": "tensorflow"}