{"keras_version": "2.0.6", "backend": "tensorflow", "config": {"input_layers": [["input_1", 0, 0]], "layers": [{"inbound_nodes": [], "class_name": "InputLayer", "name": "input_1", "config": {"sparse": false, "dtype": "float32", "batch_input_shape": [null, 1152, 832, 1], "name": "input_1"}}, {"inbound_nodes": [[["input_1", 0, 0, {}]]], "class_name": "Conv2D", "name": "conv2d_1", "config": {"kernel_initializer": {"class_name": "VarianceScaling", "config": {"mode": "fan_avg", "scale": 1.0, "seed": null, "distribution": "uniform"}}, "activity_regularizer": null, "data_format": "channels_last", "bias_initializer": {"class_name": "Zeros", "config": {}}, "activation": "relu", "strides": [2, 2], "bias_regularizer": null, "kernel_constraint": null, "trainable": true, "use_bias": true, "name": "conv2d_1", "filters": 16, "padding": "valid", "kernel_regularizer": null, "bias_constraint": null, "dilation_rate": [1, 1], "kernel_size": [3, 3]}}, {"inbound_nodes": [[["conv2d_1", 0, 0, {}]]], "class_name": "BatchNormalization", "name": "batch_normalization_1", "config": {"beta_initializer": {"class_name": "Zeros", "config": {}}, "gamma_regularizer": null, "epsilon": 0.001, "gamma_constraint": null, "beta_constraint": null, "momentum": 0.99, "trainable": true, "scale": true, "axis": 3, "name": "batch_normalization_1", "moving_variance_initializer": {"class_name": "Ones", "config": {}}, "moving_mean_initializer": {"class_name": "Zeros", "config": {}}, "center": true, "gamma_initializer": {"class_name": "Ones", "config": {}}, "beta_regularizer": null}}, {"inbound_nodes": [[["batch_normalization_1", 0, 0, {}]]], "class_name": "Conv2D", "name": "conv2d_2", "config": {"kernel_initializer": {"class_name": "VarianceScaling", "config": {"mode": "fan_avg", "scale": 1.0, "seed": null, "distribution": "uniform"}}, "activity_regularizer": null, "data_format": "channels_last", "bias_initializer": {"class_name": "Zeros", "config": {}}, "activation": "relu", "strides": [1, 1], "bias_regularizer": null, "kernel_constraint": null, "trainable": true, "use_bias": true, "name": "conv2d_2", "filters": 16, "padding": "valid", "kernel_regularizer": null, "bias_constraint": null, "dilation_rate": [1, 1], "kernel_size": [3, 3]}}, {"inbound_nodes": [[["conv2d_2", 0, 0, {}]]], "class_name": "BatchNormalization", "name": "batch_normalization_2", "config": {"beta_initializer": {"class_name": "Zeros", "config": {}}, "gamma_regularizer": null, "epsilon": 0.001, "gamma_constraint": null, "beta_constraint": null, "momentum": 0.99, "trainable": true, "scale": true, "axis": 3, "name": "batch_normalization_2", "moving_variance_initializer": {"class_name": "Ones", "config": {}}, "moving_mean_initializer": {"class_name": "Zeros", "config": {}}, "center": true, "gamma_initializer": {"class_name": "Ones", "config": {}}, "beta_regularizer": null}}, {"inbound_nodes": [[["batch_normalization_2", 0, 0, {}]]], "class_name": "Conv2D", "name": "conv2d_3", "config": {"kernel_initializer": {"class_name": "VarianceScaling", "config": {"mode": "fan_avg", "scale": 1.0, "seed": null, "distribution": "uniform"}}, "activity_regularizer": null, "data_format": "channels_last", "bias_initializer": {"class_name": "Zeros", "config": {}}, "activation": "relu", "strides": [1, 1], "bias_regularizer": null, "kernel_constraint": null, "trainable": true, "use_bias": true, "name": "conv2d_3", "filters": 32, "padding": "same", "kernel_regularizer": null, "bias_constraint": null, "dilation_rate": [1, 1], "kernel_size": [3, 3]}}, {"inbound_nodes": [[["conv2d_3", 0, 0, {}]]], "class_name": "BatchNormalization", "name": "batch_normalization_3", "config": {"beta_initializer": {"class_name": "Zeros", "config": {}}, "gamma_regularizer": null, "epsilon": 0.001, "gamma_constraint": null, "beta_constraint": null, "momentum": 0.99, "trainable": true, "scale": true, "axis": 3, "name": "batch_normalization_3", "moving_variance_initializer": {"class_name": "Ones", "config": {}}, "moving_mean_initializer": {"class_name": "Zeros", "config": {}}, "center": true, "gamma_initializer": {"class_name": "Ones", "config": {}}, "beta_regularizer": null}}, {"inbound_nodes": [[["batch_normalization_3", 0, 0, {}]]], "class_name": "MaxPooling2D", "name": "max_pooling2d_1", "config": {"trainable": true, "data_format": "channels_last", "name": "max_pooling2d_1", "strides": [2, 2], "padding": "valid", "pool_size": [3, 3]}}, {"inbound_nodes": [[["max_pooling2d_1", 0, 0, {}]]], "class_name": "Conv2D", "name": "conv2d_4", "config": {"kernel_initializer": {"class_name": "VarianceScaling", "config": {"mode": "fan_avg", "scale": 1.0, "seed": null, "distribution": "uniform"}}, "activity_regularizer": null, "data_format": "channels_last", "bias_initializer": {"class_name": "Zeros", "config": {}}, "activation": "relu", "strides": [1, 1], "bias_regularizer": null, "kernel_constraint": null, "trainable": true, "use_bias": true, "name": "conv2d_4", "filters": 40, "padding": "valid", "kernel_regularizer": null, "bias_constraint": null, "dilation_rate": [1, 1], "kernel_size": [1, 1]}}, {"inbound_nodes": [[["conv2d_4", 0, 0, {}]]], "class_name": "BatchNormalization", "name": "batch_normalization_4", "config": {"beta_initializer": {"class_name": "Zeros", "config": {}}, "gamma_regularizer": null, "epsilon": 0.001, "gamma_constraint": null, "beta_constraint": null, "momentum": 0.99, "trainable": true, "scale": true, "axis": 3, "name": "batch_normalization_4", "moving_variance_initializer": {"class_name": "Ones", "config": {}}, "moving_mean_initializer": {"class_name": "Zeros", "config": {}}, "center": true, "gamma_initializer": {"class_name": "Ones", "config": {}}, "beta_regularizer": null}}, {"inbound_nodes": [[["batch_normalization_4", 0, 0, {}]]], "class_name": "Conv2D", "name": "conv2d_5", "config": {"kernel_initializer": {"class_name": "VarianceScaling", "config": {"mode": "fan_avg", "scale": 1.0, "seed": null, "distribution": "uniform"}}, "activity_regularizer": null, "data_format": "channels_last", "bias_initializer": {"class_name": "Zeros", "config": {}}, "activation": "relu", "strides": [1, 1], "bias_regularizer": null, "kernel_constraint": null, "trainable": true, "use_bias": true, "name": "conv2d_5", "filters": 96, "padding": "valid", "kernel_regularizer": null, "bias_constraint": null, "dilation_rate": [1, 1], "kernel_size": [3, 3]}}, {"inbound_nodes": [[["conv2d_5", 0, 0, {}]]], "class_name": "BatchNormalization", "name": "batch_normalization_5", "config": {"beta_initializer": {"class_name": "Zeros", "config": {}}, "gamma_regularizer": null, "epsilon": 0.001, "gamma_constraint": null, "beta_constraint": null, "momentum": 0.99, "trainable": true, "scale": true, "axis": 3, "name": "batch_normalization_5", "moving_variance_initializer": {"class_name": "Ones", "config": {}}, "moving_mean_initializer": {"class_name": "Zeros", "config": {}}, "center": true, "gamma_initializer": {"class_name": "Ones", "config": {}}, "beta_regularizer": null}}, {"inbound_nodes": [[["batch_normalization_5", 0, 0, {}]]], "class_name": "MaxPooling2D", "name": "max_pooling2d_2", "config": {"trainable": true, "data_format": "channels_last", "name": "max_pooling2d_2", "strides": [2, 2], "padding": "valid", "pool_size": [3, 3]}}, {"inbound_nodes": [[["max_pooling2d_2", 0, 0, {}]]], "class_name": "Conv2D", "name": "conv2d_9", "config": {"kernel_initializer": {"class_name": "VarianceScaling", "config": {"mode": "fan_avg", "scale": 1.0, "seed": null, "distribution": "uniform"}}, "activity_regularizer": null, "data_format": "channels_last", "bias_initializer": {"class_name": "Zeros", "config": {}}, "activation": "relu", "strides": [1, 1], "bias_regularizer": null, "kernel_constraint": null, "trainable": true, "use_bias": true, "name": "conv2d_9", "filters": 32, "padding": "same", "kernel_regularizer": null, "bias_constraint": null, "dilation_rate": [1, 1], "kernel_size": [1, 1]}}, {"inbound_nodes": [[["conv2d_9", 0, 0, {}]]], "class_name": "BatchNormalization", "name": "batch_normalization_9", "config": {"beta_initializer": {"class_name": "Zeros", "config": {}}, "gamma_regularizer": null, "epsilon": 0.001, "gamma_constraint": null, "beta_constraint": null, "momentum": 0.99, "trainable": true, "scale": true, "axis": 3, "name": "batch_normalization_9", "moving_variance_initializer": {"class_name": "Ones", "config": {}}, "moving_mean_initializer": {"class_name": "Zeros", "config": {}}, "center": true, "gamma_initializer": {"class_name": "Ones", "config": {}}, "beta_regularizer": null}}, {"inbound_nodes": [[["max_pooling2d_2", 0, 0, {}]]], "class_name": "Conv2D", "name": "conv2d_7", "config": {"kernel_initializer": {"class_name": "VarianceScaling", "config": {"mode": "fan_avg", "scale": 1.0, "seed": null, "distribution": "uniform"}}, "activity_regularizer": null, "data_format": "channels_last", "bias_initializer": {"class_name": "Zeros", "config": {}}, "activation": "relu", "strides": [1, 1], "bias_regularizer": null, "kernel_constraint": null, "trainable": true, "use_bias": true, "name": "conv2d_7", "filters": 24, "padding": "same", "kernel_regularizer": null, "bias_constraint": null, "dilation_rate": [1, 1], "kernel_size": [1, 1]}}, {"inbound_nodes": [[["batch_normalization_9", 0, 0, {}]]], "class_name": "Conv2D", "name": "conv2d_10", "config": {"kernel_initializer": {"class_name": "VarianceScaling", "config": {"mode": "fan_avg", "scale": 1.0, "seed": null, "distribution": "uniform"}}, "activity_regularizer": null, "data_format": "channels_last", "bias_initializer": {"class_name": "Zeros", "config": {}}, "activation": "relu", "strides": [1, 1], "bias_regularizer": null, "kernel_constraint": null, "trainable": true, "use_bias": true, "name": "conv2d_10", "filters": 48, "padding": "same", "kernel_regularizer": null, "bias_constraint": null, "dilation_rate": [1, 1], "kernel_size": [3, 3]}}, {"inbound_nodes": [[["conv2d_7", 0, 0, {}]]], "class_name": "BatchNormalization", "name": "batch_normalization_7", "config": {"beta_initializer": {"class_name": "Zeros", "config": {}}, "gamma_regularizer": null, "epsilon": 0.001, "gamma_constraint": null, "beta_constraint": null, "momentum": 0.99, "trainable": true, "scale": true, "axis": 3, "name": "batch_normalization_7", "moving_variance_initializer": {"class_name": "Ones", "config": {}}, "moving_mean_initializer": {"class_name": "Zeros", "config": {}}, "center": true, "gamma_initializer": {"class_name": "Ones", "config": {}}, "beta_regularizer": null}}, {"inbound_nodes": [[["conv2d_10", 0, 0, {}]]], "class_name": "BatchNormalization", "name": "batch_normalization_10", "config": {"beta_initializer": {"class_name": "Zeros", "config": {}}, "gamma_regularizer": null, "epsilon": 0.001, "gamma_constraint": null, "beta_constraint": null, "momentum": 0.99, "trainable": true, "scale": true, "axis": 3, "name": "batch_normalization_10", "moving_variance_initializer": {"class_name": "Ones", "config": {}}, "moving_mean_initializer": {"class_name": "Zeros", "config": {}}, "center": true, "gamma_initializer": {"class_name": "Ones", "config": {}}, "beta_regularizer": null}}, {"inbound_nodes": [[["max_pooling2d_2", 0, 0, {}]]], "class_name": "AveragePooling2D", "name": "average_pooling2d_1", "config": {"trainable": true, "data_format": "channels_last", "name": "average_pooling2d_1", "strides": [1, 1], "padding": "same", "pool_size": [3, 3]}}, {"inbound_nodes": [[["max_pooling2d_2", 0, 0, {}]]], "class_name": "Conv2D", "name": "conv2d_6", "config": {"kernel_initializer": {"class_name": "VarianceScaling", "config": {"mode": "fan_avg", "scale": 1.0, "seed": null, "distribution": "uniform"}}, "activity_regularizer": null, "data_format": "channels_last", "bias_initializer": {"class_name": "Zeros", "config": {}}, "activation": "relu", "strides": [1, 1], "bias_regularizer": null, "kernel_constraint": null, "trainable": true, "use_bias": true, "name": "conv2d_6", "filters": 32, "padding": "same", "kernel_regularizer": null, "bias_constraint": null, "dilation_rate": [1, 1], "kernel_size": [1, 1]}}, {"inbound_nodes": [[["batch_normalization_7", 0, 0, {}]]], "class_name": "Conv2D", "name": "conv2d_8", "config": {"kernel_initializer": {"class_name": "VarianceScaling", "config": {"mode": "fan_avg", "scale": 1.0, "seed": null, "distribution": "uniform"}}, "activity_regularizer": null, "data_format": "channels_last", "bias_initializer": {"class_name": "Zeros", "config": {}}, "activation": "relu", "strides": [1, 1], "bias_regularizer": null, "kernel_constraint": null, "trainable": true, "use_bias": true, "name": "conv2d_8", "filters": 32, "padding": "same", "kernel_regularizer": null, "bias_constraint": null, "dilation_rate": [1, 1], "kernel_size": [5, 5]}}, {"inbound_nodes": [[["batch_normalization_10", 0, 0, {}]]], "class_name": "Conv2D", "name": "conv2d_11", "config": {"kernel_initializer": {"class_name": "VarianceScaling", "config": {"mode": "fan_avg", "scale": 1.0, "seed": null, "distribution": "uniform"}}, "activity_regularizer": null, "data_format": "channels_last", "bias_initializer": {"class_name": "Zeros", "config": {}}, "activation": "relu", "strides": [1, 1], "bias_regularizer": null, "kernel_constraint": null, "trainable": true, "use_bias": true, "name": "conv2d_11", "filters": 48, "padding": "same", "kernel_regularizer": null, "bias_constraint": null, "dilation_rate": [1, 1], "kernel_size": [3, 3]}}, {"inbound_nodes": [[["average_pooling2d_1", 0, 0, {}]]], "class_name": "Conv2D", "name": "conv2d_12", "config": {"kernel_initializer": {"class_name": "VarianceScaling", "config": {"mode": "fan_avg", "scale": 1.0, "seed": null, "distribution": "uniform"}}, "activity_regularizer": null, "data_format": "channels_last", "bias_initializer": {"class_name": "Zeros", "config": {}}, "activation": "relu", "strides": [1, 1], "bias_regularizer": null, "kernel_constraint": null, "trainable": true, "use_bias": true, "name": "conv2d_12", "filters": 16, "padding": "same", "kernel_regularizer": null, "bias_constraint": null, "dilation_rate": [1, 1], "kernel_size": [1, 1]}}, {"inbound_nodes": [[["conv2d_6", 0, 0, {}]]], "class_name": "BatchNormalization", "name": "batch_normalization_6", "config": {"beta_initializer": {"class_name": "Zeros", "config": {}}, "gamma_regularizer": null, "epsilon": 0.001, "gamma_constraint": null, "beta_constraint": null, "momentum": 0.99, "trainable": true, "scale": true, "axis": 3, "name": "batch_normalization_6", "moving_variance_initializer": {"class_name": "Ones", "config": {}}, "moving_mean_initializer": {"class_name": "Zeros", "config": {}}, "center": true, "gamma_initializer": {"class_name": "Ones", "config": {}}, "beta_regularizer": null}}, {"inbound_nodes": [[["conv2d_8", 0, 0, {}]]], "class_name": "BatchNormalization", "name": "batch_normalization_8", "config": {"beta_initializer": {"class_name": "Zeros", "config": {}}, "gamma_regularizer": null, "epsilon": 0.001, "gamma_constraint": null, "beta_constraint": null, "momentum": 0.99, "trainable": true, "scale": true, "axis": 3, "name": "batch_normalization_8", "moving_variance_initializer": {"class_name": "Ones", "config": {}}, "moving_mean_initializer": {"class_name": "Zeros", "config": {}}, "center": true, "gamma_initializer": {"class_name": "Ones", "config": {}}, "beta_regularizer": null}}, {"inbound_nodes": [[["conv2d_11", 0, 0, {}]]], "class_name": "BatchNormalization", "name": "batch_normalization_11", "config": {"beta_initializer": {"class_name": "Zeros", "config": {}}, "gamma_regularizer": null, "epsilon": 0.001, "gamma_constraint": null, "beta_constraint": null, "momentum": 0.99, "trainable": true, "scale": true, "axis": 3, "name": "batch_normalization_11", "moving_variance_initializer": {"class_name": "Ones", "config": {}}, "moving_mean_initializer": {"class_name": "Zeros", "config": {}}, "center": true, "gamma_initializer": {"class_name": "Ones", "config": {}}, "beta_regularizer": null}}, {"inbound_nodes": [[["conv2d_12", 0, 0, {}]]], "class_name": "BatchNormalization", "name": "batch_normalization_12", "config": {"beta_initializer": {"class_name": "Zeros", "config": {}}, "gamma_regularizer": null, "epsilon": 0.001, "gamma_constraint": null, "beta_constraint": null, "momentum": 0.99, "trainable": true, "scale": true, "axis": 3, "name": "batch_normalization_12", "moving_variance_initializer": {"class_name": "Ones", "config": {}}, "moving_mean_initializer": {"class_name": "Zeros", "config": {}}, "center": true, "gamma_initializer": {"class_name": "Ones", "config": {}}, "beta_regularizer": null}}, {"inbound_nodes": [[["batch_normalization_6", 0, 0, {}], ["batch_normalization_8", 0, 0, {}], ["batch_normalization_11", 0, 0, {}], ["batch_normalization_12", 0, 0, {}]]], "class_name": "Concatenate", "name": "mixed0", "config": {"trainable": true, "axis": -1, "name": "mixed0"}}, {"inbound_nodes": [[["mixed0", 0, 0, {}]]], "class_name": "Conv2D", "name": "conv2d_16", "config": {"kernel_initializer": {"class_name": "VarianceScaling", "config": {"mode": "fan_avg", "scale": 1.0, "seed": null, "distribution": "uniform"}}, "activity_regularizer": null, "data_format": "channels_last", "bias_initializer": {"class_name": "Zeros", "config": {}}, "activation": "relu", "strides": [1, 1], "bias_regularizer": null, "kernel_constraint": null, "trainable": true, "use_bias": true, "name": "conv2d_16", "filters": 32, "padding": "same", "kernel_regularizer": null, "bias_constraint": null, "dilation_rate": [1, 1], "kernel_size": [1, 1]}}, {"inbound_nodes": [[["conv2d_16", 0, 0, {}]]], "class_name": "BatchNormalization", "name": "batch_normalization_16", "config": {"beta_initializer": {"class_name": "Zeros", "config": {}}, "gamma_regularizer": null, "epsilon": 0.001, "gamma_constraint": null, "beta_constraint": null, "momentum": 0.99, "trainable": true, "scale": true, "axis": 3, "name": "batch_normalization_16", "moving_variance_initializer": {"class_name": "Ones", "config": {}}, "moving_mean_initializer": {"class_name": "Zeros", "config": {}}, "center": true, "gamma_initializer": {"class_name": "Ones", "config": {}}, "beta_regularizer": null}}, {"inbound_nodes": [[["mixed0", 0, 0, {}]]], "class_name": "Conv2D", "name": "conv2d_14", "config": {"kernel_initializer": {"class_name": "VarianceScaling", "config": {"mode": "fan_avg", "scale": 1.0, "seed": null, "distribution": "uniform"}}, "activity_regularizer": null, "data_format": "channels_last", "bias_initializer": {"class_name": "Zeros", "config": {}}, "activation": "relu", "strides": [1, 1], "bias_regularizer": null, "kernel_constraint": null, "trainable": true, "use_bias": true, "name": "conv2d_14", "filters": 24, "padding": "same", "kernel_regularizer": null, "bias_constraint": null, "dilation_rate": [1, 1], "kernel_size": [1, 1]}}, {"inbound_nodes": [[["batch_normalization_16", 0, 0, {}]]], "class_name": "Conv2D", "name": "conv2d_17", "config": {"kernel_initializer": {"class_name": "VarianceScaling", "config": {"mode": "fan_avg", "scale": 1.0, "seed": null, "distribution": "uniform"}}, "activity_regularizer": null, "data_format": "channels_last", "bias_initializer": {"class_name": "Zeros", "config": {}}, "activation": "relu", "strides": [1, 1], "bias_regularizer": null, "kernel_constraint": null, "trainable": true, "use_bias": true, "name": "conv2d_17", "filters": 48, "padding": "same", "kernel_regularizer": null, "bias_constraint": null, "dilation_rate": [1, 1], "kernel_size": [3, 3]}}, {"inbound_nodes": [[["conv2d_14", 0, 0, {}]]], "class_name": "BatchNormalization", "name": "batch_normalization_14", "config": {"beta_initializer": {"class_name": "Zeros", "config": {}}, "gamma_regularizer": null, "epsilon": 0.001, "gamma_constraint": null, "beta_constraint": null, "momentum": 0.99, "trainable": true, "scale": true, "axis": 3, "name": "batch_normalization_14", "moving_variance_initializer": {"class_name": "Ones", "config": {}}, "moving_mean_initializer": {"class_name": "Zeros", "config": {}}, "center": true, "gamma_initializer": {"class_name": "Ones", "config": {}}, "beta_regularizer": null}}, {"inbound_nodes": [[["conv2d_17", 0, 0, {}]]], "class_name": "BatchNormalization", "name": "batch_normalization_17", "config": {"beta_initializer": {"class_name": "Zeros", "config": {}}, "gamma_regularizer": null, "epsilon": 0.001, "gamma_constraint": null, "beta_constraint": null, "momentum": 0.99, "trainable": true, "scale": true, "axis": 3, "name": "batch_normalization_17", "moving_variance_initializer": {"class_name": "Ones", "config": {}}, "moving_mean_initializer": {"class_name": "Zeros", "config": {}}, "center": true, "gamma_initializer": {"class_name": "Ones", "config": {}}, "beta_regularizer": null}}, {"inbound_nodes": [[["mixed0", 0, 0, {}]]], "class_name": "AveragePooling2D", "name": "average_pooling2d_2", "config": {"trainable": true, "data_format": "channels_last", "name": "average_pooling2d_2", "strides": [1, 1], "padding": "same", "pool_size": [3, 3]}}, {"inbound_nodes": [[["mixed0", 0, 0, {}]]], "class_name": "Conv2D", "name": "conv2d_13", "config": {"kernel_initializer": {"class_name": "VarianceScaling", "config": {"mode": "fan_avg", "scale": 1.0, "seed": null, "distribution": "uniform"}}, "activity_regularizer": null, "data_format": "channels_last", "bias_initializer": {"class_name": "Zeros", "config": {}}, "activation": "relu", "strides": [1, 1], "bias_regularizer": null, "kernel_constraint": null, "trainable": true, "use_bias": true, "name": "conv2d_13", "filters": 32, "padding": "same", "kernel_regularizer": null, "bias_constraint": null, "dilation_rate": [1, 1], "kernel_size": [1, 1]}}, {"inbound_nodes": [[["batch_normalization_14", 0, 0, {}]]], "class_name": "Conv2D", "name": "conv2d_15", "config": {"kernel_initializer": {"class_name": "VarianceScaling", "config": {"mode": "fan_avg", "scale": 1.0, "seed": null, "distribution": "uniform"}}, "activity_regularizer": null, "data_format": "channels_last", "bias_initializer": {"class_name": "Zeros", "config": {}}, "activation": "relu", "strides": [1, 1], "bias_regularizer": null, "kernel_constraint": null, "trainable": true, "use_bias": true, "name": "conv2d_15", "filters": 32, "padding": "same", "kernel_regularizer": null, "bias_constraint": null, "dilation_rate": [1, 1], "kernel_size": [5, 5]}}, {"inbound_nodes": [[["batch_normalization_17", 0, 0, {}]]], "class_name": "Conv2D", "name": "conv2d_18", "config": {"kernel_initializer": {"class_name": "VarianceScaling", "config": {"mode": "fan_avg", "scale": 1.0, "seed": null, "distribution": "uniform"}}, "activity_regularizer": null, "data_format": "channels_last", "bias_initializer": {"class_name": "Zeros", "config": {}}, "activation": "relu", "strides": [1, 1], "bias_regularizer": null, "kernel_constraint": null, "trainable": true, "use_bias": true, "name": "conv2d_18", "filters": 48, "padding": "same", "kernel_regularizer": null, "bias_constraint": null, "dilation_rate": [1, 1], "kernel_size": [3, 3]}}, {"inbound_nodes": [[["average_pooling2d_2", 0, 0, {}]]], "class_name": "Conv2D", "name": "conv2d_19", "config": {"kernel_initializer": {"class_name": "VarianceScaling", "config": {"mode": "fan_avg", "scale": 1.0, "seed": null, "distribution": "uniform"}}, "activity_regularizer": null, "data_format": "channels_last", "bias_initializer": {"class_name": "Zeros", "config": {}}, "activation": "relu", "strides": [1, 1], "bias_regularizer": null, "kernel_constraint": null, "trainable": true, "use_bias": true, "name": "conv2d_19", "filters": 16, "padding": "same", "kernel_regularizer": null, "bias_constraint": null, "dilation_rate": [1, 1], "kernel_size": [1, 1]}}, {"inbound_nodes": [[["conv2d_13", 0, 0, {}]]], "class_name": "BatchNormalization", "name": "batch_normalization_13", "config": {"beta_initializer": {"class_name": "Zeros", "config": {}}, "gamma_regularizer": null, "epsilon": 0.001, "gamma_constraint": null, "beta_constraint": null, "momentum": 0.99, "trainable": true, "scale": true, "axis": 3, "name": "batch_normalization_13", "moving_variance_initializer": {"class_name": "Ones", "config": {}}, "moving_mean_initializer": {"class_name": "Zeros", "config": {}}, "center": true, "gamma_initializer": {"class_name": "Ones", "config": {}}, "beta_regularizer": null}}, {"inbound_nodes": [[["conv2d_15", 0, 0, {}]]], "class_name": "BatchNormalization", "name": "batch_normalization_15", "config": {"beta_initializer": {"class_name": "Zeros", "config": {}}, "gamma_regularizer": null, "epsilon": 0.001, "gamma_constraint": null, "beta_constraint": null, "momentum": 0.99, "trainable": true, "scale": true, "axis": 3, "name": "batch_normalization_15", "moving_variance_initializer": {"class_name": "Ones", "config": {}}, "moving_mean_initializer": {"class_name": "Zeros", "config": {}}, "center": true, "gamma_initializer": {"class_name": "Ones", "config": {}}, "beta_regularizer": null}}, {"inbound_nodes": [[["conv2d_18", 0, 0, {}]]], "class_name": "BatchNormalization", "name": "batch_normalization_18", "config": {"beta_initializer": {"class_name": "Zeros", "config": {}}, "gamma_regularizer": null, "epsilon": 0.001, "gamma_constraint": null, "beta_constraint": null, "momentum": 0.99, "trainable": true, "scale": true, "axis": 3, "name": "batch_normalization_18", "moving_variance_initializer": {"class_name": "Ones", "config": {}}, "moving_mean_initializer": {"class_name": "Zeros", "config": {}}, "center": true, "gamma_initializer": {"class_name": "Ones", "config": {}}, "beta_regularizer": null}}, {"inbound_nodes": [[["conv2d_19", 0, 0, {}]]], "class_name": "BatchNormalization", "name": "batch_normalization_19", "config": {"beta_initializer": {"class_name": "Zeros", "config": {}}, "gamma_regularizer": null, "epsilon": 0.001, "gamma_constraint": null, "beta_constraint": null, "momentum": 0.99, "trainable": true, "scale": true, "axis": 3, "name": "batch_normalization_19", "moving_variance_initializer": {"class_name": "Ones", "config": {}}, "moving_mean_initializer": {"class_name": "Zeros", "config": {}}, "center": true, "gamma_initializer": {"class_name": "Ones", "config": {}}, "beta_regularizer": null}}, {"inbound_nodes": [[["batch_normalization_13", 0, 0, {}], ["batch_normalization_15", 0, 0, {}], ["batch_normalization_18", 0, 0, {}], ["batch_normalization_19", 0, 0, {}]]], "class_name": "Concatenate", "name": "mixed1", "config": {"trainable": true, "axis": -1, "name": "mixed1"}}, {"inbound_nodes": [[["mixed1", 0, 0, {}]]], "class_name": "Conv2D", "name": "conv2d_23", "config": {"kernel_initializer": {"class_name": "VarianceScaling", "config": {"mode": "fan_avg", "scale": 1.0, "seed": null, "distribution": "uniform"}}, "activity_regularizer": null, "data_format": "channels_last", "bias_initializer": {"class_name": "Zeros", "config": {}}, "activation": "relu", "strides": [1, 1], "bias_regularizer": null, "kernel_constraint": null, "trainable": true, "use_bias": true, "name": "conv2d_23", "filters": 32, "padding": "same", "kernel_regularizer": null, "bias_constraint": null, "dilation_rate": [1, 1], "kernel_size": [1, 1]}}, {"inbound_nodes": [[["conv2d_23", 0, 0, {}]]], "class_name": "BatchNormalization", "name": "batch_normalization_23", "config": {"beta_initializer": {"class_name": "Zeros", "config": {}}, "gamma_regularizer": null, "epsilon": 0.001, "gamma_constraint": null, "beta_constraint": null, "momentum": 0.99, "trainable": true, "scale": true, "axis": 3, "name": "batch_normalization_23", "moving_variance_initializer": {"class_name": "Ones", "config": {}}, "moving_mean_initializer": {"class_name": "Zeros", "config": {}}, "center": true, "gamma_initializer": {"class_name": "Ones", "config": {}}, "beta_regularizer": null}}, {"inbound_nodes": [[["mixed1", 0, 0, {}]]], "class_name": "Conv2D", "name": "conv2d_21", "config": {"kernel_initializer": {"class_name": "VarianceScaling", "config": {"mode": "fan_avg", "scale": 1.0, "seed": null, "distribution": "uniform"}}, "activity_regularizer": null, "data_format": "channels_last", "bias_initializer": {"class_name": "Zeros", "config": {}}, "activation": "relu", "strides": [1, 1], "bias_regularizer": null, "kernel_constraint": null, "trainable": true, "use_bias": true, "name": "conv2d_21", "filters": 24, "padding": "same", "kernel_regularizer": null, "bias_constraint": null, "dilation_rate": [1, 1], "kernel_size": [1, 1]}}, {"inbound_nodes": [[["batch_normalization_23", 0, 0, {}]]], "class_name": "Conv2D", "name": "conv2d_24", "config": {"kernel_initializer": {"class_name": "VarianceScaling", "config": {"mode": "fan_avg", "scale": 1.0, "seed": null, "distribution": "uniform"}}, "activity_regularizer": null, "data_format": "channels_last", "bias_initializer": {"class_name": "Zeros", "config": {}}, "activation": "relu", "strides": [1, 1], "bias_regularizer": null, "kernel_constraint": null, "trainable": true, "use_bias": true, "name": "conv2d_24", "filters": 48, "padding": "same", "kernel_regularizer": null, "bias_constraint": null, "dilation_rate": [1, 1], "kernel_size": [3, 3]}}, {"inbound_nodes": [[["conv2d_21", 0, 0, {}]]], "class_name": "BatchNormalization", "name": "batch_normalization_21", "config": {"beta_initializer": {"class_name": "Zeros", "config": {}}, "gamma_regularizer": null, "epsilon": 0.001, "gamma_constraint": null, "beta_constraint": null, "momentum": 0.99, "trainable": true, "scale": true, "axis": 3, "name": "batch_normalization_21", "moving_variance_initializer": {"class_name": "Ones", "config": {}}, "moving_mean_initializer": {"class_name": "Zeros", "config": {}}, "center": true, "gamma_initializer": {"class_name": "Ones", "config": {}}, "beta_regularizer": null}}, {"inbound_nodes": [[["conv2d_24", 0, 0, {}]]], "class_name": "BatchNormalization", "name": "batch_normalization_24", "config": {"beta_initializer": {"class_name": "Zeros", "config": {}}, "gamma_regularizer": null, "epsilon": 0.001, "gamma_constraint": null, "beta_constraint": null, "momentum": 0.99, "trainable": true, "scale": true, "axis": 3, "name": "batch_normalization_24", "moving_variance_initializer": {"class_name": "Ones", "config": {}}, "moving_mean_initializer": {"class_name": "Zeros", "config": {}}, "center": true, "gamma_initializer": {"class_name": "Ones", "config": {}}, "beta_regularizer": null}}, {"inbound_nodes": [[["mixed1", 0, 0, {}]]], "class_name": "AveragePooling2D", "name": "average_pooling2d_3", "config": {"trainable": true, "data_format": "channels_last", "name": "average_pooling2d_3", "strides": [1, 1], "padding": "same", "pool_size": [3, 3]}}, {"inbound_nodes": [[["mixed1", 0, 0, {}]]], "class_name": "Conv2D", "name": "conv2d_20", "config": {"kernel_initializer": {"class_name": "VarianceScaling", "config": {"mode": "fan_avg", "scale": 1.0, "seed": null, "distribution": "uniform"}}, "activity_regularizer": null, "data_format": "channels_last", "bias_initializer": {"class_name": "Zeros", "config": {}}, "activation": "relu", "strides": [1, 1], "bias_regularizer": null, "kernel_constraint": null, "trainable": true, "use_bias": true, "name": "conv2d_20", "filters": 32, "padding": "same", "kernel_regularizer": null, "bias_constraint": null, "dilation_rate": [1, 1], "kernel_size": [1, 1]}}, {"inbound_nodes": [[["batch_normalization_21", 0, 0, {}]]], "class_name": "Conv2D", "name": "conv2d_22", "config": {"kernel_initializer": {"class_name": "VarianceScaling", "config": {"mode": "fan_avg", "scale": 1.0, "seed": null, "distribution": "uniform"}}, "activity_regularizer": null, "data_format": "channels_last", "bias_initializer": {"class_name": "Zeros", "config": {}}, "activation": "relu", "strides": [1, 1], "bias_regularizer": null, "kernel_constraint": null, "trainable": true, "use_bias": true, "name": "conv2d_22", "filters": 32, "padding": "same", "kernel_regularizer": null, "bias_constraint": null, "dilation_rate": [1, 1], "kernel_size": [5, 5]}}, {"inbound_nodes": [[["batch_normalization_24", 0, 0, {}]]], "class_name": "Conv2D", "name": "conv2d_25", "config": {"kernel_initializer": {"class_name": "VarianceScaling", "config": {"mode": "fan_avg", "scale": 1.0, "seed": null, "distribution": "uniform"}}, "activity_regularizer": null, "data_format": "channels_last", "bias_initializer": {"class_name": "Zeros", "config": {}}, "activation": "relu", "strides": [1, 1], "bias_regularizer": null, "kernel_constraint": null, "trainable": true, "use_bias": true, "name": "conv2d_25", "filters": 48, "padding": "same", "kernel_regularizer": null, "bias_constraint": null, "dilation_rate": [1, 1], "kernel_size": [3, 3]}}, {"inbound_nodes": [[["average_pooling2d_3", 0, 0, {}]]], "class_name": "Conv2D", "name": "conv2d_26", "config": {"kernel_initializer": {"class_name": "VarianceScaling", "config": {"mode": "fan_avg", "scale": 1.0, "seed": null, "distribution": "uniform"}}, "activity_regularizer": null, "data_format": "channels_last", "bias_initializer": {"class_name": "Zeros", "config": {}}, "activation": "relu", "strides": [1, 1], "bias_regularizer": null, "kernel_constraint": null, "trainable": true, "use_bias": true, "name": "conv2d_26", "filters": 16, "padding": "same", "kernel_regularizer": null, "bias_constraint": null, "dilation_rate": [1, 1], "kernel_size": [1, 1]}}, {"inbound_nodes": [[["conv2d_20", 0, 0, {}]]], "class_name": "BatchNormalization", "name": "batch_normalization_20", "config": {"beta_initializer": {"class_name": "Zeros", "config": {}}, "gamma_regularizer": null, "epsilon": 0.001, "gamma_constraint": null, "beta_constraint": null, "momentum": 0.99, "trainable": true, "scale": true, "axis": 3, "name": "batch_normalization_20", "moving_variance_initializer": {"class_name": "Ones", "config": {}}, "moving_mean_initializer": {"class_name": "Zeros", "config": {}}, "center": true, "gamma_initializer": {"class_name": "Ones", "config": {}}, "beta_regularizer": null}}, {"inbound_nodes": [[["conv2d_22", 0, 0, {}]]], "class_name": "BatchNormalization", "name": "batch_normalization_22", "config": {"beta_initializer": {"class_name": "Zeros", "config": {}}, "gamma_regularizer": null, "epsilon": 0.001, "gamma_constraint": null, "beta_constraint": null, "momentum": 0.99, "trainable": true, "scale": true, "axis": 3, "name": "batch_normalization_22", "moving_variance_initializer": {"class_name": "Ones", "config": {}}, "moving_mean_initializer": {"class_name": "Zeros", "config": {}}, "center": true, "gamma_initializer": {"class_name": "Ones", "config": {}}, "beta_regularizer": null}}, {"inbound_nodes": [[["conv2d_25", 0, 0, {}]]], "class_name": "BatchNormalization", "name": "batch_normalization_25", "config": {"beta_initializer": {"class_name": "Zeros", "config": {}}, "gamma_regularizer": null, "epsilon": 0.001, "gamma_constraint": null, "beta_constraint": null, "momentum": 0.99, "trainable": true, "scale": true, "axis": 3, "name": "batch_normalization_25", "moving_variance_initializer": {"class_name": "Ones", "config": {}}, "moving_mean_initializer": {"class_name": "Zeros", "config": {}}, "center": true, "gamma_initializer": {"class_name": "Ones", "config": {}}, "beta_regularizer": null}}, {"inbound_nodes": [[["conv2d_26", 0, 0, {}]]], "class_name": "BatchNormalization", "name": "batch_normalization_26", "config": {"beta_initializer": {"class_name": "Zeros", "config": {}}, "gamma_regularizer": null, "epsilon": 0.001, "gamma_constraint": null, "beta_constraint": null, "momentum": 0.99, "trainable": true, "scale": true, "axis": 3, "name": "batch_normalization_26", "moving_variance_initializer": {"class_name": "Ones", "config": {}}, "moving_mean_initializer": {"class_name": "Zeros", "config": {}}, "center": true, "gamma_initializer": {"class_name": "Ones", "config": {}}, "beta_regularizer": null}}, {"inbound_nodes": [[["batch_normalization_20", 0, 0, {}], ["batch_normalization_22", 0, 0, {}], ["batch_normalization_25", 0, 0, {}], ["batch_normalization_26", 0, 0, {}]]], "class_name": "Concatenate", "name": "mixed2", "config": {"trainable": true, "axis": -1, "name": "mixed2"}}, {"inbound_nodes": [[["mixed2", 0, 0, {}]]], "class_name": "Conv2D", "name": "conv2d_28", "config": {"kernel_initializer": {"class_name": "VarianceScaling", "config": {"mode": "fan_avg", "scale": 1.0, "seed": null, "distribution": "uniform"}}, "activity_regularizer": null, "data_format": "channels_last", "bias_initializer": {"class_name": "Zeros", "config": {}}, "activation": "relu", "strides": [1, 1], "bias_regularizer": null, "kernel_constraint": null, "trainable": true, "use_bias": true, "name": "conv2d_28", "filters": 32, "padding": "same", "kernel_regularizer": null, "bias_constraint": null, "dilation_rate": [1, 1], "kernel_size": [1, 1]}}, {"inbound_nodes": [[["conv2d_28", 0, 0, {}]]], "class_name": "BatchNormalization", "name": "batch_normalization_28", "config": {"beta_initializer": {"class_name": "Zeros", "config": {}}, "gamma_regularizer": null, "epsilon": 0.001, "gamma_constraint": null, "beta_constraint": null, "momentum": 0.99, "trainable": true, "scale": true, "axis": 3, "name": "batch_normalization_28", "moving_variance_initializer": {"class_name": "Ones", "config": {}}, "moving_mean_initializer": {"class_name": "Zeros", "config": {}}, "center": true, "gamma_initializer": {"class_name": "Ones", "config": {}}, "beta_regularizer": null}}, {"inbound_nodes": [[["batch_normalization_28", 0, 0, {}]]], "class_name": "Conv2D", "name": "conv2d_29", "config": {"kernel_initializer": {"class_name": "VarianceScaling", "config": {"mode": "fan_avg", "scale": 1.0, "seed": null, "distribution": "uniform"}}, "activity_regularizer": null, "data_format": "channels_last", "bias_initializer": {"class_name": "Zeros", "config": {}}, "activation": "relu", "strides": [1, 1], "bias_regularizer": null, "kernel_constraint": null, "trainable": true, "use_bias": true, "name": "conv2d_29", "filters": 48, "padding": "same", "kernel_regularizer": null, "bias_constraint": null, "dilation_rate": [1, 1], "kernel_size": [3, 3]}}, {"inbound_nodes": [[["conv2d_29", 0, 0, {}]]], "class_name": "BatchNormalization", "name": "batch_normalization_29", "config": {"beta_initializer": {"class_name": "Zeros", "config": {}}, "gamma_regularizer": null, "epsilon": 0.001, "gamma_constraint": null, "beta_constraint": null, "momentum": 0.99, "trainable": true, "scale": true, "axis": 3, "name": "batch_normalization_29", "moving_variance_initializer": {"class_name": "Ones", "config": {}}, "moving_mean_initializer": {"class_name": "Zeros", "config": {}}, "center": true, "gamma_initializer": {"class_name": "Ones", "config": {}}, "beta_regularizer": null}}, {"inbound_nodes": [[["mixed2", 0, 0, {}]]], "class_name": "Conv2D", "name": "conv2d_27", "config": {"kernel_initializer": {"class_name": "VarianceScaling", "config": {"mode": "fan_avg", "scale": 1.0, "seed": null, "distribution": "uniform"}}, "activity_regularizer": null, "data_format": "channels_last", "bias_initializer": {"class_name": "Zeros", "config": {}}, "activation": "relu", "strides": [2, 2], "bias_regularizer": null, "kernel_constraint": null, "trainable": true, "use_bias": true, "name": "conv2d_27", "filters": 192, "padding": "valid", "kernel_regularizer": null, "bias_constraint": null, "dilation_rate": [1, 1], "kernel_size": [3, 3]}}, {"inbound_nodes": [[["batch_normalization_29", 0, 0, {}]]], "class_name": "Conv2D", "name": "conv2d_30", "config": {"kernel_initializer": {"class_name": "VarianceScaling", "config": {"mode": "fan_avg", "scale": 1.0, "seed": null, "distribution": "uniform"}}, "activity_regularizer": null, "data_format": "channels_last", "bias_initializer": {"class_name": "Zeros", "config": {}}, "activation": "relu", "strides": [2, 2], "bias_regularizer": null, "kernel_constraint": null, "trainable": true, "use_bias": true, "name": "conv2d_30", "filters": 48, "padding": "valid", "kernel_regularizer": null, "bias_constraint": null, "dilation_rate": [1, 1], "kernel_size": [3, 3]}}, {"inbound_nodes": [[["conv2d_27", 0, 0, {}]]], "class_name": "BatchNormalization", "name": "batch_normalization_27", "config": {"beta_initializer": {"class_name": "Zeros", "config": {}}, "gamma_regularizer": null, "epsilon": 0.001, "gamma_constraint": null, "beta_constraint": null, "momentum": 0.99, "trainable": true, "scale": true, "axis": 3, "name": "batch_normalization_27", "moving_variance_initializer": {"class_name": "Ones", "config": {}}, "moving_mean_initializer": {"class_name": "Zeros", "config": {}}, "center": true, "gamma_initializer": {"class_name": "Ones", "config": {}}, "beta_regularizer": null}}, {"inbound_nodes": [[["conv2d_30", 0, 0, {}]]], "class_name": "BatchNormalization", "name": "batch_normalization_30", "config": {"beta_initializer": {"class_name": "Zeros", "config": {}}, "gamma_regularizer": null, "epsilon": 0.001, "gamma_constraint": null, "beta_constraint": null, "momentum": 0.99, "trainable": true, "scale": true, "axis": 3, "name": "batch_normalization_30", "moving_variance_initializer": {"class_name": "Ones", "config": {}}, "moving_mean_initializer": {"class_name": "Zeros", "config": {}}, "center": true, "gamma_initializer": {"class_name": "Ones", "config": {}}, "beta_regularizer": null}}, {"inbound_nodes": [[["mixed2", 0, 0, {}]]], "class_name": "MaxPooling2D", "name": "max_pooling2d_3", "config": {"trainable": true, "data_format": "channels_last", "name": "max_pooling2d_3", "strides": [2, 2], "padding": "valid", "pool_size": [3, 3]}}, {"inbound_nodes": [[["batch_normalization_27", 0, 0, {}], ["batch_normalization_30", 0, 0, {}], ["max_pooling2d_3", 0, 0, {}]]], "class_name": "Concatenate", "name": "mixed3", "config": {"trainable": true, "axis": -1, "name": "mixed3"}}, {"inbound_nodes": [[["mixed3", 0, 0, {}]]], "class_name": "Conv2D", "name": "conv2d_35", "config": {"kernel_initializer": {"class_name": "VarianceScaling", "config": {"mode": "fan_avg", "scale": 1.0, "seed": null, "distribution": "uniform"}}, "activity_regularizer": null, "data_format": "channels_last", "bias_initializer": {"class_name": "Zeros", "config": {}}, "activation": "relu", "strides": [1, 1], "bias_regularizer": null, "kernel_constraint": null, "trainable": true, "use_bias": true, "name": "conv2d_35", "filters": 64, "padding": "same", "kernel_regularizer": null, "bias_constraint": null, "dilation_rate": [1, 1], "kernel_size": [1, 1]}}, {"inbound_nodes": [[["conv2d_35", 0, 0, {}]]], "class_name": "BatchNormalization", "name": "batch_normalization_35", "config": {"beta_initializer": {"class_name": "Zeros", "config": {}}, "gamma_regularizer": null, "epsilon": 0.001, "gamma_constraint": null, "beta_constraint": null, "momentum": 0.99, "trainable": true, "scale": true, "axis": 3, "name": "batch_normalization_35", "moving_variance_initializer": {"class_name": "Ones", "config": {}}, "moving_mean_initializer": {"class_name": "Zeros", "config": {}}, "center": true, "gamma_initializer": {"class_name": "Ones", "config": {}}, "beta_regularizer": null}}, {"inbound_nodes": [[["batch_normalization_35", 0, 0, {}]]], "class_name": "Conv2D", "name": "conv2d_36", "config": {"kernel_initializer": {"class_name": "VarianceScaling", "config": {"mode": "fan_avg", "scale": 1.0, "seed": null, "distribution": "uniform"}}, "activity_regularizer": null, "data_format": "channels_last", "bias_initializer": {"class_name": "Zeros", "config": {}}, "activation": "relu", "strides": [1, 1], "bias_regularizer": null, "kernel_constraint": null, "trainable": true, "use_bias": true, "name": "conv2d_36", "filters": 64, "padding": "same", "kernel_regularizer": null, "bias_constraint": null, "dilation_rate": [1, 1], "kernel_size": [7, 1]}}, {"inbound_nodes": [[["conv2d_36", 0, 0, {}]]], "class_name": "BatchNormalization", "name": "batch_normalization_36", "config": {"beta_initializer": {"class_name": "Zeros", "config": {}}, "gamma_regularizer": null, "epsilon": 0.001, "gamma_constraint": null, "beta_constraint": null, "momentum": 0.99, "trainable": true, "scale": true, "axis": 3, "name": "batch_normalization_36", "moving_variance_initializer": {"class_name": "Ones", "config": {}}, "moving_mean_initializer": {"class_name": "Zeros", "config": {}}, "center": true, "gamma_initializer": {"class_name": "Ones", "config": {}}, "beta_regularizer": null}}, {"inbound_nodes": [[["mixed3", 0, 0, {}]]], "class_name": "Conv2D", "name": "conv2d_32", "config": {"kernel_initializer": {"class_name": "VarianceScaling", "config": {"mode": "fan_avg", "scale": 1.0, "seed": null, "distribution": "uniform"}}, "activity_regularizer": null, "data_format": "channels_last", "bias_initializer": {"class_name": "Zeros", "config": {}}, "activation": "relu", "strides": [1, 1], "bias_regularizer": null, "kernel_constraint": null, "trainable": true, "use_bias": true, "name": "conv2d_32", "filters": 64, "padding": "same", "kernel_regularizer": null, "bias_constraint": null, "dilation_rate": [1, 1], "kernel_size": [1, 1]}}, {"inbound_nodes": [[["batch_normalization_36", 0, 0, {}]]], "class_name": "Conv2D", "name": "conv2d_37", "config": {"kernel_initializer": {"class_name": "VarianceScaling", "config": {"mode": "fan_avg", "scale": 1.0, "seed": null, "distribution": "uniform"}}, "activity_regularizer": null, "data_format": "channels_last", "bias_initializer": {"class_name": "Zeros", "config": {}}, "activation": "relu", "strides": [1, 1], "bias_regularizer": null, "kernel_constraint": null, "trainable": true, "use_bias": true, "name": "conv2d_37", "filters": 64, "padding": "same", "kernel_regularizer": null, "bias_constraint": null, "dilation_rate": [1, 1], "kernel_size": [1, 7]}}, {"inbound_nodes": [[["conv2d_32", 0, 0, {}]]], "class_name": "BatchNormalization", "name": "batch_normalization_32", "config": {"beta_initializer": {"class_name": "Zeros", "config": {}}, "gamma_regularizer": null, "epsilon": 0.001, "gamma_constraint": null, "beta_constraint": null, "momentum": 0.99, "trainable": true, "scale": true, "axis": 3, "name": "batch_normalization_32", "moving_variance_initializer": {"class_name": "Ones", "config": {}}, "moving_mean_initializer": {"class_name": "Zeros", "config": {}}, "center": true, "gamma_initializer": {"class_name": "Ones", "config": {}}, "beta_regularizer": null}}, {"inbound_nodes": [[["conv2d_37", 0, 0, {}]]], "class_name": "BatchNormalization", "name": "batch_normalization_37", "config": {"beta_initializer": {"class_name": "Zeros", "config": {}}, "gamma_regularizer": null, "epsilon": 0.001, "gamma_constraint": null, "beta_constraint": null, "momentum": 0.99, "trainable": true, "scale": true, "axis": 3, "name": "batch_normalization_37", "moving_variance_initializer": {"class_name": "Ones", "config": {}}, "moving_mean_initializer": {"class_name": "Zeros", "config": {}}, "center": true, "gamma_initializer": {"class_name": "Ones", "config": {}}, "beta_regularizer": null}}, {"inbound_nodes": [[["batch_normalization_32", 0, 0, {}]]], "class_name": "Conv2D", "name": "conv2d_33", "config": {"kernel_initializer": {"class_name": "VarianceScaling", "config": {"mode": "fan_avg", "scale": 1.0, "seed": null, "distribution": "uniform"}}, "activity_regularizer": null, "data_format": "channels_last", "bias_initializer": {"class_name": "Zeros", "config": {}}, "activation": "relu", "strides": [1, 1], "bias_regularizer": null, "kernel_constraint": null, "trainable": true, "use_bias": true, "name": "conv2d_33", "filters": 64, "padding": "same", "kernel_regularizer": null, "bias_constraint": null, "dilation_rate": [1, 1], "kernel_size": [1, 7]}}, {"inbound_nodes": [[["batch_normalization_37", 0, 0, {}]]], "class_name": "Conv2D", "name": "conv2d_38", "config": {"kernel_initializer": {"class_name": "VarianceScaling", "config": {"mode": "fan_avg", "scale": 1.0, "seed": null, "distribution": "uniform"}}, "activity_regularizer": null, "data_format": "channels_last", "bias_initializer": {"class_name": "Zeros", "config": {}}, "activation": "relu", "strides": [1, 1], "bias_regularizer": null, "kernel_constraint": null, "trainable": true, "use_bias": true, "name": "conv2d_38", "filters": 64, "padding": "same", "kernel_regularizer": null, "bias_constraint": null, "dilation_rate": [1, 1], "kernel_size": [7, 1]}}, {"inbound_nodes": [[["conv2d_33", 0, 0, {}]]], "class_name": "BatchNormalization", "name": "batch_normalization_33", "config": {"beta_initializer": {"class_name": "Zeros", "config": {}}, "gamma_regularizer": null, "epsilon": 0.001, "gamma_constraint": null, "beta_constraint": null, "momentum": 0.99, "trainable": true, "scale": true, "axis": 3, "name": "batch_normalization_33", "moving_variance_initializer": {"class_name": "Ones", "config": {}}, "moving_mean_initializer": {"class_name": "Zeros", "config": {}}, "center": true, "gamma_initializer": {"class_name": "Ones", "config": {}}, "beta_regularizer": null}}, {"inbound_nodes": [[["conv2d_38", 0, 0, {}]]], "class_name": "BatchNormalization", "name": "batch_normalization_38", "config": {"beta_initializer": {"class_name": "Zeros", "config": {}}, "gamma_regularizer": null, "epsilon": 0.001, "gamma_constraint": null, "beta_constraint": null, "momentum": 0.99, "trainable": true, "scale": true, "axis": 3, "name": "batch_normalization_38", "moving_variance_initializer": {"class_name": "Ones", "config": {}}, "moving_mean_initializer": {"class_name": "Zeros", "config": {}}, "center": true, "gamma_initializer": {"class_name": "Ones", "config": {}}, "beta_regularizer": null}}, {"inbound_nodes": [[["mixed3", 0, 0, {}]]], "class_name": "AveragePooling2D", "name": "average_pooling2d_4", "config": {"trainable": true, "data_format": "channels_last", "name": "average_pooling2d_4", "strides": [1, 1], "padding": "same", "pool_size": [3, 3]}}, {"inbound_nodes": [[["mixed3", 0, 0, {}]]], "class_name": "Conv2D", "name": "conv2d_31", "config": {"kernel_initializer": {"class_name": "VarianceScaling", "config": {"mode": "fan_avg", "scale": 1.0, "seed": null, "distribution": "uniform"}}, "activity_regularizer": null, "data_format": "channels_last", "bias_initializer": {"class_name": "Zeros", "config": {}}, "activation": "relu", "strides": [1, 1], "bias_regularizer": null, "kernel_constraint": null, "trainable": true, "use_bias": true, "name": "conv2d_31", "filters": 96, "padding": "same", "kernel_regularizer": null, "bias_constraint": null, "dilation_rate": [1, 1], "kernel_size": [1, 1]}}, {"inbound_nodes": [[["batch_normalization_33", 0, 0, {}]]], "class_name": "Conv2D", "name": "conv2d_34", "config": {"kernel_initializer": {"class_name": "VarianceScaling", "config": {"mode": "fan_avg", "scale": 1.0, "seed": null, "distribution": "uniform"}}, "activity_regularizer": null, "data_format": "channels_last", "bias_initializer": {"class_name": "Zeros", "config": {}}, "activation": "relu", "strides": [1, 1], "bias_regularizer": null, "kernel_constraint": null, "trainable": true, "use_bias": true, "name": "conv2d_34", "filters": 96, "padding": "same", "kernel_regularizer": null, "bias_constraint": null, "dilation_rate": [1, 1], "kernel_size": [7, 1]}}, {"inbound_nodes": [[["batch_normalization_38", 0, 0, {}]]], "class_name": "Conv2D", "name": "conv2d_39", "config": {"kernel_initializer": {"class_name": "VarianceScaling", "config": {"mode": "fan_avg", "scale": 1.0, "seed": null, "distribution": "uniform"}}, "activity_regularizer": null, "data_format": "channels_last", "bias_initializer": {"class_name": "Zeros", "config": {}}, "activation": "relu", "strides": [1, 1], "bias_regularizer": null, "kernel_constraint": null, "trainable": true, "use_bias": true, "name": "conv2d_39", "filters": 96, "padding": "same", "kernel_regularizer": null, "bias_constraint": null, "dilation_rate": [1, 1], "kernel_size": [1, 7]}}, {"inbound_nodes": [[["average_pooling2d_4", 0, 0, {}]]], "class_name": "Conv2D", "name": "conv2d_40", "config": {"kernel_initializer": {"class_name": "VarianceScaling", "config": {"mode": "fan_avg", "scale": 1.0, "seed": null, "distribution": "uniform"}}, "activity_regularizer": null, "data_format": "channels_last", "bias_initializer": {"class_name": "Zeros", "config": {}}, "activation": "relu", "strides": [1, 1], "bias_regularizer": null, "kernel_constraint": null, "trainable": true, "use_bias": true, "name": "conv2d_40", "filters": 96, "padding": "same", "kernel_regularizer": null, "bias_constraint": null, "dilation_rate": [1, 1], "kernel_size": [1, 1]}}, {"inbound_nodes": [[["conv2d_31", 0, 0, {}]]], "class_name": "BatchNormalization", "name": "batch_normalization_31", "config": {"beta_initializer": {"class_name": "Zeros", "config": {}}, "gamma_regularizer": null, "epsilon": 0.001, "gamma_constraint": null, "beta_constraint": null, "momentum": 0.99, "trainable": true, "scale": true, "axis": 3, "name": "batch_normalization_31", "moving_variance_initializer": {"class_name": "Ones", "config": {}}, "moving_mean_initializer": {"class_name": "Zeros", "config": {}}, "center": true, "gamma_initializer": {"class_name": "Ones", "config": {}}, "beta_regularizer": null}}, {"inbound_nodes": [[["conv2d_34", 0, 0, {}]]], "class_name": "BatchNormalization", "name": "batch_normalization_34", "config": {"beta_initializer": {"class_name": "Zeros", "config": {}}, "gamma_regularizer": null, "epsilon": 0.001, "gamma_constraint": null, "beta_constraint": null, "momentum": 0.99, "trainable": true, "scale": true, "axis": 3, "name": "batch_normalization_34", "moving_variance_initializer": {"class_name": "Ones", "config": {}}, "moving_mean_initializer": {"class_name": "Zeros", "config": {}}, "center": true, "gamma_initializer": {"class_name": "Ones", "config": {}}, "beta_regularizer": null}}, {"inbound_nodes": [[["conv2d_39", 0, 0, {}]]], "class_name": "BatchNormalization", "name": "batch_normalization_39", "config": {"beta_initializer": {"class_name": "Zeros", "config": {}}, "gamma_regularizer": null, "epsilon": 0.001, "gamma_constraint": null, "beta_constraint": null, "momentum": 0.99, "trainable": true, "scale": true, "axis": 3, "name": "batch_normalization_39", "moving_variance_initializer": {"class_name": "Ones", "config": {}}, "moving_mean_initializer": {"class_name": "Zeros", "config": {}}, "center": true, "gamma_initializer": {"class_name": "Ones", "config": {}}, "beta_regularizer": null}}, {"inbound_nodes": [[["conv2d_40", 0, 0, {}]]], "class_name": "BatchNormalization", "name": "batch_normalization_40", "config": {"beta_initializer": {"class_name": "Zeros", "config": {}}, "gamma_regularizer": null, "epsilon": 0.001, "gamma_constraint": null, "beta_constraint": null, "momentum": 0.99, "trainable": true, "scale": true, "axis": 3, "name": "batch_normalization_40", "moving_variance_initializer": {"class_name": "Ones", "config": {}}, "moving_mean_initializer": {"class_name": "Zeros", "config": {}}, "center": true, "gamma_initializer": {"class_name": "Ones", "config": {}}, "beta_regularizer": null}}, {"inbound_nodes": [[["batch_normalization_31", 0, 0, {}], ["batch_normalization_34", 0, 0, {}], ["batch_normalization_39", 0, 0, {}], ["batch_normalization_40", 0, 0, {}]]], "class_name": "Concatenate", "name": "mixed4", "config": {"trainable": true, "axis": -1, "name": "mixed4"}}, {"inbound_nodes": [[["mixed4", 0, 0, {}]]], "class_name": "Conv2D", "name": "conv2d_45", "config": {"kernel_initializer": {"class_name": "VarianceScaling", "config": {"mode": "fan_avg", "scale": 1.0, "seed": null, "distribution": "uniform"}}, "activity_regularizer": null, "data_format": "channels_last", "bias_initializer": {"class_name": "Zeros", "config": {}}, "activation": "relu", "strides": [1, 1], "bias_regularizer": null, "kernel_constraint": null, "trainable": true, "use_bias": true, "name": "conv2d_45", "filters": 80, "padding": "same", "kernel_regularizer": null, "bias_constraint": null, "dilation_rate": [1, 1], "kernel_size": [1, 1]}}, {"inbound_nodes": [[["conv2d_45", 0, 0, {}]]], "class_name": "BatchNormalization", "name": "batch_normalization_45", "config": {"beta_initializer": {"class_name": "Zeros", "config": {}}, "gamma_regularizer": null, "epsilon": 0.001, "gamma_constraint": null, "beta_constraint": null, "momentum": 0.99, "trainable": true, "scale": true, "axis": 3, "name": "batch_normalization_45", "moving_variance_initializer": {"class_name": "Ones", "config": {}}, "moving_mean_initializer": {"class_name": "Zeros", "config": {}}, "center": true, "gamma_initializer": {"class_name": "Ones", "config": {}}, "beta_regularizer": null}}, {"inbound_nodes": [[["batch_normalization_45", 0, 0, {}]]], "class_name": "Conv2D", "name": "conv2d_46", "config": {"kernel_initializer": {"class_name": "VarianceScaling", "config": {"mode": "fan_avg", "scale": 1.0, "seed": null, "distribution": "uniform"}}, "activity_regularizer": null, "data_format": "channels_last", "bias_initializer": {"class_name": "Zeros", "config": {}}, "activation": "relu", "strides": [1, 1], "bias_regularizer": null, "kernel_constraint": null, "trainable": true, "use_bias": true, "name": "conv2d_46", "filters": 80, "padding": "same", "kernel_regularizer": null, "bias_constraint": null, "dilation_rate": [1, 1], "kernel_size": [7, 1]}}, {"inbound_nodes": [[["conv2d_46", 0, 0, {}]]], "class_name": "BatchNormalization", "name": "batch_normalization_46", "config": {"beta_initializer": {"class_name": "Zeros", "config": {}}, "gamma_regularizer": null, "epsilon": 0.001, "gamma_constraint": null, "beta_constraint": null, "momentum": 0.99, "trainable": true, "scale": true, "axis": 3, "name": "batch_normalization_46", "moving_variance_initializer": {"class_name": "Ones", "config": {}}, "moving_mean_initializer": {"class_name": "Zeros", "config": {}}, "center": true, "gamma_initializer": {"class_name": "Ones", "config": {}}, "beta_regularizer": null}}, {"inbound_nodes": [[["mixed4", 0, 0, {}]]], "class_name": "Conv2D", "name": "conv2d_42", "config": {"kernel_initializer": {"class_name": "VarianceScaling", "config": {"mode": "fan_avg", "scale": 1.0, "seed": null, "distribution": "uniform"}}, "activity_regularizer": null, "data_format": "channels_last", "bias_initializer": {"class_name": "Zeros", "config": {}}, "activation": "relu", "strides": [1, 1], "bias_regularizer": null, "kernel_constraint": null, "trainable": true, "use_bias": true, "name": "conv2d_42", "filters": 80, "padding": "same", "kernel_regularizer": null, "bias_constraint": null, "dilation_rate": [1, 1], "kernel_size": [1, 1]}}, {"inbound_nodes": [[["batch_normalization_46", 0, 0, {}]]], "class_name": "Conv2D", "name": "conv2d_47", "config": {"kernel_initializer": {"class_name": "VarianceScaling", "config": {"mode": "fan_avg", "scale": 1.0, "seed": null, "distribution": "uniform"}}, "activity_regularizer": null, "data_format": "channels_last", "bias_initializer": {"class_name": "Zeros", "config": {}}, "activation": "relu", "strides": [1, 1], "bias_regularizer": null, "kernel_constraint": null, "trainable": true, "use_bias": true, "name": "conv2d_47", "filters": 80, "padding": "same", "kernel_regularizer": null, "bias_constraint": null, "dilation_rate": [1, 1], "kernel_size": [1, 7]}}, {"inbound_nodes": [[["conv2d_42", 0, 0, {}]]], "class_name": "BatchNormalization", "name": "batch_normalization_42", "config": {"beta_initializer": {"class_name": "Zeros", "config": {}}, "gamma_regularizer": null, "epsilon": 0.001, "gamma_constraint": null, "beta_constraint": null, "momentum": 0.99, "trainable": true, "scale": true, "axis": 3, "name": "batch_normalization_42", "moving_variance_initializer": {"class_name": "Ones", "config": {}}, "moving_mean_initializer": {"class_name": "Zeros", "config": {}}, "center": true, "gamma_initializer": {"class_name": "Ones", "config": {}}, "beta_regularizer": null}}, {"inbound_nodes": [[["conv2d_47", 0, 0, {}]]], "class_name": "BatchNormalization", "name": "batch_normalization_47", "config": {"beta_initializer": {"class_name": "Zeros", "config": {}}, "gamma_regularizer": null, "epsilon": 0.001, "gamma_constraint": null, "beta_constraint": null, "momentum": 0.99, "trainable": true, "scale": true, "axis": 3, "name": "batch_normalization_47", "moving_variance_initializer": {"class_name": "Ones", "config": {}}, "moving_mean_initializer": {"class_name": "Zeros", "config": {}}, "center": true, "gamma_initializer": {"class_name": "Ones", "config": {}}, "beta_regularizer": null}}, {"inbound_nodes": [[["batch_normalization_42", 0, 0, {}]]], "class_name": "Conv2D", "name": "conv2d_43", "config": {"kernel_initializer": {"class_name": "VarianceScaling", "config": {"mode": "fan_avg", "scale": 1.0, "seed": null, "distribution": "uniform"}}, "activity_regularizer": null, "data_format": "channels_last", "bias_initializer": {"class_name": "Zeros", "config": {}}, "activation": "relu", "strides": [1, 1], "bias_regularizer": null, "kernel_constraint": null, "trainable": true, "use_bias": true, "name": "conv2d_43", "filters": 80, "padding": "same", "kernel_regularizer": null, "bias_constraint": null, "dilation_rate": [1, 1], "kernel_size": [1, 7]}}, {"inbound_nodes": [[["batch_normalization_47", 0, 0, {}]]], "class_name": "Conv2D", "name": "conv2d_48", "config": {"kernel_initializer": {"class_name": "VarianceScaling", "config": {"mode": "fan_avg", "scale": 1.0, "seed": null, "distribution": "uniform"}}, "activity_regularizer": null, "data_format": "channels_last", "bias_initializer": {"class_name": "Zeros", "config": {}}, "activation": "relu", "strides": [1, 1], "bias_regularizer": null, "kernel_constraint": null, "trainable": true, "use_bias": true, "name": "conv2d_48", "filters": 80, "padding": "same", "kernel_regularizer": null, "bias_constraint": null, "dilation_rate": [1, 1], "kernel_size": [7, 1]}}, {"inbound_nodes": [[["conv2d_43", 0, 0, {}]]], "class_name": "BatchNormalization", "name": "batch_normalization_43", "config": {"beta_initializer": {"class_name": "Zeros", "config": {}}, "gamma_regularizer": null, "epsilon": 0.001, "gamma_constraint": null, "beta_constraint": null, "momentum": 0.99, "trainable": true, "scale": true, "axis": 3, "name": "batch_normalization_43", "moving_variance_initializer": {"class_name": "Ones", "config": {}}, "moving_mean_initializer": {"class_name": "Zeros", "config": {}}, "center": true, "gamma_initializer": {"class_name": "Ones", "config": {}}, "beta_regularizer": null}}, {"inbound_nodes": [[["conv2d_48", 0, 0, {}]]], "class_name": "BatchNormalization", "name": "batch_normalization_48", "config": {"beta_initializer": {"class_name": "Zeros", "config": {}}, "gamma_regularizer": null, "epsilon": 0.001, "gamma_constraint": null, "beta_constraint": null, "momentum": 0.99, "trainable": true, "scale": true, "axis": 3, "name": "batch_normalization_48", "moving_variance_initializer": {"class_name": "Ones", "config": {}}, "moving_mean_initializer": {"class_name": "Zeros", "config": {}}, "center": true, "gamma_initializer": {"class_name": "Ones", "config": {}}, "beta_regularizer": null}}, {"inbound_nodes": [[["mixed4", 0, 0, {}]]], "class_name": "AveragePooling2D", "name": "average_pooling2d_5", "config": {"trainable": true, "data_format": "channels_last", "name": "average_pooling2d_5", "strides": [1, 1], "padding": "same", "pool_size": [3, 3]}}, {"inbound_nodes": [[["mixed4", 0, 0, {}]]], "class_name": "Conv2D", "name": "conv2d_41", "config": {"kernel_initializer": {"class_name": "VarianceScaling", "config": {"mode": "fan_avg", "scale": 1.0, "seed": null, "distribution": "uniform"}}, "activity_regularizer": null, "data_format": "channels_last", "bias_initializer": {"class_name": "Zeros", "config": {}}, "activation": "relu", "strides": [1, 1], "bias_regularizer": null, "kernel_constraint": null, "trainable": true, "use_bias": true, "name": "conv2d_41", "filters": 96, "padding": "same", "kernel_regularizer": null, "bias_constraint": null, "dilation_rate": [1, 1], "kernel_size": [1, 1]}}, {"inbound_nodes": [[["batch_normalization_43", 0, 0, {}]]], "class_name": "Conv2D", "name": "conv2d_44", "config": {"kernel_initializer": {"class_name": "VarianceScaling", "config": {"mode": "fan_avg", "scale": 1.0, "seed": null, "distribution": "uniform"}}, "activity_regularizer": null, "data_format": "channels_last", "bias_initializer": {"class_name": "Zeros", "config": {}}, "activation": "relu", "strides": [1, 1], "bias_regularizer": null, "kernel_constraint": null, "trainable": true, "use_bias": true, "name": "conv2d_44", "filters": 96, "padding": "same", "kernel_regularizer": null, "bias_constraint": null, "dilation_rate": [1, 1], "kernel_size": [7, 1]}}, {"inbound_nodes": [[["batch_normalization_48", 0, 0, {}]]], "class_name": "Conv2D", "name": "conv2d_49", "config": {"kernel_initializer": {"class_name": "VarianceScaling", "config": {"mode": "fan_avg", "scale": 1.0, "seed": null, "distribution": "uniform"}}, "activity_regularizer": null, "data_format": "channels_last", "bias_initializer": {"class_name": "Zeros", "config": {}}, "activation": "relu", "strides": [1, 1], "bias_regularizer": null, "kernel_constraint": null, "trainable": true, "use_bias": true, "name": "conv2d_49", "filters": 96, "padding": "same", "kernel_regularizer": null, "bias_constraint": null, "dilation_rate": [1, 1], "kernel_size": [1, 7]}}, {"inbound_nodes": [[["average_pooling2d_5", 0, 0, {}]]], "class_name": "Conv2D", "name": "conv2d_50", "config": {"kernel_initializer": {"class_name": "VarianceScaling", "config": {"mode": "fan_avg", "scale": 1.0, "seed": null, "distribution": "uniform"}}, "activity_regularizer": null, "data_format": "channels_last", "bias_initializer": {"class_name": "Zeros", "config": {}}, "activation": "relu", "strides": [1, 1], "bias_regularizer": null, "kernel_constraint": null, "trainable": true, "use_bias": true, "name": "conv2d_50", "filters": 96, "padding": "same", "kernel_regularizer": null, "bias_constraint": null, "dilation_rate": [1, 1], "kernel_size": [1, 1]}}, {"inbound_nodes": [[["conv2d_41", 0, 0, {}]]], "class_name": "BatchNormalization", "name": "batch_normalization_41", "config": {"beta_initializer": {"class_name": "Zeros", "config": {}}, "gamma_regularizer": null, "epsilon": 0.001, "gamma_constraint": null, "beta_constraint": null, "momentum": 0.99, "trainable": true, "scale": true, "axis": 3, "name": "batch_normalization_41", "moving_variance_initializer": {"class_name": "Ones", "config": {}}, "moving_mean_initializer": {"class_name": "Zeros", "config": {}}, "center": true, "gamma_initializer": {"class_name": "Ones", "config": {}}, "beta_regularizer": null}}, {"inbound_nodes": [[["conv2d_44", 0, 0, {}]]], "class_name": "BatchNormalization", "name": "batch_normalization_44", "config": {"beta_initializer": {"class_name": "Zeros", "config": {}}, "gamma_regularizer": null, "epsilon": 0.001, "gamma_constraint": null, "beta_constraint": null, "momentum": 0.99, "trainable": true, "scale": true, "axis": 3, "name": "batch_normalization_44", "moving_variance_initializer": {"class_name": "Ones", "config": {}}, "moving_mean_initializer": {"class_name": "Zeros", "config": {}}, "center": true, "gamma_initializer": {"class_name": "Ones", "config": {}}, "beta_regularizer": null}}, {"inbound_nodes": [[["conv2d_49", 0, 0, {}]]], "class_name": "BatchNormalization", "name": "batch_normalization_49", "config": {"beta_initializer": {"class_name": "Zeros", "config": {}}, "gamma_regularizer": null, "epsilon": 0.001, "gamma_constraint": null, "beta_constraint": null, "momentum": 0.99, "trainable": true, "scale": true, "axis": 3, "name": "batch_normalization_49", "moving_variance_initializer": {"class_name": "Ones", "config": {}}, "moving_mean_initializer": {"class_name": "Zeros", "config": {}}, "center": true, "gamma_initializer": {"class_name": "Ones", "config": {}}, "beta_regularizer": null}}, {"inbound_nodes": [[["conv2d_50", 0, 0, {}]]], "class_name": "BatchNormalization", "name": "batch_normalization_50", "config": {"beta_initializer": {"class_name": "Zeros", "config": {}}, "gamma_regularizer": null, "epsilon": 0.001, "gamma_constraint": null, "beta_constraint": null, "momentum": 0.99, "trainable": true, "scale": true, "axis": 3, "name": "batch_normalization_50", "moving_variance_initializer": {"class_name": "Ones", "config": {}}, "moving_mean_initializer": {"class_name": "Zeros", "config": {}}, "center": true, "gamma_initializer": {"class_name": "Ones", "config": {}}, "beta_regularizer": null}}, {"inbound_nodes": [[["batch_normalization_41", 0, 0, {}], ["batch_normalization_44", 0, 0, {}], ["batch_normalization_49", 0, 0, {}], ["batch_normalization_50", 0, 0, {}]]], "class_name": "Concatenate", "name": "mixed5", "config": {"trainable": true, "axis": -1, "name": "mixed5"}}, {"inbound_nodes": [[["mixed5", 0, 0, {}]]], "class_name": "Conv2D", "name": "conv2d_55", "config": {"kernel_initializer": {"class_name": "VarianceScaling", "config": {"mode": "fan_avg", "scale": 1.0, "seed": null, "distribution": "uniform"}}, "activity_regularizer": null, "data_format": "channels_last", "bias_initializer": {"class_name": "Zeros", "config": {}}, "activation": "relu", "strides": [1, 1], "bias_regularizer": null, "kernel_constraint": null, "trainable": true, "use_bias": true, "name": "conv2d_55", "filters": 80, "padding": "same", "kernel_regularizer": null, "bias_constraint": null, "dilation_rate": [1, 1], "kernel_size": [1, 1]}}, {"inbound_nodes": [[["conv2d_55", 0, 0, {}]]], "class_name": "BatchNormalization", "name": "batch_normalization_55", "config": {"beta_initializer": {"class_name": "Zeros", "config": {}}, "gamma_regularizer": null, "epsilon": 0.001, "gamma_constraint": null, "beta_constraint": null, "momentum": 0.99, "trainable": true, "scale": true, "axis": 3, "name": "batch_normalization_55", "moving_variance_initializer": {"class_name": "Ones", "config": {}}, "moving_mean_initializer": {"class_name": "Zeros", "config": {}}, "center": true, "gamma_initializer": {"class_name": "Ones", "config": {}}, "beta_regularizer": null}}, {"inbound_nodes": [[["batch_normalization_55", 0, 0, {}]]], "class_name": "Conv2D", "name": "conv2d_56", "config": {"kernel_initializer": {"class_name": "VarianceScaling", "config": {"mode": "fan_avg", "scale": 1.0, "seed": null, "distribution": "uniform"}}, "activity_regularizer": null, "data_format": "channels_last", "bias_initializer": {"class_name": "Zeros", "config": {}}, "activation": "relu", "strides": [1, 1], "bias_regularizer": null, "kernel_constraint": null, "trainable": true, "use_bias": true, "name": "conv2d_56", "filters": 80, "padding": "same", "kernel_regularizer": null, "bias_constraint": null, "dilation_rate": [1, 1], "kernel_size": [7, 1]}}, {"inbound_nodes": [[["conv2d_56", 0, 0, {}]]], "class_name": "BatchNormalization", "name": "batch_normalization_56", "config": {"beta_initializer": {"class_name": "Zeros", "config": {}}, "gamma_regularizer": null, "epsilon": 0.001, "gamma_constraint": null, "beta_constraint": null, "momentum": 0.99, "trainable": true, "scale": true, "axis": 3, "name": "batch_normalization_56", "moving_variance_initializer": {"class_name": "Ones", "config": {}}, "moving_mean_initializer": {"class_name": "Zeros", "config": {}}, "center": true, "gamma_initializer": {"class_name": "Ones", "config": {}}, "beta_regularizer": null}}, {"inbound_nodes": [[["mixed5", 0, 0, {}]]], "class_name": "Conv2D", "name": "conv2d_52", "config": {"kernel_initializer": {"class_name": "VarianceScaling", "config": {"mode": "fan_avg", "scale": 1.0, "seed": null, "distribution": "uniform"}}, "activity_regularizer": null, "data_format": "channels_last", "bias_initializer": {"class_name": "Zeros", "config": {}}, "activation": "relu", "strides": [1, 1], "bias_regularizer": null, "kernel_constraint": null, "trainable": true, "use_bias": true, "name": "conv2d_52", "filters": 80, "padding": "same", "kernel_regularizer": null, "bias_constraint": null, "dilation_rate": [1, 1], "kernel_size": [1, 1]}}, {"inbound_nodes": [[["batch_normalization_56", 0, 0, {}]]], "class_name": "Conv2D", "name": "conv2d_57", "config": {"kernel_initializer": {"class_name": "VarianceScaling", "config": {"mode": "fan_avg", "scale": 1.0, "seed": null, "distribution": "uniform"}}, "activity_regularizer": null, "data_format": "channels_last", "bias_initializer": {"class_name": "Zeros", "config": {}}, "activation": "relu", "strides": [1, 1], "bias_regularizer": null, "kernel_constraint": null, "trainable": true, "use_bias": true, "name": "conv2d_57", "filters": 80, "padding": "same", "kernel_regularizer": null, "bias_constraint": null, "dilation_rate": [1, 1], "kernel_size": [1, 7]}}, {"inbound_nodes": [[["conv2d_52", 0, 0, {}]]], "class_name": "BatchNormalization", "name": "batch_normalization_52", "config": {"beta_initializer": {"class_name": "Zeros", "config": {}}, "gamma_regularizer": null, "epsilon": 0.001, "gamma_constraint": null, "beta_constraint": null, "momentum": 0.99, "trainable": true, "scale": true, "axis": 3, "name": "batch_normalization_52", "moving_variance_initializer": {"class_name": "Ones", "config": {}}, "moving_mean_initializer": {"class_name": "Zeros", "config": {}}, "center": true, "gamma_initializer": {"class_name": "Ones", "config": {}}, "beta_regularizer": null}}, {"inbound_nodes": [[["conv2d_57", 0, 0, {}]]], "class_name": "BatchNormalization", "name": "batch_normalization_57", "config": {"beta_initializer": {"class_name": "Zeros", "config": {}}, "gamma_regularizer": null, "epsilon": 0.001, "gamma_constraint": null, "beta_constraint": null, "momentum": 0.99, "trainable": true, "scale": true, "axis": 3, "name": "batch_normalization_57", "moving_variance_initializer": {"class_name": "Ones", "config": {}}, "moving_mean_initializer": {"class_name": "Zeros", "config": {}}, "center": true, "gamma_initializer": {"class_name": "Ones", "config": {}}, "beta_regularizer": null}}, {"inbound_nodes": [[["batch_normalization_52", 0, 0, {}]]], "class_name": "Conv2D", "name": "conv2d_53", "config": {"kernel_initializer": {"class_name": "VarianceScaling", "config": {"mode": "fan_avg", "scale": 1.0, "seed": null, "distribution": "uniform"}}, "activity_regularizer": null, "data_format": "channels_last", "bias_initializer": {"class_name": "Zeros", "config": {}}, "activation": "relu", "strides": [1, 1], "bias_regularizer": null, "kernel_constraint": null, "trainable": true, "use_bias": true, "name": "conv2d_53", "filters": 80, "padding": "same", "kernel_regularizer": null, "bias_constraint": null, "dilation_rate": [1, 1], "kernel_size": [1, 7]}}, {"inbound_nodes": [[["batch_normalization_57", 0, 0, {}]]], "class_name": "Conv2D", "name": "conv2d_58", "config": {"kernel_initializer": {"class_name": "VarianceScaling", "config": {"mode": "fan_avg", "scale": 1.0, "seed": null, "distribution": "uniform"}}, "activity_regularizer": null, "data_format": "channels_last", "bias_initializer": {"class_name": "Zeros", "config": {}}, "activation": "relu", "strides": [1, 1], "bias_regularizer": null, "kernel_constraint": null, "trainable": true, "use_bias": true, "name": "conv2d_58", "filters": 80, "padding": "same", "kernel_regularizer": null, "bias_constraint": null, "dilation_rate": [1, 1], "kernel_size": [7, 1]}}, {"inbound_nodes": [[["conv2d_53", 0, 0, {}]]], "class_name": "BatchNormalization", "name": "batch_normalization_53", "config": {"beta_initializer": {"class_name": "Zeros", "config": {}}, "gamma_regularizer": null, "epsilon": 0.001, "gamma_constraint": null, "beta_constraint": null, "momentum": 0.99, "trainable": true, "scale": true, "axis": 3, "name": "batch_normalization_53", "moving_variance_initializer": {"class_name": "Ones", "config": {}}, "moving_mean_initializer": {"class_name": "Zeros", "config": {}}, "center": true, "gamma_initializer": {"class_name": "Ones", "config": {}}, "beta_regularizer": null}}, {"inbound_nodes": [[["conv2d_58", 0, 0, {}]]], "class_name": "BatchNormalization", "name": "batch_normalization_58", "config": {"beta_initializer": {"class_name": "Zeros", "config": {}}, "gamma_regularizer": null, "epsilon": 0.001, "gamma_constraint": null, "beta_constraint": null, "momentum": 0.99, "trainable": true, "scale": true, "axis": 3, "name": "batch_normalization_58", "moving_variance_initializer": {"class_name": "Ones", "config": {}}, "moving_mean_initializer": {"class_name": "Zeros", "config": {}}, "center": true, "gamma_initializer": {"class_name": "Ones", "config": {}}, "beta_regularizer": null}}, {"inbound_nodes": [[["mixed5", 0, 0, {}]]], "class_name": "AveragePooling2D", "name": "average_pooling2d_6", "config": {"trainable": true, "data_format": "channels_last", "name": "average_pooling2d_6", "strides": [1, 1], "padding": "same", "pool_size": [3, 3]}}, {"inbound_nodes": [[["mixed5", 0, 0, {}]]], "class_name": "Conv2D", "name": "conv2d_51", "config": {"kernel_initializer": {"class_name": "VarianceScaling", "config": {"mode": "fan_avg", "scale": 1.0, "seed": null, "distribution": "uniform"}}, "activity_regularizer": null, "data_format": "channels_last", "bias_initializer": {"class_name": "Zeros", "config": {}}, "activation": "relu", "strides": [1, 1], "bias_regularizer": null, "kernel_constraint": null, "trainable": true, "use_bias": true, "name": "conv2d_51", "filters": 96, "padding": "same", "kernel_regularizer": null, "bias_constraint": null, "dilation_rate": [1, 1], "kernel_size": [1, 1]}}, {"inbound_nodes": [[["batch_normalization_53", 0, 0, {}]]], "class_name": "Conv2D", "name": "conv2d_54", "config": {"kernel_initializer": {"class_name": "VarianceScaling", "config": {"mode": "fan_avg", "scale": 1.0, "seed": null, "distribution": "uniform"}}, "activity_regularizer": null, "data_format": "channels_last", "bias_initializer": {"class_name": "Zeros", "config": {}}, "activation": "relu", "strides": [1, 1], "bias_regularizer": null, "kernel_constraint": null, "trainable": true, "use_bias": true, "name": "conv2d_54", "filters": 96, "padding": "same", "kernel_regularizer": null, "bias_constraint": null, "dilation_rate": [1, 1], "kernel_size": [7, 1]}}, {"inbound_nodes": [[["batch_normalization_58", 0, 0, {}]]], "class_name": "Conv2D", "name": "conv2d_59", "config": {"kernel_initializer": {"class_name": "VarianceScaling", "config": {"mode": "fan_avg", "scale": 1.0, "seed": null, "distribution": "uniform"}}, "activity_regularizer": null, "data_format": "channels_last", "bias_initializer": {"class_name": "Zeros", "config": {}}, "activation": "relu", "strides": [1, 1], "bias_regularizer": null, "kernel_constraint": null, "trainable": true, "use_bias": true, "name": "conv2d_59", "filters": 96, "padding": "same", "kernel_regularizer": null, "bias_constraint": null, "dilation_rate": [1, 1], "kernel_size": [1, 7]}}, {"inbound_nodes": [[["average_pooling2d_6", 0, 0, {}]]], "class_name": "Conv2D", "name": "conv2d_60", "config": {"kernel_initializer": {"class_name": "VarianceScaling", "config": {"mode": "fan_avg", "scale": 1.0, "seed": null, "distribution": "uniform"}}, "activity_regularizer": null, "data_format": "channels_last", "bias_initializer": {"class_name": "Zeros", "config": {}}, "activation": "relu", "strides": [1, 1], "bias_regularizer": null, "kernel_constraint": null, "trainable": true, "use_bias": true, "name": "conv2d_60", "filters": 96, "padding": "same", "kernel_regularizer": null, "bias_constraint": null, "dilation_rate": [1, 1], "kernel_size": [1, 1]}}, {"inbound_nodes": [[["conv2d_51", 0, 0, {}]]], "class_name": "BatchNormalization", "name": "batch_normalization_51", "config": {"beta_initializer": {"class_name": "Zeros", "config": {}}, "gamma_regularizer": null, "epsilon": 0.001, "gamma_constraint": null, "beta_constraint": null, "momentum": 0.99, "trainable": true, "scale": true, "axis": 3, "name": "batch_normalization_51", "moving_variance_initializer": {"class_name": "Ones", "config": {}}, "moving_mean_initializer": {"class_name": "Zeros", "config": {}}, "center": true, "gamma_initializer": {"class_name": "Ones", "config": {}}, "beta_regularizer": null}}, {"inbound_nodes": [[["conv2d_54", 0, 0, {}]]], "class_name": "BatchNormalization", "name": "batch_normalization_54", "config": {"beta_initializer": {"class_name": "Zeros", "config": {}}, "gamma_regularizer": null, "epsilon": 0.001, "gamma_constraint": null, "beta_constraint": null, "momentum": 0.99, "trainable": true, "scale": true, "axis": 3, "name": "batch_normalization_54", "moving_variance_initializer": {"class_name": "Ones", "config": {}}, "moving_mean_initializer": {"class_name": "Zeros", "config": {}}, "center": true, "gamma_initializer": {"class_name": "Ones", "config": {}}, "beta_regularizer": null}}, {"inbound_nodes": [[["conv2d_59", 0, 0, {}]]], "class_name": "BatchNormalization", "name": "batch_normalization_59", "config": {"beta_initializer": {"class_name": "Zeros", "config": {}}, "gamma_regularizer": null, "epsilon": 0.001, "gamma_constraint": null, "beta_constraint": null, "momentum": 0.99, "trainable": true, "scale": true, "axis": 3, "name": "batch_normalization_59", "moving_variance_initializer": {"class_name": "Ones", "config": {}}, "moving_mean_initializer": {"class_name": "Zeros", "config": {}}, "center": true, "gamma_initializer": {"class_name": "Ones", "config": {}}, "beta_regularizer": null}}, {"inbound_nodes": [[["conv2d_60", 0, 0, {}]]], "class_name": "BatchNormalization", "name": "batch_normalization_60", "config": {"beta_initializer": {"class_name": "Zeros", "config": {}}, "gamma_regularizer": null, "epsilon": 0.001, "gamma_constraint": null, "beta_constraint": null, "momentum": 0.99, "trainable": true, "scale": true, "axis": 3, "name": "batch_normalization_60", "moving_variance_initializer": {"class_name": "Ones", "config": {}}, "moving_mean_initializer": {"class_name": "Zeros", "config": {}}, "center": true, "gamma_initializer": {"class_name": "Ones", "config": {}}, "beta_regularizer": null}}, {"inbound_nodes": [[["batch_normalization_51", 0, 0, {}], ["batch_normalization_54", 0, 0, {}], ["batch_normalization_59", 0, 0, {}], ["batch_normalization_60", 0, 0, {}]]], "class_name": "Concatenate", "name": "mixed6", "config": {"trainable": true, "axis": -1, "name": "mixed6"}}, {"inbound_nodes": [[["mixed6", 0, 0, {}]]], "class_name": "Conv2D", "name": "conv2d_65", "config": {"kernel_initializer": {"class_name": "VarianceScaling", "config": {"mode": "fan_avg", "scale": 1.0, "seed": null, "distribution": "uniform"}}, "activity_regularizer": null, "data_format": "channels_last", "bias_initializer": {"class_name": "Zeros", "config": {}}, "activation": "relu", "strides": [1, 1], "bias_regularizer": null, "kernel_constraint": null, "trainable": true, "use_bias": true, "name": "conv2d_65", "filters": 80, "padding": "same", "kernel_regularizer": null, "bias_constraint": null, "dilation_rate": [1, 1], "kernel_size": [1, 1]}}, {"inbound_nodes": [[["conv2d_65", 0, 0, {}]]], "class_name": "BatchNormalization", "name": "batch_normalization_65", "config": {"beta_initializer": {"class_name": "Zeros", "config": {}}, "gamma_regularizer": null, "epsilon": 0.001, "gamma_constraint": null, "beta_constraint": null, "momentum": 0.99, "trainable": true, "scale": true, "axis": 3, "name": "batch_normalization_65", "moving_variance_initializer": {"class_name": "Ones", "config": {}}, "moving_mean_initializer": {"class_name": "Zeros", "config": {}}, "center": true, "gamma_initializer": {"class_name": "Ones", "config": {}}, "beta_regularizer": null}}, {"inbound_nodes": [[["batch_normalization_65", 0, 0, {}]]], "class_name": "Conv2D", "name": "conv2d_66", "config": {"kernel_initializer": {"class_name": "VarianceScaling", "config": {"mode": "fan_avg", "scale": 1.0, "seed": null, "distribution": "uniform"}}, "activity_regularizer": null, "data_format": "channels_last", "bias_initializer": {"class_name": "Zeros", "config": {}}, "activation": "relu", "strides": [1, 1], "bias_regularizer": null, "kernel_constraint": null, "trainable": true, "use_bias": true, "name": "conv2d_66", "filters": 96, "padding": "same", "kernel_regularizer": null, "bias_constraint": null, "dilation_rate": [1, 1], "kernel_size": [7, 1]}}, {"inbound_nodes": [[["conv2d_66", 0, 0, {}]]], "class_name": "BatchNormalization", "name": "batch_normalization_66", "config": {"beta_initializer": {"class_name": "Zeros", "config": {}}, "gamma_regularizer": null, "epsilon": 0.001, "gamma_constraint": null, "beta_constraint": null, "momentum": 0.99, "trainable": true, "scale": true, "axis": 3, "name": "batch_normalization_66", "moving_variance_initializer": {"class_name": "Ones", "config": {}}, "moving_mean_initializer": {"class_name": "Zeros", "config": {}}, "center": true, "gamma_initializer": {"class_name": "Ones", "config": {}}, "beta_regularizer": null}}, {"inbound_nodes": [[["mixed6", 0, 0, {}]]], "class_name": "Conv2D", "name": "conv2d_62", "config": {"kernel_initializer": {"class_name": "VarianceScaling", "config": {"mode": "fan_avg", "scale": 1.0, "seed": null, "distribution": "uniform"}}, "activity_regularizer": null, "data_format": "channels_last", "bias_initializer": {"class_name": "Zeros", "config": {}}, "activation": "relu", "strides": [1, 1], "bias_regularizer": null, "kernel_constraint": null, "trainable": true, "use_bias": true, "name": "conv2d_62", "filters": 96, "padding": "same", "kernel_regularizer": null, "bias_constraint": null, "dilation_rate": [1, 1], "kernel_size": [1, 1]}}, {"inbound_nodes": [[["batch_normalization_66", 0, 0, {}]]], "class_name": "Conv2D", "name": "conv2d_67", "config": {"kernel_initializer": {"class_name": "VarianceScaling", "config": {"mode": "fan_avg", "scale": 1.0, "seed": null, "distribution": "uniform"}}, "activity_regularizer": null, "data_format": "channels_last", "bias_initializer": {"class_name": "Zeros", "config": {}}, "activation": "relu", "strides": [1, 1], "bias_regularizer": null, "kernel_constraint": null, "trainable": true, "use_bias": true, "name": "conv2d_67", "filters": 96, "padding": "same", "kernel_regularizer": null, "bias_constraint": null, "dilation_rate": [1, 1], "kernel_size": [1, 7]}}, {"inbound_nodes": [[["conv2d_62", 0, 0, {}]]], "class_name": "BatchNormalization", "name": "batch_normalization_62", "config": {"beta_initializer": {"class_name": "Zeros", "config": {}}, "gamma_regularizer": null, "epsilon": 0.001, "gamma_constraint": null, "beta_constraint": null, "momentum": 0.99, "trainable": true, "scale": true, "axis": 3, "name": "batch_normalization_62", "moving_variance_initializer": {"class_name": "Ones", "config": {}}, "moving_mean_initializer": {"class_name": "Zeros", "config": {}}, "center": true, "gamma_initializer": {"class_name": "Ones", "config": {}}, "beta_regularizer": null}}, {"inbound_nodes": [[["conv2d_67", 0, 0, {}]]], "class_name": "BatchNormalization", "name": "batch_normalization_67", "config": {"beta_initializer": {"class_name": "Zeros", "config": {}}, "gamma_regularizer": null, "epsilon": 0.001, "gamma_constraint": null, "beta_constraint": null, "momentum": 0.99, "trainable": true, "scale": true, "axis": 3, "name": "batch_normalization_67", "moving_variance_initializer": {"class_name": "Ones", "config": {}}, "moving_mean_initializer": {"class_name": "Zeros", "config": {}}, "center": true, "gamma_initializer": {"class_name": "Ones", "config": {}}, "beta_regularizer": null}}, {"inbound_nodes": [[["batch_normalization_62", 0, 0, {}]]], "class_name": "Conv2D", "name": "conv2d_63", "config": {"kernel_initializer": {"class_name": "VarianceScaling", "config": {"mode": "fan_avg", "scale": 1.0, "seed": null, "distribution": "uniform"}}, "activity_regularizer": null, "data_format": "channels_last", "bias_initializer": {"class_name": "Zeros", "config": {}}, "activation": "relu", "strides": [1, 1], "bias_regularizer": null, "kernel_constraint": null, "trainable": true, "use_bias": true, "name": "conv2d_63", "filters": 96, "padding": "same", "kernel_regularizer": null, "bias_constraint": null, "dilation_rate": [1, 1], "kernel_size": [1, 7]}}, {"inbound_nodes": [[["batch_normalization_67", 0, 0, {}]]], "class_name": "Conv2D", "name": "conv2d_68", "config": {"kernel_initializer": {"class_name": "VarianceScaling", "config": {"mode": "fan_avg", "scale": 1.0, "seed": null, "distribution": "uniform"}}, "activity_regularizer": null, "data_format": "channels_last", "bias_initializer": {"class_name": "Zeros", "config": {}}, "activation": "relu", "strides": [1, 1], "bias_regularizer": null, "kernel_constraint": null, "trainable": true, "use_bias": true, "name": "conv2d_68", "filters": 96, "padding": "same", "kernel_regularizer": null, "bias_constraint": null, "dilation_rate": [1, 1], "kernel_size": [7, 1]}}, {"inbound_nodes": [[["conv2d_63", 0, 0, {}]]], "class_name": "BatchNormalization", "name": "batch_normalization_63", "config": {"beta_initializer": {"class_name": "Zeros", "config": {}}, "gamma_regularizer": null, "epsilon": 0.001, "gamma_constraint": null, "beta_constraint": null, "momentum": 0.99, "trainable": true, "scale": true, "axis": 3, "name": "batch_normalization_63", "moving_variance_initializer": {"class_name": "Ones", "config": {}}, "moving_mean_initializer": {"class_name": "Zeros", "config": {}}, "center": true, "gamma_initializer": {"class_name": "Ones", "config": {}}, "beta_regularizer": null}}, {"inbound_nodes": [[["conv2d_68", 0, 0, {}]]], "class_name": "BatchNormalization", "name": "batch_normalization_68", "config": {"beta_initializer": {"class_name": "Zeros", "config": {}}, "gamma_regularizer": null, "epsilon": 0.001, "gamma_constraint": null, "beta_constraint": null, "momentum": 0.99, "trainable": true, "scale": true, "axis": 3, "name": "batch_normalization_68", "moving_variance_initializer": {"class_name": "Ones", "config": {}}, "moving_mean_initializer": {"class_name": "Zeros", "config": {}}, "center": true, "gamma_initializer": {"class_name": "Ones", "config": {}}, "beta_regularizer": null}}, {"inbound_nodes": [[["mixed6", 0, 0, {}]]], "class_name": "AveragePooling2D", "name": "average_pooling2d_7", "config": {"trainable": true, "data_format": "channels_last", "name": "average_pooling2d_7", "strides": [1, 1], "padding": "same", "pool_size": [3, 3]}}, {"inbound_nodes": [[["mixed6", 0, 0, {}]]], "class_name": "Conv2D", "name": "conv2d_61", "config": {"kernel_initializer": {"class_name": "VarianceScaling", "config": {"mode": "fan_avg", "scale": 1.0, "seed": null, "distribution": "uniform"}}, "activity_regularizer": null, "data_format": "channels_last", "bias_initializer": {"class_name": "Zeros", "config": {}}, "activation": "relu", "strides": [1, 1], "bias_regularizer": null, "kernel_constraint": null, "trainable": true, "use_bias": true, "name": "conv2d_61", "filters": 96, "padding": "same", "kernel_regularizer": null, "bias_constraint": null, "dilation_rate": [1, 1], "kernel_size": [1, 1]}}, {"inbound_nodes": [[["batch_normalization_63", 0, 0, {}]]], "class_name": "Conv2D", "name": "conv2d_64", "config": {"kernel_initializer": {"class_name": "VarianceScaling", "config": {"mode": "fan_avg", "scale": 1.0, "seed": null, "distribution": "uniform"}}, "activity_regularizer": null, "data_format": "channels_last", "bias_initializer": {"class_name": "Zeros", "config": {}}, "activation": "relu", "strides": [1, 1], "bias_regularizer": null, "kernel_constraint": null, "trainable": true, "use_bias": true, "name": "conv2d_64", "filters": 96, "padding": "same", "kernel_regularizer": null, "bias_constraint": null, "dilation_rate": [1, 1], "kernel_size": [7, 1]}}, {"inbound_nodes": [[["batch_normalization_68", 0, 0, {}]]], "class_name": "Conv2D", "name": "conv2d_69", "config": {"kernel_initializer": {"class_name": "VarianceScaling", "config": {"mode": "fan_avg", "scale": 1.0, "seed": null, "distribution": "uniform"}}, "activity_regularizer": null, "data_format": "channels_last", "bias_initializer": {"class_name": "Zeros", "config": {}}, "activation": "relu", "strides": [1, 1], "bias_regularizer": null, "kernel_constraint": null, "trainable": true, "use_bias": true, "name": "conv2d_69", "filters": 96, "padding": "same", "kernel_regularizer": null, "bias_constraint": null, "dilation_rate": [1, 1], "kernel_size": [1, 7]}}, {"inbound_nodes": [[["average_pooling2d_7", 0, 0, {}]]], "class_name": "Conv2D", "name": "conv2d_70", "config": {"kernel_initializer": {"class_name": "VarianceScaling", "config": {"mode": "fan_avg", "scale": 1.0, "seed": null, "distribution": "uniform"}}, "activity_regularizer": null, "data_format": "channels_last", "bias_initializer": {"class_name": "Zeros", "config": {}}, "activation": "relu", "strides": [1, 1], "bias_regularizer": null, "kernel_constraint": null, "trainable": true, "use_bias": true, "name": "conv2d_70", "filters": 96, "padding": "same", "kernel_regularizer": null, "bias_constraint": null, "dilation_rate": [1, 1], "kernel_size": [1, 1]}}, {"inbound_nodes": [[["conv2d_61", 0, 0, {}]]], "class_name": "BatchNormalization", "name": "batch_normalization_61", "config": {"beta_initializer": {"class_name": "Zeros", "config": {}}, "gamma_regularizer": null, "epsilon": 0.001, "gamma_constraint": null, "beta_constraint": null, "momentum": 0.99, "trainable": true, "scale": true, "axis": 3, "name": "batch_normalization_61", "moving_variance_initializer": {"class_name": "Ones", "config": {}}, "moving_mean_initializer": {"class_name": "Zeros", "config": {}}, "center": true, "gamma_initializer": {"class_name": "Ones", "config": {}}, "beta_regularizer": null}}, {"inbound_nodes": [[["conv2d_64", 0, 0, {}]]], "class_name": "BatchNormalization", "name": "batch_normalization_64", "config": {"beta_initializer": {"class_name": "Zeros", "config": {}}, "gamma_regularizer": null, "epsilon": 0.001, "gamma_constraint": null, "beta_constraint": null, "momentum": 0.99, "trainable": true, "scale": true, "axis": 3, "name": "batch_normalization_64", "moving_variance_initializer": {"class_name": "Ones", "config": {}}, "moving_mean_initializer": {"class_name": "Zeros", "config": {}}, "center": true, "gamma_initializer": {"class_name": "Ones", "config": {}}, "beta_regularizer": null}}, {"inbound_nodes": [[["conv2d_69", 0, 0, {}]]], "class_name": "BatchNormalization", "name": "batch_normalization_69", "config": {"beta_initializer": {"class_name": "Zeros", "config": {}}, "gamma_regularizer": null, "epsilon": 0.001, "gamma_constraint": null, "beta_constraint": null, "momentum": 0.99, "trainable": true, "scale": true, "axis": 3, "name": "batch_normalization_69", "moving_variance_initializer": {"class_name": "Ones", "config": {}}, "moving_mean_initializer": {"class_name": "Zeros", "config": {}}, "center": true, "gamma_initializer": {"class_name": "Ones", "config": {}}, "beta_regularizer": null}}, {"inbound_nodes": [[["conv2d_70", 0, 0, {}]]], "class_name": "BatchNormalization", "name": "batch_normalization_70", "config": {"beta_initializer": {"class_name": "Zeros", "config": {}}, "gamma_regularizer": null, "epsilon": 0.001, "gamma_constraint": null, "beta_constraint": null, "momentum": 0.99, "trainable": true, "scale": true, "axis": 3, "name": "batch_normalization_70", "moving_variance_initializer": {"class_name": "Ones", "config": {}}, "moving_mean_initializer": {"class_name": "Zeros", "config": {}}, "center": true, "gamma_initializer": {"class_name": "Ones", "config": {}}, "beta_regularizer": null}}, {"inbound_nodes": [[["batch_normalization_61", 0, 0, {}], ["batch_normalization_64", 0, 0, {}], ["batch_normalization_69", 0, 0, {}], ["batch_normalization_70", 0, 0, {}]]], "class_name": "Concatenate", "name": "mixed7", "config": {"trainable": true, "axis": -1, "name": "mixed7"}}, {"inbound_nodes": [[["mixed7", 0, 0, {}]]], "class_name": "Conv2D", "name": "conv2d_73", "config": {"kernel_initializer": {"class_name": "VarianceScaling", "config": {"mode": "fan_avg", "scale": 1.0, "seed": null, "distribution": "uniform"}}, "activity_regularizer": null, "data_format": "channels_last", "bias_initializer": {"class_name": "Zeros", "config": {}}, "activation": "relu", "strides": [1, 1], "bias_regularizer": null, "kernel_constraint": null, "trainable": true, "use_bias": true, "name": "conv2d_73", "filters": 96, "padding": "same", "kernel_regularizer": null, "bias_constraint": null, "dilation_rate": [1, 1], "kernel_size": [1, 1]}}, {"inbound_nodes": [[["conv2d_73", 0, 0, {}]]], "class_name": "BatchNormalization", "name": "batch_normalization_73", "config": {"beta_initializer": {"class_name": "Zeros", "config": {}}, "gamma_regularizer": null, "epsilon": 0.001, "gamma_constraint": null, "beta_constraint": null, "momentum": 0.99, "trainable": true, "scale": true, "axis": 3, "name": "batch_normalization_73", "moving_variance_initializer": {"class_name": "Ones", "config": {}}, "moving_mean_initializer": {"class_name": "Zeros", "config": {}}, "center": true, "gamma_initializer": {"class_name": "Ones", "config": {}}, "beta_regularizer": null}}, {"inbound_nodes": [[["batch_normalization_73", 0, 0, {}]]], "class_name": "Conv2D", "name": "conv2d_74", "config": {"kernel_initializer": {"class_name": "VarianceScaling", "config": {"mode": "fan_avg", "scale": 1.0, "seed": null, "distribution": "uniform"}}, "activity_regularizer": null, "data_format": "channels_last", "bias_initializer": {"class_name": "Zeros", "config": {}}, "activation": "relu", "strides": [1, 1], "bias_regularizer": null, "kernel_constraint": null, "trainable": true, "use_bias": true, "name": "conv2d_74", "filters": 96, "padding": "same", "kernel_regularizer": null, "bias_constraint": null, "dilation_rate": [1, 1], "kernel_size": [1, 7]}}, {"inbound_nodes": [[["conv2d_74", 0, 0, {}]]], "class_name": "BatchNormalization", "name": "batch_normalization_74", "config": {"beta_initializer": {"class_name": "Zeros", "config": {}}, "gamma_regularizer": null, "epsilon": 0.001, "gamma_constraint": null, "beta_constraint": null, "momentum": 0.99, "trainable": true, "scale": true, "axis": 3, "name": "batch_normalization_74", "moving_variance_initializer": {"class_name": "Ones", "config": {}}, "moving_mean_initializer": {"class_name": "Zeros", "config": {}}, "center": true, "gamma_initializer": {"class_name": "Ones", "config": {}}, "beta_regularizer": null}}, {"inbound_nodes": [[["mixed7", 0, 0, {}]]], "class_name": "Conv2D", "name": "conv2d_71", "config": {"kernel_initializer": {"class_name": "VarianceScaling", "config": {"mode": "fan_avg", "scale": 1.0, "seed": null, "distribution": "uniform"}}, "activity_regularizer": null, "data_format": "channels_last", "bias_initializer": {"class_name": "Zeros", "config": {}}, "activation": "relu", "strides": [1, 1], "bias_regularizer": null, "kernel_constraint": null, "trainable": true, "use_bias": true, "name": "conv2d_71", "filters": 96, "padding": "same", "kernel_regularizer": null, "bias_constraint": null, "dilation_rate": [1, 1], "kernel_size": [1, 1]}}, {"inbound_nodes": [[["batch_normalization_74", 0, 0, {}]]], "class_name": "Conv2D", "name": "conv2d_75", "config": {"kernel_initializer": {"class_name": "VarianceScaling", "config": {"mode": "fan_avg", "scale": 1.0, "seed": null, "distribution": "uniform"}}, "activity_regularizer": null, "data_format": "channels_last", "bias_initializer": {"class_name": "Zeros", "config": {}}, "activation": "relu", "strides": [1, 1], "bias_regularizer": null, "kernel_constraint": null, "trainable": true, "use_bias": true, "name": "conv2d_75", "filters": 96, "padding": "same", "kernel_regularizer": null, "bias_constraint": null, "dilation_rate": [1, 1], "kernel_size": [7, 1]}}, {"inbound_nodes": [[["conv2d_71", 0, 0, {}]]], "class_name": "BatchNormalization", "name": "batch_normalization_71", "config": {"beta_initializer": {"class_name": "Zeros", "config": {}}, "gamma_regularizer": null, "epsilon": 0.001, "gamma_constraint": null, "beta_constraint": null, "momentum": 0.99, "trainable": true, "scale": true, "axis": 3, "name": "batch_normalization_71", "moving_variance_initializer": {"class_name": "Ones", "config": {}}, "moving_mean_initializer": {"class_name": "Zeros", "config": {}}, "center": true, "gamma_initializer": {"class_name": "Ones", "config": {}}, "beta_regularizer": null}}, {"inbound_nodes": [[["conv2d_75", 0, 0, {}]]], "class_name": "BatchNormalization", "name": "batch_normalization_75", "config": {"beta_initializer": {"class_name": "Zeros", "config": {}}, "gamma_regularizer": null, "epsilon": 0.001, "gamma_constraint": null, "beta_constraint": null, "momentum": 0.99, "trainable": true, "scale": true, "axis": 3, "name": "batch_normalization_75", "moving_variance_initializer": {"class_name": "Ones", "config": {}}, "moving_mean_initializer": {"class_name": "Zeros", "config": {}}, "center": true, "gamma_initializer": {"class_name": "Ones", "config": {}}, "beta_regularizer": null}}, {"inbound_nodes": [[["batch_normalization_71", 0, 0, {}]]], "class_name": "Conv2D", "name": "conv2d_72", "config": {"kernel_initializer": {"class_name": "VarianceScaling", "config": {"mode": "fan_avg", "scale": 1.0, "seed": null, "distribution": "uniform"}}, "activity_regularizer": null, "data_format": "channels_last", "bias_initializer": {"class_name": "Zeros", "config": {}}, "activation": "relu", "strides": [2, 2], "bias_regularizer": null, "kernel_constraint": null, "trainable": true, "use_bias": true, "name": "conv2d_72", "filters": 160, "padding": "valid", "kernel_regularizer": null, "bias_constraint": null, "dilation_rate": [1, 1], "kernel_size": [3, 3]}}, {"inbound_nodes": [[["batch_normalization_75", 0, 0, {}]]], "class_name": "Conv2D", "name": "conv2d_76", "config": {"kernel_initializer": {"class_name": "VarianceScaling", "config": {"mode": "fan_avg", "scale": 1.0, "seed": null, "distribution": "uniform"}}, "activity_regularizer": null, "data_format": "channels_last", "bias_initializer": {"class_name": "Zeros", "config": {}}, "activation": "relu", "strides": [2, 2], "bias_regularizer": null, "kernel_constraint": null, "trainable": true, "use_bias": true, "name": "conv2d_76", "filters": 96, "padding": "valid", "kernel_regularizer": null, "bias_constraint": null, "dilation_rate": [1, 1], "kernel_size": [3, 3]}}, {"inbound_nodes": [[["conv2d_72", 0, 0, {}]]], "class_name": "BatchNormalization", "name": "batch_normalization_72", "config": {"beta_initializer": {"class_name": "Zeros", "config": {}}, "gamma_regularizer": null, "epsilon": 0.001, "gamma_constraint": null, "beta_constraint": null, "momentum": 0.99, "trainable": true, "scale": true, "axis": 3, "name": "batch_normalization_72", "moving_variance_initializer": {"class_name": "Ones", "config": {}}, "moving_mean_initializer": {"class_name": "Zeros", "config": {}}, "center": true, "gamma_initializer": {"class_name": "Ones", "config": {}}, "beta_regularizer": null}}, {"inbound_nodes": [[["conv2d_76", 0, 0, {}]]], "class_name": "BatchNormalization", "name": "batch_normalization_76", "config": {"beta_initializer": {"class_name": "Zeros", "config": {}}, "gamma_regularizer": null, "epsilon": 0.001, "gamma_constraint": null, "beta_constraint": null, "momentum": 0.99, "trainable": true, "scale": true, "axis": 3, "name": "batch_normalization_76", "moving_variance_initializer": {"class_name": "Ones", "config": {}}, "moving_mean_initializer": {"class_name": "Zeros", "config": {}}, "center": true, "gamma_initializer": {"class_name": "Ones", "config": {}}, "beta_regularizer": null}}, {"inbound_nodes": [[["mixed7", 0, 0, {}]]], "class_name": "AveragePooling2D", "name": "average_pooling2d_8", "config": {"trainable": true, "data_format": "channels_last", "name": "average_pooling2d_8", "strides": [2, 2], "padding": "valid", "pool_size": [3, 3]}}, {"inbound_nodes": [[["batch_normalization_72", 0, 0, {}], ["batch_normalization_76", 0, 0, {}], ["average_pooling2d_8", 0, 0, {}]]], "class_name": "Concatenate", "name": "mixed8", "config": {"trainable": true, "axis": -1, "name": "mixed8"}}, {"inbound_nodes": [[["mixed8", 0, 0, {}]]], "class_name": "Conv2D", "name": "conv2d_81", "config": {"kernel_initializer": {"class_name": "VarianceScaling", "config": {"mode": "fan_avg", "scale": 1.0, "seed": null, "distribution": "uniform"}}, "activity_regularizer": null, "data_format": "channels_last", "bias_initializer": {"class_name": "Zeros", "config": {}}, "activation": "relu", "strides": [1, 1], "bias_regularizer": null, "kernel_constraint": null, "trainable": true, "use_bias": true, "name": "conv2d_81", "filters": 224, "padding": "same", "kernel_regularizer": null, "bias_constraint": null, "dilation_rate": [1, 1], "kernel_size": [1, 1]}}, {"inbound_nodes": [[["conv2d_81", 0, 0, {}]]], "class_name": "BatchNormalization", "name": "batch_normalization_81", "config": {"beta_initializer": {"class_name": "Zeros", "config": {}}, "gamma_regularizer": null, "epsilon": 0.001, "gamma_constraint": null, "beta_constraint": null, "momentum": 0.99, "trainable": true, "scale": true, "axis": 3, "name": "batch_normalization_81", "moving_variance_initializer": {"class_name": "Ones", "config": {}}, "moving_mean_initializer": {"class_name": "Zeros", "config": {}}, "center": true, "gamma_initializer": {"class_name": "Ones", "config": {}}, "beta_regularizer": null}}, {"inbound_nodes": [[["mixed8", 0, 0, {}]]], "class_name": "Conv2D", "name": "conv2d_78", "config": {"kernel_initializer": {"class_name": "VarianceScaling", "config": {"mode": "fan_avg", "scale": 1.0, "seed": null, "distribution": "uniform"}}, "activity_regularizer": null, "data_format": "channels_last", "bias_initializer": {"class_name": "Zeros", "config": {}}, "activation": "relu", "strides": [1, 1], "bias_regularizer": null, "kernel_constraint": null, "trainable": true, "use_bias": true, "name": "conv2d_78", "filters": 192, "padding": "same", "kernel_regularizer": null, "bias_constraint": null, "dilation_rate": [1, 1], "kernel_size": [1, 1]}}, {"inbound_nodes": [[["batch_normalization_81", 0, 0, {}]]], "class_name": "Conv2D", "name": "conv2d_82", "config": {"kernel_initializer": {"class_name": "VarianceScaling", "config": {"mode": "fan_avg", "scale": 1.0, "seed": null, "distribution": "uniform"}}, "activity_regularizer": null, "data_format": "channels_last", "bias_initializer": {"class_name": "Zeros", "config": {}}, "activation": "relu", "strides": [1, 1], "bias_regularizer": null, "kernel_constraint": null, "trainable": true, "use_bias": true, "name": "conv2d_82", "filters": 192, "padding": "same", "kernel_regularizer": null, "bias_constraint": null, "dilation_rate": [1, 1], "kernel_size": [3, 3]}}, {"inbound_nodes": [[["conv2d_78", 0, 0, {}]]], "class_name": "BatchNormalization", "name": "batch_normalization_78", "config": {"beta_initializer": {"class_name": "Zeros", "config": {}}, "gamma_regularizer": null, "epsilon": 0.001, "gamma_constraint": null, "beta_constraint": null, "momentum": 0.99, "trainable": true, "scale": true, "axis": 3, "name": "batch_normalization_78", "moving_variance_initializer": {"class_name": "Ones", "config": {}}, "moving_mean_initializer": {"class_name": "Zeros", "config": {}}, "center": true, "gamma_initializer": {"class_name": "Ones", "config": {}}, "beta_regularizer": null}}, {"inbound_nodes": [[["conv2d_82", 0, 0, {}]]], "class_name": "BatchNormalization", "name": "batch_normalization_82", "config": {"beta_initializer": {"class_name": "Zeros", "config": {}}, "gamma_regularizer": null, "epsilon": 0.001, "gamma_constraint": null, "beta_constraint": null, "momentum": 0.99, "trainable": true, "scale": true, "axis": 3, "name": "batch_normalization_82", "moving_variance_initializer": {"class_name": "Ones", "config": {}}, "moving_mean_initializer": {"class_name": "Zeros", "config": {}}, "center": true, "gamma_initializer": {"class_name": "Ones", "config": {}}, "beta_regularizer": null}}, {"inbound_nodes": [[["batch_normalization_78", 0, 0, {}]]], "class_name": "Conv2D", "name": "conv2d_79", "config": {"kernel_initializer": {"class_name": "VarianceScaling", "config": {"mode": "fan_avg", "scale": 1.0, "seed": null, "distribution": "uniform"}}, "activity_regularizer": null, "data_format": "channels_last", "bias_initializer": {"class_name": "Zeros", "config": {}}, "activation": "relu", "strides": [1, 1], "bias_regularizer": null, "kernel_constraint": null, "trainable": true, "use_bias": true, "name": "conv2d_79", "filters": 192, "padding": "same", "kernel_regularizer": null, "bias_constraint": null, "dilation_rate": [1, 1], "kernel_size": [1, 3]}}, {"inbound_nodes": [[["batch_normalization_78", 0, 0, {}]]], "class_name": "Conv2D", "name": "conv2d_80", "config": {"kernel_initializer": {"class_name": "VarianceScaling", "config": {"mode": "fan_avg", "scale": 1.0, "seed": null, "distribution": "uniform"}}, "activity_regularizer": null, "data_format": "channels_last", "bias_initializer": {"class_name": "Zeros", "config": {}}, "activation": "relu", "strides": [1, 1], "bias_regularizer": null, "kernel_constraint": null, "trainable": true, "use_bias": true, "name": "conv2d_80", "filters": 192, "padding": "same", "kernel_regularizer": null, "bias_constraint": null, "dilation_rate": [1, 1], "kernel_size": [3, 1]}}, {"inbound_nodes": [[["batch_normalization_82", 0, 0, {}]]], "class_name": "Conv2D", "name": "conv2d_83", "config": {"kernel_initializer": {"class_name": "VarianceScaling", "config": {"mode": "fan_avg", "scale": 1.0, "seed": null, "distribution": "uniform"}}, "activity_regularizer": null, "data_format": "channels_last", "bias_initializer": {"class_name": "Zeros", "config": {}}, "activation": "relu", "strides": [1, 1], "bias_regularizer": null, "kernel_constraint": null, "trainable": true, "use_bias": true, "name": "conv2d_83", "filters": 192, "padding": "same", "kernel_regularizer": null, "bias_constraint": null, "dilation_rate": [1, 1], "kernel_size": [1, 3]}}, {"inbound_nodes": [[["batch_normalization_82", 0, 0, {}]]], "class_name": "Conv2D", "name": "conv2d_84", "config": {"kernel_initializer": {"class_name": "VarianceScaling", "config": {"mode": "fan_avg", "scale": 1.0, "seed": null, "distribution": "uniform"}}, "activity_regularizer": null, "data_format": "channels_last", "bias_initializer": {"class_name": "Zeros", "config": {}}, "activation": "relu", "strides": [1, 1], "bias_regularizer": null, "kernel_constraint": null, "trainable": true, "use_bias": true, "name": "conv2d_84", "filters": 192, "padding": "same", "kernel_regularizer": null, "bias_constraint": null, "dilation_rate": [1, 1], "kernel_size": [3, 1]}}, {"inbound_nodes": [[["mixed8", 0, 0, {}]]], "class_name": "AveragePooling2D", "name": "average_pooling2d_9", "config": {"trainable": true, "data_format": "channels_last", "name": "average_pooling2d_9", "strides": [1, 1], "padding": "same", "pool_size": [3, 3]}}, {"inbound_nodes": [[["mixed8", 0, 0, {}]]], "class_name": "Conv2D", "name": "conv2d_77", "config": {"kernel_initializer": {"class_name": "VarianceScaling", "config": {"mode": "fan_avg", "scale": 1.0, "seed": null, "distribution": "uniform"}}, "activity_regularizer": null, "data_format": "channels_last", "bias_initializer": {"class_name": "Zeros", "config": {}}, "activation": "relu", "strides": [1, 1], "bias_regularizer": null, "kernel_constraint": null, "trainable": true, "use_bias": true, "name": "conv2d_77", "filters": 160, "padding": "same", "kernel_regularizer": null, "bias_constraint": null, "dilation_rate": [1, 1], "kernel_size": [1, 1]}}, {"inbound_nodes": [[["conv2d_79", 0, 0, {}]]], "class_name": "BatchNormalization", "name": "batch_normalization_79", "config": {"beta_initializer": {"class_name": "Zeros", "config": {}}, "gamma_regularizer": null, "epsilon": 0.001, "gamma_constraint": null, "beta_constraint": null, "momentum": 0.99, "trainable": true, "scale": true, "axis": 3, "name": "batch_normalization_79", "moving_variance_initializer": {"class_name": "Ones", "config": {}}, "moving_mean_initializer": {"class_name": "Zeros", "config": {}}, "center": true, "gamma_initializer": {"class_name": "Ones", "config": {}}, "beta_regularizer": null}}, {"inbound_nodes": [[["conv2d_80", 0, 0, {}]]], "class_name": "BatchNormalization", "name": "batch_normalization_80", "config": {"beta_initializer": {"class_name": "Zeros", "config": {}}, "gamma_regularizer": null, "epsilon": 0.001, "gamma_constraint": null, "beta_constraint": null, "momentum": 0.99, "trainable": true, "scale": true, "axis": 3, "name": "batch_normalization_80", "moving_variance_initializer": {"class_name": "Ones", "config": {}}, "moving_mean_initializer": {"class_name": "Zeros", "config": {}}, "center": true, "gamma_initializer": {"class_name": "Ones", "config": {}}, "beta_regularizer": null}}, {"inbound_nodes": [[["conv2d_83", 0, 0, {}]]], "class_name": "BatchNormalization", "name": "batch_normalization_83", "config": {"beta_initializer": {"class_name": "Zeros", "config": {}}, "gamma_regularizer": null, "epsilon": 0.001, "gamma_constraint": null, "beta_constraint": null, "momentum": 0.99, "trainable": true, "scale": true, "axis": 3, "name": "batch_normalization_83", "moving_variance_initializer": {"class_name": "Ones", "config": {}}, "moving_mean_initializer": {"class_name": "Zeros", "config": {}}, "center": true, "gamma_initializer": {"class_name": "Ones", "config": {}}, "beta_regularizer": null}}, {"inbound_nodes": [[["conv2d_84", 0, 0, {}]]], "class_name": "BatchNormalization", "name": "batch_normalization_84", "config": {"beta_initializer": {"class_name": "Zeros", "config": {}}, "gamma_regularizer": null, "epsilon": 0.001, "gamma_constraint": null, "beta_constraint": null, "momentum": 0.99, "trainable": true, "scale": true, "axis": 3, "name": "batch_normalization_84", "moving_variance_initializer": {"class_name": "Ones", "config": {}}, "moving_mean_initializer": {"class_name": "Zeros", "config": {}}, "center": true, "gamma_initializer": {"class_name": "Ones", "config": {}}, "beta_regularizer": null}}, {"inbound_nodes": [[["average_pooling2d_9", 0, 0, {}]]], "class_name": "Conv2D", "name": "conv2d_85", "config": {"kernel_initializer": {"class_name": "VarianceScaling", "config": {"mode": "fan_avg", "scale": 1.0, "seed": null, "distribution": "uniform"}}, "activity_regularizer": null, "data_format": "channels_last", "bias_initializer": {"class_name": "Zeros", "config": {}}, "activation": "relu", "strides": [1, 1], "bias_regularizer": null, "kernel_constraint": null, "trainable": true, "use_bias": true, "name": "conv2d_85", "filters": 96, "padding": "same", "kernel_regularizer": null, "bias_constraint": null, "dilation_rate": [1, 1], "kernel_size": [1, 1]}}, {"inbound_nodes": [[["conv2d_77", 0, 0, {}]]], "class_name": "BatchNormalization", "name": "batch_normalization_77", "config": {"beta_initializer": {"class_name": "Zeros", "config": {}}, "gamma_regularizer": null, "epsilon": 0.001, "gamma_constraint": null, "beta_constraint": null, "momentum": 0.99, "trainable": true, "scale": true, "axis": 3, "name": "batch_normalization_77", "moving_variance_initializer": {"class_name": "Ones", "config": {}}, "moving_mean_initializer": {"class_name": "Zeros", "config": {}}, "center": true, "gamma_initializer": {"class_name": "Ones", "config": {}}, "beta_regularizer": null}}, {"inbound_nodes": [[["batch_normalization_79", 0, 0, {}], ["batch_normalization_80", 0, 0, {}]]], "class_name": "Concatenate", "name": "mixed9_0", "config": {"trainable": true, "axis": -1, "name": "mixed9_0"}}, {"inbound_nodes": [[["batch_normalization_83", 0, 0, {}], ["batch_normalization_84", 0, 0, {}]]], "class_name": "Concatenate", "name": "concatenate_1", "config": {"trainable": true, "axis": -1, "name": "concatenate_1"}}, {"inbound_nodes": [[["conv2d_85", 0, 0, {}]]], "class_name": "BatchNormalization", "name": "batch_normalization_85", "config": {"beta_initializer": {"class_name": "Zeros", "config": {}}, "gamma_regularizer": null, "epsilon": 0.001, "gamma_constraint": null, "beta_constraint": null, "momentum": 0.99, "trainable": true, "scale": true, "axis": 3, "name": "batch_normalization_85", "moving_variance_initializer": {"class_name": "Ones", "config": {}}, "moving_mean_initializer": {"class_name": "Zeros", "config": {}}, "center": true, "gamma_initializer": {"class_name": "Ones", "config": {}}, "beta_regularizer": null}}, {"inbound_nodes": [[["batch_normalization_77", 0, 0, {}], ["mixed9_0", 0, 0, {}], ["concatenate_1", 0, 0, {}], ["batch_normalization_85", 0, 0, {}]]], "class_name": "Concatenate", "name": "mixed9", "config": {"trainable": true, "axis": -1, "name": "mixed9"}}, {"inbound_nodes": [[["mixed9", 0, 0, {}]]], "class_name": "Conv2D", "name": "conv2d_90", "config": {"kernel_initializer": {"class_name": "VarianceScaling", "config": {"mode": "fan_avg", "scale": 1.0, "seed": null, "distribution": "uniform"}}, "activity_regularizer": null, "data_format": "channels_last", "bias_initializer": {"class_name": "Zeros", "config": {}}, "activation": "relu", "strides": [1, 1], "bias_regularizer": null, "kernel_constraint": null, "trainable": true, "use_bias": true, "name": "conv2d_90", "filters": 224, "padding": "same", "kernel_regularizer": null, "bias_constraint": null, "dilation_rate": [1, 1], "kernel_size": [1, 1]}}, {"inbound_nodes": [[["conv2d_90", 0, 0, {}]]], "class_name": "BatchNormalization", "name": "batch_normalization_90", "config": {"beta_initializer": {"class_name": "Zeros", "config": {}}, "gamma_regularizer": null, "epsilon": 0.001, "gamma_constraint": null, "beta_constraint": null, "momentum": 0.99, "trainable": true, "scale": true, "axis": 3, "name": "batch_normalization_90", "moving_variance_initializer": {"class_name": "Ones", "config": {}}, "moving_mean_initializer": {"class_name": "Zeros", "config": {}}, "center": true, "gamma_initializer": {"class_name": "Ones", "config": {}}, "beta_regularizer": null}}, {"inbound_nodes": [[["mixed9", 0, 0, {}]]], "class_name": "Conv2D", "name": "conv2d_87", "config": {"kernel_initializer": {"class_name": "VarianceScaling", "config": {"mode": "fan_avg", "scale": 1.0, "seed": null, "distribution": "uniform"}}, "activity_regularizer": null, "data_format": "channels_last", "bias_initializer": {"class_name": "Zeros", "config": {}}, "activation": "relu", "strides": [1, 1], "bias_regularizer": null, "kernel_constraint": null, "trainable": true, "use_bias": true, "name": "conv2d_87", "filters": 192, "padding": "same", "kernel_regularizer": null, "bias_constraint": null, "dilation_rate": [1, 1], "kernel_size": [1, 1]}}, {"inbound_nodes": [[["batch_normalization_90", 0, 0, {}]]], "class_name": "Conv2D", "name": "conv2d_91", "config": {"kernel_initializer": {"class_name": "VarianceScaling", "config": {"mode": "fan_avg", "scale": 1.0, "seed": null, "distribution": "uniform"}}, "activity_regularizer": null, "data_format": "channels_last", "bias_initializer": {"class_name": "Zeros", "config": {}}, "activation": "relu", "strides": [1, 1], "bias_regularizer": null, "kernel_constraint": null, "trainable": true, "use_bias": true, "name": "conv2d_91", "filters": 192, "padding": "same", "kernel_regularizer": null, "bias_constraint": null, "dilation_rate": [1, 1], "kernel_size": [3, 3]}}, {"inbound_nodes": [[["conv2d_87", 0, 0, {}]]], "class_name": "BatchNormalization", "name": "batch_normalization_87", "config": {"beta_initializer": {"class_name": "Zeros", "config": {}}, "gamma_regularizer": null, "epsilon": 0.001, "gamma_constraint": null, "beta_constraint": null, "momentum": 0.99, "trainable": true, "scale": true, "axis": 3, "name": "batch_normalization_87", "moving_variance_initializer": {"class_name": "Ones", "config": {}}, "moving_mean_initializer": {"class_name": "Zeros", "config": {}}, "center": true, "gamma_initializer": {"class_name": "Ones", "config": {}}, "beta_regularizer": null}}, {"inbound_nodes": [[["conv2d_91", 0, 0, {}]]], "class_name": "BatchNormalization", "name": "batch_normalization_91", "config": {"beta_initializer": {"class_name": "Zeros", "config": {}}, "gamma_regularizer": null, "epsilon": 0.001, "gamma_constraint": null, "beta_constraint": null, "momentum": 0.99, "trainable": true, "scale": true, "axis": 3, "name": "batch_normalization_91", "moving_variance_initializer": {"class_name": "Ones", "config": {}}, "moving_mean_initializer": {"class_name": "Zeros", "config": {}}, "center": true, "gamma_initializer": {"class_name": "Ones", "config": {}}, "beta_regularizer": null}}, {"inbound_nodes": [[["batch_normalization_87", 0, 0, {}]]], "class_name": "Conv2D", "name": "conv2d_88", "config": {"kernel_initializer": {"class_name": "VarianceScaling", "config": {"mode": "fan_avg", "scale": 1.0, "seed": null, "distribution": "uniform"}}, "activity_regularizer": null, "data_format": "channels_last", "bias_initializer": {"class_name": "Zeros", "config": {}}, "activation": "relu", "strides": [1, 1], "bias_regularizer": null, "kernel_constraint": null, "trainable": true, "use_bias": true, "name": "conv2d_88", "filters": 192, "padding": "same", "kernel_regularizer": null, "bias_constraint": null, "dilation_rate": [1, 1], "kernel_size": [1, 3]}}, {"inbound_nodes": [[["batch_normalization_87", 0, 0, {}]]], "class_name": "Conv2D", "name": "conv2d_89", "config": {"kernel_initializer": {"class_name": "VarianceScaling", "config": {"mode": "fan_avg", "scale": 1.0, "seed": null, "distribution": "uniform"}}, "activity_regularizer": null, "data_format": "channels_last", "bias_initializer": {"class_name": "Zeros", "config": {}}, "activation": "relu", "strides": [1, 1], "bias_regularizer": null, "kernel_constraint": null, "trainable": true, "use_bias": true, "name": "conv2d_89", "filters": 192, "padding": "same", "kernel_regularizer": null, "bias_constraint": null, "dilation_rate": [1, 1], "kernel_size": [3, 1]}}, {"inbound_nodes": [[["batch_normalization_91", 0, 0, {}]]], "class_name": "Conv2D", "name": "conv2d_92", "config": {"kernel_initializer": {"class_name": "VarianceScaling", "config": {"mode": "fan_avg", "scale": 1.0, "seed": null, "distribution": "uniform"}}, "activity_regularizer": null, "data_format": "channels_last", "bias_initializer": {"class_name": "Zeros", "config": {}}, "activation": "relu", "strides": [1, 1], "bias_regularizer": null, "kernel_constraint": null, "trainable": true, "use_bias": true, "name": "conv2d_92", "filters": 192, "padding": "same", "kernel_regularizer": null, "bias_constraint": null, "dilation_rate": [1, 1], "kernel_size": [1, 3]}}, {"inbound_nodes": [[["batch_normalization_91", 0, 0, {}]]], "class_name": "Conv2D", "name": "conv2d_93", "config": {"kernel_initializer": {"class_name": "VarianceScaling", "config": {"mode": "fan_avg", "scale": 1.0, "seed": null, "distribution": "uniform"}}, "activity_regularizer": null, "data_format": "channels_last", "bias_initializer": {"class_name": "Zeros", "config": {}}, "activation": "relu", "strides": [1, 1], "bias_regularizer": null, "kernel_constraint": null, "trainable": true, "use_bias": true, "name": "conv2d_93", "filters": 192, "padding": "same", "kernel_regularizer": null, "bias_constraint": null, "dilation_rate": [1, 1], "kernel_size": [3, 1]}}, {"inbound_nodes": [[["mixed9", 0, 0, {}]]], "class_name": "AveragePooling2D", "name": "average_pooling2d_10", "config": {"trainable": true, "data_format": "channels_last", "name": "average_pooling2d_10", "strides": [1, 1], "padding": "same", "pool_size": [3, 3]}}, {"inbound_nodes": [[["mixed9", 0, 0, {}]]], "class_name": "Conv2D", "name": "conv2d_86", "config": {"kernel_initializer": {"class_name": "VarianceScaling", "config": {"mode": "fan_avg", "scale": 1.0, "seed": null, "distribution": "uniform"}}, "activity_regularizer": null, "data_format": "channels_last", "bias_initializer": {"class_name": "Zeros", "config": {}}, "activation": "relu", "strides": [1, 1], "bias_regularizer": null, "kernel_constraint": null, "trainable": true, "use_bias": true, "name": "conv2d_86", "filters": 160, "padding": "same", "kernel_regularizer": null, "bias_constraint": null, "dilation_rate": [1, 1], "kernel_size": [1, 1]}}, {"inbound_nodes": [[["conv2d_88", 0, 0, {}]]], "class_name": "BatchNormalization", "name": "batch_normalization_88", "config": {"beta_initializer": {"class_name": "Zeros", "config": {}}, "gamma_regularizer": null, "epsilon": 0.001, "gamma_constraint": null, "beta_constraint": null, "momentum": 0.99, "trainable": true, "scale": true, "axis": 3, "name": "batch_normalization_88", "moving_variance_initializer": {"class_name": "Ones", "config": {}}, "moving_mean_initializer": {"class_name": "Zeros", "config": {}}, "center": true, "gamma_initializer": {"class_name": "Ones", "config": {}}, "beta_regularizer": null}}, {"inbound_nodes": [[["conv2d_89", 0, 0, {}]]], "class_name": "BatchNormalization", "name": "batch_normalization_89", "config": {"beta_initializer": {"class_name": "Zeros", "config": {}}, "gamma_regularizer": null, "epsilon": 0.001, "gamma_constraint": null, "beta_constraint": null, "momentum": 0.99, "trainable": true, "scale": true, "axis": 3, "name": "batch_normalization_89", "moving_variance_initializer": {"class_name": "Ones", "config": {}}, "moving_mean_initializer": {"class_name": "Zeros", "config": {}}, "center": true, "gamma_initializer": {"class_name": "Ones", "config": {}}, "beta_regularizer": null}}, {"inbound_nodes": [[["conv2d_92", 0, 0, {}]]], "class_name": "BatchNormalization", "name": "batch_normalization_92", "config": {"beta_initializer": {"class_name": "Zeros", "config": {}}, "gamma_regularizer": null, "epsilon": 0.001, "gamma_constraint": null, "beta_constraint": null, "momentum": 0.99, "trainable": true, "scale": true, "axis": 3, "name": "batch_normalization_92", "moving_variance_initializer": {"class_name": "Ones", "config": {}}, "moving_mean_initializer": {"class_name": "Zeros", "config": {}}, "center": true, "gamma_initializer": {"class_name": "Ones", "config": {}}, "beta_regularizer": null}}, {"inbound_nodes": [[["conv2d_93", 0, 0, {}]]], "class_name": "BatchNormalization", "name": "batch_normalization_93", "config": {"beta_initializer": {"class_name": "Zeros", "config": {}}, "gamma_regularizer": null, "epsilon": 0.001, "gamma_constraint": null, "beta_constraint": null, "momentum": 0.99, "trainable": true, "scale": true, "axis": 3, "name": "batch_normalization_93", "moving_variance_initializer": {"class_name": "Ones", "config": {}}, "moving_mean_initializer": {"class_name": "Zeros", "config": {}}, "center": true, "gamma_initializer": {"class_name": "Ones", "config": {}}, "beta_regularizer": null}}, {"inbound_nodes": [[["average_pooling2d_10", 0, 0, {}]]], "class_name": "Conv2D", "name": "conv2d_94", "config": {"kernel_initializer": {"class_name": "VarianceScaling", "config": {"mode": "fan_avg", "scale": 1.0, "seed": null, "distribution": "uniform"}}, "activity_regularizer": null, "data_format": "channels_last", "bias_initializer": {"class_name": "Zeros", "config": {}}, "activation": "relu", "strides": [1, 1], "bias_regularizer": null, "kernel_constraint": null, "trainable": true, "use_bias": true, "name": "conv2d_94", "filters": 96, "padding": "same", "kernel_regularizer": null, "bias_constraint": null, "dilation_rate": [1, 1], "kernel_size": [1, 1]}}, {"inbound_nodes": [[["conv2d_86", 0, 0, {}]]], "class_name": "BatchNormalization", "name": "batch_normalization_86", "config": {"beta_initializer": {"class_name": "Zeros", "config": {}}, "gamma_regularizer": null, "epsilon": 0.001, "gamma_constraint": null, "beta_constraint": null, "momentum": 0.99, "trainable": true, "scale": true, "axis": 3, "name": "batch_normalization_86", "moving_variance_initializer": {"class_name": "Ones", "config": {}}, "moving_mean_initializer": {"class_name": "Zeros", "config": {}}, "center": true, "gamma_initializer": {"class_name": "Ones", "config": {}}, "beta_regularizer": null}}, {"inbound_nodes": [[["batch_normalization_88", 0, 0, {}], ["batch_normalization_89", 0, 0, {}]]], "class_name": "Concatenate", "name": "mixed9_1", "config": {"trainable": true, "axis": -1, "name": "mixed9_1"}}, {"inbound_nodes": [[["batch_normalization_92", 0, 0, {}], ["batch_normalization_93", 0, 0, {}]]], "class_name": "Concatenate", "name": "concatenate_2", "config": {"trainable": true, "axis": -1, "name": "concatenate_2"}}, {"inbound_nodes": [[["conv2d_94", 0, 0, {}]]], "class_name": "BatchNormalization", "name": "batch_normalization_94", "config": {"beta_initializer": {"class_name": "Zeros", "config": {}}, "gamma_regularizer": null, "epsilon": 0.001, "gamma_constraint": null, "beta_constraint": null, "momentum": 0.99, "trainable": true, "scale": true, "axis": 3, "name": "batch_normalization_94", "moving_variance_initializer": {"class_name": "Ones", "config": {}}, "moving_mean_initializer": {"class_name": "Zeros", "config": {}}, "center": true, "gamma_initializer": {"class_name": "Ones", "config": {}}, "beta_regularizer": null}}, {"inbound_nodes": [[["batch_normalization_86", 0, 0, {}], ["mixed9_1", 0, 0, {}], ["concatenate_2", 0, 0, {}], ["batch_normalization_94", 0, 0, {}]]], "class_name": "Concatenate", "name": "mixed10", "config": {"trainable": true, "axis": -1, "name": "mixed10"}}, {"inbound_nodes": [[["mixed10", 0, 0, {}]]], "class_name": "MaxPooling2D", "name": "end_max_pool", "config": {"trainable": true, "data_format": "channels_last", "name": "end_max_pool", "strides": [2, 2], "padding": "valid", "pool_size": [2, 2]}}, {"inbound_nodes": [[["end_max_pool", 0, 0, {}]]], "class_name": "Flatten", "name": "flatten", "config": {"trainable": true, "name": "flatten"}}, {"inbound_nodes": [[["flatten", 0, 0, {}]]], "class_name": "Dense", "name": "output_layer", "config": {"kernel_initializer": {"class_name": "VarianceScaling", "config": {"mode": "fan_avg", "scale": 1.0, "seed": null, "distribution": "uniform"}}, "activity_regularizer": null, "activation": "sigmoid", "units": 1, "bias_regularizer": null, "kernel_constraint": null, "trainable": true, "use_bias": true, "name": "output_layer", "bias_initializer": {"class_name": "Zeros", "config": {}}, "kernel_regularizer": null, "bias_constraint": null}}], "name": "model_1", "output_layers": [["output_layer", 0, 0]]}, "class_name": "Model"}